mode_weights/agent5_actor_target.pth (torch_old, 93021 bytes, 18 tensors)

bn1.weight f4 [33]
0.50451523 0.58289266 0.30559292 0.015239681 0.003976938 0.040091004 0.053399004 0.1970636
0.09463462 0.16320011 0.1685637 0.16233507 0.0913625 0.5337388 0.4563951 0.66771543
0.05214705 0.07123053 0.0022539143 0.03557895 0.27241722 0.30150667 0.09962868 0.6716274
0.3017992 0.45081422 1.0457195 0.03616482 0.5216157 0.37341738 0.30510002 0.9320004
0.3287714
00000000: e927 013f 7438 153f ad76 9c3e dbaf 793c
00000010: f950 823b 7736 243d eab8 5a3d 0acb 493e
00000020: cccf c13d ee1d 273e f69b 2c3e 2a3b 263e
00000030: 431c bb3d 1ba3 083f 9eac e93e 66ef 2a3f
00000040: 2598 553d 50e1 913d 68b6 133b 3cbb 113d
00000050: 457a 8b3e 155f 9a3e 1f0a cc3d c6ef 2b3f
00000060: 6d85 9a3e 1fd1 e63e 23da 853f 9021 143d
00000070: 9b88 053f 9030 bf3e 1236 9c3e 9497 6e3f
00000080: ba54 a83e

bn1.bias f4 [33]
-0.00013834122 -0.16246486 -0.023931311 0.05811756 -0.11132992 0.051346358 0.10385924 -0.17832595
0.04986665 -0.0010643242 -0.11021155 -0.16863409 0.011064029 -0.035342276 -0.061891608 0.011162548
-0.033286143 0.053341206 0.16225708 0.06943442 -0.025459269 0.043273106 -0.024059432 -0.031355467
-0.06053321 -0.0072020325 0.0070948694 0.13072766 -0.061602246 0.2404794 -0.1638755 -0.16282187
0.03285954
00000000: b00f 11b9 305d 26be 990b c4bc ae0c 6e3d
00000010: f100 e4bd 8f50 523d 27b4 d43d 149b 36be
00000020: f940 4c3d cb80 8bba 98b6 e1bd 6aae 2cbe
00000030: e745 353c 10c3 10bd 0e82 7dbd 1fe3 363c
00000040: 0d57 08bd 4f7c 5a3d b826 263e a233 8e3d
00000050: f58f d0bc 243f 313d 4918 c5bc 976e 00bd
00000060: acf1 77bd 07ff ebbb 147c e83b 79dd 053e
00000070: a352 7cbd 3b40 763e fbce 27be c7ba 26be
00000080: ba97 063d

bn1.running_mean f4 [33]
0.6664196 -2.4556503 -0.43479168 0.8450468 0.07718996 0.015381267 -0.06250275 -0.00014438556
0.0022391668 0.0059033204 0.014391805 0.0045127384 -0.031246077 0.41685337 -2.5546658 -0.21739934
0.0036755197 -0.0014345037 -0.014817666 -0.049643725 0.18740503 0.0049489904 0.04525888 -0.012760352
0.11823685 0.004999409 -0.0665886 -0.99999976 -0.07656582 0.0 0.99999976 0.0
0.00075270707
00000000: 7a9a 2a3f 6029 1dc0 049d debe fd54 583f
00000010: c515 9e3d b601 7c3c 7101 80bd 3466 17b9
00000020: fcbe 123b a470 c13b 9bcb 6b3c 98df 933b
00000030: c6f7 ffbc ce6d d53e a57f 23c0 ef9d 5ebe
00000040: fde0 703b f505 bcba ccc5 72bc 3857 4bbd
00000050: 1be7 3f3e 242b a23b 6061 393d cc10 51bc
00000060: 2926 f23d 15d2 a33b 9b5f 88bd fcff 7fbf
00000070: 8ace 9cbd 0000 0000 fcff 7f3f 0000 0000
00000080: 5151 453a

bn1.running_var f4 [33]
4.1926355 0.5589067 4.6471643 0.06251685 0.070977114 0.031147182 0.11100611 0.43144757
0.06766976 0.10753012 2.1302857 1.2924453 2.7535977 19.868847 1.5010331 21.335308
0.10941362 0.2732148 0.09863232 0.51583135 2.453682 0.7361715 0.968044 7.7156916
3.850525 8.419796 32.331364 6e-45 31.658308 6e-45 6e-45 6e-45
0.32846943
00000000: 122a 8640 8214 0f3f 92b5 9440 d608 803d
00000010: 735c 913d 6028 ff3c 2c57 e33d b2e6 dc3e
00000020: 7196 8a3d c038 dc3d 9a56 0840 d96e a53f
00000030: f23a 3040 66f3 9e41 da21 c03f b6ae aa41
00000040: 3f14 e03d cfe2 8b3e beff c93d 860d 043f
00000050: 2009 1d40 bc75 3c3f bbd1 773f f2e6 f640
00000060: 006f 7640 7cb7 0641 5153 0142 0400 0000
00000070: 3744 fd41 0400 0000 0400 0000 0400 0000
00000080: 252d a83e

fc1.weight f4 [128, 33]
-0.13628393 -0.026015727 0.08061661 -0.21339302 -0.05767262 -0.03124224 -0.030628376 0.008292413
0.10460043 -0.04307038 -0.060766272 0.105639465 0.0457962 -0.090179645 -0.006974845 -0.1233707
-0.008450583 0.024432844 -0.022543315 0.1736925 -0.07561023 0.06516177 0.042158965 -0.0662453
0.017583221 -0.028767798 0.01302332 -0.06494092 0.029688776 -0.12086778 0.0013094114 0.08929307
0.026441224 0.03988466 0.07878301 -0.012975045 -0.07041658 -0.0022409838 0.021881783 -0.010387907
-0.009747982 -0.029763013 0.019993514 -0.04959349 0.040483326 -0.07834817 0.13406608 0.047311515
-0.05366337 -8.416807e-05 -0.0048154956 -0.016916618 0.062011532 0.047289982 0.00802874 0.057824798
0.060272545 -0.036445804 -0.05005735 -0.14933647 -0.09486232 -0.13504422 -0.087053664 0.17430714
0.061972614 0.023674956 0.06660827 -0.035697345 -0.14825895 -0.0469341 -0.03037788 -0.021666741
0.03833841 -0.029433487 -0.025718521 0.03868522 -0.018995142 -0.04707906 -0.048791938 -0.0719081
-0.022765575 -0.0011199346 -0.04727005 0.057178006 -0.008368904 0.002856975 -0.032656703 -0.059610132
-0.00042725142 -0.13206169 0.029673053 0.014195331 -0.047636475 0.12724248 0.12781937 0.008611237
-0.0032566371 0.047432642 -0.0018512042 -0.058435787 0.03507158 -0.005920889 -0.019780543 -0.035814095
0.053700395 0.021965602 -0.025817854 0.13552405 -0.031453066 -0.06648298 -0.07927713 0.012972019
-0.17444442 -0.03254773 0.07634323 0.003119437 -0.02074315 -0.06336128 0.042436957 -0.0137026
0.012074982 0.029726755 -0.023476122 0.061510056 0.010098128 -0.07311914 0.04687278 -0.20508131
0.025995357 0.0319682 0.056145594 -0.2282849 0.0345381 -0.066965304 -0.08465006 0.079483785
-0.04884967 -0.012239384 7.1285285e-05 -0.0028566464 0.017752409 0.08788078 -0.013676156 0.028675327
0.11541681 0.03346951 -0.056157123 -0.060435187 -0.07836928 -0.019941559 0.043980714 -0.0043321634
0.0065219123 -0.15437762 -0.04285781 0.10322965 -0.1094102 0.0558961 -0.0087899 0.07920862
-0.22177473 0.042861223 0.0057336297 0.0011684472 0.13582501 -0.0440326 0.030490458 0.1545719
-0.057463232 0.018569186 -0.055144925 0.02706122 0.037519015 -0.027290037 0.010251176 -0.00024338091
0.004170781 0.0453037 -0.049116813 -0.059753496 -0.054217722 0.01634103 0.0027608199 -0.023351876
0.07730891 -0.017905887 0.0016443114 -0.03748977 -0.030120684 -0.05865537 0.03347038 0.059353124
-0.1615814 -0.18836232 -0.091696925 0.056383923 0.004703824 -0.21245793 0.020557866 0.032086316
-0.013391189 -0.030856254 -0.08949928 -0.0018320854 0.045402426 0.0035331887 -0.007354656 0.01659547
0.012308594 0.10531471 -0.0040429975 -0.035480145 -0.08565376 0.075773 -0.057101306 0.019256968
-0.06094781 -0.020395525 -0.11551892 -0.05511323 -0.02074529 0.032069046 -0.058886208 0.11508725
0.10234999 0.09088646 -0.107963644 0.08159939 0.058397617 -0.041975494 0.067867294 0.08897922
0.051725302 -0.13284433 -0.033596113 -0.023166597 0.03262165 -0.016566291 0.00014564508 0.046601675
0.007480193 0.01877187 0.122405306 -0.01705439 -0.049798004 -0.04742049 0.119143 -0.031163128
-0.018767161 0.03629015 -0.04954775 0.10403635 -0.03693487 0.01048364 -0.03111054 -0.13011721
00000000: 048e 0bbe ef1e d5bc 521a a53d b383 5abe
00000010: 203a 6cbd baef ffbc 5ce8 fabc e7dc 073c
00000020: c038 d63d 916a 30bd 0ee6 78bd 8159 d83d
00000030: cc94 3b3d 1bb0 b8bd 3e8d e4bb c7a9 fcbd
00000040: 5074 0abc 6327 c83c c2ac b8bc 72dc 313e
00000050: 89d9 9abd 8973 853d e1ae 2c3d 9eab 87bd
00000060: b00a 903c 72aa ebbc c35f 553c bfff 84bd
00000070: e035 f33c 8789 f7bd 8ea0 ab3a 49df b63d
00000080: 449b d83c 195e 233d fd58 a13d 4895 54bc
00000090: 9136 90bd 78dd 12bb 6d41 b33c 0a32 2abc
000000a0: 00b6 1fbc 90d1 f3bc 70c9 a33c 8b22 4bbd
000000b0: d8d1 253d 0175 a0bd 9e48 093e b8c9 413d
000000c0: 1fce 5bbd 6383 b0b8 4ecb 9dbb b894 8abc
000000d0: ceff 7d3d 24b3 413d fa8a 033c b2d9 6c3d
000000e0: 58e0 763d 3248 15bd f008 4dbd a9eb 18be
000000f0: 2d47 c2bd 0849 0abe 3149 b2bd 927d 323e
00000100: ffd6 7d3d fbf1 c13c eb69 883d 6137 12bd
00000110: 32d1 17be f93d 40bd 08db f8bc 737e b1bc
00000120: bd08 1d3d 7f1e f1bc a6af d2bc 6574 1e3d
00000130: b39b 9bbc f9d5 40bd 0eda 47bd 8e44 93bd
00000140: df7e babc c5ca 92ba 3d9e 41bd 7c33 6a3d
00000150: ba1d 09bc 163c 3b3b 09c3 05bd c129 74bd
00000160: b700 e0b9 2e3b 07be e714 f33c 8993 683c
00000170: 771e 43bd da4b 023e 15e3 023e 2516 0d3c
00000180: 4e6d 55bb bb48 423d 1ba4 f2ba 5d5a 6fbd
00000190: 38a7 0f3d 0404 c2bb ce0a a2bc cdb1 12bd
000001a0: f2f4 5b3d 35f1 b33c f77f d3bc d1c6 0a3e
000001b0: eed4 00bd 3b28 88bd 0c5c a2bd 9788 543c
000001c0: 8fa1 32be c550 05bd d759 9c3d 786f 4c3b
000001d0: 8aed a9bc 8fc3 81bd 60d2 2d3d df80 60bc
000001e0: 25d6 453c 8685 f33c ff50 c0bc f8f1 7b3d
000001f0: 9e72 253c 7dbf 95bd acfd 3f3d d600 52be
00000200: 37f4 d43c 16f1 023d ecf8 653d 84c3 69be
00000210: d377 0d3d 1b25 89bd 035d adbd 65c8 a23d
00000220: 9716 48bd b387 48bc ff7e 9538 9336 3bbb
00000230: 806d 913c d7fa b33d f511 60bc 85e8 ea3c
00000240: a65f ec3d 5317 093d 0305 66bd e38a 77bd
00000250: 1380 a0bd 7b5c a3bc 1f25 343d d2f4 8dbb
00000260: c4b5 d53b 2b15 1ebe ac8b 2fbd 116a d33d
00000270: 7412 e0bd 4ff3 643d 8303 10bc 2138 a23d
00000280: ea18 63be 408f 2f3d 2ce1 bb3b 9526 993a
00000290: b615 0b3e 875b 34bd 20c7 f93c 1948 1e3e
000002a0: 915e 6bbd 681e 983c a5df 61bd 7eaf dd3c
000002b0: 8aad 193d 5b8f dfbc 8cf4 273c 1134 7fb9
000002c0: 0cab 883b 5f90 393d b62e 49bd 15c0 74bd
000002d0: 6713 5ebd a0dd 853c dfee 343b 6f4c bfbc
000002e0: 2254 9e3d 5eaf 92bc ef85 d73a e08e 19bd
000002f0: a7bf f6bc 9d40 70bd 3d18 093d 431c 733d
00000300: 9875 25be 0de2 40be 99cb bbbd d4f2 663d
00000310: 8922 9a3b 928e 59be f868 a83c f16c 033d
00000320: b866 5bbc 41c6 fcbc 664b b7bd 9622 f0ba
00000330: e5f7 393d 128d 673b 53ff f0bb 39f3 873c
00000340: fca9 493c 3daf d73d 1f7b 84bb a153 11bd
00000350: 3d6b afbd e02e 9b3d 0fe3 69bd cac0 9d3c
00000360: 69a4 79bd 8414 a7bc 2f95 ecbd 69be 61bd
00000370: 07f2 a9bc d55a 033d aa32 71bd ddb2 eb3d
00000380: df9c d13d ae22 ba3d 0b1c ddbd 951d a73d
00000390: 5732 6f3d 7fee 2bbd 02fe 8a3d bd3a b63d
000003a0: e9dd 533d 5808 08be 149c 09bd e0c7 bdbc
000003b0: 479e 053d 08b6 87bc 4eb8 1839 66e1 3e3d
000003c0: 681c f53b 77c7 993c a2af fa3d a6b5 8bbc
000003d0: fef8 4bbd fd3b 42bd 3f01 f43d d149 ffbc
000003e0: 97bd 99bc fba4 143d 95f2 4abd 0311 d53d
000003f0: 0549 17bd 93c3 2b3c 88db febc 723d 05be

fc1.bias f4 [128]
-0.08146202 -0.035889477 0.09394305 -0.11238084 -0.08281265 -0.0058436384 0.08250282 -0.08798882
0.17530674 -0.19392547 -0.06675476 -0.014706414 -0.09668936 -0.06615914 0.113624044 -0.18836921
0.12887385 -0.13141058 -0.11235644 -0.16576965 -0.09255678 0.09462602 -0.071657054 -0.12672172
-0.09117838 -0.0008065631 -0.029856112 0.026766527 -0.047263578 0.0099814925 0.106283784 -0.19178885
0.049322214 0.0125233745 -0.029851032 -0.05526993 0.011682818 0.16799253 0.0816441 -0.18151644
-0.040101193 0.037936997 -0.075857304 0.050586183 -0.066591576 0.018282982 0.0016613086 0.0463022
-0.10126879 0.024462372 -0.08045016 0.29451802 -0.085374914 -0.03138241 0.2831477 -0.15304483
0.09172489 0.24875583 0.06431227 -0.034616068 0.09218898 -0.13637772 0.05189854 -0.12279145
-0.0066685225 0.1180077 -0.032506574 0.10340633 0.17069598 0.24333046 -0.07849523 0.06793682
-0.08989937 0.010993782 0.106848255 -0.17128932 -0.0057660625 0.09085853 -0.0026533855 -0.15344566
0.17343897 0.14713311 -0.17566592 0.107922785 0.25006083 0.10575486 -0.05467326 -0.13379304
-0.14191088 0.2725179 0.053082433 0.031111093 -0.13968827 0.10604267 0.024308067 -0.10984244
0.0908922 0.19204842 -0.09532477 0.00672889 0.095786095 -0.07534892 -0.108720995 -0.035923973
-0.20687872 0.19684972 -0.010604245 0.20670931 -0.019366957 0.040784065 0.11163395 -0.035652768
-0.03808404 -0.17269647 -0.0910656 0.15480465 -0.16282165 -0.12946576 -0.07085372 0.043166507
0.05861853 0.2098199 0.051090408 0.059901603 0.015540883 0.21230488 -0.0639477 -0.01203267
00000000: 8fd5 a6bd d800 13bd 3765 c03d ed27 e6bd
00000010: ae99 a9bd fe7b bfbb 3df7 a83d 7c33 b4bd
00000020: 9c83 333e 6694 46be b8b6 88bd 2cf3 70bc
00000030: 1205 c6bd 717e 87bd b9b3 e83d dce3 40be
00000040: 82f7 033e 7f90 06be 221b e6bd 85bf 29be
00000050: 698e bdbd 49cb c13d efc0 92bd 57c3 01be
00000060: bbbb babd 896f 53ba ce94 f4bc 7a45 db3c
00000070: 7497 41bd 6a89 233c 50ab d93d 4c64 44be
00000080: 1706 4a3d d72e 4d3c 278a f4bc b962 62bd
00000090: 4a69 3f3c 3c06 2c3e 0635 a73d 72df 39be
000000a0: 2641 24bd d363 1b3d 135b 9bbd 7533 4f3d
000000b0: 2a61 88bd 31c6 953c 44c0 d93a 60a7 3d3d
000000c0: 0366 cfbd 5065 c83c 0ec3 a4bd 11cb 963e
000000d0: 0bd9 aebd d88a 00bd bcf8 903e c9b7 1cbe
000000e0: 42da bb3d d9b9 7e3e 27b6 833d 94c9 0dbd
000000f0: 93cd bc3d 9aa6 0bbe 9093 543d 157a fbbd
00000100: 9f83 dabb 05ae f13d 9d25 05bd b3c6 d33d
00000110: edca 2e3e 9f2b 793e 1bc2 a0bd 7622 8b3d
00000120: 291d b8bd 441f 343c 42d3 da3d 7866 2fbe
00000130: 3df1 bcbb 0914 ba3d 6ce4 2dbb dc20 1dbe
00000140: fc99 313e 10aa 163e c4e1 33be 9f06 dd3d
00000150: f907 803e 0196 d83d 11f1 5fbd 0b01 09be
00000160: 1651 11be 7787 8b3e f76c 593d b1dc fe3c
00000170: 710a 0fbe e62c d93d b621 c73c 13f5 e0bd
00000180: b125 ba3d 57a8 443e a239 c3bd 057e dc3b
00000190: 802b c43d 8950 9abd 1da9 debd 0425 13bd
000001a0: 04d8 53be f992 493e 6dbd 2dbc 9bab 533e
000001b0: 74a7 9ebc 310d 273d 57a0 e43d a308 12bd
000001c0: 03fe 1bbd 58d7 30be 9a80 babd 1c85 1e3e
000001d0: b8ba 26be ac92 04be c11b 91bd 5dcf 303d
000001e0: fc19 703d 07db 563e 2d44 513d 625b 753d
000001f0: 309f 7e3c 7366 593e 03f7 82bd ad24 45bc

bn2.weight f4 [128]
0.15145773 0.22651698 0.3149272 0.5172146 0.13620144 0.5065484 0.48893562 0.29258192
0.61615705 0.80174726 0.3841681 0.323297 0.27441353 0.26846153 0.37967777 0.19629993
0.32744837 0.7466081 0.5585188 0.77382845 0.91398877 0.34525657 0.37378755 0.44664326
0.11125143 0.657249 0.39223585 0.21682793 0.32569647 0.317009 0.6362419 0.70390767
0.7586187 0.49825034 0.4470721 0.32875836 0.2601276 0.38958365 0.20493045 0.65667427
0.14473341 0.4133861 0.66242194 0.26080346 0.55948836 0.93081 0.8929041 0.62919325
0.4555696 0.7132605 0.42798322 0.2959263 0.49225575 0.45168364 0.67526144 0.70647174
0.5771652 0.48703495 0.45218268 0.63261485 0.48388544 0.20276818 0.5632989 0.34066805
0.34426126 0.6111841 0.47255722 0.62889844 0.23215805 0.62421787 0.7947789 0.5326354
0.6749303 0.2675502 0.65988237 0.60473907 0.7119975 0.61206675 0.47374108 0.55378073
0.79893005 0.677805 0.30049965 0.7709165 0.8369598 0.6226991 0.2590793 0.4298052
0.29388475 0.6597772 0.28620288 0.58633214 0.35452914 0.43049827 0.62996346 0.65794414
0.4320938 0.29894495 0.20614152 0.51168156 0.61473036 0.3835958 0.4786306 0.6928388
0.15139882 0.6645534 0.4630631 0.6540107 0.84193236 0.467171 0.4559977 0.42488396
0.6434709 0.78403133 0.411934 0.48951966 0.5762685 0.67676985 0.6802574 0.81119275
0.20746161 0.8147093 0.62198645 0.61954784 0.56540793 0.7303686 0.92034316 0.4983735
00000000: bc17 1b3e 11f4 673e 233e a13e 2d68 043f
00000010: 6478 0b3e 28ad 013f c555 fa3e 4ccd 953e
00000020: 78bc 1d3f 4f3f 4d3f aeb1 c43e 2f87 a53e
00000030: ee7f 8c3e ca73 893e 2065 c23e d902 493e
00000040: 50a7 a73e b521 3f3f 17fb 0e3f 9f19 463f
00000050: 2bfb 693f 78c5 b03e 1561 bf3e 6dae e43e
00000060: cad7 e33d 7841 283f 23d3 c83e 2408 5e3e
00000070: b0c1 a63e 014f a23e c0e0 223f 4b33 343f
00000080: d634 423f ab1a ff3e a2e6 e43e 0453 a83e
00000090: 722f 853e 8277 c73e 4ad9 513e ce1b 283f
000000a0: ff34 143e 58a7 d33e 7c94 293f 0888 853e
000000b0: a13a 0f3f 9049 6e3f 5d95 643f cf12 213f
000000c0: 6b40 e93e 3d98 363f 9e20 db3e a783 973e
000000d0: f208 fc3e 1443 e73e efdd 2c3f 55db 343f
000000e0: 19c1 133f a55c f93e 7d84 e73e 0cf3 213f
000000f0: d5bf f73e 76a2 4f3e 5b34 103f 0b6c ae3e
00000100: 0343 b03e 9076 1c3f 05f3 f13e 7dff 203f
00000110: d7ba 6d3e becc 1f3f a176 4b3f cb5a 083f
00000120: 3bc8 2c3f 57fc 883e 0dee 283f 2ed0 1a3f
00000130: 7845 363f 68b0 1c3f 318e f23e 93c4 0d3f
00000140: ae86 4c3f a184 2d3f 17db 993e c95a 453f
00000150: ff42 563f 3569 1f3f 0ba6 843e 6d0f dc3e
00000160: 1078 963e 29e7 283f 2f89 923e dd19 163f
00000170: d884 b53e 456a dc3e 4945 213f 076f 283f
00000180: 663b dd3e 500f 993e c316 533e 90fd 023f
00000190: f85e 1d3f ab66 c43e 120f f53e e25d 313f
000001a0: 4b08 1b3e 2c20 2a3f 9b16 ed3e 3f6d 273f
000001b0: e188 573f 0a31 ef3e 8878 e93e 648a d93e
000001c0: 82ba 243f 47b6 483f 03e9 d23e 52a2 fa3e
000001d0: 5586 133f ca40 2d3f 5925 2e3f 54aa 4f3f
000001e0: d170 543e ca90 503f 813a 1f3f b09a 1e3f
000001f0: 93be 103f 70f9 3a3f 9c9b 6b3f d02a ff3e

bn2.bias f4 [128]
-0.40277982 0.062206928 0.14261474 0.06463734 0.54798037 0.025715552 0.100880474 -0.115277156
-0.016628848 0.16801447 0.2270723 -0.1865066 0.2856963 0.2539273 0.43941653 0.38223207
0.20599581 0.07175665 -0.08889645 0.100547075 -0.0105804205 0.19540668 0.09827408 0.1345779
-0.106272615 -0.013562016 0.10602073 0.4293177 0.115537964 0.02158386 0.27135068 0.04161395
-0.19176944 -0.11266826 0.1360693 -0.17096205 0.29860124 0.24954754 0.47725555 0.26556334
0.62794447 0.05303713 -0.070058525 0.35584342 -0.25129503 0.1584939 -0.3207139 0.0478843
-0.24264361 0.04823122 0.06781265 0.084134005 0.12631236 -0.32515544 0.07500144 0.031185556
0.029780174 0.30542177 0.15850833 0.17079844 0.09744885 0.07232906 -0.07752839 0.18538253
0.388342 0.26469648 0.16536485 -0.020639485 0.33688968 0.09138584 0.23671035 0.11899752
-0.05085132 0.22266014 0.09939769 0.21575244 -0.16189532 0.113548286 -0.027320366 -0.026906107
0.0068119257 -0.23750505 -0.010597559 0.075519845 -0.08058455 0.1185286 0.12675643 0.20478237
-0.27667934 -0.10642074 0.2700092 0.16897754 0.14137174 0.302921 0.2971058 0.16859098
0.33335924 -0.056090567 0.12902606 0.008755794 0.13687086 0.09430406 0.19489418 -0.1340308
0.25476798 0.35634762 0.23090173 0.088328585 0.15210353 0.032000195 -0.077200405 0.11903769
-0.030281575 -0.1311656 0.02669028 0.057642654 0.12801756 0.19079287 0.19654477 0.027463045
0.5649693 0.077589914 -0.05844528 0.25502998 0.22496386 0.17316914 -0.13957241 0.1255868
00000000: 2839 cebe b1cc 7e3d 9909 123e 9560 843d
00000010: 7148 0c3f 6ca9 d23c 6c9a ce3d 6e16 ecbd
00000020: 3939 88bc fc0b 2c3e a485 683e 96fb 3ebe
00000030: c946 923e c202 823e 34fb e03e ecb3 c33e
00000040: 91f0 523e 27f5 923d 580f b6bd a0eb cd3d
00000050: 8059 2dbc b018 483e ec43 c93d cace 093e
00000060: 75a5 d9bd 3833 5ebc 6621 d93d 88cf db3e
00000070: 2b9f ec3d a3d0 b03c 7aee 8a3e 6473 2a3d
00000080: 355f 44be 9ebe e6bd c055 0b3e ad10 2fbe
00000090: 43e2 983e 6489 7f3e d75a f43e ebf7 873e
000000a0: f8c0 203f 763d 593d d87a 8fbd 1c31 b63e
000000b0: bea9 80be 3a4c 223e 9d34 a4be 5422 443d
000000c0: 9177 78be 1a8e 453d 5ce1 8a3d 734e ac3d
000000d0: 0758 013e c67a a6be 5b9a 993d da78 ff3c
000000e0: 8df5 f33c 3e60 9c3e 0250 223e c9e5 2e3e
000000f0: 4393 c73d 4221 943d 34c7 9ebd ebd4 3d3e
00000100: c3d4 c63e 4c86 873e 6755 293e 2314 a9bc
00000110: ce7c ac3e 8028 bb3d 3364 723e f9b4 f33d
00000120: 7949 50bd 0501 643e 0491 cb3d 35ee 5c3e
00000130: e3c7 25be 018c e83d f6ce dfbc 326a dcbc
00000140: 9336 df3b 8634 73be 62a1 2dbc 26aa 9a3d
00000150: 8309 a5bd 1fbf f23d 70cc 013e 78b2 513e
00000160: eaa8 8dbe 1ef3 d9bd a53e 8a3e 7308 2d3e
00000170: c1c3 103e 7618 9b3e 401e 983e 1da3 2c3e
00000180: 10ae aa3e 39bf 65bd 681f 043e 7674 0f3c
00000190: e027 0c3e 7d22 c13d 5792 473e 5f3f 09be
000001a0: f370 823e 3273 b63e 8171 6c3e 9ee5 b43d
000001b0: 07c1 1b3e a312 033d 3f1b 9ebd 08ca f33d
000001c0: 1111 f8bc 4650 06be 93a5 da3c b41a 6c3d
000001d0: 0917 033e 355f 433e 0843 493e 2efa e03c
000001e0: d4a1 103f 76e7 9e3d 5164 6fbd 4a93 823e
000001f0: ed5c 663e 4053 313e 12ec 0ebe d399 003e

bn2.running_mean f4 [128]
0.012142716 0.022784246 0.13884963 0.05869309 0.07557848 0.018819883 0.12135752 0.005486429
0.30814093 5.4221164e-07 0.0044530486 0.06351281 3.310202e-05 0.025599891 0.19706436 2.6973454e-10
0.1271945 0.02470737 0.019790363 0.000106204585 0.047327064 0.07210947 0.005866672 0.0012198659
0.00021275418 0.13870701 0.03370458 0.045442905 0.041176092 0.0098316865 0.1455608 3.0411755e-08
0.10483814 0.012267498 0.005661395 0.0043679457 0.054306872 0.2812183 0.10948038 0.000111808156
0.018490916 0.042007014 1.3774209e-05 0.14514467 0.010650521 0.07447341 0.10847993 0.036128502
4.1254978e-05 0.09118038 0.03825543 0.40259373 0.020676048 0.020302732 0.352936 0.00020564055
0.19312127 0.37050867 0.058641687 0.019623073 0.113019235 0.010038931 0.08387403 1.5049275e-07
0.017256416 0.22118184 0.029677814 0.071970746 0.21875301 0.31975582 0.06914117 0.15651456
0.030977985 0.039137613 0.1739207 5.8405508e-08 0.045998044 0.03400453 0.011435455 0.012653744
0.20994107 0.35437068 5.1245104e-05 0.11634034 0.39531744 0.06561993 0.019022863 0.017554948
0.0070300153 0.3869518 0.22589934 0.06099973 2.069272e-05 0.15242776 0.094952576 0.00011401988
0.18919155 0.21656738 4.9141568e-06 0.12106281 0.13068031 0.13606276 0.018629005 0.047627974
3.0184843e-08 0.2832974 0.027498124 0.31860125 0.06546275 0.11739901 0.20013778 0.0783832
0.06630957 4.5665973e-05 3.2408472e-05 0.18736233 1.0896991e-06 0.0003656874 0.06239421 0.11547548
0.04580133 0.26692685 0.15119036 0.06997905 0.08072336 0.31039008 0.05092821 0.013306279
00000000: 3ef2 463c 07a6 ba3c 992e 0e3e 2a68 703d
00000010: e4c8 9a3d 282c 9a3c 4b8a f83d 81c7 b33b
00000020: a6c4 9d3e 808c 1135 e1ea 913b 0113 823d
00000030: 06d7 0a38 ddb6 d13c 3dcb 493e c349 942f
00000040: 463f 023e 1c67 ca3c 661f a23c 27ba de38
00000050: 06da 413d 21ae 933d 363d c03b e8e3 9f3a
00000060: c416 5f39 3609 0e3e d00d 0a3d 5722 3a3d
00000070: 43a8 283d 1515 213c e40d 153e 149e 0233
00000080: 61b5 d63d 9efd 483c 3983 b93b fc20 8f3b
00000090: e270 5e3d d8fb 8f3e 4037 e03d 8c7a ea38
000000a0: 437a 973c 8c0f 2c3d c717 6737 cea0 143e
000000b0: 867f 2e3c 8485 983d ba2a de3d 7bfb 133d
000000c0: 3209 2d38 c7bc ba3d bab1 1c3d c420 ce3e
000000d0: d160 a93c ea51 a63c 07b4 b43e 37a1 5739
000000e0: 95c1 453e 50b3 bd3e 4432 703d 91c0 a03c
000000f0: a176 e73d 547a 243c 26c6 ab3d 2297 2134
00000100: 545d 8d3c 7e7d 623e e31e f33c 6665 933d
00000110: ca00 603e 09b7 a33e e399 8d3d 5a45 203e
00000120: 8bc5 fd3c c34e 203d 4518 323e 89d9 7a33
00000130: 7268 3c3d 5648 0b3d c65b 3b3c a651 4f3c
00000140: cbfa 563e 1370 b53e 03f0 5638 d843 ee3d
00000150: 0c67 ca3e be63 863d d6d5 9b3c 65cf 8f3c
00000160: 0b5c e63b 8c1e c63e 2852 673e dada 793d
00000170: 4795 ad37 0616 1c3e 7f76 c23d f51d ef38
00000180: 6ebb 413e d7c3 5d3e 49e4 a436 c7ef f73d
00000190: 0fd1 053e 0954 0b3e db9b 983c 8d15 433d
000001a0: 96a4 0133 5b0c 913e bf43 e13c b41f a33e
000001b0: 5611 863d e46e f03d ebf0 4c3e 5f87 a03d
000001c0: 50cd 873d 7789 3f38 55ee 0738 e9db 3f3e
000001d0: c741 9235 bbb9 bf39 1291 7f3d 697e ec3d
000001e0: 2d9a 3b3d a3aa 883e a5d1 1a3e 2d51 8f3d
000001f0: 4a52 a53d 73eb 9e3e 199a 503d 9402 5a3c

bn2.running_var f4 [128]
0.0011050988 0.00298462 0.012878165 0.007892439 0.009438178 0.0013530081 0.008419193 0.0003734647
0.0043420545 4.633229e-08 0.00025817804 0.008589445 1.7610835e-06 0.002800307 0.0032036214 4.043121e-12
0.010346775 0.0025321639 0.0014901706 9.706316e-06 0.005040203 0.0035679552 0.0002237554 0.00014127078
1.4674372e-05 0.019988041 0.0043694056 0.0039556245 0.0033879261 0.0006590793 0.0034137655 5.432579e-10
0.012798689 0.000496304 0.00019415181 0.00017542581 0.0033684627 0.0028809798 0.0042610136 1.1478616e-05
0.001821889 0.0028870031 7.894484e-07 0.020679718 0.00047643384 0.00092703686 0.014788706 0.0020226496
2.2979475e-06 0.011577424 0.0044976026 0.008426281 0.0011950259 0.0019498926 0.023495317 1.8275978e-05
0.013719228 0.018295491 0.0032229857 0.0016322526 0.006931177 0.0012155022 0.013909195 6.6428854e-09
0.0010382977 0.0021309895 0.002055392 0.0007386753 0.0054191006 0.011347602 0.0080019785 0.005947695
0.0022378322 0.0034396616 0.02331667 1.0005452e-09 0.004459113 0.00170237 0.0006376239 0.0008619815
0.025813969 0.011398376 4.624901e-06 0.0074831657 0.010072421 0.000398869 0.0014796203 0.0016530019
0.0005812858 0.00452558 0.002528452 0.0058339825 1.1882844e-06 0.018816177 0.010492725 4.8562165e-06
0.0015597882 0.0071619865 2.8493608e-07 0.013253223 0.002600234 0.025520725 0.0013313983 0.004015446
2.7324817e-10 0.025237612 0.0020195271 0.010655769 0.006361888 0.0073659304 0.016348142 0.008357329
0.0069142445 3.7151901e-06 4.349897e-06 0.017160418 2.3877053e-07 3.615258e-05 0.0050803623 0.00832097
0.0048901695 0.011222616 0.008181388 0.0073344656 0.013051424 0.015675308 0.0028017007 0.0006582281
00000000: f6d8 903a 9d99 433b f0fe 523c 4a4f 013c
00000010: 96a2 1a3c 6b57 b13a a8f0 093c 95cd c339
00000020: cb47 8e3b e4fe 4633 125c 8739 beba 0c3c
00000030: 5e5e ec35 5b85 373b d9f3 513b 3241 8e2c
00000040: 8585 293c a9f2 253b d451 c33a 4fd8 2237
00000050: 4a28 a53b 5bd4 693b e29f 6a39 1622 1439
00000060: f331 7637 f6bd a33c 3b2d 8f3b 2f9e 813b
00000070: f807 5e3b 10c6 2c3a 7bb9 5f3b 6054 1530
00000080: 98b1 513c 661a 023a 3b95 4b39 82f2 3739
00000090: 6dc1 5c3b d2ce 3c3b f99f 8b3b 4894 4037
000000a0: 73cc ee3a e033 3d3b 7bea 5335 8368 a93c
000000b0: dec9 f939 6404 733a 544c 723c 6e8e 043b
000000c0: 7036 1a36 3caf 3d3c a060 933b 620e 0a3c
000000d0: 6aa2 9c3a 8a93 ff3a 4079 c03c 5d4f 9937
000000e0: 9dc6 603c 6de0 953c ba38 533b 4ff1 d53a
000000f0: ed1e e33b 7c51 9f3a 64e3 633c 703f e431
00000100: 7d17 883a 12a8 0b3b c1b3 063b a9a3 413a
00000110: b692 b13b 4beb 393c bb1a 033c e2e4 c23b
00000120: 98a8 123b f26b 613b 9a02 bf3c 8e83 8930
00000130: c01d 923b 0f22 df3a 3726 273a 99f6 613a
00000140: d177 d33c 41c0 3a3c 992f 9b36 5835 f53b
00000150: cc06 253c 4a1f d139 d2ef c13a 8aa9 d83a
00000160: 6e61 183a 514b 943b 63b4 253b fe2a bf3b
00000170: 247d 9f35 6224 9a3c aee9 2b3c 95f2 a236
00000180: cf71 cc3a 19af ea3b 51f9 9834 0c24 593c
00000190: b068 2a3b d710 d13c 5082 ae3a 0194 833b
000001a0: 4338 962f 1cbf ce3c 0b5a 043b 8995 2e3c
000001b0: 6277 d03b e75d f13b 8aec 853c 2eed 083c
000001c0: e390 e23b 7b52 7936 55f5 9136 0194 8c3c
000001d0: 5f30 8034 8aa2 1738 2b79 a63b ae54 083c
000001e0: b73d a03b 10df 373c 3a0b 063c f555 f03b
000001f0: a4d5 553c 8169 803c bd9c 373b f18c 2c3a

fc2.weight f4 [128, 128]
-0.010550053 0.09776181 0.051205765 0.17946306 -0.012861411 -0.09686312 -0.113779396 0.008280347
-0.08933154 -0.022796223 -0.039166678 0.062220998 0.07901971 0.13485344 0.018902015 -0.069584124
0.101247 -0.00962771 -0.016812116 -0.05370121 0.098198265 -0.07540552 0.12668402 -0.07311074
0.10689119 0.005447133 -0.005410863 -0.059707146 -0.017316658 -0.0022980277 0.031135272 0.0017121475
-0.107500516 0.15863737 0.0689426 0.008247992 0.05359814 -0.106388494 -0.0929616 -0.08305377
-0.12106046 -0.08035197 -0.0460916 -0.14572002 0.05223764 0.070581056 0.016727567 -0.0135432035
-0.050906003 -0.018173045 0.017684136 0.0048885983 0.19926372 0.030291466 0.009307681 0.026119482
-0.02337133 -0.040938117 0.05115412 0.027573155 -0.13392495 0.046920355 0.016538015 -0.041185055
-0.029315734 -0.10587587 0.015124677 -0.0184911 0.048313685 -0.0071644364 0.12744524 -0.0920376
-0.09769854 0.036812346 -0.022453161 0.047515545 -0.05741523 -0.07489086 -0.014396842 0.07135516
0.018651417 0.03279885 -0.077404864 -0.016767608 0.024323251 0.015855862 0.010252019 -0.09159348
-0.036081675 0.07137556 0.02439905 -0.08885376 0.07415788 -0.011266307 0.020953914 -0.02599872
0.09834278 -0.05438176 0.06828567 0.047201924 -0.1031868 -0.13970418 0.11351833 0.011609714
0.0050078765 0.08471843 -0.030091275 0.017344583 -0.0012319572 -0.027496895 0.08002416 -0.10682197
0.039654326 0.027438795 -0.081285946 0.026242647 -0.016896775 -0.026786469 0.031174969 0.016323654
-0.17033215 -0.11272774 -0.13387838 0.0030940238 0.16616477 0.12775141 -0.07334583 0.034306902
0.14838023 0.051560543 -0.05097939 0.055628613 -0.17843626 0.077244885 -0.05067764 0.023109203
0.049258288 -0.03785875 -0.0069908304 -0.030509587 -0.10113921 -0.1283528 -0.13148208 -0.16371372
-0.1065335 -0.022809314 -0.062218737 0.027374718 0.024310628 -0.054514736 0.064899124 -0.016843187
-0.0003014468 -0.020352455 0.030932413 -0.17922603 -0.058750447 -0.05984942 -0.01460286 -0.006446931
0.011335739 -0.016636427 -0.03420792 0.16323687 -0.05539019 0.028568689 -0.25941768 -0.060512535
-0.19996871 -0.03259112 -0.048446164 -0.22981612 -0.0026087845 -0.012122716 0.019288871 0.01247383
0.046982106 -0.00578382 0.16001818 -0.080776505 0.026480636 -0.022678928 0.033004638 -0.023338314
0.021481233 -0.06495128 0.08254977 -0.005315825 0.019143583 -0.055419996 -0.033939697 0.058575355
0.0031729403 -0.01900947 -0.059271995 0.012412362 -0.10603431 0.055900566 -0.0507894 -0.10848557
0.007252069 -0.15277612 0.018396653 -0.0046382793 0.052655794 0.011697096 0.036312737 0.04676603
0.041856036 0.07171649 0.06344624 -0.061596602 0.040011995 3.9474395e-05 -0.0076804836 -0.07220823
-0.009939668 -0.023416545 -0.17274393 -0.08715429 0.0069605615 -0.02830605 -0.044195548 -0.15745516
-0.018124701 0.06732804 0.074666955 0.0026774707 0.027134433 -0.008289343 0.006491635 0.011174618
-0.062969394 -0.024988636 -0.09939575 -0.046326444 0.02739707 0.016558198 -0.061130937 -0.049042217
0.04764149 -0.01664388 0.023383016 -0.094515555 -0.036491554 -0.035593748 0.015583555 0.0052189664
-0.113634 -0.012258692 0.16262592 -0.10230896 0.007320988 0.017329343 0.037407987 -0.0019314132
00000000: 21da 2cbc 5837 c83d 23bd 513d 2ac5 373e
00000010: abb8 52bc 2c60 c6bd 2c05 e9bd 4baa 073c
00000020: 74f3 b6bd 25bf babc 3d6d 20bd 72db 7e3d
00000030: 16d5 a13d 0517 0a3e 66d8 9a3c 1f82 8ebd
00000040: 965a cf3d 8bbd 1dbc 90b9 89bc cdf5 5bbd
00000050: 2c1c c93d 366e 9abd 75b9 013e 15bb 95bd
00000060: c5e9 da3d dd7d b23b 9c4d b1bb 7b8f 74bd
00000070: aadb 8dbc 829a 16bb 660f ff3c 236a e03a
00000080: 3b29 dcbd d671 223e c731 8d3d 9622 073c
00000090: b989 5b3d 36e2 d9bd a762 bebd 1818 aabd
000000a0: 8cee f7bd 938f a4bd 8cca 3cbd a137 15be
000000b0: 23f7 553d cd8c 903d 4008 893c 50e4 5dbc
000000c0: d082 50bd a3df 94bc 52de 903c 8930 a03b
000000d0: ca0b 4c3e cf25 f83c 3e7f 183c 86f8 d53c
000000e0: 3b75 bfbc baae 27bd fc86 513d 19e1 e13c
000000f0: 9f23 09be 8f2f 403d bb7a 873c a9b1 28bd
00000100: 8d27 f0bc 73d5 d8bd 7ecd 773c a67a 97bc
00000110: 92e4 453d a6c3 eabb 0181 023e 367e bcbd
00000120: 2c16 c8bd 8bc8 163d b1ef b7bc a99f 423d
00000130: 3b2c 6bbd 6160 99bd bbe0 6bbc a722 923d
00000140: dbca 983c 1658 063d 7186 9ebd 395c 89bc
00000150: 8e41 c73c 27e4 813c 16f8 273c 5d95 bbbd
00000160: 61ca 13bd 592d 923d 84e0 c73c f6f8 b5bd
00000170: 16e0 973d 5196 38bc 8ba7 ab3c 45fb d4bc
00000180: f067 c93d 69bf 5ebd 5bd9 8b3d ce56 413d
00000190: 9a53 d3bd 9d0e 0fbe 4c7c e83d ab36 3e3c
000001a0: 1d19 a43b db80 ad3d fa81 f6bc 3a16 8e3c
000001b0: a079 a1ba 2b41 e1bc b5e3 a33d 7ac5 dabd
000001c0: 936c 223d 53c7 e03c 3f79 a6bd d2fa d63c
000001d0: 1b6b 8abc 4c6f dbbc a662 ff3c 2fb9 853c
000001e0: 8d6b 2ebe cddd e6bd 6a17 09be 1bc5 4a3b
000001f0: 1927 2a3e 44d1 023e 5736 96bd 6585 0c3d
00000200: fdf0 173e 2631 533d c4cf 50bd d4da 633d
00000210: ffb7 36be 9132 9e3d 5b93 4fbd 834f bd3c
00000220: 0fc3 493d c711 1bbd 5613 e5bb 3eef f9bc
00000230: 1322 cfbd eb6e 03be 3da3 06be 92a4 27be
00000240: 3c2e dabd 99da babc 13d9 7ebd f240 e03c
00000250: 1527 c73c d84a 5fbd d5e9 843d b9fa 89bc
00000260: 810b 9eb9 31ba a6bc f965 fd3c 0787 37be
00000270: 4fa4 70bd aa24 75bd d640 6fbc c740 d3bb
00000280: 89b9 393c 1e49 88bc 9b1d 0cbd 9127 273e
00000290: d3e0 62bd e208 ea3c 65d2 84be fedb 77bd
000002a0: 99c4 4cbe 447e 05bd 7c6f 46bd eb54 6bbe
000002b0: 24f8 2abb 5b9e 46bc b203 9e3c 095f 4c3c
000002c0: 4f70 403d 3386 bdbb cedb 233e 276e a5bd
000002d0: ebed d83c 29c9 b9bc df2f 073d fe2f bfbc
000002e0: 69f9 af3c 2d05 85bd db0f a93d 5f30 aebb
000002f0: 01d3 9c3c 1400 63bd 5a04 0bbd b6ec 6f3d
00000300: 1bf1 4f3b bfb9 9bbc 31c7 72bd 385d 4b3c
00000310: 8428 d9bd fef7 643d 8c08 50bd af2d debd
00000320: c4a2 ed3b 5871 1cbe 94b4 963c b5fc 97bb
00000330: 9aad 573d 2da5 3f3c aabc 143d bd8d 3f3d
00000340: 3c71 2b3d 18e0 923d 1af0 813d b84c 7cbd
00000350: 9ee3 233d 4f91 2538 91ac fbbb e9e1 93bd
00000360: fdd9 22bc 0ed4 bfbc c9e3 30be f37d b2bd
00000370: 6c15 e43b 17e2 e7bc 6406 35bd ed3b 21be
00000380: 417a 94bc 49e3 893d fdea 983d 8178 2f3b
00000390: 0849 de3c 06d0 07bc c8b7 d43b bf15 373c
000003a0: 19f6 80bd f8b4 ccbc 0090 cbbd ccc0 3dbd
000003b0: d26f e03c 0fa5 873c 6f64 7abd 7ee0 48bd
000003c0: b923 433d bf58 88bc bd8d bf3c 5f91 c1bd
000003d0: 2b78 15bd c0ca 11bd 2b52 7f3c dd03 ab3b
000003e0: f1b8 e8bd aed8 48bc 6987 263e 5c87 d1bd
000003f0: e6e4 ef3b 44f6 8d3c 1e39 193d 7927 fdba

fc2.bias f4 [128]
0.0062711914 -0.12522353 -0.1119874 0.05245834 -0.15196462 0.051915213 -0.1089378 -0.049762852
-0.11301559 -0.01702127 0.0015445934 -0.042625207 -0.17531073 0.09542846 -0.09804586 -0.18502265
-0.08635534 -0.15375979 -0.100706324 -0.1661132 -0.1815011 -0.13112065 -0.028904604 0.012240567
-0.064352244 0.015971575 -0.00915418 -0.17109789 -0.121306516 -0.18747617 -0.13223678 -0.032901987
-0.016127266 -0.0029393388 -0.023131335 0.049278397 0.055628974 -0.076597914 0.007625721 0.04456762
-0.062365167 -0.168586 -0.098112576 0.016136996 -0.06134132 -0.05088696 -0.19306675 -0.092390046
0.030364085 -0.06385604 -0.19113725 0.03498957 0.028440915 -0.086858205 -0.024133498 -0.11861552
-0.038814932 -0.112923674 -0.059358664 -0.0757028 -0.059629474 -0.049761403 -0.10689088 -0.22587745
0.08965551 -0.065618716 -0.05015668 -0.0046673757 0.0061734132 -0.15788281 -0.1401994 -0.030815821
-0.14481993 -0.018395541 -0.095712386 -0.17239933 0.0022025746 -0.026755827 0.050323326 -0.10523019
-0.07915712 -0.11166385 -0.19108361 -0.19102791 0.07809828 -0.04171868 -0.036296602 -0.07918232
-0.13219577 -0.013741228 -0.11455148 -0.10397232 -0.14127201 -0.0183023 0.02918277 -0.11820654
-0.09290127 -0.00572228 -0.099206895 -0.12388562 0.01930041 -0.07950434 -0.09890909 -0.22406933
0.05050043 0.033534013 -0.1281507 0.090216026 -0.005131502 -0.058025084 -0.024684863 -0.07240679
-0.10247983 -0.046582907 0.064123936 -0.008619421 -0.09226998 -0.1391112 -0.017606538 0.040376723
-0.069897026 -0.13636914 -0.009435352 -0.10366471 -0.0045084762 -0.020417774 -0.13933586 0.064613946
00000000: 917e cd3b 993a 00be a659 e5bd 8ede 563d
00000010: 9d9c 1bbe 0ca5 543d c81a dfbd 22d4 4bbd
00000020: b874 e7bd 3170 8bbc f473 ca3a c597 2ebd
00000030: a884 33be ff6f c33d 45cc c8bd 9476 3dbe
00000040: 12db b0bd 3573 1dbe 1e3f cebd 9419 2abe
00000050: 6ddb 39be 7e44 06be 59c9 ecbc a98c 483c
00000060: 1ccb 83bd d2d6 823c 6afb 15bc 4934 2fbe
00000070: 8d6f f8bd c1f9 3fbe 1469 07be 3cc4 06bd
00000080: 541d 84bc eca1 40bb ed7d bdbc 25d8 493d
00000090: 35db 633d 5edf 9cbd 2fe1 f93b 898c 363d
000000a0: 9e72 7fbd cfa1 2cbe 3fef c8bd bc31 843c
000000b0: 0941 7bbd d86e 50bd 4ab3 45be fe36 bdbd
000000c0: 1abe f83c f5c6 82bd 7cb9 43be 3951 0f3d
000000d0: ecfc e83c b7e2 b1bd 9db3 c5bc b2ec f2bd
000000e0: 68fc 1ebd 8744 e7bd 1222 73bd 120a 9bbd
000000f0: 093e 74bd 9dd2 4bbd 9be9 dabd 6b4c 67be
00000100: 4f9d b73d 1b63 86bd 1771 4dbd c9f0 98bb
00000110: 584a ca3b 08ac 21be 6e90 0fbe 7671 fcbc
00000120: ad4b 14be 3fb2 96bc db04 c4bd 7389 30be
00000130: 1259 103b 092f dbbc d51f 4e3d ed82 d7bd
00000140: 211d a2bd 04b0 e4bd 6cab 43be d29c 43be
00000150: fef1 9f3d 35e1 2abd bfab 14bd 572a a2bd
00000160: 545e 07be e322 61bc f799 eabd 71ef d4bd
00000170: 9ca9 10be b4ee 95bc b410 ef3c 4516 f2bd
00000180: 0543 bebd f781 bbbb fc2c cbbd beb7 fdbd
00000190: e51b 9e3c 2cd3 a2bd d990 cabd 6e72 65be
000001a0: 8ad9 4e3d f65a 093d f039 03be 2ec3 b83d
000001b0: 2926 a8bb b6ab 6dbd e937 cabc 034a 94bd
000001c0: f2e0 d1bd b8cd 3ebd 6953 833d 7938 0dbc
000001d0: 0bf8 bcbd 2b73 0ebe 963b 90bc 1062 253d
000001e0: 2c26 8fbd 5aa4 0bbe bc96 1abc 2a4e d4bd
000001f0: d7bb 93bb 2d43 a7bc 0fae 0ebe 5154 843d

bn3.weight f4 [128]
0.95644426 1.4397687 1.0307564 1.3121271 1.2142918 0.7718928 1.0829978 0.6943635
1.1945521 0.94218343 1.0620334 1.1818991 1.4249613 1.3442502 1.1782352 0.73615664
0.8091318 0.9693617 0.8147734 1.0178515 0.44355515 1.1844577 0.8783704 0.9385248
1.3970706 1.3074026 1.1621246 0.47823894 1.3765893 1.134782 1.3325516 0.56618166
0.81564504 0.80657554 1.1708035 0.83118254 1.2170432 0.88019305 1.0766538 1.0199277
0.762739 1.3782675 0.7651513 0.9384815 1.2591234 0.6453222 1.0344926 0.87588775
1.2126535 0.8210805 0.91930497 1.4412222 0.64689785 1.0443465 1.1909482 0.94822246
1.4072078 1.051373 1.0858978 0.91090554 1.0702384 0.8480476 0.92347324 0.67678183
1.0677217 1.2656221 1.5321119 1.748228 1.2548935 1.0330521 0.9882279 0.5827774
1.2686776 1.3571422 1.0250883 1.2792523 1.1649277 1.0762374 0.99564415 0.8852575
1.1645383 0.7347845 0.7850146 0.98572445 1.3894577 0.7675461 0.83822036 0.9736848
0.58512884 1.0123612 1.1011891 0.7851077 0.7793453 1.2830917 1.3853855 1.3036207
1.379435 0.96147233 0.7785429 0.8995982 1.3242668 1.0417826 0.66568476 0.8168282
1.3256013 1.1382068 1.1524593 1.2543846 1.0401956 0.9775695 0.65936446 0.8666921
0.76077217 0.69675744 0.7498402 1.0181956 0.8630541 0.7253675 0.9063009 1.5053668
1.1046414 0.87033004 1.1898963 1.2145923 1.3250265 1.3125173 0.65586156 1.0625433
00000000: 88d9 743f 574a b83f d3ef 833f c8f3 a73f
00000010: ea6d 9b3f c49a 453f ac9f 8a3f cec1 313f
00000020: 15e7 983f ef32 713f b6f0 873f 7848 973f
00000030: 2265 b63f 6410 ac3f 69d0 963f c374 3c3f
00000040: 4323 4f3f 1728 783f fd94 503f f548 823f
00000050: a919 e33e 4f9c 973f e2dc 603f 2943 703f
00000060: 36d3 b23f f858 a73f 80c0 943f bcdb f43e
00000070: 1434 b03f 8940 913f 0d91 aa3f 48f1 103f
00000080: 1dce 503f bc7b 4e3f e4dc 953f 61c8 543f
00000090: 12c8 9b3f 5554 613f cbcf 893f fe8c 823f
000000a0: dd42 433f 126b b03f f5e0 433f 5340 703f
000000b0: f52a a13f d633 253f 416a 843f 2e3a 603f
000000c0: 3b38 9b3f 5532 523f 9257 6b3f f879 b83f
000000d0: 199b 253f 25ad 853f fe70 983f b5be 723f
000000e0: 631f b43f 6493 863f b3fe 8a3f 1b31 693f
000000f0: 92fd 883f a619 593f be68 6c3f 9341 2d3f
00000100: 1bab 883f e8ff a13f 3e1c c43f efc5 df3f
00000110: 5aa0 a03f 0d3b 843f 81fc 7c3f e630 153f
00000120: 0764 a23f d6b6 ad3f 1836 833f 8abe a33f
00000130: 5a1c 953f 26c2 893f 89e2 7e3f 3ca0 623f
00000140: 970f 953f d61a 3c3f b8f6 483f 7058 7c3f
00000150: c0d9 b13f e77d 443f 9c95 563f 6843 793f
00000160: 01cb 153f 0d95 813f c4f3 8c3f d1fc 483f
00000170: 2c83 473f 593c a43f 5054 b13f 0bdd a63f
00000180: 5391 b03f 0d23 763f 964e 473f 114c 663f
00000190: 9381 a93f 2259 853f 516a 2a3f a71b 513f
000001a0: 4ead a93f c3b0 913f c983 933f ad8f a03f
000001b0: 2125 853f ff41 7a3f 1ccc 283f 89df 5d3f
000001c0: f7c1 423f b25e 323f 87f5 3f3f 3c54 823f
000001d0: 1df1 5c3f afb1 393f 5603 683f dcaf c03f
000001e0: e464 8d3f f3cd 5e3f 864e 983f c377 9b3f
000001f0: 789a a93f 9100 a83f 8be6 273f 6b01 883f

bn3.bias f4 [128]
0.09274801 -0.0036453882 0.048450984 -0.027142653 -0.0015071825 0.022649677 0.09150833 0.007569501
-0.005519494 0.07036734 -0.029422227 -0.06702206 0.112945296 -0.013813966 -0.05456958 0.016537732
-0.006182958 0.061294656 0.08018242 0.15069588 0.006419428 0.095564194 0.06261607 0.08984896
0.040513314 0.09562126 -0.062198173 -0.012714439 0.038212147 0.11473049 -0.040986743 0.0051702047
-0.054021552 -0.054350015 0.0124748275 -0.1152071 -0.0984266 0.011417032 -0.0014729606 0.075975984
0.053341217 0.017343776 0.017544052 -0.033757117 0.094239645 -0.056852657 -0.062382918 -0.038359776
0.092879795 -0.0058293627 -0.06663756 -0.0020671922 -0.108440526 0.047578137 0.061223276 0.03685893
0.011842559 -0.12778948 -0.0751132 0.1397695 -0.03844393 0.10116152 0.03531902 0.03288776
-0.015235794 0.02713159 0.070302404 -0.030124208 -0.048202682 0.18033542 0.05260557 0.038557243
-0.024248058 -0.06106881 0.0013509718 0.03840755 0.0128961755 0.04705348 -0.035957925 0.05456016
-0.0436175 0.0337928 0.046199348 0.05002242 0.13408576 -0.022943197 0.03346898 0.030533344
0.018666465 -0.056474637 0.098458946 0.008528536 -0.032236647 0.06237239 0.059565675 0.0032983683
-0.010804137 -0.06362881 0.0032682437 -0.066443 0.028542643 0.023598652 -0.056664124 0.015904048
0.05708941 -0.08205294 -0.02054953 -0.007070813 -0.07333213 0.0667463 -0.0012757898 -0.024764499
-0.030423988 0.063823655 0.079177886 0.0858285 -0.038498133 0.057878297 -0.065223195 -0.100179374
-0.015667805 -0.007969208 0.11366357 0.07502801 0.07549662 0.13784869 0.06147799 -0.04518147
00000000: abf2 bd3d 77e7 6ebb 8a74 463d 455a debc
00000010: a78c c5ba d18b b93c b868 bb3d 9409 f83b
00000020: dfdc b4bb c11c 903d e206 f1bc dd42 89bd
00000030: dd4f e73d f953 62bc 5a84 5fbd 237a 873c
00000040: 699a cabb 1b10 7b3d ae36 a43d 0550 1a3e
00000050: 115a d23b 29b7 c33d db3c 803d bb02 b83d
00000060: 4af1 253d 14d5 c33d 83c3 7ebd 3950 50bc
00000070: 5784 1c3d d2f7 ea3d b7e1 27bd d26a a93b
00000080: b445 5dbd 1f9e 5ebd 3863 4c3c b3f1 ebbd
00000090: e393 c9bd 810e 3b3c 5b10 c1ba 4c99 9b3d
000000a0: 527c 5a3d 8914 8e3c 8bb8 8f3c e744 0abd
000000b0: b700 c13d 55de 68bd 3b85 7fbd 241f 1dbd
000000c0: c337 be3d 3d04 bfbb 4679 88bd bb79 07bb
000000d0: 1116 debd 4be1 423d 42c5 7a3d 64f9 163d
000000e0: 4b07 423c 3fdb 02be f3d4 99bd bc1f 0f3e
000000f0: 6277 1dbd c52d cf3d adaa 103d 51b5 063d
00000100: 8d9f 79bc 1143 de3c b5fa 8f3d 0bc7 f6bc
00000110: 2d70 45bd d9a9 383e f078 573d 33ee 1d3d
00000120: dda3 c6bc 4a23 7abd 1713 b13a 3c51 1d3d
00000130: 7b4a 533c 26bb 403d 9e48 13bd 797a 5f3d
00000140: 44a8 32bd 526a 0a3d 873b 3d3d 4fe4 4c3d
00000150: c74d 093e 5ff3 bbbc c516 093d 1021 fa3c
00000160: 6aea 983c f351 67bd d8a4 c93d 46bb 0b3c
00000170: 930a 04bd 317a 7f3d 23fb 733d 7029 583b
00000180: d603 31bc d24f 82bd 0830 563b 4513 88bd
00000190: 43d2 e93c f651 c13c a418 68bd 3549 823c
000001a0: 96d6 693d 5f0b a8bd 7d57 a8bc 47b2 e7bb
000001b0: 282f 96bd 49b2 883d 6738 a7ba ebde cabc
000001c0: ba3b f9bc fab5 823d 0428 a23d dac6 af3d
000001d0: 38b0 1dbd cb11 6d3d bd93 85bd d82a cdbd
000001e0: c559 80bc 4891 02bc 72c8 e83d 49a8 993d
000001f0: f99d 9a3d 3528 0d3e 58d0 7b3d 3510 39bd

bn3.running_mean f4 [128]
0.056495436 6e-45 6e-45 0.16105933 0.00014015059 0.38870588 0.00018504844 0.06271095
6e-45 0.076478325 3.997449e-05 0.0013645453 0.0014533969 0.23024713 3.0288189e-05 6e-45
0.0020326655 0.0012136427 0.036326014 0.00016954589 0.0006566569 0.00040356882 0.011722463 0.22539377
0.08128863 0.035085373 0.0661244 0.001480685 6e-45 0.0010097255 0.0005939302 0.034118716
0.018456064 0.047864277 0.09470601 0.103332154 0.026184615 0.010635814 0.06882227 0.27398276
0.05554309 1.0800031e-09 1.0998002e-06 0.10763665 0.03282949 3.409049e-06 4.5887862e-09 0.036137633
0.26029298 0.018592896 0.0023080315 0.083363354 0.33420467 0.16130646 0.03832255 4.428317e-05
0.12907794 0.047456905 4.022625e-05 3.296226e-06 0.013999586 2.251314e-05 0.0003405021 0.0003150182
0.37742046 0.022483172 0.015198865 0.010991097 0.069958225 2.8793088e-06 6e-45 0.0039505768
0.004128819 0.0016416837 4.4279343e-05 0.0041543907 0.023876503 0.05911021 0.08976804 0.0039387997
0.00017881309 0.0007005111 0.0045272424 6e-45 0.30629322 0.11262151 0.02741547 0.013104717
4.22201e-06 0.047187913 0.03582119 0.00023705659 1.7730845e-05 0.00814139 0.06524376 0.07264547
6.3303205e-06 0.32961035 0.026746752 6e-45 0.07892276 0.006667996 0.057145134 0.00050490006
0.06121052 0.020119028 0.025209112 0.19758035 0.014185477 0.0009466153 0.026105085 0.1774808
0.0006643116 0.00024172234 0.0655156 0.09279229 0.000972881 0.001918462 0.102658495 0.10158258
0.14200027 0.00064778636 0.01585213 1.1425072e-18 0.0057128514 7.81319e-10 3.2324124e-08 0.29028332
00000000: c267 673d 0400 0000 0400 0000 bdec 243e
00000010: 63f5 1239 7504 c73e 9009 4239 996e 803d
00000020: 0400 0000 aba0 9c3d 48aa 2738 8bda b23a
00000030: e87f be3a e7c5 6b3e 6413 fe37 0400 0000
00000040: 7836 053b 1713 9f3a 96ca 143d 21c8 3139
00000050: 8023 2c3a 1796 d339 930f 403c a0cd 663e
00000060: a77a a63d aeb5 0f3d 3b6c 873d 8b13 c23a
00000070: 0400 0000 c458 843a fbb1 1b3a 11c0 0b3d
00000080: 2c31 973c 550d 443d 39f5 c13d cf9f d33d
00000090: 1e81 d63c d641 2e3c b1f2 8c3d 7847 8c3e
000000a0: 2781 633d 3b6f 9430 d99c 9335 9b70 dc3d
000000b0: 3778 063d 04c7 6436 64ab 9d31 0e05 143d
000000c0: 1f45 853e 2150 983c 5842 173b 68ba aa3d
000000d0: e01c ab3e 852d 253e 1bf8 1c3d b1bc 3938
000000e0: 022d 043e 2c62 423d 9bb8 2838 bb34 5d36
000000f0: 855e 653c 9ada bc37 6b85 b239 0729 a539
00000100: 413d c13e a12e b83c a904 793c 0114 343c
00000110: 4246 8f3d 263a 4136 0400 0000 d773 813b
00000120: 0b4b 873b c42d d73a 95b8 3938 8e21 883b
00000130: a898 c33c 8c1d 723d 4ed8 b73d 0c11 813b
00000140: c67f 3b39 81a2 373a 4359 943b 0400 0000
00000150: 77d2 9c3e 1ba6 e63d 6896 e03c 2bb5 563c
00000160: caaa 8d36 1d48 413d 3db9 123d 6592 7839
00000170: b3bc 9437 7763 053c 859e 853d 26c7 943d
00000180: 0a69 d436 b0c2 a83e 011c db3c 0400 0000
00000190: 42a2 a13d 347f da3b 0411 6a3d 455b 043a
000001a0: e2b7 7a3d a9d0 a43c 5783 ce3c 8152 4a3e
000001b0: 346a 683c 4726 783a 55da d53c 87bd 353e
000001c0: 3225 2e3a d976 7d39 0b2d 863d e209 be3d
000001d0: f008 7f3a e774 fb3a 9e3e d23d 870a d03d
000001e0: 8568 113e 35d0 293a 53dc 813c b49a a821
000001f0: df32 bb3b 70c4 5630 c0d4 0a33 04a0 943e

bn3.running_var f4 [128]
0.016008131 6e-45 6e-45 0.0697065 7.0173635e-05 0.22418702 0.00013917354 0.02770947
6e-45 0.022923894 3.0819947e-06 0.0002391422 0.0014193448 0.101923585 3.4918616e-05 6e-45
0.0021488608 0.0009854448 0.013777563 4.3749176e-05 0.00046510654 0.00019063507 0.0038699852 0.09149713
0.01619825 0.008458205 0.027944762 0.002215536 6e-45 0.0009365324 0.0007775274 0.012406684
0.0058761206 0.015275889 0.028704677 0.031032458 0.00795844 0.0028424712 0.024188604 0.13315229
0.01789414 1.3878841e-10 2.9001413e-07 0.041211713 0.014266742 1.4447569e-07 2.4694433e-09 0.015285976
0.11593553 0.0049922303 0.0028405779 0.024071043 0.20849761 0.06353296 0.013288672 1.0851148e-05
0.04208344 0.019075565 2.253245e-05 1.2168546e-07 0.0050365864 4.4540143e-06 0.00021930787 0.000112597256
0.12243813 0.009388884 0.0036910176 0.0020509108 0.017804142 1.0094628e-06 6e-45 0.001031979
0.0010092938 0.00038790077 1.1745526e-05 0.0032812275 0.007749693 0.011828623 0.031212302 0.0009932849
0.0001411647 0.0005862231 0.0048037893 6e-45 0.07095057 0.029067375 0.00868442 0.003955909
9.473996e-07 0.009534576 0.008760866 0.00013013706 1.3200488e-05 0.0032678524 0.015950624 0.016325029
1.1574816e-06 0.13284262 0.007908968 6e-45 0.02035455 0.002735905 0.014005993 0.0006888663
0.023341222 0.0061027114 0.013388233 0.08399464 0.002669278 0.00040244925 0.0071115796 0.06712636
0.0006473396 7.388657e-05 0.030752104 0.024638584 0.001249893 0.0026490598 0.030599967 0.016947303
0.03725873 0.00031275855 0.0028690987 7.0154217e-19 0.0012465119 2.6438396e-10 3.3231387e-09 0.05633998
00000000: 7c23 833c 0400 0000 0400 0000 48c2 8e3d
00000010: 2f2a 9338 4891 653e 1def 1139 f8fe e23c
00000020: 0400 0000 e4ca bb3c 44d4 4e36 3fc2 7a39
00000030: 4f09 ba3a 50bd d03d 9475 1238 0400 0000
00000040: e7d3 0c3b 0a2a 813a 4abb 613c 527f 3738
00000050: 8bd9 f339 36e5 4739 949f 7d3b d962 bb3d
00000060: 31b2 843c 4894 0a3c 6aec e43c 8732 113b
00000070: 0400 0000 a081 753a fbd2 4b3a 6845 4b3c
00000080: 798c c03b b947 7a3c 1226 eb3c c837 fe3c
00000090: 1e64 023c c148 3a3b 2e27 c63c 1359 083e
000000a0: bb96 923c 7799 182f 3db3 9b34 9dcd 283d
000000b0: 0ebf 693c 2d21 1b34 e8b2 2931 0872 7a3c
000000c0: 9b6f ed3d dd95 a33b fd28 3a3b a330 c53c
000000d0: 6680 553e 921d 823d bbb8 593c 530d 3637
000000e0: af5f 2c3d 5c44 9c3c 1104 bd37 a5a8 0234
000000f0: f309 a53b b173 9536 02f6 6539 3122 ec38
00000100: d8c0 fa3d d5d3 193c 00e5 713b 9368 063b
00000110: fed9 913c e17c 8735 0400 0000 7843 873a
00000120: 484a 843a 295f cb39 a60e 4537 dd09 573b
00000130: 23f1 fd3b d7cc 413c f1b0 ff3c 1c31 823a
00000140: 9c05 1439 c4ac 193a 1b69 9d3b 0400 0000
00000150: 884e 913d b41e ee3c 1949 0e3c 92a0 813b
00000160: ce50 7e35 e936 1c3c bc89 0f3c 6775 0839
00000170: aa77 5d37 7729 563b e2aa 823c 11bc 853c
00000180: c45a 9b35 e507 083e 9e94 013c 0400 0000
00000190: 96be a63c de4c 333b 6479 653c 0995 343a
000001a0: 1736 bf3c 41f9 c73b 525a 5b3c 6205 ac3d
000001b0: 0eef 2e3b d3ff d239 4108 e93b 8c79 893d
000001c0: 3ab2 293a 8df3 9a38 d6eb fb3c dbd6 c93c
000001d0: 73d3 a33a d99b 2d3b c8ac fa3c 12d5 8a3c
000001e0: 9c9c 183d bef9 a339 7d07 3c3b 070f 4f21
000001f0: 0062 a33a bc58 912f 465d 6431 c0c4 663d
