mode_weights/agent6_actor_local.pth (torch_old, 93021 bytes, 18 tensors)

bn1.weight f4 [33]
0.51232105 0.56948996 0.30733213 0.026987186 0.0059114434 0.050030313 0.055468857 0.2212917
0.10309742 0.18454404 0.153262 0.18195611 0.096179694 0.55909485 0.4739276 0.6972944
0.07255264 0.08404839 -0.0030218111 0.053681225 0.30294397 0.3150483 0.115738444 0.65435624
0.30811948 0.48629785 1.0481054 0.03616482 0.51546705 0.37341738 0.30510002 0.9320004
0.3365041
00000000: 7927 033f 18ca 113f a35a 9d3e 3b14 dd3c
00000010: c8b4 c13b 96ec 4c3d 5033 633d 4b9a 623e
00000020: bd24 d33d 1df9 3c3e b7f0 1c3e b452 3a3e
00000030: dcf9 c43d d720 0f3f a3a6 f23e e381 323f
00000040: 7b96 943d 9021 ac3d 9409 46bb d8e0 5b3d
00000050: 791b 9b3e 034e a13e 4708 ed3d e483 273f
00000060: d6c1 9d3e 08fc f83e 5128 863f 9021 143d
00000070: a6f5 033f 9030 bf3e 1236 9c3e 9497 6e3f
00000080: 444a ac3e

bn1.bias f4 [33]
0.017182205 -0.110927336 -0.05856394 0.020790543 -0.2356032 0.03192867 0.11264321 -0.094658986
0.025407609 -0.07483602 0.0029625366 -0.14053105 0.015939575 -0.05196864 -0.067457825 0.03603302
-0.0017851925 0.07298919 0.17541482 0.013529857 -0.0046928194 0.035956014 -0.003865734 0.003174272
-0.12292146 0.06760587 0.020307139 0.09773336 -0.07348742 0.17174886 -0.17504461 -0.18454021
0.08091993
00000000: b2c1 8c3c df2d e3bd bee0 6fbd ee50 aa3c
00000010: f741 71be a3c7 023d 7cb1 e63d 92dc c1bd
00000020: 9e23 d03c a143 99bd 1e27 423b 5fe7 0fbe
00000030: b693 823c 12dd 54bd 5427 8abd 5c97 133d
00000040: 1ffd e9ba 5b7b 953d f19f 333e 55ac 5d3c
00000050: 39c6 99bb 9d46 133d 4158 7dbb 7207 503b
00000060: 3fbe fbbd f274 8a3d 285b a63c 6e28 c83d
00000070: 9380 96bd efde 2f3e e53e 33be 1cf8 3cbe
00000080: 59b9 a53d

bn1.running_mean f4 [33]
0.65003836 -2.4686775 -0.41321114 0.8427257 0.07664956 0.014227507 -0.063607685 0.017455684
0.00027902986 0.0002635488 -0.0011824667 0.0043716547 -0.034238644 0.38515395 -2.5564487 -0.1789325
0.008773294 -0.0008438721 -0.013980524 -0.03513796 0.14600872 0.008919982 0.04312881 -5.6252095e-05
0.110037416 0.034334987 -0.10899614 -0.99999976 -0.03543114 0.0 0.99999976 0.0
-0.007298605
00000000: ea68 263f d0fe 1dc0 6990 d3be dfbc 573f
00000010: 72fa 9c3d 7d1a 693c bf44 82bd 39ff 8e3c
00000020: c14a 9239 ec2c 8a39 00fd 9aba 1940 8f3b
00000030: d23d 0cbd e632 c53e db9c 23c0 153a 37be
00000040: ddbd 0f3c 4c37 5dba 910e 65bc d2ec 0fbd
00000050: 4f83 153e 1e25 123c d6a7 303d 3af0 6bb8
00000060: 4c5b e13d d8a2 0c3d 5e39 dfbd fcff 7fbf
00000070: 3e20 11bd 0000 0000 fcff 7f3f 0000 0000
00000080: 2329 efbb

bn1.running_var f4 [33]
4.035918 0.53228 4.8000894 0.069963574 0.06682919 0.029133443 0.113583915 0.37688783
0.06685744 0.10724351 2.1633165 1.207608 2.6554675 19.219435 1.5555692 22.00791
0.10396586 0.2723663 0.10090391 0.52027065 2.3808413 0.74378175 0.94105387 7.943733
3.5184464 8.794118 31.388178 6e-45 32.542362 6e-45 6e-45 6e-45
0.34303245
00000000: 3e26 8140 8143 083f 559a 9940 1049 8f3d
00000010: bedd 883d 42a9 ee3c af9e e83d 71f7 c03e
00000020: 8eec 883d 7ca2 db3d c773 0a40 e692 9a3f
00000030: 2ef3 2940 67c1 9941 e41c c73f 3310 b041
00000040: 0eec d43d 9873 8b3e b6a6 ce3d 7530 053f
00000050: b45f 1840 7b68 3e3f e8e8 703f 1033 fe40
00000060: 3a2e 6140 b5b4 0c41 fd1a fb41 0400 0000
00000070: 612b 0242 0400 0000 0400 0000 0400 0000
00000080: f3a1 af3e

fc1.weight f4 [128, 33]
-0.02831162 0.062234174 0.038978945 -0.2151462 0.020569846 0.0014614734 -0.082816325 -0.014252263
-0.034629934 0.035944752 0.022821987 0.01888427 -0.009820368 0.0027080993 0.09758221 -0.019871246
-0.025582435 0.020306688 -0.16003227 -0.015233055 0.007601253 -0.012544451 0.057418603 -0.058466885
0.08366081 -0.043965746 0.03996834 -0.1301765 0.07548648 -0.187824 0.067399405 0.1552243
0.010354978 0.058759004 0.059540916 0.058481038 -0.09518556 0.036661185 -0.03665463 -0.019769948
-0.009461666 0.088995576 -0.025143933 -0.07353716 -0.11454595 -0.012293369 0.008148509 -0.013166684
0.03382591 -0.04587227 -0.01832517 -0.08216591 0.03450006 0.027102238 0.0693593 0.0335007
0.046633754 0.005161255 -0.044147722 -0.19928421 -0.026141027 -0.06625286 -0.02394349 0.11465617
0.0025423486 0.0969869 -0.0023808337 -0.10126199 -0.15653327 -0.030303821 -0.046319306 -0.0035133115
0.056964394 -0.02386723 -0.09923331 0.05343337 -0.004530254 -0.10834619 -0.099040665 0.08471519
0.05655984 -0.02326116 -0.030350206 0.030569533 0.10532456 -0.029376144 -0.002892876 -0.041973386
-0.11883617 -0.048942327 -0.028954556 -0.030835345 -0.023220258 0.11356321 0.074302435 -0.0015369281
-0.0021237305 0.056789517 0.018864634 0.09894387 0.02657815 -0.10243708 -0.06228724 0.018910715
-0.036064185 0.002263876 0.010183047 0.056761123 -0.07288126 -0.0494182 -0.013245495 -0.01083707
-0.2018735 0.08863095 -0.012833216 -0.013705754 -0.05106757 -0.0572373 0.12056611 -0.008403711
0.059620686 0.013007206 -0.017977437 0.117121585 0.0360141 -0.031187112 0.041121412 -0.21541138
0.02249855 0.030004999 0.057994857 -0.056073707 0.08040575 0.06529201 0.05552298 -0.01092185
0.032874163 -0.04662724 -0.012177497 0.024626685 -0.015134289 0.062160853 -0.040732652 0.092781
0.13075563 -0.068604246 -0.036960274 0.07799804 -0.04214775 -0.026075251 0.0363023 0.01711842
0.10908359 0.036366913 0.013383314 0.019168133 -0.033874866 0.05223739 0.025185157 0.0269313
-0.27786008 -0.019133005 0.06614562 0.06208189 0.06625084 -0.018910602 -0.012783971 0.1567844
0.0026448604 -0.07295718 0.048694286 -0.017045246 0.069351494 0.06645494 -0.013042544 0.06625035
0.034063615 -0.13781166 -0.096658714 -0.04314114 -0.08423251 0.011274787 0.019783553 -0.0030981326
0.03527617 0.062494997 0.0012800359 -0.03260013 -0.04164399 0.004764597 0.07934839 0.06122726
-0.08250779 -0.13567355 0.017430542 -0.05010446 -0.10223589 0.034446683 0.029973935 -0.0056402236
0.00741276 0.13008401 -0.019532287 0.03142489 -0.0034108511 0.009849186 -0.057635646 -0.04318339
-0.011799314 -0.053991042 0.048771214 -0.11350083 -0.10281121 0.03274842 -0.003486121 -0.059911434
0.004687015 0.14688635 -0.062464464 -0.000856473 0.07200634 0.04836512 -0.062913015 0.0049971226
0.043904465 0.17909639 -0.17605904 0.15723829 -0.018357515 -0.119470656 0.10522678 -0.00040942733
-0.012326572 -0.14584826 0.07520833 0.03621177 -0.024417754 -0.008235433 -0.024688251 -0.026364012
-0.006851318 -0.013614703 0.0423813 -0.03734392 0.007235919 0.011849715 0.16718318 0.022415947
0.0239162 -0.033213012 0.015260117 -0.014518033 0.017418183 0.026938796 0.013124131 -0.02454122
00000000: c5ed e7bc 43e9 7e3d 63a8 1f3d 494f 5cbe
00000010: 1882 a83c e98e bf3a 9b9b a9bd 5382 69bc
00000020: 1ed8 0dbd ce3a 133d 2df5 ba3c 2fb3 9a3c
00000030: 9ce5 20bc 5e7a 313b 2fd9 c73d 06c9 a2bc
00000040: 4192 d1bc 365a a63c 80df 23be 1094 79bc
00000050: ef13 f93b 3e87 4dbc c52f 6b3d f97a 6fbd
00000060: 5c56 ab3d 6d15 34bd d8b5 233d fd4c 05be
00000070: a898 9a3d ef54 40be b308 8a3d 1ef3 1e3e
00000080: eda7 293c 48ad 703d 2de1 733d d089 6f3d
00000090: a6f0 c2bd 0a2a 163d 2a23 16bd 96f4 a1bc
000000a0: 1b05 1bbc 5043 b63d a6fa cdbc a79a 96bd
000000b0: 1197 eabd 206a 49bc 5381 053c 13b9 57bc
000000c0: 0a8d 0a3d 90e4 3bbd ab1e 96bc 9a46 a8bd
000000d0: ef4f 0d3d 8305 de3c 400c 8e3d 0838 093d
000000e0: 0903 3f3d bf1f a93b 3ed4 34bd 2911 4cbe
000000f0: b525 d6bc 94af 87bd 2325 c4bc dbd0 ea3d
00000100: 889d 263b 11a1 c63d c307 1cbb 7262 cfbd
00000110: 424a 20be b83f f8bc 50b9 3dbd 963f 66bb
00000120: 7f53 693d 3685 c3bc d53a cbbd f3dc 5a3d
00000130: 8672 94bb 9be4 ddbd d5d5 cabd 287f ad3d
00000140: 4aab 673d 308e bebc ffa0 f8bc f56c fa3c
00000150: 67b4 d73d 3da6 f0bc 6896 3dbb 49ec 2bbd
00000160: 6160 f3bd c077 48bd 1b32 edbc 689a fcbc
00000170: 6938 bebc d493 e83d e02b 983d c072 c9ba
00000180: 492e 0bbb 209c 683d 018a 9a3c 15a3 ca3d
00000190: 6cba d93c 88ca d1bd e820 7fbd a5ea 9a3c
000001a0: 0ab8 13bd 895d 143b cbd6 263c 5a7e 683d
000001b0: c542 95bd bd6a 4abd a203 59bc f78d 31bc
000001c0: edb7 4ebe 2584 b53d 6942 52bc 198e 60bc
000001d0: 3a2c 51bd a971 6abd 5deb f63d b8af 09bc
000001e0: d234 743d 2d1c 553c 6b45 93bc 71dd ef3d
000001f0: 8583 133d 1d7c ffbc ed6e 283d cd94 5cbe
00000200: e14e b83c 0bcd f53c 048c 6d3d 8bad 65bd
00000210: c5ab a43d d1b7 853d 106c 633d 8ff1 32bc
00000220: 0fa7 063d 34fc 3ebd 2084 47bc e7bd c93c
00000230: cff5 77bc 619c 7e3d 48d7 26bd f703 be3d
00000240: cee4 053e 6280 8cbd a863 17bd 70bd 9f3d
00000250: 1ea3 2cbd c49b d5bc b8b1 143d ee3b 8c3c
00000260: 3867 df3d 79f5 143d b045 5b3c 7d06 9d3c
00000270: 5fc0 0abd e0f6 553d 1a51 ce3c 089f dc3c
00000280: ad43 8ebe d2bc 9cbc 5b77 873d 9449 7e3d
00000290: 85ae 873d 68ea 9abc dc73 51bc 178c 203e
000002a0: 6555 2d3b 936a 95bd a973 473d 79a2 8bbc
000002b0: 2808 8e3d 8719 883d 65b0 55bc 43ae 873d
000002c0: 4a86 0b3d 801e 0dbe 01f5 c5bd c4b4 30bd
000002d0: 1882 acbd e2b9 383c 1e11 a23c 0a0a 4bbb
000002e0: bf7d 103d c1fa 7f3d e1c6 a73a b787 05bd
000002f0: e392 2abd 5620 9c3b 6981 a23d 6fc9 7a3d
00000300: d8f9 a8bd 02ee 0abe 7fca 8e3c 563a 4dbd
00000310: 0d61 d1bd f717 0d3d e68b f53c a0d1 b8bb
00000320: bde6 f23b be34 053e 2d02 a0bc 63b7 003d
00000330: 9688 5fbb 7b5e 213c 5b13 6cbd 11e1 30bd
00000340: e951 41bc b625 5dbd 53c4 473d 2073 e8bd
00000350: af8e d2bd 3523 063d 6877 64bb b165 75bd
00000360: 8895 993b 6069 163e bdda 7fbd ee84 60ba
00000370: 0f78 933d 811a 463d 8ad8 80bd e7be a33b
00000380: 2bd5 333d 0b65 373e d248 34be 1303 213e
00000390: 8062 96bc 08ad f4bd 2381 d73d 68a8 d6b9
000003a0: 64f5 49bc 3f59 15be d306 9a3d cb52 143d
000003b0: be07 c8bc e9ed 06bc 043f cabc 57f9 d7bc
000003c0: 0581 e0bb 3410 5fbc 0498 2d3d f0f5 18bd
000003d0: 4a1b ed3b 4f25 423c 1132 2b3e a6a1 b73c
000003e0: e8eb c33c 5e0a 08bd 9205 7a3c 0bdd 6dbc
000003f0: 94b0 8e3c c0ae dc3c 9806 573c ab0a c9bc

fc1.bias f4 [128]
-0.14769414 0.02620507 0.090350255 -0.11395335 -0.14643376 0.10023538 0.15775575 -0.12471922
-0.062194243 -0.1808786 -0.058636677 -0.085198194 -0.1250562 -0.070582174 0.090026386 0.050971687
0.032512996 -0.12030343 -0.14922085 -0.11738485 -0.14073351 0.063723914 -0.039048463 -0.1317336
-0.022520285 0.027505487 -0.08918138 0.12154932 -0.14236823 0.009897988 0.11706533 -0.12841879
0.022164522 0.102871604 -0.047499716 0.0024621037 0.011324032 0.0054598595 -0.0629179 -0.11835897
0.06296026 0.22477366 0.03704685 0.17818926 -0.064411804 0.014808613 0.13963349 0.23589683
-0.16543989 -0.018272245 -0.016273838 0.094584346 -0.21023594 0.088294394 0.2816317 -0.12784714
0.0067174993 0.13438451 0.005357511 0.15102704 0.18316938 -0.21706668 0.07681813 -0.026268478
0.07887074 -0.050156254 -0.047244832 0.10140254 0.2768572 0.19720943 -0.06816028 0.11565548
-0.038122136 0.00928327 0.20498359 -0.11017247 0.007911223 0.121189736 0.021701202 -0.14068069
0.13580605 0.08017927 -0.122412845 0.11300776 0.12768412 0.07690072 -0.09522806 -0.13432363
-0.04442141 0.18447573 -0.14140986 0.084686205 -0.037723497 0.046234347 -0.045430336 -0.093269125
-0.053724922 0.10114827 -0.077545 -0.046850048 0.0608288 -0.04254312 0.0795233 0.022322876
-0.12710966 0.17796487 0.004060958 0.1360032 0.076359734 -0.033833317 0.061427858 -0.09128764
-0.09274774 -0.20865718 0.08982322 0.042738818 -0.086375244 -0.039437637 -0.104086936 0.005869302
0.030800788 0.24087538 -0.043131195 0.09914969 -0.0139318 0.07500008 -0.05233507 0.015469027
00000000: 223d 17be 04ac d63c 8e09 b93d 6060 e9bd
00000010: bbf2 15be 3548 cd3d b98a 213e ca6c ffbd
00000020: 64bf 7ebd 3d38 39be 032d 70bd 647c aebd
00000030: bc0e 00be 638d 90bd c15f b83d b0c7 503d
00000040: 592c 053d a561 f6bd 5acd 18be 7867 f0bd
00000050: 721c 10be af81 823d 48f1 1fbd 2ce5 06be
00000060: 767c b8bc 3053 e13c baa4 b6bd daee f83d
00000070: fac8 11be 2c2b 223c f3bf ef3d 3780 03be
00000080: 5f92 b53c 59ae d23d 108f 42bd 3f5b 213b
00000090: 6f88 393c 9fe8 b23b 1adb 80bd 3066 f2bd
000000a0: 4ff1 803d 112b 663e 70be 173d 3f77 363e
000000b0: 56ea 83bd d39f 723c 15fc 0e3e f08e 713e
000000c0: 1369 29be adaf 95bc b650 85bc 70b5 c13d
000000d0: 1748 57be b1d3 b43d 0832 903e 5cea 02be
000000e0: 781e dc3b 189c 093e 0f8e af3b d5a6 1a3e
000000f0: c190 3b3e ba46 5ebe d352 9d3d fe30 d7bc
00000100: fc86 a13d a570 4dbd cc83 41bd 23ac cf3d
00000110: 3ac0 8d3e 45f1 493e 9e97 8bbd c8dc ec3d
00000120: f525 1cbd db18 183c 38e7 513e 1ba2 e1bd
00000130: 139e 013c 5332 f83d b8c6 b13c 990e 10be
00000140: be10 0b3e 0735 a43d 96b3 fabd 9d70 e73d
00000150: a0bf 023e 207e 9d3d ee06 c3bd 228c 09be
00000160: 39f3 35bd 35e7 3c3e bfcd 10be f66f ad3d
00000170: f483 1abd 3a60 3d3d 2915 3abd e203 bfbd
00000180: aa0e 5cbd d326 cf3d eacf 9ebd d6e5 3fbd
00000190: 9f27 793d b241 2ebd 1ddd a23d 77de b63c
000001a0: 0929 02be 6c3c 363e c911 853b 6c44 0b3e
000001b0: 7e62 9c3d ce94 0abd c79b 7b3d 04f5 babd
000001c0: 87f2 bdbd 3aaa 55be 3df5 b73d e60e 2f3d
000001d0: 81e5 b0bd 5c89 21bd 882b d5bd 4653 c03b
000001e0: ef51 fc3c 09a8 763e 56aa 30bd fe0e cb3d
000001f0: 3442 64bc a499 993d 4c5d 56bd cd71 7d3c

bn2.weight f4 [128]
0.13940145 0.25924817 0.31107947 0.4464792 0.17105953 0.43576014 0.47235242 0.38149935
0.4475552 0.851163 0.4166031 0.34705693 0.294489 0.30352706 0.32350636 0.24982737
0.37700072 0.7047994 0.54723036 0.7141773 0.8380528 0.33728147 0.45671448 0.6426069
0.18243568 0.663892 0.32740504 0.27850437 0.33493918 0.26303387 0.54298496 0.70482355
0.8005304 0.4291178 0.41463888 0.36959675 0.33806908 0.4119147 0.17358278 0.6898713
0.08253223 0.23185094 0.6702662 0.17599295 0.5726114 0.7650154 0.8663017 0.6041179
0.39220816 0.7290963 0.4284471 0.3914038 0.3593597 0.60872614 0.6501044 0.63622653
0.5725887 0.4898975 0.5240699 0.59451514 0.45300385 0.10564746 0.5617058 0.36943722
0.3299518 0.7231101 0.55995035 0.5277671 0.3562122 0.5688316 0.8186371 0.63337934
0.6907832 0.29935133 0.65993726 0.7911789 0.6855 0.79583603 0.33913755 0.51906556
0.8495028 0.6613932 0.25229213 0.78765357 0.85341746 0.54529214 0.13327508 0.47977695
0.3649452 0.7044804 0.245471 0.537046 0.56132644 0.5170112 0.72132605 0.55158025
0.31334248 0.25128502 0.36304542 0.57993114 0.5676937 0.4205636 0.3335683 0.71152526
0.19322254 0.741914 0.4184955 0.6658707 0.8352386 0.5634418 0.55337286 0.29482552
0.8644325 0.7454633 0.33837238 0.622853 0.5795824 0.73825026 0.7269458 0.7491807
0.16881993 0.851135 0.66668016 0.6431294 0.4639413 0.84327656 0.9463861 0.54822737
00000000: 41bf 0e3e 2dbc 843e cf45 9f3e ec98 e43e
00000010: 3b2a 2f3e f41b df3e 2dd8 f13e e253 c33e
00000020: f525 e53e d2e5 593f 004d d53e 72b1 b13e
00000030: 43c7 963e e667 9b3e a0a2 a53e bfd2 7f3e
00000040: 3d06 c13e bc6d 343f 4a17 0c3f 53d4 363f
00000050: a18a 563f 28b0 ac3e 7bd6 e93e e381 243f
00000060: 6bd0 3a3e d3f4 293f a2a1 a73e 2098 8e3e
00000070: 267d ab3e 60ac 863e 1001 0b3f 516f 343f
00000080: 8fef 4c3f 54b5 db3e 8c4b d43e c93b bd3e
00000090: 6417 ad3e 7ce6 d23e afbf 313e 689b 303f
000000a0: a806 a93d 556a 6d3e 9196 2b3f 7f37 343e
000000b0: a996 123f 0dd8 433f f3c5 5d3f 78a7 1a3f
000000c0: 82cf c83e 0ea6 3a3f 6b5d db3e 1466 c83e
000000d0: fffd b73e 7ad5 1b3f 3e6d 263f bedf 223f
000000e0: 2c95 123f d8d3 fa3e 7229 063f 2532 183f
000000f0: 1ff0 e73e b25d d83d f4cb 0f3f e026 bd3e
00000100: 71ef a83e be1d 393f e858 0f3f bf1b 073f
00000110: 7261 b63e f39e 113f 3392 513f 2625 223f
00000120: 2bd7 303f 9444 993e a6f1 283f b38a 4a3f
00000130: ee7c 2f3f e9bb 4b3f 70a3 ad3e 7be1 043f
00000140: 0479 593f 1151 293f 6f2c 813e aaa3 493f
00000150: 9179 5a3f 4498 0b3f 4379 083e 53a5 f53e
00000160: 19da ba3e d458 343f c05c 7b3e d97b 093f
00000170: 17b3 0f3f d95a 043f d3a8 383f 5d34 0d3f
00000180: 6d6e a03e 6ea8 803e 17e1 b93e 5e76 143f
00000190: 6054 113f 1d54 d73e 77c9 aa3e 8526 363f
000001a0: 21dc 453e 13ee 3d3f 0b45 d63e 8176 2a3f
000001b0: 32d2 553f b93d 103f d8a9 0d3f 5ff3 963e
000001c0: 734b 5d3f afd6 3e3f 253f ad3e 4b73 1f3f
000001d0: 835f 143f f8fd 3c3f 1f19 3a3f 4eca 3f3f
000001e0: 22df 2c3e fce3 593f 8dab 2a3f 21a4 243f
000001f0: b789 ed3e f9e0 573f 5c46 723f a158 0c3f

bn2.bias f4 [128]
-0.4566408 -0.029817436 0.09830232 0.22046496 0.25813857 0.17430143 0.080000825 -0.22408135
-0.042953078 0.21572189 0.099487536 0.017181713 0.34444663 0.06862228 0.35769358 0.21425398
-0.22086793 0.106955014 -0.043919135 -0.05662536 0.29331455 -0.0009629016 0.026056532 0.19934894
-0.03423797 0.17836364 0.11315274 0.38254988 0.4316987 -0.2048019 0.304234 0.056080937
-0.14953421 -0.22682667 0.117102824 -0.046278194 0.17691197 0.24114446 0.38854423 0.25674942
0.5601085 0.30703816 -0.101808265 0.5120801 -0.027429923 0.24587154 0.037145887 -0.110438384
-0.3600664 -0.212118 0.21354245 -0.15116611 0.19097379 -0.17169069 0.25187662 0.10911582
-0.09732926 0.24460115 0.17402837 0.008164789 0.19001019 -0.23623908 -0.09900789 0.06257788
0.04716858 0.1156259 0.15294968 0.11308409 0.35227755 0.09749842 -0.07380513 0.10179816
0.009228783 -0.008133961 0.11921734 0.1188318 -0.11762354 0.042762592 -0.045835495 0.04267838
0.2204069 -0.29042998 0.014894026 0.07856211 -0.07242862 -0.06418387 0.3099073 0.2239883
-0.18867049 0.022762248 0.21364148 -0.08910891 0.10256133 0.2562331 0.22696121 0.20934302
0.083941825 0.08456985 0.14726649 -0.013640481 -0.06399411 -0.07336627 0.28351694 -0.0867653
0.27563885 0.13571654 0.2845061 -0.14210673 0.12201662 0.106295966 -0.032530244 -0.08948174
0.12152714 0.09163603 -0.030951487 0.012611151 0.14693272 0.1414339 0.10975171 0.117338784
0.6149688 -0.13200268 -0.018673763 0.22642094 0.23634574 0.023296528 -0.18531601 -0.089437686
00000000: d3cc e9be b243 f4bc ba52 c93d 91c1 613e
00000010: bd2a 843e 137c 323e 79d7 a33d 9575 65be
00000020: 91ef 2fbd 33e6 5c3e 1fc0 cb3d aac0 8c3c
00000030: 4f5b b03e d789 8c3d 9d23 b73e 6565 5b3e
00000040: 342b 62be 3b0b db3d 8de4 33bd feef 67bd
00000050: 532d 963e 3c6b 7cba 8274 d53c 2122 4c3e
00000060: 1d3d 0cbd f5a4 363e a0bc e73d 94dd c33e
00000070: 9d07 dd3e 97b7 51be 8fc4 9b3e 20b5 653d
00000080: 7f1f 19be 4045 68be 9bd3 ef3d 348e 3dbd
00000090: 6928 353e 93ee 763e 45ef c63e a974 833e
000000a0: 4563 0f3f 1b34 9d3e da80 d0bd ae17 033f
000000b0: b8b4 e0bc c0c5 7b3e 4926 183d 852d e2bd
000000c0: a05a b8be 7635 59be dfaa 5a3e 4acb 1abe
000000d0: a28e 433e afcf 2fbe f9f5 803e 1d78 df3d
000000e0: 9054 c7bd b978 7a3e 7e34 323e 9bc5 053c
000000f0: 0892 423e a8e8 71be a6c4 cabd d528 803d
00000100: d733 413d 46cd ec3d d79e 1c3e a298 e73d
00000110: b95d b43e 40ad c73d 2527 97bd 8e7b d03d
00000120: 5234 173c 4e44 05bc 3928 f43d 165e f33d
00000130: 9ce4 f0bd d427 2f3d 00be 3bbd 86cf 2e3d
00000140: 59b2 613e 3db3 94be 1306 743c 2ce5 a03d
00000150: 7555 94bd d572 83bd 2bac 9e3e 305d 653e
00000160: d632 41be e577 ba3c d5c4 5a3e bb7e b6bd
00000170: ad0b d23d fc30 833e 8568 683e 045e 563e
00000180: b1e9 ab3d f532 ad3d 07cd 163e 537c 5fbc
00000190: 580f 83bd 0e41 96bd 2229 913e 01b2 b1bd
000001a0: 8920 8d3e 47f9 0a3e c9aa 913e 6d84 11be
000001b0: dae3 f93d b3b1 d93d 6f3e 05bd 3442 b7bd
000001c0: 39e3 f83d acab bb3d f98d fdbc 009f 4e3c
000001d0: 8875 163e 0cd4 103e 81c5 e03d 514f f03d
000001e0: 986e 1d3f b62b 07be b8f9 98bc e4da 673e
000001f0: 9e04 723e 5cd8 be3c 7bc3 3dbe 1b2b b7bd

bn2.running_mean f4 [128]
0.00014132257 0.07560346 0.14573194 0.03466179 0.0024882746 0.14762916 0.2882739 0.026117953
0.00488415 5.0888775e-05 0.0014919159 0.028647445 1.1212835e-06 0.019981245 0.12608398 0.13567632
0.020618435 0.01282663 0.020265147 0.008050978 0.040840432 0.033254858 0.030818716 0.033154797
0.03709584 0.18943658 0.0035255195 0.17232189 1.6906124e-05 0.022874463 0.18708335 0.021750152
0.05262298 0.15535411 0.006582188 0.019010564 0.07514269 0.04276591 0.0037560472 0.005957518
0.05041979 0.31128538 0.06430808 0.33788216 0.016448937 0.100808896 0.29861385 0.4004252
7.065234e-16 0.019799165 0.06517485 0.033335008 0.00020561666 0.14917883 0.3453686 0.023397507
0.020068916 0.2059101 0.014906026 0.21579942 0.30156323 1.632489e-05 0.111063994 0.0053305365
0.082061686 0.00032239288 0.051362604 0.11163856 0.41014323 0.24962232 0.117244564 0.2353879
0.12227902 0.05899663 0.30475268 0.026006065 0.044962153 0.049530517 0.0024933734 0.039809078
0.15771262 0.22079119 0.0058268253 0.18178923 0.15141305 0.031261794 0.0034470952 0.014361196
0.09771138 0.28548053 0.0064992695 0.20293555 0.068234995 0.040002648 0.030108366 0.0021338838
0.0108652385 0.08645093 0.000111999 0.00636696 0.10579458 0.105789736 0.27076256 0.11454543
0.017117178 0.2696776 0.056275394 0.13789698 0.21087615 0.026663398 0.09172798 0.023972148
0.00014190021 1.2679354e-05 0.120060205 0.04406811 0.029719027 0.02322053 0.043218642 0.08304604
0.02072756 0.29206774 0.022636807 0.08729785 0.02094327 0.056514997 0.037612613 0.008568906
00000000: fd2f 1439 fdd5 9a3d c13a 153e 85f9 0d3d
00000010: 5212 233b 192c 173e a398 933e 51f5 d53c
00000020: 380b a03b 6871 5538 648c c33a 0cae ea3c
00000030: 027f 9635 b5af a33c 291c 013e bcee 0a3e
00000040: fee7 a83c c926 523c 1803 a63c 40e8 033c
00000050: 4c48 273d 3f36 083d 8877 fc3c 53cd 073d
00000060: cff1 173d aafb 413e 670c 673b 2675 303e
00000070: a0d1 8d37 3a63 bb3c c792 3f3e 602d b23c
00000080: 328b 573d 2615 1f3e 65af d73b 0bbc 9b3c
00000090: 69e4 993d 4f2b 2f3d 0428 763b 4837 c33b
000000a0: fb84 4e3d cc60 9f3e f4b3 833d e4fe ac3e
000000b0: ecbf 863c e574 ce3d eae3 983e 8804 cd3e
000000c0: 3aa4 4b26 dc31 a23c 647a 853d 4a8a 083d
000000d0: cd9a 5739 56c2 183e 27d4 b03e 21ac bf3c
000000e0: 9167 a43c 19da 523e 6838 743c 86fa 5c3e
000000f0: 7f66 9a3e 6ff1 8837 8575 e33d c8ab ae3b
00000100: f50f a83d d706 a939 9861 523d c2a2 e43d
00000110: 4bfe d13e fe9c 7f3e eb1d f03d 8709 713e
00000120: 6c6d fa3d 73a6 713d 8b08 9c3e ac0a d53c
00000130: 3c2a 383d 83e0 4a3d dd67 233b d80e 233d
00000140: 6b7f 213e 1617 623e f4ee be3b f526 3a3e
00000150: 060c 1b3e 5e0c 003d a9e8 613b 394b 6b3c
00000160: e71c c83d 812a 923e d3f7 d43b 56ce 4f3e
00000170: cabe 8b3d d1d9 233d d2a5 f63c a1d8 0b3b
00000180: 1d04 323c 2f0d b13d 01e1 ea38 eea1 d03b
00000190: d4aa d83d 4aa8 d83d 64a1 8a3e cb96 ea3d
000001a0: 5339 8c3c 2f13 8a3e 0781 663d de34 0d3e
000001b0: ebef 573e 336d da3c e1db bb3d 3d61 c43c
000001c0: 0ccb 1439 69b9 5437 20e2 f53d c380 343d
000001d0: 5175 f33c fb38 be3c 0806 313d 0b14 aa3d
000001e0: d8cc a93c e789 953e d370 b93c 37c9 b23d
000001f0: 3891 ab3c 457c 673d af0f 1a3d 9964 0c3c

bn2.running_var f4 [128]
1.863026e-05 0.008354976 0.003843942 0.004198264 0.0002224371 0.009252733 0.00815122 0.0022793184
0.0004089987 9.859117e-06 0.00010745797 0.0027157066 2.3821613e-08 0.0013960558 0.0059076906 0.014279899
0.0021468357 0.001086827 0.0023403156 0.0007952058 0.0050838105 0.0034939698 0.0014986118 0.0033733167
0.004188342 0.01541571 0.00043937037 0.015469009 1.220128e-06 0.002057362 0.0061324034 0.0030213983
0.0049554165 0.022663852 0.0005603125 0.0010630944 0.0076747457 0.004088348 0.0002992495 0.0001791614
0.005309656 0.005193699 0.0067030923 0.0032216518 0.0010485617 0.006275192 0.009367283 0.025371395
1.6553947e-17 0.0017187137 0.003407361 0.0018059751 2.0763415e-05 0.004093094 0.02544455 0.0019206264
0.0016587446 0.031473562 0.00097164395 0.0038647573 0.009047749 1.2349499e-06 0.016855435 0.00018789037
0.006522806 2.8206854e-05 0.0057593924 0.004771405 0.012041877 0.033906024 0.011033675 0.004544148
0.0128083 0.006770269 0.040884897 0.0016488677 0.0035581873 0.000773991 0.00018113993 0.00489563
0.020657659 0.015137357 0.00028134586 0.009470657 0.014150625 0.0011156779 0.0002989993 0.001594231
0.010513605 0.012604906 0.00039551477 0.0220243 0.007765702 0.0022938545 0.0028375082 0.00023180168
0.0005593076 0.0072403825 1.0291116e-05 0.00015811843 0.012973786 0.00575845 0.0057954346 0.008637045
0.0012487911 0.013114005 0.005863236 0.017368963 0.0055608386 0.001433208 0.008572327 0.002320029
1.4300704e-05 1.1113789e-06 0.01648355 0.006077707 0.0026104858 0.0018216784 0.003671022 0.007462999
0.002429879 0.0028173532 0.0016467734 0.0078210635 0.0021080258 0.00043869004 0.0014864212 0.00025522074
00000000: 2e48 9c37 4fe3 083c a5ea 7b3b 9791 893b
00000010: 013e 6939 c698 173c b28c 053c 9e60 153b
00000020: e06e d639 9668 2537 0f5b e138 fff9 313b
00000030: 48a0 cc32 dcfb b63a 4d95 c13b 3df6 693c
00000040: edb1 0c3b dd73 8e3a fb5f 193b 5c75 503a
00000050: 1896 a63b 16fb 643b 116d c43a dd12 5d3b
00000060: 5c3e 893b 2d92 7c3c 4b5b e639 ba71 7d3c
00000070: 47c3 a335 cfd4 063b 54f2 c83b a702 463b
00000080: 0c61 a23b 8ba9 b93c efe1 123a 8757 8b3a
00000090: 6f7c fb3b 8cf7 853b 97e4 9c39 46dd 3b39
000000a0: 9ffc ad3b e82f aa3b 9da5 db3b 5922 533b
000000b0: e46f 893a 20a0 cd3b 3c79 193c acd7 cf3c
000000c0: e7ae 9823 7646 e13a 084e 5f3b 78b6 ec3a
000000d0: 182d ae37 5c1f 863b 1771 d03c 87bd fb3a
000000e0: 3c6a d93a 6cea 003d ecb5 7e3a de47 7d3b
000000f0: 033d 143c 8ec0 a535 6914 8a3c 7004 4539
00000100: 43bd d53b c29d ec37 49b9 bc3b 7259 9c3b
00000110: 4b4b 453c 0be1 0a3d 96c6 343c 14e7 943b
00000120: e7d9 513c 22d9 dd3b ec76 273d d21e d83a
00000130: 7a30 693b a8e5 4a3a 61f0 3d39 856b a03b
00000140: 403a a93c ad02 783c 9a81 9339 d12a 1b3c
00000150: 06d8 673c f03b 923a 02c3 9c39 84f5 d03a
00000160: 4141 2c3c cf84 4e3c 185d cf39 4e6c b43c
00000170: 6e77 fe3b 7e54 163b 7df5 393b ca0f 7339
00000180: 7f9e 123a bb40 ed3b 02a8 2c37 98cc 2539
00000190: 0190 543c 61b1 bc3b a1e7 bd3b 6482 0d3c
000001a0: 7aae a33a 20dc 563c 6320 c03b 5b49 8e3c
000001b0: b237 b63b 7bda bb3a f272 0c3c a10b 183b
000001c0: 0eed 6f37 b02a 9535 8308 873c 8027 c73b
000001d0: af14 2b3b 62c5 ee3a 8795 703b 2c8c f43b
000001e0: 9b3e 1f3b 58a3 383b 8cd8 d73a eb23 003c
000001f0: ce26 0a3b fbff e539 05d4 c23a 26cf 8539

fc2.weight f4 [128, 128]
0.1389343 0.107568696 -0.05226242 0.05659652 0.11098103 0.027579868 -0.06622068 0.17125584
0.008070995 -0.058594164 -0.017092247 -0.04832995 0.015290386 -0.12272867 -0.018070357 0.00022658662
0.049383916 -0.009085021 0.007853873 -0.0052473596 -0.07131321 -0.014714833 -0.041287374 0.008721043
0.07455063 -0.054607656 -0.12753375 -0.19668792 -0.15098831 0.048065618 0.001251125 -0.00048771515
0.08243377 0.013346385 -0.019575246 -0.061836112 -0.014110233 -0.07306051 -0.19055702 -0.11024862
-0.20883603 -0.13406673 0.077092245 -0.18582407 0.018086558 0.04667457 0.015794238 0.14657561
0.16636643 -0.064831086 -0.0023379156 0.070411086 0.0065757195 0.012903555 0.061542306 0.06951575
0.012134565 0.026107538 -0.04020692 -0.00057562545 -0.054850522 0.09395213 -0.071221516 -0.04486861
-0.022396443 0.02527952 -0.053312115 0.0425565 -0.03779129 -0.055848464 0.10583709 -0.14194219
-0.16590038 0.07711512 -0.0029500022 -0.12525249 -0.038389318 -0.029154459 0.018953322 0.04199102
-0.041557413 -0.03465513 -0.071943074 0.0013319056 -0.01417739 -0.00012001137 -0.105346926 -0.019528784
0.016290803 0.02443497 -0.1836661 -0.008760904 -0.07544645 0.048790302 -0.021345042 0.05157164
-0.009087195 -0.039276626 0.037690215 0.057505682 -0.00230228 -0.0074120834 -0.07371235 0.040828716
-0.05131948 0.085009806 0.05026128 -0.031152101 -0.090251796 -0.11620481 0.07880382 0.0034241013
0.00077061926 0.004061062 -0.006243497 0.0812603 -0.04089647 0.048119713 0.0558469 -0.04934851
-0.23688363 -0.009005383 0.027885769 -0.024830919 0.052631397 0.04099008 0.0011326532 0.07283563
0.10858888 0.050117962 -0.011227642 0.0070695663 -0.099039614 0.06941293 -0.082880475 -0.025894884
0.04840351 0.0020000522 0.02257604 -0.13798459 -0.26024863 -0.1380704 -0.15273914 -0.065730475
0.023864966 0.022737866 0.0017169314 0.026542658 0.035119835 -0.15423748 0.12121185 -0.004949702
0.0015501726 -0.042158857 0.024480985 -0.12183939 -0.12815091 0.058289222 -0.016100071 -0.000818788
0.008592755 -0.01758692 0.09329652 0.10621809 0.039302498 0.10265486 -0.20150793 0.023410626
-0.16171168 -0.004969926 -0.009959905 -0.17859018 0.10329332 -0.012409426 0.021821521 0.09428247
0.05559835 0.01836464 0.022924488 0.010507352 -0.007300263 0.025167013 -0.030685788 -0.018742636
-0.029498918 -0.08476687 -0.0017527165 -0.009701913 0.05613779 0.014395434 -0.015176043 0.05625017
0.064081915 0.13808863 -0.03728243 -0.03426328 -0.24810012 0.021533933 0.0590808 -0.18418938
-0.021153932 0.003980896 -0.07511802 -0.021889184 0.04238786 0.0006843073 0.098251835 0.075798154
0.00029861435 0.02995802 0.020084001 -0.0189083 0.0015062911 -0.0365425 -0.012944881 -0.029201806
0.062473524 -0.051279716 -0.041427314 0.020110492 -0.0067810947 -0.011124247 -0.07134306 -0.04240699
0.056899536 0.038000282 0.06148481 0.0064438125 0.13647234 0.10270373 -0.015178964 -0.0079129925
-0.1179981 -0.009933358 -0.10746229 -0.06410028 0.029788226 0.048743546 0.006031437 0.056883086
-0.029831251 0.026998032 0.01900709 -0.093901746 0.09093873 -0.034173843 0.033430163 0.029375928
-0.10512754 0.008624748 0.11853473 -0.015698504 -0.020412931 0.045267507 0.10159487 0.085975185
00000000: cb44 0e3e fa4c dc3d 1f11 56bd c1d1 673d
00000010: 064a e33d 2def e13c b59e 87bd b15d 2f3e
00000020: 353c 043c 6f00 70bd 0a05 8cbc a0f5 45bd
00000030: 8784 7a3c 2b59 fbbd 4908 94bc e297 6d39
00000040: ca46 4a3d 57d9 14bc 88ad 003c 0bf2 abbb
00000050: a90c 92bd 7c16 71bc f31c 29bd b5e2 0e3c
00000060: 00ae 983d 47ac 5fbd 3598 02be 8f68 49be
00000070: ae9c 1abe 74e0 443d cafc a33a 05b4 ffb9
00000080: 09d3 a83d ccaa 5a3c 445c a0bc dd47 7dbd
00000090: 9b2e 67bc c0a0 95bd 6121 43be 07ca e1bd
000000a0: 1dd9 55be ca48 09be 8ae2 9d3d aa48 3ebe
000000b0: 432a 943c d52d 3f3d eb62 813c eb17 163e
000000c0: f65b 2a3e 29c6 84bd b737 19bb b033 903d
000000d0: 2279 d73b 6f69 533c c913 7c3d 465e 8e3d
000000e0: 0ed0 463c 7adf d53c 03b0 24bd 92e5 16ba
000000f0: f1aa 60bd f969 c03d 96dc 91bd 26c8 37bd
00000100: bf78 b7bc ff16 cf3c ce5d 5abd b94f 2e3d
00000110: 0acb 1abd 5cc1 64bd 1ec1 d83d 4b59 11be
00000120: cae1 29be 88ee 9d3d d354 41bb 3042 00be
00000130: 1e3e 1dbd 55d5 eebc ff43 9b3c c7fe 2b3d
00000140: 1b38 2abd 8af2 0dbd e456 93bd 5693 ae3a
00000150: 4948 68bc 9dae fbb8 21c0 d7bd d4fa 9fbc
00000160: 4a74 853c d92b c83c f712 3cbe e589 0fbc
00000170: ab83 9abd 57d8 473d ccdb aebc c93c 533d
00000180: 75e2 14bc 87e0 20bd 0e61 1a3d 148b 6b3d
00000190: d9e1 16bb 10e1 f2bb 80f6 96bd 033c 273d
000001a0: 6034 52bd 9f19 ae3d c6de 4d3d b132 ffbc
000001b0: efd5 b8bd cafc edbd e663 a13d e366 603b
000001c0: 6203 4a3a a812 853b 4096 ccbb cd6b a63d
000001d0: 0f83 27bd 2d19 453d b8bf 643d aa21 4abd
000001e0: 9f91 72be 508b 13bc b270 e43c 366a cbbc
000001f0: 0594 573d 37e5 273d 8975 943a d92a 953d
00000200: d963 de3d 7e48 4d3d 25f4 37bc d2a7 e73b
00000210: 48d5 cabd 5e28 8e3d 3dbd a9bd 8221 d4bc
00000220: c242 463d 4f13 033b 63f1 b83c d54b 0dbe
00000230: 4f3f 85be 5462 0dbe a667 1cbe b39d 86bd
00000240: 7680 c33c c344 ba3c a80a e13a fd6f d93c
00000250: d1d9 0f3d 6ef0 1dbe eb3d f83d 1c31 a2bb
00000260: 292f cb3a c4ae 2cbd 598c c83c ee86 f9bd
00000270: fe39 03be aec0 6e3d 4ce4 83bc efa3 56ba
00000280: a0c8 0c3c 7212 90bc 3f12 bf3d df88 d93d
00000290: a8fb 203d b63c d23d 1858 4ebe a4c7 bf3c
000002a0: bf97 25be c3da a2bb df2e 23bc 58e0 36be
000002b0: 738b d33d e850 4bbc 0cc3 b23c 2b17 c13d
000002c0: 18bb 633d 7171 963c 23cc bb3c 0727 2c3c
000002d0: 0b37 efbb 0d2b ce3c c360 fbbc 288a 99bc
000002e0: b7a7 f1bc 419a adbd 68bb e5ba c6f4 1ebc
000002f0: bdf0 653d d4da 6b3c f0a4 78bc 9466 663d
00000300: 613d 833d 1b67 0d3e 76b5 18bd a757 0cbd
00000310: f50d 7ebe ee67 b03c b5fe 713d 249c 3cbe
00000320: 034b adbc 2d72 823b 7ad7 99bd f250 b3bc
00000330: e59e 2d3d 1663 333a 4238 c93d 103c 9b3d
00000340: 578f 9c39 866a f53c 3487 a43c 94e5 9abc
00000350: be6e c53a 97ad 15bd c416 54bc a038 efbc
00000360: 3de4 7f3d ae0a 52bd b0af 29bd c2be a43c
00000370: f233 debb 7942 36bc 4f1c 92bd f4b2 2dbd
00000380: 7d0f 693d 2fa6 1b3d 7fd7 7b3d 9e26 d33b
00000390: 68bf 0b3e 5556 d23d 30b1 78bc 7fa5 01bc
000003a0: fda8 f1bd 86bf 22bc 3015 dcbd 0247 83bd
000003b0: 7006 f43c 50a7 473d 5ca3 c53b 3dfe 683d
000003c0: ab60 f4bc fa2a dd3c c2b4 9b3c 8f4f c0bd
000003d0: 163e ba3d dff9 0bbd 11ee 083d c9a5 f03c
000003e0: 1c4d d7bd d14e 0d3c 56c2 f23d 269a 80bc
000003f0: 0539 a7bc 6c6a 393d f910 d03d c213 b03d

fc2.bias f4 [128]
-0.0817241 -0.12106474 -0.1427374 0.16990416 -0.14732106 -0.054550424 -0.12743843 -0.1358368
-0.12949868 -0.19243492 -0.059247937 -0.05836837 -0.06003774 -0.10777773 0.0034290424 -0.0450078
0.06627679 -0.16534017 -0.10322372 -0.09698617 -0.053517003 -0.08231187 0.08641806 -0.04180022
-0.02363332 0.12178705 -0.12776494 -0.07362459 -0.07306186 -0.016001994 -0.011093295 0.003186032
-0.009782515 -0.15911172 -0.13151918 -0.024859793 0.0026931935 -0.16179387 -0.045784276 -0.011207161
-0.15911514 -0.11643081 -0.06468663 -0.01179026 -0.1391716 -0.06874604 -0.13975698 -0.15409745
0.0201553 -0.13036996 -0.00036215692 -0.115153894 -0.117472336 -0.25152647 -0.0448572 -0.054831352
-0.069489025 0.038843356 0.10495792 0.11634981 -0.06841935 0.032624993 -0.1396832 -0.16894393
0.047243018 -0.10540117 0.0027702672 -0.008063398 -0.105658434 -0.013460917 -0.1529995 0.03175622
-0.10638783 0.06210981 0.0011346207 -0.1619841 -0.062063973 0.03179401 -0.11827747 -0.13545695
-0.08765258 -0.0069434675 -0.14596677 -0.10120905 0.040318295 -0.07303859 0.01251016 -0.04713773
-0.07343512 -0.023614468 -0.081361786 -0.13736151 -0.0796778 -0.12184124 0.02301697 -0.13141316
-0.04708742 -0.066328965 -0.11133726 -0.08585798 -0.095361404 0.07052958 -0.117036805 -0.23503254
-0.040755063 0.028732447 -0.1272978 -0.0018868073 0.03495979 -0.026889786 -0.021599563 -0.24954914
0.0538874 0.09978526 -0.16064323 -0.17201872 -0.008451239 -0.12109563 -0.11457797 -0.011456485
0.06450407 -0.14754675 -0.15311547 -0.07972058 0.0629835 0.0030206814 -0.11885846 -0.0038217246
00000000: f75e a7bd caf0 f7bd c129 12be 5bfb 2d3e
00000010: 55db 16be 4470 5fbd 387f 02be cd18 0bbe
00000020: 4d9b 04be a90d 45be f7ad 72bd ac13 6fbd
00000030: 22ea 75bd 92ba dcbd c9b9 603b 195a 38bd
00000040: 20bc 873d ef4e 29be f566 d3bd afa0 c6bd
00000050: a534 5bbd 2093 a8bd f4fb b03d b536 2bbd
00000060: aa9a c1bc 7d6b f93d d0d4 02be 7dc8 96bd
00000070: 75a1 95bd 9d16 83bc a7c0 35bc bfcc 503b
00000080: d746 20bc 2fee 22be f7ac 06be c4a6 cbbc
00000090: 4a80 303b 4bad 25be 4b88 3bbd 3d9e 37bc
000000a0: 14ef 22be 4773 eebd 6d7a 84bd ef2b 41bc
000000b0: 0083 0ebe b9ca 8cbd 741c 0fbe b9cb 1dbe
000000c0: ba1c a53c b47f 05be e1df bdb9 ced5 ebbd
000000d0: 5695 f0bd 14c8 80be 2fbc 37bd d796 60bd
000000e0: 4350 8ebd 361a 1f3d 2ef4 d63d cf48 ee3d
000000f0: 721f 8cbd c9a1 053d 1d09 0fbe a3ff 2cbe
00000100: e581 413d 92dc d7bd 5f8d 353b 581c 04bc
00000110: 7363 d8bd 2e8b 5cbc e7ab 1cbe cf12 023d
00000120: dde1 d9bd db66 7e3d 8eb7 943a 29df 25be
00000130: cb36 7ebd 703a 023d 753b f2bd 3ab5 0abe
00000140: 3283 b3bd 0786 e3bb 5078 15be b146 cfbd
00000150: cc24 253d 4295 95bd 6af7 4c3c 7e13 41bd
00000160: 2765 96bd 2173 c1bc 02a1 a6bd 7fa8 0cbe
00000170: 1d2e a3bd e687 f9bd 168e bc3c 2c91 06be
00000180: bdde 40bd 7bd7 87bd ca04 e4bd 4fd6 afbd
00000190: d74c c3bd d071 903d feb0 efbd 5fac 70be
000001a0: c8ee 26bd 4f60 eb3c 5b5a 02be bf4e f7ba
000001b0: ff31 0f3d f847 dcbc 91f1 b0bc cf89 7fbe
000001c0: 09b9 5c3d 375c cc3d a97f 24be ad25 30be
000001d0: 1177 0abc fc00 f8bd dba7 eabd fbb3 3bbc
000001e0: b61a 843d 7f16 17be 4dca 1cbe 8b44 a3bd
000001f0: 7efd 803d a0f6 453b 106c f3bd e675 7abb

bn3.weight f4 [128]
0.882479 1.2478626 1.0960568 1.3490412 1.4025139 0.6645197 1.2949692 0.8549337
1.067133 0.76502407 1.0908114 0.928448 1.3763086 1.3893085 1.0779208 0.76228386
0.87343484 1.0413842 0.9601556 1.1198207 0.6992709 1.5972298 0.7331698 0.84575355
1.2618355 1.3226851 1.0619932 0.8699891 1.3460469 1.0279328 1.4439836 0.63821214
0.9284663 0.72707164 1.3514191 0.7167453 1.9362512 1.012378 1.0272297 1.0120077
0.7907401 1.3749398 0.6157264 0.9950941 1.2974725 0.78104407 0.9700816 0.86284345
1.2260677 0.84910965 0.90986973 1.2240604 0.5531494 0.96695304 1.2041535 1.1729476
1.297639 1.069203 1.1262972 0.81769353 1.2813808 0.8638386 1.0605929 0.7528428
1.0991014 1.345313 1.2154744 1.4763738 0.9276691 1.1138576 0.77682686 0.732093
0.8601959 1.2664014 1.1549376 1.2735884 1.2243395 1.2249686 0.9591067 1.1878017
1.1250138 0.968143 1.0250223 1.1025478 1.2246661 0.8847238 0.8490188 0.9458453
0.6888058 1.1615123 0.9733546 0.7846238 0.8117074 1.1981752 1.3244392 1.4777869
1.4376212 1.076397 0.8694322 0.8292766 1.1890584 0.8614044 0.81031996 0.7779462
1.2728251 1.2178847 1.2645876 1.2328106 0.9581643 1.0277368 1.0466303 0.77298105
0.90005326 0.68794847 0.836513 0.86106384 0.9895189 0.71802515 0.69527817 1.365604
1.085331 0.8436757 1.0468116 1.1900998 1.2579614 1.2522476 0.5069172 1.1400087
00000000: 25ea 613f f6b9 9f3f 974b 8c3f 62ad ac3f
00000010: 9385 b33f f71d 2a3f 8dc1 a53f efdc 5a3f
00000020: d097 883f 9ed8 433f b59f 8b3f c5ae 6d3f
00000030: e12a b03f dcd4 b13f 4ff9 893f 0925 433f
00000040: 6d99 5f3f 144c 853f c2cc 753f 4956 8f3f
00000050: 6b03 333f 0772 cc3f 04b1 3b3f 4e83 583f
00000060: d383 a13f bf4d a93f 65ef 873f 9bb7 5e3f
00000070: 444b ac3f 4d93 833f 74d4 b83f df61 233f
00000080: f8af 6d3f 5e21 3a3f 4dfb ac3f 9f7c 373f
00000090: 14d7 f73f 9a95 813f 437c 833f 7889 813f
000000a0: f16d 4a3f 07fe af3f 3fa0 1d3f 7dbe 7e3f
000000b0: 9413 a63f 81f2 473f 4557 783f 4fe3 5c3f
000000c0: c9ef 9c3f 405f 593f 39ed 683f 03ae 9c3f
000000d0: 339b 0d3f 3c8a 773f b421 9a3f 2623 963f
000000e0: 0919 a63f a5db 883f 822a 903f 5d54 513f
000000f0: 4904 a43f 8724 5d3f 82c1 873f 4eba 403f
00000100: 5baf 8c3f 3733 ac3f aa94 9b3f d1f9 bc3f
00000110: b97b 6d3f e392 8e3f 20de 463f 726a 3b3f
00000120: cc35 5c3f 7119 a23f ffd4 933f f204 a33f
00000130: 28b7 9c3f c5cb 9c3f 0488 753f e309 983f
00000140: 7400 903f 38d8 773f ee33 833f 4920 8d3f
00000150: dcc1 9c3f 427d 623f 4c59 593f eb22 723f
00000160: 9455 303f 6fac 943f c42d 793f 1bdd 483f
00000170: 0ecc 4f3f ce5d 993f 3987 a93f 1f28 bd3f
00000180: f903 b83f 60c7 893f 1c93 5e3f 794b 543f
00000190: 1133 983f 0085 5c3f 2171 4f3f 7b27 473f
000001a0: efeb a23f a5e3 9b3f 02de a13f bdcc 9d3f
000001b0: 414a 753f e18c 833f fbf7 853f 16e2 453f
000001c0: e469 663f 641d 303f b725 563f ae6e 5c3f
000001d0: 1c51 7d3f 7fd0 373f c0fd 313f 1dcc ae3f
000001e0: 20ec 8a3f 21fb 573f ecfd 853f 3155 983f
000001f0: e104 a13f a649 a03f 53c5 013f ceeb 913f

bn3.bias f4 [128]
-0.042623714 0.176634 -0.008218591 -0.04018733 0.03695794 -0.04453644 0.20999366 -0.08278652
0.038862035 -0.058715746 -0.044038344 0.012891311 0.17883238 -0.024156775 -0.10302221 -0.03138729
0.025158657 0.033638313 0.069338754 0.034018688 -0.04430456 0.21963751 0.13213615 0.12444109
0.039776977 -0.027072167 -0.056250654 -0.009121455 -0.007784358 -0.001321991 0.03322544 0.049579505
0.14378047 0.030230252 -0.0010572047 -0.1816937 -0.004640821 -0.034854706 -0.049261127 -0.03295848
-0.021979919 -0.01050294 -0.011197775 -0.04465591 0.06856453 0.0013983202 -0.038132977 0.08660703
0.08023638 0.007840898 -0.04639621 -0.013466074 -0.17418152 0.07085811 0.086042464 0.10883032
0.034520324 -0.069388226 0.04959919 0.18572512 -0.032402523 0.118088655 -0.013649828 0.13551904
-0.10492104 0.021227244 0.0061450102 0.114346184 0.016237311 0.14665122 0.122994095 -0.028240629
0.03149335 -0.119101174 0.00557965 -0.023167683 0.058045544 -0.10659093 0.004487315 -0.044075325
0.02055066 0.12358311 -0.033638358 0.021819746 -0.006363186 0.00203605 0.017292807 0.035264295
-0.040231228 -0.034295097 0.08245661 0.13873863 0.046811327 -0.0556013 0.021402266 -0.07230175
0.003877943 -0.021606166 0.0933843 -0.044127107 -0.046599824 -0.02435681 -0.04784878 0.03962436
-0.0015449857 -0.018083977 -0.05775198 0.032952216 -0.052755143 0.009277658 0.056302425 0.14046293
-0.106410176 0.09452104 0.03414765 -0.03502413 -0.03652129 -0.032651618 0.03960683 -0.058794837
-0.091709465 -0.026632309 0.2279825 0.14258626 0.1499501 0.15394334 0.12812205 0.007113037
00000000: 3496 2ebd 8bdf 343e 45a7 06bc 789b 24bd
00000010: 3561 173d d86b 36bd 9408 573e fb8b a9bd
00000020: cc2d 1f3d ec7f 70bd 8d61 34bd 1436 533c
00000030: d61f 373e 6ee4 c5bc 4ffd d2bd f68f 00bd
00000040: 8719 ce3c 54c8 093d 7a01 8e3d 2e57 0b3d
00000050: b378 35bd a8e8 603e b34e 073e f8da fe3d
00000060: 2fed 223d 73c6 ddbc 1667 66bd 2872 15bc
00000070: ee13 ffbb a846 adba 6617 083d e113 4b3d
00000080: 303b 133e 6fa5 f73c e791 8aba ea0d 3abe
00000090: 0712 98bb cfc3 0ebd 09c6 49bd 79ff 06bd
000000a0: 3b0f b4bc 8614 2cbc df76 37bc 1ee9 36bd
000000b0: 8f6b 8c3d d747 b73a 5331 1cbd 075f b13d
000000c0: f952 a43d 1c77 003c f409 3ebd cfa0 5cbc
000000d0: a45c 32be 0f1e 913d 0837 b03d 6ee2 de3d
000000e0: 2f65 0d3d 6a1b 8ebd 8528 4b3d ba2e 3e3e
000000f0: 82b8 04bd 77d8 f13d 87a3 5fbc 81c5 0a3e
00000100: d8e0 d6bd c2e4 ad3c 155c c93b 552e ea3d
00000110: 1c04 853c bd2b 163e 54e4 fb3d e458 e7bc
00000120: 2cff 003d 51eb f3bd 7fd5 b63b 27ca bdbc
00000130: 2ac1 6d3d 584c dabd 540a 933b 5488 34bd
00000140: dc59 a83c 2419 fd3d 60c8 09bd 53bf b23c
00000150: 4682 d0bb 406f 053b a5a9 8d3c 4b71 103d
00000160: 80c9 24bd 0479 0cbd 03df a83d 8011 0e3e
00000170: 3cbd 3f3d 30be 63bd ce53 af3c f112 94bd
00000180: 1625 7e3b 6aff b0bc 4540 bf3d a0be 34bd
00000190: 75df 3ebd ef87 c7bc 15fd 43bd 274d 223d
000001a0: 1e81 caba d924 94bc 578d 6cbd e7f8 063d
000001b0: c715 58bd 5101 183c 5f9d 663d 84d5 0f3e
000001c0: 94ed d9bd 3f94 c13d 68de 0b3d 7675 0fbd
000001d0: 5997 15bd b4bd 05bd c53a 223d dbd2 70bd
000001e0: 2cd2 bbbd 002c dabc 3f74 693e 2202 123e
000001f0: 858c 193e 53a3 1d3e 6d32 033e 7b14 e93b

bn3.running_mean f4 [128]
0.0022187044 0.0067629414 0.0015768864 0.5486354 0.023678442 0.0026995824 0.0021526273 0.00035661826
0.025681386 0.0004957859 1.8708382e-10 0.0050614034 0.17527488 6e-45 0.065247074 0.19591315
0.166177 3.8668204e-05 0.049727686 0.1617222 0.06908054 0.014217312 0.15871513 0.08016515
0.045119066 0.44895944 1.6466344e-13 0.05580743 0.02577411 0.036688514 0.2733863 0.058876798
0.031669658 1.0660018e-08 0.014403571 0.07612467 0.009581813 5.6628727e-05 0.0351656 0.123593256
6e-45 5.07431e-06 0.00041958212 0.0412893 0.005779942 0.0015694082 6e-45 6.699088e-12
0.048320625 8.941432e-06 0.07289262 3.0038216e-05 0.0008991353 0.0011459898 0.012879729 0.017309718
0.10473661 0.5338562 0.26603246 0.34967113 0.009814556 0.01050743 6.2398336e-05 5.2888794e-05
0.041121494 0.037486114 0.038907483 0.02038511 0.00042952274 0.15361062 0.000425179 0.10605635
0.009989749 0.2085161 0.12221828 0.0004999849 0.025939757 0.3052282 0.027730161 0.009203852
0.0017405142 0.08329238 0.016473485 0.019723397 0.053598825 0.038587175 0.14009404 0.0702058
0.0026660778 0.024921017 0.09345616 0.0006931516 0.034981407 1.9903775e-14 0.08460008 0.061274268
0.0030149631 0.24469765 0.0014900645 0.018008068 0.002447139 0.5003181 0.014639352 1.6548826e-07
0.0063617527 0.3525658 0.011171712 0.00081462576 0.27335694 0.012980559 0.013034222 6e-45
0.053669434 0.18204731 0.00022480788 0.002875038 0.01628576 0.0010390567 5.48717e-05 0.4284365
0.3742157 0.0029586044 0.0027376006 0.012972751 0.38716933 0.0051705283 6e-45 0.18252215
00000000: af67 113b aa9b dd3b 87af ce3a 5f73 0c3f
00000010: 4bf9 c13c 7aeb 303b 1813 0d3b 7ef8 ba39
00000020: c561 d23c a1f7 013a 6ab3 4d2f 21da a53b
00000030: 427b 333e 0400 0000 42a0 853d 759d 483e
00000040: 4e2a 2a3e ab2f 2238 42af 4b3d 819a 253e
00000050: 197a 8d3d bbef 683c 3886 223e a02d a43d
00000060: c5ce 383d 03de e53e 0165 392a 5596 643d
00000070: 3a24 d33c b246 163d 4af9 8b3e cc28 713d
00000080: 0bb8 013d 4123 3732 f5fc 6b3c 40e7 9b3d
00000090: 09fd 1c3c a284 6d38 ce09 103d 761e fd3d
000000a0: 0400 0000 fe43 aa36 5cfb db39 f81e 293d
000000b0: ab65 bd3b 9ab4 cd3a 0400 0000 05b4 eb2c
000000c0: d9eb 453d 2803 1637 ba48 953d 94fa fb37
000000d0: f3b3 6b3a 0935 963a 8005 533c 1ccd 8d3c
000000e0: 2680 d63d cdaa 083f 6835 883e 1808 b33e
000000f0: 3bcd 203c 5b27 2c3c dadb 8238 e9d4 5d38
00000100: 036f 283d 0a8b 193d 745d 1f3d adfe a63c
00000110: 9131 e139 1a4c 1d3e 8fea de39 1234 d93d
00000120: 0bac 233c 3f85 553e 944d fa3d 6b11 033a
00000130: 9d7f d43c df46 9c3e 5d2a e33c c1cb 163c
00000140: f721 e43a 3295 aa3d 67f3 863c f692 a13c
00000150: 718a 5b3d 960d 1e3d d074 0f3e 0fc8 8f3d
00000160: 5db9 2e3b 2927 cc3c f165 bf3d 9eb4 353a
00000170: aa48 0f3d fb46 b328 cf42 ad3d bafa 7a3d
00000180: b096 453b 0592 7a3e 454e c33a a885 933c
00000190: 2e60 203b d914 003f e5d9 6f3c 11b1 3134
000001a0: 4076 d03b 8183 b43e 8e09 373c 9c8c 553a
000001b0: 71f5 8b3e 69ac 543c 7d8d 553c 0400 0000
000001c0: 7bd4 5b3d 9c6a 3a3e 68ba 6b39 226b 3c3b
000001d0: b769 853c f530 883a 0a26 6638 075c db3e
000001e0: 3399 bf3e 25e5 413b 5169 333b a98b 543c
000001f0: 0f3b c63e 896d a93b 0400 0000 16e7 3a3e

bn3.running_var f4 [128]
0.0017826004 0.0108604 0.0014090062 0.22740123 0.00750336 0.0029680529 0.00048816612 0.00020364359
0.021182105 0.00020108662 1.4119674e-11 0.0015312927 0.08062349 6e-45 0.02219368 0.07487674
0.05072869 1.6347138e-05 0.017544316 0.083345674 0.020860868 0.00338433 0.05094408 0.02497333
0.022349892 0.15075883 3.4305322e-14 0.024144206 0.015676873 0.007191322 0.1669187 0.026162662
0.01320684 3.1482819e-09 0.003414695 0.025446454 0.001783936 1.0394953e-05 0.008843908 0.05799614
6e-45 3.5572464e-07 0.00035192084 0.019602345 0.0062337066 0.0012388969 6e-45 1.3996515e-13
0.014185819 2.734882e-06 0.031736825 2.6100843e-06 0.0008950136 0.00082467735 0.0061587393 0.0061619566
0.04787799 0.2222684 0.057327017 0.16206719 0.005664477 0.0060007907 1.30137905e-05 9.299336e-06
0.015135863 0.012710621 0.01461114 0.005189942 0.00041151367 0.063305065 0.00039521203 0.05270378
0.002855541 0.07835273 0.043485135 0.0005369194 0.007220624 0.14528696 0.005621091 0.0018179413
0.0015574478 0.030209195 0.0034057095 0.0036344873 0.017570848 0.012582292 0.0652834 0.02703349
0.0021891836 0.0082666855 0.029633038 0.00056935847 0.009397476 1.3137675e-14 0.047987785 0.012685876
0.0009432903 0.10219802 0.00039824875 0.006429516 0.00071794784 0.21712886 0.004633376 3.901443e-08
0.006676586 0.22783321 0.0043219193 0.0004284599 0.13727677 0.01122799 0.0021696351 6e-45
0.012502649 0.07763259 0.00015326682 0.0032568874 0.0035770072 0.0008587916 1.3935285e-05 0.15272419
0.09805194 0.002368613 0.0023351926 0.017021248 0.12459662 0.0010567866 6e-45 0.075268544
00000000: 25a6 e93a d2ef 313c 67ae b83a dedb 683e
00000010: bfde f53b aa83 423b 8cf0 ff39 2989 5539
00000020: 1886 ad3c c7da 5239 5c65 782d a8b5 c83a
00000030: ee1d a53d 0400 0000 85cf b53c fa58 993d
00000040: e3c8 4f3d 3621 8937 19b9 8f3c 23b1 aa3d
00000050: 69e4 aa3c a3cb 5d3b bdaa 503d de94 cc3c
00000060: 1f17 b73c 8660 1a3e 587f 1a29 12ca c53c
00000070: c96c 803c 2ea5 eb3b bcec 2a3e 1453 d63c
00000080: 8061 583c 2959 5831 13c9 5f3b 1575 d03c
00000090: f6d2 e93a fc65 2e37 0ae6 103c 5c8d 6d3d
000000a0: 0400 0000 6cfa be34 0482 b839 1995 a03c
000000b0: 1f44 cc3b 7b62 a23a 0400 0000 3596 1d2a
000000c0: a36b 683c ea88 3736 79fe 013d e828 2f36
000000d0: 599f 6a3a 292f 583a 40cf c93b 3dea c93b
000000e0: b61b 443d 549a 633e bccf 6a3d f1f4 253e
000000f0: 149d b93b 48a2 c43b ce55 5a37 5804 1c37
00000100: 69fc 773c 3540 503c 9063 6f3c 6410 aa3b
00000110: 6ec0 d739 16a6 813d 7634 cf39 ebdf 573d
00000120: 0724 3b3b 6577 a03d 781d 323d 0dc0 0c3a
00000130: fc9a ec3b 1bc6 143e 2131 b83b fd47 ee3a
00000140: 4723 cc3a 4679 f73c 5332 5f3b 9430 6e3b
00000150: bdf0 8f3c f525 4e3c 4eb3 853d 5675 dd3c
00000160: 6878 0f3b fe70 073c fcc0 f23c 0041 153a
00000170: dff7 193c d5aa 6c28 d78e 443d 6cd8 4f3c
00000180: 2447 773a 324d d13d 0bcc d039 b0ae d23b
00000190: aa34 3c3a 0757 5e3e 93d3 973b d290 2733
000001a0: 43c7 da3b 1c4d 693e e39e 8d3b eaa2 e039
000001b0: 4892 0c3e 9af5 373c 7030 0e3b 0400 0000
000001c0: e9d7 4c3c d6fd 9e3d 40b6 2039 8171 553b
000001d0: 396c 6a3b 8720 613a 98cb 6937 bb63 1c3e
000001e0: 75cf c83d bb3a 1b3b 080a 193b 2570 8b3c
000001f0: 832c ff3d e083 8a3a 0400 0000 6526 9a3d
