mode_weights/agent19_critic_local.pth (torch_old, 93523 bytes, 17 tensors)

bn1.weight f4 [33]
000000 58 15 fe 3e 2f aa 44 3f a8 33 b5 3d 00 33 07 3e
       0.4962566 0.7682218 0.08847743 0.13203049
000010 86 66 9d 3e fb 52 22 3f 86 ed fa 3e 67 7d 65 3f
       0.30742282 0.6340787 0.4900934 0.89644474
000020 12 48 e9 3e d3 de 21 3f 2a a2 b2 3e e4 ad cd 3e
       0.45562798 0.6323063 0.34889346 0.4017173
000030 80 e4 b6 3c 5c e9 2c 3e 8c 78 96 3e d8 bd 04 3f
       0.022325754 0.16885895 0.29388845 0.5185218
000040 58 9a 32 3f 8c cd 4c 3f e8 e4 24 3e 82 85 90 3e
       0.6976676 0.8000114 0.16102946 0.28226858
000050 e6 7d 2e 3f 27 4a 6a 3f ae 50 cb 3e ae c8 5f 3f
       0.68160856 0.915194 0.3970999 0.8741559
000060 b0 bc d6 3e 51 8b 0d 3f a5 e6 73 3f 90 21 14 3d
       0.41940832 0.55290705 0.9527381 0.03616482
000070 34 ad 3d 3e 90 30 bf 3e 12 36 9c 3e 94 97 6e 3f
       0.18523103 0.37341738 0.30510002 0.9320004
000080 cc 21 34 3e
       0.17591017

bn1.bias f4 [33]
000000 00 00 00 00 00 00 00 00 00 00 00 00 00 00 00 00
       0.0 0.0 0.0 0.0
000010 00 00 00 00 00 00 00 00 00 00 00 00 00 00 00 00
       0.0 0.0 0.0 0.0
000020 00 00 00 00 00 00 00 00 00 00 00 00 00 00 00 00
       0.0 0.0 0.0 0.0
000030 00 00 00 00 00 00 00 00 00 00 00 00 00 00 00 00
       0.0 0.0 0.0 0.0
000040 00 00 00 00 00 00 00 00 00 00 00 00 00 00 00 00
       0.0 0.0 0.0 0.0
000050 00 00 00 00 00 00 00 00 00 00 00 00 00 00 00 00
       0.0 0.0 0.0 0.0
000060 00 00 00 00 00 00 00 00 00 00 00 00 00 00 00 00
       0.0 0.0 0.0 0.0
000070 00 00 00 00 00 00 00 00 00 00 00 00 00 00 00 00
       0.0 0.0 0.0 0.0
000080 00 00 00 00
       0.0

bn1.running_mean f4 [33]
000000 00 00 00 00 00 00 00 00 00 00 00 00 00 00 00 00
       0.0 0.0 0.0 0.0
000010 00 00 00 00 00 00 00 00 00 00 00 00 00 00 00 00
       0.0 0.0 0.0 0.0
000020 00 00 00 00 00 00 00 00 00 00 00 00 00 00 00 00
       0.0 0.0 0.0 0.0
000030 00 00 00 00 00 00 00 00 00 00 00 00 00 00 00 00
       0.0 0.0 0.0 0.0
000040 00 00 00 00 00 00 00 00 00 00 00 00 00 00 00 00
       0.0 0.0 0.0 0.0
000050 00 00 00 00 00 00 00 00 00 00 00 00 00 00 00 00
       0.0 0.0 0.0 0.0
000060 00 00 00 00 00 00 00 00 00 00 00 00 00 00 00 00
       0.0 0.0 0.0 0.0
000070 00 00 00 00 00 00 00 00 00 00 00 00 00 00 00 00
       0.0 0.0 0.0 0.0
000080 00 00 00 00
       0.0

bn1.running_var f4 [33]
000000 00 00 80 3f 00 00 80 3f 00 00 80 3f 00 00 80 3f
       1.0 1.0 1.0 1.0
000010 00 00 80 3f 00 00 80 3f 00 00 80 3f 00 00 80 3f
       1.0 1.0 1.0 1.0
000020 00 00 80 3f 00 00 80 3f 00 00 80 3f 00 00 80 3f
       1.0 1.0 1.0 1.0
000030 00 00 80 3f 00 00 80 3f 00 00 80 3f 00 00 80 3f
       1.0 1.0 1.0 1.0
000040 00 00 80 3f 00 00 80 3f 00 00 80 3f 00 00 80 3f
       1.0 1.0 1.0 1.0
000050 00 00 80 3f 00 00 80 3f 00 00 80 3f 00 00 80 3f
       1.0 1.0 1.0 1.0
000060 00 00 80 3f 00 00 80 3f 00 00 80 3f 00 00 80 3f
       1.0 1.0 1.0 1.0
000070 00 00 80 3f 00 00 80 3f 00 00 80 3f 00 00 80 3f
       1.0 1.0 1.0 1.0
000080 00 00 80 3f
       1.0

fcs1.weight f4 [128, 33]
000000 16 67 f1 b9 51 7b 0e ba 1b c0 0f b8 0b 73 31 39
       -0.00046043907 -0.00054352457 -3.427277e-05 0.00016922892
000010 62 06 05 39 ac 71 ee b7 2a b0 c3 b7 b8 26 e4 38
       0.00012686246 -2.8424744e-05 -2.3327844e-05 0.00010879099
000020 bf 22 f0 38 4c 7e 45 b8 7e 02 27 ba 7e 80 df 37
       0.00011450564 -4.7086083e-05 -0.0006370916 2.6643505e-05
000030 52 ca 88 3a ec c1 14 bb 2d e3 aa ba a9 39 72 b9
       0.0010436273 -0.0022698594 -0.0013037674 -0.00023100399
000040 ec ac 97 38 9d 88 09 b9 3c a1 83 39 4a fa e2 39
       7.23245e-05 -0.0001311623 0.00025106396 0.0004329256
000050 f7 e8 8b b9 db 58 43 39 c9 45 1d ba b4 05 65 b9
       -0.00026685718 0.0001862975 -0.00059994735 -0.00021841266
000060 e9 68 3a 3b f2 aa 15 ba 64 ec 27 bb a3 06 cb b8
       0.002844388 -0.0005709372 -0.0025623078 -9.6810305e-05
000070 42 77 e5 3a 3e c6 01 00 a3 06 cb 38 0c d9 00 80
       0.0017506855 1.62951e-40 9.6810305e-05 -7.7862e-41
000080 fb f2 17 b5 b6 ed 16 3d 0a 83 de 3c d5 06 96 b9
       -5.6605467e-07 0.036847793 0.027162094 -0.0002861532
000090 10 e0 ea bb 01 ce 2b bd 78 c1 8e bb f7 ed 45 bb
       -0.0071678236 -0.041944508 -0.0043565594 -0.0030201653
0000a0 f3 2c 6a bb f2 af 5e bb 2d 2f 2f 3c 61 4a 82 3c
       -0.0035732358 -0.0033979383 0.0106924 0.015904607
0000b0 c4 0b a3 3c d6 c0 8d 3b 51 b0 5b bd 1b d3 6c 3b
       0.019903071 0.0043259664 -0.053634945 0.003613657
0000c0 3e ff a8 bc 7e 3f c0 3b c8 a6 81 bc 38 19 9b 3c
       -0.020629521 0.005866944 -0.015826598 0.018932924
0000d0 13 41 43 3b 42 6e 5a 3b 06 05 3e bc 82 96 16 bb
       0.0029793426 0.003332988 -0.011597877 -0.0022977893
0000e0 26 07 9c bc 58 a6 03 bb 7e a6 11 bc 5f cc 2b 3c
       -0.019046377 -0.0020088162 -0.0088897925 0.010485738
0000f0 9b 1a bf 3d b6 d7 38 3d bd 25 01 80 26 31 bf bd
       0.093312465 0.045127593 -1.05373e-40 -0.09335546
000100 29 13 00 80 ee 6f 49 3e d0 10 d1 bc 0b 75 40 bc
       -6.873e-42 0.19671604 -0.025520712 -0.011746655
000110 ca a1 cc 3d b6 6c da bc 77 da 9f bb 5c 1f 08 bc
       0.09991796 -0.026663166 -0.004878338 -0.008308258
000120 6e 44 94 3c 3c 7f fc 39 f1 7e 9e bc 4f a0 6a bc
       0.018099036 0.00048159983 -0.01934764 -0.014320447
000130 cd ea fa 3b c6 32 2b bc 46 96 1a 3d 86 85 89 3c
       0.007657385 -0.010449117 0.03774097 0.016787302
000140 68 98 14 bd 9b b8 27 bd 2f dc d5 3b 73 57 8b bb
       -0.03627816 -0.040947538 0.006526492 -0.004252368
000150 c8 4b bd bc 62 97 ba bc c9 e0 84 3c 42 bc 62 bd
       -0.023107424 -0.022777263 0.016220467 -0.055355318
000160 9c 1b 7a bc 6e 75 8b 3c a6 14 88 bc 25 c2 33 bc
       -0.015265372 0.017023768 -0.016611408 -0.010971581
000170 c4 81 68 3c fc 07 b6 3d 5b a6 47 bd fd 84 00 80
       0.014191095 0.08888242 -0.048742633 -4.7707e-41
000180 ae 35 b6 bd 33 2c 01 80 96 70 98 bc 6f 68 a7 3c
       -0.08896957 -1.07691e-40 -0.018608373 0.02043554
000190 2d b8 8e bc dc 8c 35 3b 7b 4c 2a 3a 72 ed 05 bc
       -0.017421806 0.0027702367 0.0006496382 -0.008174287
0001a0 d3 67 b3 3b 18 7e 1c 3c ca 38 8a 3d 4e da df 3b
       0.0054750233 0.0095515475 0.06749113 0.006831444
0001b0 6b 9e 0e bd 8a eb 81 bc 22 74 7d 3d ff 7b 7e bd
       -0.034819048 -0.015859384 0.06187833 -0.06212997
0001c0 e4 7c d3 bc 62 be 16 3d 23 81 5d bc 7e 4d 0d 3d
       -0.025816388 0.036802657 -0.013519558 0.03449773
0001d0 94 97 1b 3c 8b 32 eb bc 3d e1 11 bd ab ea 31 bd
       0.009496588 -0.028710624 -0.035615195 -0.043436687
0001e0 3b b3 fc 3c f0 b5 3e bc cf 54 e6 bc 6f 93 57 bd
       0.030847182 -0.011640057 -0.028116612 -0.052630838
0001f0 3a 34 2e 3d 93 72 c9 3b dc 0a 0a 3c 52 1f 60 bb
       0.042530276 0.0061476915 0.008425441 -0.0034198356
000200 3e b3 00 80 89 6f 0c bc bf a2 01 80 2f 35 4f bd
       -6.43e-41 -0.008571514 -1.50218e-40 -0.05058783
000210 25 f4 2a ba 3f 7d 7f 3a b9 5c 82 39 9e 92 0a ba
       -0.0006521366 0.0009746141 0.00024864616 -0.000528613
000220 b3 1c 51 38 e8 28 8f b9 a9 55 b5 b6 2e e4 15 39
       4.985621e-05 -0.00027305563 -5.4041925e-06 0.00014294751
000230 08 08 ce 39 ce 60 be 36 e8 85 4e 3a 63 32 b1 b9
       0.00039297366 5.673711e-06 0.000787823 -0.00033797612
000240 89 cb e9 b9 a5 bb 3a b9 77 50 ac 3a 80 7d 3b 38
       -0.0004459287 -0.00017808245 0.0013146539 4.4701155e-05
000250 2e ff 11 b9 7f 7a d7 38 a5 9c e9 38 f6 71 90 39
       -0.0001392334 0.000102748156 0.00011139483 0.00027550728
000260 41 55 e9 b8 56 fb c9 3a bc ce e6 38 1b a0 f4 38
       -0.000111261856 0.0015409987 0.00011005762 0.000116646486
000270 9e ac 19 39 ec 37 de 39 10 12 56 b9 f7 63 5f 3a
       0.00014655522 0.00042384805 -0.00020415359 0.0008521671
000280 e4 ad e2 b8 07 43 01 00 f7 63 5f ba 19 60 00 80
       -0.000108089094 1.1588e-40 -0.0008521671 -3.4473e-41
000290 cf 3b be b9 73 fc 7e bd c3 4e 92 3c dd 11 83 bc
       -0.00036284185 -0.062252473 0.017859822 -0.015999729
0002a0 63 d9 e1 bc 9f c5 4a bb 36 4a b3 bc 89 f8 b0 3c
       -0.027569478 -0.0030940545 -0.021885972 0.021602886
0002b0 5a 54 4c bd 69 95 94 bd 8f a3 da 3c 97 97 e2 bb
       -0.04988513 -0.0725506 0.026689319 -0.0069150436
0002c0 16 42 d5 3b ec 9a 18 bb 91 00 8a 3d 11 52 af 3c
       0.006508122 -0.00232857 0.06738389 0.021401437
0002d0 f7 bb 15 3d 56 2e 17 3c 55 5a b6 bb c7 92 e9 3c
       0.03655621 0.009227356 -0.0055649676 0.028512372
0002e0 b8 8c 26 bc f0 b6 1a 3c 13 ae a8 3b 90 b6 14 bc
       -0.010165386 0.00944303 0.0051477044 -0.009076729
0002f0 4a ec 71 3d f6 97 51 bc b3 49 33 3d 0e 62 0b 3c
       0.059063233 -0.012792578 0.043771457 0.008507265
000300 d5 c5 38 3d 13 8a 8e bd ad 0b 00 00 76 5f 55 bd
       0.045110542 -0.06959929 4.188e-42 -0.05209299
000310 a3 90 00 80 b2 ff 22 3e b4 bf 82 bd 4c e1 d6 3c
       -5.1886e-41 0.15917853 -0.06384221 0.026230477
000320 0a 36 28 3d 97 af 1b bd 73 ec 40 bc 3e 9a ad bc
       0.04106716 -0.038009252 -0.011775124 -0.021191712
000330 27 bc 23 bd 22 a9 10 3d 63 1d 34 bd 26 9b 90 b9
       -0.039974358 0.035317548 -0.043973338 -0.00027581415
000340 3e a5 55 3c 58 c5 08 bd cb 9f 87 3c 8e 7d 64 3c
       0.013039885 -0.033391327 0.016555687 0.01394595
000350 5b 4a 02 bd 54 c7 81 bd dd 3f b0 bb e0 50 30 bc
       -0.031809192 -0.06336847 -0.005378707 -0.01076147
000360 23 14 be 3c c3 01 0b 3b 4c 04 02 bc 4e 15 1b bc
       0.023202961 0.0021210767 -0.007935595 -0.009465529
000370 33 48 72 bb c4 c5 aa bb aa b5 56 3c c9 0f 22 bd
       -0.0036969304 -0.005211564 0.0131048355 -0.039565835
000380 a4 bd 81 bc a5 e7 45 3d 1d 8c 73 bc 06 8c 00 80
       -0.015837498 0.048316617 -0.014864949 -5.0231e-41
000390 f3 af 45 bd 5f 7f 00 00 1c 86 81 3e 07 b7 a7 3c
       -0.0482635 4.5692e-41 0.2529763 0.020473016
0003a0 d0 31 15 3d 43 0b 6e bd a2 3f fd bc 7d 76 54 3d
       0.036424458 -0.05811621 -0.030914132 0.05187081
0003b0 94 40 d9 ba 34 e6 1f bc 42 66 18 bc 6f 08 bf 3c
       -0.0016575032 -0.009759475 -0.009301724 0.023319451
0003c0 f1 1b 89 3c 23 83 4f bc 98 84 8f 3c d6 9f 64 bc
       0.016736956 -0.012665543 0.01751928 -0.0139541235
0003d0 db 1f 81 bc 91 94 86 bb 50 2d 17 3d e3 79 8b bc
       -0.01576226 -0.004107066 0.036908448 -0.017025894
0003e0 d4 de 68 bc 53 8b b4 bc 5e a9 9a 3a 18 d7 27 bc
       -0.014213283 -0.022039091 0.0011799743 -0.010244153
0003f0 40 ac 2d 3b 5b 03 82 3a f2 67 9d 3c 3e 15 a6 bb
       0.0026500374 0.0009919213 0.019214604 -0.0050684502

fcs1.bias f4 [128]
000000 a5 06 cb 38 55 dd be bd d5 46 b5 bd 0e 53 15 bc
       9.681032e-05 -0.093195595 -0.08851401 -0.00911404
000010 f7 63 5f ba cd 21 41 bd ba 25 45 bd b6 c3 7a bd
       -0.0008521671 -0.047151376 -0.048131682 -0.0612218
000020 e2 4c 1d bd ee 34 a2 bc 6f 5b 95 bd fc c5 20 bd
       -0.0384034 -0.01980063 -0.0729283 -0.039251313
000030 2d a4 04 b9 e7 75 c1 bd ff 94 e9 3c 3d 38 8a bc
       -0.00012649661 -0.09446316 0.02851343 -0.01687252
000040 56 58 0f bd f6 b1 fb bc d8 8a 7b bd e0 0c ed 3b
       -0.034996353 -0.030724507 -0.06141171 0.007234201
000050 e0 77 3b bd 4e 71 35 bd cb 57 b4 3a db 6e de 38
       -0.04576862 -0.04429751 0.0013759074 0.00010606433
000060 d0 14 85 bd 8e 7c 62 bd c6 9b a8 bc d5 01 18 bc
       -0.0649811 -0.055294566 -0.020582091 -0.009277781
000070 d5 eb 18 bd de 70 92 bd 15 d5 da 3b 84 5e 53 3b
       -0.037334282 -0.07150434 0.0066782334 0.003225238
000080 05 a6 a3 3c 89 ed dc 3b b9 52 60 bd 9d 2c dc bc
       0.019976625 0.0067421836 -0.05476639 -0.026876742
000090 cb da b1 bd 61 85 2a bd c7 51 60 bb f9 b7 63 bd
       -0.086843096 -0.041631106 -0.003422843 -0.055595372
0000a0 56 d3 27 bc cf 1e 1f bd fc 87 2f bd f3 55 97 bd
       -0.0102432575 -0.03884774 -0.042854294 -0.073894404
0000b0 75 cd 94 bd 89 2c ce bc 10 b6 29 3c ce fd 12 bd
       -0.0726575 -0.02516772 0.0103583485 -0.03588658
0000c0 a8 d6 1d bb 84 d7 31 bc 8c a7 d3 bc ff c4 82 bc
       -0.0024084244 -0.010854606 -0.025836729 -0.015963076
0000d0 91 7c 3a bd f5 51 8e bd 09 67 bc bc 9b 10 96 bd
       -0.045528952 -0.06949226 -0.02299835 -0.07327386
0000e0 51 6f 88 bc b0 5b 46 bc 34 4b 49 3c 09 bb 85 bc
       -0.016654642 -0.012106821 0.012285996 -0.016324537
0000f0 af f6 22 bd 5e a1 b2 bd 51 a8 b9 bd 95 c7 82 bc
       -0.039786037 -0.087221846 -0.09065307 -0.015964309
000100 e5 10 9c bd f4 ac 94 bb 6d 80 e4 bc 6b b5 b9 3c
       -0.0762041 -0.004537219 -0.02789327 0.022669515
000110 ad 4c d2 bc 59 fd 62 bd d3 b9 82 bc 2f 47 23 3d
       -0.025671327 -0.055417392 -0.015957749 0.039862808
000120 35 b1 39 bd e9 2b 85 bc e5 3a 3d bd 04 46 1b ba
       -0.045335013 -0.01625629 -0.046198744 -0.0005923214
000130 4b f8 00 bd 63 af 61 bc 95 a0 ed bc e4 1d cb bd
       -0.03148679 -0.013774726 -0.029007236 -0.099178106
000140 6c db 63 bc 28 85 36 bd 89 83 b0 bd a8 88 ce 3c
       -0.013907295 -0.04456058 -0.08618838 0.025211647
000150 06 df e6 bc 5d f0 79 bd 7e 88 86 b8 18 32 97 bd
       -0.028182518 -0.061020244 -6.4150416e-05 -0.073826015
000160 b3 c3 a7 bd 0f c0 bb bc 6a 3b 8f 3a cf e2 87 3c
       -0.081916235 -0.02291873 0.0010927741 0.016587643
000170 4a fe 0c bd e8 f5 ea bc 22 25 18 bd be ef 6a bd
       -0.034422196 -0.02868171 -0.037144788 -0.057357542
000180 34 2d b4 bd ee 7a 82 bd d3 bf 8a bb 47 56 ba bd
       -0.08797684 -0.06371103 -0.004234293 -0.09098487
000190 8f 6a e3 bd c5 65 8b bd d1 f2 77 bd cf f8 b3 bc
       -0.11104309 -0.068065204 -0.060534302 -0.021969227
0001a0 72 c7 10 bb b0 fc 2b 3d f4 38 a4 bd 3c 61 21 3c
       -0.0022091535 0.04198903 -0.080186754 0.009849843
0001b0 59 b6 8a 3c 9b 97 8d 3c 79 08 a8 bc 0c 39 3e bd
       0.016932653 0.017284205 -0.020511853 -0.046441123
0001c0 17 e6 64 bd e1 c5 0f bd 3c 3e d1 bd f3 ff 36 3d
       -0.055883493 -0.03510082 -0.102169484 0.044677686
0001d0 a6 7b 22 bd 9d db 44 bd 76 1e 5a bd e4 de 4b bd
       -0.0396687 -0.048061002 -0.053251706 -0.049773112
0001e0 2c b5 72 bd c0 0b 60 3a b9 c0 a0 bd 0b 2d a6 bd
       -0.05925481 0.0008546673 -0.07849259 -0.0811406
0001f0 bf ee 35 bd 8f fa c8 bc 2e 9e 15 bd 66 d5 2b bd
       -0.04441714 -0.024533538 -0.036527805 -0.04195156

bn2.weight f4 [128]
000000 79 76 1a b8 ac f1 58 3d de af 14 3e 89 79 9a 3d
       -3.6826797e-05 0.05296485 0.14520213 0.07542712
000010 ac 56 f2 b7 0a 70 5e 3e 12 1c 41 3e aa 9a 6f 3e
       -2.8889008e-05 0.21722427 0.18858364 0.23398843
000020 21 93 50 3e 6c 88 96 3e 13 ca 99 3d 2b b0 d2 3d
       0.20368625 0.29400957 0.07509246 0.102875076
000030 ff 28 07 39 a9 0d ab 3d 33 c6 4b 3e 79 32 20 3e
       0.00012889876 0.08352215 0.19899826 0.15644254
000040 9c eb 3c 3d b1 56 a0 3e 7b 37 3f 3e cd 26 09 3f
       0.046123132 0.3131614 0.18673508 0.5357483
000050 49 fd a7 3e 9e 4b 48 3e 7c 76 17 3e f5 79 61 3e
       0.3281043 0.19560096 0.14791292 0.22019179
000060 89 f1 1d 3e 2f 75 31 3e f5 39 41 3e c4 23 3a 3e
       0.1542417 0.17329858 0.18869765 0.18177706
000070 d1 7b b0 3d 48 34 ad 3d eb 95 14 3e 09 e8 de 3e
       0.08617366 0.084572375 0.14510314 0.43536404
000080 db bf 9e 3e 91 e3 22 3e 6f 76 ce 3d dc f7 54 3e
       0.3100575 0.15907122 0.10081183 0.20797676
000090 2b 3c 9a 3d 8b 4e 45 3e 11 ff 2a 3e e2 9d 4b 3e
       0.075310074 0.19268243 0.16698863 0.19884446
0000a0 2f c3 a5 39 7c 79 d5 3d 60 4c bd 3e 87 3e 7d 3e
       0.00031616676 0.10423562 0.36972332 0.24730884
0000b0 74 6f 5e 3e 57 8d 13 3f 15 e5 bf 3e 8d 66 a5 3e
       0.21722203 0.5763754 0.37479463 0.32304803
0000c0 e4 cc 04 3e 19 21 5a 3e ce 88 16 3e 08 90 18 3e
       0.12968785 0.21301688 0.14700624 0.14898694
0000d0 67 ab 05 3e 4a f6 4e 3e 3f 20 a0 3e 15 c6 8a 3e
       0.13053666 0.2021114 0.31274602 0.2710425
0000e0 05 a2 92 3e 5b ab 80 3e 1a 66 45 3e bb 08 37 3e
       0.28639236 0.25130734 0.1927723 0.17874424
0000f0 65 a5 77 3e c9 a1 43 3e a3 fa 16 3e ce b1 ae 3d
       0.24184187 0.19104685 0.14744048 0.08530007
000100 5f 08 01 3e db 4b a6 3e 07 72 4b 3e 99 f8 03 3e
       0.1260085 0.32479748 0.19867717 0.12887801
000110 90 db 50 3e b8 ce 84 3e 75 6d 02 3f 8b 79 21 3e
       0.20396256 0.25938964 0.5094827 0.15769021
000120 69 2b 38 3e a6 5e 45 3e 2f 56 9d 3e 88 79 89 3e
       0.1798531 0.19274387 0.30729815 0.26850533
000130 39 fe 85 3e 01 d8 81 3e 42 6f f0 3d 28 38 1e 3e
       0.2617052 0.2536011 0.11739971 0.1545111
000140 05 ee 99 3e 2c ff 89 3e 1d 9f 84 3d b7 37 8c 3e
       0.30064407 0.26952493 0.06475661 0.27386257
000150 7c 43 b8 3e 0d 31 58 3e cf d3 f2 37 ad af 45 3e
       0.35988986 0.21112461 2.894728e-05 0.19305296
000160 c5 67 26 3e 98 f5 b8 3e 2b 79 03 bd 10 6e 4f 3e
       0.16250522 0.36124873 -0.032097977 0.2025683
000170 0e df 50 3e ab fe 47 3e f7 82 c0 3e e2 a7 42 3e
       0.20397589 0.19530742 0.37599918 0.19009355
000180 81 7f 01 3e 28 59 02 3e e6 68 67 3e 96 15 39 3e
       0.12646295 0.12729323 0.2259861 0.1807464
000190 16 ba 3a 3e 9a 49 a4 3d fb b9 13 3e 3a 6e 95 3e
       0.18235049 0.08021851 0.14426415 0.2918566
0001a0 7e af 0d 38 e8 c3 a5 3e 7c 27 3d 3e a5 ba 97 3e
       3.378046e-05 0.32376027 0.18472093 0.29634586
0001b0 23 33 a3 3e 88 d8 65 3e 2b 12 7f 3e e6 a6 06 3e
       0.31874952 0.22445881 0.24909274 0.13149604
0001c0 ec e6 97 3e 87 f8 80 3e e1 91 03 3e 9f d1 94 3e
       0.29668367 0.2518961 0.12848617 0.29066178
0001d0 ca fa 0a 3e 56 dc 8f 3e 5f 11 84 3e e2 23 60 3e
       0.13572231 0.2809779 0.25794503 0.21888688
0001e0 af 68 f7 3d f8 d1 f7 3e 6c d3 18 3e 50 7a 70 3e
       0.12080514 0.4840238 0.14924401 0.23484159
0001f0 40 67 89 3e 0c ae 4b 3e 05 0f d5 3e cd a6 5c 3e
       0.26836586 0.19890612 0.41613021 0.21548004

bn2.bias f4 [128]
000000 b3 d8 66 b8 3d d5 c9 bd 63 5c c5 3d da 04 d1 bd
       -5.503809e-05 -0.09855125 0.09636762 -0.102060035
000010 8e b1 65 b8 2c 1a f9 3a e5 8f 22 bc e1 74 df 3d
       -5.4763215e-05 0.0019004992 -0.009922002 0.10910965
000020 1d 42 b8 bd a8 fd ad 3c 90 e1 6f 3c dc 44 8d bd
       -0.08996985 0.021239117 0.014641181 -0.068978995
000030 51 18 b2 b8 97 a4 c2 bd 4c 31 7c bd fa da e2 3d
       -8.492231e-05 -0.09504049 -0.06157045 0.11076923
000040 95 24 36 3d 43 1c 4b bd 1d 94 ad 3d bc b1 ce bd
       0.04446848 -0.0495875 0.08475516 -0.10092494
000050 53 76 48 3d 4e 84 d8 3d b6 49 5d bd 80 b4 b9 bd
       0.048940968 0.1057211 -0.054025374 -0.09067631
000060 b2 31 c5 3d f3 c9 a0 bb 21 02 57 bd 62 ec 5e 3d
       0.09628619 -0.0049068867 -0.052492265 0.05442465
000070 cc 0a 94 3d 46 bb 38 bc 8d 06 19 bd e5 8d 51 3b
       0.07228622 -0.011275118 -0.037359763 0.0031975445
000080 cb f3 a1 ba 30 17 88 3d 1e 6e 8e bd de 81 77 3d
       -0.0012355981 0.06645048 -0.06954597 0.060426585
000090 3e 0b 3e bd 54 82 00 3e 69 bb ca bd ac 67 93 3b
       -0.04639744 0.12549716 -0.09899027 0.0044984426
0000a0 7a 6e 0d 39 f3 07 45 bd 80 42 f3 bc ee 82 d2 3d
       0.00013487964 -0.048103284 -0.029694796 0.10278879
0000b0 02 66 db 3d e6 2a da bd 49 60 a6 bd 01 64 6b bd
       0.10712816 -0.106527135 -0.08123834 -0.057468418
0000c0 6f e2 14 bd 60 77 7c 3d 1a aa 33 3d 3f 11 0f 3d
       -0.036348756 0.061637282 0.043863393 0.034928557
0000d0 36 8a 9f 3d a6 1b e5 bd 4d 50 8d bc d2 8f 3e bd
       0.077900335 -0.11186914 -0.017250204 -0.046523876
0000e0 ec 8e fd 38 41 70 c2 bd e5 5f 0f 3d 43 36 45 bd
       0.000120906014 -0.09494067 0.03500356 -0.04814745
0000f0 b0 eb 4c 3c 81 3a 94 3d ab 69 39 bc 2e b5 12 3d
       0.012507364 0.07237721 -0.011316697 0.035817318
000100 c6 28 76 bd b9 67 5b bd 90 51 22 3d bf 5a 9d 3d
       -0.06009748 -0.053565715 0.039628565 0.07683324
000110 3f 14 8d 3c 66 4f 8b bd 5d 4d 9f bd a0 88 20 bd
       0.017221568 -0.068022534 -0.07778428 -0.039192796
000120 88 68 c6 3b f3 3b 7d bd 2a 6a 82 bd 76 d3 c6 3d
       0.0060549416 -0.06182475 -0.063679054 0.09708302
000130 a6 24 8c bd fc 81 c9 3b 6d eb 2e bd 66 e3 4e 3d
       -0.06842928 0.0061495285 -0.04270499 0.050509833
000140 75 7f 98 bd ee 10 b8 bd 95 7d 8e bd 83 e1 71 3d
       -0.074461855 -0.08987604 -0.069575466 0.059052955
000150 79 31 a2 bc 76 23 a4 bc 3b 71 81 b8 32 1a 12 be
       -0.019798981 -0.02003644 -6.17229e-05 -0.14267805
000160 47 44 80 3d c6 22 7a 3d 26 d5 9e 3b c0 5f 91 bd
       0.06263023 0.06106832 0.0048471866 -0.07098341
000170 fd 14 85 3c 3e d8 36 3d b2 b7 b0 bc 72 ba be 3c
       0.01624536 0.04463982 -0.021571968 0.023282263
000180 da 1c d2 3c 53 5d ea bd 2b 6d a3 bd e3 85 87 bd
       0.025648523 -0.114435814 -0.079798065 -0.06617334
000190 62 24 3d bd b5 48 81 bd a6 39 c4 bd 04 d7 a8 3d
       -0.046177275 -0.06312696 -0.09581308 0.08244136
0001a0 0e 0e 02 b8 d6 66 80 3d 04 68 73 bd 0d 7a 2b 3d
       -3.1007505e-05 0.062696144 -0.05942537 0.041864444
0001b0 cb bf 8a bd 79 d6 67 3d c0 ee 30 bd a2 32 5f bd
       -0.06774863 0.05660102 -0.04319644 -0.054491647
0001c0 cb a2 8d 3c e8 ab 89 bd b3 c4 09 be 55 68 f0 3c
       0.01728954 -0.06722242 -0.13453941 0.029346624
0001d0 b0 9f 66 bd b1 15 ca bc 8e 9c 26 be 8e e9 8a 3c
       -0.056304634 -0.024668546 -0.16270658 0.01695707
0001e0 d7 16 9c bd 4d f6 90 bd a3 08 2d 3c 7b 4a 79 3d
       -0.07621544 -0.07078228 0.010561141 0.060862046
0001f0 78 d0 c9 bd 60 dc 29 bc e6 e7 13 bd fa 52 40 bd
       -0.098542154 -0.010367483 -0.036109827 -0.046954133

bn2.running_mean f4 [128]
000000 1d c4 70 3c 85 3d a9 3a 0f 4e 30 3d dd 79 34 3d
       0.014695195 0.0012912011 0.043043192 0.04406153
000010 16 3c 92 36 66 70 7b 3d ed 9e 97 3d e3 b3 23 3d
       4.358134e-06 0.06138649 0.074033596 0.039966475
000020 b4 b7 e7 3c 5b 90 80 3d 0a f9 3a 3b ab 4f 91 39
       0.028285839 0.062775336 0.0028529787 0.00027715912
000030 47 8c 45 3c 85 06 47 37 34 75 4f 3d 7b c4 7e 3d
       0.0120573705 1.1862842e-05 0.050648883 0.062199097
000040 53 80 e6 3b 16 df 79 3d 38 72 32 3d 70 6b 95 3d
       0.0070343404 0.061003767 0.04356596 0.07295883
000050 48 5d 3a 3e f5 5c 08 3e 0c 4c 1b 3e e3 4f 1a 3d
       0.18199646 0.1331671 0.15165728 0.037673842
000060 ed a0 f0 3c 88 b0 da 3c d3 84 95 3d eb d2 fd 3c
       0.02937361 0.026695505 0.07300725 0.030984363
000070 63 53 db 3c b3 c4 65 38 5d 65 26 3d 18 ed 2c 3e
       0.02677316 5.4781045e-05 0.04062401 0.16887319
000080 9f 9e 62 3e f7 eb f6 3d 79 b9 35 3d df 9f 22 3d
       0.22130822 0.120567255 0.044366334 0.039703246
000090 b3 68 ba 39 71 ba d5 3c 47 bb 5a 3c 92 46 d2 3d
       0.00035554692 0.026089879 0.013350314 0.102673665
0000a0 6a b4 5c 39 4b ae 26 3a 64 8f 12 3e f7 6d 3b 3d
       0.00021048044 0.0006358369 0.14312512 0.045759168
0000b0 cc e7 55 3d a1 b2 58 3d 99 73 ac 3c 00 81 92 3e
       0.05222301 0.05290473 0.021051215 0.28614044
0000c0 a2 2c 8d 3d 41 03 d1 3d 42 7a 5e 3d df 16 95 3d
       0.06893279 0.10205699 0.054315813 0.07279753
0000d0 f4 ef b0 3d 36 76 c8 3c 21 e1 6c 3d 99 c6 e6 3d
       0.086395174 0.02447043 0.057831887 0.11268348
0000e0 2a d0 84 3d d1 21 37 3c 67 fd 9c 3d 54 5c 97 3a
       0.06485017 0.011177496 0.0766552 0.0011547902
0000f0 c9 a2 f0 3c b6 1a 25 3d d0 59 72 3d 3c 13 27 3d
       0.029374497 0.040308677 0.059167683 0.040789828
000100 db 67 a2 3d 2c 93 27 3d 3c f2 b7 3d 65 76 01 3d
       0.07929965 0.04091184 0.089817494 0.03160705
000110 f7 76 27 3e 9d b3 70 3e 83 7f b2 3d f5 9a c8 3c
       0.16353975 0.23506017 0.08715727 0.024487952
000120 f7 53 07 3d 83 d6 c5 3b 50 40 dd 3c cc 68 10 3e
       0.03303906 0.0060375347 0.027008206 0.14102477
000130 c7 eb 51 3d 04 3b f8 3d 98 eb 1d 3d 35 8f 01 3d
       0.051250245 0.12120631 0.038554758 0.031630713
000140 25 ec a7 3c 62 e3 f0 39 2e cc a0 39 a3 93 fd 3e
       0.020498345 0.0004594578 0.00030669704 0.495267
000150 60 ef 79 3e 8f 8a 9e 39 a6 b7 49 3c c1 b9 95 3d
       0.2440772 0.00030239343 0.012311852 0.0731082
000160 23 84 25 3d 96 27 8d 3d 89 b9 09 3a d3 27 0e 3e
       0.04040922 0.06892316 0.0005253782 0.13882379
000170 3a c1 ae 3d 43 c6 7f 3e 8b 37 93 3d 62 35 0c 3d
       0.08532949 0.24977975 0.07188328 0.034230597
000180 aa e2 86 3c a8 64 74 3c 63 e4 2a 3d 35 ba 2e 3d
       0.016465504 0.014916576 0.041721713 0.04265805
000190 ae e8 18 38 7f 93 5f 3b 66 1a 9e 3c 3a 55 19 3e
       3.6456324e-05 0.0034115014 0.019299697 0.14973918
0001a0 ca c8 82 3b 24 01 f1 3d 61 72 84 3c 69 10 49 3e
       0.003991221 0.11767796 0.016167821 0.19635166
0001b0 f0 a4 c2 3d 1a 03 1f 3e 43 d0 15 3e 56 38 89 3c
       0.095041156 0.15528527 0.14630227 0.016750496
0001c0 86 0f 58 3e 09 35 1c 3e b2 6a 96 39 de a8 90 3e
       0.21099672 0.15254606 0.00028689724 0.28253835
0001d0 b5 c9 9a 3d 02 34 3c 3d 2b d6 c9 3d 59 35 e3 3c
       0.07558004 0.045948036 0.098553024 0.0277354
0001e0 2d 20 c7 3b 59 63 04 3e 7c f0 9b 3c 06 e4 ed 3d
       0.0060768337 0.12928523 0.01903557 0.11615758
0001f0 bc 60 03 3d 30 27 2c 3d 00 f3 8f 3d 52 26 16 3d
       0.032074675 0.04202956 0.070287704 0.03665764

bn2.running_var f4 [128]
000000 48 df a5 39 c9 1d d0 38 7c f1 01 3c 5f 53 f1 3b
       0.0003163761 9.923761e-05 0.0079311095 0.007364675
000010 91 de 39 32 bb fd 81 3c c9 44 6c 3c 02 34 09 3c
       1.0819023e-08 0.015868058 0.0144206965 0.008374216
000020 c6 64 ba 3b 75 86 1d 3c b9 9f 01 3a 63 9c e2 37
       0.0056882827 0.009614577 0.000494476 2.7014123e-05
000030 75 9d 99 39 78 41 cf 34 8a 55 a2 3b 5d c1 25 3c
       0.0002929975 3.860439e-07 0.0049540447 0.010116902
000040 98 95 bf 3a 44 92 57 3c 8e ff 18 3c 56 88 0a 3c
       0.0014616726 0.013157431 0.009338273 0.008455357
000050 6c 8e 53 3d 16 d6 26 3d 60 bd 24 3d 3c 43 cb 3b
       0.051649496 0.040731512 0.040219665 0.0062030833
000060 2b 43 c0 3b 35 75 d1 3b 5c 25 8a 3c d3 1e 7f 3b
       0.005867382 0.006392146 0.016863517 0.0038928285
000070 d4 9f 54 3b 5c a0 4a 36 9c 47 37 3c b0 0b d6 3c
       0.0032443898 3.0193687e-06 0.011186507 0.02612862
000080 a5 d9 90 3d 89 43 8d 3c c1 4f 20 3c 8b 04 bf 3b
       0.070727624 0.017244117 0.00978464 0.005829399
000090 63 59 1d 38 5d c4 93 3b 12 fe 7c 3a b3 0e 00 3d
       3.7514965e-05 0.0045094923 0.00096508965 0.03126402
0000a0 ce 00 e1 36 d7 64 a1 38 6e 59 d8 3c 36 e8 33 3c
       6.705616e-06 7.695861e-05 0.02640983 0.010980656
0000b0 a7 f5 4a 3c 42 db e4 3b a2 24 42 3b 3c 5f f9 3d
       0.01238767 0.0069841454 0.0029623886 0.12176368
0000c0 f3 73 5b 3c c1 ef 8d 3c 5e 7d 1f 3c fb 40 85 3c
       0.013394344 0.017326238 0.00973448 0.016266337
0000d0 6c 45 b8 3c a2 6b 2f 3b c3 f9 17 3c 25 ba 17 3d
       0.02249404 0.0026767035 0.009275856 0.037042756
0000e0 ee f4 0d 3c 13 b7 57 3a 8b 51 4a 3c ef f3 13 39
       0.008664353 0.00082288793 0.012348543 0.00014109885
0000f0 c3 d4 92 3b 70 ae 04 3c a4 07 84 3c 94 72 d6 3b
       0.0044809296 0.00809823 0.016116925 0.0065444205
000100 24 27 55 3c 21 ed cd 3b a5 97 cc 3c 4b 22 18 3c
       0.01300982 0.0062843715 0.024974653 0.00928552
000110 61 62 3a 3d a7 f4 f8 3d dd 92 29 3c e7 9d b4 3b
       0.045503978 0.12156039 0.010349956 0.0055119875
000120 f4 5a 0a 3c 4c 68 98 39 e0 c6 66 3b fe 2e a2 3c
       0.0084445365 0.00029069406 0.0035213754 0.019797798
000130 81 66 2b 3c cf d4 91 3d 98 79 2d 3c 60 fd 00 3c
       0.010461451 0.07120668 0.010588072 0.007872909
000140 64 2f 26 3b 3d ea 8c 38 9c 20 21 38 3c f0 e5 3d
       0.0025357837 6.7193505e-05 3.841576e-05 0.11227462
000150 1a 39 6f 3d d8 f5 4d 38 06 c7 e6 39 95 da 93 3c
       0.058404066 4.910477e-05 0.00044017303 0.018048564
000160 ea 31 58 3c a8 c3 19 3c 43 86 d1 38 1b f8 04 3d
       0.013195494 0.009385027 9.990905e-05 0.032463174
000170 27 34 9f 3c 66 4e b9 3d b9 7c 4d 3c 83 bd 3d 3c
       0.019434048 0.090481564 0.012541943 0.011580828
000180 f9 42 38 3b 96 76 d9 3a 89 20 89 3b 27 0a 2f 3c
       0.002811609 0.0016591127 0.0041847867 0.010683573
000190 a4 ba 01 37 70 d7 b1 39 30 69 1b 3b 4b 3f 1d 3d
       7.732455e-06 0.00033920584 0.002371382 0.03839044
0001a0 a3 9d 99 38 6e 2a a8 3c 89 a8 26 3b bb 3c 22 3d
       7.324971e-05 0.020528045 0.0025430045 0.0396087
0001b0 a1 06 9e 3c 7e 85 f7 3c 7d 1d 2a 3d 3a e3 1a 3b
       0.01929027 0.030215021 0.04153203 0.0023633973
0001c0 17 4a f8 3c d0 df 25 3d 5f 7a 20 38 8a ac e6 3d
       0.030308766 0.040496647 3.826094e-05 0.11263378
0001d0 86 ec 9c 3c 57 a4 f1 3b 89 8d cd 3c a8 9e a2 3b
       0.019155752 0.007374327 0.025091903 0.004962761
0001e0 76 09 26 3a 79 b6 ec 3c 94 49 86 3b c4 fb 1e 3d
       0.0006333807 0.028895603 0.0040981267 0.03881432
0001f0 75 83 9e 3b 7a ba 29 3c 3c 9d 38 3c ba a2 90 3b
       0.0048374482 0.010359401 0.011267956 0.00441393

fc2.weight f4 [128, 132]
000000 24 aa 8b 38 d0 55 b8 bd 18 23 55 3b e4 9c 73 3c
       6.659728e-05 -0.090007424 0.0032522138 0.014868949
000010 e1 38 06 39 5e 1a 0d bd 91 09 31 3c bb 28 68 bb
       0.00012800425 -0.034448974 0.010805503 -0.0035424668
000020 17 2f 34 bd e3 fe bc 3c ad 66 80 3c de 67 9a bb
       -0.04399022 0.023070758 0.01567396 -0.004712089
000030 8d ae 1e b9 96 af bc bd 18 3d 2a bc 2a b6 56 3d
       -0.0001513308 -0.09213178 -0.010390542 0.05241982
000040 84 54 58 3c e1 bc 04 bd 6a 3d 4f 3d 87 7d a3 bd
       0.013203744 -0.03240669 0.05059568 -0.07982927
000050 5d 83 e1 bc 01 d0 15 3d af 5a bb bc 7d 5d 56 bc
       -0.02752846 0.03657532 -0.02287039 -0.013083813
000060 35 ed 3c 3d e0 3c 34 bc 0f ee 7d 3a 88 25 87 3b
       0.046124656 -0.011000842 0.00096866576 0.004124347
000070 68 db 4c 3d c3 20 55 bc 35 58 ab bc 9d ba 8e bc
       0.05001393 -0.013008299 -0.020916084 -0.017422969
000080 54 e0 87 bd 72 cc 00 3d 0f a1 b7 bd 4f d9 d0 3c
       -0.06634584 0.031444974 -0.08966266 0.025494246
000090 96 4b 19 bd 68 5c ee 3c 62 f1 68 bd 6c 4a 59 bd
       -0.0374256 0.029096797 -0.056870826 -0.05304949
0000a0 97 45 65 bb 67 0a 3e bd 7b 82 45 bd 11 c2 51 3d
       -0.0034984106 -0.04639664 -0.04822014 0.051210467
0000b0 a2 09 e7 3c 3e 31 a3 bd 32 69 a6 bb a1 f6 11 bd
       0.028202835 -0.079683766 -0.005078458 -0.035635594
0000c0 7a c2 52 3c e8 1f b3 3b 31 87 d6 3c b3 c6 b4 3c
       0.01286375 0.00546645 0.026187511 0.022067403
0000d0 05 16 8e 3c 56 06 db bc 5d f1 5d bd e0 f1 71 bc
       0.017344484 -0.02673642 -0.05418526 -0.01476714
0000e0 01 ca 47 bd ab df cb 3c 77 90 84 3c 04 ff 1c bc
       -0.04877663 0.024886927 0.016182167 -0.009582285
0000f0 1c 85 05 3c 38 de 94 3d ac fd 3c bc 6b 2a 3f bc
       0.0081494115 0.07268947 -0.011535089 -0.011667828
000100 80 00 46 bd c6 a5 91 bd 43 9e 6f 3c a7 05 13 3d
       -0.04834032 -0.07111697 0.014625135 0.035894062
000110 6f 1d 31 3c 2f f0 a6 bc d9 83 8f bd ba 21 29 bd
       0.01081024 -0.0203782 -0.0700757 -0.04129193
000120 2b b1 2c 3d fa 0d d3 3c c2 ee 44 bd d6 25 35 3b
       0.042161148 0.0257635 -0.04807926 0.002764096
000130 7a 88 9d bd b3 26 ca 3c e9 6f e6 ba 41 80 ad 3b
       -0.076920465 0.024676656 -0.0017580959 0.00529483
000140 fd 70 1a bd 5f 5d 27 3c 77 5f fa bd 1e a2 07 3d
       -0.03770541 0.0102151325 -0.1222524 0.03311359
000150 e3 ea 25 3d 56 bf 05 3c 25 be b6 38 42 56 0a bc
       0.04050721 0.008163294 8.7138535e-05 -0.008443417
000160 bd 1f 8d 3d e1 58 13 bd cd cb 1e 3c 7a 5a 1f bd
       0.06890819 -0.035973433 0.009692145 -0.038904645
000170 44 b5 0b 3a d5 7c 62 3c 9f 06 20 bd 86 54 cf bc
       0.000532944 0.013823708 -0.039068814 -0.025308859
000180 5b a2 91 3c 5b 4d ce bd bc 05 29 bd 4d 0b 13 bd
       0.017777612 -0.10073348 -0.041265234 -0.03589945
000190 49 9c a7 3b bb cd c1 bd 20 7a b3 bd a5 33 88 3c
       0.005115066 -0.09463068 -0.08763528 0.016626189
0001a0 53 bd 41 3a 89 06 84 3c 53 93 d7 bb 91 e1 d1 3c
       0.0007390577 0.016116397 -0.0065788417 0.025620254
0001b0 17 21 1b bd 3c c5 3c 3d b6 f0 27 bc e9 b3 25 3c
       -0.037873354 0.046086535 -0.010250261 0.010113695
0001c0 72 7d 06 3c a7 ce f3 bc 20 70 9d bd e6 03 bb 39
       0.008208619 -0.029761625 -0.07687402 0.00035670324
0001d0 b1 89 67 ba 67 c2 a4 3c ca 9d 9e bc 53 19 05 bd
       -0.00088324683 0.02011223 -0.019362349 -0.032494854
0001e0 08 0b f8 bd b7 c8 c3 3b cb 6b 0b 3d 3a ee 43 ba
       -0.12111479 0.005974855 0.034038346 -0.0007474158
0001f0 87 64 10 bc 69 a2 01 bd 57 dd 89 bc 99 c2 2f bd
       -0.00881303 -0.031649027 -0.016829176 -0.042910192
000200 4a c2 04 b9 82 34 06 bc 53 09 62 bc b0 a0 e4 ba
       -0.0001266088 -0.00819123 -0.013796168 -0.0017442908
000210 2c 06 5c 39 f8 b6 b0 3c f8 68 df 3b 00 78 5e 3d
       0.00020983134 0.021571621 0.006817933 0.05431366
000220 1a cd 54 38 6a 77 0d 3d a7 5c 19 bd 58 c9 15 bd
       5.0735754e-05 0.03453771 -0.037441876 -0.03656897
000230 b2 86 e4 3c b1 7f 32 bc 83 a3 1b 3d 5b 66 53 3d
       0.027896259 -0.010894702 0.037997734 0.051611286
000240 66 fc d8 b9 4d fd c2 3c 84 bb 00 3b 24 a1 49 bd
       -0.00041386782 0.023802424 0.0019643018 -0.04922594
000250 e8 b5 cf 3c 0a a9 8a bd ce 9b ca bb 6a 5f a5 3d
       0.025355294 -0.06770523 -0.006183124 0.080748394
000260 52 4f 3c bc a3 db 62 bd 49 35 4d 3d 0e 77 20 3d
       -0.011493521 -0.055385243 0.050099645 0.03917604
000270 d8 4c 29 bd 29 24 3c 3c bd ec 23 3d ac fb 79 bd
       -0.04133305 0.011483231 0.040020693 -0.06103103
000280 10 79 f7 bc b7 36 04 3d 7f 76 2f 3b ba c3 7d 3c
       -0.030209094 0.032278743 0.002677351 0.015488559
000290 74 97 14 bd 1e af b7 3c 00 27 7e 3c 0c 97 41 bd
       -0.03627725 0.02242237 0.015512228 -0.04726319
0002a0 ce ab 08 bb 0d df 82 bd d8 62 d0 3d 42 69 c4 bc
       -0.0020854357 -0.063902 0.10175103 -0.023975972
0002b0 a7 7e c9 3b b7 b8 a5 3c 0a 8c 90 3d 3c 80 d3 bb
       0.0061491313 0.02022968 0.0705796 -0.0064544957
0002c0 df 23 a8 3c 83 5c 8f 3c 39 c3 b5 3c 00 97 ad bc
       0.020524917 0.017500168 0.022187816 -0.021190166
0002d0 5c 9a ed 3b da 6e 96 bc 3e c1 66 3c df 87 09 3c
       0.007251067 -0.018363405 0.014084158 0.008394211
0002e0 ea 2a 6a ba 06 a4 89 3d 3a c9 ad bd 80 ed 8f bd
       -0.00089327863 0.06720738 -0.084856465 -0.070277214
0002f0 63 69 8f 3a 9a 53 9c 3d 04 6a 06 bd 28 f5 92 3c
       0.0010941442 0.07633133 -0.032815948 0.017939165
000300 19 1d 0f 3d 49 c0 61 bc f7 76 a8 3b 74 e7 a0 3c
       0.03493986 -0.0137787545 0.005141135 0.019641615
000310 af 69 3a 3d 01 7f 58 3d 8c 25 4c 3c a9 6c c6 bc
       0.045510944 0.052855495 0.012460124 -0.024221735
000320 76 c7 61 bd 46 38 d4 bb 7c 1b 1f 3d 07 2c 38 39
       -0.05512186 -0.006476435 0.03884457 0.00017564009
000330 32 7c 0a 3c 4d f5 ac 3d 91 8d ff 3c e8 5c af bd
       0.008452462 0.08445225 0.031195434 -0.08562642
000340 31 36 ec 3c f6 52 3c bd d1 34 99 3b 93 47 11 bd
       0.028834434 -0.045977555 0.0046754857 -0.03546865
000350 c1 c8 05 3d 47 81 30 3c 5b 58 69 3c 4d 88 1d 3d
       0.032662157 0.01077301 0.014242257 0.038460065
000360 71 e4 ab 3c ce a9 a6 bb 96 7a e0 b9 f8 c6 b3 3d
       0.020982953 -0.0050861603 -0.00042815943 0.08778185
000370 49 f5 20 bc 16 54 df 3c af 3c 3b 3c 55 78 9b 3c
       -0.009824106 0.027261775 0.011428042 0.018978277
000380 68 40 b1 3b 15 7f 21 3c 48 c5 92 3c 97 eb 61 3c
       0.005409289 0.009856959 0.017916337 0.013789079
000390 05 23 f9 3c ba 78 2e 3d 87 69 33 3d ff b7 1a bd
       0.030412206 0.042595603 0.04380181 -0.03777313
0003a0 1e 74 0b bc e8 09 3c 3d 08 5a 17 bc fb e5 67 bc
       -0.008511571 0.045907885 -0.009237774 -0.014153953
0003b0 bd cf 36 39 27 89 25 3d 46 4f 31 3d e7 c8 2c bd
       0.00017434261 0.040414 0.04328849 -0.042183783
0003c0 2a 5c 1c 3c 35 69 00 3c 53 01 ef 3c e2 be 73 bd
       0.009543458 0.007837583 0.029175436 -0.059508212
0003d0 43 fd 20 3d 6e 6a c7 3c 22 70 ae 3b 21 ea 39 bd
       0.03930403 0.024342742 0.005323426 -0.0453893
0003e0 48 f3 8c bb d4 07 84 3c 0a ad ab 3d f8 21 e8 3b
       -0.0043014623 0.016117014 0.08382614 0.0070841275
0003f0 77 f7 51 3d 57 05 5a 3d 30 89 5c 3c e2 01 cb bc
       0.05126139 0.05322775 0.013460442 -0.024781171

fc2.bias f4 [128]
000000 c0 aa 6a 3c 8a 13 28 be 75 dc a8 bd 48 58 05 3d
       0.014322937 -0.16413704 -0.08245174 0.032554895
000010 d5 23 f5 bd 6a 38 92 bd b2 52 86 3d d7 25 1b 3c
       -0.11969725 -0.071396664 0.06558742 0.009469471
000020 a6 57 b7 3d 3d 22 c6 bc cd 18 6f bc 7e 6c 89 bd
       0.089522645 -0.024186248 -0.014593315 -0.06710146
000030 93 82 84 bd f8 bc 97 bb 5c 3e 5a bd 60 3d f9 3c
       -0.064702176 -0.004630681 -0.053282127 0.030424774
000040 c3 ac 62 bd 56 43 ee bd 9c b0 f7 bb 56 af 86 bd
       -0.05534054 -0.11633937 -0.0075588953 -0.065764114
000050 5a 0b 5d bc 91 81 3f bd 9f 45 a5 3d 0f fe a8 3a
       -0.013491476 -0.046754424 0.0806992 0.0012893098
000060 0e 0a 7c 3d f5 b9 ce bc aa 55 33 bd 07 ee 0f 3c
       0.061533026 -0.025235156 -0.043782867 0.0087847775
000070 04 1f 4e 3d fc 9d 11 bd d5 97 9e bd 42 d5 53 bc
       0.050322548 -0.035551056 -0.077438034 -0.012929263
000080 3f 49 7c bd 66 75 78 bd 79 5f 3b bd df 2d 79 3d
       -0.06159329 -0.060658835 -0.045745347 0.06083476
000090 81 10 a3 bd 7b 70 62 bd 19 95 4e 3d c3 ad cf 3c
       -0.07962132 -0.05528305 0.05043516 0.02535141
0000a0 94 53 2b 3d a6 8b fa bd b9 fd 37 bd 58 a2 aa bd
       0.041827753 -0.12233667 -0.044919703 -0.08331746
0000b0 6d ac ec bc 43 e6 79 bd f1 cc 8b bd 31 86 28 bd
       -0.028890813 -0.06101061 -0.06826199 -0.0411436
0000c0 50 ff b8 bd 28 5b 87 bd 52 5e 94 bd 96 70 63 bb
       -0.09033072 -0.066091835 -0.07244553 -0.0034704558
0000d0 60 dc 8f 3b ca cc d9 bd fe 2f a0 bc ba 79 bf 3d
       0.0043902844 -0.106347635 -0.019554134 0.093493894
0000e0 49 75 e9 bc d5 68 36 bd 21 26 74 bd 84 76 fe 3c
       -0.028498309 -0.04453357 -0.059606675 0.031062372
0000f0 f2 32 8b 3d 91 5f fe bc 0a 87 af bc 59 c4 9a bd
       0.067968264 -0.031051429 -0.021426696 -0.075569816
000100 24 62 db 3c df 32 b8 3d 04 7a d9 bd eb dc 86 3d
       0.026780196 0.08994078 -0.10618976 0.065851055
000110 06 f5 ad bd c8 3b 59 bd e5 f7 81 bc b1 e4 4d bd
       -0.08494 -0.053035527 -0.015865276 -0.050266925
000120 fe fd 28 bd e0 d4 85 bd 20 69 df 3d 6e 26 17 3b
       -0.04125785 -0.06534743 0.10908723 0.0023063677
000130 33 4e bc bd 11 55 6b bc 8f 52 0c 3c c9 85 90 bc
       -0.09194603 -0.014363543 0.008564605 -0.017641919
000140 b8 6d cd bd d7 35 be 3d fa ed 08 bd 01 7e ad bd
       -0.10030693 0.09287613 -0.033430077 -0.08471299
000150 6b bb a0 bd b5 ad 0d bd 15 a9 0a be ea 22 e8 bc
       -0.07848247 -0.034589488 -0.13541062 -0.02833696
000160 32 cd 27 bb 9a 0d 3f bd 95 69 d2 3d 42 42 3f bd
       -0.0025604484 -0.04664383 0.102740444 -0.046694048
000170 81 a1 05 bd c9 7e 82 bd d0 16 a2 bd 81 d5 98 bd
       -0.032624725 -0.063718386 -0.079145074 -0.07462598
000180 f8 0e 9a bd c8 7e 33 bc fa d8 02 be ab 18 cd bd
       -0.07522386 -0.01095552 -0.12778082 -0.10014471
000190 f2 64 ab bd 6f a0 65 bc c0 22 b1 bd 17 56 0e bd
       -0.08368863 -0.014015301 -0.08649206 -0.03475007
0001a0 9c 1d 75 bd ef 12 b2 bc ea a3 c7 bd b9 b1 9f 3d
       -0.05984269 -0.021737544 -0.09748061 0.0779757
0001b0 76 36 c0 bd 79 b4 8e bd 87 e7 04 bd e3 82 5f 3d
       -0.093853876 -0.06968016 -0.032447364 0.054568183
0001c0 05 bc 0b bb 39 83 d5 3d a1 52 12 bd 96 c4 77 bd
       -0.0021321785 0.10425419 -0.035723332 -0.060490213
0001d0 32 c9 d1 bc 8f 57 f2 b0 4c fb 41 3d 31 db 8c bd
       -0.025608633 -1.7632703e-09 0.047358796 -0.06877745
0001e0 5a 61 17 3d bb 9e 49 bd cf 5a 86 bd e1 26 65 3d
       0.036958076 -0.049223643 -0.06560289 0.05594528
0001f0 21 24 85 3b ea e0 da bd f2 4e 8d bd 6c 9c 13 3d
       0.004063145 -0.1068743 -0.06899823 0.036037847

bn3.weight f4 [128]
000000 40 cb 96 3e a0 a6 16 3d cf ad 0a 3f 99 2f 2e 3f
       0.29451942 0.03678 0.5417146 0.6804138
000010 78 64 a1 3d 08 da 9b 3d 5d f2 65 3f 10 9e 04 3f
       0.07880491 0.076099455 0.8982294 0.51803684
000020 74 40 26 3e 38 89 7f 3f 64 79 6e 3f ba 94 9c 3e
       0.16235524 0.99818754 0.9315398 0.3058222
000030 c0 f1 06 3f f4 78 68 3e f7 f6 26 3f 27 a9 46 3f
       0.5271263 0.2270239 0.6522059 0.77601856
000040 56 0b 5b 3f 02 e5 74 3f 65 49 13 3f c0 fa 06 3e
       0.8556417 0.9566194 0.57533866 0.13181591
000050 c0 9f ae 3c 13 7b 19 3f c7 86 3a 3f 38 4e 4f 3e
       0.02131641 0.5995342 0.72861904 0.20244682
000060 e2 95 08 3f f0 dc 83 3d 83 dd 2a 3f 4a 5a 2a 3f
       0.53353703 0.06438625 0.6674425 0.6654402
000070 00 9e 3d 3c d8 01 bc 3e b0 b0 9f 3d bc ac 1c 3e
       0.011573315 0.36720157 0.07797372 0.15300268
000080 a8 bb 49 3e 36 ff 54 3f dc c1 8a 3e ae 97 f0 3e
       0.19700491 0.8320192 0.27101028 0.46990722
000090 b0 cb 77 3f f0 c7 5d 3d 49 20 40 3f 42 24 e7 3e
       0.9679518 0.054145753 0.75049263 0.4514485
0000a0 71 5b 03 3f da 8c 5a 3f 00 91 ee 3c 9d e4 31 3f
       0.51311404 0.8537117 0.029121876 0.6948946
0000b0 5c 25 40 3f c2 67 d3 3e b1 fc 10 3f 68 35 5a 3f
       0.75057006 0.41290098 0.56635576 0.8523774
0000c0 d4 b3 27 3e b6 60 6b 3f b0 ae 1e 3e 7c bb 42 3f
       0.16377193 0.91944444 0.15496325 0.7606733
0000d0 92 70 67 3f ce 19 29 3f 10 38 93 3d e8 f3 7e 3f
       0.90406144 0.66055 0.071884274 0.9959092
0000e0 8a b2 1c 3f b2 31 b5 3e 46 fd 50 3f 9c 74 57 3f
       0.6120993 0.35389477 0.81636465 0.84162307
0000f0 35 5c 29 3f e0 6e d8 3d 90 0d 17 3f ce 2d 88 3e
       0.6615632 0.10568023 0.5900507 0.26597446
000100 54 a1 5e 3e 56 5c 76 3f f4 a0 62 3e e0 b7 14 3e
       0.2174123 0.96234643 0.22131711 0.14523268
000110 a4 a5 ae 3e 80 50 7e 3f 90 47 aa 3e 88 4b e1 3d
       0.3411075 0.99341583 0.33257723 0.110007346
000120 08 75 6a 3e ec 3a 57 3e f6 af 31 3f 09 bc 37 3f
       0.22896206 0.2101857 0.6940912 0.71771294
000130 23 4d 47 3f 4d 3f 04 3f 50 2b bc 3d e8 66 26 3e
       0.77852076 0.5165909 0.09187949 0.16250193
000140 5c d6 3e 3f c0 9a 22 3d 95 47 18 3f 00 70 29 3e
       0.74545836 0.039698362 0.59484226 0.16546631
000150 a6 8d e2 3e 90 c3 ac 3e 22 dd 48 3f ba 63 10 3f
       0.44248694 0.33742952 0.7846242 0.5640217
000160 60 a1 06 3e cc 5c 30 3e 94 7a eb 3e f4 b5 36 3f
       0.13147497 0.17222899 0.45991957 0.7137139
000170 da 70 be 3e 18 47 95 3e 28 78 98 3d e4 17 23 3f
       0.37195474 0.29155803 0.07444793 0.6370833
000180 a9 4e 58 3f 74 6b 00 3f 48 da 05 3f 08 63 11 3e
       0.84495026 0.5016396 0.52286196 0.14197934
000190 dc f9 55 3e 90 e7 9f 3d b0 ad f1 3e 48 57 d1 3d
       0.20896095 0.07807839 0.47202826 0.10221726
0001a0 a8 0d 7c 3e 9a 72 1f 3f 48 29 2d 3e 25 24 45 3f
       0.24614584 0.62284243 0.16910279 0.7700828
0001b0 2a 78 63 3f fe 5e 31 3f cf a4 44 3f 44 c2 38 3e
       0.8885523 0.6928557 0.7681398 0.18042856
0001c0 68 61 37 3f 8f 34 12 3f e2 09 d7 3e e0 37 e3 3e
       0.71633005 0.5711145 0.41999727 0.44378567
0001d0 00 e2 66 3e 69 96 0c 3f 00 be 0b 3d b8 75 39 3e
       0.2254715 0.5491701 0.034116745 0.18111312
0001e0 77 4f 25 3f d6 7e 1b 3f 46 e5 ec 3e c0 31 94 3c
       0.6457438 0.6074041 0.46268672 0.018090129
0001f0 f4 61 23 3e 00 62 7d 3d 20 f1 77 3f 34 6b 06 3e
       0.15955335 0.06186104 0.968523 0.13126832

bn3.bias f4 [128]
000000 00 00 00 00 00 00 00 00 00 00 00 00 00 00 00 00
       0.0 0.0 0.0 0.0
000010 00 00 00 00 00 00 00 00 00 00 00 00 00 00 00 00
       0.0 0.0 0.0 0.0
000020 00 00 00 00 00 00 00 00 00 00 00 00 00 00 00 00
       0.0 0.0 0.0 0.0
000030 00 00 00 00 00 00 00 00 00 00 00 00 00 00 00 00
       0.0 0.0 0.0 0.0
000040 00 00 00 00 00 00 00 00 00 00 00 00 00 00 00 00
       0.0 0.0 0.0 0.0
000050 00 00 00 00 00 00 00 00 00 00 00 00 00 00 00 00
       0.0 0.0 0.0 0.0
000060 00 00 00 00 00 00 00 00 00 00 00 00 00 00 00 00
       0.0 0.0 0.0 0.0
000070 00 00 00 00 00 00 00 00 00 00 00 00 00 00 00 00
       0.0 0.0 0.0 0.0
000080 00 00 00 00 00 00 00 00 00 00 00 00 00 00 00 00
       0.0 0.0 0.0 0.0
000090 00 00 00 00 00 00 00 00 00 00 00 00 00 00 00 00
       0.0 0.0 0.0 0.0
0000a0 00 00 00 00 00 00 00 00 00 00 00 00 00 00 00 00
       0.0 0.0 0.0 0.0
0000b0 00 00 00 00 00 00 00 00 00 00 00 00 00 00 00 00
       0.0 0.0 0.0 0.0
0000c0 00 00 00 00 00 00 00 00 00 00 00 00 00 00 00 00
       0.0 0.0 0.0 0.0
0000d0 00 00 00 00 00 00 00 00 00 00 00 00 00 00 00 00
       0.0 0.0 0.0 0.0
0000e0 00 00 00 00 00 00 00 00 00 00 00 00 00 00 00 00
       0.0 0.0 0.0 0.0
0000f0 00 00 00 00 00 00 00 00 00 00 00 00 00 00 00 00
       0.0 0.0 0.0 0.0
000100 00 00 00 00 00 00 00 00 00 00 00 00 00 00 00 00
       0.0 0.0 0.0 0.0
000110 00 00 00 00 00 00 00 00 00 00 00 00 00 00 00 00
       0.0 0.0 0.0 0.0
000120 00 00 00 00 00 00 00 00 00 00 00 00 00 00 00 00
       0.0 0.0 0.0 0.0
000130 00 00 00 00 00 00 00 00 00 00 00 00 00 00 00 00
       0.0 0.0 0.0 0.0
000140 00 00 00 00 00 00 00 00 00 00 00 00 00 00 00 00
       0.0 0.0 0.0 0.0
000150 00 00 00 00 00 00 00 00 00 00 00 00 00 00 00 00
       0.0 0.0 0.0 0.0
000160 00 00 00 00 00 00 00 00 00 00 00 00 00 00 00 00
       0.0 0.0 0.0 0.0
000170 00 00 00 00 00 00 00 00 00 00 00 00 00 00 00 00
       0.0 0.0 0.0 0.0
000180 00 00 00 00 00 00 00 00 00 00 00 00 00 00 00 00
       0.0 0.0 0.0 0.0
000190 00 00 00 00 00 00 00 00 00 00 00 00 00 00 00 00
       0.0 0.0 0.0 0.0
0001a0 00 00 00 00 00 00 00 00 00 00 00 00 00 00 00 00
       0.0 0.0 0.0 0.0
0001b0 00 00 00 00 00 00 00 00 00 00 00 00 00 00 00 00
       0.0 0.0 0.0 0.0
0001c0 00 00 00 00 00 00 00 00 00 00 00 00 00 00 00 00
       0.0 0.0 0.0 0.0
0001d0 00 00 00 00 00 00 00 00 00 00 00 00 00 00 00 00
       0.0 0.0 0.0 0.0
0001e0 00 00 00 00 00 00 00 00 00 00 00 00 00 00 00 00
       0.0 0.0 0.0 0.0
0001f0 00 00 00 00 00 00 00 00 00 00 00 00 00 00 00 00
       0.0 0.0 0.0 0.0

bn3.running_mean f4 [128]
000000 00 00 00 00 00 00 00 00 00 00 00 00 00 00 00 00
       0.0 0.0 0.0 0.0
000010 00 00 00 00 00 00 00 00 00 00 00 00 00 00 00 00
       0.0 0.0 0.0 0.0
000020 00 00 00 00 00 00 00 00 00 00 00 00 00 00 00 00
       0.0 0.0 0.0 0.0
000030 00 00 00 00 00 00 00 00 00 00 00 00 00 00 00 00
       0.0 0.0 0.0 0.0
000040 00 00 00 00 00 00 00 00 00 00 00 00 00 00 00 00
       0.0 0.0 0.0 0.0
000050 00 00 00 00 00 00 00 00 00 00 00 00 00 00 00 00
       0.0 0.0 0.0 0.0
000060 00 00 00 00 00 00 00 00 00 00 00 00 00 00 00 00
       0.0 0.0 0.0 0.0
000070 00 00 00 00 00 00 00 00 00 00 00 00 00 00 00 00
       0.0 0.0 0.0 0.0
000080 00 00 00 00 00 00 00 00 00 00 00 00 00 00 00 00
       0.0 0.0 0.0 0.0
000090 00 00 00 00 00 00 00 00 00 00 00 00 00 00 00 00
       0.0 0.0 0.0 0.0
0000a0 00 00 00 00 00 00 00 00 00 00 00 00 00 00 00 00
       0.0 0.0 0.0 0.0
0000b0 00 00 00 00 00 00 00 00 00 00 00 00 00 00 00 00
       0.0 0.0 0.0 0.0
0000c0 00 00 00 00 00 00 00 00 00 00 00 00 00 00 00 00
       0.0 0.0 0.0 0.0
0000d0 00 00 00 00 00 00 00 00 00 00 00 00 00 00 00 00
       0.0 0.0 0.0 0.0
0000e0 00 00 00 00 00 00 00 00 00 00 00 00 00 00 00 00
       0.0 0.0 0.0 0.0
0000f0 00 00 00 00 00 00 00 00 00 00 00 00 00 00 00 00
       0.0 0.0 0.0 0.0
000100 00 00 00 00 00 00 00 00 00 00 00 00 00 00 00 00
       0.0 0.0 0.0 0.0
000110 00 00 00 00 00 00 00 00 00 00 00 00 00 00 00 00
       0.0 0.0 0.0 0.0
000120 00 00 00 00 00 00 00 00 00 00 00 00 00 00 00 00
       0.0 0.0 0.0 0.0
000130 00 00 00 00 00 00 00 00 00 00 00 00 00 00 00 00
       0.0 0.0 0.0 0.0
000140 00 00 00 00 00 00 00 00 00 00 00 00 00 00 00 00
       0.0 0.0 0.0 0.0
000150 00 00 00 00 00 00 00 00 00 00 00 00 00 00 00 00
       0.0 0.0 0.0 0.0
000160 00 00 00 00 00 00 00 00 00 00 00 00 00 00 00 00
       0.0 0.0 0.0 0.0
000170 00 00 00 00 00 00 00 00 00 00 00 00 00 00 00 00
       0.0 0.0 0.0 0.0
000180 00 00 00 00 00 00 00 00 00 00 00 00 00 00 00 00
       0.0 0.0 0.0 0.0
000190 00 00 00 00 00 00 00 00 00 00 00 00 00 00 00 00
       0.0 0.0 0.0 0.0
0001a0 00 00 00 00 00 00 00 00 00 00 00 00 00 00 00 00
       0.0 0.0 0.0 0.0
0001b0 00 00 00 00 00 00 00 00 00 00 00 00 00 00 00 00
       0.0 0.0 0.0 0.0
0001c0 00 00 00 00 00 00 00 00 00 00 00 00 00 00 00 00
       0.0 0.0 0.0 0.0
0001d0 00 00 00 00 00 00 00 00 00 00 00 00 00 00 00 00
       0.0 0.0 0.0 0.0
0001e0 00 00 00 00 00 00 00 00 00 00 00 00 00 00 00 00
       0.0 0.0 0.0 0.0
0001f0 00 00 00 00 00 00 00 00 00 00 00 00 00 00 00 00
       0.0 0.0 0.0 0.0

bn3.running_var f4 [128]
000000 00 00 80 3f 00 00 80 3f 00 00 80 3f 00 00 80 3f
       1.0 1.0 1.0 1.0
000010 00 00 80 3f 00 00 80 3f 00 00 80 3f 00 00 80 3f
       1.0 1.0 1.0 1.0
000020 00 00 80 3f 00 00 80 3f 00 00 80 3f 00 00 80 3f
       1.0 1.0 1.0 1.0
000030 00 00 80 3f 00 00 80 3f 00 00 80 3f 00 00 80 3f
       1.0 1.0 1.0 1.0
000040 00 00 80 3f 00 00 80 3f 00 00 80 3f 00 00 80 3f
       1.0 1.0 1.0 1.0
000050 00 00 80 3f 00 00 80 3f 00 00 80 3f 00 00 80 3f
       1.0 1.0 1.0 1.0
000060 00 00 80 3f 00 00 80 3f 00 00 80 3f 00 00 80 3f
       1.0 1.0 1.0 1.0
000070 00 00 80 3f 00 00 80 3f 00 00 80 3f 00 00 80 3f
       1.0 1.0 1.0 1.0
000080 00 00 80 3f 00 00 80 3f 00 00 80 3f 00 00 80 3f
       1.0 1.0 1.0 1.0
000090 00 00 80 3f 00 00 80 3f 00 00 80 3f 00 00 80 3f
       1.0 1.0 1.0 1.0
0000a0 00 00 80 3f 00 00 80 3f 00 00 80 3f 00 00 80 3f
       1.0 1.0 1.0 1.0
0000b0 00 00 80 3f 00 00 80 3f 00 00 80 3f 00 00 80 3f
       1.0 1.0 1.0 1.0
0000c0 00 00 80 3f 00 00 80 3f 00 00 80 3f 00 00 80 3f
       1.0 1.0 1.0 1.0
0000d0 00 00 80 3f 00 00 80 3f 00 00 80 3f 00 00 80 3f
       1.0 1.0 1.0 1.0
0000e0 00 00 80 3f 00 00 80 3f 00 00 80 3f 00 00 80 3f
       1.0 1.0 1.0 1.0
0000f0 00 00 80 3f 00 00 80 3f 00 00 80 3f 00 00 80 3f
       1.0 1.0 1.0 1.0
000100 00 00 80 3f 00 00 80 3f 00 00 80 3f 00 00 80 3f
       1.0 1.0 1.0 1.0
000110 00 00 80 3f 00 00 80 3f 00 00 80 3f 00 00 80 3f
       1.0 1.0 1.0 1.0
000120 00 00 80 3f 00 00 80 3f 00 00 80 3f 00 00 80 3f
       1.0 1.0 1.0 1.0
000130 00 00 80 3f 00 00 80 3f 00 00 80 3f 00 00 80 3f
       1.0 1.0 1.0 1.0
000140 00 00 80 3f 00 00 80 3f 00 00 80 3f 00 00 80 3f
       1.0 1.0 1.0 1.0
000150 00 00 80 3f 00 00 80 3f 00 00 80 3f 00 00 80 3f
       1.0 1.0 1.0 1.0
000160 00 00 80 3f 00 00 80 3f 00 00 80 3f 00 00 80 3f
       1.0 1.0 1.0 1.0
000170 00 00 80 3f 00 00 80 3f 00 00 80 3f 00 00 80 3f
       1.0 1.0 1.0 1.0
000180 00 00 80 3f 00 00 80 3f 00 00 80 3f 00 00 80 3f
       1.0 1.0 1.0 1.0
000190 00 00 80 3f 00 00 80 3f 00 00 80 3f 00 00 80 3f
       1.0 1.0 1.0 1.0
0001a0 00 00 80 3f 00 00 80 3f 00 00 80 3f 00 00 80 3f
       1.0 1.0 1.0 1.0
0001b0 00 00 80 3f 00 00 80 3f 00 00 80 3f 00 00 80 3f
       1.0 1.0 1.0 1.0
0001c0 00 00 80 3f 00 00 80 3f 00 00 80 3f 00 00 80 3f
       1.0 1.0 1.0 1.0
0001d0 00 00 80 3f 00 00 80 3f 00 00 80 3f 00 00 80 3f
       1.0 1.0 1.0 1.0
0001e0 00 00 80 3f 00 00 80 3f 00 00 80 3f 00 00 80 3f
       1.0 1.0 1.0 1.0
0001f0 00 00 80 3f 00 00 80 3f 00 00 80 3f 00 00 80 3f
       1.0 1.0 1.0 1.0
