mode_weights/agent2_actor_target.pth (torch_old, 93021 bytes, 18 tensors)

bn1.weight f4 [33]
0.5121381 0.57234955 0.32208237 0.008053481 0.012423302 0.046765972 0.06565131 0.23096673
0.08592048 0.16691522 0.17253631 0.15576427 0.104395576 0.544339 0.44286877 0.68739665
0.05966627 0.087667905 0.0046230936 0.037435878 0.2012161 0.332314 0.10620399 0.6769433
0.29590797 0.4333283 1.0431542 0.03616482 0.5645059 0.37341738 0.30510002 0.9320004
0.34899047
00000000: 7c1b 033f 8085 123f fbe7 a43e bff2 033c
00000010: 1b8b 4b3c ad8d 3f3d 3274 863d 8b82 6c3e
00000020: 14f7 af3d d3eb 2a3e 5cad 303e ab80 1f3e
00000030: 59cd d53d cd59 0b3f b2bf e23e 3af9 2f3f
00000040: 9e64 743d 3b8b b33d 527d 973b 5d56 193d
00000050: 980b 4e3e 1025 aa3e 7a81 d93d 284c 2d3f
00000060: 4081 973e 35dd dd3e 1486 853f 9021 143d
00000070: 7583 103f 9030 bf3e 1236 9c3e 9497 6e3f
00000080: e1ae b23e

bn1.bias f4 [33]
-0.0786961 -0.09164361 -0.09719358 0.12813285 -0.20809148 0.021249915 -0.0030785305 -0.15784186
-0.02803804 -0.060826678 -0.088316984 -0.15446463 0.053728547 -0.028298892 -0.107891135 -0.01720009
0.01610998 0.029743295 0.14714658 0.04986824 -0.1594018 0.07120786 -0.017431175 -0.00037163994
-0.084952444 -0.042955816 0.052629434 0.12725013 -0.015352 0.17512953 -0.15367669 -0.19284798
-0.041204043
00000000: 6c2b a1bd a5af bbbd 6d0d c7bd 4235 033e
00000010: ef15 55be 4d14 ae3c 2cc1 49bb 4ca1 21be
00000020: 08b0 e5bc 6525 79bd 89df b4bd fa2b 1ebe
00000030: 7712 5c3d 14d3 e7bc 07f6 dcbd 34e7 8cbc
00000040: 14f9 833c 36a8 f33c 98ad 163e a442 4c3d
00000050: 3a3a 23be 6dd5 913d d3cb 8ebc abd8 c2b9
00000060: 8cfb adbd 70f2 2fbd f691 573d dc4d 023e
00000070: f486 7bbc 2855 333e 6c5d 1dbe f179 45be
00000080: 92c5 28bd

bn1.running_mean f4 [33]
0.6797322 -2.4757178 -0.37199903 0.84982336 0.081232734 0.01340714 -0.059408005 0.0067879753
0.0070176385 0.015874948 0.060944166 0.02694697 -0.017704457 0.47498393 -2.5754266 -0.091442764
0.010109573 -0.0074055283 -0.0047591855 -0.04023599 0.14395204 0.019832067 0.08895483 0.028002877
0.08003654 0.04807549 0.04109502 -0.99999976 0.08655118 0.0 0.99999976 0.0
0.0025937574
00000000: ee02 2e3f 2972 1ec0 a876 bebe 068e 593f
00000010: 595d a63d 9fa9 5b3c cf55 73bd aa6d de3b
00000020: 38f4 e53b 2e0c 823c 97a0 793d e4bf dc3c
00000030: f008 91bc 1831 f33e cad3 24c0 5846 bbbd
00000040: 9fa2 253c 13aa f2bb f1f2 9bbb 7ece 24bd
00000050: 2a68 133e dc76 a23c f32d b63d 4a66 e53c
00000060: 33ea a33d ceea 443d 4053 283d fcff 7fbf
00000070: bf41 b13d 0000 0000 fcff 7f3f 0000 0000
00000080: 07fc 293b

bn1.running_var f4 [33]
4.0603905 0.55313087 4.7236347 0.060176816 0.06791916 0.027953701 0.11172168 0.39750075
0.06625982 0.114430174 2.2394729 1.3287997 2.7327259 19.458412 1.5740143 21.717806
0.10925709 0.27564222 0.09698275 0.5167759 2.4815319 0.7927337 0.90915626 7.9950824
3.5308604 9.001248 31.796509 6e-45 32.164402 6e-45 6e-45 6e-45
0.34567904
00000000: b8ee 8140 fc99 0d3f 0428 9740 f77b 763d
00000010: 3319 8b3d 29ff e43c 56ce e43d 3885 cb3e
00000020: 3ab3 873d 5e5a ea3d 8653 0f40 1c16 aa3f
00000030: fbe4 2e40 d4aa 9b41 4d79 c93f 11be ad41
00000040: 2ec2 df3d fa20 8d3e e49e c63d 6d4b 043f
00000050: 6bd1 1e40 99f0 4a3f 77be 683f b7d7 ff40
00000060: 9ef9 6140 1d05 1041 405f fe41 0400 0000
00000070: 59a8 0042 0400 0000 0400 0000 0400 0000
00000080: d8fc b03e

fc1.weight f4 [128, 33]
-0.03676553 -0.093902916 0.08481161 0.1135971 -0.058146097 0.010120246 0.05369278 -0.06299361
-0.059188392 -0.011221192 0.06543259 0.14608833 0.06001247 0.077102914 0.01027946 0.0036126391
-0.05522797 0.07548205 0.07104318 -0.024318129 -0.01485226 -0.118511006 -0.15611184 0.1239051
-0.010046679 0.04066875 0.077860855 0.009071067 0.02585147 -0.04196822 -0.078821816 0.0112999445
0.0041721836 -0.033365387 -0.032004524 0.07454554 -0.001834951 0.1219941 -0.007551447 -0.025777314
-0.078815475 0.04761115 -0.05652511 -0.08956873 0.02108695 0.09770665 0.037632033 0.010372723
-0.0025979609 -0.014608048 -0.045051746 -0.1215938 0.022950172 0.11889505 -0.0041575767 0.067323975
0.038686763 -0.0017611026 -0.01067877 -0.16298357 -0.08998232 0.07299009 -0.0740134 0.16976985
0.05926236 0.052795295 0.12353772 -0.051861215 0.0052589662 0.0047941655 0.067292735 0.0007787063
0.03694434 -0.013330294 -0.10568194 0.036439985 -0.020545296 -0.08728426 -0.012825827 0.04867906
0.023046924 -0.086204775 -0.01691056 0.01723915 0.026324715 -0.054881457 -0.021098513 -0.018711265
0.08054942 -0.007442862 0.033291895 0.0069065704 -0.10226908 0.054017186 0.10343772 -0.060137194
0.058052503 0.11385081 -0.013521456 -0.085691035 0.060297426 0.014306979 -0.049549866 0.03693965
0.05012729 -0.031186193 -0.0099962065 0.058798924 -0.045349672 0.07316847 0.039498318 0.051152878
-0.20038849 0.007880766 0.116174534 0.090724915 -0.0063144686 -0.029416716 0.025533583 0.00537424
0.0323246 -0.033783037 -0.06372414 0.057749517 0.030772336 -0.0578126 0.02820444 -0.20905748
0.009943838 0.04334502 0.07201546 -0.1544056 0.18947975 0.024027824 0.09604719 0.036006697
0.02381773 0.034159966 0.060841564 0.03726056 -0.02283986 0.045505766 -0.018068729 -0.016118236
0.022044858 -0.065835565 -0.043015994 0.01656215 0.0103568155 -0.05020443 0.050660256 0.03181054
-0.015283373 0.01992824 0.07985966 -0.025677258 -0.0067878175 -0.022422343 -0.08009158 0.017538048
-0.223067 -0.025569811 0.07262318 0.06823128 0.108434446 0.114168555 0.027248932 0.112138644
-0.010571569 -0.10919899 0.015824137 -0.0054533337 0.028268639 0.04476977 0.02218165 0.034670424
0.054214835 -0.020881271 -0.1707879 -0.07971105 -0.07821486 0.007180072 0.013254322 0.06797719
-0.013994122 0.04115931 -0.011996276 0.0031239712 -0.051998395 -0.045244496 0.017038383 0.06372741
0.023128485 -0.04159104 0.09435469 -0.12737997 -0.18205623 0.0074746236 0.11345728 0.0066701723
0.120808624 -0.05776463 -0.0769691 0.014987979 -0.028125126 0.0024159169 -0.052640792 -0.036197167
0.09472753 -0.10281008 0.016428495 -0.02509334 -0.103160396 0.06620196 0.0188872 -0.024474617
0.04676608 0.0348116 -0.044398047 0.014904855 0.0442411 0.038885918 0.016348654 0.049282182
-0.059558805 0.04448369 -0.15776053 0.055631485 0.08603572 -0.0083806375 0.12036443 -0.03162911
-0.047842085 -0.016743371 -0.06503244 -0.011607242 -0.018542496 0.019586854 -0.045312375 -0.025527336
-0.009985047 0.00038826175 0.08146016 0.07001664 -0.046983387 -0.031911563 0.0923344 -0.041204426
-0.032578994 -0.025471726 -0.063368104 -0.033804584 0.0056075845 0.05865346 0.010941515 -0.14069167
00000000: 7497 16bd 2c50 c0bd b6b1 ad3d 99a5 e83d
00000010: 9a2a 6ebd 63cf 253c f6ec 5b3d cb02 81bd
00000020: 876f 72bd 17d9 37bc 8601 863d 2e98 153e
00000030: a3cf 753d 22e8 9d3d 2e6b 283c 07c2 6c3b
00000040: b936 62bd 5596 9a3d 167f 913d d036 c7bc
00000050: e556 73bc e6b5 f2bd c8db 1fbe f5c1 fd3d
00000060: d39a 24bc 4694 263d 8375 9f3d d09e 143c
00000070: 76c6 d33c dee6 2bbd 556d a1bd 6723 393c
00000080: d0b6 883b 25aa 08bd 2d17 03bd 55ab 983d
00000090: bd82 f0ba 0bd8 f93d 2172 f7bb f22a d3bc
000000a0: 026a a1bd e903 433d e086 67bd cf6f b7bd
000000b0: 8abe ac3c 6d1a c83d 0c24 1a3d 5bf2 293c
000000c0: 8d42 2abb 9856 6fbc 2e88 38bd 2c06 f9bd
000000d0: 0002 bc3c 3f7f f33d 483c 88bb 27e1 893d
000000e0: 0376 1e3d ccd4 e6ba 02f6 2ebc 2ae5 26be
000000f0: a748 b8bd d47b 953d 5694 97bd 26d8 2d3e
00000100: 17bd 723d e13f 583d 5801 fd3d 6d6c 54bd
00000110: 6853 ac3b 6018 9d3b c6d0 893d 1822 4c3a
00000120: f352 173d 4e67 5abc c66f d8bd 1842 153d
00000130: 9c4e a8bc 17c2 b2bd 6b23 52bc b263 473d
00000140: e7cc bc3c 218c b0bd 0488 8abc 1e39 8d3c
00000150: eea6 d73c 61cb 60bd cad6 acbc 5e48 99bc
00000160: 18f7 a43d 40e3 f3bb 155d 083d 8350 e23b
00000170: 7472 d1bd 2041 5d3d 28d7 d33d 6b52 76bd
00000180: 76c8 6d3d 9d2a e93d 1989 5dbc c87e afbd
00000190: 6ffa 763d d267 6a3c cdf4 4abd 084e 173d
000001a0: 4652 4d3d 307a ffbc 21c7 23bc 24d7 703d
000001b0: 94c0 39bd 5ad9 953d fdc8 213d ae85 513d
000001c0: a432 4dbe 541e 013c eaec ed3d fccd b93d
000001d0: 9ae9 cebb 53fb f0bc ce2b d13c 651a b03b
000001e0: cd66 043d 1560 0abd cd81 82bd c28a 6c3d
000001f0: 4416 fc3c e8cc 6cbd ff0c e73c 2a13 56be
00000200: 7beb 223c 8c8a 313d d77c 933d 801c 1ebe
00000210: fb06 423e 00d6 c43c 64b4 c43d c27b 133d
00000220: 661d c33c 52eb 0b3d 0135 793d 879e 183d
00000230: a81a bbbc 4164 3a3d df04 94bc 640a 84bc
00000240: 6b97 b43c ccd4 86bd 8a31 30bd 59ad 873c
00000250: a2af 293c 29a3 4dbd 2181 4f3d c54b 023d
00000260: 1d67 7abc 8c40 a33c 768d a33d 1d59 d2bc
00000270: 576c debb 10af b7bc 0e07 a4bd f4ab 8f3c
00000280: ad6b 64be c877 d1bc 76bb 943d d7bc 8b3d
00000290: e112 de3d 34d1 e93d 2739 df3c f2a8 e53d
000002a0: 6034 2dbc b8a3 dfbd 9fa1 813c e1b1 b2bb
000002b0: a293 e73c 8260 373d 4bb6 b53c 9302 0e3d
000002c0: 6010 5e3d 330f abbc 06e3 2ebe 8c3f a3bd
000002d0: 1d2f a0bd cf46 eb3b a828 593c a037 8b3d
000002e0: 9a47 65bc aa96 283d 078c 44bc 8abb 4c3b
000002f0: 45fc 54bd 4b52 39bd 1494 8b3c 8483 823d
00000300: f377 bd3c 5e5b 2abd 083d c13d e56f 02be
00000310: f36c 3abe b0ed f43b 4a5c e83d 7691 da3b
00000320: 836a f73d 9b9a 6cbd faa1 9dbd 2490 753c
00000330: aa66 e6bc 5c54 1e3b df9d 57bd 7b43 14bd
00000340: 8200 c23d 178e d2bd 0d95 863c 8c90 cdbc
00000350: c245 d3bd e594 873d 54b9 9a3c fe7e c8bc
00000360: ca8d 3f3d 9c96 0e3d bada 35bd 7e33 743c
00000370: 2836 353d d746 1f3d 9ded 853c 1ddc 493d
00000380: eff3 73bd 8834 363d fa8b 21be d7dd 633d
00000390: 7f33 b03d f14e 09bc a081 f63d 878d 01bd
000003a0: 10f6 43bd 6529 89bc ba2f 85bd 4d2c 3ebc
000003b0: 6fe6 97bc 9c74 a03c 7899 39bd b41e d1bc
000003c0: 5398 23bc 9c8f cb39 96d4 a63d e264 8f3d
000003d0: a771 40bd b3b5 02bd d119 bd3d f9c5 28bd
000003e0: 8d71 05bd 15aa d0bc 23c7 81bd ad76 0abd
000003f0: d4bf b73b 9c3e 703d 0a44 333c 7a11 10be

fc1.bias f4 [128]
0.00058158726 -0.03163863 0.02948746 -0.12448121 -0.15193273 0.17557672 0.057176817 -0.090802394
0.03002916 -0.11032949 0.026902707 -0.06290015 -0.11452322 -0.085081264 0.06056942 -0.15854456
0.0623616 -0.11105514 -0.11443814 -0.11765872 -0.07528211 0.09935917 0.029207075 -0.024112944
-0.04628659 -0.08427225 0.006111896 0.16451994 -0.034006625 -0.0016302728 0.096436895 0.08765899
0.018497465 0.025219139 -0.044385254 -0.008867912 0.08615813 0.05497477 0.041454285 -0.16274156
0.26975563 -0.06666018 -0.00071616843 -0.062274065 -0.11381692 -0.010150765 0.068408296 0.17642853
-0.063818835 0.000110775014 -0.035132486 0.17745882 -0.2148286 -0.089063786 0.15379344 -0.13522668
-0.0012824748 0.115163796 -0.030930685 -0.013424262 0.09893993 -0.07293152 0.249738 -0.10149889
-0.026903642 0.034965307 0.036526054 0.08515923 0.06491599 0.24098746 -0.13296188 0.09571441
-0.07740474 -0.047667947 0.2456945 -0.12242307 0.0089136725 0.21787077 0.043449055 -0.2190747
0.3304604 0.015898615 -0.152183 0.03203741 0.22338098 0.04196259 -0.10575469 -0.08351267
-0.054121412 0.23177932 -0.12314938 -0.04322458 -0.07597738 0.10970657 -0.0072196773 -0.0530242
-0.04195188 0.061792415 -0.03085897 -0.07313507 -0.026388524 -0.09635605 -0.10011771 -0.0021751293
-0.22023611 0.057053987 0.007584502 0.30176994 0.080005735 -0.024724534 0.18547425 -0.12133639
-0.052068766 -0.15564212 -0.07573209 0.070823155 -0.13983943 -0.16388118 -0.07912191 -0.018506499
0.13255192 0.23784512 0.031435877 0.15721975 -0.061912373 0.14777857 -0.0786884 0.040057015
00000000: a975 183a 8297 01bd b08f f13c 01f0 febd
00000010: 4194 1bbe 62ca 333e 3d32 6a3d 9bf6 b9bd
00000020: b7ff f53c 6df4 e1bd 1163 dc3c cbd1 80bd
00000030: 268b eabd 163f aebd a417 783d 8159 22be
00000040: e16e 7f3d e170 e3bd 8b5e eabd 0ef7 f0bd
00000050: 822d 9abd d27c cb3d ad43 ef3c 8288 c5bc
00000060: 0297 3dbd ee96 acbd 4d46 c83b ea77 283e
00000070: 884a 0bbd e1ae d5ba b580 c53d 8e86 b33d
00000080: ff87 973c 5e98 ce3c 50cd 35bd b84a 11bc
00000090: ac73 b03d 392d 613d f8cb 293d b9a5 26be
000000a0: 691d 8a3e 2285 88bd 40bd 3bba 1713 7fbd
000000b0: d818 e9bd 654f 26bc a619 8c3d aea9 343e
000000c0: 73b3 82bd e24f e838 15e7 0fbd c4b7 353e
000000d0: 07fc 5bbe 1367 b6bd 077c 1d3e dd78 0abe
000000e0: b718 a8ba ffda eb3d 5962 fdbc 70f1 5bbc
000000f0: 05a1 ca3d 1f5d 95bd 51bb 7f3e a6de cfbd
00000100: 0765 dcbc c837 0f3d 589c 153d f667 ae3d
00000110: adf2 843d 6bc5 763e 2927 08be eb05 c43d
00000120: 6086 9ebd 773f 43bd 5797 7b3e f2b8 fabd
00000130: a70a 123c 8419 5f3e a3f7 313d 1e55 60be
00000140: 1b32 a93e d03d 823c dcd5 1bbe a939 033d
00000150: fcbd 643e f7e0 2b3d ea95 d8bd b108 abbd
00000160: 6aae 5dbd 8f57 6d3e be35 fcbd 420c 31bd
00000170: 079a 9bbd d7ad e03d 0b93 ecbb e72f 59bd
00000180: bcd5 2bbd 0b1a 7d3d f3cb fcbc d7c7 95bd
00000190: bf2c d8bc 5256 c5bd 840a cdbd 9d8c 0ebb
000001a0: 9385 61be 71b1 693d 6a87 f83b 9781 9a3e
000001b0: 0cda a33d 1b8b cabc f6ec 3d3e 377f f8bd
000001c0: 0f46 55bd a660 1fbe 6d19 9bbd bb0b 913d
000001d0: 1132 0fbe 78d0 27be ab0a a2bd f19a 97bc
000001e0: b1bb 073e ac8d 733e e8c2 003d 37fe 203e
000001f0: d497 7dbd 4453 173e 6227 a1bd d312 243d

bn2.weight f4 [128]
0.09332124 0.2626093 0.36002418 0.50879675 0.2731052 0.5122698 0.5410889 0.28518876
0.47737092 0.75992036 0.4053221 0.3227779 0.2106815 0.33934918 0.41428813 0.19146149
0.3609167 0.8276067 0.5610637 0.6506201 0.82882994 0.3768272 0.37258935 0.51540107
0.25456804 0.58350974 0.5128412 0.17119953 0.27107286 0.37297472 0.5475016 0.76093936
0.72050506 0.49718547 0.3082598 0.41940463 0.24558364 0.2970097 0.14264123 0.73178655
0.067415744 0.1729312 0.70271105 0.34518173 0.47826284 0.8773477 0.87780935 0.6468919
0.4960866 0.72511125 0.4545994 0.31536108 0.33477873 0.49869666 0.6731773 0.63836086
0.60093415 0.5367128 0.4477916 0.5804242 0.51899576 0.25409344 0.47540486 0.448938
0.36833677 0.73068935 0.53794765 0.57918996 0.30555204 0.6292824 0.8132085 0.5646852
0.69269353 0.24924634 0.67296344 0.52873385 0.6689373 0.71879184 0.40395635 0.38848117
0.8249499 0.6623832 0.33451152 0.9732171 0.88009197 0.54544795 0.25072297 0.59799993
0.38922587 0.7243343 0.2155192 0.5803547 0.5058126 0.4923688 0.733357 0.5469047
0.27305654 0.307464 0.32843432 0.512725 0.6092606 0.43804735 0.33570334 0.7427118
0.081156 0.82748646 0.44765794 0.80774784 0.8307386 0.53335357 0.50250375 0.260878
0.74399257 0.61252946 0.39297485 0.60597986 0.5543523 0.7085554 0.6485275 0.80724406
0.12098893 0.80727303 0.65261877 0.5965061 0.54589677 0.7435188 0.8866877 0.5314005
00000000: 351f bf3d ba74 863e 1755 b83e 8140 023f
00000010: 72d4 8b3e 1d24 033f cd84 0a3f 4304 923e
00000020: f669 f43e 248a 423f 6186 cf3e 2543 a53e
00000030: e4bc 573e 2dbf ad3e 931d d43e 7b0e 443e
00000040: 13ca b83e 08de 533f dfa1 0f3f 0a8f 263f
00000050: 332e 543f 7fef c03e 08c4 be3e 53f1 033f
00000060: be56 823e e560 153f 9049 033f ee4e 2f3e
00000070: 10ca 8a3e 8bf6 be3e 1129 0c3f eccc 423f
00000080: 0573 383f 188f fe3e 3ad4 9d3e 34bc d63e
00000090: 477a 7b3e a811 983e 8b10 123e 5d56 3b3f
000000a0: 4411 8a3d e014 313e dfe4 333f a9bb b03e
000000b0: dede f43e dc99 603f 1db8 603f b59a 253f
000000c0: 10ff fd3e e4a0 393f 41c1 e83e 0277 a13e
000000d0: 1e68 ab3e 2b55 ff3e 5955 2c3f 9e6b 233f
000000e0: d2d6 193f 0366 093f f144 e53e ae96 143f
000000f0: e8dc 043f 8918 823e 4468 f33e 34db e53e
00000100: a396 bc3e 750e 3b3f f0b6 093f cb45 143f
00000110: 5171 9c3e a718 213f 6f2e 503f 368f 103f
00000120: 5d54 313f 6f3a 7f3e 5547 2c3f 1a5b 073f
00000130: 7a3f 2b3f be02 383f 5ed3 ce3e 01e7 c63e
00000140: eb2f 533f f291 293f 1845 ab3e c224 793f
00000150: b54d 613f 7aa2 0b3f c35e 803e 8616 193f
00000160: 9d48 c73e f96d 393f 11b1 5c3e 2092 143f
00000170: ef7c 013f c317 fc3e 49bd 3b3f f201 0c3f
00000180: 11ce 8b3e ec6b 9d3e 8b28 a83e f241 033f
00000190: 81f8 1b3f be47 e03e 4fe1 ab3e 5c22 3e3f
000001a0: 1e35 a63d 27d6 533f 6c33 e53e 90c8 4e3f
000001b0: 49ab 543f dc89 083f 16a4 003f cd91 853e
000001c0: 4c76 3e3f bbce 1c3f 0034 c93e 7f21 1b3f
000001d0: 08ea 0d3f e363 353f e605 263f 8ca7 4e3f
000001e0: 0bc9 f73d 72a9 4e3f 0612 273f a0b4 183f
000001f0: e4bf 0b3f 4057 3e3f f7fd 623f dd09 083f

bn2.bias f4 [128]
-0.41479465 0.014940506 0.069955565 0.16683365 0.2618197 0.21740593 0.061856598 -0.23706743
0.15194252 0.10256827 0.20456654 -0.28135803 0.35850236 0.08092476 0.25199723 0.33654296
-0.28475204 0.13565278 -0.07527066 -0.13093203 0.118541576 0.05029209 -0.032932527 0.07260462
-0.087627046 0.2601577 0.02194213 0.38064644 0.311809 0.33042878 0.20103998 0.10601785
-0.16253203 -0.15993781 0.07818218 -0.12004922 0.28221974 0.14952534 0.36462408 0.31009525
0.61192566 0.08363643 -0.04097222 0.32253125 -0.08273007 0.21431656 -0.062295783 -0.13290879
-0.10745562 -0.10791105 0.2892425 -0.076699995 0.40456715 -0.092808574 0.20142306 0.0036339394
0.008097628 0.26308408 -0.033746872 0.1743395 0.11131619 0.073857464 -0.2796106 0.18683167
0.412627 0.13083254 0.18727016 0.0011201289 0.30082682 0.19899824 -0.009117797 0.05441819
0.12126723 0.046461403 0.14526527 0.13105741 -0.116156295 0.07038971 0.055749223 -0.1153826
0.15020344 -0.22539818 -0.07988497 -0.035120126 -0.049339578 -0.14668292 0.28216794 0.12703256
-0.0010431571 -0.01097146 0.2601618 0.06629587 0.06764893 0.2789216 0.11584333 0.29863873
0.16210403 0.06657963 0.0694955 -0.07151936 -0.071549095 0.13990448 0.20096228 -0.14084767
0.29013628 0.17627291 0.2389586 -0.27647015 0.16298477 -0.08818067 -0.10798913 -0.01611605
0.14624555 0.11758686 -0.020233423 0.089475855 0.32901767 -0.10361112 0.13966653 0.24604806
0.598334 -0.021186167 -0.009325805 0.19908497 0.16331138 0.082902834 -0.2040841 -0.12747914
00000000: f75f d4be 06c9 743c dd44 8f3d 71d6 2a3e
00000010: 3b0d 863e a99f 5e3e 585d 7d3d cec1 72be
00000020: d296 1b3e 500f d23d e479 513e 290e 90be
00000030: 9f8d b73e e1bb a53d c805 813e 5c4f ac3e
00000040: 05cb 91be 90e8 0a3e 8127 9abd 0c13 06be
00000050: edc5 f23d 14ff 4d3d 42e4 06bd bbb1 943d
00000060: cf75 b3bd 6433 853e fbbf b33c 17e4 c23e
00000070: 6ea5 9f3e f62d a93e 6ddd 4d3e e31f d93d
00000080: cc6e 26be bdc6 23be fb1d a03d 5edc f5bd
00000090: 1b7f 903e 2c1d 193e 02b0 ba3e cec4 9e3e
000000a0: 29a7 1c3f 9449 ab3d 7dd2 27bd d122 a53e
000000b0: 626e a9bd cd75 5b3e dd29 7fbd 3e19 08be
000000c0: b111 dcbd 7800 ddbd 9817 943e e314 9dbd
000000d0: 6d23 cf3e 6c12 bebd d941 4e3e 6327 6e3b
000000e0: eaab 043c f5b2 863e 293a 0abd 0e86 323e
000000f0: bef9 e33d 9542 973d 1f29 8fbe cd50 3f3e
00000100: d943 d33e f7f8 053e c0c3 3f3e 4ad1 923a
00000110: f905 9a3e 32c6 4b3e d062 15bc 9ce5 5e3d
00000120: f45a f83d 504e 3e3d 6bc0 143e ea33 063e
00000130: 5ae3 edbd 7b28 903d 4c59 643d b64d ecbd
00000140: eece 193e c8ce 66be bb9a a3bd 1fda 0fbd
00000150: 4c18 4abd 0c34 16be 5178 903e d314 023e
00000160: 8bba 88ba a3c1 33bc ed33 853e 21c6 873d
00000170: 868b 8a3d d0ce 8e3e 453f ed3d 2de7 983e
00000180: 99fe 253e e75a 883d a853 8e3d be78 92bd
00000190: 5588 92bd 1f43 0f3e 0ec9 4d3e 5f3a 10be
000001a0: be8c 943e e380 343e 90b1 743e 7f8d 8dbe
000001b0: 7be5 263e 1198 b4bd 6829 ddbd ce05 84bc
000001c0: 65c1 153e 61d1 f03d 90c0 a5bc 1e3f b73d
000001d0: 0175 a83e 1132 d4bd be04 0f3e 06f4 7b3e
000001e0: 6b2c 193f 9d8e adbc 43cb 18bc eedc 4b3e
000001f0: 193b 273e f6c8 a93d 6cfb 50be e489 02be

bn2.running_mean f4 [128]
0.0806762 0.023182273 0.013200248 0.029980931 0.002523535 0.25338146 0.08388662 0.0665345
0.026732013 0.04552301 0.1011271 0.040576234 5.4385804e-05 0.00038305175 0.10990822 3.4448764e-08
0.032969546 0.03350729 0.03656784 0.012213866 0.09798685 0.062532656 0.12106958 0.108557485
0.016942216 0.015146753 0.0471735 0.23713975 0.061848707 0.00014224918 0.11636335 0.3397047
0.08008807 0.004332848 0.026332827 0.05451387 0.18578206 0.122318536 0.08003421 0.000100215264
0.3962089 5.2271065e-05 0.019153923 0.031922307 0.00018160904 0.03636535 0.14583173 0.30949596
0.05990241 0.048474733 0.04141072 0.20591484 3.7522464e-06 1.349246e-05 0.15548281 0.0002168126
0.073529944 0.1171913 0.00010633224 0.04996082 0.1273916 0.029766554 0.36653933 7.155165e-06
0.0068681445 0.05855291 0.12565121 0.052845053 0.010896516 0.32646242 0.009451801 0.17238148
0.018897558 0.00059605786 0.40364343 0.0005361122 0.03458621 0.2564413 0.015674599 1.879327e-08
0.46182323 0.16365251 0.0003823447 0.028812509 0.3794362 0.03228561 0.020429546 0.022450965
0.016245203 0.34767574 0.00983736 0.031939857 0.003945196 0.21998866 0.014981962 0.015832243
0.0077982014 0.032787267 0.018726222 0.0052593923 0.05908965 0.08375807 0.014683413 0.062461182
9.841413e-09 0.057940353 0.06872404 0.41644296 0.23558815 0.026313046 0.33586887 0.00015222761
0.038199835 0.007821565 2.8943818e-05 0.098041944 0.021400588 2.4848936e-05 0.09072754 0.088388406
0.09588793 0.29774764 0.10627311 0.21601006 0.0054513626 0.17798315 0.020879028 0.100871705
00000000: 9039 a53d c0e8 bd3c da45 583c 929a f53c
00000010: e461 253b 37bb 813e c0cc ab3d 3d43 883d
00000020: 18fd da3c 5676 3a3d ba1b cf3d 4433 263d
00000030: 501c 6438 56d4 c839 9017 e13d d1f4 1333
00000040: 130b 073d f13e 093d 29c8 153d ab1c 483c
00000050: 54ad c83d 1f11 803d 54f3 f73d 6353 de3d
00000060: 67ca 8a3c 162a 783c 0039 413d c3d4 723e
00000070: 1255 7d3d b928 1539 e84f ee3d c6ed ad3e
00000080: 3705 a43d 90fa 8d3b f1b7 d73c f049 5f3d
00000090: a73d 3e3e 2482 fa3d fae8 a33d a92a d238
000000a0: e5db ca3e a13d 5b38 b0e8 9c3c f7c0 023d
000000b0: 4e6e 3e39 d5f3 143d ea54 153e 4176 9e3e
000000c0: 3b5c 753d 718d 463d 4a9e 293d 57db 523e
000000d0: 1acf 7b36 ad5d 6237 e336 1f3e 3058 6339
000000e0: de96 963d fe01 f03d b0fe de38 b7a3 4c3d
000000f0: f272 023e fdd8 f33c 0bab bb3e 6616 f036
00000100: 2c0e e13b 2dd5 6f3d b6aa 003e 0e74 583d
00000110: 4d87 323c 1526 a73e badb 1a3c c584 303e
00000120: 0dcf 9a3c c440 1c3a 5aaa ce3e e189 0c3a
00000130: 45aa 0d3d 464c 833e 0468 803c d66e a132
00000140: 1874 ec3e 8694 273e 7075 c839 3608 ec3c
00000150: 7645 c23e ea3d 043d dd5b a73c 16eb b73c
00000160: a914 853c 8e02 b23e e12c 213c 5ed3 023d
00000170: b446 813b b544 613e e776 753c 9fb2 813c
00000180: 0e88 ff3b f14b 063d bc67 993c fb56 ac3b
00000190: fd07 723d 5a89 ab3d b392 703c 4cd7 7f3d
000001a0: fe12 2932 dd52 6d3d 31bf 8c3d 0338 d53e
000001b0: 053e 713e 758e d73c 01f7 ab3e 4a9f 1f39
000001c0: 6e77 1c3d 0526 003c 60cc f237 37ca c83d
000001d0: 4950 af3c af72 d037 5ccf b93d fb04 b53d
000001e0: e460 c43d 6172 983e b7a5 d93d be31 5d3e
000001f0: 58a1 b23b 3741 363e 7f0a ab3c d395 ce3d

bn2.running_var f4 [128]
0.009439173 0.002191461 0.000658471 0.0034896526 0.0001760206 0.003500893 0.0061905235 0.010365281
0.0022582668 0.006713757 0.0101685105 0.0044390676 7.482413e-06 3.4738234e-05 0.0018185728 1.4234586e-09
0.0025072095 0.002438735 0.003925959 0.00092921697 0.015227678 0.0070604016 0.011367635 0.009183249
0.0014145584 0.0009775144 0.004564338 0.0109740915 0.0056422628 1.7378077e-05 0.0066531072 0.0065886443
0.01229749 0.00013623618 0.0018155397 0.004249197 0.012149669 0.010937905 0.0068170554 4.964341e-06
0.018956592 2.7079761e-06 0.0015118661 0.0035028656 1.5054202e-05 0.0007114775 0.019812604 0.011268391
0.0071410434 0.0042036935 0.0027483958 0.0089569 7.2720354e-08 4.8899625e-07 0.016149024 2.3966708e-05
0.008939795 0.008524204 6.3504967e-06 0.006082397 0.008065818 0.0022178018 0.015543893 5.0679245e-07
0.00040083827 0.0010441853 0.014198652 0.0038973948 0.00040858795 0.011978809 0.000689318 0.002712786
0.000913436 3.9638973e-05 0.03497596 1.784741e-05 0.0011530042 0.001765017 0.000724829 9.1625263e-10
0.0103951935 0.0073564113 3.3098186e-05 0.0016428982 0.009811552 0.0025528932 0.0015679345 0.0017640665
0.00069102197 0.012024601 0.0005757472 0.00264275 0.0002113849 0.0091664335 0.0004531459 0.00078143046
0.000632769 0.0028162212 0.0020685433 0.00017573677 0.007869707 0.013323144 0.0015609469 0.0057773786
3.5660666e-10 0.0060786805 0.005310732 0.006667427 0.010732106 0.0018311435 0.005123039 7.5994485e-06
0.0031038674 0.0009850962 1.678357e-06 0.015283738 0.0017877838 2.0708446e-06 0.011931437 0.0077160653
0.012160148 0.00691495 0.006463917 0.011639713 0.00043182322 0.013534986 0.0010954966 0.006452799
00000000: c3a6 1a3c 9d9e 0f3b 3e9d 2c3a a8b2 643b
00000010: 2c92 3839 3d6f 653b e0d9 ca3b 24d3 293c
00000020: 6eff 133b 13ff db3b d399 263c 9975 913b
00000030: 7011 fb36 e5b3 1138 2d5d ee3a 7fa3 c330
00000040: ff4f 243b 2fd3 1f3b 55a5 803b b296 733a
00000050: 837d 793c f15a e73b 513f 3a3c 5775 163c
00000060: b468 b93a f11f 803a 7190 953b adcc 333c
00000070: bbe2 b83b 23c7 9137 4f02 da3b 8ee5 d73b
00000080: 697b 493c 9fda 0e39 67f7 ed3a d93c 8b3b
00000090: 680f 473c e634 333c 9b61 df3b 5d93 a636
000000a0: db4a 9b3c adba 3536 cf29 c63a 5590 653b
000000b0: 4e91 7c37 7282 3a3a 0b4e a23c 0f9f 383c
000000c0: 6aff e93b 23bf 893b 6e1e 343b f6bf 123c
000000d0: 702a 9c33 9143 0335 f54a 843c 1d0c c937
000000e0: 3878 123c 1aa9 0b3c 5a16 d536 d84e c73b
000000f0: 7e26 043c 8a58 113b d0ab 7e3c 830a 0835
00000100: 9a27 d239 0bdd 883a 76a1 683c 6f6b 7f3b
00000110: bf37 d639 c442 443c 59b3 343a ffc8 313b
00000120: a773 6f3a 0642 2638 f442 0f3d 05b7 9537
00000130: 6720 973a 2558 e73a 7302 3e3a 8cdb 7b30
00000140: 9a50 2a3c 0d0e f13b e8d2 0a38 8456 d73a
00000150: a2c0 203c 714e 273b 2783 cd3a 4038 e73a
00000160: b325 353a d502 453c beed 163a fd31 2d3b
00000170: 34a7 5d39 cf2e 163c 3794 ed39 e9d8 4c3a
00000180: 69e0 253a 5a90 383b 6690 073b fb45 3839
00000190: f2ef 003c 5149 5a3c b098 cc3a 2a50 bd3b
000001a0: ed0b c42f ab2f c73b a605 ae3b 6e7a da3b
000001b0: b7d5 2f3c fb02 f03a 2adf a73b c4fe fe36
000001c0: 416a 4b3b 581e 813a e843 e135 a568 7a3c
000001d0: 1254 ea3a d7f8 0a36 137c 433c 0cd7 fc3b
000001e0: 5b3b 473c ce96 e23b 44cf d33b 7fb4 3e3c
000001f0: 5566 e239 d9c1 5d3c c496 8f3a 0072 d33b

fc2.weight f4 [128, 128]
0.0059068347 0.16213545 -0.083146796 -0.049615934 0.17367724 0.021002965 -0.0097002825 0.16923757
-0.04878758 -0.0024639866 -0.16474687 -0.11839754 0.024733763 0.055157326 0.019706918 -0.094400354
0.15953048 0.026360376 0.03606694 0.0028172676 0.01541361 -0.05074619 0.01370869 -0.0014287143
0.13990648 -0.1179079 -0.16810828 -0.009280422 -0.14452012 -0.25563908 0.0035250762 0.020421822
-0.012689172 -0.008741473 -0.20066065 -0.061541025 0.07152972 -0.06481026 -0.0011183328 -0.06497077
-0.072253935 0.045784086 -0.15932184 -0.19399853 -0.0458138 0.030257424 0.048000824 0.019992014
0.06671868 -0.07206549 -0.07718049 -0.14596204 -0.08943007 0.09746014 -0.020529872 -0.07686024
-0.009004315 -0.0077523435 -0.07502138 0.062437624 -0.022181703 -0.13945633 0.021499712 -0.22304274
-0.061363608 -0.06476107 -0.051700592 0.02852241 -0.007580048 0.016244896 0.027800787 -0.027171813
-0.10913048 0.10083284 0.019845476 -0.022745578 0.005042265 -0.127879 0.14756134 0.051390123
-0.028710105 -0.008807927 -0.11525516 0.017678695 -0.027039193 -0.08428223 -0.0693138 -0.011333345
0.027117418 0.0069968975 0.036982223 -0.062124047 -0.0191113 -0.01584852 0.01484161 -0.16930893
0.05174471 -0.029097168 0.023122922 0.16749392 -0.087398 0.03378283 -0.07331539 -0.047021516
-0.068192065 -0.00026308803 0.041439924 -0.014242493 -0.09884683 0.00862795 0.022588903 -0.001180515
-0.024205806 0.000717149 -0.0035568674 -0.08402094 0.018499177 0.052627698 0.017763574 -0.070633225
-0.04677685 -0.03343885 0.021268262 -0.02128313 0.0940989 0.06976828 -0.10482452 0.004182088
0.1474747 0.021180501 0.058297772 -0.019234901 -0.10234572 -0.007881702 0.02658863 0.08442557
-0.057263244 0.022844573 0.025459291 0.03630053 -0.11726771 -0.008369511 -0.05917626 0.02601632
0.051960777 -0.21067771 -0.027210165 0.027406406 0.020726401 -0.017151333 0.09263765 0.08613682
0.02365107 -0.040551435 0.04404551 -0.15194955 0.013687255 0.042453226 -0.006156866 -0.067134194
0.07486084 -0.014323843 -0.08706372 0.16203654 -0.06283212 -0.02389991 -0.10689854 0.057662204
-0.17284696 -0.060123596 0.016322993 -0.101950124 -0.11334099 0.051389582 -0.119959205 -0.04281845
0.02673225 -0.00944409 0.031650033 -0.019366268 0.0017375912 -0.050716702 -0.024219103 0.021932507
0.038543895 -0.06798656 -0.005008782 -0.009561464 0.04707579 0.16071491 -0.05907288 0.02214056
0.131182 -0.1178625 -0.037687976 0.037078787 0.0152317025 0.09706524 -0.08138231 -0.016991619
-0.06358795 -0.05801941 -0.0136269545 0.071745485 0.08882561 0.04159841 0.084184736 -0.12007145
0.02922124 -0.008096505 0.10186043 -0.016696991 0.07712339 0.09889697 -0.017549394 -0.00037566238
-0.018578392 -0.0068631265 -0.034878008 -0.0033449992 0.16264272 0.08341495 -0.046780493 -0.13228719
-0.07266475 0.10781054 -0.033388034 0.058115106 -0.022522224 0.029280392 0.0778221 -0.07100007
-0.22575924 -0.015161438 0.0605174 0.009030859 -0.07328149 0.012219014 -0.019911205 -0.046868786
-0.08969567 -0.032678846 -0.026908178 -0.14842571 -0.09608766 0.032241922 -0.051264845 0.06020552
-0.06509991 -0.0863933 0.12132911 -0.036753275 0.06446591 -0.01692814 0.030057658 0.12276262
00000000: 1f8e c13b d606 263e de48 aabd 143a 4bbd
00000010: 72d8 313e 690e ac3c efed 1ebc 9d4c 2d3e
00000020: 7cd5 47bd d67a 21bb 67b3 28be 697a f2bd
00000030: 769e ca3c a6ec 613d 6770 a13c f954 c1bd
00000040: f55b 233e b7f1 d73c edba 133d e8a1 383b
00000050: 5e89 7c3c 3ddb 4fbd 6a9a 603c b243 bbba
00000060: a543 0f3e b279 f1bd 9424 2cbe e90c 18bc
00000070: 15fd 13be 20e3 82be f704 673b aa4b a73c
00000080: 3fe6 4fbc 6538 0fbc fc79 4dbe 7112 7cbd
00000090: 2d7e 923d 3ebb 84bd 0695 92ba 650f 85bd
000000a0: dff9 93bd 1888 3b3d 4425 23be 8da7 46be
000000b0: 40a7 3bbd 6bde f73c 839c 443d 4bc6 a33c
000000c0: cea3 883d 1297 93bd ce10 9ebd 1377 15be
000000d0: 1d27 b7bd 2f99 c73d 432e a8bc e768 9dbd
000000e0: d686 13bc 5f07 febb cfa4 99bd 98be 7f3d
000000f0: 67b6 b5bc a4cd 0ebe 2a20 b03c 5165 64be
00000100: 6858 7bbd 74a1 84bd 00c4 53bd d4a7 e93c
00000110: 0d62 f8bb 0414 853c 7abe e33c 6c97 debc
00000120: cd7f dfbd 7381 ce3d fb92 a23c ef54 babc
00000130: 9639 a53b b6f2 02be 521a 173e 737e 523d
00000140: 7431 ebbc 204f 10bc e60a ecbd e9d2 903c
00000150: 4c81 ddbc 299c acbd 65f4 8dbd 7faf 39bc
00000160: 5925 de3c 3b46 e53b ac7a 173d c975 7ebd
00000170: 4d8f 9cbc c1d4 81bc 392a 733c 525f 2dbe
00000180: 43f2 533d 2f5d eebc 486c bd3c 8783 2b3e
00000190: b9fd b2bd dd5f 0a3d 6126 96bd a299 40bd
000001a0: 48a8 8bbd 14ef 89b9 e9bc 293d 5859 69bc
000001b0: 3570 cabd 3f5c 0d3c 5d0c b93c 83bb 9aba
000001c0: 414b c6bc 0eff 3b3a 551a 69bb 2c13 acbd
000001d0: 968b 973c 2490 573d ea84 913c 27a8 90bd
000001e0: 1599 3fbd 2df7 08bd c73a ae3c f559 aebc
000001f0: edb6 c03d ace2 8e3d 3dae d6bd e609 893b
00000200: 9c03 173e bb82 ad3c a5c9 6e3d 8392 9dbc
00000210: a29a d1bd 4122 01bc 66d0 d93c 50e7 ac3d
00000220: dd8c 6abd 8b24 bb3c 0190 d03c ddaf 143d
00000230: 0e2a f0bd 4620 09bc ce62 72bd 2d20 d53c
00000240: d3d4 543d e6bb 57be dae7 debc 6683 e03c
00000250: 6aca a93c f480 8cbc cfb8 bd3d 8068 b03d
00000260: e4bf c13c 4319 26bd 1169 343d aa98 1bbe
00000270: 8240 603c 6fe3 2d3d 89bf c9bb a77d 89bd
00000280: a450 993d 8dae 6abc 774e b2bd e8ec 253e
00000290: 20ae 80bd bec9 c3bc 9fed dabd 342f 6c3d
000002a0: cbfe 30be 2944 76bd ccb7 853c 3acb d0bd
000002b0: 521f e8bd e27d 523d 2cad f5bd 6662 2fbd
000002c0: 97fd da3c 62bb 1abc 77a3 013d 02a6 9ebc
000002d0: e3bf e33a 51bc 4fbd 2467 c6bc cdab b33c
000002e0: 34e0 1d3d 8a3c 8bbd b520 a4bb b0a7 1cbc
000002f0: 8bd2 403d 7392 243e 67f6 71bd 1f60 b53c
00000300: 9354 063e e561 f1bd b55e 1abd eddf 173d
00000310: 648e 793c 24ca c63d c5ab a6bd 0232 8bbc
00000320: 663a 82bd c3a5 6dbd 9743 5fbc 4cef 923d
00000330: 34ea b53d 1863 2a3d 0c69 ac3d 05e8 f5bd
00000340: 6261 ef3c 34a7 04bc 339c d03d 21c8 88bc
00000350: def2 9d3d 7f8a ca3d bfc3 8fbc 8df4 c4b9
00000360: b631 98bc 14e4 e0bb 3edc 0ebd c637 5bbb
00000370: d08b 263e 75d5 aa3d e79c 3fbd 4b76 07be
00000380: 42d1 94bd c6cb dc3d e4c1 08bd 1b0a 6e3d
00000390: 8780 b8bc 6fdd ef3c 3161 9f3d 7c68 91bd
000003a0: 6e2d 67be ae67 78bc 18e1 773d 2bf6 133c
000003b0: 9b14 96bd 4232 483c d31c a3bc 7cf9 3fbd
000003c0: 5db2 b7bd 41da 05bd 8a6e dcbc e9fc 17be
000003d0: 9bc9 c4bd 1b10 043d 16fb 51bd 109a 763d
000003e0: 1a53 85bd f8ee b0bd 657b f83d 9a8a 16bd
000003f0: b406 843d e2ac 8abc 7a3b f63c f86a fb3d

fc2.bias f4 [128]
0.022489198 -0.1026424 -0.033565033 -3.223177e-05 -0.20587292 -0.14019723 -0.1761952 -0.16881089
-0.021674981 -0.058378786 -0.116944775 -0.07329617 -0.038020644 0.05458336 -0.06499253 -0.11405245
-0.10111914 -0.10219725 -0.05004282 -0.13780811 -0.09775655 -0.02589685 -0.08232904 -0.13211615
-0.017676579 0.21407545 -0.07639743 -0.14951274 -0.056219384 0.094335854 0.15144557 -0.087697305
-0.07699978 -0.023283754 -0.18951195 0.06911656 0.07530531 0.0023391477 0.026569301 -0.01587013
-0.07433961 0.006564711 -0.081570216 -0.0060958713 -0.07196469 -0.06603182 -0.08694306 -0.080031306
0.014412189 -0.0880576 -0.035104822 -0.03931591 -0.19077459 -0.0722699 0.13276649 -0.16553289
-0.13102856 -0.11777524 -0.10378559 0.045238335 -0.016054433 0.01176456 -0.11942575 -0.04687393
0.109876044 -0.19777125 0.08096761 -0.0347837 -0.056192797 -0.073023364 -0.10876383 -0.009149627
-0.090699635 0.02293808 0.0028448272 -0.080737054 0.07300954 -0.115554675 -0.17521098 -0.090780936
0.019544892 -0.059706897 -0.21387817 -0.16681264 0.089255504 -0.2098511 0.004455649 0.052429646
-0.0354525 -0.12713876 -0.0835171 -0.1519802 -0.07913294 0.04022728 0.098835 -0.056287266
-0.030794917 -0.1202778 -0.13970284 -0.07709845 -0.03338156 -0.14226939 -0.13332695 -0.1206006
0.04996581 -0.08647527 -0.12526684 0.060647517 0.051899016 -0.12699603 0.060931154 -0.21399896
0.021860885 0.027883375 -0.026851337 -0.11607751 -0.14030096 6.519444e-06 -0.0053161676 -0.21300165
-0.0651976 -0.04478232 -0.040592343 -0.021897228 0.10664969 0.113696985 -0.034003224 -0.1353981
00000000: 443b b83c 2e36 d2bd 7d7b 09bd 9930 07b8
00000010: 5ad0 52be dd8f 0fbe 846c 34be c3dc 2cbe
00000020: bb8f b1bc 981e 6fbd be80 efbd 4d1c 96bd
00000030: 89bb 1bbd cd92 5f3d ce1a 85bd 5594 e9bd
00000040: 8d17 cfbd cb4c d1bd b3f9 4cbd 921d 0dbe
00000050: 9634 c8bd a125 d4bc 219c a8bd 7549 07be
00000060: 79ce 90bc 9836 5b3e 4176 9cbd de19 19be
00000070: 4c46 66bd 2833 c13d 8c14 1b3e a59a b3bd
00000080: 10b2 9dbd 92bd bebc 6c0f 42be fc8c 8d3d
00000090: ac39 9a3d 634c 193b dda7 d93c 1302 82bc
000000a0: 5e3f 98bd ca1c d73b 490e a7bd e0bf c7bb
000000b0: 3962 93bd b13b 87bd 340f b2bd 74e7 a3bd
000000c0: 1a21 6c3c 8b57 b4bd 13ca 0fbd b809 21bd
000000d0: 6a5a 43be 3e02 94bd f0f3 073e 7481 29be
000000e0: 5a2c 06be 2534 f1bd 8a8d d4bd d54b 393d
000000f0: 9684 83bc 24c0 403c 7d95 f4bd e1fe 3fbd
00000100: b106 e13d 8c84 4abe 59d2 a53d 5a79 0ebd
00000110: 6b2a 66bd 468d 95bd 92bf debd 51e8 15bc
00000120: bbc0 b9bd a4e8 bb3c 4870 3a3b 7859 a5bd
00000130: 0786 953d eea7 ecbd 826a 33be 5beb b9bd
00000140: 9c1c a03c 388f 74bd e102 5bbe efd0 2abe
00000150: 97cb b63d 35e3 56be b100 923b 78c0 563d
00000160: a436 11bd aa30 02be 030b abbd b3a0 1bbe
00000170: 7310 a2bd 5cc5 243d 016a ca3d 7a8d 66bd
00000180: 9f45 fcbc 3554 f6bd 430e 0fbe cbe5 9dbd
00000190: 1abb 08bd 11af 11be dc86 08be 73fd f6bd
000001a0: f3a8 4c3d f219 b1bd f345 00be 8869 783d
000001b0: 1094 543d 3f0b 02be f292 793d 8b22 5bbe
000001c0: 9915 b33c ad6b e43c 56f7 dbbc 0cba edbd
000001d0: 0eab 0fbe 99c1 da36 3f33 aebb 1b1d 5abe
000001e0: 5286 85bd aa6d 37bd 2844 26bd d161 b3bc
000001f0: 276b da3d f7d9 e83d f746 0bbd cda5 0abe

bn3.weight f4 [128]
1.0757011 1.3125209 1.0822462 1.2204334 1.272095 0.8062712 1.1007493 0.9354251
1.0515816 0.90540814 1.1435047 0.859198 1.3656819 1.3222591 0.98234934 0.6538827
0.8314667 1.0804275 0.91009086 1.0014305 0.5993587 1.2362611 0.6418717 0.64776194
1.080048 1.1556368 1.0175252 0.6545568 1.3893884 1.1212339 1.2405012 0.7047158
0.79492325 0.71546936 1.56718 0.70125437 1.6971141 0.85217965 1.0720693 1.3919466
0.54689044 1.2614374 0.6149302 0.94850403 1.2975887 0.7615485 0.71362 0.83824575
1.1718606 0.82806677 0.9309411 1.187205 0.77852565 1.0158105 1.0627887 0.9821927
1.3720955 1.1529132 1.174174 1.0417902 1.226244 0.77877873 0.930609 0.6466218
1.1063491 1.3344951 1.292095 1.4807695 1.0502895 1.2392215 0.97874254 0.6752828
1.1857837 1.1063614 1.2005563 1.2335788 1.0521352 0.9998354 0.89126056 1.0299565
1.1437223 0.7854497 0.7586193 0.80926466 1.3522563 0.84592605 0.7453379 0.90969574
0.8390348 0.9645002 0.8944497 0.9409879 0.74911517 1.1714089 1.464146 1.3362778
1.1829224 0.9513215 0.66043496 0.8428342 1.3656542 0.7589045 0.5596805 1.0186626
1.3070638 1.0550208 1.2830745 1.1751542 0.8701226 1.176324 0.84799105 0.79620016
1.2072489 0.9517397 0.8164929 0.93246067 0.94491494 0.6454738 1.0138894 1.2278723
1.0560855 0.79374367 0.92095566 1.2198764 1.1998748 1.2844603 0.7659061 0.9879253
00000000: 93b0 893f af00 a83f 0b87 8a3f 2937 9c3f
00000010: 02d4 a23f ca67 4e3f 5ae5 8c3f 0578 6f3f
00000020: 3a9a 863f d4c8 673f 5d5e 923f 66f4 5b3f
00000030: aace ae3f c93f a93f 3f7b 7b3f db64 273f
00000040: 00db 543f 734b 8a3f b7fb 683f e02e 803f
00000050: 926f 193f ce3d 9e3f b451 243f bad3 253f
00000060: 033f 8a3f e8eb 933f 443e 823f 0991 273f
00000070: 7bd7 b13f 9884 8f3f bec8 9e3f 4168 343f
00000080: 1780 4b3f 0029 373f 5b99 c83f 6885 333f
00000090: 093b d93f 7228 5a3f 9139 893f 4e2b b23f
000000a0: 0301 0c3f c876 a13f 116c 1d3f 29d1 723f
000000b0: 6317 a63f d8f4 423f cdaf 363f 4697 563f
000000c0: 87ff 953f 2ffc 533f 2852 6e3f 55f6 973f
000000d0: 754d 473f 1406 823f 7609 883f fb70 7b3f
000000e0: d3a0 af3f a992 933f 554b 963f 6259 853f
000000f0: 90f5 9c3f 0b5e 473f 643c 6e3f 0289 253f
00000100: d99c 8d3f bcd0 aa3f 5e63 a53f db89 bd3f
00000110: e36f 863f cf9e 9e3f df8e 7a3f 55df 2c3f
00000120: c3c7 973f 409d 8d3f d4ab 993f e9e5 9d3f
00000130: 5eac 863f 36f5 7f3f a729 643f 9dd5 833f
00000140: 7e65 923f 3b13 493f e034 423f f82b 4f3f
00000150: bc16 ad3f 9c8e 583f 77ce 3e3f d2e1 683f
00000160: fcca 563f 7ce9 763f a8fa 643f 95e4 703f
00000170: 03c6 3f3f baf0 953f 2369 bb3f 270b ab3f
00000180: 006a 973f ce89 733f 4412 293f fbc3 573f
00000190: c2cd ae3f 9147 423f 3947 0f3f 8963 823f
000001a0: de4d a73f ec0a 873f c93b a43f 746b 963f
000001b0: 5bc0 5e3f c991 963f f115 593f c6d3 4b3f
000001c0: 2287 9a3f 37a5 733f ae05 513f beb5 6e3f
000001d0: f2e5 713f c53d 253f 21c7 813f eb2a 9d3f
000001e0: cf2d 873f c932 4b3f c0c3 6b3f e924 9c3f
000001f0: 7f95 993f 3269 a43f 6c12 443f ace8 7c3f

bn3.bias f4 [128]
0.091810696 0.118947 -0.0040721134 -0.008995043 -0.060019355 -0.05640224 0.17228924 -0.026701432
-0.054699916 0.02747551 -0.023143057 -0.01753776 0.18022564 0.08905506 -0.024993224 -0.029259773
-0.046564203 0.075010866 0.018711416 0.21095182 0.045175526 0.089641996 0.07547974 0.12446472
0.015231194 0.036432855 0.009845516 -0.049949516 0.084291026 -0.011279374 -0.023739543 0.0038105524
0.043308835 0.0016478854 -0.0017632871 -0.124009684 -0.007627703 -0.051666524 -0.107780926 0.026971638
0.054361887 -0.017815387 0.003402565 0.005822907 0.08740046 -0.017812677 -0.03668008 0.07189403
0.048373345 -0.038001973 0.0011344005 -0.042358406 -0.069224566 0.027444415 0.07249628 0.03620067
-0.02798691 -0.06748555 0.001009326 0.08819036 0.0048963856 0.050328378 0.023007538 0.12785828
-0.027885178 0.13343926 0.077575475 0.09664717 0.016688025 0.1883258 0.07838464 0.010863185
-0.12173255 -0.07350955 0.021269519 0.002110809 0.06441649 -0.018977279 0.021165667 0.094146244
-0.068782836 -0.037122916 0.035948653 0.04132946 0.050134625 0.00887252 -0.0065906392 0.017835785
0.015140704 0.0030485273 0.019868985 0.068455085 -0.009939447 -0.02335937 0.060568504 -0.030091414
-0.011617153 0.014865633 0.044096887 -0.05250478 -0.014867531 0.03988237 -0.04682013 -0.019782634
0.026425412 -0.05651154 0.012178564 -0.03174882 -0.038611278 0.011437976 0.030635688 0.036168177
-0.033615008 0.08114579 0.08127431 0.08708417 -0.08985405 0.0063236775 -0.051359884 -0.014493336
-0.092246056 -0.023865592 0.17855036 0.086369984 0.12020354 0.08998296 0.07426297 -0.03203028
00000000: 3f07 bc3d 7c9a f33d 5d6f 85bb f25f 13bc
00000010: dbd6 75bd 0906 67bd 976c 303e f6bc dabc
00000020: 050d 60bd 5214 e13c 8296 bdbc 59ab 8fbc
00000030: 128d 383e 8062 b63d 97be ccbc 31b2 efbc
00000040: 1bba 3ebd 4c9f 993d af48 993c c103 583e
00000050: f909 393d 3996 b73d 1f95 9a3d 5ce7 fe3d
00000060: 428c 793c 9e3a 153d 164f 213c dd97 4cbd
00000070: c6a0 ac3d 20cd 38bc 6e79 c2bc 76ba 793b
00000080: 9b64 313d dcfd d73a 191e e7ba caf8 fdbd
00000090: cff1 f9bb 47a0 53bd 3fbc dcbd a0f3 dc3c
000000a0: 92aa 5e3d 93f1 91bc 91fd 5e3b 16ce be3b
000000b0: 03ff b23d e4eb 91bc da3d 16bd 2d3d 933d
000000c0: 2123 463d f5a7 1bbd 2ab0 943a 0280 2dbd
000000d0: 9cc5 8dbd 1cd3 e03c ee78 943d 2747 143d
000000e0: ce44 e5bc dd35 8abd 5c4b 843a 269d b43d
000000f0: dc71 a03b 2125 4e3d 4e7a bc3c 48ed 023e
00000100: 756f e4bc 4da4 083e e4df 9e3d f4ee c53d
00000110: 53b5 883c 7ad8 403e 2088 a03d 80fb 313c
00000120: ea4e f9bd 2d8c 96bd 6a3d ae3c 8055 0a3b
00000130: cbec 833d 3d76 9bbc 9f63 ad3c bfcf c03d
00000140: 04de 8cbd 330e 18bd e53e 133d 1449 293d
00000150: f759 4d3d 0c5e 113c 4af6 d7bb 5a1c 923c
00000160: b710 783c cdc9 473b 48c4 a23c 2e32 8c3d
00000170: 10d9 22bc 265c bfbc ae16 783d 4582 f6bc
00000180: df55 3ebc fc8e 733c f09e 343d 410f 57bd
00000190: f296 73bc b25b 233d 77c6 3fbd 310f a2bc
000001a0: 1b7a d83c a578 67bd 9a88 473c 0d0b 02bd
000001b0: dc26 1ebd 5966 3b3c b2f7 fa3c 1525 143d
000001c0: e4af 09bd c42f a63d 2573 a63d 2f59 b23d
000001d0: 6605 b8bd da36 cf3b be5e 52bd 7575 6dbc
000001e0: 80eb bcbd c681 c3bc e8d5 363e bfe2 b03d
000001f0: 462d f63d fc48 b83d 2f17 983d 2f32 03bd

bn3.running_mean f4 [128]
0.013324933 0.024435317 0.057658583 0.014655075 1.0757335e-23 9.453977e-06 0.00015730398 9.636639e-05
0.12415484 0.04683426 4.0721872e-05 0.0010884926 0.22794954 0.104476474 2.073021e-06 0.046473525
0.000549799 0.09798437 0.08393853 6e-45 0.034269568 0.15728915 1.4964056e-21 5.2800155e-05
0.11294477 1.0782652 0.00040421778 6e-45 0.03034437 0.58571005 0.79284036 0.047630977
0.00019754983 0.046184283 0.011586259 0.38847634 0.04672953 0.08952454 0.20179255 0.0048240516
0.06305443 0.14784302 6e-45 0.048559457 0.04512384 6e-45 0.035707694 0.0713015
0.11118675 0.013531412 0.06524373 0.041964933 2.8021807e-30 0.19634785 0.8966702 3.1008647e-05
0.0007527417 0.09854139 0.00015747138 0.029675014 0.13743873 0.049031064 0.0011995143 0.055692207
0.23364319 0.0005575505 0.110791534 0.0035265076 0.045302305 0.0024268301 3.4169723e-05 0.024735373
0.011998663 0.039881524 0.03214782 0.17033002 0.16211292 0.00095687807 6e-45 0.054451667
0.05350811 0.04774109 0.0024332206 0.00024121847 0.111799575 0.00022078928 0.05208117 0.36380646
0.015098239 0.00016695402 0.044812687 0.00023529748 0.0020314562 0.18419558 0.46017763 0.27015376
0.0007429071 0.013850915 1.1919551e-36 0.0066073905 0.04080335 0.00040791757 6e-45 0.026460415
0.06541571 0.004675127 0.004786163 0.18287078 0.4636882 0.0031277672 0.3881976 0.00043578033
0.011491404 0.0047018263 0.018453509 0.004998909 4.1584954e-28 0.07382381 0.061434317 2.48597e-09
0.06294368 0.026251638 0.21425092 0.3616778 0.68579805 0.1444755 0.18722565 0.006256751
00000000: d250 5a3c 932c c83c 682b 6c3d d71b 703c
00000010: be13 5019 869c 1e37 f7f1 2439 5018 ca38
00000020: e544 fe3d 48d5 3f3d c7cc 2a38 c0ab 8e3a
00000030: 9b6b 693e c3f7 d53d 3b1e 0b36 065b 3e3d
00000040: 6320 103a 08ac c83d f7e7 ab3d 0400 0000
00000050: 3f5e 0c3d 6810 213e 6321 e21c bc75 5d38
00000060: 964f e73d 9804 8a3f 31ed d339 0400 0000
00000070: c294 f83c 18f1 153f 96f7 4a3f b318 433d
00000080: 6125 4f39 bb2b 3d3d 4bd4 3d3c 5fe6 c63e
00000090: 7767 3f3d a458 b73d b5a2 4e3e 1413 9e3b
000000a0: ae22 813d 2964 173e 0400 0000 48e6 463d
000000b0: c7d3 383d 0400 0000 3b42 123d 8506 923d
000000c0: e1b5 e33d dbb2 5d3c 819e 853d 6ce3 2b3d
000000d0: 0457 630e 690f 493e 2e8c 653f 480f 0238
000000e0: a453 453a 11d0 c93d e71e 2539 0419 f33c
000000f0: bdbc 0c3e ccd4 483d 0539 9d3a 831d 643d
00000100: 2940 6f3e 9528 123a ace6 e23d fb1c 673b
00000110: e98e 393d 740b 1f3b 7651 0f38 d6a1 ca3c
00000120: 0a96 443c cf5a 233d 6fad 033d fe6a 2e3e
00000130: ee00 263e 00d7 7a3a 0400 0000 b608 5f3d
00000140: 522b 5b3d 298c 433d ab76 1f3b 97ef 7c39
00000150: 2df7 e43d ac83 6739 1153 553d d744 ba3e
00000160: 9b5e 773c 6110 2f39 828d 373d 30ba 7639
00000170: 2e22 053b c49d 3c3e 679c eb3e 9851 8a3e
00000180: a7bf 423a f3ee 623c f7cc ca03 cf82 d83b
00000190: 6a21 273d c5dd d539 0400 0000 83c3 d83c
000001a0: acf8 853d cf31 993b 3fd5 9c3b 7a42 3b3e
000001b0: 8a68 ed3e 3afb 4c3b d6c1 c63e 7279 e439
000001c0: 7146 3c3c c711 9a3b d02b 973c e3cd a33b
000001d0: b9c9 0312 f030 973d 8da2 7b3d a6d5 2a31
000001e0: 9ee8 803d ad0d d73c 9864 5b3e d52d b93e
000001f0: 7690 2f3f 63f1 133e 15b8 3f3e 6e05 cd3b

bn3.running_var f4 [128]
0.002362274 0.008467215 0.018401572 0.004317117 5.519127e-25 1.1566015e-06 7.038459e-05 2.7228674e-05
0.037947703 0.011902974 9.7528045e-06 0.00070840697 0.10952978 0.028114904 2.3354256e-07 0.016880741
0.00013448569 0.06321731 0.021907253 6e-45 0.015388666 0.048785742 7.327886e-23 1.4629364e-05
0.038031835 0.10509943 0.0002411226 6e-45 0.0079129655 0.3014789 0.24411486 0.015608031
6.632997e-05 0.01810309 0.0025613133 0.16268508 0.008484061 0.028097041 0.055091158 0.00080867624
0.028834319 0.051600516 6e-45 0.0138837565 0.013101497 6e-45 0.0148671875 0.029198818
0.041780178 0.0075666667 0.020128358 0.017753856 4.0469844e-31 0.05193583 0.3783733 1.1678755e-05
0.000384371 0.027250526 9.623167e-05 0.00742092 0.0438725 0.017108416 0.0011459234 0.0250663
0.086758964 0.0003246126 0.039966434 0.0014459426 0.017875377 0.00040923615 6.147336e-06 0.008526271
0.002434237 0.009379644 0.0074982895 0.08125972 0.03885313 0.0012199937 6e-45 0.016483346
0.014301301 0.018404476 0.002101247 0.00019198372 0.02194493 9.491402e-05 0.02114274 0.1518444
0.0049155983 9.504141e-05 0.02190854 0.00013127609 0.000678914 0.052936062 0.15076111 0.13673757
0.00035128265 0.006340273 1.3596728e-37 0.0011829052 0.013777337 0.00020982734 6e-45 0.006816009
0.013059287 0.0015421677 0.0005853371 0.07922857 0.25189757 0.0033668038 0.22133116 0.00018591547
0.0025007462 0.0009504146 0.005099915 0.0014109237 1.4637548e-28 0.027740108 0.015128808 2.0768692e-10
0.028276343 0.0071628317 0.10234762 0.19134071 0.16034847 0.06437964 0.07391599 0.008243406
00000000: 62d0 1a3b 13ba 0a3c e5be 963c 9a76 8d3b
00000010: 07cf 2a17 863c 9b35 709b 9338 2269 e437
00000020: 0d6f 1b3d b104 433c fa9f 2337 63b4 393a
00000030: 2651 e03d 3a51 e63c b1c3 7a34 7b49 8a3c
00000040: ba04 0d39 1478 813d d776 b33c 0400 0000
00000050: be20 7c3c 8fd3 473d 6b2d b11a a470 7537
00000060: 45c7 1b3d 5f3e d73d dbd5 7c39 0400 0000
00000070: 62a5 013c 715b 9a3e 3ff9 793e d4b8 7f3c
00000080: a21a 8b38 ee4c 943c b5db 273b eb96 263e
00000090: bb00 0b3c c42b e63c 44a7 613d 58fd 533a
000000a0: f335 ec3c 105b 533d 0400 0000 b278 633c
000000b0: a9a7 563c 0400 0000 8195 733c 5c32 ef3c
000000c0: b121 2b3d cdf1 f73b 3ae4 a43c 8970 913c
000000d0: 0855 030d aaba 543d 25ba c13e dfef 4337
000000e0: 6785 c939 7f3c df3c fccf c938 302b f33b
000000f0: a7b3 333d f326 8c3c cf32 963a d757 cd3c
00000100: afae b13d c430 aa39 d8b3 233d c885 bd3a
00000110: 626f 923c bf8e d639 3745 ce36 c6b1 0b3c
00000120: b887 1f3b 14ad 193c 36b4 f53b 7f6b a63d
00000130: 7624 1f3d 32e8 9f3a 0400 0000 1508 873c
00000140: 0150 6a3c fcc4 963c 13b5 093b 3d4f 4939
00000150: dbc5 b33c 940c c738 8a33 ad3c 197d 1b3e
00000160: 0713 a13b f850 c738 8a79 b33c 28a7 0939
00000170: 26f9 313a 7cd3 583d 1f61 1a3e ef04 0c3e
00000180: 5c2c b839 11c2 cf3b af11 3902 b60b 9b3a
00000190: 57ba 613c 1905 5c39 0400 0000 d458 df3b
000001a0: 9ff6 553c 9022 ca3a 4f71 193a 9742 a23d
000001b0: b8f8 803e 98a5 5c3b a3a4 623e 4ef2 4239
000001c0: 8fe3 233b 3e25 793a 301d a73b beee b83a
000001d0: 8f8d 3911 393f e33c d2de 773c ac5a 642f
000001e0: caa3 e73c 30b6 ea3b a19b d13d d2ee 433e
000001f0: 6432 243e 79d9 833d 4461 973d 5a0f 073c
