mode_weights/agent15_critic_local.pth (torch_old, 93523 bytes, 17 tensors)

bn1.weight f4 [33]
000000 58 15 fe 3e 2f aa 44 3f a8 33 b5 3d 00 33 07 3e
       0.4962566 0.7682218 0.08847743 0.13203049
000010 86 66 9d 3e fb 52 22 3f 86 ed fa 3e 67 7d 65 3f
       0.30742282 0.6340787 0.4900934 0.89644474
000020 12 48 e9 3e d3 de 21 3f 2a a2 b2 3e e4 ad cd 3e
       0.45562798 0.6323063 0.34889346 0.4017173
000030 80 e4 b6 3c 5c e9 2c 3e 8c 78 96 3e d8 bd 04 3f
       0.022325754 0.16885895 0.29388845 0.5185218
000040 58 9a 32 3f 8c cd 4c 3f e8 e4 24 3e 82 85 90 3e
       0.6976676 0.8000114 0.16102946 0.28226858
000050 e6 7d 2e 3f 27 4a 6a 3f ae 50 cb 3e ae c8 5f 3f
       0.68160856 0.915194 0.3970999 0.8741559
000060 b0 bc d6 3e 51 8b 0d 3f a5 e6 73 3f 90 21 14 3d
       0.41940832 0.55290705 0.9527381 0.03616482
000070 34 ad 3d 3e 90 30 bf 3e 12 36 9c 3e 94 97 6e 3f
       0.18523103 0.37341738 0.30510002 0.9320004
000080 cc 21 34 3e
       0.17591017

bn1.bias f4 [33]
000000 00 00 00 00 00 00 00 00 00 00 00 00 00 00 00 00
       0.0 0.0 0.0 0.0
000010 00 00 00 00 00 00 00 00 00 00 00 00 00 00 00 00
       0.0 0.0 0.0 0.0
000020 00 00 00 00 00 00 00 00 00 00 00 00 00 00 00 00
       0.0 0.0 0.0 0.0
000030 00 00 00 00 00 00 00 00 00 00 00 00 00 00 00 00
       0.0 0.0 0.0 0.0
000040 00 00 00 00 00 00 00 00 00 00 00 00 00 00 00 00
       0.0 0.0 0.0 0.0
000050 00 00 00 00 00 00 00 00 00 00 00 00 00 00 00 00
       0.0 0.0 0.0 0.0
000060 00 00 00 00 00 00 00 00 00 00 00 00 00 00 00 00
       0.0 0.0 0.0 0.0
000070 00 00 00 00 00 00 00 00 00 00 00 00 00 00 00 00
       0.0 0.0 0.0 0.0
000080 00 00 00 00
       0.0

bn1.running_mean f4 [33]
000000 00 00 00 00 00 00 00 00 00 00 00 00 00 00 00 00
       0.0 0.0 0.0 0.0
000010 00 00 00 00 00 00 00 00 00 00 00 00 00 00 00 00
       0.0 0.0 0.0 0.0
000020 00 00 00 00 00 00 00 00 00 00 00 00 00 00 00 00
       0.0 0.0 0.0 0.0
000030 00 00 00 00 00 00 00 00 00 00 00 00 00 00 00 00
       0.0 0.0 0.0 0.0
000040 00 00 00 00 00 00 00 00 00 00 00 00 00 00 00 00
       0.0 0.0 0.0 0.0
000050 00 00 00 00 00 00 00 00 00 00 00 00 00 00 00 00
       0.0 0.0 0.0 0.0
000060 00 00 00 00 00 00 00 00 00 00 00 00 00 00 00 00
       0.0 0.0 0.0 0.0
000070 00 00 00 00 00 00 00 00 00 00 00 00 00 00 00 00
       0.0 0.0 0.0 0.0
000080 00 00 00 00
       0.0

bn1.running_var f4 [33]
000000 00 00 80 3f 00 00 80 3f 00 00 80 3f 00 00 80 3f
       1.0 1.0 1.0 1.0
000010 00 00 80 3f 00 00 80 3f 00 00 80 3f 00 00 80 3f
       1.0 1.0 1.0 1.0
000020 00 00 80 3f 00 00 80 3f 00 00 80 3f 00 00 80 3f
       1.0 1.0 1.0 1.0
000030 00 00 80 3f 00 00 80 3f 00 00 80 3f 00 00 80 3f
       1.0 1.0 1.0 1.0
000040 00 00 80 3f 00 00 80 3f 00 00 80 3f 00 00 80 3f
       1.0 1.0 1.0 1.0
000050 00 00 80 3f 00 00 80 3f 00 00 80 3f 00 00 80 3f
       1.0 1.0 1.0 1.0
000060 00 00 80 3f 00 00 80 3f 00 00 80 3f 00 00 80 3f
       1.0 1.0 1.0 1.0
000070 00 00 80 3f 00 00 80 3f 00 00 80 3f 00 00 80 3f
       1.0 1.0 1.0 1.0
000080 00 00 80 3f
       1.0

fcs1.weight f4 [128, 33]
000000 2f 26 1e 3a 37 0f ab 3a 28 30 66 3a 3a f9 6e ba
       0.00060329115 0.0013050799 0.00087809796 -0.0009116117
000010 f4 43 38 39 81 7c 68 ba 87 0f 75 3a c8 f6 b8 3a
       0.00017572922 -0.000886865 0.0009348322 0.0014111632
000020 c6 ec 5e 37 1c 43 be 39 47 50 b3 39 4d 9d a6 b9
       1.3287359e-05 0.00036289624 0.00034201352 -0.00031779186
000030 57 05 80 3a c7 3b ca 3a 27 a4 9a 3a c7 12 7c 3a
       0.0009767216 0.0015429192 0.0011798189 0.0009615835
000040 24 35 92 ba fc 0c 84 b8 ad e1 fb b8 10 9b 2c ba
       -0.0011154753 -6.296669e-05 -0.00012010648 -0.00065843854
000050 03 cb 9e b9 8d 6c 0c 3a bd be 3e 3a f7 23 d2 39
       -0.00030287364 0.00053567515 0.0007276347 0.00040081117
000060 31 eb 9f 3a f6 e5 87 3b 90 d0 aa 3a fc 09 93 3a
       0.001220083 0.0041472865 0.0013032127 0.0011218186
000070 db bc 56 3a 3e c6 01 00 fc 09 93 ba 0c d9 00 80
       0.0008191594 1.62951e-40 -0.0011218186 -7.7862e-41
000080 bb 5c c7 b9 18 17 18 3d 0f bd f2 3c 5c 5d b0 bb
       -0.00038025327 0.0371314 0.029631166 -0.005382223
000090 3e 3d ae bc f1 df 9b bc d1 7f 21 3b 0c 01 7d bc
       -0.021269437 -0.019027682 0.0024642835 -0.015442144
0000a0 cf c6 cf bc 38 d6 01 bc d9 bb 72 3c 5e 1a c2 3a
       -0.025363354 -0.007924609 0.014815294 0.0014808883
0000b0 67 75 3a bb ec 8d 5f bc 3e 9b 8e bd 22 18 1d bc
       -0.0028451325 -0.013644677 -0.06963204 -0.009588273
0000c0 db 0c 0d bc 1d 97 43 bc bb bd ee bb 2d 8a 45 3c
       -0.008609022 -0.011937884 -0.007285801 0.012056869
0000d0 e2 49 75 b8 cd 78 3b 3b 65 b6 75 3b c4 74 9a bb
       -5.848136e-05 0.0028605938 0.0037492749 -0.0047136266
0000e0 27 83 d9 bc 7c 3a 30 3c 2c 29 0e 3c bd ac e7 3c
       -0.026551796 0.010756131 0.008676808 0.02828061
0000f0 d1 23 73 3d ce d9 1e 3d bd 25 01 80 ed 80 73 bd
       0.05936033 0.038781933 -1.05373e-40 -0.059449125
000100 29 13 00 80 63 c8 80 3e a8 f9 3e bb 9b a0 f3 3c
       -6.873e-42 0.25152883 -0.0029140506 0.029739669
000110 16 b4 e5 bb 93 fe df ba b2 ca b9 bc 2e 34 a8 bb
       -0.0070099933 -0.0017089419 -0.02267966 -0.0051331734
000120 43 34 e1 bc a0 5c 64 bd 2b 22 05 3d 69 1e fe bb
       -0.02749074 -0.055752397 0.03250329 -0.00775509
000130 4c de 64 3b 81 70 65 3d f2 77 25 3d 09 2d 65 3c
       0.0034922538 0.056015495 0.040397592 0.013987788
000140 bd 74 76 3c f9 7e 4b bd dc 1b 71 bb 90 40 a1 3c
       0.015042481 -0.049681637 -0.0036790287 0.019684106
000150 39 5f 14 3d 38 b9 16 bd d8 88 5e 3d c1 47 1a bd
       0.036223624 -0.036797732 0.054329723 -0.037666086
000160 6f 33 21 3c 21 57 ea 3c ec 4d 01 bc 82 46 39 bd
       0.009838923 0.028606 -0.007892113 -0.045233257
000170 10 7f 5e 3c dc 0e 5f 3d f7 ac db bc fd 84 00 80
       0.013580099 0.05445753 -0.026815875 -4.7707e-41
000180 ed 36 5f bd 33 2c 01 80 a3 25 be 3d 51 3c 1c 3e
       -0.05449574 -1.07691e-40 0.092845224 0.15257384
000190 34 04 0d bd f6 05 65 ba 4e af 1e 3c a9 91 84 3c
       -0.034427837 -0.0008736545 0.009685351 0.016182737
0001a0 88 d9 92 3c da 41 2b bb f2 33 92 bc 28 ff 23 3d
       0.017925993 -0.002613178 -0.017847035 0.040038258
0001b0 8b 98 ca bc 3f 9d a6 3c 7b 5e 7a 3c 34 83 45 3a
       -0.024730941 0.020338653 0.015281315 0.00075345044
0001c0 3b b8 ac bc 5c c4 66 3d fc 6d 76 3c f6 9a 51 3c
       -0.021083942 0.056339607 0.015040871 0.012793293
0001d0 f0 a5 9c 3b 72 78 2b 3c 45 38 4a bc 70 32 57 3b
       0.0047805235 0.010465728 -0.012342517 0.003283646
0001e0 5e ad 27 3b f3 30 ea 3b 5f 51 1b bc e3 53 0e bc
       0.0025585513 0.0071469485 -0.00947985 -0.008686992
0001f0 65 88 a6 bb 2b d4 70 bd d0 87 80 3c be 06 be bb
       -0.0050821775 -0.05879609 0.01568976 -0.0057991436
000200 3e b3 00 80 2d ef 92 bc bf a2 01 80 70 de 12 3d
       -6.43e-41 -0.017936314 -1.50218e-40 0.035856664
000210 5a 91 00 bb 72 b4 88 3a 46 49 af ba f7 91 15 b9
       -0.0019617886 0.0010429753 -0.0013373278 -0.00014264123
000220 9d ac 24 b8 61 8a 12 b7 2e 7a 79 b8 ca 99 44 ba
       -3.9261406e-05 -8.734497e-06 -5.9480015e-05 -0.0007499723
000230 9f 54 70 b7 c0 0b dc b7 9d 7b 02 3b ff 23 cd 38
       -1.4324817e-05 -2.6231515e-05 0.0019910105 9.7818665e-05
000240 37 f9 9c 3b 38 4d 92 ba 49 02 a1 3a 82 dd c2 ba
       0.004790451 -0.0011161929 0.0012284006 -0.001486704
000250 6b 8a 81 38 75 4e 25 b9 7b d1 5c 38 3d dc 92 b9
       6.176982e-05 -0.00015764854 5.264718e-05 -0.0002801138
000260 c3 14 ca ba 01 b1 4d ba 30 11 6e bb 5b 13 08 3b
       -0.0015417564 -0.0007846505 -0.0036326163 0.002076349
000270 f5 12 99 3b 89 46 21 bb 10 74 44 3a 26 b7 24 39
       0.0046714493 -0.0024608693 0.00074941013 0.00015708487
000280 16 e2 17 bb 07 43 01 00 26 b7 24 b9 19 60 00 80
       -0.002317553 1.1588e-40 -0.00015708487 -3.4473e-41
000290 8d 43 d8 38 c5 3b 35 bd c2 fa 06 3d 63 f2 6a 3c
       0.00010312265 -0.044246454 0.032953985 0.014340016
0002a0 00 dd 68 bc ba 53 1e 3c 67 51 68 bb cc e8 86 ba
       -0.014212847 0.009663517 -0.003544891 -0.0010292768
0002b0 d4 ab 6e bc dd 52 03 3c 16 8f 03 bd 8e da 26 ba
       -0.014567334 0.008015362 -0.03211888 -0.00063649646
0002c0 13 27 d3 3b 44 17 44 3b c9 19 ab 3d 1e d3 ae bc
       0.006443867 0.0029921094 0.083545275 -0.021340903
0002d0 9d 0f d9 3c 2d 57 3a 3c 74 14 82 3c 84 13 3f 3c
       0.026496703 0.011373323 0.015878893 0.011662368
0002e0 2c ff be bc b6 ba 2a 3c e6 4a 28 3c 9d 00 5c 3a
       -0.023315035 0.010420492 0.010271763 0.00083924254
0002f0 14 90 88 3d da 60 bb bb 6f 26 39 3d ad 70 3b bc
       0.06668106 -0.0057183327 0.04520267 -0.011440438
000300 d0 18 6d 3d 53 12 22 bd ad 0b 00 00 74 17 8d bd
       0.05788499 -0.039568257 4.188e-42 -0.06889239
000310 a3 90 00 80 f8 22 61 3e 51 a1 bf bc ba 7a 85 3d
       -5.1886e-41 0.21985996 -0.023392351 0.06517549
000320 60 23 90 3c 06 d1 97 3c f8 b0 98 bd af 19 ce bc
       0.017594993 0.018532287 -0.07455629 -0.025158731
000330 c4 48 2d bd 80 67 67 3d 94 8c b4 3c 2d 96 ef 3b
       -0.042305723 0.05649519 0.02203969 0.0073116035
000340 60 57 be 3c 7d a2 15 bc ba 2b e8 3c bc 69 30 bc
       0.023235023 -0.0091329785 0.028341163 -0.010767397
000350 a1 47 27 bd 66 58 90 bd aa 32 8f 3c fd 43 4c 3b
       -0.040839795 -0.07048111 0.017480213 0.0031168454
000360 58 d4 25 3d 39 ad bb 3b d2 8a b5 bb 94 16 45 bc
       0.04048571 0.005727437 -0.0055402303 -0.012029309
000370 b6 4e c7 ba e9 04 b1 bb 63 a8 bf bb 5d 77 0b bd
       -0.0015205953 -0.0054021967 -0.0058489307 -0.03404938
000380 08 37 1b 3b 3a 6a 6d 3c 11 e3 57 3c 06 8c 00 80
       0.0023683924 0.014490658 0.013176695 -5.0231e-41
000390 cc 2f 6c bc 5f 7f 00 00 d6 f3 76 3e 37 59 02 bc
       -0.014415693 4.5692e-41 0.24116454 -0.007955841
0003a0 f3 84 ba 3c c3 9c 1b bb 1b 3e 23 3c 12 76 2a 3d
       0.022768473 -0.002374456 0.009963538 0.041616507
0003b0 7e 6d cd bc 1e db fc bb f6 45 c4 b9 26 23 d5 bc
       -0.025076624 -0.0077165505 -0.00037436158 -0.026017737
0003c0 7c 6c 1a 3c 50 ff c5 bb a7 63 07 3c ab 95 25 bc
       0.009425279 -0.0060423985 0.008263505 -0.010106484
0003d0 de c2 cf bd 2e 8b 54 bd 97 42 b9 3c 27 27 63 bd
       -0.1014459 -0.051890545 0.02261476 -0.05545726
0003e0 5f 81 e0 bc fd c2 06 bb 7b b8 3a bc 80 f7 b3 bb
       -0.027405439 -0.0020563 -0.011396523 -0.005492151
0003f0 d6 ed 6d bb b2 0b a4 39 25 80 d2 bc 26 ed dd bb
       -0.0036305091 0.0003128923 -0.02569587 -0.006772655

fcs1.bias f4 [128]
000000 fb 09 93 ba 67 52 72 bd 3d 77 5e bd 4d de ca bc
       -0.0011218184 -0.059160616 -0.054312933 -0.024764204
000010 2b b7 24 b9 3e 47 7a bd 63 ea 69 bc ee b3 5e bd
       -0.00015708494 -0.061103098 -0.014277074 -0.054370813
000020 fa 5b 33 bc 87 2d ac bd 5c 88 c8 bc 98 61 ed bc
       -0.010947222 -0.08407121 -0.024479084 -0.0289772
000030 38 48 4c bd 47 1b bb bd c7 ce e4 3c 34 e1 6d bd
       -0.04987356 -0.09136062 0.02793063 -0.0580761
000040 55 90 9b bd dd 33 b5 bd 75 7a 0a bd aa 5a 45 39
       -0.075958885 -0.08847783 -0.03380819 0.00018821159
000050 7b 3a 67 bc b7 84 ec bc 92 7a 44 bd ed b5 d3 bb
       -0.014113064 -0.028871877 -0.047968455 -0.006460896
000060 98 97 6a ba 10 f3 c9 bb ad 15 24 bc 9c 78 81 bd
       -0.0008948981 -0.0061630085 -0.0100149335 -0.063218325
000070 92 bc 8a bb 32 c1 87 bd 11 8d 06 3d 15 84 ac bb
       -0.004233905 -0.06628646 0.032849375 -0.005264769
000080 3f 3d 5c bd e0 eb c8 bc e2 19 93 bc 43 74 5e bc
       -0.053769346 -0.024526536 -0.017956678 -0.013577524
000090 7e 34 44 bd 41 8a 04 bc f6 16 35 bd f2 eb 90 bd
       -0.047901623 -0.008089603 -0.04421135 -0.07076253
0000a0 b9 b5 99 ba 9d 83 4f bd 0d a6 c9 bc c3 ca 29 bd
       -0.0011727131 -0.050662626 -0.024615312 -0.041453134
0000b0 07 5b 83 bd 34 f6 85 bc b8 14 04 bc ab 92 8f bc
       -0.064138465 -0.01635275 -0.00806158 -0.017525991
0000c0 c0 18 61 bd 13 27 7b bd bb 9f a8 bc f1 53 3e bb
       -0.054955244 -0.06131656 -0.020583978 -0.0029041732
0000d0 6f ff b9 bc c9 a0 14 bd 76 72 ac bd 27 72 c0 bc
       -0.022704808 -0.03628615 -0.08420269 -0.023491932
0000e0 f1 86 bf bc 01 a5 e8 3c 92 a6 24 bd 0c 99 f0 3c
       -0.023379775 0.028398992 -0.040197916 0.029369853
0000f0 0b 7c 65 bc 71 7c 92 bd 2b ef ac bd 2c fc b1 bd
       -0.014006625 -0.071526416 -0.08444055 -0.08690676
000100 4d 02 b5 bc 34 7e 5d 39 9e 0f f6 bc e0 6c 9c bd
       -0.022095824 0.00021123217 -0.030036744 -0.07637954
000110 1d c1 5d bd 74 61 d5 bd 32 48 8c bd 62 ab 5d 3d
       -0.054139245 -0.10418978 -0.06849708 0.05411852
000120 0d 3e ff bb 3b ee 1e bd 34 65 73 bc 88 07 fd 3b
       -0.0077893795 -0.038801413 -0.014855672 0.007721845
000130 ad 1e 93 bc b3 b0 4b bd 1c e9 5d bd 88 14 3c bd
       -0.017958963 -0.04972906 -0.05417739 -0.045918018
000140 96 38 49 bd 8f ee 13 bd 44 d0 d4 bb c5 00 a4 3c
       -0.04912623 -0.03611618 -0.0064945538 0.020019898
000150 aa 0f 3c 3c 4e 69 84 bd fa 39 42 bd 71 5e 85 bd
       0.011478344 -0.06465398 -0.047418572 -0.06512154
000160 d7 c1 bd bc 36 75 94 bd 88 5b 4d bb 7d 1e 92 bd
       -0.02316372 -0.07248919 -0.0031335074 -0.071347214
000170 9d 10 5e bd 37 8a 46 bd 52 42 de bc d7 14 74 bc
       -0.054215062 -0.048471656 -0.027131233 -0.014897547
000180 83 6f 88 bd 51 98 02 bd 2f 0b 7e bd a7 65 02 be
       -0.06661894 -0.03188354 -0.062022384 -0.1273409
000190 78 eb 74 bd cb 14 a4 bd f8 cd 66 bd d3 5c 5f bd
       -0.059794873 -0.080117784 -0.05634877 -0.054531883
0001a0 c9 c9 4b bc 09 bb aa 3c 45 77 e8 bc fe 24 e8 bc
       -0.012438246 0.020841138 -0.028377185 -0.028337952
0001b0 57 cc ae 3c 80 60 2f 3c 9f f7 cb bc 77 a0 91 bd
       0.021337671 0.01070416 -0.024898348 -0.07110684
0001c0 03 cc 98 bd 6a 43 25 bd d0 69 9e 3c 2f 2f 27 bd
       -0.07460787 -0.040347494 0.019337565 -0.040816482
0001d0 a4 ae e3 bc 70 e9 41 bd 46 1c ae bd 32 a5 87 bb
       -0.027793236 -0.047341764 -0.085014865 -0.004139566
0001e0 11 15 f0 bc 61 4a 44 3d 53 ba e5 3b c4 90 c0 bc
       -0.02930692 0.047922496 0.007010737 -0.02350653
0001f0 41 fe 75 bd 93 1c 23 3b 49 02 b3 bd bb b3 bc 3c
       -0.06005693 0.0024888858 -0.0874067 0.02303492

bn2.weight f4 [128]
000000 9a e6 cc 39 97 21 56 3e 5d af 02 3e f7 33 85 3e
       0.00039081724 0.20911251 0.12762208 0.2601621
000010 ba 0c 09 b9 7a d8 59 3e 18 a4 51 3e f2 94 32 3e
       -0.00013070079 0.21273986 0.20472753 0.1743963
000020 44 cd 83 3e d0 1b 31 3e a6 0c 07 3e ea c7 bb 3d
       0.25742543 0.17295766 0.13188419 0.0916899
000030 a6 68 92 bd bb 7b 2d 3d 8e c7 0c 3e 38 ed 12 3e
       -0.07148866 0.042354327 0.13747999 0.14348304
000040 91 cf cf 3d a5 46 8c 3e 8e 32 12 3e c3 3e 03 3f
       0.10147012 0.27397648 0.14277098 0.5126764
000050 4b 05 b5 3e c2 ea 56 3e 82 d4 22 3e c1 f7 2b 3e
       0.353556 0.2098799 0.15901378 0.1679373
000060 f6 e9 56 b8 39 97 70 3e ce f8 51 3e d3 3b 1a 3e
       -5.123947e-05 0.23495187 0.20505068 0.15061884
000070 ff 94 d8 3d 45 d6 d1 3d 43 49 f9 3d 95 f2 e4 3e
       0.10575294 0.10245947 0.12172177 0.44716325
000080 7d cf a5 3e ed 89 09 3e 1f fc 7c 3e af 60 46 3e
       0.32384863 0.13431521 0.24705552 0.1937282
000090 ca 2d 8e 3d ed 72 00 3e de 7e 12 3e 1a aa 30 3e
       0.06942327 0.1254384 0.14306208 0.17252389
0000a0 f2 3b 21 b8 6a a8 17 3e a8 d5 8e 3e c4 aa 3d 3e
       -3.844122e-05 0.14810339 0.27897382 0.18522173
0000b0 14 13 1a 3e 22 6a 0e 3f 61 2c db 3e 0a ab 96 3e
       0.1504634 0.55630696 0.42807296 0.29427367
0000c0 aa f2 fb 3d 66 93 44 3e 0e 3d 13 3e b5 41 31 3e
       0.12302144 0.19196853 0.1437876 0.17310221
0000d0 33 96 fc 3d 64 d5 34 3e 64 d1 2f 3e 6e 7a 88 3e
       0.12333336 0.17659527 0.1716972 0.26655906
0000e0 67 df 6c 3e e5 27 4d 3e e0 58 0e 3e 49 72 5a 3e
       0.23132096 0.2003475 0.1390109 0.21332659
0000f0 6c 22 75 3e 4a a2 59 3e ac cb 35 3e 3b 60 80 3e
       0.23938912 0.21253315 0.17753476 0.25073418
000100 98 95 dc 3d 6e 66 c5 3e 0f 68 72 3e bb 9a 78 3e
       0.1077072 0.3855471 0.23672508 0.24277775
000110 11 f6 5f 3e 10 3c 82 3e 81 48 99 3e e3 ae 65 3e
       0.2187121 0.2543645 0.2993813 0.22429995
000120 ff 04 4c 3e f0 7b 29 3d 50 5e a1 3e 5b 7f a2 3e
       0.19923781 0.04137796 0.31517267 0.3173779
000130 14 ce 82 3e ae e9 55 3e 16 dc 03 3e e8 e4 3b 3e
       0.2554785 0.20889923 0.12876925 0.1834904
000140 f2 ca 54 3e 48 3c 42 3e 52 b5 6d 3e 54 9d ae 3e
       0.20780542 0.18968308 0.232137 0.34104407
000150 75 c3 a8 3e 2e a3 ff 3d f7 31 f4 3d 95 d7 48 3e
       0.32961622 0.12482296 0.119235925 0.19613488
000160 ec 2d f7 3d f0 24 b6 3e 94 9a 98 b8 ea a2 30 3e
       0.12069306 0.35575056 -7.276717e-05 0.17249647
000170 28 d5 2b 3e 30 16 58 3e c2 2b b1 3e 0d 8f 5d 3e
       0.16780531 0.21102214 0.34603697 0.21636601
000180 e8 13 43 3e ca 05 26 3e 7f 2e b8 3d ae e8 68 3e
       0.19050562 0.16213146 0.089932434 0.2274501
000190 82 93 54 3e 0f 2a 27 3e 5c 1d 4e 3e 0c 59 87 3e
       0.20759395 0.16324638 0.20128387 0.26435125
0001a0 79 4a 1c bd c0 fb c9 3e d0 56 d3 3d 92 87 9d 3e
       -0.03815696 0.39449883 0.103192925 0.30767494
0001b0 3e 1f 77 3e 26 67 7f 3e 26 46 85 3e c8 62 09 3e
       0.24133012 0.24941692 0.26030082 0.13416588
0001c0 56 16 60 3e 6d 09 89 3e 75 fd 7e 3e 23 32 73 3e
       0.2188352 0.26765004 0.24901374 0.23749594
0001d0 82 88 4a 3e 42 4c 4f 3e 1c 3b 88 3e 51 f4 c0 3e
       0.19778636 0.20243934 0.26607597 0.376864
0001e0 89 78 30 bd 8b ba f2 3e de 04 57 3e 7c 52 41 3e
       -0.0430837 0.47407946 0.2099795 0.18879122
0001f0 9e 82 a3 3e 7d 76 72 3e 20 38 e2 3e df 37 34 3e
       0.3193559 0.23678012 0.44183445 0.17599438

bn2.bias f4 [128]
000000 18 3a 10 39 a6 7e f5 bd fb 74 80 3d 11 23 ba 3d
       0.00013754552 -0.11987047 0.06272312 0.0908872
000010 71 c7 40 38 43 b0 b6 bc 92 99 09 3d 16 74 0c bd
       4.596211e-05 -0.022300845 0.03359372 -0.034290396
000020 97 89 86 bd f1 a6 a2 bd 8c 67 40 bc af c3 37 bd
       -0.06569212 -0.07941998 -0.0117434375 -0.044864353
000030 8b bb 92 bc 0f 15 b9 bd 1a 6b 57 bd 02 91 97 3d
       -0.017911693 -0.0903722 -0.052592374 0.07400705
000040 3e ad 25 3d 54 e3 3b 3d 66 b5 cf bd 69 e4 98 bd
       0.04044842 0.045871094 -0.10142021 -0.07465441
000050 c8 9c fb ba a3 1c d5 3d e5 e5 e3 bc ac 0c 39 bd
       -0.0019196505 0.10405853 -0.027819583 -0.0451781
000060 dd 03 af 39 f2 d5 ff 3d 5d 62 a0 bd b3 0e 7c 3d
       0.0003338148 0.12491979 -0.07831261 0.061537456
000070 76 63 b7 3c 98 f4 14 bd 78 5a 7d bd c5 bb 10 3d
       0.022386294 -0.036366075 -0.061853856 0.03533532
000080 ef a9 8b bd dd 2f 87 3d 9f 5c ba bd 05 cf 65 3d
       -0.06819522 0.06600926 -0.09099697 0.056105632
000090 e6 73 d7 bb 77 3a b1 3d 56 5c b5 bd 8f 14 b5 3d
       -0.0065750955 0.086537294 -0.08855502 0.08841812
0000a0 df 73 25 39 69 ce 77 bd 1e 42 89 bc c5 1f e4 3d
       0.00015778792 -0.060499582 -0.01675516 0.11138872
0000b0 1e da 59 3d 3b 65 d4 bd 75 8d 94 bd 8e e5 17 3c
       0.05318653 -0.10370871 -0.07253543 0.009271039
0000c0 b4 8a 81 bd 16 7d 00 be 2c 40 09 3d c9 6a d7 bc
       -0.06325284 -0.12547716 0.033508465 -0.026296036
0000d0 9b a0 2f bc da 4c b3 bd 9d 8f 95 bd b9 54 be bd
       -0.010719444 -0.08754893 -0.07302783 -0.09293503
0000e0 81 17 97 bd 39 51 d1 bd d9 5d 8b bc 22 b8 0d be
       -0.0737753 -0.1022057 -0.017012523 -0.13839772
0000f0 7e 92 60 bd ed 40 a8 3d e4 80 b8 bd c8 80 c0 bd
       -0.054827206 0.082155086 -0.09008959 -0.09399563
000100 d8 cd 86 bd c5 bb aa bd 90 27 89 3d a9 cf 2d 3d
       -0.0658223 -0.083365954 0.06696999 0.04243437
000110 fa 13 2e bd 4b 62 c5 bc 6f 1d 5e bd 6c be 0a bd
       -0.04249952 -0.024094721 -0.05422729 -0.033873007
000120 ac 78 14 3c ae 8a 91 bd 73 8a 1d bd a7 bd 8e bd
       0.009061974 -0.07106529 -0.038462114 -0.06969767
000130 8f b2 a7 bc bb 90 e4 bc 35 64 1b bd 93 40 77 bd
       -0.020470886 -0.027901044 -0.03793736 -0.060364317
000140 e4 3d c2 3d 71 31 5b bd 0c 7b a7 bd e5 1f dc 3d
       0.09484461 -0.053513948 -0.08177766 0.10748271
000150 6e 5f 90 3d 5d 8a 62 bd b6 34 ce 3c 4b b5 5c 3d
       0.07049452 -0.055307735 0.025171619 0.053883832
000160 c4 8b 8b 3d 93 bd 0e bc 24 c4 0f b7 ac b7 c3 bd
       0.068137676 -0.00871219 -8.569132e-06 -0.09556517
000170 54 16 fd bc 57 b2 9e bd 24 c9 48 bc 9c 2d 04 3d
       -0.030894436 -0.077488594 -0.012254987 0.03227006
000180 5b c6 8d 3d 86 a6 4f bd 0e 45 8e bc 7f 55 80 bd
       0.06922599 -0.05069592 -0.017366912 -0.06266307
000190 f6 5c 9c bd 67 a1 d2 bd 3c c9 07 3e a7 19 ab bd
       -0.076349184 -0.10284691 0.13260359 -0.08354502
0001a0 ce 70 dc 3b 3c 25 08 3d 10 f4 c1 3c aa a2 56 bd
       0.0067273146 0.033238634 0.023675948 -0.052401222
0001b0 6b 76 04 bc 72 1b cc 3c 5c 15 c5 bc af 7d a8 3d
       -0.008084874 0.02491543 -0.024058037 0.08227097
0001c0 bc b3 b4 bd 8b 91 ef 3a bf bd eb 3d 5c fb b3 3c
       -0.08823344 0.0018277628 0.115108006 0.021970443
0001d0 c0 d4 ad 3d 4b 68 3d bc cd e1 54 bd 91 42 8e bd
       0.084878445 -0.01156051 -0.051973153 -0.0694629
0001e0 ae c4 b0 3b 2f 9a 6e bc b3 28 a4 3c d4 0c e4 bb
       0.00539454 -0.014563127 0.020038938 -0.006959537
0001f0 48 3a a5 bd f7 cb f6 3c bf 2b 27 bd 50 90 c0 bd
       -0.08067757 0.030126555 -0.040813204 -0.094025254

bn2.running_mean f4 [128]
000000 96 bc f4 3b b0 da 62 3c 74 9a bb 3d 6f 9c 9c 3d
       0.0074687703 0.0138460845 0.09160319 0.07647025
000010 db ff 0d 3c 7e 67 2b 3d 4b dd 9f 3d 23 09 35 3d
       0.008666958 0.041846745 0.0780588 0.044198167
000020 28 2a d3 3c aa da 1a 3a 21 9a 25 3d 96 bd 77 3a
       0.025776938 0.0005907217 0.040430192 0.0009450553
000030 03 01 e8 3a ce 32 35 39 34 13 c4 3c 84 25 6f 3d
       0.0017700497 0.00017280431 0.023934938 0.058385387
000040 56 6d ca 3c 9c e8 0d 3d 81 81 27 3a aa 66 a4 3d
       0.024710339 0.03464566 0.0006389842 0.08027394
000050 69 bb e5 3d 3f 07 89 3e d8 0c b7 3c e3 32 a0 3d
       0.11217386 0.2676334 0.022344992 0.07822206
000060 45 6c c1 36 52 4d 12 3e a6 6e 2f 3c 9f 41 f0 3c
       5.7644525e-06 0.14287308 0.010707533 0.029328166
000070 e6 33 0c 3d a9 b4 ab 39 44 93 f9 3c 4e 5e 04 3e
       0.03422918 0.00032750264 0.03046573 0.129266
000080 d0 2a 21 3d 0c 46 98 3d cd f3 35 3e 4f 1a 2b 3d
       0.03934747 0.074352354 0.17768784 0.041773137
000090 62 f5 79 3c 5f b7 c7 3d 97 40 73 3c 81 65 e8 3d
       0.015256258 0.09751772 0.014846942 0.11347485
0000a0 ac 0e cf 3b 48 07 70 3d bb 8f 48 3e 08 d2 b1 3d
       0.0063188877 0.058600694 0.19586079 0.086826384
0000b0 8e a7 e9 3c 86 3f 4d 3d 69 2b aa 3c 2f 10 8f 3e
       0.02852228 0.05010941 0.020772653 0.27942035
0000c0 cd 38 30 3d ff 3c ef 3c e3 2f 4e 3d b3 20 b0 3d
       0.04302292 0.02920389 0.050338637 0.08599987
0000d0 80 16 e3 3c 2b ef f9 3c dc 1f 3e 39 87 4b 46 3e
       0.02772069 0.030509552 0.0001813168 0.19364749
0000e0 12 9c 38 3d f7 9b 8f 3e db 72 a8 3c 35 f9 9c 3c
       0.045070715 0.2804868 0.02056258 0.0191618
0000f0 33 1b 1d 3c cd 61 19 3d af e3 fc 3d 36 9d d9 3c
       0.009589004 0.037446786 0.12348115 0.026564222
000100 c9 2f 05 3e 65 fd 73 3d ff 14 49 3e 68 1a 83 3d
       0.1300651 0.059567828 0.19636916 0.06401521
000110 d1 a8 7c 3d 3e bd 3e 3d 4a 98 8c 3a 05 27 0d 3d
       0.061684433 0.046567194 0.0010726538 0.03446104
000120 e3 84 fd 3d 5f aa 99 3a d2 14 eb 3d 2c 79 08 3d
       0.12378862 0.0011723748 0.114785805 0.033318684
000130 84 a9 c1 3d ad 9e 41 3e 5e 43 1a 3d 84 7b 17 3e
       0.09456161 0.18908186 0.037661903 0.14793211
000140 37 8d f6 3c c0 fa 85 3d 2f 44 02 3d cc e1 a0 3e
       0.030096633 0.065419674 0.031803306 0.3142227
000150 5f 60 01 3f fd 32 cc 3a f7 00 67 3d 02 50 b4 3d
       0.50537676 0.001557916 0.056397405 0.08804323
000160 96 8c 22 3d d1 4b 14 3d 45 d4 a8 3b 9c 2f 58 3d
       0.039684854 0.036205117 0.0051522576 0.05277978
000170 b3 7a bc 3b 54 6c 1f 3d 34 78 3d 3e d1 e4 d8 3d
       0.0057519316 0.03892167 0.18502885 0.10590518
000180 0d d7 d0 3d e1 8b eb 3c c0 c2 0b 3b 54 46 07 3d
       0.10197268 0.028753223 0.0021325797 0.033026055
000190 4c 1d af 3c 72 c0 67 3d 23 70 cf 3c 20 15 44 3e
       0.021376275 0.056580015 0.025322026 0.19148684
0001a0 a6 bf cd 3a e5 bd eb 3d e3 59 95 3e a4 a9 fe 3d
       0.0015697374 0.11510829 0.2917014 0.124347
0001b0 e7 0f 99 3e fc 1f f5 3d 8f be c1 3d 24 1b 4d 3c
       0.29894945 0.11968991 0.09460174 0.012518678
0001c0 10 86 f4 3b 5a c0 f5 3d 60 24 24 3e 7d 7e 10 3e
       0.0074622706 0.11999579 0.16029501 0.14110751
0001d0 c1 04 e6 3d e7 69 ac 3d a5 2a 0f 3d 41 ee eb 3d
       0.112313755 0.08418637 0.03495278 0.11520053
0001e0 94 a4 81 3a 32 fe 3e 3e 1e cc 88 3e 65 66 91 3d
       0.0009890967 0.18651655 0.2671823 0.07099608
0001f0 ee fe 4d 3d a1 35 7e 3d c9 dd 29 3d ba f3 59 3e
       0.050291948 0.062062863 0.041471276 0.2128438

bn2.running_var f4 [128]
000000 af 22 0a 39 90 d6 e1 3a 9e fa bc 3c 22 36 16 3c
       0.00013173626 0.0017230082 0.023068722 0.00916818
000010 76 9e 49 39 d3 10 12 3c 5c 52 6d 3c 36 5b f2 3b
       0.00019227885 0.008915144 0.014484968 0.007396127
000020 9b 25 be 3b 19 96 4a 39 b8 a1 55 3c b6 7d 03 39
       0.0058028228 0.00019320137 0.013039045 0.00012539965
000030 0a b3 b6 39 74 7d 91 38 99 aa 4c 3b 58 3c 44 3c
       0.0003484714 6.937506e-05 0.0031229614 0.011977278
000040 bc 9c c8 3b 7e 75 e4 3b cc cb aa 38 60 44 26 3c
       0.0061222 0.006972014 8.144192e-05 0.010148138
000050 c1 80 01 3d be c4 d9 3d 39 5d 54 3b ff b6 b0 3c
       0.03161693 0.10633229 0.0032404198 0.021571634
000060 5b 04 9f 32 5d f8 38 3d 82 56 78 3a fe 37 b9 3b
       1.8512017e-08 0.045158733 0.000947334 0.0056524267
000070 fd 6f 86 3b 39 18 6f 38 96 a1 d4 3b 22 cb a5 3c
       0.0041027055 5.70046e-05 0.006488989 0.020238463
000080 e4 45 1f 3c 2b dc ac 3c b5 3e eb 3c 44 9f db 3b
       0.009721253 0.021101078 0.028716424 0.0067023356
000090 02 00 46 3b 09 74 a7 3c 48 e9 c1 3a ef fd ec 3c
       0.0030212407 0.020441072 0.0014794255 0.028929679
0000a0 76 59 ef 38 9b 63 58 3c 6b bb f8 3c ea 1c 91 3c
       0.000114130715 0.013207342 0.030362805 0.017713983
0000b0 e8 35 a3 3b 29 1b ea 3b 66 ee 24 3b 35 ba e9 3d
       0.0049807914 0.007144351 0.002516651 0.11412469
0000c0 c1 77 ca 3b 70 87 d1 3b 19 54 30 3c 45 eb 76 3c
       0.0061788266 0.0063943192 0.010762238 0.015070741
0000d0 85 be 5a 3b 6a db 78 3b 70 5d 46 38 9c 3d 9c 3d
       0.0033377719 0.0037972578 4.72939e-05 0.076289386
0000e0 f2 a4 f7 3b f4 db ed 3d 52 c0 78 3b ef 5e 6c 3b
       0.007557505 0.11614218 0.0037956429 0.0036067327
0000f0 3f 0a d0 3a 94 40 ef 3b 67 8a 12 3d ce 64 7a 3b
       0.0015872194 0.0073013995 0.035776522 0.0038207057
000100 36 5e f6 3c 04 47 2e 3c cb f1 7b 3d 67 e5 66 3c
       0.03007422 0.010637049 0.06150989 0.01409278
000110 89 9c 5c 3c 54 06 1c 3c 9a 30 7d 39 1d 97 d1 3b
       0.013465055 0.009522993 0.00024146066 0.006396188
000120 e2 60 ea 3c 47 a8 f3 39 03 ad af 3c ad d5 2f 3b
       0.02861065 0.00046473948 0.021444803 0.0026830242
000130 00 f6 e0 3c bb 3c a7 3d 65 8e 21 3c b2 fa 63 3d
       0.027461052 0.0816588 0.00986061 0.055659004
000140 9d 7b b0 3b d4 e3 57 3c 09 b2 03 3b 18 c3 6a 3d
       0.0053858296 0.013176877 0.002009513 0.057314962
000150 05 f8 8b 3d ad da 5c 39 71 f6 28 3c f7 1d 0c 3d
       0.06834415 0.00021062298 0.010312662 0.034208264
000160 b1 34 23 3c 85 f9 a2 3b 3f c7 65 39 04 99 61 3c
       0.009961293 0.0049735927 0.00021913367 0.013769392
000170 50 b1 01 3a 68 9a cc 3b ad fe 5f 3d 14 a5 ab 3c
       0.0004947381 0.0062439926 0.054686237 0.020952739
000180 0f a7 ad 3c 36 8c b3 3b 90 40 36 3a 2c d3 15 3c
       0.021197824 0.005479361 0.00069523696 0.009144586
000190 5f c1 8b 3b b4 a1 46 3c 59 bb b2 3b 95 64 82 3d
       0.004264995 0.012123514 0.0054544625 0.06366841
0001a0 ce 7f 7c 39 4a b3 d1 3c 27 de 4b 3d 73 6c 03 3d
       0.00024080204 0.025598187 0.049772408 0.032085847
0001b0 80 3c e4 3d 3e dc a1 3c 90 a5 a9 3c a4 89 e6 3a
       0.11144352 0.01975834 0.02070883 0.0017588628
0001c0 57 47 a0 3a f9 e3 ed 3c 52 05 27 3d 58 f1 4e 3d
       0.0012228292 0.02903937 0.04077656 0.050523132
0001d0 07 af c7 3c da 2b ad 3c 6a 52 a6 3b 8f bb bf 3c
       0.024375452 0.021139074 0.0050757425 0.023404865
0001e0 74 e5 3f 39 e3 de 0e 3d cb 59 25 3d 62 70 ab 3c
       0.00018300657 0.03488053 0.040368836 0.020927612
0001f0 be 47 02 3c 97 5c 98 3c f8 6a 0a 3c 6d 2d 4e 3d
       0.007951675 0.018598838 0.008448355 0.05033629

fc2.weight f4 [128, 132]
000000 a3 99 cd 39 0f d4 d2 bd d6 d6 94 3c 09 d3 85 3d
       0.00039215115 -0.10294353 0.018168848 0.065343924
000010 a5 e2 00 ba 23 ae 13 bd 88 dc c5 bb bb d0 3f bd
       -0.0004916585 -0.03605474 -0.0060382523 -0.04682992
000020 aa cb b2 bc 9f b0 6a bc 5a 7a 9e 3a 52 d9 14 bd
       -0.02182563 -0.014324336 0.0012090907 -0.036340065
000030 1d 1b 59 bd 45 b9 c9 bd 93 01 ce bc 36 af 0f 3d
       -0.053004373 -0.098497905 -0.025147235 0.035079204
000040 48 dc fb bb 5a b7 05 bd b5 b9 dd bc 07 ce 62 bd
       -0.0076861717 -0.03264556 -0.027066091 -0.055372264
000050 aa 8f 4e bd ed 23 7f 3d 27 cb 06 bd 6a 3f fc 3b
       -0.050429977 0.06229012 -0.032908585 0.0076979892
000060 ff 02 b7 b9 03 a1 51 3d 2f 45 9e bc 59 e3 85 3d
       -0.00034906712 0.051178943 -0.019320099 0.06537504
000070 d3 98 d1 3b 92 b2 14 bc d5 4c 40 bd fb 1d 11 39
       0.006396392 -0.009075778 -0.046948273 0.00013839446
000080 bd 5c 86 bd 3a 50 1c 3d 89 06 0f be 18 d7 6b bc
       -0.06560657 0.038162448 -0.13967337 -0.014394544
000090 a6 b5 fa bc 25 25 60 3d 7f 62 62 bd 4d ce 29 3c
       -0.030604195 0.054722924 -0.055269714 0.010364127
0000a0 f0 48 0c ba 1b 18 a2 bc c7 1b 82 bd 67 67 9a 3d
       -0.00053514447 -0.019786885 -0.06352954 0.07539254
0000b0 7f 8b b0 3c e3 4f c7 bd e4 1b a0 bc 4a 5e 26 bd
       0.021550892 -0.09732034 -0.01954455 -0.040617265
0000c0 2f 34 3e bd 80 13 80 bd ad 04 fd 3c 4a e5 99 3b
       -0.046436485 -0.06253719 0.030886019 0.004696523
0000d0 f9 94 0b bc a8 90 11 bd bf be 80 bc 05 10 84 bc
       -0.008519405 -0.035538346 -0.015715955 -0.01612092
0000e0 4d 62 c5 bc 98 e7 88 bc a2 a9 84 3c 9d 6d ae bd
       -0.024094725 -0.016711995 0.016194168 -0.08517001
0000f0 eb 91 08 bd 5d 56 4d 3d 20 22 f0 bc c4 9b 91 bd
       -0.033342283 0.05013119 -0.029313147 -0.07109788
000100 61 fa 32 bb 3e 03 e1 bd 20 78 87 3c c2 5e 19 bb
       -0.0027309882 -0.109869465 0.016536772 -0.0023402427
000110 9c ab 84 bd 70 7e fd 39 e3 33 68 bc 6d 85 2f bd
       -0.064780444 0.00048350124 -0.014172527 -0.042851854
000120 58 2f 1b 3d 70 22 9c bd b2 e2 43 bc 69 77 00 bd
       0.037886947 -0.07623756 -0.011955904 -0.03136388
000130 fb 73 11 bd 8e 79 1a 3b dc 7c b4 37 c2 37 06 bd
       -0.035511 0.0023570987 2.1515814e-05 -0.03276802
000140 ab 26 7c 3d 77 bb e5 bc a2 6d 4e bd 80 a9 c0 3c
       0.061560314 -0.028043492 -0.050397523 0.023518324
000150 cf f5 f3 3c ed 98 78 bc ca f9 f3 bc ff 16 38 3c
       0.029780297 -0.015173179 -0.029782195 0.011235951
000160 6d 75 eb 3c f6 a0 72 bd ef 7a a4 38 30 c5 91 bd
       0.028742516 -0.059235536 7.8430276e-05 -0.07117689
000170 c2 4d a6 bc 83 49 78 bd d4 7a c3 bc 9b ef 5f 39
       -0.02030075 -0.06061698 -0.02386228 0.00021356197
000180 00 dd 78 3d 79 bb 3d bd 30 72 a8 3a 74 12 5b bc
       0.060757637 -0.046321366 0.0012851413 -0.013371099
000190 3d c8 ba bc 41 96 80 bd 19 61 d5 3c 06 b6 ca bc
       -0.02280056 -0.06278659 0.026047276 -0.024744999
0001a0 c9 44 6d 3c 39 7a 47 3c 5c 9c 36 3c 18 13 aa bc
       0.014481732 0.012175136 0.011145677 -0.020761058
0001b0 b6 b5 50 bc 4a 80 6e b9 f1 f4 d9 bc 99 fc 99 bc
       -0.012738636 -0.0002274524 -0.026606055 -0.018797206
0001c0 09 6e 28 bd d3 22 2f 3c b4 ac 3c 3d ee 4e 28 3c
       -0.041120563 0.010689455 0.04606314 0.010272725
0001d0 59 9f d3 3c c3 7d 19 bd be 4c e9 bc fb a4 87 bd
       0.025832819 -0.03747345 -0.028478976 -0.066232644
0001e0 bd b5 53 3c 70 8f de bb cd 0e 19 3d 0b 22 0b ba
       0.012921748 -0.0067920014 0.03736763 -0.0005307502
0001f0 0b 45 4f bd 91 22 22 39 dd 2a 6f bc 42 70 66 bd
       -0.050602954 0.00015462401 -0.014597622 -0.0562594
000200 bf df f5 bb 97 b1 3f bb d0 3f bf bb 17 ba 80 bc
       -0.0075034793 -0.002925014 -0.0058364645 -0.015713735
000210 6e 35 d0 b9 29 f4 21 bd ff e9 79 bc f0 79 23 bd
       -0.0003971266 -0.03953949 -0.015253543 -0.03991121
000220 24 f9 cc 38 2f b7 fe ba 0a b2 c8 bb 40 e2 19 bd
       9.773884e-05 -0.0019433255 -0.0061247395 -0.037569284
000230 43 a6 95 bb 89 dc 92 bb e5 38 61 bd b1 eb 8f bc
       -0.004566939 -0.0044818562 -0.0549859 -0.017568441
000240 5e b7 f0 3c 89 87 bc bc 48 70 c2 3b fe bc c9 bc
       0.029384311 -0.023013847 0.005933795 -0.024626251
000250 51 04 e9 bb 0d 89 c3 ba cf 93 f0 3c 77 9b 88 3d
       -0.0071111103 -0.0014918164 0.029367356 0.066702776
000260 66 71 28 3c 88 d2 33 3d 8d 26 9f bb a8 33 55 bc
       0.010280943 0.04390195 -0.0048568905 -0.013012804
000270 91 fd 5f ba da 8f 88 3c ab 96 25 bd cd 42 56 bd
       -0.0008544559 0.016670156 -0.04042689 -0.0523098
000280 be e8 c4 3c 7b 15 a9 bc f0 48 4a 3c ed 56 46 3d
       0.024036761 -0.020640125 0.012346491 0.048422743
000290 a6 46 02 3d 25 3d 68 3c df 5b 34 3b 75 31 d6 bc
       0.031805657 0.014174734 0.002752058 -0.02614663
0002a0 87 66 d2 bb f0 7f f0 3c 87 a0 a1 3b d8 b4 d4 3c
       -0.0064209136 0.02935788 0.0049324664 0.02596514
0002b0 f1 12 5b 39 51 0c 44 bd ab ea 92 3c 20 b2 ce 3c
       0.00020892524 -0.04786331 0.017934164 0.025231421
0002c0 32 86 36 bd 7a 70 ca 3c 4a 08 61 3c 24 7c 00 bd
       -0.044561572 0.024711836 0.013734886 -0.03136839
0002d0 eb 72 18 bd 11 63 0f bd e2 f4 ee 3c 47 52 7e bc
       -0.03721897 -0.035006586 0.029169504 -0.015522546
0002e0 c5 08 cb bc 25 66 55 bc 2e 3d b5 3b fd aa 1f 3d
       -0.024784455 -0.013024841 0.005530975 0.038981427
0002f0 ae c1 a6 3a 1a 86 2a 3b a3 31 b3 3c 6b 18 2a 3c
       0.0012722516 0.0026019872 0.021874255 0.010381798
000300 30 48 18 bd e2 13 6c bb d4 97 44 bc 41 ec 42 3d
       -0.03717822 -0.0036022593 -0.011999089 0.04758859
000310 11 9d 84 3d 5e ba 39 bd 8c c9 84 bc 28 f2 be 3c
       0.064752705 -0.04534375 -0.016209386 0.023308828
000320 00 c1 15 3c 15 38 ba bc 0c 74 98 bc 4a 08 3f 3c
       0.009140253 -0.02273182 -0.018610023 0.011659691
000330 ab d6 96 bc 69 4e 03 3d 8b 02 3c bd a2 fd 1e 3c
       -0.018412909 0.0320572 -0.045900863 0.009704025
000340 df 4d 1a bc 93 94 27 39 63 bc 9b 3c cb d4 05 bd
       -0.00941798 0.0001598171 0.019010728 -0.03267364
000350 4f 18 ae bc aa 80 b8 bc b4 ea 4f 3c cd 15 e0 3c
       -0.021251826 -0.02252229 0.012690235 0.027354145
000360 f7 2d 58 3d 6a 32 02 bd 2e b3 a3 ba e9 25 fe 3c
       0.05277821 -0.03178636 -0.0012489313 0.031023936
000370 1f 07 bb bd 52 f5 ae 3c 2a 9d de 37 12 6f 31 bd
       -0.091322176 0.021357212 2.6537647e-05 -0.043318816
000380 51 94 65 3c fa 13 81 3d 85 11 9a bc f0 80 19 3c
       0.014012412 0.06302638 -0.018807182 0.00936912
000390 7d d0 04 3d 9a a8 66 bc 97 bf 23 bd 01 68 03 3c
       0.032425392 -0.014078284 -0.039977636 0.008020402
0003a0 bc 6e 98 bb 32 f0 84 3c f4 79 13 3c 33 3f d9 bc
       -0.0046518724 0.016227815 0.009001244 -0.026519394
0003b0 43 04 3b bc 5e 84 b0 3b 6f 91 5c 3c 87 a5 9a bc
       -0.01141459 0.005386873 0.013462408 -0.018877758
0003c0 12 93 ea bc 49 9d e6 3b 9b 45 c3 3b 2e e0 91 3c
       -0.028634582 0.007037793 0.0059592254 0.017807093
0003d0 5c 9f 3e bc 9a 3b ff 3c 8a 31 2f bc ec ac 8b 3c
       -0.011634674 0.03115635 -0.010692963 0.017050229
0003e0 88 e4 55 bd c7 ab a0 3c 45 f4 8f 3c 46 0c a9 bc
       -0.052219898 0.01961316 0.017572531 -0.020635735
0003f0 09 bf 39 3b 72 b3 7d 3c 33 83 28 3c 5b 31 ee 3c
       0.0028342626 0.015484678 0.010285187 0.029076269

fc2.bias f4 [128]
000000 09 23 82 3d c7 6b b0 3c 83 97 aa bc e4 5a 83 bd
       0.06354339 0.021535767 -0.0208242 -0.064138204
000010 f5 37 d8 bd 94 9f da bd 6f 2a 89 3d b7 98 bc 3c
       -0.10557548 -0.10674968 0.06697547 0.023022039
000020 7d cd e5 3d 87 00 50 bc 8c 73 17 bd 96 b3 91 bd
       0.112208344 -0.012695438 -0.03697543 -0.071143314
000030 70 3c a7 3c 3a de dd bc fc fc b0 bd 0e 4a 85 3d
       0.020414561 -0.027083505 -0.08642003 0.065082654
000040 3e d5 b8 3c f4 35 2d bd d7 f1 03 3c 3f 28 6a bc
       0.02256262 -0.04228778 0.008053265 -0.014291822
000050 3f 58 af bc 5a 06 ce bc d4 d4 cf 3d c0 b5 31 3b
       -0.021404384 -0.025149513 0.101480156 0.0027116388
000060 41 f0 63 3d 38 10 68 bd 35 7f 89 bd c6 cb 57 3c
       0.055649046 -0.056656092 -0.06713716 0.013171142
000070 f7 68 4e bb 43 5e bd bd 07 7d df bc 21 17 1d bd
       -0.003149567 -0.092464946 -0.027281297 -0.038352136
000080 c8 9d 29 bd de a5 2e bd 9e 78 42 bd 66 4c d7 3d
       -0.041410238 -0.042638652 -0.04747831 0.10512619
000090 f2 c2 1f bd 0f 7e e0 bc 26 1e bb bc 18 ba 83 3c
       -0.039004274 -0.02740386 -0.022841524 0.016079947
0000a0 7b d7 9b bc 16 81 03 be 0f b0 b3 bd e3 10 b8 bd
       -0.019023648 -0.12842211 -0.08773815 -0.08987596
0000b0 84 50 0d bd 41 d4 85 bd fd 3a 97 bd 54 03 d0 bc
       -0.034500614 -0.06534625 -0.07384298 -0.025392212
0000c0 91 e7 b6 bd dd ee 89 bd 86 b8 b0 bb d9 41 16 bc
       -0.089308865 -0.06735013 -0.0053930907 -0.009170973
0000d0 90 4e 1a bd 75 48 83 bd fa 21 83 bd 46 48 c0 3d
       -0.03767258 -0.064103045 -0.06402965 0.09388785
0000e0 7f 66 9b bd 0e b4 2c 3b 76 7a 9b bd 63 a1 61 3d
       -0.07587909 0.0026352438 -0.07591717 0.05508555
0000f0 5d 80 98 3d d5 5d 6f bd 91 07 07 bd 52 3a ab bc
       0.07446358 -0.058439095 -0.0329662 -0.020901833
000100 86 65 62 3d de b1 d2 3d 21 c1 0c ba df c5 90 3d
       0.0552726 0.10287832 -0.00053693546 0.07068991
000110 01 10 7a bd 53 4e aa bd c5 ad 96 3b 90 18 f2 3c
       -0.06105042 -0.083157204 0.0045983517 0.029552728
000120 5c 87 4c bd c5 85 9d bd 13 1e bc 3d df c2 fe bc
       -0.049933776 -0.0769153 0.09185424 -0.031098781
000130 05 7f 5b bd 19 d8 85 bc b6 62 43 bd 4b da 4b bd
       -0.053587932 -0.016338395 -0.04770156 -0.049768727
000140 42 e1 e8 bc 11 a7 b3 3d 17 37 13 bd 45 c6 a0 bd
       -0.028427724 0.087721 -0.03594121 -0.07850317
000150 e3 12 b1 bc 71 55 4f bd ea 99 f6 bd d5 71 cb bc
       -0.021615451 -0.050618593 -0.120410755 -0.024834553
000160 00 3d bd 3c ba 82 dc bd b9 49 a6 3d f0 e7 1e bd
       0.023100376 -0.107671216 0.0811953 -0.03879541
000170 0d 01 0a bd 3a 32 9c bd 90 11 e2 bc 96 0e 6b bd
       -0.03369241 -0.076267675 -0.027596265 -0.057386957
000180 16 59 4a b9 4c 84 a5 3b df e3 88 bd b7 3f a3 bd
       -0.00019297408 0.0050511714 -0.06684088 -0.07971137
000190 d5 57 8a bd 65 4e b4 bd 27 22 04 bd 8a 1b 17 bd
       -0.06755034 -0.08804015 -0.032259133 -0.036891498
0001a0 6d 95 c1 bd 3f 45 6f bd c1 00 82 bd d8 3c 26 3d
       -0.09452329 -0.058415648 -0.063478 0.04058537
0001b0 77 ed b2 bc 54 7b 93 bd 2b 38 cd bc e9 b9 8f 3d
       -0.021841748 -0.07201257 -0.025051197 0.070178814
0001c0 99 8b bc ba 7a b8 c4 3d 60 6b 44 bd ac 2c ae bd
       -0.0014384865 0.096054986 -0.047953963 -0.08504614
0001d0 47 34 7b 3d f9 15 40 3c 03 10 18 3d 96 87 57 bd
       0.061329152 0.011723989 0.037124645 -0.05261954
0001e0 8b 25 5c bc 64 c0 87 bd a7 2f 5e bd e7 77 58 3d
       -0.013436685 -0.066284925 -0.054244664 0.052848723
0001f0 30 bb 5f 3d c9 25 b2 bd 39 44 bd bd 75 d7 c4 bc
       0.054621875 -0.08698613 -0.09241528 -0.02402852

bn3.weight f4 [128]
000000 40 cb 96 3e a0 a6 16 3d cf ad 0a 3f 99 2f 2e 3f
       0.29451942 0.03678 0.5417146 0.6804138
000010 78 64 a1 3d 08 da 9b 3d 5d f2 65 3f 10 9e 04 3f
       0.07880491 0.076099455 0.8982294 0.51803684
000020 74 40 26 3e 38 89 7f 3f 64 79 6e 3f ba 94 9c 3e
       0.16235524 0.99818754 0.9315398 0.3058222
000030 c0 f1 06 3f f4 78 68 3e f7 f6 26 3f 27 a9 46 3f
       0.5271263 0.2270239 0.6522059 0.77601856
000040 56 0b 5b 3f 02 e5 74 3f 65 49 13 3f c0 fa 06 3e
       0.8556417 0.9566194 0.57533866 0.13181591
000050 c0 9f ae 3c 13 7b 19 3f c7 86 3a 3f 38 4e 4f 3e
       0.02131641 0.5995342 0.72861904 0.20244682
000060 e2 95 08 3f f0 dc 83 3d 83 dd 2a 3f 4a 5a 2a 3f
       0.53353703 0.06438625 0.6674425 0.6654402
000070 00 9e 3d 3c d8 01 bc 3e b0 b0 9f 3d bc ac 1c 3e
       0.011573315 0.36720157 0.07797372 0.15300268
000080 a8 bb 49 3e 36 ff 54 3f dc c1 8a 3e ae 97 f0 3e
       0.19700491 0.8320192 0.27101028 0.46990722
000090 b0 cb 77 3f f0 c7 5d 3d 49 20 40 3f 42 24 e7 3e
       0.9679518 0.054145753 0.75049263 0.4514485
0000a0 71 5b 03 3f da 8c 5a 3f 00 91 ee 3c 9d e4 31 3f
       0.51311404 0.8537117 0.029121876 0.6948946
0000b0 5c 25 40 3f c2 67 d3 3e b1 fc 10 3f 68 35 5a 3f
       0.75057006 0.41290098 0.56635576 0.8523774
0000c0 d4 b3 27 3e b6 60 6b 3f b0 ae 1e 3e 7c bb 42 3f
       0.16377193 0.91944444 0.15496325 0.7606733
0000d0 92 70 67 3f ce 19 29 3f 10 38 93 3d e8 f3 7e 3f
       0.90406144 0.66055 0.071884274 0.9959092
0000e0 8a b2 1c 3f b2 31 b5 3e 46 fd 50 3f 9c 74 57 3f
       0.6120993 0.35389477 0.81636465 0.84162307
0000f0 35 5c 29 3f e0 6e d8 3d 90 0d 17 3f ce 2d 88 3e
       0.6615632 0.10568023 0.5900507 0.26597446
000100 54 a1 5e 3e 56 5c 76 3f f4 a0 62 3e e0 b7 14 3e
       0.2174123 0.96234643 0.22131711 0.14523268
000110 a4 a5 ae 3e 80 50 7e 3f 90 47 aa 3e 88 4b e1 3d
       0.3411075 0.99341583 0.33257723 0.110007346
000120 08 75 6a 3e ec 3a 57 3e f6 af 31 3f 09 bc 37 3f
       0.22896206 0.2101857 0.6940912 0.71771294
000130 23 4d 47 3f 4d 3f 04 3f 50 2b bc 3d e8 66 26 3e
       0.77852076 0.5165909 0.09187949 0.16250193
000140 5c d6 3e 3f c0 9a 22 3d 95 47 18 3f 00 70 29 3e
       0.74545836 0.039698362 0.59484226 0.16546631
000150 a6 8d e2 3e 90 c3 ac 3e 22 dd 48 3f ba 63 10 3f
       0.44248694 0.33742952 0.7846242 0.5640217
000160 60 a1 06 3e cc 5c 30 3e 94 7a eb 3e f4 b5 36 3f
       0.13147497 0.17222899 0.45991957 0.7137139
000170 da 70 be 3e 18 47 95 3e 28 78 98 3d e4 17 23 3f
       0.37195474 0.29155803 0.07444793 0.6370833
000180 a9 4e 58 3f 74 6b 00 3f 48 da 05 3f 08 63 11 3e
       0.84495026 0.5016396 0.52286196 0.14197934
000190 dc f9 55 3e 90 e7 9f 3d b0 ad f1 3e 48 57 d1 3d
       0.20896095 0.07807839 0.47202826 0.10221726
0001a0 a8 0d 7c 3e 9a 72 1f 3f 48 29 2d 3e 25 24 45 3f
       0.24614584 0.62284243 0.16910279 0.7700828
0001b0 2a 78 63 3f fe 5e 31 3f cf a4 44 3f 44 c2 38 3e
       0.8885523 0.6928557 0.7681398 0.18042856
0001c0 68 61 37 3f 8f 34 12 3f e2 09 d7 3e e0 37 e3 3e
       0.71633005 0.5711145 0.41999727 0.44378567
0001d0 00 e2 66 3e 69 96 0c 3f 00 be 0b 3d b8 75 39 3e
       0.2254715 0.5491701 0.034116745 0.18111312
0001e0 77 4f 25 3f d6 7e 1b 3f 46 e5 ec 3e c0 31 94 3c
       0.6457438 0.6074041 0.46268672 0.018090129
0001f0 f4 61 23 3e 00 62 7d 3d 20 f1 77 3f 34 6b 06 3e
       0.15955335 0.06186104 0.968523 0.13126832

bn3.bias f4 [128]
000000 00 00 00 00 00 00 00 00 00 00 00 00 00 00 00 00
       0.0 0.0 0.0 0.0
000010 00 00 00 00 00 00 00 00 00 00 00 00 00 00 00 00
       0.0 0.0 0.0 0.0
000020 00 00 00 00 00 00 00 00 00 00 00 00 00 00 00 00
       0.0 0.0 0.0 0.0
000030 00 00 00 00 00 00 00 00 00 00 00 00 00 00 00 00
       0.0 0.0 0.0 0.0
000040 00 00 00 00 00 00 00 00 00 00 00 00 00 00 00 00
       0.0 0.0 0.0 0.0
000050 00 00 00 00 00 00 00 00 00 00 00 00 00 00 00 00
       0.0 0.0 0.0 0.0
000060 00 00 00 00 00 00 00 00 00 00 00 00 00 00 00 00
       0.0 0.0 0.0 0.0
000070 00 00 00 00 00 00 00 00 00 00 00 00 00 00 00 00
       0.0 0.0 0.0 0.0
000080 00 00 00 00 00 00 00 00 00 00 00 00 00 00 00 00
       0.0 0.0 0.0 0.0
000090 00 00 00 00 00 00 00 00 00 00 00 00 00 00 00 00
       0.0 0.0 0.0 0.0
0000a0 00 00 00 00 00 00 00 00 00 00 00 00 00 00 00 00
       0.0 0.0 0.0 0.0
0000b0 00 00 00 00 00 00 00 00 00 00 00 00 00 00 00 00
       0.0 0.0 0.0 0.0
0000c0 00 00 00 00 00 00 00 00 00 00 00 00 00 00 00 00
       0.0 0.0 0.0 0.0
0000d0 00 00 00 00 00 00 00 00 00 00 00 00 00 00 00 00
       0.0 0.0 0.0 0.0
0000e0 00 00 00 00 00 00 00 00 00 00 00 00 00 00 00 00
       0.0 0.0 0.0 0.0
0000f0 00 00 00 00 00 00 00 00 00 00 00 00 00 00 00 00
       0.0 0.0 0.0 0.0
000100 00 00 00 00 00 00 00 00 00 00 00 00 00 00 00 00
       0.0 0.0 0.0 0.0
000110 00 00 00 00 00 00 00 00 00 00 00 00 00 00 00 00
       0.0 0.0 0.0 0.0
000120 00 00 00 00 00 00 00 00 00 00 00 00 00 00 00 00
       0.0 0.0 0.0 0.0
000130 00 00 00 00 00 00 00 00 00 00 00 00 00 00 00 00
       0.0 0.0 0.0 0.0
000140 00 00 00 00 00 00 00 00 00 00 00 00 00 00 00 00
       0.0 0.0 0.0 0.0
000150 00 00 00 00 00 00 00 00 00 00 00 00 00 00 00 00
       0.0 0.0 0.0 0.0
000160 00 00 00 00 00 00 00 00 00 00 00 00 00 00 00 00
       0.0 0.0 0.0 0.0
000170 00 00 00 00 00 00 00 00 00 00 00 00 00 00 00 00
       0.0 0.0 0.0 0.0
000180 00 00 00 00 00 00 00 00 00 00 00 00 00 00 00 00
       0.0 0.0 0.0 0.0
000190 00 00 00 00 00 00 00 00 00 00 00 00 00 00 00 00
       0.0 0.0 0.0 0.0
0001a0 00 00 00 00 00 00 00 00 00 00 00 00 00 00 00 00
       0.0 0.0 0.0 0.0
0001b0 00 00 00 00 00 00 00 00 00 00 00 00 00 00 00 00
       0.0 0.0 0.0 0.0
0001c0 00 00 00 00 00 00 00 00 00 00 00 00 00 00 00 00
       0.0 0.0 0.0 0.0
0001d0 00 00 00 00 00 00 00 00 00 00 00 00 00 00 00 00
       0.0 0.0 0.0 0.0
0001e0 00 00 00 00 00 00 00 00 00 00 00 00 00 00 00 00
       0.0 0.0 0.0 0.0
0001f0 00 00 00 00 00 00 00 00 00 00 00 00 00 00 00 00
       0.0 0.0 0.0 0.0

bn3.running_mean f4 [128]
000000 00 00 00 00 00 00 00 00 00 00 00 00 00 00 00 00
       0.0 0.0 0.0 0.0
000010 00 00 00 00 00 00 00 00 00 00 00 00 00 00 00 00
       0.0 0.0 0.0 0.0
000020 00 00 00 00 00 00 00 00 00 00 00 00 00 00 00 00
       0.0 0.0 0.0 0.0
000030 00 00 00 00 00 00 00 00 00 00 00 00 00 00 00 00
       0.0 0.0 0.0 0.0
000040 00 00 00 00 00 00 00 00 00 00 00 00 00 00 00 00
       0.0 0.0 0.0 0.0
000050 00 00 00 00 00 00 00 00 00 00 00 00 00 00 00 00
       0.0 0.0 0.0 0.0
000060 00 00 00 00 00 00 00 00 00 00 00 00 00 00 00 00
       0.0 0.0 0.0 0.0
000070 00 00 00 00 00 00 00 00 00 00 00 00 00 00 00 00
       0.0 0.0 0.0 0.0
000080 00 00 00 00 00 00 00 00 00 00 00 00 00 00 00 00
       0.0 0.0 0.0 0.0
000090 00 00 00 00 00 00 00 00 00 00 00 00 00 00 00 00
       0.0 0.0 0.0 0.0
0000a0 00 00 00 00 00 00 00 00 00 00 00 00 00 00 00 00
       0.0 0.0 0.0 0.0
0000b0 00 00 00 00 00 00 00 00 00 00 00 00 00 00 00 00
       0.0 0.0 0.0 0.0
0000c0 00 00 00 00 00 00 00 00 00 00 00 00 00 00 00 00
       0.0 0.0 0.0 0.0
0000d0 00 00 00 00 00 00 00 00 00 00 00 00 00 00 00 00
       0.0 0.0 0.0 0.0
0000e0 00 00 00 00 00 00 00 00 00 00 00 00 00 00 00 00
       0.0 0.0 0.0 0.0
0000f0 00 00 00 00 00 00 00 00 00 00 00 00 00 00 00 00
       0.0 0.0 0.0 0.0
000100 00 00 00 00 00 00 00 00 00 00 00 00 00 00 00 00
       0.0 0.0 0.0 0.0
000110 00 00 00 00 00 00 00 00 00 00 00 00 00 00 00 00
       0.0 0.0 0.0 0.0
000120 00 00 00 00 00 00 00 00 00 00 00 00 00 00 00 00
       0.0 0.0 0.0 0.0
000130 00 00 00 00 00 00 00 00 00 00 00 00 00 00 00 00
       0.0 0.0 0.0 0.0
000140 00 00 00 00 00 00 00 00 00 00 00 00 00 00 00 00
       0.0 0.0 0.0 0.0
000150 00 00 00 00 00 00 00 00 00 00 00 00 00 00 00 00
       0.0 0.0 0.0 0.0
000160 00 00 00 00 00 00 00 00 00 00 00 00 00 00 00 00
       0.0 0.0 0.0 0.0
000170 00 00 00 00 00 00 00 00 00 00 00 00 00 00 00 00
       0.0 0.0 0.0 0.0
000180 00 00 00 00 00 00 00 00 00 00 00 00 00 00 00 00
       0.0 0.0 0.0 0.0
000190 00 00 00 00 00 00 00 00 00 00 00 00 00 00 00 00
       0.0 0.0 0.0 0.0
0001a0 00 00 00 00 00 00 00 00 00 00 00 00 00 00 00 00
       0.0 0.0 0.0 0.0
0001b0 00 00 00 00 00 00 00 00 00 00 00 00 00 00 00 00
       0.0 0.0 0.0 0.0
0001c0 00 00 00 00 00 00 00 00 00 00 00 00 00 00 00 00
       0.0 0.0 0.0 0.0
0001d0 00 00 00 00 00 00 00 00 00 00 00 00 00 00 00 00
       0.0 0.0 0.0 0.0
0001e0 00 00 00 00 00 00 00 00 00 00 00 00 00 00 00 00
       0.0 0.0 0.0 0.0
0001f0 00 00 00 00 00 00 00 00 00 00 00 00 00 00 00 00
       0.0 0.0 0.0 0.0

bn3.running_var f4 [128]
000000 00 00 80 3f 00 00 80 3f 00 00 80 3f 00 00 80 3f
       1.0 1.0 1.0 1.0
000010 00 00 80 3f 00 00 80 3f 00 00 80 3f 00 00 80 3f
       1.0 1.0 1.0 1.0
000020 00 00 80 3f 00 00 80 3f 00 00 80 3f 00 00 80 3f
       1.0 1.0 1.0 1.0
000030 00 00 80 3f 00 00 80 3f 00 00 80 3f 00 00 80 3f
       1.0 1.0 1.0 1.0
000040 00 00 80 3f 00 00 80 3f 00 00 80 3f 00 00 80 3f
       1.0 1.0 1.0 1.0
000050 00 00 80 3f 00 00 80 3f 00 00 80 3f 00 00 80 3f
       1.0 1.0 1.0 1.0
000060 00 00 80 3f 00 00 80 3f 00 00 80 3f 00 00 80 3f
       1.0 1.0 1.0 1.0
000070 00 00 80 3f 00 00 80 3f 00 00 80 3f 00 00 80 3f
       1.0 1.0 1.0 1.0
000080 00 00 80 3f 00 00 80 3f 00 00 80 3f 00 00 80 3f
       1.0 1.0 1.0 1.0
000090 00 00 80 3f 00 00 80 3f 00 00 80 3f 00 00 80 3f
       1.0 1.0 1.0 1.0
0000a0 00 00 80 3f 00 00 80 3f 00 00 80 3f 00 00 80 3f
       1.0 1.0 1.0 1.0
0000b0 00 00 80 3f 00 00 80 3f 00 00 80 3f 00 00 80 3f
       1.0 1.0 1.0 1.0
0000c0 00 00 80 3f 00 00 80 3f 00 00 80 3f 00 00 80 3f
       1.0 1.0 1.0 1.0
0000d0 00 00 80 3f 00 00 80 3f 00 00 80 3f 00 00 80 3f
       1.0 1.0 1.0 1.0
0000e0 00 00 80 3f 00 00 80 3f 00 00 80 3f 00 00 80 3f
       1.0 1.0 1.0 1.0
0000f0 00 00 80 3f 00 00 80 3f 00 00 80 3f 00 00 80 3f
       1.0 1.0 1.0 1.0
000100 00 00 80 3f 00 00 80 3f 00 00 80 3f 00 00 80 3f
       1.0 1.0 1.0 1.0
000110 00 00 80 3f 00 00 80 3f 00 00 80 3f 00 00 80 3f
       1.0 1.0 1.0 1.0
000120 00 00 80 3f 00 00 80 3f 00 00 80 3f 00 00 80 3f
       1.0 1.0 1.0 1.0
000130 00 00 80 3f 00 00 80 3f 00 00 80 3f 00 00 80 3f
       1.0 1.0 1.0 1.0
000140 00 00 80 3f 00 00 80 3f 00 00 80 3f 00 00 80 3f
       1.0 1.0 1.0 1.0
000150 00 00 80 3f 00 00 80 3f 00 00 80 3f 00 00 80 3f
       1.0 1.0 1.0 1.0
000160 00 00 80 3f 00 00 80 3f 00 00 80 3f 00 00 80 3f
       1.0 1.0 1.0 1.0
000170 00 00 80 3f 00 00 80 3f 00 00 80 3f 00 00 80 3f
       1.0 1.0 1.0 1.0
000180 00 00 80 3f 00 00 80 3f 00 00 80 3f 00 00 80 3f
       1.0 1.0 1.0 1.0
000190 00 00 80 3f 00 00 80 3f 00 00 80 3f 00 00 80 3f
       1.0 1.0 1.0 1.0
0001a0 00 00 80 3f 00 00 80 3f 00 00 80 3f 00 00 80 3f
       1.0 1.0 1.0 1.0
0001b0 00 00 80 3f 00 00 80 3f 00 00 80 3f 00 00 80 3f
       1.0 1.0 1.0 1.0
0001c0 00 00 80 3f 00 00 80 3f 00 00 80 3f 00 00 80 3f
       1.0 1.0 1.0 1.0
0001d0 00 00 80 3f 00 00 80 3f 00 00 80 3f 00 00 80 3f
       1.0 1.0 1.0 1.0
0001e0 00 00 80 3f 00 00 80 3f 00 00 80 3f 00 00 80 3f
       1.0 1.0 1.0 1.0
0001f0 00 00 80 3f 00 00 80 3f 00 00 80 3f 00 00 80 3f
       1.0 1.0 1.0 1.0
