mode_weights/agent1_critic_target.pth (torch_old, 93523 bytes, 17 tensors)

bn1.weight f4 [33]
000000 c3 15 fe 3e 5a aa 44 3f a8 33 b5 3d 00 33 07 3e
       0.49625978 0.76822436 0.08847743 0.13203049
000010 86 66 9d 3e fb 52 22 3f 86 ed fa 3e 67 7d 65 3f
       0.30742282 0.6340787 0.4900934 0.89644474
000020 12 48 e9 3e d3 de 21 3f 2a a2 b2 3e e4 ad cd 3e
       0.45562798 0.6323063 0.34889346 0.4017173
000030 80 e4 b6 3c 5c e9 2c 3e 8c 78 96 3e d8 bd 04 3f
       0.022325754 0.16885895 0.29388845 0.5185218
000040 58 9a 32 3f 8c cd 4c 3f 70 e5 24 3e 82 85 90 3e
       0.6976676 0.8000114 0.16103148 0.28226858
000050 e6 7d 2e 3f 27 4a 6a 3f ae 50 cb 3e ae c8 5f 3f
       0.68160856 0.915194 0.3970999 0.8741559
000060 b0 bc d6 3e 51 8b 0d 3f a5 e6 73 3f 90 21 14 3d
       0.41940832 0.55290705 0.9527381 0.03616482
000070 45 ad 3d 3e 90 30 bf 3e 12 36 9c 3e 94 97 6e 3f
       0.18523128 0.37341738 0.30510002 0.9320004
000080 cc 21 34 3e
       0.17591017

bn1.bias f4 [33]
000000 00 00 00 00 00 00 00 00 00 00 00 00 00 00 00 00
       0.0 0.0 0.0 0.0
000010 00 00 00 00 00 00 00 00 00 00 00 00 00 00 00 00
       0.0 0.0 0.0 0.0
000020 00 00 00 00 00 00 00 00 00 00 00 00 00 00 00 00
       0.0 0.0 0.0 0.0
000030 00 00 00 00 00 00 00 00 00 00 00 00 00 00 00 00
       0.0 0.0 0.0 0.0
000040 00 00 00 00 00 00 00 00 00 00 00 00 00 00 00 00
       0.0 0.0 0.0 0.0
000050 00 00 00 00 00 00 00 00 00 00 00 00 00 00 00 00
       0.0 0.0 0.0 0.0
000060 00 00 00 00 00 00 00 00 00 00 00 00 00 00 00 00
       0.0 0.0 0.0 0.0
000070 00 00 00 00 00 00 00 00 00 00 00 00 00 00 00 00
       0.0 0.0 0.0 0.0
000080 00 00 00 00
       0.0

bn1.running_mean f4 [33]
000000 00 00 00 00 00 00 00 00 00 00 00 00 00 00 00 00
       0.0 0.0 0.0 0.0
000010 00 00 00 00 00 00 00 00 00 00 00 00 00 00 00 00
       0.0 0.0 0.0 0.0
000020 00 00 00 00 00 00 00 00 00 00 00 00 00 00 00 00
       0.0 0.0 0.0 0.0
000030 00 00 00 00 00 00 00 00 00 00 00 00 00 00 00 00
       0.0 0.0 0.0 0.0
000040 00 00 00 00 00 00 00 00 00 00 00 00 00 00 00 00
       0.0 0.0 0.0 0.0
000050 00 00 00 00 00 00 00 00 00 00 00 00 00 00 00 00
       0.0 0.0 0.0 0.0
000060 00 00 00 00 00 00 00 00 00 00 00 00 00 00 00 00
       0.0 0.0 0.0 0.0
000070 00 00 00 00 00 00 00 00 00 00 00 00 00 00 00 00
       0.0 0.0 0.0 0.0
000080 00 00 00 00
       0.0

bn1.running_var f4 [33]
000000 00 00 80 3f 00 00 80 3f 00 00 80 3f 00 00 80 3f
       1.0 1.0 1.0 1.0
000010 00 00 80 3f 00 00 80 3f 00 00 80 3f 00 00 80 3f
       1.0 1.0 1.0 1.0
000020 00 00 80 3f 00 00 80 3f 00 00 80 3f 00 00 80 3f
       1.0 1.0 1.0 1.0
000030 00 00 80 3f 00 00 80 3f 00 00 80 3f 00 00 80 3f
       1.0 1.0 1.0 1.0
000040 00 00 80 3f 00 00 80 3f 00 00 80 3f 00 00 80 3f
       1.0 1.0 1.0 1.0
000050 00 00 80 3f 00 00 80 3f 00 00 80 3f 00 00 80 3f
       1.0 1.0 1.0 1.0
000060 00 00 80 3f 00 00 80 3f 00 00 80 3f 00 00 80 3f
       1.0 1.0 1.0 1.0
000070 00 00 80 3f 00 00 80 3f 00 00 80 3f 00 00 80 3f
       1.0 1.0 1.0 1.0
000080 00 00 80 3f
       1.0

fcs1.weight f4 [128, 33]
000000 ac 3a e8 39 9b 0f 92 39 80 6b b8 3a 25 76 1e b9
       0.00044294202 0.00027858917 0.0014070123 -0.00015112066
000010 ed 0d 40 b8 42 5e 19 b9 fe 31 6f 39 c0 30 92 38
       -4.5789337e-05 -0.00014626331 0.0002281144 6.970903e-05
000020 63 c8 43 b9 f0 98 2a b9 82 de e0 b9 be a1 e2 b7
       -0.00018671299 -0.00016269437 -0.0004289039 -2.7016617e-05
000030 41 59 a2 3a 54 da 9c 3a 28 de 31 ba 1f e9 4c 3b
       0.0012386219 0.0011966922 -0.0006785118 0.003126688
000040 a3 a5 70 b8 a5 77 82 39 cc f2 76 37 1b 0b 5e 38
       -5.737472e-05 0.00024884674 1.4719273e-05 5.2939267e-05
000050 9b 69 4f bb 99 75 45 39 c4 50 08 bb d1 36 13 3a
       -0.003164864 0.00018831193 -0.0020800093 0.0005615773
000060 44 50 a4 3a 6e 93 57 ba 9b 03 ef 3a f3 1c ef 38
       0.0012536128 -0.0008223568 0.0018235327 0.000114018
000070 a1 8c 46 3b 8c 0f 00 80 f3 1c ef b8 1c 11 00 00
       0.0030296224 -5.577e-42 -0.000114018 6.138e-42
000080 83 f0 7c 39 4f 4d 1c 3d d7 cc b5 3c 49 fd 95 3c
       0.0002412219 0.038159665 0.022192402 0.018309252
000090 e4 b7 a8 bc 28 7a e5 bc 69 44 66 3b ae 3b 03 bd
       -0.020595498 -0.02801235 0.003513599 -0.032039337
0000a0 95 11 bd bb ae ea 14 3d ba 13 4b bb 5d 1e 38 3b
       -0.005769918 0.03635662 -0.00309871 0.002809427
0000b0 8c 49 9f bb 84 3e db b8 64 a3 6a bd da 97 4e bc
       -0.0048610624 -0.00010454378 -0.057284728 -0.012609446
0000c0 56 4d da bc 3d 4e 4b bb a8 78 f1 3b 6b f8 0b 3a
       -0.026648205 -0.0031021975 0.0073691197 0.00053394464
0000d0 34 e5 ac 3c 2d 3a d4 3a a1 3e 40 bb c5 f3 59 bc
       0.021105386 0.0016191654 -0.0029334205 -0.013302748
0000e0 83 9f 78 bc d3 23 1e 3b 85 f0 20 bc 4c 75 b2 3c
       -0.015174749 0.002413024 -0.009822969 0.021784447
0000f0 02 58 87 3d 7d a2 2f 3d 88 3b 00 00 12 a9 87 bd
       0.06608583 0.04287957 2.1356e-41 -0.066240445
000100 74 13 00 80 65 20 87 3e 24 42 6f bc 67 51 09 bd
       -6.978e-42 0.26391903 -0.0146031715 -0.033524897
000110 06 39 a6 bb 13 96 7e bb 2b d6 0d 3c 9e 4e d2 3c
       -0.0050727157 -0.0038846775 0.008657019 0.025672253
000120 69 4b 01 bd 76 45 35 bc 46 dd ae 3a e3 c0 2d bd
       -0.031566057 -0.011063924 0.0013341091 -0.04242028
000130 48 49 c8 3c f2 6b 92 3c 5d 23 c0 3c a3 0c 8a 3d
       0.024449006 0.017873738 0.023454363 0.067406915
000140 12 d5 79 bb 85 e8 f4 bc d1 77 ae bc 9d cf 36 bc
       -0.0038121385 -0.02989603 -0.021297367 -0.011157897
000150 79 21 40 bd f9 b0 50 bd c0 29 a2 3a 57 c7 80 3c
       -0.046906922 -0.050950024 0.0012372062 0.015720053
000160 e3 7f 6e 3c 0c e3 83 3d e5 12 a3 bc bb 2a 8d ba
       0.014556858 0.0643979 -0.01990647 -0.0010770181
000170 0e 96 e3 3c 98 cd 70 3d 08 c8 05 bc d1 34 00 80
       0.027781513 0.05878982 -0.008165367 -1.8947e-41
000180 58 02 71 bd 34 0d 00 00 aa 43 a2 bc e9 48 0d 3e
       -0.058840126 4.736e-42 -0.019807655 0.13797344
000190 8a d7 08 bd 7c 57 9f bc 92 1f 99 bc c1 59 84 bb
       -0.03340868 -0.019450895 -0.018691812 -0.00403902
0001a0 91 8e 07 3d 25 53 92 3c b3 9b 02 bc 38 62 d8 3c
       0.033094946 0.017861912 -0.007971692 0.026414022
0001b0 56 b0 eb bc c0 44 57 3c 6b 0e f6 3c 41 69 a0 3c
       -0.028770607 0.01313895 0.030036172 0.019581439
0001c0 e4 03 ce bc c8 ad 41 3d 16 a7 b2 3c d2 38 14 bb
       -0.02514834 0.04728487 0.021808188 -0.0022616875
0001d0 75 42 0a 3c 5f 7f 4d bb a6 a8 d0 ba 5c 52 53 3c
       0.008438696 -0.0031356437 -0.0015919402 0.012898054
0001e0 cf ee 44 3d ee a7 94 3c 96 ec 75 bc 4f f8 c4 bc
       0.048079308 0.018146481 -0.01501002 -0.024044184
0001f0 e8 69 de bc f3 f6 49 bd e0 9f 73 3c d3 33 1c bc
       -0.02715011 -0.049307775 0.01486966 -0.00953384
000200 54 38 00 00 de 57 85 bc c6 0c 00 00 88 d4 80 3d
       2.0207e-41 -0.01627725 4.582e-42 0.06290537
000210 30 5e 6b 38 04 27 b9 39 07 f8 d4 b9 bd ec 9c b8
       5.6116085e-05 0.0003531502 -0.00040620586 -7.4827556e-05
000220 bf b4 e2 38 3f ce ff 38 d9 b3 f2 b7 f0 93 68 39
       0.00010810186 0.00012197764 -2.8932396e-05 0.00022180355
000230 ee 64 22 36 a2 40 2d b9 6f d0 87 ba 4f c0 24 ba
       2.419863e-06 -0.00016522643 -0.0010361801 -0.000628476
000240 41 4d a1 b9 5a a3 1e 3a 77 5b 73 b9 0d c5 80 ba
       -0.00030765872 0.0006051563 -0.00023208359 -0.0009824351
000250 2c 07 4c b8 8c 72 5c b9 3d 37 dd b5 33 75 df 37
       -4.864407e-05 -0.00021023507 -1.648186e-06 2.6638247e-05
000260 68 ae 02 3b 57 b7 a1 3a e9 c7 b0 b9 30 d4 95 ba
       0.001994038 0.0012337965 -0.0003371828 -0.0011431035
000270 9c 83 cf 3a 15 1d 81 ba f4 9f 1e 3a 5a 70 0e 39
       0.0015832069 -0.0009850586 0.00060510566 0.0001358403
000280 2f 9d ff ba 73 0b 00 00 5a 70 0e b9 7c 15 00 80
       -0.00195018 4.107e-42 -0.0001358403 -7.707e-42
000290 41 56 9c 37 39 0e a2 bd bb b3 b9 bc fe b4 0f bd
       1.8636814e-05 -0.07912869 -0.02266871 -0.035084717
0002a0 da 4e 79 ba 61 c6 05 3b 36 a8 f5 3c 22 97 3e 3d
       -0.0009510346 0.0020412432 0.029987436 0.04653085
0002b0 f1 b1 8c bb 8b 9c 79 bd 30 ea e4 bc 8f bc d3 3a
       -0.004293673 -0.060940307 -0.0279437 0.0016154217
0002c0 2a f2 60 bc 48 8c 0b 3b 28 b8 d8 3d 27 d0 10 3d
       -0.013729611 0.002129333 0.10582 0.03535476
0002d0 40 9f 9a 3d f3 c5 6f 3b 8e 14 f2 bb 5e 38 b6 bb
       0.07549906 0.0036586493 -0.007387704 -0.0055609187
0002e0 db 2a 3d 3b 3e 74 13 bb c7 3a 0f bc 6c 1e 01 3b
       0.0028864655 -0.0022499706 -0.008742041 0.001970197
0002f0 ac 29 67 3c 65 57 b8 39 df 0e 79 3c 1d 38 34 bd
       0.014109056 0.0003516033 0.015201299 -0.043998826
000300 e4 7e eb bb 12 d1 3c bd c5 09 00 00 82 98 83 bb
       -0.0071867574 -0.046097822 3.505e-42 -0.004015983
000310 05 0b 00 00 e4 55 a7 3b 86 64 5b bd 1e d8 19 3d
       3.953e-42 0.0051066745 -0.053562663 0.03755962
000320 23 cf c2 3d 5b 8c 2a 3c db 47 e1 3c 25 3b 9b 3c
       0.095121644 0.01040944 0.027500084 0.0189491
000330 f9 70 29 bc cf 0a 14 3d 1d f7 9a bb 6a bb a2 bb
       -0.010341876 0.03614312 -0.004729165 -0.004966189
000340 3d 69 78 bb 84 95 78 bc 0f ea 95 3c 5e a9 08 3d
       -0.0037904524 -0.015172366 0.018300084 0.033364646
000350 5f 6d bc bd b4 ec 35 bd 71 78 84 3d 93 8c ff 3b
       -0.092005484 -0.04441519 0.06468285 0.00779874
000360 41 ca c3 bc 6e 95 03 bc 8d cf d0 3a 53 e5 2a bc
       -0.023900153 -0.008031232 0.0015930996 -0.010430652
000370 2a e6 a4 3b cf 54 1b ba 4b b1 73 bc c3 01 26 bd
       0.0050323205 -0.0005925418 -0.014873813 -0.040529024
000380 a7 bd 7e bb af 16 c9 3c 3c 1f a6 bc 9b 15 00 80
       -0.0038870366 0.02454695 -0.020278566 -7.75e-42
000390 a7 c1 c8 bc a8 0c 00 00 44 7e 0a 3e 3b 69 86 3d
       -0.024506403 4.54e-42 0.13524729 0.0656304
0003a0 32 ce 2c 3d ef 1c dc bc b2 61 37 3c cf 17 11 3c
       0.04218883 -0.026869265 0.011192726 0.008855774
0003b0 c8 0f 89 ba 96 bf ea 3c 23 34 f2 39 8c a6 7e 3c
       -0.0010456974 0.028655808 0.00046196682 0.015542638
0003c0 12 dc de 39 e5 72 b8 3b a7 cd be 3b 9f 6e 8a bb
       0.00042507105 0.005628931 0.0058228555 -0.004224613
0003d0 10 02 ce bd c4 48 d3 bc c2 eb 31 3d 2f c6 69 ba
       -0.10058987 -0.025791533 0.043437727 -0.0008917776
0003e0 da 23 8e bb 40 ab 8d bb 9c bc 7c 3b a0 86 40 bb
       -0.00433777 -0.004323393 0.0038564568 -0.0029377118
0003f0 4c 32 66 bb 3e 8d 53 bb 24 07 84 bc 65 dc 5f bb
       -0.0035125194 -0.0032280232 -0.016116686 -0.0034158465

fcs1.bias f4 [128]
000000 0e 1d ef b8 87 a1 86 bd c8 09 70 bd 27 cc ac bc
       -0.0001140182 -0.06573778 -0.058603078 -0.021093441
000010 59 70 0e b9 62 5e 80 3b 53 05 c8 bc 77 8d 63 3c
       -0.00013584028 0.0039175013 -0.024416601 0.013888708
000020 86 77 3f bd 22 45 a2 bd d2 5d 32 bd 1f 69 84 bd
       -0.046744846 -0.07923342 -0.043546505 -0.06465363
000030 0e 18 3f ba d1 70 ad bd e5 54 62 3d f8 c5 65 35
       -0.0007289656 -0.08468784 0.055256743 8.559723e-07
000040 8b 2e 78 3c 80 a2 ea bb aa b1 5a bc 19 a7 96 3b
       0.015147815 -0.007160485 -0.0133480225 0.0045975563
000050 27 6e bf bb 2a 8d f1 bc 00 aa aa bc 6e 62 5b bc
       -0.0058419886 -0.029486258 -0.020833015 -0.013390167
000060 d8 f3 5a bd 67 84 ad bc f5 6f ba bb ae bd 75 bc
       -0.053455204 -0.021181298 -0.005689616 -0.014998836
000070 c0 13 89 bd 42 3d 40 bd 24 d5 e0 3b 10 9a c1 bc
       -0.0669322 -0.04693342 0.006861346 -0.023633033
000080 40 3a 05 3d 4a f1 a8 ba 3a 92 1f 3c a6 f4 c5 bc
       0.032526255 -0.0012889293 0.009739453 -0.024164509
000090 82 c5 8a bd bd 9a 6a 39 83 49 57 bd db cd 79 bc
       -0.06775953 0.00022373624 -0.05256034 -0.015246834
0000a0 60 5c dc b9 b9 ee 4a bd a1 6c 45 bc 4b b5 90 bd
       -0.00042030495 -0.04954407 -0.012049825 -0.07065829
0000b0 e4 02 4e ba 45 b2 33 bc 67 38 88 bd c5 9c 4c bd
       -0.0007858707 -0.010967796 -0.06651383 -0.049954195
0000c0 87 53 7f bd 46 41 98 bb 16 68 d6 bc 4a 59 34 bd
       -0.062335517 -0.004646453 -0.026172679 -0.044030465
0000d0 cf 61 7c bd 8f fc 80 bd cc 94 94 bd 7b f2 36 bd
       -0.061616715 -0.06298172 -0.07254943 -0.04466484
0000e0 49 6d dd bc 8b 30 a0 bc 4c 57 af bc 8d b6 20 bd
       -0.02702965 -0.019554397 -0.021403931 -0.039236594
0000f0 31 41 cd bd 4e 36 52 bd 99 5c 67 bd a9 44 9e bd
       -0.100222 -0.05132132 -0.056484792 -0.0772794
000100 aa ca 80 bd 63 60 5d bc fb 6b c9 bc 02 30 47 bd
       -0.06288655 -0.01351175 -0.024587622 -0.04862977
000110 e7 d8 5a bd 3c 53 6c bd 16 a4 18 bd 2c 70 6d 3b
       -0.05342951 -0.057696566 -0.03726586 0.003623019
000120 fe 88 a9 bd 5d c8 95 bd dc 42 91 bd e1 77 4f bd
       -0.08278082 -0.07313607 -0.070928305 -0.050651435
000130 df 4f 66 bd 87 38 67 bd 68 c6 b5 bd 7c 09 10 bd
       -0.056228515 -0.056450393 -0.088757336 -0.035165295
000140 af 1e 49 bb 24 b3 2e bd 53 21 c5 bc e5 1c 8b bd
       -0.0030688455 -0.04265131 -0.024063742 -0.067926206
000150 97 5f 13 bd dc 67 66 3c 6a 85 c2 bd 03 2e 0a bd
       -0.035979833 0.014062848 -0.09498103 -0.033735286
000160 f8 fa 63 bd ba b8 93 bc 3a 04 2b bb fe 22 a5 bd
       -0.055659264 -0.01803242 -0.0026095049 -0.08063315
000170 9f 19 69 bc e6 44 6a bd 56 0f e6 bc bc bd a6 bc
       -0.0142273 -0.057194613 -0.028083485 -0.020354144
000180 27 d7 d2 bd a0 15 81 bd 12 d1 45 bd 9b 4b b4 bd
       -0.10294943 -0.06302953 -0.048295088 -0.08803483
000190 25 17 93 bd 6d 15 bb bd 3e 2b b4 bd a2 ea 3e bd
       -0.07182149 -0.09134946 -0.0879731 -0.046610482
0001a0 a4 ef e7 b9 4c a3 6f 3d 1b d9 42 bd 3c c5 9c 3b
       -0.000442383 0.05850534 -0.04757033 0.0047842544
0001b0 09 d2 7a 3d e5 30 49 bc ec 97 22 bc de 6c 23 bd
       0.06123546 -0.012279724 -0.009923916 -0.039898746
0001c0 7e bc b0 3c 23 a1 dd bc e2 b6 11 bd 18 6e c7 3c
       0.021574255 -0.027054375 -0.0355748 0.024344489
0001d0 45 fe 42 bd de 36 ce bd 23 2c 9d bc 6d cd b4 bd
       -0.04760577 -0.10069059 -0.019186085 -0.08828244
0001e0 30 f3 ff ba f2 36 62 bc 5c 79 6e bd 98 18 07 bd
       -0.0019527432 -0.013807045 -0.058221206 -0.03298244
0001f0 8b 9b 4b bd 6b c0 9a bd 78 36 9c bd 90 37 63 bc
       -0.049708884 -0.07556232 -0.076275766 -0.013868228

bn2.weight f4 [128]
000000 28 80 08 37 a8 de 15 3e 11 9e fb 3d 30 6c 5c 3e
       8.13607e-06 0.14635718 0.12286008 0.21525645
000010 07 c8 02 37 f2 23 8d 3e a0 7e 70 3e cf f9 8a 3e
       7.795176e-06 0.27566487 0.23485804 0.27143714
000020 00 be 5a 3e 04 f0 85 3e b6 d9 14 3e 50 ec c1 3d
       0.21361542 0.2615968 0.14536175 0.09468901
000030 30 df 6d b7 f4 c8 1c 3e de 4b 40 3e 89 ed 15 3e
       -1.4178266e-05 0.15311033 0.18778941 0.14641394
000040 6f 70 ed 3d 9a fb 8b 3e 20 10 a4 3e 53 03 0b 3f
       0.11593711 0.27340394 0.32043552 0.5430195
000050 e8 e4 c1 3e b9 f3 60 3e 62 30 13 3e 0c a1 ee 3d
       0.37869954 0.21967973 0.14373925 0.11651811
000060 9b fb 07 3e 9f e9 37 3e fd 9f 1c 3e cf 27 30 3e
       0.13279574 0.17960213 0.15295406 0.17202686
000070 57 01 e2 3d dc 3c 1f 3e 28 3c 2f 3e 19 f2 c4 3e
       0.11035412 0.1555056 0.17112792 0.38465956
000080 7f a9 a6 3e 38 fe 3a 3e 45 ef 53 3e 61 da 2c 3e
       0.3255119 0.1826104 0.20696743 0.1688018
000090 f9 e3 9f 3d 0f 91 06 3e 36 91 0f 3e 8e f5 6d 3e
       0.07807154 0.13141273 0.14020237 0.23238203
0000a0 70 a6 c8 b6 77 a9 dd 3d a4 15 96 3e 32 ae 67 3e
       -5.9798404e-06 0.108233385 0.29313385 0.22625044
0000b0 cc cb 07 3e 56 10 12 3f 6f 7d 42 3e 81 de 93 3e
       0.13261336 0.57056177 0.18993162 0.28880695
0000c0 ba b1 e2 3d ec c2 49 3e 6e c8 7e 3e 04 30 2c 3e
       0.11069055 0.19703263 0.24881145 0.16815192
0000d0 c3 96 d3 3d bd 93 24 3e 8f 05 9b 3e e6 4e 5d 3e
       0.1033149 0.16071983 0.30277678 0.21612129
0000e0 18 08 7a 3e ee 05 96 3e 79 15 76 3e ea 75 66 3e
       0.2441715 0.293014 0.24031629 0.22505918
0000f0 47 de 18 3e 10 95 cf 3d a3 17 5a 3e 6b 9a 03 3e
       0.14928542 0.10135853 0.21298079 0.12851875
000100 eb 7a 0d 3e 4b 48 7b 3e 55 61 5d 3e 17 d9 3b 3e
       0.1381642 0.24539296 0.2161916 0.18344532
000110 a2 17 08 3e a6 a7 67 3e 44 00 c6 3e 44 b4 88 3e
       0.13290265 0.22622547 0.38672078 0.26700032
000120 d9 cd 56 3e 8e cc 1b 3e 9b eb a0 3e 59 20 25 3e
       0.20976962 0.1521475 0.31429753 0.16125621
000130 38 ed 0e 3e 37 8c 7d 3e 0d be 09 3e 7b 8f ff 3d
       0.1395768 0.24760519 0.13451405 0.124785386
000140 59 f9 61 3e 73 71 86 3e 88 1a 29 3e 55 d5 6b 3e
       0.22067775 0.2625843 0.16514027 0.23030598
000150 82 28 bf 3e 38 b6 6e 3e d6 76 11 3e 95 04 7b 3e
       0.37335593 0.23311698 0.14205489 0.24513467
000160 ce 45 86 3e da 30 64 3e 27 cc c7 36 72 b8 25 3e
       0.26225132 0.2228426 5.9544286e-06 0.16183642
000170 28 3d 64 3e ba e4 7d 3e 03 6d e7 3e dc 27 54 3e
       0.22288954 0.24794284 0.45200357 0.2071833
000180 f7 cb 0b 3e 5a 11 c6 3d 5f c2 d6 3d d4 58 4e 3e
       0.13652025 0.09671278 0.10486292 0.20151073
000190 ab 09 95 3e 6a 4f 91 3d 95 8e d3 3d 6f e3 70 3e
       0.2910894 0.07095225 0.1032993 0.23524259
0001a0 4f 67 19 37 84 e4 d0 3e 37 eb bd 3d a4 6a 2a 3e
       9.143564e-06 0.40799344 0.09273379 0.16642243
0001b0 ca 95 14 3e 92 12 8b 3e f4 84 99 3e e7 9d d1 3d
       0.14510265 0.27162606 0.29984248 0.102351956
0001c0 43 6d 2f 3e 7a ea 79 3e fc 0c 8e 3e 5c 6a 95 3e
       0.17131524 0.24405852 0.2774428 0.29182708
0001d0 c0 86 33 3e 76 62 a3 3e ab ee 61 3e de 9c 90 3e
       0.17531872 0.31911057 0.22063701 0.2824468
0001e0 a4 5b b3 37 20 7a 06 3f b0 70 2f 3e 4a 08 5f 3e
       2.1381136e-05 0.525301 0.1713283 0.21780506
0001f0 16 92 8f 3e 92 6e 4b 3e 2d f0 d4 3e 25 df 08 3e
       0.28041142 0.19866398 0.4158949 0.13366373

bn2.bias f4 [128]
000000 10 e4 82 37 04 a1 8a bd 85 ca b1 3d 29 be bf 3d
       1.5603408e-05 -0.067689925 0.08681206 0.09362442
000010 bf ab ed 36 0e 9a 87 bd fe b1 04 bc b3 27 f8 bc
       7.0831443e-06 -0.066211805 -0.008099077 -0.030292368
000020 25 62 b0 bd a1 64 cb bb 68 1b ad bd a8 ca e8 bc
       -0.086124696 -0.0062070643 -0.08452493 -0.028416947
000030 a1 2d 8a 36 93 7c 8b bd 86 09 84 bd 28 6b 41 3d
       4.1180324e-06 -0.0681087 -0.06447129 0.047221333
000040 b1 dc d5 bd 07 01 13 bd 2f 79 b5 bd 7a a2 e9 bd
       -0.10442484 -0.03588965 -0.088610046 -0.11407943
000050 9e 84 8a 3d 59 47 d7 3d e8 3d 82 bd 22 d6 ca 3d
       0.06763576 0.10511655 -0.06359464 0.09904124
000060 f4 40 bf 3d 94 bd 21 3d e7 c7 41 bd f3 6d 52 3d
       0.09338561 0.039487436 -0.047309782 0.051374387
000070 d6 2f bc 3c ec a4 99 bd e1 82 62 bd 5e 67 17 3d
       0.022972029 -0.075021595 -0.055300597 0.036963813
000080 9d 36 10 be 92 14 62 3d 49 61 b0 bd aa 53 a8 3c
       -0.14083333 0.0551954 -0.08612306 0.020547707
000090 ab f3 0d bc fe cb b1 3d ab 02 ac bd 83 9d 87 bd
       -0.008664052 0.086814865 -0.083989464 -0.0662184
0000a0 5b d5 a9 34 77 34 62 bd f5 29 f5 3c d3 ff ea 3d
       3.163394e-07 -0.055225816 0.029927233 0.11474576
0000b0 f6 9b ef 3c 5e 86 dd bd 0b c5 c3 bd 7a 89 c9 bd
       0.029249173 -0.10816644 -0.09559067 -0.09840675
0000c0 d9 1e 18 3d 5c f7 79 3d 91 2f 9b bc dc b9 93 3d
       0.037138794 0.061026916 -0.01894358 0.07213184
0000d0 ea cf 9e 3d 05 47 e0 bd 5f f2 8d bd 31 1d f6 bc
       0.077545 -0.10951046 -0.06930994 -0.030043216
0000e0 e5 d7 db bb 6a 2b 43 bd 60 31 0f bd 07 2f 81 bc
       -0.0067090862 -0.047648825 -0.034959197 -0.015769495
0000f0 6d 76 b6 bd c3 63 e4 3b 56 4f 5d bc 7e 8a f4 bd
       -0.08909307 0.0069699003 -0.013507685 -0.11940478
000100 ac bb a3 bd 4b 37 b3 bd ee ef 8f 3d dc 72 0c 3d
       -0.0799478 -0.08750781 0.07028185 0.034289226
000110 2e e6 42 3d 3f cd 5e bc ca 10 a0 bd a0 f7 b0 bc
       0.047582798 -0.013598739 -0.07815702 -0.021602452
000120 97 07 80 bd 94 12 cc bd ce 5c 9a bd 7c 82 3f bd
       -0.06251448 -0.09964481 -0.07537232 -0.0467553
000130 6f 72 ae bd d7 79 bb 3b 47 df ed bc e6 6a 93 bd
       -0.0851792 0.0057213116 -0.029037131 -0.07198124
000140 4b ca 35 bd 90 1c 6f bd 64 fc 9a bd 7a 64 3a bd
       -0.044382375 -0.05837685 -0.07567671 -0.04550598
000150 ec 2f 97 3d 6f fc d3 3b 5b bb dd 3d a8 4c e7 bd
       0.07382187 0.0064693014 0.10826751 -0.11293918
000160 c9 dc d9 bc aa 7f 50 3d 7e f7 b1 b7 99 c5 90 bd
       -0.026594536 0.050903 -2.1215292e-05 -0.07068939
000170 95 27 6e 3d 40 00 81 3d ac 6b 24 bd cc ed 04 bd
       0.058143217 0.06298876 -0.040141746 -0.032453343
000180 4c e5 ec 3d f5 41 92 bd 30 d6 21 bd 5c 41 7a bd
       0.115671724 -0.071414866 -0.039510906 -0.061097488
000190 43 22 ab bd 9e c2 c7 bd 2c 4b 36 3c 3c 36 0e bd
       -0.08356144 -0.09753917 0.011126321 -0.03471969
0001a0 16 b2 54 37 f9 1e 80 3d 94 b8 b4 3d 79 ad 1c 3d
       1.2677649e-05 0.062559076 0.08824268 0.038251374
0001b0 68 8d 1f bd 5e 32 7b 3d 72 b4 50 bd 80 da 50 3d
       -0.038953215 0.06132733 -0.050953336 0.050989628
0001c0 67 48 dc 3d 7b 8f 1a 3c 4f 95 2a 3d 18 6f 32 bd
       0.10755997 0.0094336225 0.041646298 -0.04356298
0001d0 d6 e1 93 3d 83 72 b7 bd c4 6b 8c bd 3b 37 09 3e
       0.07220809 -0.08957388 -0.06856492 0.13399975
0001e0 48 ae 90 b6 f7 97 82 bd 2a ba 96 bd 8e 37 a3 bc
       -4.3118234e-06 -0.06376641 -0.07359727 -0.019923951
0001f0 5a 43 f5 bd a9 26 f3 bc 64 2c 80 bd 2b 78 af bd
       -0.11975737 -0.02968152 -0.06258467 -0.08567842

bn2.running_mean f4 [128]
000000 90 91 8e 3c 35 8d 57 3c 40 a5 47 3e b1 0f 91 3d
       0.017403394 0.013156225 0.19496632 0.07083071
000010 53 60 05 3c f4 54 15 3d c5 ba c2 3d 6a bd 81 3d
       0.008140641 0.03645797 0.0950828 0.06334956
000020 95 37 89 3c 34 03 1e 3a 33 23 8d 3c 6d 09 38 39
       0.016750136 0.0006027699 0.017228698 0.00017551119
000030 18 00 6e 3c 33 d9 10 3d ea ab 9e 3c e4 5c 5f 3d
       0.01452639 0.035363387 0.019369084 0.054531947
000040 87 6f 89 3c cf 3d 1c 3e af 81 24 3c 9b d3 c3 3d
       0.016776813 0.15257953 0.010040685 0.09561845
000050 05 d0 92 3e f1 4f ee 3d da 5b c3 3c 30 fd e8 3c
       0.2867433 0.11636341 0.02384751 0.028441042
000060 c0 e6 c0 3c 60 3b 74 3d 1c bc 29 3c bc cd e9 3c
       0.02354753 0.059626937 0.01035979 0.028540485
000070 89 e1 a5 3c fc 71 1e 3d 81 1e a0 3d 7c 5e 33 3e
       0.020249145 0.038682923 0.07818318 0.17516512
000080 e6 af 08 3e f8 da 01 3e 3a 39 b3 3e c5 19 03 3d
       0.1334835 0.12681186 0.35004598 0.032006998
000090 70 b8 72 39 cc 04 af 3d 40 29 f5 3c 55 c9 5a 3e
       0.00023147627 0.08545837 0.029926896 0.21365865
0000a0 78 7a f7 3b c1 a9 e6 3b a5 ed 3b 3e 44 50 12 3d
       0.007552441 0.007039279 0.18352373 0.03572108
0000b0 dc d0 88 3d 6a b1 69 3d c4 14 31 3a 0a 23 d6 3d
       0.06680462 0.05705396 0.00067551085 0.10455902
0000c0 c5 67 12 3d 0d d1 46 3e 2a 68 06 3e 21 1a f3 3d
       0.035743494 0.19415684 0.13125673 0.11870218
0000d0 49 ed 27 3c 5d 61 89 3d 70 04 8f 3c e4 c1 20 3e
       0.010249444 0.06708024 0.01745817 0.15698963
0000e0 1d 7d 3c 3d 56 18 98 3c c5 ad 2a 3d dc 5e 5c 3a
       0.046017755 0.018566292 0.041669626 0.0008406469
0000f0 6c fc e7 38 fd 58 9b 3c 55 bc b7 3c 3f 63 16 3c
       0.000110619556 0.018963331 0.02242867 0.009178936
000100 e0 c4 8e 3d 35 2b 28 3c f1 cc bb 3d 87 2d 87 3d
       0.06971145 0.010264208 0.09169949 0.066004805
000110 08 5a ae 3d bb ab ce 3d 93 ef 60 3d 1e 41 06 3e
       0.08513266 0.10091349 0.054915976 0.13110778
000120 02 e5 37 3d 63 13 a5 3c db 81 99 3c 2b d2 7b 39
       0.044896133 0.020150846 0.018738678 0.00024015519
000130 b6 b8 5f 3c 9c cc 91 3d 56 9b 20 3d d5 6b ab 3d
       0.013654878 0.07119104 0.03921064 0.08370177
000140 f5 2e 11 3d 78 d9 72 3c e3 a5 36 3c a4 6f f1 3d
       0.035445172 0.014822356 0.011147949 0.11788872
000150 b5 86 17 3e 14 9f 8f 3d 80 15 75 3c 7c c4 6f 3d
       0.1479748 0.070127636 0.014958739 0.05853699
000160 18 f1 94 3d 2b 49 e9 3d 06 b9 95 3b aa 3e 11 3d
       0.072725475 0.11390909 0.0045691757 0.03546015
000170 5b dd 3c 3e be 38 eb 3d 2d 4b b9 3d e7 f5 1b 3e
       0.18443815 0.11485432 0.09047542 0.15230523
000180 58 e1 b3 3c eb 15 a9 3b 82 e4 eb 3a 55 ae ce 3c
       0.021958038 0.0051600835 0.0017997178 0.025229612
000190 9c 38 0c 3d c1 03 09 39 02 e4 a4 3c bd 39 e1 3d
       0.034233674 0.00013066737 0.020128254 0.10997341
0001a0 80 c6 12 3c 87 68 5e 3e ec 71 e6 3c 5f ef 24 3e
       0.008958459 0.21719562 0.028130494 0.16106938
0001b0 e5 7f d9 3c 2f 63 c4 3d ad c7 0c 3e 27 f0 cb 3c
       0.026550243 0.0958923 0.13748045 0.024894787
0001c0 09 b6 11 3e 98 c9 50 3e 86 f8 e0 3d 90 05 85 3e
       0.14229597 0.20389402 0.10984902 0.25980806
0001d0 34 a0 42 3e 26 56 ce 3d d7 0b 70 3e 7e 04 e1 3d
       0.19006425 0.10075025 0.23442017 0.10987185
0001e0 b7 29 83 38 88 b3 8a 3d 09 81 ae 3c 01 e4 1e 3e
       6.254337e-05 0.06772524 0.021301763 0.15516664
0001f0 2c 22 61 3d 05 0f fa 38 9a bb 04 3e fb bb 2c 3e
       0.05496423 0.000119237266 0.1296219 0.16868584

bn2.running_var f4 [128]
000000 55 f7 f2 39 1c 33 b6 3a 04 50 87 3d a6 3f 12 3c
       0.00046342114 0.001390073 0.06607059 0.008926308
000010 bc 95 e6 38 25 60 83 3b 4b c8 a2 3c fb ed 02 3c
       0.00010995145 0.004009264 0.019870898 0.007991309
000020 38 3b 46 3b cc d0 2d 39 93 c3 53 3b 0c 25 8b 38
       0.00302477 0.00016576349 0.0032312616 6.634937e-05
000030 db 1a f2 39 04 de 92 3b 94 92 1b 3b 98 46 59 3c
       0.00046177846 0.0044820327 0.002373849 0.01326146
000040 62 f2 3f 3b ce 40 0a 3d 23 ed 48 3a b7 55 31 3c
       0.0029288759 0.03375321 0.00076647307 0.010823659
000050 aa fc 58 3d 66 ce 0d 3d 08 a0 7c 3b 87 22 b9 3b
       0.052975334 0.034620665 0.0038547534 0.005649868
000060 16 e7 90 3b fb 77 a7 3c c7 fc 43 3a a5 62 80 3b
       0.004422079 0.020442953 0.00074763264 0.0039180093
000070 19 8d 74 3b 01 1c c9 3b 57 1e b3 3c a0 22 0c 3d
       0.0037315546 0.0061373715 0.021865053 0.03421271
000080 0f 04 c0 3c 01 30 bf 3c 28 8d 12 3d d5 09 60 3b
       0.023439435 0.02333832 0.03577915 0.0034185548
000090 ee 52 9f 37 8f da 96 3c 7d f1 36 3b 56 01 73 3d
       1.8992894e-05 0.018414764 0.0027914934 0.059327446
0000a0 2a de 02 39 b1 01 7a 3a d4 7c 2e 3d 12 dc c9 3b
       0.00012480529 0.0009536995 0.042599514 0.0061602676
0000b0 8f 88 93 3c f2 9e fb 3b 0a a2 69 39 3a c2 d0 3c
       0.018009452 0.00767886 0.00022280976 0.02548324
0000c0 42 d5 e8 3b 2e c7 11 3d 96 f0 c0 3c 60 f5 0a 3d
       0.0071055004 0.035590343 0.02355222 0.033925414
0000d0 24 14 04 3b fb 4c 8b 3c 61 c4 1d 3b 58 b8 72 3d
       0.0020153606 0.01700448 0.002407335 0.059257835
0000e0 ed 31 03 3c e5 00 da 3a 0a db b6 3b 6c 77 e2 38
       0.008007509 0.0016632347 0.0055803107 0.00010798764
0000f0 2f 97 47 37 21 42 54 3b e2 51 a3 3b 6e b8 86 3a
       1.18965245e-05 0.0032388049 0.0049841264 0.0010278353
000100 7a 02 40 3c 7c 86 a8 3a 84 f0 e1 3c 5e c1 e5 3c
       0.01171934 0.0012857462 0.027580507 0.028046306
000110 61 72 00 3d 3b 61 03 3d 12 9f 0a 3c 6e 6a 0e 3d
       0.03135908 0.032075148 0.008460777 0.034769468
000120 ab 6d 34 3c 6d a8 09 3b fb 97 ff 3a 31 ac 9b 38
       0.011012475 0.002100493 0.001950025 7.423049e-05
000130 77 28 19 3b ed 2e fb 3c 59 41 2b 3c 94 43 8c 3c
       0.0023370066 0.030662024 0.010452592 0.017122068
000140 9d 41 ce 3b a8 72 c6 3a 72 eb 2e 3a 39 80 48 3d
       0.006294443 0.0015140371 0.00066726573 0.048950408
000150 2d d1 44 3d 81 37 4e 3c 84 21 42 3b 8c b9 46 3c
       0.048051048 0.012586475 0.0029622028 0.012129199
000160 09 70 99 3c 02 9f ab 3c c9 76 f8 38 7b f0 e8 3b
       0.01873018 0.020949844 0.00011847687 0.0071087456
000170 b9 1f 85 3d dd c6 d5 3c 2a 66 92 3c d1 55 14 3d
       0.06500191 0.026095802 0.017870981 0.036214653
000180 ec 7d 74 3b 51 9b 11 3a 63 c2 f0 39 84 e5 62 3b
       0.00373065 0.0005554455 0.00045921197 0.0034621665
000190 6e dd ba 3b 68 2d f1 37 bc eb 48 3b 99 51 bf 3c
       0.005702666 2.8750583e-05 0.0030658087 0.023354338
0001a0 83 f1 8f 39 ed 1f 15 3d 8c b5 0e 3c 8a 11 54 3d
       0.00027455026 0.0364074 0.008710276 0.05177454
0001b0 ae 33 de 3b 4f 8f 9c 3c ed f8 f1 3c fa c5 8f 3b
       0.006781063 0.019111304 0.029537642 0.0043876143
0001c0 5a 68 ef 3c 4d 6c 62 3d 77 10 ba 3c 92 c4 0a 3e
       0.029224563 0.055279065 0.02271293 0.13551548
0001d0 46 6c 5f 3d a2 bb b8 3c dc 7d 9d 3d 04 ce 14 3d
       0.054546617 0.022550408 0.076900214 0.036329284
0001e0 74 f5 f1 34 f7 f3 73 3c 34 61 4e 3b 24 e1 10 3d
       4.506834e-07 0.014889709 0.0031491043 0.03537096
0001f0 34 0c 30 3c 7b af de 37 32 53 06 3d a8 00 38 3d
       0.010745097 2.6546177e-05 0.032794185 0.0449225

fc2.weight f4 [128, 132]
000000 52 f0 ec 37 74 50 86 bd 3b ed cb 3c 93 16 e4 3c
       2.82453e-05 -0.06558314 0.024893394 0.027842795
000010 52 e1 71 b8 9c 88 37 bd f3 2b 56 bc 8b f6 73 bd
       -5.7668723e-05 -0.044808015 -0.013072002 -0.059561294
000020 61 40 cf bc 47 c3 08 3c 87 5b 66 bd ea 00 52 bd
       -0.025299253 0.008347339 -0.05623963 -0.051270403
000030 3d c1 05 ba 59 85 64 bd de 19 e1 bc b4 53 a1 bb
       -0.0005102342 -0.055791233 -0.027478155 -0.0049233083
000040 55 e6 16 bd 6f df f9 bc 34 a5 19 bd 17 06 b6 bd
       -0.036840755 -0.03050205 -0.037511066 -0.0888788
000050 d6 3f 75 bc dc 36 e2 3c b7 56 62 3c e0 06 1c bc
       -0.014968833 0.02761405 0.01381462 -0.0095231235
000060 d2 81 88 3d 82 f6 8d 3c cb 51 b6 3b 82 33 2e 3d
       0.06665386 0.017329458 0.0055639497 0.04252959
000070 37 19 f1 3c 01 1e 93 bd b5 d4 bd bc bd fc 08 bc
       0.029430969 -0.07183457 -0.023172716 -0.008361039
000080 f3 3a a2 bd b2 bb 4e 3d 4a 53 9a bd 49 1c ce 3b
       -0.079214 0.05047197 -0.075354174 0.006289993
000090 e8 c8 f0 bc d7 e7 87 3b b4 79 a6 bd 39 4f a8 bc
       -0.029392675 0.0041475105 -0.08128682 -0.020545589
0000a0 18 e6 f7 38 94 0b 3b bd 40 41 8a bd 2e 0c 8c 3d
       0.00011820736 -0.04566534 -0.06750727 0.068382606
0000b0 f0 9e b3 3c ab cb 8b bd 19 ef 4b bc 5c f2 44 bd
       0.021926373 -0.06825956 -0.012447142 -0.048082694
0000c0 4c 0a 63 3c c0 c4 ba 3c 5f 72 42 3d 31 4a 17 3d
       0.013857435 0.022798896 0.047472354 0.03693599
0000d0 ea fa 03 3d 3f 86 4f bd f8 24 5b bd 8d 4c b1 bc
       0.032221712 -0.050665136 -0.053502053 -0.021642948
0000e0 57 1a b0 bc a2 4d 3a bc 8c 0a 3e bd 5a ab 2f bc
       -0.021496935 -0.011371048 -0.046396777 -0.010722006
0000f0 6e 9d 2e bd 6e 4e 27 3b 2f db 1e bd 1b 70 3b bd
       -0.042630605 0.0025528925 -0.03878325 -0.04576121
000100 c5 0b 17 bd 3b 54 2a bd 94 d2 91 3d bf 23 d7 bc
       -0.03687646 -0.041584235 0.07120243 -0.026262162
000110 bb 43 99 3c 93 ce 7a bc 42 aa 97 bc 8e 28 99 bc
       0.018709054 -0.01530804 -0.018513802 -0.018696096
000120 aa c9 69 bd 1b 00 eb bd 3f 53 93 bc 68 34 95 bc
       -0.057077087 -0.114746295 -0.01798403 -0.018213466
000130 1d c9 8e bd b3 fa 78 3c 6b 5e 22 bd 2d 86 9d bd
       -0.06971953 0.01519649 -0.039640825 -0.076916076
000140 b6 ce 84 bc 70 e7 0a bb 1b 54 b0 bd 20 33 67 3c
       -0.016211849 -0.0021195076 -0.08609792 0.01411131
000150 5a 38 01 3d c4 29 6a bc 4d 52 13 3d d7 d8 41 bd
       0.03154788 -0.014292184 0.03596716 -0.047325935
000160 40 00 96 3c 22 c9 11 bd 56 2e 6e b9 22 f4 a2 bd
       0.018310666 -0.035592206 -0.0002271471 -0.07956721
000170 80 69 72 bc 80 11 1b 3c 0d 61 2b bd 76 31 19 bd
       -0.014795661 0.009464622 -0.0418406 -0.037400685
000180 54 0d 05 3d 49 0f 89 bd c0 7a 2f bd 78 0c f0 bc
       0.032483414 -0.066923685 -0.042841673 -0.02930282
000190 a7 1e e3 bc 74 0a fb bd a9 5b aa 3a 26 2c f8 3c
       -0.027724577 -0.12257853 0.0012997288 0.03029449
0001a0 d1 e0 00 b9 31 b3 1b 3b 6c d7 3f 3d 9a 7c 15 bc
       -0.00012290782 0.002375793 0.0468363 -0.009123946
0001b0 97 21 19 bd f7 b3 6a 3c b5 e8 f0 bc f9 ea 92 3c
       -0.03738555 0.0143251335 -0.029407838 0.01793431
0001c0 c3 cb 3d 3d f8 51 b5 bc 0a 50 b7 3c 0d 56 bc bb
       0.0463369 -0.022133812 0.022377033 -0.0057475627
0001d0 dc bd d5 3c 71 2e 4b bd 37 1f 80 bc e0 69 0d 3d
       0.026091509 -0.049604837 -0.015639884 0.0345248
0001e0 ae bd 4d 39 2f f6 72 bb 2e a6 6d bb f8 9a 69 bc
       0.00019620985 -0.0037073006 -0.003626238 -0.014258139
0001f0 e0 4f 0e bd f4 36 e8 3c 5b 07 ac bb 0f b1 97 bd
       -0.034744143 0.028346516 -0.0052499003 -0.07406818
000200 bd 7e 3e bb 2f 2b 15 bc 92 f1 b6 bc 96 2c 8d bb
       -0.002906724 -0.009104534 -0.022331987 -0.0043082936
000210 de 91 df 38 89 b2 50 3d 78 1a b6 bb d0 e9 3e bd
       0.000106606385 0.050951514 -0.0055573545 -0.0466097
000220 77 e7 24 b9 72 85 9c 3b 00 37 8e bc 58 e7 21 bc
       -0.00015726486 0.00477665 -0.01736021 -0.009881817
000230 e7 4d c9 ba 90 c4 29 bd 6b fc a5 3c 46 b0 95 ba
       -0.00153583 -0.041447222 0.020261964 -0.0011420331
000240 e0 18 57 b8 82 c9 ef 3a d2 96 bc bc 65 a5 9c bd
       -5.128316e-05 0.0018294307 -0.023021135 -0.07648734
000250 3e 0d c9 bb 88 4c 47 3d df e5 2e 3c bf 56 04 3d
       -0.006135612 0.04865697 0.010674923 0.03230929
000260 45 cf 52 3d 08 55 2b bc bb 63 69 bd ed a1 bc bb
       0.0514672 -0.010457285 -0.056979876 -0.0057566077
000270 da 7b 7b 3d 40 9a ee 3c 9e a4 80 3c 74 c0 ac 3c
       0.06139741 0.029126287 0.015703496 0.021087863
000280 39 2e 71 3c 5c b0 ca 3c e3 3b c3 bc 87 6c 2b ba
       0.014720493 0.024742298 -0.023832267 -0.0006539304
000290 99 7b 9a 3b c0 bc 4e bc cd 3b bc bc d2 1f 7b 3c
       0.004714441 -0.012618244 -0.022977734 0.015327411
0002a0 4f 16 67 3c bc e2 8f bc 8c 0b 94 bd 8d d6 67 bc
       0.01410444 -0.01756417 -0.07228765 -0.014150274
0002b0 60 d0 9b b8 b4 98 f4 3b 84 97 80 bc a0 8d 0f 3c
       -7.429789e-05 0.0074644927 -0.015697248 0.008761793
0002c0 b0 cd 6e 3c f1 9d 9e 3c 5e 39 c5 3b c5 87 61 bc
       0.014575407 0.019362422 0.0060188016 -0.01376528
0002d0 a7 4d d6 bc cb 74 1c bd c5 62 22 bc e3 5a c8 3b
       -0.026160074 -0.03819732 -0.009911244 0.00611435
0002e0 98 89 ec 3c 61 ef 45 bc 19 e0 ab 3c d5 20 88 bd
       0.028874204 -0.012080998 0.020980882 -0.06646887
0002f0 00 70 8a ba cd d1 cc 3a bf 30 30 bd 57 00 9e 3c
       -0.0010561943 0.001562649 -0.043015238 0.019287271
000300 c8 68 2f bc 3f c3 2d 3d eb d9 3b 3d 8a ae 9f 3c
       -0.010706134 0.04242253 0.04586212 0.019492406
000310 1e 71 41 bc 8d dc f9 3b 10 a1 e9 bc 64 8a 4e 3d
       -0.011806754 0.0076251687 -0.028519183 0.05042495
000320 95 c5 88 3c 48 3b 35 3d c4 d8 ac 3c 93 b1 c4 3a
       0.016695777 0.044245988 0.021099456 0.0015006535
000330 21 23 88 ba 2b 03 15 3d 5f ce d2 bb ea 5a e2 b8
       -0.0010386446 0.036379974 -0.0064332928 -0.00010793454
000340 e1 f3 6f bc 2e 24 5d bc 70 ac 27 bd 7b c4 c9 bc
       -0.014645548 -0.013497395 -0.040935934 -0.024629822
000350 cb 4a c1 3c 99 bb e8 3a 85 12 c8 3c 50 40 d0 bc
       0.023595234 0.0017756104 0.024422893 -0.025421292
000360 20 dd 58 bc 20 f4 98 3b 45 3a 0e 3d 7e 15 3a 3d
       -0.013236314 0.004667774 0.03472354 0.045430653
000370 c2 34 fe bb cd 19 de 3b e3 ae 8e b9 42 dc fa 3b
       -0.007757754 0.006777978 -0.0002721465 0.0076556513
000380 4b af 11 bb fd 45 70 bc 09 00 f6 bb de 75 a6 3b
       -0.0022229727 -0.014665124 -0.0075073284 0.005079969
000390 e2 9c 09 3d ef 1f 93 bd fd a3 d8 bc a6 18 fd 3b
       0.03359688 -0.07183825 -0.026445383 0.0077238856
0003a0 01 b4 95 3c 0a 26 2d 3d 71 12 f7 bb f3 97 4f bc
       0.01827431 0.042272605 -0.00754004 -0.012670505
0003b0 cd c3 d6 b9 11 3d fd bc 7b f8 54 3c 56 1a 91 ba
       -0.00040963144 -0.030912908 0.0129986955 -0.0011070471
0003c0 d9 a0 64 bb 47 b0 16 bc c1 6c b3 b9 b7 2e 65 3c
       -0.0034885912 -0.009197301 -0.00034222569 0.0139881885
0003d0 0d 02 1a bc 17 fb 08 3d 79 22 f5 3b 61 f3 88 bb
       -0.009399903 0.033442583 0.007480916 -0.0041794037
0003e0 58 b0 77 3c 89 21 eb bb 42 1e 13 3c cd b3 10 3a
       0.015117727 -0.0071756286 0.008979382 0.00055199565
0003f0 1b 96 ae 37 03 d3 35 bc 5f b8 e1 3b 90 60 6b 3d
       2.0812315e-05 -0.011097672 0.006888434 0.057465136

fc2.bias f4 [128]
000000 00 89 5a 3d 43 95 2b bc b5 6f 77 bd f7 5f 00 bc
       0.05335331 -0.0104725985 -0.060409267 -0.00783538
000010 72 e0 d8 bd b3 42 8e bd 50 aa bc 3d f0 6f fb ba
       -0.105896845 -0.069463156 0.09212172 -0.001918314
000020 9d 74 96 3d bb fc 83 bc 53 35 8e bd 70 a4 a6 bc
       0.07346461 -0.016111722 -0.069437645 -0.020342082
000030 c8 80 d2 3a d4 f1 00 3c 2e eb aa bd 2e 43 27 3d
       0.0016060108 0.007870156 -0.08345638 0.040835552
000040 37 6d 01 bd a2 c0 3a bd ac f7 23 bc a7 82 c6 bd
       -0.031598296 -0.045593865 -0.01000778 -0.09692889
000050 92 ae c1 3b 4a 7a 27 bc e9 e6 de 3d 5f 62 96 bd
       0.005910703 -0.010222027 0.10883886 -0.073429815
000060 99 9d 4a 3d 5d e3 1d bc 91 3f 9f bd cb 1e 81 bc
       0.049466703 -0.009636727 -0.07775796 -0.015761754
000070 9b d0 98 bd 14 14 31 bd cf 20 cd bd e1 ae 90 bd
       -0.07461663 -0.04323204 -0.10016023 -0.070646055
000080 84 7e 1c bd 29 61 7e bd f6 93 d6 3d 51 d0 0e bc
       -0.038206592 -0.062104378 0.1047744 -0.008716659
000090 f5 5a 2f bd c5 2d 44 bd d7 f1 0f 3d 16 15 9a 3c
       -0.042811353 -0.04789521 0.035142746 0.018808883
0000a0 51 68 5a 3d 5c 3f bf bd fc 8b 67 bd fb d7 91 bd
       0.05332214 -0.09338257 -0.056529984 -0.07121273
0000b0 8c c7 7f bc 98 82 c1 bd f1 47 65 bd cc 88 39 bd
       -0.0156115405 -0.09448737 -0.05597681 -0.045296475
0000c0 88 99 8b bd 15 c1 00 bd be 55 aa 3c 15 3c bf bd
       -0.06816393 -0.031434137 0.020792838 -0.093376316
0000d0 f3 20 f4 3c 0f a1 e9 bd 6a 50 93 bd 60 9a da 3d
       0.029800868 -0.114076726 -0.07193072 0.10673976
0000e0 f6 6d f6 bc b7 c7 1c 3c 2d 76 94 bd 5a 0b 90 3d
       -0.03008173 0.0095691 -0.07249103 0.07033415
0000f0 e8 9e db 3d cd 89 85 bd fe cc 19 bd d5 97 7b bd
       0.10723668 -0.06520424 -0.03754901 -0.061424095
000100 33 63 12 3d 49 1b 2d 3d eb ee b9 bc 81 88 bc 3d
       0.035739135 0.04226235 -0.022696933 0.092057236
000110 64 79 71 bd ec d8 c3 bd db a0 04 be f1 1c 21 3d
       -0.058953658 -0.09562859 -0.12951986 0.03933424
000120 62 02 32 bd 87 56 9a bc bf 15 dc 3d e7 1f 99 bc
       -0.043459304 -0.018840088 0.10746335 -0.01869197
000130 df e3 8a bd b8 6d 35 bd bf 37 f6 bc f5 69 1e bc
       -0.06781744 -0.04429409 -0.030055879 -0.009668817
000140 87 f7 59 bc 62 20 b6 3d aa a4 a6 bc d4 7f 87 bd
       -0.013303644 0.08892895 -0.02034219 -0.06616178
000150 3a b6 56 bd eb ab ff bc c6 af 11 be af 43 2a bd
       -0.05241988 -0.031209907 -0.14227208 -0.041568454
000160 c7 d7 79 3d 95 3b 00 bd f2 db ae 3d 5e eb 04 bd
       0.060996797 -0.03130682 0.08538045 -0.032451026
000170 5f 14 22 bd d9 95 9c bd 18 07 a5 bd f6 a6 5e bd
       -0.03957021 -0.07645769 -0.08057994 -0.054358445
000180 4c 13 8a bd 9c 66 8a bc e1 66 e0 bd c5 14 6e bd
       -0.06741962 -0.016894631 -0.109571226 -0.058125276
000190 05 3c bb bd d0 6e d9 bb 5f 98 af bd 8b 75 00 bd
       -0.09142307 -0.0066355243 -0.08573984 -0.031362098
0001a0 39 91 89 bd 5b dd 42 bd 7a 0a b7 bd e3 ad 36 3d
       -0.06717152 -0.047574382 -0.08937545 0.044599425
0001b0 7a 8b c7 bd bc ab 90 bd 70 1f c4 bb 9b 52 a8 3d
       -0.097434 -0.07064006 -0.005985193 0.08218881
0001c0 ae 56 52 3c 32 44 f6 3d 3b 21 0d 3d d7 dd a0 bd
       0.012838049 0.12024726 0.03445552 -0.078548126
0001d0 78 db 51 3d 03 bd 9f bc 20 85 9f bc c1 76 26 bd
       0.051234692 -0.019499307 -0.019472659 -0.040640596
0001e0 dd 9d 60 3c 0e 6c 5b bd db b4 5d bd 16 af a4 3d
       0.013709513 -0.053569846 -0.054127555 0.080412075
0001f0 80 a4 06 3c 22 5c 75 bd 66 69 71 bd 77 93 2a bb
       0.008217931 -0.059902318 -0.058938406 -0.0026027837

bn3.weight f4 [128]
000000 40 cb 96 3e a0 a6 16 3d cf ad 0a 3f 99 2f 2e 3f
       0.29451942 0.03678 0.5417146 0.6804138
000010 78 64 a1 3d 08 da 9b 3d 5d f2 65 3f 10 9e 04 3f
       0.07880491 0.076099455 0.8982294 0.51803684
000020 74 40 26 3e 38 89 7f 3f 9e 79 6e 3f ba 94 9c 3e
       0.16235524 0.99818754 0.93154323 0.3058222
000030 c0 f1 06 3f f4 78 68 3e f7 f6 26 3f 27 a9 46 3f
       0.5271263 0.2270239 0.6522059 0.77601856
000040 56 0b 5b 3f 02 e5 74 3f 91 49 13 3f c0 fa 06 3e
       0.8556417 0.9566194 0.5753413 0.13181591
000050 c0 9f ae 3c 86 7b 19 3f c7 86 3a 3f 38 4e 4f 3e
       0.02131641 0.59954107 0.72861904 0.20244682
000060 e2 95 08 3f f0 dc 83 3d 83 dd 2a 3f 4a 5a 2a 3f
       0.53353703 0.06438625 0.6674425 0.6654402
000070 00 9e 3d 3c d8 01 bc 3e b0 b0 9f 3d bc ac 1c 3e
       0.011573315 0.36720157 0.07797372 0.15300268
000080 a8 bb 49 3e 36 ff 54 3f f2 c1 8a 3e ae 97 f0 3e
       0.19700491 0.8320192 0.27101094 0.46990722
000090 5e cc 77 3f 20 c8 5d 3d 49 20 40 3f 42 24 e7 3e
       0.96796215 0.054145932 0.75049263 0.4514485
0000a0 71 5b 03 3f da 8c 5a 3f 0e 91 ee 3c 9d e4 31 3f
       0.51311404 0.8537117 0.029121902 0.6948946
0000b0 5c 25 40 3f d7 67 d3 3e b1 fc 10 3f 0d 36 5a 3f
       0.75057006 0.4129016 0.56635576 0.85238725
0000c0 32 b4 27 3e b6 60 6b 3f b0 ae 1e 3e 7c bb 42 3f
       0.16377333 0.91944444 0.15496325 0.7606733
0000d0 d0 70 67 3f ce 19 29 3f 10 38 93 3d 6c f4 7e 3f
       0.90406513 0.66055 0.071884274 0.9959171
0000e0 8a b2 1c 3f b2 31 b5 3e 46 fd 50 3f 9c 74 57 3f
       0.6120993 0.35389477 0.81636465 0.84162307
0000f0 35 5c 29 3f e0 6e d8 3d 90 0d 17 3f ce 2d 88 3e
       0.6615632 0.10568023 0.5900507 0.26597446
000100 54 a1 5e 3e 56 5c 76 3f f4 a0 62 3e e0 b7 14 3e
       0.2174123 0.96234643 0.22131711 0.14523268
000110 a4 a5 ae 3e 80 50 7e 3f 90 47 aa 3e 88 4b e1 3d
       0.3411075 0.99341583 0.33257723 0.110007346
000120 08 75 6a 3e ec 3a 57 3e f6 af 31 3f 09 bc 37 3f
       0.22896206 0.2101857 0.6940912 0.71771294
000130 23 4d 47 3f 4d 3f 04 3f 50 2b bc 3d e8 66 26 3e
       0.77852076 0.5165909 0.09187949 0.16250193
000140 5c d6 3e 3f c0 9a 22 3d 95 47 18 3f 00 70 29 3e
       0.74545836 0.039698362 0.59484226 0.16546631
000150 a6 8d e2 3e 90 c3 ac 3e 22 dd 48 3f ba 63 10 3f
       0.44248694 0.33742952 0.7846242 0.5640217
000160 60 a1 06 3e cc 5c 30 3e 94 7a eb 3e f4 b5 36 3f
       0.13147497 0.17222899 0.45991957 0.7137139
000170 da 70 be 3e 18 47 95 3e 28 78 98 3d e4 17 23 3f
       0.37195474 0.29155803 0.07444793 0.6370833
000180 a9 4e 58 3f 74 6b 00 3f 48 da 05 3f 08 63 11 3e
       0.84495026 0.5016396 0.52286196 0.14197934
000190 dc f9 55 3e 13 e8 9f 3d f0 ad f1 3e 48 57 d1 3d
       0.20896095 0.078079365 0.47203016 0.10221726
0001a0 39 0e 7c 3e e3 72 1f 3f 48 29 2d 3e 25 24 45 3f
       0.246148 0.6228468 0.16910279 0.7700828
0001b0 2a 78 63 3f fe 5e 31 3f cf a4 44 3f 44 c2 38 3e
       0.8885523 0.6928557 0.7681398 0.18042856
0001c0 68 61 37 3f 8f 34 12 3f e2 09 d7 3e e0 37 e3 3e
       0.71633005 0.5711145 0.41999727 0.44378567
0001d0 00 e2 66 3e b3 96 0c 3f 00 be 0b 3d b8 75 39 3e
       0.2254715 0.5491745 0.034116745 0.18111312
0001e0 77 4f 25 3f 28 7f 1b 3f 46 e5 ec 3e c0 31 94 3c
       0.6457438 0.607409 0.46268672 0.018090129
0001f0 f4 61 23 3e 12 62 7d 3d 20 f1 77 3f 34 6b 06 3e
       0.15955335 0.061861105 0.968523 0.13126832

bn3.bias f4 [128]
000000 00 00 00 00 00 00 00 00 00 00 00 00 00 00 00 00
       0.0 0.0 0.0 0.0
000010 00 00 00 00 00 00 00 00 00 00 00 00 00 00 00 00
       0.0 0.0 0.0 0.0
000020 00 00 00 00 00 00 00 00 00 00 00 00 00 00 00 00
       0.0 0.0 0.0 0.0
000030 00 00 00 00 00 00 00 00 00 00 00 00 00 00 00 00
       0.0 0.0 0.0 0.0
000040 00 00 00 00 00 00 00 00 00 00 00 00 00 00 00 00
       0.0 0.0 0.0 0.0
000050 00 00 00 00 00 00 00 00 00 00 00 00 00 00 00 00
       0.0 0.0 0.0 0.0
000060 00 00 00 00 00 00 00 00 00 00 00 00 00 00 00 00
       0.0 0.0 0.0 0.0
000070 00 00 00 00 00 00 00 00 00 00 00 00 00 00 00 00
       0.0 0.0 0.0 0.0
000080 00 00 00 00 00 00 00 00 00 00 00 00 00 00 00 00
       0.0 0.0 0.0 0.0
000090 00 00 00 00 00 00 00 00 00 00 00 00 00 00 00 00
       0.0 0.0 0.0 0.0
0000a0 00 00 00 00 00 00 00 00 00 00 00 00 00 00 00 00
       0.0 0.0 0.0 0.0
0000b0 00 00 00 00 00 00 00 00 00 00 00 00 00 00 00 00
       0.0 0.0 0.0 0.0
0000c0 00 00 00 00 00 00 00 00 00 00 00 00 00 00 00 00
       0.0 0.0 0.0 0.0
0000d0 00 00 00 00 00 00 00 00 00 00 00 00 00 00 00 00
       0.0 0.0 0.0 0.0
0000e0 00 00 00 00 00 00 00 00 00 00 00 00 00 00 00 00
       0.0 0.0 0.0 0.0
0000f0 00 00 00 00 00 00 00 00 00 00 00 00 00 00 00 00
       0.0 0.0 0.0 0.0
000100 00 00 00 00 00 00 00 00 00 00 00 00 00 00 00 00
       0.0 0.0 0.0 0.0
000110 00 00 00 00 00 00 00 00 00 00 00 00 00 00 00 00
       0.0 0.0 0.0 0.0
000120 00 00 00 00 00 00 00 00 00 00 00 00 00 00 00 00
       0.0 0.0 0.0 0.0
000130 00 00 00 00 00 00 00 00 00 00 00 00 00 00 00 00
       0.0 0.0 0.0 0.0
000140 00 00 00 00 00 00 00 00 00 00 00 00 00 00 00 00
       0.0 0.0 0.0 0.0
000150 00 00 00 00 00 00 00 00 00 00 00 00 00 00 00 00
       0.0 0.0 0.0 0.0
000160 00 00 00 00 00 00 00 00 00 00 00 00 00 00 00 00
       0.0 0.0 0.0 0.0
000170 00 00 00 00 00 00 00 00 00 00 00 00 00 00 00 00
       0.0 0.0 0.0 0.0
000180 00 00 00 00 00 00 00 00 00 00 00 00 00 00 00 00
       0.0 0.0 0.0 0.0
000190 00 00 00 00 00 00 00 00 00 00 00 00 00 00 00 00
       0.0 0.0 0.0 0.0
0001a0 00 00 00 00 00 00 00 00 00 00 00 00 00 00 00 00
       0.0 0.0 0.0 0.0
0001b0 00 00 00 00 00 00 00 00 00 00 00 00 00 00 00 00
       0.0 0.0 0.0 0.0
0001c0 00 00 00 00 00 00 00 00 00 00 00 00 00 00 00 00
       0.0 0.0 0.0 0.0
0001d0 00 00 00 00 00 00 00 00 00 00 00 00 00 00 00 00
       0.0 0.0 0.0 0.0
0001e0 00 00 00 00 00 00 00 00 00 00 00 00 00 00 00 00
       0.0 0.0 0.0 0.0
0001f0 00 00 00 00 00 00 00 00 00 00 00 00 00 00 00 00
       0.0 0.0 0.0 0.0

bn3.running_mean f4 [128]
000000 00 00 00 00 00 00 00 00 00 00 00 00 00 00 00 00
       0.0 0.0 0.0 0.0
000010 00 00 00 00 00 00 00 00 00 00 00 00 00 00 00 00
       0.0 0.0 0.0 0.0
000020 00 00 00 00 00 00 00 00 00 00 00 00 00 00 00 00
       0.0 0.0 0.0 0.0
000030 00 00 00 00 00 00 00 00 00 00 00 00 00 00 00 00
       0.0 0.0 0.0 0.0
000040 00 00 00 00 00 00 00 00 00 00 00 00 00 00 00 00
       0.0 0.0 0.0 0.0
000050 00 00 00 00 00 00 00 00 00 00 00 00 00 00 00 00
       0.0 0.0 0.0 0.0
000060 00 00 00 00 00 00 00 00 00 00 00 00 00 00 00 00
       0.0 0.0 0.0 0.0
000070 00 00 00 00 00 00 00 00 00 00 00 00 00 00 00 00
       0.0 0.0 0.0 0.0
000080 00 00 00 00 00 00 00 00 00 00 00 00 00 00 00 00
       0.0 0.0 0.0 0.0
000090 00 00 00 00 00 00 00 00 00 00 00 00 00 00 00 00
       0.0 0.0 0.0 0.0
0000a0 00 00 00 00 00 00 00 00 00 00 00 00 00 00 00 00
       0.0 0.0 0.0 0.0
0000b0 00 00 00 00 00 00 00 00 00 00 00 00 00 00 00 00
       0.0 0.0 0.0 0.0
0000c0 00 00 00 00 00 00 00 00 00 00 00 00 00 00 00 00
       0.0 0.0 0.0 0.0
0000d0 00 00 00 00 00 00 00 00 00 00 00 00 00 00 00 00
       0.0 0.0 0.0 0.0
0000e0 00 00 00 00 00 00 00 00 00 00 00 00 00 00 00 00
       0.0 0.0 0.0 0.0
0000f0 00 00 00 00 00 00 00 00 00 00 00 00 00 00 00 00
       0.0 0.0 0.0 0.0
000100 00 00 00 00 00 00 00 00 00 00 00 00 00 00 00 00
       0.0 0.0 0.0 0.0
000110 00 00 00 00 00 00 00 00 00 00 00 00 00 00 00 00
       0.0 0.0 0.0 0.0
000120 00 00 00 00 00 00 00 00 00 00 00 00 00 00 00 00
       0.0 0.0 0.0 0.0
000130 00 00 00 00 00 00 00 00 00 00 00 00 00 00 00 00
       0.0 0.0 0.0 0.0
000140 00 00 00 00 00 00 00 00 00 00 00 00 00 00 00 00
       0.0 0.0 0.0 0.0
000150 00 00 00 00 00 00 00 00 00 00 00 00 00 00 00 00
       0.0 0.0 0.0 0.0
000160 00 00 00 00 00 00 00 00 00 00 00 00 00 00 00 00
       0.0 0.0 0.0 0.0
000170 00 00 00 00 00 00 00 00 00 00 00 00 00 00 00 00
       0.0 0.0 0.0 0.0
000180 00 00 00 00 00 00 00 00 00 00 00 00 00 00 00 00
       0.0 0.0 0.0 0.0
000190 00 00 00 00 00 00 00 00 00 00 00 00 00 00 00 00
       0.0 0.0 0.0 0.0
0001a0 00 00 00 00 00 00 00 00 00 00 00 00 00 00 00 00
       0.0 0.0 0.0 0.0
0001b0 00 00 00 00 00 00 00 00 00 00 00 00 00 00 00 00
       0.0 0.0 0.0 0.0
0001c0 00 00 00 00 00 00 00 00 00 00 00 00 00 00 00 00
       0.0 0.0 0.0 0.0
0001d0 00 00 00 00 00 00 00 00 00 00 00 00 00 00 00 00
       0.0 0.0 0.0 0.0
0001e0 00 00 00 00 00 00 00 00 00 00 00 00 00 00 00 00
       0.0 0.0 0.0 0.0
0001f0 00 00 00 00 00 00 00 00 00 00 00 00 00 00 00 00
       0.0 0.0 0.0 0.0

bn3.running_var f4 [128]
000000 00 00 80 3f 00 00 80 3f 00 00 80 3f 00 00 80 3f
       1.0 1.0 1.0 1.0
000010 00 00 80 3f 00 00 80 3f 00 00 80 3f 00 00 80 3f
       1.0 1.0 1.0 1.0
000020 00 00 80 3f 00 00 80 3f 00 00 80 3f 00 00 80 3f
       1.0 1.0 1.0 1.0
000030 00 00 80 3f 00 00 80 3f 00 00 80 3f 00 00 80 3f
       1.0 1.0 1.0 1.0
000040 00 00 80 3f 00 00 80 3f 00 00 80 3f 00 00 80 3f
       1.0 1.0 1.0 1.0
000050 00 00 80 3f 00 00 80 3f 00 00 80 3f 00 00 80 3f
       1.0 1.0 1.0 1.0
000060 00 00 80 3f 00 00 80 3f 00 00 80 3f 00 00 80 3f
       1.0 1.0 1.0 1.0
000070 00 00 80 3f 00 00 80 3f 00 00 80 3f 00 00 80 3f
       1.0 1.0 1.0 1.0
000080 00 00 80 3f 00 00 80 3f 00 00 80 3f 00 00 80 3f
       1.0 1.0 1.0 1.0
000090 00 00 80 3f 00 00 80 3f 00 00 80 3f 00 00 80 3f
       1.0 1.0 1.0 1.0
0000a0 00 00 80 3f 00 00 80 3f 00 00 80 3f 00 00 80 3f
       1.0 1.0 1.0 1.0
0000b0 00 00 80 3f 00 00 80 3f 00 00 80 3f 00 00 80 3f
       1.0 1.0 1.0 1.0
0000c0 00 00 80 3f 00 00 80 3f 00 00 80 3f 00 00 80 3f
       1.0 1.0 1.0 1.0
0000d0 00 00 80 3f 00 00 80 3f 00 00 80 3f 00 00 80 3f
       1.0 1.0 1.0 1.0
0000e0 00 00 80 3f 00 00 80 3f 00 00 80 3f 00 00 80 3f
       1.0 1.0 1.0 1.0
0000f0 00 00 80 3f 00 00 80 3f 00 00 80 3f 00 00 80 3f
       1.0 1.0 1.0 1.0
000100 00 00 80 3f 00 00 80 3f 00 00 80 3f 00 00 80 3f
       1.0 1.0 1.0 1.0
000110 00 00 80 3f 00 00 80 3f 00 00 80 3f 00 00 80 3f
       1.0 1.0 1.0 1.0
000120 00 00 80 3f 00 00 80 3f 00 00 80 3f 00 00 80 3f
       1.0 1.0 1.0 1.0
000130 00 00 80 3f 00 00 80 3f 00 00 80 3f 00 00 80 3f
       1.0 1.0 1.0 1.0
000140 00 00 80 3f 00 00 80 3f 00 00 80 3f 00 00 80 3f
       1.0 1.0 1.0 1.0
000150 00 00 80 3f 00 00 80 3f 00 00 80 3f 00 00 80 3f
       1.0 1.0 1.0 1.0
000160 00 00 80 3f 00 00 80 3f 00 00 80 3f 00 00 80 3f
       1.0 1.0 1.0 1.0
000170 00 00 80 3f 00 00 80 3f 00 00 80 3f 00 00 80 3f
       1.0 1.0 1.0 1.0
000180 00 00 80 3f 00 00 80 3f 00 00 80 3f 00 00 80 3f
       1.0 1.0 1.0 1.0
000190 00 00 80 3f 00 00 80 3f 00 00 80 3f 00 00 80 3f
       1.0 1.0 1.0 1.0
0001a0 00 00 80 3f 00 00 80 3f 00 00 80 3f 00 00 80 3f
       1.0 1.0 1.0 1.0
0001b0 00 00 80 3f 00 00 80 3f 00 00 80 3f 00 00 80 3f
       1.0 1.0 1.0 1.0
0001c0 00 00 80 3f 00 00 80 3f 00 00 80 3f 00 00 80 3f
       1.0 1.0 1.0 1.0
0001d0 00 00 80 3f 00 00 80 3f 00 00 80 3f 00 00 80 3f
       1.0 1.0 1.0 1.0
0001e0 00 00 80 3f 00 00 80 3f 00 00 80 3f 00 00 80 3f
       1.0 1.0 1.0 1.0
0001f0 00 00 80 3f 00 00 80 3f 00 00 80 3f 00 00 80 3f
       1.0 1.0 1.0 1.0
