mode_weights/agent4_critic_local.pth (torch_old, 93523 bytes, 17 tensors)

bn1.weight f4 [33]
0	0x3efe1558	0.4962566
1	0x3f44aa2f	0.7682218
2	0x3db533a8	0.08847743
3	0x3e073300	0.13203049
4	0x3e9d6686	0.30742282
5	0x3f2252fb	0.6340787
6	0x3efaed86	0.4900934
7	0x3f657d67	0.89644474
8	0x3ee94812	0.45562798
9	0x3f21ded3	0.6323063
10	0x3eb2a22a	0.34889346
11	0x3ecdade4	0.4017173
12	0x3cb6e480	0.022325754
13	0x3e2ce95c	0.16885895
14	0x3e96788c	0.29388845
15	0x3f04bdd8	0.5185218
16	0x3f329a58	0.6976676
17	0x3f4ccd8c	0.8000114
18	0x3e24e4e8	0.16102946
19	0x3e908582	0.28226858
20	0x3f2e7de6	0.68160856
21	0x3f6a4a27	0.915194
22	0x3ecb50ae	0.3970999
23	0x3f5fc8ae	0.8741559
24	0x3ed6bcb0	0.41940832
25	0x3f0d8b51	0.55290705
26	0x3f73e6a5	0.9527381
27	0x3d142190	0.03616482
28	0x3e3dad34	0.18523103
29	0x3ebf3090	0.37341738
30	0x3e9c3612	0.30510002
31	0x3f6e9794	0.9320004
32	0x3e3421cc	0.17591017

bn1.bias f4 [33]
0	0x00000000	0.0
1	0x00000000	0.0
2	0x00000000	0.0
3	0x00000000	0.0
4	0x00000000	0.0
5	0x00000000	0.0
6	0x00000000	0.0
7	0x00000000	0.0
8	0x00000000	0.0
9	0x00000000	0.0
10	0x00000000	0.0
11	0x00000000	0.0
12	0x00000000	0.0
13	0x00000000	0.0
14	0x00000000	0.0
15	0x00000000	0.0
16	0x00000000	0.0
17	0x00000000	0.0
18	0x00000000	0.0
19	0x00000000	0.0
20	0x00000000	0.0
21	0x00000000	0.0
22	0x00000000	0.0
23	0x00000000	0.0
24	0x00000000	0.0
25	0x00000000	0.0
26	0x00000000	0.0
27	0x00000000	0.0
28	0x00000000	0.0
29	0x00000000	0.0
30	0x00000000	0.0
31	0x00000000	0.0
32	0x00000000	0.0

bn1.running_mean f4 [33]
0	0x00000000	0.0
1	0x00000000	0.0
2	0x00000000	0.0
3	0x00000000	0.0
4	0x00000000	0.0
5	0x00000000	0.0
6	0x00000000	0.0
7	0x00000000	0.0
8	0x00000000	0.0
9	0x00000000	0.0
10	0x00000000	0.0
11	0x00000000	0.0
12	0x00000000	0.0
13	0x00000000	0.0
14	0x00000000	0.0
15	0x00000000	0.0
16	0x00000000	0.0
17	0x00000000	0.0
18	0x00000000	0.0
19	0x00000000	0.0
20	0x00000000	0.0
21	0x00000000	0.0
22	0x00000000	0.0
23	0x00000000	0.0
24	0x00000000	0.0
25	0x00000000	0.0
26	0x00000000	0.0
27	0x00000000	0.0
28	0x00000000	0.0
29	0x00000000	0.0
30	0x00000000	0.0
31	0x00000000	0.0
32	0x00000000	0.0

bn1.running_var f4 [33]
0	0x3f800000	1.0
1	0x3f800000	1.0
2	0x3f800000	1.0
3	0x3f800000	1.0
4	0x3f800000	1.0
5	0x3f800000	1.0
6	0x3f800000	1.0
7	0x3f800000	1.0
8	0x3f800000	1.0
9	0x3f800000	1.0
10	0x3f800000	1.0
11	0x3f800000	1.0
12	0x3f800000	1.0
13	0x3f800000	1.0
14	0x3f800000	1.0
15	0x3f800000	1.0
16	0x3f800000	1.0
17	0x3f800000	1.0
18	0x3f800000	1.0
19	0x3f800000	1.0
20	0x3f800000	1.0
21	0x3f800000	1.0
22	0x3f800000	1.0
23	0x3f800000	1.0
24	0x3f800000	1.0
25	0x3f800000	1.0
26	0x3f800000	1.0
27	0x3f800000	1.0
28	0x3f800000	1.0
29	0x3f800000	1.0
30	0x3f800000	1.0
31	0x3f800000	1.0
32	0x3f800000	1.0

fcs1.weight f4 [128, 33]
0	0xbb463739	-0.0030245318
1	0x3ba5cadf	0.0050595845
2	0xb9119f61	-0.00013887651
3	0xbb268b2f	-0.002541255
4	0xba17d32a	-0.0005791659
5	0x394bd641	0.00019439404
6	0xbaac8b49	-0.0013164069
7	0x3a2957c8	0.0006459919
8	0xbb3fe9dc	-0.0029283678
9	0xbacdf056	-0.0015711884
10	0xbba48eb3	-0.005021894
11	0xbb789f45	-0.003793673
12	0xbb8ae043	-0.00423816
13	0xbb2ed8aa	-0.0026679435
14	0x3b9724d4	0.0046125446
15	0x3af0e9b7	0.0018380199
16	0x3a86b481	0.0010277183
17	0xbaf4360c	-0.001863183
18	0x3b0bf7b6	0.0021357364
19	0x3b4b59b0	0.00310288
20	0xbb13c851	-0.0022549818
21	0x3aadfdb5	0.0013274463
22	0xbba4726a	-0.005018522
23	0x3b79d418	0.0038120802
24	0xbabf988c	-0.0014617606
25	0xbaf08e03	-0.001835287
26	0xbb2076af	-0.0024484803
27	0x3adfa575	0.001706286
28	0xb92c4cb7	-0.00016431777
29	0x0001c63e	1.62951e-40
30	0xbadfa575	-0.001706286
31	0x8000d90c	-7.7862e-41
32	0xb9d031cb	-0.0003970995
33	0xbd2c1f41	-0.042021994
34	0xba11b56e	-0.0005558346
35	0x3d55e1d5	0.052217323
36	0xbae9783b	-0.0017812321
37	0xbd390567	-0.045171168
38	0x3d388c96	0.04505595
39	0xbbc95329	-0.0061439467
40	0xbb187b5d	-0.002326689
41	0x3cb4c6c8	0.022067443
42	0xbd50f8db	-0.051018577
43	0xbd22a291	-0.039705817
44	0xbcbed46e	-0.023294654
45	0xbcc04ab6	-0.023473125
46	0xbd056d3e	-0.032574885
47	0x3bb88973	0.0056316196
48	0xbc4556da	-0.012044633
49	0x3d7589c8	0.05994585
50	0x3b94b290	0.004537888
51	0xbbe17788	-0.0068807043
52	0x3ccba2e1	0.02485794
53	0x3cf8d1a2	0.030373398
54	0x3d9fdfc7	0.07806354
55	0xbd20956b	-0.039204996
56	0x3bde784e	0.006789244
57	0xbb05ac2b	-0.002039681
58	0x3d1daa6a	0.038492598
59	0x3c9fb290	0.019494325
60	0x3d9509d5	0.07277266
61	0x3cb6eb93	0.022329127
62	0x800125bd	-1.05373e-40
63	0xbd95187f	-0.07280063
64	0x80001329	-6.873e-42
65	0x3cb2dcdd	0.021833831
66	0xbd0a3ce4	-0.033749476
67	0xbd02b301	-0.031908993
68	0x3bf6505c	0.007516904
69	0xbd19f017	-0.037582483
70	0xbd5ecaa9	-0.05439249
71	0xbc5bf217	-0.013424418
72	0xbd18c1f3	-0.03729434
73	0x3d26da30	0.040735424
74	0xbc84c54b	-0.016207358
75	0xbc9064a1	-0.017626109
76	0x3d29cdd6	0.041456066
77	0x3cb89ee3	0.0225367
78	0xbc9acd2f	-0.018896667
79	0x3d49125a	0.049089767
80	0x3cb4a80a	0.022052784
81	0x3b632238	0.0034657847
82	0xbca53e19	-0.020171212
83	0x3b3571c6	0.0027686222
84	0xbd6dcc62	-0.058056243
85	0xbd192be4	-0.037395373
86	0xbcb24b2f	-0.021764366
87	0xbcb6e4ab	-0.022325834
88	0xbcd9b13c	-0.02657377
89	0x3d91a898	0.07112235
90	0xbbb3617c	-0.0054742675
91	0xbd162edb	-0.03666578
92	0x3c98020c	0.018555664
93	0x3ce45450	0.027872235
94	0xbcf91efe	-0.030410286
95	0x800084fd	-4.7707e-41
96	0xbce4b984	-0.027920492
97	0x80012c33	-1.07691e-40
98	0xbd6b4d95	-0.057447035
99	0x3cb5123c	0.022103421
100	0x3cb9fcde	0.022703584
101	0x3bf36c16	0.0074286563
102	0x3d58d8ce	0.052941136
103	0xbcd93fc0	-0.026519656
104	0xbc846011	-0.01615909
105	0x3c8f0a69	0.017461019
106	0x3d1afef1	0.037840787
107	0x3d38c0c5	0.045105714
108	0xbd6fa350	-0.058505356
109	0xbcbf9d5b	-0.023390463
110	0x3dbaa94f	0.09114324
111	0x3b5bc9e1	0.0033537077
112	0xbc029c74	-0.007971872
113	0x3b6e5202	0.0036364798
114	0x3ccb2b86	0.024801027
115	0x3d18e3e1	0.037326697
116	0x3c5b99fd	0.013403413
117	0x3dd34496	0.10315816
118	0x3c8cf753	0.017207777
119	0xbd45ae3a	-0.04826186
120	0x3c92c84b	0.017917773
121	0x3d845db4	0.06463185
122	0xbd3bcd64	-0.045850173
123	0x3cb4799a	0.02203064
124	0xbcd5da84	-0.026105173
125	0xbc0c2ffd	-0.008556363
126	0x3cdfceef	0.027320353
127	0xbd062757	-0.03275236
128	0x8000b33e	-6.43e-41
129	0xbce80c5a	-0.028326202
130	0x8001a2bf	-1.50218e-40
131	0x3d84c3f7	0.0648269
132	0x391041c2	0.00013757407
133	0x3a04999e	0.0005058291
134	0xb9408532	-0.00018360166
135	0xb89bbb99	-7.425919e-05
136	0x3846bf8c	4.738527e-05
137	0xb8bccb79	-9.002438e-05
138	0x3884c1c8	6.330345e-05
139	0xb9c24e86	-0.00037061068
140	0xb8051249	-3.17267e-05
141	0x38368134	4.351251e-05
142	0xb9ad7538	-0.00033084466
143	0xb9bded3c	-0.00036225643
144	0x3a1dd849	0.00060213037
145	0x3b004a0d	0.0019575388
146	0x3a630c34	0.0008661181
147	0x396a1447	0.00022323533
148	0x3904997f	0.00012645683
149	0xb88a2ec9	-6.589067e-05
150	0x3835b6f8	4.3324166e-05
151	0xb8ba1746	-8.873506e-05
152	0x39a9a22b	0.00032355016
153	0xb7ad5e91	-2.0667243e-05
154	0x379ff7df	1.9069701e-05
155	0xb9d65bbf	-0.00040885617
156	0xb98d6baa	-0.00026973832
157	0x3a97a099	0.0011568248
158	0x3af93206	0.00190121
159	0x38cc8f9c	9.754227e-05
160	0x3929c0bd	0.00016188897
161	0x00014307	1.1588e-40
162	0xb8cc8f9c	-9.754227e-05
163	0x80006019	-3.4473e-41
164	0x35a810b8	1.2521841e-06
165	0xbd8ffbe2	-0.07030465
166	0x3c99260a	0.018694896
167	0x3b80198d	0.003909296
168	0x3a521e73	0.00080154015
169	0x3c57eed8	0.013179503
170	0xbc798b65	-0.015230988
171	0x3c3de5f8	0.011590473
172	0x3b8ad2ea	0.0042365687
173	0xbb638c61	-0.0034721124
174	0xbd03ee0c	-0.03220944
175	0xbc9a95b9	-0.018870221
176	0x3b2273a4	0.0024788165
177	0xbb2adbe7	-0.0026071013
178	0x3dbb2661	0.091381796
179	0x3b376da3	0.0027988933
180	0x3d26cd71	0.040723268
181	0x3c83e35e	0.016099628
182	0x3caf983b	0.021434894
183	0x3c9f13ec	0.01941868
184	0x3c37ff97	0.011230371
185	0x3bc9f494	0.006163189
186	0x3bed0ede	0.0072344383
187	0x3c591734	0.013250161
188	0x3d7e7e41	0.062132124
189	0x3b98ae57	0.004659455
190	0x3d1ab657	0.03777155
191	0xbcbaead7	-0.022817058
192	0x3cf26f5e	0.02959412
193	0xbd42f34f	-0.04759532
194	0x00000bad	4.188e-42
195	0xbd0b5c74	-0.034023717
196	0x800090a3	-5.1886e-41
197	0x3deb7cb6	0.11498396
198	0xbd4a8319	-0.04944143
199	0x3d202ced	0.039105345
200	0x3d2c864d	0.042120267
201	0x391d92d7	0.00015027389
202	0xbd1141ea	-0.03546325
203	0x3c3e7940	0.011625588
204	0xbd531173	-0.051530313
205	0x3d25fce4	0.04052438
206	0x3c8c684b	0.017139575
207	0xbd42a227	-0.04751792
208	0xbc0185d2	-0.00790544
209	0xbb68c8fd	-0.003552019
210	0x3cddc98d	0.027073646
211	0xb875a059	-5.8561887e-05
212	0xbcaab944	-0.020840295
213	0xbd90cb8a	-0.07070072
214	0xbb32a8a2	-0.0027261158
215	0xbc0a95dc	-0.008458581
216	0x3d136099	0.035980795
217	0xbc93eaf7	-0.018056376
218	0xbb9e8755	-0.00483791
219	0x3bf41720	0.007449046
220	0xbbebb3a7	-0.007193047
221	0xbcf2ae36	-0.029624086
222	0xbc2fa523	-0.010720524
223	0xbd481264	-0.048845664
224	0xbb215c0d	-0.0024621517
225	0x3d6f384a	0.05840329
226	0xbca96cb4	-0.020681717
227	0x80008c06	-5.0231e-41
228	0xbd6eed7e	-0.05833196
229	0x00007f5f	4.5692e-41
230	0x3e599e9e	0.21251914
231	0x3c9dd877	0.019268258
232	0x3dee962c	0.11649737
233	0xbbdee0f0	-0.006801717
234	0xbd76f74c	-0.060294434
235	0x3b32a981	0.0027261677
236	0xbc90e220	-0.01768595
237	0xbc86084a	-0.016361374
238	0xbc853fdb	-0.0162658
239	0xbc99a9e1	-0.018757762
240	0x3acf21e0	0.0015802942
241	0xbb97644a	-0.0046201097
242	0x3b2f1f44	0.0026721517
243	0x3b2b1f5d	0.0026111223
244	0xbce8184f	-0.028331904
245	0xbd07deac	-0.03317134
246	0x3d12ef7d	0.035872925
247	0xbd32414d	-0.043519307
248	0xbba1a44c	-0.004932916
249	0xbcd92332	-0.02650604
250	0x3cc88a68	0.02448006
251	0x3b245a7b	0.0025078345
252	0x3c114754	0.008867104
253	0x3ba6d119	0.0050908444
254	0xbc7e8c7e	-0.015536426
255	0xbb95d273	-0.0045722066

fcs1.bias f4 [128]
0	0xbadfa575	-0.001706286
1	0xbd94de5b	-0.072689734
2	0xbce2b197	-0.027672572
3	0xbcfd9df9	-0.030959116
4	0xb8cc8f9b	-9.7542266e-05
5	0xbcfd29ae	-0.030903663
6	0xbd6e308f	-0.058151778
7	0xbda0bedb	-0.07848903
8	0xbcc8014a	-0.024414677
9	0x3b5bbb28	0.0033528302
10	0xbd9fbd6d	-0.07799802
11	0xbd62483f	-0.05524468
12	0xb91204aa	-0.00013925383
13	0xbd917ebf	-0.07104253
14	0x3ccf9a9c	0.025342278
15	0xbc97b3ab	-0.01851829
16	0xbd63d853	-0.055626225
17	0xbd85ad44	-0.065271884
18	0xbc4a14a0	-0.012334019
19	0xbc5da0eb	-0.013527135
20	0xbc825ba9	-0.015912848
21	0xbba0548d	-0.0048928917
22	0x3b264ee8	0.0025376622
23	0xbd1989c2	-0.03748489
24	0xb932dd2a	-0.00017057793
25	0xbd5e8ed5	-0.054335434
26	0xbc5ba071	-0.013404951
27	0xbcbcfe42	-0.023070458
28	0xbba6cd9a	-0.0050904276
29	0xbd694ced	-0.056958128
30	0xbd0c3f71	-0.03424019
31	0x3a2ce300	0.0006595105
32	0xbde8c9c8	-0.11366612
33	0xbb594cd2	-0.003315736
34	0xbcd975c5	-0.026545415
35	0xbdaa8d72	-0.0832776
36	0xbd88d874	-0.0668191
37	0xbaa2d0f4	-0.0012421892
38	0x3a6b0580	0.0008965358
39	0xbd6ec2c5	-0.058291215
40	0xbc48ed24	-0.01226357
41	0xbd7f0180	-0.06225729
42	0xbd3938fd	-0.045220364
43	0xbd1d0972	-0.038339086
44	0xbd9f7971	-0.07786835
45	0xbca9a248	-0.020707265
46	0xbc2fbe9f	-0.0107266
47	0xbd3dc3b8	-0.04632923
48	0x3be164e8	0.006878484
49	0xbcc66e21	-0.024222435
50	0xbd7690bd	-0.060196627
51	0x3cd776d8	0.026301786
52	0xbc2f9360	-0.010716289
53	0xbc189093	-0.009311813
54	0xbd830e63	-0.063992284
55	0xbd33c958	-0.04389319
56	0xbc9a2a1a	-0.018818904
57	0xbd61e62d	-0.055151153
58	0xbbdadcef	-0.0066791694
59	0x3d59ede4	0.053205386
60	0xbd1f5780	-0.038901806
61	0xbdd6a7de	-0.10481237
62	0xbd90f6f4	-0.070783526
63	0xbda69677	-0.08134168
64	0xbda2c953	-0.07948556
65	0x3bbacad0	0.0057004467
66	0x3c03c1be	0.008041797
67	0xbc2fb0ff	-0.0107233515
68	0xbdab3144	-0.08359006
69	0xbd618a16	-0.05506333
70	0xbd56622d	-0.05233972
71	0xbd1a2e12	-0.037641592
72	0xbd77d82a	-0.060508884
73	0xbd815d69	-0.06316645
74	0xbd4dcb6e	-0.050242834
75	0xbd97d7db	-0.07414218
76	0xbd8e2b20	-0.06941819
77	0xbbd37693	-0.006453344
78	0xbd7529de	-0.05985438
79	0xbd41b1a5	-0.047288556
80	0xbd9859bd	-0.07438991
81	0x3c9230b1	0.017845483
82	0xbcd28976	-0.025700312
83	0x3cc95278	0.024575457
84	0xbd2137ca	-0.039359845
85	0xbda808cb	-0.08204802
86	0xbd65720c	-0.056016967
87	0xbd539c85	-0.05166294
88	0xbd0326ca	-0.032019414
89	0xbcba8f47	-0.022773398
90	0x37b1a7b4	2.1178137e-05
91	0xbd89a0e4	-0.067201406
92	0xbd783a04	-0.060602203
93	0xbcc2b3d5	-0.023767391
94	0xbd5e9d16	-0.054349028
95	0xbc446c5d	-0.011988726
96	0xbd701f25	-0.05862345
97	0xbd8aefc7	-0.06784015
98	0xbcc54585	-0.024081001
99	0xbdda0f59	-0.106474586
100	0xbd95d52e	-0.073160514
101	0xbd544849	-0.05182675
102	0xbc37650f	-0.011193528
103	0xbcec2c04	-0.028829582
104	0xbbd9f6ef	-0.006651751
105	0x3d580302	0.052737243
106	0x3d1d57da	0.03841386
107	0x3aa6ffc1	0.0012741016
108	0x3ba4637b	0.005016742
109	0xbcf5b6f0	-0.029994458
110	0xbbb31969	-0.0054656756
111	0xbceb9b0d	-0.028760457
112	0x3bd0eafd	0.006375669
113	0xbca3955f	-0.019968687
114	0xbdba6ae0	-0.09102416
115	0xbc158a67	-0.009127236
116	0xbce1cab5	-0.027562479
117	0xbd911d75	-0.070856966
118	0xbd1c9def	-0.038236555
119	0xbcc7dd9d	-0.024397666
120	0xb91daf01	-0.00015037881
121	0xbda7bdfe	-0.08190535
122	0xbd1a99fa	-0.0377445
123	0x3c52c5bf	0.012864529
124	0xbd132a82	-0.03592921
125	0xbcaf9c03	-0.021436697
126	0xbdf6ce07	-0.12051015
127	0xbd883c59	-0.066521354

bn2.weight f4 [128]
0	0xb99a76b5	-0.00029461613
1	0x3db39229	0.08768112
2	0x3e1145fb	0.14186852
3	0x3e1936b3	0.14962272
4	0x37dca1f3	2.6301457e-05
5	0x3e4c3cd3	0.19945078
6	0x3e67ee3e	0.22649476
7	0x3debb316	0.11508767
8	0x3e6b0ff6	0.22955307
9	0x3e9788e6	0.29596633
10	0x3e244683	0.16042523
11	0x3db9665e	0.09052728
12	0xb69ec2ec	-4.731459e-06
13	0x3e09909f	0.13434075
14	0x3dfb8242	0.12280704
15	0x3e0e0be4	0.13871723
16	0x3dd09f1f	0.101866
17	0x3e8f0b39	0.2793825
18	0x3e502c28	0.20329344
19	0x3f04513a	0.5168644
20	0x3e8cb4c4	0.27481663
21	0x3e5b85ce	0.21437761
22	0x3ddd027e	0.10791491
23	0x3e731544	0.23738581
24	0x37097c1b	8.194732e-06
25	0x3e3d43c2	0.18482879
26	0x3e5226dc	0.20522636
27	0x3e0e1974	0.13876897
28	0x3e493473	0.19648914
29	0x3daa7e1a	0.08324833
30	0x3e4cf735	0.20016177
31	0x3efad6cf	0.4899201
32	0x3e87a961	0.26496413
33	0x3e2cb275	0.16864951
34	0x3e7faffe	0.2496948
35	0x3e088656	0.13332495
36	0x3e0a8779	0.13528241
37	0x3df8056b	0.121104084
38	0x3e192472	0.14955309
39	0x3e7df08c	0.24798793
40	0x3a5fde52	0.0008539903
41	0x3da8f8d0	0.08250582
42	0x3e9d889e	0.30768293
43	0x3e70598e	0.23471662
44	0x3e35741e	0.17720076
45	0x3f12cbdd	0.5734232
46	0x3eb485aa	0.35258228
47	0x3ec19530	0.37809134
48	0x3e1869d6	0.14884123
49	0x3e86f611	0.2635961
50	0x3dfd1738	0.12357944
51	0x3e0e2343	0.13880639
52	0x3e055825	0.13021906
53	0x3e319439	0.17341699
54	0x3eab0d03	0.33408365
55	0x3e64fc09	0.22361769
56	0x3e802b54	0.25033057
57	0x3e5adfc6	0.21374425
58	0x3e24ea57	0.16105019
59	0x3e76ced8	0.24102342
60	0x3e682698	0.22670972
61	0x3e20b9a7	0.15695821
62	0x3e24858e	0.16066572
63	0x3e285770	0.16439605
64	0x3e6d1a5f	0.23154591
65	0x3e8e60c6	0.27808207
66	0x3e59532e	0.21223137
67	0x3e136d76	0.14397225
68	0x3e2a3214	0.16620666
69	0x3eb05563	0.34440145
70	0x3ea0281a	0.31280595
71	0x3e58b30c	0.21162051
72	0x3e2ecdfd	0.17070766
73	0x3e17dde5	0.1483074
74	0x3e88879d	0.26665965
75	0x3e66e05e	0.22546527
76	0x3e7649e8	0.2405163
77	0x3e84c429	0.25930908
78	0x3ddc9e7d	0.10772417
79	0x3e1d528d	0.15363522
80	0x3e0e87c3	0.13918976
81	0x3e62d180	0.2215023
82	0x3e12af9a	0.14324799
83	0x3e72d5a4	0.2371431
84	0x3ebdda8c	0.370808
85	0x3e449f77	0.19201456
86	0x3e15d08d	0.14630337
87	0x3e36fbbe	0.1786947
88	0x3e0e0979	0.13870801
89	0x3eab5f75	0.33471265
90	0x38351276	4.3170956e-05
91	0x3e7b9924	0.24570137
92	0x3e3b7571	0.18306519
93	0x3e80180e	0.25018352
94	0x3ebe1061	0.3712187
95	0x3e35a142	0.17737296
96	0x3e4ddea4	0.20104462
97	0x3e24f998	0.16110837
98	0x3e3e17aa	0.18563715
99	0x3e4ead86	0.20183381
100	0x3e8c1473	0.27359352
101	0x3e711a97	0.235453
102	0x3e12fec0	0.14354992
103	0x3e73e598	0.23818052
104	0x398faaa0	0.0002740221
105	0x3ed7a413	0.42117366
106	0x3e0da88a	0.13833824
107	0x3e925816	0.2858283
108	0x3e6a8cb9	0.22905244
109	0x3e296ddf	0.16545819
110	0x3e8ad519	0.27115706
111	0x3df940c6	0.12170558
112	0x3e486e91	0.19573428
113	0x3ea2796c	0.31733263
114	0x3ddb1483	0.10697272
115	0x3e8ab61b	0.2709206
116	0x3e5e3ee0	0.21703672
117	0x3e857a8c	0.26070058
118	0x3e7e5456	0.24836859
119	0x3e93ac3c	0.28842342
120	0xb716a399	-8.978787e-06
121	0x3e9a3fc9	0.3012679
122	0x3e48e027	0.19616757
123	0x3e512012	0.2042239
124	0x3e71027b	0.23536102
125	0x3e4a3689	0.19747366
126	0x3e9e5943	0.30927476
127	0x3e253ccc	0.16136473

bn2.bias f4 [128]
0	0x3794018e	1.7643699e-05
1	0xbdceca3a	-0.100971654
2	0x3dab19ac	0.08354506
3	0x3cba5f1f	0.022750435
4	0xb7d0473c	-2.4828703e-05
5	0xbd3d27e4	-0.04618062
6	0x3ce547cf	0.027988343
7	0xbd4866f4	-0.04892631
8	0xbd359844	-0.044334665
9	0x3da61a2e	0.08110462
10	0xbde4fc00	-0.11180878
11	0xbd276eed	-0.04087727
12	0xb848ec10	-4.7903566e-05
13	0xbde5f114	-0.11227623
14	0x3c81655e	0.015795406
15	0x3dadfa9f	0.08495068
16	0xbdbe7cd1	-0.093011506
17	0x3c92dd32	0.01792774
18	0x3da630e7	0.08114796
19	0xbd972371	-0.07379807
20	0x3d8e01e6	0.06933956
21	0x3ddb4d60	0.107081175
22	0xbda8da0f	-0.082447164
23	0xbd8aac71	-0.06771172
24	0xb726fafb	-9.952807e-06
25	0x3c13a1e0	0.009010762
26	0xbd750c53	-0.059826206
27	0xbd376970	-0.044778287
28	0x3d2bc9b7	0.041940417
29	0xbd1e8be4	-0.03870763
30	0xbcd7f5fb	-0.02636241
31	0x3bebadf6	0.0071923686
32	0xbdd06409	-0.1017533
33	0x3d400f0a	0.046889342
34	0xbdb72374	-0.08942309
35	0x3d588f53	0.05287106
36	0xbd96d0bb	-0.07364031
37	0x3d8a6b8f	0.067587964
38	0xbda784ad	-0.08179603
39	0xbd4c5c70	-0.049892843
40	0x38095d2a	3.275011e-05
41	0xbd7a5fc7	-0.061126497
42	0x3cecede9	0.028922038
43	0x3dbf14c7	0.09330135
44	0x3dc4c342	0.09607555
45	0xbdbaf702	-0.09129144
46	0xbda9c2d9	-0.08289117
47	0xbd8b8a81	-0.06813527
48	0x3d4b6709	0.04965881
49	0xba76847e	-0.0009403898
50	0x3cce9cde	0.025221284
51	0x3d36ebcd	0.04465847
52	0x3da473ad	0.08029876
53	0xbd7254bd	-0.059162844
54	0x3c68b233	0.014202642
55	0xbd3e2ac8	-0.046427518
56	0xbd2a42c1	-0.041567568
57	0xbd8111a0	-0.0630219
58	0xbbcc3ef4	-0.0062330905
59	0xbd73b77e	-0.059501164
60	0xbca69b33	-0.020337677
61	0x3dc2525c	0.09488365
62	0xbd507f6d	-0.050902773
63	0x3d62fa1d	0.055414308
64	0xbdbc1141	-0.091829784
65	0xbdaacd76	-0.0833997
66	0x3d921cec	0.07134423
67	0x3d003eeb	0.031310003
68	0xbc0c87da	-0.008577311
69	0xbdbb2c9f	-0.0913937
70	0xbd7ab3b8	-0.06120655
71	0xbb4f353f	-0.003161743
72	0x3cc7daa4	0.024396248
73	0xbd86770f	-0.065656774
74	0xbd99f3ff	-0.07517242
75	0xbcf15d96	-0.02946357
76	0xbd0f49e3	-0.034982573
77	0x3bf7124b	0.0075400225
78	0xbd47f504	-0.04881765
79	0x3ce467e4	0.02788157
80	0xbdb27996	-0.08714597
81	0x3c9517ce	0.018199828
82	0xbd8b4ddb	-0.06801959
83	0x3cc27629	0.023737984
84	0xbd03a16b	-0.032136362
85	0xbb037dd9	-0.0020064025
86	0x3d93e0ec	0.07220635
87	0xbe1be663	-0.15224604
88	0x3c968c66	0.018377494
89	0xbd8e57ca	-0.06950338
90	0xb785f8b4	-1.5970647e-05
91	0xbde2dd26	-0.11077337
92	0xbdf4bff4	-0.11950675
93	0x3dac5a3e	0.0841565
94	0xbd522e71	-0.05131382
95	0xbcb4e06d	-0.02207967
96	0x3e17cb0c	0.1482355
97	0xbdac27bf	-0.084060185
98	0xbd8f6bb8	-0.070029676
99	0xbd69f599	-0.057118986
100	0xbd9556d4	-0.07291952
101	0xbda181fe	-0.07886122
102	0x3d73bdd4	0.059507206
103	0xbc114502	-0.00886655
104	0x38c2f4a0	9.296206e-05
105	0x3d55f31b	0.052233797
106	0x3d8ded66	0.06930046
107	0x3c294eed	0.010333759
108	0xbcb940a4	-0.02261383
109	0x3c0e4f34	0.008685876
110	0x3c4cbb89	0.012495884
111	0x3d8690de	0.065706
112	0x3ded3e7d	0.11584184
113	0xbc5c69e1	-0.013452978
114	0xbdc492bd	-0.095983006
115	0xbd206bfc	-0.039165482
116	0xbd08ce9f	-0.033400174
117	0xbcbf6a49	-0.02336611
118	0xbda7df0c	-0.0819684
119	0xbd64eefe	-0.055891983
120	0xb74f464e	-1.2354531e-05
121	0xbc4e8436	-0.012604764
122	0xbd1c8682	-0.038214214
123	0xbd6108a3	-0.054939877
124	0xbd97abb1	-0.074057944
125	0xbc0d64fb	-0.008630033
126	0xbd2841d1	-0.041078392
127	0x3b187910	0.0023265518

bn2.running_mean f4 [128]
0	0x3b1a5115	0.0023546864
1	0x3c988bb8	0.01862131
2	0x3e00fc97	0.12596355
3	0x3d6d27fa	0.057899453
4	0x3bf4ae16	0.0074670417
5	0x3d17a6d2	0.037024327
6	0x3dab8b33	0.083761595
7	0x39874cfc	0.00025806564
8	0x3d62aa04	0.05533792
9	0x3e9088da	0.2822941
10	0x3c35741b	0.011075045
11	0x392fdcd4	0.00016771565
12	0x3c8c9f48	0.017165795
13	0x3c9b04ee	0.01892325
14	0x3ccb54fb	0.024820795
15	0x3d5d63a1	0.05405009
16	0x3b7104aa	0.0036776462
17	0x3ceb15d9	0.028696941
18	0x3d8ca39f	0.06867146
19	0x3d0c05e4	0.034185305
20	0x3dc25983	0.09489729
21	0x3ea2911c	0.31751335
22	0x3e6ccd2a	0.23125139
23	0x3cbce3c7	0.023057831
24	0x3994f54d	0.00028411523
25	0x3dbbfed1	0.09179462
26	0x3c2ad7d6	0.010427436
27	0x3cc79b83	0.024366146
28	0x3cf56100	0.02995348
29	0x38d81aa5	0.000103046455
30	0x3d7b2fd2	0.061324902
31	0x3e21dfc2	0.15808013
32	0x3cc494b1	0.023996683
33	0x3e005428	0.12532103
34	0x3d218776	0.039435826
35	0x3c9e113a	0.019295324
36	0x3cc4ca3f	0.02402222
37	0x3e1e93a2	0.15486005
38	0x3c948cec	0.018133603
39	0x3d86ea72	0.06587686
40	0x37ba4ac0	2.2207736e-05
41	0x3aa2eda9	0.0012430447
42	0x3e002e10	0.12517571
43	0x3cf5a523	0.02998597
44	0x3cf0efd5	0.029411236
45	0x3d807a82	0.062733665
46	0x3c5ef0ac	0.013607185
47	0x3dba2dc2	0.09090759
48	0x3d33f70d	0.043936778
49	0x3e35456b	0.17702262
50	0x3ce1056b	0.027468404
51	0x3f01b40e	0.50665367
52	0x3d658c63	0.056042086
53	0x3e23f332	0.1601074
54	0x3d54344b	0.051807683
55	0x3ddd948d	0.108193494
56	0x3d142b63	0.03617419
57	0x3d1489e0	0.0362643
58	0x3ceb0878	0.028690562
59	0x3d01c5e7	0.031682875
60	0x3a253e57	0.000630354
61	0x3cf1d777	0.029521687
62	0x3cc3426f	0.023835389
63	0x3be38dce	0.0069443947
64	0x3db08b44	0.08620313
65	0x3d1c70c2	0.03819347
66	0x3e5ade70	0.21373916
67	0x3d0d7080	0.034531116
68	0x3d471fb3	0.048614215
69	0x3e893ffe	0.26806635
70	0x3d8ad6a2	0.06779219
71	0x3d0cdae5	0.03438844
72	0x3d5018eb	0.050805014
73	0x3ce68bbb	0.0281428
74	0x3d0b6515	0.034031946
75	0x3d286b68	0.041118056
76	0x3d856278	0.06512922
77	0x3e9300a7	0.28711435
78	0x3c40ef36	0.011775782
79	0x3d814dac	0.06313643
80	0x39804935	0.00024468606
81	0x3d49871f	0.049201127
82	0x3bbbf76e	0.005736283
83	0x3e6f3c0d	0.23362751
84	0x3e1176e0	0.14205503
85	0x3aa1f3fc	0.0012356038
86	0x3c807d37	0.015684707
87	0x3df63ef7	0.12023728
88	0x3d6f1b2c	0.058375522
89	0x3c576f90	0.013149157
90	0x3c1915fa	0.0093436185
91	0x3d6c9ab8	0.05776474
92	0x3d317b8f	0.043330725
93	0x3e34fee0	0.17675352
94	0x3d8c38bf	0.06846761
95	0x3db0e71c	0.086378306
96	0x3d724901	0.059151653
97	0x3d299686	0.041403316
98	0x3ccb7a46	0.024838578
99	0x3cd33111	0.025780233
100	0x3cfc8c1f	0.030828534
101	0x3c8572ed	0.016290152
102	0x3da54f1f	0.08071732
103	0x3dbfe72c	0.093702644
104	0x382fc75e	4.1908927e-05
105	0x3e264bc8	0.16239846
106	0x3f281411	0.6565562
107	0x3e0798dd	0.13241906
108	0x3d6d5feb	0.057952803
109	0x3d8b154f	0.06791174
110	0x3e46d4a6	0.19417056
111	0x3d5d85dc	0.054082736
112	0x3eff7511	0.49894002
113	0x3e16d176	0.1472834
114	0x39ce68ee	0.0003936956
115	0x3ea699c6	0.32539195
116	0x3dd5c027	0.10437041
117	0x3c5aab5c	0.013346519
118	0x3e05da97	0.13071667
119	0x3d9014cc	0.07035217
120	0x3ba339d5	0.0049812593
121	0x3b01d6ef	0.0019811948
122	0x3c35a891	0.011087553
123	0x3e9e1967	0.30878755
124	0x3d45f154	0.04832585
125	0x3d5ef319	0.054431055
126	0x3d07af5e	0.033126228
127	0x3e3e3924	0.18576485

bn2.running_var f4 [128]
0	0x383acfee	4.4539505e-05
1	0x3b62f197	0.0034628862
2	0x3d14fbdd	0.036373008
3	0x3c8435f2	0.016139004
4	0x38d7a3ad	0.00010282486
5	0x3be07f0a	0.0068510817
6	0x3cc742d0	0.02432385
7	0x384abd72	4.8336988e-05
8	0x3c6b5ac2	0.0143649
9	0x3de92c66	0.113854215
10	0x3abe1b8c	0.0014504059
11	0x3860c2dc	5.358724e-05
12	0x3a24161d	0.00062593987
13	0x3ad98f6e	0.0016598532
14	0x3b580c59	0.0032966344
15	0x3c08ca21	0.008348973
16	0x3a03c032	0.0005025893
17	0x3bb7a283	0.0056040897
18	0x3c956426	0.018236231
19	0x3b8e8e93	0.0043504923
20	0x3c816959	0.015797304
21	0x3e1c5f3f	0.15270709
22	0x3d823c76	0.06359188
23	0x3b4660d3	0.0030270114
24	0x35505380	7.7607547e-07
25	0x3d06b878	0.032890767
26	0x3a47a2bd	0.00076154975
27	0x3b89a4ec	0.0042005684
28	0x3b70d15e	0.0036745886
29	0x3715f7bb	8.938771e-06
30	0x3cb47193	0.022026813
31	0x3cc7b31c	0.024377398
32	0x3b7fc174	0.003902522
33	0x3ceb2fa9	0.02870925
34	0x3ba5b245	0.005056652
35	0x3b906d34	0.0044075493
36	0x3b3aa1ae	0.0028477716
37	0x3d1e2e12	0.038618155
38	0x3abd89aa	0.0014460583
39	0x3c54409e	0.012954859
40	0x34b6bdae	3.4038152e-07
41	0x39a71113	0.00031865443
42	0x3cec959d	0.028879935
43	0x3bc53bee	0.006019107
44	0x3bf88fc5	0.007585498
45	0x3c15a035	0.009132435
46	0x3b181d36	0.002321077
47	0x3c9202ba	0.017823566
48	0x3bd23139	0.006414559
49	0x3d7babff	0.061443325
50	0x3c030a8e	0.007998122
51	0x3d5f8850	0.054573357
52	0x3c869481	0.016428234
53	0x3d669c01	0.05630112
54	0x3c30ce90	0.010791436
55	0x3d1c425d	0.038149226
56	0x3bc3ffeb	0.0059814355
57	0x3bb66f4d	0.0055674673
58	0x3b6ae4b7	0.003584189
59	0x3ba9b6ef	0.005179278
60	0x387101d1	5.746057e-05
61	0x3b97e5d5	0.0046355524
62	0x3bcbb8ae	0.006217084
63	0x3a2aa6af	0.0006509823
64	0x3c86010f	0.016357927
65	0x3bc1b94c	0.0059119817
66	0x3ce10f71	0.027473183
67	0x3c12919d	0.00894585
68	0x3c578d88	0.013156302
69	0x3df08859	0.11744756
70	0x3c8e7300	0.01738882
71	0x3bbbfeb8	0.005737152
72	0x3c5f1de5	0.013617967
73	0x3b554cbb	0.0032546956
74	0x3b97f99b	0.0046379096
75	0x3c2fb122	0.010723384
76	0x3cb49aaf	0.022046415
77	0x3e1c89ac	0.15286893
78	0x3ae17474	0.0017200843
79	0x3c5afb06	0.013365513
80	0x38239782	3.900333e-05
81	0x3bb0daee	0.005397192
82	0x399d5025	0.00030005086
83	0x3d55a083	0.05215503
84	0x3cd0672c	0.025439821
85	0x39ce3a65	0.0003933489
86	0x3b147db9	0.0022657944
87	0x3d1f4617	0.038885202
88	0x3c7f5d1d	0.015586165
89	0x3a8ff15b	0.0010981964
90	0x3927ad28	0.00015990867
91	0x3c1acf11	0.009448783
92	0x3c1fbdfe	0.0097498875
93	0x3d407569	0.04698697
94	0x3c33544a	0.010945389
95	0x3ca5ec99	0.02025442
96	0x3bb66fe3	0.005567537
97	0x3b9d26c1	0.0047958796
98	0x3b3aebe9	0.002852196
99	0x3bc71b89	0.0060762805
100	0x3bb142ca	0.005409573
101	0x3acd5716	0.0015666212
102	0x3c67a333	0.014138031
103	0x3c988814	0.018619575
104	0x3590f0c0	1.0798904e-06
105	0x3d15610a	0.036469497
106	0x3d52310b	0.051316302
107	0x3d06ef48	0.03294304
108	0x3c6a6835	0.014307071
109	0x3c4c5fd8	0.012474023
110	0x3d656882	0.05600787
111	0x3c40886f	0.011751278
112	0x3dc39933	0.09550705
113	0x3ced1acb	0.02894344
114	0x38b109e5	8.441861e-05
115	0x3e27bcff	0.1638069
116	0x3c4208eb	0.0118429465
117	0x3ad6b9a7	0.0016382233
118	0x3caacfa0	0.020850956
119	0x3c89f87f	0.016842125
120	0x384c715a	4.8742957e-05
121	0x3a436541	0.00074537477
122	0x3aef9da0	0.0018281229
123	0x3e0bc0e1	0.13647796
124	0x3c096662	0.008386226
125	0x3c51ed67	0.012812949
126	0x3bb66e7a	0.005567369
127	0x3d2c28c7	0.042031076

fc2.weight f4 [128, 132]
0	0x39aec3a0	0.00033333618
1	0xbd5f3ae3	-0.054499518
2	0x3d28b8bb	0.041191798
3	0xbc69defd	-0.014274356
4	0x391f538c	0.00015194545
5	0xbc8f358f	-0.017481593
6	0xbccbbb0e	-0.024869468
7	0x3b2687b6	0.002541048
8	0xbcf509e9	-0.029911952
9	0xbca9cdd4	-0.02072803
10	0xbd4a104c	-0.04933195
11	0xbbf487b8	-0.007462468
12	0x38a99dd1	8.0879436e-05
13	0xbda98e8c	-0.08279142
14	0x3ca15fcc	0.019699
15	0x3d8e27ad	0.06941161
16	0xbd829bcb	-0.063773714
17	0x3ccbe167	0.024887754
18	0x3cd0204c	0.025406025
19	0xbd0c7fd2	-0.034301586
20	0xbd2ddfb3	-0.042449664
21	0x3d375727	0.04476085
22	0xbdbc0521	-0.09180666
23	0xbd6e96c9	-0.05824927
24	0x373146cb	1.0566505e-05
25	0x3ca9d720	0.020732462
26	0xbd1d048e	-0.03833442
27	0xbc7b7138	-0.015346818
28	0x3d461718	0.048361868
29	0xbd353c9d	-0.04424726
30	0xbc9018fe	-0.017590042
31	0xbc82cb78	-0.015966162
32	0xbd8234ce	-0.06357728
33	0x3cd3a5f8	0.025835976
34	0xbde71c1f	-0.112846605
35	0x3c4d6a5a	0.012537563
36	0xbd259746	-0.04042747
37	0x3d21573d	0.039389838
38	0xbd3b5ca1	-0.045742635
39	0xbd37e764	-0.044898406
40	0x3b46f0e8	0.0030355994
41	0xbd0444f0	-0.032292306
42	0xbd222ecf	-0.03959542
43	0x3d67afa0	0.056563973
44	0x3d042240	0.032259226
45	0xbda808dd	-0.082048155
46	0xbca6f798	-0.020381734
47	0xbd6c82b9	-0.057741854
48	0xbc8bf7c9	-0.017085927
49	0x399284e1	0.00027946293
50	0x3c9642ca	0.018342394
51	0x3cabc944	0.020969994
52	0x3cbff3fd	0.023431772
53	0xbd1d2eed	-0.03837483
54	0xbbdb5fd5	-0.0066947737
55	0xbc44f7ab	-0.012021939
56	0xbccf7425	-0.025323937
57	0xbd2c7c37	-0.042110648
58	0xbc6cc7e6	-0.014451956
59	0xbcf93d1a	-0.030424643
60	0xbcc852dc	-0.024453573
61	0x3d1ee4ce	0.038792424
62	0x3c148fcd	0.009067488
63	0x3c5a6a47	0.013331003
64	0xbcba6485	-0.02275301
65	0xbcf8cb4a	-0.030370373
66	0x3c49d2ed	0.012318355
67	0x38c1d66e	9.242898e-05
68	0xbc877396	-0.016534608
69	0xbd2fb14b	-0.04289369
70	0xbd87eae8	-0.06636602
71	0xbcf5c075	-0.029998997
72	0x3b60c06f	0.0034294387
73	0xbd645543	-0.055745374
74	0xbd0543c8	-0.032535344
75	0xbc9233fe	-0.017847057
76	0xbc7c7a7b	-0.015410061
77	0x3d1ff98b	0.039056342
78	0x3c44e216	0.012016794
79	0xbc3b0b38	-0.011416249
80	0x3c8afb1f	0.016965447
81	0x3d323a77	0.043512788
82	0xbd2a9941	-0.04165006
83	0x3d39cb50	0.04535991
84	0xbc619d0d	-0.013770354
85	0xbb4a98d1	-0.003091384
86	0x3d284c5d	0.04108845
87	0xbd3bf561	-0.04588831
88	0xbc09129a	-0.008366251
89	0xbd2c0b2d	-0.042002846
90	0x39a25a6a	0.00030966412
91	0xbd942bb8	-0.07234901
92	0xbdb818e9	-0.08989126
93	0xbbd1dd52	-0.0064045573
94	0xbd0a9cc9	-0.03384093
95	0xbd706685	-0.05869152
96	0x3d9563ad	0.07294402
97	0xbda4ba24	-0.08043316
98	0xbdf5ddde	-0.120052084
99	0xbc0c9afa	-0.008581871
100	0x3d136cf6	0.035992585
101	0xbd522c17	-0.05131158
102	0x3c5aaa93	0.013346332
103	0x3c8a7a8c	0.016904138
104	0x374bf40b	1.2156564e-05
105	0x3cb3a1ae	0.02192768
106	0xbbb2d9a6	-0.0054580746
107	0x3b5bdfc5	0.0033550125
108	0xbd2e2bf9	-0.042522404
109	0x3c7a6dc8	0.015284963
110	0xbd90cbf4	-0.07070151
111	0x3cd243c5	0.02566708
112	0x3d501ae6	0.050806902
113	0xbc98a798	-0.018634602
114	0xbd606ae3	-0.054789435
115	0x3aed9a67	0.001812768
116	0xbd3aa7d8	-0.045570225
117	0xbc66e740	-0.01409322
118	0xbbb86044	-0.00562671
119	0xbd0e5e51	-0.034757916
120	0xb929c450	-0.00016190228
121	0x3c484e1d	0.012225655
122	0xbc2b1e56	-0.010444244
123	0xbcd7d215	-0.026345292
124	0xbccbeb02	-0.024892334
125	0xbc9b7993	-0.01897887
126	0x3c09eee7	0.008418775
127	0xbdaced01	-0.084436424
128	0xbcafc499	-0.02145605
129	0x3bfe2fd6	0.0077571673
130	0xbda466cb	-0.08027419
131	0x3c8e4cd7	0.017370624
132	0xbacf23a2	-0.0015803466
133	0x3cd63142	0.026146535
134	0x3d4daac4	0.050211683
135	0xbd179ccc	-0.037014768
136	0x3887f022	6.48203e-05
137	0x3d4fd018	0.050735563
138	0xbda66c29	-0.08126099
139	0x3d1df33d	0.03856205
140	0x3c222925	0.009897505
141	0xbd668440	-0.056278467
142	0xbbfdbfef	-0.0077438275
143	0x3c69316f	0.014232977
144	0x3a1057e8	0.0005506263
145	0xbb160d72	-0.0022896198
146	0xbd0c0ddc	-0.034192905
147	0x3d0121a7	0.031526234
148	0x36bddb7a	5.6581894e-06
149	0x3d93c09c	0.07214472
150	0xbcd16c2f	-0.025564281
151	0x3d35f087	0.044418838
152	0x3caf0a3d	0.021367187
153	0x3c59d69c	0.013295796
154	0xbcf0f6f6	-0.029414635
155	0xbcdc82da	-0.026917864
156	0x388d5b35	6.7403926e-05
157	0xbc958814	-0.018253364
158	0xbcafa2f2	-0.021440003
159	0x3adec232	0.001699513
160	0x3cf984d8	0.030458853
161	0xbc9a5146	-0.018837582
162	0xbd0e6457	-0.03476366
163	0x3cf63a07	0.030056966
164	0x3c478431	0.012177513
165	0xbbc2702a	-0.005933781
166	0xbc5a5bb0	-0.013327524
167	0xbc6c3b3e	-0.014418421
168	0xbc13de3a	-0.009025151
169	0x3d2747db	0.04084001
170	0x39ca17a8	0.00038546068
171	0xbd2f91f9	-0.04286382
172	0x3885cbd4	6.3799e-05
173	0xbbe32e8c	-0.006933039
174	0xbc7358e2	-0.014852734
175	0xbc410a19	-0.011782193
176	0x3c96c7ab	0.018405756
177	0xbc8f81a6	-0.017517876
178	0x3ccea5bf	0.025225518
179	0x3ce317ac	0.027721249
180	0xbaf315c1	-0.0018545912
181	0x3ca3555a	0.01993816
182	0xbd0d812f	-0.034547027
183	0xbc363c6a	-0.011122802
184	0xbba715b6	-0.0050990237
185	0x3c960601	0.01831341
186	0x3c907e76	0.017638426
187	0xbccdb439	-0.02511035
188	0x3d01289e	0.031532876
189	0xbc6167ea	-0.013757685
190	0xbdc0d56b	-0.09415706
191	0x3d0962ef	0.033541616
192	0x3cdaaad6	0.026692789
193	0x3b92c95e	0.0044795712
194	0x3c996b69	0.018727975
195	0x3c99cc51	0.018774183
196	0x3c586d68	0.013209678
197	0xbc96e204	-0.01841832
198	0x3bbee3bb	0.0058254874
199	0x3d056e38	0.032575816
200	0x3d450e74	0.048109487
201	0x3c7ad40d	0.015309346
202	0xbbe0e651	-0.0068633934
203	0xbd0d60b2	-0.034516044
204	0xbb8fb251	-0.0043852706
205	0x393da76b	0.00018086813
206	0x3d37117a	0.0446944
207	0xbb820a20	-0.003968492
208	0x3c134b57	0.00899013
209	0xbd0cce22	-0.03437627
210	0x3d128ad7	0.03577694
211	0xbc3ff6f1	-0.01171659
212	0xbcca84c2	-0.024721507
213	0xbd115dca	-0.035489835
214	0x3d9fe0d8	0.078065574
215	0x3c87ab6d	0.016561234
216	0x3c41d28f	0.011829986
217	0x3bb170a5	0.0054150396
218	0xbda22e7c	-0.079190224
219	0xbcf01bc3	-0.029310113
220	0xbcb0560c	-0.021525405
221	0x3c2f38ca	0.010694692
222	0x396774c2	0.00022073372
223	0xbd030d3b	-0.03199504
224	0xbd0a3872	-0.033745237
225	0xbc1c1ba6	-0.009528076
226	0x3d5fa250	0.054598153
227	0xbba1a728	-0.0049332567
228	0x3cc9edb8	0.024649486
229	0xbd88baad	-0.066762306
230	0x3bcfa92e	0.0063373065
231	0x3ce44921	0.027866902
232	0x3c95f077	0.01830314
233	0x3d6afb7a	0.057368733
234	0x3d3b1375	0.045672853
235	0xbd3e2068	-0.046417624
236	0x3a8ce44b	0.0010749189
237	0xbd14a6dd	-0.036291946
238	0x3c7fa8a0	0.015604168
239	0xbd98732b	-0.074438415
240	0x3c30ad48	0.010783501
241	0xbc83665a	-0.016040016
242	0x3bca4a80	0.006173432
243	0xbd309611	-0.043111864
244	0xbb5c6411	-0.003362898
245	0xbccf9712	-0.02534059
246	0x3cca6317	0.024705453
247	0x3d8366c9	0.06416089
248	0x3bc1e327	0.0059169712
249	0xbc194a79	-0.009356135
250	0xbcc787eb	-0.024356803
251	0x3baeecb1	0.0053382744
252	0xb80da613	-3.377169e-05
253	0xbcd95f35	-0.026534656
254	0xbc334311	-0.010941283
255	0x3ca07543	0.019587165

fc2.bias f4 [128]
0	0x3d780130	0.060548007
1	0xbc532876	-0.012888065
2	0xbdab90a0	-0.083771944
3	0xbd42b140	-0.04753232
4	0xbd3e44af	-0.04645222
5	0xbdb618eb	-0.088914715
6	0x3d93cace	0.07216416
7	0x3d1b52a5	0.037920613
8	0x3cd43bec	0.02590748
9	0xbb301aa0	-0.0026871338
10	0xbcd9f5ad	-0.026606405
11	0xbdcd73c6	-0.10031848
12	0xbd1ca0ff	-0.038239475
13	0xbc8e1f3a	-0.017348874
14	0xbd5561a4	-0.05209507
15	0x3d8e8a0d	0.06959925
16	0xbd035646	-0.0320647
17	0xbd8a7405	-0.0676041
18	0xbd729771	-0.059226457
19	0xbdb9477b	-0.09046837
20	0xbd4b161e	-0.04958164
21	0xbd0e339e	-0.034717195
22	0x3da4ffba	0.080565885
23	0xbcb19fde	-0.021682676
24	0x3d501824	0.050804272
25	0xbb6c10dc	-0.003602079
26	0xbd8754bc	-0.06607959
27	0x3c971ed0	0.01844731
28	0xbc0b066c	-0.008485418
29	0xbd8c471d	-0.06849501
30	0xbdb24c95	-0.08706013
31	0xbccfd993	-0.025372302
32	0xbd9cac2c	-0.07650027
33	0xbd4a1844	-0.049339548
34	0x3d1b4659	0.037908886
35	0x3ce51303	0.027963167
36	0xbcda06ee	-0.026614632
37	0xbd22af43	-0.039717924
38	0x3d907b94	0.07054821
39	0x3d35fd9c	0.044431314
40	0x3d461444	0.04835917
41	0xbce637f4	-0.028102852
42	0x3b59752b	0.003318141
43	0xbd8ee1eb	-0.06976684
44	0xbc70cc3a	-0.014697129
45	0xbda55da4	-0.08074501
46	0xbd814ba4	-0.063132554
47	0xbd6f7337	-0.058459487
48	0xbdc42d9b	-0.09579011
49	0xbd32fef5	-0.043700177
50	0x3c54e1ff	0.012993335
51	0xbce1cbdc	-0.027563028
52	0x3cb9cb30	0.022679895
53	0xbdb880a6	-0.09008913
54	0xbd022e0f	-0.031782206
55	0x3dc5b307	0.096532874
56	0xbd850323	-0.06494739
57	0xbc8636df	-0.016383586
58	0xbcc6cb17	-0.024266763
59	0x3cc9fd2f	0.02465686
60	0xbd689c15	-0.056789476
61	0xbce0ef40	-0.027457833
62	0xbcd35932	-0.025799368
63	0xbd90f092	-0.07077135
64	0x3d71e548	0.05905655
65	0x3d3b1433	0.04567356
66	0xbdb0f3f4	-0.0864028
67	0x3d361286	0.04445126
68	0xbd97ba61	-0.07408596
69	0xbd6fe65f	-0.05856931
70	0xbce50bf9	-0.02795981
71	0xbc82daf2	-0.015973542
72	0xbd354ca2	-0.044262536
73	0xbc930932	-0.01794872
74	0x3df0bf30	0.11755216
75	0xa6fa67bc	-1.7375352e-15
76	0xbda2455e	-0.07923387
77	0xbd18c9f4	-0.037301973
78	0xbd0ff5ef	-0.03514665
79	0xbd3110ca	-0.043228902
80	0xbd50f17c	-0.051011547
81	0x3dc09c89	0.09404857
82	0xbd37344e	-0.044727616
83	0xbdb9388e	-0.0904399
84	0xbd843a83	-0.06456473
85	0xbc96d74a	-0.018413205
86	0xbe01da42	-0.12680915
87	0xbd5d9c73	-0.05410428
88	0x3d15541f	0.036457177
89	0xbdb9b3cb	-0.09067496
90	0x3dd75a6f	0.10515296
91	0xbd089080	-0.03334093
92	0xbce44304	-0.027863987
93	0xbdaf44f7	-0.08558076
94	0xbd8794ad	-0.066201545
95	0xbce678b0	-0.02813372
96	0xbd7b6fa9	-0.061385784
97	0xbcae9369	-0.021310525
98	0xbdbba93b	-0.091631375
99	0xbd8f91f8	-0.07010263
100	0xbd8ef640	-0.06980562
101	0x3c3e6cac	0.011622589
102	0xbd79c67c	-0.060980305
103	0xbda657b2	-0.08122195
104	0xbd7ee7eb	-0.062232893
105	0x3b69ec5c	0.003569386
106	0xbd9cc66d	-0.07655034
107	0x3d27d738	0.040976733
108	0xbdbf5119	-0.0934164
109	0xbdee3b80	-0.116324425
110	0xbd9763a4	-0.07392052
111	0x3d9090aa	0.070588425
112	0xbd307e13	-0.043088984
113	0x3db49ae7	0.08818608
114	0xbd0a0759	-0.033698414
115	0xbd74890f	-0.05970102
116	0x3dac4e63	0.084133886
117	0x3ced1d74	0.028944708
118	0x3c5dbd7c	0.013533946
119	0xbd8946a0	-0.06702924
120	0xbddfada5	-0.10921792
121	0xbdb58a80	-0.088643074
122	0xbd37d269	-0.044878397
123	0x3d17f2b6	0.0370967
124	0x3d34a53e	0.0441029
125	0xbd9a6761	-0.07539249
126	0xbd9db0b5	-0.0769972
127	0x3c8a69b7	0.016896112

bn3.weight f4 [128]
0	0x3e96cb40	0.29451942
1	0x3d16a6a0	0.03678
2	0x3f0aadcf	0.5417146
3	0x3f2e2f99	0.6804138
4	0x3da16478	0.07880491
5	0x3d9bda08	0.076099455
6	0x3f65f25d	0.8982294
7	0x3f049e10	0.51803684
8	0x3e264074	0.16235524
9	0x3f7f8938	0.99818754
10	0x3f6e7964	0.9315398
11	0x3e9c94ba	0.3058222
12	0x3f06f1c0	0.5271263
13	0x3e6878f4	0.2270239
14	0x3f26f6f7	0.6522059
15	0x3f46a927	0.77601856
16	0x3f5b0b56	0.8556417
17	0x3f74e502	0.9566194
18	0x3f134965	0.57533866
19	0x3e06fac0	0.13181591
20	0x3cae9fc0	0.02131641
21	0x3f197b13	0.5995342
22	0x3f3a86c7	0.72861904
23	0x3e4f4e38	0.20244682
24	0x3f0895e2	0.53353703
25	0x3d83dcf0	0.06438625
26	0x3f2add83	0.6674425
27	0x3f2a5a4a	0.6654402
28	0x3c3d9e00	0.011573315
29	0x3ebc01d8	0.36720157
30	0x3d9fb0b0	0.07797372
31	0x3e1cacbc	0.15300268
32	0x3e49bba8	0.19700491
33	0x3f54ff36	0.8320192
34	0x3e8ac1dc	0.27101028
35	0x3ef097ae	0.46990722
36	0x3f77cbb0	0.9679518
37	0x3d5dc7f0	0.054145753
38	0x3f402049	0.75049263
39	0x3ee72442	0.4514485
40	0x3f035b71	0.51311404
41	0x3f5a8cda	0.8537117
42	0x3cee9100	0.029121876
43	0x3f31e49d	0.6948946
44	0x3f40255c	0.75057006
45	0x3ed367c2	0.41290098
46	0x3f10fcb1	0.56635576
47	0x3f5a3568	0.8523774
48	0x3e27b3d4	0.16377193
49	0x3f6b60b6	0.91944444
50	0x3e1eaeb0	0.15496325
51	0x3f42bb7c	0.7606733
52	0x3f677092	0.90406144
53	0x3f2919ce	0.66055
54	0x3d933810	0.071884274
55	0x3f7ef3e8	0.9959092
56	0x3f1cb28a	0.6120993
57	0x3eb531b2	0.35389477
58	0x3f50fd46	0.81636465
59	0x3f57749c	0.84162307
60	0x3f295c35	0.6615632
61	0x3dd86ee0	0.10568023
62	0x3f170d90	0.5900507
63	0x3e882dce	0.26597446
64	0x3e5ea154	0.2174123
65	0x3f765c56	0.96234643
66	0x3e62a0f4	0.22131711
67	0x3e14b7e0	0.14523268
68	0x3eaea5a4	0.3411075
69	0x3f7e5080	0.99341583
70	0x3eaa4790	0.33257723
71	0x3de14b88	0.110007346
72	0x3e6a7508	0.22896206
73	0x3e573aec	0.2101857
74	0x3f31aff6	0.6940912
75	0x3f37bc09	0.71771294
76	0x3f474d23	0.77852076
77	0x3f043f4d	0.5165909
78	0x3dbc2b50	0.09187949
79	0x3e2666e8	0.16250193
80	0x3f3ed65c	0.74545836
81	0x3d229ac0	0.039698362
82	0x3f184795	0.59484226
83	0x3e297000	0.16546631
84	0x3ee28da6	0.44248694
85	0x3eacc390	0.33742952
86	0x3f48dd22	0.7846242
87	0x3f1063ba	0.5640217
88	0x3e06a160	0.13147497
89	0x3e305ccc	0.17222899
90	0x3eeb7a94	0.45991957
91	0x3f36b5f4	0.7137139
92	0x3ebe70da	0.37195474
93	0x3e954718	0.29155803
94	0x3d987828	0.07444793
95	0x3f2317e4	0.6370833
96	0x3f584ea9	0.84495026
97	0x3f006b74	0.5016396
98	0x3f05da48	0.52286196
99	0x3e116308	0.14197934
100	0x3e55f9dc	0.20896095
101	0x3d9fe790	0.07807839
102	0x3ef1adb0	0.47202826
103	0x3dd15748	0.10221726
104	0x3e7c0da8	0.24614584
105	0x3f1f729a	0.62284243
106	0x3e2d2948	0.16910279
107	0x3f452425	0.7700828
108	0x3f63782a	0.8885523
109	0x3f315efe	0.6928557
110	0x3f44a4cf	0.7681398
111	0x3e38c244	0.18042856
112	0x3f376168	0.71633005
113	0x3f12348f	0.5711145
114	0x3ed709e2	0.41999727
115	0x3ee337e0	0.44378567
116	0x3e66e200	0.2254715
117	0x3f0c9669	0.5491701
118	0x3d0bbe00	0.034116745
119	0x3e3975b8	0.18111312
120	0x3f254f77	0.6457438
121	0x3f1b7ed6	0.6074041
122	0x3eece546	0.46268672
123	0x3c9431c0	0.018090129
124	0x3e2361f4	0.15955335
125	0x3d7d6200	0.06186104
126	0x3f77f120	0.968523
127	0x3e066b34	0.13126832

bn3.bias f4 [128]
0	0x00000000	0.0
1	0x00000000	0.0
2	0x00000000	0.0
3	0x00000000	0.0
4	0x00000000	0.0
5	0x00000000	0.0
6	0x00000000	0.0
7	0x00000000	0.0
8	0x00000000	0.0
9	0x00000000	0.0
10	0x00000000	0.0
11	0x00000000	0.0
12	0x00000000	0.0
13	0x00000000	0.0
14	0x00000000	0.0
15	0x00000000	0.0
16	0x00000000	0.0
17	0x00000000	0.0
18	0x00000000	0.0
19	0x00000000	0.0
20	0x00000000	0.0
21	0x00000000	0.0
22	0x00000000	0.0
23	0x00000000	0.0
24	0x00000000	0.0
25	0x00000000	0.0
26	0x00000000	0.0
27	0x00000000	0.0
28	0x00000000	0.0
29	0x00000000	0.0
30	0x00000000	0.0
31	0x00000000	0.0
32	0x00000000	0.0
33	0x00000000	0.0
34	0x00000000	0.0
35	0x00000000	0.0
36	0x00000000	0.0
37	0x00000000	0.0
38	0x00000000	0.0
39	0x00000000	0.0
40	0x00000000	0.0
41	0x00000000	0.0
42	0x00000000	0.0
43	0x00000000	0.0
44	0x00000000	0.0
45	0x00000000	0.0
46	0x00000000	0.0
47	0x00000000	0.0
48	0x00000000	0.0
49	0x00000000	0.0
50	0x00000000	0.0
51	0x00000000	0.0
52	0x00000000	0.0
53	0x00000000	0.0
54	0x00000000	0.0
55	0x00000000	0.0
56	0x00000000	0.0
57	0x00000000	0.0
58	0x00000000	0.0
59	0x00000000	0.0
60	0x00000000	0.0
61	0x00000000	0.0
62	0x00000000	0.0
63	0x00000000	0.0
64	0x00000000	0.0
65	0x00000000	0.0
66	0x00000000	0.0
67	0x00000000	0.0
68	0x00000000	0.0
69	0x00000000	0.0
70	0x00000000	0.0
71	0x00000000	0.0
72	0x00000000	0.0
73	0x00000000	0.0
74	0x00000000	0.0
75	0x00000000	0.0
76	0x00000000	0.0
77	0x00000000	0.0
78	0x00000000	0.0
79	0x00000000	0.0
80	0x00000000	0.0
81	0x00000000	0.0
82	0x00000000	0.0
83	0x00000000	0.0
84	0x00000000	0.0
85	0x00000000	0.0
86	0x00000000	0.0
87	0x00000000	0.0
88	0x00000000	0.0
89	0x00000000	0.0
90	0x00000000	0.0
91	0x00000000	0.0
92	0x00000000	0.0
93	0x00000000	0.0
94	0x00000000	0.0
95	0x00000000	0.0
96	0x00000000	0.0
97	0x00000000	0.0
98	0x00000000	0.0
99	0x00000000	0.0
100	0x00000000	0.0
101	0x00000000	0.0
102	0x00000000	0.0
103	0x00000000	0.0
104	0x00000000	0.0
105	0x00000000	0.0
106	0x00000000	0.0
107	0x00000000	0.0
108	0x00000000	0.0
109	0x00000000	0.0
110	0x00000000	0.0
111	0x00000000	0.0
112	0x00000000	0.0
113	0x00000000	0.0
114	0x00000000	0.0
115	0x00000000	0.0
116	0x00000000	0.0
117	0x00000000	0.0
118	0x00000000	0.0
119	0x00000000	0.0
120	0x00000000	0.0
121	0x00000000	0.0
122	0x00000000	0.0
123	0x00000000	0.0
124	0x00000000	0.0
125	0x00000000	0.0
126	0x00000000	0.0
127	0x00000000	0.0

bn3.running_mean f4 [128]
0	0x00000000	0.0
1	0x00000000	0.0
2	0x00000000	0.0
3	0x00000000	0.0
4	0x00000000	0.0
5	0x00000000	0.0
6	0x00000000	0.0
7	0x00000000	0.0
8	0x00000000	0.0
9	0x00000000	0.0
10	0x00000000	0.0
11	0x00000000	0.0
12	0x00000000	0.0
13	0x00000000	0.0
14	0x00000000	0.0
15	0x00000000	0.0
16	0x00000000	0.0
17	0x00000000	0.0
18	0x00000000	0.0
19	0x00000000	0.0
20	0x00000000	0.0
21	0x00000000	0.0
22	0x00000000	0.0
23	0x00000000	0.0
24	0x00000000	0.0
25	0x00000000	0.0
26	0x00000000	0.0
27	0x00000000	0.0
28	0x00000000	0.0
29	0x00000000	0.0
30	0x00000000	0.0
31	0x00000000	0.0
32	0x00000000	0.0
33	0x00000000	0.0
34	0x00000000	0.0
35	0x00000000	0.0
36	0x00000000	0.0
37	0x00000000	0.0
38	0x00000000	0.0
39	0x00000000	0.0
40	0x00000000	0.0
41	0x00000000	0.0
42	0x00000000	0.0
43	0x00000000	0.0
44	0x00000000	0.0
45	0x00000000	0.0
46	0x00000000	0.0
47	0x00000000	0.0
48	0x00000000	0.0
49	0x00000000	0.0
50	0x00000000	0.0
51	0x00000000	0.0
52	0x00000000	0.0
53	0x00000000	0.0
54	0x00000000	0.0
55	0x00000000	0.0
56	0x00000000	0.0
57	0x00000000	0.0
58	0x00000000	0.0
59	0x00000000	0.0
60	0x00000000	0.0
61	0x00000000	0.0
62	0x00000000	0.0
63	0x00000000	0.0
64	0x00000000	0.0
65	0x00000000	0.0
66	0x00000000	0.0
67	0x00000000	0.0
68	0x00000000	0.0
69	0x00000000	0.0
70	0x00000000	0.0
71	0x00000000	0.0
72	0x00000000	0.0
73	0x00000000	0.0
74	0x00000000	0.0
75	0x00000000	0.0
76	0x00000000	0.0
77	0x00000000	0.0
78	0x00000000	0.0
79	0x00000000	0.0
80	0x00000000	0.0
81	0x00000000	0.0
82	0x00000000	0.0
83	0x00000000	0.0
84	0x00000000	0.0
85	0x00000000	0.0
86	0x00000000	0.0
87	0x00000000	0.0
88	0x00000000	0.0
89	0x00000000	0.0
90	0x00000000	0.0
91	0x00000000	0.0
92	0x00000000	0.0
93	0x00000000	0.0
94	0x00000000	0.0
95	0x00000000	0.0
96	0x00000000	0.0
97	0x00000000	0.0
98	0x00000000	0.0
99	0x00000000	0.0
100	0x00000000	0.0
101	0x00000000	0.0
102	0x00000000	0.0
103	0x00000000	0.0
104	0x00000000	0.0
105	0x00000000	0.0
106	0x00000000	0.0
107	0x00000000	0.0
108	0x00000000	0.0
109	0x00000000	0.0
110	0x00000000	0.0
111	0x00000000	0.0
112	0x00000000	0.0
113	0x00000000	0.0
114	0x00000000	0.0
115	0x00000000	0.0
116	0x00000000	0.0
117	0x00000000	0.0
118	0x00000000	0.0
119	0x00000000	0.0
120	0x00000000	0.0
121	0x00000000	0.0
122	0x00000000	0.0
123	0x00000000	0.0
124	0x00000000	0.0
125	0x00000000	0.0
126	0x00000000	0.0
127	0x00000000	0.0

bn3.running_var f4 [128]
0	0x3f800000	1.0
1	0x3f800000	1.0
2	0x3f800000	1.0
3	0x3f800000	1.0
4	0x3f800000	1.0
5	0x3f800000	1.0
6	0x3f800000	1.0
7	0x3f800000	1.0
8	0x3f800000	1.0
9	0x3f800000	1.0
10	0x3f800000	1.0
11	0x3f800000	1.0
12	0x3f800000	1.0
13	0x3f800000	1.0
14	0x3f800000	1.0
15	0x3f800000	1.0
16	0x3f800000	1.0
17	0x3f800000	1.0
18	0x3f800000	1.0
19	0x3f800000	1.0
20	0x3f800000	1.0
21	0x3f800000	1.0
22	0x3f800000	1.0
23	0x3f800000	1.0
24	0x3f800000	1.0
25	0x3f800000	1.0
26	0x3f800000	1.0
27	0x3f800000	1.0
28	0x3f800000	1.0
29	0x3f800000	1.0
30	0x3f800000	1.0
31	0x3f800000	1.0
32	0x3f800000	1.0
33	0x3f800000	1.0
34	0x3f800000	1.0
35	0x3f800000	1.0
36	0x3f800000	1.0
37	0x3f800000	1.0
38	0x3f800000	1.0
39	0x3f800000	1.0
40	0x3f800000	1.0
41	0x3f800000	1.0
42	0x3f800000	1.0
43	0x3f800000	1.0
44	0x3f800000	1.0
45	0x3f800000	1.0
46	0x3f800000	1.0
47	0x3f800000	1.0
48	0x3f800000	1.0
49	0x3f800000	1.0
50	0x3f800000	1.0
51	0x3f800000	1.0
52	0x3f800000	1.0
53	0x3f800000	1.0
54	0x3f800000	1.0
55	0x3f800000	1.0
56	0x3f800000	1.0
57	0x3f800000	1.0
58	0x3f800000	1.0
59	0x3f800000	1.0
60	0x3f800000	1.0
61	0x3f800000	1.0
62	0x3f800000	1.0
63	0x3f800000	1.0
64	0x3f800000	1.0
65	0x3f800000	1.0
66	0x3f800000	1.0
67	0x3f800000	1.0
68	0x3f800000	1.0
69	0x3f800000	1.0
70	0x3f800000	1.0
71	0x3f800000	1.0
72	0x3f800000	1.0
73	0x3f800000	1.0
74	0x3f800000	1.0
75	0x3f800000	1.0
76	0x3f800000	1.0
77	0x3f800000	1.0
78	0x3f800000	1.0
79	0x3f800000	1.0
80	0x3f800000	1.0
81	0x3f800000	1.0
82	0x3f800000	1.0
83	0x3f800000	1.0
84	0x3f800000	1.0
85	0x3f800000	1.0
86	0x3f800000	1.0
87	0x3f800000	1.0
88	0x3f800000	1.0
89	0x3f800000	1.0
90	0x3f800000	1.0
91	0x3f800000	1.0
92	0x3f800000	1.0
93	0x3f800000	1.0
94	0x3f800000	1.0
95	0x3f800000	1.0
96	0x3f800000	1.0
97	0x3f800000	1.0
98	0x3f800000	1.0
99	0x3f800000	1.0
100	0x3f800000	1.0
101	0x3f800000	1.0
102	0x3f800000	1.0
103	0x3f800000	1.0
104	0x3f800000	1.0
105	0x3f800000	1.0
106	0x3f800000	1.0
107	0x3f800000	1.0
108	0x3f800000	1.0
109	0x3f800000	1.0
110	0x3f800000	1.0
111	0x3f800000	1.0
112	0x3f800000	1.0
113	0x3f800000	1.0
114	0x3f800000	1.0
115	0x3f800000	1.0
116	0x3f800000	1.0
117	0x3f800000	1.0
118	0x3f800000	1.0
119	0x3f800000	1.0
120	0x3f800000	1.0
121	0x3f800000	1.0
122	0x3f800000	1.0
123	0x3f800000	1.0
124	0x3f800000	1.0
125	0x3f800000	1.0
126	0x3f800000	1.0
127	0x3f800000	1.0
