mode_weights/agent7_critic_local.pth (torch_old, 93523 bytes, 17 tensors)

bn1.weight f4 [33]
000000 58 15 fe 3e 2f aa 44 3f a8 33 b5 3d 00 33 07 3e
       0.4962566 0.7682218 0.08847743 0.13203049
000010 86 66 9d 3e fb 52 22 3f 86 ed fa 3e 67 7d 65 3f
       0.30742282 0.6340787 0.4900934 0.89644474
000020 12 48 e9 3e d3 de 21 3f 2a a2 b2 3e e4 ad cd 3e
       0.45562798 0.6323063 0.34889346 0.4017173
000030 80 e4 b6 3c 5c e9 2c 3e 8c 78 96 3e d8 bd 04 3f
       0.022325754 0.16885895 0.29388845 0.5185218
000040 58 9a 32 3f 8c cd 4c 3f e8 e4 24 3e 82 85 90 3e
       0.6976676 0.8000114 0.16102946 0.28226858
000050 e6 7d 2e 3f 27 4a 6a 3f ae 50 cb 3e ae c8 5f 3f
       0.68160856 0.915194 0.3970999 0.8741559
000060 b0 bc d6 3e 51 8b 0d 3f a5 e6 73 3f 90 21 14 3d
       0.41940832 0.55290705 0.9527381 0.03616482
000070 34 ad 3d 3e 90 30 bf 3e 12 36 9c 3e 94 97 6e 3f
       0.18523103 0.37341738 0.30510002 0.9320004
000080 cc 21 34 3e
       0.17591017

bn1.bias f4 [33]
000000 00 00 00 00 00 00 00 00 00 00 00 00 00 00 00 00
       0.0 0.0 0.0 0.0
000010 00 00 00 00 00 00 00 00 00 00 00 00 00 00 00 00
       0.0 0.0 0.0 0.0
000020 00 00 00 00 00 00 00 00 00 00 00 00 00 00 00 00
       0.0 0.0 0.0 0.0
000030 00 00 00 00 00 00 00 00 00 00 00 00 00 00 00 00
       0.0 0.0 0.0 0.0
000040 00 00 00 00 00 00 00 00 00 00 00 00 00 00 00 00
       0.0 0.0 0.0 0.0
000050 00 00 00 00 00 00 00 00 00 00 00 00 00 00 00 00
       0.0 0.0 0.0 0.0
000060 00 00 00 00 00 00 00 00 00 00 00 00 00 00 00 00
       0.0 0.0 0.0 0.0
000070 00 00 00 00 00 00 00 00 00 00 00 00 00 00 00 00
       0.0 0.0 0.0 0.0
000080 00 00 00 00
       0.0

bn1.running_mean f4 [33]
000000 00 00 00 00 00 00 00 00 00 00 00 00 00 00 00 00
       0.0 0.0 0.0 0.0
000010 00 00 00 00 00 00 00 00 00 00 00 00 00 00 00 00
       0.0 0.0 0.0 0.0
000020 00 00 00 00 00 00 00 00 00 00 00 00 00 00 00 00
       0.0 0.0 0.0 0.0
000030 00 00 00 00 00 00 00 00 00 00 00 00 00 00 00 00
       0.0 0.0 0.0 0.0
000040 00 00 00 00 00 00 00 00 00 00 00 00 00 00 00 00
       0.0 0.0 0.0 0.0
000050 00 00 00 00 00 00 00 00 00 00 00 00 00 00 00 00
       0.0 0.0 0.0 0.0
000060 00 00 00 00 00 00 00 00 00 00 00 00 00 00 00 00
       0.0 0.0 0.0 0.0
000070 00 00 00 00 00 00 00 00 00 00 00 00 00 00 00 00
       0.0 0.0 0.0 0.0
000080 00 00 00 00
       0.0

bn1.running_var f4 [33]
000000 00 00 80 3f 00 00 80 3f 00 00 80 3f 00 00 80 3f
       1.0 1.0 1.0 1.0
000010 00 00 80 3f 00 00 80 3f 00 00 80 3f 00 00 80 3f
       1.0 1.0 1.0 1.0
000020 00 00 80 3f 00 00 80 3f 00 00 80 3f 00 00 80 3f
       1.0 1.0 1.0 1.0
000030 00 00 80 3f 00 00 80 3f 00 00 80 3f 00 00 80 3f
       1.0 1.0 1.0 1.0
000040 00 00 80 3f 00 00 80 3f 00 00 80 3f 00 00 80 3f
       1.0 1.0 1.0 1.0
000050 00 00 80 3f 00 00 80 3f 00 00 80 3f 00 00 80 3f
       1.0 1.0 1.0 1.0
000060 00 00 80 3f 00 00 80 3f 00 00 80 3f 00 00 80 3f
       1.0 1.0 1.0 1.0
000070 00 00 80 3f 00 00 80 3f 00 00 80 3f 00 00 80 3f
       1.0 1.0 1.0 1.0
000080 00 00 80 3f
       1.0

fcs1.weight f4 [128, 33]
000000 17 c0 80 ba 97 13 2d 3b d7 38 43 ba 1b 70 db ba
       -0.0009822872 0.0026409382 -0.00074471295 -0.0016741784
000010 2b e4 09 3a 28 fd f6 39 91 6a f9 b9 87 e2 33 3b
       0.0005260135 0.00047109392 -0.0004757238 0.0027448253
000020 93 ae 53 3a ed c2 df 38 df bc cf 3a 9f 54 c4 3b
       0.0008075025 0.000106697764 0.0015849135 0.005991533
000030 ba 48 ae bb ef e7 b2 3b 3f 60 17 3b 98 e5 f1 ba
       -0.0053187283 0.0054597775 0.0023098139 -0.0018455265
000040 5e ba 77 3a 43 8c e9 3a 16 e2 89 b9 b3 45 0d ba
       0.0009450073 0.001781829 -0.00026299123 -0.0005389109
000050 31 ec d7 3b 1b b0 98 3b a4 3a 95 3b a5 58 05 bc
       0.0065894355 0.0046596653 0.0045541096 -0.00813881
000060 9f 43 ae 3b a8 49 14 bc ab 9f d6 3b b8 ee 50 3b
       0.0053181197 -0.009050764 0.0065497956 0.0031880569
000070 b9 d6 a2 bb 3e c6 01 00 b8 ee 50 bb 0c d9 00 80
       -0.0049694446 1.62951e-40 -0.0031880569 -7.7862e-41
000080 a1 ed 53 3b fc c6 8b bc fc 2b be 3c 05 b7 8b 3c
       0.0032337683 -0.017062657 0.023214333 0.017055044
000090 1c 22 53 bc 6c 41 09 bd 1d 5e 32 3d 25 a3 ab bc
       -0.01288655 -0.033509657 0.043546785 -0.020951817
0000a0 03 4e 04 bc ab 29 24 3d 61 a6 9e bc 5e 6d f3 bb
       -0.00807524 0.0400788 -0.019366445 -0.007428809
0000b0 ef ca 0e bc 1c e6 8d 3c d2 89 0e bd 8c 8b 17 3d
       -0.008715375 0.017321639 -0.034799404 0.036998317
0000c0 b3 fa ec 3c f9 0b 43 3c e6 89 8c bc 7a e2 77 3c
       0.028928136 0.01190471 -0.017155599 0.01512968
0000d0 9d 98 01 bc 64 d2 c2 3c ab ad 8e bd 08 fa 83 3c
       -0.007909921 0.023781963 -0.06966718 0.016110435
0000e0 b9 97 ec bc 70 5c 2f 3d 50 e0 c8 3b 3f 31 48 3d
       -0.02888094 0.042812765 0.0061302558 0.04887509
0000f0 e6 ce 48 3d 99 e5 06 3d bd 25 01 80 c1 25 49 bd
       0.04902544 0.032933805 -1.05373e-40 -0.04910827
000100 29 13 00 80 97 eb 2f 3e 8c 1d 57 bd 55 bb 92 3b
       -6.873e-42 0.17179714 -0.052518412 0.004477898
000110 06 b9 fd 3d dc c5 fe bc 86 cc ad bc d6 6f 02 bd
       0.12388806 -0.031100206 -0.021215688 -0.031844936
000120 8f 74 10 3d a0 58 f3 3b 1d 72 fd bc c4 e6 03 bc
       0.03526741 0.0074263364 -0.030938203 -0.008050624
000130 96 a0 23 bc 23 02 65 3c fc 89 93 3c 7d b8 04 3d
       -0.009987017 0.01397756 0.018010132 0.032402504
000140 57 2f 06 bd 14 37 0b bd e6 a1 c9 3b 58 07 e7 3c
       -0.03275999 -0.033988073 0.006153333 0.028201744
000150 d8 f6 1a 3d b6 9e 58 bc 74 b8 43 bc 8f 0f 94 bc
       0.037833065 -0.013221433 -0.0119458325 -0.018073825
000160 34 f7 fb 3a 81 a2 0a 3d 8a c0 e9 bc bc b6 25 bc
       0.0019223453 0.033846382 -0.028534193 -0.010114368
000170 55 d3 56 bc 09 39 5b 3d b2 da 0f bd fd 84 00 80
       -0.013111909 0.05352119 -0.035120673 -4.7707e-41
000180 b9 89 5b bd 33 2c 01 80 a5 2f 93 3d 43 ed fe 3d
       -0.05359814 -1.07691e-40 0.07186822 0.12447598
000190 61 47 08 3d 53 f9 20 3d 57 bd 20 bb 92 86 81 3d
       0.033271197 0.039300274 -0.0024526918 0.063244954
0001a0 8d 71 07 bd 04 52 03 3d 21 6d 37 bd 13 4d dd 3c
       -0.033067275 0.032060638 -0.044781808 0.02701429
0001b0 c3 fe 12 bb 7a f4 e4 3c 66 d1 80 3d 93 73 14 3d
       -0.0022429682 0.027948607 0.062899396 0.036243033
0001c0 38 19 f0 bc 37 70 12 bd 27 65 c0 3c fb 79 f9 bc
       -0.0293089 -0.035751548 0.023485733 -0.030453673
0001d0 06 63 a1 bc 92 7e b9 bc 35 c2 97 3c be 89 02 3d
       -0.019700538 -0.022643361 0.018525222 0.031869642
0001e0 d6 e6 e4 3c 06 a3 93 bc b7 0f 04 3c 08 9d e8 bc
       0.027942102 -0.018022072 0.008060387 -0.02839519
0001f0 58 48 c4 3a fa 9b e4 bc 1e 3c 3c 3c a8 70 3c bc
       0.0014975173 -0.027906407 0.011488942 -0.011501469
000200 3e b3 00 80 0d 88 48 bc bf a2 01 80 d0 b6 b0 bc
       -6.43e-41 -0.012239468 -1.50218e-40 -0.021571547
000210 1d 42 98 bc 0c bf 23 3d 95 15 d7 bb 14 ff 15 bd
       -0.018586213 0.03997712 -0.006563852 -0.036620215
000220 2f fa d8 3b 01 7c 27 3d b4 ae 40 bc a1 5a 20 3c
       0.006621621 0.040889744 -0.0117604025 0.009787233
000230 64 19 d1 3b e2 5b af bb f1 31 f3 bb c5 19 fe 3b
       0.0063812006 -0.0053515295 -0.007421725 0.007754537
000240 7d a4 ad 3c 81 d5 10 bb 07 29 ac 3d 2e 14 a9 bb
       0.021196598 -0.0022099914 0.08406263 -0.0051598763
000250 ec 48 d8 bc 19 9c 7e 3c 59 d5 be bc bc 52 43 3c
       -0.02640196 0.015540146 -0.023295091 0.011921581
000260 0a af 57 3a 14 d5 a2 3c df 50 86 3b 4f a5 be 3c
       0.0008227682 0.019876994 0.004098996 0.023272185
000270 dc 50 7d 3c 84 27 03 b9 f8 52 de 3b c7 82 aa 3c
       0.015461173 -0.00012507854 0.006784793 0.020814313
000280 09 74 00 bb 07 43 01 00 c7 82 aa bc 19 60 00 80
       -0.0019600412 1.1588e-40 -0.020814313 -3.4473e-41
000290 f0 90 6c bc 2e 66 2b bd 45 1e 27 3d 04 ff 81 bc
       -0.014438853 -0.041845493 0.04080035 -0.015868671
0002a0 7c 91 c3 bc cb a7 b6 bb 36 55 16 bc cf 9c fe 3c
       -0.023873083 -0.0055742017 -0.009175589 0.031080632
0002b0 22 3a bf bc 8c a1 36 bc 36 d5 21 bc 84 ea e6 bb
       -0.02334315 -0.011146914 -0.009877494 -0.0070469994
0002c0 cf 68 12 3c 22 79 0e bb 7e 84 91 3d f8 45 80 bc
       0.008936121 -0.0021739681 0.07105349 -0.015658364
0002d0 16 d6 f1 3c 56 a2 68 3c 66 17 ff 3b 82 db da 3b
       0.02952103 0.01419886 0.0077847717 0.0066789994
0002e0 bb 55 25 bc 5a 49 bb 3b f1 d4 b0 3b 19 f5 64 3b
       -0.0100912405 0.0057155313 0.0053964783 0.0034936129
0002f0 3f c4 6b 3d 93 9a 91 bb cc d3 4a 3d f7 a8 31 bc
       0.0575602 -0.0044434755 0.04951839 -0.010843507
000300 6b 14 4a 3d cf 83 07 bd ad 0b 00 00 5b c3 65 bd
       0.04933588 -0.033084687 4.188e-42 -0.05609451
000310 a3 90 00 80 42 57 6d 3e d1 b8 34 bd f1 34 7d 3c
       -5.1886e-41 0.23177817 -0.044121567 0.015454517
000320 28 6a b5 3c 51 ce 06 3a 2c cb 19 bc 2f 55 3e bb
       0.022145346 0.0005142438 -0.009386819 -0.0029042473
000330 cd 51 d9 3c 70 58 5b 3d a6 da fa 3b e9 c5 1e bd
       0.026528263 0.053551137 0.0076554595 -0.03876296
000340 05 41 fe 3c eb 06 b6 bc 2b 4c 6d bc 8f e3 88 3b
       0.031036863 -0.022220096 -0.014483492 0.0041775177
000350 0e da 14 bd 33 4e 71 bb 54 07 72 3c 2e 5f 75 bc
       -0.036340766 -0.0036820292 0.014772255 -0.014976306
000360 b6 63 33 3d 89 27 eb bc 5c 04 89 bc 3b 3b 93 bc
       0.043796264 -0.028705375 -0.016725712 -0.01797258
000370 77 bd f2 bc 38 4b 8a bd e1 6b 08 bc 5f 8e 23 bd
       -0.02963136 -0.06752628 -0.008326502 -0.039930698
000380 2f f3 82 3b e6 ea 83 3d 49 f6 3e bd 06 8c 00 80
       0.003996275 0.06441288 -0.046621595 -5.0231e-41
000390 4b d7 83 bd 5f 7f 00 00 3d 39 69 3e 0f bd 04 3d
       -0.06437548 4.5692e-41 0.22775741 0.032406863
0003a0 8b 09 a1 bc 09 34 9c bd 73 1b b2 3c fc db 9a 3d
       -0.01965787 -0.076271124 0.021741604 0.0756149
0003b0 45 fd d4 3c 28 5d 10 bc bc 5e 7e bc 30 e8 d4 b9
       0.025999675 -0.008811273 -0.015525516 -0.00040608784
0003c0 91 ba 8e bc bf 6a 70 3b 1b f4 55 bc 31 f4 d9 3b
       -0.017422946 0.003668472 -0.013058688 0.0066514243
0003d0 28 71 38 bd f9 92 b7 3c 27 78 72 3d f9 87 cd 3a
       -0.04502979 0.02240895 0.059196617 0.0015680782
0003e0 29 d5 a0 bc b3 ec 3e bc d4 66 03 bc ea 7f 9e 3a
       -0.019632893 -0.011653113 -0.008020122 0.0012092565
0003f0 52 4e 47 bb fe 41 36 3a 77 63 84 3c 93 b6 52 3c
       -0.0030411673 0.00069525826 0.01616071 0.012860912

fcs1.bias f4 [128]
000000 ba ee 50 bb eb ce 47 bd c6 da 59 bd 70 41 75 bc
       -0.0031880573 -0.048781317 -0.053187154 -0.014969215
000010 c8 82 aa bc 9d 40 52 bd b9 b3 83 bd 48 c4 70 bd
       -0.020814314 -0.05133115 -0.06430764 -0.05878094
000020 69 87 a0 bd 7d 20 a9 bc 42 20 9a bd da 4d 02 bd
       -0.078383274 -0.020645374 -0.07525684 -0.031812526
000030 a9 27 8d bb 7f b5 78 bd f2 e7 ed 3b 52 d2 5d bc
       -0.0043077064 -0.060719963 0.007260316 -0.013538914
000040 98 f7 c4 bc 0b 0d b3 bd 05 e3 c6 3b 4a 22 65 bb
       -0.024043843 -0.08742722 0.0060695433 -0.0034963065
000050 20 06 0d 3c b8 d0 2f bc 2a fa bd 3a b9 31 86 3d
       0.008607417 -0.010730915 0.001449411 0.065524526
000060 4f 1c ba bd fe e7 12 bc d5 74 7a bd 61 fd b6 bd
       -0.09087431 -0.008966444 -0.061146576 -0.08935047
000070 b8 af 43 bd 84 7d 62 bd e9 10 57 bd 64 60 8f bc
       -0.047775 -0.055295482 -0.05250636 -0.017502017
000080 e3 5a 03 3c 4a 24 0f 3b 4c 90 b8 bc bf c6 e1 bc
       0.008017275 0.0021841698 -0.022529744 -0.02756059
000090 84 72 5a 3c 28 5e 81 bd 0e 5a 12 3c d3 47 2c bd
       0.013332967 -0.06316787 0.0089326035 -0.042060684
0000a0 f1 cf a8 bb a5 76 ff bc b1 62 ef bc cb 85 a9 bc
       -0.0051517417 -0.031184504 -0.029221864 -0.02069368
0000b0 92 b0 c6 bc b6 b2 0b bd 63 9d 6f ba e3 6e e4 ba
       -0.024254117 -0.03410598 -0.0009140579 -0.0017428066
0000c0 fd cf f7 bc ba 42 83 bc 06 c3 d3 bc 0a c4 be 3b
       -0.030250544 -0.016023029 -0.02584983 0.0058217095
0000d0 6f b3 26 bd a2 12 91 bd be ee 1b bd a8 07 47 bd
       -0.040698465 -0.07083632 -0.03806948 -0.048591286
0000e0 42 32 84 bd e9 36 50 bc f3 4c 59 bd 22 15 cc 3c
       -0.064548984 -0.012708404 -0.0530519 0.02491242
0000f0 85 2f 22 bd 8a f9 98 bd fe 4b 32 bd 5b e9 89 bc
       -0.0395961 -0.07469471 -0.043529503 -0.016834905
000100 aa b3 83 bd 31 c5 b2 3c be 94 d7 bb 48 42 b1 bd
       -0.064307526 0.021822544 -0.0065790107 -0.0865522
000110 b8 96 15 bd 96 e0 b1 bd b0 aa db bd 41 6a 3a bd
       -0.03652069 -0.086854145 -0.107259154 -0.045511488
000120 2f c3 aa bd 74 08 80 bb 1c 49 49 bc 2e 7d ba bd
       -0.083380096 -0.0039072577 -0.012285497 -0.091059074
000130 04 5e 6f bd 8a 07 81 bc 91 dc 48 bd 41 b6 e6 bc
       -0.05843927 -0.015750665 -0.049038474 -0.028163077
000140 57 07 be bb 82 b9 58 bd 72 48 72 bc b7 c8 e2 bc
       -0.005799215 -0.05291129 -0.01478778 -0.027683599
000150 ba 2e 0d 3d a1 e5 20 bd 44 11 99 bd 17 ec c8 bd
       0.03446839 -0.03928149 -0.07473996 -0.098106556
000160 3b 92 5e bd c7 c0 6f bd bb fc 80 ba 9b 92 a4 bc
       -0.054338675 -0.058533456 -0.0009840945 -0.020089438
000170 d5 b3 e1 3c ec db 2c bc 31 9a ed bc 48 ce d0 ba
       0.02755157 -0.01055048 -0.029004188 -0.0015930617
000180 ca 6d 87 bd 93 f6 92 bd fd 87 f1 bc 15 68 ae bd
       -0.066127375 -0.071759365 -0.02948379 -0.08515946
000190 c9 c8 d1 bd 89 d2 7a bd b4 f0 3b bd a5 23 28 bd
       -0.10243375 -0.06123594 -0.04588385 -0.04104962
0001a0 47 f8 3d ba 2b 53 56 3d 37 35 71 bb 45 22 df bc
       -0.0007246774 0.05232541 -0.00368054 -0.02723802
0001b0 91 b3 9b bc 67 23 1d 3b 49 81 8a bd 46 b1 fe bc
       -0.019006522 0.00239774 -0.067629404 -0.03109039
0001c0 a7 cc 3f bd f2 03 88 3c 94 fa a9 3b b2 4d a1 3b
       -0.04682603 0.016603444 0.005187342 0.004922592
0001d0 ed e1 23 bd 35 09 a8 bd 12 95 d8 3c d8 8b 96 bd
       -0.04001038 -0.08204881 0.02643827 -0.07350892
0001e0 31 3a e4 b7 ac 5a ed bb 08 4f 21 bd f4 2f 6a bd
       -2.7206816e-05 -0.007243475 -0.03938201 -0.057174638
0001f0 c0 54 b4 bc eb 52 72 bd 8a c0 16 bd a3 60 1f bd
       -0.022013068 -0.059161108 -0.036804713 -0.03891052

bn2.weight f4 [128]
000000 f6 f5 93 35 ef 87 f9 3d 21 16 11 3e 00 97 1e 3e
       1.1023938e-06 0.121841304 0.14168598 0.1548729
000010 9c 78 a8 3c e1 ca 3a 3e 46 4d 7f 3e 07 7a 86 3e
       0.020565324 0.18241455 0.24931821 0.26264974
000020 c7 1a 8d 3e a1 7c 80 3e 0d 2b 1c 3e cf b6 ed 3d
       0.27559492 0.25095084 0.15250798 0.116071336
000030 c8 43 00 b7 9b 81 09 3e 55 18 1e 3e ca 03 34 3e
       -7.645176e-06 0.13428347 0.1543897 0.1757957
000040 bb 91 18 3e 00 bb 5c 3e e7 cc f5 3d 04 10 08 3f
       0.14899342 0.2155571 0.12001973 0.5314944
000050 05 29 ad 3e 4f 72 3f 3e b6 f6 3f 3e d4 97 29 3e
       0.33820358 0.18695949 0.18746457 0.16561824
000060 3f 2e cf bd 64 60 09 3e ba 1b 56 3e 16 e1 3b 3d
       -0.101162426 0.13415676 0.20909014 0.045868956
000070 99 97 c6 3d 72 32 23 3d ae f5 4c 3e ab ec c0 3e
       0.09696884 0.03984303 0.20015594 0.37680563
000080 3a d1 84 3e 55 79 4a 3e 86 ae 3a 3e 10 bb 5b 3e
       0.25940877 0.19772847 0.18230638 0.21458077
000090 c9 8f 3c 3e 2f ff ca 3d 5a db 7b 3e d8 32 78 3e
       0.18414225 0.09911954 0.24595395 0.24238145
0000a0 9c b7 45 39 08 16 0f 3e 50 da 6c 3e f7 3b 34 3e
       0.00018855784 0.13973248 0.23130155 0.17601
0000b0 9f 49 59 3e c2 bb 11 3f 48 15 da 3e 6a 0e 7c 3e
       0.2121949 0.5692712 0.4259436 0.24614874
0000c0 c1 ec dc 3d 3e a9 28 3e b6 54 02 3e 90 2c 37 3e
       0.10787345 0.16470811 0.12727627 0.17888093
0000d0 67 d6 e0 3d 30 d3 4f 3e ce 9d a4 3e af 36 2f 3e
       0.10978394 0.20295405 0.32151645 0.17110704
0000e0 e5 37 43 3e ee c8 31 3e 41 e6 88 3e a5 dc 42 3e
       0.19064291 0.17361805 0.2673817 0.19029482
0000f0 9e d8 3e 3e 0c 7e 3a 3e 59 59 ef 3d d5 49 8a 3e
       0.1863732 0.18212146 0.116869636 0.27009454
000100 08 50 2f 3e bf 66 b8 3e 7f 21 58 3e fb 14 34 3e
       0.17120373 0.3601589 0.21106528 0.17586128
000110 c4 ea 24 3e a2 1a 80 3e 68 9d 3d 3e 90 fd 58 3e
       0.16105181 0.2502032 0.18517077 0.21190476
000120 21 c9 36 3e 29 c7 16 3e ad 16 5b 3e f5 f3 84 3e
       0.17850162 0.14724411 0.21395369 0.25967374
000130 2b a5 40 3e 04 ea 65 3e f8 23 2a 3e 83 68 18 3e
       0.18813007 0.22452551 0.16615283 0.14883618
000140 61 59 8b 3e 1d 5f dc 3d e0 05 5d 3e 46 57 7c 3e
       0.27216628 0.10760329 0.21584272 0.24642667
000150 d8 af a9 3e 99 25 9a 3e 25 3a 06 3e 39 da 25 3e
       0.3314197 0.3010681 0.13108118 0.16196527
000160 8d a6 c0 3d ac 68 92 3e 3d 9b bd b8 b7 b8 2e 3e
       0.09406767 0.28595483 -9.041138e-05 0.1706265
000170 46 fb 1c 3e 35 98 14 3e 81 01 af 3e b1 d3 11 3e
       0.15330228 0.14511187 0.34180835 0.1424091
000180 ab d0 0f 3e 3a 36 d7 3d 68 e6 53 3e 69 23 48 3e
       0.14044444 0.1050839 0.20693362 0.19544758
000190 27 e6 2e 3e 22 f1 25 3e d7 fc ab 3d 49 87 9c 3e
       0.17079984 0.16205266 0.08397835 0.30571964
0001a0 a5 85 c5 b8 5b 8b b7 3e fc a0 10 3e 90 fe 4e 3e
       -9.418585e-05 0.35848507 0.1412391 0.20214295
0001b0 92 c3 89 3e d6 a1 8d 3e ef 1b a3 3e da c4 b8 3d
       0.2690702 0.27662534 0.3185725 0.090219215
0001c0 c0 95 83 3e ad 0c 81 3e d6 72 49 3e 25 ed 5b 3e
       0.25700188 0.25204983 0.19672713 0.21477182
0001d0 af b8 20 3e e6 67 7a 3e c9 f1 74 3e 48 05 81 3e
       0.15695451 0.24453697 0.23920359 0.25199342
0001e0 0d 8c 79 37 eb 7d 07 3f 14 32 49 3e 7c c7 8f 3e
       1.4874165e-05 0.5292651 0.1964801 0.28081882
0001f0 78 6c 96 3e 61 8d 1f 3e 12 5c b7 3e 26 39 0e 3e
       0.2937963 0.15581276 0.35812432 0.13888988

bn2.bias f4 [128]
000000 77 ac 87 b7 e2 f1 b2 bd ab a7 1e 3c ea 52 b4 3c
       -1.6173564e-05 -0.08737542 0.00968353 0.022012193
000010 92 c8 d7 ba 96 79 0c bc fd a3 78 3d 14 f5 01 3e
       -0.0016462973 -0.00857391 0.060703266 0.12691146
000020 fb 54 d3 bd 3b 0e 86 3d 1d e7 ed bd 02 13 67 bd
       -0.10318943 0.06545683 -0.11616347 -0.05641461
000030 2f 73 db 37 2b 10 a9 bd f6 b5 f5 3c b9 85 97 3d
       2.6160471e-05 -0.08255037 0.029993992 0.073985524
000040 4d 1f f5 3c 1a a3 d4 3a b0 2b 90 3d ea 03 b7 bd
       0.029922152 0.0016222924 0.07039583 -0.089362934
000050 d9 70 43 3d f5 ce b7 3d 72 bf 54 3d 3e 25 ca bd
       0.04771504 0.08975021 0.05194039 -0.09870385
000060 4f c8 30 3d f7 eb 21 3b 51 b2 8c bd f8 bb b4 bd
       0.04315978 0.0024707296 -0.06869949 -0.08824915
000070 53 a3 c1 3c 5f 47 19 bd d4 32 30 bd 44 be 6a 3d
       0.02363745 -0.03742158 -0.043017223 0.057310358
000080 5c a3 e2 bc 17 45 85 3d 55 7b 9b bd b8 75 18 3d
       -0.027665786 0.065073185 -0.07591883 0.03722164
000090 98 e7 ac bd 8f 58 d3 3d a8 c2 aa bd bd d5 30 3d
       -0.084426105 0.103196256 -0.08337909 0.043172587
0000a0 6b f4 cf b8 00 29 70 bc 7a 52 a1 3d 65 9b 8e 3d
       -9.9160556e-05 -0.014658213 0.07877059 0.06963233
0000b0 c8 0c 49 3a 4c 51 c3 bd 44 02 b7 bd 57 78 61 bd
       0.0007669446 -0.095369905 -0.08935979 -0.055046406
0000c0 e6 56 d3 3c 1e 34 1e bd 15 14 a7 3d 1d 38 49 3d
       0.025798272 -0.03862392 0.08158127 0.04912578
0000d0 62 28 93 bc 59 00 a6 bd 8a 70 d3 3b 2a e4 42 bd
       -0.017963592 -0.08105535 0.0064526247 -0.047580875
0000e0 e9 de 30 bd ff 0b d5 bd 57 7b 74 bd 88 50 10 bd
       -0.043181334 -0.10402679 -0.05968794 -0.03523305
0000f0 52 1f 6a bd 37 ba b2 3d fd 5e 23 bd aa 19 1e 3e
       -0.057158776 0.08726924 -0.03988551 0.15439478
000100 f9 57 aa bd 2e 78 ca bd 9f de 68 3c 91 ca 9b bd
       -0.08317561 -0.09886204 0.014213233 -0.07606996
000110 4f 3d fe 3c d3 0b 82 bd ba 07 76 bd 56 da 08 bd
       0.031035094 -0.063499115 -0.060065962 -0.033411346
000120 03 29 27 3d 6d 2d 88 bd dc c4 96 bd 6e 00 6a bd
       0.040810596 -0.06649289 -0.07361767 -0.057129316
000130 77 ec 9d bb 5a 01 dc 3d 07 89 91 bd 64 84 04 bd
       -0.0048194486 0.10742445 -0.07106214 -0.03235282
000140 ff 8e bb 3d 2b e9 dd bd 3a 1f ae bd 18 b5 b3 ba
       0.09158134 -0.10835489 -0.0850205 -0.0013710586
000150 eb c8 22 bd 73 3c 83 bd 5f a7 40 3d 33 46 74 bd
       -0.03974239 -0.06408014 0.047034618 -0.05963726
000160 a1 2a 52 3c 40 fd 78 3d df 82 9c b7 1e 7b c8 bd
       0.012827546 0.060788393 -1.865759e-05 -0.09789108
000170 28 21 df bd aa 71 48 3d fa bb 85 bc d5 2c 84 bc
       -0.10894996 0.048936523 -0.016324986 -0.016134659
000180 fe 70 ca 3d 7c 3c 9d bd 85 69 57 bd 63 45 92 bd
       0.09884833 -0.07677552 -0.052590866 -0.07142141
000190 7b 43 91 bd 7f ed b7 bd 89 e5 98 3d 2d 08 05 be
       -0.07092949 -0.08980846 0.07465655 -0.129914
0001a0 f2 e2 76 b8 16 d9 ef 3d 0e 44 0a bb 18 88 4d bd
       -5.886233e-05 0.11711328 -0.0021097693 -0.050178617
0001b0 ec 1d 52 bd 69 d9 a4 3c ac 0a 01 be 93 0f 09 bd
       -0.051298067 0.0201232 -0.12601727 -0.03346212
0001c0 e7 49 02 3e 6e fc 1b bd 3c cd d6 bc a5 b5 84 3b
       0.12723504 -0.038082533 -0.02622091 0.004049974
0001d0 2f 2f 97 bd fb e3 9f 3a 97 e4 dd ba c7 9d e3 3b
       -0.073820464 0.0012198681 -0.0016929087 0.0069462988
0001e0 d0 79 91 b8 20 41 1e bd 76 8f 06 be 02 5b 88 3d
       -6.936828e-05 -0.038636327 -0.13140664 0.06657983
0001f0 fc 12 8b bd 11 17 82 bd 91 42 00 bd ed 12 33 3d
       -0.0679073 -0.06352056 -0.031313483 0.04371922

bn2.running_mean f4 [128]
000000 bd d9 cd 3c 95 aa de 3c 89 6a 48 3c c7 f4 ca 3d
       0.02512824 0.02718095 0.012232431 0.09909969
000010 30 73 94 39 e3 d8 d6 3c d6 83 a1 3d 58 0f 47 3d
       0.0002831458 0.026226467 0.07886474 0.048598617
000020 f6 50 91 3c 50 96 f7 3d 00 de d4 3b d8 af 14 3a
       0.0177388 0.12089217 0.006496191 0.0005671955
000030 61 cc ab 3c 3d d3 29 3c ba d4 62 3d 68 94 a8 3d
       0.020971479 0.010365305 0.055378653 0.08231431
000040 ad 7e 5f 3e e8 3f 04 3d 3d 6e 3d 3d ae 60 9d 3d
       0.21825667 0.03228751 0.04624771 0.07684456
000050 2a 89 b6 3e 2a a9 20 3e ff 1f da 3d 6d cf 7d 3c
       0.35651523 0.15689531 0.10650634 0.015491349
000060 e1 17 bd 3b da cf ff 3c f5 f4 37 3c d6 29 59 39
       0.005770669 0.031227041 0.011227836 0.00020710318
000070 7e f2 6e 3d d6 43 28 39 a7 c9 15 3d 03 1c 2d 3e
       0.058336727 0.00016047 0.036569264 0.16905217
000080 c3 b1 b3 3d 7a a8 b2 3d c3 c9 79 3e d9 aa 0c 3d
       0.0877414 0.087235406 0.24393372 0.03434262
000090 9a 28 02 3d 18 59 d9 3d 7b 73 2b 3d 72 93 f7 3d
       0.031777002 0.106126964 0.041858178 0.1208867
0000a0 46 8c 47 36 68 03 f0 3c b0 83 54 3e cf 8e f7 3c
       2.973496e-06 0.0292985 0.2075336 0.030219464
0000b0 89 8e d3 3b 4f f8 6b 3d f2 11 f8 3c 39 e2 44 3e
       0.0064562005 0.057609852 0.030281994 0.19226922
0000c0 99 4d 03 3e 8b af 3f 3d b2 92 82 3e 66 8b ee 3d
       0.1282257 0.04679827 0.25502545 0.11647682
0000d0 bc 93 37 3d c5 72 09 3e e7 34 65 3d 5c e7 e1 3d
       0.044818625 0.13422687 0.055958655 0.110304564
0000e0 bb 2f 3a 3d d9 f0 30 3c f3 b2 8f 3d d0 c2 07 3e
       0.045455676 0.01079961 0.07016554 0.13257909
0000f0 d5 06 7d 39 6a 63 7c 3d 1b ad b1 3c f5 5f b5 3d
       0.00024130505 0.061618246 0.021688988 0.08856193
000100 5d 96 83 3d 65 7e 1c 3d 44 60 ba 3d cb 65 ed 3b
       0.06425164 0.038206477 0.091003925 0.0072448007
000110 9b c4 8f 3d 0c c9 fb 3d c1 b8 96 38 23 51 86 3d
       0.070199214 0.12294206 7.1869705e-05 0.06558444
000120 f2 ee a6 3c 8a 58 80 3c 89 bc 89 3d 3b 0e 07 3c
       0.02037761 0.015667219 0.06725413 0.008243139
000130 7f 6c 0e 3d 73 86 ea 3d 19 ca 84 3c ac 31 a9 3d
       0.03477144 0.114514254 0.016209649 0.08261427
000140 5e 23 c3 3d 1a b5 f8 3a 9f 46 98 3c 6f f0 f9 3d
       0.0952823 0.0018974871 0.018588362 0.12204062
000150 ad 88 85 3e 2e 67 ce 3d 34 be 19 3d a4 d3 37 3d
       0.26080838 0.10078274 0.037534907 0.04487957
000160 e2 f2 32 3d 8e 49 66 3d 7f e7 af 3c cb 31 e8 3d
       0.043688662 0.05622249 0.02147269 0.11337622
000170 05 8b 96 3d 13 b2 a7 3d 55 f0 20 3e da 07 04 3e
       0.073507346 0.08188262 0.1571668 0.1289362
000180 22 6b c6 3d 88 cf 2c 3c 2e dd 70 3d 8f 26 66 3c
       0.09688403 0.010547526 0.058804683 0.014047279
000190 01 e8 23 3a 3f a0 9d 3c b0 e1 b8 3c 68 9a 9e 3e
       0.0006252528 0.01924145 0.022568554 0.30977178
0001a0 4a 2b de 3c c7 b3 59 3e f2 5a a3 3e 35 04 0f 3d
       0.027120251 0.21259986 0.31905323 0.03491612
0001b0 8c 52 84 3e dc da f5 3d 07 6a 9e 3d fc b6 ac 3c
       0.25844228 0.12004635 0.07735067 0.021083347
0001c0 82 21 f1 3d 4d bf 0b 3e 35 80 b4 3d 6d 5e 75 3e
       0.11773969 0.13647194 0.08813516 0.23961802
0001d0 d4 52 ad 3c 15 f7 87 39 c2 23 6a 3e 1e fc 84 3d
       0.02115766 0.00025933297 0.22865203 0.064934
0001e0 c3 51 8d 3c 31 04 e5 3d c2 e8 91 3d 85 b8 19 3e
       0.017250901 0.1118244 0.07124473 0.15011795
0001f0 0e 4f 0c 3d cc e6 a2 3c 34 09 ad 3d 90 cb 0c 3e
       0.03425508 0.019885443 0.08449021 0.13749528

bn2.running_var f4 [128]
000000 7d 0d f6 3a ee 17 91 3b 2c 48 00 3b 71 18 a8 3c
       0.001877233 0.0044279015 0.0019574268 0.020519467
000010 fa dd 1d 38 c4 cb 94 3b 31 2f ef 3c 57 86 25 3c
       3.763845e-05 0.0045408923 0.029197307 0.01010283
000020 bd e0 21 3b f1 8d 01 3d ac 20 29 3a b0 5d be 38
       0.0024700605 0.031629506 0.0006451707 9.077357e-05
000030 38 29 b0 3a 8e 83 4e 3a 8b d3 0f 3c 3a 46 45 3c
       0.0013440019 0.00078778795 0.008778463 0.012040669
000040 91 f1 c1 3d 64 90 da 3b 27 d9 1b 3c 19 d7 08 3c
       0.09469903 0.0066700447 0.009512222 0.0083520645
000050 66 21 49 3d 3f db 5c 3d 62 e8 b3 3c f4 d2 4c 3b
       0.049104117 0.053920027 0.021961395 0.0031253668
000060 50 7c 37 3a 26 91 03 3c b0 08 b3 3a 9f a2 00 38
       0.000699942 0.008030212 0.0013659205 3.066903e-05
000070 11 72 0e 3c 7f 25 87 37 cd a3 1b 3c 10 68 ee 3c
       0.008694188 1.6110715e-05 0.009499502 0.029102355
000080 a5 32 b8 3c f0 8b 6d 3c 6d 30 03 3d 4c 0f 92 3b
       0.022485087 0.014498696 0.032028604 0.00445739
000090 28 e3 27 3b 12 37 fc 3c 9e f3 87 3b 6f a7 05 3d
       0.0025617573 0.030787978 0.0041489145 0.03263038
0000a0 97 5b 27 34 78 b3 67 3b fb 33 63 3d db 30 b9 3b
       1.5586407e-07 0.0035354774 0.055469494 0.005651576
0000b0 0b bf eb 39 a8 93 0e 3c a6 bd 82 3b 83 55 93 3d
       0.0004496503 0.008702196 0.003989893 0.071940444
0000c0 c7 31 fd 3c 45 52 68 3c 42 4b 31 3d 93 c3 98 3c
       0.030907525 0.014179771 0.043284662 0.018647945
0000d0 fb 98 50 3c f8 99 73 3d b9 9b 33 3c 45 82 32 3d
       0.012731786 0.059473008 0.01096242 0.043581266
0000e0 59 6a 4a 3c 2d 62 67 3a 93 fe 60 3c c9 3b 14 3d
       0.012354457 0.000882658 0.01373257 0.036189828
0000f0 55 37 45 38 08 b2 93 3c 0f 75 d3 3b 6b ca a7 3c
       4.7019992e-05 0.018029228 0.0064531635 0.020482263
000100 5e 57 44 3c e6 52 b0 3b bf 25 da 3c 95 57 8b 3a
       0.011983721 0.005380976 0.026629327 0.001063096
000110 92 2c 91 3c 78 79 3a 3d 01 ec 3b 37 7a 1a 4a 3c
       0.017721448 0.045525998 1.12010175e-05 0.012335414
000120 e5 f5 b1 3b 2b 16 6f 3a 82 09 41 3c 98 2c 5c 3a
       0.0054309242 0.000912043 0.011782052 0.0008398979
000130 a8 dd f9 3b 0c 89 68 3d 8d cf ec 3a 01 13 e2 3c
       0.0076253004 0.056771323 0.0018067226 0.027596952
000140 fe 94 eb 3c ba f0 f9 39 a2 e8 a8 3a 9a 34 12 3d
       0.028757568 0.00047672336 0.0012886713 0.035694696
000150 d8 70 63 3d 1f 82 ad 3c 2a d0 c8 3b 32 ae 25 3c
       0.055527538 0.02118021 0.0061283307 0.010112332
000160 20 03 41 3c b2 10 13 3c 81 20 65 3a 1f 5a ca 3c
       0.01178053 0.008976148 0.00087405 0.024701176
000170 e2 2e 8b 3c 1d dd 4d 3c 6c d1 24 3d 09 6c 1b 3d
       0.016990129 0.012564925 0.040238783 0.037944827
000180 28 15 c3 3c ee a1 81 3a f7 78 16 3c ae e8 db 3a
       0.023813799 0.0009890178 0.009184114 0.0016777718
000190 d0 4b 04 39 7c 28 17 3b 5a 24 e4 3b 36 f2 b8 3d
       0.00012616743 0.0023064902 0.0069623413 0.09030573
0001a0 37 ef ce 3a 08 33 33 3d cc c0 39 3d d3 2f 0e 3c
       0.0015787844 0.04374984 0.04534988 0.008678394
0001b0 58 92 f3 3d 69 50 af 3c b8 0a 83 3c 15 e7 90 3b
       0.11893147 0.021400647 0.015996322 0.0044220784
0001c0 cc 4f ff 3c 98 46 06 3d 15 42 7c 3c ee 6d c5 3d
       0.03116598 0.032782167 0.015396615 0.09640108
0001d0 38 eb 0f 3b 96 28 87 38 e9 46 85 3d 36 9b 70 3c
       0.002196027 6.444861e-05 0.06507666 0.014685443
0001e0 0e 8b fb 39 a4 41 ba 3c be f6 65 3c ef 63 35 3d
       0.00047978054 0.022736378 0.014035879 0.044284757
0001f0 f5 a3 9c 3b 5a e5 8e 3b c1 69 87 3c 4c 0b cf 3c
       0.0047802874 0.004360837 0.01652992 0.025273941

fc2.weight f4 [128, 132]
000000 c1 4b cd 39 f4 b4 91 bd 1b a6 cb bc 52 43 8b 3b
       0.00039157088 -0.07114592 -0.024859479 0.0042499686
000010 a9 f9 18 bc 0d 09 ab bc e2 39 a6 3c 29 f3 c6 3d
       -0.009336867 -0.02087834 0.020291273 0.09714348
000020 24 11 5b bd 01 9b 98 3a 9f 48 89 bd 1f bc 00 bd
       -0.053483143 0.0011642874 -0.067033045 -0.031429406
000030 6f 8a 1d 3b d4 13 e2 bd a9 84 6a bc 18 10 5b 3c
       0.0024038812 -0.11038938 -0.014313855 0.013370536
000040 f4 a9 16 bc 17 5d 9c 3c c4 00 9d 3a 6e 88 7e bd
       -0.009195793 0.019087357 0.0011978378 -0.06214183
000050 34 21 2c bc 30 ca 0f 3d 30 3a 6e 3c b0 f8 cf bc
       -0.010505963 0.03510493 0.01454024 -0.025387138
000060 8e 97 99 3c 5b ef f2 3a 8b 7e 1a 3b 6c 24 cb bd
       0.018749025 0.0018534468 0.002357396 -0.09919056
000070 c0 ab 1c 3b 62 94 2c bd d3 c5 a8 3a a7 ce fd 3b
       0.0023906082 -0.042133696 0.0012876339 0.007745582
000080 8a 94 a4 bc 23 75 c9 3c fb c9 a7 bd 08 e7 20 3c
       -0.02009036 0.024591988 -0.081928216 0.009820707
000090 b3 49 43 bd 8b 0e 30 3d c6 36 48 bd 84 4d 31 bc
       -0.047677707 0.04298262 -0.04888036 -0.010821704
0000a0 52 c1 1f 3a b3 5a 09 3b 86 08 14 bd 1d ca a9 3c
       0.00060941756 0.0020958602 -0.03614094 0.020726258
0000b0 00 eb 32 3c ac 04 89 bd d3 97 a2 bc 3d 32 18 bd
       0.010920286 -0.06690344 -0.019847786 -0.037157286
0000c0 82 bf 48 3c 10 31 9b bb 42 e8 56 3d 45 74 b7 3b
       0.01225269 -0.0047360733 0.052467592 0.005598577
0000d0 6e 76 21 3c c7 14 3e bd 8e 0d 11 bd fc d6 fa bc
       0.009854896 -0.046406534 -0.035413317 -0.03062009
0000e0 aa 86 2e bd 7b 90 e1 bc 2a 30 e2 bc fe 81 0e bd
       -0.042608894 -0.027534714 -0.027610857 -0.03479194
0000f0 e5 51 09 bd cf 5c 2c 3d 01 7c 5f bc 80 fe 55 3d
       -0.033525366 0.042080697 -0.013640405 0.052244663
000100 46 c2 90 bc 22 e2 9e bd 91 36 ca bb cb 06 33 bd
       -0.017670762 -0.07757975 -0.0061710556 -0.04370765
000110 f7 3e ff bc 13 20 34 bd 49 89 75 bd d5 d7 23 bd
       -0.031157954 -0.0439759 -0.05994538 -0.040000755
000120 b4 23 80 3c 1a 8b 87 bd 41 d5 13 bc 66 0c 2d bd
       0.015642025 -0.066183284 -0.009023012 -0.042248152
000130 dd bb 21 bc 45 fa dc 3c 61 7c 12 bc 39 7a e7 bb
       -0.00987145 0.026974807 -0.008940787 -0.0070641306
000140 a8 ce 58 3d 3b f5 7b bc 57 fc bc bc 48 f9 90 3c
       0.052931458 -0.015378292 -0.023069544 0.017696992
000150 6a b5 81 3c 7f 90 9e bc 1a e1 8b 3c aa 46 6a bc
       0.015833575 -0.01935601 0.01707511 -0.014299074
000160 2e f7 1f 3d 9e a4 c9 bc ce 51 41 ba 70 cd 7c bd
       0.03905409 -0.024614628 -0.00073745556 -0.061719358
000170 3a 59 9c bd 22 30 18 3c f5 fa 14 bb b5 50 18 bd
       -0.07634206 0.0092888195 -0.002273259 -0.037186343
000180 48 35 89 3d 66 3d a6 bd c2 d3 89 bd 4c bf 8b bc
       0.06699616 -0.081171796 -0.06729843 -0.01705899
000190 54 54 2f bc 38 06 da bd f0 18 26 3c 4b 1f d0 bc
       -0.010701258 -0.106457174 0.0101377815 -0.025405547
0001a0 ac fb 36 3a e1 30 e1 3c 23 83 ac 3c 44 61 43 bb
       0.0006980251 0.027489128 0.021058625 -0.0029812614
0001b0 2d 6a 50 bd 97 bf 15 3d 46 86 cf bd 73 fc 1f bd
       -0.050882507 0.036559667 -0.101330325 -0.039059114
0001c0 2a 43 79 3d 79 c3 8c 3c 5c 96 94 bc 02 7d 6a 3c
       0.06085507 0.017183052 -0.018138103 0.014312031
0001d0 a4 12 0a bd d0 e5 9f 3c 26 14 eb bb cf 03 16 bd
       -0.033709183 0.019518763 -0.0071740327 -0.036624726
0001e0 77 b2 5d 36 07 2f d2 bc f6 c3 ff bc e3 6f 6d 3c
       3.3035446e-06 -0.02565719 -0.031221371 0.014492008
0001f0 89 f8 a4 bc 59 41 c6 bc a3 d7 88 bc de 56 0d bc
       -0.020138042 -0.024201082 -0.016704386 -0.008626668
000200 8e 32 2c bc 2d 23 47 3c e8 9a 16 bd d7 bb eb b9
       -0.0105101 0.012154383 -0.036768824 -0.00044962644
000210 36 f0 a3 b9 d0 8b 02 bd 8f da 07 3d d5 69 96 3c
       -0.00031268754 -0.031871617 0.033167418 0.018361012
000220 2c 42 92 b8 24 59 dc 3c 97 d3 51 3d f4 54 d3 bb
       -6.974148e-05 0.026897974 0.05122718 -0.006449336
000230 67 3c 0f bd ba e9 1b ba be 49 33 bd 05 a3 66 3c
       -0.034969714 -0.0005947609 -0.043771498 0.014076953
000240 1f a9 89 ba ed 8e 24 be 75 ab 15 bd 50 22 b3 3d
       -0.0010502673 -0.16070147 -0.036540467 0.08746779
000250 e8 72 43 3c aa 61 9e 3d 0e 90 f7 3b d8 19 ca 3c
       0.011929251 0.07733472 0.0075550145 0.024670526
000260 25 65 2b 3c 25 37 65 3d a6 c7 47 bc 58 d7 5a bc
       0.010461126 0.055960793 -0.012193596 -0.013357006
000270 ee 10 ec 3b 84 00 33 3b f4 fc 85 bd 08 dd 2b bd
       0.0072041666 0.002731354 -0.065423876 -0.04195884
000280 bb 7a b3 3b d3 70 c5 3b 33 5e b8 3c 26 a3 03 3d
       0.005477277 0.0060254126 0.022505855 0.032138012
000290 67 34 b5 3c 53 30 07 3d 8b 73 e1 bd 8e 3c 07 3c
       0.022119714 0.03300507 -0.11008366 0.008254183
0002a0 60 11 60 bd a7 6b 93 3c 8d ca 85 3a 3b 07 2e bd
       -0.05470407 0.017995669 0.001020746 -0.042487364
0002b0 05 6a ad b4 52 12 3c bd 0f 2d d9 bc ad 93 d6 3c
       -3.23009e-07 -0.04591591 -0.026510743 0.026193464
0002c0 08 a8 18 bd 49 38 80 bd 62 16 83 bd 73 d5 4a bc
       -0.037269622 -0.062607355 -0.064007536 -0.012379992
0002d0 7e 3c 28 3d fc d9 aa bc cf 09 2f bd 9c 85 19 3c
       0.041073315 -0.020855896 -0.042733964 0.009370234
0002e0 01 bb 56 bd e0 08 b2 bc 0e de 01 3d 27 a4 64 3d
       -0.052424435 -0.021732748 0.03170591 0.05582061
0002f0 32 2e 67 bc cd 39 39 3b 9b fc 16 3d 51 53 2b bc
       -0.014110135 0.0028263212 0.036861997 -0.010456876
000300 6b b8 8c bb 50 31 4b 3d 10 e8 94 bc 04 4f d7 bc
       -0.0042944453 0.049607575 -0.018177062 -0.026282795
000310 a8 d3 b4 bc 58 02 55 bc 37 c2 d6 bb 1c d3 05 bd
       -0.022073582 -0.013001047 -0.006553914 -0.032672033
000320 e5 7f 1a bd 4c e8 ef ba cc 06 7f bc 71 dd 97 bc
       -0.037719626 -0.0018303483 -0.015565585 -0.018538209
000330 10 47 7a 3c 73 7b 8c bd f0 81 21 bd 4f 90 a8 3b
       0.015275732 -0.068594836 -0.03943056 0.005144156
000340 e1 c4 d9 bc cd bd 26 3d 13 f2 91 bc e0 fc ac bc
       -0.026583137 0.040708352 -0.017815625 -0.021116674
000350 50 80 70 3c 77 f6 f3 3c 54 b7 8c bb b8 a5 27 3d
       0.01467903 0.02978061 -0.0042943154 0.040929526
000360 a5 f7 4f 3c bb cb a4 bd 3d d6 8a 3c 0f fd 94 bc
       0.01269332 -0.08046671 0.01694786 -0.018187074
000370 f3 05 c4 bc 6b 48 45 bd 07 a1 d0 37 47 b2 1f bc
       -0.023928618 -0.048164766 2.4870516e-05 -0.0097470945
000380 92 33 e1 3b 93 d3 20 bd 7b 26 bd bc d3 b2 8a ba
       0.0068726027 -0.039264273 -0.023089638 -0.0010581858
000390 34 56 15 3d 19 c8 a1 3c 2b fc 0c bd 20 63 09 bd
       0.036459163 0.019748734 -0.034420174 -0.0335418
0003a0 c1 61 c7 bc 07 5c 54 bd 31 ad d1 bb ec c9 0c bd
       -0.024338605 -0.051845577 -0.00639882 -0.034372255
0003b0 64 b7 66 3a 92 b2 b6 3c 30 53 dc 3c ca bd 72 bc
       0.0008801131 0.022301946 0.026895136 -0.014815757
0003c0 18 e3 46 3b 77 c2 e4 3c 15 3e 82 bd 8b 97 01 bd
       0.003034776 0.02792476 -0.063594975 -0.031638663
0003d0 ea 42 ae 3a 21 e0 08 bd 23 aa ac 3c 04 9d 9d 3c
       0.0013295088 -0.03341687 0.021077221 0.01923991
0003e0 6e c0 9f bc 11 a3 17 bd 64 9c 20 3d a3 fa 3f bc
       -0.019500937 -0.037020747 0.039211646 -0.011717471
0003f0 96 e9 aa 37 da e1 09 bd 41 56 5c bd 38 50 1a 3d
       2.0374351e-05 -0.033662654 -0.053793196 0.03767416

fc2.bias f4 [128]
000000 05 89 6d 3d 89 18 7a 3b a4 6c c2 bc 97 d8 77 bd
       0.057992 0.0038161597 -0.023733445 -0.06050929
000010 21 8e b1 bd db 9f 3e bd f4 29 20 3d 77 20 93 bc
       -0.08669687 -0.04653917 0.03910251 -0.017959816
000020 d4 78 c7 3d e9 93 3f 3c 86 54 91 bd 61 93 c9 bd
       0.09739843 0.011692979 -0.070962 -0.098425634
000030 02 b6 5c bd fc 96 07 bc 0e a7 90 bd f1 17 81 3d
       -0.053884514 -0.008275744 -0.07063113 0.063033946
000040 85 c4 88 bd 49 79 b0 bd 8b 9b 86 3b cf 8c 2f bd
       -0.06678108 -0.08616883 0.0041078976 -0.042858895
000050 82 bd ec bc fc 59 d0 bd d3 d8 f2 3d 25 fe 8c bd
       -0.028898958 -0.10173413 0.11857762 -0.06884412
000060 87 79 c9 3d 2f d4 89 bb 5d ee 78 bd fa cb 4a 3c
       0.098376326 -0.0042062025 -0.060774196 0.012377733
000070 16 78 d0 bc 6a aa 1c bd 7a 0b 21 bd dc 15 20 bd
       -0.025447886 -0.038248457 -0.039317586 -0.039083347
000080 81 1e 33 bd 07 e0 a9 bd 50 7b 4e bd a4 58 dc 3a
       -0.043730263 -0.08294683 -0.05041057 0.0016811085
000090 a0 c6 6e 3c 97 db e4 bc ee e1 60 3d d6 1a 3e 3d
       0.014573723 -0.02793674 0.054902963 0.04641231
0000a0 04 b1 c2 bc dd f1 4d bd 3b 08 3b bd 60 42 a3 bd
       -0.023766048 -0.050279487 -0.045662146 -0.079716444
0000b0 cc 36 22 bd 10 11 b3 bd ed 5f 8a bd 09 f4 c3 bc
       -0.03960304 -0.08743489 -0.06756578 -0.023920076
0000c0 c5 0a 80 bd d0 07 5e bd 49 d9 a1 bb 41 56 77 bb
       -0.06252054 -0.05420667 -0.0049392325 -0.003774062
0000d0 f8 f6 6c bc 4d 56 ef bd 25 18 61 bd f6 95 ed 3d
       -0.014463179 -0.116863824 -0.054954667 0.116008684
0000e0 04 f7 88 3c fa 6c 0d 3d 9b 1f b5 bd ca cc 46 3d
       0.016719349 0.034527756 -0.08843919 0.048535146
0000f0 c1 b0 cc bb eb 1b a4 bc 80 2b 4a bd 93 56 15 bc
       -0.0062466566 -0.020032844 -0.04935789 -0.009114879
000100 86 ef ab 3b ba b0 b6 3d ef 09 60 bd 02 a8 ac 3d
       0.0052470593 0.08920427 -0.054696973 0.084304824
000110 26 5b ad bd 38 b6 8c bd 42 36 a8 bc d2 b3 d3 3c
       -0.08464651 -0.06870693 -0.020533685 0.025842581
000120 54 b3 e6 bd c8 53 3d bd 2a b2 ec 3d 0b 78 82 ba
       -0.11264673 -0.04622248 0.115574196 -0.0009953988
000130 c1 d7 1f bd 1f 10 47 bd 08 45 3b bd d2 88 cc bd
       -0.03902412 -0.04859936 -0.04572013 -0.09987034
000140 d9 f8 1a bd 80 15 bc 3d a0 83 81 bc 36 ec b1 bd
       -0.037834976 0.09183788 -0.015809834 -0.08687632
000150 31 3f 09 3c 09 53 94 bd 64 39 f9 bd 4b 12 b4 3c
       0.008376882 -0.072424 -0.121691495 0.021981379
000160 6d 37 66 bd a6 aa b1 bd 36 97 ce 3d fd 0a fc b9
       -0.056205202 -0.08675127 0.10087435 -0.00048073372
000170 82 5c 33 bd 54 0b 8a bd 36 c1 ac bd e0 9d d2 bc
       -0.043789394 -0.06740442 -0.084352896 -0.025710046
000180 d3 0c 41 bd 19 1d 1d bd 3c f3 bc bd c7 6d 95 bd
       -0.04713137 -0.038357828 -0.09226081 -0.07296329
000190 ec 25 a1 bd 4d c6 9a bd 05 51 92 bd e1 23 70 bd
       -0.07868561 -0.07557354 -0.071443595 -0.058627967
0001a0 e1 57 9a bd ee a1 f4 bc c6 f7 b6 bd 58 be 16 3d
       -0.07536293 -0.02986237 -0.08933978 0.03680262
0001b0 39 03 9d bc ba 59 96 bd a3 2e 02 bd 1d 13 94 3d
       -0.019166576 -0.07341333 -0.031782757 0.07230208
0001c0 98 be 02 3c b6 be e3 3d d2 a6 f5 bc 98 ab 89 bd
       0.007980011 0.111203596 -0.029986773 -0.06722182
0001d0 ca a7 4d 3d a6 41 aa bb 36 3f bf bc 1a 0e 96 bc
       0.050208844 -0.005195814 -0.023345571 -0.018317271
0001e0 2e 02 fc bc 0d 67 fc bc c5 7c 83 bd 60 53 5d 3d
       -0.030762758 -0.030810857 -0.06420282 0.05403459
0001f0 a8 bd e7 3c fe 6a 94 bd ca 4e 91 bd 29 44 65 bd
       0.028288677 -0.0724697 -0.07095106 -0.055973206

bn3.weight f4 [128]
000000 40 cb 96 3e a0 a6 16 3d cf ad 0a 3f 99 2f 2e 3f
       0.29451942 0.03678 0.5417146 0.6804138
000010 78 64 a1 3d 08 da 9b 3d 5d f2 65 3f 10 9e 04 3f
       0.07880491 0.076099455 0.8982294 0.51803684
000020 74 40 26 3e 38 89 7f 3f 64 79 6e 3f ba 94 9c 3e
       0.16235524 0.99818754 0.9315398 0.3058222
000030 c0 f1 06 3f f4 78 68 3e f7 f6 26 3f 27 a9 46 3f
       0.5271263 0.2270239 0.6522059 0.77601856
000040 56 0b 5b 3f 02 e5 74 3f 65 49 13 3f c0 fa 06 3e
       0.8556417 0.9566194 0.57533866 0.13181591
000050 c0 9f ae 3c 13 7b 19 3f c7 86 3a 3f 38 4e 4f 3e
       0.02131641 0.5995342 0.72861904 0.20244682
000060 e2 95 08 3f f0 dc 83 3d 83 dd 2a 3f 4a 5a 2a 3f
       0.53353703 0.06438625 0.6674425 0.6654402
000070 00 9e 3d 3c d8 01 bc 3e b0 b0 9f 3d bc ac 1c 3e
       0.011573315 0.36720157 0.07797372 0.15300268
000080 a8 bb 49 3e 36 ff 54 3f dc c1 8a 3e ae 97 f0 3e
       0.19700491 0.8320192 0.27101028 0.46990722
000090 b0 cb 77 3f f0 c7 5d 3d 49 20 40 3f 42 24 e7 3e
       0.9679518 0.054145753 0.75049263 0.4514485
0000a0 71 5b 03 3f da 8c 5a 3f 00 91 ee 3c 9d e4 31 3f
       0.51311404 0.8537117 0.029121876 0.6948946
0000b0 5c 25 40 3f c2 67 d3 3e b1 fc 10 3f 68 35 5a 3f
       0.75057006 0.41290098 0.56635576 0.8523774
0000c0 d4 b3 27 3e b6 60 6b 3f b0 ae 1e 3e 7c bb 42 3f
       0.16377193 0.91944444 0.15496325 0.7606733
0000d0 92 70 67 3f ce 19 29 3f 10 38 93 3d e8 f3 7e 3f
       0.90406144 0.66055 0.071884274 0.9959092
0000e0 8a b2 1c 3f b2 31 b5 3e 46 fd 50 3f 9c 74 57 3f
       0.6120993 0.35389477 0.81636465 0.84162307
0000f0 35 5c 29 3f e0 6e d8 3d 90 0d 17 3f ce 2d 88 3e
       0.6615632 0.10568023 0.5900507 0.26597446
000100 54 a1 5e 3e 56 5c 76 3f f4 a0 62 3e e0 b7 14 3e
       0.2174123 0.96234643 0.22131711 0.14523268
000110 a4 a5 ae 3e 80 50 7e 3f 90 47 aa 3e 88 4b e1 3d
       0.3411075 0.99341583 0.33257723 0.110007346
000120 08 75 6a 3e ec 3a 57 3e f6 af 31 3f 09 bc 37 3f
       0.22896206 0.2101857 0.6940912 0.71771294
000130 23 4d 47 3f 4d 3f 04 3f 50 2b bc 3d e8 66 26 3e
       0.77852076 0.5165909 0.09187949 0.16250193
000140 5c d6 3e 3f c0 9a 22 3d 95 47 18 3f 00 70 29 3e
       0.74545836 0.039698362 0.59484226 0.16546631
000150 a6 8d e2 3e 90 c3 ac 3e 22 dd 48 3f ba 63 10 3f
       0.44248694 0.33742952 0.7846242 0.5640217
000160 60 a1 06 3e cc 5c 30 3e 94 7a eb 3e f4 b5 36 3f
       0.13147497 0.17222899 0.45991957 0.7137139
000170 da 70 be 3e 18 47 95 3e 28 78 98 3d e4 17 23 3f
       0.37195474 0.29155803 0.07444793 0.6370833
000180 a9 4e 58 3f 74 6b 00 3f 48 da 05 3f 08 63 11 3e
       0.84495026 0.5016396 0.52286196 0.14197934
000190 dc f9 55 3e 90 e7 9f 3d b0 ad f1 3e 48 57 d1 3d
       0.20896095 0.07807839 0.47202826 0.10221726
0001a0 a8 0d 7c 3e 9a 72 1f 3f 48 29 2d 3e 25 24 45 3f
       0.24614584 0.62284243 0.16910279 0.7700828
0001b0 2a 78 63 3f fe 5e 31 3f cf a4 44 3f 44 c2 38 3e
       0.8885523 0.6928557 0.7681398 0.18042856
0001c0 68 61 37 3f 8f 34 12 3f e2 09 d7 3e e0 37 e3 3e
       0.71633005 0.5711145 0.41999727 0.44378567
0001d0 00 e2 66 3e 69 96 0c 3f 00 be 0b 3d b8 75 39 3e
       0.2254715 0.5491701 0.034116745 0.18111312
0001e0 77 4f 25 3f d6 7e 1b 3f 46 e5 ec 3e c0 31 94 3c
       0.6457438 0.6074041 0.46268672 0.018090129
0001f0 f4 61 23 3e 00 62 7d 3d 20 f1 77 3f 34 6b 06 3e
       0.15955335 0.06186104 0.968523 0.13126832

bn3.bias f4 [128]
000000 00 00 00 00 00 00 00 00 00 00 00 00 00 00 00 00
       0.0 0.0 0.0 0.0
000010 00 00 00 00 00 00 00 00 00 00 00 00 00 00 00 00
       0.0 0.0 0.0 0.0
000020 00 00 00 00 00 00 00 00 00 00 00 00 00 00 00 00
       0.0 0.0 0.0 0.0
000030 00 00 00 00 00 00 00 00 00 00 00 00 00 00 00 00
       0.0 0.0 0.0 0.0
000040 00 00 00 00 00 00 00 00 00 00 00 00 00 00 00 00
       0.0 0.0 0.0 0.0
000050 00 00 00 00 00 00 00 00 00 00 00 00 00 00 00 00
       0.0 0.0 0.0 0.0
000060 00 00 00 00 00 00 00 00 00 00 00 00 00 00 00 00
       0.0 0.0 0.0 0.0
000070 00 00 00 00 00 00 00 00 00 00 00 00 00 00 00 00
       0.0 0.0 0.0 0.0
000080 00 00 00 00 00 00 00 00 00 00 00 00 00 00 00 00
       0.0 0.0 0.0 0.0
000090 00 00 00 00 00 00 00 00 00 00 00 00 00 00 00 00
       0.0 0.0 0.0 0.0
0000a0 00 00 00 00 00 00 00 00 00 00 00 00 00 00 00 00
       0.0 0.0 0.0 0.0
0000b0 00 00 00 00 00 00 00 00 00 00 00 00 00 00 00 00
       0.0 0.0 0.0 0.0
0000c0 00 00 00 00 00 00 00 00 00 00 00 00 00 00 00 00
       0.0 0.0 0.0 0.0
0000d0 00 00 00 00 00 00 00 00 00 00 00 00 00 00 00 00
       0.0 0.0 0.0 0.0
0000e0 00 00 00 00 00 00 00 00 00 00 00 00 00 00 00 00
       0.0 0.0 0.0 0.0
0000f0 00 00 00 00 00 00 00 00 00 00 00 00 00 00 00 00
       0.0 0.0 0.0 0.0
000100 00 00 00 00 00 00 00 00 00 00 00 00 00 00 00 00
       0.0 0.0 0.0 0.0
000110 00 00 00 00 00 00 00 00 00 00 00 00 00 00 00 00
       0.0 0.0 0.0 0.0
000120 00 00 00 00 00 00 00 00 00 00 00 00 00 00 00 00
       0.0 0.0 0.0 0.0
000130 00 00 00 00 00 00 00 00 00 00 00 00 00 00 00 00
       0.0 0.0 0.0 0.0
000140 00 00 00 00 00 00 00 00 00 00 00 00 00 00 00 00
       0.0 0.0 0.0 0.0
000150 00 00 00 00 00 00 00 00 00 00 00 00 00 00 00 00
       0.0 0.0 0.0 0.0
000160 00 00 00 00 00 00 00 00 00 00 00 00 00 00 00 00
       0.0 0.0 0.0 0.0
000170 00 00 00 00 00 00 00 00 00 00 00 00 00 00 00 00
       0.0 0.0 0.0 0.0
000180 00 00 00 00 00 00 00 00 00 00 00 00 00 00 00 00
       0.0 0.0 0.0 0.0
000190 00 00 00 00 00 00 00 00 00 00 00 00 00 00 00 00
       0.0 0.0 0.0 0.0
0001a0 00 00 00 00 00 00 00 00 00 00 00 00 00 00 00 00
       0.0 0.0 0.0 0.0
0001b0 00 00 00 00 00 00 00 00 00 00 00 00 00 00 00 00
       0.0 0.0 0.0 0.0
0001c0 00 00 00 00 00 00 00 00 00 00 00 00 00 00 00 00
       0.0 0.0 0.0 0.0
0001d0 00 00 00 00 00 00 00 00 00 00 00 00 00 00 00 00
       0.0 0.0 0.0 0.0
0001e0 00 00 00 00 00 00 00 00 00 00 00 00 00 00 00 00
       0.0 0.0 0.0 0.0
0001f0 00 00 00 00 00 00 00 00 00 00 00 00 00 00 00 00
       0.0 0.0 0.0 0.0

bn3.running_mean f4 [128]
000000 00 00 00 00 00 00 00 00 00 00 00 00 00 00 00 00
       0.0 0.0 0.0 0.0
000010 00 00 00 00 00 00 00 00 00 00 00 00 00 00 00 00
       0.0 0.0 0.0 0.0
000020 00 00 00 00 00 00 00 00 00 00 00 00 00 00 00 00
       0.0 0.0 0.0 0.0
000030 00 00 00 00 00 00 00 00 00 00 00 00 00 00 00 00
       0.0 0.0 0.0 0.0
000040 00 00 00 00 00 00 00 00 00 00 00 00 00 00 00 00
       0.0 0.0 0.0 0.0
000050 00 00 00 00 00 00 00 00 00 00 00 00 00 00 00 00
       0.0 0.0 0.0 0.0
000060 00 00 00 00 00 00 00 00 00 00 00 00 00 00 00 00
       0.0 0.0 0.0 0.0
000070 00 00 00 00 00 00 00 00 00 00 00 00 00 00 00 00
       0.0 0.0 0.0 0.0
000080 00 00 00 00 00 00 00 00 00 00 00 00 00 00 00 00
       0.0 0.0 0.0 0.0
000090 00 00 00 00 00 00 00 00 00 00 00 00 00 00 00 00
       0.0 0.0 0.0 0.0
0000a0 00 00 00 00 00 00 00 00 00 00 00 00 00 00 00 00
       0.0 0.0 0.0 0.0
0000b0 00 00 00 00 00 00 00 00 00 00 00 00 00 00 00 00
       0.0 0.0 0.0 0.0
0000c0 00 00 00 00 00 00 00 00 00 00 00 00 00 00 00 00
       0.0 0.0 0.0 0.0
0000d0 00 00 00 00 00 00 00 00 00 00 00 00 00 00 00 00
       0.0 0.0 0.0 0.0
0000e0 00 00 00 00 00 00 00 00 00 00 00 00 00 00 00 00
       0.0 0.0 0.0 0.0
0000f0 00 00 00 00 00 00 00 00 00 00 00 00 00 00 00 00
       0.0 0.0 0.0 0.0
000100 00 00 00 00 00 00 00 00 00 00 00 00 00 00 00 00
       0.0 0.0 0.0 0.0
000110 00 00 00 00 00 00 00 00 00 00 00 00 00 00 00 00
       0.0 0.0 0.0 0.0
000120 00 00 00 00 00 00 00 00 00 00 00 00 00 00 00 00
       0.0 0.0 0.0 0.0
000130 00 00 00 00 00 00 00 00 00 00 00 00 00 00 00 00
       0.0 0.0 0.0 0.0
000140 00 00 00 00 00 00 00 00 00 00 00 00 00 00 00 00
       0.0 0.0 0.0 0.0
000150 00 00 00 00 00 00 00 00 00 00 00 00 00 00 00 00
       0.0 0.0 0.0 0.0
000160 00 00 00 00 00 00 00 00 00 00 00 00 00 00 00 00
       0.0 0.0 0.0 0.0
000170 00 00 00 00 00 00 00 00 00 00 00 00 00 00 00 00
       0.0 0.0 0.0 0.0
000180 00 00 00 00 00 00 00 00 00 00 00 00 00 00 00 00
       0.0 0.0 0.0 0.0
000190 00 00 00 00 00 00 00 00 00 00 00 00 00 00 00 00
       0.0 0.0 0.0 0.0
0001a0 00 00 00 00 00 00 00 00 00 00 00 00 00 00 00 00
       0.0 0.0 0.0 0.0
0001b0 00 00 00 00 00 00 00 00 00 00 00 00 00 00 00 00
       0.0 0.0 0.0 0.0
0001c0 00 00 00 00 00 00 00 00 00 00 00 00 00 00 00 00
       0.0 0.0 0.0 0.0
0001d0 00 00 00 00 00 00 00 00 00 00 00 00 00 00 00 00
       0.0 0.0 0.0 0.0
0001e0 00 00 00 00 00 00 00 00 00 00 00 00 00 00 00 00
       0.0 0.0 0.0 0.0
0001f0 00 00 00 00 00 00 00 00 00 00 00 00 00 00 00 00
       0.0 0.0 0.0 0.0

bn3.running_var f4 [128]
000000 00 00 80 3f 00 00 80 3f 00 00 80 3f 00 00 80 3f
       1.0 1.0 1.0 1.0
000010 00 00 80 3f 00 00 80 3f 00 00 80 3f 00 00 80 3f
       1.0 1.0 1.0 1.0
000020 00 00 80 3f 00 00 80 3f 00 00 80 3f 00 00 80 3f
       1.0 1.0 1.0 1.0
000030 00 00 80 3f 00 00 80 3f 00 00 80 3f 00 00 80 3f
       1.0 1.0 1.0 1.0
000040 00 00 80 3f 00 00 80 3f 00 00 80 3f 00 00 80 3f
       1.0 1.0 1.0 1.0
000050 00 00 80 3f 00 00 80 3f 00 00 80 3f 00 00 80 3f
       1.0 1.0 1.0 1.0
000060 00 00 80 3f 00 00 80 3f 00 00 80 3f 00 00 80 3f
       1.0 1.0 1.0 1.0
000070 00 00 80 3f 00 00 80 3f 00 00 80 3f 00 00 80 3f
       1.0 1.0 1.0 1.0
000080 00 00 80 3f 00 00 80 3f 00 00 80 3f 00 00 80 3f
       1.0 1.0 1.0 1.0
000090 00 00 80 3f 00 00 80 3f 00 00 80 3f 00 00 80 3f
       1.0 1.0 1.0 1.0
0000a0 00 00 80 3f 00 00 80 3f 00 00 80 3f 00 00 80 3f
       1.0 1.0 1.0 1.0
0000b0 00 00 80 3f 00 00 80 3f 00 00 80 3f 00 00 80 3f
       1.0 1.0 1.0 1.0
0000c0 00 00 80 3f 00 00 80 3f 00 00 80 3f 00 00 80 3f
       1.0 1.0 1.0 1.0
0000d0 00 00 80 3f 00 00 80 3f 00 00 80 3f 00 00 80 3f
       1.0 1.0 1.0 1.0
0000e0 00 00 80 3f 00 00 80 3f 00 00 80 3f 00 00 80 3f
       1.0 1.0 1.0 1.0
0000f0 00 00 80 3f 00 00 80 3f 00 00 80 3f 00 00 80 3f
       1.0 1.0 1.0 1.0
000100 00 00 80 3f 00 00 80 3f 00 00 80 3f 00 00 80 3f
       1.0 1.0 1.0 1.0
000110 00 00 80 3f 00 00 80 3f 00 00 80 3f 00 00 80 3f
       1.0 1.0 1.0 1.0
000120 00 00 80 3f 00 00 80 3f 00 00 80 3f 00 00 80 3f
       1.0 1.0 1.0 1.0
000130 00 00 80 3f 00 00 80 3f 00 00 80 3f 00 00 80 3f
       1.0 1.0 1.0 1.0
000140 00 00 80 3f 00 00 80 3f 00 00 80 3f 00 00 80 3f
       1.0 1.0 1.0 1.0
000150 00 00 80 3f 00 00 80 3f 00 00 80 3f 00 00 80 3f
       1.0 1.0 1.0 1.0
000160 00 00 80 3f 00 00 80 3f 00 00 80 3f 00 00 80 3f
       1.0 1.0 1.0 1.0
000170 00 00 80 3f 00 00 80 3f 00 00 80 3f 00 00 80 3f
       1.0 1.0 1.0 1.0
000180 00 00 80 3f 00 00 80 3f 00 00 80 3f 00 00 80 3f
       1.0 1.0 1.0 1.0
000190 00 00 80 3f 00 00 80 3f 00 00 80 3f 00 00 80 3f
       1.0 1.0 1.0 1.0
0001a0 00 00 80 3f 00 00 80 3f 00 00 80 3f 00 00 80 3f
       1.0 1.0 1.0 1.0
0001b0 00 00 80 3f 00 00 80 3f 00 00 80 3f 00 00 80 3f
       1.0 1.0 1.0 1.0
0001c0 00 00 80 3f 00 00 80 3f 00 00 80 3f 00 00 80 3f
       1.0 1.0 1.0 1.0
0001d0 00 00 80 3f 00 00 80 3f 00 00 80 3f 00 00 80 3f
       1.0 1.0 1.0 1.0
0001e0 00 00 80 3f 00 00 80 3f 00 00 80 3f 00 00 80 3f
       1.0 1.0 1.0 1.0
0001f0 00 00 80 3f 00 00 80 3f 00 00 80 3f 00 00 80 3f
       1.0 1.0 1.0 1.0
