mode_weights/agent10_actor_target.pth (torch_old, 93021 bytes, 18 tensors)

bn1.weight f4 [33]
0	0x3f00a7f4	0.50256276
1	0x3f10f043	0.5661661
2	0x3ea35b73	0.31905708
3	0x3c87ed21	0.016592564
4	0x3c59d513	0.01329543
5	0x3d2f86ef	0.042853292
6	0x3d3dcd0e	0.046338134
7	0x3e5669a3	0.20938735
8	0x3ddd69ed	0.10811219
9	0x3e304f2b	0.172177
10	0x3e269d94	0.16271049
11	0x3e0b4255	0.13599522
12	0x3dc62f4d	0.09676991
13	0x3f0a88f4	0.54115224
14	0x3eed4251	0.46339658
15	0x3f346556	0.70467126
16	0x3db32503	0.08747294
17	0x3d9bc131	0.07605208
18	0x3ccc6933	0.024952507
19	0x3ccd9f66	0.025100421
20	0x3e803aae	0.2504477
21	0x3e9727c6	0.29522532
22	0x3df8e581	0.121531494
23	0x3f2db6fe	0.6785735
24	0x3e986fce	0.297728
25	0x3eef6fad	0.4676489
26	0x3f87094e	1.0549715
27	0x3d142190	0.03616482
28	0x3f057265	0.5212768
29	0x3ebf3090	0.37341738
30	0x3e9c3612	0.30510002
31	0x3f6e9794	0.9320004
32	0x3eba5ab6	0.36397332

bn1.bias f4 [33]
0	0xbc48defa	-0.012260193
1	0xbdcf7fb6	-0.10131781
2	0xbde95b74	-0.113943964
3	0x3d8cfd9a	0.06884308
4	0xbdd77ce9	-0.105218716
5	0x3cb953e2	0.022623006
6	0x3d13ae9d	0.036055196
7	0xbdfa075d	-0.12208436
8	0x3a9089ec	0.0011027432
9	0xbcb50971	-0.022099229
10	0xbddffe15	-0.10937134
11	0xbe4fce5e	-0.20293567
12	0x3cb835ee	0.022486653
13	0xbd99c0c2	-0.07507469
14	0xbdf005f0	-0.117198825
15	0xbc621961	-0.013799996
16	0x3d129fb6	0.035796843
17	0x3c08a20a	0.008339414
18	0xbd14f10b	-0.03636269
19	0x3e25670b	0.16152589
20	0xbd4f4675	-0.050604302
21	0x3d9aa280	0.07550526
22	0xbd3d8a3a	-0.0462744
23	0xbd52fd9c	-0.051511392
24	0xbe026fb6	-0.12737927
25	0xbc124eb6	-0.008929899
26	0xbbd3b8fa	-0.00646126
27	0x3df9bb30	0.12193906
28	0xbd4e36e8	-0.05034533
29	0x3e5bf03a	0.21478358
30	0xbe2d448d	-0.16920681
31	0xbe4d388e	-0.20041105
32	0x3d293b96	0.04131659

bn1.running_mean f4 [33]
0	0x3f2d6d54	0.67744946
1	0xc01e828b	-2.4767177
2	0xbebb81cd	-0.36622468
3	0x3f571566	0.84017026
4	0x3da1cc7f	0.07900333
5	0x3c2b39b9	0.010450774
6	0xbd63f436	-0.05565282
7	0x3cd18186	0.025574457
8	0xbbcfeb4d	-0.0063451887
9	0x3b8af1bc	0.0042402428
10	0x3c0f1de2	0.008735152
11	0x3bcc5f3b	0.0062369383
12	0xbd7529cd	-0.059854317
13	0x3ef1e897	0.47247764
14	0xc0244125	-2.566476
15	0xbd9fb640	-0.07798433
16	0x3c091e24	0.0083690025
17	0x3c025fb9	0.007957392
18	0xbbcac3e6	-0.0061879037
19	0xbd061830	-0.03273791
20	0x3e214df3	0.15752392
21	0xbb41cd7e	-0.0029571946
22	0x3d00c543	0.031438123
23	0xbccb6695	-0.024829188
24	0x3e094857	0.13406502
25	0xbd2a1e3f	-0.04153275
26	0x3da7bda1	0.08190466
27	0xbf7ffffc	-0.99999976
28	0x3d9f3a2c	0.07774767
29	0x00000000	0.0
30	0x3f7ffffc	0.99999976
31	0x00000000	0.0
32	0xbc748595	-0.014924427

bn1.running_var f4 [33]
0	0x408469d3	4.137918
1	0x3f0a74d2	0.54084504
2	0x40954fad	4.665976
3	0x3d971c98	0.07378501
4	0x3d910c07	0.07082372
5	0x3cfc1c8e	0.030775335
6	0x3de05037	0.109528
7	0x3ec1cecc	0.37853086
8	0x3d83ad3e	0.06429528
9	0x3de0cc00	0.1097641
10	0x400b05e1	2.1722338
11	0x3fa9ab24	1.3255353
12	0x402e17c3	2.7202003
13	0x419f9213	19.946325
14	0x3fcd7ae1	1.6053125
15	0x41aa0aab	21.255209
16	0x3dd8e5b4	0.105906874
17	0x3e8ccede	0.27501577
18	0x3dca021c	0.098636836
19	0x3f051807	0.5198979
20	0x402b4cbd	2.6765587
21	0x3f59701b	0.84936684
22	0x3f74f8b2	0.9569198
23	0x40fa1bcd	7.8158937
24	0x40755ac9	3.833666
25	0x410d8999	8.846093
26	0x420209d1	32.509586
27	0x00000004	6e-45
28	0x41fc3cc8	31.529678
29	0x00000004	6e-45
30	0x00000004	6e-45
31	0x00000004	6e-45
32	0x3eac9553	0.33707675

fc1.weight f4 [128, 33]
0	0xbe3a1d3a	-0.18175212
1	0xbc4580c2	-0.012054624
2	0xbc261e81	-0.010139109
3	0xbdb62e68	-0.0889557
4	0x3bc8eded	0.0061318786
5	0x3ce161ab	0.027512392
6	0xbda50bba	-0.08058877
7	0xbdb233d3	-0.08701291
8	0x3d7d852e	0.06189459
9	0x3cacfea2	0.021117512
10	0x3c93fcc1	0.018064858
11	0x3e03d186	0.12872896
12	0x3d95c373	0.073126696
13	0xbd604fc3	-0.054763567
14	0xbd7ca21e	-0.061678044
15	0xbdd02e78	-0.10165113
16	0xbd1f1d26	-0.038846157
17	0xbd356b2a	-0.044291653
18	0xbaba5710	-0.001421662
19	0xbb005c7b	-0.0019586373
20	0xbc5a8a2c	-0.013338607
21	0x3d6abcfd	0.05730914
22	0x3cbcb936	0.023037534
23	0xbd1f68a2	-0.038918145
24	0xbc91fa2a	-0.017819483
25	0x3c789f1b	0.015174652
26	0x3d4735a2	0.048635133
27	0xbd420bd1	-0.04737455
28	0xbda3b7ab	-0.07994016
29	0xbdc72c7a	-0.0972528
30	0xbcb349a8	-0.021885708
31	0x3d80a07c	0.0628061
32	0x3c8e9471	0.017404767
33	0x3b38d455	0.0028202732
34	0xbbd3f741	-0.006468684
35	0xbd4212cb	-0.047381204
36	0x3cbf1bfc	0.023328774
37	0xbd11778d	-0.035514403
38	0xbd28b28f	-0.04118591
39	0xbc484776	-0.012224069
40	0xbcce70a9	-0.025200205
41	0x3d7a08bf	0.061043497
42	0xbc9ffdc2	-0.01953018
43	0x3c73294b	0.014841388
44	0x3cab0e84	0.020880945
45	0x3cc9a040	0.024612546
46	0x3dc7664b	0.09736308
47	0xbccfd279	-0.025368916
48	0xba1c70ef	-0.0005967756
49	0xbcb32861	-0.02186984
50	0xbc622d8d	-0.013804805
51	0xbdd7358c	-0.1050826
52	0xbca9ee29	-0.020743446
53	0xba852dff	-0.0010160803
54	0xbb3fe2a0	-0.0029279366
55	0xbd9dca3b	-0.07704588
56	0x3b05b733	0.0020403385
57	0x3cfff321	0.031243863
58	0x3d709084	0.05873157
59	0xbe41b8b6	-0.18918118
60	0xbdd34c76	-0.10317318
61	0x3d58084d	0.05274229
62	0xbdb456f2	-0.08805646
63	0x3e34d0da	0.17657796
64	0x3d85e5a0	0.06537938
65	0xbe52fc22	-0.20603994
66	0xbd9818e2	-0.07426621
67	0xbd81e9bd	-0.0634341
68	0xbdee76bf	-0.11643743
69	0x3c9ba63b	0.019000163
70	0x3b084372	0.0020792154
71	0x3d75c74c	0.060004517
72	0xbd2339c7	-0.039850023
73	0x3d30f725	0.043204445
74	0x3b9bc2a7	0.004753429
75	0xbc9f5426	-0.019449305
76	0x3a0bc05a	0.0005331092
77	0xbd209688	-0.039206058
78	0xbdd9bd77	-0.10631841
79	0x3d6504f3	0.055912923
80	0x3dcc5d8c	0.0997878
81	0xbdda9ff4	-0.1067504
82	0x3cb751b9	0.022377836
83	0xbcb737d4	-0.022365488
84	0x3da629cc	0.08113441
85	0xbca20e0a	-0.019782085
86	0xbc80f7b4	-0.015743114
87	0x3a826f82	0.0009951445
88	0xbd3fb862	-0.0468067
89	0x3b12c630	0.002239596
90	0x3d4fb8ba	0.05071328
91	0xbb0f7057	-0.0021887028
92	0xbc19e2e5	-0.009392475
93	0x3dcf769e	0.10130046
94	0x3e27219e	0.16321418
95	0xbc26ca1f	-0.010180025
96	0x3c1b5186	0.009479886
97	0x3d8946e6	0.06702976
98	0x3cf9a3a3	0.030473536
99	0xbcb7b288	-0.022423998
100	0xbc2fafe5	-0.010723089
101	0xbca1529b	-0.01969271
102	0xbd71583a	-0.05892203
103	0x3d435e04	0.047697082
104	0xbd233479	-0.039844964
105	0xbd105ee8	-0.03524676
106	0x3cbc1c9c	0.02296286
107	0xb9da38d2	-0.00041622535
108	0xbca2a248	-0.019852772
109	0xbb5d7bf0	-0.0033795796
110	0x3c863fcc	0.016387843
111	0x3cf8fd91	0.030394347
112	0xbe16da50	-0.14731717
113	0x3cf70e6e	0.030158248
114	0x3dbd770b	0.09251221
115	0xbd4b86bb	-0.049689036
116	0x3c982a76	0.018574934
117	0x3cb6dd71	0.022322388
118	0x3dfa8ccc	0.12233886
119	0xbd586c98	-0.052837938
120	0x3cc19294	0.023629464
121	0xbd2d4640	-0.042303324
122	0xbd9ce1cb	-0.07660254
123	0x3c8687dc	0.016422205
124	0x3d30114b	0.04298524
125	0x3c5f5f92	0.013633626
126	0x3d133615	0.03594025
127	0xbe6b62f7	-0.22986971
128	0x3ce1e41e	0.027574595
129	0x3cd89bb2	0.026441429
130	0x3d54ffc4	0.05200173
131	0xbe6daeca	-0.23211208
132	0xbd16f2f8	-0.036852807
133	0x3ca28c56	0.019842308
134	0x3e2470ae	0.16058609
135	0x3e0726e4	0.1319843
136	0xbd36dc39	-0.044643614
137	0x3d2dfdb6	0.042478286
138	0x3c2dc0b5	0.010605027
139	0x3c7cfd50	0.015441254
140	0xbda6ea9c	-0.08150217
141	0x3d1e4834	0.038643077
142	0xbdb44f6e	-0.088042125
143	0x3d0d4d7e	0.03449773
144	0x3cf553dc	0.029947214
145	0x381a150c	3.6736063e-05
146	0xbdd5a5c8	-0.10432011
147	0x3d2fb9de	0.042901866
148	0x3c6b2a59	0.014353358
149	0x3b53841d	0.003227479
150	0xbcd2d2f5	-0.025735358
151	0x3d980320	0.07422471
152	0xbde4c3f9	-0.11170191
153	0xbd14c49d	-0.036320318
154	0xbe244aa3	-0.16044097
155	0x3d17cfdf	0.037063476
156	0xbd9847dc	-0.07435581
157	0xbd3c262e	-0.04593485
158	0x3d3f7101	0.04673863
159	0x3dbf70fa	0.093477204
160	0xbe888f26	-0.26671714
161	0x3d4f80ad	0.050659824
162	0xbb67d55e	-0.003537498
163	0xbbfaeb5f	-0.007657453
164	0xbd69b7d7	-0.05706009
165	0x3d8cf663	0.06882932
166	0x3d288e37	0.04115125
167	0x3e4c8d85	0.1997586
168	0xbdd44779	-0.10365195
169	0x3d4baa51	0.049722973
170	0x3d0f8589	0.03503946
171	0xbd085a9f	-0.033289548
172	0x3c39f354	0.011349518
173	0xbd57789d	-0.05260526
174	0xbd050f98	-0.032485574
175	0x3c970ff3	0.018440222
176	0x3d87c273	0.06628885
177	0xbdbc10c4	-0.09182885
178	0xbd9ef18b	-0.077609144
179	0xbd4005bb	-0.046880465
180	0xbdc4776e	-0.09593092
181	0x3a9eae4f	0.0012106391
182	0x3d0f01a7	0.034913685
183	0x3de23962	0.11046101
184	0x3bf43d69	0.0074536097
185	0xbcc11354	-0.023568787
186	0x3c6bf203	0.014400962
187	0x3c8c5ee1	0.017135086
188	0xbd492711	-0.049109522
189	0xbd0aa56e	-0.033849172
190	0xbcabc825	-0.02096946
191	0x3d8b3099	0.06796379
192	0xbda6ecfa	-0.081506684
193	0xbdc9d25d	-0.09854577
194	0xbc06d1c3	-0.008228722
195	0xbcce5788	-0.025188223
196	0xbd974e84	-0.073880225
197	0xbe1414cd	-0.1446106
198	0x3d7044ae	0.058659248
199	0x3cb32858	0.021869823
200	0xbc70cccb	-0.014697264
201	0xbd5e5faf	-0.05429047
202	0xbd4d618b	-0.050141852
203	0xbc676418	-0.014122985
204	0xbd80162d	-0.0625423
205	0xbabd5bb0	-0.0014446881
206	0xbd28bd59	-0.0411962
207	0xbbf0e418	-0.0073514096
208	0xbcc3ee3e	-0.023917314
209	0xbcc9d99e	-0.0246399
210	0xbda85ecd	-0.08221207
211	0xbe1e57fb	-0.1546325
212	0xbdbe7570	-0.09299743
213	0x3d49089b	0.049080472
214	0xbbd5c81a	-0.006524098
215	0x3c1264a6	0.008935129
216	0xbd9d0669	-0.07667238
217	0xbd8ffd9f	-0.07030796
218	0xbd0acf4a	-0.033889093
219	0xbb00056e	-0.0019534486
220	0x3cc0199f	0.023449717
221	0xbcb36a0f	-0.021901159
222	0xbcd95b04	-0.026532657
223	0xbc03a15d	-0.0080340775
224	0x3dbbc2d4	0.0916802
225	0x3dd61935	0.104540266
226	0xbe3fe2be	-0.18738839
227	0x3dec2b19	0.11531658
228	0x3cd040c0	0.0254215
229	0xbd9706a6	-0.07374315
230	0x3dbc7361	0.09201694
231	0xbcd7ba73	-0.026334023
232	0xbcc90f2b	-0.024543365
233	0xbdd0eec1	-0.10201789
234	0xbd6c9c12	-0.057766028
235	0x3d8a86c4	0.06763986
236	0xbc3c3caa	-0.011489073
237	0xbd5bdb00	-0.05367565
238	0xbc116ba8	-0.008875765
239	0x3d3f038a	0.046634234
240	0xbbaf1b0a	-0.0053437995
241	0xbbc8938f	-0.006121106
242	0x3c421966	0.011846876
243	0x3d2f6b51	0.042826954
244	0x3d3e9869	0.04653207
245	0x3bb1eecc	0.005430078
246	0x3c42e6be	0.011895834
247	0x3cb75c6b	0.022382936
248	0x3ca0e680	0.019641161
249	0x3b436cd9	0.0029819517
250	0xbd8adc36	-0.06780283
251	0xbbf3d25f	-0.0074408497
252	0xbbf359a5	-0.007426458
253	0xbce44d38	-0.027868852
254	0x3cd5c5b2	0.026095245
255	0x3cba0487	0.022707237

fc1.bias f4 [128]
0	0xbd6f05bb	-0.058355074
1	0xbd14ebac	-0.036357567
2	0x3da522ea	0.080633
3	0xbde1e5b3	-0.1103014
4	0xbdad5fbe	-0.08465527
5	0x3d9a97b0	0.07548463
6	0x3df2536d	0.118323185
7	0xbddd5385	-0.10806946
8	0x3dc8e9f6	0.098102495
9	0xbe086f22	-0.13323644
10	0xbd468d55	-0.04847463
11	0xbccae4c2	-0.024767283
12	0xbdd9e6a8	-0.10639697
13	0xbe06d5fa	-0.13167563
14	0x3d7a7175	0.061143357
15	0xbe019a04	-0.12656409
16	0x3d51c9d3	0.051217865
17	0xbcbab3a2	-0.022790734
18	0xbcedc6e8	-0.02902551
19	0xbe459458	-0.1929487
20	0xbd98e847	-0.074661784
21	0x3dabd657	0.083904915
22	0xbc4245ec	-0.011857491
23	0xbde4892e	-0.111589774
24	0xbddbb5ae	-0.10728012
25	0xbdec6531	-0.11542738
26	0xbcf96e7e	-0.030448195
27	0x3e7f0175	0.249029
28	0x3c1cad74	0.009562839
29	0x3cc373c4	0.023858912
30	0x3c6acdb9	0.014331275
31	0xbdfdee73	-0.12398996
32	0xbd02b2dd	-0.03190886
33	0x3c9e777b	0.019344082
34	0xbb4b1c31	-0.0030992145
35	0xbd2aa08f	-0.041657027
36	0xbad4f631	-0.0016247687
37	0xbd5d0ac6	-0.053965352
38	0x3a202223	0.00061086024
39	0xbe21ff8b	-0.15820138
40	0x3dbcdef7	0.09222215
41	0x3e37bfdf	0.17944287
42	0xbb8d6034	-0.004314447
43	0xbe3bd9e3	-0.18344836
44	0xbd748021	-0.059692506
45	0x3bc74004	0.0060806293
46	0xbbeee6f9	-0.0072907177
47	0x3d0308fc	0.03199099
48	0xbdc5a9bb	-0.09651514
49	0x3e17be78	0.14818752
50	0xbda72478	-0.08161253
51	0x3d903c1b	0.07042714
52	0xbe5d7465	-0.21626432
53	0xbc93fef4	-0.018065907
54	0x3e063233	0.13105087
55	0xbe12c49c	-0.14332813
56	0xbca0f836	-0.019649606
57	0x3d7270b3	0.05918951
58	0xbb96b5e9	-0.004599322
59	0xbe007862	-0.12545922
60	0x3d9e06d1	0.07716144
61	0xbe366829	-0.17813171
62	0x3cc38890	0.023868829
63	0xbd842b8c	-0.064536184
64	0xbba09eb9	-0.0049017337
65	0x3d57a531	0.052647773
66	0xbcfd5db3	-0.030928468
67	0x3e0e209a	0.13879624
68	0xbc605d4c	-0.013694119
69	0x3e472865	0.19449003
70	0xbd8eb4e5	-0.06968097
71	0x3d94af58	0.07260007
72	0xbe02e095	-0.12780984
73	0x3cf1648d	0.029466892
74	0x3e3cdf0a	0.18444458
75	0xbde9234a	-0.11383684
76	0xbc5d2fdb	-0.013500179
77	0x3e22f329	0.1591307
78	0xbda1b39b	-0.07895585
79	0xbda86ae5	-0.082235135
80	0x3d94eb1a	0.072714046
81	0x3dd1856f	0.102305286
82	0x3d5e381e	0.054252736
83	0x3d9f893b	0.077898465
84	0x3d5e9545	0.054341573
85	0x3d98fbdc	0.07469913
86	0xbde24615	-0.11048523
87	0xbdacfcd0	-0.08446658
88	0xbd7eaa63	-0.062174212
89	0x3e87c05f	0.26513955
90	0xbd7198ea	-0.05898372
91	0xbcc78d52	-0.024359379
92	0xbdc45a06	-0.09587483
93	0xbc720b2d	-0.014773172
94	0xbcf549d2	-0.029942427
95	0xbd306ab7	-0.04307052
96	0xbd5cb5c9	-0.0538843
97	0x3dc44d8a	0.09585102
98	0x3cdfc303	0.027314669
99	0xbd24a46f	-0.04019588
100	0x3d9231a8	0.071383774
101	0xbdbc4d68	-0.091944516
102	0xbd47beed	-0.048766065
103	0xbd271ba1	-0.040797833
104	0xbe3fb214	-0.18720275
105	0x3e21bdf2	0.15795115
106	0xbd67267e	-0.056433193
107	0x3e1a050c	0.15040988
108	0xbcddd682	-0.027079824
109	0x3cef1797	0.029186053
110	0x3e2eebce	0.1708214
111	0xbd9e9ee0	-0.07745147
112	0x3a68f406	0.000888646
113	0xbdef6fc7	-0.11691242
114	0x3a445f8b	0.00074910437
115	0x3db89526	0.09012823
116	0xbdf8235d	-0.1211612
117	0xbd76c672	-0.060247846
118	0xbe088b1e	-0.13334319
119	0xbd15c8e0	-0.036568522
120	0x3d50f30b	0.051013034
121	0x3e8c3ea2	0.27391535
122	0x3d0bd851	0.034141842
123	0x3db2b442	0.08725788
124	0x3e40fa93	0.18845586
125	0x3dba8e82	0.091092125
126	0xbd9d1022	-0.07669093
127	0xbbebf406	-0.0072007207

bn2.weight f4 [128]
0	0x3dd44130	0.10363996
1	0x3e89a50d	0.26883736
2	0x3ecaa4a8	0.39578748
3	0x3ef151b8	0.4713266
4	0x3e3b0bf3	0.18266277
5	0x3efb5d88	0.49094796
6	0x3f15d0f7	0.5852198
7	0x3ed6950b	0.41910586
8	0x3f053257	0.5202994
9	0x3f4bae62	0.7956296
10	0x3ebbe5f6	0.36698884
11	0x3ea4e728	0.32207608
12	0x3e8f416b	0.27979597
13	0x3eaab437	0.33340618
14	0x3ea48018	0.32128978
15	0x3e49c85e	0.1970534
16	0x3eb93fa5	0.3618137
17	0x3f40d45b	0.7532403
18	0x3f013682	0.504738
19	0x3f41da84	0.75724053
20	0x3f58527e	0.84500873
21	0x3ea9293d	0.33039275
22	0x3e9d28f2	0.306953
23	0x3f1e135b	0.61748284
24	0x3e0493d4	0.12947017
25	0x3f2b1bbe	0.66839206
26	0x3eb3a43d	0.3508624
27	0x3e2f8c29	0.1714331
28	0x3eae6623	0.340623
29	0x3ecbd589	0.39811352
30	0x3f2087c9	0.6270719
31	0x3f40bc9e	0.75287807
32	0x3f4f2274	0.80911946
33	0x3effd072	0.4996372
34	0x3efaa293	0.4895216
35	0x3e92f103	0.28699502
36	0x3ead7eb4	0.3388573
37	0x3ee0d36d	0.43911305
38	0x3e86f236	0.26356667
39	0x3f2ba8dd	0.6705454
40	0x3e33f9bf	0.1757574
41	0x3e5b5808	0.214203
42	0x3f3e261a	0.7427689
43	0x3e15bf07	0.14623652
44	0x3eefe079	0.46850947
45	0x3f64535c	0.89189696
46	0x3f5ca62a	0.86191046
47	0x3f205aec	0.62638736
48	0x3ec06cfb	0.37583145
49	0x3f331b99	0.69963986
50	0x3ee13fe3	0.43994054
51	0x3ec4e2fb	0.38454422
52	0x3ed83f4a	0.42235786
53	0x3f0eed86	0.5583118
54	0x3f386724	0.7203238
55	0x3f28dde8	0.659636
56	0x3f069506	0.5257114
57	0x3f0a0891	0.5391932
58	0x3edffcd2	0.43747574
59	0x3f0642e3	0.5244581
60	0x3f047cd5	0.5175298
61	0x3e4c37d4	0.19943172
62	0x3f1cc891	0.6124354
63	0x3e995566	0.29947966
64	0x3e9cf03a	0.30652028
65	0x3f477069	0.779059
66	0x3eec7522	0.46183115
67	0x3f11886b	0.5684878
68	0x3e84be54	0.2592646
69	0x3f11d9b9	0.56972843
70	0x3f5434e5	0.8289321
71	0x3f15eaa6	0.5856117
72	0x3f4fc162	0.81154454
73	0x3e81183a	0.25213796
74	0x3f226424	0.6343405
75	0x3f304585	0.6885608
76	0x3f279bc6	0.65472066
77	0x3f3f5e69	0.74753433
78	0x3ed0256a	0.40653545
79	0x3edc3416	0.43008488
80	0x3f59ffa2	0.8515569
81	0x3f3ca7d2	0.73693573
82	0x3e7a2345	0.24427517
83	0x3f545c6b	0.8295352
84	0x3f5e18b5	0.8675645
85	0x3f116381	0.56792456
86	0x3e7085ae	0.23488495
87	0x3efce321	0.49392036
88	0x3e9e4f67	0.30919954
89	0x3f2683e9	0.6504503
90	0x3e8b079b	0.2715424
91	0x3f101e53	0.5629627
92	0x3f0d60c1	0.5522576
93	0x3f0a72c6	0.5408138
94	0x3f4677b9	0.7752643
95	0x3efdd958	0.49579883
96	0x3eac50e5	0.33655468
97	0x3ea7c372	0.327663
98	0x3ea11e30	0.31468344
99	0x3f027c19	0.5097061
100	0x3f0e3e49	0.5556379
101	0x3ec43300	0.3832016
102	0x3ee56e90	0.44810915
103	0x3f2a39dc	0.66494536
104	0x3e0e2aa5	0.13883455
105	0x3f3ed0b7	0.74537224
106	0x3ef4eb1c	0.47835624
107	0x3f32e220	0.6987629
108	0x3f7530f0	0.957778
109	0x3efedbd4	0.4977709
110	0x3ee3aad8	0.4446628
111	0x3ec1c350	0.37844324
112	0x3f409ba1	0.7523747
113	0x3f59abdc	0.8502786
114	0x3ed4fa6b	0.41597304
115	0x3f15df0f	0.58543485
116	0x3ed6a23f	0.4192066
117	0x3f29de67	0.66354984
118	0x3f1509c1	0.5821801
119	0x3f465448	0.77472353
120	0x3e21c104	0.15796286
121	0x3f54cf4d	0.83128816
122	0x3f28675c	0.65782714
123	0x3f30ff90	0.6913996
124	0x3f127500	0.5720978
125	0x3f48ee55	0.78488666
126	0x3f67433a	0.90336955
127	0x3ee9d8a3	0.45673093

bn2.bias f4 [128]
0	0xbef7380b	-0.48284945
1	0x3d6401b0	0.05566567
2	0x3dfaf255	0.122532524
3	0x3bdace62	0.006677435
4	0x3edc0cf5	0.42978635
5	0x3bf9e8e5	0.00762664
6	0x3d898bd5	0.06716124
7	0xbe43c02f	-0.19116281
8	0xbbb0f04c	-0.0053997394
9	0x3d6cdd8d	0.057828475
10	0x3dffcbdc	0.12490055
11	0xbd33f6a4	-0.043936387
12	0x3e9ab826	0.3021862
13	0x3dbf16e2	0.093305364
14	0x3ebe8b02	0.3721543
15	0x3e8fad00	0.28061676
16	0xbe89f10d	-0.2694172
17	0x3dcf5d41	0.10125209
18	0x3c7f62c8	0.015587516
19	0xbd095cbb	-0.0335357
20	0x3d87ef68	0.0663746
21	0x3e04cb64	0.12968212
22	0x3e8d9d1e	0.27658933
23	0x3d81ad94	0.063319355
24	0xbd478d07	-0.04871848
25	0x3da698bd	0.08134601
26	0xbe276bfe	-0.1634979
27	0x3ecfde6b	0.4059938
28	0x3e453a7e	0.19260594
29	0x3e48160e	0.19539663
30	0xbdc1e82c	-0.094681114
31	0x3d13bc5e	0.036068313
32	0xbd723816	-0.05913552
33	0xbe73b5f7	-0.23799883
34	0x3d860367	0.06543618
35	0xbe9915e6	-0.2989952
36	0x3e20af56	0.15691885
37	0x3e5f3e34	0.21801072
38	0x3e993f6d	0.29931203
39	0x3de1b8b6	0.11021559
40	0x3ef687ca	0.48150474
41	0x3eb8fb44	0.361292
42	0xbd535731	-0.051596824
43	0x3ea20034	0.3164078
44	0xbdc1f28d	-0.09470091
45	0x3eafcb41	0.34334758
46	0xbe1d5e44	-0.1536799
47	0xbde9c19a	-0.1141388
48	0xbe74ec36	-0.23918232
49	0xbe528532	-0.20558622
50	0x3e1eb681	0.15499307
51	0xbdd9a263	-0.10626676
52	0xbd818e57	-0.06325977
53	0xbe20a5c5	-0.15688236
54	0x3e7733ab	0.24140804
55	0xbd564da9	-0.052320156
56	0xbd93df75	-0.072203554
57	0x3daa31a3	0.08310249
58	0x3eb431a0	0.3519411
59	0xbc48e4be	-0.012261568
60	0x3e638ce1	0.2222171
61	0x3de2a0de	0.11065839
62	0x3b3e0052	0.002899189
63	0x3e334a33	0.17508774
64	0x3e90b76a	0.28264934
65	0x3e8e3e07	0.27781698
66	0x3e4427c5	0.19155796
67	0xbd9fb06e	-0.07797323
68	0x3e22a3e3	0.1588283
69	0x3e48c1b9	0.1960515
70	0x3d4a6cdc	0.049420223
71	0x3d383bc0	0.044978857
72	0xbd460aeb	-0.048350256
73	0x3e3d8813	0.1850894
74	0x3d0557b0	0.03255433
75	0x3d981f59	0.07427854
76	0xbd610ff8	-0.05494687
77	0x39380af1	0.00017551683
78	0xbe1b656f	-0.15175413
79	0x3e53d82e	0.20687935
80	0x3db9031c	0.09033796
81	0xbe67e2d9	-0.2264513
82	0xbd97976c	-0.07401928
83	0x3dabc6a7	0.08387499
84	0x3e166efc	0.14690775
85	0xbc9d0ee4	-0.01917214
86	0x3edf9d27	0.43674585
87	0xbd732344	-0.059359804
88	0xbdf7d2d2	-0.12100758
89	0x3ce4b8fc	0.027920239
90	0x3e8e78c9	0.27826527
91	0xbda76857	-0.08174198
92	0xbd815a6c	-0.06316075
93	0x3e5d33ef	0.21601842
94	0x3daaaa34	0.08333245
95	0x3e13c388	0.14430058
96	0x3e6168e5	0.2201267
97	0x3d52a0c3	0.051422846
98	0xbe1102c1	-0.14161207
99	0xbe2d19e6	-0.1690441
100	0x3d931b2a	0.071829155
101	0x3d712bf8	0.058879822
102	0x3e3a96f8	0.18221653
103	0xbe2fc4c6	-0.17164907
104	0x3e98c8a9	0.29840592
105	0x3e0d027a	0.13770476
106	0x3e5550c8	0.20831597
107	0xbe8987cb	-0.26861414
108	0x3cae5b1d	0.02128368
109	0xbe06f296	-0.13178477
110	0xbe115a6f	-0.14194654
111	0xbe26e565	-0.16298445
112	0xbb206301	-0.0024473073
113	0x3e049834	0.12948686
114	0xbcf097e2	-0.029369298
115	0xbb815600	-0.0039470196
116	0x3e70daba	0.23520938
117	0xbd58e935	-0.05295678
118	0x3e2656bd	0.16244026
119	0x3dd153d5	0.10221068
120	0x3f0f51b4	0.55984044
121	0xbdc2b361	-0.0950687
122	0x3e03d46b	0.12874
123	0x3e8bda46	0.27314967
124	0x3cdf1833	0.027233219
125	0x3e0d3e40	0.13793278
126	0xbc02061a	-0.007936025
127	0xbdebb5b3	-0.11509266

bn2.running_mean f4 [128]
0	0x3cc67a93	0.02422837
1	0x3cc9b7ad	0.024623716
2	0x3d92fce3	0.071771406
3	0x3c79ff11	0.0152585665
4	0x3cfdf660	0.03100127
5	0x3d8f249d	0.06989405
6	0x3e4dc57b	0.20094864
7	0x3c3ab8b8	0.011396579
8	0x3e360a0f	0.17777275
9	0x3c3cc39b	0.011521245
10	0x3b0236b4	0.0019869031
11	0x3d8b8f57	0.06814449
12	0x3840456e	4.584103e-05
13	0x3cd49e5e	0.025954422
14	0x3d837d9f	0.06420445
15	0x394d5a29	0.00019583911
16	0x3d27a7cd	0.04093151
17	0x3e1c1ada	0.15244618
18	0x3dacf4a1	0.08445097
19	0x37c43721	2.3390692e-05
20	0x3de19e13	0.110164784
21	0x3d5de5ea	0.05417434
22	0x3d830328	0.063970864
23	0x3ca9aa49	0.020711081
24	0x3954946f	0.00020273191
25	0x3cd21085	0.025642643
26	0x3d29e7bb	0.04148076
27	0x3eb9fb04	0.36324322
28	0x3dea3cc1	0.11437369
29	0x3c01b735	0.007917215
30	0x3c4986cf	0.012300207
31	0x398d4949	0.00026948217
32	0x3cc85a01	0.02445698
33	0x3be5a6de	0.0070084175
34	0x3c47b938	0.012190156
35	0x3ca356f8	0.01993893
36	0x3beb5d47	0.0071827504
37	0x3c5100ca	0.012756536
38	0x3c32bbdb	0.010909046
39	0x3cb68683	0.022280937
40	0x3d486f25	0.04893412
41	0x3e831891	0.2560468
42	0x3c82c71b	0.015964082
43	0x00000004	6e-45
44	0x3c25af41	0.010112585
45	0x3dadb4e2	0.08481766
46	0x3dd77a16	0.10521333
47	0x3dd1b411	0.10239423
48	0x3d2c2f2e	0.04203718
49	0x3e9701e6	0.29493636
50	0x3d103fc2	0.035217054
51	0x3d3e6af2	0.04648871
52	0x38727a96	5.7811463e-05
53	0x3c7329f1	0.014841543
54	0x3dfa9ac8	0.122365534
55	0x391b6685	0.00014820143
56	0x3cbf653e	0.023363706
57	0x3d8d8bf6	0.06911461
58	0x3bbdf555	0.005797068
59	0x385fedfb	5.338898e-05
60	0x3d914a50	0.07094252
61	0x39e49331	0.00043597215
62	0x3d945b53	0.07243981
63	0x374d4a51	1.2236255e-05
64	0x3bf9d5cb	0.007624363
65	0x3d6678ea	0.056267656
66	0x3d0726d0	0.032996
67	0x3e151e44	0.14562327
68	0x3a95db86	0.0011433221
69	0x3e77d748	0.24203217
70	0x3d7c3727	0.061576035
71	0x3de63ed7	0.112424545
72	0x393732df	0.00017471191
73	0x3d2e192c	0.042504475
74	0x3e814354	0.2524668
75	0x3b831fdf	0.004001602
76	0x3cd25045	0.025673041
77	0x3e271b33	0.1631897
78	0x3479d615	2.3267815e-07
79	0x3dbb8ad8	0.09157342
80	0x3d74b20f	0.059740122
81	0x3e90b38d	0.28261986
82	0x3e8b6526	0.27225608
83	0x3e066e67	0.13128053
84	0x3da12625	0.078686036
85	0x3cb25bdd	0.02177232
86	0x3bea0187	0.0071412954
87	0x3d156e05	0.036481876
88	0x3cbdf592	0.023188386
89	0x3ed556d0	0.41667795
90	0x3d9f033a	0.07764287
91	0x3d600210	0.054689467
92	0x392f3deb	0.00016712367
93	0x3caa9291	0.020821841
94	0x3b1aa2e5	0.0023595628
95	0x3d4aa53e	0.049473993
96	0x3bdd9a24	0.0067627598
97	0x3d4ec532	0.05048103
98	0x3d8e880f	0.06959545
99	0x3c9ddf1c	0.019271426
100	0x3e2c81db	0.16846411
101	0x3ddb13bf	0.10697126
102	0x3d316dbb	0.043317538
103	0x3d3f3667	0.04668274
104	0x37f018d8	2.8621798e-05
105	0x3e3e433c	0.18580335
106	0x3c85d87d	0.016338581
107	0x3e299224	0.16559654
108	0x3ce088f5	0.027409056
109	0x3dd399d7	0.10332077
110	0x3eb40c92	0.3516584
111	0x3d0ea802	0.034828193
112	0x3dbfc5c2	0.09363891
113	0x3d4555d2	0.048177548
114	0x3b954bcc	0.004556155
115	0x3de9cb86	0.11415772
116	0x3c6a7c58	0.014311872
117	0x3bd0ab0e	0.0063680476
118	0x3c7699de	0.015051333
119	0x3d4371be	0.047715895
120	0x3d8b9f63	0.0681751
121	0x3ebd7d40	0.3700962
122	0x3da91771	0.08256424
123	0x3dc36ab5	0.09541837
124	0x3e9d9a39	0.30781725
125	0x3dcdab17	0.100423984
126	0x3cafe232	0.021470163
127	0x3af730db	0.0018859165

bn2.running_var f4 [128]
0	0x3b0f47b2	0.0021862802
1	0x3b07833d	0.002067759
2	0x3b2e823f	0.0026627926
3	0x3a8e21a5	0.0010843767
4	0x3b3e27c0	0.0029015392
5	0x3b9031a3	0.0044004484
6	0x3be91354	0.0071129
7	0x3a624689	0.00086317264
8	0x3d043b07	0.032282855
9	0x3a6e856b	0.00090988603
10	0x389304f9	7.0104325e-05
11	0x3c00544e	0.0078326
12	0x3616ee15	2.2490324e-06
13	0x3b19b63d	0.002345457
14	0x3aed2049	0.0018091287
15	0x37913d7d	1.731398e-05
16	0x3b91ea53	0.0044529825
17	0x3c15f81c	0.009153392
18	0x3c0491cd	0.008091402
19	0x360cf3a4	2.1003443e-06
20	0x3c9641fe	0.018342014
21	0x3bbb9928	0.0057250448
22	0x3bb0fc05	0.005401137
23	0x3ad237f7	0.0016038407
24	0x371fdda1	9.5287405e-06
25	0x3b25c026	0.0025291531
26	0x3beda38a	0.0072521614
27	0x3c08e7e6	0.00835607
28	0x3c0b2b5c	0.008494224
29	0x39ae8682	0.00033288082
30	0x39eb835c	0.00044920563
31	0x37e0937b	2.6771557e-05
32	0x3b030802	0.0019993787
33	0x39580437	0.00020600935
34	0x39b39a1c	0.0003425636
35	0x3add9257	0.0016904575
36	0x398a4ae1	0.000263772
37	0x3a49d5f6	0.0007699424
38	0x3a12c672	0.00055990287
39	0x3ae9d315	0.0017839397
40	0x3b5ea674	0.0033973726
41	0x3b037f48	0.002006488
42	0x3a904343	0.0011006374
43	0x00000004	6e-45
44	0x39c3b504	0.00037328165
45	0x3a1357ac	0.0005620669
46	0x3c85ac17	0.01631741
47	0x3c6b6333	0.014366913
48	0x3b92e7c5	0.0044831955
49	0x3c6b9ab7	0.014380149
50	0x3b432b1f	0.002978034
51	0x3b9bd138	0.0047551654
52	0x3757524c	1.283416e-05
53	0x3a852994	0.0010159486
54	0x3c352161	0.011055321
55	0x37374b3a	1.0925165e-05
56	0x3b180b47	0.0023200081
57	0x3b902b3c	0.004399685
58	0x3a02fafd	0.00049965066
59	0x3718bd79	9.104021e-06
60	0x3b5d583c	0.0033774516
61	0x386545d7	5.4662898e-05
62	0x3c31ad55	0.010844548
63	0x34b9da7a	3.4617898e-07
64	0x3a217b46	0.0006160032
65	0x3a167e49	0.0005740864
66	0x3b3277a2	0.0027231951
67	0x3ab56245	0.0013838491
68	0x38805fb4	6.121342e-05
69	0x3c7dd9aa	0.01549379
70	0x3b4fcce9	0.003170783
71	0x3ae00341	0.0017090813
72	0x37856516	1.5901907e-05
73	0x3ba3dd34	0.0050007347
74	0x3cd36f5f	0.025809942
75	0x3937d45d	0.00017531351
76	0x3aeb7732	0.00179646
77	0x3bea29d4	0.0071460996
78	0x326790a8	1.3478861e-08
79	0x3c690c7b	0.014224167
80	0x3c1ebf99	0.009689235
81	0x3bd7ea52	0.0065892125
82	0x3bdaef00	0.006681323
83	0x3c54f05a	0.012996757
84	0x3c1bcf62	0.009509893
85	0x3a288075	0.0006427833
86	0x3a2de575	0.0006633618
87	0x3b40d369	0.0029422885
88	0x3b291ca9	0.0025804436
89	0x3c1fb6b5	0.009748151
90	0x3bf12aa1	0.007359818
91	0x3be9a2a7	0.0071299854
92	0x373578bb	1.08165505e-05
93	0x3ab26c03	0.0013612512
94	0x38a473ea	7.84172e-05
95	0x3b810070	0.0039368197
96	0x39826ef0	0.00024878187
97	0x3b4d0524	0.0031283582
98	0x3c3170e3	0.010830137
99	0x3a65fc2c	0.0008773233
100	0x3cb62c80	0.022238016
101	0x3c84d899	0.016216563
102	0x3b5729e3	0.0032831363
103	0x3b9c14f6	0.004763241
104	0x367f2664	3.8020307e-06
105	0x3c1bfb4b	0.009520362
106	0x3a98bfa2	0.0011653791
107	0x3cf8b03e	0.030357476
108	0x3a90d263	0.0011049028
109	0x3c03c53a	0.008042628
110	0x3c4b4e35	0.012408783
111	0x3b77a96d	0.0037790195
112	0x3bd86290	0.0066035464
113	0x3b8f4c46	0.004373106
114	0x39792314	0.00023759558
115	0x3c3f05d8	0.011659108
116	0x3a838765	0.0010034858
117	0x39e0e61d	0.00042896057
118	0x3abce4fb	0.0014411503
119	0x3b94c0b0	0.0045395717
120	0x3c18bd48	0.009322472
121	0x3b8a4950	0.0042201653
122	0x3bcab184	0.0061857123
123	0x3c42fbfa	0.011900896
124	0x3bd91ace	0.00662551
125	0x3ad18b4e	0.0015986951
126	0x3a85016c	0.0010147518
127	0x385aab14	5.213458e-05

fc2.weight f4 [128, 128]
0	0x3d8e4b9a	0.069480136
1	0x3d8823eb	0.06647476
2	0x3a2d08ba	0.00066007266
3	0x3c312079	0.010810965
4	0xbd9ea58f	-0.077464215
5	0x3c3d0dfe	0.0115389805
6	0xbe0964c1	-0.13417341
7	0x3d5d0699	0.05396137
8	0xbd535183	-0.051591408
9	0xbc002234	-0.007820655
10	0xbd80d9c3	-0.06291535
11	0xbe106603	-0.14101414
12	0xbe05695f	-0.13028477
13	0xbe87df96	-0.2653777
14	0x3d35fe4f	0.04443198
15	0x3cbc7398	0.023004338
16	0x3dd11c15	0.10210434
17	0xbd3c925e	-0.046038024
18	0x3d143ffb	0.03619383
19	0x3da5ba9e	0.08092235
20	0x3d905508	0.070474684
21	0x3ba2be9e	0.004966571
22	0xbc1de8eb	-0.0096380515
23	0x3cb65d58	0.022261307
24	0x3db47b86	0.08812623
25	0xbbc1a34f	-0.0059093605
26	0x3a70c01a	0.0009183899
27	0x3a092990	0.00052323285
28	0xbdd23de1	-0.10265709
29	0xbdaf8ca2	-0.085717455
30	0xbc61fa55	-0.013792594
31	0xbcca5ad2	-0.02470151
32	0xbd6e5ad1	-0.058192078
33	0x3db3788a	0.087632254
34	0xbd3bd328	-0.04585567
35	0x3d2e5272	0.042559095
36	0x3d975bcd	0.073905565
37	0xbd161491	-0.036640707
38	0xbe2886d8	-0.16457689
39	0xbc4db1b2	-0.012554573
40	0xbe3ae608	-0.18251812
41	0x3d3d1fc4	0.046172872
42	0xbcd002e7	-0.025392009
43	0xbe196025	-0.14978082
44	0xbdde032e	-0.1084045
45	0xbd347f4d	-0.044066716
46	0x3d58bfb4	0.052917197
47	0x3d915fc9	0.07098348
48	0x3d8cb43a	0.06870313
49	0xbc832e3c	-0.016013257
50	0xbdc4cde8	-0.09609586
51	0x3d72472a	0.0591499
52	0xbbb66b71	-0.005567007
53	0x3da3fb6f	0.080069415
54	0xbc7e55e7	-0.01552341
55	0xbd86b4ef	-0.06577479
56	0x3d3c5e50	0.04598838
57	0xbcb382df	-0.02191299
58	0x3d84b380	0.064795494
59	0x3d5c97c1	0.05385566
60	0x3cb25319	0.02176814
61	0xbe217a7a	-0.15769377
62	0x3d5e41f0	0.0542621
63	0x3c7b7b19	0.015349173
64	0xbda1850e	-0.07886706
65	0xbe55199a	-0.20810547
66	0xbce055e7	-0.027384711
67	0xbcc89551	-0.024485262
68	0xbe303ad4	-0.17209941
69	0xbddfacd9	-0.1092164
70	0xbcfae2d3	-0.030625736
71	0x3d2a2c82	0.041546352
72	0xbd94ffcd	-0.072753526
73	0xbe28cbc1	-0.16483976
74	0x3d254d38	0.040356845
75	0x3bcac72b	0.0061882935
76	0x3d16f0c1	0.036850695
77	0xbd404f72	-0.046950765
78	0x3da28031	0.07934607
79	0x3ca104de	0.019655641
80	0xbc9c3d6c	-0.019072257
81	0x3d15da08	0.036584884
82	0x3c7b7b16	0.01534917
83	0xbc9c986f	-0.019115655
84	0xbbe75156	-0.0070592565
85	0x3cd7e459	0.026354002
86	0xbe351404	-0.17683417
87	0xbc35847f	-0.011078953
88	0xbd80981e	-0.06279014
89	0x3d0fa28f	0.035067137
90	0xbd9d0e08	-0.07668692
91	0x3c8ae019	0.016952561
92	0x3dbb0b4f	0.09133016
93	0x3d3cb830	0.046074092
94	0x3cc4e488	0.024034753
95	0xbd66cad4	-0.056345776
96	0xbdb03f9d	-0.08605883
97	0xbbe78748	-0.0070656873
98	0x3dfd463a	0.1236691
99	0x3d24c531	0.04022712
100	0x3d08c77f	0.03339338
101	0xbcf10503	-0.029421335
102	0xbe323168	-0.1740166
103	0x3d841407	0.064491324
104	0xbe0d8514	-0.13820297
105	0x3d95e639	0.07319302
106	0xbd9f8937	-0.077898435
107	0x3d5303c1	0.051517252
108	0xbe42cefe	-0.19024274
109	0xbcca0fd8	-0.024665758
110	0x3d953c8b	0.07286938
111	0xbd8ca197	-0.06866758
112	0xbd0fbdff	-0.035093304
113	0x3ce9e7f6	0.02855299
114	0x3d37118e	0.044694476
115	0xbc69a5de	-0.014260737
116	0x3ce1fa04	0.027585037
117	0x3d9d1c4c	0.07671413
118	0xbcf64034	-0.030059911
119	0xbca36a70	-0.019948214
120	0xbe2c61ca	-0.16834179
121	0x3b8f3623	0.0043704673
122	0xbd4c02c5	-0.04980733
123	0x3ccf80a1	0.02532989
124	0x3c0a6a0d	0.008448136
125	0x3e26f1e1	0.16303207
126	0xbb4af35d	-0.003096781
127	0x3c080aa6	0.00830332
128	0x3d6a210a	0.057160415
129	0x3db22045	0.08697561
130	0xbd708313	-0.058718752
131	0x3d6144e8	0.054997355
132	0xbd7bc30e	-0.061465316
133	0x3d89ccfa	0.06728549
134	0xbbaa37e0	-0.005194649
135	0xbe41a51f	-0.18910645
136	0x3d6455ee	0.05574601
137	0x3b8d27a4	0.004307704
138	0x3deaa613	0.114574574
139	0x3d7e5f84	0.06210281
140	0xbda593d5	-0.08084837
141	0xbdba7c47	-0.09105735
142	0x3b504eb5	0.0031785194
143	0x3e20b5e4	0.15694386
144	0xbde8d65a	-0.11369009
145	0xbd7b0d5f	-0.06129205
146	0xbca35a15	-0.019940415
147	0x3d2d2c0b	0.04227833
148	0xbc6506a6	-0.013978636
149	0xbc105eae	-0.008811636
150	0x3c8dde9f	0.017318068
151	0x3db8ab4e	0.09017049
152	0x3d758212	0.059938498
153	0x3d58937e	0.052875035
154	0x3d655f5c	0.055999145
155	0xbd786575	-0.060643632
156	0xbdf5c106	-0.11999707
157	0xbacd95f1	-0.0015684945
158	0x3ddd8f76	0.108183786
159	0xbd9f8f4b	-0.07791003
160	0x3c279762	0.010228964
161	0xbd1f9162	-0.038957007
162	0xbe0ef6c5	-0.13961323
163	0x3e272a00	0.16324615
164	0x3d831fcb	0.064025484
165	0xbe0218c5	-0.12704761
166	0x3c51c625	0.012803589
167	0xbd55802c	-0.052124187
168	0xbd10e524	-0.035374776
169	0xbde99ff2	-0.1140746
170	0xbd9bd0d9	-0.07608194
171	0x3d18cb09	0.037303004
172	0x3d21e7e0	0.039527774
173	0x3d75faaf	0.060053524
174	0xbd8a41ed	-0.067508556
175	0x3d2cf75c	0.042228088
176	0xbc8d762c	-0.017268263
177	0x3d27f2a3	0.04100288
178	0x3d93be88	0.07214075
179	0xbd2a98c5	-0.0416496
180	0xbde5b217	-0.112156086
181	0x3d2a6cda	0.041607715
182	0x3c809840	0.015697598
183	0xbd830782	-0.063979164
184	0x3cefdf9a	0.029281426
185	0xbda8cd76	-0.082423136
186	0x3d49528c	0.04915099
187	0xbb6bce25	-0.0035981026
188	0xbdad0ab0	-0.08449304
189	0xbe336170	-0.17517638
190	0xbcd55665	-0.026042173
191	0xbbac61bd	-0.0052606747
192	0x3de0a2e7	0.10968571
193	0xbd7c926b	-0.061663073
194	0xbc61ba30	-0.013777301
195	0xbddd49df	-0.108051054
196	0x3d1d090b	0.038338702
197	0xbc43d4bc	-0.011952575
198	0x3d450d22	0.048108228
199	0x3cc2fa5f	0.023801027
200	0xbe022357	-0.12708794
201	0xbc19a812	-0.00937845
202	0xbd535f2e	-0.051604442
203	0xbde43089	-0.1114207
204	0xbbf9df99	-0.007625532
205	0xbe118129	-0.14209427
206	0xbbe6a0e6	-0.0070382236
207	0xbb55a827	-0.0032601447
208	0x3d961db3	0.073298834
209	0x3c97dd42	0.018538121
210	0x3cfcf0fb	0.030876627
211	0xbdd3c423	-0.103401445
212	0x3cfe7911	0.031063588
213	0xbd38fda2	-0.045163758
214	0x3d9a678f	0.075392835
215	0xbc7d836e	-0.01547323
216	0x3dbc51bc	0.09195277
217	0xbca6ec01	-0.020376207
218	0xbdd0d152	-0.10196175
219	0xbe0091b8	-0.12555587
220	0xbd12d1aa	-0.035844482
221	0xbd70e94f	-0.05881625
222	0x3cf469ab	0.029835543
223	0xbdc9a84b	-0.098465525
224	0x3d073da6	0.033017777
225	0x3d0a0c90	0.033703387
226	0x3dc0d4de	0.09415601
227	0xbe11cb6e	-0.14237759
228	0x3ba18628	0.0049293227
229	0x3c8a3743	0.016872054
230	0x3dc6d7b7	0.09709113
231	0x3d32000d	0.04345708
232	0xbd3d57fa	-0.04622648
233	0x3d6828c9	0.05667952
234	0xbd15e14a	-0.036591806
235	0xbd99e81b	-0.07514974
236	0x3bc957b9	0.0061444906
237	0x3e355e0a	0.17711654
238	0xbbff2499	-0.007786345
239	0xbd9cc21e	-0.076542124
240	0x3d81d34c	0.0633913
241	0x3db7c021	0.089721926
242	0x3db9e5a6	0.09077005
243	0xbca9fc03	-0.020750051
244	0x3b7d5416	0.0038654855
245	0x3dbac1ce	0.091189966
246	0xbd9d074e	-0.07667409
247	0x3cccf906	0.025021087
248	0x3cd0500e	0.025428798
249	0xbd35f708	-0.04442504
250	0x3de92675	0.11384288
251	0xbd32a8f9	-0.043618176
252	0x3d988e6b	0.07449039
253	0x3d023137	0.031785216
254	0x3a442eb1	0.0007483764
255	0x3c891adf	0.016736446

fc2.bias f4 [128]
0	0xbcf9562b	-0.030436596
1	0xbc6cb88b	-0.014448295
2	0xbdd50c75	-0.104027666
3	0xbd4cca59	-0.04999766
4	0xbe0de31a	-0.13856164
5	0xbe14a329	-0.14515366
6	0xbe497466	-0.19673309
7	0xbe4a1f43	-0.19738488
8	0xbd912103	-0.070863746
9	0xbd9916fa	-0.074750856
10	0xbe047f6b	-0.12939231
11	0x3bf729b4	0.007542813
12	0xbdbc28e0	-0.09187484
13	0xbd6e35bc	-0.058156714
14	0x3db7817c	0.08960244
15	0xbe51edbe	-0.20500848
16	0xbe10996c	-0.14121026
17	0xbe1e1e3c	-0.15441221
18	0xbdd9bda9	-0.10631878
19	0x3b63b830	0.0034747235
20	0xbdc87674	-0.09788218
21	0xbe0226f3	-0.1271017
22	0xbd36d037	-0.044632163
23	0xbe18a394	-0.1490615
24	0xbd39c3ad	-0.045352627
25	0x3e93cef2	0.28868824
26	0xbdd17528	-0.10227424
27	0xbe12a108	-0.14319241
28	0xbe2a5b12	-0.16636303
29	0xbe163456	-0.14668402
30	0xbdec1edf	-0.11529326
31	0x3d3006cc	0.042975232
32	0xbdb2da4a	-0.087330416
33	0xbc3095ee	-0.0107779335
34	0xbe7a1e20	-0.24425554
35	0xbd345768	-0.04402867
36	0x3d816bdf	0.06319403
37	0xbe345171	-0.17609192
38	0x3d39063c	0.04517196
39	0x3dc659e1	0.09685112
40	0xbdd3f1a9	-0.103488274
41	0xbc903b35	-0.017606357
42	0x3d960187	0.0732451
43	0xbde79b79	-0.11308951
44	0xbbb913d6	-0.0056481166
45	0x3dc30aef	0.0952357
46	0xbd9d8789	-0.07691867
47	0xbe384b5d	-0.17997499
48	0x3d928ae1	0.07155395
49	0xbd84c08a	-0.064820364
50	0xbd5f39d5	-0.054498512
51	0xbd5f1227	-0.05446067
52	0xbe1f02a2	-0.15528348
53	0xbdd6f419	-0.10495777
54	0x3c67e184	0.014152888
55	0xbc7fca38	-0.015612178
56	0xbdaca0dc	-0.08429119
57	0xbdb3094f	-0.0874201
58	0xbcd563b3	-0.026048517
59	0x3c1dc96f	0.009630545
60	0x3e8858c1	0.26630214
61	0x3e8278af	0.254827
62	0xbd31afef	-0.043380674
63	0xbe18d241	-0.14923956
64	0x3df3ded2	0.11907734
65	0xbe1ba3d3	-0.15199213
66	0x3d9f2625	0.07770947
67	0x3da63298	0.08115119
68	0x3d9a084e	0.07521115
69	0xbd944a0f	-0.07240688
70	0xbe2e048f	-0.16993926
71	0x3ca7d050	0.020485073
72	0xbd8fe238	-0.0702557
73	0x3ca91bba	0.020643104
74	0x3d97a824	0.07405117
75	0xbcd2d50e	-0.025736358
76	0xbcf87944	-0.030331261
77	0xbd17b2c6	-0.037035726
78	0xbda51b8e	-0.08061896
79	0xbdc09529	-0.0940345
80	0xbca69bc6	-0.02033795
81	0xbe1c7df4	-0.15282422
82	0x3d5a4f5d	0.053298343
83	0xbe3a0c27	-0.18168698
84	0x3b9c91d2	0.0047781253
85	0xbe771ede	-0.24132869
86	0xbe2ca274	-0.16858846
87	0xbda4634c	-0.08026752
88	0xbc97f087	-0.01854731
89	0xbd3d8a02	-0.046274193
90	0xbe00e934	-0.1258896
91	0xbd367576	-0.044545613
92	0xbd6225e2	-0.05521191
93	0xba072571	-0.00051554205
94	0xbb961b2b	-0.0045808754
95	0xbdc9fd39	-0.098627515
96	0xbd29f1b1	-0.04149026
97	0xbdc7fa4e	-0.09764539
98	0xbd8857bb	-0.06657358
99	0xbddc5673	-0.107586764
100	0xbd42e452	-0.047581024
101	0xbdff1931	-0.12455977
102	0xbe4cced6	-0.20000777
103	0x3b4ccd0f	0.0031250154
104	0xbb0870af	-0.0020819118
105	0x3dc23e73	0.094845675
106	0x3d01b8f2	0.03167052
107	0x3d601b50	0.054713547
108	0x3e09ebce	0.13468859
109	0xbdc0c214	-0.094120175
110	0xbd02b0fb	-0.031907063
111	0xbe67f9b1	-0.22653843
112	0xbd673324	-0.056445256
113	0x3d8d571e	0.06901382
114	0x3ce2486f	0.02762243
115	0xbd8fcb68	-0.070212185
116	0xbcbf3550	-0.023340851
117	0xbe0899a4	-0.13339859
118	0x3c009550	0.007848099
119	0xbd8a43bf	-0.06751203
120	0xbdb66d14	-0.08907524
121	0xbe163979	-0.14670362
122	0xbd9f92b5	-0.07791654
123	0x3d7a2187	0.06106713
124	0xbd8302ed	-0.063970424
125	0x3e0c01c5	0.1367255
126	0xbe319a48	-0.1734401
127	0x3d9398d8	0.07206887

bn3.weight f4 [128]
0	0x3f512c33	0.8170807
1	0x3f9f6cb3	1.2455047
2	0x3f8ed96c	1.1160102
3	0x3f959e77	1.1688985
4	0x3f9a9e70	1.2079601
5	0x3f4898fb	0.7835843
6	0x3f998aa4	1.1995435
7	0x3f6b2343	0.9185068
8	0x3faa80ab	1.3320516
9	0x3f3d8f19	0.74046475
10	0x3f89bc2e	1.0760553
11	0x3f6cc7cd	0.9249237
12	0x3fc2bf76	1.5214679
13	0x3fa9b2d6	1.3257701
14	0x3f8145b6	1.0099399
15	0x3f2d0842	0.67590725
16	0x3f5ed98d	0.87050706
17	0x3f83d238	1.0298529
18	0x3f7d247a	0.98883784
19	0x3f8d83e7	1.1055878
20	0x3f123c3a	0.5712315
21	0x3fa6363c	1.2985301
22	0x3f54d294	0.83133817
23	0x3f315ce1	0.69282347
24	0x3f9b03cb	1.2110533
25	0x3f9072e2	1.128506
26	0x3f932280	1.1494904
27	0x3f7f3d21	0.9970265
28	0x3fa2a80b	1.2707533
29	0x3f8ab4c6	1.0836418
30	0x3f9d9ecf	1.231409
31	0x3f50c8db	0.8155648
32	0x3f4ca765	0.79942924
33	0x3f4576b5	0.7713426
34	0x3fb4a4bc	1.4112773
35	0x3f56bbe6	0.8388046
36	0x3fa9f80a	1.327882
37	0x3f657ed4	0.8964665
38	0x3f9a316a	1.204633
39	0x3f88f095	1.069842
40	0x3f23b119	0.63942105
41	0x3fb803b1	1.4376127
42	0x3f11bf67	0.5693268
43	0x3f5282b1	0.8223067
44	0x3fb403dc	1.4063678
45	0x3f492770	0.785758
46	0x3f51f07f	0.8200759
47	0x3f6f74bc	0.935375
48	0x3f926e82	1.1439974
49	0x3f518d1c	0.8185594
50	0x3f7ffc30	0.9999418
51	0x3f9fd5ec	1.2487159
52	0x3f25b8bb	0.64735
53	0x3f75981a	0.95935214
54	0x3f9093d6	1.1295116
55	0x3f5066b3	0.81406707
56	0x3f994897	1.1975278
57	0x3f886a96	1.0657527
58	0x3fab1497	1.3365659
59	0x3f4cfa87	0.80069774
60	0x3fa29495	1.2701594
61	0x3f50a013	0.81494254
62	0x3f7bc8fe	0.98353565
63	0x3f47364a	0.77817214
64	0x3f8fb830	1.1228085
65	0x3fac2b49	1.345071
66	0x3fa39668	1.2780275
67	0x3faac014	1.3339868
68	0x3f81fa07	1.0154427
69	0x3f6f83c9	0.93560463
70	0x3f77fed2	0.968732
71	0x3f274f73	0.65355605
72	0x3f76093b	0.96107835
73	0x3fc1a34b	1.5127958
74	0x3f8622e9	1.0479404
75	0x3fb3c158	1.4043379
76	0x3fb338d3	1.4001716
77	0x3f9a1327	1.2037095
78	0x3f751f93	0.95751303
79	0x3f740409	0.9531866
80	0x3fa50d23	1.2894634
81	0x3f839666	1.0280273
82	0x3f42d93b	0.7611272
83	0x3f4d7a84	0.8026507
84	0x3f9e7012	1.2377951
85	0x3f427f99	0.7597595
86	0x3f7becf3	0.9840843
87	0x3f4f7728	0.81041193
88	0x3f4b209b	0.79346627
89	0x3f84b825	1.0368696
90	0x3f8faaf2	1.1224043
91	0x3f27f512	0.6560832
92	0x3f2cfb0e	0.6757058
93	0x3f9cc622	1.2247965
94	0x3fb4405a	1.4082139
95	0x3fbbc03f	1.4668044
96	0x3f9f9e5b	1.2470201
97	0x3f773136	0.96559465
98	0x3f43710a	0.7634436
99	0x3f54f440	0.83185196
100	0x3f971799	1.1804076
101	0x3f1fd510	0.6243448
102	0x3f279109	0.6545568
103	0x3f55d74d	0.8353165
104	0x3fa35d32	1.2762816
105	0x3f89226d	1.0713631
106	0x3fa32058	1.2744246
107	0x3fb22d07	1.3919991
108	0x3f6663e5	0.89996177
109	0x3f87049e	1.0548284
110	0x3f6e69f2	0.9313041
111	0x3f5a9965	0.8539031
112	0x3f7f4be0	0.9972515
113	0x3f31fc4f	0.6952562
114	0x3f3208e4	0.69544816
115	0x3f6e8f8e	0.931878
116	0x3f5b7465	0.8572448
117	0x3f3bd399	0.7336975
118	0x3f508c7e	0.81464374
119	0x3fa6b755	1.3024698
120	0x3faa2c67	1.32948
121	0x3f69f5aa	0.9139048
122	0x3f7a1135	0.97682506
123	0x3f9e563c	1.2370067
124	0x3fa2b1a2	1.2710459
125	0x3fa4feea	1.2890294
126	0x3f537dc3	0.8261377
127	0x3f8c25d4	1.0949044

bn3.bias f4 [128]
0	0x3d8daa98	0.06917304
1	0x3e4b087f	0.1982746
2	0x3d991226	0.07474165
3	0x3ba8907a	0.005144176
4	0xbd6126ab	-0.054968517
5	0xbb95f00b	-0.0045757345
6	0x3e0a35b5	0.1349705
7	0xbb890e95	-0.0041826465
8	0x3d486655	0.048925716
9	0x3d2a5ce0	0.04159248
10	0x3b725a99	0.003698027
11	0xbaf0c544	-0.0018369337
12	0x3e184fff	0.14874266
13	0x3c5e10de	0.013553826
14	0xbc92fd55	-0.017943064
15	0xbb894fbf	-0.0041904147
16	0xbdd9c5d5	-0.106334366
17	0xbcfd9f82	-0.030959848
18	0x3d42b0a3	0.047531735
19	0x3db586f1	0.08863629
20	0x3c42bd75	0.01188599
21	0x3e3571fb	0.17719261
22	0x3e072834	0.1319893
23	0x3d855a4c	0.065113634
24	0x3d04dacf	0.032435235
25	0x3d644f0a	0.05573944
26	0xbc524fa1	-0.012836368
27	0x3bb4b229	0.0055144024
28	0x3d67feca	0.05663947
29	0xbb196d83	-0.0023411221
30	0xbda041ae	-0.078250274
31	0x3c9656a1	0.018351855
32	0xbd9dc4e9	-0.07703573
33	0xbd59dc39	-0.053188536
34	0x3d655bb3	0.055995654
35	0xbdb43dd7	-0.088008575
36	0x38a7db10	8.003984e-05
37	0xbbc00488	-0.005859915
38	0xbd191d49	-0.037381444
39	0x3d392459	0.04520068
40	0x3d8459fe	0.06462477
41	0xbd76e396	-0.060275637
42	0xbd26b594	-0.04070051
43	0x3b6ba3bc	0.0035955748
44	0x3da0f100	0.07858467
45	0xbb654546	-0.0034983917
46	0xbd34c8c4	-0.044136778
47	0x3d525c17	0.051357355
48	0x3da23a37	0.0792126
49	0x3b4da184	0.0031376788
50	0xbc64bac7	-0.013960547
51	0x3d983483	0.07431891
52	0xbde7692d	-0.112993576
53	0x3dd469ac	0.10371718
54	0x3c9f635f	0.019456564
55	0x3d728e6c	0.059217855
56	0xbc2cef14	-0.010555048
57	0x3d058d2b	0.03260533
58	0xbd4e57c0	-0.050376654
59	0x3e28afd2	0.1647332
60	0xbca63a9a	-0.020291615
61	0x3b3b8dd9	0.0028618483
62	0x3d097f10	0.033568442
63	0x3cb3614c	0.02189698
64	0x3ca15d00	0.019697666
65	0x3d1b447d	0.037907112
66	0x3e022437	0.12709127
67	0xbbc8b846	-0.0061254827
68	0xbc816c4e	-0.015798714
69	0x3e1f7d8d	0.15575238
70	0x3da48e2d	0.080349304
71	0x3cdbfa5b	0.026852777
72	0xbd33b48e	-0.043873362
73	0xbd05e759	-0.032691333
74	0xbdac08cc	-0.08400115
75	0x3de93ca1	0.11388517
76	0x3d858bc0	0.06520796
77	0x3cbff329	0.023431377
78	0xbc9abd43	-0.018889075
79	0x3d301063	0.042984378
80	0x3c5ff69b	0.013669635
81	0xbd5d52f3	-0.054034185
82	0x3c8143f4	0.015779473
83	0x3d778c40	0.060436487
84	0x3d945bbe	0.07244061
85	0xbd16f449	-0.036854062
86	0xbd1fbf51	-0.039000813
87	0x3da78f99	0.08181686
88	0xbdac9c86	-0.08428292
89	0xbda5c80d	-0.08094797
90	0x3d82d166	0.06387596
91	0x3e149f3e	0.14513871
92	0x3a0bc358	0.00053315377
93	0xbc4cee6c	-0.012508016
94	0x3e3bc439	0.18336572
95	0xbce2cdd9	-0.027686046
96	0xbda422a6	-0.08014421
97	0xbca8f61a	-0.020625163
98	0x3d410fb2	0.04713411
99	0xbd999899	-0.07499809
100	0xbd28f418	-0.04124841
101	0x3d931e1c	0.07183477
102	0xbdac4419	-0.08411426
103	0xbcb00f25	-0.021491596
104	0xbcbb4843	-0.022861606
105	0xbd63af7b	-0.055587273
106	0xbd383657	-0.044973698
107	0xbe0f21f9	-0.13977803
108	0xbdb970bc	-0.090547055
109	0x3d0dbc65	0.034603495
110	0x3d9a6703	0.07539179
111	0xbd3a98fe	-0.04555606
112	0xbcf9f586	-0.030512583
113	0xbc059d34	-0.008155156
114	0x3dfa18d8	0.1221177
115	0x3d19e7a4	0.037574425
116	0xbcb6a5da	-0.022295881
117	0x3b8966c9	0.004193161
118	0xbd2632fd	-0.04057597
119	0x3ad02be6	0.0015882223
120	0xbdc36cb1	-0.095422156
121	0xbd433082	-0.047653683
122	0x3e2d9dea	0.1695477
123	0x3ccf67af	0.025317995
124	0x3e03348e	0.12813017
125	0x3d981a3a	0.07426877
126	0x3dead1df	0.11465811
127	0xbc832070	-0.016006678

bn3.running_mean f4 [128]
0	0x3b000ccb	0.0019538875
1	0x3e3d3551	0.1847737
2	0x3c185e04	0.009299759
3	0x328a8223	1.6124494e-08
4	0x3cef5e46	0.029219758
5	0x398b97e2	0.00026625308
6	0x324c7bda	1.1902523e-08
7	0x38e819b2	0.00011067408
8	0x3d03e80d	0.032203723
9	0x3d818cb3	0.06325664
10	0x3365a3e1	5.3467264e-08
11	0x3cc12e14	0.023581542
12	0x3be6ae0a	0.00703979
13	0x36f1e1d7	7.208651e-06
14	0x3e9b51e0	0.30335903
15	0x378d4242	1.6839364e-05
16	0x38965d96	7.169989e-05
17	0x3b9095b9	0.0044123796
18	0x3d46d8ae	0.048546486
19	0x3ecd777c	0.40130222
20	0x3d596ec8	0.053084165
21	0x3c150dea	0.009097556
22	0x3c380399	0.0112313265
23	0x00000004	6e-45
24	0x3b56ca99	0.0032774566
25	0x3f916967	1.1360291
26	0x00000004	6e-45
27	0x3c52d9bb	0.012869294
28	0x36bf2608	5.696671e-06
29	0x3555ee92	7.969585e-07
30	0x047768c6	2.908282e-36
31	0x3e9d9f65	0.3078567
32	0x309360ca	1.0723167e-09
33	0x3c975561	0.018473329
34	0x00000004	6e-45
35	0x3647ceff	2.9773798e-06
36	0x3cb0c757	0.021579428
37	0x2d977a85	1.7221122e-11
38	0x3e7ab53e	0.24483201
39	0x3ee47a52	0.44624573
40	0x3c163ce4	0.009169791
41	0x3dadaf36	0.084806845
42	0x3ddbeb36	0.10738222
43	0x3697a50d	4.519365e-06
44	0x3db44293	0.088017605
45	0x3e84f570	0.25968504
46	0x3d938d66	0.07204704
47	0x38367158	4.349774e-05
48	0x3eb74e51	0.35801938
49	0x3cf09cda	0.029371668
50	0x3bc33f5d	0.005958481
51	0x3cc8d39a	0.024514962
52	0x35c2c6bf	1.4511969e-06
53	0x3e17f32b	0.14838855
54	0x3e142d90	0.14470506
55	0x3e600428	0.21876585
56	0x3d0c6d95	0.034284193
57	0x3d8b36ec	0.06797585
58	0x3c2796a0	0.010228783
59	0x3d365995	0.044519026
60	0x3fa4a871	1.2863904
61	0x3f4658a1	0.77478987
62	0x3d653740	0.055960894
63	0x3a0d9417	0.000540079
64	0x3e311f09	0.17296995
65	0x3a42c45d	0.0007429773
66	0x3e2d4873	0.16922168
67	0x3ebac4a5	0.36478153
68	0x3ed033c5	0.40664497
69	0x3dc65c77	0.09685605
70	0x38b0e2e9	8.434599e-05
71	0x3caa8bbc	0.020818584
72	0x3d5b2095	0.05349787
73	0x3c40099b	0.01172104
74	0x3eab7f78	0.33495688
75	0x3e2803c2	0.16407683
76	0x3d01a97e	0.03165578
77	0x3df39726	0.11894064
78	0x3d349d44	0.044095293
79	0x3d8c7296	0.06857793
80	0x3d3131df	0.04326045
81	0x3a3243ce	0.0006800265
82	0x3f20440f	0.6260385
83	0x381c5d04	3.7279926e-05
84	0x3ea60155	0.3242289
85	0x3a31a282	0.000677623
86	0x314d4f95	2.9876663e-09
87	0x3c82c2b6	0.015961986
88	0x3e329342	0.17438987
89	0x3d9f229f	0.07770275
90	0x3cdb4311	0.026765378
91	0x3d99b8d6	0.07505958
92	0x3c77a728	0.015115537
93	0x3df17386	0.117896125
94	0x3e24795c	0.1606192
95	0x3ea6a0e4	0.32544625
96	0x3dc15095	0.09439198
97	0x3e704056	0.23462042
98	0x3daac6ba	0.08338685
99	0x3c3e0ea4	0.01160017
100	0x3d872c42	0.066002384
101	0x3aa22fe6	0.0012373894
102	0x00000004	6e-45
103	0x3ec8c35a	0.3921154
104	0x3d90747e	0.07053469
105	0x3effaef8	0.49938178
106	0x3ea8d345	0.32973686
107	0x3d9260fe	0.07147406
108	0x3f80ad4b	1.0052885
109	0x3c866f09	0.016410368
110	0x3d05bd9e	0.032651536
111	0x3b37eed6	0.0028065941
112	0x3caccb48	0.021093026
113	0x3f227d27	0.6347222
114	0x3d81b835	0.06333963
115	0x3d77b073	0.06047101
116	0x3aca92fb	0.001545518
117	0x3a175531	0.00057728874
118	0x3e12c53a	0.14333048
119	0x3e037ffb	0.1284179
120	0x3cb6f6fc	0.022334568
121	0x358d4006	1.0523952e-06
122	0x3d8a9047	0.067658
123	0x3e78a258	0.24280679
124	0x3c96da4a	0.018414635
125	0x3ec35dc2	0.3815747
126	0x33a2dd57	7.583974e-08
127	0x3ed877f0	0.42279005

bn3.running_var f4 [128]
0	0x3a7089bf	0.0009175799
1	0x3dc6d8b6	0.09709303
2	0x3b0486da	0.002022198
3	0x3091ff81	1.0622757e-09
4	0x3c0197f7	0.007909766
5	0x391af514	0.00014777883
6	0x30a95779	1.232123e-09
7	0x38477686	4.755568e-05
8	0x3c87bd3a	0.016569722
9	0x3cf56349	0.02995457
10	0x3137925a	2.6713196e-09
11	0x3b866bad	0.0041021914
12	0x3a8e371b	0.0010850163
13	0x36c363c4	5.823067e-06
14	0x3e029925	0.12753733
15	0x359bc07e	1.1604423e-06
16	0x386b5ef5	5.61168e-05
17	0x3b6a8190	0.0035782792
18	0x3c65cdf8	0.014026158
19	0x3e3ab4f6	0.18233094
20	0x3c9dcc1a	0.019262362
21	0x3b356905	0.0027681005
22	0x3ba9f509	0.005186681
23	0x00000004	6e-45
24	0x39fa88b6	0.00047785573
25	0x3e744fd8	0.23858583
26	0x00000004	6e-45
27	0x3b4a069e	0.0030826698
28	0x367b1a5f	3.7417265e-06
29	0x3324bd51	3.8356408e-08
30	0x03479c78	5.866046e-37
31	0x3e2331fd	0.15937038
32	0x2eb1d54e	8.0869186e-11
33	0x3b8266ae	0.0039795255
34	0x00000004	6e-45
35	0x34c651f2	3.6939997e-07
36	0x3bfdc125	0.007743972
37	0x2b9ecde9	1.1283727e-12
38	0x3deb6fea	0.11495955
39	0x3e44229f	0.19153832
40	0x3b58a090	0.0033054687
41	0x3cfae529	0.03062685
42	0x3d63f497	0.05565318
43	0x36663c26	3.4307682e-06
44	0x3ceb09d2	0.028691206
45	0x3e2a9428	0.1665808
46	0x3cb2292d	0.02174815
47	0x377c4f60	1.5038851e-05
48	0x3de38356	0.11109035
49	0x3c198585	0.009370212
50	0x3afea4a7	0.0019427732
51	0x3c26dcbe	0.010184465
52	0x35a68d1d	1.2409033e-06
53	0x3d6413df	0.055683013
54	0x3d497464	0.049183264
55	0x3dc443c8	0.09583241
56	0x3c971eb2	0.018447254
57	0x3c6d6c7a	0.014491195
58	0x3adfbbb1	0.0017069486
59	0x3c575021	0.013141663
60	0x3e68405e	0.22680804
61	0x3e95e264	0.29274285
62	0x3cb51b82	0.022107843
63	0x398f2220	0.0002730051
64	0x3d300dcf	0.04298192
65	0x39cbd26f	0.00038875962
66	0x3d7cb10c	0.061692283
67	0x3e54481b	0.20730631
68	0x3e83e778	0.25762534
69	0x3d578313	0.052615236
70	0x37bc8af9	2.247606e-05
71	0x3bb130b8	0.005407419
72	0x3c6be308	0.01439739
73	0x3b2e1d32	0.0026567695
74	0x3e183590	0.14864182
75	0x3d3bb466	0.04582634
76	0x3be39c2a	0.0069461064
77	0x3d0c5331	0.034259025
78	0x3cabab30	0.020955652
79	0x3cb646ba	0.022250522
80	0x3cb23453	0.021753466
81	0x396d6f64	0.00022643578
82	0x3e9c3d59	0.30515555
83	0x36f1f060	7.210343e-06
84	0x3e16f7ae	0.1474292
85	0x39eb2c21	0.00044855571
86	0x3023f306	5.964441e-10
87	0x3bf15b17	0.007365595
88	0x3dd5e764	0.10444525
89	0x3cb1997c	0.021679632
90	0x3bf6ed97	0.007535647
91	0x3d70e05b	0.058807712
92	0x3b3ec848	0.0029111076
93	0x3d3832f8	0.044970483
94	0x3d7c2787	0.061561134
95	0x3e37833f	0.1792116
96	0x3d218bf5	0.039440114
97	0x3e215d4e	0.15758249
98	0x3cce6ab3	0.025197363
99	0x3bfe6fb1	0.0077647795
100	0x3ced0171	0.028931351
101	0x3a3f5b97	0.000729972
102	0x00000004	6e-45
103	0x3e4ab68b	0.19796197
104	0x3cef5c9c	0.029218964
105	0x3eaed74f	0.34148642
106	0x3de43edf	0.11144804
107	0x3d3ac43d	0.045597304
108	0x3f2c625f	0.673376
109	0x3c351a21	0.011053593
110	0x3c1c2c89	0.009532102
111	0x3b47f475	0.0030510698
112	0x3bc54ba3	0.0060209795
113	0x3e7be6fe	0.24599835
114	0x3cc57f04	0.024108417
115	0x3c9b452c	0.018953882
116	0x3940dfce	0.0001839392
117	0x3985c4b7	0.000255143
118	0x3d26ebb4	0.040752128
119	0x3d3d1698	0.046164125
120	0x3b8e0c66	0.004334974
121	0x348c8889	2.6176374e-07
122	0x3ccaf8ee	0.024776902
123	0x3d9cad14	0.076501995
124	0x3bebefaa	0.007200201
125	0x3e80fe01	0.2519379
126	0x323931b0	1.0779715e-08
127	0x3e061555	0.13094075
