mode_weights/agent16_actor_target.pth (torch_old, 93021 bytes, 18 tensors)

bn1.weight f4 [33]
00000000: a0a0 023f 4fe1 0d3f 5e35 a53e 8f8a 29bc
00000010: 3c85 833c fb31 1c3d 04c3 193d 5702 833e
00000020: 1c8c dc3d ccf7 1b3e 74df 263e 32ba 103e
00000030: 444e d03d f207 0e3f be5e f83e a0f2 303f
00000040: 3be6 573d 1dec 993d 0622 4b3c 7a3f d83c
00000050: bdac 793e 1d0d a03e f595 fc3d ecc4 283f
00000060: a4ec 983e b8b8 ea3e 5478 833f 9021 143d
00000070: 3750 013f 9030 bf3e 1236 9c3e 9497 6e3f
00000080: abb6 a33e
0.51026344 0.5542192 0.32267278 -0.010347976 0.016054742 0.038133603 0.037539497 0.25587723
0.10768911 0.15231246 0.16296178 0.14133528 0.10171178 0.55480874 0.48509783 0.69120216
0.0527098 0.07515738 0.012398249 0.026397455 0.243823 0.31260005 0.123332895 0.6592548
0.29868042 0.45844054 1.0271096 0.03616482 0.50513023 0.37341738 0.30510002 0.9320004
0.31975302

bn1.bias f4 [33]
00000000: 18ee f33a 5062 7bbd 7b1a e1bd efb1 8dbd
00000010: 059d 62be 8761 403d 3212 0d3e ffbc 3dbe
00000020: 08d3 5fbc 1fec ab3d 1d3e 97bd a820 2bbe
00000030: 853e d53c 3307 d43b 6451 85bd b08a 973b
00000040: a2f9 05bc 89ea 6a3b 6ffc 723d 8d38 a83d
00000050: 49cb 03bb e96e ce3d cf93 54bd 810a 35bd
00000060: ff6c 9bbd d6b0 833c 2b16 dcbb e420 1b3e
00000070: f4e8 32bb 9046 1f3e ffd1 5cbe 7956 54be
00000080: 4146 a03d
0.0018610386 -0.061373055 -0.10991379 -0.06918704 -0.2213021 0.04696801 0.13776472 -0.18529128
-0.013661154 0.08394646 -0.07384894 -0.16711676 0.026030788 0.006470585 -0.06509665 0.004624687
-0.008177193 0.003584536 0.05932277 0.08213911 -0.002011018 0.10079748 -0.051898774 -0.04419947
-0.07589149 0.016075533 -0.00671651 0.15149266 -0.0027299495 0.15554261 -0.21564482 -0.20736112
0.078259

bn1.running_mean f4 [33]
00000000: ffff 2c3f 8e04 1ec0 49c2 b9be 9480 583f
00000010: d26e a63d 96ae f53b e5d5 59bd db95 d53b
00000020: ba3c 233a 25c8 0a3c 1514 e63c 6710 db3b
00000030: 5fdb 75bc 74ab f23e dd61 24c0 8c59 78bd
00000040: 04b7 6c3c d97c 16bc 68f4 34bc b86b 77bd
00000050: d99e 183e 7be1 323c 5a1b 6e3d c0b3 ee3c
00000060: b423 3e3e 3bfb fe3c 60aa 063d fcff 7fbf
00000070: fa4d 0a3e 0000 0000 fcff 7f3f 0000 0000
00000080: 3b34 4f3b
0.6757812 -2.469028 -0.3628104 0.84571195 0.08126606 0.007497619 -0.0531825 0.0065181083
0.00062270055 0.00847057 0.028085748 0.006685305 -0.015005915 0.47396433 -2.568473 -0.060632274
0.014447931 -0.009185039 -0.011044599 -0.060405463 0.14904346 0.010918017 0.058131553 0.029138446
0.18568307 0.031125655 0.032877326 -0.99999976 0.13506308 0.0 0.99999976 0.0
0.0031616825

bn1.running_var f4 [33]
00000000: 20ac 8640 b8f5 0d3f d1b4 9340 15c6 813d
00000010: 8238 923d 0edf fd3c 4d56 e03d b045 c93e
00000020: 38fa 853d bdbb e13d 0518 0a40 1616 a43f
00000030: 3862 2840 80dd 9e41 628f cb3f da42 ab41
00000040: 9242 dc3d 7c47 8a3e f863 cb3d d91e 053f
00000050: f06a 2540 87b1 513f 760f 813f 4152 f740
00000060: bd39 6f40 806f 0541 2fc3 0042 0400 0000
00000070: e54d fe41 0400 0000 0400 0000 0400 0000
00000080: 649b ad3e
4.2085114 0.5545306 4.6158223 0.06336609 0.07139684 0.03099015 0.109539606 0.3931098
0.06541866 0.11022136 2.157716 1.281924 2.6309948 19.858154 1.5903132 21.407642
0.10754885 0.27007663 0.09931177 0.52000195 2.584652 0.8191151 1.0082843 7.7287908
3.737899 8.339722 32.19061 6e-45 31.788034 6e-45 6e-45 6e-45
0.33907616

fc1.weight f4 [128, 33]
00000000: c863 4fbd 5dff e8bc 0438 b23c ba5c 47be
00000010: 64f0 9cbd daf9 4c3d 0bff ca3b 4576 f8bd
00000020: 2dee 373d c02d fabc f6b2 17bd ac2c 223e
00000030: f273 b33d 3a6d 0bbd e10e 31bc 7381 75bd
00000040: c9c3 60bd ccef 82bd 179d 893d 1640 b43c
00000050: ea04 4fbd e89a be3d 607d 5fbd f675 1abd
00000060: e487 843c d02c 153d b4a1 fe3d 6598 8f3d
00000070: 50c1 b53c dcb8 2c3c 87ee 04be d103 3cbd
00000080: 6271 3e3d 1d98 f93c d114 183c 66be 053e
00000090: 7a84 a7b8 63b9 573d f4eb 383d 0477 2f3d
000000a0: 5e17 a9bc d90d 4b3d 1c98 00bd 9950 dbbc
000000b0: a961 aa3d df86 443d fbd7 053d dae0 a53d
000000c0: ef4c 443d 8662 103d ceea 7c3c 77e1 d73c
000000d0: ab1f 843d e82b 003d ffa4 adbc 6a26 69bb
000000e0: 1d48 2a3c 1a4a 2f3d 1c23 44bd db7a 3fbe
000000f0: 7519 24bd f3c9 183e 4706 4ebd 79b9 0e3e
00000100: 3344 e13c 3afc a5bb 5833 d8bc 2bfa 8cbd
00000110: 832d cb3b fa1f 2dbd f7c1 0a3d 0b01 1c3b
00000120: 5de1 a83d 93a6 88bb 4926 4cbd 53d5 a8bd
00000130: 2b24 13be 2fb3 29bd bc78 0a3d 0dba ef3c
00000140: aa7c 973c cba8 80bd 5aba 87bd 6618 99bd
00000150: 83c9 ec3b 699f e2bc 5d01 3cbd 31f1 19bc
00000160: 9a2a 233d f70b d2bd 3d27 783c 52ed 533d
00000170: 6c39 8fbc 46fc 253e 083b a5bd cbc7 833d
00000180: 7a81 80bd 99ae bfbb c928 17be e717 013e
00000190: cda5 373d 5cad dbbc 4e55 02be 28f1 113d
000001a0: 5358 c4bc 3f5e a43c 97d8 06bd 2b13 9abd
000001b0: 7fbf 673d ca72 383d 25e1 1f3d 8674 10bd
000001c0: a6b0 3ebe 0660 3d3d f195 d13d dba9 28bd
000001d0: 44a5 a3bc e0fd 95bc 859d bf3c 7d96 9b3b
000001e0: f60c 23bd ef23 35bc 98ff 0abd 3f54 fc3c
000001f0: a6da 82bd 0e05 8d3c 325a a03d ca96 87be
00000200: 4d6b 7c3d d482 f0bb 0af4 a83c d08b 703d
00000210: 5903 273b 2448 303c b885 0b3e 6d03 a83c
00000220: 4ffa 6abc 0af8 3f3c 3f11 153d c7d2 76bc
00000230: e5cb b5bc c9ef 353c 3d4a 84bd 50ce c6bb
00000240: 595c 023e 641b ad3d b0ee fbba ae36 a63d
00000250: 8e1f e93c 30b0 1abd b4a1 7cbd cc77 803d
00000260: 36a1 8b3c 7c82 863b 5f4a b4bc 2638 293d
00000270: 5a90 fdbb afbb ae3d 8d43 5b3d d75a 0d3d
00000280: 8f99 75be 7835 013b 3c31 3a3d 1b50 2f3d
00000290: c790 483e 3092 4d3d 20db 8bbc fbe1 2a3e
000002a0: f76e 43bd 959a b3bc 108e 28bb 8722 cf3b
000002b0: b60f a53c 5a2e 6d3d 55d7 dc3b 6730 a63d
000002c0: 49b7 efbc 7923 933c 5f8c d0bd 64be 4dbd
000002d0: e055 3fbe 2314 903c 2dd8 b0bc a037 773d
000002e0: 961b 633d 4e4b 473c c61a 2a3a 6875 16bd
000002f0: d8d6 7dbc b163 00bb cd93 00bd 9744 ba3d
00000300: 1dfd e1bd 3c8a 80bd eaac 5dbc 3feb b7bc
00000310: 2ba4 9dbd 0607 3e3d 50b1 d03c 62bb 4e3d
00000320: c594 573d 4035 5c3d a122 07be 282e 1fbd
00000330: d076 7b3d 7b47 16bc 6878 f93c 68d0 12bd
00000340: 554e 3c3d 13c7 083d d6b4 fdbc 6af8 c4bd
00000350: daf2 42bd 7377 c53d b67d 283d 3570 e63c
00000360: 744d a4bd d081 84bc 2bbc 8bbc 77fc 2cbc
00000370: 626c a23d d62b 47bc f71b 93bc 79ea 523d
00000380: e5b2 00bd fdb1 3d3e e45e 1cbe 3a2a 283e
00000390: 0e58 b0bc 9bc7 f4bd 50b5 493e d0bd c23d
000003a0: 60a0 93bc 7c37 64bd 4318 d73b 1689 c23d
000003b0: 0c7a 9fbd 14a3 5c3c 9e34 063c 546e 733d
000003c0: 41a6 31bd 10b9 8e3d cd8c 493d bc46 7dbc
000003d0: 7fac 823d 983a bdbd d738 903d ff55 f43c
000003e0: 0a8f c73c a9f6 e2bd 1a58 3cbc a102 f6bc
000003f0: 704e 04bc 8a84 183d 6234 e5bc a7b7 c2bd
-0.05063227 -0.02844208 0.021755226 -0.19468966 -0.076630384 0.050042965 0.0061949543 -0.12131933
0.044904877 -0.030539393 -0.037035905 0.15837353 0.08762349 -0.034039713 -0.01080677 -0.059937906
-0.054874215 -0.06393394 0.06719416 0.022003215 -0.050541796 0.0930689 -0.054562926 -0.037710153
0.016178079 0.03641969 0.12433186 0.07011489 0.022186905 0.010542121 -0.12981616 -0.045902077
0.04649485 0.030468041 0.009282307 0.13060912 -7.987856e-05 0.052667033 0.045146897 0.04283811
-0.020641025 0.049573753 -0.031395063 -0.02677183 0.083194084 0.047980186 0.03267668 0.08099528
0.047924932 0.03525021 0.015436841 0.026352627 0.06451353 0.031291872 -0.02119684 -0.0035575875
0.01039317 0.042795278 -0.047885045 -0.1869921 -0.04006334 0.14920788 -0.050298955 0.1393794
0.02749834 -0.005065468 -0.02639167 -0.06883653 0.006200494 -0.042266823 0.033876386 0.0023804333
0.0824611 -0.004170248 -0.0498412 -0.08243813 -0.14369266 -0.04143065 0.033806548 0.02926352
0.018492062 -0.06282195 -0.066273406 -0.07475357 0.0072261705 -0.027663903 -0.045899738 -0.009395883
0.03983555 -0.10256188 0.015146074 0.05174 -0.017483436 0.16209516 -0.080679 0.06434592
-0.06274696 -0.005849671 -0.14761652 0.12606774 0.044835854 -0.026816063 -0.12727854 0.035630375
-0.023967898 0.020064471 -0.0329214 -0.07523187 0.05657911 0.045031346 0.039033074 -0.035267375
-0.18622074 0.046234153 0.10233677 -0.04117761 -0.019976266 -0.018309534 0.02339054 0.004748164
-0.039807282 -0.0110559305 -0.03393516 0.03080189 -0.0638936 0.017214324 0.078297034 -0.2648223
0.061625767 -0.0073398147 0.02062418 0.058727086 0.0025484173 0.010759387 0.13625228 0.020509446
-0.014341905 0.011716852 0.0363934 -0.015064902 -0.022191951 0.0111045325 -0.06459472 -0.006067075
0.1273054 0.0845249 -0.0019220915 0.08115898 0.02845743 -0.03776568 -0.06167765 0.062728494
0.017044645 0.0041049104 -0.02200812 0.041313313 -0.0077381553 0.085318916 0.05353122 0.03451046
-0.23984359 0.0019715708 0.04545711 0.042801004 0.19586478 0.050188243 -0.01707226 0.16687767
-0.047713246 -0.021924296 -0.0025719441 0.0063212547 0.020149093 0.057905532 0.0067395368 0.08114701
-0.029262202 0.01796125 -0.10183024 -0.0502304 -0.18685102 0.017587727 -0.021587456 0.060355783
0.05544623 0.01216395 0.0006488975 -0.03673306 -0.015493117 -0.001959067 -0.031390954 0.09095114
-0.11034606 -0.06276366 -0.013529995 -0.022451041 -0.07697328 0.046393417 0.025475174 0.05047167
0.052632112 0.05376172 -0.13196804 -0.038862377 0.061392605 -0.009172316 0.030452922 -0.035843283
0.04597314 0.033392977 -0.030970018 -0.09617694 -0.047594883 0.09641924 0.041135512 0.028129676
-0.080225855 -0.01617518 -0.017057499 -0.010558239 0.07930829 -0.012156447 -0.01795767 0.05149314
-0.031420607 0.18524928 -0.15270573 0.16422358 -0.021526363 -0.11952134 0.19698071 0.0950886
-0.018020809 -0.055716977 0.0065641715 0.09498803 -0.077869505 0.013466615 0.008191256 0.05943139
-0.043371443 0.069688916 0.049206544 -0.015458759 0.06380557 -0.092396915 0.07042091 0.029826162
0.024360199 -0.11082203 -0.011495614 -0.03003055 -0.008075342 0.037235774 -0.02797908 -0.09507685

fc1.bias f4 [128]
00000000: d5c0 4d3d 18fa dfba 412d 1c3e 8226 9cbd
00000010: c6a3 00be c30f 8f3d f9f9 273e 1093 febd
00000020: b3f6 303e 5d24 01be a00e a13d cc9b a9bd
00000030: 30c8 babd ec6b b9bd 304b 72bc e47f 32be
00000040: d368 453e d54f d8bd c78a debd 07a9 4dbe
00000050: d350 67be 5616 9d3d 771f a33c 5191 bfbd
00000060: 237c 8cbd 1610 bb3c c33e 97bd 414e 143e
00000070: a2d2 02be e757 633e fb08 183e 1798 24be
00000080: 8a99 03bd a296 b63c 114e 18be 28d6 adbd
00000090: 53de 553d aa55 e23d 1331 2bba 4272 1fbe
000000a0: 8b17 f83d f388 053d 359b 6fbd 922d 2ebb
000000b0: 149e f2bd 7fd5 77bd 8872 12bd 7864 d03d
000000c0: 3f70 24be 35c4 183e da8b 93bd 5fad 233e
000000d0: 77e7 d0bd e950 7a3d 1918 9c3e 9232 ccbd
000000e0: 8162 00bd f16b fc3d 321b e33d 55a4 02be
000000f0: 7349 3a3e 5ca0 f1bd 32fa 3c3e 4e35 82bd
00000100: 9b83 41bc ae81 84bd c029 8c3d 3c5b 5d3d
00000110: d05f 073e 8c94 523e ba3e 03be 851a b23d
00000120: a96f 35bd 7175 1bbd 929c 2f3e de75 babd
00000130: 074b 5a3c 0f71 423e 924a 1d3b b3cf d3bd
00000140: 2679 7e3e 6e70 a0bd 0631 45be 8bcd 993c
00000150: e346 7e3e b96e b73d aa3c 55be 9a2b d3bd
00000160: d294 2bbc f30e 543e 68fc 53be 3169 0d3d
00000170: 2bb8 06bd 7dfe ba3d 1504 15bc f5d3 e43d
00000180: a6b2 adbc 3955 293e cf36 40bc d0cb c5bd
00000190: b934 83bc 69eb 86bd 7532 88bd 225f 9b3c
000001a0: 6b24 0dbe 5ae4 0a3e 542c b83c bce7 823e
000001b0: 6f3f 003d 714f 3abc b6db 693d babc 00be
000001c0: 72e5 b9bc 9223 cfbd 8eee 3d3d 425e a93d
000001d0: 6605 07be 943b 31be 714d a5bd fe8d 713c
000001e0: 3934 ae3d e8ac 603e 3c58 8dbb 599f 213d
000001f0: f8fe 403e 7fb7 373e 5e86 97bd c6e4 813b
0.050232727 -0.0017088084 0.15251638 -0.07624532 -0.12562475 0.06985428 0.16403951 -0.12430394
0.17281608 -0.12611528 0.078641176 -0.08281669 -0.09120214 -0.090537876 -0.014788434 -0.17431599
0.19278269 -0.10562102 -0.108663134 -0.2008401 -0.22589426 0.07670276 0.019912465 -0.09353889
-0.06859615 0.022834819 -0.07385018 0.14482976 -0.12775663 0.22201501 0.14847176 -0.16073643
-0.032128848 0.022288624 -0.1487353 -0.08488113 0.052213978 0.110514954 -0.0006530445 -0.1557093
0.121138655 0.032601308 -0.058497626 -0.0026577455 -0.11846557 -0.06050634 -0.035753757 0.10175413
-0.16058443 0.14918597 -0.07204409 0.15984105 -0.102003984 0.06111232 0.30487135 -0.09970583
-0.03134394 0.12325276 0.110891715 -0.12758 0.18192081 -0.11798164 0.18454817 -0.06357823
-0.011811162 -0.06470047 0.06843901 0.054042086 0.13220143 0.20564479 -0.12816897 0.086964644
-0.04429594 -0.037953798 0.1714957 -0.09104513 0.013323552 0.18988441 0.0024000746 -0.1034235
0.24850902 -0.07833944 -0.19256982 0.018774768 0.24831729 0.089566655 -0.20823923 -0.10311051
-0.010472493 0.20708828 -0.20701754 0.034524146 -0.03289048 0.09130571 -0.0090952115 0.1117324
-0.02120335 0.16536416 -0.011731817 -0.09658015 -0.016016351 -0.0658787 -0.06650249 0.018966261
-0.13783424 0.13563672 0.022482075 0.25567424 0.031310495 -0.011371479 0.0570943 -0.12571993
-0.022692416 -0.101142064 0.04637008 0.082699314 -0.13185653 -0.17307884 -0.080714114 0.014743326
0.085060544 0.21940958 -0.004313497 0.039458606 0.18847263 0.17941092 -0.073986754 0.0039640395

bn2.weight f4 [128]
00000000: 82b7 0f3e 29c0 a83e 7e2d 9d3e 4f15 fd3e
00000010: 07f8 693e 4a98 043f d788 063f a056 8a3e
00000020: e61c 023f e027 4d3f 9930 d13e 57f2 533e
00000030: 17f2 b33e c349 963e e55a 873e 1d4c 843e
00000040: 15dd b83e 9785 553f bd0d f23e cc23 583f
00000050: fa37 3e3f 66fb ac3e 4fb5 033f a479 143f
00000060: 83ce b83e f268 2d3f 1bd7 9b3e 4aaf 7b3e
00000070: 41a3 a43e dbfd 683e df48 143f 428d 253f
00000080: 364e 1b3f 6a50 913e d86a de3e 89b3 a23e
00000090: 62f5 933e 30ef dc3e 94f9 693e 7e2e 433f
000000a0: a26c 2e3e 48be bd3e a375 323f 966c 5d3e
000000b0: 169d 0b3f bb35 343f 2e85 4e3f 0592 223f
000000c0: e81b c33e 24ec 283f 745a d63e 338e 9d3e
000000d0: 9f31 e83e e517 153f e825 323f 202f 123f
000000e0: 97e7 1b3f 9a86 073f e6b4 003f 490b 1b3f
000000f0: dc6d 0f3f 8ae5 693e 09ab f23e a25f b93e
00000100: 7b38 e93e 55e4 2c3f 3217 283f 8f70 1a3f
00000110: a659 973e f2ca 213f 044e 2a3f a78a 003f
00000120: c4cb 1f3f 41b9 783e d0ba 3b3f 8aa8 323f
00000130: 5e29 283f 4a5a 293f 38c7 c73e 23f9 073f
00000140: c456 523f 7a0b 2b3f 6123 773e f5c3 5b3f
00000150: abc6 503f 5d67 073f 57ae 383e 3030 0b3f
00000160: a8c2 cd3e d62e 293f 0732 d93d 7e86 143f
00000170: 0995 f43e 7b34 ef3e a46b 3d3f 6de8 0b3f
00000180: 1f0a d53e 1f9d 893e 5c68 b93e e7a2 153f
00000190: 1059 1b3f 92a4 ed3e 5dae de3e 6523 233f
000001a0: 303e 763e d85b 473f 991c f33e 9c34 353f
000001b0: e66b 553f cc3b 0f3f 9227 0b3f aa16 543e
000001c0: 8855 353f a6cd 413f 03eb bb3e 7f04 2b3f
000001d0: 62c9 ff3e eefa 483f 0977 3a3f 4e8b 513f
000001e0: 4f9d fd3d facc 583f e71c 223f da6c 303f
000001f0: c2ff f43e 60d7 4c3f 22ae 673f 2910 083f
0.14034846 0.32959107 0.3069877 0.4943032 0.22848521 0.51794875 0.5255255 0.27019215
0.50825346 0.8013897 0.4085739 0.20697914 0.35145637 0.2935315 0.26436535 0.2583932
0.36106172 0.83406967 0.47276106 0.8442962 0.74304163 0.33785552 0.5144853 0.5799811
0.36095056 0.6773826 0.3043755 0.24578586 0.32155803 0.22753088 0.5792369 0.6466867
0.60666215 0.28381664 0.4344089 0.317776 0.2889815 0.43151236 0.22849113 0.76242816
0.17033628 0.37059236 0.6971075 0.21623453 0.5453657 0.70394486 0.80671966 0.6350406
0.38107228 0.6598532 0.41865885 0.30772552 0.45350358 0.58239585 0.6958909 0.5710316
0.60900253 0.5293976 0.5027603 0.60564095 0.5602701 0.22841468 0.47396114 0.36205775
0.45550904 0.6753591 0.65660393 0.60328 0.29560584 0.63200295 0.6652529 0.50211567
0.62420297 0.24289419 0.7333193 0.6978842 0.6568812 0.66153395 0.3901918 0.5311453
0.82163644 0.66814387 0.2413459 0.8584588 0.81553143 0.52892095 0.18035255 0.54370403
0.40187573 0.6608709 0.10605245 0.5801772 0.47769955 0.46719727 0.7399237 0.5465153
0.41609284 0.26877686 0.36212432 0.58451694 0.60682774 0.4641462 0.43492404 0.6372588
0.2404716 0.7787452 0.47482756 0.707834 0.83367765 0.5595062 0.54357255 0.2071177
0.70833635 0.7570442 0.36702737 0.66803735 0.4995833 0.7850789 0.72837883 0.8185319
0.1238352 0.8468777 0.6332535 0.68916094 0.47851378 0.80016136 0.9050008 0.5314966

bn2.bias f4 [128]
00000000: 5939 e6be 32d4 d53c bf08 a23d e323 9f3e
00000010: 052d a73e d770 3b3d 5072 013c 9d21 d5be
00000020: d14d 943d 4fe0 ad3d 27eb 5f3e 0dd8 31be
00000030: 9e64 7d3e 363e 943d 0b95 9a3e cc2a ad3e
00000040: ac23 93be b5e8 a63d 9d88 303e d306 253d
00000050: 617d e23e 9748 be3d 1152 823d b052 273e
00000060: 3094 0cbe aa6e c1bc f9e8 bd3d 338b bd3e
00000070: 6a44 e53d c211 893e 3bee 713e b9dd e7bb
00000080: e9d6 debd a970 6fbe b488 f23d 9c92 4abe
00000090: e13a d23e 0f9e 773e 8213 4b3e 9af6 4f3e
000000a0: b045 083f f549 e83d 5491 31bd fa0f cd3e
000000b0: 52b9 103d f215 c93e e829 5dbe 60a2 57be
000000c0: 8e4e 2d3e 01c9 13bd bee8 3b3e 9583 97be
000000d0: 423f 67bd 3753 ccbd c061 123e 0157 023e
000000e0: c9fc 4dbc 7756 203e 6acb 8d3e 883a 87bb
000000f0: a8ac 1a3d 6be1 19be 2e25 28be 6f57 753d
00000100: de05 343e 8deb c03d 5aa7 603e 03ba 053e
00000110: 59a1 cd3e 22c1 b13d c396 2f3e 25be aa3d
00000120: bd83 40be 34cf 513e 593c a63d 2d19 c23d
00000130: 2a2b d2bd 87f9 713e 32c1 ed3c c0d8 22be
00000140: b028 dd3d 5718 afbe 6dd7 c1bd 0022 3a3c
00000150: 59e4 ac3c 4bd2 b7bd 4750 e23e 24f5 103e
00000160: 7df2 b13c ee33 ca3d 8311 4e3e 5fb9 06be
00000170: 015a 203e 1361 963e 3f6c 9f3e 849b 483e
00000180: 8f48 0b3e 9cfb 583b 7bb9 6fbd 199c 54bd
00000190: e024 94bd 1db1 6e3e 2be6 523e b3da 34be
000001a0: a8a1 303e e7cc 233e 609b af3e 4cd9 76bd
000001b0: 224a e93d 9158 34be 1e91 72be c2b1 ebbd
000001c0: c283 293d bad8 253e 4acc 81bd 3ba8 95bb
000001d0: ea25 983c ea1b ea3b d090 283e 5637 46bd
000001e0: da52 0c3f e94b 033b 243a 0a3e 2f54 bd3e
000001f0: 4bcf 3b3e 2da2 463d 7dbd babb e6e4 0fbe
-0.44965628 0.02610216 0.079118244 0.31082067 0.32651535 0.04576191 0.007900789 -0.41627207
0.07241405 0.08490049 0.21867047 -0.17367573 0.24745414 0.07238428 0.30191836 0.33821714
-0.28738153 0.08149854 0.17239614 0.04028971 0.44236282 0.09291189 0.06363309 0.16340137
-0.13728404 -0.023612339 0.09272952 0.37020263 0.111946896 0.2677136 0.23626034 -0.007075992
-0.108808346 -0.2338282 0.1184248 -0.1978249 0.41060546 0.24181388 0.1983166 0.20308915
0.53231335 0.11342231 -0.043351486 0.40051252 0.035332985 0.39274555 -0.21598017 -0.21058035
0.16924497 -0.036080364 0.18350503 -0.29592577 -0.05645681 -0.099768095 0.14295101 0.12728502
-0.012572476 0.15657984 0.27694255 -0.0041268505 0.037762314 -0.15027396 -0.16420433 0.059897836
0.17580363 0.09419928 0.2193884 0.13059239 0.4016216 0.08679415 0.17147355 0.083370484
-0.18800254 0.20489198 0.08116979 0.09477458 -0.10262139 0.23630343 0.029022787 -0.15902996
0.10798776 -0.34198257 -0.09464917 0.011360645 0.021104978 -0.08975657 0.44201872 0.14156014
0.021722073 0.09873186 0.20123868 -0.13156651 0.15659334 0.29370937 0.31137273 0.19590575
0.13601898 0.0033108955 -0.058526497 -0.05190668 -0.07233596 0.23309751 0.20595615 -0.17661552
0.17249167 0.15996133 0.3429823 -0.060265824 0.11391093 -0.1761191 -0.2368817 -0.11508514
0.04138542 0.16195956 -0.06337793 -0.004567174 0.018572766 0.007144441 0.16461492 -0.048392616
0.5481392 0.002003426 0.13498741 0.3697829 0.18340795 0.048494507 -0.0056988583 -0.14052162

bn2.running_mean f4 [128]
00000000: f6ff 213e e5a5 573d 781d 623e a0a9 b33c
00000010: 20c1 003c 9214 c23d f1c5 893e a54a 533c
00000020: 7b72 8a3e c6c0 da3c b30d 213e 0875 863c
00000030: 285f a038 9e6e 9e3b ba43 3c3b d9e2 ca33
00000040: 4151 4f3e 2908 063d 2e93 d73c 3a87 8b34
00000050: 74e8 1337 a8ef cb3c e815 d93d e7e5 da3c
00000060: a931 0a3c 63d5 323e 62b1 713b bd91 1f3e
00000070: efcb c339 aed9 863e 7eea 7a3e 7772 8136
00000080: acd0 033b c7d9 b33c 5348 6534 c3af 143c
00000090: c723 733d ea02 4b3e 3c5b a83c 3425 8037
000000a0: a810 033e c6ca 403c 1359 1538 dad0 b63c
000000b0: 9786 7039 6549 893c bf1b 833d 66d2 3f3e
000000c0: 0400 0000 a442 a23e 935f 743c db1f 383e
000000d0: 5910 0c3c a3f2 df3d aed6 df3e a461 e83c
000000e0: fdb2 f13c e654 063e 78d5 cf3d 93d7 6937
000000f0: 92d0 8a3e 9a7b de3b b470 893e 2739 f53b
00000100: 6115 693b 4544 a03a 2dca 383e 1366 293d
00000110: f3e5 c33d 38a2 933e 9c44 4b3c 8bbc 883e
00000120: 3e37 d53d b7d3 953b 7b62 843e ae94 1a3d
00000130: fa1f af3c 99b1 573e beac ef3a 1db8 553d
00000140: 2080 ab3e f573 003d 3054 c33a 8afc c83c
00000150: ffa4 c13e c69b 7a3d c362 d432 0eda c13c
00000160: 5b03 123e 1246 a43e 9351 5634 2ac5 c43d
00000170: 26ce bc3c 5bb6 1e3e 358e 8a3d 0a6d a33e
00000180: cd16 063d c0f2 2c3e 1a7c b13c cd63 0d3a
00000190: 02f3 193d c8c8 763d d913 cd3c cb2f c53d
000001a0: 4dad 7538 4145 fb3d b555 a63d 52ba b93e
000001b0: e354 d43d 8768 1d3d 76f7 553d a334 cd3a
000001c0: 355b 8a3d 171d 1c3d 3eb1 063d 443a 7a3d
000001d0: 28b6 9839 4cef 8337 0a31 fa3c 1831 e13d
000001e0: 13fa a43d d35e 8e3e 9b8a fc3c e5b8 873d
000001f0: 7c3d a33e 09bf 863e 600a ee3c baa6 243c
0.15820298 0.052648444 0.22081554 0.02193147 0.007858545 0.0947658 0.2690883 0.012896215
0.27040467 0.02670325 0.15727882 0.016413227 7.647119e-05 0.004834964 0.0028726892 9.447621e-08
0.2024584 0.032722626 0.026315298 2.5989158e-07 8.816005e-06 0.02489455 0.105998814 0.026720954
0.0084346915 0.17464213 0.003687941 0.15582938 0.0003734524 0.2633795 0.24503514 3.857825e-06
0.0020113392 0.02195443 2.1353598e-07 0.009075108 0.05936029 0.1982533 0.020551316 1.5276113e-05
0.12799323 0.011767095 3.5607325e-05 0.022316385 0.00022938322 0.01675863 0.064017765 0.18732604
6e-45 0.31691468 0.014915365 0.17980902 0.008548819 0.10934951 0.43718475 0.028366871
0.029504294 0.13118324 0.10148138 1.39380745e-05 0.27112252 0.006789637 0.26843798 0.0074836197
0.0035565721 0.0012227377 0.18045874 0.04135711 0.09565344 0.288347 0.0124064945 0.26706347
0.10410927 0.0045723575 0.25856385 0.03773945 0.021377552 0.21063842 0.0018285734 0.052177537
0.3349619 0.031360585 0.0014902409 0.024534483 0.37821195 0.061183713 2.472496e-08 0.023663547
0.14259093 0.3208471 1.995998e-07 0.096079186 0.023047518 0.1549925 0.06765405 0.31919128
0.03273659 0.16889477 0.021665622 0.00053935946 0.037585266 0.060250074 0.025033878 0.096282564
5.857395e-05 0.122690685 0.08121816 0.36274964 0.10367753 0.038429763 0.05223795 0.0015655946
0.067556776 0.03811368 0.032883875 0.061090723 0.00029127416 1.5727848e-05 0.030540962 0.10995692
0.0805551 0.2780672 0.030827811 0.06627063 0.31882846 0.26317623 0.029057682 0.010049516

bn2.running_var f4 [128]
00000000: 66f5 313c 192e cc3b b7d5 743c 4492 f43a
00000010: b302 fe39 efdf 123c 42c7 403c 2ddb 6a3a
00000020: 14eb 2b3c 474b 1c3b f0fa 213c ff7f af3a
00000030: 9fb1 0137 bcd1 9e39 2601 ce38 0ae6 4731
00000040: 424e 863b 8bb4 1c3b be7e 8b3b aafb 9c32
00000050: 141f 5235 2533 0d3b 68e7 333a dfdc 173b
00000060: ed69 133a 7c67 643c d853 c039 a25a c13b
00000070: e128 ac37 4d82 723b dac0 283c 97c5 e934
00000080: 853a 0739 6bc9 013b dfce 8731 b8a9 373a
00000090: ddec 523b dda7 8b3a d0f0 c13a d858 de34
000000a0: 29ae 103c de03 db39 e12f e235 803a 9e3a
000000b0: d330 dd37 8ef4 da3a 7ecc ff3b a76b e43c
000000c0: 0400 0000 6752 053c 614e 8b3a d96a 093c
000000d0: 6976 073a 0cc5 c33b ccdf 8a3c 75e2 423b
000000e0: 1fa3 4b3b 85c8 b83b d2dc 243b 4d7a 2936
000000f0: e65d 123c 5e9e 8439 f1fd de3c 68c6 d539
00000100: 5fa7 1b39 0e1d 6a39 5374 fc3a 01a9 143b
00000110: 05c3 be3b c83e 283c 32e5 b03a bb98 183c
00000120: 2ce0 113c c5f2 8939 5412 1d3d 227d 4f3b
00000130: fda1 203a 3598 b63b 1c4f e138 9883 d23b
00000140: fda0 0c3c bd1a 823b f3b7 b439 4859 b13a
00000150: 02d6 aa3c 09f2 a93a 760e 5b2f bf50 2b3b
00000160: 84a3 133c c51a 103c bb39 1232 f8bb 183c
00000170: 46c9 8c3a 6eb9 583c 1b28 0d3c ff2c 123c
00000180: ca47 dc3a 7423 4e3c 4b8f 013b 602b c737
00000190: 8c63 643b 8a5c a63b 0123 d13a 0c11 f73b
000001a0: dde4 6436 cc2c 713b ae6a 233c 5c39 9f3b
000001b0: 5c6a 233b 3309 463b 9e25 9d3b 5b3e 1c39
000001c0: 9be1 f33b c6c1 f23a 0c87 5b3b be65 b93b
000001d0: d1cb a337 bc3d 3736 a395 d83a c322 cd3b
000001e0: aa72 2d3c f2c9 f43b d5cd 0d3b 99b1 df3b
000001f0: 7abc a03c cf99 f63b 3679 c23a a508 a039
0.01086173 0.006231081 0.014943532 0.0018659313 0.00048448666 0.008964523 0.011766257 0.00089590513
0.010493059 0.002384858 0.009886488 0.0013389586 7.730355e-06 0.00030292373 9.8230594e-05 2.9089073e-09
0.0040986845 0.0023911323 0.004257052 1.8275234e-08 7.827632e-07 0.0021545377 0.00068627903 0.002317242
0.0005623389 0.013940688 0.00036683562 0.005900697 2.0523034e-05 0.0037003935 0.010299886 4.3543398e-07
0.00012896403 0.0019803892 3.9525356e-09 0.0007006186 0.0032184639 0.0010654886 0.0014796499 4.1415365e-07
0.0088305855 0.00041773816 1.6852247e-06 0.0012071878 2.6367989e-05 0.0016704963 0.00780636 0.027883364
6e-45 0.008137322 0.0010628217 0.008387291 0.0005167486 0.0059744176 0.016952418 0.002973703
0.003107257 0.005639138 0.0025156033 2.525415e-06 0.00893352 0.00025294995 0.027220698 0.0004077435
0.00014844302 0.00022326803 0.0019260742 0.0022683742 0.005821588 0.0102688745 0.001349604 0.0093137575
0.008903544 0.00026311554 0.038347557 0.0031660278 0.0006127654 0.0055723437 0.00010743571 0.0064243786
0.0085833045 0.0039704726 0.00034469328 0.0013530636 0.020854 0.0012965809 1.9923072e-10 0.0026140658
0.009011153 0.008795445 8.511445e-09 0.009322159 0.0010741137 0.013227804 0.008615519 0.008921861
0.0016806063 0.012581695 0.0019769247 2.3742847e-05 0.0034849374 0.0050769495 0.0015955867 0.007539874
3.4107863e-06 0.0036800383 0.009974165 0.0048591327 0.0024935221 0.0030217886 0.004795744 0.00014900549
0.0074426658 0.0018520884 0.0033497242 0.0056578806 1.9526024e-05 2.730506e-06 0.0016524087 0.0062602474
0.01058642 0.007470363 0.0021637578 0.006826591 0.019621123 0.0075256596 0.0014837149 0.0003052402

fc2.weight f4 [128, 128]
00000000: 2be6 763d 0c0f a13c a076 c33d ab28 56bd
00000010: 0c04 91bd 9a9a 3a3c 4f85 84bd 6ac0 ea3d
00000020: 026d 5fbd ea31 673d 5440 12bd b8a6 ea3c
00000030: c1b7 29be 3518 28bd 6a99 acbd 2723 b9bd
00000040: 1f6b 003e 3850 46bc 723b 5fba 04b9 07bd
00000050: 63ce bcbd ca9b 89bd 5157 8bbc a209 a4bd
00000060: 2fa4 d03c 700e 673d 0972 81bd 20e5 d8bd
00000070: 4e5d ddbd ab03 68be fe8f 14bc d96b 863d
00000080: 8cf4 6f3d ad77 e13d 98fe 383a 749a e9bc
00000090: 0e58 34bc 6347 c6bd b3b0 e8bd 9c66 cabd
000000a0: 7913 71be ae13 70bd 33f5 53bd d19a 3abe
000000b0: f054 573c b6f5 c7bc 9d6a 893c 05cc b03d
000000c0: 5a1e 0abd eb4a ec3c 25f1 b0bd 5fad 483d
000000d0: aff0 4bbd d855 09bd a0e2 04bd 8a7c ab3c
000000e0: e1ab 133d c4ae 23bd 1d0d 583d b457 3f3d
000000f0: 5807 4abc a00d 8d3c 5ff2 6cbc 5172 c73c
00000100: 8a57 adbd 8623 76bc d8a2 69bd 5e05 f2bd
00000110: 3001 bcbd 2c77 dbbd 405e cb3b 8a34 3bbe
00000120: 80e2 4fbd e14a e0bd 524f fd3c 33a1 2bbd
00000130: 0a1e b13c 1320 21bb 8e25 a73d a153 b13d
00000140: d5c7 49bc 7efd c2bc cf2c cabc 5daf 663c
00000150: 5bbe 1e3b 950b 173d 307c 7ebe db56 bc3b
00000160: c728 3abd c5cf 2cbc 145b 2ebe 0b2e 983c
00000170: 56e6 e0bb f279 6bbd 1e0f 13bd 366e 80bc
00000180: 1b0f 42bd 6726 103d 6528 de3c 3b99 313d
00000190: 0bf9 b43c d7a6 94bd e3f7 8c3b a430 8f3d
000001a0: c0f1 e2bc a6d5 4a3d f81d 253d aacd 9abc
000001b0: 0b3f c7bd ceab 8abd 6e9c 033e e9b3 033d
000001c0: 9ec6 95bd 8c16 bb3c f5ac 033c 016f 47bd
000001d0: 7fec 933d 426c c83d 8775 6cbb e582 993c
000001e0: aa8f 4fbe 6fdd 84bb 2f04 bebd 7f55 2bbd
000001f0: 8f0e 2a3d e0c5 9e3d 7e55 27be 20dc ef3d
00000200: d330 cb3d f692 1cbd 6835 27bd e667 213b
00000210: eb1b b8bd 120a d9bc bd4d 9bbd 01e3 843d
00000220: 5b03 1f3c 028d febb a1c1 173d 0e5d 74b9
00000230: 426b 9ebe aaf4 903c 79a8 00be d83a 40bd
00000240: d938 20bd f643 2cbd 22d4 353d 16f7 86bb
00000250: 9c55 87bd 6ebd adbc 1bf7 0b3e 9b00 93bb
00000260: 2d7d 0c3e 4d96 4b3c 885c 5ebd 2be6 82be
00000270: e6e6 39bd bc9c eabd 1372 35bd 1ee4 8c3d
00000280: 64fb 4b3d ffc2 6e3b 6471 97bd 7fe3 b63d
00000290: df79 31be 2802 1a3d ccbf b0bd dc2a bfbd
000002a0: f387 42be 1250 cbbd 2cd7 853c dd26 8dbc
000002b0: 20c6 13bd 7556 efbd a6b5 9f3c 085c 853d
000002c0: 61fc 55bd 56d8 ba3a bff7 303d 40b2 4ebd
000002d0: 5ccc fabc 7e85 3dbd 115c 4e3d 10ca f13c
000002e0: 7213 e23c 4802 c4bd 6cad b9bc 4d62 9c3c
000002f0: 1285 7d3c 91e6 89bd 40b3 58bd cd8d 383c
00000300: 79b1 d1ba 4f34 f93c ac66 56bd 6e1e f03c
00000310: a66f e9bd b2d9 253d 83ff 3cbd fdf8 c0bd
00000320: c9ec 32ba 7252 d7bd ea5d bd3c 5644 57bd
00000330: 5e8c e13d d691 f8bb e08a 13bb ffaf 043d
00000340: b6c8 383d 1a91 773d 27bc 76bd 1670 cabc
00000350: 16f3 15ba 6b80 be3d e62a 9e3b 5ca9 a3bb
00000360: 00ce 55bd 369c 88bc e46f 66be af92 7abd
00000370: 9200 983c 341b 083d fce1 6cbd 9d9e 183c
00000380: dfdc 34be 0816 7e3c 8c12 563d 62fe 31bd
00000390: 8740 e73d d49f 85bc 1bc8 40be 544b 463d
000003a0: 0e0b fdbd 0cf0 92bd 0ee0 0cbd 2212 de3c
000003b0: 9ecd 8d3d 489b d03d 72d3 82bd 2471 f63b
000003c0: 0385 0f3c c9cf 20be 576a 72bd a0e0 9cbd
000003d0: 506c f7bc bb52 183d 81ad c7bd 0c03 c53d
000003e0: fbb2 babd e13f 2ebd c4fb 863b d3d5 e7bc
000003f0: 431d d53b d632 53bd d6fb ce3d 244c debc
0.0602781 0.019660495 0.0954411 -0.052284878 -0.0708085 0.011389399 -0.06470739 0.11462481
-0.054547317 0.056444086 -0.03570588 0.02864395 -0.16574003 -0.04103871 -0.08427699 -0.09039908
0.12540863 -0.012104087 -0.0008515633 -0.03313543 -0.09219053 -0.067191675 -0.01700941 -0.0800965
0.025468914 0.056410253 -0.063205786 -0.10590577 -0.10808812 -0.22657649 -0.009067534 0.06563539
0.058582827 0.110091545 0.00070569804 -0.028516032 -0.011007322 -0.09681585 -0.11361828 -0.098828524
-0.23542584 -0.058612518 -0.051747512 -0.1822312 0.013142809 -0.024409156 0.01677447 0.08632664
-0.03372035 0.028844317 -0.08639745 0.048993465 -0.04979008 -0.033529133 -0.03244269 0.020933408
0.03605259 -0.03996159 0.05274688 0.0467145 -0.012330852 0.017218411 -0.014462083 0.024346502
-0.084639624 -0.015023118 -0.057040066 -0.1181743 -0.09179914 -0.107160896 0.006206304 -0.18281761
-0.050753117 -0.10951782 0.030921612 -0.04190178 0.021620769 -0.0024585768 0.0816146 0.08658529
-0.01231571 -0.023802515 -0.02467957 0.014079896 0.0024222347 0.03687628 -0.24852061 0.0057476587
-0.045449045 -0.010547583 -0.17026931 0.018576642 -0.0068633957 -0.057489343 -0.03590309 -0.015677553
-0.047377687 0.035192873 0.027118871 0.043359023 0.02209141 -0.07258385 0.0043020113 0.06991699
-0.027703166 0.049520157 0.040311784 -0.018896896 -0.09728821 -0.067710504 0.12852642 0.032153998
-0.07313274 0.0228379 0.008036842 -0.048689846 0.072228424 0.097862735 -0.0036080794 0.018739173
-0.20269647 -0.0040547173 -0.09278142 -0.041829582 0.04151779 0.077525854 -0.16341206 0.117119074
0.09921422 -0.03822609 -0.040822417 0.0024628579 -0.089897 -0.02649406 -0.07583187 0.0648861
0.00970539 -0.0077682743 0.037049893 -0.00023304319 -0.30941206 0.01769479 -0.12564267 -0.046931118
-0.039116714 -0.042057 0.04439176 -0.0041188104 -0.066081256 -0.021208491 0.13668482 -0.004486156
0.13719626 0.012425971 -0.054287463 -0.2556623 -0.045386218 -0.11455676 -0.044298243 0.068794474
0.04980029 0.0036432145 -0.073946744 0.0893011 -0.17331646 0.037599713 -0.08630332 -0.09334347
-0.18997173 -0.099273816 0.016337954 -0.017230446 -0.03607762 -0.11686412 0.019495796 0.06511694
-0.05224264 0.0014255147 0.04320502 -0.05046296 -0.030615024 -0.046269886 0.05038077 0.029515296
0.027597163 -0.095707476 -0.022665702 0.019089842 0.015473621 -0.0673343 -0.05290532 0.011264277
-0.0015998326 0.03042045 -0.05234401 0.029311385 -0.113982484 0.040490814 -0.046142112 -0.09422491
-0.0006825445 -0.10513772 0.02311607 -0.052555405 0.11013101 -0.0075857444 -0.0022513196 0.032394405
0.045113288 0.060441114 -0.06023803 -0.02471165 -0.00057201216 0.093018375 0.0048268912 -0.0049945544
-0.05219841 -0.01667605 -0.2250362 -0.061175045 0.01855496 0.033229068 -0.057832703 0.00931516
-0.1766238 0.015508182 0.05226378 -0.04345549 0.112916045 -0.016311564 -0.18826334 0.048411682
-0.12355624 -0.071746916 -0.034393363 0.027108256 0.06923984 0.101858675 -0.06387986 0.0075208116
0.00875974 -0.15704264 -0.059183445 -0.07660031 -0.030203015 0.037188273 -0.0974989 0.09619722
-0.09116169 -0.04254139 0.0041193683 -0.028300202 0.0065037324 -0.051562153 0.10106628 -0.027135916

fc2.bias f4 [128]
00000000: 8067 aebd b92c bfbd 3940 1dbe 371d 7ebd
00000010: 4ce9 4fbe 3815 e4bd 3c24 2ebc 6da7 1abd
00000020: 3e4e d93d b845 11bd a05f 203d 2949 dfbc
00000030: 46bd fcbd 1ad8 033e cfe9 a1bd 4a1b abbd
00000040: ce88 d0bd 676f bebd 8fb7 a1bd 52f0 9bbd
00000050: 69a6 0cbe 37fd 50bd f6e0 1cbb b554 23be
00000060: f919 8bbd 96ed 65bd 78d9 183c 5d1e 66be
00000070: 593e f83c 077f babd 6813 863d 38e8 6a3c
00000080: 6ccf 42bd 597a d4bd 224a dfbd 4412 f63c
00000090: a6d0 4c3d a304 fabd ba45 11be cbdc 833c
000000a0: 3864 12bd c596 35bd fd4c 27bd 4e53 a6bd
000000b0: 3571 edbc e3f7 f23d c314 233d 4611 10be
000000c0: fa27 67bd 43a0 0fbe 3e8d b13c 62d6 9fbd
000000d0: 1313 37bd 9aa7 40be f233 a8bd f3ee a8bd
000000e0: 924c 24be 39df babd 4d4f 4c3d 4015 4c3d
000000f0: 198e 8cbd 65cf 733e e4a9 6bbd 9077 10be
00000100: 83e3 a43d db9f a1bd adbc 28bb 9c00 dd3b
00000110: 402f 1a3c 784a bebd f26e 8bbd 7935 93bd
00000120: 5b6b d4bd 8fc3 fc39 4dca cc3c 02b6 f2bc
00000130: a1f7 043c e70e 99bd 846c dabd f219 32be
00000140: 91a9 f2bb 6538 23be 204c dfbc 8bb1 f4bd
00000150: 5ea4 023e 2e4c 39be dc47 acbc ca21 483d
00000160: 22bd f6bd 63be 063c 0328 23be cf96 04be
00000170: e481 08bd 49ee 80bd 1139 69bd a144 86be
00000180: 9bb7 b3bd 6885 0bbd 2015 fdbd 758f 11be
00000190: cbb6 11bd ebf6 d23d 64c9 23be 64cd a7bd
000001a0: 73ed a8bd caa9 8fbd 1bc3 e9bd 18eb f13a
000001b0: 9060 4e3d 6f69 0a3d bd39 17be a44e 67be
000001c0: a52e fb3d 6ad9 933c 6a57 4a3d 88fa 24be
000001d0: 4ff0 fcba 12fc ecbd d5ec d1bc 1b0e dcbc
000001e0: b6cf 19be 9f44 3cbd 437b a3bd 6818 17bd
000001f0: 9635 16be 5357 033e d371 d8bd 6a47 54bd
-0.08515835 -0.09334702 -0.1535653 -0.06203958 -0.2030384 -0.1113686 -0.010628756 -0.037757326
0.10610627 -0.03546688 0.039153695 -0.027256565 -0.123407885 0.12875405 -0.079059236 -0.08354814
-0.101823434 -0.09298592 -0.07896339 -0.07614197 -0.13735355 -0.051022734 -0.0023937798 -0.15950282
-0.06792063 -0.056134783 0.009329192 -0.2247252 0.030303167 -0.0910626 0.0654667 0.014337592
-0.047561094 -0.103748985 -0.109028116 0.030038007 0.05000367 -0.12207916 -0.14186755 0.016096493
-0.035740107 -0.04433324 -0.040844906 -0.08121358 -0.028984645 0.11863687 0.03981472 -0.1406909
-0.05643461 -0.14025979 0.021673795 -0.07804562 -0.044695925 -0.18813935 -0.08213033 -0.08248701
-0.16044834 -0.091246076 0.049880315 0.049824953 -0.068630405 0.23809583 -0.057535067 -0.1410811
0.08051207 -0.07891818 -0.0025747225 0.0067444574 0.009410679 -0.092915475 -0.068082705 -0.071879335
-0.10372039 0.00048210888 0.024998808 -0.029627804 0.00811568 -0.074735455 -0.10665229 -0.1739271
-0.007405468 -0.15939482 -0.027257979 -0.11947926 0.12758014 -0.18095466 -0.021030359 0.04886035
-0.12047793 0.008224103 -0.15933232 -0.12948154 -0.033327 -0.06295449 -0.05693919 -0.26224235
-0.08775254 -0.034062773 -0.12357545 -0.14214881 -0.035574716 0.10301002 -0.15994793 -0.08193472
-0.08248415 -0.070148066 -0.114141665 0.0018456904 0.050385058 0.033791956 -0.14768119 -0.22588593
0.12264756 0.018048007 0.04939977 -0.16111195 -0.0019297692 -0.11571516 -0.025625626 -0.026862195
-0.15020642 -0.04596388 -0.07982495 -0.03688851 -0.14668879 0.1282628 -0.10568585 -0.05182592

bn3.weight f4 [128]
00000000: 6f33 723f 4216 983f 4137 8b3f b2ae a23f
00000010: cb0f 8d3f 130c 313f bcb1 973f 4638 353f
00000020: a090 8a3f 5090 5d3f 5771 8a3f 9797 503f
00000030: 8bf4 b33f 11d8 a33f bf34 873f 2aa7 273f
00000040: 3417 593f 974d 783f c494 6a3f b7d6 833f
00000050: 3633 f63e 56bf 9e3f 827e 423f 7b3a 443f
00000060: 41ed 9d3f cbbb 9a3f 8b95 813f 72c3 303f
00000070: ce28 b93f 0a94 983f 551a b33f 6b83 313f
00000080: 60a4 113f 4c9c 2b3f 4855 9b3f 55ed 243f
00000090: e32b a93f 4d60 673f f4f6 863f c8c1 5f3f
000000a0: f73f 2d3f 0d97 b03f f338 233f 9d30 5f3f
000000b0: d281 a63f 858d 493f 3fee 543f 6c01 6c3f
000000c0: cb99 903f 72c8 523f 2a6a 613f 6ef4 9f3f
000000d0: 29cd 363f 6162 7f3f 64a6 923f 7068 333f
000000e0: b0a5 af3f f0ef 9a3f eeaa 893f da67 503f
000000f0: 7cd7 9d3f 8d42 4e3f c4bb 553f 7f68 603f
00000100: 553b 863f 4a31 b63f 9034 a53f 4c25 bc3f
00000110: c285 743f 3587 8b3f 1aef 6a3f bc2a 053f
00000120: 17a9 7e3f 348a a73f 8129 9a3f 350f a53f
00000130: a599 823f ee2c 613f 4f8c 663f ee1d 383f
00000140: ba27 8e3f 4bbd 5c3f 79b5 523f 2125 593f
00000150: b499 9d3f 4c55 353f e990 473f 6e10 603f
00000160: c7c2 393f d469 7d3f 5c4b 313f 6703 2b3f
00000170: c886 1b3f 363a 913f abae a33f 281c a83f
00000180: e752 a43f d079 833f 337e 3a3f 5352 803f
00000190: 4cc1 913f 3d99 4b3f 296a 003f 4f1b 493f
000001a0: e5c7 9c3f f3d8 873f a714 a13f db95 b13f
000001b0: dfb6 763f e321 7a3f 0aa1 753f 5b11 7f3f
000001c0: fe7e 743f d252 8e3f 9a21 433f e54a 5f3f
000001d0: acba a23f 6f40 453f 49f3 bb3f 1d4b a83f
000001e0: 7ebc 7e3f 726b 533f 4700 713f 06e9 a73f
000001f0: cf30 923f a293 a83f 8d8d 323f ed60 813f
0.9460973 1.1881793 1.0876237 1.2709563 1.1020445 0.6915905 1.1851115 0.7078899
1.0825386 0.8654833 1.0815839 0.8148131 1.4059004 1.2800313 1.0562972 0.6548945
0.8480103 0.9699339 0.9163325 1.0299901 0.48085946 1.2402141 0.75974286 0.76651734
1.2338029 1.208856 1.0123762 0.69048226 1.4465578 1.1920178 1.3992411 0.6934115
0.5689144 0.67035365 1.2135401 0.6442464 1.3216518 0.9038132 1.0544114 0.8740506
0.6767573 1.3796097 0.6375877 0.87183553 1.3008368 0.78731567 0.83176035 0.9218967
1.1296934 0.82337105 0.8805262 1.2496469 0.714068 0.9975949 1.1457028 0.70081234
1.3722439 1.2104473 1.0755289 0.81408465 1.2331386 0.805703 0.8348963 0.8765945
1.0486857 1.4233792 1.2906666 1.4698882 0.955166 1.0900637 0.9177109 0.5201833
0.9947676 1.3089051 1.2043916 1.2895266 1.0203139 0.8795918 0.90057844 0.7192067
1.1105874 0.8622634 0.82308155 0.8482228 1.2312531 0.7083328 0.7795549 0.8752507
0.7256283 0.98989606 0.69255614 0.66802067 0.60752535 1.134589 1.278768 1.3133593
1.28378 1.0271549 0.72848815 1.0025123 1.1387115 0.795307 0.5016199 0.78557295
1.2248503 1.0613083 1.2584428 1.3873857 0.9637279 0.9770796 0.9594885 0.9963586
0.95506275 1.1119025 0.76223147 0.87223655 1.2713218 0.7705144 1.468362 1.3147923
0.99506366 0.82585824 0.9414105 1.3117988 1.1421145 1.3170054 0.6974724 1.0107704

bn3.bias f4 [128]
00000000: b365 cf3d ece5 513e 7625 0c3d a395 143d
00000010: 5030 dbba f55b 3c3c 1194 443e 27b3 2cbd
00000020: 11f0 e2bc 78d6 9ebc c496 e33d 2af5 3c3d
00000030: d9be 1b3e 649c f83c c830 d2bc 9cbd 15bd
00000040: 51bf 3bbc 74ce 72bc 4e82 97bd f284 5f3d
00000050: 81b0 1d3d dcd5 133e e6f2 913d 4a75 6c3d
00000060: 27de a63d 6507 533d a969 0dbd 772e d3bc
00000070: 46a4 473d 8aa2 6c3c da6a 79bd 1426 293d
00000080: 194c 4f3d 0c52 2e3b 0775 ce3d 6222 e6bd
00000090: 5c42 8d3c 91f5 07bd 6519 823c 0221 d0ba
000000a0: 1f81 e93c 4b9e 063c 890c 9c3d 80a2 543d
000000b0: 4d39 8d3c 3276 09bd be5a ccbd 93d4 963b
000000c0: 3271 0e3e cfa5 193c a1dc d8bb 6799 a03d
000000d0: 982d 55bd 796c c83c 1f2a 4e3e 040e acbc
000000e0: 9e09 1bbd f2b0 9f3c 8db8 013c d318 063e
000000f0: f3fd fd3c 42a6 653d bc81 ec3b 2ab3 c53d
00000100: 1658 a03c 6c62 1c3e 9a09 fc3b 7daf 0dbd
00000110: ba7a d1bd b05e c13d 48ab 9d3d b0fc 713d
00000120: bdd1 36bc dc4e 1ebe 0224 4bbd 5aa5 fcbb
00000130: 3f9e 9cbc 4832 6cbd 96da 08bd 6407 2e3d
00000140: d317 493d c919 003d b846 a1bc d56b 913d
00000150: bf06 9bbc 7915 903d cf9a 083d c586 6b3d
00000160: ed09 0cbc 3ea2 5f3d 1290 b0ba 16f1 3b3e
00000170: 846b 813c 93a8 12bd 4d40 633d a7e3 e53c
00000180: cb1a 41bd 11bd 4bbc 206e 403d 93ed 21bd
00000190: 57ab c8bd e889 683d 0fd4 cbbc 02c5 a13c
000001a0: 824f 14b9 7fa5 cebb f123 0dbe 7072 043c
000001b0: 5c65 59bd bf79 babb a387 ff3c 64b9 ddbc
000001c0: f9d2 c2bd c679 ab3c 6c54 cf3d a681 563d
000001d0: d8a6 cb3a ac03 d93a e7ec 273d 18c0 31bd
000001e0: 7121 2fbd 4491 4dbd e05c 6c3e ba43 543d
000001f0: 7195 173e eb76 d03d 9710 c73d b26c 4abd
0.101268195 0.20497864 0.034215413 0.036275517 -0.0016722772 0.011496534 0.19197108 -0.04216304
-0.027702363 -0.019389376 0.11112741 0.046132244 0.15209521 0.03034801 -0.025658026 -0.03655778
-0.011459188 -0.01481973 -0.073979005 0.054570146 0.038498405 0.1443705 0.07126407 0.057729043
0.08147841 0.051520724 -0.034524594 -0.025778992 0.048740648 0.014443049 -0.060892917 0.04129608
0.05060968 0.0026599197 0.10080915 -0.11237027 0.017243557 -0.033193175 0.01588125 -0.0015878978
0.028503953 0.008216451 0.076195784 0.051912785 0.017239237 -0.033559985 -0.09978245 0.0046029775
0.13910368 0.009377911 -0.006618098 0.07841759 -0.052045435 0.024465786 0.20133255 -0.021002777
-0.03785097 0.019493554 0.0079175355 0.13095407 0.031004881 0.05606676 0.007217614 0.096533135
0.019573253 0.1527192 0.0076915743 -0.034591187 -0.10228486 0.09441888 0.07698685 0.059078872
-0.011158404 -0.1545977 -0.049594887 -0.007710141 -0.019118426 -0.05766514 -0.033411585 0.042487517
0.049094986 0.03127459 -0.019687042 0.071006455 -0.018924115 0.070353456 0.033350762 0.057501573
-0.008547288 0.054598086 -0.0013470671 0.18353686 0.015798338 -0.035805296 0.055481244 0.028062655
-0.047144692 -0.012435214 0.046980023 -0.03953321 -0.097983055 0.056772143 -0.02488139 0.019747261
-0.00014143999 -0.0063063498 -0.13783242 0.008083925 -0.05307518 -0.005690783 0.031192606 -0.02706594
-0.09512896 0.02093209 0.10123524 0.052369736 0.0015537394 0.001655688 0.040997412 -0.043396086
-0.0427565 -0.050187364 0.23082304 0.0518224 0.14803101 0.10178932 0.09719961 -0.049420066

bn3.running_mean f4 [128]
00000000: e115 9338 498b 293b 3e27 e637 3c98 9d39
00000010: 0400 0000 ab80 6735 a445 823e ba61 923d
00000020: 4559 d73e ee45 cb3e 1ce2 923c b5e5 e43c
00000030: 2914 c33b 8ed3 ae3e 652d 7538 60c6 9a3d
00000040: b8ec de39 900f 173d 4584 213e 123a a53d
00000050: af23 af3c 2fd6 b73e 2b46 9a3d c1e7 8a3a
00000060: 47dd 843c 2bcd 003d e945 b13c 0a62 ac2b
00000070: 221c 093e 9b4a a53a 798a 9c3e 4ab5 c53d
00000080: 54de f53a 3bf9 4d39 eaf7 1e3d ab29 a03d
00000090: a37f c73c 85df b839 39d7 f63a ea72 5c3d
000000a0: 1a6b aa3c b07f 5d3d adab 883a eedc 053d
000000b0: 7085 ae3c 4749 ee3d f604 c43e d5ac 9537
000000c0: 3197 253b 4c79 653a 90ae 3c3d 238b 4d3b
000000d0: 815c 003d 0612 b33b 0315 133b e6fb 1738
000000e0: 46f3 4922 6b8d d73c 315e 363e aca3 493e
000000f0: 30cd c83d 63a8 1c3f 0be6 3b3d 9d2c ef3a
00000100: 8d69 a33d 2eb2 a63c 6f7c 163d 1e2d 153d
00000110: 8800 d83d 65c1 223d 179e 933c dc5e 1b39
00000120: 9c0a 243c 2ed2 d33a 2b3b b93e b956 433e
00000130: 1815 0e3e deaa 363b c535 f639 14ca 083b
00000140: 0af9 993c 0400 0000 8097 bc3d 6b9c 853d
00000150: 79cb 043f 4b39 ea3b 3cff ac3b 706e 883e
00000160: 76a5 8f3b 53d4 da3e a974 8424 c1df 3938
00000170: c287 c43c 0400 0000 f380 823c a3e4 9c34
00000180: c219 e736 ef43 b23e 25b1 8828 a493 231a
00000190: 4edb ae3c 970b c13e 18a4 2d38 1fd5 433d
000001a0: f251 5439 b652 3a39 6844 503d 519a 343c
000001b0: 7695 be3e 363b 1d3e 0400 0000 305b 0437
000001c0: 3701 293e e2b3 2c3d 178e 123e 9877 0638
000001d0: a396 363b ad43 b23a 53cd ce3c d152 803e
000001e0: 9ac9 9e38 911f 023e 9061 023d bd2b 8f3d
000001f0: 19de c639 6762 213e dfb6 f33a 2b1f f33c
7.0135815e-05 0.0025870374 2.743641e-05 0.00030058797 6e-45 8.624144e-07 0.25443757 0.07147546
0.42060295 0.3970179 0.017930083 0.027941564 0.005953331 0.34145778 5.845483e-05 0.07557368
0.0004251951 0.036880076 0.15773113 0.08067717 0.02137932 0.35905597 0.07532915 0.0010597632
0.016218795 0.031445663 0.021639781 1.2248546e-12 0.13389638 0.0012610735 0.30574396 0.09653719
0.0018758276 0.00019643169 0.038810648 0.078204475 0.024352854 0.0003526175 0.0018832452 0.053820528
0.020803023 0.05407685 0.001042714 0.032681398 0.021303862 0.1163507 0.38285035 1.7842665e-05
0.002526712 0.00087537314 0.046064913 0.003136345 0.03133822 0.005464795 0.0022442944 3.6235804e-05
2.7369367e-18 0.02631255 0.17809369 0.19691342 0.098047614 0.6119444 0.045873683 0.0018247549
0.079791166 0.020348635 0.036739763 0.03641998 0.10546976 0.039735217 0.018019719 0.0001481729
0.010012295 0.0016160661 0.36177954 0.19076051 0.13875234 0.002787284 0.00046960838 0.00208724
0.018795509 6e-45 0.09208584 0.06523975 0.51872975 0.007147943 0.0052794497 0.26646757
0.004383738 0.42740116 5.7443505e-17 4.4315824e-05 0.023990516 6e-45 0.015930628 2.922362e-07
6.887335e-06 0.34817454 1.5175857e-14 3.3826873e-23 0.021344807 0.37704155 4.139924e-05 0.04781067
0.00020248423 0.00017769155 0.050846487 0.01102312 0.37223405 0.15354618 6e-45 7.889044e-06
0.1650437 0.042163737 0.14312015 3.205947e-05 0.0027860783 0.0013600491 0.02524439 0.25063184
7.571578e-05 0.12707354 0.031831324 0.06990764 0.0003793098 0.15760194 0.0018593929 0.029677948

bn3.running_var f4 [128]
00000000: 7936 be38 fac9 703a 723d b036 e77b 4e39
00000010: 0400 0000 43ae 6034 8e8f a23d 39c3 013d
00000020: 6dd2 673e 634b 063e f864 e13b ab7a 0e3c
00000030: d8b5 c43a 30ae 193e 6974 8e38 b9d8 073d
00000040: 2ece 6e39 f8e3 703c 4774 913d e10d 043d
00000050: 25a0 c43b dc23 dd3d 1605 093d c828 363a
00000060: fb12 bb3b c550 103c 96d8 eb3b 0f59 902a
00000070: 80e6 073d a71f 2639 5a68 023e e149 063d
00000080: 00dc e73a c5b8 9138 aac7 3a3c a95d e93c
00000090: d49f dd3b 8731 1739 2127 793a b6a0 a23c
000000a0: 4129 5f3b 7cf8 b43c ba3f 7c3a c1dc 2f3c
000000b0: 6579 f33b 0991 1e3d 76c5 183e 2bb3 b836
000000c0: d365 fc3a 2176 0c3a 465a 2d3c de19 843b
000000d0: 8eba 193c 9b24 e53b 6aa4 0b3a 7cf3 4236
000000e0: 242f 5c21 1b9f 333c fb1c 5d3d 9dfb a83d
000000f0: 4d86 283d 4125 3b3e c928 803c 7041 d73a
00000100: 0c50 b23c 9766 c93b 8e61 333c 1987 013c
00000110: 504b 453d 9f16 263c f55e b73b 5e15 f437
00000120: 05ad fb3a 6ca0 5b39 93ab 423e 0d11 7c3d
00000130: 73dc 583d 3376 283b 228a ce39 e5fd c63a
00000140: 5fd9 163c 0400 0000 6632 f83c 62b3 c13c
00000150: be15 6c3e 7567 2d3b 28f9 b83a 046a b43d
00000160: 5a39 a73b e982 243e 549e d11f 9a44 5137
00000170: c853 cf3b 0400 0000 0476 cd3c 8781 2c34
00000180: d38c 0537 b221 0d3e b4cf b326 7e99 e318
00000190: ffd0 ae3b d9e2 273e e802 e737 83d7 873c
000001a0: efe3 6f39 54b5 cc38 88fb 803c 8fb1 1d3b
000001b0: 6669 373e c43e 453d 0400 0000 2321 2c37
000001c0: 2866 153d 47fd 393c 7fb7 6b3d 27cf 3f37
000001d0: e538 0e3a 48f6 813a 1092 c93b 33ce 083e
000001e0: 61c6 9838 0ec3 353d 5fcd 243c 92b7 c33c
000001f0: 4aac 053a f970 643d 5b05 d83a de2d f33b
9.070052e-05 0.000918537 5.252362e-06 0.00019691848 6e-45 2.0925022e-07 0.07937537 0.03168032
0.22638865 0.13114695 0.0068784915 0.0086962385 0.0015007807 0.15007854 6.792771e-05 0.033165667
0.00022774257 0.0147027895 0.07102256 0.0322398 0.006000536 0.10797855 0.033452116 0.0006948826
0.0057090498 0.008808319 0.00719745 2.5641335e-13 0.033178806 0.00015842785 0.1273512 0.0327853
0.0017689466 6.948555e-05 0.011400143 0.028487043 0.0067634378 0.00014418933 0.0009504427 0.019852024
0.003405169 0.022091143 0.0009622533 0.010733784 0.007430243 0.038712535 0.14919075 5.504485e-06
0.001925642 0.0005358179 0.010580605 0.004031404 0.009382857 0.006992889 0.0005326929 2.904998e-06
7.460129e-19 0.010963227 0.053982716 0.082511164 0.041143704 0.1827593 0.015644448 0.00164227
0.021766685 0.006146263 0.010948552 0.007905745 0.048167527 0.010137229 0.0055960366 2.9097017e-05
0.0019201344 0.0002094523 0.19010763 0.0615397 0.05294461 0.0025705218 0.000393943 0.0015181868
0.009207099 6e-45 0.03029747 0.023645107 0.23055169 0.002645937 0.001411234 0.088092834
0.0051032724 0.16065563 8.8776875e-20 1.2473343e-05 0.006327126 6e-45 0.025080688 1.606587e-07
7.960206e-06 0.13782385 1.2476918e-15 5.8833112e-24 0.005334973 0.1639513 2.75387e-05 0.016582256
0.00022877728 9.761253e-05 0.01574494 0.0024062132 0.179113 0.04815556 6e-45 1.0259714e-05
0.036474377 0.01135189 0.057548042 1.1432719e-05 0.0005425348 0.0009915316 0.006151445 0.13359909
7.284876e-05 0.04437547 0.01005873 0.023891244 0.00050992204 0.0557718 0.0016481088 0.0074212393
