mode_weights/agent0_actor_target.pth (torch_old, 93021 bytes, 18 tensors)

bn1.weight f4 [33]
0.50135607 0.5996993 0.30278328 0.011831178 0.008520695 0.04929754 0.06368647 0.22341022
0.10007725 0.15824151 0.1517847 0.16719031 0.106590636 0.5451744 0.46775413 0.655484
0.05527038 0.09426815 -0.0006493733 0.035130613 0.27892032 0.2908845 0.09405586 0.6896786
0.3212506 0.45793375 1.0515491 0.03616482 0.53790724 0.37341738 0.30510002 0.9320004
0.3509635
00000000: df58 003f e585 193f 6906 9b3e 8fd7 413c
00000010: 639a 0b3c 38ec 493d 0d6e 823d a6c5 643e
00000020: 4df5 cc3d 100a 223e 736d 1b3e f033 2b3e
00000030: 314c da3d 8d90 0b3f 787d ef3e cdcd 273f
00000040: 3263 623d a90f c13d b43a 2aba 1ee5 0f3d
00000050: a5ce 8e3e d0ee 943e 5ca0 c03d c78e 303f
00000060: f57a a43e 4b76 ea3e 2999 863f 9021 143d
00000070: 4ab4 093f 9030 bf3e 1236 9c3e 9497 6e3f
00000080: 7db1 b33e

bn1.bias f4 [33]
-0.008764109 -0.12522058 -0.13300118 0.05381035 -0.18453065 0.060640633 0.13744077 -0.095214106
0.09544393 -0.08115936 -0.050262704 -0.120348334 0.02874378 -0.0027391992 -0.0676165 0.0024003198
0.06917853 0.09446267 0.18782021 0.10141435 -0.07193982 -0.04305571 -0.045105647 -0.07382749
-0.10789567 0.0131014185 0.028854337 0.14070582 -0.027242888 0.20641176 -0.24537352 -0.23093286
-0.00054275175
00000000: 5697 0fbc d339 00be 7631 08be 3e68 5c3d
00000010: 9af5 3cbe 5062 783d 46bd 0c3e 9dff c2bd
00000020: 1b78 c33d e136 a6bd 44e0 4dbd 3079 f6bd
00000030: 1378 eb3c 2384 33bb 857a 8abd af4e 1d3b
00000040: 79ad 8d3d a575 c13d f153 403e 54b2 cf3d
00000050: 2f55 93bd 2f5b 30bd b3c0 38bd de32 97bd
00000060: 68f8 dcbd 55a7 563c ee5f ec3c 3015 103e
00000070: 7a2c dfbc 9b5d 533e 3243 7bbe aa79 6cbe
00000080: 7447 0eba

bn1.running_mean f4 [33]
0.7007768 -2.4763486 -0.3617729 0.84858394 0.08349369 0.014623111 -0.057731096 -0.0033648605
3.0107045e-05 0.011594375 0.040271446 0.004180382 -0.003918663 0.49954045 -2.565961 -0.081822194
0.011170471 0.00692029 -0.009408721 -0.06427398 0.10370264 -0.009200809 0.05975764 0.05327598
0.12380801 -0.032324493 0.049857847 -0.99999976 0.07254042 0.0 0.99999976 0.0
0.00081829977
00000000: 1c66 333f 7f7c 1ec0 4c3a b9be cc3c 593f
00000010: bdfe aa3d c695 6f3c 7177 6cbd fe84 5cbb
00000020: 638e fc37 55f6 3d3c acf3 243d 96fb 883b
00000030: 2168 80bb c4c3 ff3e b438 24c0 6592 a7bd
00000040: 5a04 373c 9ac3 e23b 0927 1abc 14a2 83bd
00000050: 0d62 d43d fdbe 16bc 6dc4 743d ea37 5a3d
00000060: 0e8f fd3d b066 04bd be37 4c3d fcff 7fbf
00000070: 1290 943d 0000 0000 fcff 7f3f 0000 0000
00000080: 2b83 563a

bn1.running_var f4 [33]
4.1508384 0.553904 4.6144085 0.05837019 0.07020621 0.031919625 0.10922532 0.4386508
0.068815775 0.11507691 2.2483118 1.3179015 2.6233704 19.641565 1.5463738 21.572004
0.10751579 0.27653006 0.09696504 0.51566434 2.2623334 0.70271975 0.9591894 7.59086
3.6613889 8.594354 31.83384 6e-45 32.2228 6e-45 6e-45 6e-45
0.3275886
00000000: abd3 8440 a7cc 0d3f 3ca9 9340 9515 6f3d
00000010: 46c8 8f3d 27be 023d 86b1 df3d d696 e03e
00000020: 49ef 8c3d 71ad eb3d 57e4 0f40 ffb0 a83f
00000030: 4de5 2740 ed21 9d41 94ef c53f 7793 ac41
00000040: 3d31 dc3d 5995 8d3e 9b95 c63d 9402 043f
00000050: 12ca 1040 71e5 333f 708d 753f 53e8 f240
00000060: 3254 6a40 7982 0941 b4ab fe41 0400 0000
00000070: 26e4 0042 0400 0000 0400 0000 0400 0000
00000080: b1b9 a73e

fc1.weight f4 [128, 33]
-0.038816985 0.009930559 -0.0106421085 -0.09676075 -0.038928255 -0.07038535 -0.11862067 -0.022024002
0.03690252 0.06378005 -0.045524005 0.039813917 0.02361753 -0.018201834 0.13210256 -0.15210016
0.028968021 0.06643158 -0.06422535 -0.130591 0.02477284 0.0039028192 0.052693807 0.06897818
-0.0054297927 0.08800913 0.016602242 -0.079112105 0.010803864 -0.13136539 0.014611606 0.100726664
-0.11754728 0.027720904 0.06802471 0.10409877 -0.021755274 0.037255734 0.031115286 0.006799462
-0.031306785 -0.045859378 0.056917574 0.035221495 0.01867372 0.014149023 -0.031426344 -0.06312911
0.084635854 -0.023639003 -0.006507878 -0.027023137 0.048578627 0.115630634 0.030829662 -0.013838825
0.06013993 -0.06596528 -0.1532405 -0.058588784 -0.07086162 0.010340413 -0.05755212 0.14471823
0.037072074 -0.1211351 -0.021759098 -0.037642565 -0.066688865 -0.12658656 -0.07453189 -0.071817905
0.007980266 -0.02788701 -0.02864371 -0.031124031 -0.0538627 -0.010606805 -0.13612415 -0.031358495
0.012618277 0.06608714 0.07524757 -0.028584275 0.06418845 -0.05455668 0.018736033 -0.04071869
-0.053488728 -0.11998601 -0.009359275 0.04900068 -0.01587378 0.19542333 0.094864756 0.07289393
-0.074117795 -0.019774212 0.14704096 0.017572148 0.086697154 -0.0010133374 -0.04892639 -0.011894359
0.015008287 0.0028712836 -0.051722426 0.032883715 0.018595424 -0.009123262 0.0022181305 0.11970816
-0.19455399 -0.04257092 0.092991896 0.007897446 -0.06609771 -0.030953819 0.040537767 0.012548141
-0.038807683 -0.0736155 -0.09097926 0.027750084 0.07665002 -0.0061284606 0.09215709 -0.22656174
0.076326706 -0.022710308 0.004751286 -0.10977237 0.018160354 0.07102461 0.044684332 0.007550595
0.023524608 -0.03285038 -0.017880203 0.0053450232 -0.0685228 0.034223907 -0.009916577 0.013276947
0.011329133 -0.008015298 -0.14071077 0.070705496 -0.020171938 -0.03264534 -0.0074693332 -0.050807066
0.01387323 -0.018351335 -0.004470725 -0.0024665883 -0.014330096 -0.041184075 -0.032827355 -0.030154964
-0.22066309 -0.07410654 0.120816 0.11443499 0.12959844 0.0850719 0.018984158 0.18850131
-0.080215335 0.06611937 0.03573047 -0.054990128 0.04765897 -0.030538347 -0.0020953328 0.04827199
0.0029872158 -0.081476025 -0.014062487 -0.059908018 -0.1290121 0.019636175 0.02922063 0.0029699607
0.013796675 -0.042600904 -0.013777435 0.072974466 -0.047667302 -0.028905138 0.0072667897 0.013355554
-0.013806156 -0.103487365 0.06243557 -0.097490564 -0.1510934 -0.052948877 0.0004740959 -0.051767863
-0.018204434 0.093055815 0.08512914 0.024541324 -0.0107902065 -0.0006048827 0.020028712 0.058796
-0.019951556 0.028330373 -0.0022129586 0.10124556 0.024043132 0.06977929 -0.08383119 0.009111446
-0.06611871 -0.0031736454 -0.023226762 -0.009322292 0.069579594 0.015967943 -0.032552637 0.004683742
0.15288095 -0.026856638 -0.07644083 -0.031228824 0.17239624 0.07389771 0.21312304 0.024137745
-0.0006029461 -0.08299225 -0.00038537808 -0.003022 -0.016819553 -0.015097126 0.001502371 0.011577287
-0.02116331 -0.008890143 0.00019780021 -0.054378983 -0.13807335 0.07717492 0.02329946 -0.00811388
0.041170422 0.10523493 -0.05047713 -0.013474759 0.022088964 0.01527504 -0.025099004 -0.0003480986
00000000: 8ffe 1ebd c9b3 223c 3d5c 2ebc 802a c6bd
00000010: 3c73 1fbd 3226 90bd 65ef f2bd ae6b b4bc
00000020: 1927 173d 1d9f 823d 6177 3abd eb13 233d
00000030: 8d79 c13c 031c 95bc e545 073e 25c0 1bbe
00000040: 584e ed3c 480d 883d 9588 83bd a6b9 05be
00000050: 69f0 ca3c 71c6 7f3b 76d5 573d 6f44 8d3d
00000060: 67ec b1bb 213e b43d 6d01 883c 8705 a2bd
00000070: b102 313c a684 06be 8465 6f3c c849 ce3d
00000080: a1bc f0bd f316 e33c 8a50 8b3d bc31 d53d
00000090: 1e38 b2bc 7899 183d 7ce5 fe3c 05ce de3b
000000a0: 8b3b 00bd 0bd7 3bbd 6722 693d 6a44 103d
000000b0: a1f9 983c 4ed1 673c e9b8 00bd d649 81bd
000000c0: 9055 ad3d 95a6 c1bc 0a40 d5bb a05f ddbc
000000d0: 62fa 463d c1cf ec3d 7d8e fc3c 3dbc 62bc
000000e0: 4a55 763d ce18 87bd 14eb 1cbe cbfa 6fbd
000000f0: e61f 91bd d66a 293c c6bb 6bbd 0431 143e
00000100: e3d8 173d ae15 f8bd 2340 b2bc 172f 1abd
00000110: 2c94 88bd e89f 01be 2da4 98bd 4415 93bd
00000120: a9bf 023c 4c73 e4bc 37a6 eabc d3f7 febc
00000130: 229f 5cbd 2ac8 2dbc 2164 0bbe c471 00bd
00000140: e4bc 4e3c b258 873d 661b 9a3d 9229 eabc
00000150: 3c75 833d d376 5fbd 4f7c 993c a4c8 26bd
00000160: ff16 5bbd 3abb f5bd a557 19bc f0b4 483d
00000170: bb09 82bc 0e1d 483e 7448 c23d 6a49 953d
00000180: 12cb 97bd 87fd a1bc e891 163e 77f3 8f3c
00000190: 478e b13d f6d1 84ba 0a67 48bd 8fe0 42bc
000001a0: 51e5 753c 252c 3c3b e5da 53bd 13b1 063d
000001b0: 6e55 983c bc79 15bc 0e5e 113b 8d29 f53d
000001c0: 2939 47be d85e 2ebd 8972 be3d 4a64 013c
000001d0: 3c5e 87bd dd92 fdbc ee0a 263d b896 4d3c
000001e0: cef4 1ebd b9c3 96bd 5653 babd 2554 e33c
000001f0: b0fa 9c3d 41d1 c8bb dbbc bc3d cdff 67be
00000200: 2d51 9c3d f80a babc adb0 9b3b 56d0 e0bd
00000210: 06c5 943c 5a75 913d eb06 373d fb6a f73b
00000220: aeb6 c03c 1f8e 06bd 8179 92bc 4e25 af3b
00000230: af55 8cbd 5e2e 0c3d 2379 22bc 8d87 593c
00000240: d49d 393c 9952 03bc 7c16 10be 0bce 903d
00000250: 9f3f a5bc 1fb7 05bd 4fc1 f4bb 121b 50bd
00000260: 8b4c 633c 8a55 96bc 297f 92bb 7ca6 21bb
00000270: c7c8 6abc a2b0 28bd fa75 06bd 8b07 f7bc
00000280: 81f5 61be 2bc5 97bd 616e f73d e45c ea3d
00000290: 74b5 043e 2d3a ae3d aa84 9b3c 7d06 413e
000002a0: f047 a4bd 9869 873d 1d5a 123d 543d 61bd
000002b0: 0d36 433d 8e2b fabc da51 09bb dab8 453d
000002c0: 2ac5 433b e7dc a6bd 5866 66bc 1c62 75bd
000002d0: bf1b 04be 0bdc a03c 1a60 ef3c aca3 423b
000002e0: 730b 623c 497e 2ebd c0ba 61bc a373 953d
000002f0: ca3e 43bd 78ca ecbc 401e ee3b 41d1 5a3c
00000300: 3733 62bc 2ff1 d3bd 71bc 7f3d 22a9 c7bd
00000310: 3ab8 1abe ece0 58bd 1390 f839 8a0a 54bd
00000320: 7721 95bc 0c94 be3d 3058 ae3d e30a c93c
00000330: 68c9 30bc fe90 1eba 4113 a43c 13d4 703d
00000340: 7271 a3bc 1915 e83c 4907 11bb d559 cf3d
00000350: 1af6 c43c 72e8 8e3d b0af abbd 2d48 153c
00000360: 3f69 87bd effc 4fbb 0d46 bebc 87bc 18bc
00000370: bf7f 8e3d 34cf 823c ea55 05bd 137a 993b
00000380: d38c 1c3e 7402 dcbc 038d 9cbd 97d3 ffbc
00000390: a488 303e af57 973d ed3c 5a3e 85bc c53c
000003a0: 070f 1eba d7f7 a9bd 920c cab9 bf0c 46bb
000003b0: 29c9 89bc f059 77bc 35eb c43a a9ae 3d3c
000003c0: ae5e adbc f6a7 11bc 9768 4f39 7fbc 5ebd
000003d0: 1a63 0dbe e20d 9e3d 82de be3c 14f0 04bc
000003e0: 51a2 283d 6985 d73d 1bc1 4ebd 3cc5 5cbc
000003f0: eaf3 b43c 2944 7a3c 6d9c cdbc 0181 b6b9

fc1.bias f4 [128]
-0.098495156 -0.0054081683 0.16372931 -0.06324732 -0.19760497 0.14333776 -0.030151296 -0.080863915
0.03964425 -0.22816113 -0.10348321 0.050149057 -0.045395676 -0.04705064 0.16023485 -0.1865873
0.026925825 -0.094234556 -0.15004846 -0.16175018 -0.1901967 -0.015458292 -0.10229477 -0.059083845
-0.005968956 -0.0066309813 -0.040046662 0.17756842 -0.08488008 0.08304231 0.06280378 -0.055376787
0.058452625 0.008613751 0.035125483 -0.01787299 0.0039269566 -0.09476746 -0.0011803386 -0.15468694
0.10973323 0.075090215 0.115850486 0.07859123 -0.06525598 -0.031699736 0.18873289 0.09221865
-0.1148849 0.091322646 -0.09293892 0.13484825 -0.23479995 -0.020865591 0.24873172 -0.15944068
0.11852742 0.1426464 -0.0619139 -0.051637337 0.22020257 -0.16841634 0.19072656 -0.0864041
-0.014624607 0.039086573 -0.00147652 0.11564727 0.041338943 0.09427274 -0.055066593 -0.0058787228
-0.07743635 0.025249891 0.11204244 -0.03229117 0.009429571 0.12621891 0.03684843 -0.06549694
0.10689604 0.09824501 -0.18273146 0.13001801 0.030314893 0.1265956 -0.19937444 -0.16208097
-0.111093044 0.295339 -0.11321463 0.15196155 -0.044941813 0.10098026 -0.05748924 -0.050484367
-0.0074175242 0.111688174 0.119068176 -0.112538375 -0.08380438 -0.14690322 -0.08290279 0.008319012
-0.09900848 0.08712816 -0.024033135 0.1554619 -0.03728858 0.0015151625 0.034057714 -0.15755926
0.051704094 -0.16066442 0.06337158 0.15858003 -0.11535544 -0.14112493 -0.11813652 0.0031733415
0.061231468 0.19570717 0.039476067 0.12115143 0.07170522 0.10389654 -0.09243473 -0.019574467
00000000: d4b7 c9bd 0137 b1bb a8a8 273e d087 81bd
00000010: f558 4abe 22c7 123e daff f6bc fb9b a5bd
00000020: 0262 223d 12a3 69be 01ef d3bd 1969 4d3d
00000030: d1f0 39bd 2cb8 40bd 9b14 243e be10 3fbe
00000040: 8c93 dc3c 0cfe c0bd 4ea6 19be d7a1 25be
00000050: ecc2 42be c744 7dbc ec7f d1bd e701 72bd
00000060: 3b97 c3bb b448 d9bb f807 24bd 7fd4 353e
00000070: 9bd5 adbd 1612 aa3d 459f 803d c5d2 62bd
00000080: 056c 6f3d b120 0d3c bddf 0f3d 606a 92bc
00000090: b3ad 803b 7115 c2bd 97b5 9aba 4166 1ebe
000000a0: d1bb e03d e6c8 993d 0543 ed3d 70f4 a03d
000000b0: eda4 85bd 95d7 01bd 3243 413e 22dd bc3d
000000c0: c648 ebbd 5e07 bb3d c356 bebd a915 0a3e
000000d0: 666f 70be 51ee aabc 87b3 7e3e 6b44 23be
000000e0: 81be f23d e611 123e 6e99 7dbd ac81 53bd
000000f0: c87c 613e 5575 2cbe d34d 433e a2f4 b0bd
00000100: 0c9c 6fbc 3e19 203d ca87 c1ba 7ad8 ec3d
00000110: 0653 293d 1112 c13d 828d 61bd 4da2 c0bb
00000120: f396 9ebd dcd8 ce3c 8276 e53d bf43 04bd
00000130: 7d7e 1a3c 883f 013e 61ee 163d 4223 86bd
00000140: 50ec da3d ae34 c93d f51d 3bbe 7123 053e
00000150: f056 f83c 47a2 013e d028 4cbe 8ef8 25be
00000160: c084 e3bd ac36 973e 12dd e7bd cf9b 1b3e
00000170: e814 38bd bdce ce3d d679 6bbd b2c8 4ebd
00000180: b40e f3bb c5bc e43d 04da f33d 857a e6bd
00000190: a1a1 abbd cc6d 16be f0c8 a9bd 774c 083c
000001a0: f5c4 cabd 4070 b23d 23e1 c4bc 6831 1f3e
000001b0: e9bb 18bd 6b98 c63a 1a80 0b3d 3757 21be
000001c0: acc7 533d 3785 24be f5c8 813d ce62 223e
000001d0: 793f ecbd 0e83 10be 8ff1 f1bd d6f7 4f3b
000001e0: d9cd 7a3d 7667 483e a8b1 213d 3e1e f83d
000001f0: 30da 923d b6c7 d43d 6b4e bdbd a25a a0bc

bn2.weight f4 [128]
0.11834032 0.23173882 0.28903762 0.46506602 0.1768101 0.4807253 0.55679685 0.41066208
0.5375919 0.7709209 0.3998207 0.22857341 0.3474194 0.23855998 0.29281822 0.33562315
0.44701588 0.7824449 0.56204766 0.66570365 0.82546747 0.3812678 0.46614695 0.6126529
0.31686494 0.6509422 0.42582646 0.1440857 0.2857611 0.26481616 0.74339485 0.70011854
0.6887242 0.45263746 0.47958755 0.36668092 0.27503332 0.42688805 0.27184072 0.5981142
0.11270827 0.2791816 0.79004586 0.1424643 0.49633825 0.932641 0.85002464 0.58370197
0.45448545 0.65014386 0.50687945 0.3780192 0.46257886 0.61662054 0.6646414 0.6734109
0.60170025 0.4595 0.43892246 0.51588476 0.52339303 0.19103563 0.513296 0.3752596
0.25330815 0.7080661 0.510624 0.5257668 0.37261498 0.56110275 0.86023927 0.5488718
0.6764561 0.27714497 0.6953414 0.7253469 0.62598795 0.6539567 0.42883122 0.44109184
0.8364903 0.81304795 0.34952247 0.7769458 0.8446795 0.4482262 0.13958804 0.52574444
0.45440817 0.6206544 0.28591505 0.616998 0.5376144 0.42707476 0.65345937 0.55922997
0.28866488 0.27743804 0.3569053 0.5781595 0.64982647 0.37158287 0.43599543 0.6610421
0.16623223 0.73770165 0.43502423 0.6686137 0.77827495 0.5325271 0.47397807 0.2734144
0.66424066 0.7219625 0.38450915 0.55856407 0.54207784 0.661026 0.7249696 0.81694025
0.091866 0.848432 0.66363883 0.633456 0.55916363 0.78611046 0.88333815 0.5086526
00000000: 695c f23d f14c 6d3e bdfc 933e 221d ee3e
00000010: b50d 353e a021 f63e 3d8a 0e3f 4d42 d23e
00000020: 9f9f 093f 125b 453f 4cb5 cc3e 260f 6a3e
00000030: f5e0 b13e 1149 743e 45ec 953e ccd6 ab3e
00000040: 44df e43e 4f4e 483f 5be2 0f3f 8e6b 2a3f
00000050: d651 533f 8835 c33e d0aa ee3e d2d6 1c3f
00000060: 1f3c a23e 26a4 263f ed05 da3e 348b 133e
00000070: 474f 923e fc95 873e 204f 3e3f f83a 333f
00000080: 3b50 303f 19c0 e73e 808c f53e 9abd bb3e
00000090: 2bd1 8c3e 1291 da3e b52e 8b3e 031e 193f
000000a0: 98d3 e63d e4f0 8e3e 7240 4a3f 29e2 113e
000000b0: 0c20 fe3e 90c1 6e3f 379b 593f 7e6d 153f
000000c0: 51b2 e83e d46f 263f dac2 013f bc8b c13e
000000d0: 23d7 ec3e d8da 1d3f f025 2a3f a864 2c3f
000000e0: 0709 1a3f 9643 eb3e 72ba e03e 0611 043f
000000f0: 16fd 053f d89e 433e 5e67 033f 0722 c03e
00000100: 9bb1 813e d243 353f 41b8 023f a798 063f
00000110: 64c7 be3e 6ea4 0f3f a438 5c3f dd82 0c3f
00000120: 3a2c 2d3f f2e5 8d3e e501 323f 56b0 393f
00000130: bf40 203f b569 273f c48f db3e cad6 e13e
00000140: 3a24 563f e923 503f 9cf4 b23e ece5 463f
00000150: ea3c 583f e87d e53e 2bf0 0e3e 3097 063f
00000160: 30a8 e83e 35e3 1e3f 7563 923e 95f3 1d3f
00000170: 19a1 093f 8ba9 da3e 1d49 273f b229 0f3f
00000180: e2cb 933e 5c0c 8e3e 4bbc b63e 4302 143f
00000190: 075b 263f 1c40 be3e cb3a df3e 0e3a 293f
000001a0: c838 2a3e 04da 3c3f 7fbb de3e 442a 2b3f
000001b0: 073d 473f b253 083f 41ad f23e f9fc 8b3e
000001c0: ad0b 2a3f 89d2 383f 62de c43e 0efe 0e3f
000001d0: 9dc5 0a3f 0039 293f 9c97 393f ff22 513f
000001e0: 3e24 bc3d d732 593f 3ce4 293f 2c2a 223f
000001f0: 5925 0f3f 893e 493f 7322 623f 0f37 023f

bn2.bias f4 [128]
-0.50805557 -0.049896434 0.04819595 0.14774077 0.48375064 -0.05433775 0.11405919 -0.09810636
0.14378259 0.017110586 0.0936667 -0.32426357 0.25061744 -0.10827146 0.31149727 0.40812
-0.20373932 0.10395827 0.03419796 0.12213745 0.1665639 0.257994 0.080300614 0.0054777777
0.004494455 0.15018813 0.16421843 0.53195786 0.27203906 0.38222912 0.17242506 -0.023453545
-0.19616202 -0.14725615 0.10123731 -0.21780944 0.37571725 0.32082164 0.1656647 0.20663744
0.5667739 0.23611085 0.01583869 0.45099914 0.13365433 0.21590468 -0.092888355 -0.21290168
0.012961844 -0.14318337 0.092206605 -0.14920735 0.1453593 -0.05487304 0.04274522 0.031240359
0.080409005 0.17375226 0.2558949 0.047131248 0.20761608 0.0029521245 -0.044322617 0.09236062
-0.028648864 0.20679627 0.051065404 -0.055679552 0.31100103 0.0606461 0.0069316374 0.07793752
0.03548649 -0.09654963 0.0055820737 0.12348344 0.10869286 0.18846904 -0.04527009 0.11724092
0.17061047 -0.12175549 -0.10726995 0.08013648 -0.071129374 -0.07448662 0.32437795 0.23061767
-0.06989991 -0.015600712 0.2661064 -0.12032902 0.11181065 0.13111383 0.24455535 0.17647576
0.23993383 0.052558176 0.07464813 -0.10399704 -0.03962011 0.12008249 0.2597939 0.11674172
0.2369669 0.08731758 0.2791391 -0.17164999 0.13397025 0.0711723 -0.117625386 -0.122227326
0.15558925 0.26519907 -0.044889566 0.103417665 0.1455885 0.06834359 0.0968532 0.25824863
0.5930886 -0.09168057 0.13210812 0.22606131 0.051722612 0.07190762 -0.27013093 0.0022224046
00000000: ee0f 02bf 3460 4cbd 1e69 453d 5b49 173e
00000010: 2aae f73e 4391 5ebd dd97 e93d fdeb c8bd
00000020: be3b 133e 802b 8c3c 54d4 bf3d e005 a6be
00000030: ee50 803e 6dbd ddbd 927c 9f3e 1bf5 d03e
00000040: 0aa1 50be 13e8 d43d 2913 0c3d 3323 fa3d
00000050: ba8f 2a3e ca17 843e a674 a43d ee7e b33b
00000060: 3946 933b ebca 193e e028 283e 642e 083f
00000070: b448 8b3e 89b3 c33e 3290 303e a621 c0bc
00000080: b2de 48be 51ca 16be 8255 cf3d 7009 5fbe
00000090: 035e c03e bc42 a43e 02a4 293e c498 533e
000000a0: 1818 113f 0bc7 713e 24c0 813c 5ce9 e63e
000000b0: aedc 083e 1e16 5d3e 403c bebd e602 5abe
000000c0: ea5d 543c a99e 12be d1d6 bc3d d0c9 18be
000000d0: 11d9 143e 8ec2 60bd 9d15 2f3d c8eb ff3c
000000e0: 7aad a43d 1dec 313e a804 833e b20c 413d
000000f0: 4f99 543e 6e78 413b a28b 35bd 9127 bd3d
00000100: 06b1 eabc 67c2 533e f529 513d 3e10 64bd
00000110: 873b 9f3e 0c68 783d ca22 e33b b59d 9f3d
00000120: 485a 113d d0bb c5bd d4e9 b63b e3e4 fc3d
00000130: 5d9a de3d 07fe 403e 216d 39bd 021c f03d
00000140: 83b4 2e3e f15a f9bd 59b0 dbbd 981e a43d
00000150: 47ac 91bd 718c 98bd de14 a63e 0a27 6c3e
00000160: af27 8fbd 219a 7fbc 193f 883e 106f f6bd
00000170: fbfc e43d b442 063e b86c 7a3e 10b6 343e
00000180: 37b1 753e 3e47 573d 1ee1 983d 66fc d4bd
00000190: b248 22bd cfed f53d b503 853e 4816 ef3d
000001a0: 73a7 723e 8fd3 b23d 52eb 8e3e 04c5 2fbe
000001b0: 7f2f 093e c8c2 913d 94e5 f0bd 5252 fabd
000001c0: ca52 1f3e 2cc8 873e 1fde 37bd a4cc d33d
000001d0: 2715 153e b9f7 8b3d f85a c63d 2a39 843e
000001e0: a8d4 173f 06c3 bbbd 5a47 073e 9e7c 673e
000001f0: 17db 533d 4d44 933d 9a4e 8abe c3a5 113b

bn2.running_mean f4 [128]
0.007358277 0.018871367 0.27032974 0.051730767 0.00021700906 0.17264499 0.047202446 0.027434908
0.064624466 0.00011557317 0.00020850195 0.15000024 0.03253306 0.024529107 0.28695655 6e-45
0.015001216 0.05598796 0.02554678 7.899959e-05 5.0874965e-05 2.7205306e-05 0.00016578895 0.014461852
0.013269895 0.15324919 0.02265934 0.26371238 0.008185817 0.082678124 0.10682965 0.051342774
0.13219237 0.023869215 0.08837558 0.041956853 0.035514515 0.00020399931 0.013649601 0.0026434914
0.11224725 0.052652158 0.17859033 0.19885086 0.010310631 0.018407142 0.42570338 0.16543391
0.009878033 0.21483737 0.020233452 0.106805906 8.663887e-05 0.042154107 0.36873427 0.00013750819
0.20877482 0.25715706 2.5343838e-06 0.00476115 0.40629122 0.00031292188 0.27546605 1.7433e-11
0.00022718498 0.08562015 0.06129436 0.10444925 0.060210634 0.047403265 0.108471036 0.047597144
0.046377677 0.02823743 0.15719996 0.05164873 0.049082913 0.054620452 0.039106343 0.03520641
0.14907192 0.27955043 4.3888664e-05 0.21524127 0.07877809 0.14427945 0.00013974289 0.0004971816
0.022114685 0.48743504 0.049625352 0.3496819 0.049387425 0.1646601 0.002767975 0.028610004
0.04470737 0.07514849 0.19241276 1.2038599e-05 0.000103780505 0.02227358 0.02139661 0.084142335
0.071624294 0.095653936 0.020223401 0.1585156 0.037886634 0.06624144 0.062319595 1.1338323e-13
0.18383035 0.010877588 0.06738155 0.18606499 0.03750648 0.00023863606 0.011368782 0.0982382
0.018181615 0.26504347 0.06888537 0.10492237 0.070288695 0.11423626 0.015143414 0.009933542
00000000: b41d f13b 2098 9a3c a968 8a3e a4e3 533d
00000010: ed8c 6339 d9c9 303e 5a57 413d 2cbf e03c
00000020: d559 843d e05f f238 51a1 5a39 aa99 193e
00000030: 6341 053d 44f1 c83c f8eb 923e 0400 0000
00000040: a9c7 753c a253 653d 7b47 d13c 95ac a538
00000050: 9462 5538 f336 e437 a2d7 2d39 67f1 6c3c
00000060: f969 593c 5bed 1c3e 15a0 b93c 4f05 873e
00000070: ce1d 063c 2653 a93d 81c9 da3d cd4c 523d
00000080: 705d 073e 5f89 c33c 42fe b43d f3da 2b3d
00000090: ab77 113d a6e8 5539 93a2 5f3c 6d3e 2d3b
000000a0: e3e1 e53d caa9 573d 62e0 363e 8f9f 4b3e
000000b0: eced 283c 93ca 963c cbf5 d93e 8267 293e
000000c0: 79d7 213c 54fe 5b3e a0c0 a53c 0ebd da3d
000000d0: e4b1 b538 c9a9 2c3d bdca bc3e 1330 1039
000000e0: 11c9 553e 17aa 833e 6214 2a36 6c03 9c3b
000000f0: 6705 d03e aa0f a439 e309 8d3e a057 992d
00000100: 8138 6e39 9e59 af3d cb0f 7b3d 7de9 d53d
00000110: 6d9f 763d ed29 423d 1026 de3d 39f5 423d
00000120: 85f6 3d3d 2f52 e73c 07f9 203e 9e8d 533d
00000130: 2a0b 493d b2b9 5f3d f92d 203d 9934 103d
00000140: 4fa6 183e 3c21 8f3e 1815 3838 3568 5c3e
00000150: 6856 a13d febd 133e f287 1239 4b55 023a
00000160: db29 b53c 1691 f93e f443 4b3d 8209 b33e
00000170: 784a 4a3d a89c 283e ea66 353b 875f ea3c
00000180: 131f 373d 74e7 993d da07 453e 64f9 4937
00000190: bca4 d938 1577 b63c f247 af3c d152 ac3d
000001a0: c2af 923d 36e6 c33d 8cab a53c ea51 223e
000001b0: 042f 1b3d 98a9 873d d542 7f3d fb50 ff29
000001c0: 063e 3c3e e937 323c 57ff 893d d287 3e3e
000001d0: 65a0 193d 613a 7a39 2144 3a3c 1c31 c93d
000001e0: 9cf1 943c c7b3 873e c613 8d3d 8ae1 d63d
000001f0: 85f3 8f3d b3f4 e93d 151c 783c 4cc0 223c

bn2.running_var f4 [128]
0.00075214443 0.0018627917 0.019373048 0.005021373 2.4412187e-05 0.01004854 0.00614143 0.002211559
0.006941365 4.0043888e-05 7.6668235e-05 0.0114672445 0.002830594 0.0023147233 0.0028933338 6e-45
0.0011212841 0.0061575654 0.0028164003 7.037594e-06 2.7897613e-06 4.998174e-06 1.8716502e-05 0.0012015038
0.0009702008 0.027848877 0.0019470201 0.03164891 0.00033936973 0.010040234 0.00047084433 0.0061106314
0.016393444 0.0013297623 0.0013810024 0.003454104 0.0027033284 1.9523663e-05 0.00076793006 0.00018592639
0.013175801 0.0038887616 0.001679278 0.008395864 0.00046754946 0.0006341751 0.024743335 0.028530631
0.0006567367 0.005655077 0.0024835693 0.0063380185 2.172871e-05 0.0047852173 0.015337584 1.3045744e-05
0.012551713 0.013804617 4.7885135e-07 0.00047085347 0.019630842 5.342452e-05 0.04033927 4.0801363e-13
2.504266e-05 0.0032489158 0.007986987 0.0034223134 0.0064849383 0.003783557 0.005245743 0.0028153483
0.002476991 0.0023655682 0.033392437 0.00070206 0.0030007088 0.002542307 0.0035894404 0.0029264328
0.013966766 0.0060431454 6.2817358e-06 0.0041015423 0.010380871 0.009077235 1.754963e-05 5.6508175e-05
0.001577873 0.0048905206 0.0053098253 0.013716959 0.0043970426 0.005859589 0.00016343518 0.0019403339
0.0026606345 0.007992337 0.017316286 5.8781205e-07 8.658317e-06 0.0020100689 0.0011882737 0.007061658
0.00956058 0.012827501 0.0017532681 0.023262255 0.0025466436 0.005848158 0.0070811454 8.4258084e-16
0.008493133 0.00075328717 0.006391011 0.020357888 0.0036484576 6.931364e-05 0.00068477757 0.0066444334
0.0021906313 0.0027906885 0.0031763623 0.004882041 0.0072919624 0.0015604555 0.000850557 0.000635683
00000000: 8f2b 453a eb28 f43a 3ab4 9e3c 548a a43b
00000010: c6c8 cc37 a2a2 243c 0d3e c93b ceef 103b
00000020: 6474 e33b ccf4 2738 f2c8 a038 1ce1 3b3c
00000030: 7d81 393b 9db2 173b 169e 3d3b 0400 0000
00000040: 0df8 923a 67c5 c93b 5b93 383b 7924 ec36
00000050: bc37 3b36 fdb5 a736 6201 9d37 c77b 9d3a
00000060: 1355 7e3a 5423 e43c 2733 ff3a 4aa2 013d
00000070: 6fed b139 cb7f 243c a8db f639 b13b c83b
00000080: 8b4b 863c 6b4b ae3a c002 b53a 405e 623b
00000090: 532a 313b bfc6 a337 ea4e 493a 3cf5 4239
000000a0: 51df 573c 98da 7e3b 381b dc3a ce8e 093c
000000b0: 6d21 f539 c53e 263a 89b2 ca3c 12b9 e93c
000000c0: db28 2c3a 394e b93b 61c3 223b 27af cf3b
000000d0: 0d46 b637 50cd 9c3b 7d4a 7b3c 0bdf 5a37
000000e0: b3a5 4d3c c32c 623c 6a8a 0035 e2dc f639
000000f0: dcd0 a03c 2414 6038 ca3a 253d f6b0 e52a
00000100: b412 d237 c3eb 543b dadb 023c e448 603b
00000110: 9b7f d43b 8ef5 773b 7be4 ab3b b581 383b
00000120: 0355 223b a607 1b3b 82c6 083d 730a 383a
00000130: 8aa7 443b d59c 263b d13c 6b3b 65c9 3f3b
00000140: ddd4 643c 9405 c63b b3c7 d236 3b66 863b
00000150: 8714 2a3c afb8 143c 8b37 9337 3103 6d38
00000160: a2d0 ce3a a940 a03b 0bfe ad3b 19bd 603c
00000170: 1115 903b cc01 c03b cc5f 2b39 cd52 fe3a
00000180: 0a5e 2e3b 4bf2 023c e2da 8d3c 23ca 1d35
00000190: 3043 1137 5cbb 033b d9bf 9b3a 7b65 e73b
000001a0: fba3 1c3c 702a 523c eacd e53a 7c90 be3c
000001b0: 97e5 263b e8a1 bf3b f408 e83b 7edb 7226
000001c0: c826 0b3c 3f78 453a b06b d13b 96c5 a63c
000001d0: f61a 6f3b 7a5c 9138 a582 333a 8cb9 d93b
000001e0: b290 0f3b fce3 363b 842a 503b 87f9 9f3b
000001f0: 6af1 ee3b 3388 cc3a eaf7 5e3a f7a3 263a

fc2.weight f4 [128, 128]
0.09316277 0.105285265 -0.007816184 -0.001000889 0.012931446 0.092025414 -0.10911438 0.060736425
-0.14676791 -0.0051703663 -0.09076685 0.08012176 -0.09663407 0.04241872 0.034333866 0.008859898
-0.0151371155 -0.05958298 -0.07222659 0.021291574 0.017324489 -0.054517508 -0.23990364 0.030639865
0.07043963 -0.008588055 0.037277203 -0.08947015 -0.11345722 -0.03062702 -0.07917771 0.047086116
-0.03407431 -0.022795085 -0.11866899 -0.031621646 0.0016393154 -0.12559459 -0.10398027 -0.046803944
-0.1809711 0.054910664 -0.10948492 -0.14845677 -0.0038623791 -0.012083254 0.07362186 0.09434882
-0.12008716 -0.0011211234 -0.022643264 -0.03510256 -0.06702746 -0.04206543 -0.08735168 0.017662324
0.0018417995 0.04493839 -0.0027091953 0.023636455 0.040610943 -0.041806694 -0.013629003 -0.14521834
-0.067649454 -0.10805045 -0.020477287 0.0400874 0.03279366 0.0046966313 -0.008224065 -0.29582113
-0.13842605 0.0657645 0.013179001 0.13897946 -0.0032592164 -0.028279232 0.056528125 0.031984404
-0.061204243 -0.029902024 0.0016766966 -0.052964766 -0.07033051 0.037906993 -0.10864162 -0.017353322
0.04355151 -0.018191101 -0.14865273 0.03181206 0.08789087 -0.012091446 0.1115375 -0.054462608
-0.037490077 -0.056177057 0.040897686 -0.0749134 0.011642612 -0.010008425 -0.0021915492 0.081108734
0.043543816 0.082029976 -0.05366743 -0.027754927 -0.10178517 0.023284327 0.029506948 0.014809287
0.011462551 -0.09116102 -0.028906744 -0.0006413742 -0.069513865 0.031434454 0.0038198696 -0.030649882
-0.13822033 -0.1353871 0.0043334416 -0.044531655 -0.009445184 0.13049461 0.040742815 0.019352602
0.081800796 0.07267699 -0.032782454 -0.08661175 -0.058195483 0.01767627 0.05460508 -0.15779135
0.07586001 -0.014862189 0.04014482 -0.09406632 0.14683864 -0.08175081 -0.04819551 0.12666808
-0.15093085 0.09359787 0.058479834 -0.020542163 -0.024878284 -0.22421 0.23587486 0.02383626
0.022166306 -0.018864645 0.15208961 -0.08951214 0.18842207 0.04786371 -0.057211656 0.08440319
-0.025308512 0.09384653 0.11391267 0.038811292 -0.20529956 -0.06366237 -0.009582585 -0.011182598
-0.046653576 -0.0013840542 0.013889865 0.029211532 0.052966513 -0.03197376 0.016614864 0.01935723
-0.12782137 -0.047258887 0.07343687 -0.10072171 0.020815235 -0.062701285 -0.009358309 -0.0045591122
0.11831543 -0.14035499 -0.026948916 0.09932455 0.08450652 -0.010330881 -0.09176701 0.14226142
-0.0076443744 0.11201175 -0.072631136 0.053433724 -0.089756966 0.0644985 -0.030944778 -0.042446434
0.12600468 -0.1730039 0.056872863 0.026468463 -0.09383878 0.012923429 0.16289401 0.04677138
-0.052996594 0.029858382 0.038802274 0.012652863 0.08113707 -0.01922854 -0.115449786 -0.0006775901
-0.028973633 0.08406859 0.009033266 -0.111671366 0.081454985 0.017648457 0.057327125 -0.08290521
0.08138461 0.03609862 0.08025715 -0.011447798 0.048341513 0.14051561 -0.03199328 -0.08754711
-0.020833984 -0.120162465 0.079971105 0.0033086913 -0.081439406 0.07736687 -0.030368263 0.0029415335
-0.031252854 0.05520273 0.008994406 0.038337585 0.10047929 0.034979474 -0.033881962 0.14036153
0.07899739 -0.049760837 0.055787124 0.022028834 -0.053316526 0.0026234481 0.05494147 0.06852779
00000000: 1fcc be3d cd9f d73d 740f 00bc 4330 83ba
00000010: 6ade 533c d277 bc3d 5c77 dfbd c2c6 783d
00000020: 544a 16be 2d6c a9bb f8e3 b9bd e116 a43d
00000030: 15e8 c5bd 40bf 2d3d aba1 0c3d 1b29 113c
00000040: aa01 78bc 480d 74bd 89eb 93bd ab6b ae3c
00000050: 16ec 8d3c c04d 5fbd 4da9 75be 7400 fb3c
00000060: a742 903d eab4 0cbc fbaf 183d 203c b7bd
00000070: 425c e8bd 84e5 fabc ec27 a2bd 5fdd 403d
00000080: 8191 0bbd c2bc babc ba08 f3bd b385 01bd
00000090: 4cde d63a de9b 00be 9cf3 d4bd 7eb5 3fbd
000000a0: 7d50 39be 01ea 603d a139 e0bd 0d05 18be
000000b0: f81f 7dbb d7f8 45bc 0fc7 963d f439 c13d
000000c0: 42f0 f5bd a9f2 92ba 5e7e b9bc b4c7 0fbd
000000d0: b145 89bd cd4c 2cbd 70e5 b2bd 94b0 903c
000000e0: 8968 f13a 5111 383d c18c 31bb 3da1 c13c
000000f0: a957 263d 7f3d 2bbd 2f4c 5fbc 1eb4 14be
00000100: cc8b 8abd 8e49 ddbd fcbf a7bc af32 243d
00000110: a552 063d 33e6 993b 3bbe 06bc de75 97be
00000120: 8fbf 0dbe 8aaf 863d bdec 573c a250 0e3e
00000130: 9498 55bb d9a9 e7bc 098a 673d 1402 033d
00000140: 4db1 7abd 17f5 f4bc 9ac4 db3a 95f1 58bd
00000150: 7109 90bd 5d44 1b3d 7f7f debd 8e28 8ebc
00000160: 1163 323d 8105 95bc 6c38 18be 5d4d 023d
00000170: 2100 b43d 331b 46bc c66d e43d 2f14 5fbd
00000180: 328f 19bd ea19 66bd 5584 273d 326c 99bd
00000190: a7c0 3e3c 61fa 23bc 18a0 0fbb 561c a63d
000001a0: 005b 323d 55ff a73d 61d2 5bbd 4d5e e3bc
000001b0: be74 d0bd c6be be3c 8eb8 f13c a7a2 723c
000001c0: 6ccd 3b3c a1b2 babd d6cd ecbc e521 28ba
000001d0: 495d 8ebd 6ac1 003d c756 7a3b 7615 fbbc
000001e0: a189 0dbe eaa2 0abe 8bff 8d3b d366 36bd
000001f0: f9bf 1abc 61a0 053e f0e1 263d 5989 9e3c
00000200: 2d87 a73d acd7 943d e546 06bd 8061 b1bd
00000210: 635e 6ebd d3cd 903c 94a9 5f3d 0e94 21be
00000220: 7e5c 9b3d 8a80 73bc e56e 243d d8a5 c0bd
00000230: de5c 163e f86c a7bd a868 45bd 47b5 013e
00000240: 9e8d 1abe 3db0 bf3d 8d88 6f3d 0a48 a8bc
00000250: 8bcd cbbc 4e97 65be 2e89 713e 4344 c33c
00000260: 1d96 b53c 078a 9abc 61bd 1b3e 2452 b7bd
00000270: b7f1 403e bd0c 443d c556 6abd 94db ac3d
00000280: cc53 cfbc 9c32 c03d 0c4b e93d 97f8 1e3d
00000290: 0c3a 52be 6b61 82bd 4600 1dbc 3737 37bc
000002a0: d217 3fbd 2769 b5ba 5192 633c 064d ef3c
000002b0: 6af3 583d ebf6 02bd e51b 883c 0e93 9e3c
000002c0: 9be3 02be 8992 41bd 1266 963d 2f47 cebd
000002d0: b684 aa3c 8869 80bd 9853 19bc 9b64 95bb
000002e0: 5c4f f23d 38b9 0fbe f9c3 dcbc ab6a cb3d
000002f0: c111 ad3d db42 29bc 58f0 bbbd faac 113e
00000300: a97d fabb 6b66 e53d a2bf 94bd 52dd 5a3d
00000310: 80d2 b7bd ca17 843d e77f fdbc 50dc 2dbd
00000320: 5f07 013e ef27 31be 85f3 683d 64d4 d83c
00000330: 8c2e c0bd cabc 533c b0cd 263e 5993 3f3d
00000340: f512 59bd 9199 f43c 22ef 1e3d f44d 4f3c
00000350: 312b a63d 2c85 9dbc f070 ecbd 4da0 31ba
00000360: 1d5a edbc 272c ac3d 4400 143c f5b3 e4bd
00000370: dfd1 a63d 7f93 903c d9cf 6a3d 35ca a9bd
00000380: f9ac a63d 26dc 133d dc5d a43d 8c8f 3bbc
00000390: c001 463d 53e3 0f3e 630b 03bd e64b b3bd
000003a0: 08ac aabc bd17 f6bd e4c7 a33d a1d6 583b
000003b0: b4c9 a6bd 8672 9e3d ddc6 f8bc bec6 403b
000003c0: fe02 00bd 421c 623d 465d 133c df07 1d3d
000003d0: 16c8 cd3d a346 0f3d d0c7 0abd efba 0f3e
000003e0: 62c9 a13d 05d2 4bbd 0a81 643d d075 b43c
000003f0: 6e62 5abd 28ee 2b3b 4f0a 613d 4c58 8c3d

fc2.bias f4 [128]
-0.044285566 -0.025390116 -0.15460704 0.026113383 -0.12836027 -0.06465344 -0.07050717 -0.10974705
-0.14657037 -0.22406162 0.019282172 -0.07083648 -0.15062718 0.033979457 0.005900966 -0.14330903
-0.08005697 -0.11270834 -0.011443082 -0.1499901 -0.12602946 -0.16108452 -0.00268059 -0.061365407
0.042905033 0.16154507 0.026381427 -0.18490627 0.010482787 -0.1600629 0.024819883 -0.06197638
-0.07845623 -0.086484715 -0.006830224 0.06535986 0.015105962 -0.053631466 -0.114641115 0.036138207
-0.122560956 0.05915889 -0.06264085 -0.01666614 -0.03804721 0.104551926 -0.096190885 -0.035803765
-0.0052874633 -0.12493884 -0.08605821 -0.06941955 -0.019120183 -0.19278196 0.03539106 -0.09268286
-0.07447007 -0.056241143 -0.045588728 -0.08872994 0.036016356 -0.041135784 0.048031945 0.05289943
-0.013364963 -0.14105327 0.022407675 0.04525217 -0.016022945 -0.122845404 0.070928894 -0.06085562
-0.0070658163 0.18188675 -0.031683434 -0.13710961 -0.11533399 0.11754483 -0.06949563 -0.15451233
-0.09360667 -0.13726677 -0.17936243 -0.14663815 -0.029433718 -0.19811182 0.0408735 -0.06310364
-0.100774616 -0.16862826 -0.072006255 -0.06755802 -0.13027509 0.07044065 0.048943087 -0.106316105
-0.06901178 -0.22283855 -0.115352795 -0.07552008 -0.14388491 -0.12858005 -0.19636042 -0.120058015
0.046615858 0.06452887 -0.16089693 -0.019897236 -0.062360585 -0.10208924 -0.1248335 -0.22314753
-0.04434657 0.038894787 -0.074482486 -0.13207617 -0.08969653 -0.059894916 0.05428421 -0.21021469
-0.042771105 -0.02467957 -0.12362867 -0.16679378 -0.058228303 0.09834614 -0.034296107 -0.01247318
00000000: c864 35bd effe cfbc 4f51 1ebe bceb d53c
00000010: e070 03be 0669 84bd 1066 90bd 10c3 e0bd
00000020: 8b16 16be 6970 65be a5f5 9d3c b712 91bd
00000030: 033e 1abe 0b2e 0b3d e45c c13b 9abf 12be
00000040: e9f4 a3bd a1d3 e6bd c47b 3bbc 0197 19be
00000050: de0d 01be 57f3 24be d6ac 2fbb 4b5a 7bbd
00000060: 30bd 2f3d 126c 253e dd1d d83c 1258 3dbe
00000070: ffbf 2b3c 87e7 23be 1153 cb3c f2da 7dbd
00000080: a9ad a0bd e61e b1bd 12d0 dfbb 64db 853d
00000090: ff7e 773c abac 5bbd f6c8 eabd a805 143d
000000a0: 3d01 fbbd 9850 723d d949 80bd 6e87 88bc
000000b0: 64d7 1bbd 521f d63d baff c4bd f8a6 12bd
000000c0: 7542 adbb efdf ffbd 493f b0bd d62b 8ebd
000000d0: eea1 9cbc a268 45be 37f6 103d 83d0 bdbd
000000e0: c483 98bd 1d5d 66bd 3fbb 3abd 0bb8 b5bd
000000f0: e385 133d ff7d 28bd 25bd 443d 13ad 583d
00000100: b8f8 5abc 4570 10be 4d90 b73c 575a 393d
00000110: 8d42 83bc 5f96 fbbd 2b43 913d be43 79bd
00000120: 5d88 e7bb 8540 3a3e 7dc6 01bd 7666 0cbe
00000130: 3a34 ecbd 58bb f03d ba53 8ebd 7b38 1ebe
00000140: dbb4 bfbd a98f 0cbe c9aa 37be 5028 16be
00000150: fb1e f1bc d3dd 4abe f96a 273d 7b3c 81bd
00000160: ec62 cebd e3ac 2cbe 0478 93bd dc5b 8abd
00000170: d566 05be 3043 903d 8c78 483d 42bc d9bd
00000180: 0c56 8dbd ca2f 64be 163e ecbd 46aa 9abd
00000190: 9156 13be 7daa 03be b512 49be fae0 f5bd
000001a0: 45f0 3e3d b627 843d 2ac2 24be 87ff a2bc
000001b0: d06d 7fbd 2a14 d1bd b5a8 ffbd c980 64be
000001c0: c0a4 35bd 2450 1f3d 468a 98bd fa3e 07be
000001d0: d0b2 b7bd 5f54 75bd 1f59 5e3d 8542 57be
000001e0: c130 2fbd cf2c cabc 0731 fdbd fdcb 2abe
000001f0: cd80 6ebd b369 c93d 137a 0cbd 4f5c 4cbc

bn3.weight f4 [128]
1.0336369 1.5221412 1.1002452 1.4165051 1.262393 0.7444075 1.0978454 0.9150314
1.046435 0.9173238 1.0673044 0.94604504 1.4411553 1.4470236 1.1061636 0.68353266
0.8887407 1.0846825 0.89119786 1.3453069 0.7030439 1.1369421 0.6641521 1.0514826
1.180417 1.2595875 1.2887735 0.5803966 1.351032 1.2065923 1.3165134 0.705006
0.8472885 0.57167095 1.1704938 0.74494904 1.5700246 1.0211371 1.0052943 1.0314555
0.661715 1.5014092 0.69902104 0.7326398 1.3310945 0.8946187 0.83783454 0.8401313
1.1571282 0.9861624 0.83718324 1.4164101 0.8853289 0.98325694 1.1814295 0.835867
1.2372619 0.99776393 1.149858 1.1144191 1.1537182 0.9063587 0.897091 0.7148006
0.796914 1.2447034 1.2441336 1.4693383 0.985985 1.072155 0.95928115 0.59392637
1.1440439 1.1965668 1.0534127 1.3173804 1.0185996 1.1376793 0.93690467 0.60548383
1.0537199 0.88002414 0.67253655 0.70616627 1.4265338 0.74911356 0.91919684 1.0391803
0.6705899 0.9859975 0.9702863 0.7144464 0.66671634 1.1384822 1.458676 1.4167821
1.2980521 1.0053453 0.9179895 0.7546477 1.178131 0.70117307 0.6241649 0.75066525
1.3729464 1.1291671 1.3790911 1.1517291 0.9282896 1.0325702 0.86990786 0.7615536
1.1620271 0.69810426 1.051205 0.76603645 1.0604265 0.7762286 0.99486417 1.2962978
1.042343 0.8414735 1.3399394 1.2288848 1.4710969 1.243627 0.8714561 1.1397161
00000000: 374e 843f 86d5 c23f d6d4 8c3f 0a50 b53f
00000010: 1896 a13f 7d91 3e3f 3386 8c3f 7f3f 6a3f
00000020: 95f1 853f bcd5 6a3f 6e9d 883f 0230 723f
00000030: c777 b83f 1238 b93f c596 8d3f fffb 2e3f
00000040: 8384 633f e0d6 8a3f 8b25 643f 0433 ac3f
00000050: affa 333f 5287 913f df05 2a3f fb96 863f
00000060: e717 973f 2a3a a13f 88f6 a43f df94 143f
00000070: 9eee ac3f 9e71 9a3f 8383 a83f 467b 343f
00000080: e6e7 583f 0759 123f bed2 953f fbb4 3e3f
00000090: 91f6 c83f 9fb4 823f 7cad 803f bc06 843f
000000a0: 2766 293f 2d2e c03f 0bf3 323f 488e 3b3f
000000b0: 4e61 aa3f bb05 653f 537c 563f d812 573f
000000c0: c71c 943f 2475 7c3f a451 563f ed4c b53f
000000d0: eaa4 623f bab6 7b3f 1539 973f 61fb 553f
000000e0: 995e 9e3f 756d 7f3f 8c2e 933f 49a5 8e3f
000000f0: 0aad 933f 2007 683f c1a7 653f 2cfd 363f
00000100: 8e02 4c3f 7152 9f3f c53f 9f3f 4713 bc3f
00000110: 8369 7c3f 603c 893f 7393 753f 8f0b 183f
00000120: 0870 923f 1a29 993f 3ad6 863f ec9f a83f
00000130: 7961 823f 7a9f 913f fcd8 6f3f fd00 1b3f
00000140: 4be0 863f 4349 613f 5b2b 2c3f 50c7 343f
00000150: a998 b63f e8c5 3f3f 7c50 6b3f dc03 853f
00000160: c8ab 2b3f 556a 7c3f af64 783f f6e5 363f
00000170: ecad 2a3f c9b9 913f e5b5 ba3f 1e59 b53f
00000180: 9226 a63f 28af 803f 5c01 6b3f 9730 413f
00000190: ffcc 963f 1480 333f 45c9 1f3f 992b 403f
000001a0: b5bc af3f 8c88 903f 0f86 b03f dc6b 933f
000001b0: 63a4 6d3f 432b 843f 48b2 5e3f 2df5 423f
000001c0: 4ebd 943f f6b6 323f e38d 863f f71a 443f
000001d0: 0ebc 873f ebb6 463f 6baf 7e3f 16ed a53f
000001e0: 7f6b 853f cf6a 573f 2283 ab3f 194c 9d3f
000001f0: e74c bc3f 2b2f 9f3f bf17 5f3f 38e2 913f

bn3.bias f4 [128]
0.040236756 0.09881459 0.07442676 -0.027157243 -0.022176795 0.021484014 0.110657975 0.052894097
-0.093629114 0.047830973 0.04223754 -0.052376013 0.13373505 -0.053705018 -0.01782824 0.09324439
-0.008594152 0.05530008 -0.008884862 0.12200931 0.0007533136 0.12390959 0.055538714 0.096432865
-0.003887654 0.04247054 -0.04927681 -0.0061272336 0.05573569 0.035576478 -0.022348389 0.053075586
0.0400624 -0.007565131 0.033708256 -0.11268783 -0.048658695 -0.040594354 0.014054707 0.02602753
-0.032148745 -0.044151317 -0.01745814 0.040727656 0.1422124 -0.07892302 -0.080444224 0.07225307
0.06956913 -0.010915062 -0.10063918 -0.053933352 -0.07040526 0.057205338 0.034434833 0.051663775
0.0039240057 -0.021709738 -0.10460358 -0.0023398537 -0.060606755 0.07040956 0.0061966027 0.077863246
0.0011557745 0.077271394 0.047169577 -0.0045697256 -0.06250499 0.08860082 0.08752288 0.032376744
-0.0072355988 -0.09176889 -0.038692005 -0.014523825 -0.017981065 -0.003544547 -0.059483442 0.04142727
-0.036418926 -0.015179125 0.048072733 0.0378058 0.06780684 0.007856258 -0.0047870423 0.03617112
-0.019747397 -0.071094856 0.04808646 0.08721728 -0.0016820924 0.0180648 0.07678554 -0.0026146201
-0.07182838 -0.08306467 -0.015791317 -0.08320903 -0.027895436 0.04565118 -0.006157993 0.009499774
0.0018783644 -0.11129884 0.0027612024 -0.016840953 -0.05383867 0.040072877 0.0496261 0.006182483
-0.00066820707 0.09149982 0.0714193 0.11712783 -0.06509425 0.0145447105 -0.05595853 0.029984292
-0.07986327 -0.0025798187 0.13580027 0.02289699 0.113475524 0.13809529 0.14082152 -0.015151859
00000000: 4ccf 243d 4e5f ca3d 0f6d 983d de78 debc
00000010: 1cac b5bc 3eff af3c a6a0 e23d 7ba7 583d
00000020: 9fc0 bfbd 69ea 433d 4501 2d3d 3b88 56bd
00000030: d7f1 083e cbf9 5bbd 870c 92bc eaf6 be3d
00000040: 7cce 0cbc 5682 623d d091 11bc 04e0 f93d
00000050: 057a 453a 50c4 fd3d 907c 633d 987e c53d
00000060: 03c8 7ebb 97f5 2d3d 7bd6 49bd f6c6 c8bb
00000070: 1b4b 643d a4b8 113d f813 b7bc c965 593d
00000080: 7918 243d ebe4 f7bb ab11 0a3d e1c8 e6bd
00000090: 574e 47bd 4446 26bd b745 663c b037 d53c
000000a0: 67ae 03bd 03d8 34bd 6004 8fbc 0bd2 263d
000000b0: 21a0 113e 64a2 a1bd f1bf a4bd 6bf9 933d
000000c0: 437a 8e3d 17d5 32bc ea1b cebd 38e9 5cbd
000000d0: a230 90bd 2550 6a3d 8a0b 0d3d 659d 533d
000000e0: f294 803b 9fd8 b1bc 673a d6bd 3b58 19bb
000000f0: ca3e 78bd e332 903d df0c cb3b c476 9f3d
00000100: 5b7d 973a 7740 9e3d e334 413d a3bd 95bb
00000110: 9e02 80bd 5974 b53d 323f b33d 7a9d 043d
00000120: 9a18 edbb 54f1 bbbd 827b 1ebd 56f5 6dbc
00000130: 074d 93bc a14b 68bb e9a4 73bd a4af 293d
00000140: 032c 15bd ddb1 78bc eae7 443d 41da 1a3d
00000150: 50de 8a3d 89b7 003c 9fdc 9cbb 2b28 143d
00000160: 4bc5 a1bc 2e9a 91bd 4ff6 443d f99e b23d
00000170: a879 dcba a2fc 933c bd41 9d3d 0c5a 2bbb
00000180: c21a 93bd cf1d aabd cb5c 81bc 7f69 aabd
00000190: f884 e4bc bbfc 3a3d fdc8 c9bb f1a4 1b3c
000001a0: 7333 f63a a5f0 e3bd 4af5 343b 0af6 89bc
000001b0: f085 5cbd 7523 243d bd44 4b3d 6d96 ca3b
000001c0: 9e2a 2fba 4264 bb3d 4844 923d b7e0 ef3d
000001d0: 2250 85bd f04c 6e3c c634 65bd 9ea1 f53c
000001e0: 5b8f a3bd 2d12 29bb 3a0f 0b3e 7892 bb3c
000001f0: db65 e83d da68 0d3e 8433 103e 813f 78bc

bn3.running_mean f4 [128]
0.0074336133 0.25413847 0.00010697382 0.07943324 0.02388634 0.0020268965 0.14501618 0.0005038579
0.00018294783 1.509951e-05 0.013436069 0.0017086092 1.0242811e-18 0.13408981 0.041422054 0.02293979
3.9256147e-07 3.3817748e-06 0.12227278 0.046972916 0.10495686 0.00272921 3.6059153e-10 0.053285528
0.1498831 0.41914418 0.017412517 0.00087092153 0.20093213 6e-45 0.2083068 0.060514234
0.0011458081 0.031327628 0.48308325 0.056210987 0.0004906115 0.032683507 0.00038628167 0.10990074
0.00014166508 0.4838107 0.0005947488 0.048582684 0.02247737 0.12902437 0.017902786 0.14572755
0.0027990036 0.016680103 3.2517975e-05 0.089797355 0.12779842 0.0001429926 0.13049628 0.0006420194
0.025494216 0.063882135 0.01118619 0.000101925754 0.28827873 0.017706089 0.31295115 0.3613079
0.0008800102 0.0020004169 0.05565147 0.07608681 0.046176158 0.003426621 0.1627743 0.0075403797
0.043729007 0.7445249 0.093483195 0.010156834 0.00093418884 0.64985025 0.111168556 0.00018508981
6e-45 0.00027438017 0.00028622616 0.0005952278 0.016654013 0.0014662454 0.0643631 0.021301815
0.00027310848 6e-45 0.020160077 0.027896544 6e-45 0.16322657 0.34977344 0.13955641
0.00027282813 0.00015129554 0.002484378 0.036742013 9.328345e-05 0.0012320091 0.00038889283 0.003920082
0.020303246 0.057694323 6.6647895e-05 0.00044131986 0.05836466 0.0007543762 0.00013579147 0.00020110098
0.022662492 0.011762117 0.003237808 0.0034362199 1.1351113e-23 0.018977992 0.0886817 0.0010507389
0.030070314 0.051794093 6e-45 4.3364596e-36 0.002836823 0.06328216 0.07163348 0.06174198
00000000: ab95 f33b 701e 823e 2257 e038 e5ad a23d
00000010: 49ad c33c aed5 043b 1f7f 143e 5515 043a
00000020: afd5 3f39 e753 7d37 f522 5c3c 69f3 df3a
00000030: 3f28 9721 d74e 093e 2caa 293d 3aec bb3c
00000040: 3dc1 d234 73f2 6236 276a fa3d ac66 403d
00000050: 9ff3 d63d 8cdc 323b bf3c c62f ed41 5a3d
00000060: f57a 193e 119a d63e b2a4 8e3c 8e4e 643a
00000070: 27c1 4d3e 0400 0000 614e 553e c6dd 773d
00000080: f12e 963a 6651 003d b056 f73e 7e3d 663d
00000090: 619c 003a 24df 053d d985 ca39 a413 e13d
000000a0: ee8b 1439 09b6 f73e ebe8 1b3a a3fe 463d
000000b0: 7622 b83c f71e 043e dda8 923c 9a39 153e
000000c0: 7d6f 373b b6a4 883c e963 0838 ade7 b73d
000000d0: 97dd 023e 49f0 1539 d1a0 053e 314d 283a
000000e0: 3fd9 d03c a3d4 823d 4846 373c f9c0 d538
000000f0: 4599 933e 5c0c 913c 223b a03e 59fd b83e
00000100: 7cb0 663a 6d19 033b ccf2 633d 67d3 9b3d
00000110: 3623 3d3d 2991 603b 4eae 263e 4a15 f73b
00000120: 301d 333d 2f99 3e3f 1e74 bf3d d968 263c
00000130: 5ae4 743a 965c 263f 57ac e33d ab14 4239
00000140: 0400 0000 afda 8f39 a010 9639 1009 1c3a
00000150: ff6d 883c 082f c03a cdd0 833d 2581 ae3c
00000160: 0030 8f39 0400 0000 bf26 a53c 4b87 e43c
00000170: 0400 0000 de24 273e 8115 b33e e0e7 0e3e
00000180: 5f0a 8f39 16a5 1e39 f2d0 223b cb7e 163d
00000190: 2ca1 c338 5e7b a13a 50e4 cb39 0874 803b
000001a0: fe52 a63c e250 6c3d 51c5 8b38 f360 e739
000001b0: c80f 6f3d 54c1 453a 3f63 0e39 a2de 5239
000001c0: b1a6 b93c e5b5 403c 6731 543b 3432 613b
000001d0: fd8f 5b19 bc77 9b3c c09e b53d f2b8 893a
000001e0: 0556 f63c 0b26 543d 0400 0000 dd73 b804
000001f0: fee9 393b 149a 813d 93b4 923d 29e5 7c3d

bn3.running_var f4 [128]
0.0017595371 0.10426785 7.0419475e-05 0.030257152 0.008444509 0.0018117736 0.061380286 0.00014278604
8.718735e-05 1.2354664e-06 0.005017132 0.0012273744 2.7261e-20 0.06315577 0.011108348 0.0063898154
6.889238e-08 5.3148517e-07 0.029792087 0.020743888 0.05187306 0.0028290064 1.7450891e-10 0.013002029
0.033738136 0.14048173 0.0043496187 0.0010873437 0.09958533 6e-45 0.101365335 0.016689027
0.0011776428 0.014795234 0.22868335 0.010996168 7.6348224e-05 0.012273609 0.00011825457 0.037196737
4.7264144e-05 0.140518 0.00046904187 0.016269898 0.015245586 0.03393545 0.0026995805 0.05774923
0.003624544 0.0051513193 1.1254768e-05 0.044782925 0.056367908 3.656981e-05 0.04008815 0.00038436204
0.004963093 0.021653123 0.0021644358 4.0211726e-05 0.08353649 0.0060071903 0.13638307 0.13996582
0.00078359526 0.00056417915 0.015227172 0.026757399 0.011966333 0.0042785057 0.04426824 0.0031516533
0.009503964 0.12793663 0.043897144 0.012341524 0.0009591666 0.2587328 0.051069774 0.0001252159
6e-45 0.0002060479 9.717966e-05 0.000777072 0.0036615697 0.0014435649 0.024997983 0.008276176
0.00015244735 6e-45 0.009834185 0.011276807 6e-45 0.07058258 0.20808779 0.06957671
9.490461e-05 8.313007e-05 0.0004888666 0.011520725 8.763861e-05 0.0006239103 0.00016899167 0.0012609876
0.0061824177 0.022549443 3.7176156e-05 0.00037227623 0.0144395465 0.0006004194 8.643834e-05 0.00013983667
0.0054845456 0.0018348242 0.00085647916 0.0044584824 1.5394925e-24 0.005253923 0.023934752 0.0012107339
0.009022852 0.015772127 6e-45 1.4577099e-36 0.00060105417 0.02099064 0.020601517 0.016196704
00000000: 45a0 e63a 628a d53d 2bae 9338 d9dd f73c
00000010: d65a 0a3c 0979 ed3a e569 7b3d d6b8 1539
00000020: 5ad8 b638 4dd2 a535 c166 a43b dadf a03a
00000030: 87bc 001f d057 813d caff 353c a861 d13b
00000040: fdf1 9333 62ab 0e35 890e f43c 16ef a93c
00000050: d978 543d da66 393b e4df 3f2f 7606 553c
00000060: 0031 0a3d 71da 0f3e 3f87 8e3b 3385 8e3a
00000070: 65f3 cb3d 0400 0000 a198 cf3d 6db7 883c
00000080: 235b 9a3a b667 723c f82b 6a3e 4529 343c
00000090: 241d a038 3f17 493c 70ff f738 9b5b 183d
000000a0: 7d3d 4638 f3e3 0f3e bce9 f539 7348 853c
000000b0: 9fc8 793c e6ff 0a3d 72eb 303b 758a 6c3d
000000c0: c289 6d3b 66cc a83b dcd2 3c37 4d6e 373d
000000d0: 09e2 663d 8962 1938 7933 243d 3384 c939
000000e0: 71a1 a23b e461 b13c 35d9 0d3b 03a9 2838
000000f0: 2e15 ab3d f7d7 c43b 01a8 0b3e 3353 0f3e
00000100: 306a 4d3a 6ce5 133a 637b 793c 5532 db3c
00000110: 700e 443c b532 8c3b 9d52 353d f88b 4e3b
00000120: 84b6 1b3c d201 033e 7ecd 333d 1a34 4a3c
00000130: 9570 7b3a a078 843e 8a2e 513d 634c 0339
00000140: 0400 0000 900e 5839 efcc cb38 6bb4 4b3a
00000150: f2f6 6f3b 0036 bd3a 92c8 cc3c cc98 073c
00000160: 46da 1f39 0400 0000 901f 213c 5bc2 383c
00000170: 0400 0000 9a8d 903d f714 553e 3c7e 8e3d
00000180: 8607 c738 1e56 ae38 4827 003a 6cc1 3c3c
00000190: 9fca b738 e98d 233a 5b33 3139 b947 a53a
000001a0: e195 ca3b 9cb9 b83c 98ed 1b38 122e c339
000001b0: d993 6c3c 7765 1d3a 3b46 b538 1fa1 1239
000001c0: b4b7 b33b 7c7e f03a 5885 603a 7618 923b
000001d0: 9539 ee17 1a29 ac3b d012 c43c 7db1 9e3a
000001e0: 96d4 133c 8c34 813c 0400 0000 3904 f803
000001f0: 1090 1d3a 90f4 ab3c 83c4 a83c f3ae 843c
