mode_weights/agent0_critic_target.pth (torch_old, 93523 bytes, 17 tensors)

bn1.weight f4 [33]
000000 c3 15 fe 3e 5a aa 44 3f a8 33 b5 3d 00 33 07 3e
       0.49625978 0.76822436 0.08847743 0.13203049
000010 86 66 9d 3e fb 52 22 3f 86 ed fa 3e 67 7d 65 3f
       0.30742282 0.6340787 0.4900934 0.89644474
000020 12 48 e9 3e d3 de 21 3f 2a a2 b2 3e e4 ad cd 3e
       0.45562798 0.6323063 0.34889346 0.4017173
000030 80 e4 b6 3c 5c e9 2c 3e 8c 78 96 3e d8 bd 04 3f
       0.022325754 0.16885895 0.29388845 0.5185218
000040 58 9a 32 3f 8c cd 4c 3f 70 e5 24 3e 82 85 90 3e
       0.6976676 0.8000114 0.16103148 0.28226858
000050 e6 7d 2e 3f 27 4a 6a 3f ae 50 cb 3e ae c8 5f 3f
       0.68160856 0.915194 0.3970999 0.8741559
000060 b0 bc d6 3e 51 8b 0d 3f a5 e6 73 3f 90 21 14 3d
       0.41940832 0.55290705 0.9527381 0.03616482
000070 45 ad 3d 3e 90 30 bf 3e 12 36 9c 3e 94 97 6e 3f
       0.18523128 0.37341738 0.30510002 0.9320004
000080 cc 21 34 3e
       0.17591017

bn1.bias f4 [33]
000000 00 00 00 00 00 00 00 00 00 00 00 00 00 00 00 00
       0.0 0.0 0.0 0.0
000010 00 00 00 00 00 00 00 00 00 00 00 00 00 00 00 00
       0.0 0.0 0.0 0.0
000020 00 00 00 00 00 00 00 00 00 00 00 00 00 00 00 00
       0.0 0.0 0.0 0.0
000030 00 00 00 00 00 00 00 00 00 00 00 00 00 00 00 00
       0.0 0.0 0.0 0.0
000040 00 00 00 00 00 00 00 00 00 00 00 00 00 00 00 00
       0.0 0.0 0.0 0.0
000050 00 00 00 00 00 00 00 00 00 00 00 00 00 00 00 00
       0.0 0.0 0.0 0.0
000060 00 00 00 00 00 00 00 00 00 00 00 00 00 00 00 00
       0.0 0.0 0.0 0.0
000070 00 00 00 00 00 00 00 00 00 00 00 00 00 00 00 00
       0.0 0.0 0.0 0.0
000080 00 00 00 00
       0.0

bn1.running_mean f4 [33]
000000 00 00 00 00 00 00 00 00 00 00 00 00 00 00 00 00
       0.0 0.0 0.0 0.0
000010 00 00 00 00 00 00 00 00 00 00 00 00 00 00 00 00
       0.0 0.0 0.0 0.0
000020 00 00 00 00 00 00 00 00 00 00 00 00 00 00 00 00
       0.0 0.0 0.0 0.0
000030 00 00 00 00 00 00 00 00 00 00 00 00 00 00 00 00
       0.0 0.0 0.0 0.0
000040 00 00 00 00 00 00 00 00 00 00 00 00 00 00 00 00
       0.0 0.0 0.0 0.0
000050 00 00 00 00 00 00 00 00 00 00 00 00 00 00 00 00
       0.0 0.0 0.0 0.0
000060 00 00 00 00 00 00 00 00 00 00 00 00 00 00 00 00
       0.0 0.0 0.0 0.0
000070 00 00 00 00 00 00 00 00 00 00 00 00 00 00 00 00
       0.0 0.0 0.0 0.0
000080 00 00 00 00
       0.0

bn1.running_var f4 [33]
000000 00 00 80 3f 00 00 80 3f 00 00 80 3f 00 00 80 3f
       1.0 1.0 1.0 1.0
000010 00 00 80 3f 00 00 80 3f 00 00 80 3f 00 00 80 3f
       1.0 1.0 1.0 1.0
000020 00 00 80 3f 00 00 80 3f 00 00 80 3f 00 00 80 3f
       1.0 1.0 1.0 1.0
000030 00 00 80 3f 00 00 80 3f 00 00 80 3f 00 00 80 3f
       1.0 1.0 1.0 1.0
000040 00 00 80 3f 00 00 80 3f 00 00 80 3f 00 00 80 3f
       1.0 1.0 1.0 1.0
000050 00 00 80 3f 00 00 80 3f 00 00 80 3f 00 00 80 3f
       1.0 1.0 1.0 1.0
000060 00 00 80 3f 00 00 80 3f 00 00 80 3f 00 00 80 3f
       1.0 1.0 1.0 1.0
000070 00 00 80 3f 00 00 80 3f 00 00 80 3f 00 00 80 3f
       1.0 1.0 1.0 1.0
000080 00 00 80 3f
       1.0

fcs1.weight f4 [128, 33]
000000 aa 93 38 ba aa 67 97 b8 4f a6 0f 3b f5 4b 52 38
       -0.00070410466 -7.21955e-05 0.0021919196 5.0138642e-05
000010 88 b1 39 b9 31 b5 7b 39 a5 b4 c2 38 45 d4 46 ba
       -0.0001770911 0.00024004724 9.2842885e-05 -0.0007584731
000020 d2 e6 84 39 75 35 39 ba 63 e3 09 bb eb e7 ca ba
       0.00025348976 -0.00070651557 -0.0021040074 -0.0015480494
000030 77 51 a5 3a 35 d7 f4 ba 10 8d 3d ba cb a2 a2 3a
       0.0012612779 -0.0018679859 -0.0007230798 0.0012408135
000040 e0 b1 17 3a 37 14 9a ba d6 e6 d8 b9 c4 2e 24 3a
       0.00057866983 -0.0011755292 -0.00041370717 0.0006263072
000050 dc 42 55 3b 45 e6 8d b9 d4 19 68 3a 97 d9 9e ba
       0.0032541072 -0.0002706518 0.00088539463 -0.001211929
000060 52 63 83 ba e0 99 14 3b bc ec ef ba d0 36 12 b7
       -0.0010024107 0.0022674724 -0.0018304805 -8.71504e-06
000070 d8 a2 43 3a 8c 0f 00 80 d0 36 12 37 1c 11 00 00
       0.0007462925 -5.577e-42 8.71504e-06 6.138e-42
000080 4b 1d f7 39 c6 21 ff 3c 6a 92 da bc 2c 87 28 3c
       0.00047133336 0.031144034 -0.026681144 0.010286134
000090 bd 09 3b 3c 85 59 97 ba 48 01 b8 3c b9 b5 f5 bc
       0.011415896 -0.0011547065 0.022461548 -0.029993879
0000a0 5e f0 ef bb 8c 57 3f 3c 22 bd 06 3c 63 00 c1 bb
       -0.007322355 0.011678588 0.008223804 -0.0058899387
0000b0 35 b8 99 ba 3b d7 0b bc 0f e4 71 bd 7f 2d 00 3d
       -0.0011727872 -0.008535202 -0.059055384 0.03129339
0000c0 87 5c a7 bc 43 96 3e bc 2c 08 ca 3a 76 e9 ad bb
       -0.020429863 -0.011632505 0.0015413812 -0.0053073717
0000d0 9b fe 22 3c 28 cf 3f ba 32 b0 aa bb 24 c0 3b bb
       0.009948398 -0.00073169405 -0.0052089924 -0.002864846
0000e0 c6 b4 b0 bc fb fa 5a 3b 59 5c 13 3b 23 2f c7 3c
       -0.021570574 0.0033413756 0.0022485463 0.024314469
0000f0 c6 f1 a7 3d f2 71 53 3d 88 3b 00 00 4f f8 a7 bd
       0.082004115 0.05162234 2.1356e-41 -0.08201658
000100 74 13 00 80 9a 7d 4e 3e 1c 67 12 bd e3 7e 9d bc
       -6.978e-42 0.201651 -0.035742864 -0.019225543
000110 7c 4c 4d 3d a3 ed 04 bd 72 f7 36 3b a5 55 10 bd
       0.05012177 -0.03245319 0.0027918485 -0.035237927
000120 63 b8 3a 3b f5 dd f8 bb cc 55 45 3c 68 61 49 bc
       0.002849125 -0.0075948187 0.012044381 -0.01229129
000130 f3 16 89 3c 14 62 1c bd 5a 84 ee bb 96 24 06 3d
       0.016734576 -0.038179472 -0.007278961 0.032749735
000140 7f 7f 90 bc 1a e0 75 bd 27 c1 58 3b 9c b2 1d 3b
       -0.01763892 -0.060028173 0.0033074112 0.0024062758
000150 6e 0d 33 3c 1a e8 31 bd c8 6b 9f bc 3a d8 63 bd
       0.010928495 -0.04343424 -0.019460574 -0.05562613
000160 ee af ce bc f2 9f 4a 3d 54 6c 61 bd 6d 85 db bc
       -0.025230374 0.049468942 -0.05503495 -0.02679702
000170 c1 39 c9 bc 7a a0 2b 3d 8a 2b c7 bb d1 34 00 80
       -0.024563672 0.04190109 -0.0060781883 -1.8947e-41
000180 8c d6 2b bd 34 0d 00 00 28 13 36 3a 01 fc 59 bc
       -0.041952655 4.736e-42 0.00069456035 -0.013304711
000190 03 51 a8 bd 0d 04 0d bd ac 89 01 bc 46 45 44 bb
       -0.08218577 -0.03442769 -0.007906359 -0.0029948517
0001a0 01 8e b9 bb 5d f1 16 bb 0d 77 fe ba c3 44 df bb
       -0.00566268 -0.0023032047 -0.0019414142 -0.006813617
0001b0 a6 91 a2 bc c7 71 d0 38 2c c1 f9 3b bc 7f 87 bc
       -0.019844841 9.9394056e-05 0.007621905 -0.0165404
0001c0 74 3f 39 3c 46 26 26 3e 8d fa 28 3d 42 8e d3 bc
       0.011306632 0.16225538 0.04125457 -0.02582467
0001d0 8a 74 20 bc 86 b6 50 bc 6e 4e d7 3c 9a c0 05 bc
       -0.00979341 -0.0127388295 0.026282515 -0.008163596
0001e0 28 2d 54 3b b4 b8 b2 39 15 29 14 3c 56 ed 0b 3d
       0.0032375548 0.0003408842 0.009042998 0.034161888
0001f0 d5 8a 9b 3b 92 b5 d5 bb 37 e1 62 3d 10 25 64 bc
       0.0047467747 -0.006521889 0.055390563 -0.013924852
000200 54 38 00 00 dc d9 64 bd c6 0c 00 00 2a 76 dd 3b
       2.0207e-41 -0.05587183 4.582e-42 0.006758471
000210 09 33 17 bb 98 c6 7e 3a 94 e2 f2 3a 91 f7 9b ba
       -0.002307119 0.0009718924 0.001853066 -0.0011899342
000220 41 11 bf b9 8b f0 f1 b7 1f ff 63 39 72 ee e5 39
       -0.00036443214 -2.884145e-05 0.00021743447 0.0004385594
000230 41 03 87 b7 78 8e bc b8 f6 12 11 ba a0 e2 10 bb
       -1.609477e-05 -8.9910754e-05 -0.00055341364 -0.0022107735
000240 fd 31 81 bb 4d fb 4a bb 31 d7 b2 39 b7 49 32 3b
       -0.0039427266 -0.003097254 0.00034111136 0.0027204582
000250 bc 34 f8 b9 d8 39 2c ba c7 0d da 38 0c 78 8f ba
       -0.00047341536 -0.00065698987 0.00010397616 -0.0010945811
000260 f4 3f 27 bb 4c a3 1d 3a 4d 04 be 39 b0 a6 a2 3b
       -0.0025520297 0.0006013408 0.00036242828 0.0049637184
000270 1f 57 05 bb d0 fe ea bb 19 e8 94 ba 5a 33 72 3a
       -0.0020346118 -0.0071714893 -0.0011360674 0.00092392194
000280 00 ed 22 3b 73 0b 00 00 5a 33 72 ba 7c 15 00 80
       0.0024860501 4.107e-42 -0.00092392194 -7.707e-42
000290 d5 df 68 b9 2e 8a de bc ef ef 27 3d 83 53 18 bd
       -0.00022208628 -0.027165499 0.041000303 -0.037189018
0002a0 94 f5 b9 bc 7a 57 89 3c 89 42 7a bc a1 be 91 bb
       -0.022700109 0.016765345 -0.015274652 -0.0044477736
0002b0 00 2b be bc 94 0a a6 bc f6 f4 cd 3c 24 c5 6f 3c
       -0.023213863 -0.020268716 0.02514122 0.014634404
0002c0 20 9c 49 3c 88 48 a4 3a d4 a3 54 3d 65 c1 c2 3c
       0.0123052895 0.0012533823 0.05191405 0.023773858
0002d0 72 84 09 3d 12 fa 0e 3d 0b 66 d0 3b bd 95 16 3d
       0.033573575 0.034906454 0.0063598207 0.036763895
0002e0 63 f0 c0 bc 27 73 78 3c 0c 00 c8 3a 57 15 74 bc
       -0.023552125 0.015164173 0.0015258803 -0.014897666
0002f0 9a 4f 42 3d 26 36 11 3b 3c 39 10 3d 56 b9 86 3b
       0.047439195 0.002215752 0.035210833 0.0041114492
000300 ae 13 92 3d 3c f8 6b bd c5 09 00 00 ba 54 9d bd
       0.0713266 -0.05760978 3.505e-42 -0.07682176
000310 05 0b 00 00 97 cb 57 3e cd f7 48 bd c8 dd 99 3d
       3.953e-42 0.21073757 -0.049064446 0.075130045
000320 e9 96 dd 3c a4 ea f5 bc fd 3e a1 bc d2 19 a1 bc
       0.027049499 -0.030019112 -0.019683355 -0.019665632
000330 ef 3d 80 bd d9 ed 60 3b a7 94 c2 bc e0 7e 9d 3b
       -0.06261813 0.0034321456 -0.023752524 0.0048063844
000340 8d 07 38 bb bf 7d 7a 3b 64 3c b5 3b d0 75 d3 3b
       -0.0028080672 0.0038221923 0.0055308808 0.0064532533
000350 2a 13 72 bd d5 cb d2 bc 76 cf 6d 3c 97 cd ab 3b
       -0.059100308 -0.02573196 0.014514795 0.005243014
000360 b0 f5 05 3a 6e d2 5d 3c ef d3 06 3c fa 8c 2e bc
       0.00051101577 0.01353894 0.00822924 -0.010653729
000370 58 00 a4 bc 52 5c a4 bc f7 ec 92 bc ac f6 5f b9
       -0.020019695 -0.020063553 -0.01793526 -0.0002135883
000380 1e eb 9c 3c f6 df 90 3d 00 85 01 bd 9b 15 00 80
       0.019155081 0.07073967 -0.03162098 -7.75e-42
000390 19 d2 90 bd a8 0c 00 00 3c 2e 52 3e 4f 66 bc 3d
       -0.07071323 4.54e-42 0.2052545 0.09199201
0003a0 76 24 9b 3c da ab 0f bc 81 d3 9a bb de 81 81 3b
       0.018938284 -0.008769 -0.0047249203 0.003952249
0003b0 d0 74 a8 bb bf 4b b0 3c e3 7d e5 ba 49 b7 98 3a
       -0.0051408783 0.021520494 -0.0017508831 0.0011651303
0003c0 c4 24 2f bb e1 dd 39 3c bc 58 33 3b a2 70 03 bb
       -0.0026724795 0.011344404 0.0027366122 -0.0020056148
0003d0 43 e1 ec bd 6f 7f 72 bc 10 c9 b3 3c 59 89 aa 3b
       -0.11566403 -0.01480089 0.02194646 0.0052043614
0003e0 55 d8 ff 3b 16 da 47 3b 43 9e 87 3a 40 64 9e ba
       0.007807771 0.003049498 0.0010346848 -0.001208432
0003f0 61 07 9c ba 21 5b bc bb 3d 43 61 bc b8 b4 bc ba
       -0.0011904055 -0.005748168 -0.013748941 -0.001439712

fcs1.bias f4 [128]
000000 7f 37 12 37 a4 d7 a7 bd 38 b1 2a bd 65 43 6c bd
       8.715199e-06 -0.08195427 -0.041672915 -0.05768146
000010 5a 33 72 ba b4 69 95 bd 20 b4 90 bd 52 d1 60 bb
       -0.00092392194 -0.07295552 -0.07065606 -0.0034304452
000020 99 94 12 bd 2e 8a 03 bd 7f 79 61 bd ea ab 0f bd
       -0.035786245 -0.0321142 -0.05504751 -0.03507606
000030 2a 1b 04 bd 54 6c bc bc 77 04 9f bc 5a bb 17 bd
       -0.03225247 -0.023000874 -0.019411309 -0.037043907
000040 57 48 4b bd ee 33 f7 bc 71 37 8b bd a4 8e 83 3b
       -0.049629536 -0.03017613 -0.06797684 0.004014807
000050 7e 22 27 3d 55 cd 4b 3b 45 85 80 bc 89 7a 93 3c
       0.04080438 0.003109773 -0.015688548 0.018002765
000060 12 82 aa bd ef 7f 42 bd f7 86 43 bc 4d b6 31 bd
       -0.0832559 -0.04748529 -0.011934034 -0.043386746
000070 69 3a 46 bd bb bb 31 bd 83 65 93 bd 0f ec 9a 3c
       -0.048395548 -0.043391924 -0.07197096 0.01891139
000080 d5 df 11 bd a3 78 37 bc 11 f9 23 bd 9e af 05 bc
       -0.035613853 -0.011198196 -0.04003245 -0.008159546
000090 c7 74 6c bd 85 44 a7 bc 87 98 e7 bc 6c 41 af bd
       -0.057728555 -0.020418415 -0.028270973 -0.085574
0000a0 64 61 27 38 88 b2 77 bc c0 56 28 bd 8d cb aa bd
       3.9906605e-05 -0.015118249 -0.041098356 -0.083396055
0000b0 e7 00 90 bd 90 45 f3 bc ef d4 0a bc 12 72 05 bb
       -0.07031422 -0.029696256 -0.008473619 -0.002036218
0000c0 f8 6e 7d bd dc 05 21 3c 69 dc c7 bc 84 65 f7 bc
       -0.061873406 0.009828057 -0.024397092 -0.030199774
0000d0 3a fe b9 bd ad af ba bc a5 2b 95 bd 20 2f 46 bd
       -0.09081693 -0.022788847 -0.07283715 -0.048384786
0000e0 5d 1e 87 bd 8e 3b b5 bc b9 0c 25 bc e7 e4 26 3d
       -0.06597588 -0.022123124 -0.010073834 0.040745642
0000f0 01 28 df bc 51 10 c6 bd 1e 53 75 bd 53 b6 63 bc
       -0.027240755 -0.09671081 -0.05989372 -0.01389845
000100 57 66 bf bd c8 12 1e 3c 3d 02 83 3c 49 51 0f 3d
       -0.09345692 0.0096480325 0.015992278 0.03498963
000110 a9 df 12 bc 7b b0 77 bd 49 04 9a bd 83 5b 07 3b
       -0.008964458 -0.06047104 -0.075203486 0.002065391
000120 c8 a9 b8 bb 5f 5a 71 bd 72 26 84 bd 9e 8d ae ba
       -0.005635474 -0.058924075 -0.06452645 -0.0013317352
000130 a0 4b 89 bd 58 c3 09 bd 4a 11 38 bd d5 6e 50 bd
       -0.067038774 -0.03363356 -0.044938363 -0.050886948
000140 4b de 79 bb 86 f8 aa 3c 94 f2 7e bd de 53 08 bd
       -0.0038126882 0.020870458 -0.06224306 -0.033283107
000150 23 61 3c 3c 0c 5d 51 bd b9 50 b1 bd c2 33 99 bd
       0.011497769 -0.051114127 -0.08657975 -0.07480575
000160 bc 59 8f bd 55 79 cc bc 2f 53 94 bb be 85 a1 bd
       -0.06999537 -0.0249602 -0.004526518 -0.078868374
000170 a6 b1 70 3c 41 e6 16 bd 30 ae 4e bd fe f3 2d bd
       0.014690792 -0.03684068 -0.050459087 -0.042469017
000180 d4 03 8c bd 5c 68 ae bd 37 86 f1 bc df db 04 be
       -0.06836668 -0.08515999 -0.029482944 -0.12974499
000190 5c f1 95 bd 37 5d 9d bd 1c 11 53 bd eb 74 7c bc
       -0.07321426 -0.07683795 -0.05152999 -0.015408735
0001a0 d0 3c 1f bb 17 78 da 3c 85 8c 23 bd 4e 22 86 bc
       -0.0024297722 0.026668591 -0.03992893 -0.01637378
0001b0 bf 62 31 3d bb aa a5 bc 88 38 03 bd c5 5b 77 bd
       0.043307062 -0.020223012 -0.032036334 -0.060390253
0001c0 b7 bb 62 bd ca 13 1d 3b 51 9a c1 bd 1d 40 60 bd
       -0.0553548 0.0023968094 -0.09453262 -0.054748643
0001d0 73 58 a5 bc 83 e5 44 bd 69 50 cc bc dc ac 96 bd
       -0.020183777 -0.048070442 -0.024940686 -0.07357189
0001e0 f1 6e 20 39 f6 f6 80 3c a4 c7 b3 bd c8 50 0e bd
       0.00015300118 0.01574276 -0.08778313 -0.034745008
0001f0 31 c7 75 bd 6f 85 09 bb a6 61 d1 bd 01 36 0a 3d
       -0.060004417 -0.0020984074 -0.10223703 0.03374291

bn2.weight f4 [128]
000000 bb 07 56 b6 f5 4d 1a 3e e1 df 0e 3e 16 ef df 3d
       -3.1892985e-06 0.15068801 0.1395259 0.10934274
000010 81 26 2f b6 9d 69 35 3e 5f b9 20 3e df 71 81 3e
       -2.6099444e-06 0.1771607 0.15695713 0.2528219
000020 75 f1 99 3e f8 e4 93 3e 4a 03 9d 3d 52 7c b1 3d
       0.3006703 0.28885627 0.07666643 0.0866629
000030 05 c8 e3 bc ec 93 dd 3d 4d 75 00 3e 31 f6 e3 3d
       -0.027805338 0.108192295 0.12544747 0.11130942
000040 4b 34 3a 3e 6b 0d 54 3e 1b 1a 1d 3e ca 18 10 3f
       0.1818401 0.20708244 0.1534199 0.56287825
000050 4f 3e b2 3e 52 f7 5f 3e 2b 72 08 3e f7 3a 4b 3e
       0.34813163 0.21871689 0.13324802 0.19846712
000060 9b c0 06 3e 07 8a 30 3e 35 05 4a 3e a6 50 e4 3d
       0.1315941 0.17240153 0.19728549 0.11148195
000070 10 36 14 3e 61 90 2a 3e 2d 92 17 3e 20 d9 e6 3e
       0.14473748 0.16656639 0.14801855 0.45087528
000080 07 f4 aa 3e 05 a1 54 3e 03 43 54 3e 7b 0c 4d 3e
       0.33389303 0.20764549 0.20728688 0.20024292
000090 c2 de 02 3e 1a d7 ba 3d 4f 4c 19 3e c1 d8 50 3e
       0.12780288 0.091230586 0.14970516 0.20395185
0000a0 a3 70 5a 37 d5 8e 58 3e 3d cd 8d 3e 4a 16 52 3e
       1.3020038e-05 0.21148236 0.27695647 0.20516315
0000b0 54 77 51 3e 49 8b 0e 3f f5 5b d0 3e 11 17 ab 3e
       0.20455676 0.5568128 0.40695158 0.33416036
0000c0 4d 6d 13 3e 53 33 44 3e 5b f4 67 3e e2 e3 29 3e
       0.14397164 0.19160204 0.22651808 0.16590837
0000d0 53 43 01 3e f1 22 82 3e 2a 47 64 3e cc 21 6b 3e
       0.12623338 0.25417283 0.22292772 0.22962111
0000e0 46 29 69 3e f1 d4 65 3e b2 ef 41 3e 8b ea 57 3e
       0.22769651 0.22444512 0.18939093 0.21085565
0000f0 88 0f 4b 3e 2a 4e f0 3d 1f 0f 34 3e f2 a9 43 3e
       0.19830143 0.117336586 0.17583893 0.19107798
000100 62 67 5e 3d 96 79 b0 3e e3 b1 7b 3e 98 76 02 3e
       0.054297812 0.34467763 0.24579577 0.12740552
000110 41 cb 26 3e a3 c9 92 3e 52 32 76 3e b8 0c 3e 3e
       0.16288473 0.28669462 0.24042633 0.1855954
000120 b5 b5 27 3e 00 80 28 3e 59 09 b9 3e 01 f4 ae 3e
       0.1637791 0.16455078 0.36139944 0.34170535
000130 6f d1 5e 3e 96 95 49 3e e9 7a d4 3d b9 b2 c7 3d
       0.2175958 0.19685969 0.10375006 0.097508855
000140 23 7d 82 3e db bc 83 3e 9c 69 e2 3d 68 9d 86 3e
       0.25486097 0.25730023 0.110553 0.26291966
000150 bf d4 c7 3e 66 31 5d 3e ab 51 20 3e d2 73 48 3e
       0.390295 0.21600875 0.15656154 0.19575432
000160 7b 65 17 3e bb a2 9d 3e 97 84 92 39 d2 b3 39 3e
       0.14784805 0.30788216 0.00027946077 0.18135002
000170 0d 8c 20 3e 94 de 77 3e b6 ce be 3e 53 f3 55 3e
       0.15678425 0.24206 0.37267083 0.20893602
000180 4c b0 60 3e f8 94 f9 3d b7 14 16 3e a3 00 33 3e
       0.21942252 0.12186617 0.1465634 0.17480712
000190 40 94 83 3e 1f 89 b7 3d 78 e4 08 3e 2a 94 73 3e
       0.25699043 0.08961701 0.13368404 0.23786989
0001a0 0b 38 1b b6 56 3b ca 3e a4 2d 3c 3e 25 e0 68 3e
       -2.3129421e-06 0.39498395 0.18376786 0.22741754
0001b0 c8 ed 8c 3e ff f5 88 3e f2 96 90 3e 03 84 41 3e
       0.27525163 0.2675018 0.28240162 0.18898015
0001c0 c1 e0 83 3e 9f 87 83 3e 63 af 82 3e 37 c4 87 3e
       0.2575741 0.25689408 0.25524434 0.26516888
0001d0 34 f6 0b 3e 50 8d 83 3e 3f 1b a3 3e 7f ac 9f 3e
       0.13668138 0.2569375 0.31856725 0.31186292
0001e0 f6 ea 45 38 d4 5d f2 3e 5e 35 2b 3e e9 84 82 3e
       4.7187285e-05 0.4733721 0.16719577 0.25492027
0001f0 6b af 8d 3e d9 8c 86 3e 48 b6 b1 3e 2c 57 35 3e
       0.27672896 0.26279333 0.34709382 0.17709035

bn2.bias f4 [128]
000000 37 7d 8a 36 7c ce e9 bd eb 7b 13 3d 0b 9f 77 bd
       4.1272974e-06 -0.11416337 0.03600685 -0.06045441
000010 fa be de 36 8d d4 92 bd 15 98 ca 3c 7b 84 14 bd
       6.638348e-06 -0.07169447 0.024730721 -0.036259156
000020 aa 13 ef 3d f3 4c 08 bd e3 5c 86 bd 6f 00 3e bd
       0.116736725 -0.03327651 -0.065606855 -0.046387132
000030 79 ac 4c 3b 16 80 ed bc 92 36 17 bc 17 37 5b bd
       0.0031230731 -0.02899174 -0.009229319 -0.053519335
000040 a9 7b 4b 3d c3 01 d9 bc 9d db 85 3d 52 6d b3 bd
       0.04967848 -0.026490098 0.065360285 -0.087610856
000050 73 9a 5c 3d 34 08 ce 3d 82 d4 b6 bd 2f bf 82 bd
       0.05385823 0.10060158 -0.089272514 -0.063841216
000060 05 71 15 3d ec 00 d3 3d 68 76 b5 bd 97 60 0d bb
       0.036484737 0.1030291 -0.08860475 -0.0021572465
000070 10 b8 53 3d cb d3 8b bd 61 73 ac bd 82 d6 99 3d
       0.051689208 -0.06827506 -0.08420444 0.07511617
000080 33 da d1 bd e7 89 0c 3d c0 e8 a4 bd 16 14 c5 3c
       -0.10246696 0.0343112 -0.08052206 0.02405743
000090 b6 ba b0 bd ab cd ce 3d 0a a0 bc bd bb 12 9b 3c
       -0.08629362 0.10097822 -0.092102125 0.01892983
0000a0 05 35 8f 36 b2 42 2f 3d 18 4e aa 3d 5f 8a f6 3d
       4.2679044e-06 0.042788215 0.083156765 0.12038111
0000b0 ca e6 e3 3d b1 c9 db bd 9a de 7c bd 46 13 05 bd
       0.11128004 -0.10731829 -0.061735727 -0.032489084
0000c0 89 dc 48 3c 7d b2 c1 3c ba a3 99 bd 8a 14 09 3d
       0.012259611 0.02364468 -0.075019315 0.033466853
0000d0 7c 20 c0 bd 23 a0 ef bd fa 77 62 bd e4 e3 ef bd
       -0.09381196 -0.117004655 -0.0552902 -0.117133886
0000e0 d2 d6 c9 bb 1c 10 0f be 25 28 6f 3c 0f 1c 61 bd
       -0.006159642 -0.13970989 0.014596974 -0.0549584
0000f0 1d 39 17 bd 18 dc 03 3c 50 6f 63 bd 70 75 b2 bd
       -0.0369197 0.00804808 -0.055526078 -0.08713806
000100 8b 19 16 bb de fa da bd b1 71 04 3e 50 f0 35 3d
       -0.0022903408 -0.1069238 0.12933995 0.044418633
000110 eb ef b2 bc 8d 8e 14 be e5 00 83 bd 9a 4e 72 bd
       -0.021842917 -0.14507504 -0.06396655 -0.05915699
000120 e8 14 8f bc 45 d1 38 bd 15 79 18 bd f1 04 41 bd
       -0.017466024 -0.04512145 -0.037224848 -0.047123853
000130 9a b8 24 bd 94 93 dd 3c 06 de 53 bc e2 48 79 bd
       -0.040215112 0.02704791 -0.0129313525 -0.060860522
000140 b8 b0 86 bd 22 eb c0 bd 63 3d 97 bd e4 84 6a bc
       -0.06576675 -0.09419848 -0.073847555 -0.01431391
000150 70 55 bc bc cb 93 b0 bc 2e 9c 91 3d 93 a5 ae bd
       -0.022989959 -0.021554848 0.07109867 -0.085276745
000160 bb d4 ff bd 7c 86 ee 3c 7b b0 cb b7 3c e0 60 3c
       -0.12491747 0.029116862 -2.4281666e-05 0.013725337
000170 57 2e ba 3d 66 47 7a 3d fc 66 87 bc 25 9d de 3c
       0.0909087 0.061103247 -0.016528599 0.027174542
000180 26 0f dd 3d f0 ae a9 bc f9 b8 ff bc bb 19 9f bd
       0.10793905 -0.0207133 -0.031216132 -0.077685796
000190 89 9c a6 bd 87 f6 b3 bd b8 bf 8d bd 4a 68 14 bc
       -0.081353255 -0.08787256 -0.06921333 -0.009058068
0001a0 65 da 16 37 b0 53 6c 3d 72 ee 77 3c 14 a3 1b bd
       8.991546e-06 0.057696998 0.015132533 -0.03799732
0001b0 ed 0a 53 bd 95 fa d0 3c 2a 96 c0 bd a1 70 02 3e
       -0.05152409 0.025510112 -0.094036415 0.12738277
0001c0 ab be 9b 3d e8 48 07 bd 69 cb 06 be 1d 63 8d 3c
       0.076047264 -0.033028513 -0.13163532 0.017259175
0001d0 34 58 b0 bc c5 9f 4b bd 5c 11 0f 3d e3 2b 1e bd
       -0.021526434 -0.049712915 0.034928665 -0.038616072
0001e0 a9 80 bc 37 af bf 63 bd 58 32 cf 3c 34 38 32 3d
       2.2471258e-05 -0.055602726 0.02529256 0.04351063
0001f0 9b 71 c7 bd 8c ba fc bc 3d 82 a9 bc 94 b6 0b bd
       -0.097384654 -0.030850671 -0.020691985 -0.034109667

bn2.running_mean f4 [128]
000000 69 ed 47 3c b0 4e 44 3c cf 95 a6 3d 50 a1 12 3a
       0.012202599 0.011981651 0.081340425 0.00055934954
000010 00 5b 83 3c 63 78 cf 3c 60 bc af 3c da 8c 14 3d
       0.016034603 0.02532596 0.021452129 0.03626714
000020 3a 41 d6 3d 35 77 ee 3c f9 59 b5 39 51 e9 0b 3a
       0.1046166 0.029109577 0.00034590045 0.0005337196
000030 c9 8b 6f 39 1e 62 fc 3c 4b 0b ab 3c 94 c5 38 3d
       0.0002284489 0.030808505 0.020879408 0.0451103
000040 e3 fa 1d 3d c8 b2 dc 3d 77 77 b2 39 9c 61 a0 3d
       0.038569342 0.10776287 0.00034039814 0.078311175
000050 8e d1 bc 3e a7 53 4e 3e 1f 9d 3d 3e df 72 1a 3e
       0.36878628 0.20149098 0.18516968 0.15082882
000060 57 d1 6b 3c ec dc b7 3d 1c 11 79 3e 58 99 38 3d
       0.014393172 0.089776844 0.24322933 0.045068115
000070 ae 92 30 3d 67 a6 40 3d 84 99 85 3c 5c a5 7a 3e
       0.043108635 0.047033694 0.016308554 0.24477142
000080 4f 75 4a 3d 6e 64 ef 3d b3 16 d1 3d ee e4 8c 3d
       0.04942828 0.11689077 0.10209408 0.068796024
000090 ad fc 19 3c da 83 06 3d f8 6b 8c 3c 04 ae c6 3c
       0.0093986215 0.032840587 0.017141327 0.024252899
0000a0 1d db 95 3c bb 0e 7d 3c b6 8b 59 3e 3a e2 a6 3c
       0.018292958 0.015445407 0.21244702 0.020371545
0000b0 02 e4 1d 3d 05 6f 82 3d e9 a3 93 3c c2 97 57 3e
       0.038547523 0.063688315 0.018022494 0.21053985
0000c0 ab 07 5c 3d 72 e1 dc 3d e4 b8 be 3d c3 24 86 3d
       0.05371825 0.10785188 0.09312609 0.065499805
0000d0 97 08 79 3c e3 db 44 3e 5a c8 2d 3c 1f 9a 29 3e
       0.015199802 0.19224505 0.01060685 0.16562699
0000e0 7c a0 84 3d 88 f5 91 3c 44 ac 59 3d 00 d3 73 3c
       0.064759225 0.017817274 0.0531428 0.014881849
0000f0 92 96 47 3a 2d 08 44 3c 8f 6d 72 3d 1f f8 72 3c
       0.0007613684 0.01196484 0.059186514 0.0148296645
000100 3a 0f b4 3b be 56 68 3d 70 2d b2 3e 69 20 d6 3d
       0.005494979 0.05672335 0.3480029 0.104554005
000110 0f df d4 3d 6d 7d a8 3d 0c 4b 29 3a a9 dd 72 3d
       0.103941076 0.08227048 0.0006458021 0.059293423
000120 87 52 78 3c 9f ed 99 3c 97 6e a1 3d 59 a9 f0 3c
       0.015156395 0.018790064 0.078824215 0.029377626
000130 3a ed 5a 3d 7d 8c 2e 3d 2d f6 39 3c 5e 94 c9 3c
       0.053448893 0.04261445 0.011350197 0.02460688
000140 6b e5 5a 3d 4b 59 ba 3c f9 7b e4 3b 9e b5 e1 3d
       0.053441446 0.022747656 0.0069727865 0.11020969
000150 b0 66 13 3f 4f 1d 00 3d 54 eb 03 3d 48 95 4b 3d
       0.57578564 0.03127795 0.03220685 0.049702913
000160 79 6d 3d 3c d6 33 e4 3d dd 11 ab 3b 0c e4 48 3d
       0.011561745 0.111426994 0.0052206353 0.049045607
000170 2e 10 73 3d a2 aa 59 3e 9d 1c ca 3d 42 58 be 3d
       0.059341602 0.21256498 0.09868739 0.092941776
000180 07 db 28 3d 9d 29 2d 39 8e ee b1 3c f1 97 cf 3c
       0.041224506 0.00016514068 0.021720197 0.025341006
000190 9c c5 c5 3c 77 7e fa 39 aa c5 b6 3d b7 cd 57 3e
       0.024142079 0.0004777794 0.0892442 0.21074568
0001a0 d5 13 ea 37 e2 d1 1e 3e 5d 62 cc 3d 80 72 86 3d
       2.7904209e-05 0.15509751 0.09979699 0.06564808
0001b0 ed 2f ab 3e b3 c2 00 3e 48 72 bb 3d 3a 63 54 3d
       0.33435002 0.12574272 0.09152657 0.051852442
0001c0 30 a8 66 3e 3e 39 74 3e 1d 88 bd 3c f0 92 92 3d
       0.22525096 0.23849961 0.023136193 0.07156932
0001d0 0f 8a 39 3d 46 29 11 3e 8c 4c bd 3d e4 04 8f 3d
       0.04529768 0.14175901 0.09243116 0.06983355
0001e0 fa fd 81 3c 64 5a 80 3d 20 11 1f 3d 42 5d 2e 3e
       0.015868176 0.06267241 0.03883469 0.17027763
0001f0 ad 22 ca 3c f6 22 9d 3d 14 ec 09 3d 7e ed 82 3e
       0.024674738 0.07672684 0.033672407 0.25571817

bn2.running_var f4 [128]
000000 22 30 90 39 b2 6d 95 3a 90 d3 b5 3c 55 ba 9e 39
       0.00027501682 0.001140049 0.022195607 0.00030274937
000010 5e 21 14 3a 4c 55 8e 3b 98 0a 6c 3b 9a f4 4f 3b
       0.0005650724 0.0043436643 0.0036017057 0.0031731487
000020 e7 48 db 3c a9 e8 86 3b 1e 0d f8 38 bd 0a 8d 39
       0.026768161 0.0041170907 0.00011828005 0.00026901616
000030 07 c5 bf 38 93 f0 a8 3b 29 e1 41 3b e4 20 01 3c
       9.144289e-05 0.005155632 0.0029583669 0.007881377
000040 fb b6 09 3c 48 72 d7 3c 11 f3 22 39 7f 7b e8 3b
       0.008405442 0.02629961 0.00015540073 0.0070948
000050 2c c2 16 3d f9 00 91 3d ce 5a 1b 3d a5 4c e9 3c
       0.03680627 0.07080264 0.037928395 0.02847893
000060 fe 72 47 3b cf 20 fa 3c eb d7 b8 3d e6 86 12 3c
       0.003043353 0.030533222 0.09025558 0.008943295
000070 65 a0 d4 3b fa 8b ea 3b d2 f0 57 3b 40 11 96 3d
       0.006488847 0.0071578 0.0032949937 0.07327509
000080 0a 80 13 3c 19 81 86 3c 30 f8 87 3c cc f4 02 3c
       0.009002695 0.01641898 0.016597837 0.007992934
000090 7a de 6c 3a 28 a4 e5 3b 29 d1 b1 3a 36 67 6c 3b
       0.0009035837 0.0070080943 0.0013566363 0.003607226
0000a0 6e ad 02 3a 40 fa 86 3a 36 dc 78 3d 23 cc 64 3b
       0.00049849495 0.0010297969 0.060756885 0.0034911714
0000b0 86 b6 4f 3c a4 61 1a 3c 4d 78 fa 3a ac d5 42 3d
       0.012677794 0.009422693 0.0019109339 0.047567055
0000c0 ee 39 3d 3c 6c 8d a2 3c 82 76 ba 3c 2b 89 44 3c
       0.011549456 0.019842826 0.022761587 0.011995594
0000d0 d5 fe fe 3a 64 53 b2 3d 7c cc b3 3a e8 58 7c 3d
       0.0019454608 0.08707312 0.0013717557 0.061608225
0000e0 e1 6a 60 3c 0b 54 0a 3b 11 d8 02 3c 52 8b 2d 3b
       0.013697357 0.0021107222 0.007986085 0.0026480746
0000f0 60 b5 0a 39 7e 33 c3 3a 05 c6 90 3c f4 b6 85 3a
       0.00013228273 0.0014892665 0.017672548 0.0010201619
000100 22 16 7a 3a d2 ac 07 3c 32 d8 09 3d b4 94 d9 3c
       0.0009540041 0.00828095 0.033653446 0.026560165
000110 e0 37 da 3c 4d 58 ba 3c 6c ab 2a 39 68 3e 76 3c
       0.026637971 0.022747183 0.00016276323 0.015029527
000120 ed 90 58 3b d5 c8 fd 3a c4 f9 65 3c 61 3b 21 3b
       0.0033045367 0.0019362221 0.0140366 0.0024602043
000130 6a ec 3b 3c 5d 77 4a 3c a1 5c 0d 3b 80 23 e3 3b
       0.01146994 0.01235756 0.0021570104 0.006931722
000140 1a 64 2c 3c a8 82 4d 3b 31 ee 38 3a ca f3 16 3d
       0.010521913 0.0031358395 0.0007054536 0.03685359
000150 ee 08 be 3d e3 94 86 3b 21 b4 f3 3b 69 58 0c 3c
       0.09279047 0.004107104 0.0074372445 0.0085660005
000160 1d d6 a1 3a 8d 4a e3 3c b1 c7 4c 39 c4 2a 1b 3c
       0.0012347136 0.02774551 0.00019529347 0.009470645
000170 e4 0b 22 3c 59 1c 76 3d c1 c5 b6 3c 4a 8e 82 3c
       0.00989053 0.06008563 0.022311093 0.01593699
000180 a5 b0 01 3c 3b d0 d3 37 27 4e 29 3b de d3 a0 3b
       0.0079156505 2.5250125e-05 0.0025833936 0.004908069
000190 80 25 8a 3b 85 11 35 39 6e 09 a8 3c 9f 22 9a 3d
       0.004215896 0.00017268032 0.020512309 0.07526135
0001a0 25 31 5f 35 59 18 23 3d 7a 30 d4 3c e0 a6 77 3c
       8.314549e-07 0.03981814 0.025902022 0.01511547
0001b0 01 ab f2 3d 05 63 d0 3c 85 48 ac 3c 87 ac 61 3c
       0.11849023 0.025437841 0.021030674 0.013774044
0001c0 fd c2 73 3d 3c 5d 31 3d 70 e3 66 3b 0f d6 83 3c
       0.059512127 0.043301806 0.0035230778 0.016093282
0001d0 39 0a 35 3c ef 31 02 3d 09 99 85 3c 78 74 80 3c
       0.011049801 0.0317859 0.016308324 0.015680537
0001e0 30 32 d4 39 8b 2c 25 3c 72 74 1d 3c cd 64 68 3d
       0.00040473184 0.010081421 0.009610282 0.056736756
0001f0 5f aa 42 3b b4 2d 91 3c 09 37 de 3b 51 94 54 3d
       0.00297036 0.017721988 0.006781463 0.051899258

fc2.weight f4 [128, 132]
000000 98 ea 88 37 23 6e b3 bd 6e 3d e5 3a 56 30 56 bc
       1.6321705e-05 -0.08761241 0.0017489621 -0.013073048
000010 c8 ee 19 ba 19 1b 8c bc ad 55 e7 3c e2 cf 38 bd
       -0.0005872068 -0.017102765 0.028239096 -0.045120127
000020 34 d3 6a 3d 2f 98 18 bd b7 42 fa bc 16 9c bf bc
       0.057330325 -0.03725451 -0.03054939 -0.023389857
000030 c9 0b 93 3b 30 f7 29 bd b1 bb c7 3b f5 55 d6 bc
       0.004487489 -0.041495502 0.0060953726 -0.026164034
000040 d3 6b 01 ba 0a 94 75 bd c7 d5 77 3c 4f d4 b2 bd
       -0.00049370265 -0.059955634 0.015126652 -0.08731901
000050 a0 22 c0 bc 4d 13 45 3d 46 6f 1e bd 2e dc 89 bd
       -0.02345401 0.04811411 -0.038680337 -0.06731449
000060 e3 ea 0d 3d 53 33 bd 3c 89 36 48 bc 2f 12 57 bb
       0.034647834 0.023095762 -0.012220033 -0.0032817235
000070 8b 40 16 3d b4 74 05 bd 78 21 d2 bc be ca a8 3b
       0.036682647 -0.032582 -0.025650725 0.005151122
000080 59 72 3e bd cf 72 1b 3d 2f 3c a9 bd bb 3a 22 bc
       -0.04649577 0.037951287 -0.08263432 -0.009901698
000090 a3 60 84 bd e9 73 64 3d 75 22 71 bd 0b b9 25 bd
       -0.064637445 0.055774603 -0.05887075 -0.040459674
0000a0 c2 75 de b9 32 b2 33 bc 4f 36 2a bd e9 44 85 3d
       -0.00042430876 -0.010967778 -0.0415557 0.06507284
0000b0 82 0d 0c 3d 09 0d 8a bd ea ca c4 bc 39 68 3b bd
       0.03419257 -0.067407675 -0.024022538 -0.04575369
0000c0 4f f2 91 3c 9e d7 c4 bc e2 1b 57 bd 5e 45 30 3d
       0.017815737 -0.024028596 -0.052516825 0.043034904
0000d0 55 57 16 bc 0d 64 37 bd c1 2e 35 bd 9e 49 20 bc
       -0.009176095 -0.04477315 -0.04423404 -0.009783177
0000e0 0c 73 8a bc 99 ff 8b bd df 41 bc bb 43 59 25 bd
       -0.016900562 -0.06835861 -0.005745157 -0.04036833
0000f0 a9 09 59 3b d1 bb 28 bc 06 a6 6c bd c8 a4 83 bd
       0.003311733 -0.010298685 -0.05777552 -0.06427914
000100 0e b9 eb 3b 2f d9 aa bd 75 ae 88 3d 54 88 8c 3c
       0.007193691 -0.08342206 0.066739 0.01715485
000110 6a aa 28 bd 4c bf 21 bd 60 d6 0f bd 2b bf ed bc
       -0.041178145 -0.039489076 -0.035116553 -0.02902182
000120 6e 46 fb bc 33 49 f9 bc 05 53 24 bd a3 36 b9 3a
       -0.030673232 -0.030430412 -0.040118236 0.0014130663
000130 6e 62 8f bd ad d3 8b ba be 9d e8 bc 28 97 d5 bc
       -0.07001196 -0.0010667943 -0.02839553 -0.026073053
000140 5c a0 b2 bc fe 7e 9c bc 81 b5 d4 bd 48 b8 ac 3c
       -0.021804981 -0.019103523 -0.103861816 0.021083966
000150 e6 e8 26 3d dc 73 14 3d 95 57 e9 3c b6 8b 1c bd
       0.040749453 0.036243305 0.028484145 -0.038219176
000160 54 67 9f bc 50 62 15 bd 84 26 5c b7 8b ae 1f bd
       -0.01945845 -0.03647071 -1.31219895e-05 -0.038984817
000170 1f 88 31 bb 6a 52 14 bb 25 13 f5 bc 0b d2 f4 bc
       -0.002708919 -0.002263213 -0.029916355 -0.029885313
000180 9a 23 54 3d 0f 6c 8a 3c a9 1f c6 3c e7 9c 34 bd
       0.051791765 0.01689723 0.024185019 -0.044094946
000190 a7 6a 24 bc 64 d9 a0 bd ed ff 87 bd 15 b3 16 3d
       -0.0100351935 -0.07853964 -0.06640611 0.03679188
0001a0 6c fa 89 b6 85 9a 00 3d f5 9d 76 bc 29 2c 31 3b
       -4.112071e-06 0.03139736 -0.015052308 0.0027034378
0001b0 fe 30 19 bd 36 3d b8 3c 9d 05 26 bd 77 b9 cf 3c
       -0.03740024 0.022490125 -0.040532697 0.025356991
0001c0 13 37 38 3d ca 5f ba bc b8 56 9c bd 25 9c f6 bb
       0.044974398 -0.022750754 -0.07633728 -0.007525938
0001d0 f6 e6 04 bd 3d 1a 14 bd 57 77 9a bb b8 9e 1f bd
       -0.032446824 -0.036157835 -0.0047139334 -0.038969725
0001e0 df 9d 54 ba 92 7b da 3c cd f5 f5 3b 9e 76 a3 3c
       -0.0008110683 0.026670251 0.0075061084 0.019954022
0001f0 ee 06 f6 bc 0f 31 55 bd e3 d3 07 bd 27 2c 1f bc
       -0.030032601 -0.05204874 -0.033161055 -0.009715117
000200 c5 7c 46 bc e3 70 42 3b ae 2c 07 bc d0 25 3d 3b
       -0.012114708 0.0029669337 -0.008250399 0.002886165
000210 56 a4 e3 b7 fd dc 75 3d 0e 5d a7 bb c7 c8 75 3c
       -2.7137034e-05 0.060025204 -0.0051075285 0.015001482
000220 b5 7c 37 ba 2e 12 9e bc a8 36 0c bc 9f 7a 6d 3d
       -0.0006999479 -0.019295778 -0.008557953 0.05797827
000230 39 2b 6e bc 25 94 57 bc 14 2a 87 3d 51 f7 36 bd
       -0.014536672 -0.013157879 0.06599823 -0.044669453
000240 89 ed 84 3c 2a f2 a3 bc 1e 47 f0 bc d5 8f 1a 3d
       0.016226547 -0.020012934 -0.029330786 0.037734825
000250 28 03 92 bd 67 60 ab 3c 8f 3e f1 3c be 7e 35 3d
       -0.07129508 0.020919992 0.029448776 0.044310324
000260 0f 59 44 bc d1 b5 d5 bb 0f 8d 76 bb d0 73 84 bc
       -0.011984124 -0.0065219183 -0.0037620699 -0.016168505
000270 32 84 5e 3c 1c b8 12 3c a6 19 fa 3c 57 d6 60 bc
       0.0135813225 0.008955028 0.030529808 -0.013722978
000280 30 1a 28 bd e7 0f 05 3d 17 a9 81 bc 1c 1c 0e 3d
       -0.0410406 0.03248587 -0.015827699 0.034694776
000290 ca 26 24 bd 11 8d 94 3b cb 62 13 3c 2e ac 40 bc
       -0.040076055 0.004533418 0.008995722 -0.011759801
0002a0 f8 6a 60 3c 55 ec 99 bc ca 55 c7 3d d7 25 42 bc
       0.013697378 -0.01878945 0.0973316 -0.011849842
0002b0 84 78 06 38 da ed 9d 3c c0 26 9d bc a8 77 1f 3c
       3.206033e-05 0.019278456 -0.019183517 0.009733118
0002c0 ee ea a7 3c 86 00 12 3d 4f c9 c9 3b 66 45 04 bc
       0.020497765 0.03564503 0.006158031 -0.0080731865
0002d0 70 50 27 bc 14 f2 23 bd c3 20 e1 3c 2b 41 56 bc
       -0.010212049 -0.040025786 0.027481442 -0.013077061
0002e0 3e ab 55 bd f1 cc 17 3d 69 a4 c7 bc 09 1d 57 bc
       -0.052165262 0.03706068 -0.024370389 -0.013129481
0002f0 5b de 11 3d 0f d4 ac 3c 36 56 c5 bd f1 78 df bb
       0.035612445 0.021097211 -0.09635584 -0.0068198373
000300 7a aa 27 3d d9 03 be 3c 4b 4c 63 3c 22 e4 e8 3c
       0.040934063 0.023195194 0.01387317 0.028429095
000310 7a 47 a3 3a 90 8f d6 3c bb 68 d9 3b f2 af ca 3c
       0.0012457215 0.026191503 0.0066347993 0.0247421
000320 d3 dd 92 ba 4c ed 0a 3c 29 8f 5c 3c e7 fc b8 bc
       -0.0011205025 0.008479428 0.013461866 -0.02258153
000330 7c 05 00 bd 4c 22 8b 3d dc b3 95 3c 6b 2f 8f 3c
       -0.03125523 0.06793651 0.01827424 0.017478665
000340 3e ec 63 bd 57 d3 54 3c df 52 89 bc eb 76 d8 bc
       -0.05564522 0.0129898405 -0.016763149 -0.026423892
000350 79 76 21 bb 90 60 c7 bc 17 94 54 3d 3c 09 91 3d
       -0.0024637266 -0.024338037 0.051899042 0.070818394
000360 29 cb 3d 3b ca 36 a5 3c 95 27 a8 3c 60 3b 88 bc
       0.0028960204 0.020167727 0.020526687 -0.016629875
000370 b5 8b 60 bc 0f 31 76 bd 27 d7 19 b9 38 85 6a bd
       -0.013705184 -0.06010538 -0.00014671368 -0.057255954
000380 94 1c 80 bd bd c1 39 3a e7 0b f6 3c 7e 71 42 bc
       -0.06255451 0.0007086059 0.030034972 -0.011867879
000390 cc f4 a5 3c c4 cb 41 3c 72 04 12 3d e7 88 17 bc
       0.02025833 0.011828367 0.03564877 -0.009248949
0003a0 aa ba 87 ba 26 e2 27 bc 8d e4 3f bd f5 42 bb bc
       -0.0010355313 -0.010246789 -0.046848822 -0.022859076
0003b0 33 27 1d 38 6e 66 c7 bb e4 2c f8 3b 39 b1 4b bb
       3.7468224e-05 -0.0060852086 0.0075737108 -0.0031080975
0003c0 5d bc 9c bc 44 6b ba 3c fa f3 88 ba 14 44 81 bb
       -0.019132787 0.022756226 -0.0010448687 -0.003944883
0003d0 bb 5b 3c bc e7 ae 20 3c ab a5 40 bd 7f e5 03 3d
       -0.01149648 0.009807325 -0.047032993 0.032201286
0003e0 8c 41 4b bc 0c d5 08 3d a4 db 6b bd c4 2b d4 3c
       -0.012405764 0.033406302 -0.057582512 0.025899775
0003f0 2c a0 d6 b8 c9 5c 40 3d c5 f7 c9 3c c9 e8 44 bc
       -0.000102341495 0.046963487 0.024654279 -0.012018391

fc2.bias f4 [128]
000000 3b 80 60 3d bb 6b d4 bc bf 6c e4 bd fa e7 af bc
       0.05480979 -0.025930276 -0.11153554 -0.02147292
000010 5a 35 87 bd 2a b3 84 bd 18 26 db 3d c4 a9 d7 3b
       -0.06601973 -0.06479485 0.10700625 0.006581517
000020 03 41 ef 3d a1 cb bf bb 27 86 28 bd 3f f8 db bd
       0.11682322 -0.005853132 -0.041143563 -0.107407086
000030 42 61 5d 3d 2a e1 e6 bc f7 3d b1 bd ad 63 bc 3c
       0.05404783 -0.028183538 -0.08654397 0.022996748
000040 61 79 23 bd 26 66 02 bd 40 12 13 bc cb e7 a0 bc
       -0.039910678 -0.031835698 -0.008976519 -0.019641778
000050 30 22 5f 3d e2 2e a7 bd e3 d5 bc 3d f9 67 a3 bd
       0.054475963 -0.08163239 0.09220483 -0.079788156
000060 c3 4f 9c 3d 37 cb 18 bd 45 e9 17 bd 81 31 36 3b
       0.07632401 -0.037303176 -0.037087698 0.0027800503
000070 67 a5 be 3c 3f 53 90 bd ba 3b 4d bd e7 55 a3 bd
       0.02327223 -0.07047128 -0.050105788 -0.07975369
000080 4d 6e be bc f0 7f 69 bd 7d 82 41 bd a1 fe ed 3d
       -0.023245955 -0.057006776 -0.047243584 0.11620832
000090 ed d7 a1 bd db f2 ab bc ee 51 6a 3d b0 b9 96 3b
       -0.07902513 -0.020989826 0.05720704 0.0045997724
0000a0 d5 5d a8 3d 01 42 cd bd 3f 77 a2 bd 9d 7e b7 bd
       0.08221022 -0.10022355 -0.07932901 -0.089596964
0000b0 df a3 85 bc f2 03 52 bd 1e 45 8e bd 5a c2 51 bd
       -0.016313491 -0.051273294 -0.06946777 -0.05121074
0000c0 54 82 06 be e1 37 39 bd 1b 68 7a 3d 9a c8 90 bd
       -0.13135654 -0.045219306 0.06113444 -0.07069512
0000d0 0e 72 e2 bb 43 07 a7 bd 51 30 ce bc d7 46 b9 3d
       -0.006910569 -0.08155682 -0.025169523 0.09046715
0000e0 9d 9b 0a bd 18 68 9f bc 90 89 85 bd ae 7e cf ba
       -0.03383981 -0.019458815 -0.065203786 -0.00158306
0000f0 91 ad 82 3d 5b 16 31 bd d5 67 1b bd fc 3b 49 bd
       0.063807614 -0.04323421 -0.03794082 -0.04912947
000100 bb d9 49 3d 90 52 93 3d 7f 1f fe bc a3 8f 31 3d
       0.04927991 0.07193482 -0.031020878 0.043349873
000110 f3 a0 dc bd a4 6c 84 bd 18 d0 b4 bc 0f dc 28 3d
       -0.10772886 -0.06466034 -0.022071883 0.04122549
000120 7f 80 97 bd ca f0 f6 bc 64 55 cc 3d eb 6d eb 3d
       -0.073975556 -0.030144114 0.099772245 0.114955746
000130 31 32 d6 bd 01 1c 25 bd db 4c 55 bd da 42 39 ba
       -0.10458792 -0.04030991 -0.05207525 -0.00070671516
000140 5c 86 c0 bd a5 b5 f3 3d 78 a0 b0 bc 77 0f d3 bd
       -0.09400627 0.1189988 -0.021560892 -0.10305684
000150 4f 25 36 bd 4c 21 64 bc 3f 64 c1 bd 34 be 78 bd
       -0.044469174 -0.013923954 -0.094429485 -0.060728267
000160 b8 52 ab 3d 50 d5 7a bc e6 76 7d 3d 04 df 84 bd
       0.08365387 -0.015309647 0.06188097 -0.06487849
000170 e0 5a 9a bc cc a8 b6 bd 33 fb 8c bd 94 4a ae bd
       -0.01884216 -0.08918914 -0.0688385 -0.085103184
000180 aa 29 e5 3c 7a 3b 45 bd 1a 35 91 bd 36 9f bb bd
       0.027973969 -0.048152424 -0.070902064 -0.091612265
000190 1c 64 61 bd 4f 06 51 bd 8f 7e a0 bd 0d 9b 0e bd
       -0.055027112 -0.051031407 -0.07836639 -0.034815837
0001a0 fd 1b 8d bd 2c 0b 89 bd 46 12 b9 bd 36 cf 9a bc
       -0.06890104 -0.06691584 -0.090366885 -0.018897634
0001b0 e5 3e ce bd 02 ef a0 bd 0d a3 5d bd 90 22 83 3d
       -0.1007059 -0.07858087 -0.054110575 0.06403077
0001c0 58 ee a4 3b d2 b4 fb 3d 4d b7 89 bd 67 02 60 bd
       0.0050332956 0.12290348 -0.06724415 -0.05468979
0001d0 aa a4 10 bc e9 e9 88 ba 31 bf 24 3d 86 61 49 bb
       -0.0088283215 -0.0010445687 0.040221397 -0.0030728295
0001e0 3f af d7 bd 6b 2b 57 bd 48 b2 a2 bd aa e3 91 3d
       -0.105314724 -0.05253164 -0.07944161 0.071235016
0001f0 f5 96 3f bb 17 b7 84 bd 88 e3 b2 bd db f2 2b 3d
       -0.0029234265 -0.06480234 -0.087348044 0.041979652

bn3.weight f4 [128]
000000 40 cb 96 3e a0 a6 16 3d cf ad 0a 3f 99 2f 2e 3f
       0.29451942 0.03678 0.5417146 0.6804138
000010 78 64 a1 3d 08 da 9b 3d 5d f2 65 3f 10 9e 04 3f
       0.07880491 0.076099455 0.8982294 0.51803684
000020 74 40 26 3e 38 89 7f 3f 9e 79 6e 3f ba 94 9c 3e
       0.16235524 0.99818754 0.93154323 0.3058222
000030 c0 f1 06 3f f4 78 68 3e f7 f6 26 3f 27 a9 46 3f
       0.5271263 0.2270239 0.6522059 0.77601856
000040 56 0b 5b 3f 02 e5 74 3f 91 49 13 3f c0 fa 06 3e
       0.8556417 0.9566194 0.5753413 0.13181591
000050 c0 9f ae 3c 86 7b 19 3f c7 86 3a 3f 38 4e 4f 3e
       0.02131641 0.59954107 0.72861904 0.20244682
000060 e2 95 08 3f f0 dc 83 3d 83 dd 2a 3f 4a 5a 2a 3f
       0.53353703 0.06438625 0.6674425 0.6654402
000070 00 9e 3d 3c d8 01 bc 3e b0 b0 9f 3d bc ac 1c 3e
       0.011573315 0.36720157 0.07797372 0.15300268
000080 a8 bb 49 3e 36 ff 54 3f f2 c1 8a 3e ae 97 f0 3e
       0.19700491 0.8320192 0.27101094 0.46990722
000090 5e cc 77 3f 20 c8 5d 3d 49 20 40 3f 42 24 e7 3e
       0.96796215 0.054145932 0.75049263 0.4514485
0000a0 71 5b 03 3f da 8c 5a 3f 0e 91 ee 3c 9d e4 31 3f
       0.51311404 0.8537117 0.029121902 0.6948946
0000b0 5c 25 40 3f d7 67 d3 3e b1 fc 10 3f 0d 36 5a 3f
       0.75057006 0.4129016 0.56635576 0.85238725
0000c0 32 b4 27 3e b6 60 6b 3f b0 ae 1e 3e 7c bb 42 3f
       0.16377333 0.91944444 0.15496325 0.7606733
0000d0 d0 70 67 3f ce 19 29 3f 10 38 93 3d 6c f4 7e 3f
       0.90406513 0.66055 0.071884274 0.9959171
0000e0 8a b2 1c 3f b2 31 b5 3e 46 fd 50 3f 9c 74 57 3f
       0.6120993 0.35389477 0.81636465 0.84162307
0000f0 35 5c 29 3f e0 6e d8 3d 90 0d 17 3f ce 2d 88 3e
       0.6615632 0.10568023 0.5900507 0.26597446
000100 54 a1 5e 3e 56 5c 76 3f f4 a0 62 3e e0 b7 14 3e
       0.2174123 0.96234643 0.22131711 0.14523268
000110 a4 a5 ae 3e 80 50 7e 3f 90 47 aa 3e 88 4b e1 3d
       0.3411075 0.99341583 0.33257723 0.110007346
000120 08 75 6a 3e ec 3a 57 3e f6 af 31 3f 09 bc 37 3f
       0.22896206 0.2101857 0.6940912 0.71771294
000130 23 4d 47 3f 4d 3f 04 3f 50 2b bc 3d e8 66 26 3e
       0.77852076 0.5165909 0.09187949 0.16250193
000140 5c d6 3e 3f c0 9a 22 3d 95 47 18 3f 00 70 29 3e
       0.74545836 0.039698362 0.59484226 0.16546631
000150 a6 8d e2 3e 90 c3 ac 3e 22 dd 48 3f ba 63 10 3f
       0.44248694 0.33742952 0.7846242 0.5640217
000160 60 a1 06 3e cc 5c 30 3e 94 7a eb 3e f4 b5 36 3f
       0.13147497 0.17222899 0.45991957 0.7137139
000170 da 70 be 3e 18 47 95 3e 28 78 98 3d e4 17 23 3f
       0.37195474 0.29155803 0.07444793 0.6370833
000180 a9 4e 58 3f 74 6b 00 3f 48 da 05 3f 08 63 11 3e
       0.84495026 0.5016396 0.52286196 0.14197934
000190 dc f9 55 3e 13 e8 9f 3d f0 ad f1 3e 48 57 d1 3d
       0.20896095 0.078079365 0.47203016 0.10221726
0001a0 39 0e 7c 3e e3 72 1f 3f 48 29 2d 3e 25 24 45 3f
       0.246148 0.6228468 0.16910279 0.7700828
0001b0 2a 78 63 3f fe 5e 31 3f cf a4 44 3f 44 c2 38 3e
       0.8885523 0.6928557 0.7681398 0.18042856
0001c0 68 61 37 3f 8f 34 12 3f e2 09 d7 3e e0 37 e3 3e
       0.71633005 0.5711145 0.41999727 0.44378567
0001d0 00 e2 66 3e b3 96 0c 3f 00 be 0b 3d b8 75 39 3e
       0.2254715 0.5491745 0.034116745 0.18111312
0001e0 77 4f 25 3f 28 7f 1b 3f 46 e5 ec 3e c0 31 94 3c
       0.6457438 0.607409 0.46268672 0.018090129
0001f0 f4 61 23 3e 12 62 7d 3d 20 f1 77 3f 34 6b 06 3e
       0.15955335 0.061861105 0.968523 0.13126832

bn3.bias f4 [128]
000000 00 00 00 00 00 00 00 00 00 00 00 00 00 00 00 00
       0.0 0.0 0.0 0.0
000010 00 00 00 00 00 00 00 00 00 00 00 00 00 00 00 00
       0.0 0.0 0.0 0.0
000020 00 00 00 00 00 00 00 00 00 00 00 00 00 00 00 00
       0.0 0.0 0.0 0.0
000030 00 00 00 00 00 00 00 00 00 00 00 00 00 00 00 00
       0.0 0.0 0.0 0.0
000040 00 00 00 00 00 00 00 00 00 00 00 00 00 00 00 00
       0.0 0.0 0.0 0.0
000050 00 00 00 00 00 00 00 00 00 00 00 00 00 00 00 00
       0.0 0.0 0.0 0.0
000060 00 00 00 00 00 00 00 00 00 00 00 00 00 00 00 00
       0.0 0.0 0.0 0.0
000070 00 00 00 00 00 00 00 00 00 00 00 00 00 00 00 00
       0.0 0.0 0.0 0.0
000080 00 00 00 00 00 00 00 00 00 00 00 00 00 00 00 00
       0.0 0.0 0.0 0.0
000090 00 00 00 00 00 00 00 00 00 00 00 00 00 00 00 00
       0.0 0.0 0.0 0.0
0000a0 00 00 00 00 00 00 00 00 00 00 00 00 00 00 00 00
       0.0 0.0 0.0 0.0
0000b0 00 00 00 00 00 00 00 00 00 00 00 00 00 00 00 00
       0.0 0.0 0.0 0.0
0000c0 00 00 00 00 00 00 00 00 00 00 00 00 00 00 00 00
       0.0 0.0 0.0 0.0
0000d0 00 00 00 00 00 00 00 00 00 00 00 00 00 00 00 00
       0.0 0.0 0.0 0.0
0000e0 00 00 00 00 00 00 00 00 00 00 00 00 00 00 00 00
       0.0 0.0 0.0 0.0
0000f0 00 00 00 00 00 00 00 00 00 00 00 00 00 00 00 00
       0.0 0.0 0.0 0.0
000100 00 00 00 00 00 00 00 00 00 00 00 00 00 00 00 00
       0.0 0.0 0.0 0.0
000110 00 00 00 00 00 00 00 00 00 00 00 00 00 00 00 00
       0.0 0.0 0.0 0.0
000120 00 00 00 00 00 00 00 00 00 00 00 00 00 00 00 00
       0.0 0.0 0.0 0.0
000130 00 00 00 00 00 00 00 00 00 00 00 00 00 00 00 00
       0.0 0.0 0.0 0.0
000140 00 00 00 00 00 00 00 00 00 00 00 00 00 00 00 00
       0.0 0.0 0.0 0.0
000150 00 00 00 00 00 00 00 00 00 00 00 00 00 00 00 00
       0.0 0.0 0.0 0.0
000160 00 00 00 00 00 00 00 00 00 00 00 00 00 00 00 00
       0.0 0.0 0.0 0.0
000170 00 00 00 00 00 00 00 00 00 00 00 00 00 00 00 00
       0.0 0.0 0.0 0.0
000180 00 00 00 00 00 00 00 00 00 00 00 00 00 00 00 00
       0.0 0.0 0.0 0.0
000190 00 00 00 00 00 00 00 00 00 00 00 00 00 00 00 00
       0.0 0.0 0.0 0.0
0001a0 00 00 00 00 00 00 00 00 00 00 00 00 00 00 00 00
       0.0 0.0 0.0 0.0
0001b0 00 00 00 00 00 00 00 00 00 00 00 00 00 00 00 00
       0.0 0.0 0.0 0.0
0001c0 00 00 00 00 00 00 00 00 00 00 00 00 00 00 00 00
       0.0 0.0 0.0 0.0
0001d0 00 00 00 00 00 00 00 00 00 00 00 00 00 00 00 00
       0.0 0.0 0.0 0.0
0001e0 00 00 00 00 00 00 00 00 00 00 00 00 00 00 00 00
       0.0 0.0 0.0 0.0
0001f0 00 00 00 00 00 00 00 00 00 00 00 00 00 00 00 00
       0.0 0.0 0.0 0.0

bn3.running_mean f4 [128]
000000 00 00 00 00 00 00 00 00 00 00 00 00 00 00 00 00
       0.0 0.0 0.0 0.0
000010 00 00 00 00 00 00 00 00 00 00 00 00 00 00 00 00
       0.0 0.0 0.0 0.0
000020 00 00 00 00 00 00 00 00 00 00 00 00 00 00 00 00
       0.0 0.0 0.0 0.0
000030 00 00 00 00 00 00 00 00 00 00 00 00 00 00 00 00
       0.0 0.0 0.0 0.0
000040 00 00 00 00 00 00 00 00 00 00 00 00 00 00 00 00
       0.0 0.0 0.0 0.0
000050 00 00 00 00 00 00 00 00 00 00 00 00 00 00 00 00
       0.0 0.0 0.0 0.0
000060 00 00 00 00 00 00 00 00 00 00 00 00 00 00 00 00
       0.0 0.0 0.0 0.0
000070 00 00 00 00 00 00 00 00 00 00 00 00 00 00 00 00
       0.0 0.0 0.0 0.0
000080 00 00 00 00 00 00 00 00 00 00 00 00 00 00 00 00
       0.0 0.0 0.0 0.0
000090 00 00 00 00 00 00 00 00 00 00 00 00 00 00 00 00
       0.0 0.0 0.0 0.0
0000a0 00 00 00 00 00 00 00 00 00 00 00 00 00 00 00 00
       0.0 0.0 0.0 0.0
0000b0 00 00 00 00 00 00 00 00 00 00 00 00 00 00 00 00
       0.0 0.0 0.0 0.0
0000c0 00 00 00 00 00 00 00 00 00 00 00 00 00 00 00 00
       0.0 0.0 0.0 0.0
0000d0 00 00 00 00 00 00 00 00 00 00 00 00 00 00 00 00
       0.0 0.0 0.0 0.0
0000e0 00 00 00 00 00 00 00 00 00 00 00 00 00 00 00 00
       0.0 0.0 0.0 0.0
0000f0 00 00 00 00 00 00 00 00 00 00 00 00 00 00 00 00
       0.0 0.0 0.0 0.0
000100 00 00 00 00 00 00 00 00 00 00 00 00 00 00 00 00
       0.0 0.0 0.0 0.0
000110 00 00 00 00 00 00 00 00 00 00 00 00 00 00 00 00
       0.0 0.0 0.0 0.0
000120 00 00 00 00 00 00 00 00 00 00 00 00 00 00 00 00
       0.0 0.0 0.0 0.0
000130 00 00 00 00 00 00 00 00 00 00 00 00 00 00 00 00
       0.0 0.0 0.0 0.0
000140 00 00 00 00 00 00 00 00 00 00 00 00 00 00 00 00
       0.0 0.0 0.0 0.0
000150 00 00 00 00 00 00 00 00 00 00 00 00 00 00 00 00
       0.0 0.0 0.0 0.0
000160 00 00 00 00 00 00 00 00 00 00 00 00 00 00 00 00
       0.0 0.0 0.0 0.0
000170 00 00 00 00 00 00 00 00 00 00 00 00 00 00 00 00
       0.0 0.0 0.0 0.0
000180 00 00 00 00 00 00 00 00 00 00 00 00 00 00 00 00
       0.0 0.0 0.0 0.0
000190 00 00 00 00 00 00 00 00 00 00 00 00 00 00 00 00
       0.0 0.0 0.0 0.0
0001a0 00 00 00 00 00 00 00 00 00 00 00 00 00 00 00 00
       0.0 0.0 0.0 0.0
0001b0 00 00 00 00 00 00 00 00 00 00 00 00 00 00 00 00
       0.0 0.0 0.0 0.0
0001c0 00 00 00 00 00 00 00 00 00 00 00 00 00 00 00 00
       0.0 0.0 0.0 0.0
0001d0 00 00 00 00 00 00 00 00 00 00 00 00 00 00 00 00
       0.0 0.0 0.0 0.0
0001e0 00 00 00 00 00 00 00 00 00 00 00 00 00 00 00 00
       0.0 0.0 0.0 0.0
0001f0 00 00 00 00 00 00 00 00 00 00 00 00 00 00 00 00
       0.0 0.0 0.0 0.0

bn3.running_var f4 [128]
000000 00 00 80 3f 00 00 80 3f 00 00 80 3f 00 00 80 3f
       1.0 1.0 1.0 1.0
000010 00 00 80 3f 00 00 80 3f 00 00 80 3f 00 00 80 3f
       1.0 1.0 1.0 1.0
000020 00 00 80 3f 00 00 80 3f 00 00 80 3f 00 00 80 3f
       1.0 1.0 1.0 1.0
000030 00 00 80 3f 00 00 80 3f 00 00 80 3f 00 00 80 3f
       1.0 1.0 1.0 1.0
000040 00 00 80 3f 00 00 80 3f 00 00 80 3f 00 00 80 3f
       1.0 1.0 1.0 1.0
000050 00 00 80 3f 00 00 80 3f 00 00 80 3f 00 00 80 3f
       1.0 1.0 1.0 1.0
000060 00 00 80 3f 00 00 80 3f 00 00 80 3f 00 00 80 3f
       1.0 1.0 1.0 1.0
000070 00 00 80 3f 00 00 80 3f 00 00 80 3f 00 00 80 3f
       1.0 1.0 1.0 1.0
000080 00 00 80 3f 00 00 80 3f 00 00 80 3f 00 00 80 3f
       1.0 1.0 1.0 1.0
000090 00 00 80 3f 00 00 80 3f 00 00 80 3f 00 00 80 3f
       1.0 1.0 1.0 1.0
0000a0 00 00 80 3f 00 00 80 3f 00 00 80 3f 00 00 80 3f
       1.0 1.0 1.0 1.0
0000b0 00 00 80 3f 00 00 80 3f 00 00 80 3f 00 00 80 3f
       1.0 1.0 1.0 1.0
0000c0 00 00 80 3f 00 00 80 3f 00 00 80 3f 00 00 80 3f
       1.0 1.0 1.0 1.0
0000d0 00 00 80 3f 00 00 80 3f 00 00 80 3f 00 00 80 3f
       1.0 1.0 1.0 1.0
0000e0 00 00 80 3f 00 00 80 3f 00 00 80 3f 00 00 80 3f
       1.0 1.0 1.0 1.0
0000f0 00 00 80 3f 00 00 80 3f 00 00 80 3f 00 00 80 3f
       1.0 1.0 1.0 1.0
000100 00 00 80 3f 00 00 80 3f 00 00 80 3f 00 00 80 3f
       1.0 1.0 1.0 1.0
000110 00 00 80 3f 00 00 80 3f 00 00 80 3f 00 00 80 3f
       1.0 1.0 1.0 1.0
000120 00 00 80 3f 00 00 80 3f 00 00 80 3f 00 00 80 3f
       1.0 1.0 1.0 1.0
000130 00 00 80 3f 00 00 80 3f 00 00 80 3f 00 00 80 3f
       1.0 1.0 1.0 1.0
000140 00 00 80 3f 00 00 80 3f 00 00 80 3f 00 00 80 3f
       1.0 1.0 1.0 1.0
000150 00 00 80 3f 00 00 80 3f 00 00 80 3f 00 00 80 3f
       1.0 1.0 1.0 1.0
000160 00 00 80 3f 00 00 80 3f 00 00 80 3f 00 00 80 3f
       1.0 1.0 1.0 1.0
000170 00 00 80 3f 00 00 80 3f 00 00 80 3f 00 00 80 3f
       1.0 1.0 1.0 1.0
000180 00 00 80 3f 00 00 80 3f 00 00 80 3f 00 00 80 3f
       1.0 1.0 1.0 1.0
000190 00 00 80 3f 00 00 80 3f 00 00 80 3f 00 00 80 3f
       1.0 1.0 1.0 1.0
0001a0 00 00 80 3f 00 00 80 3f 00 00 80 3f 00 00 80 3f
       1.0 1.0 1.0 1.0
0001b0 00 00 80 3f 00 00 80 3f 00 00 80 3f 00 00 80 3f
       1.0 1.0 1.0 1.0
0001c0 00 00 80 3f 00 00 80 3f 00 00 80 3f 00 00 80 3f
       1.0 1.0 1.0 1.0
0001d0 00 00 80 3f 00 00 80 3f 00 00 80 3f 00 00 80 3f
       1.0 1.0 1.0 1.0
0001e0 00 00 80 3f 00 00 80 3f 00 00 80 3f 00 00 80 3f
       1.0 1.0 1.0 1.0
0001f0 00 00 80 3f 00 00 80 3f 00 00 80 3f 00 00 80 3f
       1.0 1.0 1.0 1.0
