mode_weights/agent0_critic_local.pth (torch_old, 93523 bytes, 17 tensors)

bn1.weight f4 [33]
0	0x3efe1558	0.4962566
1	0x3f44aa2f	0.7682218
2	0x3db533a8	0.08847743
3	0x3e073300	0.13203049
4	0x3e9d6686	0.30742282
5	0x3f2252fb	0.6340787
6	0x3efaed86	0.4900934
7	0x3f657d67	0.89644474
8	0x3ee94812	0.45562798
9	0x3f21ded3	0.6323063
10	0x3eb2a22a	0.34889346
11	0x3ecdade4	0.4017173
12	0x3cb6e480	0.022325754
13	0x3e2ce95c	0.16885895
14	0x3e96788c	0.29388845
15	0x3f04bdd8	0.5185218
16	0x3f329a58	0.6976676
17	0x3f4ccd8c	0.8000114
18	0x3e24e4e8	0.16102946
19	0x3e908582	0.28226858
20	0x3f2e7de6	0.68160856
21	0x3f6a4a27	0.915194
22	0x3ecb50ae	0.3970999
23	0x3f5fc8ae	0.8741559
24	0x3ed6bcb0	0.41940832
25	0x3f0d8b51	0.55290705
26	0x3f73e6a5	0.9527381
27	0x3d142190	0.03616482
28	0x3e3dad34	0.18523103
29	0x3ebf3090	0.37341738
30	0x3e9c3612	0.30510002
31	0x3f6e9794	0.9320004
32	0x3e3421cc	0.17591017

bn1.bias f4 [33]
0	0x00000000	0.0
1	0x00000000	0.0
2	0x00000000	0.0
3	0x00000000	0.0
4	0x00000000	0.0
5	0x00000000	0.0
6	0x00000000	0.0
7	0x00000000	0.0
8	0x00000000	0.0
9	0x00000000	0.0
10	0x00000000	0.0
11	0x00000000	0.0
12	0x00000000	0.0
13	0x00000000	0.0
14	0x00000000	0.0
15	0x00000000	0.0
16	0x00000000	0.0
17	0x00000000	0.0
18	0x00000000	0.0
19	0x00000000	0.0
20	0x00000000	0.0
21	0x00000000	0.0
22	0x00000000	0.0
23	0x00000000	0.0
24	0x00000000	0.0
25	0x00000000	0.0
26	0x00000000	0.0
27	0x00000000	0.0
28	0x00000000	0.0
29	0x00000000	0.0
30	0x00000000	0.0
31	0x00000000	0.0
32	0x00000000	0.0

bn1.running_mean f4 [33]
0	0x00000000	0.0
1	0x00000000	0.0
2	0x00000000	0.0
3	0x00000000	0.0
4	0x00000000	0.0
5	0x00000000	0.0
6	0x00000000	0.0
7	0x00000000	0.0
8	0x00000000	0.0
9	0x00000000	0.0
10	0x00000000	0.0
11	0x00000000	0.0
12	0x00000000	0.0
13	0x00000000	0.0
14	0x00000000	0.0
15	0x00000000	0.0
16	0x00000000	0.0
17	0x00000000	0.0
18	0x00000000	0.0
19	0x00000000	0.0
20	0x00000000	0.0
21	0x00000000	0.0
22	0x00000000	0.0
23	0x00000000	0.0
24	0x00000000	0.0
25	0x00000000	0.0
26	0x00000000	0.0
27	0x00000000	0.0
28	0x00000000	0.0
29	0x00000000	0.0
30	0x00000000	0.0
31	0x00000000	0.0
32	0x00000000	0.0

bn1.running_var f4 [33]
0	0x3f800000	1.0
1	0x3f800000	1.0
2	0x3f800000	1.0
3	0x3f800000	1.0
4	0x3f800000	1.0
5	0x3f800000	1.0
6	0x3f800000	1.0
7	0x3f800000	1.0
8	0x3f800000	1.0
9	0x3f800000	1.0
10	0x3f800000	1.0
11	0x3f800000	1.0
12	0x3f800000	1.0
13	0x3f800000	1.0
14	0x3f800000	1.0
15	0x3f800000	1.0
16	0x3f800000	1.0
17	0x3f800000	1.0
18	0x3f800000	1.0
19	0x3f800000	1.0
20	0x3f800000	1.0
21	0x3f800000	1.0
22	0x3f800000	1.0
23	0x3f800000	1.0
24	0x3f800000	1.0
25	0x3f800000	1.0
26	0x3f800000	1.0
27	0x3f800000	1.0
28	0x3f800000	1.0
29	0x3f800000	1.0
30	0x3f800000	1.0
31	0x3f800000	1.0
32	0x3f800000	1.0

fcs1.weight f4 [128, 33]
0	0xba245a2b	-0.00062695396
1	0xb93d0068	-0.00018024596
2	0x3b03c8f9	0.0020108803
3	0xb696fb1e	-4.4995822e-06
4	0xb7ae5964	-2.0784042e-05
5	0x3686a215	4.01238e-06
6	0x35a6055a	1.2369521e-06
7	0xb8c86a8c	-9.556589e-05
8	0x36e66b0f	6.8669974e-06
9	0xb870e244	-5.7431185e-05
10	0xbacc618b	-0.0015593035
11	0xba8d1ef6	-0.0010766673
12	0x3a0fdade	0.0005487631
13	0xbb2d2837	-0.0026421675
14	0xba38b29c	-0.0007045658
15	0x3b232edf	0.0024899764
16	0x37a5ca6d	1.9763795e-05
17	0xb9c7bad7	-0.00038095444
18	0xb7cbdfeb	-2.4303756e-05
19	0x38966664	7.171629e-05
20	0x3b6a8f7a	0.0035791085
21	0xb89a35af	-7.3532916e-05
22	0x3a39aff0	0.00070834067
23	0xba8c4b54	-0.0010703602
24	0xba20355f	-0.00061114685
25	0x3ae16346	0.0017195723
26	0xbb578518	-0.0032885727
27	0x37059b02	7.963508e-06
28	0x3b17f298	0.0023185369
29	0x0001c63e	1.62951e-40
30	0xb7059b02	-7.963508e-06
31	0x8000d90c	-7.7862e-41
32	0x39752341	0.00023378154
33	0x3d01aec9	0.03166083
34	0xbcd83612	-0.02639297
35	0x3c39913b	0.01132613
36	0x3c47f285	0.012203817
37	0xba63f770	-0.0008696234
38	0x3cad6d58	0.021170303
39	0xbce97539	-0.028498279
40	0xbbc645d7	-0.006050806
41	0x3c2f6b88	0.01070679
42	0x3c09f1fb	0.008419509
43	0xbbab24bd	-0.0052228854
44	0xbb11f130	-0.0022269003
45	0xbc18b86d	-0.009321314
46	0xbd71f28a	-0.059069194
47	0x3d0293fd	0.031879414
48	0xbcaacdbe	-0.020850059
49	0xbc31c216	-0.010849496
50	0x3b39a5b0	0.0028327517
51	0xbba291ca	-0.004961227
52	0x3c4313c3	0.011906567
53	0x3a7efa84	0.0009726661
54	0xbb77b323	-0.0037795983
55	0xbbabedb0	-0.0052468404
56	0xbca7942c	-0.020456396
57	0x3b40c7e8	0.0029416028
58	0x3b10d5a3	0.0022099994
59	0x3cc79351	0.024362238
60	0x3da86b66	0.082236096
61	0x3d565fd1	0.05233747
62	0x800125bd	-1.05373e-40
63	0xbda87203	-0.08224871
64	0x80001329	-6.873e-42
65	0x3e4e3f20	0.20141268
66	0xbd09f0f9	-0.033677075
67	0xbc9b3711	-0.018947156
68	0x3d4f00dc	0.05053793
69	0xbd046248	-0.03232029
70	0x3b9d5c3e	0.004802256
71	0xbd0e6a99	-0.03476963
72	0x3b876a8e	0.0041325754
73	0xbc05ad3c	-0.008158978
74	0x3c4b38fd	0.012403724
75	0xbc477f7f	-0.0121763935
76	0x3c8f7e4b	0.017516276
77	0xbd2683a9	-0.040652905
78	0xbc12cdf7	-0.008960239
79	0x3d0a036a	0.033694662
80	0xbc873c47	-0.016508235
81	0xbd730bf4	-0.05933757
82	0x3b196d3b	0.0023411054
83	0x3a535268	0.0008061291
84	0x3bea9d87	0.007159892
85	0xbd368d7a	-0.044568516
86	0xbc94b634	-0.018153287
87	0xbd64eb93	-0.055888724
88	0xbccb1825	-0.024791786
89	0x3d4d684f	0.050148305
90	0xbd6cbae0	-0.057795405
91	0xbcd0986b	-0.025463304
92	0xbcc74f4a	-0.0243298
93	0x3d250d28	0.04029575
94	0xbba9b6c6	-0.005179259
95	0x800084fd	-4.7707e-41
96	0xbd2542c4	-0.040346876
97	0x80012c33	-1.07691e-40
98	0x3af139b2	0.0018404035
99	0xbc6bba47	-0.014387674
100	0xbda9d1e5	-0.08291987
101	0xbd0bf679	-0.0341706
102	0xbbedb632	-0.0072543854
103	0xbb02d7a9	-0.001996497
104	0xbb45f08b	-0.003020319
105	0xbb359660	-0.0027708039
106	0xbb2f1ad5	-0.0026718874
107	0xbbed9857	-0.0072508263
108	0xbca7a417	-0.020463986
109	0xba5afef1	-0.0008354029
110	0x3c07b085	0.008281832
111	0xbc804013	-0.015655553
112	0x3c2e941f	0.010655432
113	0x3e273ec0	0.16332531
114	0x3d294b29	0.041331444
115	0xbce80b07	-0.02832557
116	0xbc1c3c0a	-0.009535799
117	0xbc678d92	-0.014132874
118	0x3cd5b78d	0.0260885
119	0xbc312b33	-0.010813522
120	0x3b742857	0.003725549
121	0x398f0ec0	0.00027286075
122	0x3c032931	0.008005426
123	0x3d0832f4	0.033251718
124	0x3b812470	0.0039411113
125	0xbbe978b4	-0.0071249846
126	0x3d61fc9e	0.055172555
127	0xbc71bfa1	-0.014755161
128	0x8000b33e	-6.43e-41
129	0xbd63f510	-0.05565363
130	0x8001a2bf	-1.50218e-40
131	0x3beb5cfc	0.0071827155
132	0xba7e49ce	-0.0009700329
133	0x39fb3045	0.00047910414
134	0x3a9a7d8c	0.0011786683
135	0xb8941405	-7.060919e-05
136	0x38ad7976	8.271907e-05
137	0xb86da7f3	-5.6661618e-05
138	0x38d5530b	0.000101720994
139	0x3920e8c1	0.00015345497
140	0xb7367052	-1.0874197e-05
141	0xb8997a35	-7.318371e-05
142	0xb9d9e3b3	-0.00041559114
143	0xba555a79	-0.00081387867
144	0xbb1c83cd	-0.002388227
145	0xbb12dd72	-0.0022409824
146	0x398e8c32	0.00027188804
147	0x3b193bd0	0.0023381598
148	0xb77b9b87	-1.4996977e-05
149	0x36aa2695	5.0708863e-06
150	0xb82f0ffb	-4.1738134e-05
151	0xb91f252b	-0.00015177268
152	0xbad7dccf	-0.0016469004
153	0x399b5675	0.0002962832
154	0xb868b038	-5.5477227e-05
155	0x3b8588a5	0.004075127
156	0xbaa6105a	-0.0012669668
157	0xbb9c9a47	-0.0047791335
158	0xba44c922	-0.0007506778
159	0x382ef4cd	4.171282e-05
160	0x3b147179	0.0022650643
161	0x00014307	1.1588e-40
162	0xb82ef4cd	-4.171282e-05
163	0x80006019	-3.4473e-41
164	0x3892e0f8	7.003726e-05
165	0xbcd70087	-0.026245369
166	0x3d288d11	0.041150156
167	0xbd1b520c	-0.037920043
168	0xbcaeef3f	-0.021354316
169	0x3c875eef	0.01652476
170	0xbc752b54	-0.0149639435
171	0xbb70d295	-0.003674661
172	0xbcb2a144	-0.021805413
173	0xbcac6e59	-0.021048712
174	0x3cc84ca3	0.024450606
175	0x3c6b8988	0.014376052
176	0x3c558f0c	0.013034593
177	0xba2de3d2	-0.0006633374
178	0x3d56744f	0.052357014
179	0x3cc53bdc	0.024076395
180	0x3d099ea4	0.033598557
181	0x3d1b010b	0.03784279
182	0x3bed030b	0.0072330288
183	0x3d108538	0.035283297
184	0xbcbe0d9b	-0.023199847
185	0x3c91c58e	0.017794397
186	0x3b4ca56b	0.0031226526
187	0xbc7a5560	-0.015279144
188	0x3d47cabb	0.048777323
189	0x3b797cb6	0.0038068718
190	0x3d0f2d9b	0.034955602
191	0x3b8dd815	0.0043287375
192	0x3d900f5c	0.070341796
193	0xbd6b7594	-0.057485178
194	0x00000bad	4.188e-42
195	0xbd9b4b38	-0.07582706
196	0x800090a3	-5.1886e-41
197	0x3e577d1f	0.21043824
198	0xbd4d8a1f	-0.05018055
199	0x3d9b1a67	0.07573395
200	0x3cdd237c	0.02699446
201	0xbcf1710d	-0.029472852
202	0xbca26e79	-0.019828068
203	0xbca2e9e1	-0.019886913
204	0xbd817bf3	-0.063224696
205	0x3b673c61	0.0035283791
206	0xbcbe14d7	-0.023203297
207	0x3bb96653	0.00565795
208	0xbb5be958	-0.0033555832
209	0x3b341926	0.002748081
210	0x3bdf0778	0.0068063103
211	0x3bc6eacc	0.0060704704
212	0xbd7125b3	-0.058873843
213	0xbcd35925	-0.025799343
214	0x3c6dec02	0.014521601
215	0x3b433ed5	0.002979209
216	0x3a87ea06	0.0010369427
217	0x3c753c59	0.014968001
218	0x3befb67d	0.0073154555
219	0xbc4064d8	-0.011742793
220	0xbc889065	-0.016670415
221	0xbc99bfac	-0.018768154
222	0xbc9866c9	-0.0186037
223	0xba17cccf	-0.0005790712
224	0x3c9733b5	0.018457273
225	0x3d911f44	0.070860416
226	0xbcfefe56	-0.031127136
227	0x80008c06	-5.0231e-41
228	0xbd91119a	-0.07083435
229	0x00007f5f	4.5692e-41
230	0x3e54340a	0.20722976
231	0x3dbd01a0	0.092288256
232	0x3ca29523	0.019846505
233	0xbc172c11	-0.009226815
234	0xbba354a1	-0.004984454
235	0x3b7143d6	0.0036814115
236	0xbb969a75	-0.0045960494
237	0x3cad89c6	0.02118386
238	0xbafa33e2	-0.0019088949
239	0x3b1293cb	0.0022365924
240	0xba6de177	-0.00090744294
241	0x3c4b190c	0.012396108
242	0x3b6bdb69	0.0035988933
243	0xbb2b4977	-0.0026136318
244	0xbded8586	-0.11597733
245	0xbc6155a0	-0.013753325
246	0x3cb3d1b1	0.021950575
247	0x3b7a4903	0.003819049
248	0x3c0160e4	0.007896636
249	0x3b7a7a00	0.003821969
250	0x3ac8bd0c	0.001531513
251	0xba6cf46e	-0.00090391084
252	0xba63dacf	-0.0008691968
253	0xbbb887a3	-0.0056314035
254	0xbc596838	-0.013269477
255	0xbb32d2a9	-0.0027286208

fcs1.bias f4 [128]
0	0xb7059ae7	-7.963484e-06
1	0xbda85161	-0.08218647
2	0xbd241fa0	-0.040069222
3	0xbd6b5d2e	-0.05746191
4	0xb82ef4c0	-4.1712774e-05
5	0xbd9363e3	-0.07196786
6	0xbd90f3a6	-0.07077722
7	0xbb7306c1	-0.0037082883
8	0xbd185bdd	-0.037196983
9	0xbd01a55b	-0.031651836
10	0xbd5fc1ae	-0.054628067
11	0xbd130124	-0.03588976
12	0xbd0581f3	-0.032594632
13	0xbccaa6ca	-0.024737734
14	0xbc96fcc8	-0.018431082
15	0xbd164a18	-0.036691755
16	0xbd4f92fd	-0.05067729
17	0xbceaa828	-0.028644636
18	0xbd8dcc54	-0.06923738
19	0x3b8803ad	0.004150829
20	0x3d254987	0.040353324
21	0x3ad59b87	0.0016296961
22	0xbc8d7df5	-0.017271975
23	0x3c93a1b1	0.018021436
24	0xbda9b85a	-0.082871154
25	0xbd46faa6	-0.04857888
26	0xbc4bb94b	-0.012434314
27	0xbd29c0cd	-0.041443635
28	0xbd44de35	-0.048063476
29	0xbd3139f2	-0.04326815
30	0xbd952e2e	-0.07284199
31	0x3c94a05e	0.018142875
32	0xbd103ede	-0.035216205
33	0xbc2f8000	-0.01071167
34	0xbd244447	-0.040104177
35	0xbc1abfbd	-0.009445128
36	0xbd6e51d6	-0.058183514
37	0xbcacd80c	-0.021099113
38	0xbce56fb0	-0.028007358
39	0xbdacedba	-0.0844378
40	0xb8738506	-5.8059602e-05
41	0xbc738769	-0.014863827
42	0xbd28b7bf	-0.04119086
43	0xbdac82c6	-0.084233806
44	0xbd92d7a5	-0.07170037
45	0xbcf5666a	-0.029956061
46	0xbc051830	-0.0081234425
47	0xbb8a4e1a	-0.004220736
48	0xbd805d62	-0.06267811
49	0x3c0eab37	0.008707813
50	0xbcb6d9c3	-0.022320634
51	0xbcf3d558	-0.029764816
52	0xbdb9486a	-0.09047015
53	0xbca5aaac	-0.020222984
54	0xbd95f12a	-0.07321389
55	0xbd438649	-0.047735486
56	0xbd849085	-0.064728774
57	0xbcb9f860	-0.022701442
58	0xbc263e30	-0.010146663
59	0x3d24b24e	0.040209107
60	0xbcce2d64	-0.025168128
61	0xbdc92427	-0.09821349
62	0xbd7912f7	-0.060809102
63	0xbc6990c2	-0.014255704
64	0xbdbf73aa	-0.09348233
65	0x3c1b4e31	0.0094790915
66	0x3c798ecf	0.015231802
67	0x3d06871d	0.032843698
68	0xbc09d930	-0.008413598
69	0xbd76513b	-0.06013606
70	0xbd9ccf5c	-0.07656738
71	0x3ba897c7	0.0051450464
72	0xbb8238c8	-0.003974054
73	0xbd72066b	-0.059088152
74	0xbd84444b	-0.06458338
75	0xbabf9e96	-0.0014619406
76	0xbd88b4cd	-0.0667511
77	0xbd0e2cab	-0.034710567
78	0xbd377449	-0.044788633
79	0xbd5531e1	-0.05204952
80	0xbbdb3a6c	-0.006690314
81	0x3cb36c3a	0.021902192
82	0xbd7c165d	-0.061544765
83	0xbd012ac5	-0.03153493
84	0x3c2d019a	0.010559464
85	0xbd4ff43f	-0.05077004
86	0xbdaf829c	-0.08569834
87	0xbd970313	-0.07373633
88	0xbd8f256a	-0.06989558
89	0xbcd1d7b8	-0.025615558
90	0xbb249291	-0.0025111774
91	0xbda1024c	-0.07861766
92	0x3c62dc9b	0.013846542
93	0xbd18b1df	-0.037279006
94	0xbd51cea0	-0.051222444
95	0xbd2a9da2	-0.041654237
96	0xbd8acfcc	-0.06777915
97	0xbdaf34e8	-0.08555013
98	0xbcefa6bd	-0.029254312
99	0xbe0623dd	-0.13099618
100	0xbd934e7c	-0.07192704
101	0xbd9e9022	-0.07742335
102	0xbd54551a	-0.05183897
103	0xbc91079c	-0.017703824
104	0xba146e68	-0.0005662204
105	0x3ce431b6	0.027855735
106	0xbd1ccb97	-0.038280096
107	0xbc80cf32	-0.015723798
108	0x3d274da0	0.040845513
109	0xbca3b0bd	-0.019981736
110	0xbd00b573	-0.031423043
111	0xbd795760	-0.060874343
112	0xbd63d6c9	-0.055624757
113	0x3b623d3b	0.003452136
114	0xbdc40e54	-0.095730454
115	0xbd6637f0	-0.05620569
116	0xbcaf8b9f	-0.021428881
117	0xbd453242	-0.048143633
118	0xbcce3c69	-0.02517529
119	0xbd97edf1	-0.074184306
120	0x3a9cc564	0.0011960682
121	0x3c8065e0	0.015673578
122	0xbdb3a93d	-0.08772514
123	0xbd08956c	-0.033345625
124	0xbd7626a7	-0.060095455
125	0xbb03a2d9	-0.0020086078
126	0xbdd1b422	-0.10239436
127	0x3d0924c7	0.03348234

bn2.weight f4 [128]
0	0xb7cdd4c8	-2.4536988e-05
1	0x3e194c4f	0.14970516
2	0x3e0cacbf	0.13737772
3	0x3de1929d	0.110142924
4	0xb86cf335	-5.649329e-05
5	0x3e35130e	0.1768305
6	0x3e21ba87	0.15793811
7	0x3e821b4b	0.25411448
8	0x3e9a668e	0.30156368
9	0x3e933549	0.2875159
10	0x3d981506	0.07425885
11	0x3db019f4	0.085987
12	0xbceb13dc	-0.028695993
13	0x3de1638f	0.110053174
14	0x3e029cc4	0.12755114
15	0x3de016f2	0.109418765
16	0x3e3a7351	0.18208052
17	0x3e533b7e	0.20628163
18	0x3e1bd306	0.15217218
19	0x3f100eb0	0.5627241
20	0x3eb29202	0.3487702
21	0x3e5fe4e8	0.21864665
22	0x3e097784	0.13424498
23	0x3e4a32aa	0.1974589
24	0x3e077b77	0.13230692
25	0x3e2f12eb	0.1709706
26	0x3e49e4fb	0.19716255
27	0x3ddf5763	0.109053396
28	0x3e1336b5	0.14376338
29	0x3e2c3292	0.16816166
30	0x3e171d83	0.14757352
31	0x3ee701b3	0.45118484
32	0x3eaa91dc	0.33314407
33	0x3e54a592	0.20766285
34	0x3e550648	0.20803177
35	0x3e4cc8f6	0.19998536
36	0x3e01fa75	0.12693198
37	0x3dbaddce	0.09124337
38	0x3e187a39	0.14890374
39	0x3e502593	0.20326833
40	0x38bd48dc	9.0257934e-05
41	0x3e59e1fb	0.21277611
42	0x3e8e4c9e	0.2779283
43	0x3e532a36	0.20621571
44	0x3e51d45f	0.2049117
45	0x3f0e6f6d	0.5563877
46	0x3ed08c49	0.4073203
47	0x3eab01f1	0.3339992
48	0x3e149926	0.14511546
49	0x3e421777	0.18954264
50	0x3e675f4a	0.22594944
51	0x3e298e74	0.16558248
52	0x3e00752e	0.125447
53	0x3e814d50	0.25254297
54	0x3e6376f1	0.22213341
55	0x3e6a1e49	0.22863115
56	0x3e67e12f	0.22644494
57	0x3e662a73	0.2247713
58	0x3e4011cd	0.1875679
59	0x3e5754e4	0.21028477
60	0x3e4a0d2a	0.19731584
61	0x3df0ffa8	0.117675126
62	0x3e32d284	0.17463118
63	0x3e44096f	0.19144224
64	0x3d6071ae	0.054795913
65	0x3eaff7e6	0.3436882
66	0x3e7a28ae	0.2442958
67	0x3e01b356	0.12666067
68	0x3e26b02c	0.16278142
69	0x3e92aea5	0.28648868
70	0x3e724db1	0.2366245
71	0x3e3be584	0.18349272
72	0x3e25bab3	0.16184501
73	0x3e2994a3	0.16560607
74	0x3eb7fc40	0.3593464
75	0x3eaf7b82	0.34273916
76	0x3e5ee855	0.21768315
77	0x3e4a271b	0.1974148
78	0x3dd57bc5	0.10423998
79	0x3dc89ca4	0.09795502
80	0x3e817b37	0.25289318
81	0x3e841cb3	0.25803146
82	0x3de236f5	0.110456385
83	0x3e853a44	0.26021016
84	0x3ec7716a	0.38953716
85	0x3e5c70cd	0.21527405
86	0x3e1fd522	0.15608647
87	0x3e47d1d6	0.1951364
88	0x3e17c28c	0.14820307
89	0x3e9d8483	0.3076516
90	0x393d3686	0.00018044756
91	0x3e371c28	0.17881835
92	0x3e2236bb	0.1584119
93	0x3e77257d	0.24135394
94	0x3ebdf8fc	0.37104023
95	0x3e55ea28	0.20890105
96	0x3e62df5a	0.22155514
97	0x3df91cc1	0.121636875
98	0x3e179559	0.14803065
99	0x3e3358f6	0.17514405
100	0x3e82dc56	0.25558728
101	0x3db374dc	0.087625235
102	0x3e0942de	0.13404414
103	0x3e742d99	0.23845519
104	0xb7e6cf9b	-2.751481e-05
105	0x3ec99a48	0.3937552
106	0x3e3bd7df	0.18344067
107	0x3e6739d1	0.22580649
108	0x3e8cc703	0.27495584
109	0x3e887fdf	0.26660058
110	0x3e906807	0.28204367
111	0x3e40bd37	0.1882218
112	0x3e832a7f	0.2561836
113	0x3e83754c	0.25675428
114	0x3e829e0c	0.25511205
115	0x3e870d94	0.26377547
116	0x3e0ac7ff	0.13552855
117	0x3e839102	0.2569657
118	0x3ea35411	0.31900075
119	0x3e9f2032	0.3107925
120	0xb9270514	-0.00015928253
121	0x3ef28dfd	0.47373953
122	0x3e2bc4f0	0.16774344
123	0x3e8201bb	0.25391945
124	0x3e8ddeb7	0.2770898
125	0x3e85fe1b	0.2617043
126	0x3eb1840f	0.34671065
127	0x3e3530fd	0.17694469

bn2.bias f4 [128]
0	0x38fdac1c	0.00012096038
1	0xbdea03cc	-0.114265054
2	0x3d103dc1	0.035215143
3	0xbd75225f	-0.059847232
4	0x34a6557c	3.0982108e-07
5	0xbd92b19b	-0.07162782
6	0x3cd1e017	0.02561955
7	0xbd149ffe	-0.036285393
8	0x3def2b2d	0.11678157
9	0xbd04f160	-0.032456756
10	0xbd8487fd	-0.0647125
11	0xbd3d22f6	-0.04617592
12	0x3b66f7ca	0.0035242909
13	0xbcec49b7	-0.028843744
14	0xbc197342	-0.0093658585
15	0xbd5a1f57	-0.053252544
16	0x3d45f737	0.048331466
17	0xbcdba44f	-0.026811747
18	0x3d84d9c3	0.06486847
19	0xbdb3c0df	-0.087770216
20	0x3d5bdbc3	0.053676378
21	0x3dce3a39	0.10069699
22	0xbdb4e95b	-0.088335715
23	0xbd8301d8	-0.06396836
24	0x3d15b907	0.03655341
25	0x3dd14051	0.102173455
26	0xbdb50d23	-0.08840396
27	0xbb0ced6b	-0.0021503817
28	0x3d54cffa	0.051956154
29	0xbd8bc59b	-0.068247996
30	0xbdac898b	-0.08424672
31	0x3d9a3152	0.07528938
32	0xbdd15979	-0.10222144
33	0x3d0cc56e	0.03436797
34	0xbda5047b	-0.08057495
35	0x3cc4d848	0.024028912
36	0xbdb0957c	-0.08622262
37	0x3dce61ee	0.10077272
38	0xbdbc848f	-0.09204971
39	0x3c9d2024	0.019180365
40	0xb80a4b4b	-3.2971886e-05
41	0x3d2cc073	0.04217572
42	0x3daac981	0.08339215
43	0x3df6731f	0.12033676
44	0x3de1ff03	0.11034968
45	0xbddb68aa	-0.107133225
46	0xbd7dbe8a	-0.06194929
47	0xbd05db37	-0.032679763
48	0x3c49aaca	0.012308786
49	0x3cbeab93	0.023275172
50	0xbd992a4e	-0.07478772
51	0x3d0c254e	0.034215264
52	0xbdbf3a36	-0.09337275
53	0xbdefa396	-0.117011234
54	0xbd63165a	-0.055441238
55	0xbdefa48c	-0.11701307
56	0xbbcd5003	-0.0062656417
57	0xbe0f21dd	-0.13977762
58	0x3c6ae109	0.014335879
59	0xbd6054f3	-0.054768514
60	0xbd1432a2	-0.0361811
61	0x3bff1d27	0.0077854577
62	0xbd64fd0c	-0.055905387
63	0xbdb2413d	-0.087038495
64	0xbac3400b	-0.0014896406
65	0xbddad4a2	-0.10685088
66	0x3e044a3d	0.12918945
67	0x3d3418b1	0.04396886
68	0xbcb7e0cf	-0.022446064
69	0xbe149c50	-0.14512753
70	0xbd805641	-0.062664516
71	0xbd70df10	-0.05880648
72	0xbc8954b2	-0.016764019
73	0xbd36a536	-0.04459115
74	0xbd16c1df	-0.036805984
75	0xbd40c1fa	-0.04705999
76	0xbd24d01b	-0.040237527
77	0x3cdab00c	0.026695274
78	0xbc56ea9b	-0.013117458
79	0xbd761054	-0.060074165
80	0xbd867531	-0.06565321
81	0xbdc0f29a	-0.094212726
82	0xbd973f84	-0.073851615
83	0xbc661d31	-0.014045046
84	0xbcb6b663	-0.022303766
85	0xbcac7da9	-0.021056013
86	0x3d91af9a	0.071135715
87	0xbdae663d	-0.08515594
88	0xbdfe938b	-0.12430485
89	0x3ce76060	0.028244197
90	0xb8d692e1	-0.000102316735
91	0x3c4c5a1f	0.012472658
92	0x3db88d6c	0.09011349
93	0x3d7c298c	0.06156306
94	0xbc8d29fe	-0.017231937
95	0x3cdcf013	0.026969945
96	0x3ddce501	0.107858665
97	0xbca6ca2f	-0.02036008
98	0xbcfe0f00	-0.031013012
99	0xbd9dfce1	-0.077142484
100	0xbda6385a	-0.08116217
101	0xbdb2d012	-0.087310925
102	0xbd8e5671	-0.06950081
103	0xbc1b48ed	-0.009477836
104	0xb897d37d	-7.239634e-05
105	0x3d676990	0.056497157
106	0x3c88eeb6	0.016715389
107	0xbd1a2a4d	-0.037637997
108	0xbd5072fe	-0.050890915
109	0x3cd53425	0.026025841
110	0xbdc1663d	-0.094433285
111	0x3e019b1e	0.12656829
112	0x3d9cf614	0.07664123
113	0xbd00d451	-0.03145248
114	0xbe05c6eb	-0.13064162
115	0x3c8ac9b9	0.016941892
116	0xbcaccbb0	-0.02109322
117	0xbd486d3a	-0.04893229
118	0x3d0f89a5	0.035043377
119	0xbd2067a7	-0.03916135
120	0xb8a2fb8d	-7.771617e-05
121	0xbd62f64c	-0.05541067
122	0x3cd1d625	0.025614807
123	0x3d341470	0.043964803
124	0xbdc7888d	-0.09742842
125	0xbd004727	-0.031317856
126	0xbca728a3	-0.02040512
127	0xbd10013e	-0.035157435

bn2.running_mean f4 [128]
0	0x3ca1190a	0.01966526
1	0x3c52bfe1	0.01286313
2	0x3da2ebb1	0.07955111
3	0x3a104676	0.00055036636
4	0x3c66c63f	0.0140853515
5	0x3cded50c	0.027201198
6	0x3cae16e7	0.021251155
7	0x3d066c1c	0.032817945
8	0x3dc040fc	0.09387395
9	0x3cfb37a9	0.03066619
10	0x39a583d6	0.00031569478
11	0x3a2392af	0.0006239814
12	0x397dbd78	0.00024198543
13	0x3ce404b4	0.027834274
14	0x3cb10456	0.021608513
15	0x3d43aab8	0.047770232
16	0x3d160d25	0.03663363
17	0x3de4a518	0.11164302
18	0x39dcbfd5	0.00042104596
19	0x3d9d995b	0.07695266
20	0x3ebd3eca	0.36961967
21	0x3e4dc74d	0.20095558
22	0x3e3080d4	0.17236644
23	0x3e1dcc99	0.15410079
24	0x3c7af1e9	0.015316465
25	0x3db77614	0.089580685
26	0x3e7a8447	0.24464522
27	0x3d493a27	0.049127724
28	0x3d1b66ca	0.037939824
29	0x3d428278	0.047487706
30	0x3c87c7da	0.016574789
31	0x3e770df8	0.24126422
32	0x3d56369f	0.052298184
33	0x3df0b313	0.11752906
34	0x3dccad23	0.09993961
35	0x3d8bca11	0.068256505
36	0x3c0861a1	0.008324058
37	0x3d08acf6	0.033368073
38	0x3c8c10f8	0.017097935
39	0x3cebb45b	0.028772524
40	0x3c503c9a	0.012709761
41	0x3c7cca45	0.015429084
42	0x3e4f6e74	0.20256978
43	0x3ca4fac5	0.020139107
44	0x3d10e8f3	0.035378408
45	0x3d79fc8b	0.06103186
46	0x3c8736b5	0.016505579
47	0x3e522816	0.20523104
48	0x3d61ade1	0.055097464
49	0x3ddc5541	0.107584484
50	0x3dc0baa8	0.09410602
51	0x3d94643c	0.07245681
52	0x3c75c5ca	0.01500077
53	0x3e4ac31a	0.19800988
54	0x3c1b000d	0.009460461
55	0x3e1e32a4	0.15449005
56	0x3d96fd89	0.07372577
57	0x3c90c20c	0.017670654
58	0x3d61f126	0.055161618
59	0x3c607eac	0.013702076
60	0x3a57e1f4	0.0008235269
61	0x3c313f15	0.010818263
62	0x3d523396	0.051318727
63	0x3c661be1	0.014044733
64	0x3b99c7fe	0.0046930304
65	0x3d66fd17	0.05639371
66	0x3eb43b06	0.3520128
67	0x3dca5cd7	0.09880989
68	0x3dd6997b	0.10478493
69	0x3da956f1	0.08268536
70	0x39cbaa58	0.00038846093
71	0x3d82a390	0.06378853
72	0x3c90b1f2	0.017662976
73	0x3ca6beeb	0.020354709
74	0x3d9b1daf	0.07574021
75	0x3ce57b3e	0.028012868
76	0x3d64ff3b	0.05590747
77	0x3d271c87	0.04079869
78	0x3c4d3c9d	0.012526658
79	0x3cafd719	0.021464871
80	0x3d441aee	0.047877245
81	0x3cc6c8cd	0.024265671
82	0x3bcbbcb4	0.0062175635
83	0x3de6150b	0.112344824
84	0x3f1445ac	0.5791881
85	0x3d02ef16	0.03196629
86	0x3d0af3cb	0.033923905
87	0x3d5700a2	0.052490838
88	0x3c3d1f71	0.011543141
89	0x3de06ac3	0.10957863
90	0x3c865b14	0.016400851
91	0x3d5a12f8	0.053240746
92	0x3d4ffa47	0.050775792
93	0x3e5bcb61	0.21464302
94	0x3dc8db14	0.09807411
95	0x3dc702ea	0.09717353
96	0x3d2e8e4e	0.04261618
97	0x38ef3fda	0.00011408301
98	0x3cb1a1c6	0.021683585
99	0x3cc48c23	0.023992604
100	0x3d033b3f	0.032038923
101	0x39bcffb5	0.0003604867
102	0x3db694c0	0.089150906
103	0x3e53f0ee	0.20697376
104	0x37aecdb5	2.0838206e-05
105	0x3e236082	0.15954784
106	0x3dd96fde	0.1061704
107	0x3d855066	0.065094754
108	0x3ea47014	0.3211676
109	0x3e0217d1	0.12704398
110	0x3db61774	0.08891192
111	0x3d4961ac	0.049165413
112	0x3e66f269	0.2255341
113	0x3e80bb5c	0.25142944
114	0x3cb0c91b	0.02158027
115	0x3d860a85	0.06544975
116	0x3d331d96	0.043729387
117	0x3e13c27e	0.14429662
118	0x3dbb4e58	0.09145802
119	0x3d8a025e	0.06738733
120	0x3d3fbeb8	0.046812743
121	0x3d78ca9d	0.060740102
122	0x3d230b10	0.039805472
123	0x3e3034e5	0.17207678
124	0x3cb951e9	0.022622066
125	0x3d95145e	0.07279275
126	0x3d05c5f3	0.032659482
127	0x3e7bf920	0.24606752

bn2.running_var f4 [128]
0	0x3a28634f	0.00064234895
1	0x3aa39dbc	0.0012482922
2	0x3cab98aa	0.02094682
3	0x39a21fda	0.0003092278
4	0x39c5ff46	0.00037764962
5	0x3b9bd86d	0.0047560246
6	0x3b6c4f58	0.0036058035
7	0x3b385464	0.0028126473
8	0x3cba59b5	0.022747854
9	0x3b9573be	0.0045609167
10	0x38a19d7f	7.706414e-05
11	0x39baef3d	0.0003565493
12	0x39065fbd	0.00012814901
13	0x3b934748	0.0044945814
14	0x3b3f582f	0.0029196849
15	0x3c0ca461	0.008584113
16	0x3bf3c9f5	0.0074398466
17	0x3ce0d782	0.027446512
18	0x39360589	0.00017358935
19	0x3bf3d31e	0.0074409386
20	0x3d127b78	0.03576228
21	0x3d90a7c2	0.07063247
22	0x3d0de3b6	0.03464099
23	0x3ceacb88	0.028661504
24	0x3b5b2774	0.0033440264
25	0x3cfe863c	0.031069867
26	0x3dbbb168	0.09164697
27	0x3c1ca9ec	0.009561997
28	0x3bb3d043	0.005487473
29	0x3bed9923	0.0072509213
30	0x3b5635e7	0.0032685937
31	0x3d942e07	0.072353415
32	0x3c1aaff6	0.009441366
33	0x3c88b4b8	0.016687736
34	0x3c8b0634	0.016970731
35	0x3c02f59b	0.007993127
36	0x3a5f74af	0.0008524162
37	0x3becef9c	0.007230712
38	0x3ab158cd	0.0013530493
39	0x3b8dd995	0.0043289163
40	0x3986d4a2	0.00025716895
41	0x3a864d9e	0.001024652
42	0x3d656153	0.05600102
43	0x3b62a1f5	0.0034581397
44	0x3c39095c	0.011293735
45	0x3c15ba5d	0.009138671
46	0x3ada404b	0.0016651241
47	0x3d40cbb8	0.04706928
48	0x3c34a60b	0.011025916
49	0x3ca8626e	0.020554747
50	0x3cb8cdff	0.022559164
51	0x3c5fc156	0.013656935
52	0x3afb886e	0.001919044
53	0x3db791f9	0.08963389
54	0x3a9ffd99	0.0012206315
55	0x3d5c34ca	0.05376128
56	0x3c883f62	0.016631786
57	0x3b093c88	0.002094062
58	0x3c0d2cae	0.0086166095
59	0x3b17d5d0	0.0023168214
60	0x39076be4	0.00012914796
61	0x3aa3894a	0.0012476828
62	0x3c6dbf6f	0.014510973
63	0x3a814c8e	0.0009864734
64	0x3a466e22	0.00075695117
65	0x3c0595b0	0.008153364
66	0x3d062fd4	0.032760456
67	0x3ccba05b	0.024856737
68	0x3cdf4a3e	0.027257081
69	0x3cb7e745	0.022449145
70	0x38d6cf2e	0.000102429054
71	0x3c7f6a16	0.015589258
72	0x3b843f74	0.0040358845
73	0x3b0b5717	0.0021261626
74	0x3c54e0b3	0.012993026
75	0x3b1d284e	0.0023980322
76	0x3c414954	0.011797268
77	0x3c3cf7f1	0.011533723
78	0x3b229be4	0.0024812156
79	0x3bc58063	0.006027268
80	0x3c18bbd3	0.0093221245
81	0x3b63f2e7	0.0034782232
82	0x3a1adc14	0.0005907428
83	0x3d1b5f00	0.037932396
84	0x3dc3bb95	0.09557263
85	0x3b85b44f	0.0040803323
86	0x3c01fb1b	0.007933403
87	0x3c13fe00	0.009032726
88	0x3aa35e3b	0.0012463996
89	0x3cd8382d	0.026393974
90	0x3a6c8875	0.0009023019
91	0x3c2bc43b	0.010483797
92	0x3c064725	0.008195673
93	0x3d7a50aa	0.061112083
94	0x3cb170ea	0.021660287
95	0x3c8a9400	0.016916275
96	0x3c04afb7	0.008098534
97	0x37505b8f	1.2419084e-05
98	0x3b2f0eed	0.0026711777
99	0x3b9223c0	0.004459828
100	0x3bbc4e2e	0.0057466244
101	0x39037f5f	0.00012540583
102	0x3ca995e1	0.02070135
103	0x3d965622	0.07340647
104	0x34ae41f2	3.2458007e-07
105	0x3d2b5380	0.04182768
106	0x3ce53e1a	0.027983714
107	0x3c73655c	0.014855709
108	0x3deab689	0.11460597
109	0x3ccebbec	0.025236093
110	0x3ca637ef	0.020290343
111	0x3c56c784	0.013109092
112	0x3d7537ac	0.059867546
113	0x3d3c9842	0.046043642
114	0x3b5846ec	0.0033001257
115	0x3c6992ac	0.014256161
116	0x3c2e75b5	0.010648181
117	0x3d039068	0.03212014
118	0x3c81795e	0.015804943
119	0x3c7d0d6c	0.015445095
120	0x3b482c6d	0.0030544058
121	0x3c1e9d41	0.009681047
122	0x3c1d264a	0.009591648
123	0x3d6bc0e4	0.057557
124	0x3b294e34	0.0025833966
125	0x3c84cb9b	0.016210368
126	0x3bda7061	0.0066662286
127	0x3d408c92	0.04700906

fc2.weight f4 [128, 132]
0	0xb6230723	-2.4293047e-06
1	0xbdb28d71	-0.08718384
2	0x3725f133	9.890925e-06
3	0xbc3ba8f0	-0.011453852
4	0xb8d242db	-0.00010026033
5	0xbc87bc97	-0.016569419
6	0x3ce6837f	0.028138874
7	0xbd39b207	-0.045335796
8	0x3d6ac03f	0.057312246
9	0xbd18889d	-0.03723966
10	0xbced4062	-0.028961364
11	0xbcc21562	-0.023691837
12	0x3b84ff4f	0.0040587555
13	0xbd2bdd06	-0.04195883
14	0x3bd27030	0.006422065
15	0xbcd37142	-0.025810841
16	0xba436a30	-0.0007454483
17	0xbd779b59	-0.060450885
18	0x3c73d550	0.014882401
19	0xbdb31093	-0.08743396
20	0xbcbd55d1	-0.02311221
21	0x3d46047a	0.048344113
22	0xbd1e1d0b	-0.038601916
23	0xbd8aebbc	-0.06783244
24	0x3d0e0a57	0.03467783
25	0x3cc51711	0.02405885
26	0xbc4d5127	-0.012531555
27	0xbb8509ff	-0.0040600295
28	0x3d1affa4	0.037841454
29	0xbd099c1c	-0.033596143
30	0xbcd06c30	-0.025442213
31	0x3bafec87	0.0053687724
32	0xbd40781c	-0.046989545
33	0x3d183c5c	0.03716694
34	0xbda980f1	-0.08276547
35	0xbc1c3e47	-0.009536332
36	0xbd83eb25	-0.06441335
37	0x3d639434	0.05556126
38	0xbd6f5cb3	-0.058438014
39	0xbd2613a8	-0.04054609
40	0xba7d72a0	-0.00096682645
41	0xbc364e6c	-0.011127096
42	0xbd2a096b	-0.041512888
43	0x3d85387f	0.065049164
44	0x3d0d9f8c	0.034575984
45	0xbd898599	-0.06714935
46	0xbcc236af	-0.023707716
47	0xbd38aac0	-0.045084715
48	0x3c928578	0.017885908
49	0xbcc86d5a	-0.024466205
50	0xbd5b14ff	-0.05348682
51	0x3d305b6d	0.04305594
52	0xbc0cd986	-0.0085967835
53	0xbd37d0f6	-0.044877015
54	0xbd382efd	-0.044966687
55	0xbc1f7fdc	-0.009735074
56	0xbc8c7b96	-0.017148774
57	0xbd8b9e10	-0.068172574
58	0xbbd724bb	-0.006565658
59	0xbd21dddb	-0.03951822
60	0x3b26fcb2	0.0025480208
61	0xbc16f7b0	-0.009214327
62	0xbd6db848	-0.058037072
63	0xbd82b4d6	-0.06382148
64	0x3bdcc229	0.006737013
65	0xbdaa3327	-0.08310538
66	0x3d8862bb	0.06659456
67	0x3c90332b	0.017602524
68	0xbd24622b	-0.040132683
69	0xbd22f0c2	-0.039780386
70	0xbd12fcf2	-0.03588576
71	0xbce9d6f3	-0.028544879
72	0xbd047b79	-0.032344315
73	0xbcfc42c2	-0.030793551
74	0xbd231d88	-0.039823085
75	0x3ada675d	0.0016662885
76	0xbd91ed0c	-0.07125291
77	0xba84c935	-0.0010130765
78	0xbce3f153	-0.027825033
79	0xbcdaf9eb	-0.026730498
80	0xbcafe53d	-0.021471614
81	0xbc9b1b4c	-0.018933915
82	0xbdd2d9a5	-0.10295419
83	0x3caa3500	0.020777225
84	0x3d294f7f	0.04133558
85	0x3d141cad	0.03616016
86	0x3ceaa785	0.028644333
87	0xbd1ce12c	-0.038300678
88	0xbc9b8084	-0.01898218
89	0xbd15a047	-0.036529806
90	0x38287995	4.0167553e-05
91	0xbd1deead	-0.038557697
92	0xbb3da075	-0.0028934751
93	0xbb1d8f7f	-0.002404183
94	0xbcf0019c	-0.029297642
95	0xbcf68274	-0.030091502
96	0x3d547f2c	0.051879093
97	0x3c91ce84	0.01779867
98	0x3cbb015d	0.022827799
99	0xbd33d6ca	-0.04390601
100	0xbc2d28fa	-0.010568852
101	0xbd9e1d37	-0.07720416
102	0xbd8824c3	-0.06647637
103	0x3d17fc43	0.03710581
104	0xb942fa58	-0.00018594542
105	0x3d02142a	0.03175751
106	0xbc795999	-0.015219116
107	0x3b38da5e	0.002820633
108	0xbd1ada52	-0.037805863
109	0x3cb8612d	0.022507275
110	0xbd266ba5	-0.04063
111	0x3ccf332c	0.025292955
112	0x3d3a1642	0.045431383
113	0xbcb51219	-0.022103356
114	0xbd9c0f4c	-0.07620105
115	0xbc041c63	-0.008063409
116	0xbd04916a	-0.03236524
117	0xbd112dbd	-0.03544401
118	0xbbb6b0c9	-0.0055752737
119	0xbd20dafa	-0.039271332
120	0xbb03976b	-0.0020079266
121	0x3cda130d	0.026620412
122	0x3bce7b82	0.0063013444
123	0x3ca10402	0.019655231
124	0xbcf7ef64	-0.030265518
125	0xbd57e1d2	-0.052705593
126	0xbd08d407	-0.03340533
127	0xbc1ffe03	-0.009765151
128	0xbc4aff8c	-0.012390029
129	0x3b42a494	0.0029700147
130	0xbc08a1b4	-0.008339334
131	0x3b869284	0.0041068215
132	0x38541014	5.0559713e-05
133	0x3d77a8b7	0.060463633
134	0xbc09d3e5	-0.008412336
135	0x3c7338f1	0.014845119
136	0xb9bdd304	-0.00036206108
137	0xbc960dc9	-0.01831712
138	0xbbdf5bbf	-0.006816357
139	0x3d688022	0.056762822
140	0xbc75cd8b	-0.015002619
141	0xbc6105f3	-0.013734329
142	0x3d87585a	0.066086486
143	0xbd3e1aad	-0.04641216
144	0x3c7dc024	0.015487704
145	0xbca41bbc	-0.020032756
146	0xbcf24b49	-0.029576914
147	0x3d13d28f	0.036089476
148	0xbd9c2f64	-0.076262265
149	0x3cb73868	0.022365764
150	0x3cf558f4	0.029949643
151	0x3d34f9fb	0.044183712
152	0xbc5fa563	-0.013650271
153	0xbbcb4f0c	-0.0062044915
154	0xbb84e7e2	-0.004055963
155	0xbc94cd16	-0.018164199
156	0x3c71d9fc	0.014761444
157	0x3bffb1a1	0.0078031574
158	0x3cfc28aa	0.030781109
159	0xbc546353	-0.012963134
160	0xbd29f052	-0.041488953
161	0x3d03a281	0.032137398
162	0xbc8cff02	-0.017211441
163	0x3d0f9b4b	0.03506021
164	0xbd2751af	-0.040849384
165	0x3b71eda3	0.0036915324
166	0x3c125405	0.008931165
167	0xbc3f8b41	-0.011690916
168	0x3c542a99	0.012949609
169	0xbc9024f6	-0.01759575
170	0x3dc96a57	0.09834736
171	0xbc2ee521	-0.010674746
172	0x398ac669	0.00026469238
173	0x3ca70e11	0.02039245
174	0xbc95a627	-0.018267704
175	0x3c1a812f	0.009430214
176	0x3cb12eb8	0.021628723
177	0x3d130f16	0.03590306
178	0x3bb7fc44	0.005614789
179	0xbc0da888	-0.008646138
180	0xbc29334c	-0.0103271715
181	0xbd24a094	-0.0401922
182	0x3ce139a0	0.027493298
183	0xbc75fefb	-0.015014405
184	0xbd5ddcba	-0.05416558
185	0x3d12bc2e	0.035823993
186	0xbcc2c7ce	-0.023776915
187	0xbc6b84ea	-0.014374951
188	0x3d11460d	0.035467196
189	0x3cb73e36	0.022368532
190	0xbdcadfa1	-0.09905935
191	0xbc023fe5	-0.007949804
192	0x3d2a310f	0.041550692
193	0x3cbbe8aa	0.022938091
194	0x3c6d4504	0.014481787
195	0x3cde943e	0.027170297
196	0x3aa58ce8	0.0012630494
197	0x3ce06e92	0.027396474
198	0x3bd3b9fb	0.0064613796
199	0x3cd51969	0.026013093
200	0xb91e17fa	-0.00015076986
201	0x3c0aaecd	0.008464527
202	0x3c67a432	0.014138268
203	0xbcc0b193	-0.023522174
204	0xbd02ba40	-0.031915903
205	0x3d8e570d	0.06950197
206	0x3c91824a	0.017762322
207	0x3c8eb664	0.017420955
208	0xbd5fe329	-0.054659996
209	0x3c64fc54	0.013976175
210	0xbc896513	-0.016771829
211	0xbce47667	-0.02788849
212	0xbb3daa83	-0.0028940744
213	0xbcc5690f	-0.024097947
214	0x3d578b27	0.05262294
215	0x3d8e410e	0.06946002
216	0x3a91663e	0.0011093093
217	0x3ca766cf	0.020434765
218	0x3c8f8075	0.017517308
219	0xbc811b5a	-0.015760113
220	0xbc6236b6	-0.013806989
221	0xbd73cafb	-0.05951975
222	0xb9d6f174	-0.00040997157
223	0xbd62adbf	-0.05534148
224	0xbd82effd	-0.063934304
225	0x3a012022	0.00049257476
226	0x3cf1d9c9	0.029522793
227	0xbc25918a	-0.0101055
228	0x3ca3f409	0.020013826
229	0x3c260ef9	0.010135406
230	0x3d113a27	0.03545585
231	0xbc37650b	-0.011193524
232	0xbaaba71b	-0.0013096066
233	0xbc439ec8	-0.011939712
234	0xbd3fc232	-0.04681606
235	0xbcc412ee	-0.023934808
236	0x3980ba2b	0.00024552768
237	0xbbbc5f05	-0.005748632
238	0x3c0e1bbe	0.008673606
239	0xba8721fc	-0.0010309811
240	0xbca21e17	-0.019789739
241	0x3cb45b67	0.02201624
242	0xba992671	-0.001168443
243	0xbb89b154	-0.0042020474
244	0xbc45d5d6	-0.012074908
245	0x3c25c93b	0.010118778
246	0xbd43bdc4	-0.047788396
247	0x3cfc0221	0.030762734
248	0xbc5b3742	-0.013379874
249	0x3d07eab8	0.03318283
250	0xbd720b8e	-0.05909305
251	0x3cd0e139	0.02549802
252	0xb9ca89a6	-0.00038630998
253	0x3d43d45d	0.047809947
254	0x3ce6513e	0.028114911
255	0xbc415235	-0.011799385

fc2.bias f4 [128]
0	0x3d60c754	0.054877594
1	0xbcd48320	-0.025941432
2	0xbde376d6	-0.111066505
3	0xbcaadb1c	-0.020856433
4	0xbd866af9	-0.06563372
5	0xbd85ff6b	-0.06542858
6	0x3ddb1c9a	0.10698815
7	0x3bd52000	0.006504059
8	0x3def3a22	0.1168101
9	0xbba3b9e8	-0.004996527
10	0xbd278e78	-0.040907353
11	0xbddd4a81	-0.10805226
12	0x3d5d231b	0.053988557
13	0xbce72f95	-0.028220931
14	0xbdb2182b	-0.08696016
15	0x3cc0ce61	0.02353591
16	0xbd220152	-0.03955204
17	0xbd039611	-0.032125536
18	0xbc05fe2f	-0.008178278
19	0xbc9f0bda	-0.019414831
20	0x3d5e4d16	0.054272734
21	0xbda609f2	-0.08107366
22	0x3dbc93ea	0.092079
23	0xbda4a331	-0.08038939
24	0x3d9bf30c	0.07614717
25	0xbd15c400	-0.036563873
26	0xbd188ddd	-0.037244666
27	0x3b4047b7	0.002933962
28	0x3cbf0990	0.02331999
29	0xbd918e69	-0.07107241
30	0xbd4f107a	-0.050552823
31	0xbda67dae	-0.0812944
32	0xbcbd1b27	-0.023084236
33	0xbd67f1e3	-0.056627166
34	0xbd422308	-0.04739669
35	0x3dedfd89	0.116206236
36	0xbda0aee2	-0.07845856
37	0xbca57c94	-0.020201005
38	0x3d6afd34	0.05737038
39	0x3b9f77fa	0.0048665972
40	0x3da9145c	0.08255836
41	0xbdcd7bd5	-0.10033385
42	0xbda3dea3	-0.08001449
43	0xbdb81ded	-0.08990083
44	0xbc83b5d2	-0.01607791
45	0xbd5237cd	-0.051322747
46	0xbd8f65f7	-0.0700187
47	0xbd50711f	-0.05088913
48	0xbe066cc2	-0.13127425
49	0xbd362d27	-0.044476654
50	0x3d7f66d5	0.062353928
51	0xbd9328d2	-0.0718552
52	0xbbd2b0cb	-0.006429767
53	0xbda8d432	-0.08243598
54	0xbcd441f6	-0.025910359
55	0x3dba6dfc	0.09103009
56	0xbd06e3da	-0.03293214
57	0xbca269e2	-0.01982588
58	0xbd86f118	-0.06588954
59	0xb9e9cfd6	-0.00044596073
60	0x3d82864b	0.063732706
61	0xbd324c87	-0.043530013
62	0xbd1b5c63	-0.037929904
63	0xbd4c43b4	-0.049869254
64	0x3d4b3d0f	0.049618777
65	0x3d93c23f	0.07214784
66	0xbcfb6794	-0.030689038
67	0x3d3072a5	0.043078084
68	0xbddc645c	-0.107613295
69	0xbd8313f6	-0.064002916
70	0xbcbb510a	-0.02286579
71	0x3d27d52d	0.040974785
72	0xbd96970a	-0.07353027
73	0xbcf5524e	-0.029946472
74	0x3dcc70f0	0.099824786
75	0x3deb6aaa	0.11494954
76	0xbdd7ef50	-0.10543692
77	0xbd2afc0e	-0.041744284
78	0xbd54967e	-0.051901333
79	0xba61c082	-0.0008611755
80	0xbdc540a0	-0.09631467
81	0x3df40ad0	0.11916125
82	0xbcaf3616	-0.021388095
83	0xbdd58ac5	-0.10426859
84	0xbd3a39f7	-0.045465436
85	0xbc61f1b8	-0.01379054
86	0xbdc11708	-0.09428221
87	0xbd7e217e	-0.06204366
88	0x3daafacc	0.08348617
89	0xbc7a966f	-0.015294655
90	0x3d7d62cd	0.061861802
91	0xbd850069	-0.06494219
92	0xbc9b859b	-0.018984606
93	0xbdb63b97	-0.088980846
94	0xbd8be1bc	-0.06830165
95	0xbdae4961	-0.0851009
96	0x3ce4d2e4	0.027932592
97	0xbd4498b1	-0.04799718
98	0xbd9102be	-0.07080601
99	0xbdbb147b	-0.09134766
100	0xbd6037d2	-0.054740734
101	0xbd5488f6	-0.05188843
102	0xbda02b76	-0.078207895
103	0xbd0de8c0	-0.034645796
104	0xbd8b5c7a	-0.06804748
105	0xbd8a4239	-0.06750912
106	0xbdb8e4af	-0.09027993
107	0xbca306cc	-0.019900702
108	0xbdcf5865	-0.10124282
109	0xbda1ae65	-0.07894591
110	0xbd5ba26d	-0.0536217
111	0x3d828ee5	0.06374911
112	0x3b968753	0.0045937686
113	0x3dfbf75f	0.12303042
114	0xbd89f3c8	-0.06735951
115	0xbd5ba6a2	-0.05362571
116	0xbc122d01	-0.008921863
117	0xb867d122	-5.5269462e-05
118	0x3d259ac6	0.040430807
119	0xbbcc8f3c	-0.006242661
120	0xbdd80264	-0.10547331
121	0xbd56a8cf	-0.052407082
122	0xbda38aad	-0.07985435
123	0x3d921e24	0.07134655
124	0xbb2eff1d	-0.0026702352
125	0xbd84c9e4	-0.0648382
126	0xbdb431da	-0.08798571
127	0x3d2af228	0.041734844

bn3.weight f4 [128]
0	0x3e96cb40	0.29451942
1	0x3d16a6a0	0.03678
2	0x3f0aadcf	0.5417146
3	0x3f2e2f99	0.6804138
4	0x3da16478	0.07880491
5	0x3d9bda08	0.076099455
6	0x3f65f25d	0.8982294
7	0x3f049e10	0.51803684
8	0x3e264074	0.16235524
9	0x3f7f8938	0.99818754
10	0x3f6e7964	0.9315398
11	0x3e9c94ba	0.3058222
12	0x3f06f1c0	0.5271263
13	0x3e6878f4	0.2270239
14	0x3f26f6f7	0.6522059
15	0x3f46a927	0.77601856
16	0x3f5b0b56	0.8556417
17	0x3f74e502	0.9566194
18	0x3f134965	0.57533866
19	0x3e06fac0	0.13181591
20	0x3cae9fc0	0.02131641
21	0x3f197b13	0.5995342
22	0x3f3a86c7	0.72861904
23	0x3e4f4e38	0.20244682
24	0x3f0895e2	0.53353703
25	0x3d83dcf0	0.06438625
26	0x3f2add83	0.6674425
27	0x3f2a5a4a	0.6654402
28	0x3c3d9e00	0.011573315
29	0x3ebc01d8	0.36720157
30	0x3d9fb0b0	0.07797372
31	0x3e1cacbc	0.15300268
32	0x3e49bba8	0.19700491
33	0x3f54ff36	0.8320192
34	0x3e8ac1dc	0.27101028
35	0x3ef097ae	0.46990722
36	0x3f77cbb0	0.9679518
37	0x3d5dc7f0	0.054145753
38	0x3f402049	0.75049263
39	0x3ee72442	0.4514485
40	0x3f035b71	0.51311404
41	0x3f5a8cda	0.8537117
42	0x3cee9100	0.029121876
43	0x3f31e49d	0.6948946
44	0x3f40255c	0.75057006
45	0x3ed367c2	0.41290098
46	0x3f10fcb1	0.56635576
47	0x3f5a3568	0.8523774
48	0x3e27b3d4	0.16377193
49	0x3f6b60b6	0.91944444
50	0x3e1eaeb0	0.15496325
51	0x3f42bb7c	0.7606733
52	0x3f677092	0.90406144
53	0x3f2919ce	0.66055
54	0x3d933810	0.071884274
55	0x3f7ef3e8	0.9959092
56	0x3f1cb28a	0.6120993
57	0x3eb531b2	0.35389477
58	0x3f50fd46	0.81636465
59	0x3f57749c	0.84162307
60	0x3f295c35	0.6615632
61	0x3dd86ee0	0.10568023
62	0x3f170d90	0.5900507
63	0x3e882dce	0.26597446
64	0x3e5ea154	0.2174123
65	0x3f765c56	0.96234643
66	0x3e62a0f4	0.22131711
67	0x3e14b7e0	0.14523268
68	0x3eaea5a4	0.3411075
69	0x3f7e5080	0.99341583
70	0x3eaa4790	0.33257723
71	0x3de14b88	0.110007346
72	0x3e6a7508	0.22896206
73	0x3e573aec	0.2101857
74	0x3f31aff6	0.6940912
75	0x3f37bc09	0.71771294
76	0x3f474d23	0.77852076
77	0x3f043f4d	0.5165909
78	0x3dbc2b50	0.09187949
79	0x3e2666e8	0.16250193
80	0x3f3ed65c	0.74545836
81	0x3d229ac0	0.039698362
82	0x3f184795	0.59484226
83	0x3e297000	0.16546631
84	0x3ee28da6	0.44248694
85	0x3eacc390	0.33742952
86	0x3f48dd22	0.7846242
87	0x3f1063ba	0.5640217
88	0x3e06a160	0.13147497
89	0x3e305ccc	0.17222899
90	0x3eeb7a94	0.45991957
91	0x3f36b5f4	0.7137139
92	0x3ebe70da	0.37195474
93	0x3e954718	0.29155803
94	0x3d987828	0.07444793
95	0x3f2317e4	0.6370833
96	0x3f584ea9	0.84495026
97	0x3f006b74	0.5016396
98	0x3f05da48	0.52286196
99	0x3e116308	0.14197934
100	0x3e55f9dc	0.20896095
101	0x3d9fe790	0.07807839
102	0x3ef1adb0	0.47202826
103	0x3dd15748	0.10221726
104	0x3e7c0da8	0.24614584
105	0x3f1f729a	0.62284243
106	0x3e2d2948	0.16910279
107	0x3f452425	0.7700828
108	0x3f63782a	0.8885523
109	0x3f315efe	0.6928557
110	0x3f44a4cf	0.7681398
111	0x3e38c244	0.18042856
112	0x3f376168	0.71633005
113	0x3f12348f	0.5711145
114	0x3ed709e2	0.41999727
115	0x3ee337e0	0.44378567
116	0x3e66e200	0.2254715
117	0x3f0c9669	0.5491701
118	0x3d0bbe00	0.034116745
119	0x3e3975b8	0.18111312
120	0x3f254f77	0.6457438
121	0x3f1b7ed6	0.6074041
122	0x3eece546	0.46268672
123	0x3c9431c0	0.018090129
124	0x3e2361f4	0.15955335
125	0x3d7d6200	0.06186104
126	0x3f77f120	0.968523
127	0x3e066b34	0.13126832

bn3.bias f4 [128]
0	0x00000000	0.0
1	0x00000000	0.0
2	0x00000000	0.0
3	0x00000000	0.0
4	0x00000000	0.0
5	0x00000000	0.0
6	0x00000000	0.0
7	0x00000000	0.0
8	0x00000000	0.0
9	0x00000000	0.0
10	0x00000000	0.0
11	0x00000000	0.0
12	0x00000000	0.0
13	0x00000000	0.0
14	0x00000000	0.0
15	0x00000000	0.0
16	0x00000000	0.0
17	0x00000000	0.0
18	0x00000000	0.0
19	0x00000000	0.0
20	0x00000000	0.0
21	0x00000000	0.0
22	0x00000000	0.0
23	0x00000000	0.0
24	0x00000000	0.0
25	0x00000000	0.0
26	0x00000000	0.0
27	0x00000000	0.0
28	0x00000000	0.0
29	0x00000000	0.0
30	0x00000000	0.0
31	0x00000000	0.0
32	0x00000000	0.0
33	0x00000000	0.0
34	0x00000000	0.0
35	0x00000000	0.0
36	0x00000000	0.0
37	0x00000000	0.0
38	0x00000000	0.0
39	0x00000000	0.0
40	0x00000000	0.0
41	0x00000000	0.0
42	0x00000000	0.0
43	0x00000000	0.0
44	0x00000000	0.0
45	0x00000000	0.0
46	0x00000000	0.0
47	0x00000000	0.0
48	0x00000000	0.0
49	0x00000000	0.0
50	0x00000000	0.0
51	0x00000000	0.0
52	0x00000000	0.0
53	0x00000000	0.0
54	0x00000000	0.0
55	0x00000000	0.0
56	0x00000000	0.0
57	0x00000000	0.0
58	0x00000000	0.0
59	0x00000000	0.0
60	0x00000000	0.0
61	0x00000000	0.0
62	0x00000000	0.0
63	0x00000000	0.0
64	0x00000000	0.0
65	0x00000000	0.0
66	0x00000000	0.0
67	0x00000000	0.0
68	0x00000000	0.0
69	0x00000000	0.0
70	0x00000000	0.0
71	0x00000000	0.0
72	0x00000000	0.0
73	0x00000000	0.0
74	0x00000000	0.0
75	0x00000000	0.0
76	0x00000000	0.0
77	0x00000000	0.0
78	0x00000000	0.0
79	0x00000000	0.0
80	0x00000000	0.0
81	0x00000000	0.0
82	0x00000000	0.0
83	0x00000000	0.0
84	0x00000000	0.0
85	0x00000000	0.0
86	0x00000000	0.0
87	0x00000000	0.0
88	0x00000000	0.0
89	0x00000000	0.0
90	0x00000000	0.0
91	0x00000000	0.0
92	0x00000000	0.0
93	0x00000000	0.0
94	0x00000000	0.0
95	0x00000000	0.0
96	0x00000000	0.0
97	0x00000000	0.0
98	0x00000000	0.0
99	0x00000000	0.0
100	0x00000000	0.0
101	0x00000000	0.0
102	0x00000000	0.0
103	0x00000000	0.0
104	0x00000000	0.0
105	0x00000000	0.0
106	0x00000000	0.0
107	0x00000000	0.0
108	0x00000000	0.0
109	0x00000000	0.0
110	0x00000000	0.0
111	0x00000000	0.0
112	0x00000000	0.0
113	0x00000000	0.0
114	0x00000000	0.0
115	0x00000000	0.0
116	0x00000000	0.0
117	0x00000000	0.0
118	0x00000000	0.0
119	0x00000000	0.0
120	0x00000000	0.0
121	0x00000000	0.0
122	0x00000000	0.0
123	0x00000000	0.0
124	0x00000000	0.0
125	0x00000000	0.0
126	0x00000000	0.0
127	0x00000000	0.0

bn3.running_mean f4 [128]
0	0x00000000	0.0
1	0x00000000	0.0
2	0x00000000	0.0
3	0x00000000	0.0
4	0x00000000	0.0
5	0x00000000	0.0
6	0x00000000	0.0
7	0x00000000	0.0
8	0x00000000	0.0
9	0x00000000	0.0
10	0x00000000	0.0
11	0x00000000	0.0
12	0x00000000	0.0
13	0x00000000	0.0
14	0x00000000	0.0
15	0x00000000	0.0
16	0x00000000	0.0
17	0x00000000	0.0
18	0x00000000	0.0
19	0x00000000	0.0
20	0x00000000	0.0
21	0x00000000	0.0
22	0x00000000	0.0
23	0x00000000	0.0
24	0x00000000	0.0
25	0x00000000	0.0
26	0x00000000	0.0
27	0x00000000	0.0
28	0x00000000	0.0
29	0x00000000	0.0
30	0x00000000	0.0
31	0x00000000	0.0
32	0x00000000	0.0
33	0x00000000	0.0
34	0x00000000	0.0
35	0x00000000	0.0
36	0x00000000	0.0
37	0x00000000	0.0
38	0x00000000	0.0
39	0x00000000	0.0
40	0x00000000	0.0
41	0x00000000	0.0
42	0x00000000	0.0
43	0x00000000	0.0
44	0x00000000	0.0
45	0x00000000	0.0
46	0x00000000	0.0
47	0x00000000	0.0
48	0x00000000	0.0
49	0x00000000	0.0
50	0x00000000	0.0
51	0x00000000	0.0
52	0x00000000	0.0
53	0x00000000	0.0
54	0x00000000	0.0
55	0x00000000	0.0
56	0x00000000	0.0
57	0x00000000	0.0
58	0x00000000	0.0
59	0x00000000	0.0
60	0x00000000	0.0
61	0x00000000	0.0
62	0x00000000	0.0
63	0x00000000	0.0
64	0x00000000	0.0
65	0x00000000	0.0
66	0x00000000	0.0
67	0x00000000	0.0
68	0x00000000	0.0
69	0x00000000	0.0
70	0x00000000	0.0
71	0x00000000	0.0
72	0x00000000	0.0
73	0x00000000	0.0
74	0x00000000	0.0
75	0x00000000	0.0
76	0x00000000	0.0
77	0x00000000	0.0
78	0x00000000	0.0
79	0x00000000	0.0
80	0x00000000	0.0
81	0x00000000	0.0
82	0x00000000	0.0
83	0x00000000	0.0
84	0x00000000	0.0
85	0x00000000	0.0
86	0x00000000	0.0
87	0x00000000	0.0
88	0x00000000	0.0
89	0x00000000	0.0
90	0x00000000	0.0
91	0x00000000	0.0
92	0x00000000	0.0
93	0x00000000	0.0
94	0x00000000	0.0
95	0x00000000	0.0
96	0x00000000	0.0
97	0x00000000	0.0
98	0x00000000	0.0
99	0x00000000	0.0
100	0x00000000	0.0
101	0x00000000	0.0
102	0x00000000	0.0
103	0x00000000	0.0
104	0x00000000	0.0
105	0x00000000	0.0
106	0x00000000	0.0
107	0x00000000	0.0
108	0x00000000	0.0
109	0x00000000	0.0
110	0x00000000	0.0
111	0x00000000	0.0
112	0x00000000	0.0
113	0x00000000	0.0
114	0x00000000	0.0
115	0x00000000	0.0
116	0x00000000	0.0
117	0x00000000	0.0
118	0x00000000	0.0
119	0x00000000	0.0
120	0x00000000	0.0
121	0x00000000	0.0
122	0x00000000	0.0
123	0x00000000	0.0
124	0x00000000	0.0
125	0x00000000	0.0
126	0x00000000	0.0
127	0x00000000	0.0

bn3.running_var f4 [128]
0	0x3f800000	1.0
1	0x3f800000	1.0
2	0x3f800000	1.0
3	0x3f800000	1.0
4	0x3f800000	1.0
5	0x3f800000	1.0
6	0x3f800000	1.0
7	0x3f800000	1.0
8	0x3f800000	1.0
9	0x3f800000	1.0
10	0x3f800000	1.0
11	0x3f800000	1.0
12	0x3f800000	1.0
13	0x3f800000	1.0
14	0x3f800000	1.0
15	0x3f800000	1.0
16	0x3f800000	1.0
17	0x3f800000	1.0
18	0x3f800000	1.0
19	0x3f800000	1.0
20	0x3f800000	1.0
21	0x3f800000	1.0
22	0x3f800000	1.0
23	0x3f800000	1.0
24	0x3f800000	1.0
25	0x3f800000	1.0
26	0x3f800000	1.0
27	0x3f800000	1.0
28	0x3f800000	1.0
29	0x3f800000	1.0
30	0x3f800000	1.0
31	0x3f800000	1.0
32	0x3f800000	1.0
33	0x3f800000	1.0
34	0x3f800000	1.0
35	0x3f800000	1.0
36	0x3f800000	1.0
37	0x3f800000	1.0
38	0x3f800000	1.0
39	0x3f800000	1.0
40	0x3f800000	1.0
41	0x3f800000	1.0
42	0x3f800000	1.0
43	0x3f800000	1.0
44	0x3f800000	1.0
45	0x3f800000	1.0
46	0x3f800000	1.0
47	0x3f800000	1.0
48	0x3f800000	1.0
49	0x3f800000	1.0
50	0x3f800000	1.0
51	0x3f800000	1.0
52	0x3f800000	1.0
53	0x3f800000	1.0
54	0x3f800000	1.0
55	0x3f800000	1.0
56	0x3f800000	1.0
57	0x3f800000	1.0
58	0x3f800000	1.0
59	0x3f800000	1.0
60	0x3f800000	1.0
61	0x3f800000	1.0
62	0x3f800000	1.0
63	0x3f800000	1.0
64	0x3f800000	1.0
65	0x3f800000	1.0
66	0x3f800000	1.0
67	0x3f800000	1.0
68	0x3f800000	1.0
69	0x3f800000	1.0
70	0x3f800000	1.0
71	0x3f800000	1.0
72	0x3f800000	1.0
73	0x3f800000	1.0
74	0x3f800000	1.0
75	0x3f800000	1.0
76	0x3f800000	1.0
77	0x3f800000	1.0
78	0x3f800000	1.0
79	0x3f800000	1.0
80	0x3f800000	1.0
81	0x3f800000	1.0
82	0x3f800000	1.0
83	0x3f800000	1.0
84	0x3f800000	1.0
85	0x3f800000	1.0
86	0x3f800000	1.0
87	0x3f800000	1.0
88	0x3f800000	1.0
89	0x3f800000	1.0
90	0x3f800000	1.0
91	0x3f800000	1.0
92	0x3f800000	1.0
93	0x3f800000	1.0
94	0x3f800000	1.0
95	0x3f800000	1.0
96	0x3f800000	1.0
97	0x3f800000	1.0
98	0x3f800000	1.0
99	0x3f800000	1.0
100	0x3f800000	1.0
101	0x3f800000	1.0
102	0x3f800000	1.0
103	0x3f800000	1.0
104	0x3f800000	1.0
105	0x3f800000	1.0
106	0x3f800000	1.0
107	0x3f800000	1.0
108	0x3f800000	1.0
109	0x3f800000	1.0
110	0x3f800000	1.0
111	0x3f800000	1.0
112	0x3f800000	1.0
113	0x3f800000	1.0
114	0x3f800000	1.0
115	0x3f800000	1.0
116	0x3f800000	1.0
117	0x3f800000	1.0
118	0x3f800000	1.0
119	0x3f800000	1.0
120	0x3f800000	1.0
121	0x3f800000	1.0
122	0x3f800000	1.0
123	0x3f800000	1.0
124	0x3f800000	1.0
125	0x3f800000	1.0
126	0x3f800000	1.0
127	0x3f800000	1.0
