mode_weights/agent16_actor_local.pth (torch_old, 93021 bytes, 18 tensors)

bn1.weight f4 [33]
00000000: 36cb 023f d0cd 0d3f fb5a a53e 5d6c 4dbc
00000010: 385a 583c c63e 1a3d 18eb 1e3d b1de 813e
00000020: 18e5 de3d 6714 1a3e 48c1 253e 54d3 113e
00000030: 3f4f cf3d be0d 0e3f 34f1 f93e 7138 313f
00000040: 2fb3 643d e5bc 9b3d 18ef 5b3c 8aac db3c
00000050: 1eb7 773e 2d0c 9f3e 9b3b f73d 6f50 283f
00000060: 25ef 983e 3c25 ea3e 1f51 833f 9021 143d
00000070: 23e8 003f 9030 bf3e 1236 9c3e 9497 6e3f
00000080: 1c6b a33e
0.51091325 0.5539217 0.32295975 -0.012538043 0.013205104 0.03765752 0.03879842 0.25365213
0.1088354 0.15046845 0.16187012 0.14240772 0.10122537 0.5548972 0.48816836 0.6922675
0.055834945 0.07604388 0.013423704 0.026815671 0.24190947 0.31063977 0.12071916 0.6574773
0.29869953 0.45731533 1.0259131 0.03616482 0.5035421 0.37341738 0.30510002 0.9320004
0.31917655

bn1.bias f4 [33]
00000000: 56d7 583b 2204 74bd 098e e1bd 56f3 8bbd
00000010: 50aa 62be 2e02 493d c334 0b3e 0176 3ebe
00000020: af1d 83bc ae83 af3d 2d62 94bd 9789 29be
00000030: c50e cf3c 87c1 a73b 354e 86bd de99 bf3b
00000040: e40b c8bb 1072 f83a b450 7a3d ad17 a83d
00000050: 55ae 04bb 8756 d53d 8a77 53bd 571a 34bd
00000060: 8875 9abd 91e4 923c 3cfe babb 537e 1a3e
00000070: 22b1 4fbb d783 1f3e 87c0 5bbe 86e5 54be
00000080: 3b1c 9c3d
0.0033087335 -0.059574254 -0.11013419 -0.06833522 -0.22135282 0.049074344 0.13594346 -0.18599702
-0.016005365 0.08570038 -0.07245288 -0.16556393 0.025275597 0.005119506 -0.065578856 0.0058472
-0.006104933 0.0018954892 0.06111212 0.08207641 -0.0020245512 0.104168944 -0.051627673 -0.043970432
-0.075419486 0.017931255 -0.0057065766 0.15087251 -0.0031691273 0.15577637 -0.21460162 -0.20790681
0.07622572

bn1.running_mean f4 [33]
00000000: f26a 2c3f 312e 1ec0 fb2a b9be ac88 583f
00000010: f5b2 a53d 8615 f33b 6a35 59bd 8389 2b3c
00000020: 936b 0dbb 2a68 0f3c 0c0f 0b3d 9164 083d
00000030: 1732 78bc 851c f13e 3918 25c0 a8ad 7cbd
00000040: 0312 7a3c 2b73 23bc 509e 38bc d645 77bd
00000050: 97b5 293e 037e 00b9 e61d 483d 740f 0a3d
00000060: e5bd 3b3e ec46 023d 8d9a ea3c fcff 7fbf
00000070: c9c3 053e 0000 0000 fcff 7f3f 0000 0000
00000080: 3b34 4f3b
0.67350686 -2.4715693 -0.36165604 0.84583545 0.08090774 0.0074183373 -0.053029455 0.010469797
-0.0021579012 0.008752862 0.033949897 0.033299033 -0.015148661 0.4709207 -2.5796034 -0.06168905
0.015263083 -0.009976189 -0.011268213 -0.060369335 0.16573177 -0.00012253974 0.04885664 0.033706143
0.18334158 0.031805918 0.028638149 -0.99999976 0.13062967 0.0 0.99999976 0.0
0.0031616825

bn1.running_var f4 [33]
00000000: e27e 8640 03e4 0e3f 487b 9340 6a30 823d
00000010: de4d 923d 8c1b fd3c 88c4 df3d 9b95 bc3e
00000020: bcd6 863d c1cd df3d 0717 0a40 351b a53f
00000030: 8623 2740 cdbd 9e41 7fed d23f 5201 ab41
00000040: be49 df3d 2ee9 893e 4a8c ca3d fb08 053f
00000050: 1722 2440 cfe5 553f a0b7 7f3f 5497 f840
00000060: b5c4 6d40 4416 0741 17c4 0042 0400 0000
00000070: bb56 fe41 0400 0000 0400 0000 0400 0000
00000080: 649b ad3e
4.2029886 0.5581667 4.608799 0.063568905 0.07143758 0.030896924 0.10926157 0.3683289
0.06583926 0.10927916 2.1576555 1.2898928 2.6115432 19.842676 1.6478728 21.375645
0.10902737 0.26935714 0.09890039 0.5196683 2.5645807 0.83553785 0.99889565 7.7684727
3.715131 8.442936 32.191494 6e-45 31.792349 6e-45 6e-45 6e-45
0.33907616

fc1.weight f4 [128, 33]
00000000: 21cb 53bd 3804 e7bc 20b8 c93c 62ec 47be
00000010: 3c21 9fbd 2286 513d a4f4 003c ecf3 f7bd
00000020: 61f3 3f3d 43b5 fdbc 93f1 1dbd 92fa 233e
00000030: dbf4 b03d d032 0fbd cc7c 23bc a353 6dbd
00000040: ba90 6cbd 6c83 8cbd 1319 843d 3e98 9c3c
00000050: 1412 55bd bd1d bd3d bc0a 61bd a271 13bd
00000060: 4b24 943c e970 0c3d 69c7 fe3d 501c 913d
00000070: 0b83 bb3c 2d46 393c 62b6 05be 612b 3fbd
00000080: cb0a 423d 5ba9 013d c551 0c3c 8941 083e
00000090: 1129 28bb f71f 513d 8ac8 433d 7420 383d
000000a0: 7731 a3bc a444 5e3d 3d98 03bd 4230 e8bc
000000b0: 5f3d ad3d 6f03 463d 1bb9 0a3d fe42 a33d
000000c0: 1857 513d 803c 083d e2c0 a33c 0f5e ef3c
000000d0: 2a7e 8d3d f7e4 053d 6043 96bc 46aa 643b
000000e0: e48a 103c b6bf 323d 3cec 32bd c3a8 3ebe
000000f0: 4988 1dbd 6f9a 1b3e cb60 47bd cf13 0d3e
00000100: da10 d43c 01f8 9339 8225 ccbc 136a 8fbd
00000110: 2211 bb3b 8a17 3bbd 9480 0c3d 7668 0a3b
00000120: 9e4d a83d 6e93 c3ba 4de5 59bd 7ee0 a8bd
00000130: dbeb 10be 1807 39bd 6d7f 063d a024 fa3c
00000140: cfbc a73c 0652 7cbd 9536 89bd be7c 9ebd
00000150: ed87 453c 6857 d9bc be85 36bd 5ca5 1fbc
00000160: c0d4 363d c564 d0bd bcad 923c 78f2 5d3d
00000170: 94ab 82bc 0adf 243e 56c9 a5bd 1792 813d
00000180: 4399 7cbd ad9a 9bbb ea3f 18be 6b3a 023e
00000190: b771 373d 0016 e2bc 22cf 04be 8b82 093d
000001a0: a660 a2bc 5392 b33c ad6e 00bd 6bb1 9fbd
000001b0: a5d4 713d 0f0b 433d 1f43 173d f591 0ebd
000001c0: d0e3 3bbe d13e 3f3d 44b4 d13d 85d4 1bbd
000001d0: a140 a8bc ef08 86bc 9423 db3c 83a5 d13b
000001e0: 4f50 2cbd 45bb 3dbc c136 0ebd 6669 f33c
000001f0: 79d5 80bd e0d8 a33c e927 a53d 5193 88be
00000200: a707 833d dcc1 1ebc 9d8f 953c bed2 773d
00000210: ec8a 1a3b 95c4 2a3c 9883 083e 6fa8 ac3c
00000220: a718 6bbc d69e 243c fb55 143d 6213 7ebc
00000230: 7afe 9fbc 5a13 0c3c 3f1b 8abd d801 d6bb
00000240: b6d6 013e fb89 b23d 2cd9 a3ba db92 a53d
00000250: fcc1 f83c aed2 17bd f726 78bd 3121 833d
00000260: 4f30 883c 7e1b 5e3b b7bc b7bc e88a 213d
00000270: a6af 0fbc eea2 af3d e3d2 5d3d 31df 0c3d
00000280: 7bb4 75be 56be f33a 8bac 3a3d d3cb 2f3d
00000290: f5de 483e 6ce2 4c3d 18ef 78bc c6a2 293e
000002a0: faa8 49bd eba3 b5bc 6377 abbb 3862 c13b
000002b0: 8ad4 b03c 8b5b 6b3d e4a1 bc3b 9d1d a23d
000002c0: 52a0 e3bc 137e a03c 0224 d2bd 95ec 40bd
000002d0: f9bf 40be 0249 823c 043f a1bc c893 7e3d
000002e0: df1a 643d 359e 703c b9a8 58ba 6661 0abd
000002f0: df28 7fbc b0c8 6ebb dbc8 f9bc 754e bb3d
00000300: ea6d e0bd e924 84bd 1c08 51bc 6445 bebc
00000310: e039 9fbd d721 433d e3f9 f43c 45a6 513d
00000320: e605 613d cf6d 7a3d f2f6 02be ff71 2ebd
00000330: 3bae 813d ddf5 26bc 376a 063d 3a34 1bbd
00000340: fc22 3c3d ed3a 173d 4b5f 00bd 6cba bfbd
00000350: 8b67 4abd cb91 c73d 53f7 2c3d 7016 ec3c
00000360: 4201 abbd 747a 93bc e381 6dbc ccae 26bc
00000370: afaf a53d 8c4c 31bc 0e0d 96bc b6c8 503d
00000380: d467 f3bc 6f51 3e3e 9d21 1bbe 58cd 283e
00000390: 4075 b5bc 8f14 f6bd aebf 493e 294f bc3d
000003a0: a6f0 8bbc 05fb 75bd fb68 553c c300 cc3d
000003b0: 97d9 a5bd 6bd2 0b3c 3c7f 343c c947 7c3d
000003c0: 2410 38bd 4cf1 903d a5fe 4a3d a433 a0bc
000003d0: 3e50 7e3d 452a bfbd 9309 843d 2e36 d33c
000003e0: c210 f03c 69e0 eabd 9c09 7cbc 5ed6 f0bc
000003f0: 0d6a 1fbc fc57 1e3d ec3f d0bc 3f4c c3bd
-0.05170739 -0.028200254 0.02462393 -0.19523767 -0.07770011 0.05115331 0.007870827 -0.12107071
0.046862964 -0.030970221 -0.03856046 0.16013554 0.086404525 -0.034960568 -0.009978484 -0.05794109
-0.05775521 -0.06861004 0.06450095 0.019115563 -0.052019194 0.09234188 -0.054941878 -0.03599704
0.018083712 0.034287367 0.12440378 0.07085478 0.022889635 0.011308235 -0.13057855 -0.04667223
0.047373574 0.03165565 0.008564417 0.1330625 -0.0025659243 0.051055875 0.04779867 0.044952825
-0.019921048 0.05426468 -0.032127608 -0.028343324 0.08458971 0.04834312 0.033867937 0.07971762
0.05110845 0.033260822 0.019989435 0.029219655 0.069088295 0.03268906 -0.018342674 0.003489153
0.008822177 0.04363986 -0.043682322 -0.18619065 -0.03846005 0.1519563 -0.048676293 0.13777088
0.025886942 0.00028222802 -0.024920229 -0.07002654 0.0057088295 -0.045676745 0.03430231 0.0021119392
0.08217929 -0.0014921257 -0.053197194 -0.082459435 -0.14152472 -0.04517278 0.032836366 0.030535042
0.020475773 -0.06160166 -0.06699864 -0.077386364 0.012056333 -0.026530936 -0.04456114 -0.009744015
0.044636488 -0.1017547 0.017905109 0.054186314 -0.015950955 0.16100708 -0.080950424 0.063266926
-0.0616696 -0.0047486634 -0.14868131 0.12717597 0.04478618 -0.027598381 -0.1296964 0.03357176
-0.019821476 0.021920359 -0.03135555 -0.07797512 0.059040684 0.04761797 0.036929246 -0.034807164
-0.18348622 0.046690766 0.10239461 -0.03804447 -0.02053863 -0.016361682 0.026750363 0.0063979044
-0.042068776 -0.011580293 -0.034720186 0.029713344 -0.06290717 0.020000875 0.08064253 -0.26674893
0.06397944 -0.009689774 0.018256957 0.060503714 0.002358134 0.010422845 0.13331449 0.02107641
-0.014349139 0.010047635 0.03621481 -0.015507551 -0.019530524 0.008549536 -0.06743478 -0.0065309815
0.12679562 0.08717724 -0.0012500635 0.08084651 0.030365936 -0.037066154 -0.060584035 0.06402815
0.016624598 0.0033890898 -0.022428853 0.039439112 -0.008769905 0.08575998 0.054156195 0.03439254
-0.23994629 0.0018596153 0.045574706 0.04291899 0.19616301 0.05002062 -0.015193723 0.16566
-0.049233414 -0.022172889 -0.005232738 0.005901601 0.021585722 0.05746035 0.0057566036 0.079158045
-0.027786408 0.019591367 -0.10260774 -0.047100622 -0.18823232 0.015903953 -0.019683369 0.062152654
0.05568969 0.014686157 -0.0008264888 -0.033784293 -0.015573709 -0.0036435537 -0.030491283 0.09145824
-0.109584644 -0.064523526 -0.012758281 -0.023226447 -0.07774711 0.047639694 0.029904312 0.051183958
0.054937266 0.061139878 -0.12789515 -0.042589184 0.0633206 -0.010190454 0.032816138 -0.037891604
0.0459318 0.03692143 -0.03134088 -0.09361729 -0.049415153 0.09744605 0.042228054 0.028819293
-0.08349849 -0.018002726 -0.014496299 -0.010173511 0.080901496 -0.010821473 -0.018316772 0.050972663
-0.029712595 0.18585752 -0.15149541 0.16484582 -0.022150636 -0.1201564 0.19702026 0.09194786
-0.017082524 -0.060053844 0.013025518 0.09961083 -0.080981426 0.008534054 0.011016663 0.061591897
-0.044937268 0.07077274 0.049559254 -0.019555874 0.062088244 -0.09334234 0.06447139 0.02578267
0.029304866 -0.11468584 -0.01538315 -0.029399093 -0.009729874 0.038658127 -0.025421105 -0.09536027

fc1.bias f4 [128]
00000000: 89e9 503d 09e2 c3b8 1b0f 1b3e ec52 97bd
00000010: a4c0 00be f8a4 903d 7da4 283e 8146 04be
00000020: 2ded 303e ecdb 01be 1e32 a33d a6fe a7bd
00000030: 35c4 bbbd 224c b6bd 7ed8 68bc 5bf8 33be
00000040: c841 463e b487 d0bd 74ca dabd 16f4 49be
00000050: 9162 69be bc76 9c3d ce83 a33c 2835 c0bd
00000060: f76a 8bbd 83dd c83c bbd6 95bd ef1c 143e
00000070: 5e0f 03be 671d 633e 383e 1a3e 4ac3 25be
00000080: 151c 00bd 3e8a b23c dec0 19be a087 afbd
00000090: c514 5b3d f2ac e33d c671 82bb dd89 1dbe
000000a0: 8b88 fc3d 27bc 083d 4809 76bd 8a03 08bb
000000b0: 590e f0bd 672a 71bd 75b4 1dbd ff44 cf3d
000000c0: 7970 24be c211 183e e69b 93bd 0ec3 1f3e
000000d0: a6c2 d0bd f8af 793d 6588 9b3e 5881 c9bd
000000e0: 2640 fabc af27 fd3d 2cd6 df3d 7493 03be
000000f0: 1656 3b3e 2cc2 f3bd e3fc 3f3e 20d3 80bd
00000100: 78e1 33bc a894 87bd 42b2 803d 5a7a 633d
00000110: 9dee 063e 59d1 533e 7215 04be 2ecf b23d
00000120: 4168 31bd 4f71 14bd 05ca 303e c366 babd
00000130: c7d5 4b3c 091a 3e3e d3bd 193b d730 d8bd
00000140: 5a89 7d3e e6b6 a2bd f933 43be efef a63c
00000150: 3719 803e ca72 b63d 3d8e 53be 18c4 d2bd
00000160: c82c 09bc 7138 533e 6853 55be c343 0f3d
00000170: 90a8 07bd d896 ba3d 36f7 2cbc 4e5e eb3d
00000180: 0e32 a0bc 03b6 233e b504 2abc 4d73 c8bd
00000190: 9751 6fbc 47ac 86bd 66be 87bd 766c aa3c
000001a0: 9e0b 0dbe 41c3 0c3e 3cd5 ba3c 96d1 823e
000001b0: a1ac 063d 0f43 44bc 45db 643d a117 01be
000001c0: 558c a5bc 4d10 d4bd 664c 403d edd3 a03d
000001d0: fbfb 08be 24e4 30be ee71 a2bd 1648 893c
000001e0: 3d2e b43d bab9 603e a19a 84bb 3859 273d
000001f0: 0f16 413e 8ec1 343e ff4e 94bd 0818 963b
0.051003966 -9.340427e-05 0.15142481 -0.07388863 -0.12573487 0.07062715 0.16468997 -0.1291752
0.17277975 -0.1268155 0.079685435 -0.08202867 -0.09168283 -0.0890124 -0.014211772 -0.17575209
0.19361031 -0.10182133 -0.10683146 -0.19722018 -0.22791506 0.07639834 0.01996031 -0.09385139
-0.06807511 0.024519688 -0.07316347 0.14464162 -0.12798831 0.22179185 0.15062797 -0.16187778
-0.03127678 0.021794435 -0.15014979 -0.0857079 0.053486604 0.11116971 -0.003980848 -0.15384622
0.12330731 0.03338256 -0.060067445 -0.0020754063 -0.117214866 -0.05887833 -0.038502175 0.10120582
-0.1605853 0.14850524 -0.0720747 0.15601751 -0.10193376 0.060958833 0.30377498 -0.098391235
-0.030548166 0.12361085 0.10929522 -0.12849218 0.18294558 -0.1190227 0.18748812 -0.06290269
-0.010979049 -0.06620151 0.06284 0.055536605 0.13176961 0.20685329 -0.12898806 0.08730923
-0.043312315 -0.036240872 0.17264564 -0.091016315 0.012441105 0.18564619 0.0023459091 -0.105561905
0.24759427 -0.07945041 -0.19062795 0.020378081 0.25019237 0.08908613 -0.20659728 -0.10291308
-0.008372493 0.20627 -0.20832598 0.034976732 -0.033119738 0.091108024 -0.010556987 0.114925966
-0.019555118 0.159874 -0.010377099 -0.09787617 -0.014606855 -0.06575828 -0.066281125 0.020803671
-0.13773963 0.13746358 0.022806756 0.25550526 0.032879476 -0.011978879 0.055873174 -0.1260667
-0.020208517 -0.103546716 0.04694786 0.07852922 -0.13377373 -0.17274529 -0.079318866 0.016758006
0.08797882 0.21945849 -0.0040467535 0.04085657 0.18856071 0.1765196 -0.0724163 0.0045805015

bn2.weight f4 [128]
00000000: 01a5 0e3e 8509 a83e 6a99 9d3e 9e30 fd3e
00000010: 1db2 6c3e 4146 043f 44b4 063f 3b00 8c3e
00000020: 55cf 013f 30c6 4c3f 7b13 d23e e0ef 513e
00000030: 9306 b43e 14ad 963e a61d 883e 0304 843e
00000040: afa6 b83e c1cc 553f 53c0 f03e 206a 593f
00000050: b063 3d3f 072e ac3e 05b8 033f 0411 143f
00000060: a08a bc3e d458 2d3f 5e27 9e3e dc25 7a3e
00000070: 9f7e a33e af8a 683e b97d 143f 51d5 253f
00000080: 080e 1a3f c778 913e 39e0 db3e cf63 a23e
00000090: 220d 933e d411 dc3e d8cb 6c3e 3b13 433f
000000a0: 93d9 2e3e 83e3 bc3e db10 323f d00b 603e
000000b0: 1873 0b3f acf4 333f 4572 4e3f 7aa2 223f
000000c0: 0518 c33e b00d 293f 63b1 d43e 8cf9 9c3e
000000d0: a7dd e73e 36f8 143f c1ef 313f 5685 113f
000000e0: a2e9 1b3f 6592 073f d796 003f 6770 1a3f
000000f0: 3c11 0f3f 151d 6b3e 7d86 f03e c309 ba3e
00000100: 8a93 eb3e de3d 2c3f 2c8e 273f 0ebb 193f
00000110: 73f2 963e 6134 213f eedb 2b3f f02c 003f
00000120: e455 1f3f 8f82 783e 4026 3b3f 0342 333f
00000130: ef9c 293f 5907 293f 9964 c93e c196 073f
00000140: 416a 523f be6b 2a3f 35d2 793e aac5 5b3f
00000150: c0ec 4f3f a180 073f 6474 383e 8e76 0b3f
00000160: 89dd cb3e 4b4f 293f 6d1e d53d a882 143f
00000170: c8d0 f33e 52d1 ee3e 2805 3d3f dcb3 0b3f
00000180: c96b d43e f618 8a3e ddd1 b93e 8d80 153f
00000190: aae5 1a3f b00c ed3e b244 e03e 3d95 223f
000001a0: 0fd3 793e 4169 473f 2f72 f33e 7c97 353f
000001b0: b331 553f c921 103f 1c9a 0a3f fa22 563e
000001c0: a15d 353f ad10 413f 68b4 bb3e 97f0 2a3f
000001d0: 4529 fd3e 71f3 483f 5ee3 393f 9ffe 513f
000001e0: edb9 fd3d ec48 583f eb38 223f 2693 2f3f
000001f0: cb39 f43e 9d46 4c3f e6a0 673f 0130 083f
0.13930131 0.32819763 0.30781108 0.49451154 0.2311482 0.516697 0.52618814 0.27343926
0.5070699 0.7998991 0.41030487 0.20501661 0.35161266 0.29428923 0.2658512 0.2578431
0.3606467 0.83515555 0.47021732 0.8492756 0.73980236 0.33628866 0.51452667 0.57838464
0.36824512 0.67713666 0.3088941 0.24428505 0.31932542 0.22709154 0.5800434 0.6477862
0.6017766 0.28412458 0.42944506 0.31716773 0.28720957 0.42982352 0.23124635 0.7620122
0.17075185 0.36892328 0.6955697 0.21879506 0.54472494 0.70295215 0.8064311 0.6352917
0.38104263 0.6603651 0.41541585 0.3065914 0.45286295 0.5819124 0.6950646 0.5684408
0.6090337 0.52957755 0.50230163 0.6032776 0.5588567 0.22960313 0.46977606 0.36335573
0.46011 0.672819 0.6545131 0.6005105 0.2948185 0.6297055 0.6713246 0.5006857
0.62240434 0.24268554 0.7310524 0.700226 0.66255087 0.66026837 0.39334562 0.5296441
0.8219338 0.6657065 0.24396594 0.85848486 0.81220627 0.5293065 0.1801315 0.54477775
0.39817455 0.66136616 0.10406194 0.58011866 0.47620225 0.46644074 0.7383599 0.5457132
0.41488484 0.2697217 0.36292925 0.5839928 0.6050669 0.46298742 0.4380241 0.6350897
0.24396919 0.7789498 0.47548053 0.7093427 0.8327896 0.5630155 0.541414 0.2091178
0.7084599 0.7541607 0.36661077 0.6677336 0.4944555 0.7849646 0.7261256 0.82029146
0.12388978 0.8448627 0.633681 0.68583906 0.47700343 0.7979525 0.90479887 0.5319825

bn2.bias f4 [128]
00000000: f22d e7be 1ee2 c33c 55fe a33d a677 9f3e
00000010: 8a10 a83e 28a8 3b3d a71d 103c 76e4 d5be
00000020: 3fc6 953d 98b3 ae3d afd3 603e e5ba 31be
00000030: a476 7f3e 0e48 973d 2c2d 9b3e f8f9 ad3e
00000040: e921 94be 2bfe ab3d 1ab0 323e faa6 313d
00000050: 4006 e33e 2591 c13d 0692 843d 4c91 293e
00000060: 5509 0bbe ad79 c7bc 2b7c c33d 7363 bd3e
00000070: fe10 e73d 712d 8a3e f3b3 723e b7f8 a6bb
00000080: 5816 ddbd 516b 71be a3ab f33d f658 4abe
00000090: f147 d23e 3d85 773e 1e10 4e3e 1b71 513e
000000a0: 409b 083f c385 eb3d 2722 2fbd 3597 cc3e
000000b0: 74d5 183d 0d47 c93e 6cc9 5cbe 48a6 58be
000000c0: 7086 2e3e 54da 10bd bade 3c3e 5f5b 98be
000000d0: a17f 64bd 2517 cdbd a5e1 113e 7299 043e
000000e0: 0d76 5ebc ca1d 1f3e cfd1 8d3e ce26 22bb
000000f0: f69e 273d 3b53 18be 1ee6 28be bc11 813d
00000100: 85f6 343e e688 c43d 0ec3 603e d0bb 053e
00000110: 0579 ce3e 77df b03d 4706 323e 7e18 ac3d
00000120: ef47 3fbe 1a3c 523e bfba a63d df4e ba3d
00000130: e9de cdbd 124c 733e 45c6 f23c 7e88 23be
00000140: f3ec df3d 0cd8 aebe ab08 c2bd 38dd 4d3c
00000150: 6156 b03c c8c8 b8bd 4862 e33e ed88 123e
00000160: 4e88 a83c 3336 c83d 0d1a 4f3e 7230 0abe
00000170: af49 213e 7966 963e 7410 a03e 4665 493e
00000180: 86a9 0c3e 9b0e 4a3b a174 72bd 165e 59bd
00000190: bf6c 8fbd ff55 6f3e 7a94 533e 1c54 37be
000001a0: 09e0 323e 1de8 243e 0f52 b03e 6292 7bbd
000001b0: 3460 ea3d 504a 33be 9b05 74be d677 e7bd
000001c0: 869d 273d 2121 243e 0a8e 80bd aea0 f9bb
000001d0: 6602 953c e4dc 0b3c cd03 263e 3c0c 43bd
000001e0: 48df 0c3f 7bf0 033b 59d4 093e a82c be3e
000001f0: a0b5 3c3e 4a40 463d 6faa 68bb 6188 0dbe
-0.4515224 0.023911532 0.08007494 0.31145972 0.32825118 0.045814663 0.008796132 -0.41775864
0.07313203 0.085303485 0.21955751 -0.17356451 0.24947602 0.0738679 0.303079 0.33979774
-0.2893212 0.08398088 0.1744999 0.043372132 0.44340706 0.09451512 0.06473164 0.16559333
-0.13577779 -0.024350012 0.095451675 0.36989936 0.11282538 0.26987794 0.23701458 -0.005095567
-0.10795277 -0.23576094 0.118979715 -0.19760498 0.41070512 0.2417192 0.20123336 0.20453303
0.5336189 0.115001224 -0.04275718 0.39959112 0.03731294 0.3931202 -0.21561211 -0.21157181
0.17043471 -0.035364464 0.18444338 -0.2975721 -0.05578578 -0.1001418 0.14246233 0.1294916
-0.01357795 0.15538707 0.27699134 -0.0024742368 0.04092308 -0.148755 -0.16494033 0.06302211
0.17672165 0.09596424 0.21949407 0.13059926 0.40326706 0.086363725 0.17385207 0.08403109
-0.18679784 0.2053074 0.08141088 0.09097075 -0.10052282 0.23759487 0.029635558 -0.15970036
0.10933866 -0.34149206 -0.094743095 0.01256495 0.021525564 -0.09022671 0.4441092 0.14310046
0.020572808 0.09775963 0.20224781 -0.13495043 0.15750764 0.29375055 0.31262553 0.19667539
0.13736543 0.003083146 -0.059193257 -0.053068243 -0.070031635 0.23372649 0.20662108 -0.17903179
0.17468275 0.16104169 0.34437606 -0.0614189 0.114441305 -0.17508817 -0.23830263 -0.11302154
0.04092171 0.16028263 -0.06277092 -0.0076180315 0.01818962 0.008536551 0.16212387 -0.04761909
0.550282 0.0020132351 0.1345991 0.37143445 0.1842866 0.048401155 -0.0035501977 -0.13821556

bn2.running_mean f4 [128]
00000000: 1f14 233e c541 623d c95d 5f3e c340 c73c
00000010: 4b20 073c 6fdd c53d 2ef6 883e b727 0c3c
00000020: 3956 8a3e 191a e33c 0ab7 223e 2e3e 923c
00000030: 6034 dd38 2b07 a33b 4b5b 4b3b 2b89 f733
00000040: 2f6d 503e df40 1a3d 31b2 e33c 5c44 a534
00000050: f9a0 f536 53e8 d23c 47f9 d93d 12d7 d63c
00000060: a762 053c d137 363e 8cfc 803b 4148 213e
00000070: 9492 d939 9db1 863e 1d2a 813e 27eb e235
00000080: 7d26 1e3b 3e9e a83c cf3e 8432 9816 033c
00000090: 5464 7f3d 5b68 4b3e ac4d 873c 9900 0638
000000a0: b454 083e eaef 543c 5c1e c337 4a09 bd3c
000000b0: 109c 9939 ada0 923c 1ead 763d eb8c 3e3e
000000c0: 0400 0000 1cb6 a13e 057a 783c c5ee 2f3e
000000d0: d26c 093c 3344 de3d ab8f de3e 10cc f63c
000000e0: c07f ee3c 18f5 073e 6be5 c53d 7dda 3737
000000f0: 53aa 8b3e d64c ba3b 96e2 8b3e 2de8 013c
00000100: 8e97 6b3b f620 ad3a e9cc 2d3e 8594 323d
00000110: bc93 c53d c160 943e 63d6 3d3c c3b7 883e
00000120: e61f d83d 1dc3 993b 9ef1 853e f950 193d
00000130: d112 a13c 43b3 4e3e 5702 e63a 764a 503d
00000140: fcf3 aa3e 552c ec3c 6c3c f93a f92d d63c
00000150: 923c c33e 3ff8 723d b1ed 4734 313c c73c
00000160: b57f 153e c19b a33e 90ad 1634 8b1a c53d
00000170: a510 af3c 3e20 1e3e 9e00 873d ae4c a63e
00000180: dde8 0f3d ae2f 223e fa02 c43c 817d fe39
00000190: 688a 213d 5f09 743d 59ad cd3c 4022 ca3d
000001a0: 89c4 6838 80ef 013e 376f a83d 42da b83e
000001b0: f7f8 d83d fe89 1b3d b138 503d 1697 e63a
000001c0: fce3 913d 2f82 103d 910b 053d 3da7 623d
000001d0: 4eb6 8c39 899b d037 9649 0c3d 37ca e93d
000001e0: 62e2 af3d 118d 8e3e 3600 f73c 8599 8f3d
000001f0: f201 a33e 2a4e 843e e69e f63c 22d3 2b3c
0.15925644 0.055238504 0.2181312 0.024322873 0.008247445 0.09661376 0.2675032 0.008554391
0.27018908 0.027722405 0.15890136 0.017851915 0.00010547857 0.0049752197 0.0031029757 1.15267845e-07
0.2035415 0.037659522 0.02779493 3.0783383e-07 7.3203087e-06 0.025745546 0.10643249 0.0262256
0.008141196 0.1779473 0.003936356 0.15750219 0.00041498675 0.26307383 0.25227442 1.690675e-06
0.0024131828 0.020583268 1.5395385e-08 0.008000992 0.06235154 0.19864027 0.016516529 3.1948646e-05
0.13313562 0.012996653 2.3259949e-05 0.023075718 0.0002929871 0.017898882 0.06022369 0.18608443
6e-45 0.3158425 0.0151658105 0.17180927 0.008387761 0.10852852 0.43468985 0.030126601
0.02911365 0.1327709 0.09662899 1.0958521e-05 0.27278385 0.005685429 0.2732131 0.00792889
0.0035948488 0.0013208676 0.16972698 0.04359867 0.09647319 0.28980067 0.011586758 0.267027
0.10552959 0.004692449 0.26160902 0.037430737 0.019662293 0.2018557 0.0017548305 0.05085226
0.3338927 0.028829733 0.00190152 0.026144968 0.3813215 0.059318777 1.8619791e-07 0.024320694
0.14599498 0.31954768 1.403298e-07 0.09624203 0.021370241 0.15441987 0.065919146 0.32480377
0.035134185 0.15838501 0.0239272 0.00048540163 0.039438635 0.05957925 0.025107073 0.09869814
5.5496148e-05 0.12689018 0.082243375 0.36104017 0.10594361 0.037973396 0.050835315 0.0017592635
0.07123563 0.035280403 0.032481734 0.055335272 0.00026838708 2.4867959e-05 0.034249865 0.114155225
0.08588101 0.27842 0.030151468 0.070117034 0.31837422 0.25840884 0.030105066 0.01048735

bn2.running_var f4 [128]
00000000: 8f59 2f3c 2a39 dc3b 41d5 6f3c 5542 0e3b
00000010: 1fa0 023a f4f5 173c 7e85 353c 5451 0f3a
00000020: 99ce 303c d62c 273b 67fb 163c 47df c63a
00000030: 3142 3437 9814 9f39 fdcb e938 9dff 8d31
00000040: 0b0e 843b a558 3c3b 059b 973b d501 d432
00000050: 58df 1035 56d9 123b f9ec 3c3a 77f8 163b
00000060: 1b44 113a 5a18 693c e11b cc39 62aa d03b
00000070: 43c8 da37 c5cf 773b b077 233c e9f0 a534
00000080: c3d5 2a39 d50c f83a a967 0531 d295 1c3a
00000090: 30ae 603b fca2 953a fae4 983a dd1f 8035
000000a0: 0fff 143c 4ea1 f939 c529 8135 15f6 a03a
000000b0: fb3f 1438 d9a5 ec3a fed3 ed3b 92ea e43c
000000c0: 0400 0000 ab5b 093c 5f1f 923a 4664 083c
000000d0: f24c 043a 9567 c93b ae2c 8d3c bb6c 4d3b
000000e0: 6d78 423b ba25 ba3b 757d 323b 9ca5 d235
000000f0: 2b14 113c 86cb 5139 48d3 e53c 186a e939
00000100: 3167 2039 e224 8239 b97c f83a 03c7 243b
00000110: f91b c73b f0b4 333c 1a02 aa3a e63d 1d3c
00000120: da7f 103c 4a3c 8939 077d 1f3d 7d97 4f3b
00000130: 431a 163a e445 b93b 9501 da38 c136 c93b
00000140: 0926 0b3c 1018 673b 3178 fe39 f39e c13a
00000150: 183e b33c edbf ab3a b4c6 4132 ead8 323b
00000160: e121 183c 4963 173c e88f 9031 1e33 1a3c
00000170: ebf3 833a f74c 5a3c f02a 0b3c 82c1 153c
00000180: d609 e03a 26e1 4a3c db7c 153b ac00 c537
00000190: cc88 723b 1814 a13b 5ae9 cf3a 4db6 f83b
000001a0: 70c4 3336 4399 6f3b 6e28 273c 6990 9d3b
000001b0: 3587 253b 5f72 4c3b ea09 9b3b 717b 3239
000001c0: e3e4 013c 74b2 e23a baf7 563b 0a00 a93b
000001d0: 224c 9e37 60d2 2d36 7924 fd3a 45e8 cf3b
000001e0: 590f 3a3c 06a4 f13b a7c1 0f3b 97a3 f23b
000001f0: 280e a33c e722 023c 4aa0 c73a b921 a939
0.010702505 0.0067206817 0.014638246 0.0021707017 0.00049829663 0.009274948 0.01107919 0.0005467136
0.010791444 0.0025508902 0.009215212 0.0015172743 1.0744247e-05 0.00030342187 0.000111483016 4.1327e-09
0.0040299944 0.002873936 0.004626634 2.4680881e-08 5.396919e-07 0.0022407374 0.00072069425 0.002303628
0.00055414595 0.014226997 0.00038930684 0.0063679675 2.608088e-05 0.003781305 0.009977266 3.090893e-07
0.00016292096 0.0018924723 1.9412971e-09 0.00059732527 0.0034283511 0.0011416371 0.001166492 9.546017e-07
0.009094014 0.00047613162 9.623406e-07 0.0012280369 3.5345536e-05 0.0018054798 0.0072579375 0.027943883
6e-45 0.008383672 0.0011148265 0.008324688 0.0005046866 0.006146381 0.017233219 0.0031345326
0.002967383 0.005680767 0.0027235423 1.5694418e-06 0.008854906 0.00020007612 0.028054848 0.0004452027
0.00015297231 0.00024823012 0.0018958069 0.0025143034 0.0060763326 0.010968432 0.0012970597 0.009597277
0.008819545 0.00026175595 0.038937595 0.0031675987 0.0005725959 0.0056540836 0.00010395345 0.0061405604
0.008492955 0.0035262145 0.00048536205 0.0014772102 0.021880195 0.0013103463 1.1279258e-08 0.0027289935
0.009285421 0.00923998 4.207312e-09 0.009411601 0.00100672 0.013324014 0.008494124 0.009140374
0.0017092775 0.012382781 0.0022810015 2.3484543e-05 0.0037007807 0.0049157254 0.0015862391 0.0075900913
2.678742e-06 0.0036559857 0.01020251 0.004808475 0.0025257592 0.00311961 0.0047314065 0.00017021388
0.007928106 0.0017295615 0.0032801465 0.0051574754 1.887052e-05 2.5901463e-06 0.0019313238 0.0063448274
0.011356198 0.0073742894 0.0021935494 0.0074047553 0.019904211 0.007942892 0.0015230265 0.00032259317

fc2.weight f4 [128, 128]
00000000: 05e2 743d 0c3d 9b3c e7a2 c23d 2d91 53bd
00000010: 6f1a 90bd 9f6f 483c dc18 86bd becf e93d
00000020: 529d 61bd 7b7d 663d 4fb6 0fbd a0ac e63c
00000030: 573e 29be ebd5 26bd 4055 abbd 31ee b8bd
00000040: 363f 013e 92d8 4fbc 5292 8eb9 e6d2 05bd
00000050: dfdb bbbd e62e 8cbd 5391 84bc b7f4 a4bd
00000060: af03 d83c bab1 693d 23cc 81bd 3091 d7bd
00000070: 8c61 dcbd aaa3 69be 0487 08bc c4f8 863d
00000080: 64ea 6d3d 476e df3d 979c 393a 208a edbc
00000090: 70da 2dbc 73c9 c6bd aae5 e6bd 306e c9bd
000000a0: daa6 70be a712 73bd 27f4 55bd e70a 3abe
000000b0: 02c9 593c 97c2 c3bc 3c41 853c eee4 b23d
000000c0: a73c 08bd 2c38 f23c a393 b4bd e8ec 453d
000000d0: 60ec 4ebd 0e47 0bbd af8b 07bd c401 a43c
000000e0: a6ba 113d 7ea5 1ebd 0f03 5a3d 5e04 423d
000000f0: 005f 33bc ec93 873c 7563 79bc 9c07 c33c
00000100: 665a acbd 81d8 6ebc 0b60 67bd 05b4 f3bd
00000110: 6e8a bbbd 06ed dcbd 9be1 b63b f34d 3cbe
00000120: 3815 51bd c412 debd 546f f53c c0fd 2fbd
00000130: c205 b53c 016a faba 8104 a83d d9ee ae3d
00000140: 6668 3dbc 2cd7 c3bc 693b cebc 05de 5c3c
00000150: 9f3f 433b d86a 193d ba04 7ebe 7607 b33b
00000160: b6dd 37bd 5add 37bc 25e1 2dbe 903f 943c
00000170: 040e f1bb 6c32 69bd 5f50 17bd 0aa6 84bc
00000180: db3d 46bd 45f2 113d 8594 dd3c ef23 2f3d
00000190: 2837 b13c 6ed3 94bd 23a2 713b 8833 8e3d
000001a0: 4370 dfbc 3e09 493d 992e 273d 6edd a0bc
000001b0: de49 c8bd 82a3 8bbd f960 043e 3fc4 013d
000001c0: d8c3 93bd d8b8 b43c ddb6 053c fc1b 44bd
000001d0: a865 913d 1163 c93d 2cda 81bb d0a9 953c
000001e0: c913 4fbe 7143 94bb 8e5e bcbd e3fb 27bd
000001f0: 0075 263d a6bc 9c3d 4fe0 27be 34bc f03d
00000200: b1f9 c53d c2e9 28bd 96c1 29bd a03d 8d3b
00000210: d62c b4bd c202 efbc 325b a1bd 63f0 8b3d
00000220: 9f0a cd3b 6839 48bc 43f3 163d 9393 34bb
00000230: 6ae8 9cbe a618 943c 0ccb fbbd b8e6 34bd
00000240: c636 22bd bf46 29bd b7f2 2e3d 5238 93ba
00000250: 7fad 81bd 2b8a a3bc 0da5 0c3e 7484 02bc
00000260: bf48 0c3e 7141 103c f42a 62bd b4e0 81be
00000270: b4a3 2cbd 822b e9bd 7b4a 49bd 07f6 8a3d
00000280: 401f 423d 1a21 ac3b ee51 8fbd 35a2 b83d
00000290: bec9 2fbe 461f 263d 089e aebd 4e95 b9bd
000002a0: c146 3fbe c638 c1bd 6c8a 813c 0080 8dbc
000002b0: 111c 17bd cf05 eebd 20b8 863c 0745 853d
000002c0: 6cb0 4abd b427 6639 dc01 323d 5157 60bd
000002d0: 1c4d 09bd 7cfa 35bd 2328 5a3d e4f9 e83c
000002e0: afec ce3c a686 c3bd 72ed a0bc 67ae 973c
000002f0: a0c7 533c a04f 91bd 9e6f 49bd ed21 403c
00000300: 9132 0ab9 45c8 e53c 06b7 6cbd e65e f43c
00000310: 06d3 e6bd a6aa 393d bb83 32bd f143 b9bd
00000320: 3ad4 73bb 3b2b d3bd 0ae8 ad3c d6a6 51bd
00000330: 9553 e83d 00eb 18bc 2d68 25bb d7ef 023d
00000340: a48b 3d3d 1fe1 793d 2636 83bd 26ae b7bc
00000350: 81ac d83a 0d24 c43d afdd f83b 479a eabb
00000360: 20ca 5cbd 7509 96bc c49a 63be 4b1e 85bd
00000370: aa97 833c f2bd 1a3d 88ce 61bd 1796 0e3c
00000380: 8244 35be 8747 903c 3596 433d 1b25 3abd
00000390: 657d e43d 3fcf 95bc d411 44be efae 4e3d
000003a0: 7f22 f7bd 78d5 9abd e051 0cbd e046 fe3c
000003b0: 7e25 923d 8b66 d03d 977f 88bd 836c a43b
000003c0: 2013 e73b f1e0 1ebe 9577 81bd 027e 9abd
000003d0: 59b8 efbc 7187 1b3d 0110 d0bd fafd c73d
000003e0: 1543 b5bd 102d 41bd 781f b53b 9e76 cfbc
000003f0: 9f83 e93b e418 51bd 01ea d63d 345c d5bc
0.05978586 0.018950008 0.095037274 -0.051652122 -0.07036292 0.012233644 -0.0654771 0.11416577
-0.055081673 0.05627201 -0.035085972 0.028158486 -0.16527687 -0.04073135 -0.083658695 -0.090298064
0.1262177 -0.012685912 -0.00027193368 -0.03267183 -0.091727965 -0.06844883 -0.016182577 -0.08054488
0.026368944 0.05705426 -0.06337764 -0.10525739 -0.10760793 -0.22816339 -0.0083329715 0.06590417
0.05808486 0.109097056 0.00070805236 -0.028996527 -0.010611162 -0.09706392 -0.11274274 -0.0983547
-0.23501149 -0.05934396 -0.052234795 -0.18168221 0.013292553 -0.023896499 0.016266458 0.08735071
-0.033260968 0.0295678 -0.08817222 0.048321635 -0.050518394 -0.03400331 -0.033092197 0.020020373
0.035578392 -0.038732044 0.053225573 0.047367446 -0.010947943 0.016550027 -0.015221466 0.02380734
-0.0841568 -0.014577986 -0.056488078 -0.118995704 -0.09157263 -0.10787396 0.0055810935 -0.1838911
-0.051045626 -0.10843423 0.029960312 -0.042966604 0.022097472 -0.0019105078 0.08203984 0.0854165
-0.011560535 -0.023906313 -0.025174813 0.013480668 0.002979256 0.03745541 -0.2480649 0.005463536
-0.044889174 -0.011222208 -0.16980417 0.018096715 -0.007356407 -0.05693285 -0.036941882 -0.016192455
-0.048398834 0.035631437 0.027048359 0.04275888 0.021632746 -0.072668895 0.0036870323 0.069434226
-0.02727521 0.04908108 0.040815923 -0.019636836 -0.09779714 -0.06818296 0.12927617 0.031681295
-0.072150886 0.022060797 0.008161274 -0.04787825 0.070994675 0.098333485 -0.0039627757 0.01826945
-0.20222391 -0.004524641 -0.091977224 -0.041011702 0.040638924 0.07653169 -0.1639416 0.11754647
0.096667655 -0.041238554 -0.041444384 0.004310325 -0.08797614 -0.02917612 -0.07878722 0.068329595
0.0062573696 -0.012220718 0.036853086 -0.0027553781 -0.30646068 0.01807816 -0.122945875 -0.044165343
-0.039603017 -0.041327234 0.04271194 -0.0011231995 -0.0633192 -0.019963345 0.13734837 -0.00796615
0.13699625 0.008804665 -0.055216745 -0.25366747 -0.042148307 -0.113852516 -0.049143296 0.06785207
0.047393084 0.0052529695 -0.06998049 0.090153135 -0.17166802 0.04055717 -0.08526236 -0.09061681
-0.18679334 -0.09434657 0.015813075 -0.01727295 -0.036892 -0.11622202 0.01644522 0.065073065
-0.049484655 0.000219493 0.043458804 -0.05477077 -0.033520803 -0.044428334 0.053260934 0.02843947
0.025259344 -0.095471665 -0.019644473 0.018515779 0.012926012 -0.070952654 -0.049178712 0.011726839
-0.00013179543 0.028049598 -0.057791732 0.029830407 -0.11270718 0.04532876 -0.04358266 -0.09046162
-0.0037205354 -0.1031098 0.021228809 -0.051184498 0.11344067 -0.009333372 -0.0025239096 0.03196701
0.04627575 0.061005708 -0.06406812 -0.022421908 0.0016530902 0.09577189 0.007594786 -0.0071595046
-0.0539037 -0.018315056 -0.22227007 -0.064999186 0.01606353 0.037778802 -0.055128604 0.008702776
-0.17701915 0.017612232 0.04775067 -0.045445543 0.111567296 -0.0182873 -0.19147426 0.0504598
-0.120671265 -0.07560247 -0.03425777 0.031039655 0.07136057 0.101758085 -0.06664961 0.0050178184
0.0070518404 -0.15515496 -0.063216366 -0.07543565 -0.029262709 0.037970964 -0.101593025 0.09765239
-0.088506855 -0.047162116 0.005527433 -0.025325116 0.007126286 -0.05104913 0.104938515 -0.026044942

fc2.bias f4 [128]
00000000: cf74 adbd 4f85 b9bd 1da0 1ebe d658 7ebd
00000010: 2dec 4fbe 2ffa e3bd e5dc 1abc 2f1e 1bbd
00000020: 1555 d83d c637 16bd d755 213d 6e1f e2bc
00000030: db09 ffbd 38d2 003e 8295 a6bd 266e acbd
00000040: c78a d0bd 6b61 bfbd 8ed5 9fbd d01e 9bbd
00000050: 369e 0bbe 632d 4bbd 2a46 c2bb 155f 26be
00000060: 624f 92bd 3943 69bd 0eb4 043c 0659 66be
00000070: a060 dc3c 76a4 babd 8078 873d 3c83 873c
00000080: a261 47bd ecf9 d3bd d209 e2bd 7877 f93c
00000090: 36db 463d 34d8 f9bd 454b 14be cda8 8a3c
000000a0: d5bd 15bd 5e19 3dbd 8cc1 21bd eed9 a3bd
000000b0: 7103 f1bc dfef f03d 7d52 263d bcd8 10be
000000c0: 04fe 66bd d95f 10be f6af a73c cf0f 9bbd
000000d0: ca3b 33bd 1781 43be 38d0 a7bd c1f1 abbd
000000e0: 5a13 24be 3f68 b6bd 8761 503d b95a 533d
000000f0: 3c63 85bd c87e 723e f309 6fbd 43dc 0ebe
00000100: 6ff3 a83d 7f70 a0bd dad6 9eba fe55 223c
00000110: c171 f63b 4dbe bbbd c27f 86bd db6e 94bd
00000120: d3d9 dabd ac02 f939 6497 b53c 9a9f ecbc
00000130: 5fbd 0d3c 8d28 97bd 99fe dfbd bf12 30be
00000140: 5888 13bc 5047 23be 7df9 cbbc cf46 f5bd
00000150: 5260 063e bbe5 3abe d27d abbc fd67 503d
00000160: 1128 f7bd 51db 073c 3168 23be 3039 06be
00000170: fec5 05bd c6ef 80bd 535c 6dbd 9eac 86be
00000180: 0dac b8bd b0d0 14bd 7f8d fbbd 1944 13be
00000190: f86e 1dbd df78 d23d 40bf 25be 4b2f a9bd
000001a0: ae8d a9bd 78de 92bd cf3f e6bd b175 5c38
000001b0: 7f4a 513d 48e0 fc3c 0f1f 17be 4a3b 66be
000001c0: 5c2e f93d 1d14 863c 19e9 3f3d 0dc8 24be
000001d0: 945b 40bb 831c eebd 681a d4bc 607e d2bc
000001e0: d803 19be 6082 4bbd ee02 a1bd 9ff9 0ebd
000001f0: 6cd6 17be 85e4 023e 0f4a dabd 14b6 56bd
-0.08469545 -0.0905863 -0.15490766 -0.06209644 -0.20304938 -0.11131703 -0.009452079 -0.037870582
0.10563103 -0.036674283 0.039388504 -0.027602877 -0.12453052 0.12580192 -0.08133985 -0.08419447
-0.1018272 -0.09344753 -0.07804404 -0.075742364 -0.13634571 -0.04960383 -0.0059287744 -0.16247208
-0.07144047 -0.056948874 0.008099569 -0.22494897 0.026901543 -0.091134 0.066147804 0.01654207
-0.048677094 -0.10350403 -0.11037029 0.030452475 0.0485489 -0.121994406 -0.14481838 0.016926194
-0.03655799 -0.04616677 -0.03949122 -0.08000551 -0.029420586 0.11764502 0.04060601 -0.14145178
-0.056394592 -0.14099063 0.020469647 -0.075713746 -0.04375819 -0.19092213 -0.081940114 -0.0839572
-0.16023007 -0.08906602 0.05087426 0.05160019 -0.06513068 0.23681176 -0.058359098 -0.1395121
0.08249556 -0.07833957 -0.0012118474 0.009908197 0.0075208847 -0.09167156 -0.065673366 -0.072477065
-0.10686078 0.00047494972 0.022166915 -0.028884698 0.008651107 -0.07380781 -0.109372325 -0.17194651
-0.009004675 -0.15945172 -0.024899239 -0.11976396 0.13122681 -0.18251698 -0.02093402 0.05088042
-0.12068189 0.008292035 -0.15957715 -0.13107753 -0.032659523 -0.06295733 -0.057949375 -0.2630357
-0.09017191 -0.036331832 -0.122828476 -0.14381446 -0.038435906 0.102769606 -0.16186237 -0.082609735
-0.082789764 -0.07171339 -0.11242639 5.2561696e-05 0.051096436 0.030868664 -0.14757942 -0.22483554
0.121670455 0.016367013 0.04685316 -0.16091938 -0.002935146 -0.11626532 -0.025891498 -0.025695026
-0.14942873 -0.049684882 -0.07861887 -0.034906026 -0.14827889 0.12782486 -0.10658657 -0.052419737

bn3.weight f4 [128]
00000000: 11a8 723f ba53 983f 9cbb 8a3f a248 a23f
00000010: 510c 8d3f cfed 303f 3804 983f 35b9 363f
00000020: 14d2 8a3f 09c0 5c3f a737 8b3f 4515 4e3f
00000030: 07c4 b43f b1f1 a33f 2ac6 863f 8150 273f
00000040: 7bf6 583f dc4d 783f df1f 6b3f 1967 833f
00000050: a188 f43e 5dc1 9e3f 8afa 423f 3078 443f
00000060: 4fd2 9e3f f781 9b3f ddc8 803f 62df 303f
00000070: 2e2a b93f 20e6 983f dbf3 b23f ecce 313f
00000080: 048c 123f e91c 2b3f ae11 9c3f 2480 243f
00000090: 570f a93f e6eb 663f d1bc 863f 4e4f 5f3f
000000a0: 9a2e 2d3f f50d b03f 90af 223f 9b79 5f3f
000000b0: 5491 a63f 124d 4a3f de72 553f 60ea 6c3f
000000c0: a633 903f 6ba6 523f 8ba0 613f 48c8 9f3f
000000d0: b8c0 383f 18ca 7e3f 2edc 913f ba92 323f
000000e0: b1f2 af3f 8886 9a3f f4c9 893f 3ac2 513f
000000f0: 6c31 9d3f b348 4f3f 180a 563f c0d4 5f3f
00000100: bcfe 863f 2912 b73f 68a2 a43f ebe2 bc3f
00000110: acb3 753f fecb 8b3f b68c 6b3f fd80 053f
00000120: 8830 7e3f f0d0 a63f 3f51 9a3f f1be a53f
00000130: 4794 833f 68c5 603f b053 663f b604 373f
00000140: ca4d 8e3f 69be 5c3f e98f 513f 7a28 5a3f
00000150: 31ca 9d3f be40 363f 2356 473f 671b 603f
00000160: 343a 3a3f 77b5 7c3f c840 313f 731f 2b3f
00000170: 5356 1b3f b136 913f fce7 a33f 1821 a83f
00000180: 9b57 a43f cae7 833f b374 3a3f 573f 803f
00000190: 4942 913f 1e1d 4b3f c116 ff3e d3c7 493f
000001a0: 66f9 9c3f 5220 883f daf8 a03f 3dce b03f
000001b0: 2dc5 763f 8b70 7a3f f093 753f 93c6 7e3f
000001c0: 2d86 763f 2600 8f3f 9b2d 433f cf5a 5f3f
000001d0: c7ad a23f 4430 453f 55d1 bb3f 1466 a83f
000001e0: 47c2 7d3f 6d11 543f 232d 703f 4c88 a83f
000001f0: d737 923f 49a0 a93f 3863 313f da28 813f
0.947877 1.1900551 1.0838504 1.2678416 1.1019384 0.6911287 1.1876287 0.71376354
1.0845361 0.8623052 1.0876359 0.80501205 1.4122323 1.2808133 1.0529225 0.65357214
0.847511 0.96993804 0.91845506 1.0265838 0.4776049 1.240276 0.7616354 0.7674589
1.2407931 1.2149037 1.0061299 0.69090855 1.4465997 1.1945229 1.3980669 0.6945636
0.57244897 0.6684099 1.2192895 0.6425803 1.3207806 0.902037 1.0526372 0.87230384
0.67649233 1.3754259 0.6354914 0.8729493 1.3013101 0.7902385 0.833784 0.9254513
1.1265762 0.82285184 0.88135594 1.2482996 0.72169065 0.9952712 1.1395319 0.69755137
1.3745939 1.2072306 1.0764756 0.8193699 1.2280707 0.80970305 0.8360915 0.87434006
1.0546489 1.4302417 1.2862062 1.475675 0.9597728 1.0921628 0.9201158 0.52149945
0.992928 1.3032513 1.2056044 1.2948896 1.0279626 0.8780122 0.89971447 0.71491563
1.1117489 0.8622804 0.81860214 0.8521801 1.2327329 0.7119254 0.7786581 0.8754181
0.7274506 0.98714393 0.69239473 0.6684486 0.60678595 1.1344815 1.2805171 1.31351
1.2839235 1.0305111 0.7283432 1.001933 1.1348354 0.79341304 0.49822047 0.7882053
1.226361 1.0634863 1.2575943 1.3812939 0.96394616 0.97827977 0.9592886 0.9952175
0.96298486 1.117192 0.76241463 0.8724794 1.2709283 0.7702677 1.4673258 1.3156152
0.9912457 0.8283909 0.93818873 1.3166595 1.1423291 1.325204 0.6929202 1.0090592

bn3.bias f4 [128]
00000000: 5d67 ce3d 6d59 503e 97e3 0b3d 4837 163d
00000010: 9ab1 1fba e9fd 583c 2a93 443e 0e06 30bd
00000020: 3d6e d9bc 44a5 9dbc c2c7 e03d 997f 403d
00000030: 9203 1a3e 004b e73c 6d71 bfbc ac88 15bd
00000040: 5669 31bc 0c8d 5abc ff0d 95bd 2617 5c3d
00000050: d9c7 1b3d 0c0c 153e 569a 8e3d 00af 663d
00000060: c9d2 a33d ca4c 4e3d b4f6 04bd 8bac dbbc
00000070: be33 4d3d 3870 853c ac24 7fbd c4d3 2f3d
00000080: 0f04 503d e8a7 b63a ebec cb3d d7b8 e3bd
00000090: 3d00 833c cbfc 00bd 7cb8 923c 88ac 0bba
000000a0: 4416 da3c 3c29 e33b eeba 9a3d b278 563d
000000b0: ab9c 9a3c ca1d 08bd 6ef7 c8bd d905 df3b
000000c0: bb5f 0d3e ebc1 283c 5c86 fdbb 9c56 a53d
000000d0: e676 4bbd f193 d63c 03d6 4b3e 9be9 a9bc
000000e0: 0935 19bd 746c a53c aca8 0a3c ab8d 053e
000000f0: 6eb8 023d 9e8b 613d dd3f f33b 37ab c23d
00000100: 496a b13c 2fe3 1a3e 430e 193c bbcd 03bd
00000110: 7b38 d5bd 41e1 bd3d 43f7 993d 78d9 6c3d
00000120: 3757 2abc 9411 1ebe afd1 4cbd 3fe4 05bc
00000130: d9c1 abbc 7e55 67bd 70cf 02bd b402 2a3d
00000140: fde3 4a3d 1dcf f73c f260 9cbc f860 923d
00000150: 3239 99bc dc99 8c3d 99d4 053d fb10 653d
00000160: 1636 27bc 69ac 5c3d 26a2 c9ba 5709 3a3e
00000170: 99cc 823c 330b 0cbd 5f8e 673d 302a d23c
00000180: a6da 43bd d46e 3dbc 33fe 3d3d 46fa 21bd
00000190: 93ae ccbd 6534 613d a276 c9bc 0d43 a13c
000001a0: e1f0 9dba b2cc b7bb 1242 0fbe 4017 f73b
000001b0: d38c 5cbd 7f48 7abb dbf9 013d 44aa e5bc
000001c0: a7b9 c1bd 7c04 ac3c deb5 cc3d 4e48 583d
000001d0: f22d a739 09f5 143b d619 213d 86fe 28bd
000001e0: 6a40 29bd fc50 49bd fbd5 6b3e 1a7f 4d3d
000001f0: 2163 163e e3d3 d13d cb92 c73d 99e4 51bd
0.10078309 0.20346613 0.034152593 0.036673814 -0.00060918333 0.013244131 0.19196764 -0.042974524
-0.026541824 -0.019243844 0.10975601 0.046996687 0.15040424 0.028234005 -0.023369515 -0.036507294
-0.010828337 -0.013339292 -0.0727806 0.053733014 0.038032386 0.14555377 0.06963031 0.056319237
0.079991885 0.0503662 -0.032461837 -0.026815673 0.050098173 0.016288862 -0.062290832 0.042926565
0.05078512 0.0013935538 0.09957298 -0.1111924 0.015991325 -0.031491082 0.017910235 -0.00053281384
0.026621945 0.0069324058 0.07555185 0.052361198 0.018873533 -0.033231534 -0.098128185 0.006806117
0.1380605 0.01030014 -0.007736964 0.0807316 -0.049673937 0.02619359 0.19905858 -0.020741275
-0.037404094 0.020193316 0.008463066 0.13042323 0.031914167 0.05506479 0.0074233846 0.09505313
0.021657126 0.15125726 0.009341779 -0.03217862 -0.104111634 0.092714794 0.075178646 0.05782458
-0.01039677 -0.15436393 -0.050004657 -0.008172094 -0.020966457 -0.056478016 -0.03193611 0.041506484
0.049533833 0.030250126 -0.019089196 0.071474016 -0.01870403 0.06865284 0.032673452 0.055924397
-0.010205766 0.05387536 -0.0015383407 0.18167625 0.0159667 -0.034190368 0.05653226 0.025654882
-0.04781594 -0.011562068 0.046385 -0.03954532 -0.09994235 0.054981608 -0.024592701 0.019685293
-0.0012049937 -0.0056091184 -0.13990048 0.0075406134 -0.053845238 -0.0038190184 0.03173242 -0.02803529
-0.094592385 0.020998232 0.09995626 0.05280333 0.00031886954 0.002272906 0.03933128 -0.041258357
-0.041321196 -0.0491495 0.23030846 0.05017004 0.14686252 0.10245492 0.097447954 -0.0512434

bn3.running_mean f4 [128]
00000000: 212c 6438 5bd9 7a3b d6da 0339 8602 d239
00000010: 0400 0000 70cb fa34 9a83 833e 82da 903d
00000020: 308f d63e 2c12 c93e b8d9 913c 0812 e73c
00000030: 78fb 9c3b f124 a63e 7bae 3938 347a 943d
00000040: b631 fe39 768d 0d3d e4fb 1f3e 30eb a53d
00000050: c2fd af3c 366b bc3e f492 813d 884b 903a
00000060: d94e 603c 3505 093d e7df c33c 769d 4a27
00000070: 4035 ea3d f35d a03a d8cd 9c3e 78b5 d53d
00000080: 33e0 223b 3a45 9f38 fea4 2a3d b957 a93d
00000090: 059f a73c bc38 eb39 418b 853a 7c60 663d
000000a0: ec89 843c df81 4c3d 82ec a23a d861 ff3c
000000b0: 89c4 b03c 6083 db3d 9c9a c93e 2a4d 1938
000000c0: 99bc 383b d145 c03a 5c50 3a3d 7be7 863b
000000d0: 2c3b 1d3d dd7a b73b 3df1 343b 636f cf37
000000e0: e7dd b021 2e2c f23c c43a 403e 018e 443e
000000f0: 11ce db3d 55d5 193f e66c 233d 1f93 2c3b
00000100: 2ffc b03d beb6 d43c 8feb 013d 84a9 393d
00000110: 13c6 d03d cc64 293d 9e9a 943c e5cd 0439
00000120: 16c3 a33b 7a86 d03a 171b b93e b82f 473e
00000130: d19a 063e 03ef 4b3b 9176 a539 277d 433b
00000140: 6bb1 9d3c 0400 0000 2f1d cc3d 78fa 673d
00000150: d7ba 053f f887 e63b ebba c73b 078e 8f3e
00000160: 2542 b23b df69 e03e 159b 3e26 6eea 0338
00000170: e6ae ce3c 0400 0000 7c18 8d3c 8e88 7434
00000180: 68ad a836 93be aa3e 0400 0000 c8a1 c20f
00000190: 2ae4 8b3c f41f c13e bc2c d537 98c1 403d
000001a0: e3e4 a639 1239 be38 5a8e 473d ce98 b73b
000001b0: 92c2 be3e 4738 0a3e 0400 0000 eb8a 0237
000001c0: c989 1c3e adab 0f3d e283 f73d 5b03 9738
000001d0: 0882 043b 021d c33a 7141 e13c 5ee3 763e
000001e0: 2661 9538 a8f2 d63d 8c30 183d 8016 a43d
000001f0: 984c 183a a890 253e aeeb d33a 4c50 f23c
5.4400534e-05 0.0038276527 0.00012574656 0.000400562 6e-45 4.671415e-07 0.25686342 0.07072927
0.41906118 0.39271677 0.017804012 0.02820684 0.0047907196 0.3245006 4.4269935e-05 0.07249871
0.00048483693 0.034558736 0.15623432 0.08101499 0.021483306 0.36800545 0.06326857 0.0011008838
0.013690674 0.03345223 0.023910476 2.8118491e-15 0.11435938 0.001223503 0.30625796 0.10435003
0.0024852871 7.594605e-05 0.041661255 0.08268685 0.020461569 0.00044864963 0.0010188596 0.05624436
0.016179048 0.049928542 0.0012430104 0.031174585 0.02157809 0.10718417 0.3937577 3.6549907e-05
0.0028188585 0.0014669244 0.045486793 0.00411695 0.03838651 0.0055993632 0.002760961 2.4728191e-05
1.1984961e-18 0.029562082 0.18772417 0.19194795 0.107326634 0.60091144 0.039898776 0.0026332808
0.0864185 0.025966045 0.031718787 0.04532768 0.1019403 0.041355893 0.018140133 0.00012665203
0.0049976213 0.0015909218 0.3615348 0.19451797 0.13144995 0.0031117804 0.0003155959 0.0029829235
0.019249639 6e-45 0.09966504 0.05663535 0.5223822 0.0070352517 0.0060952804 0.28038046
0.005440014 0.43830773 6.612967e-16 3.1451164e-05 0.025229882 6e-45 0.01722359 2.2773949e-07
5.0269773e-06 0.33348522 6e-45 1.9192193e-29 0.01707657 0.3771969 2.541241e-05 0.047059625
0.0003183252 9.070536e-05 0.04871974 0.0056029325 0.3725782 0.1349803 6e-45 7.780948e-06
0.15286936 0.035075832 0.120857015 7.200866e-05 0.0020219106 0.0014885964 0.027497025 0.24110171
7.122969e-05 0.10495502 0.037155673 0.08012104 0.0005809753 0.16168463 0.001616826 0.029579304

bn3.running_var f4 [128]
00000000: 10c0 5c38 4f89 bf3a 8227 0e38 0da9 5e39
00000010: 0400 0000 4cc1 4a34 caa9 973d b5a7 043d
00000020: e267 6c3e df6e 133e 4014 df3b 9f02 143c
00000030: 3941 9c3a 9a92 0d3e ed11 2d38 4f33 023d
00000040: 3140 bb39 af03 5f3c 933a 8f3d 548a 073d
00000050: 3166 be3b 8d74 e03d e7bd e23c 1008 333a
00000060: 0638 a23b 449c 1d3c 527f 093c 0efb a226
00000070: 0f5d ed3c 23e9 2639 d830 013e 17ab 073d
00000080: 760d 2a3b 9d4a 9537 abd2 443c ceb4 003d
00000090: adab c93b 3a70 5739 9c4b 0f3a 3867 ad3c
000000a0: 9c49 223b 628b af3c aee4 923a a04a 233c
000000b0: 4704 fd3b 04ca 0c3d 866c 213e 96f9 f236
000000c0: 5c3d 283b 5370 9e3a 8562 2c3c 37bb b33b
000000d0: fd8d 3c3c 249b ec3b 948e 313a 3a21 3f36
000000e0: c9e1 2820 6622 523c 48b1 6e3d 1ade 9e3d
000000f0: 8f8f 353d ae6c 343e 5b29 593c d22e 2d3b
00000100: bd9d c63c 3e50 113c 8c60 113c 9b8d 233c
00000110: b384 423d 262e 303c 3d6f b03b 34ea 0338
00000120: 26cb 593a e671 8b39 6c8b 433e 0505 843d
00000130: 65fb 443d 1364 3d3b 59ab 3939 238c 363b
00000140: 9b31 133c 0400 0000 1381 083d 615b a03c
00000150: 7296 653e 889e 213b d871 e43a df56 c43d
00000160: b635 e03b 8f39 323e 0149 c523 f6b7 4337
00000170: 5d54 e03b 0400 0000 0d4d e73c dff5 d433
00000180: 0160 a036 3ab2 083e 0400 0000 7ed2 f90c
00000190: f181 833b 67d8 283e 3bd1 3d37 8c31 8b3c
000001a0: c1e6 6e39 180b 6b38 a02d 843c 7afc 8d3a
000001b0: ab29 353e 6cab 233d 0400 0000 3881 4837
000001c0: 45ab fd3c 2644 143c e7c4 5a3d dff2 4a37
000001d0: f3c4 b239 549e a63a 533b e93b 59b6 033e
000001e0: 8564 8538 9857 103d d103 4f3c 000b f33c
000001f0: 88dd 303a 57ad 653d dbbd 943a b6dc f73b
5.263096e-05 0.0014613065 3.3892233e-05 0.00021234546 6e-45 1.8883037e-07 0.074054316 0.0323865
0.23086503 0.14397763 0.006807834 0.009033828 0.0011921293 0.13825455 4.126311e-05 0.031787213
0.00035715246 0.013611718 0.06993594 0.033090904 0.005810522 0.1095973 0.027678443 0.00068295095
0.004950526 0.009619776 0.008392172 1.1309057e-15 0.028975038 0.00015917844 0.12616289 0.03312215
0.0025947965 1.7796929e-05 0.012013118 0.03142243 0.0061544986 0.00020545805 0.0005466284 0.021167383
0.0024763113 0.021428768 0.0011207068 0.009966522 0.007721457 0.034372345 0.15764055 7.2412176e-06
0.0025671339 0.0012087919 0.010521536 0.0054849642 0.011508462 0.0072206426 0.000677326 2.8480558e-06
1.430486e-19 0.012825584 0.058274537 0.07757206 0.04432636 0.17619583 0.013254489 0.0026425612
0.024245137 0.008869229 0.008873116 0.009982492 0.047489833 0.01075319 0.0053843544 3.1450953e-05
0.00083081645 0.00026597007 0.19096154 0.0644627 0.04809131 0.002889876 0.00017706807 0.0027854524
0.008983995 6e-45 0.03332622 0.019574823 0.22420672 0.0024661142 0.0017428948 0.09586882
0.0068423403 0.1740477 2.1389701e-17 1.16657375e-05 0.0068459944 6e-45 0.028234983 9.916743e-08
4.779548e-06 0.13349238 6e-45 3.849121e-31 0.004013293 0.16488801 1.1313993e-05 0.0169914
0.00022783411 5.6038698e-05 0.016135037 0.001083269 0.17691676 0.039958403 6e-45 1.1951015e-05
0.030965457 0.009049451 0.053410437 1.2096686e-05 0.00034097544 0.001271198 0.0071176677 0.12862529
6.3606574e-05 0.035239786 0.012635187 0.029668331 0.0006746878 0.056073513 0.0011348085 0.0075641526
