mode_weights/agent10_critic_target.pth (torch_old, 93523 bytes, 17 tensors)

bn1.weight f4 [33]
0.49625978 0.76822436 0.08847743 0.13203049 0.30742282 0.6340787 0.4900934 0.89644474
0.45562798 0.6323063 0.34889346 0.4017173 0.022325754 0.16885895 0.29388845 0.5185218
0.6976676 0.8000114 0.16103148 0.28226858 0.68160856 0.915194 0.3970999 0.8741559
0.41940832 0.55290705 0.9527381 0.03616482 0.18523128 0.37341738 0.30510002 0.9320004
0.17591017
00000000: c315 fe3e 5aaa 443f a833 b53d 0033 073e
00000010: 8666 9d3e fb52 223f 86ed fa3e 677d 653f
00000020: 1248 e93e d3de 213f 2aa2 b23e e4ad cd3e
00000030: 80e4 b63c 5ce9 2c3e 8c78 963e d8bd 043f
00000040: 589a 323f 8ccd 4c3f 70e5 243e 8285 903e
00000050: e67d 2e3f 274a 6a3f ae50 cb3e aec8 5f3f
00000060: b0bc d63e 518b 0d3f a5e6 733f 9021 143d
00000070: 45ad 3d3e 9030 bf3e 1236 9c3e 9497 6e3f
00000080: cc21 343e

bn1.bias f4 [33]
0.0 0.0 0.0 0.0 0.0 0.0 0.0 0.0
0.0 0.0 0.0 0.0 0.0 0.0 0.0 0.0
0.0 0.0 0.0 0.0 0.0 0.0 0.0 0.0
0.0 0.0 0.0 0.0 0.0 0.0 0.0 0.0
0.0
00000000: 0000 0000 0000 0000 0000 0000 0000 0000
00000010: 0000 0000 0000 0000 0000 0000 0000 0000
00000020: 0000 0000 0000 0000 0000 0000 0000 0000
00000030: 0000 0000 0000 0000 0000 0000 0000 0000
00000040: 0000 0000 0000 0000 0000 0000 0000 0000
00000050: 0000 0000 0000 0000 0000 0000 0000 0000
00000060: 0000 0000 0000 0000 0000 0000 0000 0000
00000070: 0000 0000 0000 0000 0000 0000 0000 0000
00000080: 0000 0000

bn1.running_mean f4 [33]
0.0 0.0 0.0 0.0 0.0 0.0 0.0 0.0
0.0 0.0 0.0 0.0 0.0 0.0 0.0 0.0
0.0 0.0 0.0 0.0 0.0 0.0 0.0 0.0
0.0 0.0 0.0 0.0 0.0 0.0 0.0 0.0
0.0
00000000: 0000 0000 0000 0000 0000 0000 0000 0000
00000010: 0000 0000 0000 0000 0000 0000 0000 0000
00000020: 0000 0000 0000 0000 0000 0000 0000 0000
00000030: 0000 0000 0000 0000 0000 0000 0000 0000
00000040: 0000 0000 0000 0000 0000 0000 0000 0000
00000050: 0000 0000 0000 0000 0000 0000 0000 0000
00000060: 0000 0000 0000 0000 0000 0000 0000 0000
00000070: 0000 0000 0000 0000 0000 0000 0000 0000
00000080: 0000 0000

bn1.running_var f4 [33]
1.0 1.0 1.0 1.0 1.0 1.0 1.0 1.0
1.0 1.0 1.0 1.0 1.0 1.0 1.0 1.0
1.0 1.0 1.0 1.0 1.0 1.0 1.0 1.0
1.0 1.0 1.0 1.0 1.0 1.0 1.0 1.0
1.0
00000000: 0000 803f 0000 803f 0000 803f 0000 803f
00000010: 0000 803f 0000 803f 0000 803f 0000 803f
00000020: 0000 803f 0000 803f 0000 803f 0000 803f
00000030: 0000 803f 0000 803f 0000 803f 0000 803f
00000040: 0000 803f 0000 803f 0000 803f 0000 803f
00000050: 0000 803f 0000 803f 0000 803f 0000 803f
00000060: 0000 803f 0000 803f 0000 803f 0000 803f
00000070: 0000 803f 0000 803f 0000 803f 0000 803f
00000080: 0000 803f

fcs1.weight f4 [128, 33]
-0.00039709374 0.002368033 0.0006468511 -0.0013970794 -0.0010395007 -0.0013799154 0.0012881634 0.00014622786
-0.0011954155 4.1720457e-05 0.00067358284 0.00024564116 0.0007987087 -0.0018110161 0.0017475152 -0.00025059236
-0.0012211165 -0.00010644477 -0.0005101273 -0.0002160055 0.00029257117 -0.0005498327 0.0016284324 0.0016865226
-0.0012348549 0.00012865286 -0.0012905735 0.0011013538 0.0005056774 -5.577e-42 -0.0011013538 6.138e-42
-0.00031556812 0.02498568 -0.032429416 0.03852418 0.028980391 0.028038586 0.0017531124 -0.012494078
-0.016239075 0.008620053 -0.042827383 -0.0015114069 -0.0007209445 -0.008062756 -0.06343431 0.044665806
-0.040375434 0.0046235085 0.00075524405 -0.0153699145 0.00093926117 -0.0043102913 -0.006943468 -0.0032072146
-0.01123679 0.007367038 0.007858506 0.033916023 0.060955767 0.04483847 2.1356e-41 -0.06098363
-6.978e-42 0.12193269 0.018737612 -0.0130347 0.05963088 -0.024873314 -0.0070835184 0.0031657314
0.025342805 -0.008344303 0.005453699 -0.033315104 -0.0034875171 0.018742936 0.031118851 -0.011136176
-0.022991959 -0.034056 -0.019903762 0.023944339 -0.008977005 -0.0011309144 0.0025428508 0.0115582915
-0.021128118 0.004407965 -0.040864468 -0.033555195 -0.045254726 0.06874477 -0.020931717 -1.8947e-41
-0.06877317 4.736e-42 0.046649843 0.01203577 0.0031031626 -0.056014862 0.009110594 0.0011909228
0.008432042 0.0011749757 0.047520097 0.09642062 -0.0075810566 0.010086313 0.08884989 -0.015481487
-0.0063325693 -0.008518916 0.011351763 0.002230564 0.016705388 0.036585774 0.0009088552 -0.067570254
-0.0035934616 -0.06720131 0.021713078 -0.022310652 -0.028396327 0.0047282744 0.037353657 -0.0036653404
2.0207e-41 -0.03757628 4.582e-42 0.07662125 -0.0028447185 0.0015336605 0.0014701535 -0.00016836547
-0.0005158833 -5.4296146e-05 0.00071735657 -0.0008417808 -0.00042893397 -2.3025084e-06 -7.2351635e-05 -0.0014194348
0.0025575936 -0.0021541964 0.0015933787 0.0017065342 -0.0004335193 0.00045837535 0.000271617 -0.00035757796
-0.00068860996 -0.000852535 0.0014583749 -0.0028539896 -0.0022893345 0.00262978 0.00030935844 0.00031995523
0.0027180398 4.107e-42 -0.00031995523 -7.707e-42 0.0010407197 -0.048932996 -0.054671265 0.027813703
-0.007242365 0.02056891 -0.043131325 0.008080762 -0.040567644 -0.022153169 0.010079304 -0.008968574
-0.004929242 -0.015047952 0.06031477 0.019841531 0.06288242 -0.01773868 0.016972736 -0.009743446
-0.0014684601 -0.01224299 -0.0062765656 0.0050223595 0.033012744 0.008771007 0.058892503 -0.02508285
-0.024160117 -0.07690206 3.505e-42 0.017417572 3.953e-42 0.09158837 -0.05905085 0.05151716
0.031127572 -0.010200522 -0.07040684 0.016961195 -0.049021035 0.0012521929 0.03937766 0.0015583908
4.96751e-05 0.0026201042 0.0064868606 0.008115511 -0.03457494 -0.04635073 -0.00881855 -0.003034086
0.02997036 0.004651303 -0.0063535287 -0.013051486 -0.009397896 -0.013019622 -0.01457629 -0.045324706
-0.0019574782 0.0051457714 -0.003918568 -7.75e-42 -0.005098853 4.54e-42 0.312567 0.08708959
-0.007930167 -0.018218786 0.017232323 0.008012545 -0.020691417 0.0062698983 -0.0019978252 0.017516488
-0.0073208734 0.005566248 0.003186859 -0.0028467104 -0.1124555 0.02562813 0.017593306 -0.0064615733
0.0069040214 0.008223302 -0.0022719172 0.00074080145 0.0011796253 -0.0017192425 -0.0041764905 0.00210459
00000000: 0531 d0b9 0031 1b3b 7191 293a 351e b7ba
00000010: db3f 88ba 47de b4ba 97d7 a83a be54 1939
00000020: 7daf 9cba 00fd 2e38 6193 303a 66c9 8039
00000030: 6f60 513a 9e5f edba e10c e53a f061 83b9
00000040: df0d a0ba 1a3b dfb8 10ba 05ba 897f 62b9
00000050: 3d64 9939 a622 10ba 2071 d53a 4f0e dd3a
00000060: dbda a1ba fde6 0639 7628 a9ba 4d5b 903a
00000070: 708f 043a 8c0f 0080 4d5b 90ba 1c11 0000
00000080: d672 a5b9 c5ae cc3c b5d4 04bd 88cb 1d3d
00000090: 4968 ed3c 2db1 e53c b1c8 e53a f6b3 4cbc
000000a0: cf07 85bc 1f3b 0d3c c46b 2fbd 661a c6ba
000000b0: c4fd 3cba a619 04bc d9e9 81bd 7ef3 363d
000000c0: b660 25bd cd80 973b 92fb 453a 18d2 7bbc
000000d0: c038 763a 583d 8dbb 0886 e3bb 2230 52bb
000000e0: 831a 38bc 3267 f13b f7c0 003c 87eb 0a3d
000000f0: c1ac 793d 8ba8 373d 883b 0000 f9c9 79bd
00000100: 7413 0080 d9b7 f93d 9f7f 993c 7f8f 55bc
00000110: 823f 743d 1fc3 cbbc dc1c e8bb 2978 4f3b
00000120: b79b cf3c 8bb6 08bc f1b4 b23b 6b75 08bd
00000130: d48e 64bb c98a 993c f6ec fe3c 8274 36bc
00000140: a259 bcbc 4e7e 0bbd 370d a3bc eb26 c43c
00000150: 4a14 13bc 313b 94ba f5a5 263b fd5e 3d3c
00000160: e014 adbc b170 903b 8061 27bd 2c71 09bd
00000170: 055d 39bd 0fca 8c3d fe78 abbc d134 0080
00000180: f3d8 8cbd 340d 0000 e813 3f3d ae31 453c
00000190: 6e5e 4b3b d76f 65bd 9a44 153c bd18 9c3a
000001a0: 8c26 0a3c a401 9a3a 6fa4 423d 2d78 c53d
000001b0: 836a f8bb 1041 253c eef6 b53d 10a6 7dbc
000001c0: 7181 cfbb ec92 0bbc bffc 393c a72e 123b
000001d0: bdd9 883c f7da 153d 3d40 6e3a 4662 8abd
000001e0: 4880 6bbb d7a0 89bd a0df b13c d4c4 b6bc
000001f0: 6a9f e8bc a4ef 9a3b 2600 193d 3536 70bb
00000200: 5438 0000 96e9 19bd c60c 0000 9aeb 9c3d
00000210: 756e 3abb 1b05 c93a 2ab2 c03a 438b 30b9
00000220: 583c 07ba 0bbc 63b8 fc0c 3c3a f4aa 5cba
00000230: 8be2 e0b9 cb84 1ab6 7dbb 97b8 540c baba
00000240: 4d9d 273b 6b2d 0dbb ebd8 d03a c9ad df3a
00000250: fa49 e3b9 1952 f039 d167 8e39 4d79 bbb9
00000260: d583 34ba a87c 5fba f126 bf3a 000a 3bbb
00000270: a908 16bb 6358 2c3b 6331 a239 aabf a739
00000280: 2421 323b 730b 0000 aabf a7b9 7c15 0080
00000290: c268 883a f76d 48bd faee 5fbd 90d9 e33c
000002a0: 5c51 edbb 2180 a83c 79aa 30bd 2c65 043c
000002b0: 422a 26bd 907a b5bc aa23 253c edf0 12bc
000002c0: 7b85 a1bb af8b 76bc 9f0c 773d b58a a23c
000002d0: 80c8 803d b550 91bc 680a 8b3c f9a2 1fbc
000002e0: 5879 c0ba d296 48bc a6ab cdbb 9b92 a43b
000002f0: 5f38 073d 45b4 0f3c 4439 713d 8d7a cdbc
00000300: 70eb c5bc d47e 9dbd c509 0000 4caf 8e3c
00000310: 050b 0000 af92 bb3d 4edf 71bd a803 533d
00000320: 40ff fe3c 1720 27bc 7631 90bd 34f2 8a3c
00000330: 48ca 48bd 9f20 a43a 784a 213d eb42 cc3a
00000340: 3c5a 5038 0eb6 2b3b bb8f d43b ecf6 043c
00000350: 749e 0dbd 43da 3dbd ae7b 10bc 84d7 46bb
00000360: 6784 f53c f569 983b 4331 d0bb e6d5 55bc
00000370: a2f9 19bc 4150 55bc 64d1 6ebc 66a6 39bd
00000380: 0949 00bb dc9d a83b 5567 80bb 9b15 0080
00000390: 4714 a7bb a80c 0000 c808 a03e 075c b23d
000003a0: 88ed 01bc 903f 95bc cd2a 8d3c 0d47 033c
000003b0: 0c81 a9bc b873 cd3b f2ed 02bb bd7e 8f3c
000003c0: f0e3 efbb 1365 b63b 9fda 503b e08f 3abb
000003d0: 124f e6bd 16f2 d13c d61f 903c 9bbb d3bb
000003e0: 213b e23b 07bb 063c 72e4 14bb 5832 423a
000003f0: a89d 9a3a 3558 e1ba f1da 88bb 29ed 093b

fcs1.bias f4 [128]
-0.0011013534 -0.060876675 -0.068627395 -0.038493313 -0.00031995514 0.02218774 -0.005004447 -0.008715216
-0.044767026 -0.027012525 -0.06035717 -0.035122927 -0.00028897 -0.09954815 0.013218615 0.0051027127
0.0045495187 -0.034602594 -0.039123543 0.008268629 -0.010884524 -0.038097788 -0.068348326 -0.0068158116
-0.004670369 -0.03802699 -0.0207759 -0.056556404 0.00023714529 -0.03487912 -0.09573877 -0.008450576
0.031718317 -0.008166316 -0.04520194 -0.02520012 -0.06729082 -0.0017373695 -0.018149318 -0.06406291
-0.0020802508 -0.09955184 -0.036846533 -0.08661699 -0.031451277 -0.008936213 0.014852407 -0.027506622
-0.08822786 -0.06399586 -0.001861902 -0.011306612 -0.075771846 -0.056141812 -0.053444196 -0.08902579
-0.018853957 0.0035206338 -0.046900373 -0.015422276 -1.3062197e-07 -0.072149195 -0.08232185 -0.07583879
-0.061818656 0.005240614 -0.030887583 0.013156961 -0.07131655 -0.058208086 -0.021530343 -0.0051255785
-0.025402026 -0.034574598 -0.05841952 -0.057611134 -0.06149766 -0.024744064 -0.051609427 -0.07456622
-0.011971553 -0.040902566 -0.065530844 0.054647934 -0.014713667 -0.07209193 -0.06841447 -0.042915873
-0.006193061 -0.029709218 -0.0031369675 0.016838111 -0.013107686 -0.09125712 -0.04308536 -0.095640354
-0.068052694 -0.054114453 -0.023960931 -0.12075149 -0.039609257 -0.06546627 -0.05534903 0.0061752135
-0.0024586613 -0.0030912166 0.008165997 0.010795533 0.014418572 -0.050196808 -0.019736279 -0.08004114
-0.07197113 0.008930288 -0.09592892 -0.0274054 -0.05873437 -0.04194339 -0.020696327 -0.009803721
-0.02376936 -0.025026964 -0.009818714 0.020224607 -0.05126133 0.004617487 -0.049257677 -0.021038134
00000000: 4a5b 90ba d259 79bd 858c 8cbd 2aab 1dbd
00000010: a7bf a7b9 10c3 b53c 58fc a3bb 44ca 0ebc
00000020: a15d 37bd 5f49 ddbc 1439 77bd 0fdd 0fbd
00000030: e680 97b9 e7df cbbd e492 583c a834 a73b
00000040: 2114 953b 73bb 0dbd 0240 20bd 2579 073c
00000050: 0155 32bc 6d0c 1cbd 35fa 8bbd 2c57 dfbb
00000060: e509 99bb 30c2 1bbd 3832 aabc b0a7 67bd
00000070: 34aa 7839 68dd 0ebd b012 c4bd 4974 0abc
00000080: 11eb 013d 03cc 05bc ab25 39bd 7b70 cebc
00000090: c5cf 89bd 72b8 e3ba e1ad 94bc 6a33 83bd
000000a0: d154 08bb d6e1 cbbd 64ec 16bd 4064 b1bd
000000b0: 0ed3 00bd 3269 12bc 8357 733c 9155 e1bc
000000c0: cfb0 b4bd 4310 83bd 100b f4ba 5e3f 39bc
000000d0: 452e 9bbd f5f4 65bd 4de8 5abd 2753 b6bd
000000e0: 9d73 9abc 6fba 663b 9b1a 40bd b7ad 7cbc
000000f0: 1841 0cb4 f5c2 93bd 5c98 a8bd 5e51 9bbd
00000100: 8f35 7dbd 75b9 ab3b f507 fdbc 4b90 573c
00000110: 690e 92bd 9a6b 6ebd 6760 b0bc 78f4 a7bb
00000120: e917 d0bc 189e 0dbd 4e49 6fbd a7f9 6bbd
00000130: f8e4 7bbd 10b4 cabc 6864 53bd 2db6 98bd
00000140: 5524 44bc 7389 27bd 0935 86bd 83d6 5f3d
00000150: 9811 71bc efa4 93bd e31c 8cbd 8ec8 2fbd
00000160: 29ef cabb bf60 f3bc 9595 4dbb 14f0 893c
00000170: 9fc1 56bc 03e5 babd 467a 30bd 17df c3bd
00000180: 365f 8bbd 1ea7 5dbd b749 c4bc 8f4c f7bd
00000190: 513d 22bd 2e13 86bd aab5 62bd 7259 ca3b
000001a0: 7e21 21bb 0296 4abb adca 053c bfdf 303c
000001b0: e03b 6c3c 2b9b 4dbd faad a1bc 9cec a3bd
000001c0: 9a65 93bd 5850 123c 6276 c4bd 4a81 e0bc
000001d0: 7393 70bd d5cc 2bbd 588b a9bc c99f 20bc
000001e0: f6b7 c2bc 5905 cdbc acde 20bc 13ae a53c
000001f0: 66f7 51bd 4a4e 973b 6bc2 49bd 2a58 acbc

bn2.weight f4 [128]
-2.1009648e-05 0.14529209 0.08946658 0.1310306 3.1132017e-06 0.17734562 0.2609205 0.2064511
0.23114683 0.29340634 0.1300513 0.05568804 -2.5284985e-06 0.08362474 0.16792127 0.15900826
0.08332878 0.21499893 0.22571397 0.55552346 0.3553141 0.2055274 0.14923911 0.18791628
-2.9499033e-05 0.1718595 0.16878466 0.1580365 2.2617378e-07 0.11267593 0.14950116 0.40040863
0.28876385 0.21378393 0.103752315 0.1831186 0.12729894 0.13577655 0.1707088 0.14680558
-2.814406e-05 0.07919765 0.28115827 0.21180302 0.22275867 0.5710653 0.3817828 0.2848063
0.08335363 0.2373874 0.15689932 0.1502419 0.08794664 0.19861794 0.31056973 0.23805745
0.37911204 0.30788752 0.2407085 0.10062896 0.32966232 0.14493999 0.19358537 0.13850403
0.15316756 0.41503364 0.2589519 0.21918279 0.21004263 0.25786087 0.51123077 0.18191178
0.18878095 0.14912511 0.33477777 0.18519048 0.21396971 0.1961815 0.122750506 0.16405497
0.3329424 0.22104521 0.1735079 0.27442893 0.3530843 0.24470703 0.017161468 0.1969649
0.17586544 0.28497493 0.00010949847 0.19616137 0.21624652 0.14012481 0.40496716 0.21332215
0.24845105 0.12876336 0.16960709 0.21189205 0.23087144 0.1994805 0.25306347 0.2558888
-0.000113000664 0.3571756 0.12030795 0.21963686 0.26980826 0.16740787 0.26446226 0.25523776
0.2106631 0.26530373 0.31562555 0.3147501 0.16299951 0.3733468 0.29183376 0.24537629
0.12699513 0.44501925 0.20327187 0.22243077 0.13797987 0.22544958 0.35292658 0.15817825
00000000: e03d b0b7 73c7 143e 413a b73d e32c 063e
00000010: 66ec 5036 179a 353e 5f97 853e eb67 533e
00000020: c1b1 6c3e 5b39 963e 2b2c 053e 2419 643d
00000030: 46af 29b6 7343 ab3d 8ef3 2b3e 10d3 223e
00000040: 48a8 aa3d ae28 5c3e 9021 673e c936 0e3f
00000050: bbeb b53e c675 523e 23d2 183e 206d 403e
00000060: b174 f7b7 f0fb 2f3e e3d5 2c3e 52d4 213e
00000070: 2dda 7234 a3c2 e63d d516 193e 5c02 cd3e
00000080: dbd8 933e 2dea 5a3e 187c d43d 7183 3b3e
00000090: a75a 023e 0209 0b3e 4ace 2e3e 3454 163e
000000a0: e916 ecb7 6132 a23d faf3 8f3e e4e2 583e
000000b0: d91a 643e 5631 123f 0979 c33e 22d2 913e
000000c0: 4fb5 aa3d af15 733e 37aa 203e 03d9 193e
000000d0: 5e1d b43d 8062 4b3e ff02 9f3e 55c5 733e
000000e0: f91a c23e 6fa3 9d3e 4a7c 763e 8e16 ce3d
000000f0: 80c9 a83e 266b 143e 3e3b 463e 00d4 0d3e
00000100: f5d7 1c3e 4a7f d43e 5895 843e 7471 603e
00000110: 6a15 573e 5706 843e 05e0 023f 1547 3a3e
00000120: cb4f 413e 41b4 183e fe67 ab3e 93a2 3d3e
00000130: e01a 5b3e cee3 483e 9e64 fb3d 07fe 273e
00000140: 6d77 aa3e ad59 623e 0eac 313e f381 8c3e
00000150: 77c7 b43e 7b94 7a3e 3596 8c3c 2bb1 493e
00000160: 1216 343e 3ce8 913e 8ba2 e538 87de 483e
00000170: ba6f 5d3e e17c 0f3e db57 cf3e 1f71 5a3e
00000180: f469 7e3e 8bda 033e 7bad 2d3e 3bfa 583e
00000190: 9069 6c3e 9e44 4c3e 8991 813e db03 833e
000001a0: c5fa ecb8 b8df b63e 0464 f63d 7ce8 603e
000001b0: 4f24 8a3e f86c 2b3e 9967 873e 86ae 823e
000001c0: 11b8 573e e4d5 873e ac99 a13e ed26 a13e
000001d0: 58e9 263e 5027 bf3e 3c6b 953e ec43 7b3e
000001e0: 030b 023e 90d9 e33e 8026 503e e4c4 633e
000001f0: 984a 0d3e 41dc 663e cbb2 b43e 7bf9 213e

bn2.bias f4 [128]
1.2651698e-05 -0.089341044 0.0057616564 0.007203993 1.1593186e-05 0.080270514 -0.019050162 -0.05163102
-0.06176443 0.051684014 -0.06936429 -0.05575422 -6.371694e-06 -0.071817175 -0.033792105 0.07055346
0.010730412 -0.10433935 -0.10120241 -0.09004044 -0.059111383 0.10066688 0.079950325 -0.0975975
-4.9576306e-06 0.05600627 -0.12249156 -0.06325293 2.2881366e-06 -0.051676575 -0.00095921103 -0.014358783
-0.047316335 0.08583593 -0.07750349 0.029447446 -0.08853745 -0.04630936 -0.08834478 0.0017462425
-2.5837821e-06 -0.05248821 -0.020507984 0.09422769 0.001676385 -0.101091415 -0.075521745 -0.026107933
-0.08299687 0.030692037 0.0073814727 0.05374559 0.123430036 -0.08520661 0.12746158 0.03275199
-0.08843996 -0.10192984 -0.057699203 0.1014792 -0.08268047 0.035257727 -0.018600237 0.019473396
-0.08578438 -0.09250608 0.025981097 -0.036747042 -0.039623115 -0.0039010686 -0.07635546 -0.052028857
0.07298639 0.038145646 -0.14283313 0.11216612 -0.04347526 0.027358327 -0.07183561 0.00596847
0.0682405 0.043260965 -0.082876466 0.10524295 0.052678473 -0.06540041 0.08781573 -0.04595288
0.094999 0.17370914 -8.1998205e-06 0.09413935 0.030855559 -0.042668223 -0.037766628 -0.082068965
0.10635366 -0.03625367 -0.04101243 -0.08323939 -0.08204692 -0.07895411 -0.07866357 0.023211593
6.49011e-06 0.045901325 0.02495723 -0.060309514 -0.04480384 -0.01612152 -0.008123137 0.020058088
-0.07567283 -0.025377152 -0.106839314 -0.022440387 -0.069652796 -0.09575721 0.034552783 0.022298584
-0.04920376 -0.073153295 0.0725095 0.02348702 -0.062226143 -0.062048227 -0.039446995 -0.05783105
00000000: a142 5437 70f8 b6bd 47cc bc3b 790f ec3b
00000010: 5b80 4237 de64 a43d 160f 9cbc 0c7b 53bd
00000020: b3fc 7cbd 9eb2 533d dd0e 8ebd 895e 64bd
00000030: 6fcc d5b6 e214 93bd 9769 0abd 557e 903d
00000040: 9cce 2f3c deaf d5bd 3643 cfbd 1f67 b8bd
00000050: c71e 72bd 702a ce3d ffbc a33d 33e1 c7bd
00000060: b959 a6b6 d566 653d dbdc fabd c18a 81bd
00000070: e38d 1936 d1aa 53bd 9073 7bba 1a41 6bbc
00000080: c6ce 41bd c0ca af3d 26ba 9ebd c53b f13c
00000090: 1f53 b5bd e2ae 3dbd 1cee b4bd 2de2 e43a
000000a0: 0a65 2db6 e1fd 56bd 5c00 a8bc 72fa c03d
000000b0: 26ba db3a 0409 cfbd 25ab 9abd 4ee0 d5bc
000000c0: 43fa a9bd de6d fb3c 48e0 f13b 5624 5c3d
000000d0: e3c8 fc3d ce80 aebd 4a85 023e f326 063d
000000e0: 0220 b5bd 98c0 d0bd 0056 6cbd 54d4 cf3d
000000f0: 6154 a9bd 686a 103d 865f 98bc ac86 9f3c
00000100: b9af afbd d473 bdbd 4fd6 d43c 1184 16bd
00000110: d94b 22bd 12a9 7fbb 4060 9cbd 361c 55bd
00000120: e379 953d 9c3e 1c3d d942 12be 5ab7 e53d
00000130: 1d13 32bd 921e e03c 8c1e 93bd 2893 c33b
00000140: adc1 8b3d 6932 313d 23bb a9bd 9e89 d73d
00000150: 62c5 573d a6f0 85bd bcd8 b33d 1639 3cbd
00000160: d68e c23d cfe0 313e f691 09b7 22cc c03d
00000170: ccc4 fc3c e0c4 2ebd 2eb1 1abd c613 a8bd
00000180: f3cf d93d ba7e 14bd a6fc 27bd 6a79 aabd
00000190: 3708 a8bd b1b2 a1bd 5e1a a1bd 3d26 be3c
000001a0: 9fc5 d936 0703 3c3d 1b73 cc3c 1c07 77bd
000001b0: 3b84 37bd 4711 84bc e816 05bc dc50 a43c
000001c0: 5bfa 9abd bfe3 cfbc 92ce dabd e7d4 b7bc
000001d0: 20a6 8ebd 5b1c c4bd 3887 0d3d 85ab b63c
000001e0: e289 49bd 65d1 95bd dc7f 943d da67 c03c
000001f0: d7e0 7ebd 4826 7ebd 2c93 21bd 40e0 6cbd

bn2.running_mean f4 [128]
0.0014759491 0.0049041174 0.076704085 0.05590898 0.008646281 0.1619554 0.07788023 0.01877541
0.061691187 0.13466485 0.0060731196 0.00020055346 0.017634692 7.4462965e-05 0.017068328 0.12268077
0.006146616 0.16036992 0.00031603256 0.1145332 0.096789 0.13169727 0.15091214 0.039017178
0.00026692843 0.084219255 0.093049474 0.017630765 0.015333926 0.08072106 0.024867788 0.22968781
0.11035469 0.094548404 0.04230058 0.037234455 0.014585289 0.005763847 0.019022489 0.012313469
2.2205048e-05 0.0023942322 0.18389866 0.023507282 0.07916312 0.061965562 0.025145968 0.17361969
0.00751748 0.07335544 0.08893771 0.10249465 0.02228308 0.0728398 0.06931667 0.044097185
0.03491698 0.02499639 0.023640871 0.018670205 0.025498427 0.0106958235 0.028832374 0.025326496
0.10406384 0.07759511 0.11718956 0.13170812 0.06617612 0.09445835 0.08286991 0.071883515
0.048667263 0.052307338 0.03680098 0.04578153 0.035072006 0.029693643 0.024095077 0.07734635
0.056325816 0.10747055 0.009276593 0.25306252 0.1394495 0.019312171 0.003437414 0.038612142
0.051700484 0.17694566 1.8696595e-05 0.208065 0.07488887 0.00027328607 0.07904459 0.022200901
0.027939592 3.1173717e-05 0.03501964 0.021674577 0.041519012 0.027079785 0.038366977 0.31046188
1.4215259e-05 0.085545965 0.22713935 0.1443184 0.16746125 0.07917865 0.12039951 0.032726754
0.012088234 0.29041448 0.029791983 0.3786041 0.118117906 0.052804027 0.15741198 0.22167891
0.020129059 0.04512791 0.16192023 0.26736265 0.017072376 0.12979919 0.01263618 0.03825662
00000000: a274 c13a b8b2 a03b 0817 9d3d d100 653d
00000010: 22a9 0d3c a3d7 253e ac7f 9f3d e3ce 993c
00000020: e6af 7c3d 95e5 093e 0501 c73b a94b 5239
00000030: a176 903c 0029 9c38 e1d2 8b3c 0e40 fb3d
00000040: 8d69 c93b 0338 243e 2cb1 a539 6290 ea3d
00000050: 5039 c63d a6db 063e b688 1a3e 7ad0 1f3d
00000060: 87f2 8b39 257b ac3d b990 be3d 656e 903c
00000070: 263b 7b3c 1551 a53d 88b7 cb3c 4833 6b3e
00000080: a401 e23d 98a2 c13d 5f43 2d3d 2883 183d
00000090: 23f7 6e3c a7de bc3b 0dd5 9b3c 6fbe 493c
000000a0: fa44 ba37 8de8 1c3b ee4f 3c3e 5892 c03c
000000b0: 4620 a23d 9acf 7d3d ebfe cd3c 5cc9 313e
000000c0: 3155 f63b 603b 963d f924 b63d b7e8 d13d
000000d0: 018b b63c 082d 953d e6f5 8d3d 409f 343d
000000e0: 1b05 0f3d 3bc5 cc3c 80aa c13c 42f2 983c
000000f0: 14e2 d03c 893d 2f3c df31 ec3c 8379 cf3c
00000100: 6c1f d53d 2fea 9e3d 1401 f03d 7ede 063e
00000110: 5887 873d 6173 c13d b3b7 a93d aa37 933d
00000120: 5357 473d 3840 563d a0bc 163d 6a85 3b3d
00000130: aaa7 0f3d 1540 f33c 0a63 c53c c367 9e3d
00000140: e6b5 663d 8519 dc3d dafc 173c 6991 813e
00000150: dacb 0e3e 8f34 9e3c 3d46 613b c427 1e3d
00000160: e3c3 533d 3e31 353e a2d6 9c37 fe0e 553e
00000170: 565f 993d d647 8f39 21e2 a13d aade b53c
00000180: 92e1 e43c 86c0 0238 c170 0f3d e28e b13c
00000190: d70f 2a3d 6dd6 dd3c b126 1d3d dcf4 9e3e
000001a0: 137e 6e37 b932 af3d 3897 683e 34c8 133e
000001b0: f67a 2b3e 6b28 a23d 0594 f63d 7d0c 063d
000001c0: ba0d 463c 35b1 943e 510e f43c 66d8 c13e
000001d0: cde7 f13d 0949 583d 9b30 213e ccff 623e
000001e0: b2e5 a43c 0bd8 383d 6bce 253e c2e3 883e
000001f0: 5edb 8b3c 14ea 043e fb07 4f3c f9b2 1c3d

bn2.running_var f4 [128]
1.1791703e-05 0.00043244852 0.01415 0.011654137 0.00017748115 0.028902516 0.017453542 0.0013434822
0.014494397 0.033452142 0.00085091393 1.8278375e-05 0.0005021585 4.716637e-06 0.0016236157 0.018748604
0.0012772314 0.051792637 3.654473e-05 0.011187608 0.02058547 0.034734104 0.044868868 0.010210386
4.9287687e-06 0.03524791 0.016110394 0.0019267526 0.00029915594 0.017517818 0.0051146923 0.0427031
0.022011124 0.021899158 0.0076098507 0.004659821 0.0015803318 0.0005437623 0.001719584 0.0021167046
1.4860576e-07 0.00022901983 0.050033193 0.0047168694 0.013005685 0.00763714 0.003633171 0.061858647
0.0006367529 0.019171407 0.02158013 0.023655087 0.005807966 0.019277982 0.011678834 0.011135369
0.0036371227 0.0021136648 0.0036301601 0.00482337 0.002722261 0.0012925446 0.0044531426 0.0043594847
0.021029621 0.013165232 0.027696762 0.0349233 0.015213257 0.029953813 0.014456534 0.018928407
0.010054255 0.006383111 0.0048206234 0.0106504075 0.0054527544 0.009304389 0.0047099595 0.02512383
0.015875252 0.029931247 0.0009832311 0.04715584 0.03680504 0.0023743522 0.00063843187 0.012793232
0.008660956 0.029103417 3.4909684e-07 0.04213202 0.016942611 6.9823254e-05 0.014409834 0.0029252341
0.0049831546 3.1024335e-06 0.0046959096 0.0029807405 0.011003237 0.003355913 0.006942575 0.057569437
1.2390352e-07 0.017874192 0.04253087 0.034735173 0.052006517 0.017263724 0.027678164 0.0073535913
0.0014735515 0.061359122 0.0053792144 0.20516008 0.027727302 0.008722446 0.025693819 0.06900294
0.0017601099 0.00902911 0.02706366 0.070385136 0.0037805466 0.03771501 0.0016161846 0.0067124395
00000000: fbd4 4537 42ba e239 67d5 673c fef0 3e3c
00000010: 3c1a 3a39 f8c4 ec3c bbfa 8e3c c817 b03a
00000020: e879 6d3c 1d05 093d de0f 5f3a 8354 9937
00000030: 49a3 033a 9a43 9e36 81cf d43a ac96 993c
00000040: c668 a73a 8424 543d 9b47 1938 3b4c 373c
00000050: dca2 a83c 5945 0e3d 6bc8 373d 7649 273c
00000060: cd61 a536 1d60 103d f2f9 833c 178b fc3a
00000070: 08d8 9c39 8781 8f3c 2699 a73b 72e9 2e3d
00000080: ac50 b43c dd65 b33c 0e5c f93b 69b1 983b
00000090: 2323 cf3a 458b 0e3a aa63 e13a 69b8 0a3b
000000a0: 7190 1f34 0b25 7039 9bef 4c3d f88f 9a3b
000000b0: cc15 553c f940 fa3b 7f1a 6e3b 7e5f 7d3d
000000c0: c4eb 263a 5b0d 9d3c d0c8 b03c 50c8 c13c
000000d0: c050 be3b dcec 9d3c 9558 3f3c 1f71 363c
000000e0: cb5c 6e3b 6985 0a3b fbe7 6d3b 5c0d 9e3b
000000f0: f667 323b 9a6a a93a abeb 913b 02da 8e3b
00000100: 5046 ac3c fcb2 573c 52e4 e23c bc0b 0f3d
00000110: 0641 793c b361 f53c 19db 6c3c bf0f 9b3c
00000120: 9aba 243c 6a29 d13b 52f6 9d3b 0c7f 2e3c
00000130: 05ad b23b 7071 183c 0156 9a3b 7ed0 cd3c
00000140: d10c 823c 6032 f53c c3df 803a 7b26 413d
00000150: e2c0 163d 059b 1b3b 705c 273a b49a 513c
00000160: afe6 0d3c 4a6a ee3c 816b bb34 a092 2c3d
00000170: 3bcb 8a3c 136e 9238 3917 6c3c 49b5 3f3b
00000180: bb49 a33b 6733 5036 25e0 993b 8758 433b
00000190: ec46 343c e1ee 5b3b 8a7e e33b eecd 6b3d
000001a0: 570a 0534 e66c 923c d934 2e3d 7846 0e3d
000001b0: c904 553d a76c 8d3c 51bd e23c 65f6 f03b
000001c0: 2f24 c13a b453 7b3d 1f44 b03b 7c15 523e
000001d0: 5e24 e33c 97e8 0e3c d87b d23c 6a51 8d3d
000001e0: 7db3 e63a d5ee 133c 9cb4 dd3c 1526 903d
000001f0: 0cc3 773b 0e7b 1a3d 28d6 d33a 06f4 db3b

fc2.weight f4 [128, 132]
0.00026667782 -0.050005816 0.006454633 -0.014555998 9.15258e-05 -0.032061376 0.030007256 -0.10142325
-0.012047983 -0.017208736 -0.036371827 -0.019470822 0.000117716525 -0.0037743768 -0.065745965 0.033255916
-0.01447316 -0.029636616 -0.01963816 -0.07527332 -0.050617058 0.056586716 -0.028669303 -0.01823525
-0.0008658624 0.038288075 -0.054164644 -0.06284949 -0.00010716751 -0.031682823 -0.0045822836 -0.017732017
-0.032897793 0.041385982 -0.045146827 0.013509271 -0.050953925 -0.08082782 -0.06608016 -0.0507482
-8.740252e-05 -0.05325914 -0.05298623 0.013763249 -0.037839066 -0.07598911 -0.03895298 -0.03470902
-0.051421467 0.027515631 0.043289367 0.034212936 0.030177047 -0.033606917 0.030755308 -0.006176319
-0.04114227 -0.0232717 -0.023917126 -0.015554686 -0.06283334 0.025558664 -0.0412471 -0.037307616
-0.009075032 -0.0754821 0.03661321 -0.035519954 -0.009374952 -0.007712873 -0.023334697 -0.010634073
0.006785228 -0.034123573 -0.038425133 -0.011237248 -0.034310743 0.02814555 -0.020006327 -0.024639955
0.031738054 0.039465636 -0.049595606 0.021970388 0.05044268 -0.023155151 0.031055717 -0.011090067
0.008090656 0.036821637 -0.00014603461 0.003212992 -0.0043567666 0.0031041994 -0.019003982 -0.10777297
0.07550031 -0.002948245 -0.07208427 -0.026182918 -0.013368595 -0.094398476 -0.08348161 0.027511446
-0.00054517423 0.014031382 0.06860823 -0.008134722 -0.032148648 -0.0077555324 -0.02637085 0.021126054
-0.020366956 -0.03108649 -0.03178937 -0.03024451 -0.04643609 -0.022047076 0.008313466 -0.030321024
-0.06754075 0.006270648 0.06975446 -0.0096925795 -0.025948578 -0.02689546 -0.010174478 -0.008938602
-0.004846096 -7.244101e-05 -0.015995575 0.013715346 0.00024025855 -0.012168023 -0.022820208 0.0006792399
0.00024891848 0.026729904 -0.0767853 0.017639542 -0.034770776 -0.060949676 7.154376e-05 -0.0081686545
-0.00015053492 -0.03155564 -0.0027959219 0.0029600544 -0.014245198 0.048987888 0.013070552 0.071014434
-0.008583059 -0.010701235 0.005803944 -0.05118049 -0.00010788144 -0.051923703 0.023833582 0.021121452
-0.0001994002 -0.058358315 0.06204578 0.013950119 0.029077025 -0.032521304 -0.0062767817 -0.029478105
0.056679256 0.023348115 -0.023829479 -0.04975896 1.2848592e-05 0.004055058 -0.015291257 -0.027955353
0.0363578 -0.007998227 0.044422626 -0.019611886 0.007165865 -0.028442997 -0.031263936 -0.006465149
-0.008409328 0.013381104 -0.01873297 -0.080673166 -0.025973422 0.013320546 -0.03682887 -0.0050833905
0.017976156 -0.06564502 0.029937668 -0.044311225 0.019395806 0.010314227 -0.033926666 -0.011016936
-0.011969727 0.055027403 0.029041002 0.0014391665 0.029463485 0.012767629 -0.005465868 -0.010496408
-0.036156964 -0.023329802 0.017184574 -0.0110751605 -0.01825972 -0.010065351 0.06076094 0.022164587
-0.0017339699 0.037775993 -0.0015101006 0.0054764175 -0.026092444 0.003934487 -8.126497e-05 0.023257349
-0.042954985 0.01102653 0.059766646 0.006327534 -0.047997084 0.031422183 -0.024336295 0.026764961
-0.0036156874 -0.019958977 0.0475108 -0.040166322 0.00030431326 -0.05519205 -0.035415996 0.018567279
0.022730716 -0.0004686146 -0.02675231 0.036694188 -0.021272792 0.017420074 0.034912698 0.030046072
-0.00016348386 -0.0068624476 -0.01901527 0.01929904 0.021040052 -0.011505239 0.019309103 0.031424295
00000000: e4d0 8b39 e6d2 4cbd 6381 d33b 487c 6ebc
00000010: 8af1 bf38 ca52 03bd c7d1 f53c feb6 cfbd
00000020: e764 45bc 56f9 8cbc a0fa 14bd 4681 9fbc
00000030: 94de f638 895b 77bb d2a5 86bd 5b37 083d
00000040: d520 6dbc 7dc8 f2bc 35e0 a0bc e628 9abd
00000050: d553 4fbd 79c7 673d e3db eabc 1762 95bc
00000060: 0bfb 62ba f5d3 1c3d bfdb 5dbd 3cb7 80bd
00000070: 1ebf e0b8 d9c5 01bd fb26 96bb bc42 91bc
00000080: d6bf 06bd 5984 293d e1eb 38bd fd55 5d3c
00000090: 10b5 50bd 0e89 a5bd 0955 87bd 58dd 4fbd
000000a0: df4b b7b8 4226 5abd 1708 59bd 407f 613c
000000b0: 23fd 1abd 2ea0 9bbd 298d 1fbd 0c2b 0ebd
000000c0: 519f 52bd 7668 e13c 3150 313d dd22 0c3d
000000d0: db35 f73c 68a7 09bd 8ef2 fb3c b862 cabb
000000e0: cc84 28bd 4ba4 bebc d9ed c3bc 15d9 7ebc
000000f0: c4ae 80bd 6760 d13c b8f2 28bd dfcf 18bd
00000100: 71af 14bc 5c96 9abd bcf7 153d 5f7d 11bd
00000110: 6699 19bc 45bc fcbb 6828 bfbc 893a 2ebc
00000120: 9e56 de3b 29c5 0bbd ac63 1dbd 6f1c 38bc
00000130: 6c89 0cbd 7f91 e63c 4fe4 a3bc bbd9 c9bc
00000140: c3ff 013d b8a6 213d c324 4bbd 3efb b33c
00000150: fc9c 4e3d dfaf bdbc 8f68 fe3c 1db3 35bc
00000160: ac8e 043c 49d2 163d de20 19b9 1091 523b
00000170: 35c3 8ebb d36f 4b3b 3dae 9bbc 13b8 dcbd
00000180: e89f 9a3d 5837 41bb eba0 93bd 8f7d d6bc
00000190: f407 5bbc fd53 c1bd 68f8 aabd af5f e13c
000001a0: 06ea 0eba e2e3 653c 7982 8c3d 7f47 05bc
000001b0: 4dae 03bd 1f22 febb ae07 d8bc 8c10 ad3c
000001c0: 9ad8 a6bc 18a9 febc 9235 02bd 56c3 f7bc
000001d0: c533 3ebd 129c b4bc 3435 083c cc63 f8bc
000001e0: ce52 8abd 027a cd3b 6ddb 8e3d a0cd 1ebc
000001f0: 1d92 d4bc de53 dcbc dbb2 26bc 3773 12bc
00000200: 00cc 9ebb 79eb 97b8 2709 83bc 55b6 603c
00000210: eaed 7b39 635c 47bc 72f1 babc 050f 323a
00000220: 4681 8239 acf8 da3c 9d41 9dbd cd80 903c
00000230: cd6b 0ebd 5ea6 79bd c409 9638 d2d5 05bc
00000240: e9d8 1db9 7d40 01bd c93b 37bb 79fd 413b
00000250: b164 69bc 86a7 483d de25 563c 0470 913d
00000260: f59f 0cbc 3c54 2fbc 032f be3b a2a2 51bd
00000270: 683e e2b8 f3ad 54bd a53e c33c e506 ad3c
00000280: 1516 51b9 2109 6fbd b723 7e3d 0a8f 643c
00000290: f132 ee3c 0f35 05bd 76ad cdbb 117c f1bc
000002a0: 8228 683d 8c44 bf3c 0a36 c3bc 0dd0 4bbd
000002b0: 4890 5737 4be0 843b 2e88 7abc a002 e5bc
000002c0: ebeb 143d ff0a 03bc 80f4 353d 1ba9 a0bc
000002d0: a2cf ea3b 4a01 e9bc 9d0e 00bd 9ad9 d3bb
000002e0: 47c7 09bc 6b3c 5b3c e375 99bc f937 a5bd
000002f0: 37c6 d4bc 6b3e 5a3c dfd9 16bd 9292 a6bb
00000300: bb42 933c e570 86bd d73f f53c b07f 35bd
00000310: f4e3 9e3c 01fd 283c b0f6 0abd 6180 34bc
00000320: ad1c 44bc 6a64 613d 65e7 ed3c 6aa2 bc3a
00000330: 685d f13c 512f 513c 061b b3bb 20f9 2bbc
00000340: 5319 14bd 241e bfbc aac6 8c3c 9774 35bc
00000350: 6995 95bc 24e9 24bc 77e0 783d 8292 b53c
00000360: 6046 e3ba 00bb 1a3d 91ee c5ba 8573 b33b
00000370: d2bf d5bc deec 803b cc6c aab8 3286 be3c
00000380: 91f1 2fbd 9ea8 343c dfcd 743d 3457 cf3b
00000390: 9798 44bd 8cb4 003d e95c c7bc 3142 db3c
000003a0: 2bf5 6cbb 0281 a3bc af9a 423d 7185 24bd
000003b0: 3c8c 9f39 0f11 62bd 5d10 11bd 681a 983c
000003c0: c435 ba3c 63b0 f5b9 a927 dbbc a54c 163d
000003d0: 4744 aebc 8bb4 8e3c 9e00 0f3d 2e23 f63c
000003e0: dd6c 2bb9 62de e0bb e9c5 9bbc 0519 9e3c
000003f0: 305c ac3c 7880 3cbc 202e 9e3c c3b6 003d

fc2.bias f4 [128]
0.029622959 -0.022096798 -0.03021363 -0.004075148 -0.078697614 -0.07216166 0.046277706 0.0019795834
0.12805684 0.0018385777 -0.024126487 -0.0896068 -0.035237495 -0.0026754835 0.067557156 0.046194177
-0.03466842 -0.052198093 -0.020233769 -0.04843568 -0.032768548 -0.038143575 0.1122241 -0.05779465
0.11920239 0.0018675668 -0.05352954 0.011130945 -0.02215369 -0.06797333 -0.09348257 -0.06909481
-0.050575197 -0.09065189 -0.026796605 0.028338902 -0.005099673 -0.0059726355 0.09258848 0.010293657
-0.03886255 -0.07173696 -0.09618895 -0.09247707 -0.018680917 -0.09538586 -0.04599693 -0.04871972
-0.07373101 -0.033846598 0.024954539 -0.084718384 -0.007431916 -0.07168409 0.012711818 0.11191503
0.0023151098 -0.01685205 -0.06826166 0.044097822 -0.022432294 -0.041666135 -0.012776431 -0.064715356
0.04413948 0.10396972 -0.065500684 0.08371129 -0.04157451 -0.07798486 -0.0068640043 0.037147827
-0.09250936 -0.0337699 0.124924965 -0.088578045 -0.059147753 -0.051189233 -0.065762125 -0.058222994
-0.049270716 0.0671932 -0.051004115 -0.073412776 -0.034986835 -0.00507205 -0.11197851 0.015111589
0.063724644 -0.032532815 0.12187164 -0.04855207 -0.01668446 -0.0764363 -0.067330904 -0.06658807
-0.016849121 -0.010554383 -0.04748017 -0.061701912 -0.074830845 -0.0020835286 -0.0740159 -0.07086051
-0.06488107 -0.06225017 -0.06776625 0.055417396 -0.09539915 -0.08845999 -0.06817636 0.057570037
-0.018823905 0.100013845 -0.061934337 -0.08690083 0.005920396 0.027409047 0.031151993 -0.05015845
0.036899317 -0.08520732 0.06217796 0.06771955 -0.00492982 -0.0004325148 -0.054114223 -0.06950914
00000000: d9ab f23c 5804 b5bc 9382 f7bc d288 85bb
00000010: 372c a1bd 7ec9 93bd b18d 3d3d e6bb 013b
00000020: 5521 033e 6efc f03a e9a4 c5bc c583 b7bd
00000030: 3155 10bd 2a57 2fbb 685b 8a3d 1b36 3d3d
00000040: 7900 0ebd abcd 55bd 4ac1 a5bc 7e64 46bd
00000050: 5038 06bd 703c 1cbd c0d5 e53d 15ba 6cbd
00000060: 6220 f43d 25c9 f43a ca41 5bbd 915e 363c
00000070: a87b b5bc 9a35 8bbd ca73 bfbd 9481 8dbd
00000080: f027 4fbd b3a7 b9bd 8e84 dbbc fc26 e83c
00000090: 281b a7bb 19b6 c3bb 079f bd3d baa6 283c
000000a0: 562e 1fbd d4ea 92bd b6fe c4bd 9e64 bdbd
000000b0: b908 99bc a959 c3bd 4767 3cbd 548e 47bd
000000c0: 4900 97bd bba2 0abd 766d cc3c d580 adbd
000000d0: 6e87 f3bb 1ccf 92bd 3b45 503c b533 e53d
000000e0: 19b9 173b 4f0d 8abc c5cc 8bbd eb9f 343d
000000f0: eec3 b7bc 1caa 2abd 3c54 51bc 7c89 84bd
00000100: 99cb 343d 14ee d43d 3925 86bd d370 ab3d
00000110: 094a 2abd 87b6 9fbd 71eb e0bb 5228 183d
00000120: 8c75 bdbd 4f52 0abd a9d8 ff3d 6868 b5bd
00000130: ea44 72bd cdab 51bd 4bae 86bd 3c7b 6ebd
00000140: 17d0 49bd 979c 893d b1e9 50bd 7059 96bd
00000150: 5b4e 0fbd 7033 a6bb fd54 e5bd 9996 773c
00000160: 1182 823d 2141 05bd d797 f93d 89de 46bd
00000170: d9ad 88bc a38a 9cbd c9e4 89bd 535f 88bd
00000180: 2b07 8abc 4aec 2cbc 917a 42bd 25bb 7cbd
00000190: ea40 99bd cf8b 08bb a695 97bd 511f 91bd
000001a0: 5ee0 84bd 09fa 7ebd 08c9 8abd 5afd 623d
000001b0: a160 c3bd 832a b5bd 0ca0 8bbd 8fce 6b3d
000001c0: 9734 9abc 0fd4 cc3d dcae 7dbd 10f9 b1bd
000001d0: e2ff c13b f088 e03c 7732 ff3c f272 4dbd
000001e0: bd23 173d 2d81 aebd 51ae 7e3d 8cb0 8a3d
000001f0: 548a a1bb 27c3 e2b9 e0a6 5dbd cf5a 8ebd

bn3.weight f4 [128]
0.29451942 0.03678 0.5417146 0.6804138 0.07880491 0.076099455 0.8982294 0.51803684
0.16235524 0.99818754 0.93154323 0.3058222 0.5271263 0.2270239 0.6522059 0.77601856
0.8556417 0.9566194 0.5753413 0.13181591 0.02131641 0.59954107 0.72861904 0.20244682
0.53353703 0.06438625 0.6674425 0.6654402 0.011573315 0.36720157 0.07797372 0.15300268
0.19700491 0.8320192 0.27101094 0.46990722 0.96796215 0.054145932 0.75049263 0.4514485
0.51311404 0.8537117 0.029121902 0.6948946 0.75057006 0.4129016 0.56635576 0.85238725
0.16377333 0.91944444 0.15496325 0.7606733 0.90406513 0.66055 0.071884274 0.9959171
0.6120993 0.35389477 0.81636465 0.84162307 0.6615632 0.10568023 0.5900507 0.26597446
0.2174123 0.96234643 0.22131711 0.14523268 0.3411075 0.99341583 0.33257723 0.110007346
0.22896206 0.2101857 0.6940912 0.71771294 0.77852076 0.5165909 0.09187949 0.16250193
0.74545836 0.039698362 0.59484226 0.16546631 0.44248694 0.33742952 0.7846242 0.5640217
0.13147497 0.17222899 0.45991957 0.7137139 0.37195474 0.29155803 0.07444793 0.6370833
0.84495026 0.5016396 0.52286196 0.14197934 0.20896095 0.078079365 0.47203016 0.10221726
0.246148 0.6228468 0.16910279 0.7700828 0.8885523 0.6928557 0.7681398 0.18042856
0.71633005 0.5711145 0.41999727 0.44378567 0.2254715 0.5491745 0.034116745 0.18111312
0.6457438 0.607409 0.46268672 0.018090129 0.15955335 0.061861105 0.968523 0.13126832
00000000: 40cb 963e a0a6 163d cfad 0a3f 992f 2e3f
00000010: 7864 a13d 08da 9b3d 5df2 653f 109e 043f
00000020: 7440 263e 3889 7f3f 9e79 6e3f ba94 9c3e
00000030: c0f1 063f f478 683e f7f6 263f 27a9 463f
00000040: 560b 5b3f 02e5 743f 9149 133f c0fa 063e
00000050: c09f ae3c 867b 193f c786 3a3f 384e 4f3e
00000060: e295 083f f0dc 833d 83dd 2a3f 4a5a 2a3f
00000070: 009e 3d3c d801 bc3e b0b0 9f3d bcac 1c3e
00000080: a8bb 493e 36ff 543f f2c1 8a3e ae97 f03e
00000090: 5ecc 773f 20c8 5d3d 4920 403f 4224 e73e
000000a0: 715b 033f da8c 5a3f 0e91 ee3c 9de4 313f
000000b0: 5c25 403f d767 d33e b1fc 103f 0d36 5a3f
000000c0: 32b4 273e b660 6b3f b0ae 1e3e 7cbb 423f
000000d0: d070 673f ce19 293f 1038 933d 6cf4 7e3f
000000e0: 8ab2 1c3f b231 b53e 46fd 503f 9c74 573f
000000f0: 355c 293f e06e d83d 900d 173f ce2d 883e
00000100: 54a1 5e3e 565c 763f f4a0 623e e0b7 143e
00000110: a4a5 ae3e 8050 7e3f 9047 aa3e 884b e13d
00000120: 0875 6a3e ec3a 573e f6af 313f 09bc 373f
00000130: 234d 473f 4d3f 043f 502b bc3d e866 263e
00000140: 5cd6 3e3f c09a 223d 9547 183f 0070 293e
00000150: a68d e23e 90c3 ac3e 22dd 483f ba63 103f
00000160: 60a1 063e cc5c 303e 947a eb3e f4b5 363f
00000170: da70 be3e 1847 953e 2878 983d e417 233f
00000180: a94e 583f 746b 003f 48da 053f 0863 113e
00000190: dcf9 553e 13e8 9f3d f0ad f13e 4857 d13d
000001a0: 390e 7c3e e372 1f3f 4829 2d3e 2524 453f
000001b0: 2a78 633f fe5e 313f cfa4 443f 44c2 383e
000001c0: 6861 373f 8f34 123f e209 d73e e037 e33e
000001d0: 00e2 663e b396 0c3f 00be 0b3d b875 393e
000001e0: 774f 253f 287f 1b3f 46e5 ec3e c031 943c
000001f0: f461 233e 1262 7d3d 20f1 773f 346b 063e

bn3.bias f4 [128]
0.0 0.0 0.0 0.0 0.0 0.0 0.0 0.0
0.0 0.0 0.0 0.0 0.0 0.0 0.0 0.0
0.0 0.0 0.0 0.0 0.0 0.0 0.0 0.0
0.0 0.0 0.0 0.0 0.0 0.0 0.0 0.0
0.0 0.0 0.0 0.0 0.0 0.0 0.0 0.0
0.0 0.0 0.0 0.0 0.0 0.0 0.0 0.0
0.0 0.0 0.0 0.0 0.0 0.0 0.0 0.0
0.0 0.0 0.0 0.0 0.0 0.0 0.0 0.0
0.0 0.0 0.0 0.0 0.0 0.0 0.0 0.0
0.0 0.0 0.0 0.0 0.0 0.0 0.0 0.0
0.0 0.0 0.0 0.0 0.0 0.0 0.0 0.0
0.0 0.0 0.0 0.0 0.0 0.0 0.0 0.0
0.0 0.0 0.0 0.0 0.0 0.0 0.0 0.0
0.0 0.0 0.0 0.0 0.0 0.0 0.0 0.0
0.0 0.0 0.0 0.0 0.0 0.0 0.0 0.0
0.0 0.0 0.0 0.0 0.0 0.0 0.0 0.0
00000000: 0000 0000 0000 0000 0000 0000 0000 0000
00000010: 0000 0000 0000 0000 0000 0000 0000 0000
00000020: 0000 0000 0000 0000 0000 0000 0000 0000
00000030: 0000 0000 0000 0000 0000 0000 0000 0000
00000040: 0000 0000 0000 0000 0000 0000 0000 0000
00000050: 0000 0000 0000 0000 0000 0000 0000 0000
00000060: 0000 0000 0000 0000 0000 0000 0000 0000
00000070: 0000 0000 0000 0000 0000 0000 0000 0000
00000080: 0000 0000 0000 0000 0000 0000 0000 0000
00000090: 0000 0000 0000 0000 0000 0000 0000 0000
000000a0: 0000 0000 0000 0000 0000 0000 0000 0000
000000b0: 0000 0000 0000 0000 0000 0000 0000 0000
000000c0: 0000 0000 0000 0000 0000 0000 0000 0000
000000d0: 0000 0000 0000 0000 0000 0000 0000 0000
000000e0: 0000 0000 0000 0000 0000 0000 0000 0000
000000f0: 0000 0000 0000 0000 0000 0000 0000 0000
00000100: 0000 0000 0000 0000 0000 0000 0000 0000
00000110: 0000 0000 0000 0000 0000 0000 0000 0000
00000120: 0000 0000 0000 0000 0000 0000 0000 0000
00000130: 0000 0000 0000 0000 0000 0000 0000 0000
00000140: 0000 0000 0000 0000 0000 0000 0000 0000
00000150: 0000 0000 0000 0000 0000 0000 0000 0000
00000160: 0000 0000 0000 0000 0000 0000 0000 0000
00000170: 0000 0000 0000 0000 0000 0000 0000 0000
00000180: 0000 0000 0000 0000 0000 0000 0000 0000
00000190: 0000 0000 0000 0000 0000 0000 0000 0000
000001a0: 0000 0000 0000 0000 0000 0000 0000 0000
000001b0: 0000 0000 0000 0000 0000 0000 0000 0000
000001c0: 0000 0000 0000 0000 0000 0000 0000 0000
000001d0: 0000 0000 0000 0000 0000 0000 0000 0000
000001e0: 0000 0000 0000 0000 0000 0000 0000 0000
000001f0: 0000 0000 0000 0000 0000 0000 0000 0000

bn3.running_mean f4 [128]
0.0 0.0 0.0 0.0 0.0 0.0 0.0 0.0
0.0 0.0 0.0 0.0 0.0 0.0 0.0 0.0
0.0 0.0 0.0 0.0 0.0 0.0 0.0 0.0
0.0 0.0 0.0 0.0 0.0 0.0 0.0 0.0
0.0 0.0 0.0 0.0 0.0 0.0 0.0 0.0
0.0 0.0 0.0 0.0 0.0 0.0 0.0 0.0
0.0 0.0 0.0 0.0 0.0 0.0 0.0 0.0
0.0 0.0 0.0 0.0 0.0 0.0 0.0 0.0
0.0 0.0 0.0 0.0 0.0 0.0 0.0 0.0
0.0 0.0 0.0 0.0 0.0 0.0 0.0 0.0
0.0 0.0 0.0 0.0 0.0 0.0 0.0 0.0
0.0 0.0 0.0 0.0 0.0 0.0 0.0 0.0
0.0 0.0 0.0 0.0 0.0 0.0 0.0 0.0
0.0 0.0 0.0 0.0 0.0 0.0 0.0 0.0
0.0 0.0 0.0 0.0 0.0 0.0 0.0 0.0
0.0 0.0 0.0 0.0 0.0 0.0 0.0 0.0
00000000: 0000 0000 0000 0000 0000 0000 0000 0000
00000010: 0000 0000 0000 0000 0000 0000 0000 0000
00000020: 0000 0000 0000 0000 0000 0000 0000 0000
00000030: 0000 0000 0000 0000 0000 0000 0000 0000
00000040: 0000 0000 0000 0000 0000 0000 0000 0000
00000050: 0000 0000 0000 0000 0000 0000 0000 0000
00000060: 0000 0000 0000 0000 0000 0000 0000 0000
00000070: 0000 0000 0000 0000 0000 0000 0000 0000
00000080: 0000 0000 0000 0000 0000 0000 0000 0000
00000090: 0000 0000 0000 0000 0000 0000 0000 0000
000000a0: 0000 0000 0000 0000 0000 0000 0000 0000
000000b0: 0000 0000 0000 0000 0000 0000 0000 0000
000000c0: 0000 0000 0000 0000 0000 0000 0000 0000
000000d0: 0000 0000 0000 0000 0000 0000 0000 0000
000000e0: 0000 0000 0000 0000 0000 0000 0000 0000
000000f0: 0000 0000 0000 0000 0000 0000 0000 0000
00000100: 0000 0000 0000 0000 0000 0000 0000 0000
00000110: 0000 0000 0000 0000 0000 0000 0000 0000
00000120: 0000 0000 0000 0000 0000 0000 0000 0000
00000130: 0000 0000 0000 0000 0000 0000 0000 0000
00000140: 0000 0000 0000 0000 0000 0000 0000 0000
00000150: 0000 0000 0000 0000 0000 0000 0000 0000
00000160: 0000 0000 0000 0000 0000 0000 0000 0000
00000170: 0000 0000 0000 0000 0000 0000 0000 0000
00000180: 0000 0000 0000 0000 0000 0000 0000 0000
00000190: 0000 0000 0000 0000 0000 0000 0000 0000
000001a0: 0000 0000 0000 0000 0000 0000 0000 0000
000001b0: 0000 0000 0000 0000 0000 0000 0000 0000
000001c0: 0000 0000 0000 0000 0000 0000 0000 0000
000001d0: 0000 0000 0000 0000 0000 0000 0000 0000
000001e0: 0000 0000 0000 0000 0000 0000 0000 0000
000001f0: 0000 0000 0000 0000 0000 0000 0000 0000

bn3.running_var f4 [128]
1.0 1.0 1.0 1.0 1.0 1.0 1.0 1.0
1.0 1.0 1.0 1.0 1.0 1.0 1.0 1.0
1.0 1.0 1.0 1.0 1.0 1.0 1.0 1.0
1.0 1.0 1.0 1.0 1.0 1.0 1.0 1.0
1.0 1.0 1.0 1.0 1.0 1.0 1.0 1.0
1.0 1.0 1.0 1.0 1.0 1.0 1.0 1.0
1.0 1.0 1.0 1.0 1.0 1.0 1.0 1.0
1.0 1.0 1.0 1.0 1.0 1.0 1.0 1.0
1.0 1.0 1.0 1.0 1.0 1.0 1.0 1.0
1.0 1.0 1.0 1.0 1.0 1.0 1.0 1.0
1.0 1.0 1.0 1.0 1.0 1.0 1.0 1.0
1.0 1.0 1.0 1.0 1.0 1.0 1.0 1.0
1.0 1.0 1.0 1.0 1.0 1.0 1.0 1.0
1.0 1.0 1.0 1.0 1.0 1.0 1.0 1.0
1.0 1.0 1.0 1.0 1.0 1.0 1.0 1.0
1.0 1.0 1.0 1.0 1.0 1.0 1.0 1.0
00000000: 0000 803f 0000 803f 0000 803f 0000 803f
00000010: 0000 803f 0000 803f 0000 803f 0000 803f
00000020: 0000 803f 0000 803f 0000 803f 0000 803f
00000030: 0000 803f 0000 803f 0000 803f 0000 803f
00000040: 0000 803f 0000 803f 0000 803f 0000 803f
00000050: 0000 803f 0000 803f 0000 803f 0000 803f
00000060: 0000 803f 0000 803f 0000 803f 0000 803f
00000070: 0000 803f 0000 803f 0000 803f 0000 803f
00000080: 0000 803f 0000 803f 0000 803f 0000 803f
00000090: 0000 803f 0000 803f 0000 803f 0000 803f
000000a0: 0000 803f 0000 803f 0000 803f 0000 803f
000000b0: 0000 803f 0000 803f 0000 803f 0000 803f
000000c0: 0000 803f 0000 803f 0000 803f 0000 803f
000000d0: 0000 803f 0000 803f 0000 803f 0000 803f
000000e0: 0000 803f 0000 803f 0000 803f 0000 803f
000000f0: 0000 803f 0000 803f 0000 803f 0000 803f
00000100: 0000 803f 0000 803f 0000 803f 0000 803f
00000110: 0000 803f 0000 803f 0000 803f 0000 803f
00000120: 0000 803f 0000 803f 0000 803f 0000 803f
00000130: 0000 803f 0000 803f 0000 803f 0000 803f
00000140: 0000 803f 0000 803f 0000 803f 0000 803f
00000150: 0000 803f 0000 803f 0000 803f 0000 803f
00000160: 0000 803f 0000 803f 0000 803f 0000 803f
00000170: 0000 803f 0000 803f 0000 803f 0000 803f
00000180: 0000 803f 0000 803f 0000 803f 0000 803f
00000190: 0000 803f 0000 803f 0000 803f 0000 803f
000001a0: 0000 803f 0000 803f 0000 803f 0000 803f
000001b0: 0000 803f 0000 803f 0000 803f 0000 803f
000001c0: 0000 803f 0000 803f 0000 803f 0000 803f
000001d0: 0000 803f 0000 803f 0000 803f 0000 803f
000001e0: 0000 803f 0000 803f 0000 803f 0000 803f
000001f0: 0000 803f 0000 803f 0000 803f 0000 803f

fc3.weight f4 [1, 128]
0.08994159 0.04724585 -0.056246426 0.044550948 -0.06795549 -0.09573651 0.030561779 0.03109269
0.062215567 0.031201089 -0.08729745 -0.09725852 0.084427424 0.043248575 0.063450485 0.054656643
0.04935258 -0.06781231 0.10097275 -0.074845836 0.059845675 -0.08559899 0.061723597 -0.09297995
0.07029588 0.05884866 -0.056305073 0.11563597 0.061219003 -0.02782565 -0.20230408 -0.07667967
-0.05233671 0.123838045 0.043777157 0.040207066 0.0407196 -0.037881266 0.06953922 0.07964826
0.04979174 -0.10899839 -0.3085269 -0.274964 0.24114272 -0.11463592 -0.024403121 -0.035216946
-0.06570889 -0.11023663 0.029357804 -0.06987013 0.046942875 -0.048227936 -0.049034502 0.04364664
0.03883307 -0.04995463 0.047590706 0.03252975 0.037999254 -0.07241428 0.40563345 -0.047868952
0.06856029 0.07608282 -0.13924715 0.057322763 -0.10130048 -0.15901117 0.0525018 0.021153731
-0.060078982 -0.07301234 0.05484726 -0.21194194 -0.11156038 -0.0622315 0.06171922 -0.059527345
-0.077852674 0.034789957 0.03857145 -0.218729 -0.039086428 -0.048337884 -0.11587246 0.031632222
0.022557145 -0.043769483 0.060918488 -0.07837665 0.14797162 -0.10215662 -0.05477513 -0.105429485
0.0727886 -0.029178137 -0.055230167 -0.053598367 -0.2682266 0.06656129 -0.048956234 -0.07750938
-0.035724226 -0.09337585 -0.052185286 0.049796253 0.10881877 -0.09177382 -0.100026734 0.050115313
0.13931057 0.052643467 0.13423142 -0.06235387 0.039843976 0.051199798 0.107079424 -0.07689549
0.07558482 -0.26286304 0.071171336 0.059626605 0.03128384 0.07691977 -0.05548237 0.06481946
00000000: 4c33 b83d dd84 413d a762 66bd 0e7b 363d
00000010: 3f2c 8bbd 8111 c4bd b25c fa3c 19b6 fe3c
00000020: c0d5 7e3d 6d99 ff3c 01c9 b2bd 7a2f c7bd
00000030: 49e8 ac3d 6b25 313d 54f2 813d a5df 5f3d
00000040: ee25 4a3d 2ee1 8abd cdca ce3d c648 99bd
00000050: bd20 753d 864e afbd e2d1 7c3d 466c bebd
00000060: 49f7 8f3d 4b0b 713d 26a0 66bd 8dd2 ec3d
00000070: c7c0 7a3d 9ef2 e3bc cd28 4fbe 3b0a 9dbd
00000080: 055f 56bd cd9e fd3d ad4f 333d 2ab0 243d
00000090: 98c9 263d 6329 1bbd 946a 8e3d a01e a33d
000000a0: 6cf2 4b3d 8c3a dfbd 3df7 9dbe 15c8 8cbe
000000b0: 1eee 763e 3dc6 eabd 0ee9 c7bc a53f 10bd
000000c0: 6292 86bd bec3 e1bd c77f f03c 1218 8fbd
000000d0: 2c47 403d a88a 45bd 67d8 48bd d2c6 323d
000000e0: 6d0f 1f3d 3a9d 4cbd 79ee 423d ea3d 053d
000000f0: 1ba5 1b3d f04d 94bd 30af cf3e 3c12 44bd
00000100: 5669 8c3d 4fd1 9b3d ce96 0ebe 46cb 6a3d
00000110: a076 cfbd d3d3 22be 210c 573d 974a ad3c
00000120: 6115 76bd 7e87 95bd 85a7 603d 4f07 59be
00000130: c579 e4bd 75e6 7ebd 4bcd 7c3d f2d2 73bd
00000140: 3971 9fbd ea7f 0e3d 19fd 1d3d 7ffa 5fbe
00000150: 1719 20bd f2fd 45bd 8a4e edbd ca90 013d
00000160: c3c9 b83c a147 33bd aa85 793d f083 a0bd
00000170: df85 173e 7d37 d1bd e35b 60bd 6aeb d7bd
00000180: 3112 953d fd06 efbc 0739 62bd f689 5bbd
00000190: ff54 89be 4951 883d 5586 48bd 3dbd 9ebd
000001a0: 9153 12bd d63b bfbd 3dc0 55bd 28f7 4b3d
000001b0: 60dc de3d eaf3 bbbd d1da ccbd b745 4d3d
000001c0: 6ea7 0e3e ada0 573d f673 093e c666 7fbd
000001d0: 7033 233d e1b6 513d 754c db3d 627b 9dbd
000001e0: 37cc 9a3d fc95 86be 47c2 913d 073b 743d
000001f0: 7c23 003d 1d88 9d3d 7b41 63bd 11c0 843d
