mode_weights/agent4_critic_target.pth (torch_old, 93523 bytes, 17 tensors)

bn1.weight f4 [33]
00000000: c315 fe3e 5aaa 443f a833 b53d 0033 073e
00000010: 8666 9d3e fb52 223f 86ed fa3e 677d 653f
00000020: 1248 e93e d3de 213f 2aa2 b23e e4ad cd3e
00000030: 80e4 b63c 5ce9 2c3e 8c78 963e d8bd 043f
00000040: 589a 323f 8ccd 4c3f 70e5 243e 8285 903e
00000050: e67d 2e3f 274a 6a3f ae50 cb3e aec8 5f3f
00000060: b0bc d63e 518b 0d3f a5e6 733f 9021 143d
00000070: 45ad 3d3e 9030 bf3e 1236 9c3e 9497 6e3f
00000080: cc21 343e
0.49625978 0.76822436 0.08847743 0.13203049 0.30742282 0.6340787 0.4900934 0.89644474
0.45562798 0.6323063 0.34889346 0.4017173 0.022325754 0.16885895 0.29388845 0.5185218
0.6976676 0.8000114 0.16103148 0.28226858 0.68160856 0.915194 0.3970999 0.8741559
0.41940832 0.55290705 0.9527381 0.03616482 0.18523128 0.37341738 0.30510002 0.9320004
0.17591017

bn1.bias f4 [33]
00000000: 0000 0000 0000 0000 0000 0000 0000 0000
00000010: 0000 0000 0000 0000 0000 0000 0000 0000
00000020: 0000 0000 0000 0000 0000 0000 0000 0000
00000030: 0000 0000 0000 0000 0000 0000 0000 0000
00000040: 0000 0000 0000 0000 0000 0000 0000 0000
00000050: 0000 0000 0000 0000 0000 0000 0000 0000
00000060: 0000 0000 0000 0000 0000 0000 0000 0000
00000070: 0000 0000 0000 0000 0000 0000 0000 0000
00000080: 0000 0000
0.0 0.0 0.0 0.0 0.0 0.0 0.0 0.0
0.0 0.0 0.0 0.0 0.0 0.0 0.0 0.0
0.0 0.0 0.0 0.0 0.0 0.0 0.0 0.0
0.0 0.0 0.0 0.0 0.0 0.0 0.0 0.0
0.0

bn1.running_mean f4 [33]
00000000: 0000 0000 0000 0000 0000 0000 0000 0000
00000010: 0000 0000 0000 0000 0000 0000 0000 0000
00000020: 0000 0000 0000 0000 0000 0000 0000 0000
00000030: 0000 0000 0000 0000 0000 0000 0000 0000
00000040: 0000 0000 0000 0000 0000 0000 0000 0000
00000050: 0000 0000 0000 0000 0000 0000 0000 0000
00000060: 0000 0000 0000 0000 0000 0000 0000 0000
00000070: 0000 0000 0000 0000 0000 0000 0000 0000
00000080: 0000 0000
0.0 0.0 0.0 0.0 0.0 0.0 0.0 0.0
0.0 0.0 0.0 0.0 0.0 0.0 0.0 0.0
0.0 0.0 0.0 0.0 0.0 0.0 0.0 0.0
0.0 0.0 0.0 0.0 0.0 0.0 0.0 0.0
0.0

bn1.running_var f4 [33]
00000000: 0000 803f 0000 803f 0000 803f 0000 803f
00000010: 0000 803f 0000 803f 0000 803f 0000 803f
00000020: 0000 803f 0000 803f 0000 803f 0000 803f
00000030: 0000 803f 0000 803f 0000 803f 0000 803f
00000040: 0000 803f 0000 803f 0000 803f 0000 803f
00000050: 0000 803f 0000 803f 0000 803f 0000 803f
00000060: 0000 803f 0000 803f 0000 803f 0000 803f
00000070: 0000 803f 0000 803f 0000 803f 0000 803f
00000080: 0000 803f
1.0 1.0 1.0 1.0 1.0 1.0 1.0 1.0
1.0 1.0 1.0 1.0 1.0 1.0 1.0 1.0
1.0 1.0 1.0 1.0 1.0 1.0 1.0 1.0
1.0 1.0 1.0 1.0 1.0 1.0 1.0 1.0
1.0

fcs1.weight f4 [128, 33]
00000000: 0e5e 84ba e847 1b3b 3f89 0f3b 879f 88ba
00000010: 204f 1bb9 baa5 e2b8 aff7 49b9 5815 02ba
00000020: dc83 8eba c4dc e9b9 bc0d 513a 8a5b 6cb9
00000030: de82 f839 64c9 f3b8 205e 493b 1c38 973b
00000040: acdb 373a 13a8 07ba 24c1 4b3a 7b35 1d3b
00000050: 6168 beba bd40 7f3a 67ed 99bb 2465 673b
00000060: 8143 073b 89f9 0ebb f418 1c39 9cc1 853a
00000070: b727 2a3b 8c0f 0080 9cc1 85ba 1c11 0000
00000080: 0258 003a 7569 2ebd 88ec 6dba 31c9 523d
00000090: 846d a4ba 3173 41bd 82a0 293d c55d c0bb
000000a0: ac20 5fbb 1b78 b93c 7631 51bd dd8a 21bd
000000b0: b755 b8bc 721d c7bc 3645 08bd 1609 bf3b
000000c0: d8ff 44bc d9ce 743d 953d e33b 7332 f0bb
000000d0: 62e6 cf3c 1620 eb3c 3ee3 9e3d 2b84 23bd
000000e0: 8784 223c 3485 8e39 34a0 193d b6e9 993c
000000f0: c489 943d 3ed4 b43c 883b 0000 6898 94bd
00000100: 7413 0080 e848 c13c b822 0dbd 92f0 f4bc
00000110: 998c 053c 4e08 1fbd a63c 66bd 2788 51bc
00000120: d5af 1cbd 181f 293d 41f4 8ebc d2a5 8fbc
00000130: 91b3 253d 70e9 bd3c b6a7 9abc 2974 463d
00000140: 9de6 b93c d0e4 773b df5d 90bc 9552 703b
00000150: 370b 70bd ecaa 13bd 1a8a a4bc 2f5e a5bc
00000160: 2138 d0bc cf0c 913d b4b2 92bb 82b2 1bbd
00000170: 7cdf 9a3c 0088 f63c 326c f8bc d134 0080
00000180: beed f6bc 340d 0000 0715 68bd 0229 b83c
00000190: 2466 bf3c 8aaf bf3b ac2a 593d 6701 cfbc
000001a0: 8c33 9cbc e209 863c 4d53 203d a2bd 353d
000001b0: 1fc5 73bd ea73 c4bc d78c ba3d 592f 5b3b
000001c0: 940d f9bb 7dbf 9b3b e36f ba3c a0bd 273d
000001d0: 7795 533c 50d6 cb3d 3daa 9c3c fd9a 40bd
000001e0: 6f5a ab3c 2a8e 813d 95dc 3ebd 4694 a43c
000001f0: 8fbb c6bc 84e9 15bc 5253 e03c b734 0ebd
00000200: 5438 0000 ba9d e8bc c60c 0000 8d4e 873d
00000210: 9040 6e3a 1128 903a 9573 8639 88c1 8bb9
00000220: 128b 9f36 7cda afb7 8a4f b5b8 cc82 88b9
00000230: 5fe1 abb8 59d0 31b9 a950 21ba f17a 24ba
00000240: aef0 273a 4662 673b 3b73 c83a f22d d13a
00000250: 5c4f ec38 179f ef38 b9d4 5db8 f351 01b8
00000260: ce20 c139 67d3 283a 5d21 dd39 e231 57ba
00000270: 3630 f539 ece5 b53a 5975 6b3b de6f 8739
00000280: a33b 9d3a 730b 0000 de6f 87b9 7c15 0080
00000290: b4b6 d3b9 3ca3 8fbd 5276 963c c1a1 973b
000002a0: 2cfa ac3a 868b 5d3c 13d6 57bc 1837 383c
000002b0: bb9d 993b 85ec 98bb 1ad8 03bd be92 92bc
000002c0: c80e 2d3b 8627 64ba da0b bb3d 252a 6b3b
000002d0: 5289 293d 9666 803c 3b4e 9f3c 6cb8 963c
000002e0: 0930 253c 6927 cd3b 3899 003c 3c82 6d3c
000002f0: 48d2 7f3d c243 773b 7e14 1a3d c116 bdbc
00000300: f4a9 ed3c 504d 40bd c509 0000 0b03 09bd
00000310: 050b 0000 0ceb e73d f69c 48bd f488 223d
00000320: c530 303d 726c 6137 b450 15bd a99c 253c
00000330: 28df 52bd 0e02 333d 777f 8c3c 5301 47bd
00000340: bfe8 05bc 9f07 00bb 6b1b dc3c a403 05b9
00000350: f92a a5bc 6d0e 90bd f393 0bbb 9dc5 20bc
00000360: c4be 1b3d 5403 9fbc 9fee 9ebb 7b2b 8b3b
00000370: af0f 12bc 676b ebbc 5147 23bc 8e4a 46bd
00000380: 8cc5 59bb 4016 713d ad5b a0bc 9b15 0080
00000390: 38cb 70bd a80c 0000 b2f0 583e 85d7 9a3c
000003a0: 16be ec3d 4451 e7bb 15d7 78bd 9643 313b
000003b0: ef64 99bc b0fd 79bc 9ea0 9ebc 9a28 9ebc
000003c0: 2095 fb3a 5609 7bbb a0c0 7b3b ded2 dc3b
000003d0: da12 eabc ca1d 07bd cad4 123d a9c9 2bbd
000003e0: 7546 a7bb 8cb2 d5bc 2bf8 d23c 606d 473b
000003f0: 1825 163c 3426 603b 3dcd 90bc 7565 9ebb
-0.0010098831 0.0023693983 0.0021901873 -0.0010423519 -0.00014811428 -0.00010807389 -0.00019261123 -0.0004962287
-0.0010873037 -0.00044605706 0.0007974764 -0.00022540815 0.0004739975 -0.00011624655 0.003072627 0.004614843
0.00070136297 -0.00051748863 0.00077726156 0.0023988176 -0.0014526957 0.0009737125 -0.00469749 0.0035308087
0.00206396 -0.0021816215 0.00014886615 0.0010204795 0.0025963613 -5.577e-42 -0.0010204795 6.138e-42
0.00048959267 -0.04258104 -0.00090760784 0.051461402 -0.0012544845 -0.047228996 0.041412838 -0.005870553
-0.0034046574 0.022640279 -0.05107256 -0.03943907 -0.02250181 -0.024306033 -0.03326913 0.0058299406
-0.0120238885 0.059767578 0.0069348314 -0.0073302328 0.02537841 0.028701823 0.07758187 -0.039920967
0.009919292 0.00027183595 0.037506297 0.0187882 0.07252839 0.022073861 2.1356e-41 -0.07255632
-6.978e-42 0.023594335 -0.03445694 -0.02989987 0.008151197 -0.03882628 -0.056210183 -0.012788809
-0.038253624 0.04128942 -0.017450454 -0.017535124 0.04045445 0.0231826 -0.018878799 0.048450623
0.022692973 0.0037825592 -0.017622886 0.0036670316 -0.058604445 -0.036051676 -0.020085383 -0.020186512
-0.02541739 0.07082521 -0.0044768695 -0.038012035 0.018905394 0.030094147 -0.030325029 -1.8947e-41
-0.030142661 4.736e-42 -0.05666068 0.022480492 0.023364134 0.0058497833 0.05301921 -0.025269223
-0.019067548 0.016362134 0.03914194 0.0443703 -0.05951416 -0.023981053 0.09108894 0.003344497
-0.0076004956 0.004753052 0.02275843 0.040952325 0.012914053 0.09952986 0.019124145 -0.04702281
0.020917146 0.06325944 -0.046597082 0.020090234 -0.024259357 -0.009149913 0.02738348 -0.03471824
2.0207e-41 -0.028395522 4.582e-42 0.06606779 0.00090886 0.0010998269 0.00025644587 -0.00026656338
4.754759e-06 -2.0963365e-05 -8.645568e-05 -0.00026037393 -8.195894e-05 -0.00016957651 -0.0006153682 -0.0006274423
0.00064064085 0.0035306378 0.001529313 0.0015959127 0.00011268139 0.00011426041 -5.288862e-05 -3.0832318e-05
0.0003683627 0.0006440193 0.00042177262 -0.0008209032 0.0004676596 0.0013877726 0.00359281 0.00025832554
0.0011995923 4.107e-42 -0.00025832554 -7.707e-42 -0.0004038118 -0.07013556 0.018366966 0.004627437
0.0013197116 0.0135220345 -0.013173598 0.011243604 0.0046879924 -0.004666867 -0.032188512 -0.017892238
0.0026406515 -0.0008703399 0.0913312 0.0035883274 0.041390724 0.015673917 0.019446483 0.018398486
0.010082253 0.0062608016 0.00784903 0.014496382 0.0624564 0.0037729596 0.0376172 -0.023082139
0.029011704 -0.04694873 3.505e-42 -0.033450168 3.953e-42 0.113241285 -0.048977815 0.03968139
0.04301526 1.34362945e-05 -0.036453918 0.0101081515 -0.05148235 0.04370313 0.017150624 -0.048585247
-0.008173167 -0.0019535793 0.026868543 -0.00012685225 -0.020162093 -0.070340015 -0.0021297901 -0.00981274
0.038023725 -0.019410767 -0.004850223 0.0042471266 -0.008914872 -0.028737737 -0.009965734 -0.048410945
-0.003322932 0.05885911 -0.019574964 -7.75e-42 -0.058787555 4.54e-42 0.21185568 0.018901596
0.115596935 -0.007059248 -0.060751993 0.002704834 -0.018724887 -0.015258238 -0.019363698 -0.01930647
0.0019194223 -0.0038305125 0.0038414374 0.0067390045 -0.028573442 -0.032987393 0.035847463 -0.041940365
-0.0051048347 -0.026086114 0.025753101 0.0030430183 0.009164117 0.0034202458 -0.01767599 -0.004833872

fcs1.bias f4 [128]
00000000: 9bc1 85ba fe5d 94bd 16e3 f4bc 7551 febc
00000010: de6f 87b9 e169 f8bc af0d 70bd 12cb 9fbd
00000020: 04f8 bfbc 62f0 6d3b d1d3 9fbd 8e42 5ebd
00000030: bae6 95ba 0432 93bd 3e02 d23c bc32 89bc
00000040: 1a7c 5dbd a38b 86bd fbf6 68bc a928 5cbc
00000050: 98d2 7cbc 7cbf 9abb 953f 8f3b e643 18bd
00000060: 618c 16ba 2e9a 5dbd 302a 5dbc 4760 c1bc
00000070: 187e b2bb 178b 67bd d503 09bd dbf5 233a
00000080: 70ba e8bd 0b55 8dbb a4f1 d6bc b904 a7bd
00000090: 7002 8abd 0a72 1e3a 9308 d939 76f2 6ebd
000000a0: 2730 36bc f79d 7fbd bb76 39bd d7c4 1ebd
000000b0: 295c 9fbd 2c89 b0bc 8b01 3ebc 72ff 3cbd
000000c0: 309e db3b 0190 c1bc 5d5a 7bbd 5f08 d33c
000000d0: 36e3 26bc 1e88 40bc 7ce1 82bd ff74 32bd
000000e0: e405 a0bc 7735 61bd d7e6 c6bb 10ce 573d
000000f0: 3f38 1dbd 591c d8bd c860 8dbd b5f0 a3bd
00000100: 416d a7bd 61d0 ad3b 7145 283c 36a0 38bc
00000110: 63bb aabd 7333 62bd 1527 4ebd 59c8 14bd
00000120: 6b60 7bbd c3ec 80bd 7c59 56bd 82ea 98bd
00000130: 0a50 8cbd facb d2bb 193a 74bd 9fd2 42bd
00000140: 1307 96bd e26b 933c 8cc5 cdbc 8aa1 d73c
00000150: e282 1fbd 50af a7bd 84a4 6cbd c59f 56bd
00000160: cee1 01bd e99e c2bc 87d2 0aba 2dd3 89bd
00000170: 8e3c 7dbd e419 bfbc 8092 5dbd 97aa 5dbc
00000180: 991f 70bd 0bfe 8abd 8b77 c6bc dc23 d7bd
00000190: 6e51 92bd 5939 52bd 5d7f 18bc 37c4 eebc
000001a0: ed79 e2bb ec94 5e3d f46f 1e3d eda6 06bb
000001b0: 21eb e93b feb1 f8bc 17c8 babb f050 f2bc
000001c0: 8971 a83b f17b 9fbc 6673 b8bd e790 efbb
000001d0: 6f03 e9bc 4761 8fbd 791d 1dbd 4a48 c9bc
000001e0: 67ad 68b9 5d58 a7bd 8ab1 19bd e7a8 593c
000001f0: 74ba 14bd fb58 a5bc 3f18 f6bd a7ee 89bd
-0.0010204794 -0.0724449 -0.02989344 -0.031044701 -0.00025832554 -0.030323924 -0.0586068 -0.078024045
-0.023433693 0.003630661 -0.07804073 -0.05426269 -0.001143656 -0.07187274 0.025635835 -0.016747825
-0.05407343 -0.06569602 -0.014219041 -0.0134374285 -0.015431069 -0.0047225337 0.0043715932 -0.037174128
-0.0005742964 -0.054102115 -0.013498828 -0.023605479 -0.0054471605 -0.05652913 -0.03345092 0.0006254592
-0.11363685 -0.0043131164 -0.02623827 -0.08155198 -0.06738746 0.0006044215 0.00041395854 -0.058336698
-0.011119879 -0.062406506 -0.045279246 -0.03876194 -0.0778125 -0.021549784 -0.011597048 -0.04614205
0.006702207 -0.023628237 -0.061365474 0.025760828 -0.010186007 -0.011751203 -0.06390664 -0.043568607
-0.019534059 -0.05498263 -0.0060699987 0.05268675 -0.03838372 -0.10552282 -0.06903225 -0.080048956
-0.081751354 0.0053043817 0.010270462 -0.011268666 -0.083365224 -0.055224847 -0.05033024 -0.03632388
-0.06137125 -0.06295159 -0.052331433 -0.07466604 -0.06851204 -0.0064330073 -0.05962572 -0.047564145
-0.07325568 0.017995778 -0.025118612 0.026322145 -0.03894318 -0.08187735 -0.05777408 -0.05239846
-0.031709485 -0.023757415 -0.0005295653 -0.06729732 -0.061825328 -0.023327775 -0.05409479 -0.013529441
-0.058623884 -0.06786736 -0.024226924 -0.105048865 -0.07144438 -0.051324222 -0.0093077095 -0.029146297
-0.0069115073 0.05434124 0.038680986 -0.0020546273 0.0071386253 -0.03035831 -0.005700122 -0.02957961
0.0051404876 -0.01946828 -0.090063855 -0.007310975 -0.02844402 -0.07000976 -0.038358185 -0.024570603
-0.00022189842 -0.08171151 -0.03752283 0.013284898 -0.036310628 -0.02018403 -0.12016343 -0.067349724

bn2.weight f4 [128]
00000000: 4c8e 00b8 9da1 b33d 3536 113e 6294 183e
00000010: 7bd5 1c37 01e0 4b3e 2fc0 683e e213 ee3d
00000020: c8eb 6a3e ccf8 973e f31a 233e c2cf c53d
00000030: 8c26 18b5 95d0 093e d279 f93d e3c3 0d3e
00000040: d2f7 d23d e59c 8e3e d8d0 523e 3a32 043f
00000050: 19a7 8d3e dde4 5b3e d0c2 dc3d 26f6 723e
00000060: 1e8b 4ab6 79e3 3d3e 84a3 513e e824 0d3e
00000070: 22a9 463e 2cd0 ab3d bc18 4f3e cb72 fa3e
00000080: 1871 883e e423 2d3e 13ba 7f3e 062f 093e
00000090: 365a 0b3e 6978 f43d 14ae 173e 7d06 7e3e
000000a0: 4392 5c3a 6f20 a63d b3a3 9d3e ef80 713e
000000b0: 0e5d 363e 1be4 123f fd1c b53e ee57 c13e
000000c0: 8e8a 173e e4e1 863e 1b9d f93d 2e64 0e3e
000000d0: 2cb0 053e 95a1 313e 1225 ab3e 6e4c 643e
000000e0: 839a 803e ee66 5b3e 2f50 243e f882 763e
000000f0: 0be9 6b3e aa0b 203e 89fc 243e dddc 263e
00000100: 7d93 6b3e d32b 8e3e 575c 593e 853f 113e
00000110: 3772 273e 5553 b03e 2aa2 a03e df7a 583e
00000120: c3e5 2d3e c097 173e d4ae 883e c9d0 663e
00000130: 1717 793e 2409 863e 47c8 de3d 2f17 1d3e
00000140: ee5e 103e 4121 623e 0c4e 113e 3fd6 743e
00000150: af63 bd3e e18b 473e 2e8f 153e 22a5 373e
00000160: 9411 0f3e bd7b ab3e e89d 2bb7 87b6 7d3e
00000170: 1999 3d3e b6db 7f3e 8618 be3e 0303 353e
00000180: 9b72 4d3e 9009 263e 27df 3c3e 57ce 4f3e
00000190: a7fa 8b3e 5da5 713e 642c 133e b114 733e
000001a0: 57e8 11b9 049d d83e 0a9a 0d3e 9630 933e
000001b0: 635d 6a3e f578 283e 29d7 8a3e b65b f63d
000001c0: 8ec8 4a3e 716c a13e 78e3 de3d 8bf6 8b3e
000001d0: d423 5e3e 2711 853e 43c5 7f3e c3d8 933e
000001e0: 2573 a6b7 47db 9d3e 7e34 483e e8f9 523e
000001f0: 05c8 703e 895d 4a3e 211f 9f3e d2d1 263e
-3.0650102e-05 0.0877106 0.14180835 0.14900354 9.348029e-06 0.1990967 0.22729562 0.11624886
0.22941506 0.29682004 0.15928249 0.09658767 -5.6680506e-07 0.13458474 0.121814385 0.13844256
0.10301174 0.27854076 0.2058748 0.5163914 0.27666548 0.21474023 0.10779345 0.2372671
-3.0181322e-06 0.18543805 0.20472533 0.1378361 0.19400457 0.08389315 0.20224279 0.48915705
0.26648784 0.16908222 0.24973325 0.13396844 0.13608631 0.11937029 0.148125 0.24807163
0.00084141287 0.08111655 0.30788955 0.2358434 0.17808935 0.5737931 0.3537368 0.37762398
0.14798948 0.26344216 0.121881686 0.13905403 0.13055485 0.17346795 0.3342672 0.2229478
0.25117883 0.21425983 0.16046213 0.24073398 0.23038118 0.1562945 0.1611196 0.1629519
0.23005481 0.2776781 0.21226631 0.14184387 0.16352163 0.34438577 0.3137372 0.21140622
0.16982178 0.14803982 0.26695883 0.22540583 0.24325214 0.2617885 0.108780436 0.15340875
0.14098713 0.22082998 0.14189929 0.23909853 0.36990115 0.19486953 0.146054 0.17934087
0.1397155 0.33492842 -1.022916e-05 0.2477666 0.18515433 0.24986157 0.37128085 0.1767693
0.2006325 0.16214585 0.18444501 0.20293556 0.2733967 0.23598237 0.14372402 0.23738362
-0.00013914831 0.42307293 0.13828292 0.28748006 0.22887187 0.16452391 0.2711728 0.12029211
0.19803068 0.31528047 0.1088323 0.27336535 0.21693355 0.2598965 0.24977593 0.28876314
-1.984236e-05 0.30831358 0.19551274 0.20603144 0.23513801 0.19762243 0.31078437 0.16290978

bn2.bias f4 [128]
00000000: 0f56 1138 cfc7 cfbd 9b4e ab3d 5f95 b93c
00000010: 963f dab5 b404 3bbd 36ac e63c 9128 49bd
00000020: 4516 32bd e22a a73d c559 e4bd 5d63 28bd
00000030: 6f1f 9f36 894d e5bd 3033 803c 850e ae3d
00000040: bd94 bebd 5e43 923c ccd1 a63d 78e7 96bd
00000050: e384 8d3d 1d1b db3d 2a02 a9bd ccf0 8abd
00000060: 393c 4c35 dfab 1b3c 2a7c 75bd f5eb 36bd
00000070: 7f09 2b3d 85f0 1fbd 3bbb d5bc 4cda f73b
00000080: d70a cfbd 0422 433d 15cc b6bd 9d24 573d
00000090: c924 96bd c488 8a3d 907e a7bd 35f6 4cbd
000000a0: 3b6b 2cb7 81c0 78bd ce58 ed3c 99fb bd3d
000000b0: ea7a c53d eb81 babd 5692 a9bd decf 8bbd
000000c0: e3a4 4c3d d4d8 88ba 358b cf3c 3a54 343d
000000d0: d7c1 a33d 7bd0 72bd 46fc 743c b2d1 3dbd
000000e0: 18d8 2cbd 7315 81bd 419f bcbb 75f5 73bd
000000f0: f5a0 a9bc fbfc c23d 7af9 4cbd 71cf 643d
00000100: 8a67 bcbd 8b45 aabd 1fa7 923d 57da 013d
00000110: e0c8 18bc e28e bbbd 7062 76bd 4bbb 69bb
00000120: 51f5 c83c c468 86bd ff97 9bbd 1b1e efbc
00000130: 0a29 0ebd 85a3 003c 9082 48bd 513f e83c
00000140: 1c14 b2bd 3be2 963c 3270 8bbd c67f c93c
00000150: 6c6b 04bd 56a5 42bb ce00 943d 0b53 1cbe
00000160: c227 9a3c f9e4 8ebd e79f 9f36 cbab e3bd
00000170: 8a26 f4bd 3d14 ab3d 2c44 51bd 81ca b8bc
00000180: 47ae 173e 4ab8 aabd 9845 8fbd 59bf 68bd
00000190: ba39 95bd 0fdc a0bd f217 743d 2a7b 06bc
000001a0: 71ba 6c36 5a0f 553d 4d6c 8c3d c20f 263c
000001b0: ca3a b1bc 13b3 183c b4f8 3a3c 60db 853d
000001c0: 5933 ee3d c6b6 6bbc 4add c3bd 8d65 1fbd
000001d0: bd14 0fbd 4bf1 c1bc 1c75 a9bd bf57 63bd
000001e0: bc94 99b5 bfb0 5fbc 3459 1ebd e3e5 5ebd
000001f0: b754 98bd ed88 05bc 360a 26bd f9f8 303b
3.4650842e-05 -0.10145532 0.08364602 0.022654234 -1.6260772e-06 -0.045658782 0.028158288 -0.049110953
-0.04347827 0.08162476 -0.11149935 -0.041110385 4.7422286e-06 -0.11196429 0.015649408 0.08498863
-0.09305713 0.017854389 0.08145484 -0.07368368 0.06910112 0.10698531 -0.08252366 -0.067842096
7.608356e-07 0.0095014265 -0.059932865 -0.04465862 0.041757103 -0.039047737 -0.026090255 0.007563865
-0.101094894 0.04763986 -0.08925644 0.05252515 -0.07331235 0.06764367 -0.08178437 -0.05003949
-1.0276965e-05 -0.06073046 0.02897301 0.09276504 0.096425846 -0.09106811 -0.082798645 -0.06826757
0.049961936 -0.0010440596 0.025334934 0.044025637 0.079959564 -0.059280854 0.014952725 -0.04634256
-0.04219827 -0.06302919 -0.005756289 -0.059560258 -0.020706633 0.095209084 -0.050042607 0.055861894
-0.09199436 -0.083140455 0.07160782 0.031702366 -0.009325236 -0.09158112 -0.06015247 -0.0035664614
0.024531038 -0.06562951 -0.0759735 -0.02918916 -0.034707107 0.007851486 -0.04895264 0.028350504
-0.08695242 0.018418422 -0.06808509 0.02459706 -0.032329008 -0.0029700599 0.07226716 -0.15266053
0.018817786 -0.06977267 4.7571843e-06 -0.11116751 -0.11921413 0.083534695 -0.051090404 -0.022557499
0.14812575 -0.083359316 -0.06995696 -0.05682311 -0.07286401 -0.07854473 0.05959315 -0.008208076
3.5275264e-06 0.052016594 0.06856594 0.010135593 -0.021634478 0.009320038 0.0114118345 0.06535983
0.116308875 -0.014386838 -0.09563692 -0.038915206 -0.034931887 -0.023674628 -0.0827429 -0.055503603
-1.1442676e-06 -0.013652979 -0.03865929 -0.054418456 -0.07438033 -0.008150321 -0.04053708 0.0027003868

bn2.running_mean f4 [128]
00000000: 7417 1a3c 0ce1 a23c c771 f73d 64e5 763d
00000010: 33b3 7a3c bbce 1d3d c5ff 9f3d 610f 9739
00000020: c566 5a3d 79f4 8b3e 3d1a 313c a244 2d39
00000030: 73f3 8b3c 03e3 9e3c e029 c93c 7f25 7b3d
00000040: a676 643b 32b3 003d 79b6 7f3d 899f 0c3d
00000050: 9295 c63d e1cc a13e 24e8 743e 81fe ab3c
00000060: 3d42 5c3b 86c7 b43d 1a9a 253c 3ed7 a73c
00000070: ec65 e93c 2a8c f938 22ae 853d 8195 213e
00000080: e67b b23c dc85 fd3d a7c5 213d 85c0 aa3c
00000090: 4041 b83c 1e00 283e ac9a 873c 57ae 8b3d
000000a0: fe60 6c38 4e76 7b3a 9a52 043e 3b81 da3c
000000b0: 4c44 073d fed8 793d 09df 423c adde ba3d
000000c0: cc74 413d 4757 2d3e dda8 d03c 15da fd3e
000000d0: c5e5 623d 3e14 1b3e 490f 473d af68 e93d
000000e0: d4fe 153d d9f2 1e3d b54f 0a3d 1bea ea3c
000000f0: 4c41 323a 46b8 e13c 95ae f03c bc35 113c
00000100: 5cdc a23d f80f 153d 92da 613e c4c8 053d
00000110: 559c 493d eebe 853e fb5c 9b3d e95b 1d3d
00000120: 23de 423d b9eb cd3c fd38 ff3c 1802 1f3d
00000130: 452f 8f3d 1259 913e 8541 2c3c 50df 783d
00000140: 1313 8439 ae5d 403d d10d c23b 65ae 743e
00000150: 631d 133e f17e 8c3a f04d 543c 4602 f03d
00000160: 44d4 6a3d f635 443c ad85 233c 2f20 673d
00000170: ca46 1f3d 5219 383e a890 8c3d 3d4b a93d
00000180: 3a43 6d3d 1ba6 233d dfa8 cc3c 8638 d93c
00000190: 5349 033d 6d90 953c a1e8 ab3d d559 c83d
000001a0: 9bc7 3738 490f 2f3e 632e 263f 8b20 003e
000001b0: 6d63 8a3d c9d1 903d 29f0 463e 5165 423d
000001c0: 762e fc3e 2a60 203e 622a bc39 24a3 a93e
000001d0: 9a6b ca3d 279a 6e3c 25e5 033e e332 903d
000001e0: c4aa 163c 8279 d33a c88a 563c 9c5a a33e
000001f0: 6b28 523d 9597 753d fe19 043d fa23 353e
0.009405006 0.019882701 0.12082248 0.060277358 0.0153015135 0.03852723 0.07812456 0.00028812423
0.053320665 0.27334955 0.010809478 0.00016524133 0.01708386 0.019395357 0.0245561 0.061315056
0.003486076 0.031420894 0.06242988 0.034331832 0.09696497 0.31601623 0.2391668 0.02099538
0.0033608817 0.088271186 0.010107541 0.020488378 0.028490983 0.00011899353 0.06527354 0.15779687
0.021787595 0.12379047 0.039495137 0.020843754 0.022492051 0.16406295 0.016553245 0.06820362
5.6357116e-05 0.0009592519 0.12922135 0.02667295 0.033024117 0.060997956 0.011893996 0.09124503
0.047230527 0.16927825 0.025471145 0.49580446 0.055394907 0.1514444 0.04859856 0.1139692
0.036619976 0.038805816 0.03376742 0.028676083 0.0006799891 0.027553689 0.029380122 0.008862909
0.079521865 0.036392182 0.22056034 0.03266217 0.049221355 0.2612223 0.07586094 0.03841773
0.047575127 0.025136815 0.031155104 0.038820356 0.06991438 0.28388268 0.010513668 0.060759842
0.00025191213 0.04696434 0.005922057 0.23894651 0.14366679 0.0010718984 0.012958035 0.117191836
0.05733134 0.011975756 0.009980601 0.056427177 0.03888587 0.17978409 0.068635285 0.08266304
0.05792544 0.039953332 0.024982868 0.02651621 0.03205235 0.018257344 0.0839398 0.09782759
4.3816497e-05 0.17095675 0.6491453 0.12512414 0.06757245 0.07071263 0.19427551 0.047459904
0.49254197 0.15661684 0.00035889732 0.3313228 0.098838046 0.01456312 0.1288038 0.07040956
0.009195987 0.0016134235 0.0130946115 0.31905067 0.051308077 0.059959013 0.03225135 0.17689505

bn2.running_var f4 [128]
00000000: ca86 8639 6be6 7a3b 478f 0b3d efaf 883c
00000010: 8495 d439 d142 e83b e84f b23c 4a9a 8a38
00000020: a51f 603c acea de3d 5a80 b33a 69b4 5a38
00000030: 2a93 4f3a db54 ea3a 5460 4b3b a4c0 213c
00000040: 7c98 f139 ce8b ce3b d894 853c 161a 8d3b
00000050: f4be 883c ef23 1b3e 3135 883d ed6c 2e3b
00000060: 3d48 3b38 ff53 043d dd64 483a 4497 573b
00000070: ebf1 5f3b 67bf 6937 6472 c33c c3f2 ca3c
00000080: 8023 543b 244c e33c cc9d a03b ad8e 9e3b
00000090: eaec 2e3b 437a 253d ca65 ae3a 801c 5e3c
000000a0: 6876 2236 72eb 5939 7119 f53c da38 a93b
000000b0: 51d1 113c df87 103c b341 fc3a 9a21 943c
000000c0: a11e e03b 38a1 743d 564f e83b 4f16 5a3d
000000d0: 5e5e 7a3c bfd2 5d3d 5e27 233c fc03 2b3d
000000e0: 51ae c53b 82da c03b 2146 933b 91bd 953b
000000f0: 978f bc38 d626 873b 802e 003c 1d52 6a3a
00000100: cbde 643c 6cdd b23b a447 ea3c 6598 0f3c
00000110: 078e 5a3c a3f4 e83d eaf6 a53c 2f30 d83b
00000120: 61bf 413c 11e4 3e3b 37b5 8d3b aac7 223c
00000130: 6ba6 ca3c 838d 193e 5f93 c83a 84d4 4e3c
00000140: 752c 4638 3fde 9f3b 9412 ac39 4304 583d
00000150: f41e cb3c 9d86 a039 40ce ea3a c268 103d
00000160: 86a1 7b3c 590b 823a a1c4 7b39 c542 133c
00000170: 1cc6 0a3c 9e6e 493d 17e3 333c 8c72 9a3c
00000180: 4c55 b13b 249a 933b f1db 313b 7424 cc3b
00000190: 8367 bd3b bd39 ef3a dbf9 6f3c 7726 9f3c
000001a0: 86a8 1136 a8f4 203d e380 503d 4e1b fb3c
000001b0: 66cc 8d3c bcdf 563c 6c7e 623d e99d 253c
000001c0: e119 bd3d 9e02 013d 5be6 ac38 9a07 273e
000001d0: b779 333c 5112 e53a 9468 a83c 62bc 883c
000001e0: c4f1 1c39 6584 0c3a 8bb6 133b e53c 113e
000001f0: 73e5 153c e95f 6f3c d097 af3b 5466 213d
0.00025658897 0.0038284312 0.034072187 0.016685454 0.0004054719 0.0070880433 0.021766618 6.609091e-05
0.01367942 0.10884604 0.0013694868 5.214327e-05 0.00079183525 0.0017878072 0.0031032758 0.009872589
0.00046080712 0.006303287 0.016306326 0.004306088 0.016692616 0.15150426 0.066507705 0.0026615218
4.465155e-05 0.032306667 0.00076444243 0.0032896558 0.0034171294 1.3932447e-05 0.023858257 0.024773961
0.0032369792 0.027746268 0.0049016234 0.0048387856 0.0026691505 0.0403998 0.0013305482 0.0135566
2.4208803e-06 0.00020782443 0.029919358 0.005164248 0.008900003 0.008821457 0.0019245654 0.018082429
0.0068395888 0.059724063 0.0070895357 0.05324393 0.015281288 0.05415606 0.009958116 0.041751847
0.006032743 0.005885423 0.004494444 0.004569717 8.991284e-05 0.0041245027 0.007823586 0.00089386274
0.013969134 0.0054585245 0.028598614 0.008764361 0.013339526 0.11374786 0.02025934 0.006597541
0.011825413 0.0029127637 0.004324581 0.009935299 0.024737557 0.14995389 0.0015302709 0.01262391
4.7248282e-05 0.0048787887 0.00032820238 0.05273844 0.024795033 0.00030617873 0.001791425 0.035256155
0.015358334 0.0009921595 0.00024010475 0.008988087 0.0084700845 0.04917776 0.010979435 0.018853448
0.0054117795 0.004504459 0.0027139152 0.0062299315 0.005780162 0.001825146 0.0146469725 0.019427521
2.1704777e-06 0.039295822 0.050904166 0.030652668 0.017309379 0.013114866 0.055296347 0.0101084495
0.09233452 0.031496637 8.244506e-05 0.16311494 0.010954312 0.0017476772 0.02055768 0.01669139
0.00014967384 0.00053603045 0.0022539224 0.14183386 0.009148943 0.014610269 0.0053586736 0.03940423

fc2.weight f4 [128, 132]
00000000: 4d6b e038 42d0 61bd b964 2b3d 857f 4dbc
00000010: 6e2f 8339 8137 90bc 6e33 c5bc 500d da3a
00000020: 5dcf f2bc 3215 a9bc dcb5 4bbd 510f 06bc
00000030: 6320 13b8 a7dd a9bd ed3e 9f3c d833 8c3d
00000040: f7ca 81bd e95a cf3c 866d ce3c 94bd 08bd
00000050: 5c08 2bbd 843e 373d 1b5f bbbd ed93 6cbd
00000060: 6fd7 e4b8 7c16 a73c 3d18 1cbd c6be 7cbc
00000070: 0b11 473d 519c 36bd 5aaa 8dbc 49fb 83bc
00000080: 9d8b 82bd ea4a d03c 9a92 e8bd c470 533c
00000090: e93e 28bd c7c4 203d ebdd 3dbd 8547 36bd
000000a0: b5d7 273b 8ffd 05bd c578 24bd 4d24 673d
000000b0: 7fb8 023d 11bd a9bd e6ac aabc dfec 6abd
000000c0: 010b 89bc ddf1 6038 7d55 983c 28fd ac3c
000000d0: d326 be3c 2b81 1dbd ad3e d7bb 61e3 41bc
000000e0: ba5b d0bc fd9f 2bbd e42a 52bc 710d f8bc
000000f0: 38c9 cbbc 2451 1f3d a932 243c a39c 693c
00000100: 4cec c2bc 1b45 fabc d080 433c 20aa 8339
00000110: 7797 82bc 013d 2ebd fee2 87bd ef30 f2bc
00000120: f62f 743b 936c 5bbd 8ca9 02bd c7a2 8dbc
00000130: a395 75bc ac31 203d d884 433c 1ba6 38bc
00000140: 23f9 953c d8b7 313d 8e77 28bd cc09 383d
00000150: 60b3 5dbc b120 39bb 4558 273d 10e8 39bd
00000160: 194a 04bc d2f1 2dbd 65fd 033a cf9b 94bd
00000170: e6bf b9bd 38f0 b6bb a06f 0bbd e502 6ebd
00000180: 98e0 953d c866 a4bd 180c f4bd 9ab7 0cbc
00000190: 6bd7 0d3d 8d9c 52bd 5b1a 523c acf0 8c3c
000001a0: f571 7cba a955 b23c ef60 91bb 8a15 203b
000001b0: d8aa 30bd 4a3f 7d3c 31f0 8ebd 5f8a d63c
000001c0: a698 503d d826 96bc 84c1 60bd 28e2 ef3a
000001d0: b0f3 38bd b84f 66bc c8f8 d7bb f462 0ebd
000001e0: 74ac 9138 5ea2 253c 6119 2abc 1ce0 d3bc
000001f0: 52af c2bc d07a 9dbc 9bfd 033c 5c59 acbd
00000200: f349 b7bc f10c 063c 9651 a4bd 4375 873c
00000210: 4ec7 bfb9 dc8e d53c 1869 493d bb16 1dbd
00000220: e5eb 073a 14a9 4c3d e569 a7bd 7a28 153d
00000230: 2163 283c b03b 6dbd 74c2 0cbc 9690 753c
00000240: ac05 7cb8 1bd6 31bb eeb9 09bd d1ef fd3c
00000250: 6c2c 8bba 6f63 923d 344b d1bc 20f8 363d
00000260: 5432 b73c d194 4c3c 5492 ecbc 4e30 d5bc
00000270: 9eec af37 f8b6 9cbc 5e92 b7bc aa46 0e3a
00000280: 4802 fd3c ec7c b8bc 8f8f 0fbd fb60 f13c
00000290: 1e40 3f3c ebd6 c0bb 2cb0 5dbc e68f 5cbc
000002a0: ce7d 14bc c483 213d 1850 d839 2c00 2abd
000002b0: 2f01 633a 27b1 e6bb 47c2 5ebc d87b 64bc
000002c0: fced 9b3c 92bc 97bc 6dc9 cc3c e550 eb3c
000002d0: 1e86 43ba 091f a53c a919 17bd e8c6 2cbc
000002e0: 13e8 d7bb 835c a03c cf3d 8e3c df5c dfbc
000002f0: 946a 023d 3cdc 3fbc 8c53 bfbd 4600 0c3d
00000300: 8193 d73c 52d5 9e3b abb1 883c b49c 9e3c
00000310: ba9b 563c c8f5 90bc 1c44 b53b 6ef0 f53c
00000320: 7540 4c3d a6d3 6c3c b5dd c1bb c058 0cbd
00000330: 1ec3 afbb e8b5 4a3a 1099 3f3d 5f87 8ebb
00000340: 3928 c23b 54c9 16bd ac53 103d ede2 4cbc
00000350: 672a d3bc 7557 10bd 9098 a03d c575 883c
00000360: 2b23 383c eaf6 a73b 7401 a5bd 77c9 e6bc
00000370: f6c2 c1bc 97d5 283c a963 dfb7 56ee 01bd
00000380: 02da 10bd 84c1 2ebc fbaf 603d 6188 86bb
00000390: 0c4c cc3c c6e0 86bd e834 f93b 0e09 ca3c
000003a0: 67e7 963c 7739 6a3d 7e90 393d 51a7 37bd
000003b0: f702 293b ca4e 1dbd 83c4 7c3c d469 99bd
000003c0: 9e75 233c cf5c 5bbc afb2 d73b efad 36bd
000003d0: 4e4e a6bb b9eb cebc ccd8 c63c a0d0 843d
000003e0: 06f1 a13b 090c 2dbc e294 c8bc 4b97 f43b
000003f0: 5281 5539 2ad3 c6bc d758 46bc 46b1 983c
0.00010701139 -0.05513025 0.041844103 -0.01254261 0.00025021605 -0.017604591 -0.024072375 0.0016636048
-0.029639894 -0.02063999 -0.04973398 -0.008182363 -3.5077694e-05 -0.0829423 0.019439185 0.06845826
-0.063375406 0.025311904 0.02519871 -0.03338392 -0.04175602 0.044737354 -0.09148999 -0.05775826
-0.00010912015 0.020396464 -0.038109053 -0.015426343 0.048600238 -0.04458267 -0.017293144 -0.016111033
-0.06374285 0.025426347 -0.11356087 0.012905303 -0.04107562 0.03925016 -0.046354216 -0.0445018
0.002561075 -0.032712515 -0.040154237 0.056431103 0.03191423 -0.08288015 -0.020834398 -0.057354804
-0.01672888 5.3631014e-05 0.018595451 0.021116808 0.023211872 -0.038453262 -0.006568751 -0.0118339965
-0.025434364 -0.041900624 -0.012827609 -0.030279847 -0.024876222 0.03889574 0.010021844 0.0142585365
-0.023794316 -0.03055053 0.011932567 0.0002511302 -0.015941365 -0.042538647 -0.06635092 -0.029564349
0.0037260032 -0.05357034 -0.031899974 -0.017289532 -0.014989289 0.03910987 0.011933528 -0.011270071
0.018307274 0.043388218 -0.04112964 0.044931218 -0.013531536 -0.0028248245 0.040855665 -0.045387328
-0.008074307 -0.042466946 0.0005035012 -0.07256281 -0.09069805 -0.0055828355 -0.034042 -0.05810823
0.073182285 -0.080274165 -0.11916369 -0.008588696 0.034629267 -0.05141883 0.012823666 0.017204605
-0.0009630018 0.021769362 -0.004436604 0.00244269 -0.04313168 0.015456984 -0.069794066 0.026189027
0.050926827 -0.018329069 -0.05487205 0.0018301653 -0.045154274 -0.014057092 -0.0065909363 -0.034762338
6.946261e-05 0.010109512 -0.010382027 -0.0258637 -0.02376524 -0.0192236 0.00805607 -0.084154814
-0.022374129 0.008181796 -0.08023374 0.016535407 -0.00036578852 0.026069097 0.04917249 -0.038351756
0.00051849923 0.049965933 -0.08174495 0.036415555 0.01027754 -0.05791825 -0.008591283 0.014988085
-6.0086764e-05 -0.0027135673 -0.033624582 0.030998142 -0.0010618097 0.07147872 -0.025548555 0.044670224
0.022362866 0.0124866525 -0.028878368 -0.02602401 2.097181e-05 -0.019130215 -0.02240866 0.00054274
0.030884877 -0.022520505 -0.035049018 0.02946519 0.011673002 -0.005884995 -0.013530772 -0.013462042
-0.009063197 0.039432302 0.00041258405 -0.04150407 0.0008659539 -0.007040161 -0.013596124 -0.013945542
0.019034378 -0.018522535 0.024998391 0.028725097 -0.00074586447 0.0201564 -0.036889706 -0.01054547
-0.0065889447 0.019575363 0.017363457 -0.027265964 0.031839922 -0.011710223 -0.09342107 0.03417995
0.026315453 0.004847207 0.016686281 0.019361831 0.013098652 -0.017695323 0.005531801 0.030021872
0.04986616 0.014454758 -0.005916322 -0.034264326 -0.005363836 0.00077327946 0.04677683 -0.0043496336
0.005925205 -0.036813095 0.035236046 -0.012505275 -0.025777055 -0.035239656 0.07841599 0.01665772
0.011238853 0.00512587 -0.08056918 -0.028172238 -0.023652535 0.01030483 -2.663008e-05 -0.031721435
-0.03536416 -0.010666255 0.054855328 -0.004105613 0.024938606 -0.06585841 0.007605184 0.02466252
0.018420888 0.05718371 0.045303814 -0.0448373 0.002578912 -0.038405217 0.015427711 -0.07490888
0.009976773 -0.0133888265 0.00658258 -0.04459947 -0.0050752526 -0.025258886 0.024273299 0.064851046
0.0049420623 -0.010561951 -0.024485055 0.0074643246 0.00020361439 -0.024270613 -0.012106142 0.018639218

fc2.bias f4 [128]
00000000: 5ed4 773d bb97 5bbc 8c9c acbd 4a3d 41bd
00000010: 5c68 3ebd 9e88 b6bd 4b05 933d 933d 1d3d
00000020: 82c2 d43c 258a 2ebb 7030 d3bc 24af ccbd
00000030: 19b1 1fbd e204 91bc aa6f 55bd 4e35 8e3d
00000040: 111d 04bd 84a7 8abd 963d 74bd 6014 b9bd
00000050: f830 4abd 84f2 0bbd 03c9 a43d 7167 afbc
00000060: 2754 4f3d c970 93bb 5a30 87bd e218 963c
00000070: 9116 11bc 2ca8 8bbd 1eb6 b2bd fb49 ccbc
00000080: 9a13 9dbd 2bf7 4abd 3515 1d3d 8e9a e73c
00000090: b403 d6bc e6d4 21bd 8554 913d 5a3e 363d
000000a0: e439 453d f599 e4bc c11b 333b d908 8fbd
000000b0: eacd 6dbc f4ed a4bd 65bd 81bd 0650 70bd
000000c0: bbd2 c4bd a2ad 37bd ec5b 513c c507 e2bc
000000d0: 31cc b13c 8ef5 b6bd 5e20 01bd 17bf c63d
000000e0: de38 84bd 635c 81bc 34a0 c8bc 4d9d c93c
000000f0: 0380 6abd 430f ddbc 224f d2bc 09cb 90bd
00000100: 6737 703d cedc 3c3d d202 b1bd d0d6 333d
00000110: fb49 97bd ebfd 6bbd 02f9 e7bc b834 80bc
00000120: 845b 35bd 2088 99bc 0d2b f03d 5706 42b8
00000130: ff09 a3bd 0f01 18bd e179 12bd 2c79 31bd
00000140: 0892 4fbd 5e8f bf3d c05c 37bd 54ae b8bd
00000150: 40a0 84bd ce92 96bc acfe 01be 6b2a 61bd
00000160: 620d 143d 9009 b8bd 6296 d73d 2303 09bd
00000170: 1e2c e6bc 7425 b0bd 9f29 88bd 8448 e2bc
00000180: eb4c 80bd aff9 aabc b117 bbbd 7dea 8ebd
00000190: b11c 8fbd 1076 443c 17c4 7bbd cee9 a5bd
000001a0: af77 7cbd 8b56 693b d745 9cbd 2b19 253d
000001b0: 88dd c2bd 7b02 eebd 9369 96bd b9fc 8f3d
000001c0: ff48 30bd 5dad b43d eebd 0bbd 7f36 75bd
000001d0: adea ab3d 1d93 eb3c bf98 5d3c 12eb 89bd
000001e0: fd2a e0bd 585a b5bd 24a1 36bd 113c 183d
000001f0: adab 353d a1f3 99bd cb9f 9abd 1859 853c
0.060505264 -0.013402875 -0.084282964 -0.04717759 -0.046486244 -0.089127764 0.07178744 0.0383888
0.025971655 -0.0026632634 -0.025779933 -0.09994343 -0.038987253 -0.017702524 -0.052108444 0.06943761
-0.032254282 -0.06770232 -0.059629045 -0.09037089 -0.049363106 -0.034166828 0.080461524 -0.02141163
0.050617363 -0.004499529 -0.06601019 0.018322412 -0.008855478 -0.068191856 -0.08726142 -0.02493762
-0.07669754 -0.049552124 0.038350303 0.02827194 -0.026124813 -0.039509676 0.07096199 0.044493057
0.048150912 -0.027905444 0.0027329775 -0.069841094 -0.014514426 -0.080531985 -0.06334952 -0.058670066
-0.09610506 -0.044843324 0.012778264 -0.027591595 0.021703811 -0.089335546 -0.03152501 0.09704416
-0.06456159 -0.015791124 -0.024490453 0.02461114 -0.057250988 -0.026984816 -0.0256725 -0.07069976
0.058646586 0.046109013 -0.08643116 0.043906033 -0.073871575 -0.057615202 -0.028316978 -0.015650138
-0.04427673 -0.018741667 0.11726961 -4.625911e-05 -0.07960891 -0.037110385 -0.035760764 -0.04332845
-0.050676376 0.09353517 -0.044766188 -0.090176255 -0.06475878 -0.018380549 -0.12694806 -0.054972094
0.036145575 -0.08986199 0.1052673 -0.033450257 -0.028097209 -0.086008936 -0.066485636 -0.027622469
-0.06264671 -0.020871012 -0.09135378 -0.06978319 -0.06987894 0.011991039 -0.061466303 -0.08101235
-0.061637577 0.0035604562 -0.076305084 0.040307205 -0.0951491 -0.11621567 -0.073443554 0.07030625
-0.043038364 0.08822129 -0.034116678 -0.059866425 0.0839437 0.028756673 0.013525187 -0.06734289
-0.10945699 -0.08855122 -0.04458727 0.03716666 0.044353176 -0.07517172 -0.07550009 0.016277835

bn3.weight f4 [128]
00000000: 40cb 963e a0a6 163d cfad 0a3f 992f 2e3f
00000010: 7864 a13d 08da 9b3d 5df2 653f 109e 043f
00000020: 7440 263e 3889 7f3f 9e79 6e3f ba94 9c3e
00000030: c0f1 063f f478 683e f7f6 263f 27a9 463f
00000040: 560b 5b3f 02e5 743f 9149 133f c0fa 063e
00000050: c09f ae3c 867b 193f c786 3a3f 384e 4f3e
00000060: e295 083f f0dc 833d 83dd 2a3f 4a5a 2a3f
00000070: 009e 3d3c d801 bc3e b0b0 9f3d bcac 1c3e
00000080: a8bb 493e 36ff 543f f2c1 8a3e ae97 f03e
00000090: 5ecc 773f 20c8 5d3d 4920 403f 4224 e73e
000000a0: 715b 033f da8c 5a3f 0e91 ee3c 9de4 313f
000000b0: 5c25 403f d767 d33e b1fc 103f 0d36 5a3f
000000c0: 32b4 273e b660 6b3f b0ae 1e3e 7cbb 423f
000000d0: d070 673f ce19 293f 1038 933d 6cf4 7e3f
000000e0: 8ab2 1c3f b231 b53e 46fd 503f 9c74 573f
000000f0: 355c 293f e06e d83d 900d 173f ce2d 883e
00000100: 54a1 5e3e 565c 763f f4a0 623e e0b7 143e
00000110: a4a5 ae3e 8050 7e3f 9047 aa3e 884b e13d
00000120: 0875 6a3e ec3a 573e f6af 313f 09bc 373f
00000130: 234d 473f 4d3f 043f 502b bc3d e866 263e
00000140: 5cd6 3e3f c09a 223d 9547 183f 0070 293e
00000150: a68d e23e 90c3 ac3e 22dd 483f ba63 103f
00000160: 60a1 063e cc5c 303e 947a eb3e f4b5 363f
00000170: da70 be3e 1847 953e 2878 983d e417 233f
00000180: a94e 583f 746b 003f 48da 053f 0863 113e
00000190: dcf9 553e 13e8 9f3d f0ad f13e 4857 d13d
000001a0: 390e 7c3e e372 1f3f 4829 2d3e 2524 453f
000001b0: 2a78 633f fe5e 313f cfa4 443f 44c2 383e
000001c0: 6861 373f 8f34 123f e209 d73e e037 e33e
000001d0: 00e2 663e b396 0c3f 00be 0b3d b875 393e
000001e0: 774f 253f 287f 1b3f 46e5 ec3e c031 943c
000001f0: f461 233e 1262 7d3d 20f1 773f 346b 063e
0.29451942 0.03678 0.5417146 0.6804138 0.07880491 0.076099455 0.8982294 0.51803684
0.16235524 0.99818754 0.93154323 0.3058222 0.5271263 0.2270239 0.6522059 0.77601856
0.8556417 0.9566194 0.5753413 0.13181591 0.02131641 0.59954107 0.72861904 0.20244682
0.53353703 0.06438625 0.6674425 0.6654402 0.011573315 0.36720157 0.07797372 0.15300268
0.19700491 0.8320192 0.27101094 0.46990722 0.96796215 0.054145932 0.75049263 0.4514485
0.51311404 0.8537117 0.029121902 0.6948946 0.75057006 0.4129016 0.56635576 0.85238725
0.16377333 0.91944444 0.15496325 0.7606733 0.90406513 0.66055 0.071884274 0.9959171
0.6120993 0.35389477 0.81636465 0.84162307 0.6615632 0.10568023 0.5900507 0.26597446
0.2174123 0.96234643 0.22131711 0.14523268 0.3411075 0.99341583 0.33257723 0.110007346
0.22896206 0.2101857 0.6940912 0.71771294 0.77852076 0.5165909 0.09187949 0.16250193
0.74545836 0.039698362 0.59484226 0.16546631 0.44248694 0.33742952 0.7846242 0.5640217
0.13147497 0.17222899 0.45991957 0.7137139 0.37195474 0.29155803 0.07444793 0.6370833
0.84495026 0.5016396 0.52286196 0.14197934 0.20896095 0.078079365 0.47203016 0.10221726
0.246148 0.6228468 0.16910279 0.7700828 0.8885523 0.6928557 0.7681398 0.18042856
0.71633005 0.5711145 0.41999727 0.44378567 0.2254715 0.5491745 0.034116745 0.18111312
0.6457438 0.607409 0.46268672 0.018090129 0.15955335 0.061861105 0.968523 0.13126832

bn3.bias f4 [128]
00000000: 0000 0000 0000 0000 0000 0000 0000 0000
00000010: 0000 0000 0000 0000 0000 0000 0000 0000
00000020: 0000 0000 0000 0000 0000 0000 0000 0000
00000030: 0000 0000 0000 0000 0000 0000 0000 0000
00000040: 0000 0000 0000 0000 0000 0000 0000 0000
00000050: 0000 0000 0000 0000 0000 0000 0000 0000
00000060: 0000 0000 0000 0000 0000 0000 0000 0000
00000070: 0000 0000 0000 0000 0000 0000 0000 0000
00000080: 0000 0000 0000 0000 0000 0000 0000 0000
00000090: 0000 0000 0000 0000 0000 0000 0000 0000
000000a0: 0000 0000 0000 0000 0000 0000 0000 0000
000000b0: 0000 0000 0000 0000 0000 0000 0000 0000
000000c0: 0000 0000 0000 0000 0000 0000 0000 0000
000000d0: 0000 0000 0000 0000 0000 0000 0000 0000
000000e0: 0000 0000 0000 0000 0000 0000 0000 0000
000000f0: 0000 0000 0000 0000 0000 0000 0000 0000
00000100: 0000 0000 0000 0000 0000 0000 0000 0000
00000110: 0000 0000 0000 0000 0000 0000 0000 0000
00000120: 0000 0000 0000 0000 0000 0000 0000 0000
00000130: 0000 0000 0000 0000 0000 0000 0000 0000
00000140: 0000 0000 0000 0000 0000 0000 0000 0000
00000150: 0000 0000 0000 0000 0000 0000 0000 0000
00000160: 0000 0000 0000 0000 0000 0000 0000 0000
00000170: 0000 0000 0000 0000 0000 0000 0000 0000
00000180: 0000 0000 0000 0000 0000 0000 0000 0000
00000190: 0000 0000 0000 0000 0000 0000 0000 0000
000001a0: 0000 0000 0000 0000 0000 0000 0000 0000
000001b0: 0000 0000 0000 0000 0000 0000 0000 0000
000001c0: 0000 0000 0000 0000 0000 0000 0000 0000
000001d0: 0000 0000 0000 0000 0000 0000 0000 0000
000001e0: 0000 0000 0000 0000 0000 0000 0000 0000
000001f0: 0000 0000 0000 0000 0000 0000 0000 0000
0.0 0.0 0.0 0.0 0.0 0.0 0.0 0.0
0.0 0.0 0.0 0.0 0.0 0.0 0.0 0.0
0.0 0.0 0.0 0.0 0.0 0.0 0.0 0.0
0.0 0.0 0.0 0.0 0.0 0.0 0.0 0.0
0.0 0.0 0.0 0.0 0.0 0.0 0.0 0.0
0.0 0.0 0.0 0.0 0.0 0.0 0.0 0.0
0.0 0.0 0.0 0.0 0.0 0.0 0.0 0.0
0.0 0.0 0.0 0.0 0.0 0.0 0.0 0.0
0.0 0.0 0.0 0.0 0.0 0.0 0.0 0.0
0.0 0.0 0.0 0.0 0.0 0.0 0.0 0.0
0.0 0.0 0.0 0.0 0.0 0.0 0.0 0.0
0.0 0.0 0.0 0.0 0.0 0.0 0.0 0.0
0.0 0.0 0.0 0.0 0.0 0.0 0.0 0.0
0.0 0.0 0.0 0.0 0.0 0.0 0.0 0.0
0.0 0.0 0.0 0.0 0.0 0.0 0.0 0.0
0.0 0.0 0.0 0.0 0.0 0.0 0.0 0.0

bn3.running_mean f4 [128]
00000000: 0000 0000 0000 0000 0000 0000 0000 0000
00000010: 0000 0000 0000 0000 0000 0000 0000 0000
00000020: 0000 0000 0000 0000 0000 0000 0000 0000
00000030: 0000 0000 0000 0000 0000 0000 0000 0000
00000040: 0000 0000 0000 0000 0000 0000 0000 0000
00000050: 0000 0000 0000 0000 0000 0000 0000 0000
00000060: 0000 0000 0000 0000 0000 0000 0000 0000
00000070: 0000 0000 0000 0000 0000 0000 0000 0000
00000080: 0000 0000 0000 0000 0000 0000 0000 0000
00000090: 0000 0000 0000 0000 0000 0000 0000 0000
000000a0: 0000 0000 0000 0000 0000 0000 0000 0000
000000b0: 0000 0000 0000 0000 0000 0000 0000 0000
000000c0: 0000 0000 0000 0000 0000 0000 0000 0000
000000d0: 0000 0000 0000 0000 0000 0000 0000 0000
000000e0: 0000 0000 0000 0000 0000 0000 0000 0000
000000f0: 0000 0000 0000 0000 0000 0000 0000 0000
00000100: 0000 0000 0000 0000 0000 0000 0000 0000
00000110: 0000 0000 0000 0000 0000 0000 0000 0000
00000120: 0000 0000 0000 0000 0000 0000 0000 0000
00000130: 0000 0000 0000 0000 0000 0000 0000 0000
00000140: 0000 0000 0000 0000 0000 0000 0000 0000
00000150: 0000 0000 0000 0000 0000 0000 0000 0000
00000160: 0000 0000 0000 0000 0000 0000 0000 0000
00000170: 0000 0000 0000 0000 0000 0000 0000 0000
00000180: 0000 0000 0000 0000 0000 0000 0000 0000
00000190: 0000 0000 0000 0000 0000 0000 0000 0000
000001a0: 0000 0000 0000 0000 0000 0000 0000 0000
000001b0: 0000 0000 0000 0000 0000 0000 0000 0000
000001c0: 0000 0000 0000 0000 0000 0000 0000 0000
000001d0: 0000 0000 0000 0000 0000 0000 0000 0000
000001e0: 0000 0000 0000 0000 0000 0000 0000 0000
000001f0: 0000 0000 0000 0000 0000 0000 0000 0000
0.0 0.0 0.0 0.0 0.0 0.0 0.0 0.0
0.0 0.0 0.0 0.0 0.0 0.0 0.0 0.0
0.0 0.0 0.0 0.0 0.0 0.0 0.0 0.0
0.0 0.0 0.0 0.0 0.0 0.0 0.0 0.0
0.0 0.0 0.0 0.0 0.0 0.0 0.0 0.0
0.0 0.0 0.0 0.0 0.0 0.0 0.0 0.0
0.0 0.0 0.0 0.0 0.0 0.0 0.0 0.0
0.0 0.0 0.0 0.0 0.0 0.0 0.0 0.0
0.0 0.0 0.0 0.0 0.0 0.0 0.0 0.0
0.0 0.0 0.0 0.0 0.0 0.0 0.0 0.0
0.0 0.0 0.0 0.0 0.0 0.0 0.0 0.0
0.0 0.0 0.0 0.0 0.0 0.0 0.0 0.0
0.0 0.0 0.0 0.0 0.0 0.0 0.0 0.0
0.0 0.0 0.0 0.0 0.0 0.0 0.0 0.0
0.0 0.0 0.0 0.0 0.0 0.0 0.0 0.0
0.0 0.0 0.0 0.0 0.0 0.0 0.0 0.0

bn3.running_var f4 [128]
00000000: 0000 803f 0000 803f 0000 803f 0000 803f
00000010: 0000 803f 0000 803f 0000 803f 0000 803f
00000020: 0000 803f 0000 803f 0000 803f 0000 803f
00000030: 0000 803f 0000 803f 0000 803f 0000 803f
00000040: 0000 803f 0000 803f 0000 803f 0000 803f
00000050: 0000 803f 0000 803f 0000 803f 0000 803f
00000060: 0000 803f 0000 803f 0000 803f 0000 803f
00000070: 0000 803f 0000 803f 0000 803f 0000 803f
00000080: 0000 803f 0000 803f 0000 803f 0000 803f
00000090: 0000 803f 0000 803f 0000 803f 0000 803f
000000a0: 0000 803f 0000 803f 0000 803f 0000 803f
000000b0: 0000 803f 0000 803f 0000 803f 0000 803f
000000c0: 0000 803f 0000 803f 0000 803f 0000 803f
000000d0: 0000 803f 0000 803f 0000 803f 0000 803f
000000e0: 0000 803f 0000 803f 0000 803f 0000 803f
000000f0: 0000 803f 0000 803f 0000 803f 0000 803f
00000100: 0000 803f 0000 803f 0000 803f 0000 803f
00000110: 0000 803f 0000 803f 0000 803f 0000 803f
00000120: 0000 803f 0000 803f 0000 803f 0000 803f
00000130: 0000 803f 0000 803f 0000 803f 0000 803f
00000140: 0000 803f 0000 803f 0000 803f 0000 803f
00000150: 0000 803f 0000 803f 0000 803f 0000 803f
00000160: 0000 803f 0000 803f 0000 803f 0000 803f
00000170: 0000 803f 0000 803f 0000 803f 0000 803f
00000180: 0000 803f 0000 803f 0000 803f 0000 803f
00000190: 0000 803f 0000 803f 0000 803f 0000 803f
000001a0: 0000 803f 0000 803f 0000 803f 0000 803f
000001b0: 0000 803f 0000 803f 0000 803f 0000 803f
000001c0: 0000 803f 0000 803f 0000 803f 0000 803f
000001d0: 0000 803f 0000 803f 0000 803f 0000 803f
000001e0: 0000 803f 0000 803f 0000 803f 0000 803f
000001f0: 0000 803f 0000 803f 0000 803f 0000 803f
1.0 1.0 1.0 1.0 1.0 1.0 1.0 1.0
1.0 1.0 1.0 1.0 1.0 1.0 1.0 1.0
1.0 1.0 1.0 1.0 1.0 1.0 1.0 1.0
1.0 1.0 1.0 1.0 1.0 1.0 1.0 1.0
1.0 1.0 1.0 1.0 1.0 1.0 1.0 1.0
1.0 1.0 1.0 1.0 1.0 1.0 1.0 1.0
1.0 1.0 1.0 1.0 1.0 1.0 1.0 1.0
1.0 1.0 1.0 1.0 1.0 1.0 1.0 1.0
1.0 1.0 1.0 1.0 1.0 1.0 1.0 1.0
1.0 1.0 1.0 1.0 1.0 1.0 1.0 1.0
1.0 1.0 1.0 1.0 1.0 1.0 1.0 1.0
1.0 1.0 1.0 1.0 1.0 1.0 1.0 1.0
1.0 1.0 1.0 1.0 1.0 1.0 1.0 1.0
1.0 1.0 1.0 1.0 1.0 1.0 1.0 1.0
1.0 1.0 1.0 1.0 1.0 1.0 1.0 1.0
1.0 1.0 1.0 1.0 1.0 1.0 1.0 1.0

fc3.weight f4 [1, 128]
00000000: c7ed be3d 4283 473d 5d85 41bd 53c5 883d
00000010: 65c8 cbbd a4f9 21be 3ae0 273d eeb5 a53d
00000020: 15f9 f83c f825 2c3d b048 1abd 4c09 a6be
00000030: eedf ea3d ab2f 133d db30 afbd 11a4 893d
00000040: 26e4 693d db2d 1dbe 57ac 543d 1040 66be
00000050: 1cc0 8c3d 739d 0d3e 7733 703d 63e5 d8bc
00000060: ff4e 8f3d 8097 423d 8248 ccbd b243 6b3d
00000070: 8fc5 803e 9e72 21bd 26cc 3dbe 2a17 00bd
00000080: 9045 b3bd 6237 02be 07a5 7d3d 6a68 323d
00000090: 5427 143d 3b68 8abd 2f14 9c3d 3162 d83d
000000a0: f552 5a3d 523b febc 8ca3 0e3d a53e 1bbe
000000b0: a08f ee3d c89a fbbd e7f8 3bbd 1031 5bbd
000000c0: a2fe a9bd ef24 9abd 7bcf 893d 5d1a 983d
000000d0: eed3 803d a26c c2bd 96ad 6abd 17fe 0b3d
000000e0: 7b3a 09be 9acc a4bd aa51 1c3e 8d06 373d
000000f0: 9503 11be 7317 00bd 26cd b13e 43c2 ccbd
00000100: db33 993d 64c4 623d 2c9c 02be a643 8f3d
00000110: 89d1 82bd a7d4 49bd d56e 263d 270d 343d
00000120: b554 e0bd 847d 30bd 6dcb 4e3d 8a71 6bb8
00000130: 3ff5 bdbd e446 cebd 94e9 0d3e 46c7 8abd
00000140: 63ea 8abd 51ff 5d3d 5c2b 793d 6424 66be
00000150: 1131 c5bd fc08 66bd 74a5 dfbd 297c 573d
00000160: 2d63 1d3d 6a8d 9dbd f7c2 5b3d 0c0f 0ebd
00000170: 4c23 583e 77f0 a4bd 640a 85bd a451 3fbd
00000180: cbf6 97bd 1871 a2bc 59f0 d9bd 8d03 58bd
00000190: 8a3f f8bd 9c29 103d aeac b1bc 4520 9bbd
000001a0: 16f7 5dbd 91fe eebc 8457 1dbe 515e 5b3d
000001b0: 2597 a43d aca0 59be 77da f3bd 05cc 823d
000001c0: 666c a83d 0f87 363d aa7f 2d3e 4cac 9dbd
000001d0: 5605 633d 54b9 2e3d 1fa4 9a3d f806 7dbd
000001e0: 1995 693d fec3 a8be bc8e 58bd f936 7c3d
000001f0: 19e7 763d 0a6f debd 2181 bdbd 2550 913d
0.09322696 0.04870916 -0.047246326 0.066782616 -0.099503316 -0.15817887 0.040985323 0.08091341
0.030392209 0.042028397 -0.037666976 -0.32428968 0.114684924 0.03593413 -0.0855424 0.06720746
0.057102345 -0.15349524 0.05192217 -0.22485375 0.068725795 0.13829593 0.05864283 -0.026476568
0.06997489 0.047507763 -0.09974767 0.057437606 0.25150725 -0.039415948 -0.18534908 -0.03127209
-0.08753502 -0.1271644 0.06192496 0.04355661 0.03617032 -0.06758162 0.07621037 0.105656035
0.05330177 -0.031034146 0.03482394 -0.15160616 0.11648488 -0.122853816 -0.04589167 -0.053513587
-0.083005205 -0.07526576 0.06729027 0.074269034 0.062904224 -0.09493376 -0.05729445 0.034177866
-0.13401215 -0.08046837 0.15265527 0.04468398 -0.14161523 -0.031272363 0.34726828 -0.0999799
0.07480594 0.055363074 -0.12754887 0.06995325 -0.06387622 -0.049275067 0.04063304 0.043957856
-0.109536566 -0.04308845 0.05048697 -5.6134108e-05 -0.092752926 -0.10072115 0.13858634 -0.0677629
-0.06782987 0.054198567 0.060832366 -0.2247482 -0.09628499 -0.056160912 -0.109202296 0.052608643
0.03842466 -0.07692988 0.05365273 -0.03468232 0.21107215 -0.080536775 -0.064961225 -0.046708718
-0.07420119 -0.019829318 -0.10641546 -0.05273776 -0.12121494 0.03519593 -0.021688785 -0.07574514
-0.054190718 -0.029174121 -0.15365416 0.053556744 0.08036641 -0.21252698 -0.11906903 0.0638657
0.082238 0.044562396 0.16943231 -0.07698879 0.05542501 0.04265721 0.07550835 -0.061774224
0.057026956 -0.3296203 -0.052870497 0.061575864 0.060278986 -0.10861023 -0.09253145 0.070953645
