mode_weights/agent19_actor_target.pth (torch_old, 93021 bytes, 18 tensors)

bn1.weight f4 [33]
000000 61 49 fe 3e 30 b0 12 3f c9 9e a7 3e cc 19 83 3c
       0.4966536 0.5730009 0.3273833 0.016003512
000010 c8 ac 0c 3d 88 4b 1c 3d e3 71 6f 3d 3c 01 56 3e
       0.034344465 0.03815797 0.05845822 0.20898908
000020 34 a0 b8 3d 31 ac 37 3e 0d 19 18 3e c4 85 30 3e
       0.09014931 0.1793678 0.14853306 0.17238528
000030 64 6a a8 3d 72 4d 0a 3f 29 6f e2 3e d7 0d 3b 3f
       0.082234174 0.5402442 0.44225433 0.7306799
000040 64 c6 81 3d f2 74 b9 3d ae 5e 10 3a 73 25 83 3d
       0.06336668 0.09055509 0.00055072724 0.06403627
000050 ae 85 8a 3e 77 f0 9c 3e e2 dd dd 3d f6 1c 2a 3f
       0.27055115 0.3065221 0.108333364 0.6645044
000060 3e 7c 99 3e 3c c6 f2 3e 98 42 85 3f 90 21 14 3d
       0.29977602 0.47416866 1.0410948 0.03616482
000070 1b 9b 0e 3f 90 30 bf 3e 12 36 9c 3e 94 97 6e 3f
       0.5570542 0.37341738 0.30510002 0.9320004
000080 87 64 a0 3e
       0.31326696

bn1.bias f4 [33]
000000 a9 fa 83 bc cc 5f 5a bd d8 19 fe bd 7a bb 17 bc
       -0.016110735 -0.053314015 -0.12407273 -0.0092610065
000010 f2 4e d6 bd 0a 8f ae 3d 21 55 c2 3b 5e 6e 2f be
       -0.104642764 0.08523376 0.0059305583 -0.17131945
000020 3b 3a 18 3d ed 2d 8a 3c 64 ec 22 be aa 93 1b be
       0.037164908 0.016867602 -0.15910488 -0.15193048
000030 03 9a a3 3d a0 00 88 bc 0c 8b b4 bd 3f 4d 76 3b
       0.0798836 -0.01660186 -0.088155836 0.0037582663
000040 f2 59 62 bc 0a d6 18 bb 7c 20 02 be dd db 8a 3c
       -0.01381539 -0.0023320937 -0.12707704 0.016950542
000050 4f 5c c6 bd c5 59 9f 3d b0 28 7f bd 95 00 69 3c
       -0.09685575 0.07780794 -0.062294662 0.01422133
000060 c3 a6 02 be 87 69 d1 3c 46 8c eb 3c 7f b0 54 3e
       -0.12758927 0.025563015 0.028753411 0.20770453
000070 89 94 46 bd 8b dc 91 3e 68 08 32 be 43 b8 21 be
       -0.048481498 0.28488573 -0.17386019 -0.15792947
000080 f0 79 95 3c
       0.01824662

bn1.running_mean f4 [33]
000000 50 36 2c 3f 35 7a 1e c0 c2 bb c6 be 66 de 59 3f
       0.67270374 -2.476209 -0.38815123 0.8510498
000010 90 bb a8 3d 5b c2 3c 3c 1e f8 70 bd 65 bd 54 3b
       0.082389 0.011520947 -0.058830373 0.003246152
000020 05 e1 57 3a e7 f4 1c 3b 8b 1a 41 3c 70 77 90 bc
       0.00082351296 0.0023949684 0.0117861135 -0.017635077
000030 1c d7 2c bd 52 50 e0 3e c4 ac 22 c0 01 d3 0b be
       -0.04219733 0.4381128 -2.5417948 -0.1365471
000040 e1 0a 90 3c 64 dc ff 3b 2c 7b a4 bb ba f4 38 bd
       0.017583312 0.007808255 -0.005019566 -0.045155264
000050 15 63 18 3e cf 43 cb 3c 5e d5 2c 3d e3 e3 9b ba
       0.14881547 0.024812607 0.04219567 -0.0011893477
000060 5f ef 9d 3d 65 62 e4 3b 78 e4 99 bc fc ff 7f bf
       0.07711672 0.0069697374 -0.0187857 -0.99999976
000070 7d 75 df 3c 00 00 00 00 fc ff 7f 3f 00 00 00 00
       0.027277702 0.0 0.99999976 0.0
000080 a7 87 2e bc
       -0.010652459

bn1.running_var f4 [33]
000000 45 72 83 40 3f c8 07 3f 46 66 96 40 6c aa 65 3d
       4.107699 0.53039926 4.6999846 0.05607073
000010 06 0a 8e 3d cb 28 f6 3c e1 88 e1 3d 2a 57 bd 3e
       0.069355056 0.030048748 0.11012436 0.36980563
000020 bf c2 8a 3d e6 fa d9 3d cd 86 09 40 49 5d 9f 3f
       0.06775426 0.10643558 2.1488526 1.2450343
000030 22 fb 26 40 d1 67 9d 41 a0 b0 b8 3f 01 1e ac 41
       2.609078 19.675692 1.4428902 21.51465
000040 2c 2a d5 3d 3b a6 8f 3e a4 ac c4 3d 0f 41 04 3f
       0.10408434 0.2805651 0.09603241 0.5166177
000050 8c 2b 1e 40 72 45 4d 3f d6 d4 5c 3f f0 f0 fa 40
       2.471408 0.8018409 0.8626226 7.8419113
000060 78 b5 45 40 3c fc 07 41 c8 ad ff 41 04 00 00 00
       3.089201 8.499081 31.959854 6e-45
000070 3c 98 00 42 04 00 00 00 04 00 00 00 04 00 00 00
       32.148666 6e-45 6e-45 6e-45
000080 a1 db ab 3e
       0.33566

fc1.weight f4 [128, 33]
000000 a6 ba f0 bc 5c 14 eb bc 66 7a 26 bc 88 df 52 be
       -0.029385876 -0.028696232 -0.010161018 -0.20593083
000010 70 42 b8 bd 60 68 dd 3c df c7 a5 3c 21 c5 97 bd
       -0.08997047 0.027027309 0.020236908 -0.07410646
000020 45 da cc bd 78 ab c6 bb ce a3 ee 3b 98 48 a9 3c
       -0.10002569 -0.006062921 0.0072827106 0.020664498
000030 e4 c2 62 3c 97 53 3d 3d 82 d1 ae 3b ab ec 25 be
       0.013840411 0.046222296 0.005335034 -0.16203563
000040 25 a5 2e 3d 7c b6 c2 bc ff 0a f6 3b a7 3d 19 3e
       0.042637963 -0.023768656 0.007508635 0.14964925
000050 b3 24 88 bd 44 e6 a7 bc 43 b6 87 3c a8 1c c3 bc
       -0.06647625 -0.020495541 0.016566401 -0.023817375
000060 5f e3 4c bd c2 90 a5 3d 0f b8 46 3d 74 e7 90 3c
       -0.050021525 0.08084251 0.048515376 0.01768849
000070 d7 24 ae 3b 6a f8 0a bd fc 34 aa bd aa 51 be 3b
       0.0053144502 -0.033928312 -0.08310887 0.005808075
000080 6d 1d 2c 3e 89 c7 1b bd eb 6b 05 3c f3 e0 5d 3d
       0.168081 -0.03803209 0.008143405 0.054169606
000090 a0 85 4e 3c 4c bc 8e 3d e9 aa 4b 3d 97 12 82 3c
       0.012605101 0.069695085 0.04972354 0.015878005
0000a0 50 6b 90 bd 87 46 3f bd 38 2d 7e 3d 33 d6 9a bd
       -0.07051718 -0.04669812 0.062054843 -0.075603865
0000b0 37 87 68 3d 53 6c 38 3e 55 c4 80 bd 3c bc 25 bd
       0.056769576 0.18010072 -0.06287447 -0.040462717
0000c0 20 b0 cc 3d ad 9b 3e bc d0 3a 06 bd f2 7e 31 3d
       0.09994531 -0.011633796 -0.03277093 0.043333955
0000d0 f6 6f da 3c 14 a2 31 3d 5e df 25 3d 92 a0 1c 3e
       0.026664715 0.04336746 0.040496223 0.15295628
0000e0 7d 2b 10 be 60 91 9d bd 02 64 4e bc e0 99 81 bd
       -0.1407909 -0.07693744 -0.012597086 -0.063281775
0000f0 6b 48 fc bd c4 a4 6d 3c a3 07 ea bd a4 b7 50 3e
       -0.123185 0.014504615 -0.11427238 0.20382553
000100 b8 1d c4 3d c1 fd ef bd 10 9a 94 3d c0 51 19 bd
       0.09575981 -0.117183216 0.072559476 -0.03743148
000110 81 3e 33 be 7c 16 bc 3d c2 df 19 3d 24 1c 34 3d
       -0.17504312 0.09183976 0.037566908 0.04397215
000120 07 db fb 3c c9 3d 88 3b 5e 9c 95 3b f0 e8 72 3c
       0.030744089 0.004157756 0.0045657596 0.014826044
000130 e6 2d 10 bd 0b cb 8c bd f9 1b 77 bd 3a 87 2d bc
       -0.035200022 -0.06874665 -0.06032941 -0.010591323
000140 53 c9 d6 bd 6a ff 61 3a 28 23 38 3d 18 6c 98 bc
       -0.10487618 0.00086211285 0.044955403 -0.01860623
000150 2d 95 8d 3d fd 9b 20 3d 8e 46 5e 3d 5b 74 07 3d
       0.06913219 0.039211262 0.054266505 0.03306995
000160 7d c6 e4 3d 4c 92 77 bd a1 cf 1d bd 85 f8 c1 bd
       0.11170671 -0.060442254 -0.03852809 -0.094712295
000170 3d ba d3 3c 98 c3 ec 3d 02 4a 5c 3d 76 a3 3e bb
       0.025845641 0.11560744 0.053781517 -0.002908913
000180 bc bd d3 3b 95 a4 7a 3d 7c 6d c3 3d 93 e7 07 3e
       0.006461827 0.061192114 0.09542367 0.13271932
000190 b5 47 8c 3d 6a c7 74 bd ac f0 83 bd 93 b5 0e 3c
       0.068496145 -0.05976049 -0.06442389 0.008710283
0001a0 5f b0 c6 3c 1d 71 ab 3c 23 d3 29 3c d2 04 98 bc
       0.024254022 0.02092796 0.01036528 -0.018556986
0001b0 b6 50 a6 3c 3d f0 05 3d 76 5b b8 3c 54 ea 22 bd
       0.020302158 0.032699812 0.02250455 -0.039774254
0001c0 d8 d6 21 be 09 b6 e6 bd 12 6e 01 3e 45 a5 e1 ba
       -0.15804613 -0.11265189 0.12639645 -0.0017215392
0001d0 f6 c4 9e bc 84 98 84 3b 7d 77 5a 3c 6f cd be 3c
       -0.019381028 0.0040465016 0.013334152 0.023291318
0001e0 24 95 15 bc 18 1b 9f 3c f3 58 18 bd 06 6e 1f bd
       -0.009129796 0.019422099 -0.037194204 -0.038923286
0001f0 94 f3 e2 ba 06 fe 0a 3d a3 94 f5 3d 94 a9 77 be
       -0.0017315024 0.033933662 0.11991241 -0.24185783
000200 e1 36 d6 3d 3c a7 48 bd 1b 43 ad bc 67 c6 03 bd
       0.10459686 -0.048987612 -0.021150162 -0.032171633
000210 bc 54 e6 3d f9 75 22 bd 9b 3b ec 3c c3 f7 e0 3d
       0.112466305 -0.03966329 0.028837016 0.10984757
000220 76 78 2b bd 2e f5 20 3c cd 46 63 3c f4 14 28 3c
       -0.041862927 0.00982408 0.013871861 0.010258902
000230 cd c8 60 3d a5 5a 9a 3d 53 1f 1c 3d b5 2d 50 3c
       0.054879 0.0753682 0.03811581 0.01270621
000240 6a fd a1 3d d7 fa fa 3c 04 45 07 bd 91 c8 fd bc
       0.07909663 0.030637188 -0.033024803 -0.030979427
000250 38 71 3d ba d5 7f 1e 3d 4f 80 d7 3c 18 4d f6 3a
       -0.0007226649 0.03869613 0.0263063 0.0018791286
000260 00 7b e2 bc be 84 3b bd a6 1e d0 bc f4 91 fc 3b
       -0.027646542 -0.04578089 -0.02540524 0.0077078287
000270 33 bf c4 bd 93 c4 fb b9 37 77 17 bd 1e 48 1b 3d
       -0.09606781 -0.0004802091 -0.036978927 0.037910573
000280 22 c6 82 be c6 45 e9 bb 8a 7b 51 3d 2c 90 39 3d
       -0.25541788 -0.0071189133 0.051143207 0.04530351
000290 dd 3e 59 3e b8 32 a2 3d 57 c2 27 3c 06 4b 4c 3e
       0.21215387 0.0791983 0.010239205 0.19950494
0002a0 79 be 36 bb ff f5 28 3d 16 27 d0 bc a3 fa 9b 3c
       -0.0027884527 0.041250225 -0.025409263 0.019040411
0002b0 b3 27 9c ba 05 81 53 3d ac 44 a1 bb 34 a9 0e 3d
       -0.0011913687 0.051636714 -0.0049215164 0.034829333
0002c0 63 e4 ff bc e3 d0 73 bc 60 c8 07 be c2 c3 2e bd
       -0.031236833 -0.014881345 -0.13260031 -0.042667158
0002d0 63 35 28 be 3a b3 0d 3c a9 bf e0 3c 73 3a cb 3c
       -0.16426615 0.008648688 0.02743514 0.024808144
0002e0 bb d7 68 bd 92 e6 75 bc 90 d7 60 bc 69 7a cc 3c
       -0.05684636 -0.0150085855 -0.013723269 0.024960713
0002f0 4a d6 6f bc 64 f3 a7 ba be f7 75 3c 02 7c 6c 3d
       -0.014638493 -0.0012813625 0.01501268 0.05773545
000300 07 6f 97 bd fc e6 11 3c db 87 77 3b af 0a 16 bd
       -0.07394224 0.008905169 0.0037770185 -0.036631282
000310 63 b4 b9 bd d6 23 86 bc 85 68 ee 3d 1f 8a 59 3d
       -0.09067609 -0.01637451 0.11641029 0.05311024
000320 56 e1 ae 3c 29 ab 6d bd 01 10 f0 bb 3a 72 b5 3d
       0.021347683 -0.05802456 -0.0073261266 0.088596776
000330 6a f8 01 3d 49 1c 00 bd 36 43 70 bd 5c 3d 1f 3d
       0.031731047 -0.031276975 -0.058657847 0.038876876
000340 0d 96 b6 3c ea ed a9 bb cd 7f b3 bc ea 31 8f bd
       0.022288347 -0.0051858323 -0.021911526 -0.06991942
000350 c2 29 e3 bd 8f 33 54 3b f5 41 ac bc eb 76 41 bd
       -0.11091949 0.0032379364 -0.021027545 -0.04723255
000360 5a 64 b6 bd 93 7f 66 3d 96 c6 7c bd 9a d8 f1 3c
       -0.08905859 0.056274008 -0.061712824 0.029522229
000370 66 56 97 3d f2 ef 90 bb 1c 17 94 bd 12 d7 43 3b
       0.07389526 -0.004423135 -0.0723097 0.002988283
000380 94 1c 3a 3d a8 23 31 3e 0a 59 39 be 68 23 29 3e
       0.04543741 0.17298758 -0.18100372 0.16517413
000390 a7 40 b1 bc 14 49 f9 bd 04 f1 62 3b 9c ca 39 bc
       -0.021637274 -0.12172142 0.003462852 -0.01133981
0003a0 2a 23 3f bc df 59 6d be f7 da a3 bd 4e 34 f7 bd
       -0.011666099 -0.23178814 -0.080007486 -0.12070523
0003b0 90 91 64 bc cc 71 d4 bc 86 a3 76 bd 99 4e bd bb
       -0.01395072 -0.025933169 -0.06021454 -0.005777192
0003c0 b4 d9 ea bc 87 be 9d 3c c2 a8 59 3d 3b e7 f9 bd
       -0.028668262 0.01925589 0.053139456 -0.12202307
0003d0 ac 14 3a bd b4 38 12 bd 71 67 91 3a ea da c4 bc
       -0.04542987 -0.035698608 0.001109345 -0.024030168
0003e0 5f 41 85 3b bf 23 9c bd ce f5 c8 bc b3 ba 92 3c
       0.0040666307 -0.076240055 -0.024531271 0.01791129
0003f0 82 19 74 bd 8b bc 73 bd 89 c7 0e bd 72 24 c1 bd
       -0.05959464 -0.05950598 -0.03485826 -0.094307795

fc1.bias f4 [128]
000000 82 84 a4 3b 67 9d 84 bd 47 3f b2 3d ea 56 10 bd
       0.005020679 -0.064753346 0.087034754 -0.035239138
000010 32 8f 08 be ba a5 ac 3d 0a 45 26 3e c9 94 dd 3b
       -0.13335875 0.08430047 0.16237274 0.0067621213
000020 43 35 a5 3d cf 3b 59 be fd db 37 bd 13 82 9b bd
       0.080667995 -0.21214221 -0.04488753 -0.07593169
000030 15 2e 04 be c7 43 79 bc 36 27 ad 3d ac 00 34 be
       -0.12908204 -0.015213913 0.084547445 -0.17578381
000040 e6 2e 0d 3d e2 42 ae bd 73 d4 dd bd d1 26 96 bd
       0.034468554 -0.08508851 -0.10831537 -0.073316224
000050 65 09 36 be df 92 55 3d 54 63 00 bd 81 fa bd bd
       -0.17777021 0.05214202 -0.031344727 -0.092762955
000060 e6 e0 f6 bd 13 7c a8 bd 07 bb 1f be 87 fe 77 3d
       -0.12054615 -0.0822679 -0.15598689 0.06054547
000070 b3 c6 c1 bd d2 d4 81 bc 38 0b 0c 3d 9f f6 60 bd
       -0.09461727 -0.015848551 0.034190387 -0.054922696
000080 7a c7 6b 3d 0c d0 85 3d 10 25 ea bd 54 a7 86 bd
       0.057563283 0.065338224 -0.1143285 -0.06574884
000090 1d a4 b4 3a 8e 46 3c 3d d6 2e b7 bd c9 9a 15 be
       0.001378182 0.045965724 -0.0894448 -0.14609827
0000a0 23 3a 74 3d 7c 70 9c 3d 5c 02 4b 3c a2 cd 21 bd
       0.059625756 0.07638642 0.012390699 -0.039502747
0000b0 e2 a2 35 be 0b de 4b bd c5 f0 bf 3d dd c8 85 3d
       -0.17737916 -0.049772304 0.09372095 0.06532452
0000c0 44 8e 07 be d3 15 04 bd 65 26 8d bd 0f d5 fd 3d
       -0.13237864 -0.032247376 -0.06892089 0.12394153
0000d0 dd c9 0a be 5e 30 cb bc 95 86 2a 3e 45 98 af 3c
       -0.13553567 -0.024803337 0.16652901 0.021434912
0000e0 53 b1 b0 3d 1c c1 19 3d d0 b5 22 bc 4a 19 8b bd
       0.08627572 0.03753768 -0.009931043 -0.06791933
0000f0 95 7d 35 3e ea b1 3f be 91 11 4b 3e 12 19 ba bb
       0.17723687 -0.18720213 0.1983092 -0.005679258
000100 de b5 eb 3d 2b 87 2e 3e 1b 4a 9a bd ec e5 11 3e
       0.11509298 0.1704375 -0.07533666 0.14247864
000110 1f 18 8e 3d ad 94 a8 3d 4a aa a6 bd 54 49 04 3e
       0.069381945 0.08231483 -0.08137949 0.12918597
000120 e3 8b c9 bd af 9b a2 bd c2 4e 26 3e 09 b6 9c bd
       -0.098411344 -0.079398505 0.16240981 -0.07651908
000130 88 4f 26 bb 26 b8 48 3e c4 17 63 3d 1f fa d7 bd
       -0.0025376994 0.19601497 0.055442587 -0.10545754
000140 d8 65 41 3e 41 d6 1a bc 85 75 67 3d 9d 6d 40 3d
       0.18886507 -0.009450496 0.05650856 0.046979535
000150 06 7d 21 3c 07 4b 67 3d e9 77 71 bd bf 82 33 be
       0.009856468 0.056468036 -0.058952246 -0.17530344
000160 b3 1c e7 3a 32 64 73 3e ec 58 5f be 2b 79 8a bb
       0.0017632454 0.2376869 -0.21811265 -0.00422587
000170 6f 1a 99 bd 73 1f c2 3d 5d fc 8c bd f0 61 77 bd
       -0.07475745 0.09478655 -0.06884072 -0.060396135
000180 67 49 e2 bd fa 4a f2 3d 2b bb 26 3d 83 32 34 be
       -0.11049157 0.11830707 0.04070584 -0.17597394
000190 27 20 0c 3e 61 d6 d3 bd 41 eb 12 be a3 cd 47 bd
       0.1368414 -0.10343624 -0.14347555 -0.048780095
0001a0 4b a6 3a be cd 40 67 3d 73 59 2a bd dd a1 47 3e
       -0.18227498 0.056458283 -0.04158921 0.1949534
0001b0 cd be 6d bd 9d e2 01 bd 57 59 5e 3d af c8 66 bd
       -0.05804329 -0.031710256 0.05428442 -0.05634373
0001c0 e4 82 0f 3d 85 a9 80 be 4f e2 9e 3d 62 4e 59 3e
       0.035036936 -0.25129333 0.07758009 0.21221307
0001d0 ec 5d 25 be bf f9 86 bd 9d 16 b9 bd 45 7e 8f bc
       -0.1614911 -0.06590604 -0.09037516 -0.017516265
0001e0 5f d4 25 3b 22 03 89 3e 3f 7b 10 3d 63 dd d6 3d
       0.0025303585 0.26760203 0.035273787 0.10491445
0001f0 86 8f e0 3d 72 ec 8e 3d be 91 7d bd 8b 57 50 3c
       0.10964875 0.06978692 -0.06190657 0.012716184

bn2.weight f4 [128]
000000 7f 55 12 3e e5 c2 99 3e 15 80 63 3e 6f 19 1e 3f
       0.14290427 0.30031505 0.22216828 0.6175756
000010 ad f3 6c 3e 65 75 05 3f 6c dc f5 3e 46 9a 9a 3e
       0.2313983 0.52132255 0.4801973 0.30195826
000020 97 81 1d 3f 55 dc 66 3f e5 4d d5 3e 61 43 c3 3e
       0.61525863 0.9017995 0.4166099 0.38137344
000030 ab c6 93 3e 54 4b 84 3e b7 c8 ca 3e 46 b7 ad 3e
       0.2886251 0.2583872 0.39606258 0.3392889
000040 2b 17 98 3e 24 a8 35 3f 78 52 0b 3f ee 9a 49 3f
       0.29705176 0.7095969 0.5442271 0.7875203
000050 3f b0 6e 3f eb 66 dc 3e 4b b5 e0 3e 90 0b 05 3f
       0.9323768 0.4304727 0.43888316 0.5197077
000060 74 e8 77 3e 9d 43 38 3f e9 03 cd 3e 43 8f 7b 3e
       0.24209768 0.7197817 0.40042046 0.24566369
000070 e8 68 b4 3e f2 3b e5 3e f1 8d 04 3f b7 e0 39 3f
       0.35236287 0.44772297 0.51779085 0.7260851
000080 dc 5d 42 3f bf 70 b6 3e e0 4b c4 3e af 28 98 3e
       0.7592447 0.35632893 0.38339138 0.2971854
000090 65 b6 bf 3e aa fc d8 3e db 5c 1d 3e 3b c8 2b 3f
       0.37443843 0.42380267 0.15367453 0.671024
0000a0 9e 71 d2 3d 08 01 5d 3e 70 4a 2d 3f 1d 03 68 3e
       0.10275577 0.21582425 0.6769171 0.22657438
0000b0 3f 27 f9 3e 25 bd 51 3f 2a ad 52 3f 2b d7 2d 3f
       0.48662755 0.81929237 0.8229548 0.67906445
0000c0 b5 55 bc 3e b5 59 50 3f 03 55 07 3f d6 77 86 3e
       0.3678414 0.8138688 0.5286409 0.26263303
0000d0 68 ed ce 3e 01 24 f0 3e d1 70 33 3f 29 9c 27 3f
       0.40415502 0.4690247 0.7009402 0.65472656
0000e0 fd f8 19 3f e2 2f 14 3f 1b 9e dc 3e 5a 01 12 3f
       0.6014555 0.57885563 0.43089375 0.5703331
0000f0 38 14 0a 3f 77 0a 28 3e 8d 03 fb 3e 6e 3a 06 3f
       0.539371 0.16410242 0.49026147 0.52432907
000100 b4 3d 8e 3e 57 00 26 3f 2e 48 eb 3e 5f 14 05 3f
       0.2778145 0.6484427 0.45953506 0.5198421
000110 d6 d0 be 3e 22 63 2e 3f c8 c9 67 3f c8 54 0a 3f
       0.37268704 0.68120015 0.9054227 0.54035616
000120 24 16 18 3f 65 38 86 3e 44 32 2c 3f 12 3f f9 3e
       0.59408784 0.262149 0.672642 0.4868093
000130 74 68 2a 3f e4 a6 2a 3f e1 28 cb 3e 69 bb 04 3f
       0.6656563 0.66660905 0.39679626 0.51848465
000140 9f e2 4d 3f 8b 2a 31 3f 43 8c 9d 3e 11 ca 44 3f
       0.8042392 0.6920554 0.30771074 0.7687083
000150 8b 47 6a 3f e5 68 f3 3e 20 d3 93 3e a1 07 12 3f
       0.91515416 0.47540966 0.28872013 0.5704289
000160 e1 10 d5 3e 56 e3 22 3f 35 4c 0b 3e 60 7f 10 3f
       0.4161444 0.6362814 0.1360329 0.5644436
000170 66 2c 19 3f 90 85 f1 3e c0 e7 23 3f 4d 3b 0b 3f
       0.5983337 0.47172213 0.640255 0.5438736
000180 8a f9 ad 3e ff 1f 82 3e 95 a5 b0 3e 8d 11 e2 3e
       0.33979446 0.25415036 0.3450133 0.44154015
000190 bb 29 19 3f 60 4d e0 3e 48 ef ae 3e 85 02 3c 3f
       0.598293 0.43809032 0.34166932 0.73441344
0001a0 22 e2 30 3e 39 56 2e 3f 1e c5 d5 3e 57 5a 36 3f
       0.17273763 0.68100315 0.4175195 0.712316
0001b0 ff c9 46 3f 3d 75 15 3f 64 b2 f7 3e 1b 03 bc 3e
       0.7765197 0.58382016 0.4837829 0.3672112
0001c0 d9 3e 3d 3f 00 ab 1b 3f f1 c6 cb 3e bb be 1e 3f
       0.7392402 0.608078 0.39800218 0.6200978
0001d0 43 8d f9 3e db 70 48 3f 2b 86 3b 3f 15 c0 47 3f
       0.48740587 0.78297204 0.732516 0.7802747
0001e0 f9 e9 67 3e 69 e1 5b 3f 67 f1 17 3f c8 37 32 3f
       0.22647847 0.85890824 0.59352726 0.69616365
0001f0 0d 97 fa 3e 01 f2 5d 3f c4 e9 6e 3f c3 4a 06 3f
       0.48943368 0.86697394 0.9332545 0.5245783

bn2.bias f4 [128]
000000 6c 61 01 bf 4b 61 41 be c0 1a 37 3b 75 b1 d4 3d
       -0.5053928 -0.1888477 0.0027939528 0.1038541
000010 b0 b5 a5 3e 38 9c 30 3e 05 1c bd 3d ee 9d a7 be
       0.3236518 0.17247093 0.0923386 -0.32737678
000020 7e 2a 07 3b b6 7d a8 3d 1d 51 5d 3d eb ad 06 be
       0.0020624693 0.082271025 0.054032434 -0.13152282
000030 96 58 ab 3e 16 23 65 bd 6e a3 85 3e 56 f5 92 3e
       0.33466023 -0.055941664 0.2610125 0.287028
000040 1a 6b 79 be 6b c7 f9 3d da c9 0c bd 9b bd c5 3c
       -0.24357262 0.12196239 -0.03437219 0.024138262
000050 c2 13 cd 3d 96 01 c3 3d f8 60 ef 3c 92 5e cd 3d
       0.10013534 0.09521787 0.029221043 0.100278035
000060 46 f9 cd 3d 56 65 ad 3d 28 8f 82 3e 4f 58 f6 3e
       0.10057311 0.08466594 0.25499845 0.4811425
000070 15 13 2b 3e 82 8d 62 3e b1 05 f4 3d 47 4f d4 3d
       0.16706498 0.22124293 0.11915148 0.103666835
000080 94 ae 7d be 54 85 6d be 01 4a c9 3d a2 c7 ef bd
       -0.24773628 -0.23195392 0.09828568 -0.11707999
000090 c6 51 65 3e 26 51 3c 3e 5b 96 8c 3e b1 21 9c 3e
       0.22394475 0.1839033 0.27458462 0.30494455
0000a0 09 50 02 3f 2b bd 95 3e d5 05 98 bd 5f 7a e1 3e
       0.50903374 0.29245886 -0.07422987 0.44038674
0000b0 e2 6b 79 bd 63 8e 9f 3e da 1f 49 ba e4 05 9e bb
       -0.0608939 0.3116332 -0.0007672288 -0.0048224796
0000c0 d7 d2 13 bd f4 91 56 be 43 df 2d bc eb 37 8e 3d
       -0.036089744 -0.20954114 -0.010612312 0.06944259
0000d0 52 ca 61 3e 90 3a ea bc 0c 0f 71 3e 16 f3 3e bd
       0.22049835 -0.028592378 0.23540896 -0.046618544
0000e0 72 50 af bd d2 1f ed 3d c4 56 17 3e 75 c5 4e 3e
       -0.085602656 0.11578335 0.14779192 0.20192511
0000f0 49 12 83 3d 35 16 c1 bc 8f 38 5f be be e5 46 bd
       0.06399972 -0.02357016 -0.21798919 -0.048558943
000100 4d 2f c1 3e ff 1c 28 3e 09 c0 3d 3c 84 ce 42 bd
       0.377314 0.16417311 0.011581429 -0.04756023
000110 fd 16 8c 3e 31 85 60 bc 22 2d 16 3d 03 d2 3f 3e
       0.2736129 -0.01370363 0.036664136 0.18732457
000120 bd ab 1f 3c 84 39 59 be f2 43 f0 3d 01 70 37 be
       0.009745535 -0.21213347 0.117317095 -0.1791382
000130 74 93 20 be 2f 2a 1b 3e f8 68 70 3c 15 05 30 3e
       -0.15681249 0.1515281 0.014673464 0.17189439
000140 29 98 2b 3e 63 f7 56 be 01 5d c9 3b f1 53 86 3d
       0.16757263 -0.20992808 0.00614512 0.06558979
000150 18 08 d6 bc a0 cd dd bd c0 5b 62 3e 6c a0 6a 3e
       -0.026126906 -0.108302355 0.22105312 0.22912759
000160 59 c9 00 be 51 ea aa bd af 7a a7 3e c9 75 b4 bd
       -0.12576808 -0.083454736 0.32710788 -0.08811528
000170 a3 07 de 3d 85 b4 16 3e 77 3a df 3d a5 d2 5f 3e
       0.108413 0.147173 0.10899823 0.21857698
000180 0a be 51 3e 84 58 e9 bc 87 4e 28 3d 5b bc d8 bd
       0.2048265 -0.02848459 0.041090515 -0.10582801
000190 83 b4 b0 3b 08 ee 9e 3e 33 9a 90 3d 15 55 29 be
       0.0053926124 0.31040978 0.07060661 -0.16536362
0001a0 9e 98 17 3e 96 7d 0a 3e 16 d9 72 3e cb cf cb bc
       0.14804313 0.1352447 0.23715624 -0.024879357
0001b0 25 20 0b 3e a9 be df 3c f8 0d ba bd c2 e1 15 be
       0.13586481 0.027312594 -0.090846956 -0.14636901
0001c0 4c d3 de 3d c4 20 32 3e 53 59 46 3a c7 5b b1 3d
       0.108801454 0.17395312 0.0007566411 0.08660083
0001d0 68 14 35 3e 3d 2e 00 3e 75 75 8d 3d 02 59 a0 3d
       0.17683566 0.12517639 0.06907169 0.07829477
0001e0 43 7b 19 3f 5c 76 88 bd b0 37 1e 3d 12 aa 81 3e
       0.5995371 -0.066632 0.038627326 0.25325066
0001f0 e5 d7 8d 3c 61 bc 72 3d 68 bd 1a be b2 d1 16 be
       0.01731486 0.059261683 -0.15111315 -0.1472843

bn2.running_mean f4 [128]
000000 6e b1 bd 3d fc d6 ce 3c 27 b1 03 3e c8 52 68 3d
       0.09262358 0.025248997 0.12860547 0.05671957
000010 49 e7 ca 3c 46 c9 7e 3d 65 cc a1 3e d4 32 f6 3d
       0.024768488 0.062203668 0.31601253 0.120214134
000020 27 26 e0 3d 0a 4f 99 36 f5 1f ce 3c 7d e2 81 3c
       0.10944777 4.5689567e-06 0.025161723 0.015855068
000030 40 19 12 34 e8 c5 c4 3d 14 69 cf 3d 04 00 00 00
       1.3606495e-07 0.0960806 0.10127464 6e-45
000040 d0 2f 75 3c 77 a8 08 3d 2c 0b 8a 3d f5 5d 2a 3d
       0.014965013 0.033363786 0.06740412 0.04159351
000050 1b c9 a6 38 76 b8 b9 3c e5 1c 20 3c 7b 15 4c 3c
       7.952956e-05 0.022670966 0.009772514 0.012456293
000060 00 5b dd 34 86 52 16 3c 77 16 ca 36 05 53 09 3d
       4.123067e-07 0.009174949 6.0226844e-06 0.03352644
000070 17 f9 ee 3c 3d 7f 74 37 11 39 1b 3d 52 44 b4 3d
       0.02917151 1.4573158e-05 0.03789622 0.088020936
000080 2b 68 d2 3d 2b 05 68 3d 0d 32 f8 36 17 b1 33 3c
       0.10273775 0.056645554 7.3968026e-06 0.0109675145
000090 15 b3 d2 3b 06 50 81 3d 04 00 00 00 c7 16 60 3c
       0.0064300396 0.063140914 6e-45 0.013677306
0000a0 98 e0 dd 3c 71 7f 26 3d ea da ef 3c 2c 59 9f 3c
       0.027084634 0.04064888 0.029279191 0.0194517
0000b0 92 65 0f 37 b0 bc 61 3c 7b 63 80 3e 00 fd 02 3e
       8.547113e-06 0.013777897 0.25075898 0.12791824
0000c0 9f 1b a4 37 e4 49 10 3c 4a 17 fd 3c 39 d5 fc 3d
       1.9563186e-05 0.008806679 0.030894894 0.123453565
0000d0 9e c0 21 3b 4f 0f ae 3d 7b 7b 4a 3e 37 4f 6a 3e
       0.002468146 0.08499014 0.19773667 0.2288178
0000e0 86 27 fc 3d f0 4e 8f 3d b8 58 cf 3c 70 59 70 3c
       0.12312226 0.06997478 0.02531086 0.014669761
0000f0 dc 2e 8a 3e 04 cb 83 39 6f 96 7f 3e 41 1e 7e 3c
       0.26988876 0.00025137526 0.2495973 0.015510143
000100 0a c6 39 3e c4 ce bc 3e 66 18 bf 3c ba de 04 3e
       0.18141952 0.368765 0.023327064 0.12975588
000110 3b 6f 56 3d 39 c1 4a 3d fc 08 8e 3d 3c 8c 86 3e
       0.05235217 0.049500678 0.069353074 0.26278865
000120 d5 2c 82 3c 35 aa d0 3b 7c 4d 59 3e 04 9b 98 3d
       0.015890518 0.0063679465 0.21220964 0.07451442
000130 b7 32 a9 3c a1 d8 69 3e 02 57 31 3c b7 7b 14 3d
       0.020654066 0.22836544 0.010823967 0.036250796
000140 e8 40 5e 3e 57 29 6f 3d 1f a0 8b 3e b9 7c de 3c
       0.21704447 0.058389034 0.272706 0.027159082
000150 23 d2 44 3d f0 e5 a6 3c 9c 7a 0a 3d 68 44 64 38
       0.048051964 0.020373315 0.033808336 5.4423144e-05
000160 e6 e4 19 3e 2f ef ad 3e 35 4a 9a 34 f7 9d 98 3c
       0.15028724 0.33971545 2.8738728e-07 0.018630011
000170 f7 ca f3 38 c1 0c 2e 3e dc 87 0a 3c 25 71 17 3d
       0.00011624948 0.16997053 0.008455243 0.036973137
000180 83 2b b2 37 c0 09 d7 3d ee b9 d6 3d 7f 19 c7 34
       2.1239515e-05 0.104999065 0.10484682 3.708519e-07
000190 f8 e2 98 3e 33 13 14 3d 2a 0d 8f 39 2c cd 58 3d
       0.29860663 0.036151122 0.00027284893 0.052930042
0001a0 69 30 36 36 0d 12 48 3d 98 53 93 3c 69 b1 89 3e
       2.7148292e-06 0.04884534 0.017984197 0.26893166
0001b0 d9 af 3a 3c e8 a4 f4 3c 63 ce 20 3e 82 ae 80 3c
       0.011394464 0.02986379 0.1570373 0.015708212
0001c0 36 60 ed 3d 78 f7 98 37 d1 59 21 3d a7 60 98 3e
       0.115906164 1.8235049e-05 0.039392296 0.2976124
0001d0 43 b5 c8 38 0d 01 2a 3c f6 4f 29 3d 5b c3 9e 3d
       9.570506e-05 0.010376227 0.041336022 0.07752105
0001e0 92 77 eb 3c 41 07 cc 3e a9 78 2b 3e 38 80 eb 3d
       0.028743539 0.39849284 0.16745247 0.11499065
0001f0 5f d8 02 3e c0 78 33 3d a6 47 02 3d 83 42 90 3d
       0.12777852 0.043816328 0.03180661 0.07043936

bn2.running_var f4 [128]
000000 fe 42 21 3c 69 f1 6d 3b c7 f9 19 3c d4 b6 48 3b
       0.009842632 0.0036307222 0.00939793 0.0030626552
000010 09 47 22 3b ec 2c 35 3b a1 61 3c 3c 8e 80 b3 3b
       0.0024761579 0.0027645184 0.011497886 0.0054779714
000020 5c 9d e5 3a 1b 6c 9c 34 5f a8 29 3b ce cf 8b 3a
       0.001751821 2.913592e-07 0.002588771 0.0010666789
000030 b8 9b 6a 31 0a 22 4e 3c 54 90 9e 3b 04 00 00 00
       3.4139997e-09 0.012581358 0.0048389826 6e-45
000040 e9 8f aa 3a 40 00 4c 3b c6 39 29 3c 5e b0 57 3b
       0.0013012859 0.0031128079 0.010328716 0.003291152
000050 05 72 a1 36 3f 11 fa 3a 5f b6 65 39 b3 a9 28 3a
       4.8114475e-06 0.0019078626 0.0002190708 0.00064339786
000060 7d b5 0e 33 73 14 3e 3a 5c 3b 11 35 63 14 26 3b
       3.3227014e-08 0.0007250972 5.410309e-07 0.0025341741
000070 78 26 5a 3b 40 af 30 35 6d da 41 3b 34 c4 20 3c
       0.003328709 6.582013e-07 0.0029579655 0.0098124035
000080 be e9 1f 3c 01 63 7b 3b 28 b2 a0 35 6c bf 70 3a
       0.009760318 0.0038358571 1.1972779e-06 0.00091837975
000090 a8 31 4b 39 fd 10 41 3b 04 00 00 00 51 5a b3 3a
       0.00019378087 0.0029459589 6e-45 0.0013683533
0000a0 80 55 3a 3b b5 31 66 3b f7 12 f1 3a 3d 7d a5 3a
       0.002843231 0.0035124843 0.0018392493 0.0012625825
0000b0 e6 d0 21 35 f0 1f fc 39 b3 84 9d 3c a5 7b 77 3c
       6.028116e-07 0.0004808898 0.019228315 0.015105163
0000c0 16 14 10 36 0d 95 d4 39 db 13 1d 3b 71 ed 7e 3c
       2.1469364e-06 0.00040546843 0.0023968134 0.01555954
0000d0 e8 a7 16 39 d1 7a 41 3c 3f b4 97 3c 56 09 d4 3b
       0.00014367665 0.011809067 0.018518565 0.0064708395
0000e0 eb 55 44 3c ed 06 d6 3b c1 7b 2e 3b fd ff a8 3a
       0.011983375 0.0065315873 0.0026624056 0.0012893673
0000f0 e7 b4 e1 3b 07 6d 6d 37 2b 4f 0c 3d 29 6d 45 3a
       0.0068880203 1.4151686e-05 0.034255188 0.000753122
000100 0b b0 8b 3c 14 71 82 3c f9 11 28 3b 9f 6c a7 3b
       0.017051717 0.01592306 0.0025645478 0.005109384
000110 43 f0 b0 3b 1b 9a 81 3b c6 79 dd 3b 01 8c f5 3b
       0.005399735 0.0039551384 0.0067589013 0.0074934964
000120 03 9c 31 3a 67 39 ec 39 dc bc 07 3d 9f 6b 2c 3c
       0.0006775262 0.00045056196 0.033139095 0.010523706
000130 80 91 89 3a d1 91 c4 3b 9b 1a 04 3a ab d1 21 3b
       0.0010495633 0.005998828 0.0005039365 0.0024691622
000140 29 35 9d 3c d3 82 bc 3b 4e 7a d6 3b b8 64 76 3a
       0.019190388 0.0057529 0.0065453416 0.00093991635
000150 9a 33 ac 3b 7d bc a1 3a 6f bf 65 3b 20 79 af 36
       0.005255175 0.0012339499 0.003505673 5.229507e-06
000160 0a be c3 3c 96 2e c0 3b 9a b8 c5 30 54 73 a6 3a
       0.023894329 0.0058649285 1.4386103e-09 0.0012699165
000170 6e ff f8 35 cf 2e 75 3b 9a 2e 01 3a 4a 77 35 3b
       1.855178e-06 0.0037411933 0.00049279036 0.002768951
000180 f7 73 de 35 d4 3f 23 3c b5 12 82 3c c9 c1 cc 32
       1.6574039e-06 0.009963948 0.01587806 2.3836849e-08
000190 12 59 5f 3c 78 8d 29 3b c6 65 fe 37 cc ba b3 3b
       0.013632076 0.0025871675 3.0326551e-05 0.0054849144
0001a0 05 e8 9d 33 3d 4c 88 3b 83 db ae 3a f0 3b a2 3b
       7.353086e-08 0.004159479 0.0013340566 0.0049509928
0001b0 c8 43 82 3a 3e 81 da 3a 29 d6 92 3c d5 e3 43 3a
       0.0009938413 0.0016670597 0.017924385 0.0007472609
0001c0 ad 8d 99 3b d4 cc 0c 36 52 b3 2b 3b fd 58 13 3c
       0.0046860785 2.0980851e-06 0.0026199413 0.008993384
0001d0 8d fc 17 37 3d df cf 39 f2 f0 1c 3b a8 df 03 3c
       9.059103e-06 0.00039648442 0.0023947326 0.008048929
0001e0 36 31 35 3b c6 4f ef 3b b0 ba 84 3c 8f 49 30 3c
       0.002764774 0.007303211 0.0162023 0.010759725
0001f0 ee 95 61 3c 9d c7 2f 3a 2f 50 be 3a 0c e2 f2 3b
       0.013768656 0.0006705465 0.0014519746 0.007412201

fc2.weight f4 [128, 128]
000000 9a c3 47 3d 98 72 95 3e e9 6b 42 bc 13 bf 4c 3e
       0.048770525 0.2918899 -0.011866548 0.19994764
000010 22 b1 a7 3d 05 48 ff ba c5 c9 33 bd 65 b7 1d 3e
       0.08188082 -0.001947642 -0.043893594 0.1540199
000020 96 04 95 3a 9b 70 85 bc 9a 75 05 bd 87 f5 ab bd
       0.0011369165 -0.016289046 -0.032582857 -0.0839644
000030 4f 0a e9 3c 20 b3 6c 3d b7 b6 fb 3c 35 17 f6 bd
       0.028447298 0.057788014 0.030726774 -0.12016145
000040 ec 19 8b bc f6 bf 64 bc 23 be 5b bc a1 c1 f7 3d
       -0.016980134 -0.013961783 -0.013412031 0.12097479
000050 3a a5 9b 3c 97 58 4a 3c 7a 38 e2 bd 3f 78 b1 bd
       0.018999685 0.012350223 -0.11045928 -0.08665513
000060 16 af a1 3d 7c c8 11 3d a4 33 8b bd 69 67 46 bd
       0.07894723 0.035591587 -0.06796959 -0.048438463
000070 09 e7 37 3b a6 ff 99 bd 8c 90 26 bd 01 0a b2 bd
       0.0028061292 -0.07519464 -0.040665194 -0.08693314
000080 dc d5 45 bd 56 71 25 bd ed 48 7e bd 84 f7 13 3c
       -0.048299655 -0.04039129 -0.062081266 0.00903118
000090 c4 a2 9f bd dd 3e bb bd e8 a3 a7 bd 01 b3 2a 3d
       -0.07794717 -0.091428496 -0.081855595 0.041674618
0000a0 7a c9 84 bd 3d ff 31 bd 8d 38 f7 bd 39 f8 85 bd
       -0.06483741 -0.043456305 -0.12071333 -0.06541485
0000b0 d3 ab b6 3d b1 69 35 3d 79 ce 37 3d bb 33 5f 3d
       0.089194916 0.04429025 0.044874642 0.054492693
0000c0 66 95 e4 bd d1 f4 d7 bd a0 4e 3a bd 50 5e aa bc
       -0.11161308 -0.10544742 -0.04548514 -0.020796925
0000d0 87 37 b0 3c 75 72 06 3d fa 06 60 3d 3b 94 71 bd
       0.021510853 0.032824 0.054694153 -0.058979254
0000e0 c6 22 ae 3d 14 af 7a bd 3e 66 48 bb cc 87 b7 3d
       0.08502726 -0.061202124 -0.003057852 0.08961448
0000f0 d5 c8 86 bd d6 6b 82 bd 47 4b e1 ba 03 8e 94 be
       -0.065812744 -0.06368224 -0.0017188572 -0.29014596
000100 90 04 8c bd a9 e0 0a bd 8f 72 4f 3b b5 44 fa bc
       -0.06836808 -0.03390566 0.0031653976 -0.03055034
000110 6d 11 13 3e 12 15 a9 bd 2f 25 3c 3d 67 af 5b bc
       0.14362116 -0.08255972 0.0459339 -0.013408518
000120 98 88 b9 bd 0e ab 4d 3e 78 d8 31 3d 48 35 00 3e
       -0.09059256 0.20084783 0.04341933 0.12520325
000130 0f 01 76 3d 48 76 fa bb 6e 55 c9 3b f9 bc e1 3d
       0.060059603 -0.0076434948 0.006144217 0.11022372
000140 c2 f3 25 3d f8 61 a3 bc 9b 35 9e bd 68 88 17 bd
       0.04051567 -0.019944176 -0.07725068 -0.03699532
000150 90 02 1d be 72 31 89 bd 85 20 bb bd 29 cb 9e 3d
       -0.15333009 -0.06698884 -0.09137062 0.077535935
000160 50 93 3f 3b 01 eb 91 3d 1a 40 53 bd be 6b 82 bc
       0.0029232092 0.071249016 -0.051574804 -0.015920516
000170 da 02 ba bc 43 4a 6a 3a 04 49 28 3d ab 1d fe 3c
       -0.022706438 0.00089374575 0.041085258 0.031020006
000180 10 a3 23 bd 25 53 86 bd 62 70 18 bd e3 2b 7f bd
       -0.03995043 -0.06558827 -0.03721655 -0.062297713
000190 9d 56 45 3d e3 5d 9c 3b 2c bc 89 3d b3 46 28 3d
       0.048178304 0.0047719344 0.06725344 0.04108305
0001a0 ed ad 5e bd bc a7 04 3d af 03 f9 3c 95 54 03 bd
       -0.054365087 0.032386526 0.030397264 -0.032063086
0001b0 47 09 28 bc 08 5a 8e bd 36 75 11 3d a9 d0 da bd
       -0.010256118 -0.06950766 0.03551217 -0.1068433
0001c0 4f 5a 02 be e3 5c 83 bd 9d cd a6 3d ff 32 98 bd
       -0.12729762 -0.06414201 0.08144686 -0.07431602
0001d0 ec fc c9 bd e5 c2 39 bd 28 3c 90 bd 50 ce dd bb
       -0.09862694 -0.04535188 -0.07042724 -0.006768979
0001e0 ed 45 47 bd da 60 af bd df 95 9c bc 39 0f 4e 3d
       -0.04865067 -0.08563395 -0.019114433 0.050307486
0001f0 2d bf d8 3c e0 63 65 3d 77 2d 72 bd be ed a7 3d
       0.026458347 0.05600345 -0.05912539 0.081996426
000200 fe c4 cc 3d 11 e0 ed 3d da 5b af bc a9 73 dd 3d
       0.09998511 0.11615003 -0.021406103 0.10813076
000210 60 be 89 bd f8 11 b1 3d 23 1a 7e ba 45 74 b3 bd
       -0.06725764 0.086460054 -0.0009693226 -0.08762411
000220 b3 89 cf bc e3 bd 0f bd 27 f5 5f bc 02 45 a5 3d
       -0.025334215 -0.0350932 -0.013669289 0.08069803
000230 4d 0e 14 b9 b5 f5 b2 bd 33 86 a4 bc 60 80 77 be
       -0.00014119707 -0.08738271 -0.020083522 -0.24170065
000240 1c 10 a5 bd e2 ee b9 3d b9 57 92 3d 06 36 a4 3d
       -0.08059713 0.090787664 0.07145638 0.08018117
000250 ac c4 cd 3c a4 d3 a7 bd da 51 34 3e 86 5f b3 3c
       0.025118195 -0.08194664 0.17609349 0.021896135
000260 2b 62 22 3c 59 e6 e8 3d 23 fd 64 bd 41 f7 2f bc
       0.0099111 0.1137206 -0.055905472 -0.010740102
000270 ab 0e be bd 67 9c ed 3c 43 91 cc bc 45 64 20 3b
       -0.092801414 0.029005243 -0.02497161 0.0024473828
000280 d3 7e ff 3c 4c 27 1a 3c 8b ac 3f bd 82 bb f8 3d
       0.031188404 0.009408783 -0.04679541 0.12145139
000290 32 a1 44 3d 1c 7c a2 3d 97 51 90 bc 89 42 51 bd
       0.04800529 0.07933828 -0.01761703 -0.051088843
0002a0 89 e5 fe bd 53 84 82 bc b8 c1 32 bd a3 93 a1 3d
       -0.12446124 -0.015932238 -0.043641776 0.078894876
0002b0 3e 75 19 3d 38 31 8b 3c 57 0f 2a 3d f4 1e 3a bd
       0.037465326 0.016991243 0.041518535 -0.045439675
0002c0 9b d0 33 be 05 91 21 bd 7f c3 7b 3d f0 ac 3d bd
       -0.17560045 -0.039444942 0.061465736 -0.046307504
0002d0 67 b1 2d bd 8a e9 8a 3c 58 ff 1d 3d 53 38 6a bd
       -0.042405512 0.016957063 0.038573593 -0.05718262
0002e0 a2 05 c1 3c 0f 3b 0a be 5b af b8 bb c6 7a 43 bd
       0.023562256 -0.13499092 -0.0056361384 -0.047724508
0002f0 c4 cc 29 bc f9 e8 03 3c d8 57 a2 bd 6d be 87 3b
       -0.010363761 0.0080511505 -0.07926911 0.0041425736
000300 b4 86 03 3e 18 05 8a bd 77 61 4e bc c3 d1 71 bd
       0.12844354 -0.06739253 -0.01259648 -0.059037935
000310 cd c2 21 be 22 15 a0 bc 94 34 9a 3d 19 6e fc bc
       -0.15796967 -0.019541327 0.0752956 -0.030814217
000320 9c fe a3 3c 07 1c 97 3c 90 36 78 bc 4c ae 85 bc
       0.020018868 0.018445982 -0.015149727 -0.016318463
000330 26 05 0a 3d 57 e2 de bc 59 88 2c bd 93 a8 e7 bc
       0.033696316 -0.027207537 -0.04212222 -0.028278625
000340 04 2a 6d 3d a1 99 20 3d a7 22 19 3d d1 83 1c bd
       0.057901397 0.039209012 0.037386563 -0.038211647
000350 a4 19 64 3b 4d dd 03 be 7e ef 89 bd 69 26 66 3c
       0.0034805322 -0.12877388 -0.06735133 0.014047244
000360 d9 6c 46 3d c0 ab 57 3d 30 2f 8f be 8e 6f 73 bd
       0.04844365 0.052654028 -0.2796569 -0.05943256
000370 0a da b0 bc ba 59 85 bd 5b b3 52 bc 32 88 65 bc
       -0.021588344 -0.065112546 -0.0128601445 -0.014009522
000380 14 df be bd 64 b9 84 3d b5 05 a3 bb 56 de af bc
       -0.093198925 0.06480673 -0.0049750456 -0.021468323
000390 26 c0 c8 3c 85 d8 04 be fa 54 cd bb 79 2b f5 3d
       0.024505686 -0.1297322 -0.0062662335 0.119711824
0003a0 07 56 d9 bd 93 42 90 bc e4 90 44 bc b4 7f a4 bd
       -0.106121115 -0.01760987 -0.011997435 -0.0803217
0003b0 0f 6a 5c 3d 2d c8 2c 3d 20 b9 d4 bc 2e 5b e2 3c
       0.053812083 0.04218309 -0.02596718 0.027631368
0003c0 ab aa b8 3d 09 81 13 bc 43 8c 3c 3d 04 f6 bd bc
       0.09016927 -0.009002932 0.0460322 -0.023188598
0003d0 dd 5f 37 3c 6a 0c 16 3d 1e 9a 02 3c bd 5c 1b bd
       0.011192289 0.036632933 0.007971315 -0.03793024
0003e0 98 4c 6e bc 2a 83 0d be 5f 69 44 3d a2 d9 70 bd
       -0.014544629 -0.13819566 0.047952052 -0.0588013
0003f0 d3 ad ae bd bb 34 1a 3e 6e 4d e8 3c 89 1b 28 3d
       -0.08529248 0.15059178 0.028357234 0.041041885

fc2.bias f4 [128]
000000 a7 32 38 3c ef 66 42 bd 9f e6 8c bd 5e 75 37 3d
       0.011242545 -0.047461446 -0.06879925 0.044789664
000010 e0 31 3a be 86 85 38 3d 1d ca 3e 3a 22 10 7b bd
       -0.18183088 0.045049213 0.0007278042 -0.061294682
000020 c9 36 c5 bd d3 e5 3d bd d9 9e 3a 3d 41 fa b0 bd
       -0.0962959 -0.046361756 0.045561645 -0.08641482
000030 69 95 13 be f2 a9 80 3d 6b bf 94 3d 52 9d 6a be
       -0.14412464 0.062824145 0.072630726 -0.22911575
000040 7d f6 5a bc 8a aa e7 bd ba 4a 59 bd d0 2a 4d bd
       -0.013364431 -0.113118246 -0.05304978 -0.050089657
000050 98 20 a5 bd b1 e6 3d be f7 ee e7 bc ae b1 b0 bd
       -0.080628574 -0.18545033 -0.02831219 -0.0862764
000060 e4 1a 0b bd 8d f5 a2 3e 01 c5 3b 3c ba cc 98 bd
       -0.03396119 0.31827965 0.011460544 -0.074609235
000070 f5 ec e1 bb e7 cd 89 bc 69 a9 61 3d 3b 7c 6c bd
       -0.0068947026 -0.016821815 0.055093203 -0.057735663
000080 3b 9d 54 bd d5 27 0f be 6e 43 2c be 5b a6 25 3e
       -0.05190776 -0.13980038 -0.16822597 0.16176741
000090 6d 49 91 3c d6 8e f5 bd 82 5e 9a bd 86 d4 0a 3c
       0.017735207 -0.119901344 -0.07537557 0.008473521
0000a0 99 47 c0 bd 77 28 0c 3e c6 14 c9 3b dd bf 15 3b
       -0.09388656 0.13687311 0.0061365096 0.0022849955
0000b0 7b ca c8 bd b1 71 18 bc d9 9a 1d be 69 50 48 bd
       -0.09804245 -0.00930445 -0.15391101 -0.04890481
0000c0 b1 dd 00 3e c7 57 23 be 0e f3 da bd 5d ec 0e be
       0.12584569 -0.15951453 -0.1069089 -0.13957353
0000d0 c7 e7 5f 3c 90 dd 88 be a2 ad 96 3e 92 08 1c be
       0.0136661 -0.2673154 0.29429346 -0.15237644
0000e0 f9 b6 2a bd 46 df 73 be 2c b1 da bd c8 4a fa 3b
       -0.041678403 -0.23815641 -0.10678324 0.007638309
0000f0 78 19 d8 bc a6 53 5f 3d 8c 95 52 bd 00 56 02 be
       -0.026379332 0.054523133 -0.05141215 -0.12728119
000100 5d f3 4e 39 55 29 c8 bd 2d b2 cc bd 7e ff 3f bd
       0.00019736351 -0.097735085 -0.09994922 -0.046874516
000110 a0 8c 07 bd b0 02 3b bd 3e 2d cb bd 7c 1c e2 bc
       -0.033093095 -0.04565686 -0.09920739 -0.027601473
000120 25 9a d9 bd 19 c5 1e bc ba e3 33 3c a1 7e 2d be
       -0.10625104 -0.009690546 0.010979587 -0.16942836
000130 f6 f2 d8 bd bc d7 d3 bd a5 1a b3 3d 38 49 af bd
       -0.10593216 -0.103438824 0.087453164 -0.08558887
000140 6e 5a 7e bc 7e 12 d8 bd 18 9d 9b bd da b6 39 be
       -0.01552449 -0.10550402 -0.07598323 -0.18136159
000150 1e f0 21 3e 33 7f ca bc 48 8a a7 3b 5b 82 0d 3c
       0.15814254 -0.024718856 0.00511292 0.008637036
000160 ed 33 02 be e5 44 fe 3c 13 2a 18 bd 03 be e7 bb
       -0.1271512 0.03103871 -0.0371495 -0.0070722117
000170 ca e7 2f be 18 13 56 bd 83 bf d9 3c c8 41 5a be
       -0.17178264 -0.052264303 0.026580578 -0.21314156
000180 50 4f 39 bd ea b7 8e bd 14 e5 9e bd c8 9f 38 be
       -0.045241654 -0.069686726 -0.07758537 -0.18029702
000190 d3 c6 a1 3c 15 dc 21 be 63 7f 38 be ac 8d 0b be
       0.019748127 -0.15806611 -0.18017344 -0.13628262
0001a0 3f 42 85 3d 51 38 c0 bc 5a 65 0f bd c7 92 07 bc
       0.06506776 -0.023464354 -0.035008766 -0.008274741
0001b0 f5 40 14 be 1d 5a db bd 87 3e 8a bd a6 a9 15 be
       -0.14477904 -0.10710547 -0.067502074 -0.14615497
0001c0 39 f8 f5 bd a2 83 0f 3d 9f b2 ad bd 29 b8 36 be
       -0.12010235 0.035037644 -0.08481335 -0.17843689
0001d0 b8 89 7a bd c2 96 22 3d cd 87 00 be 92 58 5c be
       -0.061166495 0.039694555 -0.12551804 -0.21518162
0001e0 dc 04 ad bd 48 7d 36 be ed 91 ce ba 15 5b ea bd
       -0.084481925 -0.17821229 -0.0015760042 -0.11443154
0001f0 79 bd 07 3d f7 ec 19 3e 46 00 a8 bd 0b 6d a9 bd
       0.03313968 0.15031801 -0.08203177 -0.082727514

bn3.weight f4 [128]
000000 1c 1a 80 3f 00 15 9d 3f 41 b1 7b 3f 36 39 a6 3f
       1.0007968 1.2272034 0.98317343 1.2986209
000010 64 aa 9e 3f da 4b 47 3f e1 0e 95 3f 7d 6d 35 3f
       1.2395749 0.77850115 1.1645166 0.7087019
000020 62 3c 9b 3f 51 19 3c 3f 14 f5 79 3f f2 1d 5a 3f
       1.2127802 0.7347613 0.97639585 0.8520194
000030 2e 5a a7 3f c0 60 a9 3f c8 19 94 3f 3b 77 2a 3f
       1.3074396 1.3232651 1.1570368 0.6658818
000040 e3 50 5d 3f bd 2c 83 3f d3 93 67 3f ad e4 8a 3f
       0.8645155 1.0248028 0.90459937 1.0851036
000050 3b 1f 07 3f 2a fd 91 3f 2a 6e 78 3f 69 fb 61 3f
       0.5278203 1.1405385 0.97043097 0.88274246
000060 6d 18 8a 3f 6d f2 96 3f 77 14 9f 3f dd 7a 34 3f
       1.0788704 1.1792732 1.242812 0.70499974
000070 de df a6 3f 1b 02 97 3f 05 5c a4 3f ea b3 63 3f
       1.3037069 1.1797518 1.2840582 0.889464
000080 f5 77 28 3f b8 ee 3e 3f 49 f4 9a 3f 1f e4 33 3f
       0.6580804 0.74583006 1.21058 0.7026996
000090 b4 f7 95 3f 14 b9 72 3f bf 0d 86 3f 52 28 76 3f
       1.1716218 0.94813657 1.0472945 0.96155274
0000a0 a1 13 36 3f 66 77 b1 3f 79 2b 1b 3f dc 5b 6c 3f
       0.711237 1.3864563 0.6061321 0.92327666
0000b0 4a 03 a3 3f 7a b3 c2 3f 08 f1 5c 3f 8a ca 6b 3f
       1.2735379 1.5211022 0.86305285 0.92105925
0000c0 77 27 96 3f d5 5b 89 3f 6e e1 75 3f 11 8d 8b 3f
       1.1730794 1.073115 0.96047103 1.0902425
0000d0 6b 89 25 3f 8e e3 87 3f 71 3d 92 3f d2 72 83 3f
       0.6466281 1.0616319 1.1425 1.0269415
0000e0 3f 0f a5 3f 24 b6 98 3f 77 49 84 3f bb 7a 94 3f
       1.2895278 1.1930585 1.033492 1.1599954
0000f0 7d f2 9e 3f 05 33 56 3f 44 a6 8b 3f 73 8e 41 3f
       1.2417752 0.836716 1.0910115 0.75607985
000100 5d 2e 87 3f 4e 88 a5 3f 89 f0 a6 3f e6 0b a7 3f
       1.0561024 1.2932222 1.3042156 1.3050506
000110 fd a6 82 3f 00 da 81 3f 74 b5 7f 3f 82 ec 1c 3f
       1.0207211 1.0144653 0.9988625 0.6129838
000120 c0 49 7d 3f 77 48 d9 3f 67 54 87 3f df 9d a3 3f
       0.9894066 1.697524 1.0572633 1.2782553
000130 35 bd 8b 3f f5 2c 88 3f 6c 2d 72 3f 6c e0 36 3f
       1.0917116 1.063872 0.9460056 0.7143619
000140 82 d1 9c 3f 95 57 71 3f 7e 26 48 3f 86 18 5e 3f
       1.2251437 0.94274265 0.78183734 0.8675617
000150 47 f9 9d 3f 38 ab 5c 3f d9 ca 67 3f a4 40 59 3f
       1.2341698 0.8619876 0.90543896 0.8486426
000160 45 90 5a 3f 44 f1 73 3f f4 e2 77 3f 96 dc 4e 3f
       0.8537639 0.9529002 0.9683068 0.8080534
000170 9e 99 4b 3f 9a 9f 8e 3f d5 66 b2 3f e5 b4 a8 3f
       0.79531276 1.1142457 1.3937632 1.3180205
000180 0d f9 98 3f 77 39 74 3f 96 3a 96 3f 4e 45 6b 3f
       1.1951004 0.95400184 1.1736629 0.91902626
000190 37 f0 a6 3f e0 46 43 3f 93 7a 17 3f 5f c1 89 3f
       1.3042058 0.7628002 0.5917141 1.0762137
0001a0 b0 44 ae 3f 98 36 8b 3f 00 ef a6 3f c5 bb 9f 3f
       1.3614712 1.0876036 1.3041687 1.2479178
0001b0 f4 67 84 3f 73 af 80 3f d7 55 2b 3f d5 02 41 3f
       1.0344224 1.0053543 0.66927856 0.75394946
0001c0 7c a1 5e 3f b2 12 2a 3f 18 f9 3f 3f 8b 0f 6f 3f
       0.86965156 0.66434777 0.7498946 0.9338309
0001d0 ba cb 49 3f 10 48 1b 3f b1 3d 7f 3f ad a8 97 3f
       0.7882649 0.60656834 0.9970351 1.1848351
0001e0 9b b2 88 3f cc ec 5d 3f f7 7a 7d 3f 54 ac 93 3f
       1.0679506 0.8668945 0.99015754 1.1536965
0001f0 36 9e 93 3f b2 3a a0 3f 5c 7d 45 3f f5 51 84 3f
       1.1532657 1.2517912 0.7714441 1.0337511

bn3.bias f4 [128]
000000 94 43 7c 3d d4 70 0f 3e 0a ce ed 3d 77 e2 f5 3b
       0.061587885 0.14007884 0.116115645 0.0075038034
000010 56 f5 e9 bd a9 eb 2e 3c 11 5f 2f 3e 2f 36 cd ba
       -0.11423747 0.010676303 0.17126109 -0.0015656407
000020 b8 c9 3a bd d9 1d e1 3c 26 95 7b 3c 03 f3 d8 ba
       -0.04560253 0.027480053 0.015355384 -0.0016551915
000030 17 bd 34 3e ac fe 35 bd ca 7c 04 be c7 9f 09 bc
       0.17650257 -0.044432327 -0.12938228 -0.00839991
000040 f7 1b 75 bd ce 37 4a 3d 3a 16 92 bd 22 19 39 3e
       -0.059841122 0.049369626 -0.07133146 0.18075994
000050 98 7a 51 3d 3b a8 09 3e 37 92 5f 3d 45 58 47 bc
       0.051142305 0.13443081 0.0545828 -0.012167041
000060 ca 10 dd 3b d4 41 46 3c 6a cd ff bd da e7 7a 3c
       0.006746386 0.012100656 -0.124903515 0.015314067
000070 97 7b bc 3d 48 ec ca 3c 26 d8 37 3c b1 22 9f 3b
       0.092032604 0.02477087 0.011220967 0.0048564305
000080 a3 0e 39 3d e5 33 22 bc 05 81 9c 3c 1e 4a c2 bd
       0.045179974 -0.009900068 0.01910449 -0.09486793
000090 ce b9 58 bb ad 01 c2 3b 91 1f c4 bc e8 be 81 3d
       -0.0033069733 0.00592061 -0.023940833 0.063352406
0000a0 f9 ef b7 3d f9 da 63 bc 1f 6b df 3b 51 66 b8 3c
       0.08981318 -0.013907188 0.0068181898 0.022509726
0000b0 f6 0a 1b 3d 17 90 8a bd 31 de 99 bd 41 12 b7 bc
       0.03785225 -0.06765764 -0.07513083 -0.022347571
0000c0 3f ce 1f 3d ae 30 cd bb e3 38 8b bd 09 3b 9e bc
       0.03901505 -0.0062619066 -0.0679796 -0.01931526
0000d0 9b b4 b1 bd 3a 78 3e 3c 7f 17 31 3d be 0b 80 3c
       -0.08677026 0.011625344 0.0432353 0.0156306
0000e0 e0 2c 97 bd 17 99 e2 bd 3c 4c 81 bc 50 9e 0a 3e
       -0.07381606 -0.11064356 -0.015783422 0.13536954
0000f0 dc 4d 81 bd 43 99 59 3d b2 3b 6d 3c fe 81 aa bb
       -0.063136786 0.053124677 0.0144795645 -0.0052034846
000100 dc b4 2c bd 03 73 02 3e 18 99 b6 3d ac d3 d9 3b
       -0.04216467 0.12739186 0.08915919 0.0066475477
000110 06 9e 14 bd fb 57 08 3e 8f e8 20 3e 17 0b 88 3d
       -0.036283515 0.13314812 0.15713714 0.0664274
000120 4a 54 f4 3c ef d7 fb bd 27 2c 09 bc e8 3f 98 3d
       0.029825348 -0.122970454 -0.008372343 0.07434064
000130 c6 fd 10 bd 3d 01 64 3d 91 a2 0b be 6b fe 09 3c
       -0.035398267 0.055665243 -0.13636233 0.008422474
000140 f7 a1 0e bd f9 7b 80 3b 7b ed 39 3d d9 fe b8 3d
       -0.03482243 0.0039210287 0.045392495 0.09032983
000150 7d 14 09 3d e5 69 26 bd 5e 27 c0 bb be 51 48 3d
       0.033466805 -0.040628333 -0.005864068 0.04890608
000160 97 a3 98 bc e2 01 f6 bc 21 96 b3 3d c0 90 bf 3d
       -0.018632693 -0.030030195 0.08768869 0.09353781
000170 a3 8d a5 bc 6c 27 ab bb 0e 0f a7 3d 31 5b b9 3b
       -0.02020914 -0.0052232053 0.08157168 0.005656623
000180 c7 2f 08 bc 05 a4 d7 bc 95 d3 50 3d 7d ba 70 bd
       -0.008312172 -0.026323328 0.05098303 -0.0587716
000190 70 95 a1 bd 5e ca b5 3d f8 e2 87 bc 4b ca 6d 3c
       -0.07889831 0.08876489 -0.01658772 0.014513562
0001a0 bc 73 a5 3a 54 96 66 bd a6 a8 a9 bd 4e be 99 3d
       0.0012622993 -0.056295708 -0.0828412 0.07507001
0001b0 e3 c3 47 bc 00 f4 d5 3c 17 d4 9e 3c d4 79 8c bc
       -0.012192699 0.026117325 0.019388242 -0.017147936
0001c0 c1 f2 c5 bc 7c c4 d1 3d cb 12 22 3e b8 9b 06 3e
       -0.024163606 0.102425545 0.15827481 0.1314534
0001d0 65 d8 84 bd bc 20 e8 bc 27 57 10 bd c2 e6 9e bd
       -0.064865865 -0.028335921 -0.035239365 -0.07758857
0001e0 f7 42 d5 bd e9 e1 e0 3b 67 66 3e 3e bb 17 c4 3d
       -0.10413163 0.006862868 0.18593751 0.09574839
0001f0 df d2 06 3e 6b 68 23 3e 3a 47 bd 3c 46 1f 94 ba
       0.13166378 0.15957801 0.023105253 -0.0011300824

bn3.running_mean f4 [128]
000000 76 3b 78 3d 55 05 6b 3c 50 ec eb 3c 31 54 37 3e
       0.06060358 0.014344533 0.028799206 0.1790321
000010 cc 03 d3 38 b0 38 3b 3e 25 41 c2 3e 7b ec 3b 3d
       0.00010061971 0.18283343 0.37940326 0.045879822
000020 b0 ad da 3a 9f fb 40 3e d1 69 86 3e e1 27 98 3a
       0.0016683843 0.18845986 0.26252607 0.0011608565
000030 d7 9b 60 3b bf 75 00 3e 54 fd b7 3e 04 00 00 00
       0.0034272575 0.12544917 0.35935462 6e-45
000040 e5 7a 7f 3c be d7 50 3a d1 24 a1 3d 01 00 44 3e
       0.015593265 0.00079667184 0.0786835 0.19140626
000050 34 64 a6 3d d9 80 27 3a 27 5b 04 34 94 81 e1 3b
       0.08124581 0.0006389744 1.2326619e-07 0.006881902
000060 33 c4 30 3d 5d 63 82 3f 7f 78 29 3d 2e ce 61 3d
       0.04315586 1.0186573 0.04137468 0.05512827
000070 70 54 33 3e 44 ab 3c 3e f0 85 54 3e ce 03 b0 3d
       0.17512679 0.18424708 0.20754218 0.08594476
000080 64 e1 bc 3a 54 55 3b 39 e8 38 77 37 ab a7 36 3e
       0.0014410433 0.00017865497 1.4735597e-05 0.17837398
000090 3b 70 12 3c 4a 8b 13 37 39 f0 61 3d 15 2d 44 3e
       0.008937891 8.7943135e-06 0.055160735 0.19157822
0000a0 a8 4e 4d 3b 09 82 3b 3e cf e9 48 37 b1 00 b1 3d
       0.00313274 0.18311323 1.1975367e-05 0.0864271
0000b0 97 80 aa 3b 8b 3c 18 3c dc a5 3d 3b bc 34 9b 3d
       0.0052033174 0.009291778 0.0028937971 0.07578418
0000c0 6b 8b 82 3e d1 45 8c 3b 74 ec 6a 3a 04 00 00 00
       0.25496992 0.0042807837 0.0008961626 6e-45
0000d0 9a e1 f4 3c 04 00 00 00 6f 53 91 3f 04 00 00 00
       0.029892731 6e-45 1.1353587 6e-45
0000e0 9b fc ee 3c a2 9c d9 31 ee 4c 08 3a 83 87 dd 3c
       0.029173186 6.3333383e-09 0.00051994517 0.027042156
0000f0 f4 e3 63 3d 63 4c 0b 3d 10 fa 56 3c e0 16 69 3b
       0.055637315 0.034008395 0.013121143 0.0035566613
000100 41 5f 04 3d 1e b8 a7 3c 97 31 47 39 4d 5d 0e 39
       0.032317404 0.020473536 0.00018996593 0.00013576933
000110 44 96 63 3d 1c 6f 3d 3e 9c ff 77 3a 8e c5 60 3c
       0.055563226 0.18499416 0.0009460391 0.013718976
000120 9a 50 d2 3d 8c e1 2a 3b bf bf 07 3e 68 f7 47 3b
       0.1026928 0.0026074378 0.13256739 0.0030512456
000130 07 79 1f 2c 0f 40 2d 3a 93 77 0d 3f 80 ac 81 3c
       2.2662443e-12 0.0006608972 0.5526058 0.015829325
000140 33 fe 51 3d f1 26 38 39 b5 87 89 3e e8 8d 46 1d
       0.051267814 0.00017562114 0.2686135 2.6278446e-21
000150 fb 89 52 3f d3 68 e0 3d 87 a0 49 3d 29 49 9c 3e
       0.8224179 0.10957494 0.049225356 0.30524567
000160 67 16 e1 39 eb b1 a8 3d dd ef 15 3e ad 55 b2 3d
       0.00042932035 0.0823706 0.14642282 0.087077476
000170 12 40 de 38 7e 69 96 3c df bd 6b 3e e6 d2 79 37
       0.00010597719 0.01836085 0.23021649 1.489066e-05
000180 d3 34 0f 3a 42 8a 98 3e 83 eb 94 3b 7f 52 ea 2e
       0.00054628885 0.29792982 0.0045446767 1.0655742e-10
000190 3a 33 01 3e 04 00 00 00 f4 09 72 0c 44 cd 27 3a
       0.12617198 6e-45 1.8645997e-31 0.00064011314
0001a0 21 d7 01 3e 6d 39 ea 3b 61 47 bb 3d f1 e5 50 3a
       0.12679721 0.007147959 0.09144474 0.0007968834
0001b0 f3 10 71 38 c5 3e 88 3b 67 35 53 3c 5d 25 d5 3c
       5.7474663e-05 0.0041578733 0.01289115 0.026018793
0001c0 a2 61 ff 39 1b 17 0e 3d 5e 04 d1 3a e5 72 62 33
       0.00048710132 0.034690004 0.0015946736 5.272422e-08
0001d0 b3 db 23 3c c8 f7 29 3e 96 1e b5 33 04 00 00 00
       0.010001111 0.16598427 8.434033e-08 6e-45
0001e0 fa 98 10 3c c5 11 6e 3a 4d 63 91 3e 0c 5a 30 39
       0.008825535 0.00090816274 0.28396073 0.00016818213
0001f0 d9 2d 80 3e 0f 28 82 3e e6 03 69 3d a8 18 23 3d
       0.2503498 0.25421187 0.056888483 0.039818436
