mode_weights/agent7_critic_target.pth (torch_old, 93523 bytes, 17 tensors)

bn1.weight f4 [33]
0	0x3efe15c3	0.49625978
1	0x3f44aa5a	0.76822436
2	0x3db533a8	0.08847743
3	0x3e073300	0.13203049
4	0x3e9d6686	0.30742282
5	0x3f2252fb	0.6340787
6	0x3efaed86	0.4900934
7	0x3f657d67	0.89644474
8	0x3ee94812	0.45562798
9	0x3f21ded3	0.6323063
10	0x3eb2a22a	0.34889346
11	0x3ecdade4	0.4017173
12	0x3cb6e480	0.022325754
13	0x3e2ce95c	0.16885895
14	0x3e96788c	0.29388845
15	0x3f04bdd8	0.5185218
16	0x3f329a58	0.6976676
17	0x3f4ccd8c	0.8000114
18	0x3e24e570	0.16103148
19	0x3e908582	0.28226858
20	0x3f2e7de6	0.68160856
21	0x3f6a4a27	0.915194
22	0x3ecb50ae	0.3970999
23	0x3f5fc8ae	0.8741559
24	0x3ed6bcb0	0.41940832
25	0x3f0d8b51	0.55290705
26	0x3f73e6a5	0.9527381
27	0x3d142190	0.03616482
28	0x3e3dad45	0.18523128
29	0x3ebf3090	0.37341738
30	0x3e9c3612	0.30510002
31	0x3f6e9794	0.9320004
32	0x3e3421cc	0.17591017

bn1.bias f4 [33]
0	0x00000000	0.0
1	0x00000000	0.0
2	0x00000000	0.0
3	0x00000000	0.0
4	0x00000000	0.0
5	0x00000000	0.0
6	0x00000000	0.0
7	0x00000000	0.0
8	0x00000000	0.0
9	0x00000000	0.0
10	0x00000000	0.0
11	0x00000000	0.0
12	0x00000000	0.0
13	0x00000000	0.0
14	0x00000000	0.0
15	0x00000000	0.0
16	0x00000000	0.0
17	0x00000000	0.0
18	0x00000000	0.0
19	0x00000000	0.0
20	0x00000000	0.0
21	0x00000000	0.0
22	0x00000000	0.0
23	0x00000000	0.0
24	0x00000000	0.0
25	0x00000000	0.0
26	0x00000000	0.0
27	0x00000000	0.0
28	0x00000000	0.0
29	0x00000000	0.0
30	0x00000000	0.0
31	0x00000000	0.0
32	0x00000000	0.0

bn1.running_mean f4 [33]
0	0x00000000	0.0
1	0x00000000	0.0
2	0x00000000	0.0
3	0x00000000	0.0
4	0x00000000	0.0
5	0x00000000	0.0
6	0x00000000	0.0
7	0x00000000	0.0
8	0x00000000	0.0
9	0x00000000	0.0
10	0x00000000	0.0
11	0x00000000	0.0
12	0x00000000	0.0
13	0x00000000	0.0
14	0x00000000	0.0
15	0x00000000	0.0
16	0x00000000	0.0
17	0x00000000	0.0
18	0x00000000	0.0
19	0x00000000	0.0
20	0x00000000	0.0
21	0x00000000	0.0
22	0x00000000	0.0
23	0x00000000	0.0
24	0x00000000	0.0
25	0x00000000	0.0
26	0x00000000	0.0
27	0x00000000	0.0
28	0x00000000	0.0
29	0x00000000	0.0
30	0x00000000	0.0
31	0x00000000	0.0
32	0x00000000	0.0

bn1.running_var f4 [33]
0	0x3f800000	1.0
1	0x3f800000	1.0
2	0x3f800000	1.0
3	0x3f800000	1.0
4	0x3f800000	1.0
5	0x3f800000	1.0
6	0x3f800000	1.0
7	0x3f800000	1.0
8	0x3f800000	1.0
9	0x3f800000	1.0
10	0x3f800000	1.0
11	0x3f800000	1.0
12	0x3f800000	1.0
13	0x3f800000	1.0
14	0x3f800000	1.0
15	0x3f800000	1.0
16	0x3f800000	1.0
17	0x3f800000	1.0
18	0x3f800000	1.0
19	0x3f800000	1.0
20	0x3f800000	1.0
21	0x3f800000	1.0
22	0x3f800000	1.0
23	0x3f800000	1.0
24	0x3f800000	1.0
25	0x3f800000	1.0
26	0x3f800000	1.0
27	0x3f800000	1.0
28	0x3f800000	1.0
29	0x3f800000	1.0
30	0x3f800000	1.0
31	0x3f800000	1.0
32	0x3f800000	1.0

fcs1.weight f4 [128, 33]
0	0xbac0b50b	-0.0014702393
1	0x3b6d6161	0.0036221372
2	0xb9dbf1e6	-0.00041951163
3	0xbb528698	-0.003212368
4	0x3a7aa921	0.00095619453
5	0x3ab98aa9	0.0014155704
6	0xba9f079d	-0.0012133006
7	0x3b5258ca	0.003209638
8	0x3aaef431	0.0013347921
9	0x39439703	0.00018652905
10	0x3aeedaa5	0.001822312
11	0x3bb8ce9d	0.0056398646
12	0xbba52645	-0.0050399625
13	0x3b99e155	0.004696051
14	0x3b4c6c63	0.0031192533
15	0xbab13602	-0.0013520124
16	0x3afdba4a	0.0019357887
17	0x3b5c8808	0.0033650417
18	0xba2c9a8e	-0.000658431
19	0xba22c8fa	-0.00062097574
20	0x3bc0e2fa	0.0058864327
21	0x3b969464	0.0045953263
22	0x3b9d44e1	0.004799471
23	0xbbf4987c	-0.0074644666
24	0x3b93f059	0.0045147357
25	0xbc1bc714	-0.009507913
26	0x3bbe332e	0.005804441
27	0x3bb0dad9	0.0053971824
28	0xbb8bdbd4	-0.004268149
29	0x80000f8c	-5.577e-42
30	0xbbb0dad9	-0.0053971824
31	0x0000111c	6.138e-42
32	0x3b9bb944	0.00475231
33	0xbc9166c6	-0.017749202
34	0x3cc6ad81	0.024252655
35	0x3c85ef72	0.016349528
36	0xbc847423	-0.01616866
37	0xbd0ed0bb	-0.03486703
38	0x3d2b34b7	0.04179832
39	0xbca7f840	-0.020504117
40	0xbc194a63	-0.009356114
41	0x3d181d0a	0.03713707
42	0xbca29342	-0.019845609
43	0xbc09bd07	-0.008406884
44	0xbc014120	-0.007889062
45	0x3c94dad7	0.018170757
46	0xbd0d26b2	-0.03446073
47	0x3d1c4f2c	0.03816144
48	0x3cdf90c1	0.027290704
49	0x3c0e2cb6	0.008677652
50	0xbc7964e1	-0.015221805
51	0x3c8d6ead	0.017264688
52	0xbc2941f8	-0.01033067
53	0x3cc68501	0.024233343
54	0xbd919ba8	-0.07109767
55	0x3c7eadf4	0.015544403
56	0xbcf6113a	-0.030037511
57	0x3d26fcfd	0.040768612
58	0x3bd6e9ff	0.006558656
59	0x3d4763b5	0.048679072
60	0x3d53d5c6	0.051717542
61	0x3cfbfaa0	0.030759156
62	0x00003b88	2.1356e-41
63	0xbd542ce1	-0.051800612
64	0x80001374	-6.978e-42
65	0x3e300319	0.17188682
66	0xbd571706	-0.05251219
67	0x3b41df42	0.0029582535
68	0x3dfb47e8	0.122695744
69	0xbcfc8217	-0.03082375
70	0xbca61bb6	-0.020276885
71	0xbd007c9f	-0.031368848
72	0x3d0c6332	0.034274288
73	0x3c22c990	0.009935752
74	0xbd000eb2	-0.031264015
75	0xbbde9b27	-0.006793398
76	0xbc1b07a9	-0.009462276
77	0x3c5ed66e	0.013600929
78	0x3c73b42b	0.014874498
79	0x3d066e8b	0.032820266
80	0xbd0f374d	-0.03496485
81	0xbd0de215	-0.034639437
82	0x3b980a69	0.004639913
83	0x3cf58576	0.029970866
84	0x3d133492	0.035938807
85	0xbc6eaf7f	-0.014568209
86	0xbc21abaa	-0.009867588
87	0xbc88601e	-0.016647395
88	0x3addb58a	0.0016915065
89	0x3d0c2d0c	0.034222648
90	0xbce88815	-0.028385201
91	0xbc3805f6	-0.01123189
92	0xbc4512fe	-0.012028454
93	0x3d588e17	0.052869882
94	0xbd110bc3	-0.035411607
95	0x800034d1	-1.8947e-41
96	0xbd58def1	-0.05294699
97	0x00000d34	4.736e-42
98	0x3d93718e	0.07199393
99	0x3dffbbb9	0.12486977
100	0x3d036f25	0.032088418
101	0x3d163bc8	0.036678106
102	0xb9dcc831	-0.00042110824
103	0x3d8542c1	0.06506873
104	0xbd128b54	-0.035777405
105	0x3cf00236	0.02929793
106	0xbd3e37b5	-0.046439845
107	0x3cf3b163	0.02974767
108	0xba072cbe	-0.00051565084
109	0x3ce67d5b	0.028135946
110	0x3d72f8a3	0.05931915
111	0x3d18395c	0.037164077
112	0xbce9a0ed	-0.028519118
113	0xbd132f25	-0.035933632
114	0x3cb44480	0.02200532
115	0xbcf0becf	-0.02938786
116	0xbc958214	-0.018250503
117	0xbcc22853	-0.023700869
118	0x3c957028	0.018241957
119	0x3d0e07c4	0.034675375
120	0x3cd76e56	0.02629773
121	0xbc924dc1	-0.017859342
122	0x3c262cde	0.010142533
123	0xbce84d85	-0.028357277
124	0xba2f642c	-0.0006690647
125	0xbce5e165	-0.028061578
126	0x3c30511b	0.010761525
127	0xbc5b6ea8	-0.013393082
128	0x00003854	2.0207e-41
129	0xbc3cb13b	-0.011516864
130	0x00000cc6	4.582e-42
131	0xbcbc3890	-0.02297619
132	0xbca067ad	-0.019580686
133	0x3d1ae54e	0.03781634
134	0xbbb7a798	-0.0056046955
135	0xbd118512	-0.035527296
136	0x3c19f727	0.009397305
137	0x3d289e61	0.041166667
138	0xbc35a49d	-0.01108661
139	0x3c17c650	0.00926359
140	0x3bdeb14a	0.006796037
141	0xbbe8862c	-0.0070960727
142	0xbc01ecf5	-0.00793003
143	0x3bc36cc4	0.0059638936
144	0x3cadd482	0.021219496
145	0xbb48bc9a	-0.0030629993
146	0x3da4e5fc	0.080516785
147	0xbbad4892	-0.005288192
148	0xbcd8f7aa	-0.026485283
149	0x3c65da17	0.014029047
150	0xbcdb6019	-0.026779221
151	0x3c1b1ebf	0.00946778
152	0x3a308a59	0.00067344826
153	0x3c959c56	0.018263023
154	0x3b07fd25	0.002075025
155	0x3cc27823	0.023738926
156	0x3c556a95	0.013025899
157	0x3accf152	0.0015635884
158	0x3bcc1a81	0.0062287454
159	0x3cb555a2	0.02213556
160	0xbb4360e9	-0.0029812402
161	0x00000b73	4.107e-42
162	0xbcb555a2	-0.02213556
163	0x8000157c	-7.707e-42
164	0xbc844d0c	-0.01615002
165	0xbd2b09c6	-0.041757368
166	0x3d1f5d8c	0.038907573
167	0xbc6f3e2f	-0.014602228
168	0xbcc6e495	-0.024278918
169	0xbbfbd8e8	-0.0076857693
170	0xbbda126d	-0.0066550286
171	0x3cf9e143	0.030502921
172	0xbccb4dee	-0.024817433
173	0xbc66a087	-0.014076359
174	0xbc1c47a0	-0.009538561
175	0xbb96f06e	-0.004606298
176	0x3c15e4a2	0.009148749
177	0xbaacdcc2	-0.001318835
178	0x3d91c56b	0.071177326
179	0xbc84645f	-0.016161142
180	0x3cfd12bb	0.03089272
181	0x3c44bbc5	0.012007658
182	0x3bebacb9	0.007192221
183	0x3b97b554	0.0046297703
184	0xbc153677	-0.009107224
185	0x3bb14850	0.0054102316
186	0x3bcafec6	0.006194922
187	0x3b6f690d	0.003653112
188	0x3d6fe774	0.05857034
189	0xbb8033b6	-0.0039124144
190	0x3d4e4de7	0.050367262
191	0xbc2926a1	-0.010324151
192	0x3d46791e	0.04845535
193	0xbd03c51d	-0.032170404
194	0x000009c5	3.505e-42
195	0xbd6234c0	-0.055226088
196	0x00000b05	3.953e-42
197	0x3e6affe4	0.22949177
198	0xbd36ed5f	-0.04465997
199	0x3c7759c7	0.015097088
200	0x3cb79a28	0.022412375
201	0x3a99cced	0.0011734046
202	0xbc1787e5	-0.009248708
203	0xbb801670	-0.0039089248
204	0x3cde36bc	0.027125709
205	0x3d63729d	0.055529226
206	0x3c3d42e0	0.011551589
207	0xbd1ee61b	-0.038793664
208	0x3cf34aa1	0.029698672
209	0xbccbb978	-0.024868712
210	0xbc654a94	-0.013994832
211	0x3b8cbf44	0.0042952616
212	0xbd19289e	-0.03739225
213	0xbb804cd4	-0.0039154086
214	0x3c7fec2e	0.0156202745
215	0xbc73b111	-0.014873759
216	0x3d301fee	0.0429992
217	0xbcef3a56	-0.029202621
218	0xbc730163	-0.014831874
219	0xbc820bcd	-0.015874768
220	0xbcef68c1	-0.029224755
221	0xbd8791cf	-0.06619608
222	0xbc14f5c9	-0.009091803
223	0xbd233bca	-0.03985194
224	0x3b8ab49a	0.004232955
225	0x3d829720	0.06376481
226	0xbd3a61d1	-0.04550344
227	0x8000159b	-7.75e-42
228	0xbd82837c	-0.06372735
229	0x00000ca8	4.54e-42
230	0x3e6a3f32	0.2287567
231	0x3d053b88	0.032527477
232	0xbc941f92	-0.01808146
233	0xbd9c64cd	-0.07636414
234	0x3c9b6a01	0.018971445
235	0x3d98827d	0.07446764
236	0x3cd41d63	0.025892919
237	0xbc009c9f	-0.007849841
238	0xbc82fd65	-0.015989969
239	0xba326929	-0.0006805831
240	0xbc956cb0	-0.018240303
241	0x3b853365	0.0040649646
242	0xbc57836b	-0.013153891
243	0x3bc7c501	0.0060964827
244	0xbd3a79fc	-0.04552649
245	0x3cc4fbce	0.024045851
246	0x3d715da0	0.05892718
247	0x3b08b26c	0.00208583
248	0xbc99541f	-0.01871687
249	0xbc20a3b7	-0.009804658
250	0xbbf7bbb2	-0.007560217
251	0x3b3cee4c	0.002882856
252	0xbb663230	-0.003512513
253	0xb99a0c9a	-0.00029382558
254	0x3c89b517	0.016809983
255	0x3c50f4ff	0.012753724

fcs1.bias f4 [128]
0	0xbbb0dadb	-0.0053971834
1	0xbd52d55b	-0.051473003
2	0xbd572ee8	-0.052534968
3	0xbc69b42d	-0.014264149
4	0xbcb555a3	-0.022135561
5	0xbd4ea911	-0.050454203
6	0xbd825fe1	-0.06365944
7	0xbd6f397d	-0.058404434
8	0xbda15965	-0.07878379
9	0xbca93b3c	-0.020658128
10	0xbd990d26	-0.07473211
11	0xbd025e3d	-0.031828154
12	0xbbd875a9	-0.006605823
13	0xbd7cb23e	-0.061693422
14	0x3bda00b5	0.0066529163
15	0xbc7b3787	-0.015333063
16	0xbcd969bd	-0.026539678
17	0xbdb201e1	-0.086917646
18	0x3bd547d7	0.006508808
19	0xbb743662	-0.003726386
20	0x3c34a2ab	0.011025111
21	0xbc54e65c	-0.012994375
22	0x3afd37e5	0.0019319026
23	0x3d7fdc64	0.06246604
24	0xbdb95112	-0.09048666
25	0xbc37a55e	-0.01120886
26	0xbd75326a	-0.05986253
27	0xbdb44b1a	-0.08803387
28	0xbd47eb55	-0.048808414
29	0xbd6163fa	-0.055026986
30	0xbd58c052	-0.052917786
31	0xbc91e60f	-0.017809896
32	0x3be7356e	0.00705593
33	0x3afb9320	0.0019193627
34	0xbca167f7	-0.019702895
35	0xbce1903c	-0.027534597
36	0x3c618c46	0.013766354
37	0xbd821d90	-0.06353295
38	0x3c0ecb4d	0.008715463
39	0xbd2b0e00	-0.0417614
40	0xbaf4bbe6	-0.0018671721
41	0xbcf67899	-0.030086802
42	0xbced6238	-0.028977498
43	0xbca8624d	-0.020554686
44	0xbcc07a96	-0.023495954
45	0xbd0a68be	-0.033791296
46	0xbab7464c	-0.0013982742
47	0x39954dd1	0.00028477472
48	0xbd02a14f	-0.031892117
49	0xbc84305d	-0.016136343
50	0xbcd6c49c	-0.026216798
51	0x3b8cf522	0.004301683
52	0xbd29f30f	-0.041491564
53	0xbd8eaca6	-0.06966524
54	0xbd1c7fd6	-0.03820785
55	0xbd4ed2dd	-0.050494064
56	0xbd8109b5	-0.063006796
57	0xbc6d1ad3	-0.014471727
58	0xbd590447	-0.052982595
59	0x3cc8fbf3	0.024534201
60	0xbd264290	-0.040590823
61	0xbd97818f	-0.07397758
62	0xbd2aea37	-0.04172727
63	0xbc875bda	-0.01652329
64	0xbd852e43	-0.06502964
65	0x3cac8153	0.02105776
66	0xbbca922e	-0.0061819768
67	0xbdb31610	-0.087444425
68	0xbd17189e	-0.03688871
69	0xbdb154de	-0.08658765
70	0xbddaa776	-0.10676472
71	0xbd3a53fd	-0.045490254
72	0xbda9ed3b	-0.08297201
73	0xbb970a21	-0.0046093618
74	0xbc44fd69	-0.012023308
75	0xbdb815dc	-0.08988544
76	0xbd6a6a01	-0.05723
77	0xbc541099	-0.01294341
78	0xbd49443c	-0.04913734
79	0xbcd22b97	-0.02565555
80	0xbb8b2425	-0.004246252
81	0xbd5bdc89	-0.053677116
82	0xbc7aeac1	-0.015314759
83	0xbce11fdb	-0.02748101
84	0x3d08a833	0.033363532
85	0xbd1f3810	-0.038871825
86	0xbd99a5c8	-0.075023234
87	0xbdc7d4b5	-0.097573675
88	0xbd5ec014	-0.0543824
89	0xbd6dd068	-0.05806008
90	0xb9c3a879	-0.0003731882
91	0xbca20c24	-0.01978118
92	0x3ce13385	0.027490387
93	0xbc103f01	-0.008804084
94	0xbcdeccdb	-0.027197292
95	0xb9d5f71a	-0.0004081063
96	0xbd8a5115	-0.067537464
97	0xbd92e1df	-0.07171988
98	0xbcead3f4	-0.02866552
99	0xbda9c9e4	-0.08290461
100	0xbdd5ece4	-0.10445574
101	0xbd79d53d	-0.060994375
102	0xbd3112b2	-0.04323072
103	0xbd23850e	-0.039921813
104	0xbae14aea	-0.0017188464
105	0x3d534799	0.051581953
106	0xbbad4ff5	-0.0052890726
107	0xbce93448	-0.028467312
108	0xbc927ab7	-0.01788078
109	0x3b1f1b0b	0.0024277593
110	0xbd89e1a0	-0.06732488
111	0xbced3417	-0.028955502
112	0xbd42e5f3	-0.047582578
113	0x3c873a96	0.016507428
114	0x3bb7ff92	0.005615183
115	0x3b851d55	0.0040623345
116	0xbd261051	-0.040542904
117	0xbda71f67	-0.081602864
118	0x3ce2c503	0.027681833
119	0xbd96091b	-0.073259555
120	0xb8808e44	-6.130015e-05
121	0xbc02f02a	-0.00799183
122	0xbd266b8e	-0.040629916
123	0xbd6c4742	-0.057685144
124	0xbca8cd8d	-0.020605827
125	0xbd782c56	-0.060589157
126	0xbd13e482	-0.036106594
127	0xbd16caa3	-0.036814343

bn2.weight f4 [128]
0	0x3862c018	5.40615e-05
1	0x3dfbec87	0.123009734
2	0x3e101d31	0.14073636
3	0x3e1f6760	0.15566778
4	0x3cae0ce8	0.021246389
5	0x3e3a09b8	0.1816777
6	0x3e80c130	0.2514739
7	0x3e86362b	0.26213202
8	0x3e8d6140	0.27613258
9	0x3e805207	0.25062582
10	0x3e1b516f	0.15167783
11	0x3df20d29	0.11818916
12	0xb982748d	-0.0002488237
13	0x3e08ccc9	0.1335937
14	0x3e1dfc19	0.15428199
15	0x3e3583b8	0.17726028
16	0x3e18702e	0.14886543
17	0x3e5d8a5f	0.21634816
18	0x3dfa35a2	0.12217261
19	0x3f0806a1	0.53135115
20	0x3eae291e	0.34015745
21	0x3e3f4963	0.18680339
22	0x3e4067da	0.18789616
23	0x3e2abd11	0.16673686
24	0xbdcdb536	-0.10044329
25	0x3e0957bd	0.13412376
26	0x3e545fbd	0.20739646
27	0x3d3b0d3c	0.04566692
28	0x3dc6d607	0.09708791
29	0x3d2bb51e	0.041920774
30	0x3e4d76a2	0.20064786
31	0x3ec13376	0.37734574
32	0x3e85c971	0.2613025
33	0x3e4ba410	0.19886804
34	0x3e3a6247	0.18201552
35	0x3e58ffce	0.21191332
36	0x3e3d6d81	0.18498804
37	0x3dca51f9	0.09878916
38	0x3e7b2040	0.24524021
39	0x3e77f8a9	0.2421595
40	0xb51ec160	-5.9140984e-07
41	0x3e0ee313	0.1395381
42	0x3e6d7cb5	0.23192103
43	0x3e32b36b	0.17451255
44	0x3e571be2	0.2100673
45	0x3f11df38	0.5698123
46	0x3eda3485	0.42618194
47	0x3e7d7457	0.24751411
48	0x3de1336d	0.10996137
49	0x3e28e055	0.16491826
50	0x3e02476a	0.12722555
51	0x3e37639c	0.17909092
52	0x3de50064	0.11181715
53	0x3e50488f	0.20340179
54	0x3ea58b98	0.32333064
55	0x3e308674	0.1723879
56	0x3e43fe4d	0.19139977
57	0x3e2f19f3	0.17099743
58	0x3e89689b	0.2683762
59	0x3e43db20	0.19126558
60	0x3e3f219c	0.18665165
61	0x3e3b8069	0.18310703
62	0x3ded430f	0.11585056
63	0x3e8946dc	0.26811874
64	0x3e2d388d	0.16916104
65	0x3eb8521f	0.36000153
66	0x3e593d21	0.21214725
67	0x3e3452d1	0.17609717
68	0x3e254755	0.16140492
69	0x3e80c5e4	0.2515098
70	0x3e40b5d5	0.18819363
71	0x3e58dcd5	0.2117799
72	0x3e3884c1	0.18019392
73	0x3e151f1c	0.14562649
74	0x3e5bd5e2	0.21468309
75	0x3e83ff0c	0.25780523
76	0x3e401734	0.18758851
77	0x3e63db53	0.22251634
78	0x3e29e82c	0.16592473
79	0x3e18e5b1	0.1493137
80	0x3e8b7118	0.2723472
81	0x3dde4ef3	0.10854902
82	0x3e5c276c	0.21499413
83	0x3e7ec0ae	0.24878189
84	0x3ea99c62	0.33127123
85	0x3e991888	0.29901528
86	0x3e078aff	0.13236617
87	0x3e271499	0.16316451
88	0x3dbeb208	0.093113005
89	0x3e935cb6	0.2878167
90	0x37187f2c	9.0895155e-06
91	0x3e2ff4bc	0.17183203
92	0x3e1d0247	0.153329
93	0x3e1485a8	0.14504111
94	0x3eaf3d09	0.34226254
95	0x3e12d8f2	0.1434057
96	0x3e0fd7b2	0.14047125
97	0x3dd5d540	0.10441065
98	0x3e52c6f5	0.20583709
99	0x3e472c60	0.19450521
100	0x3e305504	0.17219931
101	0x3e26571d	0.16244169
102	0x3dab42f6	0.08362381
103	0x3e9c48be	0.30524248
104	0xb59766ea	-1.1280329e-06
105	0x3eb77656	0.3583247
106	0x3e11fd77	0.14256845
107	0x3e50424f	0.20337795
108	0x3e89f6eb	0.26946196
109	0x3e8d0901	0.27545932
110	0x3ea3d450	0.3199792
111	0x3db6ed4e	0.08931981
112	0x3e83f03d	0.25769225
113	0x3e80b192	0.25135475
114	0x3e4a12c1	0.19733717
115	0x3e5db8bd	0.21652503
116	0x3e219d76	0.15782723
117	0x3e7e0e65	0.24810179
118	0x3e785e6a	0.24254766
119	0x3e812004	0.25219738
120	0x3647f373	2.9795017e-06
121	0x3f0758f2	0.52870095
122	0x3e492855	0.19644292
123	0x3e90075c	0.28130615
124	0x3e95e79a	0.2927826
125	0x3e21e452	0.15809754
126	0x3eb72916	0.35773534
127	0x3e0df176	0.13861641

bn2.bias f4 [128]
0	0xb71284d9	-8.733209e-06
1	0xbdb485e7	-0.08814602
2	0x3c1c09b5	0.009523799
3	0x3cb364d3	0.021898663
4	0xbae59ddc	-0.0017518359
5	0xbc108e24	-0.0088229515
6	0x3d7af4f5	0.061268765
7	0x3e0212ff	0.12702559
8	0xbdd40fb6	-0.10354559
9	0x3d8757fa	0.06608577
10	0xbdee3d95	-0.116328396
11	0xbd67739a	-0.05650673
12	0x38b8a708	8.804916e-05
13	0xbda9fec4	-0.08300546
14	0x3cf3e3a2	0.02977163
15	0x3d99195a	0.074755386
16	0x3cf46595	0.029833594
17	0x3ae44753	0.0017416276
18	0x3d909d71	0.070612796
19	0xbdb72d5f	-0.08944201
20	0x3d418ca5	0.04725327
21	0x3db891c7	0.0901218
22	0x3d533af7	0.051569905
23	0xbdca528b	-0.09879025
24	0x3d2e7f72	0.04260201
25	0x3a8aebfa	0.0010598891
26	0xbd8cddaf	-0.0687822
27	0xbdb585df	-0.088634245
28	0x3cc0bb51	0.02352682
29	0xbd1b2e17	-0.03788575
30	0xbd342982	-0.043984897
31	0x3d6c0503	0.057621967
32	0xbce0f691	-0.027461322
33	0x3d87848a	0.06617077
34	0xbd9b4dce	-0.075831994
35	0x3d1a6c32	0.03770084
36	0xbdad9ba1	-0.084769495
37	0x3dd3f95d	0.10350297
38	0xbdab3cdb	-0.08361217
39	0x3d31102e	0.04322832
40	0xb6136c06	-2.1967585e-06
41	0xbc7c52c2	-0.01540059
42	0x3da1a68a	0.07893093
43	0x3d90601e	0.07049583
44	0x3989bc86	0.00026271137
45	0xbdc39ed2	-0.09551777
46	0xbdb763a4	-0.08954552
47	0xbd618a5b	-0.055063587
48	0x3cd92698	0.02650766
49	0xbd23d159	-0.03999457
50	0x3da9928f	0.08279907
51	0x3d4a1f6b	0.04934637
52	0xbc93b331	-0.018029781
53	0xbda61601	-0.08109666
54	0x3beb5ca6	0.0071826754
55	0xbd448021	-0.047973756
56	0xbd2e0196	-0.04248198
57	0xbdd65a66	-0.10466461
58	0xbd722de1	-0.059125785
59	0xbd12128a	-0.03566221
60	0xbd6bea2b	-0.057596367
61	0x3db35e92	0.08758272
62	0xbd202d41	-0.039105657
63	0x3e1e3e9d	0.15453573
64	0xbdaa6cfe	-0.0832157
65	0xbdca5b0c	-0.09880647
66	0x3c7ad504	0.015309576
67	0xbd9c5aeb	-0.07634529
68	0x3cff0784	0.031131513
69	0xbd81b06e	-0.063324794
70	0xbd74c68f	-0.059759673
71	0xbd095bda	-0.033534862
72	0x3d2c8e91	0.04212815
73	0xbd883d8a	-0.06652363
74	0xbd97a807	-0.074050955
75	0xbd6e0d56	-0.058118187
76	0xbb80a8df	-0.003926381
77	0x3ddd0d40	0.10793543
78	0xbd9146d5	-0.07093588
79	0xbd04ed1f	-0.0324527
80	0x3dbdd507	0.09269147
81	0xbddec4b5	-0.10877363
82	0xbdae20ac	-0.085023254
83	0xbb0217b1	-0.0019850547
84	0xbd228f1e	-0.03968727
85	0xbd835ddb	-0.06414386
86	0x3d4178f6	0.047234498
87	0xbd7717d9	-0.060325477
88	0x3c538e7b	0.012912388
89	0x3d794ca9	0.060864124
90	0xb7955cef	-1.780546e-05
91	0xbdca3fd6	-0.09875457
92	0xbdde6d72	-0.10860719
93	0x3d468b2b	0.048472565
94	0xbc80f4b4	-0.015741684
95	0xbc881f9e	-0.016616639
96	0x3dcbf9f0	0.09959781
97	0xbd9e6699	-0.07734413
98	0xbd57e8fc	-0.052712426
99	0xbd92d6ec	-0.07169899
100	0xbd9342a5	-0.07190446
101	0xbdb91263	-0.0903671
102	0x3d9a376f	0.07530104
103	0xbe058fa7	-0.1304308
104	0x3746c0f5	1.1846646e-05
105	0x3df1d612	0.11808409
106	0xbb204f08	-0.0024461169
107	0xbd558165	-0.052125353
108	0xbd522ed3	-0.051314186
109	0x3caa6a3d	0.020802611
110	0xbe016338	-0.12635505
111	0xbd0700ea	-0.032959856
112	0x3e038484	0.1284352
113	0xbd2027e5	-0.039100546
114	0xbcd5d97b	-0.02610468
115	0x3b619d7f	0.003442615
116	0xbd960c80	-0.07326603
117	0x3a2de87c	0.0006634069
118	0xbb4113b0	-0.0029461198
119	0x3bff2d6a	0.007787396
120	0x3688dca5	4.0788022e-06
121	0xbd1e699b	-0.038674932
122	0xbe070159	-0.13184108
123	0x3d8810e4	0.06643847
124	0xbd8bf650	-0.0683409
125	0xbd825920	-0.063646555
126	0xbd015502	-0.03157521
127	0x3d36dfbd	0.044646967

bn2.running_mean f4 [128]
0	0x3c8f20b8	0.017471656
1	0x3ca1050a	0.019655723
2	0x3c5ce44d	0.0134821655
3	0x3dd05c2e	0.10173832
4	0x39c68145	0.00037861816
5	0x3cf77c3f	0.030210612
6	0x3d9d9a83	0.076954864
7	0x3d35674e	0.044287972
8	0x3c8b5d35	0.017012218
9	0x3de58564	0.11207083
10	0x3be482c7	0.0069735977
11	0x3a059284	0.000509538
12	0x3903a013	0.00012552766
13	0x3c2846a4	0.010270748
14	0x3d6ecc9e	0.058300607
15	0x3d9e3487	0.077248625
16	0x3e5e05a7	0.21681844
17	0x3d0b0157	0.033936825
18	0x3d37e20a	0.044893302
19	0x3da14253	0.078739785
20	0x3ebafd99	0.36521605
21	0x3e149ceb	0.14512984
22	0x3dd629bd	0.1045718
23	0x3c74ffb5	0.014953543
24	0x3bcd228b	0.0062602214
25	0x3cdfba2d	0.027310455
26	0x3c4bc76b	0.012437682
27	0x39628c76	0.00021605365
28	0x3d62f45d	0.055408824
29	0x395226fb	0.00020041682
30	0x3d0818a8	0.03322664
31	0x3e319b34	0.17344362
32	0x3db4381a	0.08799763
33	0x3db1ff9f	0.08691334
34	0x3e83f459	0.2577236
35	0x3d02e2f9	0.03195474
36	0x3d091aa6	0.03347268
37	0x3dcd27dc	0.10017368
38	0x3d292fc6	0.041305326
39	0x3e014a4b	0.12625997
40	0x3b158f39	0.0022820963
41	0x3ce4f5f5	0.027949313
42	0x3e54942f	0.20759653
43	0x3d03f3dd	0.032214988
44	0x3bd3ae0b	0.0064599565
45	0x3d683e69	0.056700144
46	0x3cf7a7c7	0.03023137
47	0x3e4f3c98	0.20237958
48	0x3df73d69	0.1207226
49	0x3d4fa9dc	0.0506991
50	0x3e7bd5ce	0.24593279
51	0x3debd1da	0.115146354
52	0x3d2c6313	0.042086672
53	0x3e108acd	0.14115448
54	0x3d630806	0.055427574
55	0x3ddb1960	0.10698199
56	0x3d48c6a7	0.049017575
57	0x3c036e93	0.008021968
58	0x3d8a2e5e	0.06747125
59	0x3e0ac3f7	0.13551317
60	0x398ef1cf	0.00027264512
61	0x3d75a4b5	0.05997153
62	0x3ccb254f	0.024798064
63	0x3db144bf	0.086556904
64	0x3d81b090	0.06332505
65	0x3d1c17d3	0.038108658
66	0x3dc18f46	0.09451155
67	0x3bdce7d4	0.0067415033
68	0x3d88eff6	0.06686394
69	0x3e02cc6c	0.12773293
70	0x391eb5c3	0.00015135766
71	0x3d8269db	0.063678466
72	0x3cbad815	0.022808114
73	0x3c718365	0.0147408
74	0x3d9232c9	0.07138593
75	0x3c21b8e6	0.009870743
76	0x3d1aa23b	0.03775237
77	0x3e015fd3	0.1263421
78	0x3c6e5697	0.014547012
79	0x3dae449b	0.08509179
80	0x3dd4fe0e	0.104000196
81	0x3abe1097	0.0014500794
82	0x3c9785cf	0.018496422
83	0x3e02453c	0.12721723
84	0x3e837c12	0.25680596
85	0x3dca682c	0.098831505
86	0x3d0c67d4	0.034278706
87	0x3d3f101d	0.046646226
88	0x3d33f3c8	0.04393366
89	0x3d655402	0.05598832
90	0x3c81317f	0.015770672
91	0x3de48aad	0.11159263
92	0x3d9a27a1	0.0752709
93	0x3daa98cc	0.08329925
94	0x3e2b2a83	0.16715436
95	0x3e04ab25	0.12955911
96	0x3dc1ff1c	0.094724864
97	0x3c34ce67	0.011035538
98	0x3d6a3a7e	0.05718469
99	0x3c8f337c	0.017480604
100	0x39f74136	0.00047160097
101	0x3ca207a8	0.019779041
102	0x3cc076f2	0.023494218
103	0x3ea03c95	0.3129622
104	0x3be398f9	0.006945726
105	0x3e5959bb	0.21225636
106	0x3e9a044d	0.30081406
107	0x3d0e375b	0.03472076
108	0x3e8828ea	0.26593715
109	0x3e06a3f3	0.13148479
110	0x3d96d773	0.073653124
111	0x3cb2e5cb	0.02183809
112	0x3df22821	0.1182406
113	0x3e0cd32a	0.13752428
114	0x3db1af46	0.08676009
115	0x3e7e3f01	0.24828722
116	0x3c938fee	0.018012967
117	0x39eeecf9	0.00045571456
118	0x3e6ce968	0.23135912
119	0x3d7dcca2	0.06196273
120	0x3c94de47	0.018172396
121	0x3dec3dce	0.11535226
122	0x3d8f6127	0.07000952
123	0x3e150db7	0.14556013
124	0x3d14db04	0.036341682
125	0x3c92c2dd	0.017915184
126	0x3db1b252	0.0867659
127	0x3e1a37a3	0.15060286

bn2.running_var f4 [128]
0	0x3aa22207	0.001236976
1	0x3b60d71e	0.0034307907
2	0x3b095a58	0.002095839
3	0x3c9e81d9	0.019349026
4	0x38a3dcd9	7.813582e-05
5	0x3bb51c53	0.005527058
6	0x3cde3b19	0.02712779
7	0x3c104c38	0.0088072345
8	0x3b15b207	0.0022841708
9	0x3cea7d91	0.028624328
10	0x3a410ca4	0.00073642493
11	0x38b8cfe9	8.81253e-05
12	0x363cdc36	2.8142363e-06
13	0x3a5c157d	0.0008395536
14	0x3c1bd167	0.009510375
15	0x3c3b16e2	0.01141903
16	0x3dbddc3a	0.092705205
17	0x3be1f8a8	0.006896097
18	0x3c16fb34	0.009215165
19	0x3c0f915b	0.008762683
20	0x3d4efe25	0.05053534
21	0x3d44d2a2	0.048052438
22	0x3caf8d05	0.021429548
23	0x3b5bfed0	0.0033568628
24	0x3a54c42d	0.00081163907
25	0x3bde3f65	0.0067824596
26	0x3ac7a503	0.0015231672
27	0x38064b53	3.201824e-05
28	0x3c0a1381	0.008427502
29	0x37d2eab5	2.5143245e-05
30	0x3c0c8472	0.008576499
31	0x3cf91b47	0.030408515
32	0x3cba94c2	0.022776011
33	0x3c6bfb0f	0.014403119
34	0x3d029256	0.031877838
35	0x3b8067ee	0.0039186394
36	0x3b2d75f2	0.0026468006
37	0x3cf3600c	0.029708885
38	0x3b8827aa	0.004155119
39	0x3d107d90	0.035275996
40	0x37c116d1	2.3018018e-05
41	0x3b5df076	0.003386525
42	0x3d6695a5	0.056295056
43	0x3bccf775	0.006255085
44	0x39e72c87	0.0004409293
45	0x3c073267	0.008251763
46	0x3b85c482	0.0040822634
47	0x3d978d18	0.07399958
48	0x3cf28c89	0.029608028
49	0x3c719576	0.014745107
50	0x3d2cdb83	0.04220153
51	0x3c9bc060	0.01901263
52	0x3c3b6637	0.011437944
53	0x3d8241a5	0.06360177
54	0x3c31a71d	0.010843066
55	0x3d29b4b1	0.041432086
56	0x3c630ce3	0.013858053
57	0x3a327089	0.000680693
58	0x3c59872c	0.013276856
59	0x3d1c74a6	0.038197182
60	0x38745f37	5.826281e-05
61	0x3c8da66e	0.017291274
62	0x3bf7c59a	0.0075613977
63	0x3ca1eb61	0.019765558
64	0x3c467667	0.01211319
65	0x3bab8ea4	0.00523551
66	0x3cea158e	0.028574731
67	0x3a837b54	0.0010031261
68	0x3c8d4f33	0.01724968
69	0x3d427eff	0.047484394
70	0x3834288d	4.295311e-05
71	0x3c41dd0b	0.011832486
72	0x3bd1809e	0.006393506
73	0x3a68cc19	0.00088805106
74	0x3c4f3810	0.012647644
75	0x3a74e6fd	0.0009342281
76	0x3c0aa8dc	0.008463111
77	0x3d81e386	0.06342225
78	0x3ad2125a	0.0016027198
79	0x3ce5490b	0.027988931
80	0x3d04c2d8	0.03241238
81	0x39c8ca40	0.0003829766
82	0x3aaf1d6b	0.0013360208
83	0x3d15e8a9	0.036598835
84	0x3d56ab72	0.052409597
85	0x3c9ffc14	0.01952938
86	0x3ba67ab6	0.0050805463
87	0x3c2e58af	0.010641261
88	0x3c3d35b3	0.011548447
89	0x3c102a0a	0.008799085
90	0x39de1499	0.00042358486
91	0x3cbce855	0.023060003
92	0x3c9235e4	0.017847963
93	0x3c4dded3	0.012565332
94	0x3d2df452	0.04246933
95	0x3d15b6bb	0.03655122
96	0x3cc17bd9	0.023618625
97	0x3a89ac98	0.0010503707
98	0x3c09497e	0.008379338
99	0x3b1972c3	0.002341435
100	0x38c4e737	9.3890754e-05
101	0x3b1c809f	0.0023880375
102	0x3bec91d5	0.007219533
103	0x3db7db90	0.08977425
104	0x3939bc34	0.00017713086
105	0x3d30df12	0.043181486
106	0x3d2fd7b1	0.04293031
107	0x3c0f88ee	0.008760674
108	0x3df60862	0.12013318
109	0x3ccc77f0	0.024959534
110	0x3c7beed2	0.015376763
111	0x3b8f75b1	0.0043780436
112	0x3cfd890d	0.03094914
113	0x3d05636b	0.032565515
114	0x3c6f4768	0.014604427
115	0x3dd1378e	0.10215674
116	0x3aee47b3	0.0018179327
117	0x38c0cd4c	9.193513e-05
118	0x3d83f445	0.06443075
119	0x3c60a99b	0.013712312
120	0x3a0f5984	0.0005468356
121	0x3cc36f92	0.023856912
122	0x3c62408e	0.013809336
123	0x3d30246d	0.04300349
124	0x3ba6fe2d	0.005096218
125	0x3b829470	0.0039849803
126	0x3c8c6170	0.017136306
127	0x3ce95106	0.028481018

fc2.weight f4 [128, 132]
0	0x39fc3da7	0.0004811112
1	0xbd937971	-0.072008975
2	0xbcca2726	-0.02467687
3	0x3b9565d6	0.004559259
4	0xbc1bb244	-0.009502951
5	0xbcadec13	-0.021230733
6	0x3c9d8012	0.019226108
7	0x3dc6ecd3	0.097131394
8	0xbd58e4e6	-0.05295267
9	0x3a10539a	0.00055056217
10	0xbd89d24b	-0.06729563
11	0xbcf315d2	-0.02967349
12	0x3ac8e7b9	0.0015327848
13	0xbde250bf	-0.11050557
14	0xbc7274c3	-0.014798346
15	0x3c4a4651	0.012345866
16	0xbc1132f3	-0.008862245
17	0x3c998048	0.018737927
18	0x3ac68a1b	0.001514736
19	0xbd7eb71e	-0.062186353
20	0xbc264086	-0.0101472195
21	0x3d107e20	0.035276532
22	0x3c6b54a8	0.014363445
23	0xbcccce66	-0.025000762
24	0x3c8abc8e	0.016935613
25	0x3b19cbc1	0.0023467394
26	0x3b39879d	0.0028309592
27	0xbdcb2158	-0.09918469
28	0x3b2ad4e1	0.0026066827
29	0xbd2bb0da	-0.041916706
30	0x3a8ac731	0.0010587928
31	0x3c09b239	0.008404308
32	0xbca299da	-0.019848753
33	0x3cc60c52	0.024175797
34	0xbda7ebd9	-0.08199281
35	0x3c20d7a2	0.009817036
36	0xbd424376	-0.047427617
37	0x3d31451b	0.043278795
38	0xbd49d831	-0.04927844
39	0xbc2f55dd	-0.010701624
40	0xb8b9ea73	-8.865157e-05
41	0x3a98e5d3	0.0011665173
42	0xbd15440e	-0.036441855
43	0x3ca9ea8a	0.02074172
44	0x3c3c2e30	0.011485621
45	0xbd89253f	-0.06696557
46	0xbc9e751b	-0.01934295
47	0xbd17240a	-0.036899604
48	0x3c2f4925	0.010698591
49	0xbbb9f1b4	-0.005674565
50	0x3d54a4e4	0.051915064
51	0x3ba72713	0.0051010936
52	0x3c24a10f	0.010048165
53	0xbd3ca121	-0.046052102
54	0xbd0e6b19	-0.034770105
55	0xbcf90cd6	-0.030401628
56	0xbd2dfd80	-0.042478085
57	0xbcd7b74b	-0.026332518
58	0xbce6ae26	-0.028159212
59	0xbd0d7e37	-0.034544196
60	0xbd062113	-0.032746386
61	0x3d2b24a2	0.041782983
62	0xbc4a2456	-0.012337765
63	0x3d54e737	0.051978316
64	0xbc8eeba7	-0.017446352
65	0xbd9ef9a4	-0.07762459
66	0xbbbbeb74	-0.0057348553
67	0xbd33873d	-0.043830145
68	0xbd0046c2	-0.03131748
69	0xbd333dbc	-0.043760046
70	0xbd8067cc	-0.06269798
71	0xbd2311da	-0.039811946
72	0x3c74145b	0.014897431
73	0xbd8884ac	-0.0666593
74	0xbc19e169	-0.009392121
75	0xbd2b4dc1	-0.0418222
76	0xbc23bb3c	-0.009993371
77	0x3cdd6a9c	0.027028374
78	0xbc1ba46e	-0.009499652
79	0xbbea77dc	-0.0071554016
80	0x3d58ef39	0.052962516
81	0xbc77c037	-0.015121511
82	0xbcbd4c5b	-0.023107698
83	0x3c937ecf	0.018004803
84	0x3c8092f8	0.01569508
85	0xbca1db5b	-0.019757917
86	0x3c8f307d	0.017479176
87	0xbc5f89b7	-0.013643674
88	0x3d1cf4a5	0.03831925
89	0xbccb2e30	-0.024802297
90	0xb9aa166f	-0.0003244164
91	0xbd7d1018	-0.061782926
92	0xbd9cab77	-0.07649892
93	0x3c08d208	0.008350857
94	0xbb1c99ab	-0.0023895304
95	0xbd18b4fc	-0.037281975
96	0x3d88e003	0.06683352
97	0xbda6b0da	-0.081392005
98	0xbd8b000e	-0.0678712
99	0xbc862b31	-0.016378017
100	0xbc32782d	-0.01089291
101	0xbdd97469	-0.106179066
102	0x3c3bcabb	0.011461909
103	0xbcd44b6a	-0.025914866
104	0x39959bf1	0.0002853568
105	0x3ce0cf84	0.027442701
106	0x3ca9fcfe	0.020750519
107	0xbae7231a	-0.0017634362
108	0xbd4fe51e	-0.050755613
109	0x3d16fda6	0.03686299
110	0xbdd05e89	-0.10174281
111	0xbd1e9b4d	-0.038722325
112	0x3d7a3a70	0.061090887
113	0x3c91696d	0.017750466
114	0xbc8b1e7b	-0.016982308
115	0x3c686626	0.01418451
116	0xbd0a9b08	-0.033839256
117	0x3ca1c12c	0.019745432
118	0xbbf33140	-0.0074216425
119	0xbd18a1f4	-0.037263826
120	0x38bcdc62	9.005588e-05
121	0xbcd4d35e	-0.025979694
122	0xbcfd476b	-0.030917844
123	0x3c686391	0.014183895
124	0xbca4e58f	-0.020128993
125	0xbcc47989	-0.023983734
126	0xbc868e99	-0.016425418
127	0xbc088f7f	-0.008334993
128	0xbc2eecee	-0.010676606
129	0x3c46dcfe	0.01213765
130	0xbd15d420	-0.03657925
131	0xb8a5e881	-7.91112e-05
132	0xba351cde	-0.00069089036
133	0xbd01de15	-0.031705935
134	0x3d06a236	0.03286954
135	0x3c91b843	0.017788058
136	0xb979812d	-0.00023794612
137	0x3ce203ff	0.027589796
138	0x3d518ac4	0.051157728
139	0xbbd76a61	-0.0065739607
140	0xbd0db444	-0.034595743
141	0xbadbee24	-0.0016779345
142	0xbd341fd7	-0.043975677
143	0x3c67f1d2	0.014156776
144	0xbaa2abee	-0.0012410858
145	0xbe252aba	-0.1612958
146	0xbd142324	-0.036166325
147	0x3db47eb8	0.08813232
148	0x3c48abb6	0.01224797
149	0x3d9b890a	0.075944975
150	0x3bef1229	0.007295866
151	0x3cd30ce5	0.025762985
152	0x3c3864d6	0.01125451
153	0x3d662673	0.05618901
154	0xbc5704d6	-0.013123712
155	0xbc69a418	-0.014260314
156	0x3be4eca1	0.006986216
157	0x3b6b34d6	0.0035889647
158	0xbd843457	-0.064552955
159	0xbd2bd1f3	-0.04194827
160	0x3b8e5652	0.0043437863
161	0x3bf432f6	0.007452364
162	0x3cc5f56c	0.024164878
163	0x3d03510c	0.032059714
164	0x3cb43c92	0.022001538
165	0x3d08413a	0.03326533
166	0xbde1677c	-0.11006066
167	0x3c1907b0	0.009340212
168	0xbd5ef9ca	-0.054437436
169	0x3c98307f	0.018577812
170	0x3ad751ed	0.0016427614
171	0xbd32365e	-0.04350888
172	0xba0a24bd	-0.00052697567
173	0xbd41ef8d	-0.047347594
174	0xbcd7c65b	-0.0263397
175	0x3cd6f6cd	0.02624073
176	0xbd18213e	-0.037141077
177	0xbd80d32b	-0.06290277
178	0xbd83fe8a	-0.06445034
179	0xbc3c0ddb	-0.011477913
180	0x3d28fbd8	0.041255802
181	0xbcb4ed44	-0.022085793
182	0xbd321f91	-0.043487135
183	0x3c1f7885	0.009733324
184	0xbd5980f4	-0.053101495
185	0xbcb18448	-0.021669522
186	0x3d01ecbd	0.03171991
187	0x3d6398b6	0.05556556
188	0xbc59a4ad	-0.013283891
189	0x3b1fa9d9	0.0024362712
190	0x3d1760ee	0.036957674
191	0xbc2b5c0b	-0.0104589565
192	0xbb4ad302	-0.0030948524
193	0x3d4b7f2b	0.049681824
194	0xbc9c40d6	-0.019073885
195	0xbcd8a86a	-0.026447494
196	0xbcb2d057	-0.02182786
197	0xbc5c4d0a	-0.013446102
198	0xbc098c27	-0.008395231
199	0xbd0ce7ac	-0.034400627
200	0xbd18b38c	-0.037280604
201	0xbadb802b	-0.0016746571
202	0xbc686e40	-0.014186442
203	0xbc9f6522	-0.019457404
204	0x3c7f5db3	0.0155863045
205	0xbd8c27cb	-0.068435274
206	0xbd22494f	-0.039620694
207	0x3b9baf8d	0.004751152
208	0xbcdbcf89	-0.026832359
209	0x3d267ca8	0.040646225
210	0xbc9684a7	-0.0183738
211	0xbcadd1ce	-0.021218207
212	0x3c718c72	0.014742957
213	0x3cea9afb	0.028638354
214	0xbb7710e4	-0.0037699277
215	0x3d27d876	0.040977918
216	0x3c5d15c4	0.013493959
217	0xbda31ae9	-0.07964117
218	0x3c859eec	0.016311131
219	0xbc8d9383	-0.017282253
220	0xbcd13463	-0.025537675
221	0xbd3f5e6c	-0.046720907
222	0xb9940c34	-0.00028237852
223	0xbc216e5a	-0.00985297
224	0x3be72962	0.0070544938
225	0xbd20c161	-0.03924692
226	0xbcb69bc1	-0.022291066
227	0xbac35959	-0.0014903947
228	0x3d16232b	0.036654633
229	0x3ca07fbd	0.01959216
230	0xbd0ffa07	-0.035150554
231	0xbd070b83	-0.032969963
232	0xbcd993c1	-0.026559712
233	0xbd5395d1	-0.051656548
234	0xbbdcc1db	-0.0067369766
235	0xbd0cceec	-0.034377024
236	0x3a040cee	0.0005037327
237	0x3cb78cd1	0.022406014
238	0x3cdd7087	0.027031196
239	0xbc52d764	-0.012868736
240	0x3b4ee004	0.003156663
241	0x3ce0ac52	0.027425919
242	0xbd81bc45	-0.06334738
243	0xbcfa67da	-0.030567098
244	0x3af52ba5	0.0018705024
245	0xbd0a1f58	-0.033721298
246	0x3ca37338	0.019952402
247	0x3c9ec023	0.019378727
248	0xbca5bb42	-0.020230893
249	0xbd191698	-0.037375063
250	0x3d236df1	0.03989977
251	0xbc47cb6b	-0.012194495
252	0xb93ffe38	-0.00018309883
253	0xbd091799	-0.03346977
254	0xbd5e1a78	-0.05422446
255	0x3d187bc7	0.03722742

fc2.bias f4 [128]
0	0x3d6bf1b9	0.05760357
1	0x3b6b1c4e	0.0035875025
2	0xbcc479ee	-0.023983922
3	0xbd7a472e	-0.06110304
4	0xbdb2af6d	-0.08724866
5	0xbd3ef81c	-0.046623334
6	0x3d1fbdf4	0.038999513
7	0xbc923c9a	-0.017851163
8	0x3dc70513	0.09717765
9	0x3c3ea397	0.011635683
10	0xbd915431	-0.07096136
11	0xbdc9a3cc	-0.09845695
12	0xbd5af4ea	-0.053456225
13	0xbc18a333	-0.0093162535
14	0xbd922552	-0.071360245
15	0x3d80f900	0.06297493
16	0xbd8902a9	-0.066899605
17	0xbdb17f76	-0.08666889
18	0x3b84696e	0.0040408885
19	0xbd2f47d8	-0.042793125
20	0xbcea4723	-0.028598374
21	0xbdd10836	-0.10206644
22	0x3df283b3	0.11841526
23	0xbd8d5849	-0.06901605
24	0x3dc9b53a	0.09849019
25	0xbb9e30f5	-0.0048276135
26	0xbd76ef52	-0.060286827
27	0x3c4b49f4	0.0124077685
28	0xbcd32134	-0.025772668
29	0xbd213c9d	-0.039364446
30	0xbd20b10d	-0.03923135
31	0xbd207ff7	-0.039184537
32	0xbd31d1cb	-0.043412965
33	0xbda95233	-0.082676314
34	0xbd4c1d3f	-0.04983258
35	0x3a248278	0.0006275545
36	0x3c6cf074	0.014461625
37	0xbcdeb40a	-0.027185459
38	0x3d6095af	0.05483025
39	0x3d40a7df	0.047035094
40	0xbcc16b64	-0.023610778
41	0xbd5081ea	-0.050905146
42	0xbd38af33	-0.045088958
43	0xbda37e3f	-0.07983064
44	0xbd22df56	-0.03976377
45	0xbdb3747f	-0.08762454
46	0xbd8afe99	-0.06786842
47	0xbccb8c1c	-0.024847083
48	0xbd802443	-0.062569164
49	0xbd5f936a	-0.054583944
50	0xbb94b12e	-0.004537723
51	0xbb426d06	-0.0029667034
52	0xbc7ea896	-0.015543124
53	0xbdee554e	-0.11637364
54	0xbd5eb048	-0.054367334
55	0x3dee4aee	0.116353855
56	0x3c875b85	0.016523132
57	0x3d0e4e30	0.034742534
58	0xbdb44c1e	-0.08803581
59	0x3d45a4e9	0.048252974
60	0xbb99509b	-0.0046787984
61	0xbca55441	-0.020181777
62	0xbd4b8066	-0.049682997
63	0xbc13d1e2	-0.009022208
64	0x3bac1155	0.0052510896
65	0x3db762ea	0.08954413
66	0xbd61b7e4	-0.055107012
67	0x3dac13fe	0.08402251
68	0xbdae0e68	-0.084988415
69	0xbd8a592c	-0.067552894
70	0xbca5bb7d	-0.020231003
71	0x3cd62a44	0.0261432
72	0xbde60dfe	-0.112331375
73	0xbd3dc71f	-0.046332475
74	0x3dec5f5c	0.11541626
75	0x39bb48c4	0.00035721634
76	0xbd200550	-0.039067566
77	0xbd41a93b	-0.04728053
78	0xbd3d7d03	-0.0462618
79	0xbdcdebb3	-0.10054722
80	0xbd1749fc	-0.03693579
81	0x3dbb7360	0.091528654
82	0xbc831376	-0.01600049
83	0xbdb12b0f	-0.08650791
84	0x3c0334d4	0.008008201
85	0xbd93d455	-0.072182335
86	0xbdf7f6b7	-0.12107604
87	0x3cb6c954	0.022312798
88	0xbd62c003	-0.055358898
89	0xbdafa785	-0.08576874
90	0x3dcf20b1	0.10113657
91	0xb910ba14	-0.0001380223
92	0xbd322bd3	-0.043498825
93	0xbd8afcbf	-0.06786489
94	0xbdadccae	-0.08486305
95	0xbcd37449	-0.025812285
96	0xbd3c646c	-0.045994207
97	0xbd1f6b58	-0.03892073
98	0xbdbc0018	-0.091797054
99	0xbd92cb16	-0.07167642
100	0xbda311c9	-0.079623766
101	0xbd9aab19	-0.075521655
102	0xbd928ed0	-0.071561456
103	0xbd757b9f	-0.059932347
104	0xbd981140	-0.07425165
105	0xbd0123f4	-0.03152843
106	0xbdb5be85	-0.08874229
107	0x3d188061	0.037231807
108	0xbc9a0b86	-0.018804323
109	0xbd966db2	-0.073451415
110	0xbd027192	-0.03184659
111	0x3d956421	0.07294489
112	0x3c00302c	0.007823985
113	0x3de329e0	0.110919714
114	0xbcf4a0b4	-0.029861785
115	0xbd8886c9	-0.06666333
116	0x3d4cead3	0.050028633
117	0xbb9ad77d	-0.0047253952
118	0xbcb2ba8b	-0.021817466
119	0xbc949058	-0.018135235
120	0xbcfb9941	-0.030712726
121	0xbcfc1c91	-0.03077534
122	0xbd8310ed	-0.06399713
123	0x3d5cf9bf	0.053949114
124	0x3ce3eac9	0.027821915
125	0xbd950139	-0.07275624
126	0xbd912937	-0.07087939
127	0xbd67a67f	-0.056555267

bn3.weight f4 [128]
0	0x3e96cb40	0.29451942
1	0x3d16a6a0	0.03678
2	0x3f0aadcf	0.5417146
3	0x3f2e2f99	0.6804138
4	0x3da16478	0.07880491
5	0x3d9bda08	0.076099455
6	0x3f65f25d	0.8982294
7	0x3f049e10	0.51803684
8	0x3e264074	0.16235524
9	0x3f7f8938	0.99818754
10	0x3f6e799e	0.93154323
11	0x3e9c94ba	0.3058222
12	0x3f06f1c0	0.5271263
13	0x3e6878f4	0.2270239
14	0x3f26f6f7	0.6522059
15	0x3f46a927	0.77601856
16	0x3f5b0b56	0.8556417
17	0x3f74e502	0.9566194
18	0x3f134991	0.5753413
19	0x3e06fac0	0.13181591
20	0x3cae9fc0	0.02131641
21	0x3f197b86	0.59954107
22	0x3f3a86c7	0.72861904
23	0x3e4f4e38	0.20244682
24	0x3f0895e2	0.53353703
25	0x3d83dcf0	0.06438625
26	0x3f2add83	0.6674425
27	0x3f2a5a4a	0.6654402
28	0x3c3d9e00	0.011573315
29	0x3ebc01d8	0.36720157
30	0x3d9fb0b0	0.07797372
31	0x3e1cacbc	0.15300268
32	0x3e49bba8	0.19700491
33	0x3f54ff36	0.8320192
34	0x3e8ac1f2	0.27101094
35	0x3ef097ae	0.46990722
36	0x3f77cc5e	0.96796215
37	0x3d5dc820	0.054145932
38	0x3f402049	0.75049263
39	0x3ee72442	0.4514485
40	0x3f035b71	0.51311404
41	0x3f5a8cda	0.8537117
42	0x3cee910e	0.029121902
43	0x3f31e49d	0.6948946
44	0x3f40255c	0.75057006
45	0x3ed367d7	0.4129016
46	0x3f10fcb1	0.56635576
47	0x3f5a360d	0.85238725
48	0x3e27b432	0.16377333
49	0x3f6b60b6	0.91944444
50	0x3e1eaeb0	0.15496325
51	0x3f42bb7c	0.7606733
52	0x3f6770d0	0.90406513
53	0x3f2919ce	0.66055
54	0x3d933810	0.071884274
55	0x3f7ef46c	0.9959171
56	0x3f1cb28a	0.6120993
57	0x3eb531b2	0.35389477
58	0x3f50fd46	0.81636465
59	0x3f57749c	0.84162307
60	0x3f295c35	0.6615632
61	0x3dd86ee0	0.10568023
62	0x3f170d90	0.5900507
63	0x3e882dce	0.26597446
64	0x3e5ea154	0.2174123
65	0x3f765c56	0.96234643
66	0x3e62a0f4	0.22131711
67	0x3e14b7e0	0.14523268
68	0x3eaea5a4	0.3411075
69	0x3f7e5080	0.99341583
70	0x3eaa4790	0.33257723
71	0x3de14b88	0.110007346
72	0x3e6a7508	0.22896206
73	0x3e573aec	0.2101857
74	0x3f31aff6	0.6940912
75	0x3f37bc09	0.71771294
76	0x3f474d23	0.77852076
77	0x3f043f4d	0.5165909
78	0x3dbc2b50	0.09187949
79	0x3e2666e8	0.16250193
80	0x3f3ed65c	0.74545836
81	0x3d229ac0	0.039698362
82	0x3f184795	0.59484226
83	0x3e297000	0.16546631
84	0x3ee28da6	0.44248694
85	0x3eacc390	0.33742952
86	0x3f48dd22	0.7846242
87	0x3f1063ba	0.5640217
88	0x3e06a160	0.13147497
89	0x3e305ccc	0.17222899
90	0x3eeb7a94	0.45991957
91	0x3f36b5f4	0.7137139
92	0x3ebe70da	0.37195474
93	0x3e954718	0.29155803
94	0x3d987828	0.07444793
95	0x3f2317e4	0.6370833
96	0x3f584ea9	0.84495026
97	0x3f006b74	0.5016396
98	0x3f05da48	0.52286196
99	0x3e116308	0.14197934
100	0x3e55f9dc	0.20896095
101	0x3d9fe813	0.078079365
102	0x3ef1adf0	0.47203016
103	0x3dd15748	0.10221726
104	0x3e7c0e39	0.246148
105	0x3f1f72e3	0.6228468
106	0x3e2d2948	0.16910279
107	0x3f452425	0.7700828
108	0x3f63782a	0.8885523
109	0x3f315efe	0.6928557
110	0x3f44a4cf	0.7681398
111	0x3e38c244	0.18042856
112	0x3f376168	0.71633005
113	0x3f12348f	0.5711145
114	0x3ed709e2	0.41999727
115	0x3ee337e0	0.44378567
116	0x3e66e200	0.2254715
117	0x3f0c96b3	0.5491745
118	0x3d0bbe00	0.034116745
119	0x3e3975b8	0.18111312
120	0x3f254f77	0.6457438
121	0x3f1b7f28	0.607409
122	0x3eece546	0.46268672
123	0x3c9431c0	0.018090129
124	0x3e2361f4	0.15955335
125	0x3d7d6212	0.061861105
126	0x3f77f120	0.968523
127	0x3e066b34	0.13126832

bn3.bias f4 [128]
0	0x00000000	0.0
1	0x00000000	0.0
2	0x00000000	0.0
3	0x00000000	0.0
4	0x00000000	0.0
5	0x00000000	0.0
6	0x00000000	0.0
7	0x00000000	0.0
8	0x00000000	0.0
9	0x00000000	0.0
10	0x00000000	0.0
11	0x00000000	0.0
12	0x00000000	0.0
13	0x00000000	0.0
14	0x00000000	0.0
15	0x00000000	0.0
16	0x00000000	0.0
17	0x00000000	0.0
18	0x00000000	0.0
19	0x00000000	0.0
20	0x00000000	0.0
21	0x00000000	0.0
22	0x00000000	0.0
23	0x00000000	0.0
24	0x00000000	0.0
25	0x00000000	0.0
26	0x00000000	0.0
27	0x00000000	0.0
28	0x00000000	0.0
29	0x00000000	0.0
30	0x00000000	0.0
31	0x00000000	0.0
32	0x00000000	0.0
33	0x00000000	0.0
34	0x00000000	0.0
35	0x00000000	0.0
36	0x00000000	0.0
37	0x00000000	0.0
38	0x00000000	0.0
39	0x00000000	0.0
40	0x00000000	0.0
41	0x00000000	0.0
42	0x00000000	0.0
43	0x00000000	0.0
44	0x00000000	0.0
45	0x00000000	0.0
46	0x00000000	0.0
47	0x00000000	0.0
48	0x00000000	0.0
49	0x00000000	0.0
50	0x00000000	0.0
51	0x00000000	0.0
52	0x00000000	0.0
53	0x00000000	0.0
54	0x00000000	0.0
55	0x00000000	0.0
56	0x00000000	0.0
57	0x00000000	0.0
58	0x00000000	0.0
59	0x00000000	0.0
60	0x00000000	0.0
61	0x00000000	0.0
62	0x00000000	0.0
63	0x00000000	0.0
64	0x00000000	0.0
65	0x00000000	0.0
66	0x00000000	0.0
67	0x00000000	0.0
68	0x00000000	0.0
69	0x00000000	0.0
70	0x00000000	0.0
71	0x00000000	0.0
72	0x00000000	0.0
73	0x00000000	0.0
74	0x00000000	0.0
75	0x00000000	0.0
76	0x00000000	0.0
77	0x00000000	0.0
78	0x00000000	0.0
79	0x00000000	0.0
80	0x00000000	0.0
81	0x00000000	0.0
82	0x00000000	0.0
83	0x00000000	0.0
84	0x00000000	0.0
85	0x00000000	0.0
86	0x00000000	0.0
87	0x00000000	0.0
88	0x00000000	0.0
89	0x00000000	0.0
90	0x00000000	0.0
91	0x00000000	0.0
92	0x00000000	0.0
93	0x00000000	0.0
94	0x00000000	0.0
95	0x00000000	0.0
96	0x00000000	0.0
97	0x00000000	0.0
98	0x00000000	0.0
99	0x00000000	0.0
100	0x00000000	0.0
101	0x00000000	0.0
102	0x00000000	0.0
103	0x00000000	0.0
104	0x00000000	0.0
105	0x00000000	0.0
106	0x00000000	0.0
107	0x00000000	0.0
108	0x00000000	0.0
109	0x00000000	0.0
110	0x00000000	0.0
111	0x00000000	0.0
112	0x00000000	0.0
113	0x00000000	0.0
114	0x00000000	0.0
115	0x00000000	0.0
116	0x00000000	0.0
117	0x00000000	0.0
118	0x00000000	0.0
119	0x00000000	0.0
120	0x00000000	0.0
121	0x00000000	0.0
122	0x00000000	0.0
123	0x00000000	0.0
124	0x00000000	0.0
125	0x00000000	0.0
126	0x00000000	0.0
127	0x00000000	0.0

bn3.running_mean f4 [128]
0	0x00000000	0.0
1	0x00000000	0.0
2	0x00000000	0.0
3	0x00000000	0.0
4	0x00000000	0.0
5	0x00000000	0.0
6	0x00000000	0.0
7	0x00000000	0.0
8	0x00000000	0.0
9	0x00000000	0.0
10	0x00000000	0.0
11	0x00000000	0.0
12	0x00000000	0.0
13	0x00000000	0.0
14	0x00000000	0.0
15	0x00000000	0.0
16	0x00000000	0.0
17	0x00000000	0.0
18	0x00000000	0.0
19	0x00000000	0.0
20	0x00000000	0.0
21	0x00000000	0.0
22	0x00000000	0.0
23	0x00000000	0.0
24	0x00000000	0.0
25	0x00000000	0.0
26	0x00000000	0.0
27	0x00000000	0.0
28	0x00000000	0.0
29	0x00000000	0.0
30	0x00000000	0.0
31	0x00000000	0.0
32	0x00000000	0.0
33	0x00000000	0.0
34	0x00000000	0.0
35	0x00000000	0.0
36	0x00000000	0.0
37	0x00000000	0.0
38	0x00000000	0.0
39	0x00000000	0.0
40	0x00000000	0.0
41	0x00000000	0.0
42	0x00000000	0.0
43	0x00000000	0.0
44	0x00000000	0.0
45	0x00000000	0.0
46	0x00000000	0.0
47	0x00000000	0.0
48	0x00000000	0.0
49	0x00000000	0.0
50	0x00000000	0.0
51	0x00000000	0.0
52	0x00000000	0.0
53	0x00000000	0.0
54	0x00000000	0.0
55	0x00000000	0.0
56	0x00000000	0.0
57	0x00000000	0.0
58	0x00000000	0.0
59	0x00000000	0.0
60	0x00000000	0.0
61	0x00000000	0.0
62	0x00000000	0.0
63	0x00000000	0.0
64	0x00000000	0.0
65	0x00000000	0.0
66	0x00000000	0.0
67	0x00000000	0.0
68	0x00000000	0.0
69	0x00000000	0.0
70	0x00000000	0.0
71	0x00000000	0.0
72	0x00000000	0.0
73	0x00000000	0.0
74	0x00000000	0.0
75	0x00000000	0.0
76	0x00000000	0.0
77	0x00000000	0.0
78	0x00000000	0.0
79	0x00000000	0.0
80	0x00000000	0.0
81	0x00000000	0.0
82	0x00000000	0.0
83	0x00000000	0.0
84	0x00000000	0.0
85	0x00000000	0.0
86	0x00000000	0.0
87	0x00000000	0.0
88	0x00000000	0.0
89	0x00000000	0.0
90	0x00000000	0.0
91	0x00000000	0.0
92	0x00000000	0.0
93	0x00000000	0.0
94	0x00000000	0.0
95	0x00000000	0.0
96	0x00000000	0.0
97	0x00000000	0.0
98	0x00000000	0.0
99	0x00000000	0.0
100	0x00000000	0.0
101	0x00000000	0.0
102	0x00000000	0.0
103	0x00000000	0.0
104	0x00000000	0.0
105	0x00000000	0.0
106	0x00000000	0.0
107	0x00000000	0.0
108	0x00000000	0.0
109	0x00000000	0.0
110	0x00000000	0.0
111	0x00000000	0.0
112	0x00000000	0.0
113	0x00000000	0.0
114	0x00000000	0.0
115	0x00000000	0.0
116	0x00000000	0.0
117	0x00000000	0.0
118	0x00000000	0.0
119	0x00000000	0.0
120	0x00000000	0.0
121	0x00000000	0.0
122	0x00000000	0.0
123	0x00000000	0.0
124	0x00000000	0.0
125	0x00000000	0.0
126	0x00000000	0.0
127	0x00000000	0.0

bn3.running_var f4 [128]
0	0x3f800000	1.0
1	0x3f800000	1.0
2	0x3f800000	1.0
3	0x3f800000	1.0
4	0x3f800000	1.0
5	0x3f800000	1.0
6	0x3f800000	1.0
7	0x3f800000	1.0
8	0x3f800000	1.0
9	0x3f800000	1.0
10	0x3f800000	1.0
11	0x3f800000	1.0
12	0x3f800000	1.0
13	0x3f800000	1.0
14	0x3f800000	1.0
15	0x3f800000	1.0
16	0x3f800000	1.0
17	0x3f800000	1.0
18	0x3f800000	1.0
19	0x3f800000	1.0
20	0x3f800000	1.0
21	0x3f800000	1.0
22	0x3f800000	1.0
23	0x3f800000	1.0
24	0x3f800000	1.0
25	0x3f800000	1.0
26	0x3f800000	1.0
27	0x3f800000	1.0
28	0x3f800000	1.0
29	0x3f800000	1.0
30	0x3f800000	1.0
31	0x3f800000	1.0
32	0x3f800000	1.0
33	0x3f800000	1.0
34	0x3f800000	1.0
35	0x3f800000	1.0
36	0x3f800000	1.0
37	0x3f800000	1.0
38	0x3f800000	1.0
39	0x3f800000	1.0
40	0x3f800000	1.0
41	0x3f800000	1.0
42	0x3f800000	1.0
43	0x3f800000	1.0
44	0x3f800000	1.0
45	0x3f800000	1.0
46	0x3f800000	1.0
47	0x3f800000	1.0
48	0x3f800000	1.0
49	0x3f800000	1.0
50	0x3f800000	1.0
51	0x3f800000	1.0
52	0x3f800000	1.0
53	0x3f800000	1.0
54	0x3f800000	1.0
55	0x3f800000	1.0
56	0x3f800000	1.0
57	0x3f800000	1.0
58	0x3f800000	1.0
59	0x3f800000	1.0
60	0x3f800000	1.0
61	0x3f800000	1.0
62	0x3f800000	1.0
63	0x3f800000	1.0
64	0x3f800000	1.0
65	0x3f800000	1.0
66	0x3f800000	1.0
67	0x3f800000	1.0
68	0x3f800000	1.0
69	0x3f800000	1.0
70	0x3f800000	1.0
71	0x3f800000	1.0
72	0x3f800000	1.0
73	0x3f800000	1.0
74	0x3f800000	1.0
75	0x3f800000	1.0
76	0x3f800000	1.0
77	0x3f800000	1.0
78	0x3f800000	1.0
79	0x3f800000	1.0
80	0x3f800000	1.0
81	0x3f800000	1.0
82	0x3f800000	1.0
83	0x3f800000	1.0
84	0x3f800000	1.0
85	0x3f800000	1.0
86	0x3f800000	1.0
87	0x3f800000	1.0
88	0x3f800000	1.0
89	0x3f800000	1.0
90	0x3f800000	1.0
91	0x3f800000	1.0
92	0x3f800000	1.0
93	0x3f800000	1.0
94	0x3f800000	1.0
95	0x3f800000	1.0
96	0x3f800000	1.0
97	0x3f800000	1.0
98	0x3f800000	1.0
99	0x3f800000	1.0
100	0x3f800000	1.0
101	0x3f800000	1.0
102	0x3f800000	1.0
103	0x3f800000	1.0
104	0x3f800000	1.0
105	0x3f800000	1.0
106	0x3f800000	1.0
107	0x3f800000	1.0
108	0x3f800000	1.0
109	0x3f800000	1.0
110	0x3f800000	1.0
111	0x3f800000	1.0
112	0x3f800000	1.0
113	0x3f800000	1.0
114	0x3f800000	1.0
115	0x3f800000	1.0
116	0x3f800000	1.0
117	0x3f800000	1.0
118	0x3f800000	1.0
119	0x3f800000	1.0
120	0x3f800000	1.0
121	0x3f800000	1.0
122	0x3f800000	1.0
123	0x3f800000	1.0
124	0x3f800000	1.0
125	0x3f800000	1.0
126	0x3f800000	1.0
127	0x3f800000	1.0

fc3.weight f4 [1, 128]
0	0x3dc23ed1	0.094846375
1	0x3d92ee31	0.07174338
2	0xbcbdde02	-0.02317715
3	0x3d81ba20	0.06334329
4	0xbdfb6bc9	-0.12276418
5	0xbd88edb9	-0.06685967
6	0x3d1b5ccb	0.03793029
7	0x3d615882	0.05501605
8	0x3d56d2ac	0.052447006
9	0x3dc0cf83	0.0941458
10	0xbdb33773	-0.087508105
11	0x3e38f819	0.18063392
12	0x3d8f3e11	0.0699426
13	0x3d555825	0.052086014
14	0xbd71cbab	-0.059032124
15	0x3d8835e3	0.06650903
16	0x3d321e90	0.043486178
17	0xbdb8a129	-0.09015114
18	0x3d3c5a62	0.045984633
19	0xbddf38b4	-0.10899487
20	0x3d479bcb	0.04873256
21	0xbe5da442	-0.2164469
22	0x3d5dc329	0.054141197
23	0xbd98e96f	-0.07466399
24	0x3d52efae	0.051498108
25	0x3d715eb0	0.05892819
26	0xbd671759	-0.05641875
27	0x3dc5a821	0.09651209
28	0x3db54f6e	0.08853041
29	0xbd1cbf97	-0.03826865
30	0xbdd1e202	-0.10248186
31	0xbd83cdaa	-0.06435712
32	0xbd1080e0	-0.035279155
33	0xbd9714ca	-0.07377012
34	0xbdc53a4e	-0.09630261
35	0x3d2800bd	0.04101633
36	0x3d3510ab	0.04420535
37	0xbd5943d1	-0.05304319
38	0x3d92cdf0	0.07168186
39	0x3dc43bbc	0.09581706
40	0x3d7251fd	0.05916022
41	0xbdb599a4	-0.08867195
42	0x3d4f21ba	0.050569274
43	0xbe26666e	-0.16250011
44	0x3e488b7a	0.19584456
45	0xbe52785d	-0.20553727
46	0xbd6c2da3	-0.05766071
47	0xbd2581d3	-0.040407013
48	0xbe1df710	-0.15426278
49	0xbddc99f3	-0.10771551
50	0x3d31984b	0.04335813
51	0x3d18c753	0.037299465
52	0x3cf11f23	0.029433792
53	0xbde35525	-0.111002244
54	0xbd519515	-0.051167566
55	0x3d7c39b9	0.061578486
56	0x3d42cebe	0.047560446
57	0x3ea3ee4c	0.32017744
58	0xbddd3757	-0.10801571
59	0x3d18b163	0.037278544
60	0xb8a7091c	-7.964877e-05
61	0xbdcd7ee6	-0.100339696
62	0x3ec102df	0.37697503
63	0xbd4bf3ad	-0.049792934
64	0x3d8d0df6	0.068874285
65	0x3d86d5c2	0.0658374
66	0xbdc9b586	-0.09849076
67	0x3d41d1a6	0.047319077
68	0xbe235cea	-0.15953413
69	0xbd9215db	-0.07133075
70	0x3d1e433b	0.038638335
71	0x3d465321	0.04841912
72	0xbe5e3d1e	-0.21703002
73	0xbda4a8ca	-0.080400065
74	0x3d37cb73	0.04487176
75	0x3d51d45f	0.051227923
76	0xbd5b7bfa	-0.05358503
77	0xbda38530	-0.07984388
78	0x3ddc3560	0.10752368
79	0xbde58434	-0.11206856
80	0xbd731c4c	-0.059353158
81	0x3d702042	0.058624513
82	0x3d5c0f9b	0.05372582
83	0xbe82e184	-0.2556268
84	0xbd47505a	-0.048660614
85	0xbe31b8ff	-0.17355727
86	0xbdcd83ec	-0.10034928
87	0x3d31adc1	0.043378595
88	0x3d9d41ab	0.07678541
89	0xbddeb08d	-0.10873518
90	0x3d7ccfc0	0.061721563
91	0xbd1a1601	-0.03761864
92	0x3e459395	0.1929458
93	0xbe08f23f	-0.1337366
94	0xbe618456	-0.22023138
95	0xbd6be03b	-0.05758689
96	0x3da02f25	0.07821492
97	0xbda43585	-0.080180205
98	0xbe9a7c8a	-0.3017314
99	0xbda91c46	-0.08257346
100	0xbdaaceb0	-0.08340204
101	0x3d9421b4	0.07232991
102	0xbd80536a	-0.0626591
103	0xbd895766	-0.06706123
104	0xbd595d48	-0.053067476
105	0xbd5af0df	-0.05345237
106	0xbe63c367	-0.22242509
107	0x3d322bd6	0.043498836
108	0x3d9bf0a4	0.07614258
109	0xbe16d91e	-0.14731261
110	0x3d5175a7	0.051137593
111	0x3d9a4ab3	0.07533779
112	0x3d8b81bd	0.06811855
113	0x3d6e6c37	0.05820867
114	0x3dfa33b5	0.122168936
115	0xbded2023	-0.11578395
116	0x3d9991cb	0.07498511
117	0x3d6e3c94	0.05816324
118	0x3d66ed06	0.056378387
119	0xbd321d8f	-0.04348522
120	0x3d853c2b	0.06505617
121	0xbd710415	-0.058841784
122	0xbe867b51	-0.26265958
123	0x3d4c907b	0.049942475
124	0x3ccf263b	0.025286784
125	0xbe28a077	-0.16467462
126	0xbd890560	-0.06690478
127	0x3d2ed7dc	0.04268633
