mode_weights/agent5_actor_local.pth (torch_old, 93021 bytes, 18 tensors)

bn1.weight f4 [33]
0	0x3f010919	0.50404507
1	0x3f14f159	0.5818077
2	0x3e9cfae7	0.30660173
3	0x3c69a562	0.014260622
4	0x3b50c6ea	0.0031856843
5	0x3d236347	0.0398896
6	0x3d5dfe77	0.054197755
7	0x3e45e0e1	0.19324066
8	0x3dc70637	0.09717982
9	0x3e26900b	0.16265886
10	0x3e2f2a0b	0.17105882
11	0x3e2cf1dc	0.16889137
12	0x3dbbb02d	0.09164462
13	0x3f08c6eb	0.53428525
14	0x3eeb5c3c	0.45968807
15	0x3f2b14f4	0.66828847
16	0x3d4e15c7	0.050313737
17	0x3d8c0f70	0.06838882
18	0x3b75b660	0.0037492737
19	0x3d0db1cc	0.03459339
20	0x3e8945da	0.26811105
21	0x3e98b6bb	0.29826912
22	0x3dca633e	0.0988221
23	0x3f2bd500	0.6712189
24	0x3e9affa3	0.3027316
25	0x3ee5902d	0.4483656
26	0x3f8595ee	1.043638
27	0x3d142190	0.03616482
28	0x3f05a7f3	0.52209395
29	0x3ebf3090	0.37341738
30	0x3e9c3612	0.30510002
31	0x3f6e9794	0.9320004
32	0x3ea76e27	0.32701227

bn1.bias f4 [33]
0	0xba298fb1	-0.000646825
1	0xbe24e974	-0.1610468
2	0xbcd95df2	-0.026534054
3	0x3d67af6a	0.056563772
4	0xbddfeb12	-0.10933508
5	0x3d4c1333	0.049822997
6	0x3dd07430	0.10178411
7	0xbe357c61	-0.17723228
8	0x3d4e32be	0.05034136
9	0xbaabda6f	-0.0013111363
10	0xbde3b27a	-0.11118026
11	0xbe2ce02e	-0.16882393
12	0x3c250e13	0.010074156
13	0xbd0f289b	-0.034950834
14	0xbd80d95d	-0.06291459
15	0x3c5c13b0	0.013432428
16	0xbcff4464	-0.03116054
17	0x3d59302e	0.053024463
18	0x3e226936	0.15860447
19	0x3d8d5490	0.06900895
20	0xbcd8dfae	-0.026473846
21	0x3d39b014	0.045333937
22	0xbcb1d7c0	-0.021709323
23	0xbcfb23e8	-0.03065677
24	0xbd76e842	-0.060280092
25	0xbbf6d932	-0.007533216
26	0x3bbffe87	0.0058591994
27	0x3e0448ae	0.1291835
28	0xbd80699d	-0.06270144
29	0x3e746b44	0.23869044
30	0xbe27a2f6	-0.16370758
31	0xbe261cc0	-0.16221905
32	0x3d03bca5	0.032162327

bn1.running_mean f4 [33]
0	0x3f2a3f48	0.6650281
1	0xc01d4290	-2.4571877
2	0xbedd766f	-0.4325442
3	0x3f58606f	0.84522146
4	0x3d9dd039	0.07705731
5	0x3c7bb14f	0.015362098
6	0xbd7fc2aa	-0.062441505
7	0x3b2f53eb	0.00267529
8	0x3aa98ad4	0.0012935051
9	0x3c1c9e9f	0.009559303
10	0x3cfa65e7	0.030566169
11	0x3b8ce01a	0.004299176
12	0xbcb94c6f	-0.022619454
13	0x3ed54d66	0.41660613
14	0xc023f4cf	-2.561817
15	0xbe5d28a0	-0.21597528
16	0x3bab6c08	0.005231384
17	0xbb19a3fd	-0.0023443692
18	0xbc6c1f29	-0.014411726
19	0xbd48099f	-0.0488373
20	0x3e11ec9a	0.14250413
21	0xba74dfbd	-0.0009341201
22	0x3d5565a2	0.052098878
23	0xbc0ab28a	-0.008465419
24	0x3e0250f3	0.12726192
25	0xbc9e2b88	-0.019307867
26	0xbd857e88	-0.065182745
27	0xbf7ffffc	-0.99999976
28	0xbd967419	-0.073463626
29	0x00000000	0.0
30	0x3f7ffffc	0.99999976
31	0x00000000	0.0
32	0x3a455151	0.00075270707

bn1.running_var f4 [33]
0	0x40861088	4.189518
1	0x3f0ee753	0.5582172
2	0x4094b234	4.6467533
3	0x3d7fea95	0.062479574
4	0x3d9147b6	0.07093756
5	0x3cfe9bde	0.031080183
6	0x3de30c5f	0.11086344
7	0x3ec7cd37	0.39023754
8	0x3d89fc91	0.06737626
9	0x3ddde811	0.10835279
10	0x4008545c	2.130149
11	0x3fa4c2c5	1.2871939
12	0x402e492e	2.7232165
13	0x419ea03a	19.828236
14	0x3fc66081	1.5498201
15	0x41aaa31e	21.329647
16	0x3de278c5	0.11058191
17	0x3e8bccad	0.27304593
18	0x3dc93cb5	0.09826032
19	0x3f03e630	0.51523113
20	0x401ed2fc	2.4816275
21	0x3f47d983	0.7806627
22	0x3f778396	0.9668516
23	0x40f6b5fd	7.7097154
24	0x407e0771	3.9692042
25	0x4106118f	8.379287
26	0x42012f8d	32.296436
27	0x00000004	6e-45
28	0x41fd8428	31.68953
29	0x00000004	6e-45
30	0x00000004	6e-45
31	0x00000004	6e-45
32	0x3ea82d25	0.32846943

fc1.weight f4 [128, 33]
0	0xbe08e3f6	-0.1336821
1	0xbcbc44e9	-0.022982078
2	0x3d9e239e	0.07721637
3	0xbe59d1c4	-0.21271425
4	0xbd6022bd	-0.05472063
5	0xbd031823	-0.03200544
6	0xbd0cef8a	-0.03440813
7	0x3c0ba250	0.008522585
8	0x3de0becf	0.10973894
9	0xbd465ab1	-0.048426334
10	0xbd87dc67	-0.06633835
11	0x3ddf9b3e	0.10918282
12	0x3d3d6958	0.04624304
13	0xbdb04825	-0.086075105
14	0xbb26c5cf	-0.0025447493
15	0xbe0265f7	-0.12734209
16	0xbb8d7f3d	-0.0043181465
17	0x3cafc460	0.021455944
18	0xbccfb3fe	-0.025354382
19	0x3e327791	0.17428423
20	0xbd8e7ad0	-0.069570184
21	0x3d6d5634	0.057943538
22	0x3d1dc969	0.038522158
23	0xbd8eb633	-0.069683455
24	0x3c97a5ec	0.018511735
25	0xbcdb1231	-0.026742073
26	0x3c8fc496	0.017549794
27	0xbd8b1fb4	-0.06793156
28	0x3ce0c822	0.02743918
29	0xbdfda93a	-0.12385793
30	0x3b8d27c7	0.0043077203
31	0x3dbcfebb	0.092282735
32	0x3ce5257e	0.02797198
33	0x3d18acd6	0.037274204
34	0x3d9ce5fc	0.076610535
35	0xbc5eceff	-0.013599156
36	0xbd8d467c	-0.068982095
37	0xbb203fd8	-0.0024452116
38	0x3cb2f1d0	0.02184382
39	0xbc59b433	-0.013287592
40	0xbbebf970	-0.007201366
41	0xbd0b53d1	-0.03401548
42	0x3cbd76ad	0.023127878
43	0xbd39c414	-0.04535301
44	0x3d3473fe	0.04405593
45	0xbda6f14a	-0.08151491
46	0x3e09839d	0.13429113
47	0x3d4243f9	0.047428105
48	0xbd5cde19	-0.053922746
49	0x3af43d85	0.0018634057
50	0xbb960e4f	-0.0045793424
51	0xbc88721c	-0.016655974
52	0x3d851f68	0.06500131
53	0x3d4411c4	0.047868505
54	0x3c51438c	0.012772452
55	0x3d88120c	0.06644067
56	0x3d7dc120	0.061951756
57	0xbd14236f	-0.036166605
58	0xbd4ee2f0	-0.050509393
59	0xbe194e21	-0.1497121
60	0xbdc202b7	-0.09473174
61	0xbe093ed5	-0.13402875
62	0xbdb1fffb	-0.086914025
63	0x3e325d14	0.17418319
64	0x3d7d3ead	0.06182735
65	0x3cc36de4	0.02385611
66	0x3d8b34a6	0.06797151
67	0xbd119176	-0.035539113
68	0xbe19c887	-0.15017901
69	0xbd3958e1	-0.045250777
70	0xbd096ef1	-0.033553068
71	0xbc8c2b93	-0.017110622
72	0x3d26457a	0.0405936
73	0xbcd38f1e	-0.02582508
74	0xbcd60d04	-0.026129253
75	0x3d306f1e	0.04307472
76	0xbc87ccf4	-0.016577221
77	0xbd428335	-0.04748841
78	0xbd5f145e	-0.054462783
79	0xbd8ffad3	-0.07030263
80	0xbcc8aee1	-0.024497451
81	0xbb10f07f	-0.0022116003
82	0xbd3ae9ba	-0.045633055
83	0x3d5d08ec	0.053963587
84	0xbba6b3a6	-0.0050873337
85	0x3c02a8cd	0.007974816
86	0xbceff9d6	-0.029293936
87	0xbd6fa873	-0.058510255
88	0xbb520e40	-0.003205195
89	0xbe08e119	-0.13367118
90	0x3cf90106	0.030395996
91	0x3c14e766	0.009088373
92	0xbd38a032	-0.04507465
93	0x3e05a704	0.13051993
94	0x3e013593	0.12618093
95	0x3c436a7f	0.011927246
96	0xbbd84f7b	-0.0066012717
97	0x3d34c469	0.044132624
98	0xbb81abb7	-0.0039572376
99	0xbd7540c9	-0.059876237
100	0x3d08368f	0.033255156
101	0xbc0bf18f	-0.008541479
102	0xbc621f29	-0.0138013745
103	0xbd2aa0ab	-0.04165713
104	0x3d6640d9	0.056214187
105	0x3cbf41c7	0.023346795
106	0xbcd32e5c	-0.025778942
107	0x3e0e60fc	0.13904184
108	0xbd063634	-0.032766536
109	0xbd8ad4a2	-0.06778838
110	0xbda39551	-0.07987464
111	0x3c3455e4	0.011006806
112	0xbe35e6c3	-0.1776381
113	0xbd07bda0	-0.033139825
114	0x3d9b2c56	0.07576816
115	0x3b40f689	0.0029443821
116	0xbc9b30ad	-0.018944109
117	0xbd6b715c	-0.057481155
118	0x3d3e256e	0.046422414
119	0xbc2a932a	-0.010411063
120	0x3c5f0e6d	0.013614279
121	0x3cfb6515	0.030687848
122	0xbcb8cdf0	-0.022559136
123	0x3d844d8d	0.06460104
124	0x3c468818	0.012117408
125	0xbd9ae627	-0.07563429
126	0x3d5899c0	0.052881002
127	0xbe53611c	-0.20642513
128	0x3d030eba	0.031996466
129	0x3cd4b1d7	0.025963707
130	0x3d4d4da4	0.050122872
131	0xbe685ec9	-0.22692408
132	0x3d101bee	0.035182886
133	0xbd858dc0	-0.06521177
134	0xbda87231	-0.08224905
135	0x3d9cae22	0.07650401
136	0xbd4bacd5	-0.049725372
137	0xbc1e3bbc	-0.0096577965
138	0x3b5e109b	0.003388441
139	0xbb1f85a7	-0.0024341138
140	0x3c519a73	0.012793171
141	0x3dbb3156	0.091402695
142	0xbc0d7682	-0.0086342115
143	0x3cf582ce	0.0299696
144	0x3dec4362	0.1153629
145	0x3d09be56	0.033628784
146	0xbd630c52	-0.05543167
147	0xbd71c520	-0.059025884
148	0xbda7c262	-0.081913725
149	0xbcaf1d2d	-0.021376217
150	0x3d36280a	0.044471778
151	0xbb8050ac	-0.003915867
152	0x3bc893c3	0.00612113
153	0xbe221bd6	-0.15830931
154	0xbd26b4b2	-0.04069967
155	0x3dd28fc8	0.1028133
156	0xbde61479	-0.112343736
157	0x3d6a3e1c	0.05718814
158	0xbc01b192	-0.007915871
159	0x3da3aca7	0.07991915
160	0xbe640cf4	-0.22270566
161	0x3d32792b	0.043572586
162	0x3ba463f6	0.005016799
163	0x39f6ee60	0.0004709838
164	0x3e07557d	0.13216205
165	0xbd29b93f	-0.04143643
166	0x3d0022d9	0.031283233
167	0x3e2192a9	0.15778603
168	0xbd685171	-0.056718294
169	0x3ca00d75	0.019537667
170	0xbd5eba93	-0.05437715
171	0x3ce449ef	0.027867286
172	0x3d0aed4f	0.03391772
173	0xbd03bdde	-0.032163493
174	0x3c26bcec	0.010176878
175	0xb8b329ab	-8.5431464e-05
176	0x3a2249d3	0.000619081
177	0x3d539ff2	0.051666208
178	0xbd43e171	-0.04782242
179	0xbd6f5798	-0.058433145
180	0xbd56b637	-0.052419867
181	0x3c4e842e	0.012604756
182	0x3b638a67	0.0034719945
183	0xbcc6ead2	-0.024281893
184	0x3d9a48df	0.0753343
185	0xbc8e28f3	-0.01735351
186	0x3af490ef	0.0018658916
187	0xbd2260b5	-0.03964301
188	0xbced5643	-0.028971797
189	0xbd76ff6c	-0.060302183
190	0x3d0d793e	0.034539454
191	0x3d76e368	0.060275465
192	0xbe265d07	-0.16246425
193	0xbe3fbd05	-0.18724449
194	0xbdbda0a8	-0.092591584
195	0x3d6a9b87	0.05727723
196	0x3bb74b93	0.005593726
197	0xbe59c465	-0.21266325
198	0x3c9785a0	0.018496335
199	0x3cf1db13	0.029523408
200	0xbc395683	-0.01131213
201	0xbd076b2c	-0.03306119
202	0xbdb7680c	-0.08955392
203	0xbb6336f2	-0.00346702
204	0x3d3a2405	0.045444507
205	0x3bbd7148	0.0057813264
206	0xbc012214	-0.00788166
207	0x3c7a2180	0.015266776
208	0x3c4684e9	0.012116649
209	0x3dd41e87	0.10357385
210	0xbba316b9	-0.004977074
211	0xbd161dd4	-0.03664954
212	0xbdb52ab6	-0.08846037
213	0x3d9fad1b	0.07796689
214	0xbd78b3af	-0.060718235
215	0x3ca3b31e	0.01998287
216	0xbd7b5953	-0.061364483
217	0xbcbc5ac9	-0.022992508
218	0xbdeb1e11	-0.11480344
219	0xbd740415	-0.059574205
220	0xbcac18f1	-0.021007987
221	0x3d053ec6	0.03253057
222	0xbd7cdf78	-0.061736554
223	0x3debdadd	0.11516354
224	0x3dcf38b7	0.101182394
225	0x3db9a77e	0.0906515
226	0xbdd8f2de	-0.10593198
227	0x3da69d87	0.08135515
228	0x3d70323f	0.05864167
229	0xbd2ae80a	-0.041725196
230	0x3d8a5a9b	0.06755563
231	0x3db16c48	0.08663231
232	0x3d4d344c	0.050098702
233	0xbe06ec97	-0.1317619
234	0xbd0e4f40	-0.034743547
235	0xbcab18bc	-0.020885818
236	0x3cfdb728	0.030971125
237	0xbc9801b7	-0.018555505
238	0x3b5f861f	0.0034107042
239	0x3d39109c	0.045181856
240	0x3beba3a0	0.0071911365
241	0x3c90faad	0.017697657
242	0x3dfb5de1	0.12273765
243	0xbc9f01d7	-0.019410057
244	0xbd527705	-0.051383037
245	0xbd4e370d	-0.05034547
246	0x3df6d020	0.120514154
247	0xbd014412	-0.031559058
248	0xbcb0e9a0	-0.021595776
249	0x3d0a9e36	0.033842288
250	0xbd5f4f3a	-0.054518916
251	0x3dd378cf	0.10325777
252	0xbd1267ef	-0.03574365
253	0x3c3bf206	0.011471277
254	0xbd03455f	-0.03204858
255	0xbe080de7	-0.13286553

fc1.bias f4 [128]
0	0xbdacf6d1	-0.08445514
1	0xbd127615	-0.035757143
2	0x3dc739e4	0.09727839
3	0xbdd9dac0	-0.106374264
4	0xbda825f1	-0.08210362
5	0xbbdd0f7e	-0.0067462316
6	0x3da878a5	0.08226136
7	0xbdb913ac	-0.09036955
8	0x3e30c4da	0.17262593
9	0xbe44ba66	-0.1921173
10	0xbd88357e	-0.06650828
11	0xbc89dff9	-0.016830431
12	0xbdc2725e	-0.0949447
13	0xbd848479	-0.0647058
14	0x3de86b5a	0.11348601
15	0xbe43b021	-0.19110157
16	0x3e0869a0	0.13321543
17	0xbe059601	-0.13045503
18	0xbde6af85	-0.112639464
19	0xbe2aa0dc	-0.16662925
20	0xbdb7e89f	-0.08979916
21	0x3dc169ca	0.09444006
22	0xbd90fd23	-0.07079532
23	0xbe00bc64	-0.12571865
24	0xbdb69a25	-0.089161195
25	0xbaf239f7	-0.001848041
26	0xbd06168f	-0.032736357
27	0x3cdc5b49	0.026898997
28	0xbd4523b2	-0.048129745
29	0x3c11a943	0.008890453
30	0x3dda0262	0.10644986
31	0xbe4221c7	-0.18958198
32	0x3d52c21b	0.051454645
33	0x3c451ef6	0.012031307
34	0xbd0214b8	-0.03175804
35	0xbd61efbd	-0.055160273
36	0x3c18e687	0.009332306
37	0x3e2f4eb3	0.17119865
38	0x3d9b2cd3	0.07576909
39	0xbe3b922b	-0.18317477
40	0xbd31e59b	-0.04343186
41	0x3d1b338b	0.037890952
42	0xbd99e051	-0.07513488
43	0x3d489a73	0.04897542
44	0xbd87ce98	-0.066312015
45	0x3c9f4545	0.01944221
46	0x3b67701e	0.003531463
47	0x3d31b097	0.0433813
48	0xbdd33f0a	-0.10314758
49	0x3cbf7b1e	0.023374137
50	0xbd9fca8a	-0.07802303
51	0x3e9464b4	0.2898308
52	0xbdaf014b	-0.085451685
53	0xbcfa52df	-0.030557094
54	0x3e92b2f2	0.2865215
55	0xbe1b01cb	-0.15137403
56	0x3db85e18	0.09002322
57	0x3e7f734c	0.24946326
58	0x3d810c28	0.06301147
59	0xbd1748e0	-0.036934733
60	0x3db974ef	0.090555064
61	0xbe0b387e	-0.13595769
62	0x3d467fdb	0.048461776
63	0xbdfbef41	-0.123014934
64	0xbbff1c50	-0.0077853575
65	0x3df5083f	0.119644634
66	0xbd008586	-0.031377338
67	0x3dd5ba0e	0.10435878
68	0x3e2c0aee	0.16801044
69	0x3e7619b7	0.24033247
70	0xbda46148	-0.080263674
71	0x3d8533a5	0.06503991
72	0xbdb73a84	-0.08946708
73	0x3c2f0269	0.010681727
74	0x3dd5afd7	0.104339294
75	0xbe302aa1	-0.17203762
76	0xbbd13024	-0.0063839126
77	0x3db7850a	0.08960922
78	0xba8085dd	-0.0009805519
79	0xbe1c9622	-0.15291646
80	0x3e30b470	0.17256331
81	0x3e1689e3	0.14701037
82	0xbe333bcd	-0.17503281
83	0x3ddc6d91	0.10763086
84	0x3e81027d	0.2519721
85	0x3dd6125d	0.10452721
86	0xbd6675fa	-0.056264855
87	0xbe06fef0	-0.13183188
88	0xbe149045	-0.1450816
89	0x3e8b496b	0.2720445
90	0x3d547eb1	0.051878635
91	0x3cf49b0e	0.029859092
92	0xbe0e509f	-0.13897942
93	0x3ddb2b97	0.107016735
94	0x3cc270a5	0.023735354
95	0xbddf71aa	-0.109103516
96	0x3dbc4568	0.09192926
97	0x3e41823f	0.18897341
98	0xbdcb30b7	-0.09921401
99	0x3bff9e2b	0.0078008375
100	0x3dc55ae5	0.096364774
101	0xbda67dcc	-0.081294626
102	0xbdde0d39	-0.10842366
103	0xbd102f9c	-0.035201654
104	0xbe54d369	-0.20783772
105	0x3e489f53	0.19592027
106	0xbc389918	-0.011266969
107	0x3e530b7f	0.20609854
108	0xbca2a185	-0.01985241
109	0x3d2a388e	0.04155784
110	0x3deee849	0.11665399
111	0xbd142b2c	-0.036173984
112	0xbd15b57a	-0.036550023
113	0xbe303b95	-0.17210229
114	0xbdbcd5c1	-0.09220458
115	0x3e21a967	0.15787278
116	0xbe26eea8	-0.16301978
117	0xbe02fe57	-0.12792335
118	0xbd925376	-0.07144825
119	0x3d25e9bb	0.040506106
120	0x3d7a72e0	0.06114471
121	0x3e53c55c	0.20680755
122	0x3d503db8	0.05084011
123	0x3d758d0a	0.05994896
124	0x3c690979	0.01422345
125	0x3e5d2a7d	0.21598239
126	0xbd871ed5	-0.065976776
127	0xbc53d7d7	-0.012929878

bn2.weight f4 [128]
0	0x3e1dbda7	0.15404378
1	0x3e66fb16	0.22556719
2	0x3ea0f786	0.31438845
3	0x3f0405d6	0.51571405
4	0x3e0a272b	0.13491504
5	0x3f01b890	0.50672245
6	0x3efbf96d	0.49213734
7	0x3e95f24c	0.2928642
8	0x3f1da2f2	0.6157676
9	0x3f4d7e8e	0.8027123
10	0x3ec1d7a6	0.3785984
11	0x3ea5af78	0.32360435
12	0x3e8cd71f	0.27507874
13	0x3e88bb48	0.26705384
14	0x3ec18d08	0.3780291
15	0x3e47b52f	0.1950271
16	0x3ea6b103	0.32556924
17	0x3f3e3704	0.743027
18	0x3f0f0ac9	0.5587583
19	0x3f44cbb0	0.768733
20	0x3f69c056	0.91309106
21	0x3eb2827a	0.3486517
22	0x3ec18855	0.37799326
23	0x3ee34a4f	0.4439263
24	0x3ddf5425	0.10904721
25	0x3f286142	0.65773404
26	0x3ecbd39d	0.39809886
27	0x3e606cfd	0.21916576
28	0x3ea6cf6d	0.32580128
29	0x3ea1f6e3	0.31633672
30	0x3f22cd34	0.63594365
31	0x3f33f438	0.70294523
32	0x3f41956b	0.7561862
33	0x3eff165d	0.4982175
34	0x3ee6742c	0.45010507
35	0x3ea62080	0.3244667
36	0x3e85c7cd	0.26128998
37	0x3ec72163	0.3889266
38	0x3e52459b	0.20534365
39	0x3f276516	0.6538862
40	0x3e16e36f	0.14735197
41	0x3ed2987b	0.41131958
42	0x3f29edf9	0.6637874
43	0x3e865f36	0.26244515
44	0x3f0f5322	0.55986226
45	0x3f6e679d	0.9312685
46	0x3f643084	0.8913653
47	0x3f212599	0.62947994
48	0x3ee70eb4	0.45128405
49	0x3f373ccd	0.7157715
50	0x3eda9b0b	0.42696413
51	0x3e9880eb	0.29785857
52	0x3efdca2d	0.4956831
53	0x3ee6381e	0.4496469
54	0x3f2cd15c	0.6750696
55	0x3f342b90	0.7037897
56	0x3f13bf70	0.57713985
57	0x3ef8af60	0.485713
58	0x3ee8eb9a	0.4549225
59	0x3f22dc43	0.6361734
60	0x3ef856c1	0.48503688
61	0x3e51a4b6	0.20472988
62	0x3f0ff73a	0.5623661
63	0x3ead6206	0.33863848
64	0x3eafe676	0.34355515
65	0x3f1b7ccc	0.607373
66	0x3ef20c18	0.47274852
67	0x3f2055fa	0.6263119
68	0x3e6bcc01	0.2302704
69	0x3f201224	0.6252768
70	0x3f4b2376	0.79350984
71	0x3f090391	0.53521067
72	0x3f2cc0e6	0.6748184
73	0x3e895e74	0.26829875
74	0x3f28e98e	0.65981376
75	0x3f1ac2b4	0.60453343
76	0x3f35b809	0.7098394
77	0x3f1c6711	0.61094767
78	0x3ef0b887	0.47015783
79	0x3f0d9f10	0.55320835
80	0x3f4c27c4	0.7974818
81	0x3f2ce415	0.67535526
82	0x3e9b14e1	0.30289367
83	0x3f4523f4	0.77007985
84	0x3f552b50	0.83269215
85	0x3f1f3a5d	0.6219843
86	0x3e85bb13	0.2611929
87	0x3edba4c6	0.4289915
88	0x3e97da95	0.29658952
89	0x3f28bd94	0.65914273
90	0x3e92088a	0.2852214
91	0x3f161740	0.58629227
92	0x3eb6b178	0.35682273
93	0x3edb2bc2	0.42806822
94	0x3f21676a	0.6304842
95	0x3f284047	0.6572308
96	0x3ede741f	0.43447968
97	0x3e999a90	0.30000734
98	0x3e4cc7f4	0.19998151
99	0x3f036704	0.51329064
100	0x3f1d8def	0.615447
101	0x3ec45633	0.38347015
102	0x3ef717c3	0.48260316
103	0x3f3118e2	0.69178593
104	0x3e1a2782	0.15054134
105	0x3f2a229f	0.6645908
106	0x3eee376b	0.46526656
107	0x3f2743fd	0.65338117
108	0x3f57a23d	0.8423193
109	0x3eef7487	0.4676859
110	0x3ee8314a	0.45350105
111	0x3ed9afd2	0.42516953
112	0x3f256e83	0.6462175
113	0x3f486ba6	0.7828926
114	0x3ed2cf49	0.4117377
115	0x3ef94eaa	0.48692828
116	0x3f1363ac	0.5757396
117	0x3f2e015f	0.6797084
118	0x3f2e0d88	0.679894
119	0x3f4f4e0a	0.80978453
120	0x3e5547e7	0.2082821
121	0x3f50d751	0.81578547
122	0x3f1ef288	0.62088823
123	0x3f1e3f88	0.6181569
124	0x3f108341	0.5645028
125	0x3f3afdf7	0.7304377
126	0x3f6bd7e0	0.92126274
127	0x3effb8eb	0.4994577

bn2.bias f4 [128]
0	0xbecde912	-0.4021688
1	0x3d8096ef	0.06278788
2	0x3e1070f1	0.14105584
3	0x3d841903	0.06450083
4	0x3f0c789e	0.5487155
5	0x3cccd391	0.025003226
6	0x3dcf5f19	0.1012556
7	0xbdeecfc2	-0.116607204
8	0xbc8f4fd9	-0.017494129
9	0x3e29fa08	0.16599286
10	0x3e6ab4ac	0.22920483
11	0xbe3f87c0	-0.18704128
12	0x3e939122	0.28821665
13	0x3e82075e	0.25396246
14	0x3ee18f8e	0.44054836
15	0x3ec434cf	0.3832154
16	0x3e524d9d	0.2053742
17	0x3d91c20a	0.07117088
18	0xbdb54627	-0.08851271
19	0x3dcf896d	0.10133634
20	0xbc3cff0b	-0.011535416
21	0x3e493347	0.19648467
22	0x3dc799ab	0.09746107
23	0x3e0aa23b	0.13538449
24	0xbddfc363	-0.10925939
25	0xbc64b818	-0.013959907
26	0x3dda0abb	0.10646578
27	0x3edd0c46	0.43173426
28	0x3deb2b06	0.114828154
29	0x3c9d07f3	0.01916883
30	0x3e8a6a98	0.2703445
31	0x3d2b2049	0.041778836
32	0xbe46d25f	-0.19416188
33	0xbde98ed8	-0.114041984
34	0x3e0bbfac	0.13647336
35	0xbe3094b0	-0.1724422
36	0x3e991264	0.29896843
37	0x3e803181	0.25037768
38	0x3ef54732	0.4790588
39	0x3e8956c4	0.2682401
40	0x3f214a8e	0.63004386
41	0x3d614130	0.05499381
42	0xbd915478	-0.07096189
43	0x3eb706b4	0.35747302
44	0xbe81727b	-0.25282654
45	0x3e2246c7	0.15847312
46	0xbea3ef01	-0.32018283
47	0x3d496d46	0.049176477
48	0xbe7914c1	-0.24324323
49	0x3d40620f	0.046968516
50	0x3d8ac7b2	0.0677637
51	0x3dac8e98	0.08425635
52	0x3e01e119	0.12683524
53	0xbea663ce	-0.3249802
54	0x3d971ebe	0.073789105
55	0x3cfd4011	0.030914338
56	0x3cf9768c	0.030452035
57	0x3e9d998d	0.30781212
58	0x3e2488d9	0.16067828
59	0x3e2d2ce9	0.16911663
60	0x3dc493d1	0.09598506
61	0x3d952243	0.072819255
62	0xbd9cc8f2	-0.07655515
63	0x3e4013f4	0.18757612
64	0x3ec71620	0.38884068
65	0x3e888877	0.26666614
66	0x3e29c139	0.16577615
67	0xbcb24406	-0.021760952
68	0x3eadd901	0.33954623
69	0x3dbd768b	0.09251126
70	0x3e6fa378	0.23402202
71	0x3df32fcb	0.1187435
72	0xbd545211	-0.051836077
73	0x3e658b76	0.22416481
74	0x3dced3ba	0.100989774
75	0x3e5be914	0.21475631
76	0xbe260d21	-0.16215946
77	0x3df047ae	0.11732422
78	0xbcda2264	-0.026627727
79	0xbce2a16d	-0.027664864
80	0x3bc1c5f2	0.0059134895
81	0xbe71f922	-0.23630193
82	0xbc10c768	-0.008836605
83	0x3d99e72e	0.07514797
84	0xbda4081e	-0.08009361
85	0x3df51df1	0.119686015
86	0x3e016bb1	0.12638737
87	0x3e543f82	0.20727351
88	0xbe8d4c8e	-0.2759747
89	0xbddbb796	-0.107283756
90	0x3e8afef3	0.27147636
91	0x3e2d2a76	0.16910729
92	0x3e12adc8	0.14324105
93	0x3e9b2630	0.30302572
94	0x3e994c61	0.29941085
95	0x3e2dbeea	0.16967359
96	0x3ea9ac2b	0.33139166
97	0xbd63bb1c	-0.055598363
98	0x3e042a68	0.12906802
99	0x3bd4083a	0.0064707072
100	0x3e0bf4c3	0.13667588
101	0x3dc2ed73	0.09517946
102	0x3e4799c4	0.1949225
103	0xbe08ba33	-0.1335228
104	0x3e8314df	0.2560186
105	0x3eb707e6	0.35748214
106	0x3e6e3137	0.23260961
107	0x3db21f45	0.086973704
108	0x3e1cef02	0.15325549
109	0x3d01d2e5	0.031695265
110	0xbd9cc5b8	-0.07654899
111	0x3df2ef3f	0.11862039
112	0xbcfbccd0	-0.03073731
113	0xbe07031f	-0.13184784
114	0x3cd48a8f	0.025944976
115	0x3d676768	0.0564951
116	0x3e0216e6	0.12704048
117	0x3e4360b6	0.19079861
118	0x3e489ad5	0.19590314
119	0x3cd52a86	0.026021253
120	0x3f1135b8	0.56722593
121	0x3da58a42	0.08083011
122	0xbd707b9b	-0.05871163
123	0x3e833ca3	0.256322
124	0x3e660ce2	0.22465852
125	0x3e320cf9	0.17387761
126	0xbe0f0999	-0.13968505
127	0x3e0298ab	0.1275355

bn2.running_mean f4 [128]
0	0x3c246855	0.01003464
1	0x3cba3bee	0.022733655
2	0x3e1283c6	0.1430808
3	0x3d898965	0.06715659
4	0x3d98dab1	0.07463587
5	0x3c98064b	0.018557688
6	0x3df63535	0.12021867
7	0x3b916b98	0.004437875
8	0x3e99eba5	0.30062595
9	0x351b1f05	5.778714e-07
10	0x3b997c99	0.0046840427
11	0x3d719b2e	0.05898588
12	0x3883605d	6.264516e-05
13	0x3cdfeb56	0.027333897
14	0x3e467d3c	0.1938371
15	0x2d24db89	9.371067e-12
16	0x3e09d780	0.13461113
17	0x3ccbb7c0	0.024867892
18	0x3c9840e1	0.018585624
19	0x392f62df	0.00016726133
20	0x3d4e1039	0.05030844
21	0x3d8e97ce	0.06962548
22	0x3bc9a5fd	0.0061538205
23	0x3ab5b70e	0.0013863759
24	0x39d8f2c5	0.00041379608
25	0x3e0db741	0.13839437
26	0x3cf415d3	0.029795563
27	0x3d327e62	0.04357756
28	0x3d22a92f	0.039712127
29	0x3c21f882	0.009885909
30	0x3e15fb4c	0.14646643
31	0x33c6c6d7	9.256262e-08
32	0x3ddf2da4	0.10897377
33	0x3c3e7d9d	0.011626628
34	0x3b8d3cf4	0.0043102447
35	0x3b9bed44	0.004758509
36	0x3d504079	0.050842736
37	0x3e929a22	0.2863322
38	0x3dcbd3a7	0.09952479
39	0x3901bda7	0.0001237305
40	0x3c7a4e5d	0.015277472
41	0x3d2ad605	0.04170801
42	0x379340de	1.7553972e-05
43	0x3e1195be	0.14217278
44	0x3c3decae	0.011592073
45	0x3da0f6dc	0.07859585
46	0x3de486c7	0.11158519
47	0x3d069a12	0.032861777
48	0x38269b2f	3.972201e-05
49	0x3db64c2c	0.089012474
50	0x3d2597c6	0.040427946
51	0x3ecacfed	0.3961176
52	0x3ca78923	0.020451134
53	0x3cacbdda	0.021086622
54	0x3eb7ea3c	0.35920894
55	0x399876a6	0.000290801
56	0x3e432414	0.19056731
57	0x3ebe02b2	0.3711143
58	0x3d6a8826	0.057258748
59	0x3c8dfabb	0.017331472
60	0x3de1ddc1	0.11028624
61	0x3c15e763	0.009149405
62	0x3da791f1	0.08182133
63	0x34457860	1.8390847e-07
64	0x3c86571b	0.016398957
65	0x3e6739ca	0.22580639
66	0x3d0365df	0.032079574
67	0x3d999727	0.07499533
68	0x3e5a3c0e	0.21311972
69	0x3ea0032e	0.31252426
70	0x3d8a6d31	0.06759108
71	0x3e1a0ab2	0.15043142
72	0x3d03b4f8	0.032155007
73	0x3d175f17	0.03695592
74	0x3e2ce727	0.16885053
75	0x28c1c368	2.1512048e-14
76	0x3d3798e2	0.044823535
77	0x3d081f41	0.03323293
78	0x3c4f16be	0.0126396995
79	0x3c4a6b0f	0.012354626
80	0x3e556bca	0.208419
81	0x3eb534c8	0.3539183
82	0x386ac2bb	5.5971304e-05
83	0x3decab54	0.11556116
84	0x3ecc2f4e	0.3987984
85	0x3d7e9d7c	0.062161908
86	0x3c92afc9	0.017906087
87	0x3ca541bb	0.020172944
88	0x3bb60623	0.005554931
89	0x3ec552df	0.38539788
90	0x3e611e1d	0.21984144
91	0x3d749ad3	0.059717964
92	0x3826ce72	3.976975e-05
93	0x3e1dc547	0.15407287
94	0x3dc5bfd7	0.09655731
95	0x391ae566	0.00014772042
96	0x3e430f00	0.19048691
97	0x3e55d35a	0.20881405
98	0x370b63ba	8.308265e-06
99	0x3df814c9	0.121133395
100	0x3e08f357	0.13374077
101	0x3e0488e1	0.1294284
102	0x3c97f638	0.018550023
103	0x3d4befe8	0.04978934
104	0x333f0dc7	4.4483183e-08
105	0x3e8ff1f1	0.28114274
106	0x3ccc7a89	0.024960773
107	0x3ea2aa42	0.3177052
108	0x3d87ed8a	0.06637104
109	0x3df1b734	0.11802521
110	0x3e57cd42	0.21074393
111	0x3d9f092d	0.07765422
112	0x3d8d356c	0.06894955
113	0x38a5f4fe	7.9134465e-05
114	0x37e24b31	2.6976313e-05
115	0x3e450bd2	0.1924279
116	0x358cd842	1.0493752e-06
117	0x39ee0e4c	0.0004540555
118	0x3d816d01	0.06319619
119	0x3de0e7fd	0.10981748
120	0x3d487d08	0.048947364
121	0x3e85b17d	0.26111975
122	0x3e188414	0.14894134
123	0x3d91154b	0.070841394
124	0x3da56805	0.08076481
125	0x3ea25f61	0.31713393
126	0x3d420ff1	0.047378484
127	0x3c49cb9e	0.0123166125

bn2.running_var f4 [128]
0	0x3a6de498	0.00090748956
1	0x3b4289b0	0.002968412
2	0x3c5056c8	0.012716003
3	0x3c1a42d2	0.009415345
4	0x3c18c6f8	0.009324782
5	0x3ab359c2	0.0013683366
6	0x3c08f213	0.008358496
7	0x3996d1ca	0.00028766535
8	0x3b86943a	0.0041070255
9	0x33635f8d	5.293946e-08
10	0x398f6df1	0.00027356998
11	0x3c00a505	0.007851844
12	0x3672f505	3.620343e-06
13	0x3b518b4f	0.0031973904
14	0x3b61a1ab	0.0034428637
15	0x2b13e3ae	5.254086e-13
16	0x3c25a761	0.010110707
17	0x3b28f738	0.002578212
18	0x3ab445b9	0.0013753689
19	0x37bb54f2	2.2331693e-05
20	0x3bb37c10	0.005477436
21	0x3b5e06aa	0.0033878484
22	0x3978ed00	0.00023739412
23	0x3939e46c	0.00017728069
24	0x37cca99e	2.439768e-05
25	0x3ca47770	0.020076483
26	0x3b72a0b8	0.0037022065
27	0x3b73f1bd	0.0037222945
28	0x3b569b8d	0.0032746524
29	0x3a32bb8a	0.00068181066
30	0x3b5dc0bd	0.0033836805
31	0x319df18e	4.596763e-09
32	0x3c5bfc25	0.013426815
33	0x39ecfd8a	0.0004520233
34	0x3926f855	0.00015923505
35	0x394c0ce9	0.00019459765
36	0x3b548765	0.0032429334
37	0x3b3498d8	0.0027556922
38	0x3b82ea58	0.003995221
39	0x375b77e1	1.3081329e-05
40	0x3ab2b821	0.0013635197
41	0x3b3c072c	0.0028690798
42	0x35acccf9	1.2874654e-06
43	0x3ca295d3	0.019846832
44	0x3a1079f6	0.00055113377
45	0x3a82a394	0.0009966963
46	0x3c7b25a3	0.0153287975
47	0x3af8645b	0.0018950807
48	0x36167555	2.2420038e-06
49	0x3c392fb1	0.011302874
50	0x3b9a74e5	0.004713642
51	0x3c0432ed	0.008068782
52	0x3a995251	0.0011697506
53	0x3b0913b4	0.0020916285
54	0x3cb5d935	0.022198299
55	0x3813031b	3.5050423e-05
56	0x3c6765b1	0.014123366
57	0x3c90479d	0.017612273
58	0x3b4e8dc6	0.003151761
59	0x3ab7357b	0.001397773
60	0x3be000e6	0.0068360446
61	0x3a8f19df	0.0010917744
62	0x3c5d2224	0.013496909
63	0x322a6ece	9.920496e-09
64	0x3a7ccf20	0.0009643901
65	0x3b190477	0.0023348609
66	0x3b141868	0.0022597555
67	0x3a4c1736	0.0007785441
68	0x3bb8a560	0.0056349486
69	0x3c40a663	0.01175842
70	0x3c0131c4	0.0078854
71	0x3bb75e96	0.0055959923
72	0x3b1e3cce	0.002414513
73	0x3b543537	0.0032380351
74	0x3cb9a4c0	0.022661567
75	0x270671d4	1.8657942e-15
76	0x3b8d7dd1	0.004317977
77	0x3ad130bc	0.0015959959
78	0x3a438947	0.00074591156
79	0x3a5a4c47	0.0008327406
80	0x3cd41bbb	0.02589213
81	0x3c3d50ae	0.01155488
82	0x3692ddb8	4.3769505e-06
83	0x3bf3f31b	0.007444752
84	0x3c230312	0.0099494625
85	0x39daad33	0.00041709244
86	0x3ab5b4d2	0.0013863093
87	0x3af9382b	0.0019013932
88	0x39e12957	0.00042946145
89	0x3b9c9dd2	0.004779556
90	0x3b2d991a	0.002648896
91	0x3bb7c759	0.005608481
92	0x35df804c	1.6652134e-06
93	0x3c9b07a0	0.018924534
94	0x3c321323	0.01086882
95	0x36d4fd00	6.3475454e-06
96	0x3ac52314	0.0015040361
97	0x3bdf0969	0.0068065417
98	0x355f150c	8.31046e-07
99	0x3c54f13a	0.012996966
100	0x3b305686	0.002690704
101	0x3cc92aa4	0.024556465
102	0x3aa62c4d	0.0012677998
103	0x3b892a4c	0.0041859504
104	0x30e4d3c6	1.6649373e-09
105	0x3ccd202b	0.025039753
106	0x3aef36ff	0.0018250643
107	0x3c2a459c	0.010392573
108	0x3bd6e2f1	0.0065578152
109	0x3bf9b1f5	0.007620091
110	0x3c85d60f	0.016337423
111	0x3c063446	0.008191174
112	0x3bf33e3c	0.0074231904
113	0x36d88e0f	6.4538394e-06
114	0x364bef23	3.0388553e-06
115	0x3c8e67cc	0.017383479
116	0x3481c6ce	2.4172772e-07
117	0x382df5cc	4.147533e-05
118	0x3bad1113	0.0052815764
119	0x3c09e259	0.008415782
120	0x3ba760ca	0.0051079737
121	0x3c33b8da	0.010969365
122	0x3c0774fc	0.008267637
123	0x3bf7bf55	0.0075606504
124	0x3c53d42a	0.012929002
125	0x3c764969	0.015032151
126	0x3b29028f	0.0025788879
127	0x3a1c8f1e	0.0005972254

fc2.weight f4 [128, 128]
0	0xbc206f42	-0.009792151
1	0x3dc8ada7	0.097987466
2	0x3d505704	0.050864235
3	0x3e376a40	0.17911625
4	0xbc501ca4	-0.012702141
5	0xbdb76de0	-0.08956504
6	0xbded2784	-0.11579803
7	0x3c45fc30	0.012084052
8	0xbdb74bfb	-0.08950039
9	0xbcbf927a	-0.023385275
10	0xbd1e0069	-0.03857461
11	0x3d74785f	0.059685107
12	0x3d9ff4fb	0.07810398
13	0x3e0d6a24	0.1381002
14	0x3c917e58	0.01776044
15	0xbd914f01	-0.07095147
16	0x3dcaa940	0.09895563
17	0xbc3e5c60	-0.011618704
18	0xbcb551b1	-0.02213368
19	0xbd5c8d44	-0.05384566
20	0x3dc77271	0.09738625
21	0xbd97e59d	-0.07416842
22	0x3dfe91b5	0.12430135
23	0xbd8dadde	-0.06917928
24	0x3de1c08e	0.11023055
25	0x3c0904d3	0.008362967
26	0xbba1e590	-0.004940696
27	0xbd7ec75c	-0.062201843
28	0xbc8240ad	-0.01589998
29	0xbbaa9630	-0.005205892
30	0x3d029f98	0.03189048
31	0x3b488099	0.0030594228
32	0xbddc02d4	-0.10742727
33	0x3e21f409	0.15815748
34	0x3d9791fc	0.07400891
35	0x3c1b2446	0.0094690975
36	0x3d47a556	0.04874166
37	0xbdd98b4f	-0.10622274
38	0xbdc18576	-0.09449284
39	0xbda49fd3	-0.080382966
40	0xbdfb83cd	-0.122809984
41	0xbd98e626	-0.07465772
42	0xbd35809e	-0.044312112
43	0xbe15ada7	-0.14617024
44	0x3d6878b3	0.056755733
45	0x3d8a996a	0.06767543
46	0x3c83c2e1	0.016084136
47	0xbc57846f	-0.013154133
48	0xbd381e15	-0.044950563
49	0xbc9be636	-0.019030672
50	0x3c883931	0.016628833
51	0x3b936b33	0.004498863
52	0x3e4e10f1	0.2012365
53	0x3cf9b34e	0.030481007
54	0x3c2336dd	0.009961811
55	0x3cd27a65	0.025693128
56	0xbcafb885	-0.02145029
57	0xbd24424c	-0.040102288
58	0x3d5760e1	0.052582625
59	0x3ccee4bc	0.025255553
60	0xbe092f00	-0.13396835
61	0x3d452b08	0.04813674
62	0x3c8d7f12	0.017272506
63	0xbd2e52a1	-0.04255927
64	0xbcf2d9c7	-0.02964486
65	0xbddbca81	-0.10731984
66	0x3c7f44f6	0.015580406
67	0xbc6acee3	-0.014331552
68	0x3d48f61d	0.049062837
69	0xbc029180	-0.00796926
70	0x3e019b34	0.12656862
71	0xbdbe5b6a	-0.092947796
72	0xbdc6835e	-0.09693025
73	0x3d191736	0.03737565
74	0xbcc00868	-0.023441508
75	0x3d3c17fa	0.045921303
76	0xbd742e42	-0.059614427
77	0xbd9a8c56	-0.07546298
78	0xbc9fa606	-0.019488346
79	0x3d8d21d4	0.06891218
80	0x3c8b94e0	0.017038763
81	0x3d08db5c	0.033412322
82	0xbd98c183	-0.074587844
83	0xbc6c6d50	-0.014430359
84	0x3cc1f6b2	0.023677204
85	0x3c6afa96	0.014341971
86	0x3c45fe1f	0.012084513
87	0xbdc4188f	-0.09574997
88	0xbd127734	-0.035758212
89	0x3d9635c2	0.07334472
90	0x3cb9b5bc	0.022669666
91	0xbdbdb2b7	-0.09262603
92	0x3d9ecebc	0.07754275
93	0xbc5318e7	-0.012884355
94	0x3caf1d20	0.021376193
95	0xbcca8715	-0.024722615
96	0x3dcbb03a	0.09945722
97	0xbd5a221b	-0.05325518
98	0x3d8c0876	0.06837551
99	0x3d32f637	0.04369184
100	0xbdd60d01	-0.10451699
101	0xbe115a53	-0.14194612
102	0x3df6aeb9	0.120450445
103	0x3c783559	0.015149438
104	0x3b68d95b	0.0035529945
105	0x3daff090	0.085908055
106	0xbccf0f5e	-0.025275882
107	0x3c80ded4	0.015731253
108	0xbb8d7514	-0.0043169353
109	0xbce4d206	-0.027932178
110	0x3d9d3f45	0.07678083
111	0xbdd76ab0	-0.10518396
112	0x3d1f2f91	0.038863722
113	0x3d010c04	0.0315056
114	0xbdaad46a	-0.08341296
115	0x3cc0707d	0.023491139
116	0xbc927cd9	-0.017881798
117	0xbcfb2544	-0.030657418
118	0x3cf8f47b	0.030390015
119	0x3c6dc1c6	0.014511531
120	0xbe2f667c	-0.17128938
121	0xbde6206c	-0.11236653
122	0xbe0ac5d0	-0.13552022
123	0x3ad1e019	0.0016012221
124	0x3e289484	0.16462904
125	0x3e029abc	0.12754339
126	0xbd97d036	-0.0741276
127	0x3d06e090	0.032929003
128	0x3e17f44e	0.14839289
129	0x3d532d8c	0.05155711
130	0xbd50cb71	-0.050975267
131	0x3d63d9ca	0.05562762
132	0xbe36b7d3	-0.17843561
133	0x3d9e2fa3	0.0772393
134	0xbd4f914d	-0.05067568
135	0x3cbd4d50	0.023108155
136	0x3d49c5e5	0.049260993
137	0xbd1b13e7	-0.037860777
138	0xbbe51535	-0.0069910535
139	0xbcf9ed44	-0.030508645
140	0xbdcf2289	-0.10114009
141	0xbe036f1a	-0.1283535
142	0xbe06a293	-0.13147955
143	0xbe27a4fd	-0.16371532
144	0xbdda2aec	-0.10652718
145	0xbcbad668	-0.022807315
146	0xbd7ed82a	-0.06221787
147	0x3ce043d9	0.027376102
148	0x3cc726f5	0.024310568
149	0xbd5f4988	-0.054513484
150	0x3d84eaaf	0.06490075
151	0xbc89fa52	-0.016842995
152	0xb99e0878	-0.00030142418
153	0xbca6bb41	-0.020352961
154	0x3cfd61cc	0.030930422
155	0xbe37871a	-0.17922631
156	0xbd70a254	-0.05874856
157	0xbd752273	-0.059847306
158	0xbc6f42a3	-0.01460329
159	0xbbd3416f	-0.0064470093
160	0x3c39ba5c	0.011335935
161	0xbc8846c4	-0.016635306
162	0xbd0c1e13	-0.03420837
163	0x3e2725b3	0.16322975
164	0xbd62dea0	-0.055388093
165	0x3cea08a0	0.028568566
166	0xbe84d527	-0.25943872
167	0xbd77deb7	-0.06051513
168	0xbe4cc749	-0.19997896
169	0xbd057aa9	-0.03258768
170	0xbd466f31	-0.048445884
171	0xbe6b548f	-0.22981475
172	0xbb2af437	-0.0026085505
173	0xbc469c3f	-0.012122213
174	0x3c9e068a	0.019290227
175	0x3c4c6094	0.012474198
176	0x3d40711c	0.04698287
177	0xbbbd8552	-0.0057837153
178	0x3e23da46	0.16001233
179	0xbda56aba	-0.08076997
180	0x3cd8eae5	0.026479194
181	0xbcb9cbe0	-0.022680223
182	0x3d0730a8	0.033005387
183	0xbcbf3270	-0.02333948
184	0x3caff9e5	0.021481464
185	0xbd850642	-0.06495334
186	0x3da912fa	0.082555726
187	0xbbae321b	-0.0053160316
188	0x3c9cd44c	0.0191442
189	0xbd63000e	-0.055419974
190	0xbd0b03f3	-0.033939313
191	0x3d6fe92f	0.05857199
192	0x3b4fee0d	0.0031727583
193	0xbc9bb84a	-0.019008774
194	0xbd72ca1d	-0.05927478
195	0x3c4b5e42	0.0124126095
196	0xbdd929ab	-0.10603651
197	0x3d64fa9d	0.055903066
198	0xbd50096b	-0.05079023
199	0xbdde2cb5	-0.10848371
200	0x3beda1d5	0.007251958
201	0xbe1c737f	-0.15278433
202	0x3c96b5f9	0.018397318
203	0xbb980013	-0.0046386807
204	0x3d57afb2	0.05265779
205	0x3c3fa339	0.01169663
206	0x3d14bcef	0.036312994
207	0x3d3f896c	0.046761915
208	0x3d2b6fd8	0.04185471
209	0x3d92e1db	0.07171985
210	0x3d81f2e1	0.063451536
211	0xbd7c4a58	-0.061594337
212	0x3d23e208	0.040010482
213	0x382590aa	3.9473794e-05
214	0xbbfbae3e	-0.0076806834
215	0xbd93e2f6	-0.07221024
216	0xbc22d5a3	-0.00993863
217	0xbcbfd71b	-0.023418
218	0xbe30e282	-0.17273906
219	0xbdb27fce	-0.08715783
220	0x3be411b7	0.0069601196
221	0xbce7deee	-0.028304543
222	0xbd35035c	-0.044192657
223	0xbe213dce	-0.15746233
224	0xbc9478b8	-0.01812397
225	0x3d89e564	0.06733206
226	0x3d98e74c	0.074659914
227	0x3b2f7ae6	0.0026776134
228	0x3cde4b9a	0.027135659
229	0xbc07cd2a	-0.008288661
230	0x3bd4b908	0.006491784
231	0x3c371795	0.011175056
232	0xbd80f8b9	-0.0629744
233	0xbcccb27f	-0.024987457
234	0xbdcb91d4	-0.09939924
235	0xbd3dbedd	-0.0463246
236	0x3ce0703e	0.027397271
237	0x3c87a6ad	0.01655897
238	0xbd7a6069	-0.0611271
239	0xbd48e24e	-0.049043946
240	0x3d43242a	0.04764191
241	0xbc8857b2	-0.016643379
242	0x3cbf8a73	0.023381447
243	0xbdc18f44	-0.09451154
244	0xbd157aad	-0.036493946
245	0xbd11cba8	-0.035594612
246	0x3c7f50ef	0.015583261
247	0x3bab0511	0.00521911
248	0xbde8bb73	-0.11363878
249	0xbc48d937	-0.012258819
250	0x3e2688cd	0.16263123
251	0xbdd18642	-0.10230686
252	0x3befe313	0.0073207705
253	0x3c8df69a	0.017329503
254	0x3d193a77	0.037409272
255	0xbafd24ef	-0.0019313375

fc2.bias f4 [128]
0	0x3ba10f20	0.004915133
1	0xbe003acf	-0.12522434
2	0xbde5595b	-0.11198684
3	0x3d57124b	0.05250768
4	0xbe1b9945	-0.15195186
5	0x3d5c8ddb	0.05384622
6	0xbddcd14c	-0.10782108
7	0xbd49eca6	-0.04929795
8	0xbde77494	-0.113015324
9	0xbca5b6c6	-0.020228755
10	0x3b259069	0.0025263077
11	0xbd34586d	-0.044029642
12	0xbe34c243	-0.1765223
13	0x3dc6b885	0.09703163
14	0xbdcfb962	-0.10142781
15	0xbe3d76a7	-0.18502294
16	0xbdb3def1	-0.08782757
17	0xbe1ab8f8	-0.15109622
18	0xbdcf2ea1	-0.10116316
19	0xbe2bcd33	-0.16777496
20	0xbe3af8ea	-0.18259016
21	0xbe071cf0	-0.13194633
22	0xbcf76999	-0.03020172
23	0x3c1c2a52	0.009531574
24	0xbd85d645	-0.06535009
25	0x3c8eb5ae	0.017420616
26	0xbc38ce88	-0.01127971
27	0xbe2f219d	-0.17102666
28	0xbdf98247	-0.121830516
29	0xbe3e32a7	-0.1857401
30	0xbe0936b0	-0.13399768
31	0xbd01188f	-0.03151756
32	0xbc8d84f8	-0.017275319
33	0xbb568a42	-0.0032736217
34	0xbcaca4d9	-0.0210747
35	0x3d4bc3e3	0.04974736
36	0x3d56c0e9	0.052430067
37	0xbd9f3107	-0.07773023
38	0x3c25a817	0.0101108765
39	0x3d333fb2	0.043761916
40	0xbd7b0592	-0.06128461
41	0xbe2bca2a	-0.16776338
42	0xbdc89021	-0.097931154
43	0x3c7594da	0.014989102
44	0xbd811a12	-0.06303801
45	0xbd46a381	-0.048495773
46	0xbe47bde1	-0.19506027
47	0xbdb93b1e	-0.09044479
48	0x3d06ef6a	0.032943167
49	0xbd8659c9	-0.06560094
50	0xbe4753d3	-0.1946557
51	0x3d0bfa45	0.034174222
52	0x3cee93ca	0.029123206
53	0xbdae7a3b	-0.08519407
54	0xbcc50106	-0.02404834
55	0xbdf11b7a	-0.11772819
56	0xbd148c21	-0.03626645
57	0xbddef0a7	-0.108857445
58	0xbd760257	-0.060060825
59	0xbda0cad0	-0.078511834
60	0xbd64a206	-0.05581858
61	0xbd514d0a	-0.05109886
62	0xbdd7ca1a	-0.10536595
63	0xbe6853ce	-0.22688219
64	0x3db75058	0.08950871
65	0xbd82b873	-0.06382837
66	0xbd504dc1	-0.050855402
67	0xbbb4e89e	-0.005520894
68	0x3bc00dcd	0.00586102
69	0xbe21c995	-0.15799554
70	0xbe0f9255	-0.14020665
71	0xbcfce1e0	-0.030869424
72	0xbe13ebed	-0.14445467
73	0xbc9b601a	-0.018966723
74	0xbdc63c5c	-0.096794814
75	0xbe2ff032	-0.17181471
76	0x3a47d1ae	0.0007622492
77	0xbcc040a8	-0.02346833
78	0x3d4e4c39	0.05036566
79	0xbddbbdbc	-0.10729548
80	0xbda589e7	-0.080829434
81	0xbde27156	-0.11056773
82	0xbe442323	-0.19154029
83	0xbe439fca	-0.19103923
84	0x3d9be126	0.07611303
85	0xbd1cefa5	-0.03831448
86	0xbd1ac5fa	-0.03778646
87	0xbda5602c	-0.08074984
88	0xbe088ef4	-0.13335782
89	0xbc70e2cf	-0.014702513
90	0xbde880c8	-0.11352688
91	0xbddb8fad	-0.10720763
92	0xbe109a4b	-0.14121358
93	0xbc9b9c02	-0.018995289
94	0x3d015fab	0.031585377
95	0xbdf37376	-0.11887257
96	0xbdc06ba8	-0.09395534
97	0xbbe74f64	-0.0070590246
98	0xbdcacf91	-0.099028714
99	0xbdfdcc91	-0.123925336
100	0x3cb7c53f	0.022432921
101	0xbda26f49	-0.07931382
102	0xbdc6c814	-0.097061306
103	0xbe655bcd	-0.223983
104	0x3d5a6b1d	0.053324807
105	0x3d19746e	0.03746455
106	0xbe016925	-0.12637766
107	0x3db49ade	0.08818601
108	0xbb4030b3	-0.0029325902
109	0xbd6a2ef5	-0.057173688
110	0xbcc6688a	-0.02421977
111	0xbd8c16ed	-0.0684031
112	0xbdca6645	-0.098827876
113	0xbd451c99	-0.048122976
114	0x3d839801	0.06425477
115	0xbc58b56e	-0.01322685
116	0xbdbd9d3a	-0.09258504
117	0xbe0db40c	-0.13838214
118	0xbc8b7379	-0.017022835
119	0x3d261368	0.04054585
120	0xbd89aea5	-0.06722764
121	0xbe0a4356	-0.13502249
122	0xbc2b98b9	-0.010473424
123	0xbdd12664	-0.102124006
124	0xbb8aa3f1	-0.004230969
125	0xbcaf2684	-0.02138067
126	0xbe0f28f4	-0.13980466
127	0x3d865c53	0.06560578

bn3.weight f4 [128]
0	0x3f747f76	0.9550699
1	0x3fb8489a	1.4397156
2	0x3f83ee95	1.0307184
3	0x3fa878dc	1.3161883
4	0x3f9b5ffc	1.2138667
5	0x3f462ba6	0.7741035
6	0x3f8af522	1.0856059
7	0x3f31aa05	0.69400054
8	0x3f98e3b5	1.1944491
9	0x3f73ec50	0.9528246
10	0x3f880073	1.0625137
11	0x3f97002b	1.1796926
12	0x3fb6834d	1.425882
13	0x3fab5d72	1.3387892
14	0x3f968766	1.176007
15	0x3f3c72dc	0.7361276
16	0x3f4eb130	0.80739117
17	0x3f786af0	0.97038174
18	0x3f51a037	0.81885093
19	0x3f824be4	1.017941
20	0x3ee2b44a	0.44278175
21	0x3f97b52c	1.1852164
22	0x3f616bd6	0.8805517
23	0x3f6fe514	0.9370892
24	0x3fb359eb	1.4011816
25	0x3fa8146f	1.3131236
26	0x3f95b749	1.1696559
27	0x3ef5f1de	0.48036093
28	0x3fb01a60	1.3758049
29	0x3f9103d7	1.1329297
30	0x3faa598a	1.3308575
31	0x3f12e81e	0.5738543
32	0x3f50aaf2	0.8151084
33	0x3f4ebbf2	0.8075553
34	0x3f960b9e	1.1722295
35	0x3f5373a9	0.8259836
36	0x3f9bf0d3	1.2182869
37	0x3f628ff7	0.8850092
38	0x3f8a7625	1.0817305
39	0x3f82eb70	1.02281
40	0x3f42ca0e	0.7608956
41	0x3fb0828d	1.3789841
42	0x3f43f38d	0.76543504
43	0x3f7041f1	0.9385062
44	0x3fa24d18	1.2679777
45	0x3f255b4a	0.6459242
46	0x3f843147	1.0327538
47	0x3f636138	0.8882022
48	0x3f9b815e	1.2148855
49	0x3f54fbaf	0.8319654
50	0x3f6b3514	0.91877866
51	0x3fb8d82e	1.4440973
52	0x3f25afa4	0.6472113
53	0x3f85763a	1.0426705
54	0x3f983985	1.1892554
55	0x3f724264	0.94632554
56	0x3fb499f9	1.4109489
57	0x3f87c179	1.0605918
58	0x3f8aa885	1.0832678
59	0x3f68a171	0.9087134
60	0x3f8a3027	1.0795945
61	0x3f5867d7	0.8453345
62	0x3f6cb725	0.92466956
63	0x3f2be5cf	0.67147535
64	0x3f890207	1.0703744
65	0x3fa29ee7	1.2704743
66	0x3fc4a41d	1.5362583
67	0x3fe0258c	1.7511458
68	0x3fa02da6	1.2513931
69	0x3f8475fa	1.0348504
70	0x3f7cfa83	0.9881975
71	0x3f13f3f0	0.57794094
72	0x3fa2c4c3	1.2716297
73	0x3fade987	1.3586892
74	0x3f8316ce	1.0241334
75	0x3fa3a981	1.2786103
76	0x3f950862	1.1643183
77	0x3f89b137	1.0757207
78	0x3f7f3348	0.99687624
79	0x3f619003	0.8811037
80	0x3f947d2a	1.1600697
81	0x3f3be32f	0.7339353
82	0x3f479981	0.77968603
83	0x3f7c551d	0.9856737
84	0x3fb321a6	1.3994644
85	0x3f4476c9	0.7674375
86	0x3f54e7ae	0.83166015
87	0x3f7aadf4	0.9792168
88	0x3f15a9e6	0.5846237
89	0x3f82aa28	1.0208178
90	0x3f8b9069	1.0903445
91	0x3f4872c4	0.7830012
92	0x3f4797b1	0.7796584
93	0x3fa4b238	1.2866888
94	0x3fb1bd6b	1.3885931
95	0x3fa6e9aa	1.3040059
96	0x3fb0818c	1.3789535
97	0x3f76b899	0.96375424
98	0x3f4931eb	0.78591794
99	0x3f664822	0.89953816
100	0x3faa811a	1.3320649
101	0x3f8586ff	1.0431823
102	0x3f2beae7	0.6715531
103	0x3f50b927	0.8153252
104	0x3fa9740e	1.3238542
105	0x3f92852d	1.1446892
106	0x3f9364e5	1.1515166
107	0x3fa0e6fb	1.257049
108	0x3f862adc	1.048183
109	0x3f7aaf65	0.9792388
110	0x3f2c6fa8	0.67357874
111	0x3f5d52cb	0.8645446
112	0x3f4281e5	0.75979453
113	0x3f328157	0.69728607
114	0x3f417ef0	0.75584316
115	0x3f821dd6	1.0165355
116	0x3f5b331d	0.8562487
117	0x3f39dd68	0.72603464
118	0x3f6c6f7d	0.9235762
119	0x3fc08b60	1.5042534
120	0x3f8d57a6	1.1042373
121	0x3f5e7b5e	0.86906993
122	0x3f98d381	1.1939546
123	0x3f9bbe48	1.2167444
124	0x3fa97e83	1.3241733
125	0x3fa86ecf	1.3158816
126	0x3f27f345	0.65605575
127	0x3f87cd66	1.0609558

bn3.bias f4 [128]
0	0x3db8af56	0.09017818
1	0xbc24f57a	-0.010068292
2	0x3d3667e5	0.044532675
3	0xbcbcfe5d	-0.023070509
4	0xbb59397c	-0.0033145836
5	0x3c8f0ffd	0.017463678
6	0x3db67596	0.089091465
7	0x3bac9f5e	0.0052680215
8	0xba161e9f	-0.0005726609
9	0x3d818f8d	0.06326208
10	0xbd032286	-0.032015346
11	0xbd8a4aee	-0.06752573
12	0x3ded5af1	0.11589611
13	0xbbd5ec5b	-0.00652842
14	0xbd534e75	-0.051588494
15	0x3c45228d	0.012032163
16	0xbaf4233e	-0.0018626226
17	0x3d697dbf	0.057004686
18	0x3da20382	0.07910825
19	0x3e1d21b6	0.15344891
20	0x3c31f5b5	0.010861804
21	0x3dc3e2bf	0.09564733
22	0x3d6fb842	0.05852533
23	0x3dae75a5	0.08518533
24	0x3d2e8e08	0.04261592
25	0x3dc6997b	0.09697243
26	0xbd8861fb	-0.06659313
27	0xbc95f303	-0.018304354
28	0x3d08b167	0.03337231
29	0x3dea9eb9	0.11456055
30	0xbd1096e5	-0.035300154
31	0x3b53dcf9	0.0032327755
32	0xbd66bf14	-0.05633457
33	0xbd5584b0	-0.052128494
34	0x3c385dbb	0.011252816
35	0xbdeab4e6	-0.11460285
36	0xbdc88974	-0.09791842
37	0x3c40598f	0.011740102
38	0xbb40dd26	-0.002942869
39	0x3da0ceb3	0.07851925
40	0x3d649e0f	0.0558148
41	0x3ca5b7fd	0.020229334
42	0x3caed943	0.021343833
43	0xbcf2bade	-0.02963012
44	0x3db1f091	0.086884625
45	0xbd5ea2f2	-0.054354616
46	0xbd7414dd	-0.05959021
47	0xbd3d6e27	-0.046247628
48	0x3dbd8c84	0.09255317
49	0xbb16fa93	-0.0023037537
50	0xbd7c1e99	-0.061552618
51	0xbb96b0af	-0.004598699
52	0xbdd8b1e4	-0.10580805
53	0x3d2ee805	0.04270174
54	0x3d7c1bbb	0.061549883
55	0x3d01d251	0.031694714
56	0x3c7a8f42	0.015292944
57	0xbe02c0e9	-0.12768902
58	0xbd92e392	-0.07172312
59	0x3e0d0bba	0.13774005
60	0xbd23db6b	-0.040004175
61	0x3dc99a12	0.0984384
62	0x3d1b771d	0.037955392
63	0x3d11fd4c	0.035641953
64	0xbc66ab7d	-0.014078972
65	0x3caa2ec0	0.020774245
66	0x3d8e66ae	0.06953178
67	0xbce3d63c	-0.027812116
68	0xbd35163d	-0.04421066
69	0x3e3b4e33	0.1829155
70	0x3d6966ce	0.056982808
71	0x3d243953	0.04009373
72	0xbce76f62	-0.028251354
73	0xbd60d7cb	-0.054893296
74	0xba65dd59	-0.000876864
75	0x3d1d17a7	0.038352635
76	0x3c4a6029	0.012352028
77	0x3d43a9ce	0.04776936
78	0xbd0ec962	-0.034860022
79	0x3d60456b	0.054753702
80	0xbd3075b5	-0.043081004
81	0x3d19fe56	0.03759607
82	0x3d4ac1d8	0.04950127
83	0x3d5ad222	0.053423055
84	0x3e0aa773	0.1354044
85	0xbc8abee9	-0.016936736
86	0x3d118cbe	0.035534613
87	0x3d14a2dd	0.03628813
88	0x3cbf2868	0.023334697
89	0xbd7320b2	-0.059357353
90	0x3dc7de34	0.09759179
91	0x3b9f42ac	0.004860243
92	0xbd0703ad	-0.03296249
93	0x3d7300d1	0.05932695
94	0x3d774fe6	0.06037893
95	0x398d6de5	0.00026975494
96	0xbbe448cd	-0.0069666863
97	0xbd8a8284	-0.06763175
98	0x3b501299	0.0031749366
99	0xbd7ac96b	-0.061227243
100	0x3d0f7475	0.03502317
101	0x3cc1b066	0.023643684
102	0xbd52c968	-0.051461607
103	0x3c6b1d6f	0.014350279
104	0x3d825086	0.06363015
105	0xbda3d284	-0.07999137
106	0xbcb9f62e	-0.022700395
107	0xbc0e6722	-0.008691581
108	0xbd8c156b	-0.06840023
109	0x3d827e84	0.06371787
110	0xbbb98fd1	-0.005662896
111	0xbca0d150	-0.019631058
112	0xbd0116d4	-0.03151591
113	0x3d8b94bb	0.068154775
114	0x3d9a527c	0.07535264
115	0x3da5c92c	0.08095011
116	0xbd0b0e21	-0.03394902
117	0x3d6dc521	0.058049325
118	0xbd8ba089	-0.06817729
119	0xbdd5bcd7	-0.10436409
120	0xbc3ac0dd	-0.011398521
121	0xbc6299db	-0.013830627
122	0x3dea92d1	0.11453784
123	0x3da1c70e	0.07899295
124	0x3d9f3f21	0.07775713
125	0x3e0c6216	0.13709292
126	0x3d63ab41	0.055583242
127	0xbd3fecc0	-0.04685664

bn3.running_mean f4 [128]
0	0x3d5117a5	0.05104794
1	0x00000004	6e-45
2	0x00000004	6e-45
3	0x3e20e7b0	0.15713382
4	0x38f946fa	0.00011886466
5	0x3ecb4d77	0.39707538
6	0x399dc2e3	0.00030090575
7	0x3d849e68	0.06475526
8	0x00000004	6e-45
9	0x3d85328a	0.0650378
10	0x38857347	6.363406e-05
11	0x3a9300d0	0.0011215452
12	0x3aca11ca	0.0015416679
13	0x3e769ad6	0.24082503
14	0x37a308bc	1.9435181e-05
15	0x00000004	6e-45
16	0x3b272c58	0.0025508609
17	0x3b0d734e	0.002158362
18	0x3d1582bc	0.03650163
19	0x393107bc	0.00016882917
20	0x3a3f7263	0.0007303117
21	0x39964524	0.00028661743
22	0x3c40398a	0.011732468
23	0x3e60a425	0.21937616
24	0x3d9ba7a6	0.07600336
25	0x3d28c6a4	0.041205063
26	0x3d714651	0.05890495
27	0x3ac7805e	0.0015220752
28	0x00000004	6e-45
29	0x3abb4b37	0.0014289384
30	0x39e8d301	0.00044407698
31	0x3d1df2f6	0.038561784
32	0x3c6581bc	0.014007982
33	0x3d33f80f	0.04393774
34	0x3dbcd207	0.09219747
35	0x3dda17e8	0.10649091
36	0x3cb24ad8	0.021764204
37	0x3c225964	0.009909008
38	0x3d9cdf26	0.0765975
39	0x3e853b96	0.26022023
40	0x3d79540d	0.060871173
41	0x3090dae8	1.0539596e-09
42	0x37008281	7.65978e-06
43	0x3decf268	0.11569673
44	0x3d011d2d	0.031521965
45	0x3813131d	3.506533e-05
46	0x318af8f9	4.0446335e-09
47	0x3d26a81c	0.040687665
48	0x3e8a4c0d	0.27011147
49	0x3c98e447	0.018663539
50	0x3b20e30b	0.002454939
51	0x3d9fe749	0.07807786
52	0x3eabdec7	0.33568403
53	0x3e334ebf	0.17510508
54	0x3d2cf64b	0.04222707
55	0x391f2923	0.00015178746
56	0x3e13a64f	0.1441891
57	0x3d62e9fc	0.055398926
58	0x384db74c	4.9046517e-05
59	0x23ff9c08	2.7713237e-17
60	0x3c9a4045	0.018829474
61	0x3824d8d0	3.930257e-05
62	0x3987fdfe	0.00025938445
63	0x393085c8	0.00016834505
64	0x3ec81584	0.39078915
65	0x3cdbbbcb	0.026822945
66	0x3c61b2ce	0.0137755405
67	0x3c24174b	0.010015319
68	0x3d902619	0.070385166
69	0x371e18df	9.423325e-06
70	0x00000004	6e-45
71	0x3b827575	0.003981287
72	0x3ba0a3d4	0.0049023423
73	0x3ab61f6e	0.0013894865
74	0x3789de94	1.6435319e-05
75	0x3b7ce8e2	0.0038590957
76	0x3ca60803	0.020267492
77	0x3d79a8fd	0.060952175
78	0x3db1e479	0.08686156
79	0x3b0a7e1b	0.0021132294
80	0x3913061d	0.0001402129
81	0x3a4439e1	0.0007485431
82	0x3bcbebc1	0.0062231724
83	0x00000004	6e-45
84	0x3e94e091	0.2907758
85	0x3e07cd3f	0.13261889
86	0x3ca72deb	0.020407638
87	0x3c44ce30	0.01201205
88	0x36c3f28b	5.8396886e-06
89	0x3d2b2f26	0.04179301
90	0x3d11b5b5	0.03557368
91	0x39515ea9	0.00019967057
92	0x389b6a33	7.410757e-05
93	0x3c0e20ef	0.008674844
94	0x3d90cb00	0.07069969
95	0x3d8b48a1	0.06800962
96	0x3673be01	3.6320419e-06
97	0x3ea8855d	0.32914248
98	0x3cb3d14f	0.021950392
99	0x00000004	6e-45
100	0x3dba9836	0.09111063
101	0x3bcfbefc	0.006339906
102	0x3d79bb8c	0.060969874
103	0x3a82ea6d	0.0009988077
104	0x3d84e495	0.06488911
105	0x3cdc1f76	0.02687047
106	0x3ce7af5c	0.02828186
107	0x3e375c68	0.17906344
108	0x3c94e6d9	0.018176483
109	0x3a78597e	0.00094737846
110	0x3cd32cb1	0.025778146
111	0x3e50f688	0.20406544
112	0x3a901050	0.001099119
113	0x39875137	0.00025809716
114	0x3d81a9bb	0.06331202
115	0x3d95940c	0.07303628
116	0x3ac9b85b	0.0015390025
117	0x3b3a5817	0.0028433853
118	0x3dcbd5d6	0.09952895
119	0x3dce4673	0.10072031
120	0x3e1d9151	0.15387465
121	0x3a6ad69d	0.00089583715
122	0x3c5e9963	0.013586375
123	0x2e0197cd	2.946603e-11
124	0x3c096e43	0.008388105
125	0x2fc9d472	3.6712638e-10
126	0x33c733cb	9.276081e-08
127	0x3e9af63a	0.3026598

bn3.running_var f4 [128]
0	0x3c6e7bbf	0.014555871
1	0x00000004	6e-45
2	0x00000004	6e-45
3	0x3d89aed5	0.067228
4	0x38081047	3.2440086e-05
5	0x3e6ce28f	0.231333
6	0x39185137	0.00014526104
7	0x3cef65d3	0.029223358
8	0x00000004	6e-45
9	0x3ca6b61f	0.020350514
10	0x36cd4334	6.1172996e-06
11	0x397ff889	0.00024411282
12	0x3ac2c784	0.0014860486
13	0x3ddb4c68	0.10707933
14	0x3777d88f	1.4772769e-05
15	0x00000004	6e-45
16	0x3b1a446e	0.0023539322
17	0x3af1eb05	0.0018456882
18	0x3c60f220	0.013729602
19	0x3851acac	4.9990296e-05
20	0x39eee132	0.0004556268
21	0x38ad956f	8.277117e-05
22	0x3b933d65	0.004493403
23	0x3dbabc1b	0.091179095
24	0x3c770428	0.0150766745
25	0x3c28c9b6	0.010301998
26	0x3cbd954e	0.023142483
27	0x3b1dc2b8	0.002407236
28	0x00000004	6e-45
29	0x3abdd465	0.0014482854
30	0x3a003b2f	0.00048916315
31	0x3c6ddb10	0.014517561
32	0x3b8b7274	0.0042555872
33	0x3c58fa90	0.0132433325
34	0x3cda9352	0.026681576
35	0x3d08fc2a	0.033443607
36	0x3bcc301c	0.006231321
37	0x3b267b2e	0.002540301
38	0x3ce04e17	0.027380986
39	0x3df9eedc	0.12203762
40	0x3c9fc7a6	0.01950438
41	0x2f11545d	1.3217645e-10
42	0x352d5fef	6.4587124e-07
43	0x3d3fec8d	0.04685645
44	0x3c64855c	0.013947811
45	0x36cad665	6.045028e-06
46	0x3103024e	1.906432e-09
47	0x3c82cd40	0.015967011
48	0x3df69930	0.12040937
49	0x3ba9de31	0.005183958
50	0x3b3d93e3	0.0028927259
51	0x3cb7ea86	0.022450697
52	0x3e5502b6	0.20801815
53	0x3d9b0980	0.07570171
54	0x3c71e3a2	0.014763745
55	0x381f2a3f	3.79479e-05
56	0x3d453cca	0.048153676
57	0x3cb60b61	0.022222223
58	0x37b5cad9	2.167134e-05
59	0x220c599f	1.9020983e-18
60	0x3bea0823	0.0071420833
61	0x375e605c	1.3254667e-05
62	0x38cae110	9.674032e-05
63	0x387c8f95	6.0215203e-05
64	0x3e00f397	0.12592922
65	0x3c484a5c	0.01222476
66	0x3b5605fe	0.003265738
67	0x3ade48aa	0.0016958911
68	0x3c92898c	0.017887853
69	0x3594b8fc	1.1080697e-06
70	0x00000004	6e-45
71	0x3a79cb31	0.0009528874
72	0x3a989ef2	0.0011644049
73	0x39ac772e	0.00032895192
74	0x36824e4e	3.883418e-06
75	0x3b33720b	0.0027381207
76	0x3bcb04f8	0.0061956607
77	0x3c477ef1	0.012176261
78	0x3cf4fa30	0.029904455
79	0x3a03d8b7	0.00050295464
80	0x38e61fb6	0.00010973161
81	0x3a1504fa	0.00056846405
82	0x3bedcb71	0.007256918
83	0x00000004	6e-45
84	0x3d895c9d	0.06707118
85	0x3d0c61c5	0.034272928
86	0x3bc7c76a	0.00609677
87	0x3b56ea4f	0.0032793467
88	0x35ffd8a2	1.9062029e-06
89	0x3c0116ad	0.0078789415
90	0x3c0e5ce9	0.008689144
91	0x38d6b851	0.00010238647
92	0x37e2d55a	2.7040649e-05
93	0x3b81feb2	0.0039671296
94	0x3c8d1651	0.017222555
95	0x3c73f666	0.014890289
96	0x34cc90c0	3.810328e-07
97	0x3e08e522	0.13368657
98	0x3bca053b	0.0061651743
99	0x00000004	6e-45
100	0x3cc1998f	0.023632793
101	0x3b208eee	0.0024499255
102	0x3c6fbfb1	0.014633105
103	0x3ac3a367	0.0014926017
104	0x3cd0756f	0.025446622
105	0x3c06ea8c	0.008234631
106	0x3c83c5c6	0.016085517
107	0x3d99a8e6	0.07502918
108	0x3b72f76f	0.0037073751
109	0x39dd884d	0.00042253957
110	0x3be6c04e	0.0070419675
111	0x3da44b3e	0.08022164
112	0x3a88644f	0.0010405871
113	0x38d29736	0.000100417456
114	0x3cfb6fe8	0.03069301
115	0x3c9ff1bd	0.01952445
116	0x3ae2b901	0.0017297567
117	0x3b6d66c3	0.003622458
118	0x3cf73183	0.030174976
119	0x3c918596	0.017763894
120	0x3d2cb11a	0.042161085
121	0x3a034c89	0.0005008658
122	0x3b1c0198	0.002380466
123	0x2d09d73c	7.83534e-12
124	0x3b0359cc	0.0020042537
125	0x2ea18cd5	7.346449e-11
126	0x32a05153	1.8663433e-08
127	0x3d6962eb	0.0569791
