mode_weights/agent16_critic_target.pth (torch_old, 93523 bytes, 17 tensors)

bn1.weight f4 [33]
000000 c3 15 fe 3e 5a aa 44 3f a8 33 b5 3d 00 33 07 3e
       0.49625978 0.76822436 0.08847743 0.13203049
000010 86 66 9d 3e fb 52 22 3f 86 ed fa 3e 67 7d 65 3f
       0.30742282 0.6340787 0.4900934 0.89644474
000020 12 48 e9 3e d3 de 21 3f 2a a2 b2 3e e4 ad cd 3e
       0.45562798 0.6323063 0.34889346 0.4017173
000030 80 e4 b6 3c 5c e9 2c 3e 8c 78 96 3e d8 bd 04 3f
       0.022325754 0.16885895 0.29388845 0.5185218
000040 58 9a 32 3f 8c cd 4c 3f 70 e5 24 3e 82 85 90 3e
       0.6976676 0.8000114 0.16103148 0.28226858
000050 e6 7d 2e 3f 27 4a 6a 3f ae 50 cb 3e ae c8 5f 3f
       0.68160856 0.915194 0.3970999 0.8741559
000060 b0 bc d6 3e 51 8b 0d 3f a5 e6 73 3f 90 21 14 3d
       0.41940832 0.55290705 0.9527381 0.03616482
000070 45 ad 3d 3e 90 30 bf 3e 12 36 9c 3e 94 97 6e 3f
       0.18523128 0.37341738 0.30510002 0.9320004
000080 cc 21 34 3e
       0.17591017

bn1.bias f4 [33]
000000 00 00 00 00 00 00 00 00 00 00 00 00 00 00 00 00
       0.0 0.0 0.0 0.0
000010 00 00 00 00 00 00 00 00 00 00 00 00 00 00 00 00
       0.0 0.0 0.0 0.0
000020 00 00 00 00 00 00 00 00 00 00 00 00 00 00 00 00
       0.0 0.0 0.0 0.0
000030 00 00 00 00 00 00 00 00 00 00 00 00 00 00 00 00
       0.0 0.0 0.0 0.0
000040 00 00 00 00 00 00 00 00 00 00 00 00 00 00 00 00
       0.0 0.0 0.0 0.0
000050 00 00 00 00 00 00 00 00 00 00 00 00 00 00 00 00
       0.0 0.0 0.0 0.0
000060 00 00 00 00 00 00 00 00 00 00 00 00 00 00 00 00
       0.0 0.0 0.0 0.0
000070 00 00 00 00 00 00 00 00 00 00 00 00 00 00 00 00
       0.0 0.0 0.0 0.0
000080 00 00 00 00
       0.0

bn1.running_mean f4 [33]
000000 00 00 00 00 00 00 00 00 00 00 00 00 00 00 00 00
       0.0 0.0 0.0 0.0
000010 00 00 00 00 00 00 00 00 00 00 00 00 00 00 00 00
       0.0 0.0 0.0 0.0
000020 00 00 00 00 00 00 00 00 00 00 00 00 00 00 00 00
       0.0 0.0 0.0 0.0
000030 00 00 00 00 00 00 00 00 00 00 00 00 00 00 00 00
       0.0 0.0 0.0 0.0
000040 00 00 00 00 00 00 00 00 00 00 00 00 00 00 00 00
       0.0 0.0 0.0 0.0
000050 00 00 00 00 00 00 00 00 00 00 00 00 00 00 00 00
       0.0 0.0 0.0 0.0
000060 00 00 00 00 00 00 00 00 00 00 00 00 00 00 00 00
       0.0 0.0 0.0 0.0
000070 00 00 00 00 00 00 00 00 00 00 00 00 00 00 00 00
       0.0 0.0 0.0 0.0
000080 00 00 00 00
       0.0

bn1.running_var f4 [33]
000000 00 00 80 3f 00 00 80 3f 00 00 80 3f 00 00 80 3f
       1.0 1.0 1.0 1.0
000010 00 00 80 3f 00 00 80 3f 00 00 80 3f 00 00 80 3f
       1.0 1.0 1.0 1.0
000020 00 00 80 3f 00 00 80 3f 00 00 80 3f 00 00 80 3f
       1.0 1.0 1.0 1.0
000030 00 00 80 3f 00 00 80 3f 00 00 80 3f 00 00 80 3f
       1.0 1.0 1.0 1.0
000040 00 00 80 3f 00 00 80 3f 00 00 80 3f 00 00 80 3f
       1.0 1.0 1.0 1.0
000050 00 00 80 3f 00 00 80 3f 00 00 80 3f 00 00 80 3f
       1.0 1.0 1.0 1.0
000060 00 00 80 3f 00 00 80 3f 00 00 80 3f 00 00 80 3f
       1.0 1.0 1.0 1.0
000070 00 00 80 3f 00 00 80 3f 00 00 80 3f 00 00 80 3f
       1.0 1.0 1.0 1.0
000080 00 00 80 3f
       1.0

fcs1.weight f4 [128, 33]
000000 85 1c 3d bb 92 ca d9 3b e3 77 c4 37 90 ac 6e bb
       -0.002885611 0.0066464627 2.3420847e-05 -0.0036418773
000010 51 32 ee 39 e3 47 ac 38 08 fc e2 b8 0e 93 53 3b
       0.00045432386 8.214989e-05 -0.00010823464 0.0032283696
000020 0b 33 06 3a 60 10 79 ba 55 9c 83 bb aa 72 cc 39
       0.00051193003 -0.0009501036 -0.004016439 0.00038995343
000030 80 e7 03 bc 59 f2 71 ba d1 fe f0 3b 5b 1a 12 3a
       -0.008050799 -0.0009229533 0.007354595 0.0005573385
000040 6a 25 4c ba 35 ad 10 3b e9 13 7f ba 7b c8 66 bb
       -0.00077875576 0.0022075896 -0.0009730445 -0.003521471
000050 86 10 84 ba 2a e5 86 ba 6f 87 c1 39 f3 ff 90 bb
       -0.0010075725 -0.0010291685 0.00036912735 -0.004425043
000060 ba 75 2a ba 95 60 ce bb f0 54 d4 b8 00 dc dc 3b
       -0.0006502528 -0.0062981346 -0.000101247686 0.006740093
000070 fd bd d9 ba 8c 0f 00 80 00 dc dc bb 1c 11 00 00
       -0.0016612407 -5.577e-42 -0.006740093 6.138e-42
000080 86 39 99 bb 56 85 7d 3c f7 67 a1 3d 1e a5 3b bc
       -0.004676047 0.015473684 0.07881158 -0.011452941
000090 69 ba 6b bd 11 7f e5 ba 7c 5f 82 3b 4e c1 73 bc
       -0.05755082 -0.0017509182 0.003978668 -0.01487763
0000a0 32 3d 71 bc db 1b 14 3d 3b 49 03 bd c3 13 39 bb
       -0.014724063 0.036159378 -0.03205226 -0.0028240539
0000b0 64 d2 23 3d 68 a3 49 3c b0 81 15 bd f5 d8 97 bb
       0.039995566 0.0123070255 -0.036500633 -0.0046340176
0000c0 4d f0 bc 3b 8d 5c d1 3b 1a ba 1b ba 5e ee 08 3c
       0.005765951 0.0063892067 -0.0005940512 0.008357612
0000d0 e8 71 8e 3c 3b 26 43 bc f8 6a 86 3a 8b f3 f1 bc
       0.0173883 -0.01191097 0.0010255268 -0.029535076
0000e0 de 28 03 bd 3d 54 13 bc a0 58 26 3b 06 16 db 3c
       -0.032021396 -0.008992252 0.0025382414 0.0267439
0000f0 db a8 9f 3d d9 0a cc 3c 88 3b 00 00 cc b2 9f bd
       0.077958785 0.024907516 2.1356e-41 -0.07797775
000100 74 13 00 80 f5 2b 47 3e c7 ca 47 3c 88 ab 4f 3c
       -6.978e-42 0.19450362 0.012194342 0.012675174
000110 d2 e1 0b 3d 2b f1 3b bd 0e 06 b6 bc 3a 02 5b 3d
       0.034150906 -0.045884293 -0.022219684 0.05346892
000120 77 4d 70 bb 58 54 a9 3c fc 4e bb bc 85 92 5f bd
       -0.0036667266 0.020670101 -0.022864811 -0.05458309
000130 80 4f 48 bb 07 86 fe 3a e1 99 05 3d 75 1b 03 3d
       -0.0030564964 0.0019418605 0.032617453 0.032008607
000140 5b cd 51 3b 2f 42 3f bd 3f 73 b8 bc 2a db 30 3d
       0.003201327 -0.046693977 -0.022515891 0.04317776
000150 85 9c 14 3c 34 7d a8 bc 67 80 64 bc 1c 95 59 bc
       0.00907052 -0.020567514 -0.013946629 -0.013280179
000160 64 7d ff 3b 95 42 5b 3d fe ed 4c bc af a5 55 bd
       0.00779693 0.053530294 -0.012507914 -0.05215996
000170 6c 3b e8 3b 38 a5 9b 3d 56 29 98 bc d1 34 00 80
       0.0070871618 0.07599872 -0.018574398 -1.8947e-41
000180 44 c3 9b bd 34 0d 00 00 12 86 04 3c 5a bb 13 3c
       -0.07605603 4.736e-42 0.0080886055 0.009016836
000190 cb 83 9b 3c ad 48 ee 3c 10 e2 02 bb 65 a7 bf bb
       0.018983742 0.029087389 -0.001997117 -0.0058488124
0001a0 18 ce 2f 3c 7b 8d 36 3d ad 60 1f bd a3 e9 e8 3c
       0.010730289 0.04456852 -0.038910557 0.02843172
0001b0 ae a4 cc bb b1 af ee bc bd 0d b7 3d d2 24 a4 bc
       -0.0062452173 -0.02913651 0.08938167 -0.020037089
0001c0 2d cf 2c bc dc c9 94 3d 09 28 23 bc 8f d6 52 bc
       -0.010547441 0.07265064 -0.009958276 -0.012868538
0001d0 3a 5a 62 bb 1e 1c e1 bc 38 97 07 bc 58 1a 5d 3d
       -0.0034538643 -0.027479228 -0.008275799 0.0539802
0001e0 87 fd 90 bb 66 24 72 3b 50 20 56 bc 24 b7 31 bc
       -0.004424754 0.0036947965 -0.013069227 -0.010846887
0001f0 13 4d e7 3c b5 8e b8 3c 04 05 d3 3b 07 5d 6e bc
       0.028234994 0.022528986 0.006439807 -0.014548547
000200 54 38 00 00 c4 a2 e8 bb c6 0c 00 00 f8 82 e7 bd
       2.0207e-41 -0.0070994813 4.582e-42 -0.11304277
000210 3b 9a e9 3a 9c 67 c7 3b 0c d9 74 3a 94 f0 7b bb
       0.0017822454 0.0060853492 0.0009340204 -0.0038442956
000220 ed cb 0e ba 80 78 4d 3a e6 8c 12 b9 50 6d 4f ba
       -0.00054472574 0.00078380853 -0.00013976134 -0.0007912712
000230 60 20 f9 3a 26 1f 3c bb 0f 9d b2 bb b6 98 1e bb
       0.0019006841 -0.002870509 -0.0054508517 -0.002419991
000240 71 15 30 bb bb 65 6b 3a ca a0 86 3b 05 be 35 3b
       -0.0026868249 0.00089796976 0.004108523 0.0027731669
000250 75 8d 8b 3a 5e 76 b9 ba 9b 71 e2 b7 67 ea 0b bb
       0.0010647016 -0.0014149656 -2.6994201e-05 -0.0021349431
000260 bd 70 2e 3a 57 e5 83 3b b7 6b cd 3a ee 1b 81 bb
       0.00066543726 0.004025142 0.001567236 -0.003940097
000270 69 aa a1 3b cc 1f 90 b9 cb 6f 1d bb 40 bd 59 3b
       0.0049336446 -0.0002748951 -0.0024022933 0.0033224374
000280 14 81 5d 3b 73 0b 00 00 40 bd 59 bb 7c 15 00 80
       0.003379886 4.107e-42 -0.0033224374 -7.707e-42
000290 c0 8e 82 ba 84 1a 04 bd e4 97 50 3d 0e ff 5f 3a
       -0.0009960756 -0.03225185 0.050926104 0.0008544781
0002a0 63 b5 a3 bc 1b a2 95 ba 5c 36 e8 bc df e2 ab 3c
       -0.019983953 -0.0011416109 -0.028346233 0.020982204
0002b0 c6 4c 6d bb 98 2d 52 3c d8 a1 f5 ba 7e 37 20 bd
       -0.003620909 0.012828253 -0.001874025 -0.03911542
0002c0 a4 27 9a 3c 7a 80 9b 3c 3a 5b 92 3d 2d 40 0f bb
       0.01881773 0.01898216 0.07146306 -0.002185832
0002d0 70 fa 26 3d e2 7c b1 3c 63 77 62 3c 71 c7 b6 3c
       0.04076618 0.021665994 0.013822409 0.022311898
0002e0 89 38 db 3a 48 51 60 3c 81 38 19 3a 1b cd 2b 3b
       0.0016725223 0.013691254 0.00058449066 0.0026214782
0002f0 98 38 80 3d f6 ea b1 bb af 79 44 3d d1 31 42 bb
       0.062607944 -0.005429621 0.04796761 -0.0029631744
000300 01 5c 3f 3d ac ff 5b bd c5 09 00 00 79 62 5e bd
       0.0467186 -0.053710625 3.505e-42 -0.05429313
000310 05 0b 00 00 68 dc 1a 3e d7 1c 26 bd ef 44 37 3d
       3.953e-42 0.15123141 -0.040554848 0.044743475
000320 00 ba 47 3d 98 a4 99 3b 0b e6 51 bd b0 a7 c7 bb
       0.048761368 0.0046888106 -0.051244777 -0.006092988
000330 2d 75 ce bb 3b e3 6a ba 70 98 3e bc 44 a2 21 bd
       -0.0063005895 -0.00089602516 -0.011633024 -0.03946139
000340 1c 95 d6 bb ae a3 76 3c bf 67 24 3c 6d 4e 1c bc
       -0.006548537 0.015053673 0.010034501 -0.009540183
000350 9c 60 16 bd a5 12 61 bd 26 e6 d5 bc c8 06 b5 bb
       -0.036713228 -0.05494942 -0.02611072 -0.00552449
000360 f5 e1 36 3d 78 0b c8 bb 8c ee 07 bb 6a 37 f5 bb
       0.044649083 -0.006104883 -0.002074155 -0.0074834125
000370 1a 20 2c bc aa 0b 39 bc 6f 03 35 bc fb c1 08 bd
       -0.0105057005 -0.011294285 -0.011048182 -0.03338812
000380 99 15 b0 bb a3 79 1f 3d d6 d9 7f bc 9b 15 00 80
       -0.0053736684 0.03893436 -0.015615901 -7.75e-42
000390 91 52 1f bd a8 0c 00 00 5e 15 9e 3e c1 b9 49 bc
       -0.0388971 4.54e-42 0.30875677 -0.012312354
0003a0 74 f7 90 3c fe bf b9 bc 1c 6d 9a bc 56 37 a0 3a
       0.01769612 -0.022674557 -0.018850856 0.0012223523
0003b0 2c 94 bd 3c 49 51 d1 bc 5f 82 29 bc 23 70 80 bc
       0.023141943 -0.025551455 -0.010346024 -0.015678471
0003c0 f2 c7 68 3c 35 6d bc bb 15 d2 91 bc d5 e7 df 3c
       0.014207827 -0.005750323 -0.01780037 0.027332226
0003d0 2b fe 12 bd 02 9c 1a 3d 9c 89 dc 3d 1b 08 3b bd
       -0.035886925 0.037746437 0.107684344 -0.045662027
0003e0 0e 1a 54 3c fa fb e6 3c d0 aa 25 3d c8 e6 14 3c
       0.012945665 0.028196324 0.040446103 0.009088226
0003f0 10 78 9c bd f5 e8 c7 3b e0 99 f1 ba f5 5e 3b bc
       -0.076400876 0.0061007687 -0.0018432699 -0.011436214

fcs1.bias f4 [128]
000000 04 dc dc bb 0b 82 9f bd 13 2a 9b bd df 1b 1c bc
       -0.006740095 -0.077884756 -0.075763844 -0.009528129
000010 40 bd 59 bb e4 7e 48 bd d0 02 1f bd 1d c0 a9 3c
       -0.0033224374 -0.048949137 -0.03882104 0.02072149
000020 c6 b7 15 bd 8f e8 6c bd 69 4f 03 3d c4 0c 81 bd
       -0.036552213 -0.057838973 0.032058153 -0.06301263
000030 6c 8c b1 38 b8 64 e1 bd b8 da 94 3b af 6d d2 bb
       8.466173e-05 -0.11005539 0.004542675 -0.0064217667
000040 49 ea 01 3c ef ab 9e bd 14 98 ee bc 80 df 37 bb
       0.007929393 -0.077476375 -0.02912525 -0.00280568
000050 4d 0d 30 3c 5c 2d 0e bd 59 d7 89 bd 8f 99 6e 3d
       0.010745359 -0.034711227 -0.067305274 0.058251914
000060 e3 7f a5 bc 80 d2 ac bc 44 79 6d bd 0a 1e 1c bd
       -0.020202583 -0.021096468 -0.057976976 -0.038114585
000070 d7 c8 5a bd 69 ef b3 ba a0 0a c3 bc 5f 3c 9d bc
       -0.053414192 -0.0013727966 -0.023808777 -0.019193826
000080 ad 42 b9 bd 82 b3 e9 ba 46 14 e8 bc 9e 1e 39 bc
       -0.090459205 -0.0017829987 -0.02832998 -0.011298804
000090 90 31 45 3c 4b 7d 6c bd 1e 2a 25 bc 1a 7e 29 bd
       0.012035742 -0.057736676 -0.010080842 -0.041380025
0000a0 a0 53 ae ba 11 78 d4 bc 32 46 26 bd e3 d2 1e bd
       -0.0013300069 -0.025936158 -0.040594287 -0.038775336
0000b0 69 ed 23 bd b5 ef ea bc cd 59 e5 bb 36 cb 13 3b
       -0.040021334 -0.028678754 -0.0069992305 0.0022551543
0000c0 e0 39 ca bd f4 74 a2 bc 5a c0 4c bc 6a 53 01 3c
       -0.0987432 -0.019831158 -0.012497032 0.007893423
0000d0 ff 0a 15 bd ef ff bf 3b 88 10 2f bd 8e 02 0a bd
       -0.03638744 0.005859367 -0.042740375 -0.033693843
0000e0 de 31 4f bd 27 d1 16 3c b0 ae 8a bd 4e 05 61 bc
       -0.050584666 0.009205139 -0.067716 -0.013734175
0000f0 18 9d 37 bc e7 69 a6 bd fb 93 a6 bd 73 e4 b5 bd
       -0.011206888 -0.08125668 -0.08133694 -0.08881464
000100 07 c8 07 bc 49 c4 b9 bd 70 c7 ca 3c ee d1 08 bd
       -0.008287436 -0.090706415 0.024753302 -0.03340333
000110 25 b1 1d bd 27 d1 8b bd 40 12 d2 bc 5e 5c 19 bd
       -0.038499016 -0.06827002 -0.025643468 -0.037441604
000120 c2 95 14 bd 2e 87 46 3b d1 a9 7f 3b e3 7e 2c bd
       -0.036275633 0.0030292976 0.003901113 -0.042113196
000130 a4 be d0 bd d3 b1 c1 bc cd 4f 9e bd b6 b9 05 bd
       -0.10192612 -0.023644364 -0.077300645 -0.03264781
000140 4e db 46 bd 5d 38 b4 3c b1 d2 ae bd df 5c 26 3d
       -0.04854899 0.021999532 -0.0853628 0.040615913
000150 bd b5 df bb 44 32 ac bd 67 1a a0 bd 6b b9 09 bd
       -0.006827085 -0.08408025 -0.07817536 -0.033624094
000160 f9 9f 68 bd e7 d4 af bd de b8 64 bd be 8a a7 ba
       -0.056793187 -0.0858553 -0.055840366 -0.0012782437
000170 24 16 3b bd bf 07 23 bd ed 9a 5a bd 68 02 e1 bd
       -0.04567541 -0.03980231 -0.053370405 -0.10986787
000180 22 f0 60 bd aa ea bc bd 19 1c 1b bd a0 bd 83 bd
       -0.05491651 -0.09224446 -0.037868593 -0.064326525
000190 e5 dd d2 bd 44 cc 70 bd 7a ae d5 bd 4a 42 1f bd
       -0.10296229 -0.058788553 -0.104336694 -0.038881578
0001a0 0f fe 75 ba 4d bb d3 3c 7d e9 d1 bc a9 c9 d9 3c
       -0.0009383866 0.025846148 -0.025624031 0.026585417
0001b0 a1 d2 0e b8 60 07 23 bd ef 24 4f bd e4 76 0d 3c
       -3.40516e-05 -0.039801955 -0.050572332 0.008634303
0001c0 11 1d 6d bd dd d6 1c bc c1 ee b6 bd 9e 5b e4 bc
       -0.057889048 -0.009572712 -0.089322574 -0.027875718
0001d0 f7 e8 0d bd 97 68 9a bd de 73 0f 3d 35 f0 77 bd
       -0.034646 -0.0753948 0.03502261 -0.060531814
0001e0 2b 06 7d bc f8 31 e4 3c aa df b6 bd a5 ea a1 bc
       -0.015443365 0.027855858 -0.08929379 -0.019765208
0001f0 d8 75 88 bd e9 a9 25 bc f5 25 63 bd 7e 08 b8 bd
       -0.06663102 -0.0101113105 -0.05545612 -0.08985995

bn2.weight f4 [128]
000000 fb 39 dd 38 9c 1e 6c 3d a0 8f df 3d bd 8b b3 3d
       0.00010548901 0.05764638 0.10916066 0.08766887
000010 fc 76 4a 38 67 f4 45 3e 9e 3e 90 3e d0 f9 40 3e
       4.8271366e-05 0.19331513 0.28172773 0.18845296
000020 53 40 59 3e e2 ff 73 3e 02 98 f2 3d 9a c0 e6 3d
       0.21215944 0.2382808 0.118453994 0.112672046
000030 0d bb a4 b6 1b 72 87 3d 03 06 16 3e c5 3f 29 3e
       -4.9093564e-06 0.06613561 0.14650731 0.16528232
000040 ee c2 c8 3d a7 48 9e 3e db 92 1d 3e c6 f1 02 3f
       0.09802805 0.30914804 0.15388052 0.51150167
000050 43 ca ba 3e 88 1d 3e 3e ed 2a 10 3e 78 d8 41 3e
       0.36482438 0.18565953 0.14078875 0.18930233
000060 c9 b0 3b 3c dd 45 3e 3e 47 2a 71 3e 2e 70 ed 3d
       0.011455723 0.18581338 0.23551284 0.11593662
000070 f3 66 fe 3d 72 df 38 3e 9e 45 3e 3e 52 8a d1 3e
       0.1242198 0.18053988 0.18581244 0.40925843
000080 6f 93 9d 3e a9 d6 36 3e e3 6b 75 3e f3 fa a7 3d
       0.30776545 0.17855324 0.23966937 0.08202162
000090 46 cd a4 3d 7c 52 07 3e c6 a5 51 3e 37 fc 57 3e
       0.08046965 0.13215059 0.20473394 0.21092306
0000a0 14 be 22 b8 ce ed d8 3d 51 73 86 3e c5 c0 36 3e
       -3.8800834e-05 0.10592233 0.26259854 0.17846973
0000b0 8b f9 3b 3e 37 a7 10 3f 10 fe f4 3e a7 71 95 3e
       0.18356912 0.5650515 0.47850084 0.29188272
0000c0 60 01 0d 3e fb 1c 68 3e 6a 73 1e 3e 3b dd 0a 3e
       0.13770056 0.22667305 0.15473714 0.13560955
0000d0 e0 a7 26 3e e8 25 69 3e f0 06 4d 3e 1c 8f 4f 3e
       0.16274977 0.22768366 0.20022178 0.20269436
0000e0 8f e0 af 3e c4 4a 62 3e 88 32 17 3e 1f 69 b2 3d
       0.34351012 0.22098833 0.1476537 0.087114565
0000f0 99 c3 95 3e e3 cd 71 3d c4 ba 1e 3e ee 9e 07 3e
       0.29250792 0.05903424 0.15500933 0.1324422
000100 e8 08 bc 3d 85 33 25 3e e8 03 80 3e 43 92 62 3e
       0.09181386 0.16132934 0.2500298 0.22126107
000110 99 5e 4f 3e 77 9b a1 3e 02 20 d1 3e fc 5c 36 3e
       0.2025093 0.31563923 0.40844733 0.17808908
000120 13 2b 29 3e 7b e6 86 3e c0 e7 ad 3e ed 85 70 3e
       0.16520338 0.26347718 0.33965874 0.23488589
000130 32 2a f6 3d 35 dd 45 3e 74 cb cb 3d 4a f8 42 3e
       0.12019767 0.19322665 0.09950915 0.19040027
000140 56 0b c5 3e 12 a5 af 3e d0 75 5e 3d 67 ad 83 3e
       0.3848521 0.34305626 0.054311574 0.25718233
000150 e8 59 ab 3e 34 0b 4f 3e 72 db 1f 3e d2 f1 12 3e
       0.3346703 0.20219117 0.15611055 0.1435006
000160 ed ca 52 3e d5 86 4a 3e 86 8c cd 3d de 1a 53 3e
       0.20585223 0.19777997 0.10036568 0.20615718
000170 ad 1f 4e 3e 48 1a 1d 3e ca 5d ba 3e 88 3e 16 3e
       0.20129271 0.15342057 0.3639968 0.14672291
000180 2f 73 23 3e b1 01 6b 3d 90 0f 69 3e 1e 5c 48 3e
       0.15961908 0.05737466 0.22759843 0.1956639
000190 f0 33 4c 3e 8c 17 27 3e 25 94 d1 3d 9a b7 a1 3e
       0.19941688 0.16317576 0.102333345 0.3158539
0001a0 4b 38 9e b7 85 d1 cf 3e 08 5c eb 3d 01 8b a9 3e
       -1.8861281e-05 0.40589538 0.11492163 0.33113864
0001b0 b5 33 93 3e 15 07 0e 3e f6 5c 82 3e c3 26 0b 3e
       0.28750387 0.13869889 0.2546155 0.13589005
0001c0 53 61 99 3e 26 b0 96 3e a6 4c 72 3e b9 52 99 3e
       0.29957065 0.29431266 0.23662052 0.29945925
0001d0 63 59 48 3e 75 7e 7a 3e 51 f2 a1 3e 4c 38 8a 3e
       0.19565348 0.24462302 0.31630185 0.26996076
0001e0 92 7e a1 3d 53 24 e1 3e 51 68 08 3e d6 15 6e 3e
       0.078854695 0.43973026 0.13321044 0.23250517
0001f0 17 8f 90 3e 21 57 82 3e d6 0f d9 3e de 42 e0 3d
       0.2823417 0.254571 0.42394894 0.10950254

bn2.bias f4 [128]
000000 57 22 07 b7 18 49 ab bd b4 e4 59 3d b8 72 d2 3c
       -8.054622e-06 -0.08363551 0.053196624 0.025689468
000010 06 5d 62 b6 54 ce a0 bc 45 4f 48 bb 82 2c ec 3d
       -3.373077e-06 -0.019629635 -0.0030564826 0.11531927
000020 1b 9f 73 bd 6a d6 eb bc b4 a1 13 bd 88 e0 46 bd
       -0.059477907 -0.028788764 -0.036042884 -0.048553973
000030 97 89 66 37 a2 ce 9a bd 19 bc 86 bd 9a 4d b9 3d
       1.3741103e-05 -0.07558943 -0.065788455 0.090480044
000040 ef 76 5d bd d0 c3 bf 3d 27 69 8d bd 5b 74 b5 bd
       -0.054068502 0.0936352 -0.06904822 -0.08860084
000050 2e 55 23 3d af 59 df 3d 94 be b7 bd 2b c2 d8 bd
       0.039876156 0.10905778 -0.08971897 -0.105839096
000060 dc d1 1f ba 96 80 86 3c 3c b0 27 bd 24 bc 5c bc
       -0.000609664 0.016418736 -0.040939555 -0.013472591
000070 e9 e2 af 3c 1c f3 a2 bd fc da 6d 3d f8 66 b7 3b
       0.021470504 -0.07956526 0.058070168 0.0055969916
000080 4d f4 53 bd 5f 30 49 3d 80 f9 ca bd 75 e6 39 3c
       -0.051746655 0.049118396 -0.099108696 0.011346449
000090 3d 23 5d 3b 1f 96 df 3d cc da 98 bd e4 f9 fd 3c
       0.0033742927 0.10917305 -0.07463607 0.031002946
0000a0 b8 f0 e0 b5 bf ce c9 3c 46 19 ca bc 19 70 b6 3d
       -1.6759359e-06 0.024634717 -0.024670254 0.089081
0000b0 d3 84 bd 3d ac eb ca bd 8f 00 5f bd 64 ea 08 3b
       0.0925385 -0.09908232 -0.054443892 0.002089166
0000c0 32 41 8d bd 1c ac 02 3c e0 cc 93 3d 2f 5b 9d 3c
       -0.06897201 0.007975604 0.07216811 0.019208519
0000d0 76 03 e3 3c 42 e3 c6 bd d2 80 9c 3d 3d 9e 93 bd
       0.027711611 -0.09711315 0.07641758 -0.07207916
0000e0 6f 85 8a bc b2 4c dd bd c7 ef b7 bd 3a 19 e0 3d
       -0.01690933 -0.10805644 -0.08981281 0.109423116
0000f0 be 54 87 bd 25 36 b6 3c 0d 97 a1 bd dc bb af bd
       -0.0660796 0.022242615 -0.07890139 -0.08580753
000100 fd 34 6b bd db d5 31 bd 18 80 47 3d 1a 69 a0 3c
       -0.05742358 -0.04341684 0.048706144 0.019581366
000110 c8 12 58 3d c2 fc 00 be 52 34 99 bd 61 51 b3 bd
       0.052752286 -0.1259642 -0.074806824 -0.08755756
000120 14 1b 65 3d 0a 5c 92 bd 61 48 2f 3d a1 aa 76 bd
       0.055934027 -0.07146461 0.042793635 -0.06022132
000130 3b 64 ac bc 06 58 fe bc a5 78 49 bd ef 71 af bd
       -0.021043887 -0.031047832 -0.04918732 -0.08566653
000140 a1 16 bb 3d 91 fc d7 bd 00 ac 9d bd 87 0b f7 3d
       0.091351755 -0.1054622 -0.07698822 0.120627455
000150 ee d1 56 3d de 47 3c bb f4 f5 ea bd ae 7b 92 bb
       0.0524463 -0.002872936 -0.11472693 -0.00447031
000160 03 42 76 bd d9 4f a4 bd 4e 71 ab bd 3f 88 45 bc
       -0.060121547 -0.08023042 -0.083712205 -0.012056409
000170 89 ee 38 3b 75 79 8e bd 8a 86 84 bc d1 af 3c bd
       0.002821835 -0.0695676 -0.016177434 -0.04606611
000180 4e e7 b4 3d 8a ae 83 bd a7 35 91 bd 86 38 4b bd
       0.0883318 -0.06429775 -0.070903115 -0.04961445
000190 f3 43 a1 bd 05 15 51 bd c0 b0 28 bd a3 0c 47 bd
       -0.078742884 -0.051045436 -0.041184187 -0.048596036
0001a0 d3 68 f8 35 cc 10 b5 3c 01 e0 3a bd e0 e3 2d 3d
       1.8507948e-06 0.022102736 -0.045623783 0.042453647
0001b0 2f 2b bb bc a2 87 3f 3d 84 53 47 bd eb 62 a0 bc
       -0.02284774 0.04676021 -0.04866363 -0.019578418
0001c0 e9 69 b1 3d ec 3b 88 3a 7c 97 05 be 11 75 38 bb
       0.08662779 0.0010393835 -0.13046068 -0.002814595
0001d0 89 4a bb 3d 0c e1 0b bd e2 28 6f bd fd c3 a7 bc
       0.09145076 -0.03415017 -0.0583886 -0.020479197
0001e0 7b 0b 95 bd 38 18 69 bd a7 52 48 bd 85 4b b0 3d
       -0.0727758 -0.056907862 -0.04890695 0.08608154
0001f0 42 f2 b8 bd 95 b0 d2 bb 3e 70 7f bc 4c d7 96 bd
       -0.09030582 -0.0064297416 -0.0155907255 -0.07365283

bn2.running_mean f4 [128]
000000 47 a3 24 3a 46 f6 36 39 69 36 4a 3d 21 10 ae 3c
       0.0006280434 0.00017448617 0.049368296 0.021247925
000010 5e e7 71 3b c6 11 0f 3d 66 46 92 3d 00 45 77 3e
       0.0036911587 0.03492906 0.07142334 0.24147415
000020 a4 c1 9f 3c d5 75 40 3a b3 43 49 3d a6 5a 9d 37
       0.019501515 0.0007341777 0.04913683 1.875807e-05
000030 b8 92 9d 3c 1a d0 2d 38 2b ba 85 3d 13 82 75 3d
       0.019235 4.1440224e-05 0.06529649 0.0599385
000040 df 2b 3d 3d f4 13 c7 3c b8 b1 4e 3a 0a 27 a6 3d
       0.046184417 0.024301507 0.00078847585 0.08112915
000050 af a0 b6 3e 75 98 11 3e e8 27 59 3e d2 85 24 3e
       0.35669467 0.14218314 0.2120663 0.16066673
000060 eb 55 0e 39 87 c9 f7 3c fb e5 f3 3c 38 17 cc 3c
       0.00013574182 0.030247463 0.02977275 0.024913415
000070 3d e0 b9 3d 0c 4e d3 3c 3a 56 e3 3d 08 61 04 3e
       0.09075973 0.025794052 0.11100431 0.1292764
000080 70 ce 8b 3d b2 d2 38 3e 70 e4 01 3e 30 27 bf 3c
       0.06826484 0.18049124 0.12684798 0.023334116
000090 62 9c 17 3e e6 27 36 3d 4c 11 ed 3c 14 a1 3c 3d
       0.14805749 0.044471644 0.028938912 0.046052054
0000a0 e7 35 14 3b 1e fd 92 3d 7f 33 f6 3d ce 81 37 3d
       0.0022615136 0.071771845 0.12021541 0.044801526
0000b0 96 a3 40 3e 6a cb 9a 3d 4f 23 be 3c d6 75 4d 3e
       0.18812403 0.075583294 0.023210196 0.20064482
0000c0 4f 9b f9 3b 99 4a 13 3e d1 c6 35 3d ca 17 b6 3e
       0.007617391 0.14383925 0.04437906 0.35565025
0000d0 05 57 36 3d 6b cd 87 3e 7d da 29 3d 94 9c 98 3d
       0.044516582 0.2652391 0.041468132 0.0745174
0000e0 62 cc c3 3d e1 e5 c6 3c 19 3e a1 3c 48 e4 f2 3a
       0.09560467 0.024279537 0.01968293 0.0018531168
0000f0 8d 95 46 3c e7 d5 e7 35 04 2c 7e 3c 2f cc 92 3c
       0.012120617 1.7273095e-06 0.015513424 0.017919628
000100 bf 75 ee 3d f4 83 57 39 90 e8 93 3e 66 f4 3c 3e
       0.11643552 0.00020553154 0.2888837 0.18452606
000110 ec d2 f5 3d d4 0b 40 3e 65 ab a4 3c e0 7d 87 3c
       0.12003121 0.18754512 0.020101259 0.016539514
000120 d1 b5 c6 3d 75 18 20 3d ad 5d 0b 3e 0a 66 35 3d
       0.097026475 0.039085824 0.13609953 0.044286765
000130 7b 77 33 39 70 6d 7f 3e 4b df 71 3b c4 9d f7 3c
       0.0001711528 0.24944091 0.0036906775 0.030226596
000140 fd 54 e5 3d 45 10 f6 3c 57 d4 9b 3b df d7 8a 3e
       0.11197851 0.030037055 0.0047555375 0.27117822
000150 35 68 6e 3e e6 d8 bf 39 36 1d 03 3c 2d d7 72 3d
       0.2328194 0.0003659196 0.00800257 0.05928724
000160 d5 67 86 3d be 5f 2f 39 6d 7a ff 3b a4 64 78 3d
       0.06562773 0.00016724967 0.0077965767 0.060642853
000170 3b 5b 5b 3c 65 6e 1b 3c 86 64 95 3d 64 46 37 3c
       0.01338845 0.009486769 0.07294564 0.011186216
000180 db a6 f2 3d 0c 13 b6 38 3d cb 31 3d 87 0d fb 3c
       0.118482314 8.681984e-05 0.043406714 0.030646099
000190 65 c9 22 3c b4 f8 e3 3c a5 52 9f 3c aa 6c 8e 3e
       0.0099357115 0.027828552 0.019448588 0.2781728
0001a0 c9 b9 e4 3b 84 ee 45 3e e2 45 93 3d 9e f5 58 3e
       0.006980155 0.19329268 0.071910635 0.21187446
0001b0 32 a1 13 3e ad 88 cd 3c 3c 9c 8a 3d fb 86 8b 3c
       0.1441696 0.025089586 0.067680806 0.017032137
0001c0 70 e5 59 3e 35 da 0a 3e 42 63 9b 3c 5f 0e 3a 3e
       0.2127893 0.13559802 0.018968228 0.18169545
0001d0 52 f9 22 3e 87 dd 80 3d b8 53 86 3e 99 0f 89 3d
       0.1591542 0.06292253 0.26235747 0.06692428
0001e0 48 74 b7 3b 6c 4f 0f 3e cb 81 e5 38 e6 47 be 3d
       0.0055985786 0.13995141 0.00010943747 0.09291057
0001f0 bf 4b ea 3c 0c b5 d4 3d a3 5e 6c 3d 34 67 1f 3b
       0.028600572 0.103860945 0.05770744 0.0024322988

bn2.running_var f4 [128]
000000 9b 68 8c 37 54 d1 77 37 aa cc 34 3c 5f 34 8a 3b
       1.6738011e-05 1.4771085e-05 0.011035124 0.004217669
000010 9d f5 bf 38 1d f9 06 3c 15 f3 87 3c e1 2f cf 3d
       9.153339e-05 0.008238104 0.016595403 0.10116554
000020 db 55 8f 3b 4b e0 57 39 68 18 02 3c c5 b5 11 36
       0.0043742484 0.00020587553 0.007940389 2.1712488e-06
000030 b4 95 12 3a a8 c3 7a 36 29 e1 74 3c 83 e1 e2 3b
       0.00055917655 3.736679e-06 0.0149462605 0.0069238557
000040 6f 82 30 3c d1 de 9a 3b 0a b5 45 38 a6 f1 de 3b
       0.010773285 0.004726269 4.7137066e-05 0.006803709
000050 a9 f0 89 3d 40 06 2d 3d c8 6c 93 3d 61 aa 38 3d
       0.067353554 0.04224229 0.07198483 0.04508436
000060 73 66 25 37 8e f1 fc 3b d3 66 a7 3b 2a 7d 94 3b
       9.85862e-06 0.0077192253 0.005108693 0.0045315223
000070 71 59 cc 3c b4 7b 45 3b 20 73 f7 3c 6a d8 cd 3c
       0.024944993 0.0030133547 0.030206263 0.025127608
000080 ed f6 9d 3c 1a ec 22 3d c7 61 c2 3c fd 4a 90 3b
       0.019282782 0.039775945 0.023728264 0.0044034705
000090 49 a6 e0 3c 2f 66 30 3c da 11 26 3b 61 b2 17 3c
       0.027423041 0.01076655 0.002534023 0.009258837
0000a0 87 48 f5 37 b0 6f 84 3c 36 92 0a 3d 8c a0 e6 3b
       2.924005e-05 0.016166538 0.033830844 0.0070381816
0000b0 d4 e0 98 3d 19 31 41 3c 00 ac 32 3b 95 53 a6 3d
       0.074647576 0.011791491 0.0027263165 0.08121411
0000c0 0c b4 4e 3a f6 7b 0a 3d 08 b6 21 3c 22 63 65 3d
       0.00078851054 0.033809625 0.00987006 0.056002744
0000d0 27 91 5e 3c f7 dd e7 3d d1 15 28 3c 00 3c d4 3c
       0.013584412 0.11321633 0.010259108 0.025907516
0000e0 50 e5 5e 3c 7d 78 e2 3a 95 70 3f 3b 24 c3 b1 39
       0.013604477 0.001727834 0.0029211391 0.00033905462
0000f0 54 c3 a0 3a 27 f6 ad 33 8f 35 50 3b 98 37 4d 3b
       0.0012265244 8.100715e-08 0.0031770205 0.0031313654
000100 57 a9 ea 3c 6b 08 96 38 6d c1 3f 3d 3f 01 67 3d
       0.0286452 7.154125e-05 0.046815325 0.056397673
000110 63 00 02 3d d8 e0 80 3d 9e e9 1a 3b 77 ce 5f 3b
       0.03173865 0.062928855 0.0023637782 0.0034150162
000120 93 b8 d8 3c 1d 3e 3d 3b 61 95 f0 3c 3d 4e f5 3b
       0.0264552 0.0028876134 0.029368104 0.0074861334
000130 6c e7 9b 37 00 86 eb 3d 60 1d f3 39 73 95 75 3b
       1.8585204e-05 0.11500168 0.00046370458 0.0037473112
000140 22 7a 32 3d 1f c8 5b 3b 0e 9f da 39 e8 b6 53 3d
       0.043573506 0.003353603 0.00041698705 0.051688105
000150 38 07 53 3d d1 12 8b 38 1e f6 59 3a 80 99 70 3c
       0.051520556 6.631541e-05 0.00083145674 0.014685035
000160 05 d6 2b 3c 87 e2 05 38 b6 2c 31 3a c4 12 21 3c
       0.010488038 3.192064e-05 0.00067586766 0.009831134
000170 17 9c 05 3b 44 c8 a0 3a 74 c5 51 3c fe fb ec 3a
       0.0020387226 0.0012266715 0.012803424 0.0018080471
000180 9a 35 c4 3c 36 17 3b 37 ba 3e c3 3b 84 c2 a8 3b
       0.02395134 1.1151473e-05 0.0059584053 0.005150141
000190 f9 5c b6 3a 9e f7 70 3b 99 24 68 3b 87 e3 ab 3d
       0.0013913206 0.0036768685 0.0035422205 0.08393007
0001a0 83 f6 45 39 ad a9 3c 3d de 29 79 3c 7a ee 3e 3d
       0.00018879217 0.046060253 0.015207736 0.046614148
0001b0 38 71 1c 3d 55 46 df 3b 93 78 66 3c a5 c4 0a 3b
       0.03819391 0.006813804 0.014066833 0.0021174338
0001c0 0c 65 8f 3d b3 da ee 3c 69 3c 3f 3b 3d 4b 82 3d
       0.07001695 0.029157018 0.0029180294 0.06362007
0001d0 42 d2 3e 3d 56 74 81 3c db 0b ee 3c 0a 6d 85 3c
       0.046587236 0.015802544 0.029058388 0.016287345
0001e0 88 ea d6 39 3e 1f c3 3c 41 aa 20 38 40 4c bb 3c
       0.00040992 0.023818608 3.8305534e-05 0.022863507
0001f0 7a 5d 8d 3b ab 3f 10 3d 9c 25 07 3c 34 5f 6c 39
       0.004314122 0.03521697 0.008248713 0.0002254218

fc2.weight f4 [128, 132]
000000 5a 6d b8 38 2e 34 4a bd 4e 40 ca 3a c9 d6 a7 3c
       8.794172e-05 -0.04936617 0.0015430541 0.02048816
000010 3b b9 27 ba c4 f9 03 bd 58 7c 27 bc 64 8d 0a 3d
       -0.0006398146 -0.032220617 -0.010222517 0.033826247
000020 99 ae cb bc c1 31 6c 3c ba 5d 36 bc 92 1f cf bc
       -0.024863528 0.014416159 -0.011130745 -0.025283609
000030 06 d1 9e b9 25 7a ad bd 5a 86 69 bd 4f 46 4c 3d
       -0.00030291843 -0.08470563 -0.057012893 0.04987174
000040 f4 a6 cb 3c 5e f0 58 3c 99 4c 65 bc 98 18 8a bd
       0.024859883 0.013240902 -0.013995313 -0.06742972
000050 de ef a5 bc b8 80 23 3d 4d f2 66 bd 4a 60 26 bd
       -0.02025598 0.039917678 -0.05638342 -0.040619172
000060 aa f7 73 ba 73 ee 19 bb 32 7f 30 bc b1 db df bc
       -0.0009306619 -0.0023488074 -0.010772513 -0.027326437
000070 8f 64 cb 3c 22 ff 8a bd eb 7a d8 3c 7d 31 0f bd
       0.024828224 -0.06786944 0.0264258 -0.034959305
000080 c7 e3 35 bd 18 66 0b 3d 86 d2 08 be 97 3e 93 3c
       -0.04440668 0.03403291 -0.13361558 0.017974181
000090 18 85 f2 bb f8 7c 4e 3d 92 c0 1c bd b4 55 f5 bb
       -0.00740112 0.05041215 -0.038269587 -0.0074870232
0000a0 46 2e 52 3a d6 49 fa bb 84 8a bf bd 75 2b 44 3d
       0.00080177595 -0.0076381965 -0.09352592 0.047893006
0000b0 d6 9b b6 3c 58 3f c6 bd 8a 1c 8f bc 2d 21 af bc
       0.022291105 -0.096800506 -0.017469663 -0.021378124
0000c0 31 3d 77 bd 6a d2 4f bb 80 c5 fa 3c c8 89 9d bc
       -0.06036109 -0.003171111 0.030611753 -0.019230738
0000d0 31 5d 91 3a 03 7e 10 bd ec fc 54 3c 8a 86 0e bc
       0.0011090395 -0.035276424 0.012999754 -0.008699069
0000e0 a6 ef 5a bd 20 a1 18 bd 06 2b 58 bc ff ed 20 bb
       -0.053451203 -0.037263036 -0.013193851 -0.002455592
0000f0 06 c5 65 bc bc f7 bb 3a c3 43 c7 bc cf e8 2e bd
       -0.014024025 0.0014340798 -0.024324303 -0.042702492
000100 97 72 08 bd 05 dd 24 bd 40 45 23 3d e5 1f ac bb
       -0.033312406 -0.040249843 0.039860964 -0.0052528256
000110 bc 0c 2f bd 47 23 4c bd 85 b4 55 bd a0 58 3b bd
       -0.042736754 -0.04983833 -0.05217411 -0.045738816
000120 39 32 87 3c 17 52 ae bd 06 ea 17 3b e2 b1 82 bd
       0.01650344 -0.08511751 0.002318026 -0.06381585
000130 3e 9d 73 bc bd 7c 95 3c f7 59 d0 bb 27 19 60 bd
       -0.014869032 0.018247956 -0.006358381 -0.054711487
000140 45 72 39 3d 18 e7 fa bc 6e 1d 53 bd 39 94 63 3d
       0.04527499 -0.030627772 -0.05154174 0.055561278
000150 24 63 3d 3d e5 d3 6c bb 80 fc c5 bd c1 8c 11 bc
       0.046237126 -0.0036137041 -0.09667301 -0.008883656
000160 a5 b2 c8 bc 5b c5 1c bd 2f 12 fc bd db 37 99 3b
       -0.024499247 -0.03827415 -0.12308156 0.004675848
000170 e0 4f ff bc 70 7a 68 bd b2 70 32 bc 4a 5c 1e bd
       -0.031166017 -0.05675739 -0.0108911265 -0.038662232
000180 a4 f7 7e 3d fa 20 c9 bd 64 b6 e7 bc af e6 46 bc
       0.062247887 -0.09820743 -0.028285213 -0.01213996
000190 a9 87 f1 3b d2 e4 03 bd df f6 66 3b e1 54 5a 3c
       0.0073709083 -0.032200642 0.0035242361 0.013325901
0001a0 79 47 55 39 07 1f c0 3c 6c 6f 1a bd 24 44 7e 3c
       0.00020339889 0.023452295 -0.037703916 0.015519176
0001b0 19 28 de bb 1f a5 88 bc b7 d6 94 bd 23 07 d0 3b
       -0.0067796824 -0.016680298 -0.07267516 0.006348507
0001c0 14 b6 20 3d b3 c4 6c 3c 21 00 71 bd 08 63 9c ba
       0.039236143 0.014451194 -0.058838014 -0.0011931369
0001d0 5e cb 16 3c af cd 8d 3b d7 4b a1 bc 34 eb c2 bc
       0.00920376 0.004327498 -0.019689484 -0.023793794
0001e0 23 ef e7 bc e8 6f 6c bb 29 1e 2e bc 39 1a 23 3d
       -0.028312271 -0.0036077444 -0.010627308 0.03981993
0001f0 e1 75 00 3c a4 fc a8 bc 19 54 08 bd ac e9 60 bd
       0.0078406045 -0.020628281 -0.033283327 -0.054910347
000200 b7 6d 99 bc 1a 25 62 3b 43 41 6d bd 57 67 74 3c
       -0.018729074 0.0034506978 -0.057923567 0.014917216
000210 53 96 3e 3a 32 df d1 bc ce d4 e8 bc c0 95 48 bb
       0.0007270325 -0.025619123 -0.028421786 -0.0030606836
000220 da d6 9c 38 db ef 8e bb e7 b5 d3 bb dd 81 ea bc
       7.478679e-05 -0.004362089 -0.0064608934 -0.028626377
000230 4f 6d 4f bd 37 68 2e bd d5 cc 6e bc cc 2d b2 bb
       -0.050641354 -0.042579856 -0.014575203 -0.0054375883
000240 16 f9 1a 3a 5d b8 30 bd 6a 72 78 3d 9c a7 01 3d
       0.00059117505 -0.043144573 0.06065599 0.031653985
000250 d2 1f 93 bb e5 f6 22 3d ab 5e 55 3c a3 75 53 3c
       -0.0044898773 0.03978624 0.013023059 0.012906465
000260 1b 83 b8 3b c3 1c a4 3b 04 65 15 bc 4c 30 00 bc
       0.0056308634 0.0050083115 -0.009118322 -0.007824015
000270 92 bf 0f bc 10 31 f2 3c c7 36 98 3b 4b 6a f9 3c
       -0.008773701 0.02956441 0.004645202 0.030446192
000280 ed da 93 3c 64 da 50 bd af 51 e5 bc 4b d8 2e ba
       0.018048728 -0.050989524 -0.027993051 -0.00066698034
000290 18 c5 bb 3c 60 df c9 3b 38 8a b7 bc e4 60 31 bd
       0.02292113 0.0061606616 -0.022404775 -0.043305293
0002a0 c3 e0 4c bd 32 25 9e 3b 12 b6 ef 3c eb c0 85 3c
       -0.050019037 0.0048262114 0.029261623 0.016327342
0002b0 99 d2 20 b9 e9 f8 8a 3c 04 49 96 bc cd 99 18 3c
       -0.00015337243 0.016964393 -0.018345363 0.009314013
0002c0 d1 00 2b 3c 2e 59 67 bc d5 17 34 bc 71 94 e6 bc
       0.010437206 -0.014120383 -0.01099201 -0.028146954
0002d0 68 bf a6 bb 68 2a 20 bb 2d dd 6a 39 f0 72 8c bd
       -0.0050887354 -0.0024439339 0.00022398373 -0.0685786
0002e0 b1 7e 3f 3c cb 81 0d bc 58 d2 20 ba e3 cc 85 bc
       0.01168792 -0.008636902 -0.0006134859 -0.01633305
0002f0 b5 de 60 bb 2c 78 f7 3b 7a 43 13 3d fe 98 ce 3c
       -0.0034312431 0.0075521674 0.035953023 0.025219437
000300 0c 63 1e bd e7 01 11 bc 35 d0 59 3c f5 63 4f bd
       -0.038668677 -0.008850551 0.013294269 -0.050632436
000310 f5 0b 79 bd 50 66 f5 bb bc 32 04 3c c3 95 60 3c
       -0.06080242 -0.0074890032 0.008068737 0.013707581
000320 af 2e 0d 3c 3f 46 31 bc a6 70 dd bc 94 9d 06 3c
       0.008617087 -0.010819971 -0.027031254 0.0082162805
000330 9c 79 36 bb 8e f4 db 3c b0 b5 78 bc 96 fe 19 3d
       -0.002784348 0.026850011 -0.015180036 0.037596308
000340 f3 31 1b 3c f2 79 12 bd 11 bb 35 3c 9b 4e 36 bc
       0.009472358 -0.035760827 0.011091963 -0.011127139
000350 60 ca dc 3b 55 59 2e bc 1f db 06 3d 55 e8 20 3d
       0.006737992 -0.010641416 0.032923814 0.03928407
000360 5f 34 c9 3c a3 6f f9 3b 74 a6 f0 bd ea 6d 92 3c
       0.024561105 0.007612185 -0.117504984 0.017874677
000370 58 57 17 bd 62 17 64 3c 80 99 8b 3d 30 d6 8c 3d
       -0.036948532 0.0139215905 0.06816387 0.068767905
000380 64 14 60 bb b8 e5 a9 bc 06 06 d2 bb ae 07 2b bc
       -0.0034191841 -0.020739421 -0.0064094095 -0.010438843
000390 09 6d 96 b9 dc 7e bd 3c c5 83 10 bd 03 cb 5f 3a
       -0.00028691467 0.02313178 -0.035281915 0.0008537026
0003a0 40 c6 8e b9 ea fa 02 3c 6b ac 2c bd da 4b 05 3b
       -0.00027232058 0.007994393 -0.042156618 0.00203394
0003b0 1d 6d 10 38 47 44 db b8 f0 fa 1c 3d 1c 6c ff bc
       3.4433895e-05 -0.000104554514 0.03832525 -0.03117948
0003c0 72 8d c4 3c 8d 58 03 bd 9b d4 e3 bc 08 24 29 bd
       0.023993228 -0.03206687 -0.02781134 -0.041294128
0003d0 91 23 aa bc 50 31 64 b9 eb 38 16 3d 45 0e 58 3d
       -0.020768913 -0.00021762145 0.036675375 0.052747983
0003e0 b9 4c 19 3c 5d 6a 04 bd 0a 76 77 3a 4c 02 69 bd
       0.009356671 -0.032328 0.00094398914 -0.056886956
0003f0 28 ef bd 3c 02 4e f2 bb ae fa ca bc fe 88 32 3d
       0.023185328 -0.007394553 -0.024777737 0.043587677

fc2.bias f4 [128]
000000 ea 60 70 3d f8 6d cd bb dd 70 1c bd 72 9d 4d 3d
       0.058686174 -0.006269213 -0.038193572 0.05019898
000010 5e 72 ea bd c6 e5 bd bd 49 0e 82 3d b7 02 d1 3c
       -0.11447595 -0.092723414 0.06350381 0.02551399
000020 85 26 a5 3d cd b3 cd bb 2a e9 4a bd 5c 7b 97 bd
       0.08063988 -0.0062775374 -0.04953877 -0.07396576
000030 a5 d3 8b bd 76 92 08 bd c5 f8 6d bd b9 0b 51 3d
       -0.06827477 -0.0333428 -0.058098573 0.05103657
000040 84 74 95 bd ce 85 8b bd 0a 54 5d bb b8 ca 2c bd
       -0.07297614 -0.068126306 -0.0033772015 -0.042185515
000050 d3 61 b2 3c 83 37 bd bc e8 89 90 3d b7 65 3a bd
       0.021775162 -0.02309776 0.070575535 -0.04550716
000060 2a 9b 4f 3d ea fd 19 3d 67 c0 73 bd 21 fa ea 3c
       0.050685085 0.037595667 -0.05950966 0.028683724
000070 19 c4 85 bd 82 d1 3c bd cd 03 9e bd 64 41 5c bd
       -0.06531543 -0.04609824 -0.07715569 -0.0537733
000080 f8 99 b5 bd 26 21 dd bd 0a 93 98 bd bc cc 14 bd
       -0.08867258 -0.10797338 -0.074499205 -0.036328062
000090 00 dc 00 bd 76 b0 e0 bc 26 1e d0 3c 56 2b da 3c
       -0.03145981 -0.027427893 0.025405 0.026631992
0000a0 41 15 84 bb 02 07 4d bd a5 ae 60 3b 27 cb c5 bd
       -0.004030854 -0.05005551 0.0034283784 -0.09657889
0000b0 01 fd 15 bd e6 c8 a2 bd 3d e7 a7 bd 67 af 93 bd
       -0.036618236 -0.079484746 -0.08198402 -0.0721119
0000c0 4e ca 8d bd 4e 27 33 bd da 8d b5 3c 0b f7 2a bd
       -0.06923352 -0.043738656 0.022162367 -0.041739505
0000d0 fe 12 fe 3b 7f 9d 9c bd 53 e0 a1 bd ac 5e 01 3d
       0.007753729 -0.076472275 -0.079041146 0.031584427
0000e0 44 c8 5c bd 96 a7 79 bc e2 8b c0 bd cf c1 b4 3d
       -0.053901926 -0.0152377095 -0.094016805 0.088260286
0000f0 91 12 5d b8 bd c4 42 bc 2a 9e 3b bd 08 45 88 bd
       -5.2707797e-05 -0.011887726 -0.045805134 -0.06653792
000100 20 7c 81 3d 3e 1b b5 3d 0a 06 2f bd 5e d2 51 3d
       0.06322503 0.08843087 -0.04273037 0.051226012
000110 5f d7 62 bd 11 d3 37 bd 4d 7b 09 bd 71 90 cc 3c
       -0.055381175 -0.044879023 -0.033564854 0.024971219
000120 4b 35 8e bd 07 d7 70 bd 54 4b cd 3d 68 62 23 bd
       -0.069437586 -0.058798816 0.10024133 -0.03988877
000130 a8 76 ae bd fe cc a3 bd e2 ed a9 bd 77 d9 d9 bd
       -0.08518726 -0.079980835 -0.08297326 -0.10637181
000140 3d 1d 3b bd 98 16 c3 3d 9c a5 a1 bc af 5f 90 bd
       -0.04568218 0.09525794 -0.019732289 -0.070495
000150 c7 83 87 bd 14 4a b2 bc a3 f7 d2 bd 30 ac a2 bd
       -0.066169314 -0.021763839 -0.10301139 -0.079429984
000160 22 fc ae 3d 54 b2 9b bc 06 f4 96 3d 12 13 ba bc
       0.08544184 -0.019005932 0.073707625 -0.022714172
000170 f1 38 81 bc 65 b8 6b bd 2e 9c 83 bd d2 26 b2 bd
       -0.015774222 -0.0575489 -0.06426273 -0.08698811
000180 ab bf 7d bd c0 1a cf bc ca e9 e9 bd 54 f2 b7 bd
       -0.061950367 -0.02528131 -0.11421545 -0.08981767
000190 4e 62 c0 bc fd 5b 45 bd 4a 68 bd bd bd 44 31 bd
       -0.023484375 -0.04818343 -0.09248407 -0.043278445
0001a0 ff 02 d7 bc 81 3c 05 bd aa 4b b7 bd 8e ca 15 3d
       -0.026246546 -0.032528404 -0.08949979 0.036570124
0001b0 b0 55 ce bd 10 53 6f bd b0 67 85 bd 62 9e 84 3d
       -0.10074937 -0.058428824 -0.065139174 0.064755216
0001c0 85 d2 9f 3c 58 59 f6 3d 33 3a 0d bd d3 dd 8d bd
       0.019509563 0.1202876 -0.03447933 -0.06927075
0001d0 c2 b5 8f 3d 53 14 e5 3c 80 30 d6 3c 55 28 e1 bd
       0.070170894 0.027963793 0.026146173 -0.10994021
0001e0 00 3a d4 bc e0 62 8e bd 17 78 25 bd 93 f3 1e bd
       -0.025906563 -0.06952453 -0.04039773 -0.03880651
0001f0 80 5e 98 3d 15 e0 9f bd 18 c8 98 bd 4f 2d 8b bc
       0.074398994 -0.07806412 -0.0746004 -0.016989378

bn3.weight f4 [128]
000000 40 cb 96 3e a0 a6 16 3d cf ad 0a 3f 99 2f 2e 3f
       0.29451942 0.03678 0.5417146 0.6804138
000010 78 64 a1 3d 08 da 9b 3d 5d f2 65 3f 10 9e 04 3f
       0.07880491 0.076099455 0.8982294 0.51803684
000020 74 40 26 3e 38 89 7f 3f 9e 79 6e 3f ba 94 9c 3e
       0.16235524 0.99818754 0.93154323 0.3058222
000030 c0 f1 06 3f f4 78 68 3e f7 f6 26 3f 27 a9 46 3f
       0.5271263 0.2270239 0.6522059 0.77601856
000040 56 0b 5b 3f 02 e5 74 3f 91 49 13 3f c0 fa 06 3e
       0.8556417 0.9566194 0.5753413 0.13181591
000050 c0 9f ae 3c 86 7b 19 3f c7 86 3a 3f 38 4e 4f 3e
       0.02131641 0.59954107 0.72861904 0.20244682
000060 e2 95 08 3f f0 dc 83 3d 83 dd 2a 3f 4a 5a 2a 3f
       0.53353703 0.06438625 0.6674425 0.6654402
000070 00 9e 3d 3c d8 01 bc 3e b0 b0 9f 3d bc ac 1c 3e
       0.011573315 0.36720157 0.07797372 0.15300268
000080 a8 bb 49 3e 36 ff 54 3f f2 c1 8a 3e ae 97 f0 3e
       0.19700491 0.8320192 0.27101094 0.46990722
000090 5e cc 77 3f 20 c8 5d 3d 49 20 40 3f 42 24 e7 3e
       0.96796215 0.054145932 0.75049263 0.4514485
0000a0 71 5b 03 3f da 8c 5a 3f 0e 91 ee 3c 9d e4 31 3f
       0.51311404 0.8537117 0.029121902 0.6948946
0000b0 5c 25 40 3f d7 67 d3 3e b1 fc 10 3f 0d 36 5a 3f
       0.75057006 0.4129016 0.56635576 0.85238725
0000c0 32 b4 27 3e b6 60 6b 3f b0 ae 1e 3e 7c bb 42 3f
       0.16377333 0.91944444 0.15496325 0.7606733
0000d0 d0 70 67 3f ce 19 29 3f 10 38 93 3d 6c f4 7e 3f
       0.90406513 0.66055 0.071884274 0.9959171
0000e0 8a b2 1c 3f b2 31 b5 3e 46 fd 50 3f 9c 74 57 3f
       0.6120993 0.35389477 0.81636465 0.84162307
0000f0 35 5c 29 3f e0 6e d8 3d 90 0d 17 3f ce 2d 88 3e
       0.6615632 0.10568023 0.5900507 0.26597446
000100 54 a1 5e 3e 56 5c 76 3f f4 a0 62 3e e0 b7 14 3e
       0.2174123 0.96234643 0.22131711 0.14523268
000110 a4 a5 ae 3e 80 50 7e 3f 90 47 aa 3e 88 4b e1 3d
       0.3411075 0.99341583 0.33257723 0.110007346
000120 08 75 6a 3e ec 3a 57 3e f6 af 31 3f 09 bc 37 3f
       0.22896206 0.2101857 0.6940912 0.71771294
000130 23 4d 47 3f 4d 3f 04 3f 50 2b bc 3d e8 66 26 3e
       0.77852076 0.5165909 0.09187949 0.16250193
000140 5c d6 3e 3f c0 9a 22 3d 95 47 18 3f 00 70 29 3e
       0.74545836 0.039698362 0.59484226 0.16546631
000150 a6 8d e2 3e 90 c3 ac 3e 22 dd 48 3f ba 63 10 3f
       0.44248694 0.33742952 0.7846242 0.5640217
000160 60 a1 06 3e cc 5c 30 3e 94 7a eb 3e f4 b5 36 3f
       0.13147497 0.17222899 0.45991957 0.7137139
000170 da 70 be 3e 18 47 95 3e 28 78 98 3d e4 17 23 3f
       0.37195474 0.29155803 0.07444793 0.6370833
000180 a9 4e 58 3f 74 6b 00 3f 48 da 05 3f 08 63 11 3e
       0.84495026 0.5016396 0.52286196 0.14197934
000190 dc f9 55 3e 13 e8 9f 3d f0 ad f1 3e 48 57 d1 3d
       0.20896095 0.078079365 0.47203016 0.10221726
0001a0 39 0e 7c 3e e3 72 1f 3f 48 29 2d 3e 25 24 45 3f
       0.246148 0.6228468 0.16910279 0.7700828
0001b0 2a 78 63 3f fe 5e 31 3f cf a4 44 3f 44 c2 38 3e
       0.8885523 0.6928557 0.7681398 0.18042856
0001c0 68 61 37 3f 8f 34 12 3f e2 09 d7 3e e0 37 e3 3e
       0.71633005 0.5711145 0.41999727 0.44378567
0001d0 00 e2 66 3e b3 96 0c 3f 00 be 0b 3d b8 75 39 3e
       0.2254715 0.5491745 0.034116745 0.18111312
0001e0 77 4f 25 3f 28 7f 1b 3f 46 e5 ec 3e c0 31 94 3c
       0.6457438 0.607409 0.46268672 0.018090129
0001f0 f4 61 23 3e 12 62 7d 3d 20 f1 77 3f 34 6b 06 3e
       0.15955335 0.061861105 0.968523 0.13126832

bn3.bias f4 [128]
000000 00 00 00 00 00 00 00 00 00 00 00 00 00 00 00 00
       0.0 0.0 0.0 0.0
000010 00 00 00 00 00 00 00 00 00 00 00 00 00 00 00 00
       0.0 0.0 0.0 0.0
000020 00 00 00 00 00 00 00 00 00 00 00 00 00 00 00 00
       0.0 0.0 0.0 0.0
000030 00 00 00 00 00 00 00 00 00 00 00 00 00 00 00 00
       0.0 0.0 0.0 0.0
000040 00 00 00 00 00 00 00 00 00 00 00 00 00 00 00 00
       0.0 0.0 0.0 0.0
000050 00 00 00 00 00 00 00 00 00 00 00 00 00 00 00 00
       0.0 0.0 0.0 0.0
000060 00 00 00 00 00 00 00 00 00 00 00 00 00 00 00 00
       0.0 0.0 0.0 0.0
000070 00 00 00 00 00 00 00 00 00 00 00 00 00 00 00 00
       0.0 0.0 0.0 0.0
000080 00 00 00 00 00 00 00 00 00 00 00 00 00 00 00 00
       0.0 0.0 0.0 0.0
000090 00 00 00 00 00 00 00 00 00 00 00 00 00 00 00 00
       0.0 0.0 0.0 0.0
0000a0 00 00 00 00 00 00 00 00 00 00 00 00 00 00 00 00
       0.0 0.0 0.0 0.0
0000b0 00 00 00 00 00 00 00 00 00 00 00 00 00 00 00 00
       0.0 0.0 0.0 0.0
0000c0 00 00 00 00 00 00 00 00 00 00 00 00 00 00 00 00
       0.0 0.0 0.0 0.0
0000d0 00 00 00 00 00 00 00 00 00 00 00 00 00 00 00 00
       0.0 0.0 0.0 0.0
0000e0 00 00 00 00 00 00 00 00 00 00 00 00 00 00 00 00
       0.0 0.0 0.0 0.0
0000f0 00 00 00 00 00 00 00 00 00 00 00 00 00 00 00 00
       0.0 0.0 0.0 0.0
000100 00 00 00 00 00 00 00 00 00 00 00 00 00 00 00 00
       0.0 0.0 0.0 0.0
000110 00 00 00 00 00 00 00 00 00 00 00 00 00 00 00 00
       0.0 0.0 0.0 0.0
000120 00 00 00 00 00 00 00 00 00 00 00 00 00 00 00 00
       0.0 0.0 0.0 0.0
000130 00 00 00 00 00 00 00 00 00 00 00 00 00 00 00 00
       0.0 0.0 0.0 0.0
000140 00 00 00 00 00 00 00 00 00 00 00 00 00 00 00 00
       0.0 0.0 0.0 0.0
000150 00 00 00 00 00 00 00 00 00 00 00 00 00 00 00 00
       0.0 0.0 0.0 0.0
000160 00 00 00 00 00 00 00 00 00 00 00 00 00 00 00 00
       0.0 0.0 0.0 0.0
000170 00 00 00 00 00 00 00 00 00 00 00 00 00 00 00 00
       0.0 0.0 0.0 0.0
000180 00 00 00 00 00 00 00 00 00 00 00 00 00 00 00 00
       0.0 0.0 0.0 0.0
000190 00 00 00 00 00 00 00 00 00 00 00 00 00 00 00 00
       0.0 0.0 0.0 0.0
0001a0 00 00 00 00 00 00 00 00 00 00 00 00 00 00 00 00
       0.0 0.0 0.0 0.0
0001b0 00 00 00 00 00 00 00 00 00 00 00 00 00 00 00 00
       0.0 0.0 0.0 0.0
0001c0 00 00 00 00 00 00 00 00 00 00 00 00 00 00 00 00
       0.0 0.0 0.0 0.0
0001d0 00 00 00 00 00 00 00 00 00 00 00 00 00 00 00 00
       0.0 0.0 0.0 0.0
0001e0 00 00 00 00 00 00 00 00 00 00 00 00 00 00 00 00
       0.0 0.0 0.0 0.0
0001f0 00 00 00 00 00 00 00 00 00 00 00 00 00 00 00 00
       0.0 0.0 0.0 0.0

bn3.running_mean f4 [128]
000000 00 00 00 00 00 00 00 00 00 00 00 00 00 00 00 00
       0.0 0.0 0.0 0.0
000010 00 00 00 00 00 00 00 00 00 00 00 00 00 00 00 00
       0.0 0.0 0.0 0.0
000020 00 00 00 00 00 00 00 00 00 00 00 00 00 00 00 00
       0.0 0.0 0.0 0.0
000030 00 00 00 00 00 00 00 00 00 00 00 00 00 00 00 00
       0.0 0.0 0.0 0.0
000040 00 00 00 00 00 00 00 00 00 00 00 00 00 00 00 00
       0.0 0.0 0.0 0.0
000050 00 00 00 00 00 00 00 00 00 00 00 00 00 00 00 00
       0.0 0.0 0.0 0.0
000060 00 00 00 00 00 00 00 00 00 00 00 00 00 00 00 00
       0.0 0.0 0.0 0.0
000070 00 00 00 00 00 00 00 00 00 00 00 00 00 00 00 00
       0.0 0.0 0.0 0.0
000080 00 00 00 00 00 00 00 00 00 00 00 00 00 00 00 00
       0.0 0.0 0.0 0.0
000090 00 00 00 00 00 00 00 00 00 00 00 00 00 00 00 00
       0.0 0.0 0.0 0.0
0000a0 00 00 00 00 00 00 00 00 00 00 00 00 00 00 00 00
       0.0 0.0 0.0 0.0
0000b0 00 00 00 00 00 00 00 00 00 00 00 00 00 00 00 00
       0.0 0.0 0.0 0.0
0000c0 00 00 00 00 00 00 00 00 00 00 00 00 00 00 00 00
       0.0 0.0 0.0 0.0
0000d0 00 00 00 00 00 00 00 00 00 00 00 00 00 00 00 00
       0.0 0.0 0.0 0.0
0000e0 00 00 00 00 00 00 00 00 00 00 00 00 00 00 00 00
       0.0 0.0 0.0 0.0
0000f0 00 00 00 00 00 00 00 00 00 00 00 00 00 00 00 00
       0.0 0.0 0.0 0.0
000100 00 00 00 00 00 00 00 00 00 00 00 00 00 00 00 00
       0.0 0.0 0.0 0.0
000110 00 00 00 00 00 00 00 00 00 00 00 00 00 00 00 00
       0.0 0.0 0.0 0.0
000120 00 00 00 00 00 00 00 00 00 00 00 00 00 00 00 00
       0.0 0.0 0.0 0.0
000130 00 00 00 00 00 00 00 00 00 00 00 00 00 00 00 00
       0.0 0.0 0.0 0.0
000140 00 00 00 00 00 00 00 00 00 00 00 00 00 00 00 00
       0.0 0.0 0.0 0.0
000150 00 00 00 00 00 00 00 00 00 00 00 00 00 00 00 00
       0.0 0.0 0.0 0.0
000160 00 00 00 00 00 00 00 00 00 00 00 00 00 00 00 00
       0.0 0.0 0.0 0.0
000170 00 00 00 00 00 00 00 00 00 00 00 00 00 00 00 00
       0.0 0.0 0.0 0.0
000180 00 00 00 00 00 00 00 00 00 00 00 00 00 00 00 00
       0.0 0.0 0.0 0.0
000190 00 00 00 00 00 00 00 00 00 00 00 00 00 00 00 00
       0.0 0.0 0.0 0.0
0001a0 00 00 00 00 00 00 00 00 00 00 00 00 00 00 00 00
       0.0 0.0 0.0 0.0
0001b0 00 00 00 00 00 00 00 00 00 00 00 00 00 00 00 00
       0.0 0.0 0.0 0.0
0001c0 00 00 00 00 00 00 00 00 00 00 00 00 00 00 00 00
       0.0 0.0 0.0 0.0
0001d0 00 00 00 00 00 00 00 00 00 00 00 00 00 00 00 00
       0.0 0.0 0.0 0.0
0001e0 00 00 00 00 00 00 00 00 00 00 00 00 00 00 00 00
       0.0 0.0 0.0 0.0
0001f0 00 00 00 00 00 00 00 00 00 00 00 00 00 00 00 00
       0.0 0.0 0.0 0.0

bn3.running_var f4 [128]
000000 00 00 80 3f 00 00 80 3f 00 00 80 3f 00 00 80 3f
       1.0 1.0 1.0 1.0
000010 00 00 80 3f 00 00 80 3f 00 00 80 3f 00 00 80 3f
       1.0 1.0 1.0 1.0
000020 00 00 80 3f 00 00 80 3f 00 00 80 3f 00 00 80 3f
       1.0 1.0 1.0 1.0
000030 00 00 80 3f 00 00 80 3f 00 00 80 3f 00 00 80 3f
       1.0 1.0 1.0 1.0
000040 00 00 80 3f 00 00 80 3f 00 00 80 3f 00 00 80 3f
       1.0 1.0 1.0 1.0
000050 00 00 80 3f 00 00 80 3f 00 00 80 3f 00 00 80 3f
       1.0 1.0 1.0 1.0
000060 00 00 80 3f 00 00 80 3f 00 00 80 3f 00 00 80 3f
       1.0 1.0 1.0 1.0
000070 00 00 80 3f 00 00 80 3f 00 00 80 3f 00 00 80 3f
       1.0 1.0 1.0 1.0
000080 00 00 80 3f 00 00 80 3f 00 00 80 3f 00 00 80 3f
       1.0 1.0 1.0 1.0
000090 00 00 80 3f 00 00 80 3f 00 00 80 3f 00 00 80 3f
       1.0 1.0 1.0 1.0
0000a0 00 00 80 3f 00 00 80 3f 00 00 80 3f 00 00 80 3f
       1.0 1.0 1.0 1.0
0000b0 00 00 80 3f 00 00 80 3f 00 00 80 3f 00 00 80 3f
       1.0 1.0 1.0 1.0
0000c0 00 00 80 3f 00 00 80 3f 00 00 80 3f 00 00 80 3f
       1.0 1.0 1.0 1.0
0000d0 00 00 80 3f 00 00 80 3f 00 00 80 3f 00 00 80 3f
       1.0 1.0 1.0 1.0
0000e0 00 00 80 3f 00 00 80 3f 00 00 80 3f 00 00 80 3f
       1.0 1.0 1.0 1.0
0000f0 00 00 80 3f 00 00 80 3f 00 00 80 3f 00 00 80 3f
       1.0 1.0 1.0 1.0
000100 00 00 80 3f 00 00 80 3f 00 00 80 3f 00 00 80 3f
       1.0 1.0 1.0 1.0
000110 00 00 80 3f 00 00 80 3f 00 00 80 3f 00 00 80 3f
       1.0 1.0 1.0 1.0
000120 00 00 80 3f 00 00 80 3f 00 00 80 3f 00 00 80 3f
       1.0 1.0 1.0 1.0
000130 00 00 80 3f 00 00 80 3f 00 00 80 3f 00 00 80 3f
       1.0 1.0 1.0 1.0
000140 00 00 80 3f 00 00 80 3f 00 00 80 3f 00 00 80 3f
       1.0 1.0 1.0 1.0
000150 00 00 80 3f 00 00 80 3f 00 00 80 3f 00 00 80 3f
       1.0 1.0 1.0 1.0
000160 00 00 80 3f 00 00 80 3f 00 00 80 3f 00 00 80 3f
       1.0 1.0 1.0 1.0
000170 00 00 80 3f 00 00 80 3f 00 00 80 3f 00 00 80 3f
       1.0 1.0 1.0 1.0
000180 00 00 80 3f 00 00 80 3f 00 00 80 3f 00 00 80 3f
       1.0 1.0 1.0 1.0
000190 00 00 80 3f 00 00 80 3f 00 00 80 3f 00 00 80 3f
       1.0 1.0 1.0 1.0
0001a0 00 00 80 3f 00 00 80 3f 00 00 80 3f 00 00 80 3f
       1.0 1.0 1.0 1.0
0001b0 00 00 80 3f 00 00 80 3f 00 00 80 3f 00 00 80 3f
       1.0 1.0 1.0 1.0
0001c0 00 00 80 3f 00 00 80 3f 00 00 80 3f 00 00 80 3f
       1.0 1.0 1.0 1.0
0001d0 00 00 80 3f 00 00 80 3f 00 00 80 3f 00 00 80 3f
       1.0 1.0 1.0 1.0
0001e0 00 00 80 3f 00 00 80 3f 00 00 80 3f 00 00 80 3f
       1.0 1.0 1.0 1.0
0001f0 00 00 80 3f 00 00 80 3f 00 00 80 3f 00 00 80 3f
       1.0 1.0 1.0 1.0
