mode_weights/agent10_actor_local.pth (torch_old, 93021 bytes, 18 tensors)

bn1.weight f4 [33]
000000 0c c5 00 3f f8 09 11 3f 28 e4 a3 3e 5f 40 8f 3c
       0.5030067 0.56655836 0.32010007 0.01748675
000010 ad 2d 48 3c 89 23 23 3d e8 63 35 3d 18 8a 57 3e
       0.012217921 0.03982881 0.04428473 0.21048772
000020 1a 1e dc 3d 27 e0 30 3e 53 48 27 3e e9 15 09 3e
       0.10747929 0.17273007 0.16336183 0.13387264
000030 05 72 c8 3d 28 c3 0a 3f 75 bf ee 3e 0c 61 34 3f
       0.097873725 0.54204035 0.46630445 0.7046058
000040 0f c3 b4 3d 23 e8 99 3d 93 f1 bc 3c 1e 8f c7 3c
       0.08826267 0.0751498 0.02306441 0.024360236
000050 4e 03 80 3e 28 39 98 3e 6a 68 f1 3d 86 38 2d 3f
       0.2500252 0.29731107 0.117874935 0.6766437
000060 30 26 98 3e c8 b5 ef 3e ca 0c 87 3f 90 21 14 3d
       0.29716635 0.46818376 1.0550778 0.03616482
000070 04 66 05 3f 90 30 bf 3e 12 36 9c 3e 94 97 6e 3f
       0.5210879 0.37341738 0.30510002 0.9320004
000080 74 35 b9 3e
       0.36173594

bn1.bias f4 [33]
000000 73 4c 52 bc 76 0c cf bd b3 88 e7 bd 02 37 89 3d
       -0.01283561 -0.101097986 -0.1130537 0.06699945
000010 b1 22 d3 bd 8c 7e c3 3c c7 d1 10 3d bf 22 fd bd
       -0.10309351 0.023864053 0.03535631 -0.12360143
000020 f0 16 3c 3b 30 4a 9c bc a0 b2 dd bd 70 e4 4e be
       0.0028700195 -0.019078344 -0.10825086 -0.2020433
000030 30 21 b9 3c a6 01 99 bd b1 10 ef bd 74 91 68 bc
       0.022598833 -0.074710175 -0.116731055 -0.014194835
000040 6f 5c 0b 3d 6b 2c ed 3b e0 de 0a bd fc 34 22 3e
       0.0340237 0.007237961 -0.033903956 0.15840524
000050 10 d4 49 bd 5f f0 96 3d c7 e7 4f bd cd 72 53 bd
       -0.049274504 0.07370066 -0.05075815 -0.051623154
000060 98 be 02 be 9e e2 4b bc bb 8d fd bb 72 40 f6 3d
       -0.12768018 -0.0124441665 -0.007737843 0.12024011
000070 6f e6 47 bd 03 7c 5a 3e 09 45 2c be 1a 25 4c be
       -0.048803743 0.21336369 -0.1682321 -0.19936028
000080 3f 4e 2a 3d
       0.041578528

bn1.running_mean f4 [33]
000000 7a 5e 2d 3f e1 9e 1e c0 4b 23 b9 be 22 1e 57 3f
       0.67722285 -2.4784472 -0.3615974 0.84030354
000010 b3 f6 a1 3d d8 41 28 3c b7 05 61 bd 01 29 a3 3c
       0.07908382 0.010269605 -0.05493709 0.019917013
000020 2c 27 8c bb 60 4a 49 3b f1 a2 ad 3a a8 41 2a 3c
       -0.0042771306 0.0030714497 0.0013247413 0.01039163
000030 0b 79 72 bd d7 aa f2 3e d9 c0 24 c0 91 ca 95 bd
       -0.059197467 0.47395965 -2.5742705 -0.07314027
000040 cb bf 2d 3c bc 2a ca 3b 9b ec ee bb a7 57 04 bd
       0.010604809 0.006169645 -0.007291389 -0.032310154
000050 6b 3d 00 3e 99 01 4b 3c c3 16 25 3d f3 01 48 bd
       0.12523429 0.012390518 0.04030491 -0.048829984
000060 12 ef fa 3d 04 88 1a bd c7 18 b0 3d fc ff 7f bf
       0.1225263 -0.03772737 0.08598476 -0.99999976
000070 ab 8d a9 3d 00 00 00 00 fc ff 7f 3f 00 00 00 00
       0.08278974 0.0 0.99999976 0.0
000080 95 85 74 bc
       -0.014924427

bn1.running_var f4 [33]
000000 b6 38 84 40 33 9e 0b 3f e6 30 95 40 6e 23 97 3d
       4.1319227 0.5453827 4.662219 0.073798046
000010 97 bf 90 3d db f7 fb 3c ff 49 e0 3d 74 a5 cd 3e
       0.07067793 0.030757835 0.10951614 0.40165293
000020 21 aa 83 3d 1f e1 e1 3d 35 cd 0a 40 3d 1f a3 3f
       0.06428934 0.110292666 2.1687748 1.2743908
000030 d6 f3 2d 40 0a 31 9f 41 a1 32 d5 3f e4 04 aa 41
       2.7180076 19.898945 1.6656076 21.252388
000040 07 c7 da 3d c0 d0 8c 3e 0d a2 c9 3d 6c e6 04 3f
       0.10682493 0.27503014 0.09845362 0.51914096
000050 48 8a 29 40 38 31 58 3f 66 a3 77 3f ce 81 fb 40
       2.649065 0.844501 0.967337 7.8595953
000060 9d 1d 77 40 3c 1c 0c 41 b9 f4 01 42 04 00 00 00
       3.8611825 8.756893 32.488987 6e-45
000070 5d 5d fc 41 04 00 00 00 04 00 00 00 04 00 00 00
       31.545588 6e-45 6e-45 6e-45
000080 53 95 ac 3e
       0.33707675

fc1.weight f4 [128, 33]
000000 78 32 39 be 24 d5 59 bc fe d9 30 bc ea 12 bc bd
       -0.18085659 -0.013295446 -0.010794161 -0.09183295
000010 59 ea 05 3c b8 ab eb 3c bb 87 a7 bd ae 30 ac bd
       0.008173549 0.028768405 -0.081801854 -0.084077224
000020 e6 43 7b 3d e5 ac b3 3c 4c 35 9c 3c e4 54 04 3e
       0.06134405 0.021933028 0.019068383 0.12923008
000030 bc d5 8e 3d 51 be 5a bd 23 17 81 bd 77 49 d4 bd
       0.0697436 -0.053404156 -0.06303241 -0.10365575
000040 5b b4 12 bd ae 98 38 bd d1 04 29 ba 19 b4 0f bb
       -0.03581653 -0.04506748 -0.0006447556 -0.0021927415
000050 e1 ef 68 bc b7 17 61 3d aa 30 c2 3c 77 ff 20 bd
       -0.014217348 0.054954257 0.023704845 -0.03930613
000060 d0 d1 83 bc 2a 4f 7f 3c 35 60 45 3d ce 2f 49 bd
       -0.016091257 0.015582839 0.048187453 -0.049117856
000070 b2 35 a5 bd e6 b6 ca bd bc 04 a5 bc 32 2e 84 3d
       -0.08066882 -0.09898166 -0.02014386 0.064541236
000080 45 03 aa 3c ae 89 f7 3a a9 ab e3 bb e0 47 4a bd
       0.020753512 0.0018885636 -0.0069479537 -0.04938495
000090 39 67 a4 3c 94 16 08 bd 6f 15 1e bd 52 84 70 bc
       0.020068752 -0.033224657 -0.03859466 -0.014679985
0000a0 59 26 ed bc 72 77 6e 3d 42 b8 ac bc c6 63 68 3c
       -0.02894895 0.05821938 -0.021083955 0.014183944
0000b0 54 29 a7 3c 36 77 ea 3c 2c a4 c7 3d a6 0f d3 bc
       0.020405449 0.028621297 0.0974811 -0.025764298
0000c0 9a 73 4d bb 94 e0 b7 bc 9e a0 53 bc 6d f3 d2 bd
       -0.0031349421 -0.022445954 -0.012916712 -0.10300336
0000d0 fa 70 c3 bc b1 a9 26 bb 32 ef 8f bb cc c9 a9 bd
       -0.023857582 -0.0025430734 -0.004392528 -0.08290443
0000e0 13 20 7e 3b 1b 12 00 3d 63 91 76 3d b1 28 40 be
       0.0038776442 0.031267267 0.060197245 -0.18765523
0000f0 a0 af d8 bd f2 a6 4d 3d 8c b5 b9 bd ed 7e 37 3e
       -0.10580373 0.05020804 -0.090678304 0.17919512
000100 07 40 8b 3d 16 87 52 be 34 f5 99 bd 7f d5 81 bd
       0.067993216 -0.20559344 -0.07517472 -0.06339549
000110 11 e9 ea bd 0a bc 9a 3c d0 28 28 3a 47 6a 78 3d
       -0.11470235 0.018888492 0.0006414773 0.06064823
000120 40 27 24 bd 08 5f 2d 3d d4 3c bb 3b 0c ad ad bc
       -0.040076494 0.042326957 0.0057140384 -0.02120068
000130 4c f0 45 ba 4f 73 13 bd 8f d6 d6 bd 06 b6 66 3d
       -0.00075507606 -0.03599864 -0.104901426 0.056325935
000140 ec 4e cc 3d 80 16 d8 bd e8 b8 c5 3c 84 c5 b1 bc
       0.09975991 -0.105511665 0.024136022 -0.021700628
000150 9b 53 ae 3d 9f ae 86 bc 3c 2d 88 bc 88 85 e3 ba
       0.0851204 -0.016440688 -0.016623132 -0.0017358521
000160 59 23 3e bd 99 6f 30 3a e3 88 5c 3d 14 13 02 bb
       -0.04642043 0.00067304965 0.053841483 -0.0019847797
000170 28 a1 05 bc 81 db d0 3d 1b 9c 28 3e 4b 83 1b bc
       -0.008156098 0.10198117 0.164658 -0.009491752
000180 17 12 10 3c 56 dd 87 3d e8 dd fe 3c dc f1 b1 bc
       0.008793375 0.06634013 0.031111673 -0.021721773
000190 80 ae 2d bc 8a b6 af bc 29 2f 6f bd 1c 4a 40 3d
       -0.010600686 -0.021449346 -0.058394585 0.046945676
0001a0 f7 be 31 bd 41 4c 0a bd 9a c1 bd 3c 45 a9 2a 3b
       -0.04339501 -0.033764128 0.023163605 0.0026040834
0001b0 bf 83 d0 bc f6 4f 18 bc 28 c7 8c 3c 1d 09 f8 3c
       -0.025453446 -0.009296408 0.017184809 0.030277783
0001c0 3a d6 17 be e4 b2 f1 3c 6d fb bc 3d f4 75 51 bd
       -0.14827815 0.029504247 0.09227643 -0.05113788
0001d0 d3 78 a7 3c 07 23 b6 3c eb 16 fe 3d 36 66 53 bd
       0.020443356 0.0222335 0.12406715 -0.051611148
0001e0 87 37 a4 3c 74 5f 37 bd 91 b0 9b bd 56 9e 8d 3c
       0.020046009 -0.044768766 -0.07602037 0.017287415
0001f0 d9 1e 23 3d 72 89 2e 3c c5 67 18 3d 96 f0 6b be
       0.03982434 0.010652887 0.037208337 -0.23040995
000200 1b 6f ec 3c 9f 1c ce 3c d4 b5 4f 3d ad 6b 6f be
       0.028861573 0.025160132 0.050710514 -0.23380919
000210 8d 65 1f bd 1d ea c2 3c b7 e7 25 3e 4a 9c 09 3e
       -0.038915206 0.023793275 0.16201673 0.13438526
000220 7c 5e 32 bd 7f cc 24 3d ef cc f1 3b 85 2d 6f 3c
       -0.04354714 0.040234085 0.0073791663 0.014598255
000230 b3 b5 af bd 8b fe 1f 3d 57 56 b0 bd dc 90 1a 3d
       -0.08579578 0.03906111 -0.08610218 0.037735805
000240 f3 be 05 3d 0e 90 e8 ba d4 b8 cf bd 1b 2b 30 3d
       0.032652806 -0.0017743127 -0.10142675 0.04300986
000250 b5 3d 0b 3c d3 b1 51 3b d6 c0 ca bc 44 23 93 3d
       0.008498599 0.003199686 -0.024750154 0.07184461
000260 d2 c4 e3 bd 37 34 21 bd dc da 27 be 57 04 1c 3d
       -0.11121525 -0.039356437 -0.16392082 0.038090076
000270 e4 3c 92 bd 9a 5a 42 bd 7b 16 37 3d 59 e8 bc 3d
       -0.0714052 -0.047449686 0.044699173 0.09224004
000280 86 93 88 be 4b 65 4a 3d 4f bc 15 bb 40 07 d2 bb
       -0.2667505 0.049413007 -0.0022847836 -0.0064095557
000290 12 ed 73 bd 58 7a 90 3d 04 a0 2e 3d f0 1b 4e 3e
       -0.05955226 0.07054585 0.04263307 0.20127845
0002a0 ce e3 db bd dd 89 60 3d bf c4 1e 3d c6 cb 0e bd
       -0.1073681 0.054818977 0.03876185 -0.034862302
0002b0 9f 54 69 3c 35 a5 57 bd d0 b0 0a bd d9 15 a1 3c
       0.014241367 -0.052647788 -0.033860028 0.019663738
0002c0 04 64 8e 3d ac 02 bc bd 10 4d 9b bd e9 53 34 bd
       0.0695267 -0.09180197 -0.07583058 -0.044025335
0002d0 fd 53 c4 bd ec fd 42 ba 6f 84 f8 3c ee c9 de 3d
       -0.09586332 -0.000743835 0.030336587 0.10878359
0002e0 74 55 da 3a 68 ae c5 bc 1f 8a 4c 3c ff 1b 86 3c
       0.0016657547 -0.024131015 0.0124841025 0.016370771
0002f0 fc d6 4a bd ac 6c fd bc cc 2c c1 bc 3f 63 8e 3d
       -0.04952143 -0.030935608 -0.023580931 0.069525234
000300 1a ce af bd 37 67 cb bd 68 30 4e bc 24 ba aa bc
       -0.08584233 -0.09931796 -0.012584783 -0.020840712
000310 38 64 8e bd 25 58 13 be 78 46 6c 3d b0 c4 a9 3c
       -0.06952709 -0.14389093 0.05768439 0.02072367
000320 e5 50 7a bc db d5 73 bd 2e e7 50 bd 69 d8 5d bc
       -0.015278076 -0.05953012 -0.05100172 -0.013540366
000330 59 95 70 bd 73 44 3a ba 92 42 2d bd 9a 60 ee bb
       -0.05873618 -0.00071055366 -0.042299815 -0.0072746994
000340 e8 85 c6 bc f1 f8 c5 bc 72 58 a5 bd 12 f3 1e be
       -0.024233773 -0.024166556 -0.0807351 -0.15522411
000350 f8 1f c4 bd 46 6e 49 3d 3f ed f3 bb 1e 4a 43 3c
       -0.0957641 0.04917743 -0.0074440534 0.011919526
000360 c0 5c a7 bd 9e ff a1 bd 37 d8 0f bd 2d a6 7d ba
       -0.081719875 -0.07910083 -0.035118308 -0.0009675946
000370 40 fb af 3c 51 b5 ae bc eb af ce bc f0 2f 24 bc
       0.02148211 -0.021326693 -0.025230369 -0.010021195
000380 23 20 ba 3d 10 aa dc 3d 29 79 3f be b5 b9 f2 3d
       0.09088161 0.10774624 -0.18698563 0.11851827
000390 8e 14 b6 3c 4d 91 9d bd 84 34 bc 3d 09 83 c6 bc
       0.022226598 -0.076937295 0.09189704 -0.024232404
0003a0 ad 4b bc bc 03 47 d0 bd 5e 0a 69 bd 49 c8 89 3d
       -0.022985304 -0.101697944 -0.056894653 0.067276545
0003b0 45 cb 17 bc c8 67 57 bd 45 14 1c bc 12 00 33 3d
       -0.009264772 -0.052589208 -0.009526317 0.04370124
0003c0 b5 c2 97 bb 74 38 8c bb 4a f8 68 3c 8a 96 3a 3d
       -0.004631365 -0.0042791907 0.014219353 0.04555372
0003d0 dd 40 3d 3d 8c 7b ec 3b 98 7d 2c 3c 1b 1f a3 3c
       0.046204437 0.0072168764 0.010527991 0.019912293
0003e0 12 a2 a1 3c ef 69 ef b8 3f 01 8a bd 8c 24 1f bc
       0.019730601 -0.0001141614 -0.06738519 -0.009713303
0003f0 14 f5 13 bc 52 c5 f5 bc 2c 50 dd 3c 61 46 c5 3c
       -0.009030599 -0.030001316 0.027015768 0.02408141

fc1.bias f4 [128]
000000 f9 1e 76 bd 39 b5 1f bd 42 89 a6 3d a3 3d df bd
       -0.06008813 -0.038991187 0.081316486 -0.10900428
000010 43 fd af bd fd a5 91 3d de e6 f8 3d 72 0b dc bd
       -0.08593228 0.07111738 0.121534094 -0.107443705
000020 04 ad c3 3d 49 a1 07 be 50 c9 44 bd 29 45 be bc
       0.095544845 -0.13245119 -0.04804355 -0.023226338
000030 cb 17 d7 bd 15 a5 06 be 76 31 7d 3d 43 b2 ff bd
       -0.10502585 -0.13148911 0.061814748 -0.124851726
000040 81 f5 52 3d d9 39 b9 bc be 30 e8 bc 81 f3 46 be
       0.051503662 -0.022610592 -0.028343555 -0.19428827
000050 2a 61 93 bd e0 65 b5 3d 4a 9e 4c bc 2c 28 e0 bd
       -0.07196267 0.08857322 -0.012488911 -0.10945162
000060 32 92 d4 bd 0b 0b ef bd 05 d5 f3 bc 09 db 7f 3e
       -0.10379447 -0.11672028 -0.029764662 0.24985899
000070 3c cc 38 3c 30 20 b6 3c f4 8c 6f 3c 56 1d fb bd
       0.011279162 0.022232145 0.014621008 -0.12261455
000080 08 3d 01 bd ca 94 a6 3c 14 67 ca ba 38 97 26 bd
       -0.031552345 0.02033462 -0.0015442097 -0.040671557
000090 a3 1c de ba 41 1a 5b bd 3c 95 e1 3a d7 af 20 be
       -0.001694579 -0.053491835 0.0017210613 -0.15692078
0000a0 c8 d1 ba 3d 88 0b 38 3e 82 cd 9f bb 16 b7 3c be
       0.09122044 0.17973149 -0.0048767934 -0.18429217
0000b0 4a 53 6f bd 95 19 cc 3b 89 ef d7 bb 37 1a ed 3c
       -0.05842904 0.0062286356 -0.006589834 0.028943164
0000c0 2a f0 cc bd a0 6c 19 3e e5 80 ab bd 2c 72 90 3d
       -0.10006745 0.14982843 -0.08374194 0.070530266
0000d0 75 b3 5a be cb 1c 9c bc 08 7a 08 3e a1 2c 13 be
       -0.2135752 -0.019056698 0.13327801 -0.14372493
0000e0 79 78 91 bc c6 aa 7f 3d 03 69 bf bb 5c ca fb bd
       -0.017757641 0.06241872 -0.005841376 -0.12294456
0000f0 2f 2a 9b 3d 65 6a 37 be 50 b3 d5 3c 5b 76 7d bd
       0.07576405 -0.1791168 0.02608648 -0.06188045
000100 8f 65 c2 bb 58 05 51 3d 16 e8 0b bd 42 c4 0b 3e
       -0.005932517 0.051030487 -0.03415688 0.13649085
000110 6b 43 54 bc b2 87 45 3e 54 c2 8c bd 02 44 8f 3d
       -0.012955527 0.19290045 -0.06873003 0.06995393
000120 07 05 03 be c4 4d eb 3c 67 fc 3c 3e a9 e0 e8 bd
       -0.12794887 0.028723605 0.18455659 -0.113709755
000130 6d 9c 54 bc 36 f7 23 3e 6c c9 a1 bd 80 51 ae bd
       -0.012976748 0.16012272 -0.07899746 -0.08511639
000140 19 c8 92 3d b9 21 d7 3d 69 20 64 3d e8 d2 a1 3d
       0.07167072 0.10504479 0.05569497 0.07901555
000150 f6 ed 51 3d 51 52 98 3d 4a 33 e2 bd 72 c6 ae bd
       0.051252328 0.074375756 -0.11044939 -0.08533944
000160 b1 da 81 bd e5 1d 88 3e f4 f9 75 bd 31 7e d5 bc
       -0.0634054 0.26585308 -0.060052827 -0.02606115
000170 54 72 c0 bd 70 a6 73 bc 98 34 fc bc bc ea 2d bd
       -0.09396806 -0.014871225 -0.030786797 -0.04246019
000180 ee 8a 5c bd a5 e2 c0 3d e3 1a cc 3c 18 5b 2d bd
       -0.05384343 0.09418229 0.024915164 -0.042323202
000190 91 d2 8a 3d f0 3b be bd ec 4d 53 bd d9 01 18 bd
       0.067784436 -0.09288776 -0.051587984 -0.037111137
0001a0 11 b0 3f be 0f 0f 24 3e 87 e6 6a bd 30 ce 16 3e
       -0.18719508 0.1602137 -0.057348754 0.14727092
0001b0 78 e8 df bc 48 54 e8 3c 89 f0 2e 3e ad 80 9b bd
       -0.02733253 0.028360501 0.17083944 -0.07592902
0001c0 ed c7 3f 3b f3 4a ec bd 28 58 db ba f5 a9 b7 3d
       0.0029263452 -0.11537733 -0.0016734647 0.089679636
0001d0 0d c8 f9 bd bf 9b 75 bd c1 d5 08 be 3b eb 16 bd
       -0.1219636 -0.059962984 -0.1336279 -0.036845427
0001e0 75 10 49 3d f7 58 8d 3e ef 6d 08 3d 46 46 b8 3d
       0.04908796 0.27606937 0.033307966 0.089977786
0001f0 14 bf 3f 3e c0 55 b5 3d 6d 47 9c bd 89 29 00 bc
       0.18725234 0.08854246 -0.07630811 -0.007822403

bn2.weight f4 [128]
000000 96 15 d4 3d 68 c2 87 3e 43 39 cc 3e e9 4b ef 3e
       0.1035568 0.26515508 0.39887437 0.46737602
000010 fe 53 3f 3e 84 a0 fb 3e 99 e4 15 3f 71 01 d7 3e
       0.18684384 0.491459 0.5855194 0.41993287
000020 f7 e2 04 3f 7e 79 4b 3f 09 cc bd 3e e6 89 a4 3e
       0.5190882 0.7948226 0.3706973 0.32136458
000030 a9 e1 91 3e f0 b0 aa 3e cb 44 a5 3e 16 0b 49 3e
       0.28492478 0.33338118 0.32279047 0.19633135
000040 44 52 b9 3e 09 69 40 3f e2 02 02 3f 7b 66 41 3f
       0.36195576 0.7516027 0.5078565 0.75547
000050 22 c6 57 3f f4 0c a8 3e fd e3 9d 3e a6 20 1e 3f
       0.842867 0.32822382 0.30838004 0.6176857
000060 29 0e 03 3e 2e 25 2b 3f e0 45 b4 3e 05 8e 2d 3e
       0.1279837 0.66853607 0.3520956 0.16948707
000070 0a e5 ae 3e 1c a7 ce 3e 57 f4 1e 3f 27 2c 41 3f
       0.34159118 0.4036187 0.62091583 0.75457996
000080 bc c9 4e 3f 52 d6 fd 3e 54 1e fc 3e 16 53 94 3e
       0.8077657 0.49577576 0.4924189 0.2896964
000090 7b a5 ad 3e 4d 70 e1 3e 68 42 87 3e 4a 26 2b 3f
       0.33915314 0.4403099 0.2641785 0.668553
0000a0 d3 fc 35 3e 10 db 59 3e 2e b0 3e 3f b4 e1 13 3e
       0.17772226 0.21274972 0.7448758 0.14441568
0000b0 a8 10 f0 3e fc 5c 64 3f 88 61 5c 3f f5 25 21 3f
       0.46887708 0.8920438 0.8608632 0.6294854
0000c0 7e 0e c2 3e 50 2f 33 3f 33 03 e2 3e 15 2c c5 3e
       0.37901682 0.6999407 0.44143066 0.38510194
0000d0 b3 8e d8 3e 74 8d 0e 3f 72 26 38 3f 70 cc 28 3f
       0.4229637 0.5568459 0.7193366 0.65936947
0000e0 8c ad 06 3f dd 68 09 3f a4 52 e2 3e 84 52 06 3f
       0.5260856 0.53675634 0.44203675 0.5246966
0000f0 d4 5f 04 3f 94 3e 4a 3e b0 3c 1c 3f 2d d2 9b 3e
       0.5170872 0.19750434 0.610301 0.3043379
000100 80 18 9e 3e 51 99 47 3f 33 33 ed 3e d5 9d 11 3f
       0.30878067 0.7796832 0.46328124 0.5688146
000110 13 36 84 3e 14 53 12 3f 29 42 54 3f c1 7a 16 3f
       0.25822505 0.5715802 0.8291345 0.5878106
000120 90 5a 4f 3f 47 7d 81 3e ca 48 21 3f ca e5 30 3f
       0.8099756 0.25290892 0.6300169 0.6910063
000130 fb e8 26 3f fc 4f 3f 3f a2 5e d0 3e d6 14 dc 3e
       0.6519925 0.7473142 0.406972 0.42984647
000140 3c 26 59 3f ee 8a 3c 3f 8d 6f 7a 3e 0f 56 54 3f
       0.84823966 0.7364949 0.24456616 0.82943815
000150 64 52 5e 3f 9d e7 10 3f c3 0f 71 3e f5 fd fc 3e
       0.8684447 0.56603414 0.23541169 0.49412504
000160 56 46 9e 3e 0b 48 26 3f 1a 24 8b 3e 18 cd 10 3f
       0.30913037 0.6495368 0.2717598 0.5656295
000170 fc 28 0d 3f ae 96 0a 3f 3e 56 47 3f 42 d6 fc 3e
       0.5514066 0.5413617 0.7786597 0.49382216
000180 ab c1 ad 3e 1f 9f a6 3e 62 6f a2 3e 8c a4 01 3f
       0.3393682 0.32543275 0.31725603 0.50641704
000190 8b 08 0e 3f 74 bc c4 3e 14 e6 e6 3e 25 98 29 3f
       0.55481786 0.38425028 0.4509741 0.6624778
0001a0 4a 81 0d 3e 2e 75 3e 3f 97 90 f5 3e 64 70 32 3f
       0.13818851 0.7439755 0.47961876 0.69702744
0001b0 0d a2 75 3f 67 4f fe 3e 1d f4 e2 3e d7 63 c2 3e
       0.95950395 0.49669954 0.4432687 0.37966797
0001c0 2d 54 40 3f cf 5c 59 3f 12 bf d3 3e 3e 34 16 3f
       0.7512844 0.8490724 0.41356713 0.58673465
0001d0 f8 26 d4 3e bf 19 2b 3f d7 fa 13 3f 21 cd 46 3f
       0.4143598 0.6683616 0.57804626 0.7765675
0001e0 19 5a 23 3e c0 71 54 3f 81 0a 28 3f 7a cc 30 3f
       0.15952338 0.8298607 0.6564103 0.69062006
0001f0 66 4e 11 3f f5 a2 49 3f 1b d2 67 3f cb b6 e9 3e
       0.5676025 0.7876428 0.9055497 0.45647272

bn2.bias f4 [128]
000000 61 77 f7 be fd b9 63 3d ec 06 fb 3d 99 f2 ff 3b
       -0.48333266 0.055597294 0.122571796 0.0078109023
000010 a4 02 dd 3e 5a d2 ca 3b 99 da 88 3d 6f f7 43 be
       0.43166077 0.0061896266 0.06682319 -0.19137357
000020 e5 99 74 bb 51 c3 6f 3d 7e 7e fe 3d d8 65 34 bd
       -0.0037323174 0.058535878 0.1242647 -0.04404244
000030 86 d2 9a 3e 4e b7 c0 3d 45 43 be 3e c4 40 90 3e
       0.30238742 0.094099626 0.37160698 0.28174412
000040 b7 26 8a be bd c2 ce 3d d5 97 81 3c d1 a7 fd bc
       -0.26982662 0.10095737 0.01581947 -0.03096381
000050 bc 95 86 3d b8 34 03 3e dd 26 8e 3e 95 d4 84 3d
       0.06571528 0.1281308 0.27764025 0.06485859
000060 b6 60 3e bd 78 aa a8 3d df 98 24 be a1 3a cf 3e
       -0.04647895 0.08235639 -0.1607394 0.40474418
000070 e4 da 45 3e 23 eb 46 3e 1d 22 bd bd 45 6d 14 3d
       0.19321781 0.19425635 -0.09235022 0.03623702
000080 bf b4 6d bd 23 a7 71 be 94 b2 87 3d 3f 37 98 be
       -0.0580337 -0.23598914 0.06625858 -0.2972965
000090 95 59 21 3e 88 28 5d 3e 85 5e 99 3e 8c 6c e1 3d
       0.15756829 0.21597493 0.29954925 0.11007032
0000a0 d2 8e f6 3e 80 68 b8 3e 1c 6c 45 bd f6 64 a2 3e
       0.48155838 0.36017227 -0.048198804 0.31717652
0000b0 e0 6e bf bd 49 d4 af 3e 90 81 1d be fd df e2 bd
       -0.093473196 0.34341648 -0.15381455 -0.110778786
0000c0 5b d9 72 be 55 c3 52 be 2a 5f 1f 3e 79 99 d3 bd
       -0.23715727 -0.20582326 0.15563646 -0.10332007
0000d0 39 fb 84 bd 14 13 1d be eb d7 76 3e bb 0b 4a bd
       -0.064932294 -0.15339309 0.24105804 -0.049327593
0000e0 90 62 90 bd 03 6d aa 3d 03 b2 b3 3e 23 a9 5a bc
       -0.07050049 0.083215736 0.3509675 -0.013345989
0000f0 2c ef 61 3e d3 9d e3 3d 8f 95 1f 3b d6 96 32 3e
       0.22063893 0.11114087 0.0024350618 0.17440352
000100 68 b4 90 3e d4 c2 8e 3e bb 46 45 3e da f6 9b bd
       0.2826264 0.27883017 0.19265263 -0.076154426
000110 3d 80 23 3e ab af 49 3e 0f 4d 47 3d f2 87 33 3d
       0.15966888 0.19695918 0.048657473 0.04383082
000120 62 b7 4b bd ba a1 3d 3e d9 e9 08 3d 06 b0 97 3d
       -0.049735434 0.18518725 0.03342614 0.07406621
000130 66 64 61 bd d8 6e ca ba 31 73 18 be e8 c6 54 3e
       -0.055027388 -0.0015444411 -0.14887692 0.20779002
000140 8a 65 b7 3d 21 25 67 be a3 49 97 bd 92 8d ae 3d
       0.08954914 -0.22572757 -0.07387092 0.08523096
000150 eb 48 14 3e 6d 76 90 bc 14 7f df 3e 2b ed 75 bd
       0.14480941 -0.017634595 0.4365164 -0.060040634
000160 df 34 f7 bd 18 47 e4 3c 21 86 8e 3e 09 21 a9 bd
       -0.12070631 0.027865931 0.27836707 -0.08258254
000170 3c 2d 7f bd 96 2d 5f 3e 54 ae b0 3d 9c 7e 14 3e
       -0.062299 0.21794733 0.086270005 0.14501423
000180 8b 7b 62 3e 01 f1 4e 3d 30 14 0e be a2 02 2c be
       0.2211744 0.050522808 -0.13874888 -0.1679788
000190 92 e7 90 3d f5 17 6d 3d 7d fc 3a 3e a2 8d 2c be
       0.070754185 0.057884175 0.18260379 -0.16850904
0001a0 19 d0 98 3e 89 65 0c 3e 04 c1 54 3e dd 0e 89 be
       0.29846266 0.13710608 0.20776755 -0.26769152
0001b0 3a 87 b4 3c c3 41 08 be 05 ef 12 be 97 f7 26 be
       0.022037137 -0.13306336 -0.14348991 -0.16305386
0001c0 77 e6 95 ba 93 78 04 3e 08 b4 ec bc c7 5c 5a bb
       -0.0011436482 0.1293662 -0.02889444 -0.003331946
0001d0 f5 f9 71 3e f9 94 56 bd 3e 01 26 3e 8a 67 d4 3d
       0.23630507 -0.052388165 0.16211411 0.10371311
0001e0 da 11 0f 3f 5d 41 c3 bd b6 a6 05 3e 36 62 8b 3e
       0.55886614 -0.095339514 0.13051876 0.27223366
0001f0 cf a1 dd 3c 8c d8 0c 3e b4 a3 cd bb c5 c1 ea bd
       0.027054695 0.13754481 -0.0062756184 -0.1146274

bn2.running_mean f4 [128]
000000 b7 a2 c0 3c 4d 33 ba 3c a9 95 94 3d 6c 23 8c 3c
       0.023515088 0.02272954 0.07255108 0.017106734
000010 2c a3 ec 3c 0e cf 80 3d 45 6b 51 3e 20 e9 40 3c
       0.0288864 0.062894925 0.20451076 0.011774331
000020 4e ed 30 3e f5 16 4a 3c 18 1d 10 3b 92 5e 91 3d
       0.17278025 0.012334575 0.0021989997 0.07098116
000030 62 05 9c 38 d2 3a d5 3c 2d 4f 84 3d 77 f8 a6 39
       7.439662e-05 0.026029024 0.06460414 0.00031847108
000040 39 d4 28 3d d7 7d 1c 3e 24 58 ae 3d 2f 9b 2d 38
       0.041218016 0.15282379 0.08512905 4.139094e-05
000050 84 c3 e5 3d 08 58 6f 3d 18 14 7a 3d 83 2e be 3c
       0.11218932 0.058433563 0.06105432 0.023215538
000060 d7 ae fa 39 30 12 c5 3c 37 92 30 3d 9d 94 b9 3e
       0.00047813982 0.024056524 0.04310819 0.36246195
000070 e2 90 ef 3d 5d 2a dc 3b db f8 4d 3c 8d 78 d5 39
       0.11697556 0.0067189173 0.012571539 0.00040716343
000080 72 4b be 3c e2 83 03 3c 37 21 5e 3c 8f d2 ad 3c
       0.023229335 0.008027049 0.013557724 0.021218566
000090 79 53 de 3b 76 7d 5c 3c c2 6b 39 3c 65 dd bd 3c
       0.006784853 0.013457647 0.011317195 0.023176858
0000a0 c7 c2 42 3d f9 3a 83 3e 51 ee 7b 3c 75 a7 ba 2c
       0.047549035 0.2563093 0.015376643 5.3050294e-12
0000b0 3a 8d 33 3c a7 c8 aa 3d 9b 8a d2 3d 29 ab ca 3d
       0.010958964 0.08339053 0.10280343 0.098959275
0000c0 2c 19 18 3d 59 ca 98 3e b2 29 00 3d 82 7c 3b 3d
       0.03713338 0.2984188 0.031289764 0.045773037
0000d0 da 81 8e 38 60 e3 6c 3c 91 02 02 3e 4e 18 3d 39
       6.7952744e-05 0.014458507 0.12696292 0.00018033499
0000e0 e8 12 c9 3c ec 06 96 3d 8e 89 ae 3b fe ad 33 38
       0.024545148 0.07325539 0.0053264564 4.283897e-05
0000f0 e5 81 88 3d b5 3e e4 39 1f 40 9b 3d be 12 48 38
       0.066654004 0.0004353427 0.075805895 4.770117e-05
000100 4e 7f 00 3c 12 8b 55 3d 38 77 f6 3c 09 88 0f 3e
       0.007842852 0.05213458 0.030086145 0.14016737
000110 83 f5 c8 3a 99 db 75 3e ed 23 80 3d f6 2a dc 3d
       0.0015331957 0.24009551 0.06256852 0.10750382
000120 d7 a7 69 39 f3 a3 33 3d 0d a5 81 3e 38 e8 5e 3b
       0.00022283137 0.043857526 0.25321236 0.0034012925
000130 37 24 d3 3c 9b 9a 29 3e 06 bd 7f 34 35 ce b2 3d
       0.025774105 0.16562884 2.3817492e-07 0.08730737
000140 76 2c 7a 3d f8 a3 92 3e ab bc 8b 3e 0d 0b 08 3e
       0.061077558 0.28640723 0.2729238 0.13285466
000150 32 8b 9a 3d f3 7f af 3c 49 e5 e0 3b fb 08 15 3d
       0.07546081 0.021423316 0.0068632704 0.036385518
000160 72 2d b3 3c 84 02 d6 3e 2a c9 9a 3d d0 ca 50 3d
       0.021872256 0.41798794 0.075579 0.050974667
000170 f5 ef 6c 39 56 39 9c 3c fa a2 1d 3b c1 b4 4d 3d
       0.00022596105 0.019070309 0.002405344 0.05022121
000180 c3 c4 d9 3b b0 c6 48 3d 85 11 88 3d fa 48 87 3c
       0.0066457703 0.04901761 0.066439666 0.01651429
000190 aa 25 25 3e b1 f1 d6 3d df ee 1e 3d c0 20 4c 3d
       0.16127649 0.10495318 0.038802024 0.04983592
0001a0 39 08 ef 37 7f bc 43 3e 45 88 81 3c 17 12 24 3e
       2.849485e-05 0.19114874 0.015812049 0.16022526
0001b0 0b af de 3c 62 d3 cf 3d cf 65 b3 3e 7c 40 18 3d
       0.027183076 0.1014774 0.3503861 0.037170872
0001c0 d7 e5 c5 3d 1f be 4a 3d 84 30 79 3b 5e ab e6 3d
       0.09662979 0.04949772 0.0038023302 0.112631544
0001d0 b4 0c 69 3c 02 e1 ce 3b de 2d 65 3c ad 77 3e 3d
       0.01422422 0.006313444 0.013987986 0.04650085
0001e0 16 4f 85 3d ee f6 be 3e 10 81 a4 3d 07 18 c7 3d
       0.06509225 0.37297767 0.08032429 0.0972138
0001f0 c4 6e 9b 3e b9 ed c2 3d c9 b6 b0 3c 3b fc d4 3a
       0.30357945 0.09517998 0.021571534 0.0016249487

bn2.running_var f4 [128]
000000 e5 3c 0d 3b 15 9c f3 3a c9 d1 2b 3b 05 93 a8 3a
       0.0021551189 0.0018585945 0.002621757 0.0012861198
000010 65 ca 35 3b b6 bd 84 3b 4f 6e e9 3b 76 f7 6e 3a
       0.0027739045 0.0040509356 0.0071237455 0.0009115854
000020 f4 2a 00 3d 8e 69 86 3a c8 26 a9 38 ed d3 05 3c
       0.031290963 0.0010254846 8.0657715e-05 0.008168203
000030 8a bf 90 36 f2 f8 1b 3b d9 e9 e6 3a de c4 f0 37
       4.3138325e-06 0.0023799506 0.00176173 2.8701903e-05
000040 12 42 91 3b 84 ba 16 3c 1b d9 04 3c fd 25 ad 36
       0.004432925 0.009199742 0.008108403 5.160224e-06
000050 2a 83 97 3c 18 5c cd 3b e1 82 a2 3b f5 12 f4 3a
       0.018495161 0.006267082 0.0049594496 0.0018621372
000060 b1 64 d2 37 26 6a 14 3b 93 83 f6 3b 54 fa 07 3c
       2.5080839e-05 0.0022646277 0.007523009 0.008299429
000070 8d ef 0a 3c b0 6d 8b 39 b5 81 ee 39 4f eb 4a 38
       0.008479965 0.0002659387 0.00045491537 4.83797e-05
000080 f2 66 ed 3a d3 b5 77 39 49 97 ca 39 5b 9d ec 3a
       0.0018112345 0.0002362349 0.0003864116 0.0018052267
000090 e3 06 82 39 38 f2 56 3a 7c 0c 1f 3a d4 e1 f2 3a
       0.00024800663 0.00081995456 0.0006067229 0.0018530437
0000a0 76 3d 5f 3b fc 51 fd 3a c4 20 8a 3a 30 f4 ae 2a
       0.0034063733 0.0019326801 0.0010538329 3.1078048e-13
0000b0 51 ad d3 39 d3 bd 14 3a 75 c6 7e 3c 32 bc 5f 3c
       0.00040374187 0.0005674038 0.0155502455 0.013655709
0000c0 bb 75 75 3b 78 32 65 3c 7e a4 2a 3b f1 69 9a 3b
       0.0037454206 0.0139890835 0.0026037986 0.004712336
0000d0 83 8e 3a 37 cc 35 8b 3a 89 48 38 3c 90 7f 4d 37
       1.1119645e-05 0.0010620891 0.0112477625 1.2248653e-05
0000e0 2a 66 22 3b 50 81 97 3b a2 ff ef 39 2a 77 fb 36
       0.0024780133 0.0046235695 0.00045776094 7.4942554e-06
0000f0 e3 77 52 3b 90 ff 6c 38 c7 9f 3c 3c 5e c2 f7 35
       0.0032114915 5.6504796e-05 0.011512703 1.8459502e-06
000100 0b 32 26 3a 84 97 19 3a b0 8c 25 3b 81 73 b1 3a
       0.00063398544 0.00058590644 0.0025260858 0.0013538451
000110 a2 ae b1 38 bf 18 7f 3c 22 f7 59 3b 2f ef db 3a
       8.4725456e-05 0.015569865 0.0033258875 0.0016779656
000120 d5 f5 b3 37 dc bd a4 3b 27 2f d7 3c f2 70 11 39
       2.1452937e-05 0.005027516 0.026267601 0.00013870353
000130 6c 17 e8 3a 26 01 fb 3b 6e e1 94 32 42 31 5b 3c
       0.0017707176 0.007660049 1.7331981e-08 0.013378443
000140 1b 4d 20 3c 02 e2 de 3b a0 33 da 3b df 59 5d 3c
       0.009784008 0.0068018446 0.006658986 0.0135101965
000150 a0 cf 14 3c 9f 20 1c 3a 3c 07 25 3a 04 28 47 3b
       0.009082705 0.00059557887 0.00062953285 0.0030388841
000160 24 2f 1a 3b 98 04 1d 3c 5f b1 eb 3b e3 40 db 3b
       0.0023526633 0.009583615 0.007192775 0.0066910847
000170 c4 9a 69 37 42 b4 96 3a 2b ce a9 38 0a 13 86 3b
       1.3923916e-05 0.0011497813 8.09695e-05 0.004091625
000180 5b de 86 39 3c c7 49 3b 22 11 2b 3c 7b c2 41 3a
       0.0002572414 0.003078892 0.0104410965 0.00073913456
000190 35 ef b7 3c c7 37 82 3c 3e 41 3d 3b 32 50 a9 3b
       0.02245293 0.015895737 0.0028877999 0.0051670307
0001a0 7c ad a0 36 d0 f1 19 3c d6 e1 8f 3a 44 e2 ed 3c
       4.788568e-06 0.0093960315 0.0010977339 0.029038556
0001b0 8e f0 92 3a 1a 3a 03 3c 8c 30 52 3c 47 18 86 3b
       0.0011210607 0.008009458 0.012828957 0.0040922496
0001c0 c5 35 dd 3b c2 3d 95 3b 6f 9d 44 39 54 d1 3e 3c
       0.0067507946 0.0045544812 0.00018750665 0.011646587
0001d0 13 39 80 3a e8 97 d2 39 6d 59 af 3a 27 44 91 3b
       0.0009782634 0.000401675 0.0013378091 0.004433173
0001e0 40 15 10 3c f2 94 83 3b 51 27 c9 3b c5 96 43 3c
       0.008794129 0.0040155584 0.00613872 0.011937802
0001f0 f8 de f5 3b bd a9 b1 3a f2 b7 84 3a 6b 22 47 38
       0.0075033866 0.0013554614 0.0010125621 4.747735e-05

fc2.weight f4 [128, 128]
000000 b1 8a 8a 3d 0e e4 82 3d 1c db 9a 3b 62 d6 1c 3c
       0.067647345 0.06391154 0.004725827 0.009572597
000010 8e 97 9b bd 34 ac 27 3c 79 a1 0a be ae 73 55 3d
       -0.07597266 0.0102339275 -0.1353816 0.052112274
000020 52 eb 43 bd f9 f7 d7 bb 53 81 71 bd a6 26 11 be
       -0.04783184 -0.00659084 -0.058961224 -0.141749
000030 a2 7c 03 be ae 50 88 be d8 c6 3c 3d 43 26 d7 3c
       -0.12840512 -0.26624054 0.04608807 0.026263362
000040 78 b3 dc 3d 56 83 49 bd 00 8d 0f 3d 16 7a a5 3d
       0.107764184 -0.049197517 0.035046577 0.08079927
000050 8b 45 8b 3d 95 44 17 3c 98 d7 f4 bb 0c f8 9b 3c
       0.06800374 0.00923266 -0.00747199 0.019039176
000060 6c a7 b2 3d fe b7 b6 bb 4a c7 3d 39 a7 12 68 b9
       0.087233394 -0.005576133 0.00018098686 -0.00022132193
000070 17 37 d4 bd db 08 a8 bd 6d a4 71 bc db 5f d6 bc
       -0.1036207 -0.08204814 -0.014748675 -0.026168754
000080 ef d6 71 bd 8f 67 b0 3d 5d 17 28 bd e1 21 25 3d
       -0.059042867 0.08613502 -0.041037906 0.040315513
000090 55 d2 9a 3d 62 cf 16 bd e4 6e 27 be e3 70 22 bc
       0.07559649 -0.03681887 -0.16350895 -0.00991461
0000a0 07 9f 38 be c7 25 4d 3d a0 e4 d4 bc d1 7d 17 be
       -0.18029414 0.050084855 -0.025987923 -0.14794089
0000b0 8a 21 e1 bd 07 b9 33 bd 48 a8 45 3d 88 17 93 3d
       -0.10992725 -0.043877628 0.04825619 0.071822226
0000c0 de 44 8d 3d f6 ac 79 bc 8e 65 c2 bd 56 cb 79 3d
       0.06897901 -0.015238991 -0.09492026 0.060984932
0000d0 0b 12 d7 ba 4e b4 9c 3d 53 aa 4c bc f7 d4 8a bd
       -0.0016408575 0.07651578 -0.01249178 -0.06778901
0000e0 eb 53 39 3d c3 e8 cc bc 86 a5 8b 3d 5a f8 6c 3d
       0.045246046 -0.025013333 0.068186805 0.057854034
0000f0 12 5b a5 3c 21 f6 22 be 53 90 60 3d 24 23 8e 3c
       0.020185027 -0.15914203 0.05482514 0.01735074
000100 66 cb 9f bd 2d cb 52 be e2 7b c9 bc 6d 40 d9 bc
       -0.07802467 -0.20585318 -0.024595205 -0.026519978
000110 c0 2d 2e be 21 5e e9 bd b5 ba 0b bd 61 12 35 3d
       -0.1700964 -0.11394907 -0.034113605 0.04420698
000120 65 a0 98 bd d0 32 26 be 55 f8 17 3d f6 ec a7 3b
       -0.07452468 -0.16230321 0.037102062 0.0051246835
000130 61 87 0e 3d a2 e6 4f bd 4a 00 a3 3d 27 c2 85 3c
       0.034797076 -0.050757058 0.079590395 0.01632793
000140 91 d1 a6 bc 42 9c 0e 3d e3 d1 51 3c d5 af a0 bc
       -0.0203636 0.034816988 0.012806389 -0.019615093
000150 ba 5a 20 bb ba 7e f2 3c 98 ec 31 be 0b 8e 26 bc
       -0.002446814 0.029601444 -0.1737541 -0.010165702
000160 e5 50 6d bd 56 98 0a 3d 63 4b 9c bd e7 84 6b 3c
       -0.057938475 0.033836685 -0.076315664 0.014374948
000170 f7 cc b5 3d 3d 01 39 3d c9 c9 d4 3c a3 76 70 bd
       0.088769846 0.045167197 0.025975125 -0.05870689
000180 d1 d3 af bd 38 df 93 bb ee 7e 00 3e 5a 79 2d 3d
       -0.08585323 -0.0045126937 0.1254842 0.042352058
000190 67 74 fa 3c eb 15 01 bd e8 2c 34 be d1 47 86 3d
       0.030573083 -0.031515043 -0.17595255 0.06556667
0001a0 5a a5 0b be 5b 7c 95 3d 3e 53 9f bd f4 c5 4a 3d
       -0.13637295 0.072991095 -0.07779549 0.04950519
0001b0 c9 29 46 be 84 b1 ec bc 4f fc 93 3d 63 43 91 bd
       -0.19351877 -0.02889324 0.072258584 -0.07092931
0001c0 37 ef 14 bd c1 a1 ea 3c 75 27 3f 3d 99 45 52 bc
       -0.036360946 0.028641583 0.04666849 -0.012833976
0001d0 71 e5 f1 3c 70 be a6 3d 35 33 d8 bc b4 87 ad bc
       0.029528352 0.08141792 -0.026391605 -0.021182872
0001e0 79 c2 29 be 82 67 a4 3b 61 a0 43 bd 20 ea e8 3c
       -0.16578092 0.005017222 -0.04776037 0.028431952
0001f0 8e 75 94 3b 89 36 29 3e 92 f6 13 b9 a6 0a e8 3b
       0.004530615 0.1652471 -0.00014110867 0.0070813475
000200 7a 6d 63 3d f1 c3 b3 3d 1d 90 66 bd bd 19 63 3d
       0.055524327 0.08777607 -0.05628978 0.055444468
000210 8b 9a 80 bd 4a 5f 88 3d 03 8a f9 bb 73 41 45 be
       -0.06279477 0.066588 -0.007615329 -0.19263248
000220 18 ad 71 3d 48 a8 98 3b 8f 3c f1 3d d6 78 81 3d
       0.059002966 0.0046587326 0.11779129 0.06321876
000230 9a 4a a3 bd d9 e8 bb bd 49 c0 6d 3b c6 34 21 3e
       -0.079732135 -0.091752715 0.003627794 0.15742788
000240 fc f9 e2 bd f7 a6 7c bd 75 0f a4 bc af 8d 33 3d
       -0.11082837 -0.061682668 -0.020026902 0.043836292
000250 33 5c 7c bc b1 ea c6 bb 3c 76 77 3c f6 19 bc 3d
       -0.015402841 -0.006070458 0.015103873 0.09184639
000260 59 7a 83 3d 73 0d 46 3d 79 e7 69 3d 0d c1 73 bd
       0.0641982 0.04835267 0.057105515 -0.05951028
000270 ff 87 f5 bd db 39 d4 3b 72 24 d7 3d 74 ea 9e bd
       -0.1198883 0.0064766235 0.10504998 -0.07759562
000280 40 86 f6 3b a6 ec 09 bd 6d 5f 0a be 8f ec 27 3e
       0.007523328 -0.03367295 -0.13512965 0.16398834
000290 d6 2b 83 3d 6c 1f 03 be 4c 19 60 3c 48 1e 4e bd
       0.064048454 -0.12804955 0.013677906 -0.050321847
0002a0 94 04 0a bd 82 ed e2 bd bf 98 97 bd 1b 89 1d 3d
       -0.033695772 -0.11080457 -0.07402181 0.038460832
0002b0 a1 d7 1c 3d 9c 3c 7f 3d d0 20 8e bd 17 40 2e 3d
       0.038291577 0.06231366 -0.06939852 0.04254159
0002c0 5a 53 82 bc 9b a1 2c 3d b2 1b 90 3d 43 0e 1d bd
       -0.015908886 0.042146306 0.070365325 -0.03834368
0002d0 98 3d e5 bd d3 23 32 3d f3 a5 7d 3c fe f2 88 bd
       -0.11193389 0.043491196 0.01548146 -0.06686972
0002e0 bc 3c e4 3c 5c 4f a7 bd d5 6b 5f 3d 4e b7 7b 3a
       0.027860992 -0.081694335 0.054546196 0.00096022047
0002f0 d1 66 a8 bd 48 a6 32 be 33 ec d3 bc 71 81 7c bb
       -0.08222736 -0.17446244 -0.025869465 -0.0038529302
000300 ca fc ee 3d fd e1 82 bd ce a5 71 bc c0 f6 de bd
       0.116693094 -0.0639076 -0.014749004 -0.108869076
000310 28 ad 1a 3d 68 fc 5a bc 5d ad 38 3d a6 99 d2 3c
       0.03776279 -0.013365842 0.045087207 0.02570803
000320 f6 fe 03 be 95 6e be bb 1e 4b 55 bd 3e b3 db bd
       -0.12890229 -0.0058115222 -0.05207359 -0.10727547
000330 97 4a 27 bc bc f3 14 be 83 7d 00 bc 1c 8a a0 bb
       -0.010210655 -0.14546102 -0.007842424 -0.0048992764
000340 3f df 99 3d 30 80 86 3c 61 61 fc 3c 87 2d d4 bd
       0.07513284 0.016418546 0.030808153 -0.10360246
000350 c9 92 e3 3c 66 a3 37 bd 8e 30 9c 3d a6 f9 65 bc
       0.027779954 -0.044833563 0.076264486 -0.014036572
000360 a2 d7 bd 3d 93 8d a8 bc f9 54 ce bd 7c 45 03 be
       0.09269644 -0.02057532 -0.10074801 -0.12819475
000370 c6 8c 19 bd 97 6d 6c bd 65 4b e7 3c 0b f2 c8 bd
       -0.037487768 -0.0577217 0.028234193 -0.09811791
000380 9d 5e 26 3d 29 40 0d 3d 02 f8 c1 3d 5f c4 13 be
       0.040617574 0.034485016 0.09471132 -0.14430378
000390 80 db cd 3b 0d 49 85 3c 70 34 c5 3d 48 46 28 3d
       0.00628227 0.016270185 0.09629142 0.04108265
0003a0 2e 90 36 bd 0c be 63 3d 70 17 0e bd 13 2e 9d bd
       -0.044571094 0.055601165 -0.03469032 -0.076748036
0003b0 6e 48 ea 3b 70 1a 32 3e 46 f1 f7 bb bc 1d 9b bd
       0.0071497476 0.17392898 -0.007566604 -0.07574031
0003c0 bd d1 81 3d 32 c2 b9 3d a0 96 b6 3d 9b ef c6 bc
       0.063388325 0.09070243 0.08915448 -0.024284175
0003d0 0b 19 05 3c 7d 25 c3 3d b2 94 a2 bd 65 54 cc 3c
       0.0081236465 0.09528635 -0.07938518 0.024942586
0003e0 b0 46 dc 3c 54 97 33 bd 47 ef e4 3d 1b 6a 31 bd
       0.026889175 -0.04384549 0.11178451 -0.04331408
0003f0 7d 79 97 3d b3 6a 11 3d 6b 73 c3 b9 47 2b ab 3c
       0.07396219 0.035502147 -0.0003727929 0.02089466

fc2.bias f4 [128]
000000 c6 4b ea bc 48 14 56 bc 71 3d d9 bd 33 87 4f bd
       -0.028600585 -0.013066359 -0.10607422 -0.050666045
000010 49 d4 0e be fb 08 18 be 16 c1 49 be ce 5d 48 be
       -0.13948168 -0.14847176 -0.19702563 -0.19567034
000020 96 76 90 bd ef cf 97 bd 0c 8c 03 be a1 80 d8 3b
       -0.070538685 -0.07412707 -0.12846392 0.0066071306
000030 26 0f ba bd 93 c4 5f bd 06 7a b7 3d 9d c6 52 be
       -0.090849206 -0.054630827 0.08958821 -0.20583577
000040 21 cf 0d be 23 e6 1c be 05 70 dd bd 1f 43 02 bb
       -0.13848545 -0.15322165 -0.10812382 -0.0019876433
000050 5d bd cb bd cb 81 01 be 8a c2 38 bd 1d b1 18 be
       -0.099482276 -0.12647168 -0.045107402 -0.14911313
000060 1a e9 3a bd b4 13 92 3e 03 86 d1 bd 27 8f 13 be
       -0.04563246 0.28530657 -0.10230639 -0.14410077
000070 43 b9 29 be 26 99 17 be 90 76 ec bd 65 63 42 3d
       -0.16574578 -0.14804515 -0.115460515 0.04745807
000080 8b 42 b3 bd 58 4b 56 bc 91 1d 7a be 28 2e 31 bd
       -0.087529264 -0.013079487 -0.24425341 -0.04325691
000090 39 17 82 3d 5c 6b 34 be 73 2f 3d 3d 3d 19 bf 3d
       0.063520856 -0.1761908 0.04618783 0.09330986
0000a0 df ac d6 bd bd 40 77 bc c9 f7 9c 3d be 29 e6 bd
       -0.10482191 -0.015091118 0.07664449 -0.112384304
0000b0 b5 3b a9 ba 5a f1 c5 3d 13 fa 9b bd 1e 3a 36 be
       -0.0012911471 0.09665175 -0.07616057 -0.17795607
0000c0 dd 7a 91 3d 16 17 86 bd f1 4d 64 bd 80 ca 57 bd
       0.071035124 -0.06547372 -0.055738393 -0.052683353
0000d0 c6 b1 1e be ee fd d1 bd ba 47 6f 3c fb 93 70 bc
       -0.15497503 -0.10253511 0.014604503 -0.014683719
0000e0 b5 d1 a3 bd 7e f6 b8 bd 17 20 dc bc f8 93 2b 3c
       -0.07998983 -0.0903139 -0.02687077 0.01047229
0000f0 29 21 89 3e d3 7f 82 3e 61 05 32 bd 1b 2d 19 be
       0.26783112 0.25488147 -0.04346216 -0.14958613
000100 0c 09 f1 3d 54 9d 1c be fd e0 a1 3d fd 73 9e 3d
       0.11769304 -0.15294391 0.07904241 0.07736967
000110 ff 55 a3 3d da 12 94 bd d7 6f 2e be 6c 76 a7 3c
       0.07975387 -0.07230158 -0.17034851 0.02044221
000120 76 25 93 bd cd 06 a7 3c 9f d6 9a 3d b4 c0 dd bc
       -0.071848795 0.020388985 0.07560467 -0.027069427
000130 e3 14 01 bd 8e f8 15 bd f8 bc a7 bd a3 f8 bc bd
       -0.03151406 -0.036613993 -0.0819034 -0.09227111
000140 b4 fa b3 bc 84 4c 1e be 39 da 70 3d da 33 3a be
       -0.02197013 -0.15458876 0.058801863 -0.18183842
000150 c1 a0 21 3b d2 cc 74 be d3 06 2f be 18 9b a2 bd
       0.0024662467 -0.23906258 -0.17092447 -0.07939738
000160 81 b6 9d bc 41 eb 37 bd ed 3f ff bd 3c e2 36 bd
       -0.019252064 -0.04490209 -0.12463365 -0.044649348
000170 03 76 6a bd 51 63 05 3a dd 3c 4f bb ca 76 ce bd
       -0.05724145 0.00050883467 -0.003162197 -0.10081251
000180 9b a1 24 bd 0a cb d0 bd 6a 9f 8a bd d8 c2 d7 bd
       -0.04019318 -0.10194977 -0.06768687 -0.1053521
000190 eb 70 3b bd e5 9e fc bd 1f d2 4c be 40 d2 ad 3a
       -0.045761984 -0.12334994 -0.2000203 0.0013261512
0001a0 82 fc 51 ba ba 65 bd 3d 79 05 f3 3c ec 52 51 3d
       -0.0008010344 0.092479184 0.029665696 0.05110447
0001b0 30 79 07 3e 25 d8 c2 bd 00 f6 06 bd 05 a5 65 be
       0.13229823 -0.095138825 -0.032949448 -0.22426231
0001c0 f5 09 6b bd 22 a6 71 3d 70 4c f0 3c c3 a5 8c bd
       -0.057382543 0.058996327 0.029333323 -0.06867554
0001d0 6e f2 c9 bc 76 c6 0b be 5a 50 e5 3b 44 5d 8c bd
       -0.024651732 -0.13649926 0.006998104 -0.068537265
0001e0 2d 61 b7 bd e8 03 16 be 5c fc a0 bd 54 f0 81 3d
       -0.08954082 -0.14649928 -0.07860634 0.06344667
0001f0 31 72 86 bd c4 fe 0d 3e d9 de 32 be b8 14 97 3d
       -0.06564749 0.13866717 -0.17467822 0.07376999

bn3.weight f4 [128]
000000 17 79 51 3f 92 fa 9e 3f 09 e9 8d 3f 9d 75 95 3f
       0.81825393 1.2420218 1.1086742 1.1676518
000010 e0 6b 99 3f 7d d4 48 3f df 68 99 3f 97 0f 6b 3f
       1.1986046 0.7844923 1.1985129 0.91820663
000020 35 2b ac 3f d7 a9 3e 3f 1e 5f 89 3f 49 d4 6e 3f
       1.3450686 0.74477905 1.0732152 0.9329267
000030 40 a5 c3 3f 61 bc a9 3f ff d0 80 3f 55 ad 2b 3f
       1.5284805 1.3260614 1.006378 0.6706136
000040 1a e5 5d 3f 6b 97 83 3f fb 3e 7e 3f 76 bf 8e 3f
       0.86677706 1.0280584 0.9931485 1.1152179
000050 85 dd 12 3f 94 ba a6 3f 57 6e 55 3f 8b 5a 31 3f
       0.5736926 1.3025689 0.8337149 0.6927878
000060 6e ba 9b 3f 2b 95 90 3f cd 21 93 3f 5c 03 81 3f
       1.2166269 1.1295522 1.149469 1.007915
000070 95 d0 a2 3f 31 03 8b 3f a7 98 9d 3f 1c 79 50 3f
       1.2719904 1.0860349 1.2312211 0.814348
000080 c8 44 4c 3f 21 80 46 3f aa a2 b4 3f c2 25 56 3f
       0.7979245 0.7753926 1.4112141 0.83651364
000090 da a7 ab 3f 85 b2 65 3f 90 0a 9a 3f 58 eb 88 3f
       1.3410599 0.89725524 1.2034473 1.0696821
0000a0 74 0f 25 3f 69 94 b8 3f 63 17 12 3f 42 0e 52 3f
       0.64476705 1.4420291 0.57066935 0.82053006
0000b0 08 01 b4 3f bc 91 48 3f 99 38 53 3f 38 f7 6e 3f
       1.4062815 0.78347373 0.82508236 0.93345976
0000c0 30 5e 92 3f 07 8a 52 3f 5f 54 80 3f fc f4 a0 3f
       1.1434994 0.82241863 1.0025748 1.2574763
0000d0 cf 97 25 3f ea 4c 75 3f 67 1b 91 3f 40 20 50 3f
       0.64684767 0.95820487 1.1336488 0.8129921
0000e0 9a d3 98 3f 48 1d 88 3f 84 a5 ab 3f 76 ed 4c 3f
       1.1939576 1.0633936 1.3409886 0.80049837
0000f0 1b 6a a2 3f 9b be 4f 3f 57 57 7a 3f ef d6 46 3f
       1.2688631 0.81150216 0.9778952 0.7767171
000100 6e dc 8f 3f 76 d0 ac 3f 7e 67 a3 3f 07 a2 aa 3f
       1.1239145 1.3501117 1.2765958 1.3330697
000110 2b b5 81 3f bd 37 6f 3f 7a 91 77 3f 50 88 29 3f
       1.0133413 0.93444425 0.96706355 0.6622362
000120 a1 4b 76 3f 10 68 c3 3f 94 35 86 3f 58 8a b4 3f
       0.9620915 1.5266132 1.0485101 1.4104719
000130 d9 55 b3 3f 69 c8 99 3f 90 b5 76 3f ce 01 75 3f
       1.4010574 1.2014285 0.9637079 0.9570588
000140 4d ae a5 3f 51 01 84 3f 3a b8 43 3f b7 66 4c 3f
       1.2943817 1.0312902 0.7645298 0.7984423
000150 51 d0 9e 3f f0 93 40 3f aa 5f 7b 3f 61 ce 4f 3f
       1.2407323 0.75225735 0.98192847 0.81174284
000160 d0 27 4a 3f 41 ca 84 3f 47 62 90 3f 04 f5 27 3f
       0.78967 1.0374223 1.1279992 0.6560824
000170 bb 3e 2b 3f 58 5d 9c 3f 4f a0 b3 3f c7 1a bc 3f
       0.66892594 1.2215986 1.4033297 1.4695672
000180 75 58 a0 3f a8 12 79 3f f0 88 44 3f 01 70 54 3f
       1.2526995 0.9729409 0.7677145 0.82983404
000190 8d b1 97 3f 21 60 1f 3f b6 8d 27 3f fe 11 56 3f
       1.1851059 0.62256056 0.6545061 0.83621204
0001a0 4c ee a2 3f 35 69 89 3f 5f 49 a3 3f 37 1d b2 3f
       1.2728972 1.0735232 1.2756766 1.3915166
0001b0 d2 34 66 3f 87 0c 87 3f 5a 2d 6e 3f ff e4 58 3f
       0.8992435 1.0550698 0.9303795 0.8472442
0001c0 7e 9b 7f 3f b1 17 33 3f 1d 9c 31 3f 12 b9 6e 3f
       0.9984664 0.69958025 0.69378835 0.93251145
0001d0 ad e5 5c 3f 7d 8a 39 3f 7d ef 50 3f 68 e3 a6 3f
       0.8628796 0.7247694 0.8161543 1.3038149
0001e0 d9 2d aa 3f 24 aa 6a 3f 85 a3 78 3f e2 68 9e 3f
       1.3295242 0.91665864 0.9712451 1.2375758
0001f0 33 fd a2 3f 3f 4a a5 3f b8 1b 53 3f 6d f3 8b 3f
       1.273352 1.2913283 0.8246417 1.0933663

bn3.bias f4 [128]
000000 c9 31 8d 3d c3 2b 47 3e 61 d7 9e 3d e7 44 8f 3b
       0.068942614 0.19450288 0.07755924 0.0043722275
000010 9d 2f 5d bd 8b 09 a8 bb 72 2b 08 3e a4 15 6f bb
       -0.054000486 -0.0051280907 0.13297823 -0.0036481405
000020 00 c2 53 3d 92 2a 1e 3d c3 4b 72 b9 d4 a3 8d bb
       0.051698685 0.038614817 -0.00023107142 -0.0043225084
000030 7f 16 15 3e 83 b6 43 3c 53 26 9c bc 99 33 f8 bb
       0.14559363 0.01194537 -0.019061243 -0.0075745103
000040 f7 0a d6 bd d5 30 ec bc 69 70 50 3d 46 f8 ae 3d
       -0.1045131 -0.028831879 0.050888453 0.08543448
000050 4f bb 5e 3c 20 be 32 3e 31 26 04 3e 27 5a 76 3d
       0.013594463 0.1745534 0.12905194 0.06014457
000060 a0 e9 f0 3c 6e b0 70 3d 8a 75 52 bc e1 94 32 3b
       0.029408276 0.058762006 -0.012845406 0.0027249383
000070 db 36 5c 3d 1f e4 d7 3a 8e f6 9a bd 17 04 ac 3c
       0.05376325 0.0016471184 -0.07566558 0.020998044
000080 39 9a 9a bd 8e 78 5a bd c6 c5 55 3d 75 e6 b4 bd
       -0.07548947 -0.053337626 0.052190565 -0.08833019
000090 09 4f 1a bb 35 03 86 bb 5b 33 13 bd a0 f5 3b 3d
       -0.0023545644 -0.004089738 -0.03593765 0.045888543
0000a0 ae 3c 89 3d a0 37 84 bd 40 1a 21 bd e5 5b a6 3b
       0.06701027 -0.06455922 -0.039331675 0.0050768727
0000b0 42 fd a0 3d a8 43 af bb 4a 6f 26 bd 21 8b 57 3d
       0.07860805 -0.0053486414 -0.040633477 0.052622918
0000c0 cf 0d 9f 3d 83 6e dd 3b 9b 2f 84 bc 96 de 9a 3d
       0.07766306 0.006757559 -0.016135981 0.07561986
0000d0 49 f6 e2 bd a9 35 d5 3d fc 39 84 3c b5 e5 67 3d
       -0.110821314 0.104106255 0.01614093 0.05661555
0000e0 6a 89 f1 bb 66 08 18 3d e1 70 4e bd 50 91 25 3e
       -0.0073711174 0.037117384 -0.05040062 0.16168714
0000f0 f8 7c 88 bc 44 59 47 3a 11 35 0f 3d ca 50 9f 3c
       -0.016661152 0.0007604549 0.034962717 0.019447703
000100 f5 c3 c3 3c 67 55 0f 3d 5a 03 05 3e e3 09 df bb
       0.02389715 0.034993555 0.1298956 -0.0068065985
000110 de b4 87 bc c8 28 1d 3e d1 1d 9d 3d e2 2c c3 3c
       -0.016565736 0.15347588 0.07671703 0.023825113
000120 44 20 3b bd c3 9f 0e bd 6f 33 ad bd 4b 40 f0 3d
       -0.045685068 -0.03482033 -0.08457076 0.11731013
000130 25 66 80 3d 26 94 bf 3c 4a 64 a2 bc 2e ba 23 3d
       0.062694825 0.023386072 -0.019823212 0.039972477
000140 c4 0e 88 3c a9 04 5e bd 73 fd 88 3c d5 cf 7d 3d
       0.016608603 -0.054203663 0.016722417 0.061965782
000150 aa 3c 9d 3d b7 b5 0e bd b0 02 2d bd 0a 3a 9f 3d
       0.076775864 -0.034841266 -0.04223889 0.07774742
000160 8a e5 a5 bd c0 8c ab bd b7 bb 89 3d 42 d3 0f 3e
       -0.08100422 -0.08376455 0.06725257 0.14045432
000170 26 5c 13 bb 94 00 65 bc 12 20 3e 3e 14 1d f2 bc
       -0.0022485345 -0.013977189 0.18566921 -0.029554881
000180 94 8f 9b bd dd 11 89 bc 76 51 39 3d 4b bc 94 bd
       -0.07595745 -0.01673215 0.045243703 -0.072624765
000190 5b e3 25 bd 6c 33 8d 3d 01 85 a9 bd ae 0f c8 bc
       -0.040500026 0.068945736 -0.082773216 -0.02442154
0001a0 a0 8a b1 bc df 7a 6d bd 5b 59 42 bd 40 6d 10 be
       -0.021672547 -0.057978507 -0.047448497 -0.14104176
0001b0 64 b5 bc bd ed b8 1a 3d a0 48 95 3d 9b 1c 31 bd
       -0.09214285 0.037774015 0.07289243 -0.04324017
0001c0 b9 17 ea bc 75 09 2e bc 9c ec f3 3d 0f e3 0a 3d
       -0.028575765 -0.010622372 0.11910364 0.033907946
0001d0 2a c1 d6 bc 62 6f fe 3b 76 f8 28 bd 57 6f 47 3b
       -0.026215155 0.0077647427 -0.041252576 0.0030431354
0001e0 aa 5b bd bd 22 64 42 bd 4b bb 2c 3e df 7e de 3c
       -0.09245999 -0.047458775 0.16868322 0.027160106
0001f0 8e ad 00 3e a7 24 90 3d 24 ae e6 3d b1 e0 9e bc
       0.12566206 0.07038241 0.112636834 -0.01939425

bn3.running_mean f4 [128]
000000 bc 01 59 3b 94 9f 46 3e b7 e4 f3 3b 58 86 5a 32
       0.0033112606 0.19396812 0.0074430364 1.2719816e-08
000010 bf 99 dc 3c 0d 6e 83 39 5b 9c 47 30 6b a9 b5 39
       0.02692878 0.0002506826 7.261797e-10 0.00034649236
000020 62 08 0f 3d d4 5f 87 3d 85 72 9f 34 7e 7d c4 3c
       0.034920104 0.06610075 2.9699382e-07 0.02398562
000030 8f 74 0f 3c 2b 78 14 37 9e 6b 99 3e 19 41 45 35
       0.008755817 8.849466e-06 0.29964918 7.348295e-07
000040 c4 f9 a1 39 6f d2 bb 3b 77 13 34 3d 21 cf bb 3e
       0.00030894403 0.0057318727 0.043963876 0.36681464
000050 2e 66 48 3d 34 6e 22 3c dc 7a 2b 3c 04 00 00 00
       0.04892557 0.00991397 0.010466304 6e-45
000060 87 3a 49 3b 22 8e 8f 3f 04 00 00 00 6d 97 2c 3c
       0.003070505 1.121525 6e-45 0.01053415
000070 0f 0b 4a 38 52 d6 2f 36 40 85 06 11 19 22 aa 3e
       4.8170852e-05 2.6201783e-06 1.0611797e-28 0.3322914
000080 48 05 a4 30 78 3f 74 3c 04 00 00 00 8f 38 6b 37
       1.1934072e-09 0.01490771 6e-45 1.402026e-05
000090 a7 f4 bd 3c 5f 83 53 33 33 98 7f 3e 6a 09 d8 3e
       0.023187948 4.9246747e-08 0.24960403 0.42194682
0000a0 ea 53 1e 3c 37 bc ac 3d d5 e3 f7 3d 5d a3 97 36
       0.009663561 0.08434337 0.121040024 4.5191687e-06
0000b0 bf 6d d4 3d e8 9b 85 3e 97 15 9e 3d 91 69 3d 39
       0.10372495 0.2609551 0.07718962 0.00018063771
0000c0 2e bf b7 3e 32 3c e0 3c 98 7f 9b 3b 8c 85 cd 3c
       0.35888046 0.027372453 0.004745435 0.025088094
0000d0 83 5b cd 35 28 8b 2a 3e 4d a5 18 3e 4d 52 6c 3e
       1.5300324e-06 0.16654646 0.14906807 0.2307827
0000e0 aa 00 29 3d 7e 19 7e 3d 4d 77 1f 3c 79 1d 40 3d
       0.0412604 0.06203603 0.009733033 0.046903107
0000f0 37 18 a6 3f e3 64 45 3f 54 26 55 3d 76 f2 65 3a
       1.297614 0.77107066 0.052038506 0.0008771786
000100 64 84 27 3e e4 ca 4e 3a df f2 2d 3e 49 50 b0 3e
       0.16359097 0.00078885094 0.16987179 0.34436253
000110 98 39 db 3e 38 ca b0 3d f8 11 2e 38 a0 f7 a6 3c
       0.42817378 0.0863232 4.1501567e-05 0.020381749
000120 fc e5 4b 3d 8d 54 40 3c 69 81 ab 3e a3 7c 1c 3e
       0.049779877 0.0117389085 0.3349717 0.1528192
000130 c3 8b e2 3c 11 65 ed 3d ca 62 29 3d b5 75 83 3d
       0.027654534 0.115915425 0.04135398 0.06418935
000140 aa 0c 1a 3d 88 13 8f 39 1f 1f 24 3f d9 45 57 33
       0.037609734 0.00027289637 0.6410999 5.0122114e-08
000150 07 42 a8 3e 38 bc 8c 3a b3 9f da 31 58 2e 68 3c
       0.32862875 0.0010737246 6.3627907e-09 0.014171205
000160 4e f2 2c 3e 16 b9 8e 3d 42 70 0c 3d f9 e7 9c 3d
       0.16889307 0.06968896 0.034286745 0.07661433
000170 e5 85 5f 3c 21 f8 ea 3d 48 a1 37 3e a5 48 9f 3e
       0.013642763 0.11473108 0.17932618 0.3111011
000180 68 37 c8 3d bd 23 59 3e 54 6c b3 3d 2b 93 51 3c
       0.09776193 0.2120504 0.08760896 0.012791435
000190 8b 51 8d 3d d8 d5 e7 3a 04 00 00 00 c5 37 c2 3e
       0.06900319 0.0017687632 6e-45 0.37933174
0001a0 4d 2c b2 3d 15 8f fd 3e 14 ba a3 3e 96 34 84 3d
       0.08699856 0.49523225 0.31977904 0.064553425
0001b0 80 4a 7c 3f 4b db 8e 3c 3e 21 f3 3c c1 c2 8f 3b
       0.9855118 0.017438551 0.029678937 0.00438723
0001c0 8c a9 93 3c a1 6e 18 3f 8b 78 82 3d d4 75 84 3d
       0.018025182 0.59543806 0.06370648 0.064677864
0001d0 6d b5 9a 3a fb 27 36 3a 57 3b 12 3e 72 e7 05 3e
       0.0011803337 0.00069487066 0.14280449 0.1307657
0001e0 92 a2 9c 3c 49 c4 48 35 71 e6 8d 3d c8 9c 77 3e
       0.019120488 7.479144e-07 0.06928719 0.24180901
0001f0 5b ec 77 3c 0d d0 c5 3e f3 47 32 34 e7 57 dc 3e
       0.015132035 0.38635293 1.6603717e-07 0.43035814
