mode_weights/agent2_critic_local.pth (torch_old, 93523 bytes, 17 tensors)

bn1.weight f4 [33]
0	0x3efe1558	0.4962566
1	0x3f44aa2f	0.7682218
2	0x3db533a8	0.08847743
3	0x3e073300	0.13203049
4	0x3e9d6686	0.30742282
5	0x3f2252fb	0.6340787
6	0x3efaed86	0.4900934
7	0x3f657d67	0.89644474
8	0x3ee94812	0.45562798
9	0x3f21ded3	0.6323063
10	0x3eb2a22a	0.34889346
11	0x3ecdade4	0.4017173
12	0x3cb6e480	0.022325754
13	0x3e2ce95c	0.16885895
14	0x3e96788c	0.29388845
15	0x3f04bdd8	0.5185218
16	0x3f329a58	0.6976676
17	0x3f4ccd8c	0.8000114
18	0x3e24e4e8	0.16102946
19	0x3e908582	0.28226858
20	0x3f2e7de6	0.68160856
21	0x3f6a4a27	0.915194
22	0x3ecb50ae	0.3970999
23	0x3f5fc8ae	0.8741559
24	0x3ed6bcb0	0.41940832
25	0x3f0d8b51	0.55290705
26	0x3f73e6a5	0.9527381
27	0x3d142190	0.03616482
28	0x3e3dad34	0.18523103
29	0x3ebf3090	0.37341738
30	0x3e9c3612	0.30510002
31	0x3f6e9794	0.9320004
32	0x3e3421cc	0.17591017

bn1.bias f4 [33]
0	0x00000000	0.0
1	0x00000000	0.0
2	0x00000000	0.0
3	0x00000000	0.0
4	0x00000000	0.0
5	0x00000000	0.0
6	0x00000000	0.0
7	0x00000000	0.0
8	0x00000000	0.0
9	0x00000000	0.0
10	0x00000000	0.0
11	0x00000000	0.0
12	0x00000000	0.0
13	0x00000000	0.0
14	0x00000000	0.0
15	0x00000000	0.0
16	0x00000000	0.0
17	0x00000000	0.0
18	0x00000000	0.0
19	0x00000000	0.0
20	0x00000000	0.0
21	0x00000000	0.0
22	0x00000000	0.0
23	0x00000000	0.0
24	0x00000000	0.0
25	0x00000000	0.0
26	0x00000000	0.0
27	0x00000000	0.0
28	0x00000000	0.0
29	0x00000000	0.0
30	0x00000000	0.0
31	0x00000000	0.0
32	0x00000000	0.0

bn1.running_mean f4 [33]
0	0x00000000	0.0
1	0x00000000	0.0
2	0x00000000	0.0
3	0x00000000	0.0
4	0x00000000	0.0
5	0x00000000	0.0
6	0x00000000	0.0
7	0x00000000	0.0
8	0x00000000	0.0
9	0x00000000	0.0
10	0x00000000	0.0
11	0x00000000	0.0
12	0x00000000	0.0
13	0x00000000	0.0
14	0x00000000	0.0
15	0x00000000	0.0
16	0x00000000	0.0
17	0x00000000	0.0
18	0x00000000	0.0
19	0x00000000	0.0
20	0x00000000	0.0
21	0x00000000	0.0
22	0x00000000	0.0
23	0x00000000	0.0
24	0x00000000	0.0
25	0x00000000	0.0
26	0x00000000	0.0
27	0x00000000	0.0
28	0x00000000	0.0
29	0x00000000	0.0
30	0x00000000	0.0
31	0x00000000	0.0
32	0x00000000	0.0

bn1.running_var f4 [33]
0	0x3f800000	1.0
1	0x3f800000	1.0
2	0x3f800000	1.0
3	0x3f800000	1.0
4	0x3f800000	1.0
5	0x3f800000	1.0
6	0x3f800000	1.0
7	0x3f800000	1.0
8	0x3f800000	1.0
9	0x3f800000	1.0
10	0x3f800000	1.0
11	0x3f800000	1.0
12	0x3f800000	1.0
13	0x3f800000	1.0
14	0x3f800000	1.0
15	0x3f800000	1.0
16	0x3f800000	1.0
17	0x3f800000	1.0
18	0x3f800000	1.0
19	0x3f800000	1.0
20	0x3f800000	1.0
21	0x3f800000	1.0
22	0x3f800000	1.0
23	0x3f800000	1.0
24	0x3f800000	1.0
25	0x3f800000	1.0
26	0x3f800000	1.0
27	0x3f800000	1.0
28	0x3f800000	1.0
29	0x3f800000	1.0
30	0x3f800000	1.0
31	0x3f800000	1.0
32	0x3f800000	1.0

fcs1.weight f4 [128, 33]
0	0xba896b9f	-0.0010484344
1	0x3bdeb1ad	0.006796083
2	0xbb850e32	-0.00406053
3	0xbb5ae187	-0.0033398585
4	0xbab796ab	-0.0014006695
5	0x3ab7901f	0.0014004743
6	0xbb02c8e2	-0.0019956161
7	0xba929395	-0.0011182899
8	0xb97b4cd0	-0.0002396584
9	0xb98ff376	-0.00027456478
10	0xbb5a944f	-0.003335256
11	0xbc45d966	-0.012075758
12	0xbba3ddd8	-0.005000811
13	0x3ab1967a	0.0013548874
14	0x3b90f5a8	0.0044238158
15	0xbb980d74	-0.0046402756
16	0xba825544	-0.0009943624
17	0xbb791b1d	-0.0038010546
18	0x3ad42418	0.0016185073
19	0xbbbc44b0	-0.005745493
20	0xbc46588d	-0.012106073
21	0xbb23cf75	-0.002499548
22	0xbb358fb7	-0.002770407
23	0xbb1125d7	-0.0022147798
24	0xbbe97efe	-0.0071257344
25	0xbba81079	-0.005128917
26	0x3b5f8831	0.0034108276
27	0x3b5d090f	0.0033727323
28	0xbba19a3f	-0.0049317176
29	0x0001c63e	1.62951e-40
30	0xbb5d090f	-0.0033727323
31	0x8000d90c	-7.7862e-41
32	0x3a80cb32	0.0009826182
33	0x3d5d353b	0.054005843
34	0xbc87a6d1	-0.016559036
35	0x3c1bfef7	0.009521238
36	0x3ad58ffd	0.0016293522
37	0x3b99ff1b	0.0046996004
38	0x3ce43cb6	0.02786098
39	0xbd16a910	-0.036782324
40	0xbc1d59cc	-0.009603929
41	0x3c5716e7	0.013128019
42	0xba36fd0a	-0.0006980455
43	0x37e1dfc6	2.6926293e-05
44	0xbbd6ee7b	-0.006559191
45	0xbc5f66d2	-0.013635354
46	0xbd96a9c9	-0.07356603
47	0x3caba5cb	0.02095308
48	0xbcea57c1	-0.028606297
49	0xbb80f739	-0.0039357212
50	0xbb38511f	-0.0028124524
51	0xbbaea57e	-0.005329787
52	0x3bd9706b	0.0066357157
53	0xba758157	-0.00093652814
54	0xbaa631d8	-0.001267965
55	0xba8e11ab	-0.0010839006
56	0xbcc18d89	-0.02362706
57	0x3c67d065	0.014148806
58	0x3ac53a55	0.0015047292
59	0x3cb85022	0.022499148
60	0x3d89ad66	0.06722526
61	0x3d43f485	0.047840614
62	0x800125bd	-1.05373e-40
63	0xbd89cc43	-0.06728413
64	0x80001329	-6.873e-42
65	0x3e52f0e2	0.20599702
66	0xbccec608	-0.025240913
67	0x3c8d8da1	0.017279448
68	0x3be736a6	0.007056075
69	0xbcdeb1f4	-0.027184464
70	0x3bf6fedd	0.0075377063
71	0x3c064b78	0.008196704
72	0xbd3452ea	-0.044024386
73	0xbc3b755f	-0.011441558
74	0xbca087e0	-0.01959604
75	0xbcbfef9c	-0.023429684
76	0x3c0773f3	0.008267391
77	0x3cf895ae	0.03034481
78	0x3b6f85f7	0.0036548355
79	0x3cade83b	0.0212289
80	0xbca0aa58	-0.019612476
81	0xbd801f99	-0.06256027
82	0xbc386f25	-0.011256968
83	0x3ba3c383	0.004997672
84	0x3cb865af	0.022509424
85	0xbc35c762	-0.0110949
86	0xbd10c3d7	-0.035343017
87	0xbd7a205e	-0.061066024
88	0xbd6b6258	-0.057466835
89	0x3bb2f873	0.0054617464
90	0xbc554750	-0.0130174905
91	0xbd34315d	-0.04399239
92	0x3b6c024a	0.0036012107
93	0x3d946a47	0.07246833
94	0xbcaf802b	-0.02142342
95	0x800084fd	-4.7707e-41
96	0xbd948a22	-0.07252909
97	0x80012c33	-1.07691e-40
98	0xbd9fbf8e	-0.07800208
99	0x3d9f098d	0.077654935
100	0x3d3d0244	0.04614474
101	0x3b223db1	0.002475601
102	0x3d6191a8	0.05507055
103	0xbcbd6c6c	-0.023122989
104	0x3c07124b	0.0082441075
105	0x3c8e4706	0.017367851
106	0xbd104228	-0.03521934
107	0x3d9a7512	0.07541861
108	0xbc8c1d01	-0.017103674
109	0xbbddd2b3	-0.006769502
110	0x3d639624	0.055563107
111	0xbb952c44	-0.004552396
112	0xbca63634	-0.020289518
113	0x3d10ce6f	0.03535312
114	0x3c32a3b3	0.010903287
115	0x3b92e426	0.004482764
116	0x3ce28feb	0.027656516
117	0xbbbf5f8c	-0.0058402475
118	0x3b1ac6ef	0.0023617109
119	0xbc919ff2	-0.017776463
120	0x3d7b053a	0.06128428
121	0x3d78d31d	0.06074821
122	0xbcf24cc4	-0.02957762
123	0x3b75cf46	0.0037507578
124	0xbd3ae1b5	-0.045625407
125	0xbd390011	-0.04516608
126	0xbaeadafb	-0.0017918044
127	0xbcd786ae	-0.026309337
128	0x8000b33e	-6.43e-41
129	0x3a4a6308	0.0007720445
130	0x8001a2bf	-1.50218e-40
131	0x3da746ae	0.08167778
132	0xbb3d2dc7	-0.0028866397
133	0x3c3d35f2	0.011548506
134	0x3b09a895	0.0021005024
135	0xbc3c3115	-0.011486311
136	0xbb9331cd	-0.0044920207
137	0xbb8d9f39	-0.0043219593
138	0x3baed3ac	0.005335292
139	0xbb9f255e	-0.0048567494
140	0x39ba2bcc	0.00035509316
141	0xbaf88bd0	-0.0018962566
142	0xbb4d490b	-0.0031324055
143	0xbc188f54	-0.009311516
144	0x3b940912	0.004517683
145	0xb94e1216	-0.00019652428
146	0x3c6e00b2	0.014526533
147	0x3aa4707d	0.0012545731
148	0xbb88d1e9	-0.004175414
149	0xbb93e7f8	-0.004513737
150	0x3b633a0c	0.003467205
151	0x3aa2ffb7	0.0012435828
152	0xb94fb98a	-0.00019810177
153	0xbbd422df	-0.0064738835
154	0xbba71e05	-0.005100014
155	0x3a727308	0.00092487084
156	0xbb171ecc	-0.0023059128
157	0x3bba5b9d	0.0056871907
158	0xb991301f	-0.00027692408
159	0x3c4cc1ae	0.012497349
160	0x3aa43e82	0.0012530836
161	0x00014307	1.1588e-40
162	0xbc4cc1ae	-0.012497349
163	0x80006019	-3.4473e-41
164	0xbb81fe24	-0.0039670635
165	0xbd96b514	-0.07358757
166	0x3d2ce235	0.042207915
167	0xbb5adcfd	-0.003339588
168	0xbc413fe1	-0.011795015
169	0xbc12d37e	-0.0089615565
170	0x3d312481	0.043247703
171	0x3c93da55	0.018048445
172	0xbb7988c1	-0.0038075896
173	0xbb9657f1	-0.00458812
174	0xbc9b13be	-0.018930312
175	0xbc65e974	-0.01403271
176	0x3c1e7932	0.00967245
177	0x3c9074a8	0.017633751
178	0x3dd2844b	0.10279139
179	0xbaf57dbe	-0.0018729491
180	0x3d24b0b0	0.040207565
181	0x3ca80905	0.020512113
182	0x3a74dde2	0.00093409244
183	0x3c970873	0.018436646
184	0x3c042fc2	0.008068027
185	0x3c0c6307	0.008568532
186	0xb8edef4d	-0.00011345614
187	0x3aef305d	0.0018248666
188	0x3d301169	0.042985354
189	0xb98cfc01	-0.00026890638
190	0x3d52ae23	0.0514356
191	0xbcab1e77	-0.02088855
192	0x3cca21c7	0.02467431
193	0xbd39ab0f	-0.04532915
194	0x00000bad	4.188e-42
195	0xbd0f6f01	-0.03501797
196	0x800090a3	-5.1886e-41
197	0x3e1f4246	0.15552625
198	0xbd880470	-0.066414714
199	0x3daf5f02	0.08563043
200	0x3d275424	0.040851727
201	0xbc94be2b	-0.018157085
202	0xbd8076b8	-0.06272644
203	0x3b09edc3	0.0021046258
204	0xbd2590c4	-0.040421262
205	0x3ce7a695	0.028277675
206	0xbc8c5428	-0.017129973
207	0xbb33224b	-0.0027333673
208	0xbc0412c7	-0.0080611175
209	0xb9704804	-0.00022915012
210	0x3b1c7e12	0.0023878855
211	0xbc2c60d9	-0.010521137
212	0xbd235cab	-0.039883297
213	0xbd75d772	-0.060019918
214	0xbc883c85	-0.01663042
215	0xbb18f879	-0.002334146
216	0x3cbb9b75	0.022901276
217	0x3c317ea7	0.010833419
218	0xb9976c81	-0.00028881806
219	0xbc61d1ae	-0.013782902
220	0x3a90ad39	0.0011037952
221	0xbbd8d10a	-0.0066167163
222	0xbc2bb165	-0.010479306
223	0xbce922f5	-0.028459052
224	0x3c12afc6	0.0089530405
225	0x3d462c0d	0.048381854
226	0xbc961532	-0.018320654
227	0x80008c06	-5.0231e-41
228	0xbd460772	-0.048346944
229	0x00007f5f	4.5692e-41
230	0x3e5ee0e4	0.21765476
231	0x3da81fd0	0.08209193
232	0x3c984c06	0.018590938
233	0x3cade0a7	0.021225287
234	0x3c83fe08	0.016112342
235	0x3bbf4489	0.0058370274
236	0xbb943b03	-0.0045236363
237	0xbcb6aa1f	-0.022297917
238	0x3affba61	0.0019510501
239	0x3c930b34	0.017949678
240	0xbcfac745	-0.030612597
241	0x3cd24e43	0.025672084
242	0xba4c75b3	-0.0007799521
243	0xbbc5bcce	-0.00603447
244	0xbdd57229	-0.10422165
245	0xbbb07fcc	-0.0053863283
246	0xbc6d71ad	-0.014492434
247	0x3b995932	0.0046798224
248	0x3b3fc24b	0.0029260095
249	0xbbe34723	-0.0069359704
250	0xbb703417	-0.0036652142
251	0xbaec4aed	-0.0018027701
252	0x3b0fe246	0.0021954938
253	0xbc30f31d	-0.01080015
254	0xbcc44c0d	-0.023962045
255	0x3b1790d3	0.0023127093

fcs1.bias f4 [128]
0	0xbb5d090f	-0.0033727323
1	0xbd8957b3	-0.067061804
2	0xbd93e90d	-0.07222185
3	0xbb19d04a	-0.0023470097
4	0xbc4cc1af	-0.01249735
5	0xbce30365	-0.02771158
6	0xbd45c615	-0.04828461
7	0xbcbf6c52	-0.02336708
8	0xbd80e6ab	-0.062939964
9	0xbdd1715a	-0.10226698
10	0xbd77150d	-0.06032281
11	0xbd53af49	-0.051680837
12	0x3afc9185	0.0019269442
13	0xbda782a4	-0.081792146
14	0x3aa119b4	0.0012290985
15	0xbce2ea08	-0.027699485
16	0xbd06bbc9	-0.03289393
17	0xbceb6351	-0.028733881
18	0xbccf38dd	-0.02529567
19	0x3bca9890	0.0061827376
20	0x3ccc696d	0.024952615
21	0xbd09b0b8	-0.033615798
22	0xbcce1eba	-0.025161136
23	0x3d8881e2	0.06665398
24	0xb85f1c54	-5.3193726e-05
25	0xbcbdb10a	-0.023155708
26	0xbd573160	-0.052537322
27	0xbda5a2d9	-0.08087701
28	0xbd68db8e	-0.05685001
29	0xbcdb353c	-0.026758783
30	0xbd873089	-0.06601054
31	0xbcaaefd3	-0.02086631
32	0xbc8da5bf	-0.017290948
33	0x3bb3c9ec	0.0054867174
34	0xbd4534f3	-0.0481462
35	0x3b4b6e4c	0.0031041084
36	0xbdbb426c	-0.09143528
37	0xbd6591eb	-0.05604736
38	0xbd3ea7d6	-0.04654678
39	0xbc2f2e04	-0.010692123
40	0xbb2066fa	-0.0024475441
41	0xbb941adb	-0.004519803
42	0xbceaa437	-0.028642757
43	0xbca2409e	-0.019806203
44	0xbd45c973	-0.04828782
45	0xbcd2387c	-0.0256617
46	0x3d461fab	0.048370045
47	0xbd0fb8df	-0.035088416
48	0xbcaeb475	-0.021326283
49	0xbcf549be	-0.02994239
50	0xbcf28345	-0.02960361
51	0xbd423db4	-0.047422126
52	0xbd819f00	-0.06329155
53	0xbc8dd20f	-0.017312078
54	0xbc1a410e	-0.009414924
55	0xbda84b65	-0.08217505
56	0xbc50065d	-0.01269683
57	0xbd047e2e	-0.032346897
58	0xbbd29187	-0.0064260396
59	0xbcf33429	-0.029687958
60	0xbb1e3927	-0.0024142952
61	0xbd8592e8	-0.06522161
62	0xbdf0d693	-0.11759677
63	0xbc9c97cd	-0.019115353
64	0xbdb3635b	-0.08759185
65	0xbc2a8640	-0.010407984
66	0x3c2da613	0.010598677
67	0xbd89742a	-0.0671161
68	0xbd8ff0bf	-0.070283405
69	0xbd892124	-0.06695774
70	0xbd236d57	-0.039899196
71	0xbc7ce6af	-0.015435859
72	0xbd31b278	-0.04338309
73	0xbd7b82cf	-0.061404046
74	0xbd81f5c1	-0.06345702
75	0x3d2d094f	0.042245205
76	0xbd33c8be	-0.043892615
77	0xbc6e87ba	-0.014558727
78	0xbd5a998c	-0.05336909
79	0xbd872a14	-0.06599823
80	0x3c6b9630	0.014379069
81	0xbc362eb6	-0.011119535
82	0xbd509517	-0.050923433
83	0xbd99d042	-0.07510425
84	0xbd2910dc	-0.041275844
85	0xbcf08c31	-0.029363723
86	0xbc67b074	-0.014141191
87	0xbd9fd723	-0.07804706
88	0xbcd7488e	-0.026279714
89	0x3d01305c	0.03154026
90	0xbd890130	-0.066896796
91	0xbca8458a	-0.020540971
92	0xbd714067	-0.05889931
93	0xbce2d515	-0.027689496
94	0xbd7c9759	-0.061667774
95	0xbdc23a85	-0.09483818
96	0xbd811461	-0.06302715
97	0xbd97840b	-0.07398232
98	0xbd2b7c0d	-0.04186635
99	0xbd80d92f	-0.062914245
100	0xbd8bd2de	-0.06827329
101	0xbd9496d2	-0.07255329
102	0xbd342852	-0.043983765
103	0xbd0c9fe7	-0.034332182
104	0xba734f6c	-0.0009281549
105	0x3c93f121	0.018059315
106	0xbcf99e96	-0.030471127
107	0xbc094a95	-0.008379598
108	0x3d633bdd	0.055477012
109	0xbcb46ed7	-0.022025509
110	0xbcf541c8	-0.029938594
111	0x3c01c76c	0.007921081
112	0xbd3dd1ce	-0.046342663
113	0xbd1963b7	-0.03744861
114	0xbb337683	-0.002738387
115	0xbc4b1c8b	-0.012396942
116	0xbd23a88e	-0.03995567
117	0xbd7d80a7	-0.06189027
118	0xbcc6ad62	-0.024252597
119	0xbd57e207	-0.05270579
120	0xbba66ebc	-0.0050791185
121	0xbc02e65c	-0.007989492
122	0xbcbb44f3	-0.022860026
123	0xbd263e77	-0.040586915
124	0xbd42cd43	-0.047559034
125	0xbca3a4f1	-0.019976111
126	0xbdda1302	-0.10648157
127	0xbd8062a0	-0.06268811

bn2.weight f4 [128]
0	0xb91c0911	-0.00014880697
1	0x3e37e177	0.17957102
2	0x3e07654c	0.13222235
3	0x3e1d48da	0.15359822
4	0x3aeac9ce	0.0017912926
5	0x3e4be91f	0.19913147
6	0x3e551f2e	0.20812675
7	0x3e534254	0.20630771
8	0x3e8a5bf8	0.27023292
9	0x3e420eeb	0.18951003
10	0x3de9457e	0.11390208
11	0x3dff2024	0.12457302
12	0x3957da4d	0.00020585321
13	0x3d37e58c	0.044896647
14	0x3e567909	0.20944609
15	0x3de6bb99	0.1126625
16	0x3e32b468	0.17451632
17	0x3ea62993	0.32453594
18	0x3e131b84	0.14365965
19	0x3f0cc199	0.54982907
20	0x3ecb2945	0.39679924
21	0x3e30e40d	0.17274494
22	0x3dfc117a	0.12308021
23	0x3e07075e	0.13186404
24	0xb8cb6d04	-9.7001e-05
25	0x3e15b1bb	0.1461858
26	0x3e0a733e	0.13520524
27	0x3dbaadd9	0.0911519
28	0x3ddefaa3	0.10887649
29	0x3de3af28	0.11117393
30	0x3dbce906	0.09224133
31	0x3ece3831	0.40277246
32	0x3eb00103	0.34375772
33	0x3e0f0f09	0.13970579
34	0x3e290cbd	0.16508766
35	0x3e20dd66	0.15709457
36	0x3d205db1	0.03915185
37	0x3db6af9f	0.08920216
38	0x3d746373	0.059665155
39	0x3e8c4849	0.273989
40	0x38a09899	7.657818e-05
41	0x3e5b9378	0.21442974
42	0x3ea46ff8	0.32116675
43	0x3e0b50b3	0.13605003
44	0x3e846db4	0.25864947
45	0x3f0f81b5	0.5605729
46	0x3ecce70c	0.40020025
47	0x3e9ecc7b	0.3101538
48	0x3de43577	0.1114301
49	0x3e8585e5	0.26078716
50	0x3e6665f0	0.22499824
51	0x3e137d07	0.14403163
52	0x3e10019b	0.14063112
53	0x3df910c4	0.12161401
54	0x3e653679	0.22384061
55	0x3e80ca70	0.25154448
56	0x3eac0e38	0.33604598
57	0x3e170665	0.14748533
58	0x3e3434c4	0.17598253
59	0x3e5b8a85	0.2143956
60	0x3e816396	0.2527129
61	0x3e4c5cd6	0.19957289
62	0x3e4e6d1e	0.20158812
63	0x3e2d608f	0.16931365
64	0x3e076b9e	0.13224646
65	0x3e830f38	0.25597548
66	0x3e50f855	0.20407231
67	0x3e170189	0.1474668
68	0x3e2627a7	0.16226064
69	0x3eac9f82	0.33715445
70	0x3ef03de5	0.46922222
71	0x3e6bdb27	0.23032819
72	0x3e1d88bb	0.1538419
73	0x3d9ad84d	0.07560787
74	0x3eae8597	0.34086296
75	0x3ea21619	0.31657484
76	0x3e87d8c2	0.2653256
77	0x3e6b9bc4	0.23008639
78	0x3db43017	0.08798235
79	0x3e2900ee	0.16504261
80	0x3ead136d	0.33803883
81	0x3e9c6209	0.30543545
82	0x3d5f5472	0.054523893
83	0x3e85bb07	0.26119253
84	0x3eb23eee	0.34813637
85	0x3e35d0eb	0.17755477
86	0x3df628df	0.12019514
87	0x3e50d273	0.2039278
88	0x3e125753	0.14291124
89	0x3ea6f81e	0.32611173
90	0x3e18c17d	0.1491756
91	0x3e5a41d3	0.21314172
92	0x3e27e135	0.16394503
93	0x3e56472c	0.20925587
94	0x3e924032	0.28564602
95	0x3e3a5454	0.18196231
96	0x3e48be2d	0.19603796
97	0x3e09196b	0.13388602
98	0x3e21dec3	0.15807633
99	0x3e826ff9	0.25476053
100	0x3e11934c	0.14216346
101	0x3e2fa678	0.17153347
102	0x3e3fdca8	0.18736517
103	0x3e77b3b1	0.2418964
104	0x3905aba8	0.00012747815
105	0x3eb4fcab	0.3534902
106	0x3e4e9038	0.20172203
107	0x3e74a3eb	0.23890655
108	0x3e8c9c45	0.27462974
109	0x3e67cb24	0.22636086
110	0x3e6b19c6	0.2295905
111	0x3e0cd82b	0.13754337
112	0x3e767376	0.24067482
113	0x3e428233	0.1899498
114	0x3e897a2d	0.26851025
115	0x3e654fdc	0.22393745
116	0x3e040201	0.1289139
117	0x3e90d38c	0.28286397
118	0x3e57c8e2	0.21072724
119	0x3e88f46e	0.26748985
120	0xb8cb6814	-9.6991804e-05
121	0x3f141b08	0.57853746
122	0x3e8ddbe7	0.27706835
123	0x3e9ab6be	0.30217546
124	0x3e2e3619	0.17012824
125	0x3eb93d91	0.36179784
126	0x3ec7e031	0.39038232
127	0x3e5fb7f4	0.21847516

bn2.bias f4 [128]
0	0xb967fb42	-0.00022123478
1	0xbdac8441	-0.08423663
2	0x3dc6c0a8	0.09704715
3	0x3d9679a1	0.073474176
4	0xb84083a6	-4.5898974e-05
5	0xbd1021de	-0.03518855
6	0xbcded538	-0.02720128
7	0xbd826a4b	-0.0636793
8	0xbda179aa	-0.07884534
9	0xbd3136dc	-0.04326521
10	0xbd936224	-0.07196453
11	0xbd19cefb	-0.037550908
12	0x3804213a	3.1502197e-05
13	0xbd897661	-0.06712032
14	0xbd720cb2	-0.05909414
15	0x3d3048ec	0.043038294
16	0x3dfd1117	0.12356775
17	0xbbd4fa0a	-0.0064995335
18	0xbd725d8d	-0.05917125
19	0xbdbc833c	-0.092047185
20	0x3d9723e8	0.073798954
21	0x3e0f5bc4	0.1399985
22	0xbb82d65d	-0.0039928393
23	0xbd988337	-0.07446902
24	0x38101193	3.4348643e-05
25	0x3d5cabdb	0.05387483
26	0xbda6e108	-0.0814839
27	0x3ce9aef6	0.02852581
28	0x3c8eec0e	0.017446544
29	0xbd923628	-0.07139236
30	0xbd380d20	-0.044934392
31	0x3d11f865	0.035637278
32	0x3d4c2b51	0.049845997
33	0x3d0d3b54	0.034480408
34	0xbdacf741	-0.084455974
35	0x3d3fa84a	0.046791352
36	0x3d5fd686	0.054647945
37	0x3ddbbfbe	0.10729931
38	0xbd6f2547	-0.05838516
39	0xbd77da9c	-0.060511217
40	0xb8159dc5	-3.5671303e-05
41	0xbd6b6d29	-0.05747715
42	0xbd861f32	-0.06548919
43	0x3daebb54	0.08531824
44	0x3e308903	0.17239766
45	0xbd9d0711	-0.076673634
46	0xbd9d7414	-0.07688156
47	0xbcbb4aee	-0.022862878
48	0xbca1a6f6	-0.019732933
49	0x3cc3678a	0.023853082
50	0x3c30a95c	0.010782566
51	0x3ce810d8	0.028328344
52	0x3d9dc796	0.077040836
53	0xbcf6090e	-0.030033614
54	0xbc90720f	-0.017632512
55	0xbc49ab34	-0.012308884
56	0xbd2959c0	-0.041345358
57	0xbd94e062	-0.0726936
58	0xbd97fd7d	-0.07421396
59	0x3d209968	0.0392088
60	0xbd7d1d97	-0.061795797
61	0x3dd0e1a4	0.101992875
62	0xbd1e34ee	-0.038624696
63	0xbd39d1e5	-0.045366187
64	0xbd53c8bc	-0.051705107
65	0xbd936e52	-0.07198776
66	0x3d36348b	0.044483703
67	0xbdb31f71	-0.08746231
68	0xbd3bdf99	-0.045867536
69	0xbdc9eddf	-0.098598234
70	0xbd7630cf	-0.06010514
71	0xbce75f8f	-0.028243808
72	0x3c6a238a	0.0142907
73	0xbd6582e2	-0.056033023
74	0xbbedc172	-0.0072557265
75	0xbcb24a96	-0.021764081
76	0x3d12dde8	0.035856158
77	0x3c8d4571	0.017245026
78	0xbd630559	-0.05542502
79	0xbd70c5b3	-0.05878229
80	0x3e195b1c	0.14976162
81	0xbdb0a6fe	-0.08625601
82	0xbda02f75	-0.07821552
83	0xbd90730b	-0.07053193
84	0xbdcc6422	-0.09980036
85	0x3c387063	0.011257264
86	0x3d2c2860	0.042030692
87	0xbdf1e62f	-0.11811482
88	0x3c39e246	0.011345452
89	0x3db92dbe	0.09041928
90	0xbd71c097	-0.05902156
91	0xbd13fa9a	-0.036127664
92	0xbc138380	-0.00900352
93	0x3d77f517	0.06053647
94	0xbd4765d0	-0.04868108
95	0xbc47c982	-0.012194039
96	0x3dfc848f	0.12329971
97	0xbdb92cc9	-0.09041745
98	0xbd672825	-0.05643477
99	0x3c47e430	0.0122004
100	0xbda901cc	-0.08252296
101	0xbd96e94c	-0.073687166
102	0x3d46397a	0.048394658
103	0xbc9150de	-0.017738756
104	0x38cb85e6	9.704735e-05
105	0x3d2c42d8	0.042055935
106	0xbddb5e97	-0.10711401
107	0x3ba323f5	0.0049786516
108	0xbdd0b2e3	-0.1019037
109	0x3d099ab0	0.033594787
110	0xba4b9adf	-0.0007766913
111	0x3dd18b44	0.10231641
112	0x3dcd49f1	0.10023869
113	0xbca05e4f	-0.01957622
114	0x3cbc6c25	0.023000786
115	0xbcd4697d	-0.025929207
116	0xbd6d4bde	-0.05793368
117	0xbc44cd3e	-0.012011824
118	0xbd928968	-0.071551144
119	0x3c9b6ced	0.018972838
120	0x3855b001	5.0947074e-05
121	0xbdaf0612	-0.0854608
122	0x3db0c4f1	0.086313136
123	0x3dfa8c5c	0.12233803
124	0xbd862b60	-0.06551242
125	0xbd484a5f	-0.04889905
126	0xbd2938b4	-0.041313842
127	0xbc9fd818	-0.019512221

bn2.running_mean f4 [128]
0	0x3c79f061	0.015255065
1	0x3c6b9c16	0.0143804755
2	0x3db9a433	0.09064522
3	0x3d99ba95	0.07506291
4	0x37ead66c	2.7994822e-05
5	0x3d18e37c	0.03732632
6	0x3d0a04f0	0.033696115
7	0x3d1a13a3	0.037616383
8	0x3cae36bc	0.021266334
9	0x3a14a222	0.00056699116
10	0x3bac6498	0.005261015
11	0x39990c11	0.00029191424
12	0x3d235290	0.03987366
13	0x3a84bc2e	0.0010126883
14	0x3c390bf1	0.011294351
15	0x3da0df9d	0.07855151
16	0x3d543744	0.051810518
17	0x3db49cfa	0.088190034
18	0x3a9dac54	0.0012029507
19	0x3db929cb	0.090411745
20	0x3ead91e9	0.33900383
21	0x3ddf06b3	0.1088995
22	0x3d953afb	0.0728664
23	0x3d2c3c99	0.042049978
24	0x3c86f766	0.01647539
25	0x3d1d063a	0.038336016
26	0x3d1c8219	0.03821001
27	0x3c81d4d9	0.015848564
28	0x3c538be0	0.012911767
29	0x3d95eec2	0.0732093
30	0x3a222d72	0.00061865814
31	0x3e249b55	0.1607488
32	0x3e26140c	0.16218585
33	0x3dd49603	0.10380175
34	0x3da66ccf	0.08126222
35	0x3ddcc92b	0.10780557
36	0x3c543ef6	0.012954464
37	0x3d46edee	0.04856675
38	0x3a436b73	0.0007454671
39	0x3dafed6b	0.08590206
40	0x3bf9a320	0.007618323
41	0x3c8404bd	0.01611554
42	0x3d519efe	0.051177017
43	0x3d75e337	0.060031142
44	0x3d5cd566	0.05391445
45	0x3d4afffb	0.04956053
46	0x3d852e8c	0.06503019
47	0x3e957e5b	0.29197964
48	0x3dc3fe1d	0.09569953
49	0x3ddfdba8	0.10930568
50	0x3dd13cd9	0.10216684
51	0x3e31e186	0.17371187
52	0x3c806eac	0.015677772
53	0x3d7389ac	0.059457466
54	0x3cf72470	0.030168742
55	0x3e2a51cd	0.16632767
56	0x3c9304da	0.01794665
57	0x3a825016	0.000994208
58	0x3e09d9cf	0.13461994
59	0x3dbe8d23	0.093042634
60	0x3bd56ef1	0.0065134694
61	0x3d49b3a6	0.04924359
62	0x3caecd3f	0.021338103
63	0x3c8f1b61	0.01746911
64	0x3d1a9f6b	0.03774969
65	0x3c861488	0.016367212
66	0x3e1bb985	0.15207489
67	0x3cf80ad3	0.030278599
68	0x3da3a53f	0.079905026
69	0x3e15e3c3	0.14637665
70	0x3d2a0c8e	0.04151588
71	0x3d72884b	0.05921201
72	0x3d9aa5ba	0.07551141
73	0x390de81a	0.00013533272
74	0x3d6368ad	0.05551975
75	0x3de08c07	0.10964208
76	0x3dd59b5b	0.10430022
77	0x3ddf3d51	0.10900367
78	0x3b7f0485	0.0038912606
79	0x3dc5c537	0.09656756
80	0x3e641fe7	0.22277795
81	0x3d050cff	0.032483097
82	0x3a4c75ea	0.0007799553
83	0x3d8a2017	0.06744402
84	0x3dfad9d2	0.12248577
85	0x3cd72473	0.026262498
86	0x3d2d246b	0.04227106
87	0x3dbd48a2	0.09242369
88	0x3c8e039e	0.01733571
89	0x3e52a9f9	0.20572652
90	0x3c83996e	0.016064372
91	0x3d7fcf33	0.06245346
92	0x3c9432e0	0.018090665
93	0x3e41f417	0.18940769
94	0x3d0a9232	0.03383083
95	0x3d5ea66c	0.05435793
96	0x3de5e2f1	0.11224926
97	0x3c6518a7	0.013982928
98	0x3c8c585f	0.017131982
99	0x3d89408c	0.067017645
100	0x3cac5d27	0.021040512
101	0x3d0af70b	0.033927005
102	0x3cd3b1f2	0.025841687
103	0x3de5c1ff	0.112186424
104	0x36fe4643	7.5779694e-06
105	0x3def754a	0.11692293
106	0x3d30eb76	0.043193303
107	0x3e5926ff	0.21206282
108	0x3e84195a	0.25800592
109	0x3d9a6d37	0.07540362
110	0x3d399b84	0.045314327
111	0x3e08fcea	0.13377729
112	0x3e8ccb18	0.27498698
113	0x3d4e55b1	0.05037469
114	0x3dca0c63	0.09865644
115	0x3e6f7b93	0.23386984
116	0x3dbe048d	0.09278212
117	0x3e72469f	0.23659752
118	0x3e876428	0.264436
119	0x3db03dc0	0.08605528
120	0x3c2c386e	0.010511501
121	0x3dde9268	0.108677685
122	0x3dd0a5d7	0.101878814
123	0x3e698204	0.22803503
124	0x3c9bf08f	0.019035606
125	0x3d7839b5	0.06060191
126	0x3d8357a5	0.06413201
127	0x3d21fbdf	0.039546844

bn2.running_var f4 [128]
0	0x3a4b6761	0.000775924
1	0x3ac4a83f	0.0015003755
2	0x3cb5e2dc	0.022202902
3	0x3c9b18c1	0.018932702
4	0x35918da7	1.0844568e-06
5	0x3bffa420	0.0078015476
6	0x3bc2c1cf	0.005943514
7	0x3b891c55	0.0041842856
8	0x3b563c26	0.003268966
9	0x3975e0c6	0.00023448755
10	0x3a16c579	0.00057514716
11	0x38ad9d2d	8.278559e-05
12	0x3b12eb63	0.0022418133
13	0x38e740b2	0.00011026989
14	0x3a751490	0.00093490724
15	0x3c703fdb	0.014663662
16	0x3c090835	0.008363773
17	0x3c9c4363	0.019075101
18	0x3949cc41	0.00019244944
19	0x3befd0de	0.0073186
20	0x3d2419cf	0.040063675
21	0x3cd72871	0.026264401
22	0x3c38f7c5	0.011289542
23	0x3c198bf6	0.009371748
24	0x39f96998	0.00047571654
25	0x3c6a153a	0.014287287
26	0x3bc720f5	0.006076927
27	0x3b265c85	0.0025384736
28	0x3b0f5c64	0.0021875137
29	0x3c9281a4	0.017884083
30	0x39842e33	0.00025211423
31	0x3cf6934e	0.030099537
32	0x3d20c504	0.03925039
33	0x3cb447fd	0.022006983
34	0x3c8c8bf7	0.017156584
35	0x3c4136c0	0.011792839
36	0x3b0dfee7	0.0021666826
37	0x3c4e2bfc	0.012583729
38	0x3970090c	0.00022891554
39	0x3c8dd899	0.017315196
40	0x3967e66f	0.0002211572
41	0x3a7bbfbd	0.00096034614
42	0x3c040fe1	0.008060426
43	0x3c22acc7	0.009928889
44	0x3c6c49ac	0.014421862
45	0x3bcd0594	0.0062567685
46	0x3c3f9684	0.011693601
47	0x3e0a4302	0.13502124
48	0x3cd099a4	0.025463887
49	0x3cd99aee	0.026563134
50	0x3caf64f2	0.02141044
51	0x3d393f5a	0.045226432
52	0x3b6ce4c9	0.0036147109
53	0x3c8acc17	0.01694302
54	0x3b8b111b	0.0042439825
55	0x3d89f785	0.06736664
56	0x3ae68dc8	0.0017589862
57	0x38ecf630	0.00011299213
58	0x3d4aabfb	0.04948042
59	0x3ca6888b	0.02032878
60	0x3a4c5bbb	0.00077956513
61	0x3c0daaa1	0.008646638
62	0x3b88b771	0.0041722585
63	0x3af92422	0.0019007961
64	0x3c112fac	0.0088614635
65	0x3b2cc233	0.002636087
66	0x3cd90519	0.026491689
67	0x3bfab5a2	0.007651047
68	0x3ce0a08a	0.027420301
69	0x3d1723c9	0.03689936
70	0x3bcdd307	0.00628126
71	0x3c662bea	0.014048556
72	0x3c9369f1	0.017994853
73	0x3795b14c	1.7844744e-05
74	0x3c234211	0.009964482
75	0x3c58c969	0.013231614
76	0x3cb99b44	0.022657044
77	0x3d5d88dd	0.0540856
78	0x3a4b14d3	0.00077469385
79	0x3d1934a2	0.03740371
80	0x3db5fa33	0.08885612
81	0x3b7d51af	0.0038653424
82	0x38859d6a	6.371255e-05
83	0x3c899fe1	0.016799869
84	0x3cf4846e	0.029848304
85	0x3b95eb27	0.0045751515
86	0x3be4b248	0.0069792606
87	0x3cc64c9f	0.024206458
88	0x3b397af9	0.0028302057
89	0x3cf113e3	0.029428428
90	0x3ae7f8d1	0.0017698054
91	0x3c10e70a	0.0088441465
92	0x3b1c4d17	0.002384966
93	0x3d4679d6	0.048456036
94	0x3be689b4	0.0070354585
95	0x3c7c3b61	0.015395016
96	0x3cccb6fa	0.024989594
97	0x3ad813f9	0.0016485445
98	0x3b231d5d	0.0024889328
99	0x3cbeade3	0.023276275
100	0x3b883870	0.0041571185
101	0x3b97e2af	0.004635177
102	0x3bb17d84	0.005416574
103	0x3cfd1945	0.030895839
104	0x33050f62	3.0980466e-08
105	0x3cbf5910	0.023357898
106	0x3c099fea	0.008399943
107	0x3da4ea25	0.08052472
108	0x3dcfcd3a	0.10146566
109	0x3c861d20	0.01637131
110	0x3c009168	0.007847168
111	0x3c90a251	0.017655523
112	0x3daf84ad	0.08570228
113	0x3c5ca1ec	0.01346634
114	0x3c66d2aa	0.014088312
115	0x3dd4b548	0.10386139
116	0x3cfd9858	0.030956432
117	0x3d829622	0.06376292
118	0x3dc8df33	0.09808197
119	0x3ce22579	0.027605759
120	0x39daf751	0.00041764465
121	0x3c97db08	0.01853706
122	0x3c5ac88a	0.013353476
123	0x3dd293ff	0.10282134
124	0x3ba24a65	0.004952716
125	0x3c04ca5b	0.008104886
126	0x3c8569d7	0.01628582
127	0x3bbffd97	0.0058590877

fc2.weight f4 [128, 132]
0	0x3a891e81	0.0010461361
1	0xbd8ec8e6	-0.06971912
2	0xbb509c81	-0.0031831565
3	0x3c1fc63c	0.009751853
4	0xbb3965a6	-0.0028289347
5	0xbc6caa09	-0.014444836
6	0xbbd2c19d	-0.006431772
7	0x3bb68e90	0.005571194
8	0xbd2abefe	-0.04168605
9	0xbc416bc5	-0.011805479
10	0xbb8bfbe6	-0.004271972
11	0xbce5c0ee	-0.028046098
12	0xba2cfe0b	-0.00065991346
13	0xbd5a1bf3	-0.05324931
14	0xbbc7a084	-0.006092133
15	0x3c8a913d	0.016914958
16	0x3d083c67	0.03326073
17	0xbd277084	-0.040878788
18	0xbd105cf7	-0.03524491
19	0xbd53ca44	-0.051706567
20	0xbc3f0894	-0.01165976
21	0x3d876ebf	0.0661292
22	0x3a9a8240	0.0011788085
23	0xbcc8da04	-0.02451802
24	0x38b4e540	8.62577e-05
25	0x3d3b9565	0.04579677
26	0x3c2ec90b	0.01066805
27	0xbccb61b7	-0.024826868
28	0x3b9827d4	0.0046434198
29	0xbd5d0a09	-0.05396465
30	0xbc48bb3d	-0.012251672
31	0x3b6ac28e	0.003582153
32	0xbd00cac5	-0.031443376
33	0x3c3e319a	0.011608506
34	0xbdc6cdc4	-0.097072154
35	0x3d20160d	0.03908353
36	0x3d09ad9a	0.033612825
37	0x3d499f41	0.049224142
38	0xbca8156d	-0.02051803
39	0xbcf7519e	-0.030190285
40	0x397b4b69	0.00023965318
41	0xbd91aa13	-0.07112517
42	0xbd112f1d	-0.03544532
43	0x3d103bc6	0.035213254
44	0x3d8f6b6e	0.070029125
45	0xbda0a03e	-0.07843064
46	0xbca5df98	-0.02024822
47	0xbd491296	-0.04908999
48	0xbc4860b3	-0.012230086
49	0x3cc90d81	0.024542572
50	0xbbafc63d	-0.005364208
51	0xb9f13175	-0.0004600395
52	0x3ccaa8e0	0.024738729
53	0xbc8dee87	-0.017325653
54	0xbce4cab8	-0.027928695
55	0xbbd31a21	-0.006442324
56	0xbd7f98d8	-0.062401623
57	0xbcaaeb51	-0.02086416
58	0xbd68226a	-0.056673445
59	0xbd2eaea4	-0.04264702
60	0xbd42b36d	-0.047534395
61	0x3d02dea3	0.031950604
62	0xbc469c99	-0.012122297
63	0xbd356569	-0.044286165
64	0xbc82cd7d	-0.015967125
65	0xbdaad160	-0.08340716
66	0x3d317564	0.043324843
67	0xbd83bb58	-0.06432217
68	0xbd2213e9	-0.03956977
69	0xbcb01d99	-0.021498488
70	0xbd707f0c	-0.05871491
71	0xbc906e78	-0.0176308
72	0x3b81933d	0.0039543197
73	0xbce58c38	-0.028020963
74	0x3a72706a	0.00092483184
75	0xb630add1	-2.6327218e-06
76	0xbd55cb42	-0.052195795
77	0x3ce065bc	0.02739226
78	0xbca1c6b4	-0.01974807
79	0xbd045a2d	-0.03231256
80	0x3d4982d9	0.04919705
81	0xbd1df66a	-0.038565077
82	0xbd2f5d42	-0.042813547
83	0x3c029c64	0.007971857
84	0xbc03bc23	-0.008040461
85	0xbba71367	-0.0050987485
86	0x3b8394ef	0.004015557
87	0xbcb43150	-0.02199617
88	0x3d0b5e9b	0.03402577
89	0x3cede90d	0.029041791
90	0xbd50e6bf	-0.051001307
91	0xbda0272a	-0.0781997
92	0xbd0211a3	-0.0317551
93	0x3bf18e22	0.00737168
94	0xbca09f87	-0.019607319
95	0xbc6c5fc8	-0.014427133
96	0x3d8e235d	0.06940339
97	0xbd3cd58a	-0.046102084
98	0xbd0c220c	-0.034212157
99	0xbc8fba49	-0.017544882
100	0x3c871271	0.016488286
101	0xbdb3855e	-0.08765672
102	0xbd17abad	-0.037028957
103	0x3cd40eb8	0.025885925
104	0xb985e94a	-0.0002554155
105	0x3aa117b7	0.0012290393
106	0xbc8e71f9	-0.01738833
107	0xbb94f5b5	-0.004545892
108	0xbccd40ba	-0.025055278
109	0x3bfae4d5	0.0076566734
110	0xbcf4d9a8	-0.029888943
111	0x3d6bc317	0.0575591
112	0x3d798715	0.06091984
113	0xbca9e208	-0.020737663
114	0xb8bb5bc0	-8.9339446e-05
115	0xbbd4f3f7	-0.0064988094
116	0xbd1c699a	-0.038186647
117	0xbd28ef37	-0.041243758
118	0xbcf6cf79	-0.030128228
119	0x3c9cb8d8	0.01913111
120	0xba906e00	-0.0011019111
121	0x3a396eb3	0.00070736854
122	0x3d690674	0.05689092
123	0x3c96ccdc	0.018408231
124	0xbc7be774	-0.015375007
125	0xbd052b46	-0.032511972
126	0xbc93a9f1	-0.01802537
127	0xbd440e55	-0.04786523
128	0xb9ef63c0	-0.00045659952
129	0xbb3b32fa	-0.002856432
130	0xbcb36621	-0.021899285
131	0xbb8b7814	-0.004256258
132	0xb8fb6f06	-0.000119892924
133	0x3d1a8e5e	0.03773343
134	0xbc3b4933	-0.011431026
135	0xbcb22799	-0.021747397
136	0xbab3a3f5	-0.0013705479
137	0x3d4defee	0.050277643
138	0xbd8721a0	-0.0659821
139	0xbcd06860	-0.025440395
140	0x3ab98e09	0.001415671
141	0xbc77c0ac	-0.01512162
142	0x3d10d4a8	0.035359055
143	0xbc81269e	-0.015765484
144	0x3991c9bd	0.00027806862
145	0x3d0af4ac	0.033924744
146	0xbd5dfd97	-0.05419692
147	0xbd1fa435	-0.03897496
148	0x3bb5bca4	0.0055461694
149	0x3da7534c	0.081701845
150	0x3d0c5502	0.034260757
151	0x3d51bffb	0.051208477
152	0x3cb882f4	0.02252338
153	0x3c8e577f	0.017375706
154	0x3c99cf0d	0.018775487
155	0xbd1e1657	-0.038595524
156	0x38a6b242	7.9487e-05
157	0xb9d219ea	-0.0004007363
158	0x3d225a9f	0.039637204
159	0xbb5b436f	-0.0033456942
160	0x3a374378	0.00069909496
161	0xbc8142b6	-0.01577888
162	0x3cc2d223	0.023781842
163	0xba951ce9	-0.0011376414
164	0x3aa39e7b	0.0012483144
165	0xbca2564d	-0.019816542
166	0xbd846b6f	-0.06465804
167	0x3c28769b	0.010282184
168	0xbafb3699	-0.0019166052
169	0x3bc151b3	0.005899632
170	0x3c2051ae	0.009785099
171	0xbd5eee46	-0.054426454
172	0x3960411d	0.00021386561
173	0xbc001a8d	-0.00781883
174	0x3bbcaae4	0.0057576764
175	0xbc331183	-0.010929468
176	0xbaa24a29	-0.0012381721
177	0x3c78b5ff	0.01518011
178	0x3c1edfa8	0.0096968785
179	0x3cbf191a	0.023327399
180	0x3b29497d	0.0025831156
181	0xbd4fbc52	-0.050716706
182	0xbd89e1dd	-0.06732533
183	0xbccc8810	-0.024967223
184	0xbd16f3af	-0.03685349
185	0xbd13e6b3	-0.036108684
186	0xbd262fa9	-0.040572796
187	0x3b24e38a	0.0025160038
188	0xbc30f4b3	-0.010800528
189	0xbd24e6c9	-0.040259156
190	0xbd95d68f	-0.073163144
191	0x3cfe3298	0.031029984
192	0x3c91b660	0.017787158
193	0x3cd99e7d	0.02656483
194	0x3c784166	0.015152311
195	0x3b8b2ee7	0.0042475346
196	0x3cf4c0ed	0.02987715
197	0xbcc4b7ae	-0.024013367
198	0x3ca0dada	0.019635607
199	0xbcdd84fb	-0.02704095
200	0xbc5bc2df	-0.01341316
201	0xbc28dd11	-0.010306613
202	0x3bcc2fb3	0.006231272
203	0x3d04826e	0.03235095
204	0xbc1b2072	-0.009468185
205	0x3cf28940	0.029606462
206	0x3cdd0739	0.026980983
207	0xbcb79ce2	-0.022413675
208	0xbb1d353b	-0.0023988027
209	0xbd172bb4	-0.036906913
210	0x3bf77918	0.0075522773
211	0x3c5fa6d5	0.013650616
212	0x3bf424c9	0.007450674
213	0x3c092d37	0.008372596
214	0x3d3e4739	0.046454642
215	0xbba4adf8	-0.0050256215
216	0xbc83bc92	-0.016081128
217	0x3cb35209	0.021889703
218	0xbcf67eae	-0.030089702
219	0xbcd46809	-0.025928514
220	0xbcdafa97	-0.026730819
221	0xbcf5433d	-0.029939288
222	0x3d005642	0.03133226
223	0xbc35eba1	-0.011103542
224	0xbbb13cda	-0.0054088654
225	0xbd427588	-0.047475368
226	0x3d513502	0.051075943
227	0x3ca68674	0.020327784
228	0x3be60a5e	0.007020279
229	0xbced0589	-0.028933303
230	0xbc719833	-0.01474576
231	0xbb44a43e	-0.0030005123
232	0x3d02794b	0.031853955
233	0x3b2bae18	0.0026196297
234	0xbcc4e6ae	-0.024035778
235	0xbc9a3b6c	-0.018827163
236	0xb882d865	-6.23919e-05
237	0x3cbcd5b7	0.023051126
238	0xbd5755bd	-0.052572
239	0xbb9b040a	-0.004730706
240	0xbd0ac3eb	-0.03387825
241	0xba8ed476	-0.0010897059
242	0x3ca154f1	0.019693824
243	0xbc66bf2d	-0.014083666
244	0xbb232229	-0.0024892187
245	0xbc98f20a	-0.0186701
246	0x3ca4e28e	0.020127561
247	0x3ce2301d	0.027610833
248	0xbc628bbd	-0.0138272615
249	0x3c37e73d	0.011224565
250	0x3c96b7c5	0.018398175
251	0x3d1975d0	0.03746587
252	0x393b19f7	0.00017843382
253	0x3c7c98a6	0.015417254
254	0xbb05f5db	-0.002044073
255	0xbcec1861	-0.028820219

fc2.bias f4 [128]
0	0x3d886ff8	0.06661981
1	0x3c3602a2	0.011109026
2	0xbdca5716	-0.098798916
3	0xbcee59b4	-0.029095508
4	0xbdfc2c90	-0.12313187
5	0xbd8aaf99	-0.06771774
6	0x3d8cc47b	0.06873413
7	0x3d1ded64	0.03855647
8	0x3d800d7a	0.062525705
9	0xbd386ecf	-0.04502755
10	0xbd7098e4	-0.058739558
11	0xbd83e4a8	-0.06440097
12	0xbcf28039	-0.029602157
13	0x3cc3f2c3	0.023919469
14	0xbd86f77c	-0.06590173
15	0x3c2ce494	0.010552544
16	0xbce234bd	-0.027613038
17	0xbdde111e	-0.108431086
18	0xbd56d709	-0.052451167
19	0xbda90004	-0.08251956
20	0x3d0ab034	0.033859447
21	0xbda5a56b	-0.080881916
22	0x3d9f26c5	0.077710666
23	0xbd011863	-0.031517398
24	0x3cf70c93	0.030157363
25	0xbdd11ec9	-0.1021095
26	0xbd37158c	-0.044698283
27	0x3d086b02	0.033305176
28	0x3d9a5d4a	0.07537325
29	0xbc96323e	-0.018334504
30	0xbdc1df5e	-0.09466432
31	0xbd3103e6	-0.04321661
32	0xbd76e488	-0.060276538
33	0xbde80034	-0.11328164
34	0xbc8aaaa1	-0.016927065
35	0x3cafe17f	0.02146983
36	0xba45d198	-0.00075461855
37	0xbd45e40d	-0.04831319
38	0x3cd6e1af	0.026230661
39	0x3d114396	0.035464846
40	0x3c8fd62e	0.017558184
41	0xbe05bf0a	-0.13061157
42	0xbd9672af	-0.07346093
43	0xbdc8b4a8	-0.098000824
44	0xbd0a3a8a	-0.033747233
45	0xbdcaa332	-0.09894408
46	0xbdbee6ec	-0.093213886
47	0xbd66fd34	-0.056393817
48	0xbdb84dd3	-0.08999219
49	0xbd820586	-0.0634871
50	0x3d009abf	0.031397577
51	0xbcfbe403	-0.030748373
52	0x3cc28d69	0.02374907
53	0xbd7c20aa	-0.06155459
54	0xbca6ed25	-0.020376751
55	0x3dbd3583	0.09238722
56	0xbc8822a6	-0.016618084
57	0xbd370397	-0.044681158
58	0xbc9f2113	-0.01942495
59	0xbd22c0c7	-0.039734628
60	0x3d689018	0.056778044
61	0xbd7c43c6	-0.06158807
62	0xbc542ae3	-0.012949678
63	0xbd0aac91	-0.03385598
64	0x3d6dd8d5	0.058068115
65	0x3ded6456	0.11591403
66	0xbce33ab9	-0.027737962
67	0x3d3aeb92	0.045634814
68	0xbdb975a9	-0.09055645
69	0xbddca42c	-0.10773501
70	0xbda74b3c	-0.08168647
71	0x3cfbdf99	0.030746268
72	0xbd86073d	-0.06544349
73	0xbcfb8eeb	-0.030707797
74	0x3dd3d4a9	0.10343296
75	0xbda5ec61	-0.08101726
76	0xbdaa2042	-0.08306934
77	0xbcc201c5	-0.023682484
78	0xbd94afeb	-0.07260116
79	0xbd7e7544	-0.062123552
80	0xbbd7f31d	-0.0065902607
81	0x3dc3c6f8	0.09559435
82	0xbd477051	-0.048691098
83	0xbda63c2b	-0.08116945
84	0xbca680ef	-0.020325152
85	0xbc1f2919	-0.009714388
86	0xbe07bf58	-0.13256586
87	0xbc92578a	-0.017864008
88	0x3d8bf356	0.06833522
89	0xbdac56e8	-0.084150136
90	0x3df56600	0.119823456
91	0xbd63b726	-0.055594586
92	0xbcc31522	-0.023813788
93	0xbd8e493e	-0.069475636
94	0xbd535969	-0.05159894
95	0xbd8d62eb	-0.06903633
96	0xbd5cdb5d	-0.05392014
97	0xbbe6224b	-0.007023131
98	0xbdc9dded	-0.09856782
99	0xbd831006	-0.063995406
100	0xbda2717a	-0.079318
101	0xbc5fe30b	-0.013664971
102	0xbcf778a3	-0.030208891
103	0xbd433f3b	-0.047667723
104	0xbd60b0a9	-0.054855976
105	0xbd8648c7	-0.0655685
106	0xbdf5b2e2	-0.1199701
107	0x3da5013d	0.08056877
108	0xbdb7e537	-0.08979266
109	0xbd6de932	-0.05808372
110	0xbd207fae	-0.039184265
111	0x3daffb8e	0.08592902
112	0xbc9410b0	-0.018074363
113	0x3d7a1b7c	0.061061367
114	0xbd238b67	-0.039927866
115	0xbdbe6f52	-0.092985764
116	0xbb2351b0	-0.0024920516
117	0xbd0903ac	-0.033450767
118	0x3cefe25a	0.029282738
119	0xbd948aab	-0.07253011
120	0x3c778b38	0.015108876
121	0xbd9acd67	-0.07558709
122	0xbd632b0d	-0.05546098
123	0x3d4366ac	0.047705337
124	0x3d97d782	0.07414152
125	0xbd8eeb00	-0.069784164
126	0xbd8c04ec	-0.06836876
127	0x3c8ea47b	0.017412415

bn3.weight f4 [128]
0	0x3e96cb40	0.29451942
1	0x3d16a6a0	0.03678
2	0x3f0aadcf	0.5417146
3	0x3f2e2f99	0.6804138
4	0x3da16478	0.07880491
5	0x3d9bda08	0.076099455
6	0x3f65f25d	0.8982294
7	0x3f049e10	0.51803684
8	0x3e264074	0.16235524
9	0x3f7f8938	0.99818754
10	0x3f6e7964	0.9315398
11	0x3e9c94ba	0.3058222
12	0x3f06f1c0	0.5271263
13	0x3e6878f4	0.2270239
14	0x3f26f6f7	0.6522059
15	0x3f46a927	0.77601856
16	0x3f5b0b56	0.8556417
17	0x3f74e502	0.9566194
18	0x3f134965	0.57533866
19	0x3e06fac0	0.13181591
20	0x3cae9fc0	0.02131641
21	0x3f197b13	0.5995342
22	0x3f3a86c7	0.72861904
23	0x3e4f4e38	0.20244682
24	0x3f0895e2	0.53353703
25	0x3d83dcf0	0.06438625
26	0x3f2add83	0.6674425
27	0x3f2a5a4a	0.6654402
28	0x3c3d9e00	0.011573315
29	0x3ebc01d8	0.36720157
30	0x3d9fb0b0	0.07797372
31	0x3e1cacbc	0.15300268
32	0x3e49bba8	0.19700491
33	0x3f54ff36	0.8320192
34	0x3e8ac1dc	0.27101028
35	0x3ef097ae	0.46990722
36	0x3f77cbb0	0.9679518
37	0x3d5dc7f0	0.054145753
38	0x3f402049	0.75049263
39	0x3ee72442	0.4514485
40	0x3f035b71	0.51311404
41	0x3f5a8cda	0.8537117
42	0x3cee9100	0.029121876
43	0x3f31e49d	0.6948946
44	0x3f40255c	0.75057006
45	0x3ed367c2	0.41290098
46	0x3f10fcb1	0.56635576
47	0x3f5a3568	0.8523774
48	0x3e27b3d4	0.16377193
49	0x3f6b60b6	0.91944444
50	0x3e1eaeb0	0.15496325
51	0x3f42bb7c	0.7606733
52	0x3f677092	0.90406144
53	0x3f2919ce	0.66055
54	0x3d933810	0.071884274
55	0x3f7ef3e8	0.9959092
56	0x3f1cb28a	0.6120993
57	0x3eb531b2	0.35389477
58	0x3f50fd46	0.81636465
59	0x3f57749c	0.84162307
60	0x3f295c35	0.6615632
61	0x3dd86ee0	0.10568023
62	0x3f170d90	0.5900507
63	0x3e882dce	0.26597446
64	0x3e5ea154	0.2174123
65	0x3f765c56	0.96234643
66	0x3e62a0f4	0.22131711
67	0x3e14b7e0	0.14523268
68	0x3eaea5a4	0.3411075
69	0x3f7e5080	0.99341583
70	0x3eaa4790	0.33257723
71	0x3de14b88	0.110007346
72	0x3e6a7508	0.22896206
73	0x3e573aec	0.2101857
74	0x3f31aff6	0.6940912
75	0x3f37bc09	0.71771294
76	0x3f474d23	0.77852076
77	0x3f043f4d	0.5165909
78	0x3dbc2b50	0.09187949
79	0x3e2666e8	0.16250193
80	0x3f3ed65c	0.74545836
81	0x3d229ac0	0.039698362
82	0x3f184795	0.59484226
83	0x3e297000	0.16546631
84	0x3ee28da6	0.44248694
85	0x3eacc390	0.33742952
86	0x3f48dd22	0.7846242
87	0x3f1063ba	0.5640217
88	0x3e06a160	0.13147497
89	0x3e305ccc	0.17222899
90	0x3eeb7a94	0.45991957
91	0x3f36b5f4	0.7137139
92	0x3ebe70da	0.37195474
93	0x3e954718	0.29155803
94	0x3d987828	0.07444793
95	0x3f2317e4	0.6370833
96	0x3f584ea9	0.84495026
97	0x3f006b74	0.5016396
98	0x3f05da48	0.52286196
99	0x3e116308	0.14197934
100	0x3e55f9dc	0.20896095
101	0x3d9fe790	0.07807839
102	0x3ef1adb0	0.47202826
103	0x3dd15748	0.10221726
104	0x3e7c0da8	0.24614584
105	0x3f1f729a	0.62284243
106	0x3e2d2948	0.16910279
107	0x3f452425	0.7700828
108	0x3f63782a	0.8885523
109	0x3f315efe	0.6928557
110	0x3f44a4cf	0.7681398
111	0x3e38c244	0.18042856
112	0x3f376168	0.71633005
113	0x3f12348f	0.5711145
114	0x3ed709e2	0.41999727
115	0x3ee337e0	0.44378567
116	0x3e66e200	0.2254715
117	0x3f0c9669	0.5491701
118	0x3d0bbe00	0.034116745
119	0x3e3975b8	0.18111312
120	0x3f254f77	0.6457438
121	0x3f1b7ed6	0.6074041
122	0x3eece546	0.46268672
123	0x3c9431c0	0.018090129
124	0x3e2361f4	0.15955335
125	0x3d7d6200	0.06186104
126	0x3f77f120	0.968523
127	0x3e066b34	0.13126832

bn3.bias f4 [128]
0	0x00000000	0.0
1	0x00000000	0.0
2	0x00000000	0.0
3	0x00000000	0.0
4	0x00000000	0.0
5	0x00000000	0.0
6	0x00000000	0.0
7	0x00000000	0.0
8	0x00000000	0.0
9	0x00000000	0.0
10	0x00000000	0.0
11	0x00000000	0.0
12	0x00000000	0.0
13	0x00000000	0.0
14	0x00000000	0.0
15	0x00000000	0.0
16	0x00000000	0.0
17	0x00000000	0.0
18	0x00000000	0.0
19	0x00000000	0.0
20	0x00000000	0.0
21	0x00000000	0.0
22	0x00000000	0.0
23	0x00000000	0.0
24	0x00000000	0.0
25	0x00000000	0.0
26	0x00000000	0.0
27	0x00000000	0.0
28	0x00000000	0.0
29	0x00000000	0.0
30	0x00000000	0.0
31	0x00000000	0.0
32	0x00000000	0.0
33	0x00000000	0.0
34	0x00000000	0.0
35	0x00000000	0.0
36	0x00000000	0.0
37	0x00000000	0.0
38	0x00000000	0.0
39	0x00000000	0.0
40	0x00000000	0.0
41	0x00000000	0.0
42	0x00000000	0.0
43	0x00000000	0.0
44	0x00000000	0.0
45	0x00000000	0.0
46	0x00000000	0.0
47	0x00000000	0.0
48	0x00000000	0.0
49	0x00000000	0.0
50	0x00000000	0.0
51	0x00000000	0.0
52	0x00000000	0.0
53	0x00000000	0.0
54	0x00000000	0.0
55	0x00000000	0.0
56	0x00000000	0.0
57	0x00000000	0.0
58	0x00000000	0.0
59	0x00000000	0.0
60	0x00000000	0.0
61	0x00000000	0.0
62	0x00000000	0.0
63	0x00000000	0.0
64	0x00000000	0.0
65	0x00000000	0.0
66	0x00000000	0.0
67	0x00000000	0.0
68	0x00000000	0.0
69	0x00000000	0.0
70	0x00000000	0.0
71	0x00000000	0.0
72	0x00000000	0.0
73	0x00000000	0.0
74	0x00000000	0.0
75	0x00000000	0.0
76	0x00000000	0.0
77	0x00000000	0.0
78	0x00000000	0.0
79	0x00000000	0.0
80	0x00000000	0.0
81	0x00000000	0.0
82	0x00000000	0.0
83	0x00000000	0.0
84	0x00000000	0.0
85	0x00000000	0.0
86	0x00000000	0.0
87	0x00000000	0.0
88	0x00000000	0.0
89	0x00000000	0.0
90	0x00000000	0.0
91	0x00000000	0.0
92	0x00000000	0.0
93	0x00000000	0.0
94	0x00000000	0.0
95	0x00000000	0.0
96	0x00000000	0.0
97	0x00000000	0.0
98	0x00000000	0.0
99	0x00000000	0.0
100	0x00000000	0.0
101	0x00000000	0.0
102	0x00000000	0.0
103	0x00000000	0.0
104	0x00000000	0.0
105	0x00000000	0.0
106	0x00000000	0.0
107	0x00000000	0.0
108	0x00000000	0.0
109	0x00000000	0.0
110	0x00000000	0.0
111	0x00000000	0.0
112	0x00000000	0.0
113	0x00000000	0.0
114	0x00000000	0.0
115	0x00000000	0.0
116	0x00000000	0.0
117	0x00000000	0.0
118	0x00000000	0.0
119	0x00000000	0.0
120	0x00000000	0.0
121	0x00000000	0.0
122	0x00000000	0.0
123	0x00000000	0.0
124	0x00000000	0.0
125	0x00000000	0.0
126	0x00000000	0.0
127	0x00000000	0.0

bn3.running_mean f4 [128]
0	0x00000000	0.0
1	0x00000000	0.0
2	0x00000000	0.0
3	0x00000000	0.0
4	0x00000000	0.0
5	0x00000000	0.0
6	0x00000000	0.0
7	0x00000000	0.0
8	0x00000000	0.0
9	0x00000000	0.0
10	0x00000000	0.0
11	0x00000000	0.0
12	0x00000000	0.0
13	0x00000000	0.0
14	0x00000000	0.0
15	0x00000000	0.0
16	0x00000000	0.0
17	0x00000000	0.0
18	0x00000000	0.0
19	0x00000000	0.0
20	0x00000000	0.0
21	0x00000000	0.0
22	0x00000000	0.0
23	0x00000000	0.0
24	0x00000000	0.0
25	0x00000000	0.0
26	0x00000000	0.0
27	0x00000000	0.0
28	0x00000000	0.0
29	0x00000000	0.0
30	0x00000000	0.0
31	0x00000000	0.0
32	0x00000000	0.0
33	0x00000000	0.0
34	0x00000000	0.0
35	0x00000000	0.0
36	0x00000000	0.0
37	0x00000000	0.0
38	0x00000000	0.0
39	0x00000000	0.0
40	0x00000000	0.0
41	0x00000000	0.0
42	0x00000000	0.0
43	0x00000000	0.0
44	0x00000000	0.0
45	0x00000000	0.0
46	0x00000000	0.0
47	0x00000000	0.0
48	0x00000000	0.0
49	0x00000000	0.0
50	0x00000000	0.0
51	0x00000000	0.0
52	0x00000000	0.0
53	0x00000000	0.0
54	0x00000000	0.0
55	0x00000000	0.0
56	0x00000000	0.0
57	0x00000000	0.0
58	0x00000000	0.0
59	0x00000000	0.0
60	0x00000000	0.0
61	0x00000000	0.0
62	0x00000000	0.0
63	0x00000000	0.0
64	0x00000000	0.0
65	0x00000000	0.0
66	0x00000000	0.0
67	0x00000000	0.0
68	0x00000000	0.0
69	0x00000000	0.0
70	0x00000000	0.0
71	0x00000000	0.0
72	0x00000000	0.0
73	0x00000000	0.0
74	0x00000000	0.0
75	0x00000000	0.0
76	0x00000000	0.0
77	0x00000000	0.0
78	0x00000000	0.0
79	0x00000000	0.0
80	0x00000000	0.0
81	0x00000000	0.0
82	0x00000000	0.0
83	0x00000000	0.0
84	0x00000000	0.0
85	0x00000000	0.0
86	0x00000000	0.0
87	0x00000000	0.0
88	0x00000000	0.0
89	0x00000000	0.0
90	0x00000000	0.0
91	0x00000000	0.0
92	0x00000000	0.0
93	0x00000000	0.0
94	0x00000000	0.0
95	0x00000000	0.0
96	0x00000000	0.0
97	0x00000000	0.0
98	0x00000000	0.0
99	0x00000000	0.0
100	0x00000000	0.0
101	0x00000000	0.0
102	0x00000000	0.0
103	0x00000000	0.0
104	0x00000000	0.0
105	0x00000000	0.0
106	0x00000000	0.0
107	0x00000000	0.0
108	0x00000000	0.0
109	0x00000000	0.0
110	0x00000000	0.0
111	0x00000000	0.0
112	0x00000000	0.0
113	0x00000000	0.0
114	0x00000000	0.0
115	0x00000000	0.0
116	0x00000000	0.0
117	0x00000000	0.0
118	0x00000000	0.0
119	0x00000000	0.0
120	0x00000000	0.0
121	0x00000000	0.0
122	0x00000000	0.0
123	0x00000000	0.0
124	0x00000000	0.0
125	0x00000000	0.0
126	0x00000000	0.0
127	0x00000000	0.0

bn3.running_var f4 [128]
0	0x3f800000	1.0
1	0x3f800000	1.0
2	0x3f800000	1.0
3	0x3f800000	1.0
4	0x3f800000	1.0
5	0x3f800000	1.0
6	0x3f800000	1.0
7	0x3f800000	1.0
8	0x3f800000	1.0
9	0x3f800000	1.0
10	0x3f800000	1.0
11	0x3f800000	1.0
12	0x3f800000	1.0
13	0x3f800000	1.0
14	0x3f800000	1.0
15	0x3f800000	1.0
16	0x3f800000	1.0
17	0x3f800000	1.0
18	0x3f800000	1.0
19	0x3f800000	1.0
20	0x3f800000	1.0
21	0x3f800000	1.0
22	0x3f800000	1.0
23	0x3f800000	1.0
24	0x3f800000	1.0
25	0x3f800000	1.0
26	0x3f800000	1.0
27	0x3f800000	1.0
28	0x3f800000	1.0
29	0x3f800000	1.0
30	0x3f800000	1.0
31	0x3f800000	1.0
32	0x3f800000	1.0
33	0x3f800000	1.0
34	0x3f800000	1.0
35	0x3f800000	1.0
36	0x3f800000	1.0
37	0x3f800000	1.0
38	0x3f800000	1.0
39	0x3f800000	1.0
40	0x3f800000	1.0
41	0x3f800000	1.0
42	0x3f800000	1.0
43	0x3f800000	1.0
44	0x3f800000	1.0
45	0x3f800000	1.0
46	0x3f800000	1.0
47	0x3f800000	1.0
48	0x3f800000	1.0
49	0x3f800000	1.0
50	0x3f800000	1.0
51	0x3f800000	1.0
52	0x3f800000	1.0
53	0x3f800000	1.0
54	0x3f800000	1.0
55	0x3f800000	1.0
56	0x3f800000	1.0
57	0x3f800000	1.0
58	0x3f800000	1.0
59	0x3f800000	1.0
60	0x3f800000	1.0
61	0x3f800000	1.0
62	0x3f800000	1.0
63	0x3f800000	1.0
64	0x3f800000	1.0
65	0x3f800000	1.0
66	0x3f800000	1.0
67	0x3f800000	1.0
68	0x3f800000	1.0
69	0x3f800000	1.0
70	0x3f800000	1.0
71	0x3f800000	1.0
72	0x3f800000	1.0
73	0x3f800000	1.0
74	0x3f800000	1.0
75	0x3f800000	1.0
76	0x3f800000	1.0
77	0x3f800000	1.0
78	0x3f800000	1.0
79	0x3f800000	1.0
80	0x3f800000	1.0
81	0x3f800000	1.0
82	0x3f800000	1.0
83	0x3f800000	1.0
84	0x3f800000	1.0
85	0x3f800000	1.0
86	0x3f800000	1.0
87	0x3f800000	1.0
88	0x3f800000	1.0
89	0x3f800000	1.0
90	0x3f800000	1.0
91	0x3f800000	1.0
92	0x3f800000	1.0
93	0x3f800000	1.0
94	0x3f800000	1.0
95	0x3f800000	1.0
96	0x3f800000	1.0
97	0x3f800000	1.0
98	0x3f800000	1.0
99	0x3f800000	1.0
100	0x3f800000	1.0
101	0x3f800000	1.0
102	0x3f800000	1.0
103	0x3f800000	1.0
104	0x3f800000	1.0
105	0x3f800000	1.0
106	0x3f800000	1.0
107	0x3f800000	1.0
108	0x3f800000	1.0
109	0x3f800000	1.0
110	0x3f800000	1.0
111	0x3f800000	1.0
112	0x3f800000	1.0
113	0x3f800000	1.0
114	0x3f800000	1.0
115	0x3f800000	1.0
116	0x3f800000	1.0
117	0x3f800000	1.0
118	0x3f800000	1.0
119	0x3f800000	1.0
120	0x3f800000	1.0
121	0x3f800000	1.0
122	0x3f800000	1.0
123	0x3f800000	1.0
124	0x3f800000	1.0
125	0x3f800000	1.0
126	0x3f800000	1.0
127	0x3f800000	1.0
