mode_weights/agent11_actor_local.pth (torch_old, 93021 bytes, 18 tensors)

bn1.weight f4 [33]
0	0x3ef27139	0.47352007
1	0x3f0f50df	0.55982774
2	0x3e9ee18d	0.31031457
3	0xbb35c5e0	-0.002773635
4	0x3c90c4c0	0.017671943
5	0x3d622105	0.05520727
6	0x3d6cdc1f	0.05782711
7	0x3e3e05ab	0.1855685
8	0x3df7f5a2	0.121073976
9	0x3e28b5f3	0.16475658
10	0x3e2884de	0.16456935
11	0x3e36b5fc	0.17842859
12	0x3d8f248c	0.06989393
13	0x3f067038	0.5251498
14	0x3ed66692	0.4187513
15	0x3f3807f2	0.71887124
16	0x3d69bed2	0.057066746
17	0x3d8c407c	0.06848237
18	0x3cf8aefd	0.030356878
19	0x3d34ffe5	0.044189353
20	0x3e8d51f0	0.27601576
21	0x3ea86713	0.3289114
22	0x3de21146	0.11038451
23	0x3f281086	0.6565021
24	0x3e9fdb80	0.31222153
25	0x3eeffa75	0.4687077
26	0x3f81a746	1.0129173
27	0x3d142190	0.03616482
28	0x3f14dac9	0.5814634
29	0x3ebf3090	0.37341738
30	0x3e9c3612	0.30510002
31	0x3f6e9794	0.9320004
32	0x3eb66b01	0.35628513

bn1.bias f4 [33]
0	0xbd1780ca	-0.036988057
1	0xbdd2e94d	-0.10298405
2	0xbd112acd	-0.03544121
3	0xbd9329f5	-0.07185737
4	0xbe1e9870	-0.15487838
5	0x3d8370a4	0.06417969
6	0x3de731cc	0.11288795
7	0xbe1577ab	-0.14596431
8	0x3daed75f	0.085371725
9	0xbd521044	-0.051285043
10	0xbd9fa07c	-0.07794282
11	0xbc11b00a	-0.008892069
12	0xbd38ac5e	-0.045086257
13	0xbcdedf19	-0.02720599
14	0xba802bf8	-0.0009778729
15	0x3d5ab891	0.053398672
16	0xbd960d11	-0.07326711
17	0x3d140bc6	0.03614404
18	0x3d956dbc	0.07296321
19	0x3ce7b206	0.02828313
20	0xbd7b330c	-0.06132798
21	0x3d4447a6	0.04791989
22	0xbc07b386	-0.008282548
23	0x3c97359a	0.018458176
24	0xbd0ebb28	-0.034846455
25	0x3d37243d	0.044712294
26	0x3cc65db7	0.024214609
27	0x3e2ed2e2	0.17072633
28	0xbd38ca33	-0.045114707
29	0x3e72bd0e	0.23704931
30	0xbe72afab	-0.23699825
31	0xbe44d67c	-0.19222444
32	0xbd540be3	-0.05176915

bn1.running_mean f4 [33]
0	0x3f27aef8	0.65501356
1	0xc01e5a33	-2.4742553
2	0xbebd99b6	-0.37031335
3	0x3f56601b	0.83740395
4	0x3da0520f	0.078281514
5	0x3c335c9b	0.010947372
6	0xbd5e2318	-0.054232687
7	0x3b841943	0.0040313317
8	0x39466e65	0.00018923877
9	0xbab85ab8	-0.0014065122
10	0xbbc55b26	-0.0060228286
11	0xbc0a31ee	-0.008434756
12	0x3b0e0d85	0.0021675539
13	0x3ebf3889	0.3734782
14	0xc02680b0	-2.6016045
15	0xbde13447	-0.10996299
16	0x3c23cf41	0.009998144
17	0xbc0df873	-0.008665192
18	0xbc7712e0	-0.015080184
19	0xbcf150b8	-0.029457435
20	0x3df4459c	0.119273394
21	0x3c9aa7d2	0.018878851
22	0x3d31dc11	0.043422762
23	0xbd7735d7	-0.06035408
24	0x3db7f1bc	0.08981654
25	0x3c940ef3	0.018073535
26	0xbe239fa0	-0.15978861
27	0xbf7ffffc	-0.99999976
28	0x3d22da58	0.03975901
29	0x00000000	0.0
30	0x3f7ffffc	0.99999976
31	0x00000000	0.0
32	0xbb7053d0	-0.003667105

bn1.running_var f4 [33]
0	0x408201a1	4.062699
1	0x3f0cf872	0.550666
2	0x40984b69	4.7592053
3	0x3d9f2d36	0.07772295
4	0x3d8c1354	0.06839624
5	0x3cfec1f8	0.03109835
6	0x3de55f58	0.11199826
7	0x3ec648a9	0.3872731
8	0x3d8c0c43	0.06838276
9	0x3de87826	0.113510415
10	0x4010ed7b	2.2644947
11	0x3fb40cc6	1.4066398
12	0x4030cbdf	2.7624433
13	0x4198ec15	19.115274
14	0x3fcf0060	1.617199
15	0x41ae6579	21.799547
16	0x3de2f536	0.110819265
17	0x3e8e173a	0.27752095
18	0x3dcd0d00	0.10012245
19	0x3f029571	0.5100928
20	0x401dfb80	2.4684753
21	0x3f339b55	0.7015889
22	0x3f5b784b	0.8573043
23	0x41043eef	8.265365
24	0x4075937c	3.8371267
25	0x4107da9e	8.490873
26	0x41fba34f	31.45474
27	0x00000004	6e-45
28	0x42021e38	32.52951
29	0x00000004	6e-45
30	0x00000004	6e-45
31	0x00000004	6e-45
32	0x3ead51b8	0.3385141

fc1.weight f4 [128, 33]
0	0xbd9953bb	-0.074866734
1	0xbc420f0d	-0.011844409
2	0x3dc314ba	0.09525438
3	0xbda9fced	-0.08300195
4	0xbc5d9405	-0.01352406
5	0x3ce2d0a3	0.027687376
6	0xbd7796d0	-0.06044656
7	0xbc13787c	-0.009000894
8	0xbd5a9f0b	-0.05337433
9	0xbd1d48fe	-0.03839969
10	0x3bf7f973	0.0075675785
11	0x3d43a1cf	0.047761735
12	0x3a8c38e5	0.0010698108
13	0xbe0c3777	-0.13693033
14	0xbd15fe40	-0.036619425
15	0xbd68af35	-0.056807715
16	0x3c737ca0	0.014861256
17	0x3cf538ea	0.029934365
18	0xbc0fc663	-0.008775326
19	0xbce11cb3	-0.027479505
20	0xbded1784	-0.11576751
21	0x3d0bae25	0.034101624
22	0x3d896162	0.067080274
23	0xbd530d26	-0.05152621
24	0xbe1df7d7	-0.15426575
25	0x3b43233b	0.0029775638
26	0x3d7bf576	0.061513387
27	0xbcd5d4fb	-0.026102534
28	0x3e0a2845	0.13491924
29	0xbd9fcf21	-0.078031786
30	0xbd2718a0	-0.04079497
31	0x3d42f49f	0.04759657
32	0x3c97f279	0.018548237
33	0x3d4a7a27	0.0494329
34	0x3d3ae590	0.045629084
35	0x3d99e5a8	0.075145066
36	0x3d3686eb	0.04456226
37	0x3dc26e18	0.09493655
38	0xbd356846	-0.044288896
39	0xbd119a7e	-0.035547726
40	0xbd0a910c	-0.033829734
41	0x3cda4117	0.026642365
42	0x3d936857	0.071976356
43	0x3c1c8af6	0.009554615
44	0xbbd32be3	-0.0064444407
45	0x3d63c35a	0.055606224
46	0x3e618f0d	0.22027226
47	0xbd257942	-0.040398844
48	0xbc38302c	-0.011241954
49	0xbcd599ab	-0.026074251
50	0x3cb56d6a	0.0221469
51	0x3d692148	0.056916505
52	0xbd3e719b	-0.04649506
53	0xbca0103d	-0.019538993
54	0x3d3d7ffe	0.04626464
55	0x3ce12a41	0.027485969
56	0x3d52a1b5	0.051423747
57	0x3b3a8a0a	0.0028463625
58	0xbd5b7696	-0.05357989
59	0x3c2ee907	0.010675675
60	0xbdf99524	-0.121866494
61	0x3da70b74	0.081564814
62	0xbdd59f5f	-0.10430788
63	0x3e476539	0.19472207
64	0x3da795f0	0.08182895
65	0xbe45bd0b	-0.19310395
66	0xbcbf5cbd	-0.02335965
67	0xbd689098	-0.05677852
68	0xbe11960c	-0.14217395
69	0xbd879574	-0.06620303
70	0xbb5b7ae4	-0.0033489997
71	0xbd5db641	-0.05412889
72	0xbc770c23	-0.015078577
73	0x3cbaedca	0.022818465
74	0xbdbd287e	-0.09236239
75	0xbd9ae764	-0.075636655
76	0xbe2dc591	-0.16969897
77	0xbd882c66	-0.06649093
78	0xbd97ffc5	-0.07421831
79	0x3d00192c	0.031274006
80	0xbd171878	-0.03688857
81	0xbcba3608	-0.022730842
82	0x3ce8b8b7	0.028408391
83	0xbc8e2352	-0.017350826
84	0x3d4268ab	0.0474631
85	0xbd5edb05	-0.054408092
86	0xbd5c462d	-0.053777862
87	0xbd40652b	-0.04697148
88	0xbda637a1	-0.08116079
89	0xbdc60434	-0.096687704
90	0xbd468d67	-0.048474696
91	0x3d048d38	0.03236124
92	0x3ceec945	0.029148707
93	0x3e208079	0.15674008
94	0x3cc2a507	0.023760332
95	0x3d2bc642	0.04193712
96	0xbd1c5b83	-0.03817321
97	0x3c562ae8	0.013071753
98	0xbd232652	-0.039831467
99	0xbdae203e	-0.085022435
100	0x3d34e603	0.04416467
101	0xbb7436bd	-0.0037264072
102	0xbe2de276	-0.16980919
103	0x3c8d0aac	0.017217003
104	0x3c9d9503	0.019236093
105	0xbd52ec17	-0.051494684
106	0xbcee9dd0	-0.029127985
107	0xbd5a3589	-0.05327371
108	0xbdaf79b0	-0.08568132
109	0xbd1e3c96	-0.038631998
110	0x3c9d46b1	0.019198747
111	0x3e103288	0.14081776
112	0xbdb608e6	-0.08888416
113	0x3d816701	0.063184746
114	0x3e368ea4	0.1782785
115	0xbc4e3d3a	-0.01258784
116	0xbc0409fe	-0.008059023
117	0xbbfbd601	-0.0076854234
118	0x3de0857c	0.1096296
119	0x3d47017b	0.048585396
120	0xbce03e94	-0.02737359
121	0xbd6bfa6e	-0.057611875
122	0xbd44d613	-0.04805572
123	0x3db87515	0.090067066
124	0x3d8101f0	0.06299198
125	0xbddab526	-0.106790826
126	0x3c60ba91	0.013716356
127	0xbb5c1e14	-0.0033587264
128	0x3b7892b3	0.0037929236
129	0x3d5153b3	0.051105212
130	0x3d9fa178	0.077944696
131	0x3e324164	0.17407757
132	0x3d826312	0.063665524
133	0x3cfa204c	0.030532978
134	0x3e22e188	0.15906346
135	0x3d7c326e	0.06157153
136	0xbc7c7190	-0.015407935
137	0xbcebf9ef	-0.028805701
138	0x3b9525e2	0.004551635
139	0xbce19c44	-0.027540334
140	0xbd6f6b5f	-0.058452006
141	0x3d17f3ab	0.037097614
142	0xbd250bde	-0.04029452
143	0xbc2536f4	-0.010083903
144	0x3dce2ac9	0.10066754
145	0xbdbbc4c0	-0.091683865
146	0xbd1a965e	-0.037741058
147	0x3ccdc246	0.02511705
148	0xbd1cf732	-0.03832168
149	0x3c7f3e89	0.015578874
150	0x3d6fe9e7	0.058572676
151	0x3c29a0b5	0.010353257
152	0xbcefae43	-0.0292579
153	0xbcd75b22	-0.026288573
154	0x3da6b686	0.08140282
155	0x3d21052d	0.039311577
156	0x3c5d7b95	0.013518234
157	0x3bc3e512	0.005978235
158	0xbd323f4a	-0.04351739
159	0x3d71dc1e	0.05904781
160	0xbe968adb	-0.29402813
161	0x3c743cd0	0.014907077
162	0x3d068d02	0.03284932
163	0x3ce0b791	0.027431281
164	0x3e19a0b8	0.15002716
165	0x3dbe9c62	0.093071714
166	0x3c18f202	0.009335043
167	0x3e03fe9f	0.12890099
168	0xbd3995ed	-0.045308996
169	0x3d27b3c3	0.04094292
170	0xbbc4104e	-0.005983389
171	0x3c800429	0.015626984
172	0xbcbc2a25	-0.022969315
173	0xbceda46f	-0.029009072
174	0x3cce8b49	0.0252129
175	0x3ddcd8aa	0.10783513
176	0xbd3d11ca	-0.046159543
177	0xbd3506b6	-0.044195853
178	0xbd99674a	-0.07490404
179	0xbb018137	-0.0019760856
180	0xbddb3b80	-0.10704708
181	0x3d59d35f	0.053180095
182	0xbc2078a3	-0.009794387
183	0xbc84a394	-0.016191281
184	0x3c1b34ae	0.009473009
185	0x3cd0320f	0.025414495
186	0x3d2f5036	0.042801104
187	0xbc589609	-0.013219365
188	0xbd0d38ed	-0.034478117
189	0x3c7d99d9	0.015478575
190	0x3c097721	0.008390219
191	0x3de4b262	0.11166836
192	0xbdaeaacf	-0.08528673
193	0xbd129fdb	-0.03579698
194	0xbc91bc74	-0.017790057
195	0xbc83941b	-0.016061833
196	0xbd90ab52	-0.07063927
197	0xbe4459ee	-0.1917493
198	0xbd6f87a4	-0.058478966
199	0xbdb70cce	-0.08937989
200	0xbd3e7946	-0.046502374
201	0x3d996305	0.074895896
202	0xbcab898c	-0.02093961
203	0x3b560755	0.0032658179
204	0x3c33ad25	0.010966574
205	0x3cf439ca	0.029812712
206	0x3d0c3d13	0.034237932
207	0xbd33483c	-0.04377006
208	0xbc64e9ac	-0.013971727
209	0xbe01afc9	-0.12664713
210	0xbdb0b75a	-0.086287215
211	0xbd1d4a85	-0.038401145
212	0x3c262d77	0.010142676
213	0x3d488ed1	0.048964325
214	0xbc588b9a	-0.013216877
215	0xbca3f3b4	-0.020013668
216	0x3cca2f80	0.024680853
217	0x3cc617b7	0.02418123
218	0xbd13af8c	-0.036056086
219	0x3c703d6b	0.014663081
220	0x3d4b00ad	0.04956119
221	0x3d52f9be	0.051507704
222	0x3d1c44ba	0.03815148
223	0x3c12aa8b	0.008951793
224	0x3dd80f98	0.10549849
225	0x3c7ac175	0.015304913
226	0xbe384be6	-0.17997703
227	0x3cf2d36f	0.029641835
228	0x3de6953a	0.112589315
229	0x3c537100	0.012905359
230	0x3e1bacbd	0.15202613
231	0x3d211c5b	0.039333683
232	0x3c892762	0.016742412
233	0xbe2a4028	-0.16626036
234	0xbdbe301b	-0.09286519
235	0x3cfb2add	0.030660087
236	0x3ca4dcee	0.020124879
237	0x3c9e4ed8	0.019324705
238	0x3cd50604	0.026003845
239	0x3c7f853f	0.015595733
240	0xbd1f4c46	-0.0388911
241	0x3d799221	0.060930375
242	0x3da1d13e	0.07901238
243	0xbddd773a	-0.10813756
244	0xbdc7da4e	-0.09758435
245	0xbc6910ff	-0.014225244
246	0x3dc20ef8	0.09475511
247	0x3c4a5c80	0.012351155
248	0xbca19bb5	-0.019727567
249	0xbd2d84d1	-0.04236299
250	0x3da5ce7f	0.08096027
251	0x3c451484	0.012028817
252	0xbd93933f	-0.07205819
253	0x3c41544d	0.011799884
254	0xbd8a1c7c	-0.06743714
255	0xbd4e0456	-0.050297104

fc1.bias f4 [128]
0	0xbd0b0ea5	-0.033949513
1	0xbd617cd4	-0.055050686
2	0x3e020a09	0.1269914
3	0xbe0999f2	-0.13437632
4	0xbdeb0884	-0.114762336
5	0x3d897cb7	0.067132406
6	0x3d128dfd	0.03577994
7	0xbdc0bcfc	-0.09411046
8	0x3d691aa3	0.05691017
9	0xbdd52fa4	-0.10409477
10	0xbe097236	-0.13422474
11	0x3ba746e1	0.005104885
12	0xbd41bcdc	-0.04729925
13	0xbbfcdc59	-0.007716697
14	0x3e34f67d	0.17672153
15	0xbdc33987	-0.09532457
16	0x3dcb4331	0.09924925
17	0xbe10ad8a	-0.141287
18	0xbde74084	-0.11291602
19	0xbe249219	-0.16071357
20	0xbe6bb89c	-0.23019642
21	0x3d19a5f9	0.0375118
22	0x3d38ec70	0.04514736
23	0xbe12c3f8	-0.14332569
24	0xbd8a3e75	-0.06750194
25	0xbdde2a94	-0.10847965
26	0xbcf26d20	-0.02959305
27	0x3d576f08	0.052596122
28	0xbde664b9	-0.1124968
29	0xbcfe63ac	-0.031053387
30	0x3ddc107a	0.1074533
31	0xbe52b487	-0.20576678
32	0x3e230890	0.15921235
33	0x3d40bc64	0.047054663
34	0xbdd69a21	-0.104786165
35	0xbd70de32	-0.058805652
36	0x3a92cf5e	0.0011200716
37	0x3d1fedb0	0.039045036
38	0xbd172cd9	-0.036908004
39	0xbe655ca4	-0.22398621
40	0x3dbb86f1	0.091565974
41	0xbbf6526b	-0.007517149
42	0x3d05e3d5	0.03268798
43	0xbdd9a97c	-0.1062803
44	0xbd463f14	-0.0484
45	0x3e081a23	0.1329122
46	0x3e42aea0	0.19011927
47	0x3e14995b	0.14511625
48	0xbcd6c1d9	-0.02621548
49	0x3e1393c7	0.14411841
50	0xbd7d5334	-0.061846927
51	0x3d90e4e0	0.070749044
52	0xbdb59df4	-0.08868018
53	0xbcb02a08	-0.021504417
54	0x3e757754	0.23971301
55	0xbe3e34a9	-0.18574776
56	0xbc93d50b	-0.018045923
57	0x3d3a85fc	0.045537934
58	0x3d8b6924	0.06807163
59	0x3d899bdd	0.06719182
60	0x3d0a9b58	0.033839554
61	0xbe3948e0	-0.18094206
62	0x3dc00cee	0.09377466
63	0xbe11ec5c	-0.1425032
64	0xbcd4d79f	-0.025981722
65	0x3b8f470c	0.004372483
66	0xbe2f57a0	-0.1712327
67	0x3da018c4	0.07817224
68	0x3e40e945	0.18838985
69	0x3e081f02	0.13293079
70	0xbdb245b6	-0.087047026
71	0xbc0eb07c	-0.008709069
72	0xbe176486	-0.1478444
73	0xbd5fcc55	-0.054638226
74	0x3e29eb19	0.16593589
75	0xbe549e7c	-0.20763582
76	0xbd85769e	-0.06516765
77	0x3d93dfb8	0.07220405
78	0x3d7a4447	0.06110027
79	0xbc6849e0	-0.014177769
80	0x3d39fa55	0.04540475
81	0x3df4646f	0.11933219
82	0xbe19c170	-0.15015197
83	0x3df45587	0.119303755
84	0x3e6917a2	0.22762921
85	0x3dc1a56d	0.094553806
86	0xbe598e56	-0.21245703
87	0xbe2d36b6	-0.16915402
88	0x3d223dcb	0.03960971
89	0x3e8438e0	0.25824642
90	0xbdf50fa9	-0.119658776
91	0x3d96531f	0.07340073
92	0xbd338c06	-0.04383471
93	0x3d2917d4	0.04128249
94	0x3d19f94b	0.03759126
95	0x3df36e55	0.118862785
96	0x3dce3777	0.10069173
97	0x3d5c99e5	0.053857703
98	0xbd8ce9a1	-0.06880499
99	0xbd80b606	-0.06284718
100	0x3c7fba8c	0.015608441
101	0x3c92653a	0.017870534
102	0xbd967154	-0.073458344
103	0xbd948fd6	-0.07253997
104	0xbe70b38e	-0.23505995
105	0x3dd5b2ae	0.10434471
106	0x3cb47024	0.022026129
107	0x3e0fb518	0.14033926
108	0xbcb2482e	-0.021762934
109	0xbc4c8653	-0.012483197
110	0x3cd27974	0.025692679
111	0xbdc14c1d	-0.094383456
112	0x3d1e290c	0.038613364
113	0xbdd8f27d	-0.10593126
114	0x3d7447ca	0.059638776
115	0x3e5af959	0.21384181
116	0xbdbd6a11	-0.09248746
117	0x3d355569	0.044270907
118	0xbe3b1926	-0.18271312
119	0xbd20bf4c	-0.039244935
120	0x3e8035a2	0.2504092
121	0x3e2a17fc	0.16610712
122	0x3dac5bc7	0.08415943
123	0x3e452d94	0.19255668
124	0x3e9d36e4	0.3070594
125	0x3da54350	0.080694795
126	0xbdaaf9c1	-0.08348418
127	0xbd932886	-0.071854636

bn2.weight f4 [128]
0	0x3e2bc608	0.16774762
1	0x3ea3b93b	0.31977257
2	0x3e952ff6	0.29138154
3	0x3ede4c50	0.43417597
4	0x3e41efb4	0.18939096
5	0x3f00eae6	0.50358427
6	0x3f03ae67	0.5143799
7	0x3ed427f1	0.41436723
8	0x3f0e8da9	0.55684906
9	0x3f3623c1	0.71148306
10	0x3ef6158e	0.4806332
11	0x3ea3c312	0.31984764
12	0x3e88a988	0.26691842
13	0x3ea9e9eb	0.33186278
14	0x3e897b5e	0.26851934
15	0x3e649e0a	0.22325912
16	0x3e7da6c3	0.24770646
17	0x3f3943f8	0.7236934
18	0x3f02a3f5	0.5103143
19	0x3f445623	0.76693934
20	0x3f4aab44	0.7916758
21	0x3ee72d75	0.45151868
22	0x3f175869	0.5911928
23	0x3f1307a7	0.5743355
24	0x3e833ae7	0.25630876
25	0x3f220ab6	0.63297594
26	0x3eec5c76	0.46164292
27	0x3e807406	0.2508852
28	0x3ea9c926	0.33161277
29	0x3ea80883	0.32818994
30	0x3f0c73ff	0.54864496
31	0x3f221b00	0.6332245
32	0x3f3c3bb7	0.7352862
33	0x3ed6cbef	0.41952464
34	0x3ebc5932	0.367868
35	0x3eb7568d	0.3580822
36	0x3edff67e	0.43742746
37	0x3ed1fa1a	0.41011125
38	0x3e15e6cf	0.14638828
39	0x3f19c08e	0.6005944
40	0x3d916e91	0.07101167
41	0x3eb1b9c1	0.3471203
42	0x3f3fdb64	0.7494414
43	0x3e23b9a8	0.15988791
44	0x3f1656f6	0.5872644
45	0x3f3539e2	0.7079145
46	0x3f5938e9	0.84852463
47	0x3f30cf7b	0.6906659
48	0x3ee2a617	0.44267341
49	0x3f36dccd	0.71430665
50	0x3ec50288	0.38478494
51	0x3eb36d49	0.35044315
52	0x3f0bf42c	0.5466945
53	0x3f09bdfd	0.53805524
54	0x3f3566d7	0.70860046
55	0x3f2156cb	0.6302306
56	0x3f2370fc	0.63844275
57	0x3f01bb7b	0.506767
58	0x3f228fe8	0.63500834
59	0x3f1a9dff	0.6039733
60	0x3f0cb0b3	0.5495712
61	0x3e2ad990	0.16684556
62	0x3f09be73	0.5380623
63	0x3e6d2d8d	0.23161907
64	0x3e9a7d35	0.3017365
65	0x3f2548d3	0.64564246
66	0x3eeaf7ee	0.4589228
67	0x3f2104ef	0.62898153
68	0x3e8a81a1	0.27052024
69	0x3f1bbaac	0.60831714
70	0x3f5c98f1	0.8617087
71	0x3f07475c	0.5284326
72	0x3f3f3c8c	0.7470176
73	0x3e7754f6	0.24153504
74	0x3f2434a7	0.6414284
75	0x3f037ba1	0.5136052
76	0x3f270c35	0.65253
77	0x3f3fd727	0.7493767
78	0x3ed043b9	0.40676668
79	0x3ef645e9	0.48100212
80	0x3f571554	0.8401692
81	0x3f324522	0.6963674
82	0x3ea46493	0.32107982
83	0x3f62c764	0.88585496
84	0x3f5253fe	0.8215941
85	0x3f104edc	0.5637033
86	0x3e4a5e77	0.19762598
87	0x3f12d507	0.57356304
88	0x3e9d1e59	0.30687216
89	0x3f2f1447	0.68390316
90	0x3e5b48c8	0.21414483
91	0x3f15206b	0.5825259
92	0x3ef671cb	0.48133692
93	0x3ef81ea1	0.48460868
94	0x3f36ea7a	0.7145153
95	0x3f180493	0.5938198
96	0x3e5a273b	0.21304028
97	0x3ebbecdb	0.36704144
98	0x3eeca0b3	0.46216354
99	0x3ee28d95	0.44248644
100	0x3f0ea3be	0.557186
101	0x3edfe906	0.4373247
102	0x3f0633f2	0.5242301
103	0x3f34c552	0.70613587
104	0x3de428d4	0.111406
105	0x3f4f2eb4	0.8093064
106	0x3ef8066a	0.48442394
107	0x3f1a5435	0.6028474
108	0x3f38fc7b	0.72260255
109	0x3f0390af	0.51392645
110	0x3f0bad96	0.54561746
111	0x3e925f90	0.28588533
112	0x3f2efc27	0.68353504
113	0x3f2f8491	0.68561655
114	0x3ebc3888	0.3676188
115	0x3f138c71	0.5763617
116	0x3ef94ded	0.48692265
117	0x3f42442b	0.75885266
118	0x3f526b67	0.8219513
119	0x3f45e642	0.7730447
120	0x3de9618e	0.1139556
121	0x3f5422ca	0.82865584
122	0x3f0ceac0	0.550457
123	0x3f354f4c	0.7082412
124	0x3efaafd4	0.4896227
125	0x3f534993	0.8253414
126	0x3f65d531	0.8977843
127	0x3ebdf5fb	0.3710173

bn2.bias f4 [128]
0	0xbec8529d	-0.3912553
1	0xbdbb50de	-0.091462836
2	0x3e5ffd03	0.2187386
3	0x3dd5e046	0.104431674
4	0x3ef23c4c	0.47311628
5	0x3e0cb7d4	0.13742
6	0x3e1bbba3	0.15208296
7	0x3cd4e55a	0.02598827
8	0x3e06297a	0.1310176
9	0xbda82380	-0.08209896
10	0x3e386dc1	0.18010618
11	0xbd846b9c	-0.06465837
12	0x3e6284c6	0.22120962
13	0x3d847eb4	0.06469479
14	0x3e9aff69	0.30272987
15	0x3e96879f	0.29400346
16	0xbe612b48	-0.21989167
17	0xbcd37172	-0.02581093
18	0x3dbb8cce	0.09157716
19	0x3c5eb3a4	0.013592634
20	0x3e158df8	0.14604938
21	0x3db6cea9	0.08926136
22	0x3bc1f32c	0.005918881
23	0x3e0d36b6	0.13790402
24	0xbe95f408	-0.29287744
25	0x3db1e979	0.086871095
26	0x3db192f2	0.08670606
27	0x3ed57411	0.41690114
28	0x3e40e1a5	0.18836077
29	0x3d33be8b	0.043882888
30	0x3e686a35	0.22696765
31	0x3d7aee8f	0.061262663
32	0xbeb33fb4	-0.3500954
33	0xbd16b7de	-0.036796443
34	0x3e597154	0.21234637
35	0xbe4466f2	-0.19179896
36	0x3e9b4bd9	0.30331305
37	0x3e699cdb	0.22813742
38	0x3e8ee9da	0.2791279
39	0x3e8cde56	0.2751338
40	0x3f1c9437	0.6116366
41	0x3e950b6b	0.29110274
42	0xbbcf1578	-0.006319698
43	0x3f088a8a	0.53336394
44	0xbde11c2f	-0.10991704
45	0x3eaf809d	0.34277812
46	0x3d49f450	0.04930526
47	0xbd9ed231	-0.077549346
48	0x3e08d89e	0.13363883
49	0xbd921d2c	-0.0713447
50	0xbcf7f72c	-0.030269228
51	0xbc0d30ce	-0.008617593
52	0x3dec95c1	0.11552001
53	0xbd55b93d	-0.05217861
54	0x3c92b0b3	0.017906522
55	0xbdb03e47	-0.086056285
56	0xbdb7209c	-0.089417666
57	0x3dd5bfde	0.104369864
58	0x3e1aec55	0.15129216
59	0x3d7575f3	0.05992694
60	0x3dec6578	0.11542791
61	0xbca2ad29	-0.01985796
62	0xbe16bedc	-0.14721245
63	0xbe4460fc	-0.19177622
64	0x3e251200	0.16120148
65	0x3e5444e0	0.20729399
66	0x3e28a1bd	0.16467948
67	0x3d124e79	0.03571937
68	0x3db225a5	0.086985864
69	0x3c494fe3	0.012287113
70	0xbdcb6cc7	-0.09932857
71	0x3e382c10	0.17985559
72	0x3beda521	0.007252351
73	0x3e3fc8af	0.18728898
74	0x3d6a46fd	0.057196606
75	0x3ed3deb0	0.41380835
76	0xbd51d298	-0.05122623
77	0x3e48c0b3	0.19604759
78	0xbcb4ce2b	-0.022070965
79	0xbc104f66	-0.008807993
80	0x3e263181	0.16229822
81	0xbe484e67	-0.19561158
82	0xbcb8ef3e	-0.022575017
83	0x3e13a066	0.14416656
84	0x3dc1f75e	0.0947101
85	0xbe1d316f	-0.15350889
86	0x3deb9db4	0.11504689
87	0x3e58fa29	0.21189179
88	0xbde24a34	-0.110493094
89	0x3e37f068	0.17962801
90	0x3e05c2ae	0.13062546
91	0xbd836d33	-0.064173125
92	0x3e777dde	0.24169108
93	0x3e3a02ba	0.18165103
94	0x3e4d1fd3	0.20031671
95	0x3e8f3a53	0.27974185
96	0x3c07ed4f	0.008296325
97	0xbdf85ed6	-0.121274635
98	0x3e06e3a1	0.13172771
99	0xbd14cdb2	-0.03632898
100	0xbc6ef2bd	-0.0145842405
101	0xbda4cd64	-0.08046988
102	0x3ddb8192	0.10718073
103	0xbddfe903	-0.10933115
104	0x3eaf9a2c	0.3429731
105	0x3e56d19f	0.20978402
106	0x3e42dcdc	0.19029564
107	0xbe3971e8	-0.18109858
108	0x3d8088ac	0.06276068
109	0xbe635450	-0.22200131
110	0xbd9dd0e1	-0.07705856
111	0xbde3c313	-0.11121192
112	0x3d358db5	0.044324595
113	0x3e8107a6	0.25201148
114	0x3bbe855d	0.005814238
115	0x3e61fc6f	0.22068952
116	0x3ea2e042	0.3181172
117	0x3c02852b	0.00796632
118	0x3c949676	0.018138152
119	0x3e404f90	0.1878035
120	0x3f18f8fb	0.59754914
121	0xbe45236e	-0.19251797
122	0xbdc69125	-0.09695653
123	0x3dfa0f8e	0.12209998
124	0x3caf2786	0.02138115
125	0xbd3a48d6	-0.045479618
126	0xbc06a25c	-0.00821742
127	0xbdb7658f	-0.08954918

bn2.running_mean f4 [128]
0	0x3cd2298f	0.025654582
1	0x3c329840	0.010900557
2	0x3e4ad4f7	0.19807802
3	0x3d1b6152	0.03793461
4	0x3c72750e	0.014798416
5	0x3dbf80af	0.09350716
6	0x3da8eeb5	0.08248655
7	0x3cc9788f	0.02459362
8	0x3e1657f4	0.14681989
9	0x3d2350bb	0.039871912
10	0x25ce1e07	3.575565e-16
11	0x3daee2db	0.08539363
12	0x3c1b80fd	0.009491202
13	0x3cb5157c	0.022104971
14	0x3e9285c5	0.28617683
15	0x3c6b9ea6	0.014381086
16	0x3d6e89ef	0.058237012
17	0x3c88445a	0.016634155
18	0x3c12edee	0.00896786
19	0x3c35d138	0.011097245
20	0x362f28ff	2.6100895e-06
21	0x3bd06f2f	0.0063609104
22	0x3e0aef0a	0.13567749
23	0x38be4ee6	9.074602e-05
24	0x3cd292b7	0.025704725
25	0x3c2b9665	0.010472869
26	0x3c191335	0.009342958
27	0x3ce825a5	0.028338263
28	0x3907a2c3	0.00012935237
29	0x390ca3f2	0.00013412515
30	0x3e2ca7ca	0.16860881
31	0x35ab0f12	1.2744879e-06
32	0x3ea56a96	0.3230788
33	0x3c95b85e	0.01827639
34	0x39747b1a	0.00023315512
35	0x3c930473	0.017946457
36	0x3cbe14d5	0.023203293
37	0x3da5f1ac	0.08102736
38	0x3c1c2210	0.0095296055
39	0x302018fa	5.8243155e-10
40	0x3dc40aab	0.09572347
41	0x38809b2b	6.132418e-05
42	0x3d92b2bb	0.071629964
43	0x3ab3e2da	0.0013724223
44	0x3d3a6509	0.04550651
45	0x3e984cd7	0.29746124
46	0x3ecdcc8c	0.4019512
47	0x3e652e39	0.22380914
48	0x3d9913e6	0.074744985
49	0x3ea5941c	0.3233956
50	0x3d40c34b	0.047061246
51	0x3cacea9f	0.02110797
52	0x3d1045b2	0.035222717
53	0x3c74a697	0.014932296
54	0x3ea1dec7	0.31615278
55	0x3869ef62	5.577447e-05
56	0x3c2fa880	0.010721326
57	0x3d97e903	0.0741749
58	0x3cdb9c28	0.02680786
59	0x3e02d49c	0.12776417
60	0x3d85ae57	0.06527393
61	0x39e616fe	0.0004388615
62	0x3d55668f	0.05209976
63	0x2773b76c	3.3822458e-15
64	0x3b43d418	0.0029881056
65	0x3d6336b0	0.055472076
66	0x37a23e67	1.9340963e-05
67	0x3db468e5	0.088090695
68	0x3e5b0fbc	0.21392721
69	0x3e06fb88	0.13181889
70	0x3cf5e3b9	0.030015813
71	0x3d984783	0.07435515
72	0x380b274d	3.3176784e-05
73	0x3b62e729	0.0034622645
74	0x3e86d684	0.26335537
75	0x32edf2f2	2.770091e-08
76	0x3c38ab37	0.01127129
77	0x3ce96efa	0.0284953
78	0x3d213ae8	0.039362818
79	0x3e1ff051	0.15619017
80	0x3d414ef2	0.04719443
81	0x3eb9f017	0.36315987
82	0x39869e02	0.00025676197
83	0x3e1eb008	0.15496838
84	0x3ec44b03	0.3833848
85	0x3d3cedb0	0.046125114
86	0x343fdc92	1.7868504e-07
87	0x3a1682c7	0.0005741533
88	0x3e5c7368	0.21528399
89	0x3ed00297	0.40626976
90	0x3ca74293	0.020417487
91	0x3e1e87e0	0.1548152
92	0x3d444a6c	0.047922537
93	0x3cf4623c	0.029831998
94	0x3d94d844	0.07267812
95	0x3eaa957e	0.33317178
96	0x3e4fb1c2	0.20282653
97	0x3c9b1b4e	0.018933918
98	0x3889e014	6.574407e-05
99	0x3ca86c9c	0.020559601
100	0x3d03294d	0.03202181
101	0x3e5b6ec3	0.21428971
102	0x3cfe56dd	0.031047279
103	0x3cc6a867	0.024250222
104	0x00000004	6e-45
105	0x3e14c3a2	0.14527753
106	0x3d1dadd1	0.038495842
107	0x3e4cfd86	0.20018587
108	0x3d3f2523	0.046666276
109	0x3d26d5cb	0.040731233
110	0x3d513ab0	0.05108136
111	0x3b5b8837	0.0033497938
112	0x3e2fa31f	0.1715207
113	0x3cdf41a6	0.027252983
114	0x3d884a3e	0.066547856
115	0x3e82eca0	0.25571156
116	0x3d5e0f80	0.054214
117	0x3e40f3c7	0.18842994
118	0x3925fba9	0.00015829377
119	0x3d23e2dd	0.040011276
120	0x3ea91b81	0.33028796
121	0x3e44a42a	0.19203249
122	0x3e3838a2	0.17990354
123	0x3e902f6b	0.28161177
124	0x3f0e48d9	0.55579907
125	0x3dadd76a	0.084883526
126	0x3cfcd66f	0.030863969
127	0x384f6ea6	4.9455695e-05

bn2.running_var f4 [128]
0	0x3b0ca033	0.002145779
1	0x3a601a85	0.00085488736
2	0x3c4b00f5	0.012390365
3	0x3bc08833	0.005875611
4	0x3a5daefe	0.0008456557
5	0x3c319d67	0.01084075
6	0x3bfe8348	0.007767115
7	0x3b0babfd	0.002131223
8	0x3cc02a63	0.023457712
9	0x3bbb9ed1	0.0057257195
10	0x2238ba41	2.5035252e-18
11	0x3c37c3bf	0.011216103
12	0x3a00e797	0.0004917322
13	0x3a84faf3	0.001014559
14	0x3c182806	0.009286886
15	0x3aad297b	0.0013211215
16	0x3ba16a2b	0.0049259863
17	0x3aa49ee5	0.0012559561
18	0x3a30fc8d	0.00067515
19	0x3a5ce87c	0.0008426977
20	0x347c4ccd	2.3497269e-07
21	0x3983efc1	0.00025164898
22	0x3abcec0c	0.0014413609
23	0x37409b10	1.1480195e-05
24	0x3b1a2d61	0.0023525583
25	0x3a5f8c0a	0.00085276423
26	0x3a1472d4	0.00056628627
27	0x3b027184	0.0019904086
28	0x371755a0	9.0202375e-06
29	0x3781411c	1.5408317e-05
30	0x3c6a58e6	0.014303422
31	0x34720865	2.254106e-07
32	0x3c2ddd64	0.010611866
33	0x3a7166ad	0.00092087203
34	0x383bbd23	4.476042e-05
35	0x3ac047e5	0.0014669864
36	0x3acdbd68	0.0015696706
37	0x3c2ca0da	0.010536397
38	0x3a8a6e93	0.0010561518
39	0x2d144022	8.427066e-12
40	0x3be38981	0.006943882
41	0x36f147be	7.1907116e-06
42	0x3bbbec14	0.00573493
43	0x38c7d702	9.529108e-05
44	0x3b3dd214	0.0028964328
45	0x3bd0fafb	0.0063775755
46	0x3c613155	0.013744672
47	0x3c873824	0.016506262
48	0x3c3757aa	0.011190334
49	0x3c0c707d	0.008571741
50	0x3bc78309	0.0060886187
51	0x3af28a82	0.0018504413
52	0x3af565c1	0.0018722342
53	0x3a936cab	0.0011247596
54	0x3c3258ea	0.010885457
55	0x366fa8d3	3.5712044e-06
56	0x3a47650f	0.00076063065
57	0x3bc986a5	0.006150084
58	0x3ad86df3	0.001651226
59	0x3c842966	0.016133022
60	0x3c0b92db	0.0085189
61	0x379c0e16	1.8603208e-05
62	0x3bad9ae7	0.005298007
63	0x2523f6c8	1.4221609e-16
64	0x390eb0a6	0.00013607982
65	0x3b70670f	0.0036682521
66	0x3600a9f0	1.9172403e-06
67	0x3b8c3f92	0.004280039
68	0x3b84857e	0.004044234
69	0x3c69eaf2	0.014277207
70	0x3a976ec9	0.0011553402
71	0x3ba5878e	0.00505156
72	0x36188a0e	2.2730123e-06
73	0x3994b7df	0.00028365754
74	0x3d1d88bb	0.038460474
75	0x301faf27	5.809277e-10
76	0x3a407ba7	0.00073426444
77	0x3aeeabcd	0.001820916
78	0x3b371e0f	0.00279415
79	0x3c407bb8	0.011748247
80	0x3b70c30f	0.0036737358
81	0x3bf317ab	0.007418593
82	0x37cb83ef	2.4260922e-05
83	0x39c752f7	0.0003801805
84	0x3cde8cf9	0.02716683
85	0x3ac88949	0.0015299703
86	0x317b2380	3.6545487e-09
87	0x389e098a	7.535804e-05
88	0x3c7aa72e	0.015298648
89	0x3c32b775	0.010907997
90	0x3aab102f	0.0013051088
91	0x3c019ce2	0.007910939
92	0x3b87c4c8	0.004143331
93	0x3b0f3d00	0.0021856427
94	0x3b4ed000	0.0031557083
95	0x3bf98dba	0.007615772
96	0x3bf9cc33	0.0076232194
97	0x3acebbc6	0.0015772514
98	0x368a9ac6	4.1307385e-06
99	0x3b16b097	0.002299344
100	0x3b4259cd	0.0029655576
101	0x3c662fe2	0.014049502
102	0x3b102bb0	0.0021998696
103	0x3b009413	0.001961951
104	0x00000004	6e-45
105	0x3ca2c12a	0.019867498
106	0x3b31ef8e	0.0027150842
107	0x3cd7a624	0.02632434
108	0x3b8489fa	0.0040447684
109	0x3b529199	0.003213024
110	0x3bb3733d	0.005476384
111	0x392612c2	0.00015837981
112	0x3c3c1079	0.011478537
113	0x3af2880d	0.0018503681
114	0x3bfb5214	0.0076696966
115	0x3c4abff5	0.012374868
116	0x3bda5101	0.0066624884
117	0x3ce5c8e2	0.02804989
118	0x37784d77	1.4799988e-05
119	0x3b0c06af	0.0021366288
120	0x3c62d6e5	0.01384518
121	0x3c01acec	0.007914763
122	0x3c3102e0	0.010803908
123	0x3ba1e4d6	0.0049406094
124	0x3c382a01	0.011240483
125	0x3a4efc18	0.0007895841
126	0x3b012341	0.001970485
127	0x369e1399	4.7110484e-06

fc2.weight f4 [128, 128]
0	0xbd63518e	-0.0554977
1	0xbc5c3812	-0.013441103
2	0x3cc9c949	0.024632113
3	0x3c6e2048	0.014534064
4	0x3d980be5	0.07424144
5	0x3d7621e9	0.060090933
6	0xbda11f55	-0.07867304
7	0x3d0f9a9a	0.03505955
8	0xbd30e738	-0.043189257
9	0xbcdc6a3b	-0.026906123
10	0xbe5206f6	-0.20510468
11	0x3de330b7	0.11093276
12	0xbe133e4d	-0.14379235
13	0xbe469265	-0.19391783
14	0xbd2031a6	-0.03910985
15	0xbde58c0a	-0.11208351
16	0x3d16b04b	0.03678922
17	0x3d6f728b	0.058458846
18	0xbda4479d	-0.08021472
19	0x3d77ee43	0.06052996
20	0xbadb984b	-0.0016753761
21	0xbdf8de8b	-0.12151822
22	0x3b249286	0.002511175
23	0xbe236355	-0.15955861
24	0x3d3333b7	0.04375049
25	0x3d3af665	0.045645136
26	0xbe2edd00	-0.17076492
27	0xbc914e73	-0.017737603
28	0x3d5d33a1	0.054004315
29	0xbd1316dc	-0.035910472
30	0xbd308e44	-0.043104425
31	0xbd0df505	-0.034657497
32	0xbd9cb500	-0.076517105
33	0xbd033f75	-0.03204294
34	0xbdcb50fe	-0.099275574
35	0xbb5e7e42	-0.0033949767
36	0xbd852f6c	-0.06503186
37	0xbdbe917d	-0.093050934
38	0xbd920051	-0.071289666
39	0xba576a7c	-0.00082174665
40	0xbdf0fdbe	-0.117671475
41	0xbdb38b1c	-0.087667674
42	0xbd85def3	-0.06536665
43	0xbdfe9821	-0.1243136
44	0xbd23181a	-0.039817907
45	0xbd28f9f7	-0.04125401
46	0x3cbdb408	0.023157135
47	0x3dc0d00a	0.0941468
48	0xbe09cbba	-0.13456622
49	0xbdb7eee5	-0.089811124
50	0x3d68ff7c	0.056884274
51	0x3d4f08e9	0.050545607
52	0xbd49a0a0	-0.04922545
53	0xbdca8b7c	-0.09889886
54	0xbd4a852c	-0.04944341
55	0xbc0cd7cc	-0.008596372
56	0xbcb986ab	-0.022647223
57	0x3d25603c	0.04037498
58	0xbe501263	-0.20319514
59	0xbc136320	-0.008995801
60	0xba8a983d	-0.0010573935
61	0x3d3054d2	0.04304964
62	0xbda84e25	-0.0821803
63	0xbd6a067b	-0.057135087
64	0xbdc1b307	-0.09457975
65	0xbe058160	-0.13037634
66	0xbcd181f1	-0.025574656
67	0x3d54dacb	0.05196647
68	0x3e06c4f4	0.13161069
69	0x3ca8a585	0.020586738
70	0xbd594ca0	-0.05305159
71	0xbdbb1eb6	-0.09136717
72	0x3d435ea5	0.047697682
73	0x3db7440b	0.08948525
74	0x3a8e17cb	0.0010840831
75	0x3c58ca42	0.013231816
76	0xbc09ad4e	-0.008403135
77	0xbded2488	-0.115792334
78	0x3d387d6f	0.045041498
79	0x3d6ead8e	0.058270983
80	0xbc39fdf5	-0.011352052
81	0x3d0fcaf9	0.03510568
82	0xbd63424c	-0.055483148
83	0x3b7b236c	0.0038320674
84	0xbdaa9e61	-0.0833099
85	0xbbb298e4	-0.005450355
86	0xbe107f5f	-0.14111088
87	0xbb56180d	-0.0032668144
88	0xbdcfa9f5	-0.101398386
89	0x3d636cd2	0.0555237
90	0x3de66d7a	0.1125135
91	0x3bfe2c3d	0.0077567385
92	0xbae23c62	-0.0017260427
93	0x3d90cf3c	0.07070777
94	0x3c9ba44f	0.018999247
95	0xbb5e0721	-0.003387876
96	0x3b866a5e	0.0041020354
97	0xbde16e83	-0.110074066
98	0x3d0ce208	0.034395248
99	0x3d6fd4ad	0.058552433
100	0xbd9d32e5	-0.07675723
101	0xbca2dc5a	-0.019880462
102	0x3da93667	0.082623295
103	0xbd981618	-0.07426089
104	0xbafbf4a7	-0.0019222692
105	0x3dc2a663	0.09504392
106	0x3da7b6b7	0.08189147
107	0xbdd85059	-0.105622
108	0xbdd46d90	-0.1037246
109	0xbd110706	-0.03540709
110	0x3d0bfdeb	0.034177702
111	0xbd381354	-0.044940308
112	0xbd47ea2d	-0.04880731
113	0xbcfc80ed	-0.030823195
114	0xbd215e55	-0.039396603
115	0xbdc640cf	-0.0968033
116	0xbe494d76	-0.19658455
117	0x3d70c257	0.058779087
118	0xbcf49557	-0.029856367
119	0xbcd21998	-0.02564697
120	0xbe0d06b1	-0.13772084
121	0xbccfaa16	-0.025349658
122	0x3c720a7b	0.014773007
123	0xbd44b523	-0.048024308
124	0x3c9ce133	0.019150352
125	0x3d3302c9	0.043703828
126	0xbcb611b0	-0.022225231
127	0x3dc72e04	0.09725574
128	0x3e5ce62d	0.2157218
129	0x3d69ec4d	0.05711012
130	0xbd6bc685	-0.05756237
131	0xbdc7e1da	-0.09759875
132	0xbe359e4c	-0.17736167
133	0x3d8e0012	0.06933607
134	0xbda59e5b	-0.080868445
135	0xbd6cb0c3	-0.05778576
136	0xbb7dab22	-0.003870674
137	0xbcd51a3e	-0.02601349
138	0x3d70cec6	0.058790945
139	0x3db053a8	0.08609706
140	0xbe841834	-0.25799716
141	0xbdf2e041	-0.11859179
142	0xbdfff6ae	-0.12498222
143	0xbd4a273b	-0.04935382
144	0xbd129ce8	-0.03579417
145	0x3ca34155	0.019928614
146	0x3d21ab80	0.039470196
147	0x3b9f255a	0.0048567476
148	0xbcd39192	-0.02582625
149	0xbd15eeb1	-0.036604587
150	0x3e24a5f2	0.16078928
151	0x3ddfa336	0.10919802
152	0x3d76bae4	0.060236827
153	0xbda73c87	-0.081658415
154	0x3ca7232b	0.020402512
155	0xbda8e946	-0.082476184
156	0xbd67312a	-0.05644337
157	0x3d985ebf	0.074399464
158	0x3c3ff0f4	0.011715163
159	0xbdb15397	-0.086585216
160	0xbc37552c	-0.01118974
161	0x3d5f4494	0.05450876
162	0xbdcc3ead	-0.09972892
163	0x3e08c607	0.13356791
164	0xbc56156a	-0.013066629
165	0xbc585b8e	-0.013205422
166	0xbe29bce5	-0.16575964
167	0xbd6d8822	-0.057991154
168	0xbe211057	-0.1572889
169	0xba44d33f	-0.0007508285
170	0xbb4967a9	-0.0030731952
171	0xbe1747a5	-0.14773424
172	0xbc1ac2f3	-0.009445894
173	0xbd6b774f	-0.05748683
174	0x3824a355	3.925276e-05
175	0x3cc27ed9	0.023742126
176	0xbb2d4184	-0.0026436755
177	0x3d31176f	0.04323524
178	0x3d72861b	0.059209924
179	0xbd92d0ef	-0.07168757
180	0x3c3c3e70	0.011489496
181	0xbd463d50	-0.048398316
182	0xbd1a1c6a	-0.037624754
183	0x3cdbbbd0	0.026822954
184	0x3de08c33	0.10964241
185	0xbd5d2f67	-0.054000285
186	0xbd02374f	-0.031791028
187	0xbdd630be	-0.104585156
188	0x3dc56745	0.09638838
189	0xbda65ce7	-0.081231885
190	0xbd3b4aad	-0.045725513
191	0x3da23eed	0.079221584
192	0x3d4dcd92	0.050244875
193	0xbda353b2	-0.07974948
194	0xbd561c0c	-0.05227284
195	0xbd17fd0e	-0.037106566
196	0xbc8157b6	-0.015788894
197	0x3c284836	0.010271123
198	0xbcfc02ce	-0.030763056
199	0xbce127c7	-0.027484788
200	0x3d389b87	0.045070197
201	0xbce25007	-0.02762605
202	0x3c317f04	0.010833506
203	0xbd9a0534	-0.07520524
204	0x3d95d432	0.07315864
205	0xbd26a4ce	-0.040684514
206	0xbcdc3cbf	-0.026884435
207	0x3d3ceed2	0.046126194
208	0x3b3cba81	0.0028797688
209	0x3cef8079	0.029236065
210	0x3d1f8f43	0.038954984
211	0xbd96a4f0	-0.07355678
212	0x3c6e3a2a	0.014540235
213	0xb9997081	-0.00029266256
214	0xbcb1e61c	-0.02171617
215	0xbc1400e4	-0.0090334155
216	0x3cb9184d	0.022594595
217	0x3d65a3b1	0.05606431
218	0xbd91b516	-0.071146175
219	0xbd902d42	-0.07039882
220	0xbc4e1e6f	-0.012580498
221	0x3d7c35a0	0.06157458
222	0xbdaaa0cd	-0.083314516
223	0xbdfb83da	-0.12281008
224	0x3d644a83	0.055735122
225	0x3ddd50c1	0.10806418
226	0x3d1808da	0.037117817
227	0xbdc08035	-0.093994536
228	0xbc21e657	-0.009881577
229	0x3db72f74	0.08944598
230	0x3db87c4e	0.09008084
231	0x3d2854f2	0.041096635
232	0xbe6a6ba0	-0.22892618
233	0xbd77d65c	-0.060507163
234	0xbd9a59d3	-0.07536664
235	0xbd2830d8	-0.041062206
236	0xbcc11025	-0.023567269
237	0x3d351262	0.044206984
238	0xbc432200	-0.011909962
239	0xbbfd2eed	-0.0077265413
240	0xbd852fc8	-0.06503254
241	0xbc307499	-0.010769987
242	0x3d07db90	0.033168375
243	0xbde83e70	-0.11340034
244	0xbcd4e5cf	-0.025988488
245	0x3cba2f58	0.022727653
246	0xbd9ad272	-0.075596705
247	0xbc2166a3	-0.009851131
248	0xbda6e7a6	-0.08149652
249	0xbd9933fd	-0.07480619
250	0x3da19ddb	0.07891437
251	0xbdeab5d6	-0.11460464
252	0x3a00a572	0.0004907466
253	0x3dbfe0fd	0.09369085
254	0xbca97bd1	-0.020688923
255	0x3da9a38e	0.08283149

fc2.bias f4 [128]
0	0xbd595a9e	-0.053064935
1	0xbdd1b0cf	-0.10238802
2	0xbde01582	-0.10941602
3	0xbd94cb6d	-0.07265363
4	0xbdf5ea3e	-0.12007569
5	0x3d0e0475	0.03467222
6	0xbdc28847	-0.09498649
7	0xbe0d336b	-0.13789146
8	0xbda81039	-0.08206219
9	0xbe132760	-0.14370489
10	0x3df9d25e	0.121983275
11	0xbcdb08b8	-0.026737556
12	0xbda0d336	-0.07852785
13	0x3dd02cc0	0.101647854
14	0x3e2dbad7	0.16965805
15	0xbdafa219	-0.085758395
16	0xbd26b543	-0.04070021
17	0xbe007b0a	-0.12546936
18	0xbd7ead7f	-0.062177178
19	0xbe08292d	-0.13296957
20	0xbe0a169a	-0.13485184
21	0xbe283f15	-0.16430314
22	0x3c4dd40a	0.012562761
23	0xbe012d8c	-0.12615031
24	0xbd8d4669	-0.06898195
25	0xbdc5e0c8	-0.09662014
26	0xbba941a4	-0.0051652957
27	0xbdbd3ffb	-0.09240719
28	0xbe060ae9	-0.130901
29	0xbe065232	-0.13117293
30	0xbdc02cc2	-0.09383537
31	0xbc24ead1	-0.01006575
32	0xbde04d14	-0.109522015
33	0x3c1c1500	0.009526491
34	0xbe206cad	-0.15666457
35	0xbd7ab4fb	-0.061207753
36	0x3d1a38d4	0.03765185
37	0xbd296dad	-0.04136436
38	0xbd0bfff3	-0.03417964
39	0xbde2934a	-0.110632494
40	0xbc8afe16	-0.01696686
41	0xbda1a6e7	-0.07893162
42	0xbbe23fca	-0.006904577
43	0x3d21d4e5	0.039509673
44	0xbd8d7735	-0.069075026
45	0xbd28f5ca	-0.041250028
46	0xbe3534f2	-0.17695978
47	0xbc46f92a	-0.012144366
48	0x3bbad6e2	0.0057018856
49	0xbd212334	-0.039340213
50	0x3c1ec6e1	0.009690971
51	0xbd8d1633	-0.06889
52	0xbd8506a8	-0.0649541
53	0xbe47a480	-0.19496346
54	0xbdd6917e	-0.10476969
55	0xbe24fffe	-0.16113278
56	0xbe034c56	-0.12822089
57	0xbd847f7c	-0.06469628
58	0x3cfff846	0.031246316
59	0xbdde055a	-0.108408645
60	0x3d30e184	0.04318382
61	0x3dbe48d9	0.09291238
62	0xbdf1a072	-0.11798181
63	0xbe4ac2ab	-0.19800822
64	0xbd36f378	-0.044665784
65	0xbe08a63b	-0.13344662
66	0xbda6d868	-0.08146745
67	0x3ceee241	0.02916062
68	0x3e0dfa44	0.13865
69	0xbe09ae34	-0.1344536
70	0xbb342533	-0.0027487993
71	0x3d723b39	0.05913851
72	0xbcbd8ee3	-0.023139423
73	0xbc1f7c1c	-0.00973418
74	0xbc90dd5e	-0.017683681
75	0xbddbc328	-0.107305825
76	0xbcde35e7	-0.027125312
77	0xbe087df3	-0.13329296
78	0xbce828f4	-0.02833984
79	0xbcdc50f9	-0.02689408
80	0x3b83986e	0.004015974
81	0xbe04ff30	-0.12987971
82	0xbd461472	-0.048359342
83	0xbdea4002	-0.1143799
84	0x3e430da2	0.1904817
85	0xbe1681dc	-0.14697975
86	0x3da2e130	0.07953107
87	0x3cef0df2	0.029181454
88	0x3d7228d7	0.05912098
89	0x3d03c774	0.032172635
90	0xbd6c91ed	-0.057756353
91	0xbb8fdf1c	-0.0043906104
92	0xbd0ff37d	-0.035144318
93	0xbd1093a7	-0.035297062
94	0xbc827912	-0.015926871
95	0xbe257c0c	-0.16160601
96	0xbd7da947	-0.061929014
97	0xbd4d883b	-0.050178748
98	0xbd9de43f	-0.0770955
99	0xbd093c27	-0.03350463
100	0xbd5481a5	-0.05188145
101	0x3dd63668	0.10459596
102	0xbe0d88b8	-0.13821685
103	0xbe659c54	-0.22422916
104	0x3d04c6e5	0.032416243
105	0xbd803334	-0.06259766
106	0xbd9bb16c	-0.076022
107	0x3de8adee	0.113612995
108	0x3c0c3bc1	0.008559168
109	0xbcf22a97	-0.029561324
110	0xbdd5b594	-0.10435024
111	0xbe64ff87	-0.22363101
112	0xbe1ed856	-0.15512213
113	0xbda08f30	-0.07839811
114	0xbcbcb557	-0.023035688
115	0xbd1c05b6	-0.038091384
116	0xbe011583	-0.12605862
117	0xbd9dd033	-0.077057265
118	0xbd6a0c40	-0.05714059
119	0xbdc21bc5	-0.09477953
120	0xbe49262e	-0.1964347
121	0xbe39a887	-0.18130694
122	0xbb6fe649	-0.0036605767
123	0xbdebaf03	-0.1150799
124	0xbd8a5caf	-0.06755959
125	0x3d9646fb	0.07337757
126	0xbdc873a3	-0.09787681
127	0xbd8c3463	-0.068459295

bn3.weight f4 [128]
0	0x3f91157a	1.1334679
1	0x3fa36fdf	1.2768515
2	0x3f8c2727	1.0949448
3	0x3f9fbd59	1.2479659
4	0x3f9ee77e	1.2414396
5	0x3f7f3e9b	0.99704903
6	0x3f95f9d3	1.1716865
7	0x3f5e4bb6	0.86834276
8	0x3f98537c	1.1900477
9	0x3f3b8455	0.732488
10	0x3f802a1e	1.0012853
11	0x3f6a68fc	0.91566443
12	0x3f9f33da	1.2437699
13	0x3fad1599	1.3522216
14	0x3f84f4bd	1.0387188
15	0x3f3bf80d	0.7342537
16	0x3f630d5f	0.8869228
17	0x3f780001	0.96875006
18	0x3f7b1f47	0.980946
19	0x3f86948d	1.0514084
20	0x3f127db4	0.5722306
21	0x3f9bb0a6	1.2163284
22	0x3f310a75	0.6915658
23	0x3f5e2f0e	0.8679055
24	0x3f9d32b1	1.2281095
25	0x3f84e6e4	1.0382962
26	0x3fa51b37	1.289893
27	0x3f2d5fe0	0.6772442
28	0x3fac3749	1.3454372
29	0x3fa8088a	1.3127606
30	0x3fbe4405	1.4864508
31	0x3f592089	0.8481527
32	0x3f42a1f1	0.7602835
33	0x3f4acbb7	0.79217094
34	0x3fa38991	1.2776357
35	0x3f298ca3	0.6623022
36	0x3f97a510	1.1847248
37	0x3f828147	1.0195702
38	0x3f9f8866	1.24635
39	0x3f6c6a4a	0.92349684
40	0x3f35b131	0.709735
41	0x3fa1804a	1.2617276
42	0x3f41a5ae	0.7564343
43	0x3f610c21	0.8790913
44	0x3fa79d02	1.309479
45	0x3f688a7e	0.9083632
46	0x3f34a5de	0.70565593
47	0x3f63df88	0.89012957
48	0x3fb119fd	1.3836056
49	0x3f6bb8df	0.92078966
50	0x3f8ab9fd	1.0838009
51	0x3fadb168	1.3569765
52	0x3f456f17	0.77122635
53	0x3f7da35c	0.9907739
54	0x3f91b251	1.1382543
55	0x3f604312	0.8760234
56	0x3fa7d231	1.311102
57	0x3f8e727c	1.1128688
58	0x3fa0b746	1.2555931
59	0x3f8ce68d	1.1007859
60	0x3fa511e8	1.289609
61	0x3f579d11	0.8422404
62	0x3f58f061	0.8474179
63	0x3f573fd5	0.84081775
64	0x3f88f4a8	1.0699663
65	0x3fa8ba92	1.3181937
66	0x3fa11b53	1.2586464
67	0x3fae9036	1.363776
68	0x3f8a2400	1.0792236
69	0x3f878926	1.0588729
70	0x3f74251d	0.9536913
71	0x3f229e26	0.63522565
72	0x3f886e48	1.0658655
73	0x3fc80643	1.5626911
74	0x3fa1df1f	1.2646216
75	0x3fbbcf34	1.4672608
76	0x3f87952f	1.0592402
77	0x3f84545f	1.0338248
78	0x3f788912	0.9708415
79	0x3f7f29de	0.9967326
80	0x3f97028d	1.1797653
81	0x3f4ed375	0.8079141
82	0x3f507c0e	0.8143929
83	0x3f2ddd7d	0.6791609
84	0x3fa1a6f8	1.262908
85	0x3f4ae89d	0.7926119
86	0x3f63ef6a	0.8903719
87	0x3f732949	0.9498487
88	0x3f4a384c	0.7899215
89	0x3f889486	1.0670326
90	0x3f6980b6	0.9121202
91	0x3f3f4974	0.74721456
92	0x3f2cb2e0	0.6746044
93	0x3f9fbbf4	1.2479234
94	0x3fb70951	1.4299718
95	0x3fa5526d	1.2915779
96	0x3fa11711	1.2585164
97	0x3f7112b1	0.94169146
98	0x3f4cb7d5	0.79968005
99	0x3f7c4bf2	0.98553383
100	0x3f9ef6df	1.2419089
101	0x3f4d4db5	0.80196697
102	0x3f20c167	0.6279511
103	0x3f495b84	0.78655267
104	0x3fb8efdf	1.4448203
105	0x3f8563af	1.0421046
106	0x3fa2ad47	1.270913
107	0x3f9d3e8c	1.2284713
108	0x3f79c09f	0.9755954
109	0x3f7a755d	0.9783533
110	0x3f6df1ac	0.92946887
111	0x3f506132	0.8139831
112	0x3f656028	0.8959985
113	0x3f3b7e59	0.73239666
114	0x3f5abf30	0.8544798
115	0x3f6d37bb	0.9266316
116	0x3f6a0c54	0.9142506
117	0x3f4d857f	0.80281824
118	0x3f61ffb5	0.882808
119	0x3fb6f46f	1.4293345
120	0x3f7e0d05	0.99238616
121	0x3f888f0f	1.0668658
122	0x3f79898e	0.97475517
123	0x3fb81a3c	1.4383006
124	0x3fa3aeb3	1.2787689
125	0x3fa4ad70	1.2865429
126	0x3f5ee7b1	0.87072283
127	0x3f9384db	1.1524919

bn3.bias f4 [128]
0	0xbcf340a0	-0.029693902
1	0x3e6520ee	0.22375843
2	0x3c7ee9cd	0.015558672
3	0x3cd5ae99	0.026084231
4	0xbce864fd	-0.028368467
5	0xbc05b63e	-0.008161126
6	0x3e10f3dd	0.14155526
7	0xbc2f556e	-0.01070152
8	0xbe1d799a	-0.15378419
9	0x3b87874c	0.0041360017
10	0x3d72ae40	0.05924821
11	0xbd0b0fc6	-0.03395059
12	0x3e58ddea	0.21178403
13	0xbcb1568b	-0.021647712
14	0xbdf659bf	-0.120288365
15	0xbc40b536	-0.011761954
16	0xbd06faae	-0.03295391
17	0x3dcfd103	0.10147288
18	0x3d284c9c	0.041088685
19	0x3df07b68	0.11742288
20	0x3d7ec5e7	0.062200453
21	0x3e58dae4	0.2117725
22	0x3d348e67	0.044081118
23	0x3da777ae	0.08177124
24	0x3e00e1bb	0.1258611
25	0x3b16af7d	0.0022992783
26	0xbdfc69cd	-0.123248674
27	0xbd839f17	-0.06426828
28	0x3daac779	0.08338828
29	0x3d69da57	0.05709299
30	0xbd8547e0	-0.0650785
31	0x3ca5911f	0.0202108
32	0x3db2d17e	0.08731364
33	0x3d6b6332	0.057467647
34	0xbaac2741	-0.0013134257
35	0xbde635da	-0.1124074
36	0xbc557882	-0.01302922
37	0x3d6f244c	0.058384225
38	0xbd334544	-0.04376723
39	0x3db1f2fc	0.08688924
40	0x3dd3f11f	0.103487246
41	0x3d73b270	0.059496343
42	0x3d936bb4	0.07198277
43	0x3d46f4d3	0.048573326
44	0x3a3484c0	0.00068862364
45	0xbc60d179	-0.013721817
46	0x3d883b30	0.06651914
47	0x3d53b15b	0.05168281
48	0x3da7edce	0.081996545
49	0xbcba5312	-0.02274469
50	0x3dc618eb	0.096727215
51	0x3d8517b6	0.06498663
52	0xbc405047	-0.01173789
53	0x3dcc420d	0.09973536
54	0x3d024a5c	0.031809196
55	0x3d219e61	0.039457683
56	0x3c09265c	0.008370962
57	0x3d8e1caa	0.06939061
58	0xbd63aa6f	-0.05558246
59	0x3c53d66f	0.012929543
60	0xbca6ab09	-0.020345228
61	0x3ce04f88	0.027381673
62	0x3d4a7ba4	0.04943432
63	0x3ddccff4	0.107818514
64	0x3d921890	0.07133591
65	0x3c88b5fb	0.016688338
66	0x3c92e1b9	0.017929899
67	0xbd823aff	-0.06358909
68	0xbdca0b44	-0.0986543
69	0x3e4dc5a7	0.2009493
70	0x3d505300	0.050860405
71	0x3c5c84f3	0.013459432
72	0xba0557d6	-0.0005086636
73	0xbce287bb	-0.027652612
74	0x3c57efd4	0.013179738
75	0xbc807f6b	-0.015685758
76	0xbce12702	-0.02748442
77	0xbd8ff105	-0.07028393
78	0x3d66ddea	0.056363977
79	0x3bf5a61b	0.007496608
80	0x3dbeb1eb	0.09311279
81	0xbd61edde	-0.05515849
82	0x3d0471aa	0.03233496
83	0x3d76a448	0.060215265
84	0x3dd94cda	0.106103614
85	0x3e1ddd15	0.15416367
86	0xbdd4855a	-0.10376997
87	0x3d872f32	0.06600799
88	0x3cc26eff	0.023734568
89	0xbd951dcd	-0.07281075
90	0x3ddf52e5	0.10904483
91	0x3dce2a0e	0.10066615
92	0xbceb728c	-0.028741144
93	0xbd9210cd	-0.07132111
94	0x3e0424b3	0.12904625
95	0xbd13f457	-0.036121693
96	0xbdfef528	-0.124491036
97	0xbba202ea	-0.004944195
98	0x3c36162f	0.011113687
99	0xbcf832b6	-0.030297618
100	0x3c8daaf9	0.01729344
101	0x3c474617	0.012162707
102	0x3d46e232	0.04855556
103	0x3bfa25cb	0.0076339
104	0x3d5b3e11	0.053525988
105	0xbe204789	-0.15652288
106	0x3ce294b3	0.027658796
107	0xbc2eaea2	-0.010661753
108	0xbd182d8f	-0.037152823
109	0x3d949427	0.0725482
110	0x3d50dbaa	0.050990738
111	0x3ce617af	0.028087465
112	0xbd6bdd91	-0.05758435
113	0x3c9e1140	0.019295335
114	0xbdf6401f	-0.12023949
115	0xbd719731	-0.058982078
116	0xbd07848f	-0.033085402
117	0x3cfb3332	0.03066406
118	0xbdaa8c1d	-0.08327506
119	0xbcb32772	-0.021869395
120	0x3ba4ff6a	0.0050353305
121	0xbd1e6c7c	-0.038677678
122	0x3df7d54b	0.12101229
123	0x3e1fb4c3	0.15596299
124	0x3dc37578	0.0954389
125	0x3cf01805	0.029308328
126	0x3e031a60	0.1280303
127	0xbd3bc09a	-0.045837976

bn3.running_mean f4 [128]
0	0x3c82c42f	0.015962688
1	0x38da277e	0.00010402406
2	0x3b362551	0.0027793238
3	0x36a53f86	4.9247783e-06
4	0x3d01b809	0.03166965
5	0x3b805bb9	0.003917184
6	0x3b68d6d9	0.003552845
7	0x3b915c84	0.0044360776
8	0x3b947d98	0.0045315735
9	0x35045482	4.9296807e-07
10	0x3ea370a0	0.31921864
11	0x3a6fe43f	0.0009151138
12	0x3d78029f	0.060549375
13	0x3ef46b08	0.47737908
14	0x3eabfb96	0.33590382
15	0x3d873ced	0.066034175
16	0x3a7486ca	0.00093279465
17	0x3c583d98	0.013198279
18	0x3dabc819	0.08387775
19	0x3cdf87dc	0.027286462
20	0x3d8e4170	0.06946075
21	0x384f406c	4.9412643e-05
22	0x3c89602d	0.016769493
23	0x3a476495	0.00076062354
24	0x3ce22630	0.0276061
25	0x3bd5e283	0.0065272464
26	0x3de80c5e	0.11330484
27	0x3d9077a8	0.070540726
28	0x38bcac75	8.996661e-05
29	0x3a7e4e9c	0.0009701045
30	0x382d3976	4.129993e-05
31	0x3e525210	0.20539117
32	0x3a3f5fa5	0.0007300324
33	0x3cf433c1	0.029809834
34	0x3c3c1008	0.0114784315
35	0x376d9e10	1.4163103e-05
36	0x3cb63001	0.022239687
37	0x3cd33a07	0.025784506
38	0x3dd483c7	0.10376697
39	0x16931152	2.3760062e-25
40	0x3dd166d2	0.102246895
41	0x3bd0c8ee	0.006371609
42	0x3be2c69f	0.00692065
43	0x3dfe0b6f	0.124045245
44	0x3d06c8dd	0.032906402
45	0x352d82a1	6.463761e-07
46	0x30165884	5.469547e-10
47	0x3dfc058f	0.12305748
48	0x3ce9fa13	0.028561627
49	0x3d1cb659	0.038259838
50	0x3e32efaa	0.17474237
51	0x3bd6f6f9	0.006560203
52	0x3755445d	1.2711706e-05
53	0x39251340	0.00015742797
54	0x1b8f8b8c	2.3747546e-22
55	0x3a277427	0.00063878525
56	0x3a83eb63	0.0010064658
57	0x3de26271	0.110539325
58	0x3d1f3bd4	0.038875416
59	0x00000004	6e-45
60	0x3dc1050d	0.094247915
61	0x3e294830	0.16531444
62	0x3a8f2113	0.0010919891
63	0x39960ed5	0.0002862128
64	0x364acf63	3.022106e-06
65	0x3db461ab	0.08807691
66	0x3936d905	0.00017437719
67	0x3d6ce15f	0.057832118
68	0x3f304b85	0.68865234
69	0x3a394970	0.0007068133
70	0x3d27fc99	0.04101238
71	0x3d627a7f	0.055292603
72	0x3de60747	0.11231857
73	0x3b06efb4	0.0020589652
74	0x3bf97a95	0.00761349
75	0x3cfe4189	0.031037109
76	0x3d4ab0e4	0.049485102
77	0x00000004	6e-45
78	0x3dd7c595	0.10535733
79	0x3cd80d00	0.026373386
80	0x3d2324ff	0.039830204
81	0x39b1ec91	0.00033936327
82	0x3d92dc38	0.0717091
83	0x3aac9111	0.0013165792
84	0x3f3b4e3e	0.73166263
85	0x3d428d27	0.047497895
86	0x3e9b01eb	0.302749
87	0x3e9b365d	0.30314913
88	0x3e05997b	0.1304683
89	0x3eb4d436	0.35318154
90	0x3e80a299	0.25124052
91	0x3d840a9b	0.06447335
92	0x3d48dc62	0.0490383
93	0x3d53edcc	0.051740453
94	0x3dd8a269	0.10577852
95	0x3d432b80	0.047648907
96	0x3a38730f	0.0007036188
97	0x3e92dd9e	0.28684705
98	0x3c436a19	0.011927151
99	0x3e1d6eb9	0.15374269
100	0x3de1a880	0.11018467
101	0x3eba980f	0.36444137
102	0x3d4c13b0	0.049823463
103	0x3939b4f2	0.00017710382
104	0x3c5afff1	0.013366685
105	0x30deeaab	1.6219323e-09
106	0x3de1826c	0.11011204
107	0x3ea02c02	0.31283575
108	0x3d224df5	0.039625127
109	0x3d47a051	0.048736874
110	0x3ae76982	0.0017655345
111	0x3c23791d	0.009977606
112	0x3a0a0d22	0.0005266239
113	0x39eef4ad	0.00045577195
114	0x3e174aeb	0.14774673
115	0x3dafb7c3	0.08579972
116	0x374fd303	1.23872915e-05
117	0x3c92c077	0.01791404
118	0x3c7f25eb	0.015573005
119	0x3cc1a3aa	0.023637611
120	0x36a9f8a7	5.0655394e-06
121	0x24a38e42	7.0930976e-17
122	0x3e20de6d	0.15709849
123	0x3ab02f59	0.0013441845
124	0x3bf4da11	0.0074722846
125	0x3d49ab01	0.049235348
126	0x3c9d98af	0.019237844
127	0x3c936021	0.017990174

bn3.running_var f4 [128]
0	0x3b39f619	0.0028375445
1	0x3822d784	3.8824524e-05
2	0x3ae1525a	0.001719068
3	0x36250de4	2.4595001e-06
4	0x3bd98b2d	0.0066389055
5	0x39ea73b3	0.0004471816
6	0x3a73783e	0.0009287632
7	0x3baaca6c	0.005212119
8	0x3b13e05f	0.0022564156
9	0x3421cc1a	1.5068545e-07
10	0x3e1b4ebb	0.15166752
11	0x394c8ef8	0.00019508216
12	0x3cf21fce	0.029556181
13	0x3e2efdee	0.17089054
14	0x3e0427d4	0.12905818
15	0x3cb4acf6	0.02205513
16	0x3a1eab6f	0.0006052767
17	0x3b62e7a4	0.0034622932
18	0x3cceaeb2	0.025229786
19	0x3c028d5a	0.007968271
20	0x3cb833c7	0.022485627
21	0x3738bf38	1.1011776e-05
22	0x3b935143	0.004495771
23	0x3a1696d2	0.000574452
24	0x3c33d5a7	0.010976232
25	0x3ae133d9	0.001718159
26	0x3d79e66e	0.06101077
27	0x3d145dd3	0.03622229
28	0x37448f77	1.1715913e-05
29	0x3a37bb69	0.0007008822
30	0x36c8fb8f	5.9897498e-06
31	0x3ded6af1	0.11592663
32	0x39c1ff9c	0.00037002272
33	0x3bd2f1bc	0.0064375084
34	0x3b76e0d4	0.003767063
35	0x3733ee46	1.0724709e-05
36	0x3c1e4889	0.009660848
37	0x3c14207d	0.009040949
38	0x3d4e2cf4	0.05033584
39	0x15945c57	5.992241e-26
40	0x3d07eb3e	0.03318333
41	0x3bfd3331	0.0077270498
42	0x3b4327ba	0.0029778318
43	0x3d3a6b47	0.045512464
44	0x3c49e1c7	0.012321896
45	0x3498d665	2.84682e-07
46	0x2ecb0426	9.232108e-11
47	0x3d4c5e8f	0.049894866
48	0x3bad195e	0.005282565
49	0x3c263930	0.0101454705
50	0x3d4db00a	0.050216712
51	0x3abf569f	0.0014597959
52	0x3646ec62	2.9641892e-06
53	0x3897c574	7.2370196e-05
54	0x19b53f3e	1.8740505e-23
55	0x3988051d	0.0002594375
56	0x3abad4c7	0.0014254086
57	0x3d41b1bb	0.047288638
58	0x3c80c4f9	0.015718924
59	0x00000004	6e-45
60	0x3ce9fef3	0.028563952
61	0x3db71b89	0.08940799
62	0x3a7ab29a	0.0009563357
63	0x39037f26	0.000125405
64	0x357a9162	9.334382e-07
65	0x3d204f5e	0.03913819
66	0x38096e8f	3.276631e-05
67	0x3ceda6b9	0.029010164
68	0x3e218fa6	0.15777454
69	0x3992fe9f	0.00028036998
70	0x3c2a315b	0.010387744
71	0x3cb6b24a	0.022301812
72	0x3d0f153d	0.034932364
73	0x39a5f8ae	0.00031656533
74	0x3a9f9abb	0.001217685
75	0x3c28d6da	0.010305131
76	0x3c89ad63	0.01680631
77	0x00000004	6e-45
78	0x3d0746e1	0.03302658
79	0x3bc90dfd	0.0061357007
80	0x3c148b43	0.009066406
81	0x38bcbc36	8.9995956e-05
82	0x3c8f0a21	0.017460885
83	0x3a5d3aa1	0.00084392173
84	0x3e8b7009	0.27233914
85	0x3c91bf40	0.01779139
86	0x3e170748	0.14748871
87	0x3dd8f40a	0.10593422
88	0x3d79280b	0.060829204
89	0x3dd36165	0.10321311
90	0x3dd9f081	0.106415756
91	0x3cc05588	0.023478284
92	0x3c922b70	0.017842978
93	0x3c89a275	0.016801098
94	0x3d536753	0.05161221
95	0x3c83083d	0.01599514
96	0x39ba4925	0.00035531181
97	0x3e106f18	0.14104879
98	0x3b56f0df	0.003279738
99	0x3d692e89	0.056929145
100	0x3d3b5044	0.045730844
101	0x3e0bde12	0.13658932
102	0x3c8739bc	0.016507022
103	0x38b9e6be	8.8644665e-05
104	0x3b67868d	0.0035328001
105	0x2f3598f6	1.6516197e-10
106	0x3d5a1c85	0.053249855
107	0x3e0dbb7b	0.1384105
108	0x3ca5d66e	0.02024385
109	0x3c5ea744	0.013589684
110	0x3a5d1a5e	0.000843441
111	0x3b3fa7c7	0.002924429
112	0x39cdc8f3	0.00039250366
113	0x3967a125	0.00022089908
114	0x3d6e5f79	0.05819652
115	0x3d09c79d	0.03363763
116	0x3683a911	3.923786e-06
117	0x3c0d26e3	0.008615228
118	0x3bb4e353	0.005520263
119	0x3c0a14be	0.008427797
120	0x34ac8dee	3.2140764e-07
121	0x21a5e899	1.1242403e-18
122	0x3da700ba	0.081544355
123	0x3a837db7	0.0010031973
124	0x3b22106c	0.0024729026
125	0x3c3e1480	0.011601567
126	0x3c28d9e5	0.010305856
127	0x3bb9ddac	0.0056721773
