mode_weights/agent14_critic_local.pth (torch_old, 93523 bytes, 17 tensors)

bn1.weight f4 [33]
00000000: 5815 fe3e 2faa 443f a833 b53d 0033 073e
00000010: 8666 9d3e fb52 223f 86ed fa3e 677d 653f
00000020: 1248 e93e d3de 213f 2aa2 b23e e4ad cd3e
00000030: 80e4 b63c 5ce9 2c3e 8c78 963e d8bd 043f
00000040: 589a 323f 8ccd 4c3f e8e4 243e 8285 903e
00000050: e67d 2e3f 274a 6a3f ae50 cb3e aec8 5f3f
00000060: b0bc d63e 518b 0d3f a5e6 733f 9021 143d
00000070: 34ad 3d3e 9030 bf3e 1236 9c3e 9497 6e3f
00000080: cc21 343e
0.4962566 0.7682218 0.08847743 0.13203049 0.30742282 0.6340787 0.4900934 0.89644474
0.45562798 0.6323063 0.34889346 0.4017173 0.022325754 0.16885895 0.29388845 0.5185218
0.6976676 0.8000114 0.16102946 0.28226858 0.68160856 0.915194 0.3970999 0.8741559
0.41940832 0.55290705 0.9527381 0.03616482 0.18523103 0.37341738 0.30510002 0.9320004
0.17591017

bn1.bias f4 [33]
00000000: 0000 0000 0000 0000 0000 0000 0000 0000
00000010: 0000 0000 0000 0000 0000 0000 0000 0000
00000020: 0000 0000 0000 0000 0000 0000 0000 0000
00000030: 0000 0000 0000 0000 0000 0000 0000 0000
00000040: 0000 0000 0000 0000 0000 0000 0000 0000
00000050: 0000 0000 0000 0000 0000 0000 0000 0000
00000060: 0000 0000 0000 0000 0000 0000 0000 0000
00000070: 0000 0000 0000 0000 0000 0000 0000 0000
00000080: 0000 0000
0.0 0.0 0.0 0.0 0.0 0.0 0.0 0.0
0.0 0.0 0.0 0.0 0.0 0.0 0.0 0.0
0.0 0.0 0.0 0.0 0.0 0.0 0.0 0.0
0.0 0.0 0.0 0.0 0.0 0.0 0.0 0.0
0.0

bn1.running_mean f4 [33]
00000000: 0000 0000 0000 0000 0000 0000 0000 0000
00000010: 0000 0000 0000 0000 0000 0000 0000 0000
00000020: 0000 0000 0000 0000 0000 0000 0000 0000
00000030: 0000 0000 0000 0000 0000 0000 0000 0000
00000040: 0000 0000 0000 0000 0000 0000 0000 0000
00000050: 0000 0000 0000 0000 0000 0000 0000 0000
00000060: 0000 0000 0000 0000 0000 0000 0000 0000
00000070: 0000 0000 0000 0000 0000 0000 0000 0000
00000080: 0000 0000
0.0 0.0 0.0 0.0 0.0 0.0 0.0 0.0
0.0 0.0 0.0 0.0 0.0 0.0 0.0 0.0
0.0 0.0 0.0 0.0 0.0 0.0 0.0 0.0
0.0 0.0 0.0 0.0 0.0 0.0 0.0 0.0
0.0

bn1.running_var f4 [33]
00000000: 0000 803f 0000 803f 0000 803f 0000 803f
00000010: 0000 803f 0000 803f 0000 803f 0000 803f
00000020: 0000 803f 0000 803f 0000 803f 0000 803f
00000030: 0000 803f 0000 803f 0000 803f 0000 803f
00000040: 0000 803f 0000 803f 0000 803f 0000 803f
00000050: 0000 803f 0000 803f 0000 803f 0000 803f
00000060: 0000 803f 0000 803f 0000 803f 0000 803f
00000070: 0000 803f 0000 803f 0000 803f 0000 803f
00000080: 0000 803f
1.0 1.0 1.0 1.0 1.0 1.0 1.0 1.0
1.0 1.0 1.0 1.0 1.0 1.0 1.0 1.0
1.0 1.0 1.0 1.0 1.0 1.0 1.0 1.0
1.0 1.0 1.0 1.0 1.0 1.0 1.0 1.0
1.0

fcs1.weight f4 [128, 33]
00000000: c473 53bb b514 a5ba bce4 a13a 2bfd 403a
00000010: 9fe0 feb8 a9a1 d337 8ca1 8fb8 02a3 b53a
00000020: f468 a83a d5e7 bab9 01c1 c9ba 6b16 18bb
00000030: b71d f5bb 747d bfbb 2212 3c39 f3ae bc39
00000040: 2a9d 4cb8 d7ba a93a c3ea 9d39 1d8d 673a
00000050: 2d3a 53ba 14d6 0e3b e4b4 3abb f17e 4abb
00000060: fb04 c7ba 701a e7ba df45 80bb c575 d0ba
00000070: 1b36 83bb 3ec6 0100 c575 d03a 0cd9 0080
00000080: af5b f7b7 4445 ebbc 9ff5 dc3c 2909 703c
00000090: 5742 ad3b 8099 f139 01cd b33c 9446 13bd
000000a0: a6b8 8dbc 8b3c 013d 1411 42bd 0b62 c1bd
000000b0: 3218 403c c25c 10bd 5d9d 26bd 4894 36bc
000000c0: c8ab a03b 2752 4b3d 9d93 133d d7f0 6b3b
000000d0: a302 113c 7c44 c13b c680 6b3d 48d1 93bc
000000e0: 93fb bd3c 8889 3f3c 88f8 ec3c a956 093d
000000f0: 60da f33c c8b2 423d bd25 0180 9c99 f4bc
00000100: 2913 0080 ad45 153d 1775 543c b183 523d
00000110: 422e 333d 4047 6bbd 7b47 383c 253b 0c3d
00000120: ae4c 93bc b4b2 e83c 09b8 05bd 637c 67bb
00000130: b0c8 57bb 16bc cc3c 2d5e a5ba c070 4a3d
00000140: 40aa c0bb ddf7 eabc b4d7 16bb 0de7 70ba
00000150: eeb4 353c 0192 3bba 6a5d c43a 72c5 3e3c
00000160: bca4 27bc 260c 953d 0e10 04bc cd1c 00bd
00000170: 9394 42bc a26d a03d 5a60 ebbc fd84 0080
00000180: fc82 a0bd 332c 0180 bb42 d9bc 77f1 513d
00000190: 0cfb 463d 5765 a13c 2be9 e0bb b33e fb3c
000001a0: 2947 893c d7cb bd3c ebe5 293d 1f1b 6e3b
000001b0: d944 323d f65a c23c 42b9 553d 3489 783a
000001c0: cc36 313c 5fb2 503d 5d2e 8f3b cf2e 333c
000001d0: e3bc 18bb 275d 643c 4815 97bc 2b91 193c
000001e0: 75c8 443d 2f90 16bd f9a4 96bc f43a 223c
000001f0: b046 fb3b 3684 40bb a074 113d e195 31bd
00000200: 3eb3 0080 0ec7 12bd bfa2 0180 79f9 d33d
00000210: 9ad9 5f3b f51f 253b f9b9 c83a 2cd3 feba
00000220: c1ac 4d3a 5a52 46b8 6176 9d39 d000 8d3b
00000230: 0d8f 1a39 d4ff b539 636f 4c3b 5651 3bbb
00000240: 7134 93ba 8c5b 863b 98e9 003b 192a 693b
00000250: dee9 dcb9 5244 2239 e9e5 8836 4274 f2ba
00000260: 3834 84bb fa8c bcba 714a da3b b159 af3a
00000270: 9422 a7b9 b6ff cdbb 83f4 5e3b 2def a63a
00000280: 9d35 3e3b 0743 0100 2def a6ba 1960 0080
00000290: 577e a53a c8ba 5ebd 6af6 adbc 5a74 533b
000002a0: 3d91 ac3b c860 07bc bae3 4bbd a051 ea3c
000002b0: 97d6 8ebc 53c1 de3c 2b50 153d 01c8 09bd
000002c0: 28e7 cf3b 180d 973c d394 8e3d c692 99bb
000002d0: 1604 713d b83c 2dbb d6ab d5bb a22b 99ba
000002e0: 0702 d9bc 6f91 31bb c3d6 3abd cfb9 013c
000002f0: 7c25 783d 782d b3bc c76f 153d c42d 0bbd
00000300: dac1 4f3c 49ea 06bd ad0b 0000 e142 a5bc
00000310: a390 0080 2e34 253e 12ae babd 947d 3c3d
00000320: e430 ab3d aa80 063b 0615 91bc 0f28 ef3c
00000330: 94bb bdbc 8095 41bb 62ef 3e3b 6395 6fbc
00000340: 7e0e 0a3c f62a 613b df41 053c e412 013d
00000350: 4dff 39bd 039a 26bd 851a 48bc 99e3 77bc
00000360: 43bf fcba c1e1 02bc 3ede 01b8 0844 81bb
00000370: 54f6 febb 4b3f 753c 4571 94bc 5054 05bc
00000380: cf6d e23b 15ed 343d 06cb 05bd 068c 0080
00000390: e8b2 34bd 5f7f 0000 3c3b 693e 6563 273d
000003a0: 1ad5 053d 5c40 f0bb 4553 14bc 119b a8ba
000003b0: 8728 df3b 4f76 343c 9bd0 cebb 03c3 b13c
000003c0: 67cc 32bc a7b0 29bb d020 dfbb 549d 90bb
000003d0: 68b6 c7bd 1b92 9bbb 680a c13a 417b e7bc
000003e0: 9724 723c 6113 813a 850c c33b f10a 2fb9
000003f0: d818 1aba 079a 56bb 7156 cbbc 4576 05bc
-0.0032265047 -0.0012594672 0.0012351493 0.0007361944 -0.00012153503 2.5228439e-05 -6.848862e-05 0.0013857784
0.0012848661 -0.00035649413 -0.0015392603 -0.0023206722 -0.007480349 -0.0058438126 0.00017935832 0.00035988502
-4.878376e-05 0.0012949359 0.00030120285 0.0008832978 -0.000805768 0.002179508 -0.0028489167 -0.0030898417
-0.0015183979 -0.001763178 -0.0039145793 -0.0015904239 -0.0040042526 1.62951e-40 0.0015904239 -7.7862e-41
-2.9487388e-05 -0.028719552 0.02697259 0.014650621 0.0052874493 0.00046081468 0.02194834 -0.03595598
-0.017299961 0.03155188 -0.04737957 -0.09442528 0.011724519 -0.03524471 -0.040677417 -0.011143751
0.0049032904 0.049638893 0.036029447 0.0036001706 0.008850726 0.0058980566 0.057495855 -0.018044129
0.023191249 0.011690505 0.028927103 0.03352991 0.029767215 0.04753378 -1.05373e-40 -0.029858403
-6.873e-42 0.0364434 0.0129673695 0.051395122 0.043745287 -0.057440996 0.011247511 0.034236092
-0.0179809 0.028405525 -0.032646213 -0.0035321943 -0.0032926016 0.02499203 -0.0012616568 0.049423933
-0.0058796704 -0.028682644 -0.0023016753 -0.00091897027 0.0110905 -0.000715524 0.0014981453 0.011643754
-0.010232147 0.07277708 -0.008060468 -0.031277467 -0.011876243 0.07833411 -0.028732467 -4.7707e-41
-0.07837483 -1.07691e-40 -0.026521077 0.05125567 0.04857926 0.019701643 -0.0068637333 0.030669546
0.016757565 0.023168487 0.041479032 0.0036332083 0.04352269 0.023725014 0.05217863 0.0009480894
0.010816287 0.050951358 0.0043695406 0.010936453 -0.0023305945 0.013938225 -0.018442765 0.00937299
0.048042733 -0.036758598 -0.018389212 0.009901751 0.0076683387 -0.002937568 0.035511613 -0.043355826
-6.43e-41 -0.035834365 -1.50218e-40 0.103503175 0.00341568 0.002519605 0.0015314213 -0.0019441596
0.0007845872 -4.7283575e-05 0.00030033573 0.0043030754 0.00014739875 0.00034713617 0.0031194321 -0.0028582416
-0.0011230839 0.0041002687 0.0019670483 0.003557807 -0.00042135915 0.00015474975 4.079881e-06 -0.0018497782
-0.0040345453 -0.0014385276 0.006661706 0.001337817 -0.00031878485 -0.0062865866 0.0034020252 0.0012736075
0.0029023655 1.1588e-40 -0.0012736075 -3.4473e-41 0.0012626153 -0.054377347 -0.021235663 0.0032265396
0.005266337 -0.008262821 -0.049777724 0.028603375 -0.017436309 0.027191794 0.036453407 -0.033638004
0.0063446946 0.01843886 0.0696198 -0.004686686 0.058841787 -0.0026433896 -0.0065207286 -0.0011685977
-0.026490225 -0.0027094742 -0.04561497 0.007917835 0.060582623 -0.021872267 0.036483552 -0.033979192
0.012680495 -0.032938275 4.188e-42 -0.020173492 -5.1886e-41 0.16133186 -0.091152325 0.046018198
0.083589345 0.0020523467 -0.01771022 0.029193906 -0.023160733 -0.0029538572 0.0029134382 -0.014623019
0.008426307 0.0034357882 0.008133381 0.031512156 -0.04540949 -0.04067422 -0.012213354 -0.015129947
-0.0019283075 -0.007988394 -3.0962976e-05 -0.0039448775 -0.0077808294 0.0149687035 -0.018120417 -0.008137777
0.006910063 0.04417141 -0.03266432 -5.0231e-41 -0.04411593 4.5692e-41 0.22776502 0.040866274
0.032673933 -0.007331891 -0.009053056 -0.0012863596 0.006810251 0.011014535 -0.006311489 0.021699434
-0.010912991 -0.0025892647 -0.0068093315 -0.004413286 -0.09751588 -0.0047476417 0.0014727833 -0.028257014
0.0147792315 0.0009847694 0.00595242 -0.00016693377 -0.0005878336 -0.0032745616 -0.024821492 -0.008145873

fcs1.bias f4 [128]
00000000: c475 d03a 6104 f2bc 2c1b a0bd e150 17bd
00000010: 2cef a6ba 4cd3 73bc 5333 34bd 7492 58bd
00000020: e472 12bd 18d5 23bb 320a 1abd e3eb 4abd
00000030: 9958 2bbb 0a00 0ebd 3116 75bc 9bfe 7fbd
00000040: b446 99bd 4cd4 b3bd 872b ff3b 7d8b 3b3c
00000050: b57b a63c 0c7d 1ebd 2391 99bb 54ec a2bb
00000060: 9b1e 78bd 8ad8 e9bc 753b afbc bcb3 26bd
00000070: a1ae 7fbd 85d6 52bd 62d2 0dbd a9b0 fabb
00000080: efe2 14bd 91a6 a9bc f041 cdba 2706 87bc
00000090: d8c7 f9bc a199 f4bc 7431 3dbc 56e5 28bd
000000a0: dfff 58bb 0bbe 10bd 14a9 46bd 1cf9 8fbb
000000b0: 466d 91bd fcb3 b5bc 1e1f d03b 6a89 8f3c
000000c0: d4e0 f7bb 529a 47bd 1d25 a8bd 0394 03bc
000000d0: f749 abbc 123a e7bd 6af2 96bd 5455 86bd
000000e0: 8fcf a1bd a5a8 4cb9 02fa 3dbc 4391 843c
000000f0: fd51 0cbd c06b aabd 57c0 7cbd e1dd bdbd
00000100: 7b9e 71bd 1ef1 a23b 9697 c3bc 403d 0b3d
00000110: 88e8 c0bd 42fa 89bd 455f 2ebd 335e 92bd
00000120: 8198 0cbd 42a2 9bbd 3daf 20bd 0a9e 0e3c
00000130: b2aa 38bd b2c7 e1bb aa5c 8cbd 0cdd 8fbd
00000140: 55ca 58bd f5e5 13bd 8840 2fbd 32c1 98bd
00000150: 8cf5 6a3b 8500 1dbc 4c7f 83bd 309f 70bd
00000160: d4ea 6ebd 0527 c6bc f3c9 14bb 3c48 99bc
00000170: 7185 c5bc 2731 b5bb 16e7 a8bd ef8e 25bd
00000180: 1710 8ebd c126 9dbd dec3 b6bc a619 cdbc
00000190: c784 d8bd eb9a 66bd 07f0 38bd 621e 1e3b
000001a0: 3eb7 c138 4c54 88bb 5e0c d7bc cb61 283d
000001b0: 0664 873b c330 d1bc 6c3a bebc a7db 81bd
000001c0: 1c6e b4bc 79ec 0e3b 4393 473c 270b babb
000001d0: 6989 8abd be09 67bd cd7b f63b e758 3abd
000001e0: abc3 bfbd c38c b2bd f8cf ddbd c32a cdbc
000001f0: 8b86 0abd b2f8 b2bc 09d4 31bd 0d95 2fbd
0.0015904238 -0.029543104 -0.078176826 -0.036942367 -0.0012736074 -0.01488192 -0.04399426 -0.052874044
-0.0357541 -0.002499884 -0.03760738 -0.049541365 -0.0026145338 -0.034668006 -0.014958904 -0.06249867
-0.07484189 -0.08780727 0.0077871713 0.011446831 0.02032266 -0.038693473 -0.004686491 -0.00497202
-0.060576063 -0.028545637 -0.021390656 -0.04069875 -0.0624224 -0.051474113 -0.034624465 -0.007650454
-0.036349233 -0.020709308 -0.001565991 -0.016482426 -0.0304908 -0.029858412 -0.011547435 -0.041234337
-0.0033111495 -0.03533749 -0.04850109 -0.00439371 -0.071009204 -0.02218055 0.0063513657 0.017521579
-0.0075646434 -0.048731156 -0.08210204 -0.008030894 -0.020909293 -0.11290373 -0.073704556 -0.06559244
-0.07900917 -0.00019517781 -0.011595251 0.016182547 -0.034257878 -0.08321333 -0.061706867 -0.09270836
-0.05898903 0.004972591 -0.023875993 0.03399396 -0.09419352 -0.06737186 -0.042571325 -0.07146873
-0.034325127 -0.075993076 -0.03922962 0.008704672 -0.045084663 -0.0068902606 -0.06853612 -0.07024583
-0.052927334 -0.036107976 -0.04278615 -0.07458724 0.0035851924 -0.009582643 -0.06420764 -0.058745563
-0.05832942 -0.024188528 -0.002270338 -0.018711202 -0.024111481 -0.005529541 -0.08247201 -0.040419515
-0.06936663 -0.07673407 -0.022310194 -0.025036644 -0.105722 -0.056300085 -0.045150783 0.0024126996
9.237089e-05 -0.0041604396 -0.026251014 0.041108888 0.004131797 -0.025535947 -0.023221217 -0.063407235
-0.02202516 0.002180843 0.012181106 -0.005677599 -0.0676449 -0.056405775 0.0075220824 -0.04549494
-0.093634926 -0.087182544 -0.108306825 -0.025044804 -0.033819716 -0.021847103 -0.043415103 -0.042866755

bn2.weight f4 [128]
00000000: 8f1a 28b9 7201 d43d dc09 ed3d 18ab 8c3d
00000010: 3c94 9039 4734 523e 5e9f 4e3e bd88 d93d
00000020: 9b53 853e e9bd 843e 796a ca3d 476f a13d
00000030: 6a6c 6339 1b19 b03d def3 4a3e 48c9 eb3d
00000040: 79be 6e3e 6a48 953e fd69 3d3e 4431 053f
00000050: fea1 9d3e b163 173e 5823 043e dc20 6f3e
00000060: 38b1 1c3e f7d2 3a3e fe7d 133e f7e0 ac3d
00000070: 3fb7 053e 29f4 cd3d 9b6f 543e 1e09 cf3e
00000080: caec ae3e d5ca 1a3e ba9f 693e cb7c 503e
00000090: 21e4 563d 7de8 f43d f5c4 333e 28bd 5e3e
000000a0: 8d50 8439 fee2 143e b0ac 633e f3da 2d3e
000000b0: 6079 553e cbd6 163f 1837 bc3e 27b5 973e
000000c0: 2d2e e83d 0656 773e 2c14 333e 9d57 363e
000000d0: 8369 fe3d 1a97 663e de5a 7e3e 90e9 8b3e
000000e0: dc24 893e 1382 9a3e 1ae3 0d3e 2a5f 2b3e
000000f0: 53dc 8f3e 2410 253e 6c5c 0d3e b141 203e
00000100: 165f d13d c0ea 913e 2e80 773e 33bb 0a3e
00000110: 3f34 373e 16a6 8f3e 5451 f73e b7b0 783e
00000120: a5cf 233e 1ecc ef3d 70ae 953e 5de8 903e
00000130: dd2e 223e 2d1c 383e ec72 233e f6f7 2b3e
00000140: 2c79 c33e 124b 5e3e cf98 613e a209 673e
00000150: 6227 bb3e 7465 323e 2502 133e 0cdb 323e
00000160: d0ba e63d c87f 8c3e dbe5 8fb9 9c7d 463e
00000170: f53d 7c3e bdb1 453e 2db2 b83e 9a25 3c3e
00000180: 0b72 3a3e d713 0e3e 10bf 543e e0c9 733e
00000190: 62d3 1a3e b838 153e fa25 643e 752f 8c3e
000001a0: 864b e9b9 b49e b53e 6240 2d3e a182 5b3e
000001b0: 9bc5 953e 8a21 753e 20fd 933e c35d a83d
000001c0: f47e 603e 68e6 993e fa80 873e e1ca 9b3e
000001d0: 74ba 093e d72c a43e 46ab 913e 9bb6 ac3e
000001e0: dca5 8f3d 82fb 9d3e 0bc3 013e fcd8 693e
000001f0: b329 8a3e 4d9f 583e 1ed1 bc3e eef8 203e
-0.00016031622 0.10351838 0.11574146 0.06868571 0.00027576264 0.20527755 0.20177981 0.10621784
0.26040348 0.2592614 0.09883589 0.078825526 0.00021688794 0.085985385 0.1981959 0.11513001
0.23314847 0.2915681 0.18497463 0.520283 0.30787653 0.14784123 0.12904108 0.23352379
0.15301979 0.18244539 0.14403531 0.08441346 0.13058184 0.100563355 0.20745699 0.40436643
0.3416503 0.15116437 0.22814837 0.20360105 0.052463654 0.11958406 0.17555602 0.21751845
0.00025237017 0.14539716 0.22233844 0.16978054 0.20847082 0.589215 0.36760783 0.29630396
0.11336932 0.24153909 0.17488164 0.1780686 0.124224685 0.22518578 0.2483935 0.27326632
0.26785934 0.30177364 0.13856164 0.16735521 0.28097782 0.16119438 0.13804787 0.1565006
0.10223214 0.28499413 0.2416999 0.13547973 0.17891024 0.280564 0.48304236 0.24286161
0.15997179 0.11708854 0.29234648 0.2830228 0.1583819 0.17979498 0.15961808 0.16793808
0.38178384 0.21708325 0.22030948 0.22562268 0.36553484 0.17421514 0.14356287 0.17466372
0.112661004 0.2744124 -0.0002744634 0.19383854 0.2463301 0.19306083 0.36073437 0.18373719
0.18207566 0.13874756 0.2077601 0.23807478 0.15119699 0.14572418 0.22280112 0.27379957
-0.00044497492 0.35472643 0.16919091 0.2143655 0.29252324 0.23938575 0.28904057 0.08221009
0.21923429 0.300586 0.2646559 0.30428222 0.13450032 0.3206546 0.28450984 0.33733067
0.07014057 0.30855948 0.12672059 0.22836679 0.2698494 0.21154518 0.36878294 0.15719959

bn2.bias f4 [128]
00000000: af0e bab7 a301 a5bd f676 283c 056a acbb
00000010: c266 2138 f66a a83d 4e15 5abc 32c5 a0bd
00000020: 98d2 053e 648c 9f3d 2892 0bbd 9f65 4abd
00000030: c2d1 b7b8 7515 20bd 945a 07bd b7c8 913d
00000040: e0c9 863d e7e4 67bc b75d fc3c 1ca3 c7bd
00000050: ac27 963d a920 8f3d d0b9 58bd ffac d7bd
00000060: 68c4 863d 6f68 243d 3243 2fbd f66d 8e3c
00000070: ddf0 a83d f31b acbd d42d 95ba dea9 903d
00000080: b509 94bd 7caf 0a3d c1c2 7cbd 20fc 6e3d
00000090: c4c1 53bd d36e a63d 4114 aabd e86b 4bbd
000000a0: 5cec e638 0d0b 70bd 0845 1a3d 6e0c 463d
000000b0: bbd3 433d a2cd c0bd 1d58 6fbd 340f a2bc
000000c0: 4f01 6bbc 3ac7 18bd ddd2 8abd 6953 1d3d
000000d0: bf44 3a3d 236c dfbd 21a7 a1bb 6f4a 2f3d
000000e0: f5df 7bbd d625 d1bd 5852 fd3c d9e1 35bd
000000f0: 2bff 19bd dbde c23d 6c12 c7bc 20a9 e8bd
00000100: 44ba 4a3d afb6 9fbd 8ae4 1b3d dc1a 2e3d
00000110: 7f17 a9bd 17e4 93bd 13dd aebd 3ed8 b33d
00000120: ff77 873a f843 75bd 4b69 98bd 9815 7b3c
00000130: 354d 91bc 1c7a bfbb 040f 89bd 014c 96bd
00000140: 79c5 a73d a630 bfbd 2220 c1bd f69c 9bbc
00000150: 9770 08bd e007 1bba f91a cfbd ef15 aebd
00000160: b6e7 4abc c952 7cbd b2c6 75b8 00f0 c5bd
00000170: bb21 b33d c46d d93b 8ab1 94bd 2c84 14bd
00000180: 68fb ad3d ab05 9bbd 41b8 64bd e836 f1bc
00000190: f0b4 d9bc 32f3 bfbd ac1b fb3d bc45 eebd
000001a0: fd63 72b9 f339 e03c caeb 823d 02aa 73bd
000001b0: f1fe c4bc 8bfe 8d3d b053 73bc 670a bebd
000001c0: a0ff 693d 7617 22bd c545 883d 8b0c 2bbd
000001d0: 8dcd bdbd 2245 00bd f48e 003d c599 1ebc
000001e0: e49f a9bc 157f 63bd 92e1 893d 90b4 323d
000001f0: 84f0 90bd 4409 90bc 044b 58bd 2e8b dcbd
-2.2179765e-05 -0.08056953 0.010282269 -0.005261662 3.8481092e-05 0.08223526 -0.0133107435 -0.07850112
0.13068616 0.07790449 -0.034074932 -0.04941332 -8.7651904e-05 -0.039082963 -0.033045366 0.071183614
0.06581473 -0.014153696 0.030806405 -0.097479075 0.073317856 0.06988651 -0.05291158 -0.10531043
0.0658043 0.040138658 -0.04278869 0.017386418 0.08249066 -0.084037684 -0.0011381456 0.070636496
-0.07228414 0.03385876 -0.06170917 0.058345914 -0.05169846 0.08126607 -0.083046444 -0.049663454
0.0001101128 -0.05860429 0.03766349 0.048351698 0.047809344 -0.09414221 -0.05843364 -0.01978264
-0.014343574 -0.037299372 -0.067785 0.038409624 0.045475718 -0.10909297 -0.0049332534 0.042795595
-0.06149288 -0.10212295 0.030923054 -0.04440484 -0.037596863 0.095151626 -0.024300776 -0.11360383
0.049494043 -0.07798516 0.03805975 0.042506084 -0.08256435 -0.07221239 -0.0853826 0.08781479
0.0010335444 -0.059879273 -0.07441958 0.015324973 -0.01773701 -0.005843414 -0.06692317 -0.07338715
0.08191962 -0.09335451 -0.09429957 -0.018995743 -0.0333105 -0.0005913954 -0.101125665 -0.08500277
-0.012384346 -0.061602388 -5.85976e-05 -0.09664917 0.08746668 0.0066353995 -0.072604254 -0.03625886
0.084952176 -0.075694405 -0.05583978 -0.029445127 -0.026575536 -0.09372558 0.12261137 -0.116343945
-0.00023116167 0.027371382 0.063926294 -0.059488304 -0.024047347 0.06933316 -0.014851496 -0.09279328
0.05712855 -0.039573155 0.066539325 -0.04176001 -0.09267721 -0.03131593 0.03138633 -0.009680216
-0.020706125 -0.055541117 0.06732477 0.04362923 -0.07077125 -0.017582543 -0.052805915 -0.10768734

bn2.running_mean f4 [128]
00000000: bf8e e53c 3437 9f3d b0fd f53c 9f5a b23c
00000010: 3e27 9f3c af73 cc3d 73d4 c13c 7310 473c
00000020: 1a8d da3d 501b 843e 87eb 883c 064d 1c38
00000030: 93b1 8f3b 7b63 a73d 18c5 593c 2a3d d33c
00000040: c028 373d 59c6 043d fc4a 973c a970 ca3d
00000050: 98ff 933e f69e cd3d 7cc9 863e d70f 9d3c
00000060: 39e1 603c 6fae 193e 52a1 863d 93cb 083d
00000070: 6469 f03c 00e5 0d3d 0431 1e3d 9d5f 493e
00000080: bbd7 b03d 1388 e93d 7a8c 493e 4502 593d
00000090: 216c dc39 9c75 5c3e 9e3c b93c 67fc 783d
000000a0: c62f d13b 0014 d43a abfa f73d ed9e db3d
000000b0: b525 203d 348c 953d 5432 8e3c 288f 6e3e
000000c0: ea42 033e aaaf 893d 6472 6c3a 9106 8b3d
000000d0: f8e0 4b3d fd22 543c f5ce a43c 41b8 ea3d
000000e0: 56cc fc3c c3c2 b23c bbcc a33c 0a36 4a3d
000000f0: ad4d b93d fc4b 933c 68b2 833c 0974 9d3c
00000100: 6ff0 113d b106 463d d915 8e3e 557d 1a3d
00000110: ce97 0f3d 5a29 3a3e 58eb 9a3d adec e43d
00000120: 0006 233d 515e ed3b a6fd 9a3c 5fa6 333d
00000130: 768a 543c 29fb 233d 6708 a53c 5780 3a3d
00000140: c8bb 8a3d 8b52 8c3c d711 9d3c fc09 493d
00000150: 410d a63e d40c 013d f74e 213c 7be2 913d
00000160: 027a 093d fb48 783a 8549 ac3b 52d7 d33d
00000170: 3fa9 993e 086c b53d 2405 4a3d c350 9b3d
00000180: 2a32 4b3d e1a5 593c 6b9e 5d3d 00a9 053e
00000190: e3b8 e338 40fc 803c c88c c13d 5519 0e3e
000001a0: 4cf8 993c c6d3 103e 1dbf 3f3e 2ed0 7a3e
000001b0: 3a49 223d 53c2 ba3d 3b99 a23d 983a 1f3d
000001c0: f7b2 943e 6abc 293e 98b8 273e 6658 7c3e
000001d0: bf31 c03c 001f 7f3e 7bc3 4e3e 7b10 043e
000001e0: 237d 703a 543d e63a 3add cf3c c027 333e
000001f0: 411e 3b3d 7025 ca3d 6782 493c d76e 153e
0.028022168 0.07774201 0.030028194 0.021771727 0.019427892 0.099830024 0.023660874 0.012149918
0.10671444 0.25802088 0.01671387 3.7265032e-05 0.004385182 0.08173271 0.01329162 0.025786001
0.044716597 0.03241572 0.018468373 0.098847695 0.2890594 0.10040085 0.26325595 0.019172592
0.013725572 0.15007947 0.06573738 0.03339727 0.02934713 0.03464222 0.038620964 0.1966538
0.08634897 0.11402907 0.19682494 0.05298068 0.00042042232 0.2152924 0.022611912 0.060787585
0.006383869 0.0016180277 0.12108358 0.10723672 0.03909846 0.07302132 0.017357983 0.23296797
0.12818494 0.067229584 0.0009019731 0.06788362 0.049775094 0.012947795 0.020118216 0.11460925
0.030859154 0.021821385 0.019995084 0.049367942 0.090480186 0.017980568 0.016076282 0.019220369
0.035629686 0.048346225 0.27751043 0.037717182 0.03505688 0.18179837 0.075644195 0.11177955
0.039800644 0.0072439094 0.018919777 0.043859836 0.012972465 0.040034447 0.020145608 0.04553255
0.06774098 0.017129203 0.019173546 0.049081787 0.32431987 0.031506374 0.009845487 0.07123276
0.03356362 0.0009471324 0.0052577876 0.103438035 0.30011937 0.08858496 0.04932131 0.075837635
0.049608387 0.0132841775 0.054106157 0.1305275 0.00010858641 0.015745282 0.0945068 0.13876851
0.018795155 0.14143285 0.18725248 0.24493477 0.039620616 0.09119096 0.07939383 0.03887424
0.2904279 0.1657578 0.1637901 0.24643096 0.02346122 0.2491417 0.20191757 0.12896912
0.000917392 0.0017565885 0.025374044 0.17495632 0.04568315 0.09870422 0.012299157 0.14593063

bn2.running_var f4 [128]
00000000: 6a8d a03a 04fe a03c 50cc f53b 7df0 9f3b
00000010: 30d0 623a e923 c73c 945e 5b3b d8ca c33a
00000020: baf5 033d 7e74 cb3d df5d 563b 1236 7636
00000030: a8b0 1439 2c5d ae3c 46ac 553a 5022 ba3b
00000040: a399 0b3c 0df5 b93b 5a13 2d3b 494f 023c
00000050: afdf 403d 5494 d93c 2b23 a23d 993c 223b
00000060: b1af 0f3b dab0 4f3d d56d 823c 0661 ed3b
00000070: a771 9a3b 30b2 bc3b 0b40 1c3c 2dca fe3c
00000080: 0c25 8a3c d2ed b53c bbe8 fb3c 6c85 f33b
00000090: 582e 3a38 1e96 8e3d ccde 163b 7891 503c
000000a0: b9e8 7539 1bc9 d238 3fad e73c 8b1f 613c
000000b0: f861 0a3c 1f69 363c ae23 1b3b c2c1 b03d
000000c0: 6972 e63c 9823 4e3c c394 2b39 52bb 5b3c
000000d0: d859 753c cc5e cb3a 1495 253b bef9 0b3d
000000e0: c87a 853b 614a 013b f83c 9e3b 1d4e 583c
000000f0: 3657 973c 97e3 393b b420 8d3b f6b2 dc3a
00000100: e444 da3b 356a 143c b482 c73d 4741 3c3c
00000110: ef72 fc3b 83ae 883d 6b04 303c 7c0d 043d
00000120: 2cef d73b 8da9 4c3a 70a3 f43a 8eaf 703b
00000130: f3a0 2f3b df18 523c ad16 483b 7930 0b3c
00000140: ef87 ae3c c8ae 3a3b 899d 0e3b b118 373c
00000150: 3a17 853d 88e6 cd3b c34e 933a 2e66 903c
00000160: 6cb8 f93b 79d8 ad38 d163 1a39 1e6b a93c
00000170: 1b43 1e3e 1744 863c d55a f93b 2dc5 743c
00000180: 302c 343c 6c52 c93a 5303 d93b 1bc2 073d
00000190: 3455 9037 8b08 dd3a 1cda cb3c a77e f63c
000001a0: 7e9c f039 e096 1c3d 20a3 473d 4521 4b3d
000001b0: 18c4 d03b 9150 813c d333 853c 800d c03b
000001c0: 3759 963d 85e9 443d d460 113d 68e2 013e
000001d0: f986 9f3b 3350 7d3d 78fa 0d3d 3e7e 233d
000001e0: b3a7 e738 a7ab 373a 10c2 c73b 3531 563d
000001f0: ffd1 1c3c 868d f93c 280f b23a 3323 003d
0.0012249176 0.019652374 0.0075011626 0.0048809634 0.0008652238 0.024309115 0.003347312 0.0014937771
0.032216765 0.099343285 0.003270976 3.668833e-06 0.0001418019 0.021284662 0.0008150976 0.00568036
0.008520517 0.0056749643 0.002640924 0.007953473 0.04708832 0.026559986 0.07916864 0.0024755357
0.0021924789 0.05070577 0.015921513 0.007244232 0.0047132554 0.0057585463 0.009536753 0.031102264
0.016863368 0.022208128 0.030750623 0.0074316766 4.4389017e-05 0.06962226 0.002302098 0.012729995
0.00023451717 0.00010051039 0.028280852 0.013740431 0.008446209 0.011133461 0.002367239 0.08630706
0.028130727 0.012581728 0.00016363249 0.01341136 0.014975034 0.0015515923 0.002526586 0.03417372
0.0040734746 0.0019728171 0.0048290454 0.013202217 0.018474203 0.0028364414 0.004306877 0.0016838002
0.0066610444 0.009058525 0.097417265 0.011490173 0.007704131 0.066739105 0.010743241 0.032239422
0.006589791 0.00078072475 0.0018664431 0.0036725732 0.0026798814 0.012823313 0.0030531094 0.0084954435
0.021305053 0.0028485525 0.0021761379 0.0111753205 0.06498571 0.006283585 0.0011238683 0.017626848
0.0076208618 8.289604e-05 0.00014723769 0.02068096 0.15455286 0.01638989 0.007609705 0.0149395885
0.010996863 0.0015359647 0.0066227107 0.033144098 1.7205813e-05 0.0016863508 0.024884276 0.03008969
0.00045892963 0.038229823 0.048739552 0.049592275 0.0063710324 0.015785487 0.016260063 0.0058609843
0.07341235 0.048074264 0.035492733 0.12684023 0.004868385 0.061844062 0.034662694 0.039915316
0.00011046175 0.0007006474 0.006096132 0.05229302 0.009571551 0.030462991 0.0013584839 0.03128357

fc2.weight f4 [128, 132]
00000000: e691 01b9 e804 85bd bca7 193c 131e ffbc
00000010: 8871 0d3a 273d 9ebc f3b0 9c3c dc75 1abd
00000020: 7c27 103d 0527 813c ddd8 dabc d67f edbc
00000030: 274c 2db8 07f3 19bd 88d9 15bb eb2e 583d
00000040: e221 8d3c 9ba0 eebc 271f 253c 8096 a0bd
00000050: 4eb3 5a3a 77c3 6c3c 09f8 2dbd ddca 9bbd
00000060: 0872 a03b 6ead 283d 63a7 72bc 307f 43bc
00000070: ba9e 023d e428 dbbd 5270 c2bc ddbe 1eba
00000080: 8cd1 2dbd 6e2d 393d 63f1 54bd 0d19 823c
00000090: d221 7dbc 6622 13bb 0af4 b0bc a1fe 4fbd
000000a0: 1659 adba 038d fb3a 1555 6abd 96b8 b73c
000000b0: 6e15 c03c ba99 56bd 3e4d 46bd d850 d1bc
000000c0: d6ea 923c ce16 893b 7ef6 423c a76b ea3c
000000d0: 8393 9a3c 62d4 1bbd 62c3 87bd 74e6 ba3c
000000e0: 32a9 bfbc f1f7 31bd 30da 2d3c 321a 2ebd
000000f0: 13b6 2e3a f2b0 9a3d 25b9 e7ba 8cdb 88bd
00000100: 73b4 9d3c 4809 6dbd d736 2b3d 0cb7 e63b
00000110: 2fa1 4dbd 732e bbbc d6b5 e3bc 0642 ad3c
00000120: 000a 073d 53ea 50bd 6305 48bc 4c6f cc3b
00000130: 875e 18bd b5b7 e13b a71e cbbc 1550 75bd
00000140: 865a 3d3d d7c8 febc 0236 b7bd 9c30 78bb
00000150: 70a2 273d fd56 8f3c 5024 15bd eef4 8d3b
00000160: 8ca9 18bc fcb7 3abd 4270 8c3a bfc2 a2bd
00000170: e2de 423c eae3 1dbd 56f6 e5bc d474 eabc
00000180: a8b5 3e3d 1b52 3abd 7210 0cbd bac4 4ebd
00000190: 1526 8f3c 43de bbbd 537d 653d c60f de3c
000001a0: a610 a439 4127 24bb 83c8 cd3c ee22 03bd
000001b0: 38d9 02bc 560d 783c 38e4 25bb 4391 44bd
000001c0: 0fba 553d 7a79 0bbd 9ed9 673d 02ef 32bd
000001d0: 1f18 53bd ad26 e93a f79a aabb b19e b4bc
000001e0: 8fb3 1cbd fc56 893c 1932 4d3d 8e9e 92bb
000001f0: 77fb e0bc dae2 a1bc fab4 93bc 1a53 a2bd
00000200: d29f 7c3c b89e c33b ea83 02bc 3830 b33b
00000210: 46ba 3a39 5c94 8fbc 41c5 68bc da1d 32bc
00000220: a182 ac3a 3f1b b4bc 4558 3ebd c672 123c
00000230: 7e6d 0bbd 4bb7 22bc 9456 f73c 8645 b339
00000240: e2b5 4538 4428 18bc 0edf 8cbc 5c49 c83b
00000250: 6587 203d 99fa e03c 58bc 1fbb ffcc 063d
00000260: 39ba 03ba b537 733d c515 9dbb 7d47 c73c
00000270: 9819 ff3c 8470 70bb 6503 563b 4576 ecbc
00000280: dc36 8a3d 912f b33c 8441 123c c90d e03b
00000290: 4615 603d 7308 9b3c a42c e3bb f818 e23c
000002a0: 96c9 12bd b471 883d c0e5 1d3b 910e f3bc
000002b0: fc10 e83a 18d6 4dbc 0f45 05bd c748 a33c
000002c0: 872c 32bd 202d f8bc f177 063c fb27 8cbc
000002d0: 72f1 ecba b85b 30bc 8005 173d 21a6 59bc
000002e0: e989 a33c 28cd a0bc 1bfd 27bd d5f4 83bb
000002f0: 29fe bf3a 5afa a93a ac41 a43c 35fa 853c
00000300: 38c3 a9bd 897f 2dbc 4080 a93c add6 093b
00000310: 4d27 073c 564b 95bb c0f7 55bc 0b63 b73b
00000320: 23db 913c 42d8 ecbc eacb 4a3a 1b1a 70ba
00000330: b26f 133b 1095 d1bc 81e2 2dbd bd2d 3abd
00000340: 9704 5dbc 4e67 d2bc 004b 5abd e570 a73b
00000350: 22e8 c3bb cd7a 193c 1bac 4f3d a29a d3bb
00000360: 5f0e 56bc c209 b63c c576 05bd 554f ab3c
00000370: 3ace 93bc d603 3c3c 6cf2 fcb9 6026 fb3b
00000380: 3853 2b3c 30f1 45bd 4180 793c 738a f8bc
00000390: 4161 88bc 3d02 073c 44fa 33bd 841d febc
000003a0: 9ae9 b23c 7880 c3bb 5d1f 1a3d 9f11 9cbc
000003b0: cf91 b7b8 53e9 103d 97c0 8e3c 3522 5bbd
000003c0: 8978 2b3d f22a 163d 3fe1 d6bc 24eb 34bd
000003d0: 00aa 47bc 5800 24bd 844a 8abb cf3f 003d
000003e0: ab10 fabb c2ec ca3c 3405 bb3c 1c62 77bb
000003f0: 2285 023d 4082 c7bc a4fd 643c 653d 67ba
-0.0001235675 -0.064950764 0.00937837 -0.03114227 0.00053956406 -0.01931627 0.019127345 -0.037710056
0.035193905 0.015765676 -0.026714737 -0.028991621 -4.1317337e-05 -0.037585285 -0.0022865254 0.05277912
0.01722807 -0.029129317 0.010078228 -0.078412056 0.00083427585 0.014450899 -0.042472873 -0.076070525
0.004896406 0.04118102 -0.014810416 -0.011932179 0.031889655 -0.10701159 -0.0237352 -0.00060556625
-0.042436168 0.04520934 -0.051988017 0.015881086 -0.015449958 -0.0022450923 -0.021600742 -0.050779942
-0.0013225402 0.0019191805 -0.057210047 0.022426885 0.023447718 -0.0523927 -0.048413508 -0.025551245
0.017934244 0.0041836267 0.011899589 0.028615786 0.018869167 -0.03804434 -0.06629063 0.022814967
-0.023396108 -0.043449346 0.010611102 -0.04250545 0.00066647044 0.07553281 -0.0017679079 -0.066825
0.019251084 -0.05787018 0.041800346 0.007040864 -0.050202545 -0.022849297 -0.027796667 0.021149646
0.03296852 -0.05100472 -0.012208316 0.0062388536 -0.037199523 0.0068883547 -0.02479489 -0.059890825
0.046228908 -0.031101627 -0.08945848 -0.003787077 0.040926397 0.017497534 -0.036411583 0.0043321764
-0.009317767 -0.045585617 0.0010714608 -0.07947301 0.01189396 -0.038547434 -0.028071564 -0.028620161
0.04655996 -0.045488458 -0.03419537 -0.05048058 0.017474214 -0.091732524 0.05602772 0.02710713
0.00031292922 -0.0025047811 0.025120026 -0.032015733 -0.007986359 0.015139898 -0.002531303 -0.047990095
0.052179392 -0.034051396 0.05660402 -0.043684967 -0.051536676 0.0017788016 -0.0052064615 -0.022048326
-0.038257178 0.01676511 0.050096605 -0.0044744676 -0.027463658 -0.019761492 -0.018030632 -0.079260066
0.0154189635 0.0059698485 -0.007966021 0.0054683946 0.00017807735 -0.017526798 -0.014207185 -0.010871375
0.0013161489 -0.021985648 -0.0464709 0.008938497 -0.034039967 -0.009931396 0.03019265 0.0003419334
4.713785e-05 -0.009286944 -0.017196205 0.0061122607 0.039191622 0.027463244 -0.0024373736 0.032910343
-0.0005025003 0.0593793 -0.004793855 0.02432608 0.031140134 -0.0036688158 0.0032655832 -0.028864989
0.06748745 0.021873267 0.008926753 0.006837581 0.054707788 0.018924927 -0.006932812 0.027599797
-0.03583678 0.06662312 0.002409324 -0.029670032 0.0017705257 -0.012563251 -0.032536563 0.019932164
-0.043499496 -0.030294955 0.008207307 -0.017108908 -0.0018077327 -0.010764055 0.03687048 -0.013284237
0.019963222 -0.019629076 -0.041012865 -0.004026989 0.0014647889 0.0012968287 0.020050846 0.01635466
-0.08289188 -0.010589489 0.020691037 0.0021032498 0.008249116 -0.0045561 -0.0130595565 0.0055965236
0.017804688 -0.028911714 0.0007736074 -0.00091591635 0.0022496996 -0.025583774 -0.04245234 -0.045453776
-0.013489864 -0.025684025 -0.05329418 0.0051098936 -0.0059786 0.009367657 0.050701242 -0.0064576427
-0.01306495 0.02222145 -0.03258397 0.020911852 -0.018042672 0.011475524 -0.00048245804 0.0076644868
0.010456853 -0.048325717 0.015228332 -0.030339455 -0.016647937 0.00824028 -0.043939844 -0.031019934
0.021839906 -0.0059662424 0.037627567 -0.019051371 -8.753279e-05 0.035378765 0.017425818 -0.05349942
0.041863 0.03666205 -0.026230453 -0.04416956 -0.012186527 -0.04003939 -0.0042203087 0.031310853
-0.0076313815 0.024771098 0.02282963 -0.0037747687 0.031865247 -0.0243541 0.013976488 -0.0008821099

fc2.bias f4 [128]
00000000: a886 443d 5aae 923b dce9 25bd 3258 1bbc
00000010: 97db 07be eb65 a7bd f27e 4a3d bf7f 773c
00000020: 6079 bb3d 87f7 853c f8bc 1dbd b30b 5cbc
00000030: ea00 53bd 1a17 81bc 38ee 24bd 9096 443d
00000040: e8b8 a6bc 1006 acbd e0c0 9f3a 8781 1dbd
00000050: 94a5 083d d90c 0dbd 9982 523d 7e39 cabc
00000060: 6229 333d cd52 1fbd 3309 8cbd 458c 34bd
00000070: 2946 81bd d3ba 41bd 2c68 08bd 99f1 74bd
00000080: f84d 4abd 87fe 583c 8954 40bd fa62 d13c
00000090: 9f1c a4bc 00c2 47bc bb0e 4abc a6db c43c
000000a0: 9070 8e3d 0b8f 32bd 08f1 3dbd ff69 71bd
000000b0: 1c04 84bc b3b0 ccbd 0aea a0bd 0784 41bd
000000c0: 80f1 9fbd 9f64 50bd 8096 17bc 0ef6 98bc
000000d0: 1e9a 833c 38b6 c4bc 75cf f1bb 2ac9 db3d
000000e0: b020 5d3c 9efa 8bbb 4143 f4bc 8811 c23d
000000f0: 9f1f 453c ecb0 70bd df93 57bd 442f 2abc
00000100: c729 973d 093b 8e3d 55ae ebbc 08ae 143d
00000110: 5a50 75bd 4f75 84bd 8bab 35bd 494b 10bc
00000120: e002 8ebd 3080 b6bd a682 df3d b1ab 8ebc
00000130: b374 75bd cb7c 18bd 67c4 1ebd 3c4d 9ebd
00000140: 8804 ad3b df2c aa3d 20fd 8cbc 6bfb a1bd
00000150: 46db ddbc 9423 f0bc 2b9e 9bbd d0ca 46bd
00000160: 7ffe 803d b2f9 32bd 2c19 da3d 4d32 95bc
00000170: e4e2 10bd 925e aebd f4cd abbd 5713 a3bd
00000180: 065a 48bd 2c46 febb 6018 b0bd 5f04 44bd
00000190: 0319 d1bd 49ed 27bd f1fe 80bd f76d 9bbc
000001a0: 5285 cabd eb5f 75bd 36ca aebd 9b44 84bb
000001b0: 7fd5 253c 35a1 3dbd dc57 473a 5a3b ba3d
000001c0: 0cc4 823c 29e4 d03d dcd2 513b e8ae 50bd
000001d0: d8bd d93c a6ad cf3b 01b6 02bd c584 9fbd
000001e0: 8701 bcbc 0075 84bd 39f0 8bbd 2752 f93c
000001f0: 8e04 943d 56ca 8bbd 8c69 abbd 8988 d03c
0.04797998 0.0044763507 -0.04050623 -0.009481477 -0.1326736 -0.08173736 0.04943747 0.015106141
0.0915401 0.016353382 -0.038510293 -0.013430524 -0.051514544 -0.015758086 -0.040266246 0.04799515
-0.020351842 -0.08399594 0.0012188219 -0.038453605 0.033361033 -0.03443608 0.05139408 -0.024685618
0.043740638 -0.038897324 -0.06837692 -0.044079084 -0.0631221 -0.04729731 -0.03330247 -0.059800718
-0.049390763 0.013244278 -0.04695562 0.025559891 -0.020033179 -0.012192249 -0.012332614 0.024030518
0.06955063 -0.043593448 -0.046372443 -0.058938976 -0.01611524 -0.0999464 -0.078571394 -0.04724505
-0.07809734 -0.05087721 -0.009252191 -0.018672016 0.0160647 -0.02401267 -0.007379467 0.107317284
0.013496563 -0.0042718193 -0.029817225 0.09476 0.012031465 -0.058762476 -0.052631255 -0.010387246
0.07381015 0.06944854 -0.028769651 0.03629878 -0.059891082 -0.06467687 -0.04435305 -0.008807012
-0.06934142 -0.089111686 0.10913591 -0.017415853 -0.059925746 -0.037228387 -0.038761523 -0.07729575
0.005280081 0.0830934 -0.017210543 -0.07909282 -0.027082097 -0.02931384 -0.075985275 -0.04853326
0.06298541 -0.04369516 0.106493324 -0.018212462 -0.03537263 -0.085141316 -0.08388892 -0.07962673
-0.048913978 -0.00775983 -0.08598399 -0.04785573 -0.10209849 -0.040997777 -0.06298626 -0.018973334
-0.0988871 -0.059905928 -0.085346624 -0.0040364987 0.010121702 -0.046296317 0.00076043396 0.09093352
0.015962623 0.10199768 0.003201655 -0.050948054 0.026579782 0.006337839 -0.031911854 -0.07788996
-0.022949947 -0.064676285 -0.06832928 0.030434681 0.07227431 -0.06825702 -0.08369741 0.02545573

bn3.weight f4 [128]
00000000: 40cb 963e a0a6 163d cfad 0a3f 992f 2e3f
00000010: 7864 a13d 08da 9b3d 5df2 653f 109e 043f
00000020: 7440 263e 3889 7f3f 6479 6e3f ba94 9c3e
00000030: c0f1 063f f478 683e f7f6 263f 27a9 463f
00000040: 560b 5b3f 02e5 743f 6549 133f c0fa 063e
00000050: c09f ae3c 137b 193f c786 3a3f 384e 4f3e
00000060: e295 083f f0dc 833d 83dd 2a3f 4a5a 2a3f
00000070: 009e 3d3c d801 bc3e b0b0 9f3d bcac 1c3e
00000080: a8bb 493e 36ff 543f dcc1 8a3e ae97 f03e
00000090: b0cb 773f f0c7 5d3d 4920 403f 4224 e73e
000000a0: 715b 033f da8c 5a3f 0091 ee3c 9de4 313f
000000b0: 5c25 403f c267 d33e b1fc 103f 6835 5a3f
000000c0: d4b3 273e b660 6b3f b0ae 1e3e 7cbb 423f
000000d0: 9270 673f ce19 293f 1038 933d e8f3 7e3f
000000e0: 8ab2 1c3f b231 b53e 46fd 503f 9c74 573f
000000f0: 355c 293f e06e d83d 900d 173f ce2d 883e
00000100: 54a1 5e3e 565c 763f f4a0 623e e0b7 143e
00000110: a4a5 ae3e 8050 7e3f 9047 aa3e 884b e13d
00000120: 0875 6a3e ec3a 573e f6af 313f 09bc 373f
00000130: 234d 473f 4d3f 043f 502b bc3d e866 263e
00000140: 5cd6 3e3f c09a 223d 9547 183f 0070 293e
00000150: a68d e23e 90c3 ac3e 22dd 483f ba63 103f
00000160: 60a1 063e cc5c 303e 947a eb3e f4b5 363f
00000170: da70 be3e 1847 953e 2878 983d e417 233f
00000180: a94e 583f 746b 003f 48da 053f 0863 113e
00000190: dcf9 553e 90e7 9f3d b0ad f13e 4857 d13d
000001a0: a80d 7c3e 9a72 1f3f 4829 2d3e 2524 453f
000001b0: 2a78 633f fe5e 313f cfa4 443f 44c2 383e
000001c0: 6861 373f 8f34 123f e209 d73e e037 e33e
000001d0: 00e2 663e 6996 0c3f 00be 0b3d b875 393e
000001e0: 774f 253f d67e 1b3f 46e5 ec3e c031 943c
000001f0: f461 233e 0062 7d3d 20f1 773f 346b 063e
0.29451942 0.03678 0.5417146 0.6804138 0.07880491 0.076099455 0.8982294 0.51803684
0.16235524 0.99818754 0.9315398 0.3058222 0.5271263 0.2270239 0.6522059 0.77601856
0.8556417 0.9566194 0.57533866 0.13181591 0.02131641 0.5995342 0.72861904 0.20244682
0.53353703 0.06438625 0.6674425 0.6654402 0.011573315 0.36720157 0.07797372 0.15300268
0.19700491 0.8320192 0.27101028 0.46990722 0.9679518 0.054145753 0.75049263 0.4514485
0.51311404 0.8537117 0.029121876 0.6948946 0.75057006 0.41290098 0.56635576 0.8523774
0.16377193 0.91944444 0.15496325 0.7606733 0.90406144 0.66055 0.071884274 0.9959092
0.6120993 0.35389477 0.81636465 0.84162307 0.6615632 0.10568023 0.5900507 0.26597446
0.2174123 0.96234643 0.22131711 0.14523268 0.3411075 0.99341583 0.33257723 0.110007346
0.22896206 0.2101857 0.6940912 0.71771294 0.77852076 0.5165909 0.09187949 0.16250193
0.74545836 0.039698362 0.59484226 0.16546631 0.44248694 0.33742952 0.7846242 0.5640217
0.13147497 0.17222899 0.45991957 0.7137139 0.37195474 0.29155803 0.07444793 0.6370833
0.84495026 0.5016396 0.52286196 0.14197934 0.20896095 0.07807839 0.47202826 0.10221726
0.24614584 0.62284243 0.16910279 0.7700828 0.8885523 0.6928557 0.7681398 0.18042856
0.71633005 0.5711145 0.41999727 0.44378567 0.2254715 0.5491701 0.034116745 0.18111312
0.6457438 0.6074041 0.46268672 0.018090129 0.15955335 0.06186104 0.968523 0.13126832

bn3.bias f4 [128]
00000000: 0000 0000 0000 0000 0000 0000 0000 0000
00000010: 0000 0000 0000 0000 0000 0000 0000 0000
00000020: 0000 0000 0000 0000 0000 0000 0000 0000
00000030: 0000 0000 0000 0000 0000 0000 0000 0000
00000040: 0000 0000 0000 0000 0000 0000 0000 0000
00000050: 0000 0000 0000 0000 0000 0000 0000 0000
00000060: 0000 0000 0000 0000 0000 0000 0000 0000
00000070: 0000 0000 0000 0000 0000 0000 0000 0000
00000080: 0000 0000 0000 0000 0000 0000 0000 0000
00000090: 0000 0000 0000 0000 0000 0000 0000 0000
000000a0: 0000 0000 0000 0000 0000 0000 0000 0000
000000b0: 0000 0000 0000 0000 0000 0000 0000 0000
000000c0: 0000 0000 0000 0000 0000 0000 0000 0000
000000d0: 0000 0000 0000 0000 0000 0000 0000 0000
000000e0: 0000 0000 0000 0000 0000 0000 0000 0000
000000f0: 0000 0000 0000 0000 0000 0000 0000 0000
00000100: 0000 0000 0000 0000 0000 0000 0000 0000
00000110: 0000 0000 0000 0000 0000 0000 0000 0000
00000120: 0000 0000 0000 0000 0000 0000 0000 0000
00000130: 0000 0000 0000 0000 0000 0000 0000 0000
00000140: 0000 0000 0000 0000 0000 0000 0000 0000
00000150: 0000 0000 0000 0000 0000 0000 0000 0000
00000160: 0000 0000 0000 0000 0000 0000 0000 0000
00000170: 0000 0000 0000 0000 0000 0000 0000 0000
00000180: 0000 0000 0000 0000 0000 0000 0000 0000
00000190: 0000 0000 0000 0000 0000 0000 0000 0000
000001a0: 0000 0000 0000 0000 0000 0000 0000 0000
000001b0: 0000 0000 0000 0000 0000 0000 0000 0000
000001c0: 0000 0000 0000 0000 0000 0000 0000 0000
000001d0: 0000 0000 0000 0000 0000 0000 0000 0000
000001e0: 0000 0000 0000 0000 0000 0000 0000 0000
000001f0: 0000 0000 0000 0000 0000 0000 0000 0000
0.0 0.0 0.0 0.0 0.0 0.0 0.0 0.0
0.0 0.0 0.0 0.0 0.0 0.0 0.0 0.0
0.0 0.0 0.0 0.0 0.0 0.0 0.0 0.0
0.0 0.0 0.0 0.0 0.0 0.0 0.0 0.0
0.0 0.0 0.0 0.0 0.0 0.0 0.0 0.0
0.0 0.0 0.0 0.0 0.0 0.0 0.0 0.0
0.0 0.0 0.0 0.0 0.0 0.0 0.0 0.0
0.0 0.0 0.0 0.0 0.0 0.0 0.0 0.0
0.0 0.0 0.0 0.0 0.0 0.0 0.0 0.0
0.0 0.0 0.0 0.0 0.0 0.0 0.0 0.0
0.0 0.0 0.0 0.0 0.0 0.0 0.0 0.0
0.0 0.0 0.0 0.0 0.0 0.0 0.0 0.0
0.0 0.0 0.0 0.0 0.0 0.0 0.0 0.0
0.0 0.0 0.0 0.0 0.0 0.0 0.0 0.0
0.0 0.0 0.0 0.0 0.0 0.0 0.0 0.0
0.0 0.0 0.0 0.0 0.0 0.0 0.0 0.0

bn3.running_mean f4 [128]
00000000: 0000 0000 0000 0000 0000 0000 0000 0000
00000010: 0000 0000 0000 0000 0000 0000 0000 0000
00000020: 0000 0000 0000 0000 0000 0000 0000 0000
00000030: 0000 0000 0000 0000 0000 0000 0000 0000
00000040: 0000 0000 0000 0000 0000 0000 0000 0000
00000050: 0000 0000 0000 0000 0000 0000 0000 0000
00000060: 0000 0000 0000 0000 0000 0000 0000 0000
00000070: 0000 0000 0000 0000 0000 0000 0000 0000
00000080: 0000 0000 0000 0000 0000 0000 0000 0000
00000090: 0000 0000 0000 0000 0000 0000 0000 0000
000000a0: 0000 0000 0000 0000 0000 0000 0000 0000
000000b0: 0000 0000 0000 0000 0000 0000 0000 0000
000000c0: 0000 0000 0000 0000 0000 0000 0000 0000
000000d0: 0000 0000 0000 0000 0000 0000 0000 0000
000000e0: 0000 0000 0000 0000 0000 0000 0000 0000
000000f0: 0000 0000 0000 0000 0000 0000 0000 0000
00000100: 0000 0000 0000 0000 0000 0000 0000 0000
00000110: 0000 0000 0000 0000 0000 0000 0000 0000
00000120: 0000 0000 0000 0000 0000 0000 0000 0000
00000130: 0000 0000 0000 0000 0000 0000 0000 0000
00000140: 0000 0000 0000 0000 0000 0000 0000 0000
00000150: 0000 0000 0000 0000 0000 0000 0000 0000
00000160: 0000 0000 0000 0000 0000 0000 0000 0000
00000170: 0000 0000 0000 0000 0000 0000 0000 0000
00000180: 0000 0000 0000 0000 0000 0000 0000 0000
00000190: 0000 0000 0000 0000 0000 0000 0000 0000
000001a0: 0000 0000 0000 0000 0000 0000 0000 0000
000001b0: 0000 0000 0000 0000 0000 0000 0000 0000
000001c0: 0000 0000 0000 0000 0000 0000 0000 0000
000001d0: 0000 0000 0000 0000 0000 0000 0000 0000
000001e0: 0000 0000 0000 0000 0000 0000 0000 0000
000001f0: 0000 0000 0000 0000 0000 0000 0000 0000
0.0 0.0 0.0 0.0 0.0 0.0 0.0 0.0
0.0 0.0 0.0 0.0 0.0 0.0 0.0 0.0
0.0 0.0 0.0 0.0 0.0 0.0 0.0 0.0
0.0 0.0 0.0 0.0 0.0 0.0 0.0 0.0
0.0 0.0 0.0 0.0 0.0 0.0 0.0 0.0
0.0 0.0 0.0 0.0 0.0 0.0 0.0 0.0
0.0 0.0 0.0 0.0 0.0 0.0 0.0 0.0
0.0 0.0 0.0 0.0 0.0 0.0 0.0 0.0
0.0 0.0 0.0 0.0 0.0 0.0 0.0 0.0
0.0 0.0 0.0 0.0 0.0 0.0 0.0 0.0
0.0 0.0 0.0 0.0 0.0 0.0 0.0 0.0
0.0 0.0 0.0 0.0 0.0 0.0 0.0 0.0
0.0 0.0 0.0 0.0 0.0 0.0 0.0 0.0
0.0 0.0 0.0 0.0 0.0 0.0 0.0 0.0
0.0 0.0 0.0 0.0 0.0 0.0 0.0 0.0
0.0 0.0 0.0 0.0 0.0 0.0 0.0 0.0

bn3.running_var f4 [128]
00000000: 0000 803f 0000 803f 0000 803f 0000 803f
00000010: 0000 803f 0000 803f 0000 803f 0000 803f
00000020: 0000 803f 0000 803f 0000 803f 0000 803f
00000030: 0000 803f 0000 803f 0000 803f 0000 803f
00000040: 0000 803f 0000 803f 0000 803f 0000 803f
00000050: 0000 803f 0000 803f 0000 803f 0000 803f
00000060: 0000 803f 0000 803f 0000 803f 0000 803f
00000070: 0000 803f 0000 803f 0000 803f 0000 803f
00000080: 0000 803f 0000 803f 0000 803f 0000 803f
00000090: 0000 803f 0000 803f 0000 803f 0000 803f
000000a0: 0000 803f 0000 803f 0000 803f 0000 803f
000000b0: 0000 803f 0000 803f 0000 803f 0000 803f
000000c0: 0000 803f 0000 803f 0000 803f 0000 803f
000000d0: 0000 803f 0000 803f 0000 803f 0000 803f
000000e0: 0000 803f 0000 803f 0000 803f 0000 803f
000000f0: 0000 803f 0000 803f 0000 803f 0000 803f
00000100: 0000 803f 0000 803f 0000 803f 0000 803f
00000110: 0000 803f 0000 803f 0000 803f 0000 803f
00000120: 0000 803f 0000 803f 0000 803f 0000 803f
00000130: 0000 803f 0000 803f 0000 803f 0000 803f
00000140: 0000 803f 0000 803f 0000 803f 0000 803f
00000150: 0000 803f 0000 803f 0000 803f 0000 803f
00000160: 0000 803f 0000 803f 0000 803f 0000 803f
00000170: 0000 803f 0000 803f 0000 803f 0000 803f
00000180: 0000 803f 0000 803f 0000 803f 0000 803f
00000190: 0000 803f 0000 803f 0000 803f 0000 803f
000001a0: 0000 803f 0000 803f 0000 803f 0000 803f
000001b0: 0000 803f 0000 803f 0000 803f 0000 803f
000001c0: 0000 803f 0000 803f 0000 803f 0000 803f
000001d0: 0000 803f 0000 803f 0000 803f 0000 803f
000001e0: 0000 803f 0000 803f 0000 803f 0000 803f
000001f0: 0000 803f 0000 803f 0000 803f 0000 803f
1.0 1.0 1.0 1.0 1.0 1.0 1.0 1.0
1.0 1.0 1.0 1.0 1.0 1.0 1.0 1.0
1.0 1.0 1.0 1.0 1.0 1.0 1.0 1.0
1.0 1.0 1.0 1.0 1.0 1.0 1.0 1.0
1.0 1.0 1.0 1.0 1.0 1.0 1.0 1.0
1.0 1.0 1.0 1.0 1.0 1.0 1.0 1.0
1.0 1.0 1.0 1.0 1.0 1.0 1.0 1.0
1.0 1.0 1.0 1.0 1.0 1.0 1.0 1.0
1.0 1.0 1.0 1.0 1.0 1.0 1.0 1.0
1.0 1.0 1.0 1.0 1.0 1.0 1.0 1.0
1.0 1.0 1.0 1.0 1.0 1.0 1.0 1.0
1.0 1.0 1.0 1.0 1.0 1.0 1.0 1.0
1.0 1.0 1.0 1.0 1.0 1.0 1.0 1.0
1.0 1.0 1.0 1.0 1.0 1.0 1.0 1.0
1.0 1.0 1.0 1.0 1.0 1.0 1.0 1.0
1.0 1.0 1.0 1.0 1.0 1.0 1.0 1.0

fc3.weight f4 [1, 128]
00000000: ca00 a13d d80a 0d3d 9f25 10bd 57e9 373d
00000010: c226 12be 2dbc f7bd aed0 d43c 0899 493d
00000020: 183d 233d d895 2f3d 3bc3 a9bd 27a3 293d
00000030: ab46 03be 148a cb3c 6848 76bd 0358 763d
00000040: 3301 8c3d 748f 3abe c306 a63d 8a58 88bd
00000050: f8be 4a3d f191 94bd 328a 663d 266b 98bd
00000060: 5185 753d f648 553d 4cc4 44be 96d9 123d
00000070: 69ae b4bd f193 3cbd 3a4a 8fbd 26c7 adbd
00000080: f5d6 4cbd 4743 fd3d da7a 1ebe 1c67 453d
00000090: 0c64 813d 5875 0abd ceaa b83d 199d b83d
000000a0: 00ae 4d3d 4ffa 8abd 8a85 393d 0af1 9ebd
000000b0: a309 4d3e 040e 60be 6203 45bd 075d 90bd
000000c0: 37ef 7dbd 00cd a3bd cf1e 073d cfd6 4f3d
000000d0: 7394 223d cd0e e6bc 0d43 02bd 2b83 513d
000000e0: b33d ad3e 23e0 8abd c357 463e 7962 583d
000000f0: fa91 3f3d 1751 543d f348 9a3e 4faf 09bd
00000100: 3dd5 8c3d fee6 8b3d d0de bfbd a011 553d
00000110: 9405 03be 2b5c 2cbd 0ea6 443d ad2e 143d
00000120: 58eb b8bd 7cb9 abbe ba89 3e3d b7ba 113e
00000130: bd01 3bbd c2a6 2fbd 867b 613d b7bd 85bd
00000140: f209 3ebd 7588 283d b958 343d bdb4 2cbe
00000150: 1655 1ebd e147 3ebd 9dff 98bd cbab 4e3d
00000160: 55e9 453d 15bf 4ebd 240e 613d c1d9 aebd
00000170: c679 d83d 2d1e 69be 55c6 94be 0c10 eabd
00000180: 655d 46bd 7d39 eebc 570b e2bd 790e 2dbd
00000190: 14f9 9dbd d84a 013d b45c 54bd ed47 f2bc
000001a0: 754a abbd 8bfb fdbd 9202 58be 9f61 493d
000001b0: 2089 763d ec50 dcbd 29e2 963d 32d6 a03d
000001c0: effe 923d f2e7 413d e956 cb3d 7d71 7fbd
000001d0: c3b5 4b3e c759 103d d17d 843d fadb f8bd
000001e0: d3d6 983d 6905 51be ac7e 36be fcb3 7e3d
000001f0: c8dc 5b3d 615e a2bd a061 b1bd 29a7 1e3d
0.078614786 0.03443417 -0.03519213 0.044900265 -0.14272597 -0.120964386 0.025978412 0.049218208
0.039853185 0.04286751 -0.082891904 0.04141536 -0.12819926 0.024846114 -0.060127646 0.06014253
0.06836166 -0.18218786 0.081067584 -0.066575125 0.04949853 -0.072543986 0.056284137 -0.07442312
0.059941594 0.052071534 -0.19215506 0.035852037 -0.088223286 -0.046039525 -0.069965795 -0.0848525
-0.050009686 0.12366348 -0.15476552 0.048194036 0.063179106 -0.033803314 0.090169534 0.09014339
0.050214767 -0.06786024 0.04529337 -0.07760818 0.20023207 -0.21880347 -0.04809893 -0.070489936
-0.06199571 -0.07998085 0.032988366 0.050741967 0.039692353 -0.02808323 -0.031802226 0.051150482
0.33836135 -0.06781032 0.19369416 0.052828286 0.046770073 0.051835146 0.3013378 -0.033614453
0.068766095 0.06831168 -0.0936867 0.05201876 -0.12795097 -0.042080086 0.048009925 0.036177326
-0.09029263 -0.3353995 0.046518065 0.14231382 -0.045655955 -0.042883642 0.05504944 -0.06530326
-0.046396203 0.04114576 0.044029925 -0.16865821 -0.038655363 -0.046455268 -0.07470629 0.050456803
0.048318226 -0.0504752 0.054945126 -0.08537627 0.105701014 -0.22765417 -0.29057565 -0.11428842
-0.04842891 -0.029080147 -0.11037319 -0.04225013 -0.077135235 0.031565517 -0.05184622 -0.029575313
-0.08363811 -0.12401494 -0.2109473 0.049165364 0.060189366 -0.10757622 0.073673554 0.078533545
0.07177531 0.04734034 0.09928686 -0.06236409 0.19893555 0.03524187 0.0646931 -0.12151332
0.074628495 -0.2041222 -0.17821759 0.062183365 0.05367735 -0.079281576 -0.086611986 0.038733635
