mode_weights/agent13_actor_local.pth (torch_old, 93021 bytes, 18 tensors)

bn1.weight f4 [33]
0.51855224 0.57114446 0.34475785 0.012882603 0.0439271 0.04829363 0.052031476 0.23822066
0.09210771 0.15711316 0.17837024 0.16823822 0.09427816 0.53328323 0.46660396 0.70560294
0.06997559 0.07334242 0.016554805 0.048273806 0.24146941 0.31725827 0.12926055 0.6581364
0.31236413 0.4608125 1.0251348 0.03616482 0.5657141 0.37341738 0.30510002 0.9320004
0.33555493
00000000: d7bf 043f 8636 123f 1a84 b03e 8e11 533c
00000010: e7ec 333d 8bcf 453d f51e 553d 1ef0 733e
00000020: f8a2 bc3d 46e2 203e b0a6 363e a446 2c3e
00000030: e814 c13d 4085 083f b7e6 ee3e 65a2 343f
00000040: 5d4f 8f3d 8d34 963d f19d 873c c1ba 453d
00000050: c243 773e ad6f a23e e15c 043e a17b 283f
00000060: 31ee 9f3e 9eef eb3e 9e37 833f 9021 143d
00000070: a4d2 103f 9030 bf3e 1236 9c3e 9497 6e3f
00000080: dbcd ab3e

bn1.bias f4 [33]
0.0143042095 -0.1411854 -0.08536312 0.06529137 -0.031795662 0.092679575 0.10399249 -0.10682798
0.14436042 -0.07333845 -0.14348137 -0.13105455 0.052743133 -0.113760285 -0.0364681 0.022359025
-0.052088886 0.0548629 0.097704984 0.02191377 -0.111343645 0.035783958 -0.08637566 -0.031734645
-0.0847147 -0.043518703 0.01808823 -0.22457723 -0.033162188 0.18237382 -0.22170694 -0.2174423
0.03448193
00000000: 345c 6a3c e892 10be dcd2 aebd 7bb7 853d
00000010: 2b3c 02bd cace bd3d 04fa d43d a1c8 dabd
00000020: 38d3 133e 7832 96bd c8ec 12be 2a33 06be
00000030: 2f09 583d 27fb e8bd 935f 15bd 462a b73c
00000040: 285b 55bd ecb7 603d 8d19 c83d 8284 b33c
00000050: 2308 e4bd 3392 123d b9e5 b0bd 30fc 01bd
00000060: e77e adbd ab40 32bd c52d 943c 93f7 65be
00000070: 13d5 07bd 34c0 3a3e 2507 63be 32a9 5ebe
00000080: ed3c 0d3d

bn1.running_mean f4 [33]
0.6848886 -2.4837563 -0.38858753 0.84668714 0.079506315 0.0114082685 -0.057814363 0.025919812
-0.0048877946 0.0126267355 0.05281147 0.03929589 -0.06758814 0.46796274 -2.5947304 -0.11749882
0.015114553 -0.007981443 -0.008620297 -0.044794943 0.13965885 2.9043765e-06 0.057481952 0.0022071858
0.18227524 -0.11901815 -0.008034223 -0.99999976 0.030915422 0.0 0.99999976 0.0
-0.014278176
00000000: dc54 2f3f ddf5 1ec0 f2f4 c6be 7dc0 583f
00000010: 35d4 a23d bfe9 3a3c c1ce 6cbd c955 d43c
00000020: cb29 a0bb 5ee0 4e3c d750 583d baf4 203d
00000030: a76b 8abd d098 ef3e 1010 26c0 39a3 f0bd
00000040: 08a3 773c 99c4 02bc 253c 0dbc e77a 37bd
00000050: bb02 0f3e cfe8 4236 3272 6b3d 6fa6 103b
00000060: 5ca6 3a3e cabf f3bd f9a1 03bc fcff 7fbf
00000070: 5742 fd3c 0000 0000 fcff 7f3f 0000 0000
00000080: 03ef 69bc

bn1.running_var f4 [33]
4.1182575 0.5473118 4.622463 0.06476338 0.06972037 0.029684527 0.10939745 0.3720751
0.07041468 0.1209199 2.3450873 1.3358593 2.8328958 19.660507 1.6070111 21.15544
0.10995669 0.2686211 0.096842326 0.5234663 2.4518805 0.7332665 0.89580566 8.07822
3.6894157 8.620055 32.394527 6e-45 31.636497 6e-45 6e-45 6e-45
0.34296006
00000000: c4c8 8340 a01c 0c3f 38eb 9340 aaa2 843d
00000010: 8ec9 8e3d f72c f33c c50b e03d a180 be3e
00000020: 9235 903d daa4 f73d e915 1640 70fd aa3f
00000030: 2a4e 3540 b848 9d41 8ab2 cd3f 573e a941
00000040: f930 e13d b488 893e 4555 c63d e301 063f
00000050: 9ceb 1c40 5ab7 3b3f 8553 653f 6440 0141
00000060: 631f 6c40 bfeb 0941 ff93 0142 0400 0000
00000070: 8c17 fd41 0400 0000 0400 0000 0400 0000
00000080: 7698 af3e

fc1.weight f4 [128, 33]
-0.07837328 -0.041102007 0.075808376 -0.006998079 0.0019727387 0.028965373 0.06040698 -0.101163834
0.009423907 -0.05756153 -0.04245362 0.17605887 0.12628117 -0.020391122 0.05176157 -0.06089639
-0.095315 -0.027825434 0.11661553 -0.103402555 -0.09941129 0.024161603 -0.011420669 0.003139702
0.015704887 0.07360096 0.027156485 -0.20846984 0.08094968 0.09479176 -0.21144363 -0.12694208
0.034965314 -0.02289018 0.0022259234 0.14204474 0.01225046 0.045986395 0.015130832 -0.018836873
-0.006529729 -0.041956764 0.07556906 -0.01634086 -0.09991205 0.11048496 0.033818003 -0.13444775
-0.009461836 0.048362464 0.08035094 -0.010216212 0.026197767 0.14043626 0.02684279 -0.09091584
0.09120624 -0.019097125 -0.06377916 -0.07055422 -0.04571894 0.073232636 0.0050602024 0.084358305
-0.026915306 -0.12615766 0.036547624 -0.044908762 -0.26159418 0.004646343 0.09804129 -0.032119945
0.06590876 0.04664957 0.020730127 0.00039865286 -0.018861666 -0.026271885 -0.09368308 -0.010248067
0.04098418 -0.0038999834 -0.03522685 0.041309923 0.13516636 -0.013751835 -0.01462409 -0.013514648
-0.039104186 -0.082721114 0.035066783 0.007170671 -0.040120028 0.011076825 0.05942791 0.0709736
-0.07244465 -0.019330654 0.07801962 0.010521514 0.02040521 -0.019386325 -0.02160959 0.06619404
-0.028973391 -0.03528309 -0.034326587 0.021546636 0.034961153 -0.010504578 0.013441814 0.01322133
-0.086358026 0.07005236 0.11643934 0.008318308 -0.020614412 -0.111485496 -0.043364733 -0.02213339
-0.03019692 0.022484591 -0.026184434 0.1114716 0.030777667 -0.020062499 0.14100556 -0.15946533
-0.07699812 0.12930699 0.15630211 -0.0016835886 0.10119219 -0.025965173 0.1589024 0.11661201
-0.026330523 -0.005859021 0.07892621 0.049783684 0.0026181673 -0.003280704 0.0041303765 0.095140375
0.05343669 -0.11047341 -0.096893795 0.045665037 -0.054053463 -0.070966676 0.04332602 -0.03825353
-0.053250868 0.0013868717 -0.035042923 -0.04408158 -0.03391418 0.114424415 0.029531194 -0.039919738
-0.22305872 0.050505556 -0.0033275315 -0.0077168816 0.14690797 0.051798362 0.008645483 0.20021486
-0.043470316 0.032761388 -0.032631356 -0.043206017 -0.0072314763 0.047333594 -0.001182577 0.046895463
0.015168479 -0.10356927 -0.09337134 -0.03466517 -0.2040873 -0.023604168 -0.037873905 -0.053855915
-0.009592416 0.007285726 0.030170541 0.042823453 0.004530115 -0.019678071 0.047612593 0.051669657
-0.0644082 0.039620236 -0.04110375 0.00925013 -0.04527134 -0.050961852 -0.14074716 0.001788527
-0.046369094 0.10455115 -0.117106155 0.1240666 0.09596623 -0.056508664 0.041040458 -0.050932553
-0.16413069 -0.09593793 0.04332758 -0.0019783834 -0.13851511 0.048305646 -0.05255646 0.046646502
0.11097012 0.07193907 -0.05014415 -0.021859542 0.016146397 -0.047597464 -0.0016490557 0.06416739
0.023604864 -0.009259154 -0.10013854 0.12111485 0.016800424 -0.0813607 0.09718082 -0.00059785525
-0.062771216 -0.07525888 -0.11688887 0.045551356 0.03632625 0.035158332 -0.008676843 -0.03138723
0.013909687 0.06921743 0.021710802 -0.027863847 0.029704878 0.03228824 0.06707029 0.016324796
0.038809206 0.021665089 -0.043021142 -0.13498631 0.12964438 0.03866031 0.052907053 -0.13106862
00000000: 2c82 a0bd 945a 28bd 6c41 9b3d 2450 e5bb
00000010: 1049 013b ca48 ed3c 4f6d 773d fc2e cfbd
00000020: bb66 1a3c a4c5 6bbd d9e3 2dbd c748 343e
00000030: da4f 013e 480b a7bc f103 543d 7e6e 79bd
00000040: 8334 c3bd 2af2 e3bc 1fd4 ee3d b8c4 d3bd
00000050: 2598 cbbd 8eee c53c c21d 3bbc 75c3 4d3b
00000060: 89a7 803c 1abc 963d 4777 de3c 1e79 55be
00000070: f2c8 a53d 2f22 c23d ae84 58be 1bfd 01be
00000080: ca37 0f3d 3084 bbbc cce0 113b 2d74 113e
00000090: 27b6 483c 3b5c 3c3d 4fe7 773c c94f 9abc
000000a0: 56f7 d5bb dbda 2bbd f4c3 9a3d 44dd 85bc
000000b0: b09e ccbd f045 e23d bf84 0a3d acac 09be
000000c0: d105 1bbc b817 463d 098f a43d e661 27bc
000000d0: b39c d63c 86ce 0f3e 69e5 db3c 1532 babd
000000e0: 56ca ba3d 9371 9cbc a69e 82bd bb7e 90bd
000000f0: c943 3bbd fefa 953d 0ed0 a53b 0cc4 ac3d
00000100: 7d7d dcbc 792f 01be f6b2 153d 40f2 37bd
00000110: acef 85be 5a40 983b dfc9 c83d 3490 03bd
00000120: 2cfb 863d 9f13 3f3d 3ad2 a93c 4802 d139
00000130: c883 9abc 2338 d7bc eadc bfbd 82e7 27bc
00000140: 07df 273d dd96 7fbb 084a 10bd 9834 293d
00000150: 0d69 0a3e 604f 61bc e199 6fbc 8b6c 5dbc
00000160: b62b 20bd b069 a9bd 30a2 0f3d f3f7 ea3b
00000170: e654 24bd 927b 353c ae6a 733d 9b5a 913d
00000180: dc5d 94bd 525b 9ebc c0c8 9f3d 6e62 2c3c
00000190: d428 a73c 12d0 9ebc 9806 b1bc be90 873d
000001a0: 9b59 edbc 0085 10bd 099a 0cbd 9282 b03c
000001b0: 6d33 0f3d 651b 2cbc 0e3b 5c3c 479e 583c
000001c0: 7adc b0bd 9d77 8f3d c077 ee3d 8349 083c
000001d0: 8edf a8bc 8252 e4bd 389f 31bd 1551 b5bc
000001e0: 885f f7bc 9b31 b83c bd80 d6bc 394b e43d
000001f0: 7221 fc3c 1c5a a4bc c363 103e e14a 23be
00000200: 31b1 9dbd 0d69 043e a90d 203e dcab dcba
00000210: da3d cf3d eab4 d4bc 50b7 223e 47d2 ee3d
00000220: 1cb3 d7bc 08fd bfbb 11a4 a13d fae9 4b3d
00000230: 8f95 2b3b 1401 57bb 1c58 873b f5d8 c23d
00000240: 6ee0 5a3d e23f e2bd 4170 c6bd 430b 3b3d
00000250: 2a67 5dbd fa56 91bd a076 313d bcaf 1cbd
00000260: 951d 5abd b1c7 b53a 2b89 0fbd e38e 34bd
00000270: 98e9 0abd 5957 ea3d 67eb f13c e182 23bd
00000280: 8169 64be eade 4e3d b712 5abb e5dd fcbb
00000290: 0b6f 163e 852a 543d c9a5 0d3c 2005 4d3e
000002a0: ee0d 32bd ce30 063d 75a8 05bd cbf8 30bd
000002b0: 05f6 ecbb dfe0 413d b300 9bba 7515 403d
000002c0: 3685 783c 201c d4bd 7939 bfbd 11fd 0dbd
000002d0: 43fc 50be 875d c1bc ab21 1bbd 0598 5cbd
000002e0: 8229 1dbc 19bd ee3b 3628 f73c a567 2f3d
000002f0: 5c71 943b e833 a1bc 6c05 433d 90a3 533d
00000300: 72e8 83bd d448 223d 685c 28bd db8d 173c
00000310: 716e 39bd 60bd 50bd 0620 10be 026d ea3a
00000320: 85ed 3dbd ea1e d63d 5ad5 efbd a116 fe3d
00000330: f189 c43d a175 67bd 0a1a 283d a79e 50bd
00000340: e011 28be 1b7b c4bd 4378 313d c4a7 01bb
00000350: e8d6 0dbe 24dc 453d 7145 57bd 6710 3f3d
00000360: 4d44 e33d cb54 933d f463 4dbd c812 b3bc
00000370: 7345 843c 8ff5 42bd 2125 d8ba 316a 833d
00000380: fd5e c13c b5b3 17bc 6f15 cdbd 100b f83d
00000390: 0ba1 893c 70a0 a6bd bd06 c73d 63b9 1cba
000003a0: 328e 80bd 5421 9abd 6f63 efbd 0f94 3a3d
000003b0: d5ca 143d 2f02 103d 5129 0ebc e58f 00bd
000003c0: 75e5 633c dec1 8d3d dada b13c b942 e4bc
000003d0: a557 f33c ac40 043d 265c 893d 94bb 853c
000003e0: 67f6 1e3d fc7a b13c f036 30bd da39 0abe
000003f0: 7fc1 043e 465a 1e3d 11b5 583d da36 06be

fc1.bias f4 [128]
0.13398643 0.054288622 0.16552766 -0.21378627 -0.07802167 0.042827923 0.121654384 -0.048244305
-0.08598524 -0.114046596 0.026935495 -0.029962054 -0.096081756 -0.015012971 0.05452952 -0.14409925
-0.0018146646 -0.15467994 -0.03230597 -0.19842742 -0.09513664 0.08130644 0.010105576 -0.0530973
-0.058231797 -0.08092318 -0.039790586 0.13347475 -0.06551232 0.2527534 0.14548568 -0.074455045
-0.033857394 -0.024093673 0.05098747 -0.0067311632 0.0039144894 0.027283888 -0.096808665 -0.12176129
0.0392271 0.0072892033 -0.0023502181 0.14764298 -0.064534165 -0.0076172324 0.05298769 0.09017885
-0.12774622 0.0042293356 -0.051520336 0.11576812 -0.20544502 -0.025622448 0.23482159 -0.15582956
-0.04317132 0.079258725 0.042682357 -0.039163195 0.19093059 -0.0888524 0.13124374 0.0035479527
-0.0001162727 0.028751066 -0.00013991549 0.13988155 -0.005141534 0.12809822 -0.034792155 0.13111404
-0.12229129 -0.0500021 0.22968812 -0.11404943 -0.05245125 0.15795517 0.09246042 -0.15698116
0.26902813 0.04572325 -0.19500764 0.04931693 0.1479338 0.06069553 -0.1567564 -0.20105873
-0.15985748 0.1403385 -0.11958881 -0.0007385937 -0.076046094 0.122752436 -0.016272426 -0.12283881
0.057494946 0.08844855 -0.07898191 -0.035473954 0.15301584 0.01974688 -0.06513637 0.118315324
-0.19706324 0.09868407 -0.008442383 0.11553582 0.00917324 -0.03808403 0.037589252 -0.09339318
-0.06433866 -0.12091623 0.023554116 0.13350028 -0.09321788 0.046599437 -0.031754408 0.0017892197
0.17480116 0.18425086 -0.013097293 0.064127535 0.22633658 0.1352831 -0.13148677 -0.052866295
00000000: bd33 093e bf5d 5e3d 1580 293e caea 5abe
00000010: d3c9 9fbd 556c 2f3d ef25 f93d d29b 45bd
00000020: 0819 b0bd 4391 e9bd d4a7 dc3c fb72 f5bc
00000030: 83c6 c4bd f7f8 75bc 595a 5f3d c18e 13be
00000040: 0ada edba 6b64 1ebe 4453 04bd 8f30 4bbe
00000050: 00d7 c2bd fe83 a63d dc91 253c 8e7c 59bd
00000060: 7784 6ebd 0dbb a5bd 74fb 22bd 9bad 083e
00000070: 532b 86bd e568 813e 33fa 143e e37b 98bd
00000080: 0dae 0abd 1860 c5bc 3dd8 503d 1791 dcbb
00000090: 1e45 803b 7682 df3c 9f43 c6bd fc5d f9bd
000000a0: 98ac 203d 45da ee3b 1e06 1abb b92f 173e
000000b0: 7d2a 84bd fa99 f9bb 9f09 593d b0af b83d
000000c0: e8cf 02be 3d96 8a3b fd06 53bd d617 ed3d
000000d0: 2e60 52be 2be6 d1bc 1275 703e c991 1fbe
000000e0: 69d4 30bd 6652 a23d b2d3 2e3d 9669 20bd
000000f0: 4f83 433e 3ff8 b5bd c264 063e c584 683b
00000100: 6ed7 f3b8 5b87 eb3c 47b6 12b9 1c3d 0f3e
00000110: 507a a8bb 2e2c 033e 3882 0ebd c242 063e
00000120: db73 fabd 01cf 4cbd 5d33 6b3e bf92 e9bd
00000130: 1fd7 56bd 00bf 213e e45b bd3d abbf 20be
00000140: 0ebe 893e 4d48 3b3d 15b0 47be 8d00 4a3d
00000150: f57b 173e e09b 783d c084 20be 57e2 4dbe
00000160: aeb1 23be e5b4 0f3e faea f4bd 2f9e 41ba
00000170: 0ebe 9bbd a165 fb3d c04d 85bc ea92 fbbd
00000180: d27f 6b3d 8324 b53d 45c1 a1bd 234d 11bd
00000190: 2fb0 1c3e 35c4 a13c 3866 85bd 4e4f f23d
000001a0: f2ca 49be e01a ca3d ec51 0abc 0b9e ec3d
000001b0: 5b4b 163c 00fe 1bbd 30f7 193d ec44 bfbd
000001c0: fdc3 83bd eea2 f7bd 90f4 c03c 4cb4 083e
000001d0: 04e9 bebd 0ddf 3e3d e910 02bd 4084 ea3a
000001e0: 13ff 323e 42ac 3c3e 0796 56bc 4c55 833d
000001f0: c7c4 673e a787 0a3e 78a4 06be 548a 58bd

bn2.weight f4 [128]
0.088990785 0.2941633 0.33770344 0.3509126 0.22054416 0.5324706 0.45512187 0.3159291
0.45826137 0.77336663 0.53527534 0.23985495 0.24671113 0.22317559 0.4128652 0.11931209
0.4169635 0.7037557 0.54907817 0.7116168 0.8057628 0.38895786 0.3531257 0.6188922
0.30464536 0.74642915 0.4293945 0.17057815 0.21764643 0.16638297 0.5963161 0.6665876
0.7446639 0.31537038 0.45849591 0.38431433 0.4087968 0.41725844 0.10420706 0.81011146
0.16078855 0.36237583 0.74950117 0.22727999 0.592478 0.74239624 0.8764997 0.6514559
0.4551494 0.67790115 0.52166593 0.41573614 0.45283726 0.6009518 0.7398766 0.66001207
0.62097275 0.5290683 0.4621164 0.5731801 0.5296725 0.18808596 0.5377687 0.40212843
0.38201135 0.59980446 0.46901426 0.6019387 0.36167806 0.6490752 0.90471154 0.542623
0.6334056 0.2147571 0.68792725 0.6158386 0.66425747 0.64040196 0.41597044 0.51754355
0.79959506 0.592735 0.22283624 0.71888053 0.85267085 0.5682685 0.22110114 0.5024984
0.28487468 0.6665678 0.21130557 0.5981698 0.5895349 0.34195125 0.7138601 0.53836423
0.49663928 0.3385524 0.3034964 0.4714417 0.6294853 0.381899 0.45403838 0.6142983
0.18287972 0.70653176 0.45167553 0.7567239 0.8371895 0.62856466 0.5152963 0.41616446
0.7553953 0.6975686 0.38784418 0.53177226 0.43120193 0.7115041 0.5899616 0.8335674
0.060156222 0.78706795 0.6270352 0.64434916 0.5019674 0.7938371 0.8524719 0.46910906
00000000: cd40 b63d 929c 963e 77e7 ac3e d1aa b33e
00000010: 54d6 613e fe4f 083f bc05 e93e 76c1 a13e
00000020: 3ca1 ea3e 5bfb 453f ce07 093f 899c 753e
00000030: d8a1 7c3e 2488 643e 1163 d33e e659 f43d
00000040: 3d7c d53e 5529 343f 6390 0c3f 852c 363f
00000050: 7946 4e3f 7c25 c73e e4cc b43e b86f 1e3f
00000060: 7afa 9b3e fb15 3f3f 99d9 db3e 0aac 2e3e
00000070: b5de 5e3e 4c60 2a3e 2ca8 183f 7ca5 2a3f
00000080: 4ba2 3e3f 3a78 a13e fabf ea3e d9c4 c43e
00000090: d04d d13e e6a2 d53e 836a d53d 7763 4f3f
000000a0: c1a5 243e 5389 b93e 4fdf 3f3f 16bc 683e
000000b0: a3ac 173f ae0d 3e3f 4962 603f d0c5 263f
000000c0: 5809 e93e ee8a 2d3f e68b 053f 5edb d43e
000000d0: 49da e73e fad7 193f 8e68 3d3f 8df6 283f
000000e0: 12f8 1e3f 0571 073f 859a ec3e eebb 123f
000000f0: 9e98 073f 9b99 403e 36ab 093f c7e3 cd3e
00000100: fe96 c33e c98c 193f a322 f03e a818 1a3f
00000110: de2d b93e cb29 263f 2d9b 673f 57e9 0a3f
00000120: df26 223f 49e9 5b3e 001c 303f 99a7 1d3f
00000130: c70c 2a3f 62f1 233f 14fa d43e bc7d 043f
00000140: 43b2 4c3f 7bbd 173f 2f2f 643e 8e08 383f
00000150: a348 5a3f 0b7a 113f 5668 623e bca3 003f
00000160: 18db 913e 30a4 2a3f 7d60 583e a821 193f
00000170: c2eb 163f 3c14 af3e 89bf 363f 3dd2 093f
00000180: 8147 fe3e bd56 ad3e e163 9b3e ce60 f13e
00000190: f325 213f 4488 c33e b877 e83e a742 1d3f
000001a0: d244 3b3e 44df 343f 0442 e73e a8b8 413f
000001b0: 0d52 563f 9de9 203f 75ea 033f 8213 d53e
000001c0: 9661 413f db93 323f 8393 c63e 3a22 083f
000001d0: 80c6 dc3e 2225 363f b907 173f ac64 553f
000001e0: 5f66 763d 497d 493f 6185 203f 11f4 243f
000001f0: ef80 003f e838 4b3f 993b 5a3f 102f f03e

bn2.bias f4 [128]
-0.38115054 0.08036032 0.17144914 0.23664634 0.33013198 -0.0117759295 0.009975308 -0.10093186
0.08187824 0.08058267 0.050765824 -0.17024603 0.42802942 0.16654998 0.2947875 0.3425781
-0.093354136 0.13241562 0.13052146 -0.03189762 0.0139470305 0.22441757 -0.077476576 0.19112019
-0.043207966 0.12114022 0.06363755 0.41018435 0.252808 0.37033868 0.34498394 -0.031556435
-0.20891793 -0.054132152 0.12326483 -0.18313959 0.19423923 0.24729879 0.43146914 0.27720833
0.64432925 0.27752608 -0.10281578 0.4179242 -0.12711057 0.26294485 -0.16470827 -0.02732116
-0.11728002 -0.0071254293 0.16272826 -0.07500107 0.21567786 -0.0674408 0.2234423 0.008426849
-0.07918466 0.33024016 0.116552226 0.14011562 0.18744797 0.14867486 -0.27944392 0.079736285
0.19065231 0.0009662479 0.3150201 0.15878439 0.34571058 0.14327429 0.07976688 0.06492038
-0.100337654 0.1976379 0.09237952 0.099892296 0.038949132 0.3065172 -0.08678866 0.10763767
0.22238775 -0.21445745 -0.17818165 -0.00591339 -0.12743627 -0.04515016 0.2771703 0.19802557
-0.16366118 -0.08959857 0.36152706 -0.100033194 0.18962978 0.3906869 0.27870372 0.19657269
0.25037482 -0.032706533 -0.13158071 -0.13603401 0.07922478 0.071752235 0.16075371 -0.091921195
0.23641965 0.1340217 0.24671733 0.013353629 0.011407046 0.11255396 -0.06926988 -0.14740863
0.14681704 0.06412441 0.17357737 0.15126115 0.28429785 -0.12338482 -0.044005103 0.1269792
0.67904115 0.05522242 0.1453242 0.2633582 0.24993373 0.12542014 -0.03834939 -0.20318855
00000000: 2a26 c3be f493 a43d 5d90 2f3e 6b53 723e
00000010: 0f07 a93e d4ef 40bc 796f 233c 5db5 cebd
00000020: c7af a73d 8708 a53d d3ef 4f3d fa54 2ebe
00000030: ac26 db3e 148c 2a3e 63ee 963e 6666 af3e
00000040: 7430 bfbd f697 073e 6ba7 053e 14a7 02bd
00000050: 1682 643c b8cd 653e 0aac 9ebd 03b5 433e
00000060: d6fa 30bd 5d18 f83d 6754 823d af03 d23e
00000070: 0d70 813e 089d bd3e bca1 b03e 5241 01bd
00000080: 95ee 55be adb9 5dbd 4572 fc3d f288 3bbe
00000090: a6e6 463e e53b 7d3e 86e9 dc3e 40ee 8d3e
000000a0: c3f2 243f e617 8e3e 1491 d2bd 29fa d53e
000000b0: 4629 02be b5a0 863e 49a9 28be a0d0 dfbc
000000c0: 8230 f0bd 6f7c e9bb 3da2 263e 299a 99bd
000000d0: a8da 5c3e 671e 8abd 0fce 643e c410 0a3c
000000e0: 912b a2bd 3d15 a93e efb2 ee3d 787a 0f3e
000000f0: 5cf2 3f3e 393e 183e 4613 8fbe c74c a33d
00000100: 5c3a 433e cd4b 7d3a 514a a13e 6098 223e
00000110: fa00 b13e 7fb6 123e d15c a33d faf4 843d
00000120: d47d cdbd 9761 4a3e 7931 bd3d 5594 cc3d
00000130: 2089 1f3d d3ef 9c3e 41be b1bd 2471 dc3d
00000140: 9db9 633e bc9a 5bbe 4075 36be 1cc5 c1bb
00000150: a77e 02be 60ef 38bd 44e9 8d3e 37c7 4a3e
00000160: cc96 27be 747f b7bd 131a b93e 34de ccbd
00000170: 4f2e 423e 1d08 c83e 41b2 8e3e 5a4a 493e
00000180: 2131 803e 49f7 05bd 18bd 06be 804c 0bbe
00000190: 9a40 a23d d6f2 923d 9f9c 243e 2e41 bcbd
000001a0: fe17 723e fc3c 093e 78a3 7c3e 2ec9 5a3c
000001b0: 9ee4 3a3c b182 e63d 5edd 8dbd 4af2 16be
000001c0: 3557 163e a953 833d 44be 313e 34e4 1a3e
000001d0: 7d8f 913e 2eb1 fcbd b23e 34bd d606 023e
000001e0: a4d5 2d3f e730 623d decf 143e e3d6 863e
000001f0: a1ee 7f3e 236e 003e 4014 1dbd a910 50be

bn2.running_mean f4 [128]
0.3042762 0.08917086 0.2464575 1.6005517e-06 0.027454814 0.038463373 0.28218964 0.05362792
0.00479277 0.038213406 0.0125378035 0.050591413 4.1609088e-05 0.06807225 0.08800293 0.00018868063
0.007546531 0.03908457 0.12968117 4.1934272e-06 0.036586843 0.014792328 0.109170966 0.039511625
0.020335065 0.055219617 0.022044968 0.14920923 0.0012993473 0.386643 0.26793242 0.02129097
0.045199092 0.013216402 0.14048171 0.015292335 0.02990141 0.064021856 0.0003862186 0.038021475
0.016767008 0.04241624 0.006146649 0.26629993 0.01202204 0.09007215 0.13406502 0.16878417
0.012693123 0.092277855 0.012488266 0.12043123 9.805946e-08 0.06111743 0.33056858 0.00017893087
0.009921738 0.085801244 0.06990679 0.015352211 0.3023778 0.033021748 0.14847282 0.030214615
0.012568779 0.07499764 0.061539922 0.15472414 0.008287062 0.13425909 0.07328139 0.28495994
0.047916807 0.0010070651 0.36282006 0.004913441 0.0020068283 0.15466525 0.10739731 0.021239199
0.3749331 0.20303878 0.00037140562 0.042898677 0.2133726 0.011298466 4.252913e-05 2.7513587e-07
0.0005558006 0.19677708 0.027963746 0.078565456 0.02004832 0.2547725 0.06443599 0.00014479995
0.17135058 0.06325491 0.0013555714 0.029104613 0.27958885 0.27373672 0.04858489 0.27047122
3.3834324e-06 0.12453648 0.035614245 0.0507979 0.064211935 0.055017874 0.07544902 6.0265207e-05
0.016846323 0.0637661 0.010363722 0.14688142 0.061900705 0.16654319 0.08953268 0.043150738
0.1605812 0.22198562 0.009769656 0.06274959 0.39005733 0.21711096 4.6749774e-05 6.693951e-05
00000000: 17ca 9b3e 369f b63d 5b5f 7c3e 8ad2 d635
00000010: ebe8 e03c c58b 1d3d 297b 903e f3a8 5b3d
00000020: ab0c 9d3b a985 1c3d 5c6b 4d3c f138 4f3d
00000030: 6b85 2e38 7769 8b3d e13a b43d 92d8 4539
00000040: e448 f73b 2417 203d 24cb 043e 44b5 8c36
00000050: 16dc 153d 855b 723c 0795 df3d f1d6 213d
00000060: b995 a63c f72d 623d a697 b43c 4eca 183e
00000070: dc4e aa3a 12f6 c53e 702e 893e 666a ae3c
00000080: af22 393d 9c89 583c 70da 0f3e b48c 7a3c
00000090: cdf3 f43c e41d 833d 627d ca39 68bc 1b3d
000000a0: f75a 893c a7bc 2d3d d469 c93b 7758 883e
000000b0: 17f8 443c bf77 b83d 5748 093e c2d5 2c3e
000000c0: d1f6 4f3c 2cfc bc3d 969b 4c3c a6a4 f63d
000000d0: c294 d233 4556 7a3d 4940 a93e 649f 3b39
000000e0: c98e 223c 90b8 af3d 4b2b 8f3d d787 7b3c
000000f0: 43d1 9a3e d041 073d 4209 183e a484 f73c
00000100: 48ed 4d3c 5d98 993d 4911 7c3d 0170 1e3e
00000110: 75c6 073c 377b 093e 8e14 963d 45e6 913e
00000120: 6a44 443d 7fff 833a 8dc3 b93e ee00 a13b
00000130: fe84 033b 9160 1e3e 1ff3 db3d d4fd ad3c
00000140: 3bf7 bf3e 66e9 4f3e 38b9 c239 86b6 2f3d
00000150: 597e 5a3e 331d 393c 4e61 3238 63b6 9334
00000160: 26b3 113a ee7f 493e 3a14 e53c ede6 a03d
00000170: 603c a43c 8b71 823e 04f7 833d 71d5 1739
00000180: 8776 2f3e ca8b 813d 6ead b13a cc6c ee3c
00000190: 4526 8f3e 3827 8c3e f300 473d 347b 8a3e
000001a0: ed0e 6336 fb0c ff3d 3ee0 113d 7511 503d
000001b0: 8c81 833d 6c5a 613d 0485 9a3d 46c5 7c38
000001c0: 4d01 8a3c cd97 823d 9acc 293c 1568 163e
000001d0: 988b 7d3d 4c8a 2a3e e95c b73d d4be 303d
000001e0: 666f 243e 3350 633e e810 203c db82 803d
000001f0: 98b5 c73e 5652 5e3e 3015 4438 e061 8c38

bn2.running_var f4 [128]
0.0069799786 0.011007119 0.008728637 3.0139418e-08 0.00300705 0.0023552533 0.017734822 0.006395133
0.0004105322 0.0042737364 0.00041899746 0.0066741384 2.2702675e-06 0.006194666 0.0056174034 1.4120554e-05
0.00060325605 0.004783313 0.016083507 2.9243986e-07 0.0034606694 0.0006370013 0.010092854 0.00336966
0.0015108315 0.0064214664 0.0021941937 0.010860552 4.4872748e-05 0.0121840965 0.003062708 0.0022567634
0.0060513048 0.0015524799 0.0016070084 0.0011645899 0.0015151897 0.0060401103 4.947989e-05 0.002221103
0.0014360631 0.0036205556 0.00019130569 0.0069269817 0.0005632387 0.0029545287 0.020137165 0.030579206
0.00078812 0.011660667 0.0007563117 0.00923014 8.986194e-09 0.0078383535 0.009954987 2.2030305e-05
0.0004570722 0.008288514 0.0068723103 0.0012948067 0.0066298256 0.0036580774 0.021327043 0.002615348
0.00077545916 0.00769911 0.005816919 0.0014680395 0.00048376422 0.01822258 0.0035980442 0.009863978
0.005765297 7.536561e-05 0.023944149 0.000166212 9.232598e-05 0.0063369554 0.016018985 0.001748649
0.01814465 0.0129745165 5.9034388e-05 0.0036153272 0.01923567 0.00029539294 2.6780356e-06 2.1488892e-08
5.792594e-05 0.021881975 0.0028526788 0.0070171715 0.0013041758 0.0130932955 0.0071338145 1.02752765e-05
0.0023521318 0.006773688 0.00021533231 0.0017254249 0.008778152 0.024697138 0.0030994099 0.0056364057
3.242072e-08 0.0151738515 0.003711518 0.001356319 0.0035083862 0.0049714325 0.005644777 4.9336545e-06
0.0016571321 0.0056441673 0.0009177771 0.020477537 0.004809692 0.021235779 0.0063791573 0.0032747078
0.0153427655 0.0076384875 0.000531223 0.0057109166 0.007792426 0.004157293 3.3202903e-06 3.696404e-06
00000000: 4eb8 e43b 3457 343c 8f02 0f3c a472 0133
00000010: ed11 453b 985a 1a3b 9e48 913c 448e d13b
00000020: b33c d739 b30a 8c3b e3ac db39 bbb2 da3b
00000030: e65a 1836 a0fc ca3b 3212 b83b 51e7 6c37
00000040: d423 1e3a 56bd 9c3b 8fc1 833c a100 9d34
00000050: 66cc 623b 6ffc 263a 7f5c 253c 83d5 5c3b
00000060: 1807 c63a 2a6b d23b 76cc 0f3b 75f0 313c
00000070: bf35 3c38 ce9f 473c b7b7 483b 35e6 133b
00000080: 064a c63b 957c cb3a 41a2 d23a 27a5 983a
00000090: 5499 c63a 1eec c53b a188 4f38 ed8f 113b
000000a0: 483a bc3a d846 6d3b 3b99 4839 bcfb e23b
000000b0: 4fa6 133a c4a0 413b b2f6 a43c 3e81 fa3c
000000c0: d799 4e3a 620c 3f3c 3843 463a 033a 173c
000000d0: b361 1a32 706c 003c 3e1a 233c b8cd b837
000000e0: 31a3 ef39 8ccc 073c 1e31 e13b 81b6 a93a
000000f0: 023f d93b 5bbc 6f3b 0db6 ae3c 4266 2b3b
00000100: 2f48 4b3a d148 fc3b da9b be3b 3b6b c03a
00000110: bca1 fd39 8547 953c 2acd 6b3b 869c 213c
00000120: d1ea bc3b 9b0d 9e38 8526 c43c 3249 2e39
00000130: 229f c138 3ca6 cf3b 3f3a 833c ed32 e53a
00000140: 17a4 943c 1193 543c b19b 7738 20ef 6c3b
00000150: 2094 9d3c f8de 9a39 4db8 3336 9396 b832
00000160: 81f5 7238 d441 b33c 02f4 3a3b 4df0 e53b
00000170: e1f0 aa3a 4385 563c c6c2 e93b fa63 2c37
00000180: 3926 1a3b d0f5 dd3b d4ca 6139 a727 e23a
00000190: 3dd2 0f3c a751 ca3c 781f 4b3b 99b1 b83b
000001a0: f53e 0b33 bf9b 783c f03c 733b 83c6 b13a
000001b0: f4ec 653b 66e7 a23b d2f7 b83b c58b a536
000001c0: 2034 d93a b5f2 b83b fb96 703a 82c0 a73c
000001d0: 9f9a 9d3b a8f6 ad3c 4008 d13b 7b9c 563b
000001e0: 3960 7b3c 474c fa3b c641 0b3a a422 bb3b
000001f0: 9b57 ff3b e739 883b 27d2 5e36 bd0f 7836

fc2.weight f4 [128, 128]
-0.000582306 -0.013320928 -0.0022928442 -0.038293935 0.03898166 0.11398241 -0.11459108 0.118326314
-0.009884089 -0.055441264 -0.1664468 -0.021361496 0.046096515 -0.08378459 -0.10083981 0.11294953
0.11180209 -0.026037786 0.075725675 0.0064064963 0.045208365 -0.053054843 -0.008579862 -0.07323013
-0.058831032 -0.10605163 -0.12447537 0.0002817094 -0.057655707 -0.030377828 -0.035321407 -0.030207843
-0.047840763 -0.04598869 -0.17294551 -0.0070701013 0.06732202 -0.20492682 -0.053307004 -0.024611335
-0.176867 -0.014934788 -0.1280147 -0.20501342 -0.0018426068 -0.050784133 -0.005513766 0.05489237
-0.0705381 0.07828588 -0.122467786 0.14802925 -0.03523228 0.0027227574 -0.05661359 -0.005450369
-0.022347204 0.0076536275 0.08927853 -0.12683143 0.027914334 -0.09878355 -0.0006865356 -0.17899252
-0.0038865418 -0.07731846 -0.08432754 -0.039573405 -0.04948476 -0.01701392 0.08468972 -0.010848161
-0.11803986 0.15769821 -0.04768832 0.010201459 -0.0035027885 -0.018809324 0.12577602 -0.018712189
0.065312125 0.040913764 0.060673356 -0.045489315 0.06633383 -0.022992566 -0.079662986 0.040249452
-0.054824702 -0.017523868 -0.043134846 -0.040646892 0.02030795 -0.04584194 -0.021198098 -0.020204399
0.1603553 -0.077529326 0.0675532 -0.025345607 -0.03855682 0.08504975 0.07800522 -0.042009097
-0.16625848 0.11142 -0.029393813 -0.07055614 -0.04973792 -0.02943219 0.0794665 0.041656762
0.07038039 -0.03935886 -0.084981225 -0.033541854 -0.020320756 -0.05731557 0.0010460638 -0.07258303
-0.107678235 -0.0813849 -0.09438011 0.06389123 0.009483874 0.00924864 0.0133433575 0.001923632
0.09298271 0.049352992 -0.012027901 -0.0002837586 -0.13836247 0.08176682 0.0034777648 0.09016039
-0.031173216 -0.08943069 0.02048163 -0.113835655 -0.03724568 0.097057775 -0.18049665 0.027715746
-0.05423033 -0.091571294 -0.026861178 0.055199705 0.058751013 -0.10449609 0.048354752 0.07215445
-0.014519972 0.07496463 0.08639055 -0.061362922 -0.15058535 0.034343865 -0.049688827 0.059751514
-0.007256667 -0.02677819 -0.10597557 0.06153121 -0.13838376 0.016301952 -0.10052777 -0.13006748
-0.06621156 -0.26624343 0.037363533 -0.16672853 -0.072789855 -0.02278573 0.061741933 -0.052664425
0.007155004 -0.1453801 0.060352944 -0.035094153 0.05592617 -0.151346 -0.018043315 0.04579469
0.08485066 -0.034342702 0.097074755 -0.013650771 0.13296522 0.04790157 -0.0062653054 0.07011847
0.15907931 0.034919932 -0.08254602 -0.012286825 -0.019736404 0.10325917 0.015705202 -0.00432407
-0.11157926 0.09370028 0.035599083 -0.21018085 -0.05349617 0.03183827 -0.03263197 0.0687581
-0.008546862 0.07558021 0.038025722 -0.051229566 -0.060675137 -0.053667773 0.15557152 -0.12371935
-0.11059513 0.012288883 -0.065462284 -0.20407106 -0.121714525 0.080682054 -0.0048661307 0.017522443
0.00093536236 0.043732863 0.10433032 -0.0906465 0.046863377 0.035986796 0.1170971 -0.13060585
0.037324905 -0.061861955 -0.105395086 -0.04063872 0.04992718 0.09886009 -0.05696792 0.00913834
-0.19128236 -0.07818238 -0.079491526 -0.12746227 -0.041295543 0.009151555 0.038426574 -0.03883414
0.010979219 0.041088965 -0.06996337 0.006382139 0.107804164 0.0097090155 0.022999201 -0.12844473
00000000: e5a5 18ba 0640 5abc 8b43 16bb 1ada 1cbd
00000010: 3cab 1f3d 9c6f e93d baae eabd 1155 f23d
00000020: e0f0 21bc 6116 63bd 0871 2abe 4efe aebc
00000030: b3cf 3c3d 4197 abbd 1a85 cebd 1552 e73d
00000040: 7ff8 e43d 324d d5bc 1016 9b3d 96ed d13b
00000050: 682c 393d 0950 59bd 8d92 0cbc aef9 95bd
00000060: cff8 70bd 9931 d9bd f1ec febd 65b2 9339
00000070: 6428 6cbd ecda f8bc 2ead 10bd 7076 f7bc
00000080: adf4 43bd a35e 3cbd a118 31be 4fac e7bb
00000090: 21e0 893d 56d8 51be 7258 5abd b69d c9bc
000000a0: 9f1c 35be 0bb1 74bc 4916 03be 0aef 51be
000000b0: a083 f1ba 0603 50bd d2ac b4bb d2d6 603d
000000c0: 4876 90bd 5954 a03d 64d0 fabd fb94 173e
000000d0: b94f 10bd 4a70 323b a7e3 67bd 0299 b2bb
000000e0: 7c11 b7bc 48cb fa3b a9d7 b63d 19e0 01be
000000f0: 9aac e43c 084f cabd a0f8 33ba d149 37be
00000100: 5ab5 7ebb 2459 9ebd ebb3 acbd b917 22bd
00000110: 88b0 4abd c760 8bbc ce71 ad3d 7cbc 31bc
00000120: e2be f1bd a47b 213e d454 43bd 0524 273c
00000130: 0a8f 65bb 0316 9abc 6ecb 003e 4e4a 99bc
00000140: 5dc2 853d 3195 273d a084 783d 0153 3abd
00000150: 08da 873d e85a bcbc 5926 a3bd 9cdc 243d
00000160: de8f 60bd 378e 8fbc 2aae 30bd 5b7d 26bd
00000170: dc5c a63c c2c4 3bbd a2a7 adbc b283 a5bc
00000180: 2e34 243e b2c7 9ebd 5559 8a3d 97a1 cfbc
00000190: c2ed 1dbd 902e ae3d 33c1 9f3d bb11 2cbd
000001a0: aa3f 2abe 2b30 e43d 4bcb f0bc bd7f 90bd
000001b0: fdb9 4bbd c71b f1bc 55bf a23d 48a0 2a3d
000001c0: 9823 903d c236 21bd a30a aebd 2f63 09bd
000001d0: b777 a6bc bbc3 6abd 141c 893a 69a6 94bd
000001e0: 6886 dcbd 20ad a6bd 5c4a c1bd 68d9 823d
000001f0: 4062 1b3c 9c87 173c 199e 5a3c 6122 fc3a
00000200: b86d be3d 5d26 4a3d ac10 45bc 6fc5 94b9
00000210: e4ae 0dbe 5d75 a73d 36eb 633b 03a6 b83d
00000220: f95e ffbc 7027 b7bd 17c9 a73c ab22 e9bd
00000230: ed8e 18bd 3ac6 c63d 1dd4 38be 220c e33c
00000240: 9f20 5ebd bb89 bbbd f90b dcbc 1619 623d
00000250: e7a4 703d 0c02 d6bd a20f 463d b6c5 933d
00000260: 2de5 6dbc 0e87 993d 87ed b03d b057 7bbd
00000270: 0c33 1abe 27ac 0c3d 8386 4bbd 01be 743d
00000280: 56c9 edbb ef5d dbbc b809 d9bd 2608 7c3d
00000290: 79b4 0dbe ac8b 853c 81e1 cdbd 6930 05be
000002a0: ed99 87bd 0f51 88be 810a 193d e2ba 2abe
000002b0: d912 95bd 24a9 babc 1ce5 7c3d a7b6 57bd
000002c0: 8674 ea3b 85de 14be a634 773d e3be 0fbd
000002d0: d712 653d 72fa 1abe 93cf 93bc 3693 3b3d
000002e0: 2fc6 ad3d efaa 0cbd 21cf c63d 7ca7 5fbc
000002f0: 0928 083e 7034 443d 314d cdbb 469a 8f3d
00000300: b0e5 223e 3408 0f3d e30d a9bd ae4e 49bc
00000310: 3dae a1bc 8b79 d33d 32a8 803c eeb0 8dbb
00000320: ab83 e4bd efe5 bf3d 58d0 113d a639 57be
00000330: cd1e 5bbd d968 023d 1aa9 05bd 0cd1 8c3d
00000340: 2308 0cbc ccc9 9a3d dcc0 1b3d 18d6 51bd
00000350: 7e86 78bd bdd2 5bbd 244e 1f3e 9260 fdbd
00000360: b37f e2bd 5057 493c 1711 86bd 01f8 50be
00000370: 7745 f9bd a23c a53d 1074 9fbb 3a8b 8f3c
00000380: 1b33 753a 3b21 333d 23ab d53d dfa4 b9bd
00000390: d0f3 3f3d e466 133d 9bd0 ef3d 8abd 05be
000003a0: 00e2 183d f662 7dbd 61d9 d7bd c974 26bd
000003b0: 7180 4c3d 2977 ca3d 3257 69bd fab8 153c
000003c0: 86df 43be 151e a0bd 74cc a2bd 7885 02be
000003d0: 8425 29bd 67f0 153c 2f65 1d3d 8c10 1fbd
000003e0: 2fe2 333c e74c 283d f548 8fbd 4321 d13b
000003f0: 6ec8 dc3d 9012 1f3c d268 bc3c 0487 03be

fc2.bias f4 [128]
-0.020987784 -0.039897088 -0.032809913 0.106732644 -0.031934425 0.02999145 -0.16143605 -0.17638583
-0.053514298 -0.19966905 0.006789875 0.016982641 -0.08461262 0.07970174 -0.0492741 -0.11754428
-0.03725707 -0.1351835 -0.10407291 -0.1501758 -0.11855594 -0.113824576 -0.06559702 -0.06082331
-0.15457737 0.00092637143 -0.020880332 -0.1258662 -0.028495265 0.13070087 -0.028050235 -0.030223494
-0.138127 -0.0075050998 -0.13004485 0.035389718 0.03325369 -0.111947924 -0.02589037 -0.116922736
-0.037045754 0.0114073185 0.076193504 -0.010760558 -0.12899709 -0.047545083 -0.12983477 -0.013760725
-0.04058281 -0.19578072 -0.032126784 0.049016 -0.15249231 -0.068590246 -0.011753445 -0.097267486
-0.1428192 -0.0623687 -0.027437914 0.0632147 -0.011014309 0.13680375 -0.16054824 -0.1722508
-0.034535334 0.010098569 -0.0051562754 -0.04427475 -0.013945085 -0.18164986 0.030721514 -0.09579794
-0.16099127 -0.046785753 -0.010146456 -0.20852776 0.074471734 -0.11329347 -0.12826166 -0.08819615
-0.044101074 -0.082109295 -0.10979619 -0.16064824 -0.083959326 -0.1505735 -0.093386464 -0.044035107
-0.12978981 -0.03522418 -0.08965024 -0.021067463 -0.12374708 -0.1723832 -0.05497537 -0.020802785
-0.11067667 -0.16225424 -0.13636772 -0.07883695 -0.15401542 -0.13840634 -0.076837294 -0.12048845
-0.0075179576 -0.10458266 -0.061760176 -0.011272949 -0.11750708 -0.089220464 -0.018555151 -0.21342383
0.027498174 0.04668867 0.018423917 -0.15969536 -0.110768646 0.025955161 0.013169775 -0.088387094
-0.18155259 -0.119225204 -0.07472863 -0.15213436 -0.1318084 0.16436853 -0.1207396 -0.016838778
00000000: 93ee abbc 216b 23bd b063 06bd a596 da3d
00000010: accd 02bd a1b0 f53c 7e4f 25be 7d9e 34be
00000020: cf31 5bbd 0b76 4cbe 9a7d de3b 2e1f 8b3c
00000030: 6249 adbd aa3a a33d a4d3 49bd 0ebb f0bd
00000040: df9a 18bd 8b6d 0abe 2e24 d5bd afc7 19be
00000050: 75cd f2bd dc1c e9bd bb57 86bd dd21 79bd
00000060: 8849 1ebe bcd7 723a 3b0d abbc 12e3 00be
00000070: e76e e9bc 73d6 053e 9bc9 e5bc 4397 f7bc
00000080: 2a71 0dbe 57ed f5bb 7a2a 05be cff4 103d
00000090: 0535 083d f444 e5bd 0b18 d4bc 3075 efbd
000000a0: 4abd 17bd c3e5 3a3c 570b 9c3d 0d4d 30bc
000000b0: d017 04be a2be 42bd 68f3 04be aa74 61bc
000000c0: 293a 26bd be7a 48be 6097 03bd 00c5 483d
000000d0: f226 1cbe 0b79 8cbd 8591 40bc 2d34 c7bd
000000e0: 323f 12be 5276 7fbd 7ac5 e0bc b576 813d
000000f0: 5c75 34bc 4816 0c3e c266 24be 8462 30be
00000100: ec74 0dbd 7874 253c f9f5 a8bb 7159 35bd
00000110: ed79 64bc 6c02 3abe afab fb3c b631 c4bd
00000120: e5da 24be 6ba2 3fbd 523d 26bc 4d88 55be
00000130: a384 983d 6806 e8bd 0657 03be 2fa0 b4bd
00000140: 54a3 34bd eb28 a8bd d3dc e0bd f980 24be
00000150: def2 abbd f12f 1abe 6741 bfbd 285e 34bd
00000160: 9fe7 04be 3b47 10bd 8c9a b7bd ac95 acbc
00000170: 1c6f fdbd 3985 30be db2d 61bd 9a6a aabc
00000180: 73aa e2bd fa25 26be fba3 0bbe 4475 a1bd
00000190: 38b6 1dbe 64ba 0dbe df5c 9dbd a6c2 f6bd
000001a0: 3359 f6bb 6f2f d6bd 3df8 7cbd 2db2 38bc
000001b0: 8da7 f0bd 38b9 b6bd f900 98bc c78b 5abe
000001c0: da43 e13c 9e3c 3f3d c1ed 963c 2e87 23be
000001d0: acda e2bd eb9f d43c 0ac6 573c 4b04 b5bd
000001e0: ece8 39be 582c f4bd 530b 99bd 1cc9 1bbe
000001f0: c8f8 06be 3950 283e 5346 f7bd 7af1 89bc

bn3.weight f4 [128]
1.1052855 1.4439014 1.212252 1.263656 1.2139319 0.66404945 1.233866 0.8375646
1.2779905 0.7892355 1.1234525 0.87648535 1.3397709 1.3709972 0.94693726 0.7103374
0.74775505 1.1297088 0.9960321 1.0452274 0.6883328 1.4589722 0.62850374 0.9149843
1.2444751 1.2555528 1.2505856 0.9140732 1.3335944 1.1339633 1.4565474 0.9535638
0.6800568 0.59377027 1.4875327 0.69630355 1.2779654 0.979246 1.2098573 0.9335146
0.8182712 1.3728814 0.6028407 1.2160972 1.293926 0.8293369 1.0823231 0.91642183
1.3235772 0.92975706 1.3364189 1.5392509 0.6806715 1.1610676 1.2183336 1.015257
1.324156 1.1939404 1.1431946 0.8825299 1.3345685 0.90730786 0.91848373 0.8739446
1.1437858 1.2956618 1.2705476 1.3349146 1.0369148 1.017458 1.0465981 0.7281784
0.8952503 1.2194358 1.2773634 1.2441107 1.1234367 1.1166695 0.9335783 0.97912055
0.9279065 0.97369105 1.0940017 0.82173395 1.3173453 1.0598127 0.9094224 0.92458636
0.68295854 1.0717936 0.954321 0.87804335 0.72725195 1.2188816 1.7257441 1.432405
1.3787264 0.9657598 0.96559155 1.0113275 1.3883648 0.8631704 0.5199466 0.9143481
1.4843295 1.1605914 1.3338623 1.2602098 0.992412 1.0719136 0.7137486 0.86846083
1.0671875 0.6623658 0.76740104 1.0112425 0.8586593 0.67255986 0.8854037 1.3644991
1.1757873 0.9319182 1.0492986 1.3466684 1.2804476 1.3484267 0.76248795 1.083998
00000000: ff79 8d3f c3d1 b83f 132b 9b3f 7bbf a13f
00000010: 1f62 9b3f 25ff 293f 52ef 9d3f a26a 563f
00000020: 3195 a33f 560b 4a3f 4bcd 8f3f 5861 603f
00000030: 9d7d ab3f d67c af3f 7b6a 723f acd8 353f
00000040: e06c 3f3f 4c9a 903f f6fb 7e3f 03ca 853f
00000050: 9436 303f 9abf ba3f 9fe5 203f 693c 6a3f
00000060: f64a 9f3f f4b5 a03f 3013 a03f b400 6a3f
00000070: 39b3 aa3f b625 913f 2570 ba3f c21c 743f
00000080: 3418 2e3f 5401 183f 7967 be3f f340 323f
00000090: 5f94 a33f deaf 7a3f 9bdc 9a3f d0fa 6e3f
000000a0: 397a 513f 94ba af3f c553 1a3f 13a9 9b3f
000000b0: 5e9f a53f 6c4f 543f 9089 8a3f 9f9a 6a3f
000000c0: fa6a a93f 8f04 6e3f c60f ab3f 2c06 c53f
000000d0: 7d40 2e3f dd9d 943f 5bf2 9b3f f1f3 813f
000000e0: f27d a93f 0ad3 983f 3354 923f 7bed 613f
000000f0: 24d3 aa3f 5445 683f c021 6b3f d5ba 5f3f
00000100: 9367 923f 3fd8 a53f 4ea1 a23f 7bde aa3f
00000110: a0b9 843f 103c 823f edf6 853f e669 3a3f
00000120: 202f 653f 7916 9c3f a580 a33f 053f 9f3f
00000130: c6cc 8f3f 07ef 8e3f fdfe 6e3f a5a7 7a3f
00000140: 488b 6d3f d143 793f 3f08 8c3f 285d 523f
00000150: c59e a83f f1a7 873f e8cf 683f b1b1 6c3f
00000160: 5fd6 2e3f 8830 893f 624e 743f 73c7 603f
00000170: 2f2d 3a3f 5004 9c3f 2fe5 dc3f 0c59 b73f
00000180: 1b7a b03f 093c 773f 0231 773f 2e73 813f
00000190: f0b5 b13f bcf8 5c3f 381b 053f b812 6a3f
000001a0: 82fe bd3f 428e 943f 00bc aa3f 8e4e a13f
000001b0: b60e 7e3f 7734 893f 3ab8 363f 7353 5e3f
000001c0: 9a99 883f ce90 293f 6574 443f 6570 813f
000001d0: 19d1 5b3f e22c 2c3f d1a9 623f e8a7 ae3f
000001e0: 3380 963f 3192 6e3f 6b4f 863f a15f ac3f
000001f0: b5e5 a33f 3f99 ac3f 6932 433f 72c0 8a3f

bn3.bias f4 [128]
0.05176873 0.0762344 -0.04565194 0.013889676 -0.05561041 -0.024941737 0.07511064 -0.025206938
-0.04064124 -0.039446462 0.017072083 -0.036882102 0.13614747 0.048326544 -0.028223375 -0.02438245
-0.0597002 0.074919 0.09418892 0.19648409 -0.04645456 0.20250684 0.024040677 0.0737141
-0.014139397 0.017328909 0.011092045 -0.028231692 0.09901937 0.02421475 0.027968368 0.024413113
0.07278794 0.02843772 0.04943724 -0.15755625 -0.009863778 -0.008205279 -0.027542278 0.0135544855
0.054853786 -0.08797406 0.012288756 0.038335714 0.105859846 0.053118516 -0.042634733 0.019412836
0.15504085 0.018220529 -0.09883759 -0.048550807 -0.01613326 -0.02855436 0.030621096 0.05401431
0.015715552 -0.024455687 0.005103027 0.08615542 -0.031006608 0.012372538 0.053641446 0.076969914
0.059456665 0.006231876 0.07507656 0.02223773 -0.06885078 0.21132587 0.024966186 0.07185689
-0.027929064 -0.0038096444 0.02927864 0.03761034 -0.0525406 0.044681523 0.03357075 -0.014889934
0.021106342 0.032510202 0.011258429 0.14349058 -0.021729698 -0.04150618 -0.030067125 -0.022728432
0.009145972 0.021431895 0.11998593 0.024453446 -0.022589473 -0.029930403 0.10375507 -0.0010007677
0.0431881 -0.04705535 0.03637775 -0.09422966 -0.037749242 0.049932335 -0.004988221 0.036001682
0.0029715342 -0.10560447 -0.029158188 0.0064245835 -0.057023704 0.017382303 0.038269456 0.026840521
0.0107631115 0.056543946 0.061995 -0.008860561 -0.021147972 0.03701103 -0.032899924 -0.04096746
-0.057737518 0.0045590946 0.10172436 0.063048445 0.13493292 0.058272082 0.069460794 0.06643147
00000000: 730b 543d c820 9c3d 87fd 3abd 8691 633c
00000010: bec7 63bd 9d52 ccbc 9bd3 993d c87e cebc
00000020: 6e77 26bd 9d92 21bd c1da 8b3c b011 17bd
00000030: 3e6a 0b3e 0ef2 453d b534 e7bc b4bd c7bc
00000040: 3288 74bd 226f 993d 1fe6 c03d 2033 493e
00000050: 2347 3ebd f45d 4f3e f4f0 c43c 6bf7 963d
00000060: eea8 67bc 5bf5 8d3c 69bb 353c 2646 e7bc
00000070: abca ca3d 035e c63c eb1d e53c 02fe c73c
00000080: d811 953d 39f6 e83c b47e 4a3d 6d56 21be
00000090: af9b 21bc 6f6f 06bc 58a0 e1bc a213 5e3c
000000a0: 5dae 603d be2b b4bd c756 493c e905 1d3d
000000b0: 0ccd d83d cd92 593d c2a1 2ebd ab07 9f3c
000000c0: 07c3 1e3e 3843 953c 5d6b cabd 36dd 46bd
000000d0: e629 84bc d5ea e9bc 18d9 fa3c 1c3e 5d3d
000000e0: e7bd 803c 4b57 c8bc 4b37 a73b 4172 b03d
000000f0: 9201 febc 30b6 4a3c 22b7 5b3d 67a2 9d3d
00000100: d588 733d c434 cc3b bdc1 993d e62b b63c
00000110: a301 8dbd cf65 583e e385 cc3c b529 933d
00000120: 7ecb e4bc 3aab 79bb c2d9 ef3c 4d0d 1a3d
00000130: d034 57bd f903 373d 7c81 093d e9f4 73bc
00000140: 35e7 ac3c 6b29 053d 4675 383c 32ef 123e
00000150: 7b02 b2bc 6202 2abd 554f f6bc fa30 babc
00000160: fdd8 153c f191 af3c 2fbb f53d 9852 c83c
00000170: 8f0d b9bc 9b30 f5bc 8a7d d43d 312c 83ba
00000180: 01e6 303d 1cbd 40bd d600 153d 7bfb c0bd
00000190: f39e 1abd d985 4c3d 3b74 a3bb 8076 133d
000001a0: 12be 423b 2847 d8bd 27dd eebc 5085 d23b
000001b0: b091 69bd 5565 8e3c 6fc0 1c3d a7e0 db3c
000001c0: c357 303c a09a 673d 78ee 7d3d e32b 11bc
000001d0: 833e adbc e198 173d 12c2 06bd 7fcd 27bd
000001e0: 2d7e 6cbd 7564 953b dc54 d03d 8b1f 813d
000001f0: db2b 0a3e b5ae 6e3d 7641 8e3d 390d 883d

bn3.running_mean f4 [128]
0.0082106115 0.16640009 0.18447945 0.3595028 0.089023754 0.2143027 0.00011023546 3.5308843e-14
0.06446748 0.00020929516 0.047202736 0.02511623 0.11575955 0.1569048 0.00016908084 0.08120215
0.03060755 0.00026883793 0.08022101 0.0009896802 0.17149656 0.0017267761 8.2742304e-08 0.04766925
6e-45 0.11182816 0.0017546824 0.030109566 0.11145694 0.81884426 0.015827185 0.024298921
5.8894357e-06 0.06150474 0.0064057233 0.10518752 0.005668538 0.00033016113 0.08875989 7.0017806e-05
0.01028582 0.088076115 0.012285544 0.01837322 0.0030489983 6e-45 0.014209764 0.04723569
0.0034533634 1.4034673e-05 0.009354078 0.30587506 3.049074e-10 0.1371941 0.10123883 0.005316764
0.00022505004 0.20528176 5.6418996e-19 0.063193195 0.09863592 0.2919011 0.00017207186 0.0009691279
7.666057e-11 0.31842247 0.046780974 6.038901e-06 0.11748047 0.0002110174 0.31494716 6e-45
0.0045125843 6e-45 0.019347237 8.090675e-07 0.27607554 0.00012886459 0.010977079 0.05888608
0.00085621356 0.016851394 0.0058543235 3.4168224e-08 0.014163242 6e-45 0.0011177593 7.099028e-05
6e-45 0.032122042 0.059437227 0.028258458 2.1167718e-08 6.542233e-17 0.004256607 0.76137394
0.0006950408 0.00047777407 4.975002e-05 1.9510435e-05 6e-45 0.0013447155 0.042122707 0.026554588
0.009822603 6e-45 0.23287988 6e-45 3.42193e-05 0.00010358935 0.020755686 0.0022929115
0.20714109 0.012952358 0.19308923 6e-45 0.00022985956 0.18402272 0.09174216 0.1756449
0.0046758694 7.507384e-05 0.056331582 3.972728e-05 0.0003316699 0.29386833 0.0003144247 0.09389631
00000000: cd85 063c c964 2a3e 2ee8 3c3e c010 b83e
00000010: 1652 b63d 2b72 5b3e 362e e738 5304 1f29
00000020: 8707 843d 3e76 5b39 a857 413d 8dc0 cd3c
00000030: 5813 ed3d a7ab 203e 4b4b 3139 504d a63d
00000040: afbc fa3c d1f2 8c39 ea4a a43d 28b8 813a
00000050: cb9c 2f3e fe54 e23a 10b0 b133 d540 433d
00000060: 0400 0000 2a06 e53d 5ffd e53a 56a8 f63c
00000070: 8943 e43d c79f 513f 03a8 813c 880e c73c
00000080: de9d c536 65ec 7b3d 1ae7 d13b 8e6c d73d
00000090: 25bf b93b 7a19 ad39 bfc7 b53d 86d6 9238
000000a0: db85 283c 4061 b43d 4e49 493c 6f83 963c
000000b0: b4d1 473b 0400 0000 12d0 683c 367a 413d
000000c0: d351 623b 7676 6b37 d941 193c a89b 9c3e
000000d0: e79f a72f 9c7c 0c3e 4e56 cf3d 4038 ae3b
000000e0: 69fb 6b39 6235 523e fd84 2621 6f6b 813d
000000f0: a101 ca3d 1074 953e 306e 3439 130d 7e3a
00000100: 1094 a82e 4508 a33e 689d 3f3d c4a1 ca36
00000110: 9a99 f03d 8d44 5d39 c140 a13e 0400 0000
00000120: 4dde 933b 0400 0000 197e 9e3c b22e 5935
00000130: c659 8d3e d31f 0739 35d9 333c 8832 713d
00000140: 8573 603a ef0b 8a3c a0d5 bf3b 5cc0 1233
00000150: f10c 683c 0400 0000 c781 923a 9ee0 9438
00000160: 0400 0000 6792 033d 7374 733d 487e e73c
00000170: 4ed4 b532 87da 9624 027b 8b3b 67e9 423f
00000180: 6633 363a c07d fa39 adaa 5038 57aa a337
00000190: 0400 0000 2a41 b03a dc88 2c3d 0289 d93c
000001a0: fcee 203c 0400 0000 1078 6e3e 0400 0000
000001b0: b286 0f38 1c3e d938 d407 aa3c ac44 163b
000001c0: cb1c 543e 2136 543c 2fb9 453e 0400 0000
000001d0: 7506 7139 7470 3c3e 50e3 bb3d 42dc 333e
000001e0: 0938 993b f670 9d38 f2bb 663d d8a0 2638
000001f0: fbe3 ad39 e975 963e 5ed9 a439 b54c c03d

bn3.running_var f4 [128]
0.0020848 0.072995156 0.08841553 0.16251346 0.028165508 0.08640801 7.381713e-05 6.202536e-15
0.026392331 0.000111570145 0.017083121 0.008164029 0.048212282 0.07309492 2.6722704e-05 0.0447494
0.014679649 0.00016217561 0.03624362 0.00076362496 0.08479773 0.0002587019 3.3320106e-08 0.016021172
6e-45 0.030374603 0.00056566135 0.014257586 0.04888695 0.3648308 0.005812659 0.0048568565
1.6925782e-06 0.016557446 0.0012010505 0.036811817 0.0017532611 0.00018742472 0.027146375 1.2105196e-05
0.0016633756 0.022119954 0.0031824464 0.0038069917 0.0030303875 6e-45 0.0029894186 0.0128376605
0.00072400743 3.6407446e-06 0.002251674 0.11038678 5.5847132e-11 0.049088735 0.037391946 0.0007444129
9.365141e-05 0.07172626 1.5062833e-20 0.017393235 0.036223695 0.12635124 6.020014e-05 0.00074434234
1.31479515e-11 0.15490054 0.01909505 2.4302776e-06 0.028587379 0.00014017502 0.15875454 6e-45
0.004791136 6e-45 0.0031544191 2.4900302e-07 0.08727378 4.465857e-05 0.0069730273 0.029101178
0.0009856316 0.0040097255 0.000806003 9.968862e-09 0.006147906 6e-45 0.0007436405 1.2802502e-05
6e-45 0.009808766 0.019004792 0.0062318863 6.810197e-09 2.2307956e-17 0.0005538034 0.10624622
0.000518832 0.00025672695 7.117353e-06 6.7239114e-07 6e-45 0.0010040232 0.01906551 0.006460226
0.0040480103 6e-45 0.111406565 6e-45 6.1035817e-06 2.1117117e-05 0.009549093 0.001984672
0.074642666 0.005485091 0.11472698 6e-45 0.0001633414 0.08961607 0.02724377 0.09190287
0.0062496345 3.900472e-05 0.02984129 6.833349e-06 0.00017135653 0.14106384 0.00010510876 0.031989068
00000000: 24a1 083b 7c7e 953d 3413 b53d ee69 263e
00000010: 5abb e63c aff6 b03d 45ce 9a38 4c78 df27
00000020: bb34 d83c c4fa e938 e7f1 8b3c 6bc2 053c
00000030: 3e7a 453d cab2 953d 922a e037 264b 373d
00000040: e982 703c af0d 2a39 3174 143d 012e 483a
00000050: 6faa ad3d 62a2 8739 d81b 0f33 d53e 833c
00000060: 0400 0000 29d4 f83c e448 143a a698 693c
00000070: af3d 483d 1acb ba3e 1e78 be3b 4426 9f3b
00000080: 8b2c e335 7ba3 873c 916c 9d3a fdc7 163d
00000090: aecd e53a 7187 4439 1362 de3c 6c17 4b37
000000a0: a005 da3a e834 b53c 9790 503b b97e 793b
000000b0: 7799 463b 0400 0000 1fea 433b 0d55 523c
000000c0: 51cb 3d3a 8453 7436 d290 133b 7712 e23d
000000d0: 489e 752e 4511 493d 4c28 193d b424 433a
000000e0: b866 c438 38e5 923d b243 8e1e 427c 8e3c
000000f0: 4c5f 143d 3862 013e 687f 7c38 f81f 433a
00000100: 1c4d 672d 3f9e 1e3e 396d 9c3c da17 2336
00000110: 1430 ea3c f2fb 1239 8d90 223e 0400 0000
00000120: f6fe 9c3b 0400 0000 5fba 4e3b b7ae 8534
00000130: 98bc b23d c64f 3b38 fe7d e43b 9865 ee3c
00000140: 4f30 813a 0464 833b f249 533a 8543 2b32
00000150: 6074 c93b 0400 0000 dff0 423a 54ca 5637
00000160: 0400 0000 f2b4 203c f0af 9b3c da34 cc3b
00000170: 20ff e931 2cc1 cd23 1e2d 113a 9e97 d93d
00000180: 3a02 083a 4f99 8639 99d1 ee36 5e7e 3435
00000190: 0400 0000 6e99 833a 462f 9c3c 4eb0 d33b
000001a0: 2ca5 843b 0400 0000 2029 e43d 0400 0000
000001b0: 5ecd cc36 aa24 b137 cd73 1c3c 4511 023b
000001c0: 41de 983d 47bc b33b fbf5 ea3d 0400 0000
000001d0: a046 2b39 a188 b73d 542e df3c 9237 bc3d
000001e0: bcc9 cc3b 0099 2338 b975 f43c 054a e536
000001f0: 2bae 3339 0a73 103e d66d dc38 f806 033d
