mode_weights/agent5_critic_target.pth (torch_old, 93523 bytes, 17 tensors)

bn1.weight f4 [33]
0	0x3efe15c3	0.49625978
1	0x3f44aa5a	0.76822436
2	0x3db533a8	0.08847743
3	0x3e073300	0.13203049
4	0x3e9d6686	0.30742282
5	0x3f2252fb	0.6340787
6	0x3efaed86	0.4900934
7	0x3f657d67	0.89644474
8	0x3ee94812	0.45562798
9	0x3f21ded3	0.6323063
10	0x3eb2a22a	0.34889346
11	0x3ecdade4	0.4017173
12	0x3cb6e480	0.022325754
13	0x3e2ce95c	0.16885895
14	0x3e96788c	0.29388845
15	0x3f04bdd8	0.5185218
16	0x3f329a58	0.6976676
17	0x3f4ccd8c	0.8000114
18	0x3e24e570	0.16103148
19	0x3e908582	0.28226858
20	0x3f2e7de6	0.68160856
21	0x3f6a4a27	0.915194
22	0x3ecb50ae	0.3970999
23	0x3f5fc8ae	0.8741559
24	0x3ed6bcb0	0.41940832
25	0x3f0d8b51	0.55290705
26	0x3f73e6a5	0.9527381
27	0x3d142190	0.03616482
28	0x3e3dad45	0.18523128
29	0x3ebf3090	0.37341738
30	0x3e9c3612	0.30510002
31	0x3f6e9794	0.9320004
32	0x3e3421cc	0.17591017

bn1.bias f4 [33]
0	0x00000000	0.0
1	0x00000000	0.0
2	0x00000000	0.0
3	0x00000000	0.0
4	0x00000000	0.0
5	0x00000000	0.0
6	0x00000000	0.0
7	0x00000000	0.0
8	0x00000000	0.0
9	0x00000000	0.0
10	0x00000000	0.0
11	0x00000000	0.0
12	0x00000000	0.0
13	0x00000000	0.0
14	0x00000000	0.0
15	0x00000000	0.0
16	0x00000000	0.0
17	0x00000000	0.0
18	0x00000000	0.0
19	0x00000000	0.0
20	0x00000000	0.0
21	0x00000000	0.0
22	0x00000000	0.0
23	0x00000000	0.0
24	0x00000000	0.0
25	0x00000000	0.0
26	0x00000000	0.0
27	0x00000000	0.0
28	0x00000000	0.0
29	0x00000000	0.0
30	0x00000000	0.0
31	0x00000000	0.0
32	0x00000000	0.0

bn1.running_mean f4 [33]
0	0x00000000	0.0
1	0x00000000	0.0
2	0x00000000	0.0
3	0x00000000	0.0
4	0x00000000	0.0
5	0x00000000	0.0
6	0x00000000	0.0
7	0x00000000	0.0
8	0x00000000	0.0
9	0x00000000	0.0
10	0x00000000	0.0
11	0x00000000	0.0
12	0x00000000	0.0
13	0x00000000	0.0
14	0x00000000	0.0
15	0x00000000	0.0
16	0x00000000	0.0
17	0x00000000	0.0
18	0x00000000	0.0
19	0x00000000	0.0
20	0x00000000	0.0
21	0x00000000	0.0
22	0x00000000	0.0
23	0x00000000	0.0
24	0x00000000	0.0
25	0x00000000	0.0
26	0x00000000	0.0
27	0x00000000	0.0
28	0x00000000	0.0
29	0x00000000	0.0
30	0x00000000	0.0
31	0x00000000	0.0
32	0x00000000	0.0

bn1.running_var f4 [33]
0	0x3f800000	1.0
1	0x3f800000	1.0
2	0x3f800000	1.0
3	0x3f800000	1.0
4	0x3f800000	1.0
5	0x3f800000	1.0
6	0x3f800000	1.0
7	0x3f800000	1.0
8	0x3f800000	1.0
9	0x3f800000	1.0
10	0x3f800000	1.0
11	0x3f800000	1.0
12	0x3f800000	1.0
13	0x3f800000	1.0
14	0x3f800000	1.0
15	0x3f800000	1.0
16	0x3f800000	1.0
17	0x3f800000	1.0
18	0x3f800000	1.0
19	0x3f800000	1.0
20	0x3f800000	1.0
21	0x3f800000	1.0
22	0x3f800000	1.0
23	0x3f800000	1.0
24	0x3f800000	1.0
25	0x3f800000	1.0
26	0x3f800000	1.0
27	0x3f800000	1.0
28	0x3f800000	1.0
29	0x3f800000	1.0
30	0x3f800000	1.0
31	0x3f800000	1.0
32	0x3f800000	1.0

fcs1.weight f4 [128, 33]
0	0x3c2babb2	0.010477947
1	0x3d954c31	0.07289923
2	0x3bd929ad	0.0066272826
3	0xbd608487	-0.054813888
4	0xbce19877	-0.027538521
5	0x3b9dea2d	0.0048191757
6	0xbbd9afd4	-0.006643275
7	0x3b55749f	0.0032570732
8	0xbc1cf52e	-0.00957994
9	0xba89ff8c	-0.0010528429
10	0x3b90d115	0.004419456
11	0x3cb9a24e	0.0226604
12	0xbb9ba4b7	-0.00474986
13	0x3b8e4e91	0.004342862
14	0x3d7efcdd	0.062252868
15	0x3cff4f1a	0.031165648
16	0x3cd46976	0.025929194
17	0x3c5caa8f	0.013468399
18	0x3cecd01d	0.02890783
19	0x3ce3dc08	0.02781488
20	0xbba5de60	-0.0050619096
21	0x3c084f03	0.008319619
22	0x3a71e284	0.0009227174
23	0x39f78961	0.00047213866
24	0x3cc3cf2f	0.023902504
25	0x3c0d313a	0.008617694
26	0x3c4f6f1f	0.012660771
27	0x3d0805ae	0.03320854
28	0x3c16c3d3	0.009201962
29	0x80000f8c	-5.577e-42
30	0xbd0805ae	-0.03320854
31	0x0000111c	6.138e-42
32	0x3cce0629	0.025149422
33	0x3d43a1b8	0.04776165
34	0xbbda2309	-0.0066570085
35	0x3c565669	0.013082125
36	0xbc77d2a3	-0.015125903
37	0xbce3c62d	-0.027804459
38	0x3be3694d	0.006940043
39	0xbacf9832	-0.0015838204
40	0xbc1039bb	-0.0088028265
41	0x3c895f3b	0.016769042
42	0x3bc9e3cc	0.0061611887
43	0xbb07d860	-0.0020728335
44	0x3b92445c	0.0044637155
45	0xbb3bd4a0	-0.002866067
46	0xbd8ef5fb	-0.06980511
47	0x3c1248da	0.008928502
48	0xbccf9548	-0.025339738
49	0xbc5b5ee5	-0.013389324
50	0xbc440fe8	-0.011966683
51	0x3c21ebd6	0.009882888
52	0xbc13e649	-0.009027072
53	0xbb06a088	-0.0020542461
54	0x3a48dc94	0.0007662263
55	0xbbdd7a50	-0.0067589656
56	0xbc8da947	-0.017292632
57	0x3be496d2	0.006975987
58	0xbb438441	-0.0029833468
59	0x3cc525d7	0.024065895
60	0x3d9d5765	0.07682685
61	0x3d253269	0.040331278
62	0x00003b88	2.1356e-41
63	0xbd9dcaa3	-0.077046655
64	0x80001374	-6.978e-42
65	0x3e7c6c08	0.24650586
66	0xbd18062a	-0.037115254
67	0xbd75e516	-0.060032926
68	0x3d3f4667	0.046698
69	0xbc07478c	-0.008256804
70	0xbd241061	-0.040054683
71	0x3ce4c0be	0.027923938
72	0x3ae8ad2b	0.0017751803
73	0xbc1205db	-0.008912529
74	0xbc9362b6	-0.017991405
75	0xbce3c14c	-0.027802132
76	0xba304e3c	-0.0006725525
77	0x3bc07c3b	0.0058741844
78	0xbcb8ee7c	-0.022574656
79	0x3c4832fd	0.012219188
80	0x3d01c5b9	0.031682704
81	0xbd741dd8	-0.059598774
82	0xbc04d1c4	-0.008106653
83	0xbcb01626	-0.021494936
84	0x3d07f1cd	0.033189584
85	0x3a40480b	0.0007334954
86	0xbc805ed1	-0.015670212
87	0xbd2d0bcb	-0.042247575
88	0xbd4834eb	-0.04887859
89	0xbcb17787	-0.02166344
90	0xbcad7d72	-0.021177981
91	0xbd3421bd	-0.043977488
92	0xbc125342	-0.008930983
93	0x3d4f151a	0.050557233
94	0xbc828093	-0.01593045
95	0x800034d1	-1.8947e-41
96	0xbd4f372b	-0.05058972
97	0x00000d34	4.736e-42
98	0x3c930b08	0.017949596
99	0xbac9cd3b	-0.0015396246
100	0x3d93ca46	0.07216315
101	0xbc415c49	-0.011801788
102	0x3b8a2355	0.0042156377
103	0xbc3cb8ed	-0.011518699
104	0x3cad37e5	0.021144817
105	0xbbbfbcf9	-0.0058513847
106	0x3d05d1a0	0.032670617
107	0x3d7147e7	0.058906462
108	0xbd144452	-0.036197968
109	0xbd881582	-0.06644727
110	0x3d529351	0.051410023
111	0xb958b495	-0.00020666637
112	0xbcd9f827	-0.026607586
113	0x3cc962ef	0.024583308
114	0xbd150a01	-0.036386494
115	0xbd33feab	-0.043944042
116	0xbcf7cb8a	-0.030248422
117	0xbcef3f76	-0.029205065
118	0x3b229363	0.0024807088
119	0xbcfe1e6b	-0.031020364
120	0xbd62c05b	-0.055359226
121	0xbbcf6b90	-0.006329961
122	0x3ce9279b	0.028461268
123	0x3c118c26	0.008883512
124	0x3c184de9	0.009295919
125	0x3c5b3b75	0.013380875
126	0x3cca5e75	0.024703244
127	0x3c0d183d	0.008611736
128	0x00003854	2.0207e-41
129	0xbccb96ee	-0.024852242
130	0x00000cc6	4.582e-42
131	0xbdffc4b2	-0.124886885
132	0xbb67a3f2	-0.0035345522
133	0x3bcc2af3	0.006230706
134	0xbb3a98dc	-0.002847246
135	0xbb9625fa	-0.004582164
136	0xbb106761	-0.0022034275
137	0xb8ebbde4	-0.00011241043
138	0xba9fc343	-0.001218893
139	0x3b930f51	0.00448791
140	0xbb2910a4	-0.0025797272
141	0x3b18790c	0.002326551
142	0x3b7b07b2	0.0038304147
143	0x3b7bd9f3	0.0038429468
144	0xbb685539	-0.0035451187
145	0xbb7cdf66	-0.0038585304
146	0x3b300c2d	0.0026862726
147	0xbab1e281	-0.0013571532
148	0x3a0610a8	0.00051141763
149	0x3aa68d58	0.0012706919
150	0x3a8ae282	0.0010596069
151	0x3b671997	0.0035263055
152	0xb9b54b24	-0.00034578994
153	0x3b0941fe	0.0020943875
154	0xba1370a8	-0.0005624392
155	0x3a52cd3f	0.00080414483
156	0x3bb55e0e	0.005534894
157	0xbb626614	-0.0034545707
158	0xbb193355	-0.0023376544
159	0x3b6b9959	0.0035949557
160	0xba60194a	-0.000854869
161	0x00000b73	4.107e-42
162	0xbb6b9959	-0.0035949557
163	0x8000157c	-7.707e-42
164	0xb9f4011b	-0.0004654013
165	0xbc93e5bd	-0.018053884
166	0x3d531197	0.051530447
167	0xbb6917f4	-0.0035567256
168	0xbcd580f9	-0.026062476
169	0x3d68d25f	0.05684125
170	0x3c5ff51d	0.013669279
171	0x3a572ee8	0.00082085887
172	0xbc159cf7	-0.009131662
173	0xbcff2fed	-0.031150782
174	0x3c5d196e	0.013494832
175	0x3aaeec41	0.0013345556
176	0x3c8aa0a4	0.016922303
177	0xba870d45	-0.0010303637
178	0x3d922d15	0.07137505
179	0x3b71a4eb	0.003687198
180	0x3c6fea3d	0.014643249
181	0x3c8a207d	0.016861195
182	0xbc89dbdf	-0.016828476
183	0x3c271326	0.010197436
184	0x3a67a1a0	0.00088360347
185	0x3bf14385	0.0073627853
186	0x3c0a4bb6	0.008440902
187	0xbc75a161	-0.014992089
188	0x3d511d5f	0.0510534
189	0xbb973352	-0.004614272
190	0x3cdfb6e6	0.027308892
191	0xbc8113c2	-0.015756492
192	0x3da1e683	0.07905295
193	0xbd78f896	-0.060783945
194	0x000009c5	3.505e-42
195	0xbdb1d3c5	-0.0868297
196	0x00000b05	3.953e-42
197	0x3e73423b	0.23755734
198	0xbd835b3e	-0.064138874
199	0x3d6fd448	0.058552057
200	0x3d86bf41	0.065794475
201	0x3c4e0863	0.012575242
202	0xbd31d960	-0.043420196
203	0xbca43785	-0.020046005
204	0xbc859911	-0.01630834
205	0x3d0b496b	0.034005564
206	0x3d2d3f78	0.042296857
207	0xbcf5aff3	-0.029991126
208	0x3a0541bc	0.00050833425
209	0x37a1e59f	1.9299621e-05
210	0x3caab9ad	0.02084049
211	0xbbc3c41c	-0.005974306
212	0xbd4c16d4	-0.049826458
213	0xbd6d838c	-0.05798678
214	0x3b928d8d	0.0044724406
215	0xbb913b87	-0.004432145
216	0x3d054509	0.03253654
217	0xbc2c528e	-0.010517729
218	0xba33682a	-0.000684383
219	0xbb745bd7	-0.0037286186
220	0xbafabd56	-0.0019129913
221	0xbc443b92	-0.011977093
222	0xbc5189d2	-0.012789207
223	0xbd0d8b07	-0.034556415
224	0x3b26af97	0.002543425
225	0x3d414afe	0.04719066
226	0xbc215e5d	-0.009849158
227	0x8000159b	-7.75e-42
228	0xbd412063	-0.047150027
229	0x00000ca8	4.54e-42
230	0x3e5d4a69	0.21610416
231	0x3cac8635	0.021060089
232	0x3da92e9f	0.082608454
233	0xbca6cac8	-0.020360366
234	0xbd2a0764	-0.041510954
235	0x3b82aef2	0.0039881403
236	0xbd04a2ab	-0.032381695
237	0xbcb81f27	-0.022475792
238	0xbcf99658	-0.030467197
239	0x3d0c9bf4	0.034328416
240	0xbc754260	-0.014969438
241	0x3ce59aed	0.028027976
242	0x3c516a1d	0.012781647
243	0x3a42104a	0.000740294
244	0xbc8e79cb	-0.01739206
245	0xbd4b5783	-0.049644005
246	0x3d285efd	0.041106213
247	0x3b8cb22f	0.004293702
248	0x3bdef5e8	0.0068042167
249	0xbcefddbc	-0.029280536
250	0xbc595ec5	-0.013267224
251	0x3c2f5c0d	0.010703099
252	0x3cec1b88	0.028821722
253	0x3bfb5cb5	0.0076709636
254	0xbd38b11c	-0.04509078
255	0xbb0656d8	-0.002049854

fcs1.bias f4 [128]
0	0xbd0805a7	-0.033208515
1	0xbd9c6086	-0.07635598
2	0xbd4e730b	-0.050402682
3	0xbcd0b0db	-0.025474956
4	0xbb6b9959	-0.0035949557
5	0xbda69a4f	-0.08134901
6	0xbd40dba2	-0.04708446
7	0xbd8da7c9	-0.06916768
8	0xbd3dd3b5	-0.046344478
9	0xbc2c3e7f	-0.010512947
10	0xbdb42c82	-0.08797552
11	0xbcdb29fa	-0.026753414
12	0xbc890031	-0.016723724
13	0xbda628ce	-0.081132516
14	0x3d2679b2	0.0406434
15	0xbd45de9d	-0.048308004
16	0xbd3aef4e	-0.045638375
17	0xbdbe145e	-0.092812285
18	0x3b3fab27	0.0029246302
19	0x3b7c00fc	0.0038452735
20	0xbd506f21	-0.05088723
21	0xbc5028dc	-0.012705054
22	0xbd66a387	-0.056308296
23	0x3c3201b4	0.010864664
24	0xba08a8ba	-0.00052131305
25	0xbd05b1e6	-0.03264036
26	0xbd2eba0e	-0.042657904
27	0xbd9543cd	-0.072883226
28	0xb937b7f4	-0.00017520768
29	0xbdb2043b	-0.08692213
30	0xbdda2cc8	-0.106530726
31	0xbcec2670	-0.028826922
32	0xbd7bf954	-0.061517075
33	0xbba32864	-0.00497918
34	0xbd93c0b1	-0.07214487
35	0xbc8f2334	-0.01747284
36	0x3c77f975	0.015135159
37	0xbd23c67f	-0.039984223
38	0x3bd1061c	0.006378902
39	0xbd2d2b93	-0.042277884
40	0xb9c9eac0	-0.0003851261
41	0xbda11cc2	-0.07866813
42	0xbd8c8a65	-0.06862334
43	0xbd246ce5	-0.040142912
44	0xbd910a2d	-0.07082019
45	0xbcb89529	-0.022532063
46	0x3cbd9047	0.023140086
47	0xbcc33d63	-0.023832982
48	0xbd12cd3f	-0.03584027
49	0xbcb67648	-0.022273198
50	0xbd112ace	-0.035441212
51	0xbcfa4f23	-0.030555313
52	0xbc8e2633	-0.0173522
53	0xbd9919fc	-0.07475659
54	0x3ab05d3e	0.0013455523
55	0xbd1946a3	-0.03742088
56	0xbd93cd79	-0.07216925
57	0xbb7ef64b	-0.0038904126
58	0x3a9587a9	0.0011408228
59	0xba3fe9be	-0.0007320902
60	0xbbcda478	-0.0062757097
61	0xbd943e5a	-0.07238455
62	0xbd8ba38f	-0.06818306
63	0xbc1e1e1b	-0.009650732
64	0xbd485a8e	-0.048914485
65	0x3c35e47c	0.011101838
66	0xbcbc664b	-0.022997996
67	0xbc9733d2	-0.018457327
68	0xbde628b9	-0.11238236
69	0xbd93a29e	-0.07208751
70	0xbc5b1f0a	-0.0133740995
71	0x3d067a5f	0.032831546
72	0xbcf081e1	-0.029358806
73	0xbd67d019	-0.05659494
74	0x3ca92367	0.020646764
75	0xbce81cb2	-0.028333995
76	0xbd22e15e	-0.03976571
77	0x3ca1dfea	0.01976009
78	0xbd6ba487	-0.057529952
79	0xbd920faf	-0.07131898
80	0xbcb71d68	-0.02235289
81	0xbcb8915b	-0.022530248
82	0xbcbba095	-0.02290372
83	0x3c81adfb	0.01583003
84	0x3b6cdda4	0.003614285
85	0xbd3a6765	-0.04550876
86	0xbded96c7	-0.11601024
87	0xbd081e9f	-0.033232328
88	0xbd4dd916	-0.050255857
89	0xbbc6028c	-0.006042784
90	0xba44082b	-0.0007478024
91	0xbccbc6cf	-0.024875073
92	0xbd33a71d	-0.043860544
93	0xbcb4e9a2	-0.022084061
94	0xbd100990	-0.03516537
95	0xbd97899b	-0.07399293
96	0xbdcc9495	-0.09989277
97	0xbd824163	-0.06360128
98	0xbcdc9018	-0.026924178
99	0xbdd22e24	-0.10262707
100	0xbdb7c270	-0.08972633
101	0xbc879654	-0.016551174
102	0xbd832bca	-0.064048365
103	0xbd2d0d76	-0.042249165
104	0xba28b9e9	-0.0006436394
105	0x3ce8c947	0.028416289
106	0xbd82bd15	-0.06383721
107	0xbd1853e2	-0.037189372
108	0xba342820	-0.0006872434
109	0xbc44a164	-0.012001369
110	0xbc90104e	-0.0175859
111	0xbdad2240	-0.08453798
112	0xbcbd550b	-0.02311184
113	0x3c791bf2	0.015204417
114	0xbcc08543	-0.023501044
115	0xbca2b438	-0.019861326
116	0xbd861d4c	-0.06548557
117	0xbdcc7d79	-0.099848695
118	0xbc8d9922	-0.017284933
119	0xbbf20890	-0.0073862746
120	0xbc2f0ba7	-0.0106839305
121	0xbbb527a6	-0.005528408
122	0xbd77868e	-0.060431056
123	0xbc20fa0d	-0.009825242
124	0xbd66734b	-0.056262296
125	0x3c0c42b3	0.008560824
126	0x3b77b7ad	0.0037798688
127	0x3ae1c986	0.0017226196

bn2.weight f4 [128]
0	0x3d6e7161	0.058213595
1	0x3e273286	0.16327867
2	0x3e0587c1	0.13040067
3	0x3da973af	0.08274018
4	0x3802dc53	3.119961e-05
5	0x3e73e954	0.23819476
6	0x3e54ecb2	0.20793417
7	0x3de6f693	0.11277499
8	0x3e777954	0.24167377
9	0x3e7dc51e	0.24782225
10	0x3e2f4fd6	0.17120299
11	0x3d4c4818	0.04987344
12	0xbc88e4c9	-0.016710656
13	0x3d30da9a	0.043177225
14	0x3e081acd	0.13291474
15	0x3e3d68a9	0.18496956
16	0x3e167cae	0.14695999
17	0x3e8fefcd	0.2811264
18	0x3e2b5fad	0.16735716
19	0x3f069af8	0.52580214
20	0x3e851e67	0.25999758
21	0x3e62f992	0.22165516
22	0x3ddc44de	0.10755323
23	0x3e4ffb34	0.2031067
24	0x36c883ed	5.9758227e-06
25	0x3de83968	0.113390744
26	0x3e32808f	0.17431854
27	0x3e0315b2	0.12801245
28	0xb700c3f2	-7.675017e-06
29	0x3db40a27	0.08790999
30	0x3e57e215	0.21082337
31	0x3eb99739	0.36248186
32	0x3e8afe8d	0.27147332
33	0x3e13981a	0.14413491
34	0x3e25be91	0.16185977
35	0x3e0fbd58	0.14037073
36	0x3e1f65ba	0.1556615
37	0x3dcab596	0.09897916
38	0x3e3c57d3	0.18392877
39	0x3e18b7e5	0.149139
40	0xb74373c1	-1.1649857e-05
41	0x3de48887	0.11158853
42	0x3e8428b3	0.258123
43	0x3e278656	0.16359839
44	0x3e467438	0.19380271
45	0x3f0cfc47	0.55072445
46	0x3ed5e188	0.4177363
47	0x3e9d82f6	0.30763978
48	0x3df22378	0.118231714
49	0x3e92c0b5	0.2866265
50	0x3e42ed7e	0.19035909
51	0x3df92e04	0.1216698
52	0x3e0f7ed3	0.14013223
53	0x3e3dfdaa	0.18553796
54	0x3e53f8a7	0.20700322
55	0x3e47466f	0.19460462
56	0x3eae6389	0.34060314
57	0x3e966999	0.2937744
58	0x3e77b834	0.24191362
59	0x3e471e88	0.1944524
60	0x3e98785a	0.2977932
61	0x3de70a1b	0.11281224
62	0x3e18ace4	0.14909703
63	0x3e5badfd	0.2145309
64	0x3e11c69d	0.14235921
65	0x3eba245c	0.36355865
66	0x3e655cb6	0.22398648
67	0x3de56080	0.112000465
68	0x3dbfa2d1	0.09357227
69	0x3e734004	0.23754889
70	0x3eff457f	0.4985771
71	0x3e695bbc	0.227889
72	0x3e1fe371	0.15614106
73	0x3e30b3dc	0.17256111
74	0x3eb156ea	0.34636623
75	0x3e8df6ad	0.2772726
76	0x3e5e078a	0.21682563
77	0x3e777ac2	0.24167922
78	0x3e219ccf	0.15782474
79	0x3e2fab56	0.17155203
80	0x3e8c18fd	0.27362815
81	0x3e4dac55	0.2008527
82	0x3e0ca8f6	0.13736328
83	0x3e92f15a	0.28699762
84	0x3ea28158	0.31739306
85	0x3e328915	0.17435105
86	0x3e2dc6c4	0.16970354
87	0x3e19aa7a	0.15006438
88	0x3db5abf8	0.08870691
89	0x3e8849d8	0.26618838
90	0xb737effd	-1.0963527e-05
91	0x3e180ee9	0.14849438
92	0x3e63ee1f	0.22258805
93	0x3e6dba70	0.23215652
94	0x3eb92d8a	0.36167556
95	0x3e8d2050	0.27563715
96	0x3db90ae5	0.09035281
97	0x3db432b5	0.08798734
98	0x3dfec04a	0.1243902
99	0x3e585a65	0.21128233
100	0x3e3ba9c1	0.18326475
101	0x3e5264b9	0.20546235
102	0x3dff16d8	0.12455529
103	0x3e921341	0.28530315
104	0xb51770e0	-5.641614e-07
105	0x3ed91ff9	0.42407206
106	0x3e22bf1c	0.15893215
107	0x3e5625bf	0.20912836
108	0x3e99d910	0.30048418
109	0x3e8b35c2	0.2718945
110	0x3e8d3a81	0.27583697
111	0x3d339d2e	0.04385107
112	0x3e88627a	0.26637632
113	0x3e93ecc9	0.2889159
114	0x3e954ad7	0.2915866
115	0x3e91a115	0.28443208
116	0x3e2ed2e8	0.17072642
117	0x3e9d5837	0.30731365
118	0x3e993fbf	0.29931447
119	0x3e80bfbb	0.2514628
120	0x3ccc8c0f	0.024969129
121	0x3f09e390	0.5386286
122	0x3e36da9e	0.17856833
123	0x3e428173	0.18994693
124	0x3e94fec3	0.29100618
125	0x3e50c855	0.2038892
126	0x3ea8b6c4	0.3295194
127	0x3e1557e7	0.14584313

bn2.bias f4 [128]
0	0xbc3af406	-0.011410719
1	0xbdc06b02	-0.0939541
2	0x3d8ee638	0.069775045
3	0x3d52315a	0.051316597
4	0xb6a5c16f	-4.939902e-06
5	0xbd6535d1	-0.055959526
6	0x398cc3d9	0.000268488
7	0xbd5ff983	-0.054681312
8	0xbdb3b8d7	-0.0877549
9	0xbcf7c157	-0.030243559
10	0xbde12c64	-0.10994795
11	0xbd64486a	-0.055733122
12	0x39ae4e25	0.00033246088
13	0xbdb45259	-0.08804769
14	0xbd755a3f	-0.05990052
15	0x3d5eeee3	0.05442704
16	0x3d83fb5f	0.064444296
17	0x3de7b007	0.113128714
18	0x3dd8b80d	0.1058198
19	0xbdbbcb6a	-0.091696575
20	0xbd943a59	-0.072376914
21	0x3da0faf3	0.07860365
22	0x3d34a5b7	0.04410335
23	0x3d5b3f15	0.053526957
24	0xb6860e99	-3.9952106e-06
25	0xba0b3214	-0.00053098914
26	0xbd2c1006	-0.04200747
27	0x3cb44167	0.022003843
28	0x3694f8a1	4.439688e-06
29	0xbc38d2e5	-0.01128075
30	0xbd94d9d7	-0.07268112
31	0x3c5da86f	0.013528927
32	0xbddcec8c	-0.10787305
33	0x3d200624	0.039068356
34	0xbd893dbb	-0.06701227
35	0x3d4c10a7	0.04982057
36	0xbdb8c7f8	-0.09022516
37	0x3dd1f26c	0.102513164
38	0xbdab57dd	-0.08366368
39	0x3d365665	0.044515986
40	0xb697f430	-4.528578e-06
41	0xbd9e822b	-0.07739671
42	0xbd435f00	-0.04769802
43	0x3d84ab2f	0.06477963
44	0x3d3f38a6	0.046684884
45	0xbdc88298	-0.09790534
46	0xbc8235cb	-0.015894791
47	0xbd8d0b98	-0.06886977
48	0xbc07ed57	-0.008296332
49	0x3d2d3e35	0.042295653
50	0xbdb1895e	-0.08668779
51	0x3d48e059	0.04904208
52	0x3d563337	0.052294936
53	0xbd9d1135	-0.076692976
54	0x3dac8e2d	0.084255554
55	0xbb8288ee	-0.0039836084
56	0xbc8ed8be	-0.017437335
57	0xbde78a76	-0.11305706
58	0xbd804b56	-0.06264369
59	0xbd4990d0	-0.04921037
60	0xbd8a417a	-0.0675077
61	0x3d82f480	0.06394291
62	0xbd5d63ca	-0.054050244
63	0x3d0c5953	0.034264874
64	0xbd88fee5	-0.06689242
65	0xbdb2b7f7	-0.08726495
66	0x3d93e6d1	0.07221759
67	0x3d774777	0.06037089
68	0xbd90e93e	-0.070757374
69	0xbd72b812	-0.059257574
70	0xbdaf5481	-0.0856104
71	0xbd20c024	-0.03924574
72	0x3b0cde0b	0.0021494653
73	0xbd73c203	-0.059511196
74	0x3d6b4bf3	0.057445478
75	0x3e06f96c	0.13181084
76	0xbdb0e0fc	-0.08636662
77	0xbc2a02f8	-0.010376684
78	0xbd89ec1a	-0.06734486
79	0xbe0005e3	-0.12502246
80	0x3df51e42	0.11968662
81	0xbd5ff432	-0.054676242
82	0xbdb0ce0a	-0.08633049
83	0x3d7a4a82	0.061106212
84	0x3c02eabc	0.007990535
85	0xbcc6d8f3	-0.024273371
86	0x3d6a470b	0.057196658
87	0xbc0b45e8	-0.008500554
88	0xbd6b6579	-0.05746982
89	0x3e12f7e5	0.14352377
90	0x36cd3244	6.115328e-06
91	0xbcf14fe3	-0.029457038
92	0x3caba521	0.020952763
93	0xbc24a98d	-0.01005019
94	0xbd2a1396	-0.041522585
95	0xbdb9938d	-0.09061346
96	0xbb5357a7	-0.003224829
97	0xbd90cbdd	-0.07070134
98	0xbd577590	-0.05260235
99	0xbda2e398	-0.07953566
100	0xbd8ad49c	-0.06778833
101	0xbd99b784	-0.07505706
102	0xbdced1de	-0.10098623
103	0x3c9f9bea	0.019483525
104	0x36a51499	4.919781e-06
105	0x3cce193f	0.025158523
106	0x3ca9e8f0	0.020740956
107	0x3c97c868	0.018528178
108	0xbd13be83	-0.036070358
109	0x3d6abbb4	0.057307914
110	0xbd209608	-0.03920558
111	0x3d5a5bda	0.053310253
112	0x3d76a236	0.06021329
113	0x3d2345f2	0.039861627
114	0x3d8a95f1	0.0676688
115	0x3d5e8ca5	0.054333348
116	0xba1084d8	-0.00055129593
117	0xbd99e76e	-0.07514845
118	0x3d32e157	0.043671932
119	0xbce54fe6	-0.0279922
120	0xbaddb164	-0.0016913828
121	0xbd84754c	-0.06467685
122	0xbc74b191	-0.014934913
123	0x3ce4eff6	0.027946454
124	0xbdc78db4	-0.097438246
125	0xbd1d6abc	-0.038431868
126	0xbc045606	-0.00807715
127	0xbd597865	-0.053093333

bn2.running_mean f4 [128]
0	0x3b537387	0.0032264905
1	0x3c1206ea	0.008912781
2	0x3db5c653	0.08875718
3	0x3c00680a	0.007837305
4	0x3bb25c81	0.005443156
5	0x3cefb452	0.029260788
6	0x3d1888b9	0.037239764
7	0x3cb6d75c	0.022319488
8	0x3c6fe649	0.014642307
9	0x3e3934a4	0.18086487
10	0x3caee0be	0.0213474
11	0x39de1213	0.00042356606
12	0x394658a2	0.0001891577
13	0x39d17b9d	0.00039955685
14	0x3d45e8ce	0.048317723
15	0x3d0be4fd	0.034153927
16	0x3ccb58c2	0.024822596
17	0x3c9ca92d	0.019123638
18	0x3d575d85	0.05257942
19	0x3d95ca1f	0.07313942
20	0x3cfae36c	0.030626021
21	0x3e92265b	0.28544888
22	0x3d571549	0.052510533
23	0x3cb31ae9	0.021863418
24	0x3c4fa590	0.0126737505
25	0x3d7f9167	0.062394526
26	0x3cadf7d2	0.021236334
27	0x3c54d69f	0.012990623
28	0x3caf2faa	0.021385033
29	0x3883dbe8	6.2875275e-05
30	0x3d0f5d52	0.035001107
31	0x3e16bc22	0.14720204
32	0x3d6d859e	0.057988755
33	0x3d7662fc	0.060152993
34	0x3dbcf507	0.09226423
35	0x3ca3dd60	0.02000302
36	0x3ca49d9f	0.02009469
37	0x3db14a61	0.08656765
38	0x3ce3e51f	0.027819214
39	0x3db75e3c	0.08953521
40	0x3c51ce2c	0.012805503
41	0x3d85de61	0.06536556
42	0x3e4c800b	0.1997072
43	0x3d58a11f	0.052888032
44	0x3d0d20df	0.034455176
45	0x3d619d5c	0.05508171
46	0x3da7b8e8	0.08189565
47	0x3e08ef66	0.13372573
48	0x3d46d014	0.048538283
49	0x3dc43f98	0.09582442
50	0x3d7fc18f	0.06244045
51	0x3daa196f	0.08305632
52	0x3d5d3e38	0.054014415
53	0x3d7c4480	0.061588764
54	0x3da4c74c	0.08045825
55	0x3d89b432	0.06723823
56	0x3dbe03c3	0.09278061
57	0x3c8a78cd	0.016903305
58	0x3e31018d	0.17285748
59	0x3c861186	0.016365778
60	0x3c9d5cb2	0.01920924
61	0x3d28bea5	0.041197438
62	0x3d3f897e	0.046761982
63	0x3dbcd057	0.09219425
64	0x3de86364	0.11347082
65	0x3d82d2b2	0.06387843
66	0x3e4b4886	0.19851884
67	0x3d89f97e	0.0673704
68	0x39959e49	0.00028537426
69	0x3e42dfea	0.19030729
70	0x3da4f73c	0.08054969
71	0x3dccb7f9	0.099960275
72	0x3cbf3db4	0.023344852
73	0x3c9ee303	0.019395357
74	0x3e57ad61	0.21062233
75	0x3ddbdb40	0.10735178
76	0x3db29360	0.08719516
77	0x3e29cb3b	0.16581433
78	0x3d82799d	0.06370852
79	0x3d46c3f8	0.048526734
80	0x3df4f5d4	0.119609505
81	0x3bb07129	0.0053845835
82	0x3c0d9f9f	0.008644014
83	0x3e5f0964	0.21780926
84	0x3ef2dc0f	0.47433516
85	0x3e129a61	0.14316703
86	0x3ca53b84	0.02016998
87	0x3db59413	0.088661335
88	0x3a4c895f	0.00078024523
89	0x3e194c7c	0.14970583
90	0x3c09ba25	0.008406197
91	0x3da8515a	0.082186416
92	0x3d795522	0.060872205
93	0x3df69aa1	0.12041212
94	0x3dfdb86a	0.1238869
95	0x3cad880b	0.021183034
96	0x3bdec4ab	0.006798347
97	0x3bee98b9	0.0072813896
98	0x3d907b9c	0.070548266
99	0x3d139543	0.03603102
100	0x3922d820	0.00015530037
101	0x3c6fe17f	0.014641165
102	0x3ca1d6d0	0.01975575
103	0x3dd96d49	0.106165476
104	0x3b769bc3	0.0037629462
105	0x3e0bc07f	0.1364765
106	0x3d9927d7	0.07478302
107	0x3dabd132	0.0838951
108	0x3dab5251	0.0836531
109	0x3e0d2ac4	0.13785845
110	0x3d97aa1f	0.07405495
111	0x3b1b6bce	0.002371538
112	0x3e981e17	0.29710457
113	0x3eef9d02	0.46799475
114	0x3daca836	0.08430521
115	0x3e21994c	0.15781134
116	0x3ced3d5f	0.028959928
117	0x3cec0950	0.028813034
118	0x3ddcd7b8	0.107833326
119	0x3e4599a9	0.19296898
120	0x3a2d2939	0.0006605569
121	0x3e01994f	0.12656139
122	0x3d9e85a5	0.077403344
123	0x3e49d1f3	0.19708996
124	0x3d863464	0.065529615
125	0x3d2482d6	0.040163837
126	0x3db967e8	0.09053022
127	0x3e140d31	0.14458157

bn2.running_var f4 [128]
0	0x3a24ab0b	0.0006281591
1	0x3a7fa55d	0.0009752119
2	0x3c889357	0.01667182
3	0x3aaa864e	0.0013009997
4	0x395cb5a1	0.00021048497
5	0x3baca8fa	0.005269167
6	0x3bd2191a	0.0064116837
7	0x3b68e94d	0.0035539449
8	0x3b2a03e8	0.002594227
9	0x3d3d861b	0.04627047
10	0x3b521013	0.0032053038
11	0x3893a90d	7.0409944e-05
12	0x3797a895	1.8079105e-05
13	0x384f3837	4.9405e-05
14	0x3c12f19e	0.008968739
15	0x3bd63fcb	0.0065383664
16	0x3b613bef	0.0034367999
17	0x3b651eb5	0.003496093
18	0x3c1c230a	0.009529838
19	0x3c0b50c9	0.008503147
20	0x3bbd53ed	0.005777827
21	0x3e08bae8	0.13352549
22	0x3c2142ca	0.009842584
23	0x3bb141f0	0.0054094717
24	0x39bd4e49	0.00036107216
25	0x3c91a493	0.01777867
26	0x3b56087c	0.0032658866
27	0x3b087571	0.0020821954
28	0x3a41b0e7	0.0007388726
29	0x37023f31	7.763317e-06
30	0x3c00a463	0.007851693
31	0x3cf6df7a	0.030135859
32	0x3c35fc5e	0.011107532
33	0x3c52e046	0.012870854
34	0x3c91a0f9	0.017776953
35	0x3b5a6d52	0.003332932
36	0x3abe5799	0.0014521956
37	0x3cb9b9c5	0.02267159
38	0x3b276ec6	0.0025548204
39	0x3cc942df	0.02456802
40	0x399bda6a	0.00029726635
41	0x3c773088	0.015087254
42	0x3d97985c	0.07402107
43	0x3c24bc2b	0.010054628
44	0x3bee04d8	0.007263761
45	0x3bfaa239	0.007648733
46	0x3c6599bb	0.014013703
47	0x3d3bc834	0.045845225
48	0x3c6dc062	0.0145112
49	0x3c965338	0.018350229
50	0x3c5fbb33	0.013655472
51	0x3cc80e8d	0.024421
52	0x3c3dc8b0	0.011583492
53	0x3c48a3ae	0.0122460555
54	0x3c79a37f	0.015236734
55	0x3c939075	0.018013218
56	0x3c8f4da5	0.017493078
57	0x3aa29b3a	0.001240588
58	0x3d36e28b	0.044649642
59	0x3b23591d	0.0024924942
60	0x3b0c9dc6	0.0021456345
61	0x3be4360e	0.0069644516
62	0x3c732c86	0.014842158
63	0x3c32c3ef	0.010910972
64	0x3cbd1223	0.023079937
65	0x3c21d0b8	0.009876423
66	0x3d52b95b	0.0514463
67	0x3c8cb988	0.017178312
68	0x3805e3d2	3.1921845e-05
69	0x3d98d9fb	0.074634515
70	0x3c7c0dc2	0.0153841395
71	0x3cd7b15a	0.026329685
72	0x3b8fc802	0.0043878565
73	0x3b2182e4	0.0024644667
74	0x3d512e77	0.051069703
75	0x3cbad381	0.022805931
76	0x3c9b5d8c	0.018965505
77	0x3d990f13	0.07473578
78	0x3c8c187b	0.017101517
79	0x3c640eb7	0.013919524
80	0x3d1a1a6d	0.037622858
81	0x3a1e1b36	0.00060312764
82	0x3a1264c0	0.0005584471
83	0x3d0b10b0	0.03395146
84	0x3da03c42	0.07823993
85	0x3d148b17	0.03626546
86	0x3b8d2db0	0.004308425
87	0x3c9da8f6	0.019245606
88	0x3981b892	0.00024742313
89	0x3d02cabc	0.031931624
90	0x393aee32	0.00017827077
91	0x3c13e143	0.009025875
92	0x3c40f514	0.011777181
93	0x3cbad8cd	0.022808457
94	0x3d2458f2	0.040123887
95	0x3b2865e3	0.0025695495
96	0x3a333fdb	0.00068378233
97	0x3a3a45d2	0.0007105741
98	0x3c5abc8b	0.013350616
99	0x3c216313	0.009850281
100	0x37e1d98f	2.6923399e-05
101	0x3a9f514b	0.0012154964
102	0x3b204512	0.0024455232
103	0x3cb42b27	0.021993233
104	0x382472cd	3.9207564e-05
105	0x3cf23bb9	0.029569494
106	0x3c68bcfd	0.014205215
107	0x3c9b08ed	0.018925155
108	0x3c884a74	0.016637065
109	0x3cd0a68a	0.025470037
110	0x3c825acf	0.015912442
111	0x3a03dfa3	0.0005030578
112	0x3d989e35	0.074520506
113	0x3d84d5d5	0.06486098
114	0x3c7436fc	0.014905687
115	0x3d270e24	0.04078497
116	0x3b73b355	0.0037185748
117	0x3ba99866	0.005175638
118	0x3c9b8876	0.018985968
119	0x3d857327	0.06516104
120	0x38a908c7	8.060183e-05
121	0x3ccdf748	0.025142327
122	0x3c788152	0.015167551
123	0x3d78e6a4	0.06076683
124	0x3c3f1bda	0.011664355
125	0x3c1dbe7b	0.009627934
126	0x3c87a3c5	0.016557584
127	0x3cab95ea	0.020945508

fc2.weight f4 [128, 132]
0	0xbcbb40c8	-0.022858039
1	0xbd846820	-0.06465173
2	0xbadbe3a1	-0.0016776213
3	0x3bb812e9	0.0056174886
4	0x39ba717b	0.00035561234
5	0xbd03a741	-0.032141928
6	0x3c34abf6	0.011027327
7	0xbd0fc14b	-0.035096448
8	0xbca8519d	-0.020546729
9	0x3ca5c66f	0.020236222
10	0xbc6c61cd	-0.014427614
11	0xbd843d38	-0.06456989
12	0xbd0f725e	-0.03502118
13	0xbc9614a0	-0.018320382
14	0xbba9645d	-0.005169435
15	0xbcd6d298	-0.026223466
16	0x3c88f472	0.016718123
17	0x3d230ca5	0.03980698
18	0x3d53797a	0.05162952
19	0xbd61831a	-0.05505667
20	0xbcf7e2ad	-0.030259455
21	0x3d4ec449	0.05048016
22	0x3c943be1	0.018094959
23	0x3af52702	0.0018703642
24	0xb88324fc	-6.253456e-05
25	0x3cb1b3e8	0.021692231
26	0x3cfa951b	0.030588677
27	0xbcae96af	-0.021312086
28	0x3a1f81ff	0.00060847396
29	0x3a9c05d1	0.0011903589
30	0xbce5d0ef	-0.028053729
31	0x3b1bde5f	0.0023783667
32	0xbd5a8037	-0.05334493
33	0x3c72c617	0.014817736
34	0xbd951281	-0.0727892
35	0x3a5e81bc	0.000848796
36	0xbd205d61	-0.039151553
37	0x3d142c44	0.036175027
38	0xbdb5c3b5	-0.08875219
39	0xbd851b58	-0.06499356
40	0xb8c1f8a8	-9.249273e-05
41	0xbcd78fac	-0.026313625
42	0xbdac99c5	-0.08427767
43	0x3c502f18	0.0127065405
44	0x3cf84805	0.03030778
45	0xbd84de10	-0.064876676
46	0xbda527f8	-0.08064264
47	0xbd5cc09f	-0.053894635
48	0xbc93fada	-0.018063951
49	0x3c01fe58	0.007934175
50	0xbc74bf8f	-0.014938249
51	0x3cc54ed3	0.024085438
52	0xba8fb7c8	-0.0010964805
53	0xbd03be52	-0.032163925
54	0xb95e9964	-0.00021228712
55	0x3c8bff50	0.017089516
56	0xbd6af144	-0.057358995
57	0xbd84917c	-0.064730614
58	0xbdd59cf3	-0.10430326
59	0xbd5ed7cb	-0.054405015
60	0x3c911c0b	0.017713567
61	0x3d3c26e3	0.045935523
62	0xbc85ce6a	-0.016333777
63	0x3c912200	0.017716408
64	0x3c4c0b73	0.012453902
65	0xbd7ff774	-0.06249185
66	0x3cabd397	0.020974917
67	0x3d046578	0.03232333
68	0xbd96a915	-0.073564686
69	0xbc169b66	-0.009192323
70	0x398040f4	0.00024462456
71	0xbdb69c94	-0.08916584
72	0x3c7d99e1	0.015478582
73	0xba41d237	-0.000739369
74	0x3d3ca5aa	0.046056427
75	0x3d2b1d71	0.041776124
76	0xbd4aea9c	-0.049540147
77	0x3cc61e62	0.02418441
78	0xbd1e3db6	-0.03863307
79	0xbd7a80e0	-0.06115806
80	0x3d26c91a	0.04071913
81	0x3b320892	0.0027165753
82	0xbd88f6f0	-0.066877246
83	0x3cf9da4c	0.0304996
84	0x3d19b05c	0.037521705
85	0x3cd459ae	0.025921669
86	0xba68e905	-0.000888482
87	0x3ced49a5	0.02896578
88	0xba156ccf	-0.00057001127
89	0x3ba18fa0	0.0049304515
90	0xb8958576	-7.129733e-05
91	0xbcec46ac	-0.028842293
92	0xbcec169c	-0.028819375
93	0xbcbb7538	-0.022883043
94	0xbc6c2fe1	-0.014415712
95	0xbcb35b9f	-0.021894274
96	0x3d3142e7	0.043276694
97	0xbca580f9	-0.0202031
98	0xbc7b1798	-0.015325449
99	0xbc812a7a	-0.015767325
100	0x3b9a38de	0.004706486
101	0xbd1532e6	-0.036425494
102	0xbbb2ff49	-0.0054625613
103	0x3d98f804	0.0746918
104	0x39887348	0.00026025833
105	0x3cc2dff8	0.023788437
106	0xbccae26e	-0.024766173
107	0x3b50027a	0.0031739757
108	0xbca4ff8d	-0.020141387
109	0xbc54b55a	-0.012982691
110	0xbc3c6502	-0.0114986915
111	0x3c278b00	0.010226011
112	0x3cf55e05	0.029952059
113	0xbb6ce9e4	-0.0036150152
114	0x3d39384b	0.0452197
115	0xbc282e62	-0.010264965
116	0xbd23b5fc	-0.039968476
117	0xbd24296d	-0.04007857
118	0x3a83ef37	0.0010065798
119	0x3c86158f	0.016367702
120	0x3c4e5cdb	0.012595381
121	0x3bfd1b40	0.0077241957
122	0x3c64ac4d	0.013957095
123	0xbd1d120b	-0.038347285
124	0xbd0cf3e9	-0.0344123
125	0xbd68938e	-0.056781344
126	0xbcb1b09a	-0.021690655
127	0xbc0c2dde	-0.008555857
128	0xbc015c71	-0.007895575
129	0xbb20b3a0	-0.0024521127
130	0x3bca5a4b	0.0061753145
131	0xb995a6f2	-0.0002854388
132	0x3c47e2bc	0.012200054
133	0x3c682a3d	0.014170227
134	0xbbf43c51	-0.0074534793
135	0x3d37e04e	0.044891648
136	0xb90f886a	-0.00013688361
137	0xbc69a62f	-0.014260813
138	0xbd8d605c	-0.06903145
139	0x3d1bde2a	0.03805367
140	0xbc8f4019	-0.017486619
141	0xbd1f91d0	-0.038957417
142	0x3cb3412a	0.021881659
143	0x3d0465f8	0.032323807
144	0x3b1c9360	0.0023891553
145	0x3cfed802	0.03110886
146	0x3c645b5a	0.013937796
147	0xbc981517	-0.018564744
148	0xbba52760	-0.0050400943
149	0x3cd7bd86	0.026335489
150	0x3a843747	0.0010087275
151	0x3d29b797	0.04143485
152	0x3c502386	0.012703782
153	0x3a60f638	0.00085816113
154	0xbca93129	-0.020653324
155	0xbc1a4a6b	-0.009417157
156	0x3955dfc7	0.00020396626
157	0x3cbe5608	0.023234382
158	0x3d66d9b2	0.056359954
159	0x3ada3685	0.0016648328
160	0x38e539a0	0.000109303044
161	0xbc24547a	-0.010029906
162	0x3c739929	0.014868059
163	0x3b8b67bf	0.004254311
164	0xbcf6adf7	-0.03011225
165	0xbd0fe0d6	-0.03512653
166	0x3bc31da7	0.0059544626
167	0x3c8a29ae	0.016865578
168	0x3dadc4ee	0.08484827
169	0x3cc2b1c4	0.023766406
170	0xbc697da2	-0.014251145
171	0xbc6b1b98	-0.014349841
172	0xb8f2f102	-0.000115843504
173	0xbd878330	-0.06616819
174	0xbd476f7c	-0.048690304
175	0xbd24564b	-0.040121358
176	0xbba6abbd	-0.005086391
177	0x3c0c4a9d	0.008562711
178	0xbca85c79	-0.020551907
179	0xbc5b2daa	-0.013377586
180	0x3c8126ae	0.015765514
181	0xbd29f799	-0.041495893
182	0xbce87a19	-0.028378533
183	0xbd34c711	-0.044135157
184	0x39d85470	0.0004126164
185	0x3b17764f	0.002311129
186	0x3b9a2f1b	0.0047053224
187	0x3ca1a134	0.019730188
188	0x3d363e14	0.044492796
189	0x3c1890ac	0.009311836
190	0xbd5c8059	-0.05383334
191	0x3d94e60c	0.072704405
192	0x3cce01e6	0.02514739
193	0xbcde13a7	-0.02710898
194	0x3b8f342b	0.0043702326
195	0xba9dc1d4	-0.0012035915
196	0x3c9a3b8b	0.01882722
197	0x3d1567bc	0.036475882
198	0xbd01c2de	-0.03167998
199	0xbb376eea	-0.0027989694
200	0x3d43cfc2	0.047805555
201	0xbcc05c41	-0.02348149
202	0xbcb329ad	-0.021870458
203	0x3c323165	0.010876034
204	0x3d43d9e7	0.04781523
205	0x3cda3020	0.026634276
206	0x3c6f826d	0.014618498
207	0x3d175b54	0.03695233
208	0xbc1efdb7	-0.009704045
209	0xbd34ac59	-0.044109676
210	0xbd0c9eb4	-0.03433104
211	0x3b176dc1	0.002310619
212	0xbc33a0b1	-0.010963605
213	0xbcc44fa2	-0.023963753
214	0x3d1c2b2d	0.038127113
215	0x3c7d8d6c	0.015475612
216	0xbccb6b4a	-0.024831433
217	0x3d2e5641	0.042562727
218	0xbc5bb08f	-0.013408794
219	0x3cfc4169	0.030792909
220	0x3c988832	0.01861963
221	0xbd1fc48f	-0.039005812
222	0xb845ed93	-4.718972e-05
223	0xbb4aba9e	-0.0030933986
224	0xbcfdc9ae	-0.030979957
225	0xba24c376	-0.00062852295
226	0xbc5818f3	-0.013189542
227	0xbd111638	-0.03542158
228	0xbcea0bf0	-0.028570145
229	0x3add1ca9	0.0016869503
230	0x3cb21417	0.021738095
231	0x3c8eace5	0.017416427
232	0xbc59e9a8	-0.013300337
233	0xbc871ec7	-0.016494168
234	0xbc80fbc8	-0.015745059
235	0xbd419f17	-0.04727086
236	0xb570e78c	-8.974391e-07
237	0xbcc6d64f	-0.024272112
238	0x3cb4f040	0.022087216
239	0x3c090e42	0.008365216
240	0x3b69263c	0.0035575768
241	0xbd22e10e	-0.03976541
242	0x3c0fa6f9	0.008767837
243	0x3c2cd530	0.010548875
244	0xbbd48d28	-0.0064865537
245	0x3c6887f8	0.014192574
246	0xbcb64f5a	-0.022254635
247	0x3cc2d42f	0.023782818
248	0xbcf2f72f	-0.029658882
249	0xbd04807e	-0.032349102
250	0xbd199386	-0.037494205
251	0xbd1189c5	-0.035531778
252	0x3b0002ef	0.0019532999
253	0xbc0af359	-0.00848087
254	0xbb8a369b	-0.0042179353
255	0x3c66180c	0.014043819

fc2.bias f4 [128]
0	0x3cb85ae8	0.022504285
1	0xbd35b5c1	-0.044362787
2	0x3b166421	0.0022947865
3	0xbd07fd85	-0.03320076
4	0xbe009b26	-0.12559184
5	0xbd663c0c	-0.05620961
6	0x3ce11bf6	0.027479153
7	0x3ce61730	0.028087229
8	0x3de8d301	0.11368371
9	0xbd065637	-0.032797065
10	0xbd6f2242	-0.05838228
11	0xbdbfca29	-0.09364731
12	0xbd71fe90	-0.05908066
13	0xbd189ab5	-0.037256915
14	0xbd886c6f	-0.06661307
15	0xbc6f2def	-0.014598354
16	0xbd0d93f1	-0.034564916
17	0xbdf3aca8	-0.11898166
18	0xbb43c8f1	-0.002987441
19	0xbdaf12dd	-0.0854852
20	0xbd11d58a	-0.035604037
21	0xbd9d9e6c	-0.07696232
22	0x3d930254	0.071781784
23	0xbd29ff15	-0.04150303
24	0x3db1175e	0.08647035
25	0xbd34db70	-0.044154584
26	0xbd9ccc77	-0.07656186
27	0xbc36ed30	-0.011164948
28	0xbc6c6cd2	-0.014430242
29	0xbd9acdf4	-0.07558814
30	0xbd9c8cae	-0.0764402
31	0xbddc2ce1	-0.107507475
32	0xbcfdb12b	-0.03096827
33	0xbd8e1e2d	-0.06939349
34	0x3c76aa8b	0.015055309
35	0x3dc3127b	0.09525009
36	0xbd184808	-0.03717807
37	0xbccc5465	-0.024942586
38	0x3c96b522	0.018396918
39	0x3d2e9b52	0.042628594
40	0xbc5348ce	-0.012895776
41	0xbdc2604d	-0.09491024
42	0xbb2fdfc8	-0.0026836265
43	0xbdf01f19	-0.117246814
44	0xbbfeb946	-0.007773551
45	0xbdaf5127	-0.085604005
46	0xbd93f184	-0.072238
47	0xbd8017ae	-0.062545165
48	0xbdb7c39f	-0.08972859
49	0xbcbe847e	-0.023256537
50	0x3c98be6e	0.018645491
51	0xbda25631	-0.07926596
52	0x3c5a7540	0.013333619
53	0xbde8d328	-0.113684
54	0xbd92b1b5	-0.07162801
55	0x3dc07f18	0.09399241
56	0xbcbae70b	-0.022815248
57	0xbceaa78a	-0.028644342
58	0xbd8bcea8	-0.06826526
59	0x3d9fb21e	0.07797645
60	0x3d53409c	0.05157529
61	0xbdacebc7	-0.084434085
62	0xbd097d50	-0.033566773
63	0xbb916df7	-0.0044381577
64	0x3cdca092	0.026932035
65	0x3dca9677	0.0989198
66	0xbd8847d9	-0.06654329
67	0x3d503777	0.050834145
68	0xbdc93734	-0.09824982
69	0xbd5f0507	-0.054448154
70	0x3bca5648	0.0061748363
71	0x3d327860	0.04357183
72	0xbd23f8c0	-0.04003215
73	0xbd59c03e	-0.053161852
74	0x3dd778c8	0.10521084
75	0x3c8ac164	0.016937919
76	0xbd16685a	-0.03672061
77	0xbd07a814	-0.033119276
78	0xbd8f465f	-0.06995844
79	0xbd267820	-0.040641904
80	0xbd07dc11	-0.033168856
81	0x3db52531	0.08844984
82	0xbd5a99db	-0.053369384
83	0xbd9defbb	-0.077117406
84	0xbda96aa5	-0.08272294
85	0x3bd48fd8	0.006486874
86	0xbe07fea5	-0.13280733
87	0x3c4a38f0	0.0123426765
88	0xbd28b677	-0.041189637
89	0xbce2f8d0	-0.027706534
90	0x3d8cd490	0.068764806
91	0xbd8a4dac	-0.06753096
92	0xbd54611a	-0.051850416
93	0xbdab9f69	-0.083800144
94	0xbd4b3736	-0.0496132
95	0xbd8f263d	-0.06989715
96	0xbd3026a2	-0.043005593
97	0xbd05fe97	-0.0327135
98	0xbdc59d3d	-0.096491314
99	0xbd6a5bee	-0.057216577
100	0xbdac6caa	-0.084191635
101	0xbd02df9c	-0.03195153
102	0xbdd780d8	-0.10522622
103	0xbd27c5de	-0.040960185
104	0xbdbafaf4	-0.09129897
105	0xbd13f743	-0.03612448
106	0xbdbff583	-0.093729995
107	0x3cd387e0	0.025821626
108	0xbdbd9736	-0.09257357
109	0xbd510ac5	-0.05103566
110	0xbd4bb2b7	-0.049730983
111	0x3d8ee5c0	0.06977415
112	0x3d45a0a8	0.048248917
113	0x3dee5314	0.1163694
114	0xbc8e56c6	-0.017375361
115	0xbd8f119a	-0.06985779
116	0x3bf76e63	0.007551001
117	0xbb82f614	-0.00399662
118	0x3c8bfc10	0.017087966
119	0xb6d78cd8	-6.4238957e-06
120	0x3ca4b85d	0.020107443
121	0xbd40f8b5	-0.047112186
122	0x3c93d8b0	0.01804766
123	0x3d400217	0.046876993
124	0x3cfedcab	0.031111082
125	0xbdb35ee2	-0.08758332
126	0xbdcc6250	-0.09979689
127	0x3ca276cd	0.01983204

bn3.weight f4 [128]
0	0x3e96cb40	0.29451942
1	0x3d16a6a0	0.03678
2	0x3f0aadcf	0.5417146
3	0x3f2e2f99	0.6804138
4	0x3da16478	0.07880491
5	0x3d9bda08	0.076099455
6	0x3f65f25d	0.8982294
7	0x3f049e10	0.51803684
8	0x3e264074	0.16235524
9	0x3f7f8938	0.99818754
10	0x3f6e799e	0.93154323
11	0x3e9c94ba	0.3058222
12	0x3f06f1c0	0.5271263
13	0x3e6878f4	0.2270239
14	0x3f26f6f7	0.6522059
15	0x3f46a927	0.77601856
16	0x3f5b0b56	0.8556417
17	0x3f74e502	0.9566194
18	0x3f134991	0.5753413
19	0x3e06fac0	0.13181591
20	0x3cae9fc0	0.02131641
21	0x3f197b86	0.59954107
22	0x3f3a86c7	0.72861904
23	0x3e4f4e38	0.20244682
24	0x3f0895e2	0.53353703
25	0x3d83dcf0	0.06438625
26	0x3f2add83	0.6674425
27	0x3f2a5a4a	0.6654402
28	0x3c3d9e00	0.011573315
29	0x3ebc01d8	0.36720157
30	0x3d9fb0b0	0.07797372
31	0x3e1cacbc	0.15300268
32	0x3e49bba8	0.19700491
33	0x3f54ff36	0.8320192
34	0x3e8ac1f2	0.27101094
35	0x3ef097ae	0.46990722
36	0x3f77cc5e	0.96796215
37	0x3d5dc820	0.054145932
38	0x3f402049	0.75049263
39	0x3ee72442	0.4514485
40	0x3f035b71	0.51311404
41	0x3f5a8cda	0.8537117
42	0x3cee910e	0.029121902
43	0x3f31e49d	0.6948946
44	0x3f40255c	0.75057006
45	0x3ed367d7	0.4129016
46	0x3f10fcb1	0.56635576
47	0x3f5a360d	0.85238725
48	0x3e27b432	0.16377333
49	0x3f6b60b6	0.91944444
50	0x3e1eaeb0	0.15496325
51	0x3f42bb7c	0.7606733
52	0x3f6770d0	0.90406513
53	0x3f2919ce	0.66055
54	0x3d933810	0.071884274
55	0x3f7ef46c	0.9959171
56	0x3f1cb28a	0.6120993
57	0x3eb531b2	0.35389477
58	0x3f50fd46	0.81636465
59	0x3f57749c	0.84162307
60	0x3f295c35	0.6615632
61	0x3dd86ee0	0.10568023
62	0x3f170d90	0.5900507
63	0x3e882dce	0.26597446
64	0x3e5ea154	0.2174123
65	0x3f765c56	0.96234643
66	0x3e62a0f4	0.22131711
67	0x3e14b7e0	0.14523268
68	0x3eaea5a4	0.3411075
69	0x3f7e5080	0.99341583
70	0x3eaa4790	0.33257723
71	0x3de14b88	0.110007346
72	0x3e6a7508	0.22896206
73	0x3e573aec	0.2101857
74	0x3f31aff6	0.6940912
75	0x3f37bc09	0.71771294
76	0x3f474d23	0.77852076
77	0x3f043f4d	0.5165909
78	0x3dbc2b50	0.09187949
79	0x3e2666e8	0.16250193
80	0x3f3ed65c	0.74545836
81	0x3d229ac0	0.039698362
82	0x3f184795	0.59484226
83	0x3e297000	0.16546631
84	0x3ee28da6	0.44248694
85	0x3eacc390	0.33742952
86	0x3f48dd22	0.7846242
87	0x3f1063ba	0.5640217
88	0x3e06a160	0.13147497
89	0x3e305ccc	0.17222899
90	0x3eeb7a94	0.45991957
91	0x3f36b5f4	0.7137139
92	0x3ebe70da	0.37195474
93	0x3e954718	0.29155803
94	0x3d987828	0.07444793
95	0x3f2317e4	0.6370833
96	0x3f584ea9	0.84495026
97	0x3f006b74	0.5016396
98	0x3f05da48	0.52286196
99	0x3e116308	0.14197934
100	0x3e55f9dc	0.20896095
101	0x3d9fe813	0.078079365
102	0x3ef1adf0	0.47203016
103	0x3dd15748	0.10221726
104	0x3e7c0e39	0.246148
105	0x3f1f72e3	0.6228468
106	0x3e2d2948	0.16910279
107	0x3f452425	0.7700828
108	0x3f63782a	0.8885523
109	0x3f315efe	0.6928557
110	0x3f44a4cf	0.7681398
111	0x3e38c244	0.18042856
112	0x3f376168	0.71633005
113	0x3f12348f	0.5711145
114	0x3ed709e2	0.41999727
115	0x3ee337e0	0.44378567
116	0x3e66e200	0.2254715
117	0x3f0c96b3	0.5491745
118	0x3d0bbe00	0.034116745
119	0x3e3975b8	0.18111312
120	0x3f254f77	0.6457438
121	0x3f1b7f28	0.607409
122	0x3eece546	0.46268672
123	0x3c9431c0	0.018090129
124	0x3e2361f4	0.15955335
125	0x3d7d6212	0.061861105
126	0x3f77f120	0.968523
127	0x3e066b34	0.13126832

bn3.bias f4 [128]
0	0x00000000	0.0
1	0x00000000	0.0
2	0x00000000	0.0
3	0x00000000	0.0
4	0x00000000	0.0
5	0x00000000	0.0
6	0x00000000	0.0
7	0x00000000	0.0
8	0x00000000	0.0
9	0x00000000	0.0
10	0x00000000	0.0
11	0x00000000	0.0
12	0x00000000	0.0
13	0x00000000	0.0
14	0x00000000	0.0
15	0x00000000	0.0
16	0x00000000	0.0
17	0x00000000	0.0
18	0x00000000	0.0
19	0x00000000	0.0
20	0x00000000	0.0
21	0x00000000	0.0
22	0x00000000	0.0
23	0x00000000	0.0
24	0x00000000	0.0
25	0x00000000	0.0
26	0x00000000	0.0
27	0x00000000	0.0
28	0x00000000	0.0
29	0x00000000	0.0
30	0x00000000	0.0
31	0x00000000	0.0
32	0x00000000	0.0
33	0x00000000	0.0
34	0x00000000	0.0
35	0x00000000	0.0
36	0x00000000	0.0
37	0x00000000	0.0
38	0x00000000	0.0
39	0x00000000	0.0
40	0x00000000	0.0
41	0x00000000	0.0
42	0x00000000	0.0
43	0x00000000	0.0
44	0x00000000	0.0
45	0x00000000	0.0
46	0x00000000	0.0
47	0x00000000	0.0
48	0x00000000	0.0
49	0x00000000	0.0
50	0x00000000	0.0
51	0x00000000	0.0
52	0x00000000	0.0
53	0x00000000	0.0
54	0x00000000	0.0
55	0x00000000	0.0
56	0x00000000	0.0
57	0x00000000	0.0
58	0x00000000	0.0
59	0x00000000	0.0
60	0x00000000	0.0
61	0x00000000	0.0
62	0x00000000	0.0
63	0x00000000	0.0
64	0x00000000	0.0
65	0x00000000	0.0
66	0x00000000	0.0
67	0x00000000	0.0
68	0x00000000	0.0
69	0x00000000	0.0
70	0x00000000	0.0
71	0x00000000	0.0
72	0x00000000	0.0
73	0x00000000	0.0
74	0x00000000	0.0
75	0x00000000	0.0
76	0x00000000	0.0
77	0x00000000	0.0
78	0x00000000	0.0
79	0x00000000	0.0
80	0x00000000	0.0
81	0x00000000	0.0
82	0x00000000	0.0
83	0x00000000	0.0
84	0x00000000	0.0
85	0x00000000	0.0
86	0x00000000	0.0
87	0x00000000	0.0
88	0x00000000	0.0
89	0x00000000	0.0
90	0x00000000	0.0
91	0x00000000	0.0
92	0x00000000	0.0
93	0x00000000	0.0
94	0x00000000	0.0
95	0x00000000	0.0
96	0x00000000	0.0
97	0x00000000	0.0
98	0x00000000	0.0
99	0x00000000	0.0
100	0x00000000	0.0
101	0x00000000	0.0
102	0x00000000	0.0
103	0x00000000	0.0
104	0x00000000	0.0
105	0x00000000	0.0
106	0x00000000	0.0
107	0x00000000	0.0
108	0x00000000	0.0
109	0x00000000	0.0
110	0x00000000	0.0
111	0x00000000	0.0
112	0x00000000	0.0
113	0x00000000	0.0
114	0x00000000	0.0
115	0x00000000	0.0
116	0x00000000	0.0
117	0x00000000	0.0
118	0x00000000	0.0
119	0x00000000	0.0
120	0x00000000	0.0
121	0x00000000	0.0
122	0x00000000	0.0
123	0x00000000	0.0
124	0x00000000	0.0
125	0x00000000	0.0
126	0x00000000	0.0
127	0x00000000	0.0

bn3.running_mean f4 [128]
0	0x00000000	0.0
1	0x00000000	0.0
2	0x00000000	0.0
3	0x00000000	0.0
4	0x00000000	0.0
5	0x00000000	0.0
6	0x00000000	0.0
7	0x00000000	0.0
8	0x00000000	0.0
9	0x00000000	0.0
10	0x00000000	0.0
11	0x00000000	0.0
12	0x00000000	0.0
13	0x00000000	0.0
14	0x00000000	0.0
15	0x00000000	0.0
16	0x00000000	0.0
17	0x00000000	0.0
18	0x00000000	0.0
19	0x00000000	0.0
20	0x00000000	0.0
21	0x00000000	0.0
22	0x00000000	0.0
23	0x00000000	0.0
24	0x00000000	0.0
25	0x00000000	0.0
26	0x00000000	0.0
27	0x00000000	0.0
28	0x00000000	0.0
29	0x00000000	0.0
30	0x00000000	0.0
31	0x00000000	0.0
32	0x00000000	0.0
33	0x00000000	0.0
34	0x00000000	0.0
35	0x00000000	0.0
36	0x00000000	0.0
37	0x00000000	0.0
38	0x00000000	0.0
39	0x00000000	0.0
40	0x00000000	0.0
41	0x00000000	0.0
42	0x00000000	0.0
43	0x00000000	0.0
44	0x00000000	0.0
45	0x00000000	0.0
46	0x00000000	0.0
47	0x00000000	0.0
48	0x00000000	0.0
49	0x00000000	0.0
50	0x00000000	0.0
51	0x00000000	0.0
52	0x00000000	0.0
53	0x00000000	0.0
54	0x00000000	0.0
55	0x00000000	0.0
56	0x00000000	0.0
57	0x00000000	0.0
58	0x00000000	0.0
59	0x00000000	0.0
60	0x00000000	0.0
61	0x00000000	0.0
62	0x00000000	0.0
63	0x00000000	0.0
64	0x00000000	0.0
65	0x00000000	0.0
66	0x00000000	0.0
67	0x00000000	0.0
68	0x00000000	0.0
69	0x00000000	0.0
70	0x00000000	0.0
71	0x00000000	0.0
72	0x00000000	0.0
73	0x00000000	0.0
74	0x00000000	0.0
75	0x00000000	0.0
76	0x00000000	0.0
77	0x00000000	0.0
78	0x00000000	0.0
79	0x00000000	0.0
80	0x00000000	0.0
81	0x00000000	0.0
82	0x00000000	0.0
83	0x00000000	0.0
84	0x00000000	0.0
85	0x00000000	0.0
86	0x00000000	0.0
87	0x00000000	0.0
88	0x00000000	0.0
89	0x00000000	0.0
90	0x00000000	0.0
91	0x00000000	0.0
92	0x00000000	0.0
93	0x00000000	0.0
94	0x00000000	0.0
95	0x00000000	0.0
96	0x00000000	0.0
97	0x00000000	0.0
98	0x00000000	0.0
99	0x00000000	0.0
100	0x00000000	0.0
101	0x00000000	0.0
102	0x00000000	0.0
103	0x00000000	0.0
104	0x00000000	0.0
105	0x00000000	0.0
106	0x00000000	0.0
107	0x00000000	0.0
108	0x00000000	0.0
109	0x00000000	0.0
110	0x00000000	0.0
111	0x00000000	0.0
112	0x00000000	0.0
113	0x00000000	0.0
114	0x00000000	0.0
115	0x00000000	0.0
116	0x00000000	0.0
117	0x00000000	0.0
118	0x00000000	0.0
119	0x00000000	0.0
120	0x00000000	0.0
121	0x00000000	0.0
122	0x00000000	0.0
123	0x00000000	0.0
124	0x00000000	0.0
125	0x00000000	0.0
126	0x00000000	0.0
127	0x00000000	0.0

bn3.running_var f4 [128]
0	0x3f800000	1.0
1	0x3f800000	1.0
2	0x3f800000	1.0
3	0x3f800000	1.0
4	0x3f800000	1.0
5	0x3f800000	1.0
6	0x3f800000	1.0
7	0x3f800000	1.0
8	0x3f800000	1.0
9	0x3f800000	1.0
10	0x3f800000	1.0
11	0x3f800000	1.0
12	0x3f800000	1.0
13	0x3f800000	1.0
14	0x3f800000	1.0
15	0x3f800000	1.0
16	0x3f800000	1.0
17	0x3f800000	1.0
18	0x3f800000	1.0
19	0x3f800000	1.0
20	0x3f800000	1.0
21	0x3f800000	1.0
22	0x3f800000	1.0
23	0x3f800000	1.0
24	0x3f800000	1.0
25	0x3f800000	1.0
26	0x3f800000	1.0
27	0x3f800000	1.0
28	0x3f800000	1.0
29	0x3f800000	1.0
30	0x3f800000	1.0
31	0x3f800000	1.0
32	0x3f800000	1.0
33	0x3f800000	1.0
34	0x3f800000	1.0
35	0x3f800000	1.0
36	0x3f800000	1.0
37	0x3f800000	1.0
38	0x3f800000	1.0
39	0x3f800000	1.0
40	0x3f800000	1.0
41	0x3f800000	1.0
42	0x3f800000	1.0
43	0x3f800000	1.0
44	0x3f800000	1.0
45	0x3f800000	1.0
46	0x3f800000	1.0
47	0x3f800000	1.0
48	0x3f800000	1.0
49	0x3f800000	1.0
50	0x3f800000	1.0
51	0x3f800000	1.0
52	0x3f800000	1.0
53	0x3f800000	1.0
54	0x3f800000	1.0
55	0x3f800000	1.0
56	0x3f800000	1.0
57	0x3f800000	1.0
58	0x3f800000	1.0
59	0x3f800000	1.0
60	0x3f800000	1.0
61	0x3f800000	1.0
62	0x3f800000	1.0
63	0x3f800000	1.0
64	0x3f800000	1.0
65	0x3f800000	1.0
66	0x3f800000	1.0
67	0x3f800000	1.0
68	0x3f800000	1.0
69	0x3f800000	1.0
70	0x3f800000	1.0
71	0x3f800000	1.0
72	0x3f800000	1.0
73	0x3f800000	1.0
74	0x3f800000	1.0
75	0x3f800000	1.0
76	0x3f800000	1.0
77	0x3f800000	1.0
78	0x3f800000	1.0
79	0x3f800000	1.0
80	0x3f800000	1.0
81	0x3f800000	1.0
82	0x3f800000	1.0
83	0x3f800000	1.0
84	0x3f800000	1.0
85	0x3f800000	1.0
86	0x3f800000	1.0
87	0x3f800000	1.0
88	0x3f800000	1.0
89	0x3f800000	1.0
90	0x3f800000	1.0
91	0x3f800000	1.0
92	0x3f800000	1.0
93	0x3f800000	1.0
94	0x3f800000	1.0
95	0x3f800000	1.0
96	0x3f800000	1.0
97	0x3f800000	1.0
98	0x3f800000	1.0
99	0x3f800000	1.0
100	0x3f800000	1.0
101	0x3f800000	1.0
102	0x3f800000	1.0
103	0x3f800000	1.0
104	0x3f800000	1.0
105	0x3f800000	1.0
106	0x3f800000	1.0
107	0x3f800000	1.0
108	0x3f800000	1.0
109	0x3f800000	1.0
110	0x3f800000	1.0
111	0x3f800000	1.0
112	0x3f800000	1.0
113	0x3f800000	1.0
114	0x3f800000	1.0
115	0x3f800000	1.0
116	0x3f800000	1.0
117	0x3f800000	1.0
118	0x3f800000	1.0
119	0x3f800000	1.0
120	0x3f800000	1.0
121	0x3f800000	1.0
122	0x3f800000	1.0
123	0x3f800000	1.0
124	0x3f800000	1.0
125	0x3f800000	1.0
126	0x3f800000	1.0
127	0x3f800000	1.0

fc3.weight f4 [1, 128]
0	0x3daf9a4e	0.08574353
1	0x3d4167df	0.0472182
2	0xbd92ae0e	-0.071621045
3	0x3d66ccfe	0.05634784
4	0xbe0171de	-0.12641093
5	0xbddf697c	-0.109087914
6	0x3d24f17a	0.040269352
7	0x3d3c96ec	0.046042368
8	0x3d3651f5	0.044511754
9	0x3d14b226	0.036302708
10	0xbd3dc450	-0.046329796
11	0xbdc98973	-0.098406695
12	0xbda0e9c9	-0.07857091
13	0x3d10a73b	0.035315733
14	0xbe8564f2	-0.26053578
15	0x3d22be67	0.039732363
16	0x3dbd86e1	0.09254242
17	0xbe0210f3	-0.12701778
18	0x3d171a75	0.036890466
19	0xbe67e102	-0.22644427
20	0x3d66d215	0.056352694
21	0x3e08c4c4	0.1335631
22	0x3d33150d	0.043721247
23	0xbd15fe75	-0.036619622
24	0x3d7fe12e	0.062470607
25	0x3d4cf4b5	0.05003806
26	0xbe88e69b	-0.26738438
27	0x3d80c075	0.06286708
28	0x3d8caa1b	0.068683825
29	0xbd976587	-0.07392412
30	0xbddee536	-0.10883562
31	0x3dc881e5	0.097904004
32	0xbd7626a6	-0.06009545
33	0xbd6f6148	-0.058442384
34	0xbd822f69	-0.06356699
35	0x3d3c7f70	0.04601997
36	0x3d495190	0.04915005
37	0xbdb16132	-0.08661117
38	0x3da40a52	0.08009781
39	0x3dc3d52e	0.09562145
40	0x3d35fb91	0.044429366
41	0xbead99d9	-0.3390644
42	0x3dd97c70	0.10619438
43	0xbe0a715d	-0.13519807
44	0x3e39d1c1	0.18146421
45	0xbe4368ba	-0.19082919
46	0xbdb0146d	-0.08597646
47	0xbd9b02fb	-0.07568928
48	0xbdf5b7eb	-0.1199797
49	0xbd747e27	-0.05969062
50	0x3d63769e	0.055533044
51	0xbe1811b4	-0.14850503
52	0x3cd5f831	0.026119323
53	0xbe6e2665	-0.23256834
54	0xbdd5b2a3	-0.10434463
55	0x3d2b9769	0.041892443
56	0x3d7109e3	0.05884732
57	0x3e84908b	0.25891528
58	0x3dabdfdd	0.08392308
59	0x3d3770c7	0.044785287
60	0x3d24f320	0.040270925
61	0x3dc794e3	0.09745195
62	0x3e980aea	0.29695827
63	0xbd15103f	-0.036392447
64	0x3d6ea4f3	0.058262777
65	0x3d889b2b	0.06670221
66	0xbe2409ed	-0.16019411
67	0x3d0b5ca7	0.034023907
68	0xbdeb2b5a	-0.11482878
69	0xbdcdfec5	-0.10058359
70	0x3d5373a6	0.051623963
71	0x3d2aebb8	0.041728705
72	0xbe0b4371	-0.13599946
73	0xbdb5d26c	-0.088780254
74	0x3d43820a	0.047731437
75	0x3eabf219	0.33583143
76	0xbd7e223f	-0.06204438
77	0xbd7e7eeb	-0.062132757
78	0x3d2b12ab	0.04176585
79	0xbd8dbf98	-0.06921309
80	0xbd81f8cc	-0.06346282
81	0x3d5e1493	0.05421884
82	0x3d350f31	0.04420394
83	0xbe6c68e3	-0.23086886
84	0xbe022ddb	-0.12712805
85	0xbd2e7345	-0.0425904
86	0xbe1a3127	-0.15057813
87	0x3d2063de	0.03915774
88	0x3d8ce3a9	0.0687936
89	0xbcffd23b	-0.031228175
90	0x3d3af250	0.045641243
91	0xbdee2f6d	-0.116301395
92	0x3e27f11d	0.16400571
93	0xbda09a70	-0.078419566
94	0xbd9181b3	-0.07104816
95	0xbd724abf	-0.059153315
96	0xbd865d16	-0.065607235
97	0xbd2a2e80	-0.041548252
98	0xbdfcd54f	-0.12345373
99	0xbdd79bec	-0.105277866
100	0xbe771383	-0.24128537
101	0x3d34d2bd	0.04414629
102	0xbe13cbc3	-0.14433198
103	0xbd22df61	-0.039763812
104	0xbda4383a	-0.08018537
105	0xbd84d3f4	-0.06485739
106	0xbdab92d3	-0.08377614
107	0x3d239221	0.03993428
108	0x3dd4eab8	0.103963315
109	0xbe15f566	-0.14644393
110	0xbd52f91f	-0.05150711
111	0x3d7287d0	0.059211552
112	0x3da2bcff	0.079462044
113	0x3d4f306a	0.05058328
114	0x3d96016b	0.07324489
115	0xbe462f9f	-0.19354104
116	0x3e3e0efe	0.18560407
117	0xb8ede08e	-0.00011342867
118	0x3da25cfb	0.07927891
119	0xb6e8de69	-6.9400307e-06
120	0x3d5a165c	0.05324398
121	0xbd2a60ea	-0.04159633
122	0x3e2c1177	0.16803537
123	0x3d26e8cf	0.040749367
124	0x3d044b32	0.032298274
125	0xbe08163c	-0.13289732
126	0xbda1396d	-0.07872281
127	0x3d0b1685	0.033957023
