mode_weights/agent13_critic_local.pth (torch_old, 93523 bytes, 17 tensors)

bn1.weight f4 [33]
0.4962566 0.7682218 0.08847743 0.13203049 0.30742282 0.6340787 0.4900934 0.89644474
0.45562798 0.6323063 0.34889346 0.4017173 0.022325754 0.16885895 0.29388845 0.5185218
0.6976676 0.8000114 0.16102946 0.28226858 0.68160856 0.915194 0.3970999 0.8741559
0.41940832 0.55290705 0.9527381 0.03616482 0.18523103 0.37341738 0.30510002 0.9320004
0.17591017
00000000: 5815 fe3e 2faa 443f a833 b53d 0033 073e
00000010: 8666 9d3e fb52 223f 86ed fa3e 677d 653f
00000020: 1248 e93e d3de 213f 2aa2 b23e e4ad cd3e
00000030: 80e4 b63c 5ce9 2c3e 8c78 963e d8bd 043f
00000040: 589a 323f 8ccd 4c3f e8e4 243e 8285 903e
00000050: e67d 2e3f 274a 6a3f ae50 cb3e aec8 5f3f
00000060: b0bc d63e 518b 0d3f a5e6 733f 9021 143d
00000070: 34ad 3d3e 9030 bf3e 1236 9c3e 9497 6e3f
00000080: cc21 343e

bn1.bias f4 [33]
0.0 0.0 0.0 0.0 0.0 0.0 0.0 0.0
0.0 0.0 0.0 0.0 0.0 0.0 0.0 0.0
0.0 0.0 0.0 0.0 0.0 0.0 0.0 0.0
0.0 0.0 0.0 0.0 0.0 0.0 0.0 0.0
0.0
00000000: 0000 0000 0000 0000 0000 0000 0000 0000
00000010: 0000 0000 0000 0000 0000 0000 0000 0000
00000020: 0000 0000 0000 0000 0000 0000 0000 0000
00000030: 0000 0000 0000 0000 0000 0000 0000 0000
00000040: 0000 0000 0000 0000 0000 0000 0000 0000
00000050: 0000 0000 0000 0000 0000 0000 0000 0000
00000060: 0000 0000 0000 0000 0000 0000 0000 0000
00000070: 0000 0000 0000 0000 0000 0000 0000 0000
00000080: 0000 0000

bn1.running_mean f4 [33]
0.0 0.0 0.0 0.0 0.0 0.0 0.0 0.0
0.0 0.0 0.0 0.0 0.0 0.0 0.0 0.0
0.0 0.0 0.0 0.0 0.0 0.0 0.0 0.0
0.0 0.0 0.0 0.0 0.0 0.0 0.0 0.0
0.0
00000000: 0000 0000 0000 0000 0000 0000 0000 0000
00000010: 0000 0000 0000 0000 0000 0000 0000 0000
00000020: 0000 0000 0000 0000 0000 0000 0000 0000
00000030: 0000 0000 0000 0000 0000 0000 0000 0000
00000040: 0000 0000 0000 0000 0000 0000 0000 0000
00000050: 0000 0000 0000 0000 0000 0000 0000 0000
00000060: 0000 0000 0000 0000 0000 0000 0000 0000
00000070: 0000 0000 0000 0000 0000 0000 0000 0000
00000080: 0000 0000

bn1.running_var f4 [33]
1.0 1.0 1.0 1.0 1.0 1.0 1.0 1.0
1.0 1.0 1.0 1.0 1.0 1.0 1.0 1.0
1.0 1.0 1.0 1.0 1.0 1.0 1.0 1.0
1.0 1.0 1.0 1.0 1.0 1.0 1.0 1.0
1.0
00000000: 0000 803f 0000 803f 0000 803f 0000 803f
00000010: 0000 803f 0000 803f 0000 803f 0000 803f
00000020: 0000 803f 0000 803f 0000 803f 0000 803f
00000030: 0000 803f 0000 803f 0000 803f 0000 803f
00000040: 0000 803f 0000 803f 0000 803f 0000 803f
00000050: 0000 803f 0000 803f 0000 803f 0000 803f
00000060: 0000 803f 0000 803f 0000 803f 0000 803f
00000070: 0000 803f 0000 803f 0000 803f 0000 803f
00000080: 0000 803f

fcs1.weight f4 [128, 33]
-0.00021661667 0.00027773317 0.00016459225 -2.0108324e-05 1.4259145e-05 -1.7988905e-05 -2.2346869e-05 -8.801051e-09
6.766819e-06 -2.5573995e-06 5.5335964e-05 -7.095012e-05 4.9233553e-05 -0.00034408912 0.00037718492 0.00017236854
1.1912248e-05 4.0654424e-05 1.4603183e-06 -2.2501601e-05 -4.6130815e-05 6.614075e-05 -2.5889005e-05 -0.00018853591
-0.00016465146 -0.00013722858 0.00025166143 4.2265892e-05 -0.00014546327 1.62951e-40 -4.2265892e-05 -7.7862e-41
-2.2839306e-05 0.049971443 0.014124235 0.0053208517 -0.022263514 -0.020060014 0.019936647 -0.032736853
-0.005276 -0.0035940367 -0.0028528888 0.0018878307 0.0065113357 -0.013360292 -0.06437417 0.004883256
-0.03044188 -0.020007325 -0.0009227616 -0.0078090904 -0.00037042054 0.0010416983 0.004250051 0.00095568784
-0.012486624 0.0076069837 -0.0049564643 0.009551921 0.07867174 0.049240783 -1.05373e-40 -0.078711644
-6.873e-42 0.2311026 -0.0036686568 0.012209844 0.012130237 0.0012465002 0.0013027069 -0.010275234
-0.03163947 0.014295847 -0.0046300422 -0.017682822 0.0061653284 0.03338162 0.010176158 0.009462038
0.017765954 -0.10938468 -0.031609993 -0.017489715 0.019458298 -0.03299332 0.008440731 0.04078818
-0.040155217 0.009453444 -0.019776367 -0.060353387 -0.012213711 0.056105047 -0.023082264 -4.7707e-41
-0.05616582 -1.07691e-40 -0.031768948 -0.02012013 -0.024859227 -0.03665857 -0.020604856 -0.031742282
-0.033713836 0.02987311 0.014354548 0.04727026 0.010879959 -0.020488605 0.0540123 -0.0173228
-0.042400338 0.09736774 0.0029309522 0.019720796 -0.014964516 -0.0043217153 -0.023820002 -0.042205554
-0.041357525 -0.022445222 0.015711164 0.007892096 -0.021766651 0.0010749961 0.042569697 -0.012121616
-6.43e-41 -0.042733148 -1.50218e-40 -0.0789499 0.0026330994 0.0027485706 -0.0004362586 -0.0002459876
3.9436283e-05 7.1414734e-06 -9.089804e-06 -0.00088644616 -6.126308e-06 2.7785221e-05 -0.00015220442 -0.00094664807
0.0005427813 0.004507008 0.004307792 -0.001975904 2.4352528e-05 -0.0001215074 -4.711618e-05 -0.00082728197
0.001403196 0.0012325085 -0.001091397 0.0023307179 -0.0003938336 0.0032700142 0.004460433 0.0003544951
-0.004615095 1.1588e-40 -0.0003544951 -3.4473e-41 -0.00024854884 -0.05396153 0.013542806 -0.008211
-0.009233362 -0.025252413 0.033708468 0.011512167 -0.023495432 -0.057042543 -0.02296924 -0.01520316
0.015573674 -0.0038664048 0.085246585 0.018537335 0.045089085 0.028600033 0.008443886 -0.010649882
-0.005650118 0.0075753233 0.015773444 0.0076317354 0.059226673 -0.0006787871 0.04506322 -0.022493724
0.04125477 -0.054666832 4.188e-42 -0.049650498 -5.1886e-41 0.1784896 0.016070662 0.07061128
0.11021943 -0.03402202 0.0012894237 -0.014875386 -0.0083501255 0.023370758 -0.05462922 -0.029763622
0.0119584855 -0.002013178 0.015273139 0.020530632 -0.09940161 -0.071216665 0.010901466 0.008472783
0.0054933745 -0.007980852 -0.0066940472 -0.020613685 -0.0077132382 0.012186616 -0.00899322 -0.023039585
-0.01673695 0.02101657 -0.005348652 -5.0231e-41 -0.020985698 4.5692e-41 0.046635825 -0.074203596
0.017854989 -0.09888868 0.0072205346 -0.024063047 -0.0029148909 0.010658325 -0.012625183 -0.029597294
-0.026400164 -0.011507455 0.017397454 -0.011261327 0.004786389 0.015905632 0.055400122 0.0047900057
-0.00846614 0.023230068 0.017257437 0.0032424894 -0.022202179 -0.005753353 0.014531945 -0.006515549
00000000: 9823 63b9 b79c 9139 6596 2c39 4cae a8b7
00000010: 903a 6f37 e1e6 96b7 8975 bbb7 6f33 17b2
00000020: 880e e336 ca9f 2bb6 8a18 6838 0ecb 94b8
00000030: 2080 4e38 dc66 b4b9 e7c0 c539 d4bd 3439
00000040: b7da 4737 5b84 2a38 2800 c435 d2c1 bcb7
00000050: 967c 41b8 0bb5 8a38 372c d9b7 b9b1 45b9
00000060: 4aa6 2cb9 04e5 0fb9 6df1 8339 a846 3138
00000070: 8087 18b9 3ec6 0100 a846 31b8 0cd9 0080
00000080: 0997 bfb7 dbae 4c3d 5669 673c 8a5a ae3b
00000090: f961 b6bc e654 a4bc 2e52 a33c 1417 06bd
000000a0: 4ce2 acbb ee89 6bbb 88f7 3abb 1671 f73a
000000b0: 0b5d d53b 20e5 5abc 9bd6 83bd b803 a03b
000000c0: 4061 f9bc 67e6 a3bc 7ce5 71ba 66e3 ffbb
000000d0: 0135 c2b9 9889 883a 0344 8b3b 2087 7a3a
000000e0: b294 4cbc 0144 f93b d669 a2bb a97f 1c3c
000000f0: a61e a13d b4b0 493d bd25 0180 9233 a1bd
00000100: 2913 0080 29a6 6c3e d96d 70bb cc0b 483c
00000110: e7bd 463c 9b61 a33a 97bf aa3a 7459 28bc
00000120: 6498 01bd 2139 6a3c 9cb7 97bb 91db 90bc
00000130: 8606 ca3b 2abb 083d e6b9 263c aa06 1b3c
00000140: e889 913c 1305 e0bd 7b79 01bd 9746 8fbc
00000150: 0267 9f3c 0124 07bd fe4a 0a3c 8211 273d
00000160: cc79 24bd 9ee2 1a3c 0c02 a2bc 1d35 77bd
00000170: 041c 48bc 68ce 653d 0417 bdbc fd84 0080
00000180: 220e 66bd 332c 0180 2820 02bd f9d2 a4bc
00000190: 94a5 cbbc 4c27 16bd 84cb a8bc 3204 02bd
000001a0: 8517 0abd 74b8 f43c 572f 6b3c 769e 413d
000001b0: db41 323c b8d7 a7bc 003c 5d3d 8be8 8dbc
000001c0: faab 2dbd bd68 c73d 3815 403b 828d a13c
000001d0: bb2d 75bc 2d9d 8dbb 2a22 c3bc bbdf 2cbd
000001e0: 8266 29bd 0bdf b7bc b3b4 803c da4d 013c
000001f0: fa4f b2bc e2e6 8c3a 905d 2e3d be99 46bc
00000200: 3eb3 0080 f408 2fbd bfa2 0180 7cb0 a1bd
00000210: 1490 2c3b 5d21 343b a3b9 e4b9 e6f7 80b9
00000220: 6368 2538 caa0 ef36 6980 18b7 6560 68ba
00000230: 9690 cdb6 4f14 e937 1099 1fb9 7a28 78ba
00000240: 7049 0e3a 86af 933b 6128 8d3b 2b7e 01bb
00000250: a848 cc37 cad1 feb8 9d9e 45b8 f4dd 58ba
00000260: 72eb b73a 1f8c a13a 350d 8fba f5be 183b
00000270: 737b ceb9 bc4d 563b d328 923b 87db b939
00000280: 393a 97bb 0743 0100 87db b9b9 1960 0080
00000290: a94f 82b9 c406 5dbd a5e2 5d3c 6e87 06bc
000002a0: 8747 17bc 26de cebc e411 0a3d 879d 3c3c
000002b0: 7e79 c0bc 71a5 69bd fd29 bcbc ad16 79bc
000002c0: b928 7f3c 8263 7dbb c395 ae3d 9cdb 973c
000002d0: 55af 383d 9e4a ea3c 3a58 0a3c d87c 2ebc
000002e0: a024 b9bb 6b3a f83b 4f37 813c a313 fa3b
000002f0: ab97 723d a2f0 31ba 3694 383d c244 b8bc
00000300: c3fa 283d 54ea 5fbd ad0b 0000 525e 4bbd
00000310: a390 0080 fac5 363e 9fa6 833c a69c 903d
00000320: b9ba e13d ac5a 0bbd e101 a93a e4b7 73bc
00000330: f7ce 08bc 0874 bf3c e4c2 5fbd d7d2 f3bc
00000340: 86ed 433c 86ef 03bb 303c 7a3c db2f a83c
00000350: 1293 cbbd 0bda 91bd 109c 323c 6dd1 0a3c
00000360: c401 b43b 1fc2 02bc bd59 dbbb 08de a8bc
00000370: 55bf fcbb 5faa 473c 4c58 13bc 83bd bcbc
00000380: ee1b 89bc f12a ac3c bf43 afbb 068c 0080
00000390: 33ea abbc 5f7f 0000 3505 3f3d 0ef8 97bd
000003a0: a044 923c 2686 cabd 3c9a ec3b de1f c5bc
000003b0: c107 3fbb 41a0 2e3c dbd9 4ebc 0676 f2bc
000003c0: 2845 d8bc c489 3cbc 1b85 8e3c 6e81 38bc
000003d0: 24d7 9c3b 874c 823c 3deb 623d 7bf5 9c3b
000003e0: 91b5 0abc fc4c be3c 785f 8d3c f27f 543b
000003f0: 58e1 b5bc 9f86 bcbb 6517 6e3c 6380 d5bb

fcs1.bias f4 [128]
-4.2265892e-05 -0.078536324 -0.055863973 -0.04338228 -0.00035449516 -0.043718413 -0.020927103 -0.05092024
-0.057487883 -0.09553348 -0.052070923 -0.031282976 -0.0009817756 -0.0966258 -0.00901689 -0.016594801
-0.04858679 -0.079293415 -0.02070044 0.017494721 -0.048743125 0.0022853357 -0.045462634 0.09647262
-0.00019416896 -0.07142595 -0.080105916 -0.0517116 -0.05841751 -0.04261876 -0.09499183 -0.018990198
-0.008701228 0.0074762097 -0.052882686 -0.09307157 -0.05509747 -0.05555895 -0.037575994 -0.03315412
8.8100045e-05 -0.007673709 0.004914886 -0.0037733172 -0.04498385 -0.0009478975 -0.04736456 -0.027622744
0.010901274 -0.0033204604 0.00056846096 -0.03645124 -0.04124036 -0.10985391 -0.061580874 -0.05929146
-0.063428946 -0.04333549 -0.037770335 0.071111925 -0.050515607 -0.0912873 -0.096708946 0.00010877744
-0.04835415 -0.036899246 -0.003968861 -0.061364427 -0.081069335 -0.05398027 -0.025107505 -0.003066005
-0.03804384 -0.02242111 -0.01132543 -0.050176352 -0.09084421 -0.036569666 -0.06546648 -0.00017059431
0.0019455682 -0.065289296 -0.101945005 -0.055673297 -0.055177342 -0.040962797 -0.089794554 -0.028946623
-0.028181804 -0.043156255 -0.016525917 -0.07396826 -0.0022863734 -0.031369366 -0.0070771417 -0.043222394
-0.07240759 -0.055946797 -0.056379393 -0.07803358 -0.043180108 -0.07095102 -0.067283794 -0.019648192
0.00027152058 0.032037366 -0.012826611 -0.055429507 0.021754427 -0.07085954 -0.0051433956 -0.09561658
-0.037508428 0.02514983 -0.03148561 -0.038393136 -0.0009265384 -0.06087851 0.0047825277 -0.03497514
-0.000108315864 0.017584251 -0.07373258 -0.022331707 -0.051713802 -0.029148681 -0.043979354 -0.08022526
00000000: a846 31b8 a7d7 a0bd 9fd1 64bd 9eb1 31bd
00000010: 89db b9b9 1412 33bd 516f abbc be91 50bd
00000020: 6a78 6bbd 0fa7 c3bd 5248 55bd 9422 00bd
00000030: ecae 80ba bfe3 c5bd 94bb 13bc d2f1 87bc
00000040: f102 47bd 9664 a2bd f893 a9bc 1751 8f3c
00000050: dfa6 47bd 92c5 153b 0737 3abd 7093 c53d
00000060: d599 4bb9 c547 92bd 920e a4bd 8bcf 53bd
00000070: 3347 6fbd 0291 2ebd 148b c2bd 5591 9bbc
00000080: 988f 0ebc fefa f43b 849b 58bd 4f9c bebd
00000090: e2ad 61bd c891 63bd 49e9 19bd 9dcc 07bd
000000a0: 5ac2 b838 bd73 fbbb 0d0d a13b c249 77bb
000000b0: fc40 38bd 537c 78ba 5701 42bd 1849 e2bc
000000c0: 429b 323c 159c 59bb c504 153a e54d 15bd
000000d0: a7eb 28bd 16fb e0bd 3a3c 7cbd 9adb 72bd
000000e0: 09e7 81bd 8e80 31bd 11b5 1abd 21a3 913d
000000f0: 74e9 4ebd d6f4 babd 570f c6bd 721f e438
00000100: 000f 46bd aa23 17bd 380d 82bb 4459 7bbd
00000110: ae07 a6bd 6a1a 5dbd 41ae cdbc 07ef 48bb
00000120: dcd3 1bbd 7aac b7bc 4c8e 39bc b885 4dbd
00000130: 870c babd 13ca 15bd 4a13 86bd 90e1 32b9
00000140: 7002 ff3a 65b6 85bd 8bc8 d0bd af09 64bd
00000150: a301 62bd 9bc8 27bd 35e6 b7bd 7821 edbc
00000160: 87dd e6bc 9dc4 30bd 5c61 87bc ac7c 97bd
00000170: fbd6 15bb 2a7d 00bd 5ee7 e7bb f709 31bd
00000180: 6e4a 94bd 7828 65bd 14ee 66bd 12d0 9fbd
00000190: a0dd 30bd c54e 91bd 16cc 89bd 3ff5 a0bc
000001a0: e05a 8e39 9d39 033d b526 52bc 0d0a 63bd
000001b0: 5736 b23c ce1e 91bd ee89 a8bb a0d2 c3bd
000001c0: 70a2 19bd 0407 ce3c 0ef7 00bd 1f42 1dbd
000001d0: f1e2 72ba bf5b 79bd c0b6 9c3b 1842 0fbd
000001e0: a327 e3b8 d90c 903c 1b01 97bd fcf0 b6bc
000001f0: dad1 53bd 37c9 eebc b223 34bd 244d a4bd

bn2.weight f4 [128]
3.5175097e-05 0.15671718 0.17681964 0.12355391 -6.830476e-05 0.19798112 0.2236746 0.18544048
0.25162378 0.20818312 0.06833697 0.107701756 -0.00011785449 0.1351738 0.25044864 0.16683207
0.09503539 0.23335506 0.10029176 0.5482654 0.37152618 0.1871937 0.1523809 0.16243681
8.274854e-05 0.24693565 0.16263981 0.1840875 0.18587847 0.10103012 0.057028625 0.37972245
0.32370666 0.19499831 0.17363244 0.08568735 0.095757745 0.10084015 0.09531991 0.18578772
-6.403339e-05 0.2020802 0.30766517 0.16551895 0.18260118 0.5611824 0.25284114 0.28453287
0.14141999 0.3149264 0.13601111 0.17836879 0.14925513 0.09618658 0.19955136 0.3011531
0.20264332 0.1800621 0.2207964 0.29472396 0.19722623 0.12272801 0.20823653 0.16651714
0.09793877 0.27266353 0.27569532 0.22787611 0.15333971 0.25320345 0.4881971 0.17224701
0.1769341 0.11314558 0.37924647 0.2438957 0.2727353 0.20402744 0.10024098 0.12600449
0.16859223 0.15633908 0.07540354 0.24656887 0.33690286 0.21527052 0.07754051 0.24662863
0.16404806 0.23889035 0.031521425 0.2211031 0.23190036 0.22207688 0.32504892 0.23722738
0.20535108 0.17903534 0.14911222 0.21931249 0.22283679 0.09019436 0.12041364 0.23752138
8.803341e-06 0.44969636 0.13913837 0.24228951 0.21890244 0.13194601 0.2971224 0.1237501
0.29017323 0.2391895 0.33879343 0.29481736 0.11716991 0.33630908 0.3160549 0.3235683
-5.2765314e-05 0.49485242 0.14273927 0.2286255 0.33030608 0.20118083 0.36622056 0.17013998
00000000: f988 1338 787a 203e 3510 353e d509 fd3d
00000010: d73e 8fb8 90bb 4a3e f40a 653e 1ce4 3d3e
00000020: d5d4 803e f52d 553e 41f4 8b3d bd92 dc3d
00000030: a628 f7b8 006b 0a3e ce3a 803e 07d6 2a3e
00000040: eaa1 c23d a1f4 6e3e c465 cd3d 1f5b 0c3f
00000050: ae38 be3e b5af 3f3e bd09 1c3e d655 263e
00000060: 4989 ad38 b3dc 7c3e 0d8b 263e 6f81 3c3e
00000070: ed56 3e3e e1e8 ce3d d996 693d fb6a c23e
00000080: e1bc a53e a3ad 473e b4cc 313e d97c af3d
00000090: a31c c43d 4885 ce3d 1637 c33d 233f 3e3e
000000a0: aa49 86b8 1dee 4e3e 4a86 9d3e cd7d 293e
000000b0: cefb 3a3e a6a9 0f3f 6574 813e 4bae 913e
000000c0: 67d0 103e 083e a13e 7f46 0b3e 4fa6 363e
000000d0: 56d6 183e 78fd c43d 3157 4c3e bd30 9a3e
000000e0: bb81 4f3e 3362 383e 7418 623e 0fe6 963e
000000f0: acf5 493e d358 fb3d f53b 553e 7883 2a3e
00000100: 1f94 c83d 8e9a 8b3e f027 8d3e 5b58 693e
00000110: 1605 1d3e e2a3 813e f8f4 f93e 8561 303e
00000120: 362e 353e dfb8 e73d 982c c23e cbbf 793e
00000130: f6a3 8b3e 92ec 503e 254b cd3d 5207 013e
00000140: 71a3 2c3e 5a17 203e 2c6d 9a3d 8d7c 7c3e
00000150: 887e ac3e e06f 5c3e 8fcd 9e3d 378c 7c3e
00000160: 37fc 273e ac9f 743e 9c1c 013d da68 623e
00000170: 4a77 6d3e 1f68 633e d06c a63e bceb 723e
00000180: 8e47 523e 0a55 373e e0b0 183e 7493 603e
00000190: 542f 643e d2b7 b83d 6d9b f63d ce38 733e
000001a0: 10b2 1337 9a3e e63e 4a7a 0e3e be1a 783e
000001b0: f627 603e db1c 073e 6d20 983e b170 fd3d
000001c0: 9691 943e 18ee 743e 5576 ad3e 4df2 963e
000001d0: c7f6 ef3d b430 ac3e f3d1 a13e bfaa a53e
000001e0: 5350 5db8 4c5d fd3e 3e2a 123e ce1c 6a3e
000001f0: e11d a93e 5902 4e3e 4381 bb3e 2d39 2e3e

bn2.bias f4 [128]
1.6710695e-05 -0.12596089 0.09099382 -0.088532425 -8.811318e-06 -0.020291675 0.025258925 0.06461586
-0.057902794 -0.027670644 -0.020952562 -0.03932844 0.00014778705 -0.11526934 -0.08406065 0.054179557
0.07004629 -0.062673055 0.023136226 -0.099346615 0.040449973 0.08337323 -0.011191891 -0.04747062
-7.491679e-05 -0.050545756 -0.102563284 0.08383094 0.050754096 -0.0085362615 -0.021833804 0.008446379
-0.09916492 0.07060818 -0.109312415 0.0018591803 -0.0699107 0.13900682 -0.07632534 0.02049409
4.366185e-05 0.0051564747 0.07549022 0.091979 -0.036014512 -0.099690154 -0.03731396 -0.040493526
0.01076617 0.045029026 0.08027412 0.053026505 0.004016564 -0.11037922 -0.05771165 0.06061534
-0.017920617 -0.07397142 -0.054810207 -0.05684298 -0.04944839 0.08011819 -0.056634296 0.033333767
-0.037128247 -0.080192484 0.06546742 -0.08275242 -0.118160985 -0.10319468 -0.10678092 -0.042326745
-0.043026127 -0.057002563 0.07208823 -0.044984296 -0.0062528015 -0.026310623 -0.053186975 -0.07015566
0.055680174 0.039929233 -0.07054107 -0.11780161 -0.032881867 -0.0044925837 0.005452081 0.049177505
0.040428024 0.021330576 -0.0014693987 0.043224018 0.108558275 0.05683432 -0.03344487 -0.063612014
0.072206266 -0.08863608 -0.027038965 -0.042203948 -0.08994445 -0.08589664 -0.06878897 -0.008445883
3.3555214e-05 0.07349218 -0.018962303 -0.086218074 -0.051611263 -0.062059592 -0.017244587 0.079806834
0.12300756 -0.07818746 0.075898394 -0.067443565 -0.054644443 -0.056254786 0.019427266 -0.027098473
-3.5315195e-05 -0.07833044 -0.062620506 0.12661165 -0.09088257 -0.054263957 -0.0550574 -0.096778415
00000000: f22d 8c37 e4fb 00be f85a ba3d 7d50 b5bd
00000010: 53d4 13b7 ba3a a6bc ceeb ce3c 5255 843d
00000020: 7b2b 6dbd 8cad e2bc b5a4 abbc dc16 21bd
00000030: 49f7 1a39 5512 ecbd fd27 acbd 62eb 5d3d
00000040: 6e74 8f3d bb5a 80bd 2f88 bd3c 3d76 cbbd
00000050: dfae 253d 96bf aa3d 315e 37bc 8e70 42bd
00000060: a51c 9db8 1109 4fbd b30c d2bd 8eaf ab3d
00000070: 87e3 4f3d addb 0bbc cedc b2bc ae62 0a3c
00000080: fa16 cbbd 059b 903d 30df dfbd bdaf f33a
00000090: 572d 8fbd ce57 0e3e 7650 9cbd 39e3 a73c
000000a0: 8e21 3738 a5f7 a83b 9e9a 9a3d 7c5f bc3d
000000b0: f483 13bd 5a2a ccbd 86d6 18bd 8adc 25bd
000000c0: 9764 303c 5b70 383d c266 a43d 5232 593d
000000d0: 629d 833b 800e e2bd 0d63 6cbd ca47 783d
000000e0: 42ce 92bc 547e 97bd ab80 60bd 2fd4 68bd
000000f0: 658a 4abd 0115 a43d 5df9 67bd fd88 083d
00000100: ca13 18bd f53b a4bd c813 863d 1a7a a9bd
00000110: 63fe f1bd bb57 d3bd f4af dabd cf5e 2dbd
00000120: 2a3c 30bd 857b 69bd fea2 933d 7441 38bd
00000130: 4de4 ccbb 6089 d7bc 96da 59bd c5ad 8fbd
00000140: e510 643d d68c 233d d677 90bd f841 f1bd
00000150: 23af 06bd 8636 93bb 5fa7 b23b 5a6e 493d
00000160: db97 253d 76bd ae3c d798 c0ba ab0b 313d
00000170: cd53 de3d 1bcb 683d 7dfd 08bd 0447 82bd
00000180: e1e0 933d d586 b5bd d280 ddbc 0cde 2cbd
00000190: cc34 b8bd 94ea afbd 3be1 8cbd 9a60 0abc
000001a0: a3bd 0c38 1183 963d d556 9bbc 1a93 b0bd
000001b0: 5566 53bd 3332 7ebd 8544 8dbc c471 a33d
000001c0: 63eb fb3d bf20 a0bd 9e70 9b3d da1f 8abd
000001d0: dad2 5fbd 6b6b 66bd ee25 9f3c 9efd ddbc
000001e0: 671f 14b8 b66b a0bd 2e3f 80bd 7ca6 013e
000001f0: a420 babd e243 5ebd de83 61bd c333 c6bd

bn2.running_mean f4 [128]
9.938607e-06 0.006448223 0.18427137 0.01852286 0.021410506 0.026836377 0.060580745 0.015174105
0.06032758 0.0004875828 0.00035429734 0.0003370438 0.022181824 0.017671088 0.012074694 0.053451356
0.05236576 0.09948428 0.02927303 0.10388137 0.14989293 0.27222392 0.045991126 0.035911083
0.008001052 0.034409564 0.008061007 0.037128344 0.03620625 0.02272406 0.0053711305 0.17811581
0.07074 0.119639456 0.06389687 0.00065049255 0.024779903 0.08873383 0.0009457961 0.048375446
0.030798847 0.042826656 0.37081662 0.08738526 0.07717432 0.0515356 0.00058533845 0.16801922
0.021894643 0.11670882 0.093785934 0.10961679 0.07911235 1.7636912e-05 0.013783182 0.06728278
0.00026857684 0.0018034864 0.031887755 0.029409243 0.00068635837 0.05355969 0.02231556 0.06170013
0.0067233546 0.016959894 0.14993683 0.02379651 0.011193558 0.19048083 0.06280481 0.06203971
0.034448814 0.0014721694 0.13191168 0.018074838 0.04700024 0.0743921 0.02998121 0.13104016
0.069613606 0.0002123655 4.2041032e-05 0.15124378 0.23691955 0.030546417 0.0007595365 0.026373966
0.05555552 0.08635328 0.0006959141 0.09107579 0.25011936 0.122191794 0.11872565 0.049272124
0.021783527 0.02774311 0.0044303243 0.04179719 0.041853376 0.00049922295 0.01327252 0.14656174
0.0109359855 0.19041184 0.06668148 0.07412875 0.08437903 0.051105242 0.27438545 0.019247087
0.13504998 0.19580173 0.09038831 0.28587747 0.14763409 0.0485191 0.1500726 0.11199847
0.013628106 0.07615469 0.00034098056 0.29878175 0.038085036 0.030437559 0.018418029 0.013019747
00000000: febd 2637 9d4b d33b a2b1 3c3e 41bd 973c
00000010: 1665 af3c f6d7 db3c 8423 783d cf9c 783c
00000020: 0d1a 773d 41a2 ff39 fcc0 b939 41b5 b039
00000030: a8b6 b53c f5c2 903c f0d4 453c cfef 5a3d
00000040: 7b7d 563d 6abe cb3d fecd ef3c c1bf d43d
00000050: 887d 193e ef60 8b3e 3161 3c3d 8017 133d
00000060: d816 033c 0bf1 0c3d 5012 043c e413 183d
00000070: 014d 143d cf27 ba3c 4f00 b03b fe63 363e
00000080: 22e0 903d 8805 f53d 5ddc 823d d185 2a3a
00000090: 39ff ca3c 15ba b53d 4def 773a 5525 463d
000000a0: dd4d fc3c 016b 2f3d addb bd3e 0bf7 b23d
000000b0: 920d 9e3d fe16 533d 6671 193a 3b0d 2c3e
000000c0: 655c b33c 0905 ef3d d712 c03d c57e e03d
000000d0: a805 a23d fbf2 9337 dbd2 613c 8ecb 893d
000000e0: c6cf 8c39 f662 ec3a bc9c 023d a7eb f03c
000000f0: bbec 333a 6861 5b3d 1fcf b63c 47b9 7c3d
00000100: 964f dc3b 7aef 8a3c 0a89 193e e6f0 c23c
00000110: 2f65 373c 680d 433e cf9f 803d 5a1d 7e3d
00000120: 331a 0d3d cff5 c03a db13 073e af11 943c
00000130: 5383 403d e35a 983d 289b f53c 642f 063e
00000140: 9491 8e3d 6eae 5e39 3755 3038 a6df 1a3e
00000150: 0a9b 723e 7b3c fa3c a21b 473a 370e d83c
00000160: 2f8e 633d fdd9 b03d 016e 363a f285 ba3d
00000170: a50f 803e b13f fa3d 6f26 f33d 91d1 493d
00000180: 5e73 b23c 8545 e33c 412c 913b 8833 2b3d
00000190: 726e 2b3d 49de 023a fc74 593c 4814 163e
000001a0: d92c 333c 52fb 423e 4d90 883d d0d0 973d
000001b0: eace ac3d bb53 513d 407c 8c3e 11ac 9d3c
000001c0: 8b4a 0a3e 4080 483e 821d b93d 885e 923e
000001d0: 642d 173e f7bb 463d a2ac 193e 745f e53d
000001e0: 6b48 5f3c fdf6 9b3d a3c5 b239 ecf9 983e
000001f0: 0eff 1b3d 3058 f93c 68e1 963c c750 553c

bn2.running_var f4 [128]
1.1651557e-08 0.0006329153 0.06870932 0.0037938212 0.00085721334 0.0047391322 0.011020666 0.0022230363
0.013486456 0.00018452913 6.875973e-05 2.8887469e-05 0.0009938986 0.0021750778 0.00078505866 0.0074775466
0.014234211 0.027169792 0.00894033 0.009392942 0.04109305 0.12235466 0.007151486 0.0067779366
0.00015517122 0.010855324 0.0009317763 0.0076613324 0.0061162505 0.0048735905 0.0013133041 0.028818335
0.011695766 0.02525689 0.011223765 8.926284e-05 0.003056241 0.016806507 0.0001224394 0.009128211
0.0012901457 0.0031734342 0.16851304 0.016012965 0.01730712 0.0059595574 0.00012486859 0.054220006
0.003136552 0.02243109 0.017337585 0.02570437 0.016204577 1.1036957e-06 0.0017913143 0.016695825
5.3017488e-05 0.00020443942 0.004794533 0.004460474 7.77923e-05 0.010502355 0.0047851005 0.0074898805
0.00075314794 0.0031385468 0.030000607 0.003914846 0.0011485512 0.095784545 0.009609732 0.015534278
0.007303581 0.00012830546 0.033412885 0.0022354068 0.010871997 0.024191031 0.005885404 0.049049012
0.018756349 2.5470674e-05 5.8433016e-06 0.057808455 0.06009825 0.0064629833 0.00025419952 0.004329642
0.011402626 0.01708818 7.801794e-05 0.02410658 0.11294851 0.027177911 0.027144881 0.008010944
0.0033751584 0.0032691015 0.0016824917 0.007766446 0.009097074 6.99795e-05 0.0013684353 0.0301543
0.00022443992 0.039720524 0.020274013 0.022763582 0.022572549 0.0114540765 0.12649122 0.0035976362
0.035406023 0.029531524 0.017561536 0.14759523 0.031697728 0.007419735 0.027047524 0.028495131
0.00029061484 0.011470979 6.442887e-05 0.10178505 0.0051379604 0.007168065 0.0023021733 0.0016925508
00000000: 172c 4832 3aea 253a 79b7 8c3d c2a1 783b
00000010: 9db6 603a b94a 9b3b 0690 343c 5cb0 113b
00000020: 4cf6 5c3c 297e 4139 1933 9038 5e53 f237
00000030: b445 823a c08b 0e3b 65cc 4d3a 3506 f53b
00000040: 9c36 693c 2f93 de3c 767a 123c dbe4 193c
00000050: 3051 283d 1495 fa3d 0357 ea3b 7419 de3b
00000060: 75b5 2239 87da 313c 7342 743a ea0b fb3b
00000070: d46a c83b a4b2 9f3b 2c23 ac3a 6e14 ec3c
00000080: 999f 3f3c 8ae7 ce3c e2e3 373c 9f32 bb38
00000090: 374b 483b cdad 893c 1363 0039 7e8e 153c
000000a0: 1b1a a93a 64f9 4f3b af8e 2c3e 9f2d 833c
000000b0: a9c7 8d3c 6448 c33b 28ef 0239 cc15 5e3d
000000c0: 9c8e 4d3b 68c1 b73c 8d07 8e3c f991 d23c
000000d0: 76bf 843c b222 9435 89ca ea3a afc5 883c
000000e0: 185f 5e38 ca5e 5639 751b 9d3b 2b29 923b
000000f0: 6c24 a338 1212 2c3c 55cc 9c3b ac6d f53b
00000100: e76e 453a 14b0 4d3b d5c3 f53c 1c48 803b
00000110: fc8a 963a b02a c43d 2372 1d3c 7c83 7e3c
00000120: e152 ef3b bc89 0639 f3db 083d e77f 123b
00000130: 7620 323c 452c c63c 59da c03b 9ee7 483d
00000140: eaa6 993c dba9 d537 9411 c436 8fc8 6c3d
00000150: 9529 763d 6fc7 d33b 1546 8539 abdf 8d3b
00000160: 14d2 3a3c 83fc 8b3c 909d a338 2a7b c53c
00000170: 8c51 e73d 36a4 de3c f15e de3c 5640 033c
00000180: c331 5d3b 6c3e 563b 0e87 dc3a ac7d fe3b
00000190: e50b 153c f5c1 9238 125d b33a 2706 f73c
000001a0: a257 6b39 fdb1 223d b015 a63c b17a ba3c
000001b0: 11ea b83c e1a9 3b3c ea86 013e 52c6 6b3b
000001c0: e805 113d 18ec f13c 36dd 8f3c 3423 173e
000001d0: 7ad5 013d 4021 f33b c592 dd3c 9f6e e93c
000001e0: aa5d 9839 c6f0 3b3c fc1d 8738 ae74 d03d
000001f0: 565c a83b 16e2 ea3b 0fe0 163b 95d8 dd3a

fc2.weight f4 [128, 132]
3.2633612e-05 -0.10824163 0.022755327 0.018866401 -0.00011477805 -0.04014254 -0.0064359666 -0.0154581675
0.010263902 -0.0149166295 -0.029489418 -0.033567235 -0.00013663428 -0.121627524 -0.036931545 0.030741885
0.031320557 -0.086222954 0.03574192 -0.04856802 -0.005813018 0.048097406 0.01581084 0.012181382
-0.00016528477 -0.01776674 -0.03720052 -0.0070446664 0.051942747 -0.04125405 -0.025320148 -0.01844923
-0.01663923 0.03287495 -0.106826425 0.0044316393 -0.05939346 0.020915197 -0.09702848 -0.063957825
8.870611e-05 -0.02102418 -0.033665277 0.031799566 -0.05252473 -0.074162394 -0.03351933 -0.028852541
0.004627629 -0.029009055 0.050328538 0.03606825 0.03730958 -0.060138013 -0.026153147 0.044377696
-0.017294297 -0.03678873 0.045108 -0.04938613 -0.019293847 0.035904218 -0.0295499 0.024047803
0.028566029 -0.108182825 0.03228314 -0.027707787 -0.07653891 -0.024060942 -0.023980388 -0.04068244
-0.0040076165 0.009847749 0.02308506 -0.009821514 -0.06660398 0.017882533 -0.05978482 -0.09206094
0.039613765 0.016909685 -0.074139364 0.03258457 0.046595 0.027713392 0.043419015 0.045286555
0.04199188 -0.023221837 -0.011183809 -0.06610894 0.050314177 0.041150168 -0.015327922 -0.06906376
0.08387208 -0.026512548 -0.0087098675 -0.037381582 -0.021512827 -0.011136866 -0.05466642 0.027431207
-0.00016872551 0.046991903 0.02967546 0.011349301 -0.006733075 -0.037965603 -0.057131343 0.052072167
0.07224973 -0.00021672098 -0.0014649711 -0.038494438 0.021850394 -0.032653175 -0.0066879005 -0.06546216
-0.00033478177 -0.018778684 0.004327116 -0.010431877 -0.051060278 -0.039626878 -0.032773938 -0.027038706
-0.003439193 0.0042710714 0.0018512437 0.0076175393 3.0508812e-05 0.0681716 -0.023650115 -0.03588486
-0.00016401311 0.0019174749 -0.07770582 0.051533476 -0.030797925 0.04004202 -0.022918886 -0.006492098
0.00010074113 -0.0077477833 0.056001253 -0.020205868 0.011241013 0.03553344 -0.010460701 0.06629914
0.03299754 0.044083882 -0.018583698 -0.016323369 -8.4483014e-05 -0.018343253 -0.013491374 -0.03190737
-0.04664298 -0.009194068 0.0381675 0.021436075 0.0764451 0.021946415 -0.016611071 0.008035184
0.00832295 0.036963176 0.0021124315 0.04804416 0.0014127108 0.11724823 0.029299462 0.04893545
-0.07753739 -0.015561221 0.012160897 0.020639256 -0.0132485675 -0.0048547224 -0.017004192 -0.0017277312
-0.056242567 -0.031373564 -0.025597861 0.0031948711 -0.003417238 0.013635794 -0.09988062 0.0031870943
0.01172136 0.043635864 -0.00070216536 0.012030086 -0.033466432 -0.0025026458 0.039417494 -0.036183566
0.025273284 0.023035416 0.031184344 0.0050994856 0.00083964213 0.031996142 -0.0058810664 0.041743793
-0.0757273 0.015206319 -0.014364437 -0.008407019 -0.030191207 0.017410703 0.017072009 0.015256106
-0.008998683 0.032964174 -0.016148845 -0.009433636 -0.0009004803 0.005148622 0.014039119 0.037073433
0.007422794 0.0011309711 0.025357215 -0.0016668437 -0.027386304 -0.025151702 0.018427167 -0.037383
0.00238857 0.013085498 0.014663474 -0.032960974 -0.00056961575 0.010874307 -0.020098083 -0.010909134
0.00079443614 -0.0356189 -0.011786214 -0.01441833 -0.029299675 0.013186615 0.0025585461 0.03131957
-0.01767491 0.02317202 -0.024078816 0.01766337 -1.2166668e-05 0.007841381 0.025275363 0.02522764
00000000: 13e0 0838 caad ddbd 6169 ba3c b68d 9a3c
00000010: ffb4 f0b8 816c 24bd cde4 d2bb 4144 7dbc
00000020: ed29 283c e164 74bc cb93 f1bc cc7d 09bd
00000030: 7c45 0fb9 da17 f9bd 8845 17bd 68d6 fb3c
00000040: fc49 003d a995 b0bd 1f66 123d 43ef 46bd
00000050: 217b bebb c901 453d bc85 813c 6b94 473c
00000060: 4b50 2db9 8e8b 91bc 935f 18bd f2d6 e6bb
00000070: ebc1 543d 02fa 28bd 336c cfbc d722 97bc
00000080: ff4e 88bc e2a7 063d d0c7 dabd 4937 913b
00000090: 8f46 73bd 5956 ab3c deb6 c6bd 52fc 82bd
000000a0: bb07 ba38 e73a acbc 9ae4 09bd 4340 023d
000000b0: 2c24 57bd 74e2 97bd 914b 09bd 2a5c ecbc
000000c0: 5ea3 973b 66a4 edbc 4c25 4e3d 4dbc 133d
000000d0: eed1 183d 4753 76bd 203f d6bc 63c5 353d
000000e0: c5ac 8dbc c8af 16bd 2bc3 383d 1c49 4abd
000000f0: 210e 9ebc 4d10 133d a212 f2bc e6ff c43c
00000100: 4e03 ea3c f58e ddbd 533b 043d 71fb e2bc
00000110: 6fc0 9cbd 741b c5bc 8572 c4bc a1a2 26bd
00000120: 5352 83bb 7458 213c e11c bd3c 6aea 20bc
00000130: ab67 88bd 647e 923c ede0 74bd 728a bcbd
00000140: 0b42 223d 2e86 8a3c 61d6 97bd 6677 053d
00000150: 66da 3e3d 3207 e33c 23d8 313d 657e 393d
00000160: adff 2b3d b93b bebc 4b3c 37bc 2064 87bd
00000170: 3d16 4e3d 148d 283d f721 7bbc 4d71 8dbd
00000180: 20c5 ab3d d830 d9bc d5b3 0ebc 6e1d 19bd
00000190: ab3b b0bc 6777 36bc e5e9 5fbd 69b7 e03c
000001a0: e9eb 30b9 957a 403d f319 f33c 6bf2 393c
000001b0: 20a1 dcbb d281 1bbd 8e02 6abd a049 553d
000001c0: abf7 933d 983f 63b9 4604 c0ba 58ac 1dbd
000001d0: 99ff b23c 56bf 05bd 2d26 dbbb 0611 86bd
000001e0: a685 afb9 c1d5 99bc 7bca 8d3b 77ea 2abc
000001f0: 9524 51bd cb4f 22bd f73d 06bd 4780 ddbc
00000200: 1564 61bb 58f4 8b3b 6ea5 f23a 8d9c f93b
00000210: 2ded ff37 8d9d 8b3d e3bd c1bc 01fc 12bd
00000220: effa 2bb9 c853 fb3a 3b24 9fbd c414 533d
00000230: ee4b fcbc 1a03 243d 63c0 bbbc aabb d4bb
00000240: fb44 d338 1ee1 fdbb 9261 653d c786 a5bc
00000250: 3a2c 383c 838b 113d 5c63 2bbc d8c7 873d
00000260: 6e28 073d 4d91 343d d73c 98bc 96b8 85bc
00000270: 792c b1b8 9744 96bc ed0a 5dbc 4db1 02bd
00000280: b60c 3fbd b7a2 16bc 8655 1c3d b59a af3c
00000290: 408f 9c3d f8c8 b33c f113 88bc 01a6 033c
000002a0: fc5c 083c b366 173d b870 0a3b f4c9 443d
000002b0: b52a b93a d71f f03d 6d05 f03c 8a70 483d
000002c0: eccb 9ebd 7ef4 7ebc 803e 473c a813 a93c
000002d0: 8510 59bc 5d14 9fbb 604c 8bbc 0a75 e2ba
000002e0: 9b5e 66bd 9181 00bd 9bb2 d1bc 0b61 513b
000002f0: bdf3 5fbb aa68 5f3c 368e ccbd 92de 503b
00000300: f20a 403c 85bb 323d 8511 38ba d619 453c
00000310: 1914 09bd 6e03 24bb 3d74 213d 3835 14bd
00000320: eb09 cf3c c5b4 bc3c 4f76 ff3c 9619 a73b
00000330: 6e1b 5c3a 630e 033d f6b5 c0bb 8afb 2a3d
00000340: ea16 9bbd ed23 793c d158 6bbc 98bd 09bc
00000350: 8d53 f7bc e4a0 8e3c 99da 8b3c bff4 793c
00000360: 366f 13bc 7105 073d 954a 84bc 8a8f 1abc
00000370: 360e 6cba c6b5 a83b 5504 663c 50da 173d
00000380: e93a f33b 183d 943a efb9 cf3c fe79 daba
00000390: 3e59 e0bc f10a cebc 92f4 963c eb1e 19bd
000003a0: 8e89 1c3b 8e64 563c 113f 703c 1602 07bd
000003b0: 4452 15ba 262a 323c bca4 a4bc 39bc 32bc
000003c0: b541 503a 20e5 11bd f71a 41bc dc3a 6cbc
000003d0: df05 f0bc ac0c 583c 48ad 273b f348 003d
000003e0: f9ca 90bc 40d3 bd3c f040 c5bc c6b2 903c
000003f0: 711f 4cb7 2379 003c 470e cf3c 32aa ce3c

fc2.bias f4 [128]
0.007862863 0.007158578 -0.008668217 8.217247e-05 -0.053815965 -0.07801264 0.050525133 0.007504786
0.070271194 0.010185852 -0.06869732 -0.075532444 0.06916592 -0.10217099 0.056495562 0.032512955
-0.061436765 -0.07346726 0.04955572 -0.10313528 -0.02257 -0.091713965 0.117907144 -0.057798225
0.026156062 -0.0013652027 -0.08043881 -0.0017010961 -0.0038875 -0.085477635 -0.091287374 -0.02433212
-0.049837213 -0.09487067 -0.062636286 0.071942486 -0.025858903 -0.05832256 0.034842737 -0.00022110033
0.03434524 -0.13148993 -0.05358453 -0.10529962 -0.016051473 -0.08551044 -0.065104686 -0.045489028
-0.0987363 -0.03425212 0.034267057 -0.038487364 0.07086855 -0.06841457 -0.04077644 0.11067059
-0.08154981 -0.009795178 -0.075617224 0.007870413 0.082749985 -0.044382837 -0.01908249 -0.038662326
0.056073066 0.08900598 -0.059958424 0.07403764 -0.068027824 -0.043875497 -0.022197085 0.07385831
-0.039076854 -0.033021405 0.10089848 -0.0817531 -0.08334599 -0.023466354 -0.06084857 -0.05743586
-0.056210622 0.07102153 -0.033679552 -0.04185987 0.0011613137 -0.024656452 -0.13234305 -0.05279458
0.06327239 -0.015506884 0.10236583 -0.08828517 -0.030772181 -0.105425164 -0.054320026 -0.04902391
-0.026988788 0.0048333723 -0.09988712 -0.02879215 -0.05949299 -0.01987322 -0.07133309 -0.07375643
-0.09962922 -0.058157347 -0.092188284 0.09753153 -0.10818221 -0.09573418 -0.08410969 0.040474743
-0.0013918672 0.1178137 -0.016254742 -0.04033996 0.00886398 0.02246518 -0.016865324 -0.09542701
0.015055231 -0.07080133 0.01079805 -0.043156255 0.06407553 0.03198795 -0.05330871 0.041940115
00000000: 3dd3 003c 8192 ea3b 2305 0ebc 0254 ac38
00000010: 216e 5cbd 17c5 9fbd 71f3 4e3d b5ea f53b
00000020: 58ea 8f3d 8fe2 263c 2eb1 8cbd c1b0 9abd
00000030: dda6 8d3d 063f d1bd e467 673d 4e2c 053d
00000040: 1ea5 7bbd 0176 96bd f0fa 4a3d 9738 d3bd
00000050: b8e4 b8bc 88d4 bbbd 4d79 f13d d5bd 6cbd
00000060: 3d45 d63c 9af0 b2ba 1abd a4bd 50f7 deba
00000070: 6dc5 7ebb e60e afbd e0f4 babd 2754 c7bc
00000080: 1b22 4cbd 8e4b c2bd 7447 80bd 9556 933d
00000090: 0dd6 d3bc a3e3 6ebd 42b7 0e3d 2bd7 67b9
000000a0: 98ad 0c3d 4ca5 06be 747b 5bbd 54a7 d7bd
000000b0: 617e 83bc 1920 afbd 9b55 85bd b452 3abd
000000c0: 4236 cabd f34b 0cbd 9d5b 0c3d eda4 1dbd
000000d0: 8823 913d f01c 8cbd 3205 27bd 43a7 e23d
000000e0: 9603 a7bd f47b 20bc 34dd 9abd e8f2 003c
000000f0: d378 a93d c7ca 35bd e252 9cbc 635c 1ebd
00000100: dfac 653d c448 b63d f796 75bd 0ca1 973d
00000110: 2c52 8bbd cbb6 33bd a9d6 b5bc 0743 973d
00000120: 0d0f 20bd 7441 07bd dda3 ce3d 2b6e a7bd
00000130: 4db1 aabd 833c c0bc 5a3c 79bd dd41 6bbd
00000140: 1c3d 66bd bc73 913d 92f3 09bd 4175 2bbd
00000150: 3937 983a 54fc c9bc f084 07be 213f 58bd
00000160: f494 813d 9610 7ebc 2da5 d13d dbce b4bd
00000170: f115 fcbc 26e9 d7bd ad7e 5ebd 4ccd 48bd
00000180: 9717 ddbc 4461 9e3b 9e91 ccbd 84dd ebbc
00000190: ecae 73bd 2acd a2bc 1517 92bd 9c0d 97bd
000001a0: 680a ccbd 6636 6ebd 36cd bcbd 9cbe c73d
000001b0: a28e ddbd 4810 c4bd b341 acbd d8c8 253d
000001c0: 506f b6ba 4f48 f13d aa28 85bc 843b 25bd
000001d0: 3a3a 113c e608 b83c 2629 8abc 3c6f c3bd
000001e0: 37aa 763c 4a00 91bd 4eea 303c 9dc4 30bd
000001f0: 083a 833d cc05 033d 3c5a 5abd 66c9 2b3d

bn3.weight f4 [128]
0.29451942 0.03678 0.5417146 0.6804138 0.07880491 0.076099455 0.8982294 0.51803684
0.16235524 0.99818754 0.9315398 0.3058222 0.5271263 0.2270239 0.6522059 0.77601856
0.8556417 0.9566194 0.57533866 0.13181591 0.02131641 0.5995342 0.72861904 0.20244682
0.53353703 0.06438625 0.6674425 0.6654402 0.011573315 0.36720157 0.07797372 0.15300268
0.19700491 0.8320192 0.27101028 0.46990722 0.9679518 0.054145753 0.75049263 0.4514485
0.51311404 0.8537117 0.029121876 0.6948946 0.75057006 0.41290098 0.56635576 0.8523774
0.16377193 0.91944444 0.15496325 0.7606733 0.90406144 0.66055 0.071884274 0.9959092
0.6120993 0.35389477 0.81636465 0.84162307 0.6615632 0.10568023 0.5900507 0.26597446
0.2174123 0.96234643 0.22131711 0.14523268 0.3411075 0.99341583 0.33257723 0.110007346
0.22896206 0.2101857 0.6940912 0.71771294 0.77852076 0.5165909 0.09187949 0.16250193
0.74545836 0.039698362 0.59484226 0.16546631 0.44248694 0.33742952 0.7846242 0.5640217
0.13147497 0.17222899 0.45991957 0.7137139 0.37195474 0.29155803 0.07444793 0.6370833
0.84495026 0.5016396 0.52286196 0.14197934 0.20896095 0.07807839 0.47202826 0.10221726
0.24614584 0.62284243 0.16910279 0.7700828 0.8885523 0.6928557 0.7681398 0.18042856
0.71633005 0.5711145 0.41999727 0.44378567 0.2254715 0.5491701 0.034116745 0.18111312
0.6457438 0.6074041 0.46268672 0.018090129 0.15955335 0.06186104 0.968523 0.13126832
00000000: 40cb 963e a0a6 163d cfad 0a3f 992f 2e3f
00000010: 7864 a13d 08da 9b3d 5df2 653f 109e 043f
00000020: 7440 263e 3889 7f3f 6479 6e3f ba94 9c3e
00000030: c0f1 063f f478 683e f7f6 263f 27a9 463f
00000040: 560b 5b3f 02e5 743f 6549 133f c0fa 063e
00000050: c09f ae3c 137b 193f c786 3a3f 384e 4f3e
00000060: e295 083f f0dc 833d 83dd 2a3f 4a5a 2a3f
00000070: 009e 3d3c d801 bc3e b0b0 9f3d bcac 1c3e
00000080: a8bb 493e 36ff 543f dcc1 8a3e ae97 f03e
00000090: b0cb 773f f0c7 5d3d 4920 403f 4224 e73e
000000a0: 715b 033f da8c 5a3f 0091 ee3c 9de4 313f
000000b0: 5c25 403f c267 d33e b1fc 103f 6835 5a3f
000000c0: d4b3 273e b660 6b3f b0ae 1e3e 7cbb 423f
000000d0: 9270 673f ce19 293f 1038 933d e8f3 7e3f
000000e0: 8ab2 1c3f b231 b53e 46fd 503f 9c74 573f
000000f0: 355c 293f e06e d83d 900d 173f ce2d 883e
00000100: 54a1 5e3e 565c 763f f4a0 623e e0b7 143e
00000110: a4a5 ae3e 8050 7e3f 9047 aa3e 884b e13d
00000120: 0875 6a3e ec3a 573e f6af 313f 09bc 373f
00000130: 234d 473f 4d3f 043f 502b bc3d e866 263e
00000140: 5cd6 3e3f c09a 223d 9547 183f 0070 293e
00000150: a68d e23e 90c3 ac3e 22dd 483f ba63 103f
00000160: 60a1 063e cc5c 303e 947a eb3e f4b5 363f
00000170: da70 be3e 1847 953e 2878 983d e417 233f
00000180: a94e 583f 746b 003f 48da 053f 0863 113e
00000190: dcf9 553e 90e7 9f3d b0ad f13e 4857 d13d
000001a0: a80d 7c3e 9a72 1f3f 4829 2d3e 2524 453f
000001b0: 2a78 633f fe5e 313f cfa4 443f 44c2 383e
000001c0: 6861 373f 8f34 123f e209 d73e e037 e33e
000001d0: 00e2 663e 6996 0c3f 00be 0b3d b875 393e
000001e0: 774f 253f d67e 1b3f 46e5 ec3e c031 943c
000001f0: f461 233e 0062 7d3d 20f1 773f 346b 063e

bn3.bias f4 [128]
0.0 0.0 0.0 0.0 0.0 0.0 0.0 0.0
0.0 0.0 0.0 0.0 0.0 0.0 0.0 0.0
0.0 0.0 0.0 0.0 0.0 0.0 0.0 0.0
0.0 0.0 0.0 0.0 0.0 0.0 0.0 0.0
0.0 0.0 0.0 0.0 0.0 0.0 0.0 0.0
0.0 0.0 0.0 0.0 0.0 0.0 0.0 0.0
0.0 0.0 0.0 0.0 0.0 0.0 0.0 0.0
0.0 0.0 0.0 0.0 0.0 0.0 0.0 0.0
0.0 0.0 0.0 0.0 0.0 0.0 0.0 0.0
0.0 0.0 0.0 0.0 0.0 0.0 0.0 0.0
0.0 0.0 0.0 0.0 0.0 0.0 0.0 0.0
0.0 0.0 0.0 0.0 0.0 0.0 0.0 0.0
0.0 0.0 0.0 0.0 0.0 0.0 0.0 0.0
0.0 0.0 0.0 0.0 0.0 0.0 0.0 0.0
0.0 0.0 0.0 0.0 0.0 0.0 0.0 0.0
0.0 0.0 0.0 0.0 0.0 0.0 0.0 0.0
00000000: 0000 0000 0000 0000 0000 0000 0000 0000
00000010: 0000 0000 0000 0000 0000 0000 0000 0000
00000020: 0000 0000 0000 0000 0000 0000 0000 0000
00000030: 0000 0000 0000 0000 0000 0000 0000 0000
00000040: 0000 0000 0000 0000 0000 0000 0000 0000
00000050: 0000 0000 0000 0000 0000 0000 0000 0000
00000060: 0000 0000 0000 0000 0000 0000 0000 0000
00000070: 0000 0000 0000 0000 0000 0000 0000 0000
00000080: 0000 0000 0000 0000 0000 0000 0000 0000
00000090: 0000 0000 0000 0000 0000 0000 0000 0000
000000a0: 0000 0000 0000 0000 0000 0000 0000 0000
000000b0: 0000 0000 0000 0000 0000 0000 0000 0000
000000c0: 0000 0000 0000 0000 0000 0000 0000 0000
000000d0: 0000 0000 0000 0000 0000 0000 0000 0000
000000e0: 0000 0000 0000 0000 0000 0000 0000 0000
000000f0: 0000 0000 0000 0000 0000 0000 0000 0000
00000100: 0000 0000 0000 0000 0000 0000 0000 0000
00000110: 0000 0000 0000 0000 0000 0000 0000 0000
00000120: 0000 0000 0000 0000 0000 0000 0000 0000
00000130: 0000 0000 0000 0000 0000 0000 0000 0000
00000140: 0000 0000 0000 0000 0000 0000 0000 0000
00000150: 0000 0000 0000 0000 0000 0000 0000 0000
00000160: 0000 0000 0000 0000 0000 0000 0000 0000
00000170: 0000 0000 0000 0000 0000 0000 0000 0000
00000180: 0000 0000 0000 0000 0000 0000 0000 0000
00000190: 0000 0000 0000 0000 0000 0000 0000 0000
000001a0: 0000 0000 0000 0000 0000 0000 0000 0000
000001b0: 0000 0000 0000 0000 0000 0000 0000 0000
000001c0: 0000 0000 0000 0000 0000 0000 0000 0000
000001d0: 0000 0000 0000 0000 0000 0000 0000 0000
000001e0: 0000 0000 0000 0000 0000 0000 0000 0000
000001f0: 0000 0000 0000 0000 0000 0000 0000 0000

bn3.running_mean f4 [128]
0.0 0.0 0.0 0.0 0.0 0.0 0.0 0.0
0.0 0.0 0.0 0.0 0.0 0.0 0.0 0.0
0.0 0.0 0.0 0.0 0.0 0.0 0.0 0.0
0.0 0.0 0.0 0.0 0.0 0.0 0.0 0.0
0.0 0.0 0.0 0.0 0.0 0.0 0.0 0.0
0.0 0.0 0.0 0.0 0.0 0.0 0.0 0.0
0.0 0.0 0.0 0.0 0.0 0.0 0.0 0.0
0.0 0.0 0.0 0.0 0.0 0.0 0.0 0.0
0.0 0.0 0.0 0.0 0.0 0.0 0.0 0.0
0.0 0.0 0.0 0.0 0.0 0.0 0.0 0.0
0.0 0.0 0.0 0.0 0.0 0.0 0.0 0.0
0.0 0.0 0.0 0.0 0.0 0.0 0.0 0.0
0.0 0.0 0.0 0.0 0.0 0.0 0.0 0.0
0.0 0.0 0.0 0.0 0.0 0.0 0.0 0.0
0.0 0.0 0.0 0.0 0.0 0.0 0.0 0.0
0.0 0.0 0.0 0.0 0.0 0.0 0.0 0.0
00000000: 0000 0000 0000 0000 0000 0000 0000 0000
00000010: 0000 0000 0000 0000 0000 0000 0000 0000
00000020: 0000 0000 0000 0000 0000 0000 0000 0000
00000030: 0000 0000 0000 0000 0000 0000 0000 0000
00000040: 0000 0000 0000 0000 0000 0000 0000 0000
00000050: 0000 0000 0000 0000 0000 0000 0000 0000
00000060: 0000 0000 0000 0000 0000 0000 0000 0000
00000070: 0000 0000 0000 0000 0000 0000 0000 0000
00000080: 0000 0000 0000 0000 0000 0000 0000 0000
00000090: 0000 0000 0000 0000 0000 0000 0000 0000
000000a0: 0000 0000 0000 0000 0000 0000 0000 0000
000000b0: 0000 0000 0000 0000 0000 0000 0000 0000
000000c0: 0000 0000 0000 0000 0000 0000 0000 0000
000000d0: 0000 0000 0000 0000 0000 0000 0000 0000
000000e0: 0000 0000 0000 0000 0000 0000 0000 0000
000000f0: 0000 0000 0000 0000 0000 0000 0000 0000
00000100: 0000 0000 0000 0000 0000 0000 0000 0000
00000110: 0000 0000 0000 0000 0000 0000 0000 0000
00000120: 0000 0000 0000 0000 0000 0000 0000 0000
00000130: 0000 0000 0000 0000 0000 0000 0000 0000
00000140: 0000 0000 0000 0000 0000 0000 0000 0000
00000150: 0000 0000 0000 0000 0000 0000 0000 0000
00000160: 0000 0000 0000 0000 0000 0000 0000 0000
00000170: 0000 0000 0000 0000 0000 0000 0000 0000
00000180: 0000 0000 0000 0000 0000 0000 0000 0000
00000190: 0000 0000 0000 0000 0000 0000 0000 0000
000001a0: 0000 0000 0000 0000 0000 0000 0000 0000
000001b0: 0000 0000 0000 0000 0000 0000 0000 0000
000001c0: 0000 0000 0000 0000 0000 0000 0000 0000
000001d0: 0000 0000 0000 0000 0000 0000 0000 0000
000001e0: 0000 0000 0000 0000 0000 0000 0000 0000
000001f0: 0000 0000 0000 0000 0000 0000 0000 0000

bn3.running_var f4 [128]
1.0 1.0 1.0 1.0 1.0 1.0 1.0 1.0
1.0 1.0 1.0 1.0 1.0 1.0 1.0 1.0
1.0 1.0 1.0 1.0 1.0 1.0 1.0 1.0
1.0 1.0 1.0 1.0 1.0 1.0 1.0 1.0
1.0 1.0 1.0 1.0 1.0 1.0 1.0 1.0
1.0 1.0 1.0 1.0 1.0 1.0 1.0 1.0
1.0 1.0 1.0 1.0 1.0 1.0 1.0 1.0
1.0 1.0 1.0 1.0 1.0 1.0 1.0 1.0
1.0 1.0 1.0 1.0 1.0 1.0 1.0 1.0
1.0 1.0 1.0 1.0 1.0 1.0 1.0 1.0
1.0 1.0 1.0 1.0 1.0 1.0 1.0 1.0
1.0 1.0 1.0 1.0 1.0 1.0 1.0 1.0
1.0 1.0 1.0 1.0 1.0 1.0 1.0 1.0
1.0 1.0 1.0 1.0 1.0 1.0 1.0 1.0
1.0 1.0 1.0 1.0 1.0 1.0 1.0 1.0
1.0 1.0 1.0 1.0 1.0 1.0 1.0 1.0
00000000: 0000 803f 0000 803f 0000 803f 0000 803f
00000010: 0000 803f 0000 803f 0000 803f 0000 803f
00000020: 0000 803f 0000 803f 0000 803f 0000 803f
00000030: 0000 803f 0000 803f 0000 803f 0000 803f
00000040: 0000 803f 0000 803f 0000 803f 0000 803f
00000050: 0000 803f 0000 803f 0000 803f 0000 803f
00000060: 0000 803f 0000 803f 0000 803f 0000 803f
00000070: 0000 803f 0000 803f 0000 803f 0000 803f
00000080: 0000 803f 0000 803f 0000 803f 0000 803f
00000090: 0000 803f 0000 803f 0000 803f 0000 803f
000000a0: 0000 803f 0000 803f 0000 803f 0000 803f
000000b0: 0000 803f 0000 803f 0000 803f 0000 803f
000000c0: 0000 803f 0000 803f 0000 803f 0000 803f
000000d0: 0000 803f 0000 803f 0000 803f 0000 803f
000000e0: 0000 803f 0000 803f 0000 803f 0000 803f
000000f0: 0000 803f 0000 803f 0000 803f 0000 803f
00000100: 0000 803f 0000 803f 0000 803f 0000 803f
00000110: 0000 803f 0000 803f 0000 803f 0000 803f
00000120: 0000 803f 0000 803f 0000 803f 0000 803f
00000130: 0000 803f 0000 803f 0000 803f 0000 803f
00000140: 0000 803f 0000 803f 0000 803f 0000 803f
00000150: 0000 803f 0000 803f 0000 803f 0000 803f
00000160: 0000 803f 0000 803f 0000 803f 0000 803f
00000170: 0000 803f 0000 803f 0000 803f 0000 803f
00000180: 0000 803f 0000 803f 0000 803f 0000 803f
00000190: 0000 803f 0000 803f 0000 803f 0000 803f
000001a0: 0000 803f 0000 803f 0000 803f 0000 803f
000001b0: 0000 803f 0000 803f 0000 803f 0000 803f
000001c0: 0000 803f 0000 803f 0000 803f 0000 803f
000001d0: 0000 803f 0000 803f 0000 803f 0000 803f
000001e0: 0000 803f 0000 803f 0000 803f 0000 803f
000001f0: 0000 803f 0000 803f 0000 803f 0000 803f

fc3.weight f4 [1, 128]
0.10201703 0.056520805 -0.038451493 0.0448197 -0.066959806 -0.13756336 0.027903566 0.060048837
0.025160447 0.029036554 -0.18141524 -0.059317823 0.07585284 0.09073949 0.055109527 0.042086907
0.16901743 -0.14431697 0.04949222 -0.11221957 0.055493817 -0.30433813 0.0617373 -0.09151322
0.035707638 0.042067125 -0.11444997 0.09631531 -0.00015054522 -0.08559002 -0.15298982 -0.06887503
-0.048861634 -0.23420107 -0.16786969 0.061430912 0.056331113 -0.074857645 0.057893693 0.11264864
0.042155024 -0.12991624 0.12881932 -0.11013077 0.21427521 -0.077701785 -0.05159397 -0.04819058
-0.06630564 -0.075299226 0.035234146 0.06556153 0.046350688 -0.086312614 -0.058689047 0.046316322
0.099016674 -0.042905144 -0.06699673 0.045407135 0.05050262 -0.093301475 0.3377335 -0.04004865
0.08427802 0.07576548 -0.14779621 0.049714576 -0.20610477 -0.03999886 0.056006968 0.039042905
-0.063393146 -0.059569918 0.060060833 -0.2621273 -0.13580114 -0.052235987 0.07574881 -0.045311447
-0.10222411 0.04413165 0.063594 -0.10153935 -0.06463445 -0.03423175 -0.17821151 0.08490309
0.052099776 -0.039994296 0.06425857 -0.09517509 0.16404377 -0.12873767 -0.076780654 -0.051300485
0.06852038 -0.037852854 -0.14378896 -0.03432174 -0.15219124 0.037736434 -0.07289725 -0.052919403
-0.072470866 -0.037768226 -0.20003462 0.058828235 0.116239525 -0.23785864 -0.08054107 0.038051873
0.10265806 0.050898705 0.12338923 -0.12062249 0.053132776 0.039131526 0.040137786 -0.09876066
0.065956324 -0.059753757 0.08290284 0.043550074 0.04678657 0.18337576 -0.06941985 0.035754282
00000000: 4eee d03d 5c82 673d 507f 1dbd dd94 373d
00000010: 3922 89bd 69dd 0cbe 0596 e43c c5f5 753d
00000020: 481d ce3c 11de ed3c ebc4 39be 3ff7 72bd
00000030: bc58 9b3d a0d5 b93d 87ba 613d 5263 2c3d
00000040: e812 2d3e d4c7 13be 5bb8 4a3d 60d3 e5bd
00000050: 7c4d 633d 35d2 9bbe 40e0 7c3d 486b bbbd
00000060: 2c42 123d 944e 2c3d bf64 eabd f640 c53d
00000070: addb 1db9 d249 afbd 5da9 1cbe 5a0e 8dbd
00000080: 2323 48bd 68d2 6fbe 08e6 2bbe fb9e 7b3d
00000090: 74bb 663d f74e 99bd f021 6d3d 55b4 e63d
000000a0: bfaa 2c3d c308 05be 36e9 033e 3e8c e1bd
000000b0: f66a 5b3e 1d22 9fbd 3354 53bd 7c63 45bd
000000c0: 40cb 87bd 7b36 9abd ae51 103d 2045 863d
000000d0: 38da 3d3d abc4 b0bd ed63 70bd 2fb6 3d3d
000000e0: 41c9 ca3d 4ebd 2fbd 9535 89bd d5fc 393d
000000f0: d6db 4e3d d814 bfbd 68eb ac3e 0e0a 24bd
00000100: f499 ac3d ef2a 9b3d e457 17be 83a1 4b3d
00000110: 210d 53be d8d5 23bd 9067 653d 74eb 1f3d
00000120: 44d4 81bd 96ff 73bd 5902 763d 8d35 86be
00000130: 740f 0bbe 67f5 55bd 3122 9b3d 7f98 39bd
00000140: e05a d1bd 64c3 343d 923d 823d ddf3 cfbd
00000150: 115f 84bd 9736 0cbd 147d 36be ace1 ad3d
00000160: 9366 553d 0fd1 23bd ff99 833d 28eb c2bd
00000170: 17fb 273e cfd3 03be 2d3f 9dbd 7520 52bd
00000180: 6a54 8c3d 980b 1bbd 6a3d 13be f494 0cbd
00000190: 05d8 1bbe 8591 1a3d 274b 95bd 04c2 58bd
000001a0: 9b6b 94bd dbb2 1abd e0d5 4cbe e0f5 703d
000001b0: fd0e ee3d 3791 73be b7f2 a4bd 48dc 1b3d
000001c0: 643e d23d 297b 503d 7eb3 fc3d ed08 f7bd
000001d0: c1a1 593d 6148 203d 8567 243d 0743 cabd
000001e0: 1c14 873d 5bc0 74bd f7c8 a93d 9061 323d
000001f0: 46a3 3f3d dbc6 3b3e ff2b 8ebd 1573 123d
