mode_weights/agent19_critic_target.pth (torch_old, 93523 bytes, 17 tensors)

bn1.weight f4 [33]
0.49625978 0.76822436 0.08847743 0.13203049 0.30742282 0.6340787 0.4900934 0.89644474
0.45562798 0.6323063 0.34889346 0.4017173 0.022325754 0.16885895 0.29388845 0.5185218
0.6976676 0.8000114 0.16103148 0.28226858 0.68160856 0.915194 0.3970999 0.8741559
0.41940832 0.55290705 0.9527381 0.03616482 0.18523128 0.37341738 0.30510002 0.9320004
0.17591017
00000000: c315 fe3e 5aaa 443f a833 b53d 0033 073e
00000010: 8666 9d3e fb52 223f 86ed fa3e 677d 653f
00000020: 1248 e93e d3de 213f 2aa2 b23e e4ad cd3e
00000030: 80e4 b63c 5ce9 2c3e 8c78 963e d8bd 043f
00000040: 589a 323f 8ccd 4c3f 70e5 243e 8285 903e
00000050: e67d 2e3f 274a 6a3f ae50 cb3e aec8 5f3f
00000060: b0bc d63e 518b 0d3f a5e6 733f 9021 143d
00000070: 45ad 3d3e 9030 bf3e 1236 9c3e 9497 6e3f
00000080: cc21 343e

bn1.bias f4 [33]
0.0 0.0 0.0 0.0 0.0 0.0 0.0 0.0
0.0 0.0 0.0 0.0 0.0 0.0 0.0 0.0
0.0 0.0 0.0 0.0 0.0 0.0 0.0 0.0
0.0 0.0 0.0 0.0 0.0 0.0 0.0 0.0
0.0
00000000: 0000 0000 0000 0000 0000 0000 0000 0000
00000010: 0000 0000 0000 0000 0000 0000 0000 0000
00000020: 0000 0000 0000 0000 0000 0000 0000 0000
00000030: 0000 0000 0000 0000 0000 0000 0000 0000
00000040: 0000 0000 0000 0000 0000 0000 0000 0000
00000050: 0000 0000 0000 0000 0000 0000 0000 0000
00000060: 0000 0000 0000 0000 0000 0000 0000 0000
00000070: 0000 0000 0000 0000 0000 0000 0000 0000
00000080: 0000 0000

bn1.running_mean f4 [33]
0.0 0.0 0.0 0.0 0.0 0.0 0.0 0.0
0.0 0.0 0.0 0.0 0.0 0.0 0.0 0.0
0.0 0.0 0.0 0.0 0.0 0.0 0.0 0.0
0.0 0.0 0.0 0.0 0.0 0.0 0.0 0.0
0.0
00000000: 0000 0000 0000 0000 0000 0000 0000 0000
00000010: 0000 0000 0000 0000 0000 0000 0000 0000
00000020: 0000 0000 0000 0000 0000 0000 0000 0000
00000030: 0000 0000 0000 0000 0000 0000 0000 0000
00000040: 0000 0000 0000 0000 0000 0000 0000 0000
00000050: 0000 0000 0000 0000 0000 0000 0000 0000
00000060: 0000 0000 0000 0000 0000 0000 0000 0000
00000070: 0000 0000 0000 0000 0000 0000 0000 0000
00000080: 0000 0000

bn1.running_var f4 [33]
1.0 1.0 1.0 1.0 1.0 1.0 1.0 1.0
1.0 1.0 1.0 1.0 1.0 1.0 1.0 1.0
1.0 1.0 1.0 1.0 1.0 1.0 1.0 1.0
1.0 1.0 1.0 1.0 1.0 1.0 1.0 1.0
1.0
00000000: 0000 803f 0000 803f 0000 803f 0000 803f
00000010: 0000 803f 0000 803f 0000 803f 0000 803f
00000020: 0000 803f 0000 803f 0000 803f 0000 803f
00000030: 0000 803f 0000 803f 0000 803f 0000 803f
00000040: 0000 803f 0000 803f 0000 803f 0000 803f
00000050: 0000 803f 0000 803f 0000 803f 0000 803f
00000060: 0000 803f 0000 803f 0000 803f 0000 803f
00000070: 0000 803f 0000 803f 0000 803f 0000 803f
00000080: 0000 803f

fcs1.weight f4 [128, 33]
-0.002119316 -0.00060157216 0.00014269225 0.00018048935 -0.00019648699 -9.599922e-05 9.8651675e-05 -0.00016705514
0.00010708767 -0.00024046177 -0.0013370226 0.00085810455 0.0025191682 -0.003461717 -0.0015560201 -9.913976e-05
-7.6082266e-05 -0.00018086906 2.9362947e-05 -4.7857193e-05 0.00016585318 -0.001169773 -0.0018572176 -0.0008513397
0.0036819093 -8.1190534e-05 -0.0031483532 -2.3590452e-05 0.002480402 -5.577e-42 2.3590452e-05 6.138e-42
-2.5819947e-05 0.03870877 0.029635262 -0.0024958903 -0.007852115 -0.040087715 -0.0071245106 -0.0049596387
-0.00613235 -0.00198711 0.00938008 0.01489139 0.021419339 0.0031003577 -0.05150262 0.00627537
-0.022008585 0.009542822 -0.01873797 0.016404834 0.00021597485 0.0043785735 -0.011350236 4.3759974e-05
-0.020253707 3.948706e-05 -0.010107318 0.01158451 0.09376881 0.044271506 2.1356e-41 -0.093811795
-6.978e-42 0.19519469 -0.027894262 -0.011564417 0.099218085 -0.027303066 -0.005376765 -0.0084022535
0.017655 0.0022824488 -0.019336173 -0.013773746 0.008278373 -0.007661363 0.03734879 0.016906768
-0.035475276 -0.03936726 0.006509844 -0.007540039 -0.020338686 -0.01999919 0.014481809 -0.057757366
-0.015619941 0.017944446 -0.018450076 -0.0119614145 0.014496263 0.0903475 -0.046722703 -1.8947e-41
-0.09043503 4.736e-42 -0.015523209 0.018524103 -0.018643977 0.0039952043 -0.00031442812 -0.010808179
0.0048658326 0.011082031 0.06736141 0.0019537036 -0.037366495 -0.018739477 0.06260583 -0.060752183
-0.026897704 0.034982454 -0.011029552 0.035168577 0.0069525237 -0.025836851 -0.033832308 -0.04320234
0.026090728 -0.011233576 -0.030100826 -0.05252494 0.043246955 0.0060782046 0.0077482555 -0.0010507826
2.0207e-41 -0.007895553 4.582e-42 -0.051892895 -0.0009049774 0.0019478779 0.00019108015 -0.000752899
-2.1314481e-05 -2.9719356e-05 1.17222435e-05 -0.00024523312 0.00020824451 1.0758599e-05 0.00052872935 4.453025e-05
-0.0004034568 -9.9333425e-05 0.0024568476 0.00029313975 -0.00010969691 4.3422362e-05 0.00015420404 0.0001830601
-7.2752926e-05 0.0009315697 -0.00012606136 -0.00016171577 -0.00036797876 0.00019313954 1.1086618e-05 0.0012447877
0.000118506556 4.107e-42 -0.0012447877 -7.707e-42 -9.315363e-05 -0.061970383 0.018327678 -0.016645255
-0.026026271 -0.0021074077 -0.024505012 0.021744536 -0.050537553 -0.07195245 0.024847215 -0.008431176
0.006863695 -0.0044267164 0.06680705 0.02198909 0.036706477 0.0110081965 -0.0045531103 0.026925122
-0.010760244 0.008868494 0.0044913376 -0.009296415 0.05842823 -0.011686982 0.043503996 0.008686426
0.045027126 -0.069471166 3.505e-42 -0.05203121 3.953e-42 0.16008313 -0.06412327 0.027079124
0.04274115 -0.038320344 -0.01249974 -0.024031546 -0.03976455 0.037599523 -0.044411037 -0.0014737598
0.0126654 -0.032780267 0.01440635 0.013853625 -0.030659027 -0.061459642 -0.008631989 -0.009397456
0.023730045 0.0014057214 -0.008875535 -0.009878846 -0.0017490861 -0.005332501 0.013508114 -0.039246432
-0.016379071 0.049833868 -0.013003111 -7.75e-42 -0.0497807 4.54e-42 0.2528552 0.020610755
0.036711134 -0.057084892 -0.030617606 0.050863594 -0.0030494037 -0.008721243 -0.009432035 0.021779519
0.016724901 -0.013417716 0.017238105 -0.014072241 -0.0149461655 -0.0048780167 0.036971536 -0.014443137
-0.015073601 -0.023863409 0.0004669263 -0.010256026 0.002077114 0.0022804395 0.019226583 -0.006374456
00000000: 39e4 0abb d3b2 1dba a99f 1539 be41 3d39
00000010: 1308 4eb9 3053 c9b8 37e3 ce38 862b 2fb9
00000020: 4194 e038 7724 7cb9 093f afba 6cf2 603a
00000030: a118 253b f9dd 62bb 5ff3 cbba 41e9 cfb8
00000040: 5b8e 9fb8 aba7 3db9 7350 f637 45ba 48b8
00000050: e0e8 2d39 1253 99ba e26d f3ba 712c 5fba
00000060: 304c 713b d644 aab8 9a54 4ebb 1ce4 c5b7
00000070: 3d8e 223b 8c0f 0080 1ce4 c537 1c11 0000
00000080: ea97 d8b7 168d 1e3d a6c5 f23c 1792 23bb
00000090: 28a6 00bc 0433 24bd ba74 e9bb 7784 a2bb
000000a0: e1f1 c8bb 2c3a 02bb e8ae 193c 04fb 733c
000000b0: 9c77 af3c 5f2f 4b3b 69f4 52bd 9ea1 cd3b
000000c0: 594b b4bc 7f59 1c3c 5f80 99bc 6e63 863c
000000d0: 4f77 6239 237a 8f3b 57f6 39bc ea8a 3738
000000e0: 1aeb a5bc e89e 2538 2a99 25bc f5cc 3d3c
000000f0: dd09 c03d 0a56 353d 883b 0000 6620 c0bd
00000100: 7413 0080 1ee1 473e 8282 e4bc ae78 3dbc
00000110: da32 cb3d aeaa dfbc 932f b0bb 9ba9 09bc
00000120: 38a1 903c 2395 153b e566 9ebc 47ab 61bc
00000130: 03a2 073c 2c0c fbbb 0bfb 183d 1080 8a3c
00000140: 864e 11bd 903f 21bd 8850 d53b 6e12 f7bb
00000150: 519d a6bc 57d5 a3bc 1c45 6d3c fd92 6cbd
00000160: c8ea 7fbc 3b00 933c 9d24 97bc cff9 43bc
00000170: bc81 6d3c 1c08 b93d 4e60 3fbd d134 0080
00000180: 0036 b9bd 340d 0000 0f55 7ebc dcbf 973c
00000190: 41bb 98bc 34ea 823b d4d9 a4b9 ca14 31bc
000001a0: 9071 9f3b 6891 353c c7f4 893d b509 003b
000001b0: 9c0d 19bd 8883 99bc 7c37 803d 48d7 78bd
000001c0: 9358 dcbc c349 0f3d 4bb5 34bc ed0c 103d
000001d0: ffd1 e33b cea7 d3bc bf93 0abd f0f4 30bd
000001e0: 39bc d53c 080d 38bc 0296 f6bc 6424 57bd
000001f0: b823 313d ad2b c73b 14e5 fd3b 6aba 89ba
00000200: 5438 0000 595c 01bc c60c 0000 a58d 54bd
00000210: 013c 6dba f04f ff3a b05c 4839 325e 45ba
00000220: 80cc b2b7 d54d f9b7 a7aa 4437 a292 80b9
00000230: 365c 5a39 d57f 3437 6d9a 0a3a fec5 3a38
00000240: 0e87 d3b9 3a51 d0b8 1003 213b 8db0 9939
00000250: 150d e6b8 6820 3638 d5b1 2139 d2f3 3f39
00000260: ee92 98b8 9634 743a 572f 04b9 3f92 29b9
00000270: 46ed c0b9 8085 4a39 a900 3a37 2528 a33a
00000280: b986 f838 730b 0000 2528 a3ba 7c15 0080
00000290: 795b c3b8 a8d4 7dbd ed23 963c a15b 88bc
000002a0: 0c35 d5bc 6f1c 0abb bcbe c8bc 9921 b23c
000002b0: 7700 4fbd ce5b 93bd 638c cb3c ea22 0abc
000002c0: d9e8 e03b fd0d 91bb 22d2 883d 7722 b43c
000002d0: 8859 163d b95b 343c 4232 95bb 1392 dc3c
000002e0: bc4b 30bc 294d 113c 122c 933b fe4f 18bc
000002f0: 7152 6f3d c17a 3fbc 3f31 323d 8351 0e3c
00000300: 5d6e 383d e646 8ebd c509 0000 ae1e 55bd
00000310: 050b 0000 d5ec 233e 1053 83bd 0ad5 dd3c
00000320: 5811 2f3d cbf5 1cbd b6cb 4cbc cedd c4bc
00000330: 27e0 22bd f501 1a3d 59e8 35bd 2c2b c1ba
00000340: 8a82 4f3c 9a44 06bd 9d08 6c3c 51fa 623c
00000350: a428 fbbc 1bbd 7bbd 306d 0dbc caf7 19bc
00000360: 8365 c23c 2f40 b83a b16a 11bc e2da 21bc
00000370: 9741 e5ba 43bc aebb 2351 5d3c dec0 20bd
00000380: 672d 86bc 991e 4c3d 000b 55bc 9b15 0080
00000390: d9e6 4bbd a80c 0000 3d76 813e e3d7 a83c
000003a0: 6a5e 163d d9d1 69bd c6d1 fabc 5856 503d
000003b0: 81d8 47bb 8be3 0ebc d288 1abc f66a b23c
000003c0: a902 893c fbd5 5bbc ed36 8d3c 428f 66bc
000003d0: c3e0 74bc c5d7 9fbb 776f 173d e8a2 6cbc
000003e0: 44f7 76bc 327d c3bc cacd f439 e408 28bc
000003f0: 3120 083b 6d73 153b 1181 9d3c d0e0 d0bb

fcs1.bias f4 [128]
2.3590372e-05 -0.09365184 -0.08997773 -0.008442625 -0.0012447877 -0.047074176 -0.04964846 -0.060904168
-0.04038266 -0.019780392 -0.071612805 -0.039803836 -0.0007027468 -0.09363844 0.028451659 -0.015195082
-0.036235727 -0.031085385 -0.061480228 0.0075238612 -0.044690356 -0.043765765 0.0015033274 -0.00039898077
-0.06519151 -0.055632696 -0.01985116 -0.008974643 -0.038049966 -0.07009192 0.0068664076 0.0016236916
0.017849555 0.0073554176 -0.05374817 -0.02673903 -0.08652617 -0.04098643 -0.0035350234 -0.057301607
-0.0054448303 -0.039444357 -0.043505356 -0.072999164 -0.074565016 -0.025362683 0.011304192 -0.03661026
-0.0013133337 -0.010194406 -0.022175584 -0.015057245 -0.042273596 -0.06951631 -0.022723762 -0.07431139
-0.016121171 -0.01326914 0.012412353 -0.016345711 -0.039668683 -0.086000234 -0.09123201 -0.01605488
-0.074128725 -0.0044200867 -0.029704522 0.022720298 -0.02769055 -0.056271672 -0.017104119 0.03863977
-0.044868443 -0.0164436 -0.045854773 -0.0017732491 -0.032919366 -0.013439696 -0.02797063 -0.09676314
-0.012983836 -0.044070903 -0.08701674 0.023785973 -0.02779731 -0.060025435 -0.0007304461 -0.07335334
-0.0825224 -0.02215123 0.0030495133 0.017233254 -0.0333945 -0.028583858 -0.03801226 -0.05789358
-0.08650671 -0.06354503 -0.003329439 -0.092876956 -0.110197484 -0.06654691 -0.062224418 -0.022652192
-0.0031041058 0.04199849 -0.078650884 0.00826521 0.01593546 0.017680887 -0.021254836 -0.04548507
-0.056001406 -0.0356249 -0.10149902 0.045356143 -0.040738758 -0.049358703 -0.05162179 -0.049856834
-0.060296096 0.00032903056 -0.07879654 -0.08150097 -0.04378265 -0.023849443 -0.03699716 -0.042572517
00000000: f0e3 c537 89cc bfbd 3e46 b8bd f052 0abc
00000010: 2528 a3ba dad0 40bd 2f5c 4bbd a676 79bd
00000020: 4a68 25bd 7d0a a2bc bca9 92bd 5909 23bd
00000030: 8a38 38ba 83c5 bfbd 7413 e93c cbf4 78bc
00000040: ea6b 14bd c7a6 febc b1d2 7bbd b98a f63b
00000050: 3c0d 37bd bb43 33bd 4c0b c53a 4b2e d1b9
00000060: 2083 85bd 1cdf 63bd e69e a2bc 620a 13bc
00000070: 48da 1bbd 5a8c 8fbd 9aff e03b 0dd2 d43a
00000080: 3b39 923c b705 f13b 0b27 5cbd cf0b dbbc
00000090: a234 b1bd 63e1 27bd daab 67bb 17b5 6abd
000000a0: 8c6a b2bb 6890 21bd ac32 32bd 9680 95bd
000000b0: 8bb5 98bd 67c5 cfbc 3835 393c a4f4 15bd
000000c0: 2b24 acba 7006 27bc 92a9 b5bc aab2 76bc
000000d0: 1427 2dbd 915e 8ebd 2f27 babc 9230 98bd
000000e0: 8c10 84bc cf66 59bc 2f5d 4b3c 71e7 85bc
000000f0: a17b 22bd e420 b0bd d9d7 babd 8685 83bc
00000100: cdd0 97bd 60d6 90bb e656 f3bc eb1f ba3c
00000110: 4bd7 e2bc 207d 66bd f01d 8cbc bc44 1e3d
00000120: f9c7 37bd bbb4 86bc 37d2 3bbd 5e6c e8ba
00000130: 75d6 06bd 2c32 5cbc aa22 e5bc c12b c6bd
00000140: 28ba 54bc b183 34bd d535 b2bd cdda c23c
00000150: 2fb7 e3bc 3bdd 75bd 687b 3fba 473a 96bd
00000160: 8101 a9bd 7f76 b5bc 58da 473b c12c 8d3c
00000170: acc8 08bd b228 eabc beb2 1bbd d221 6dbd
00000180: 6e2a b1bd e623 82bd b832 5abb 4636 bebd
00000190: 38af e1bd bf49 88bd 08df 7ebd 1791 b9bc
000001a0: 416e 4bbb 9c06 2c3d b713 a1bd ce6a 073c
000001b0: 158b 823c 82d7 903c 9f1e aebc 8e4e 3abd
000001c0: bb61 65bd 6aeb 11bd b8de cfbd 5dc7 393d
000001d0: afdd 26bd 5a2c 4abd 5f71 53bd ae36 4cbd
000001e0: 0af9 76bd bc81 ac39 1560 a1bd fbe9 a6bd
000001f0: 7055 33bd e85f c3bc 568a 17bd 8560 2ebd

bn2.weight f4 [128]
3.6045124e-06 0.05391804 0.14538674 0.076603934 2.4645362e-05 0.2173843 0.18943705 0.23453999
0.20556375 0.29478496 0.076475754 0.103861 1.0800823e-05 0.084578976 0.19796777 0.15725234
0.04451706 0.31516337 0.18839426 0.536904 0.3282788 0.1961635 0.14800712 0.22069308
0.15479559 0.1741906 0.18911612 0.1788931 0.086169116 0.08365384 0.14571998 0.43573663
0.31241733 0.15860912 0.10059889 0.2063394 0.07471347 0.19152254 0.16518015 0.19820291
0.00050896517 0.10445899 0.36933696 0.24681847 0.2184045 0.5764535 0.37389624 0.32414082
0.12844971 0.21281834 0.14846182 0.14881492 0.13016962 0.20275375 0.31209677 0.27111456
0.2858504 0.24974972 0.19257332 0.17816179 0.24291474 0.1916394 0.14800738 0.0850542
0.12554781 0.3237654 0.19925483 0.13044976 0.2047587 0.26076943 0.5087078 0.15802874
0.18319137 0.19053704 0.30804923 0.2687832 0.26141238 0.25413346 0.11749539 0.1556148
0.30175757 0.27056006 0.06377845 0.27643368 0.35982856 0.21234158 -2.7281105e-06 0.19433364
0.1614753 0.36211213 -0.03146963 0.2033034 0.20381454 0.19598022 0.37678915 0.19051957
0.12708892 0.12731707 0.223956 0.18099903 0.18544605 0.07873115 0.14394677 0.29223308
4.7037083e-06 0.32571706 0.18387227 0.29819018 0.3198406 0.22454593 0.24926484 0.13101433
0.29773027 0.25137028 0.12835622 0.29336834 0.134978 0.28180832 0.2579226 0.21918407
0.1208553 0.4831444 0.14817415 0.23605554 0.26899698 0.19952291 0.41594732 0.2151521
00000000: 0de5 7136 2ad9 5c3d 43e0 143e 86e2 9c3d
00000010: 83bd ce37 fd99 5e3e c9fb 413e 402b 703e
00000020: 4e7f 523e 0eee 963e 529f 9c3d 13b5 d43d
00000030: 2e35 3537 be37 ad3d 10b8 4a3e c206 213e
00000040: 8557 363d 185d a13e 6dea 403e 8a72 093f
00000050: 2914 a83e 16df 483e 2e8f 173e 5efd 613e
00000060: bc82 1e3e 055f 323e a8a7 413e c12f 373e
00000070: 6f79 b03d b452 ab3d 9e37 153e df18 df3e
00000080: 2af5 9f3e 6e6a 223e ca06 ce3d a34a 533e
00000090: 6003 993d 7c1e 443e fc24 293e b4f5 4a3e
000000a0: 136c 053a 98ee d53d bc19 bd3e fbbd 7c3e
000000b0: 6ea5 5f3e 7592 133f 546f bf3e c9f5 a53e
000000c0: 5288 033e 0ded 593e 6006 183e f062 183e
000000d0: 2f4b 053e ae9e 4f3e 26cb 9f3e 87cf 8a3e
000000e0: fc5a 923e 64be 7f3e f131 453e 0b70 363e
000000f0: a4be 783e 1e3d 443e 3f8f 173e e530 ae3d
00000100: 9b8f 003e 94c4 a53e 7509 4c3e 9f94 053e
00000110: 44ac 513e 9283 853e ad3a 023f 49d2 213e
00000120: 8596 3b3e 241c 433e a1b8 9d3e f49d 893e
00000130: d8d7 853e c81d 823e 6ca1 f03d 7c59 1f3e
00000140: f87f 9a3e d986 8a3e 479e 823d b788 8d3e
00000150: 733b b83e 1270 593e 9514 37b6 66ff 463e
00000160: c859 253e c366 b93e 4ce6 00bd c42e 503e
00000170: c2b4 503e 0aaf 483e 82ea c03e 9017 433e
00000180: 9923 023e 685f 023e b954 653e cf57 393e
00000190: 92e5 3d3e cc3d a13d c866 133e 939f 953e
000001a0: 8cd4 9d36 63c4 a63e 0349 3c3e 62ac 983e
000001b0: 26c2 a33e 5eef 653e 483f 7f3e 9f28 063e
000001c0: 1a70 983e 9bb3 803e d06f 033e 6034 963e
000001d0: ac37 0a3e 2e49 903e 6e0e 843e ca71 603e
000001e0: fc82 f73d b45e f73e f7ba 173e 8bb8 713e
000001f0: f9b9 893e bc4f 4c3e 0cf7 d43e d550 5c3e

bn2.bias f4 [128]
-8.201498e-06 -0.098844446 0.0964881 -0.10347382 2.615557e-06 0.0025124496 -0.0105747 0.10984613
-0.09074682 0.021188872 0.014042459 -0.06968816 -7.724563e-06 -0.09569201 -0.061889995 0.11089985
0.045523193 -0.049341213 0.08484017 -0.10072704 0.049127106 0.106130086 -0.05417896 -0.09089421
0.09686002 -0.0045769266 -0.052938793 0.05457269 0.073280565 -0.011939666 -0.037464317 0.004234695
-0.0010061347 0.066721424 -0.0696818 0.060589503 -0.04740778 0.12579457 -0.09906374 0.0034978162
2.9005882e-05 -0.048934933 -0.02977501 0.10292684 0.107332334 -0.10676419 -0.08159056 -0.056460746
-0.036184426 0.061173264 0.043182924 0.034741383 0.078407355 -0.1114901 -0.016552964 -0.04660223
0.00041185744 -0.095162794 0.03656804 -0.047762185 0.012886657 0.07239382 -0.0120285945 0.03652007
-0.06021972 -0.053477835 0.03951746 0.07861463 0.017971478 -0.06838938 -0.077951945 -0.0389759
0.006814995 -0.062009312 -0.06397528 0.097534046 -0.0684837 0.0068169762 -0.04250891 0.051454313
-0.0742439 -0.09041174 -0.07002315 0.059051465 -0.020302892 -0.020899555 4.436234e-06 -0.14257291
0.06279286 0.060019244 0.004314549 -0.07082292 0.016056303 0.045420323 -0.021638455 0.024076998
0.026575893 -0.114698336 -0.07992452 -0.06727884 -0.046383686 -0.0632654 -0.09644554 0.081622645
-2.4228157e-06 0.062827356 -0.0602761 0.041564155 -0.06787419 0.056759186 -0.043342635 -0.054321956
0.017222045 -0.06830696 -0.13500114 0.029330527 -0.057788726 -0.025290083 -0.16310655 0.016971653
-0.076526016 -0.07061985 0.009940159 0.06060309 -0.09853106 -0.009653072 -0.036534946 -0.047033545
00000000: 2a99 09b7 f56e cabd 8e9b c53d 15ea d3bd
00000010: ed86 2f36 e9a7 243b 8241 2dbc 02f7 e03d
00000020: 78d9 b9bd 4994 ad3c 5812 663c abb8 8ebd
00000030: bf98 01b7 2cfa c3bd 5d80 7dbd 761f e33d
00000040: 8776 3a3d 031a 4abd afc0 ad3d fa49 cebd
00000050: 8139 493d bb5a d93d c2ea 5dbd be26 babd
00000060: 8c5e c63d 0bfa 95bb 59d6 58bd 9d87 5f3d
00000070: 1f14 963d 979e 43bc 2f74 19bd 32c3 8a3b
00000080: 47e0 83ba 3ea5 883d 55b5 8ebd b32c 783d
00000090: a92e 42bd 4bd0 003e eee1 cabd 9e3b 653b
000000a0: a851 f337 ff6f 48bd b9ea f3bc 4fcb d23d
000000b0: 0ed1 db3d 2fa7 dabd f418 a7bd 6243 67bd
000000c0: 1f36 14bd d190 7a3d 94e0 303d fb4c 0e3d
000000d0: 0994 a03d ec54 e4bd 159a 87bc fbe1 3ebd
000000e0: 92ee d739 b6e4 c2bd 5ec8 153d 48a2 43bd
000000f0: 8f22 533c 3643 943d 9513 45bc 1296 153d
00000100: f4a8 76bd 930b 5bbd 0fdd 213d b500 a13d
00000110: ec38 933c bb0f 8cbd 45a5 9fbd 31a5 1fbd
00000120: 5250 df3b 7afd 7dbd 7905 83bd eebf c73d
00000130: 2f41 8cbd f160 df3b d31d 2ebd c2c1 523d
00000140: 300d 98bd ca29 b9bd 4c68 8fbd f3df 713d
00000150: 4052 a6bc 8b35 abbc f6da 9436 a2fe 11be
00000160: 8b99 803d bdd6 753d 0f61 8d3b 9b0b 91bd
00000170: 8288 833c a90a 3a3d 2143 b1bc 203d c53c
00000180: b0b5 d93c f6e6 eabd 77af a3bd 7dc9 89bd
00000190: d2fc 3dbd 4a91 81bd 3d85 c5bd c629 a73d
000001a0: a897 22b6 a1ab 803d 12e4 76bd 2d3f 2a3d
000001b0: a001 8bbd 527c 683d 0c88 31bd b380 5ebd
000001c0: 3f15 8d3c 85e4 8bbd bd3d 0abe 9346 f03c
000001d0: dfb3 6cbd 262d cfbc 6705 27be 2308 8b3c
000001e0: acb9 9cbd 24a1 90bd 0cdc 223c f23a 783d
000001f0: a7ca c9bd eb27 1ebc aba5 15bd 3fa6 40bd

bn2.running_mean f4 [128]
0.020063128 0.00036543643 0.036764264 0.045340423 5.9992874e-07 0.0590022 0.062070854 0.043835662
0.028859707 0.06136657 0.002996272 0.00027708663 0.005400606 3.6536396e-05 0.048647467 0.06551644
0.0068876883 0.05690306 0.04011774 0.07249211 0.19051677 0.14114828 0.16095269 0.037060536
0.02884503 0.02166344 0.07343514 0.028187975 0.03160617 4.48699e-05 0.03963836 0.16168083
0.21141094 0.13038388 0.048206903 0.03993756 0.00026923572 0.028443376 0.013949013 0.09435193
0.00015903155 0.000546102 0.14288528 0.045839306 0.050631687 0.05304652 0.02425766 0.28220177
0.07612069 0.10578137 0.059299115 0.07232737 0.09327198 0.024069766 0.05985003 0.11232843
0.06737068 0.011348026 0.07651454 0.0009770334 0.03027271 0.042319775 0.061445896 0.037169937
0.08529641 0.041837875 0.08827727 0.024971621 0.15888208 0.23046269 0.08784628 0.025033662
0.03267751 0.005271003 0.030044088 0.1357561 0.050766367 0.11990713 0.04167584 0.03341259
0.021548396 0.0004961176 0.00029291105 0.4979693 0.2471061 0.00038161784 0.011078223 0.07152663
0.03793584 0.071574174 0.00072070886 0.14512442 0.10476479 0.24946117 0.069396056 0.032455955
0.01608037 0.014471102 0.044006765 0.03895463 0.00012183511 0.005427958 0.017547216 0.1461174
0.0017607487 0.116130896 0.018294664 0.1956496 0.09041035 0.16143332 0.13785876 0.019891704
0.21127705 0.15110181 0.00040286168 0.28438511 0.07059422 0.043654494 0.099822365 0.031597674
0.006618815 0.12624855 0.022062384 0.11509454 0.033500433 0.043341644 0.06893049 0.038651533
00000000: 6e5b a43c 0c98 bf39 2096 163d e1b6 393d
00000010: ca0a 2135 4aac 713d 023e 7e3d 068d 333d
00000020: 316b ec3c 835b 7b3d 1a5d 443b f045 9139
00000030: 91f7 b03b a83e 1938 9142 473d 7c2d 863d
00000040: 1eb2 e13b 2f13 693d 8052 243d be76 943d
00000050: d416 433e 2d89 103e c8d0 243e cacc 173d
00000060: 6a4c ec3c 8777 b13c 2a65 963d 78ea e63c
00000070: 7975 013d b032 3c38 d55b 223d a98f 253e
00000080: 1c7c 583e 5a83 053e 9a74 453d 9195 233d
00000090: 3528 8d39 1502 e93c 678a 643c 963b c13d
000000a0: b5c1 2639 4928 0f3a 8550 123e ffc1 3b3d
000000b0: 2c63 4f3d 4f47 593d 00b8 c63c c07c 903e
000000c0: 2ae5 9b3d e7a3 d83d a1e3 723d 5f20 943d
000000d0: 6105 bf3d f52d c53c 4e25 753d 730c e63d
000000e0: a4f9 893d 12ed 393c a8b3 9c3d cd0f 803a
000000f0: 79fe f73c 8057 2d3d b1ae 7b3d 813f 183d
00000100: e2af ae3d 315e 2b3d b7ca b43d 4991 cc3c
00000110: fcb1 223e 69fe 6b3e c0e8 b33d 6513 cd3c
00000120: dad8 053d 61b8 ac3b 051f f63c a603 0b3e
00000130: 65f0 4f3d df91 f53d 49b4 2a3d a4db 083d
00000140: 4386 b03c e30d 023a db91 9939 d5f5 fe3e
00000150: 6209 7d3e e113 c839 6f81 353c 8e7c 923d
00000160: 9d62 1b3d 7b95 923d f4ed 3c3a 7f9b 143e
00000170: ec8e d63d c072 7f3e 851f 8e3d 89f0 043d
00000180: fbba 833c 3318 6d3c 7040 343d e48e 1f3d
00000190: ba81 ff38 03dd b13b 2ebf 8f3c cd9f 153e
000001a0: ecc8 e63a 09d6 ed3d b1de 953c 5e58 483e
000001b0: 1029 b93d c74e 253e d92a 0d3e edf3 a23c
000001c0: 0359 583e 6fba 1a3e 2e37 d339 ed9a 913e
000001d0: b493 903d 0ecf 323d ab6f cc3d 906c 013d
000001e0: a5e2 d83b 4d47 013e 2cbc b43c b0b6 eb3d
000001f0: c037 093d 0287 313d 6e2b 8d3d 1251 1e3d

bn2.running_var f4 [128]
0.00063440646 3.391457e-05 0.0067807464 0.0077601233 3.2927336e-09 0.014837032 0.011366484 0.009466117
0.005943011 0.0094188815 0.00047969623 3.5240435e-05 9.4601644e-05 2.1592539e-06 0.0048802197 0.010581921
0.001430529 0.012001943 0.008387635 0.008326562 0.055579286 0.044042416 0.042655278 0.006302444
0.005816987 0.005221606 0.0171161 0.0034683708 0.0041118367 3.9057118e-06 0.01089448 0.024628606
0.06680943 0.018711297 0.010141108 0.005965825 2.4390192e-05 0.0049754917 0.0010387269 0.028194025
3.4812526e-06 5.836718e-05 0.025720904 0.010939663 0.011992448 0.0071042236 0.0035130493 0.120152
0.014893596 0.018303933 0.009838223 0.015494341 0.025211835 0.002548037 0.0098464405 0.03711251
0.00903874 0.0008372481 0.012224627 0.00012328778 0.0047358815 0.008465674 0.017409986 0.0061128456
0.014048394 0.0063002226 0.024124697 0.0067514502 0.044931717 0.11767714 0.010658957 0.005485919
0.008438023 0.0002590724 0.004031088 0.019437212 0.010558246 0.069616325 0.011736777 0.00860702
0.002737012 9.882411e-05 3.3795463e-05 0.11639169 0.060437027 6.687469e-05 0.00043612017 0.017259715
0.01199409 0.0098200785 0.00013462338 0.034130357 0.02596373 0.09012248 0.012013095 0.010609761
0.0028105045 0.0015866795 0.0044657085 0.009682337 4.1955e-05 0.00058212946 0.0022574035 0.03736163
2.7476952e-05 0.020745339 0.0030299795 0.041166425 0.018008558 0.032223772 0.038335644 0.0027157099
0.030457359 0.041217487 6.573856e-05 0.113155715 0.01765749 0.0072648167 0.025324676 0.005779096
0.00068678 0.026561895 0.004949617 0.03863939 0.0051650857 0.010311305 0.010604267 0.0048203696
00000000: 4c4e 263a 7e3f 0e38 0631 de3b a248 fe3b
00000010: 6246 6231 0617 733c 7d3a 3a3c c617 1b3c
00000020: 97bd c23b a751 1a3c bd7f fb39 21cf 1338
00000030: df64 c638 b3e7 1036 40ea 9f3b cb5f 2d3c
00000040: 9780 bb3a cca3 443c 4b6c 093c 226c 083c
00000050: 1ba7 633d d265 343d 4db7 2e3d bb84 ce3b
00000060: 6c9c be3b 021a ab3b 1037 8c3c 9b4d 633b
00000070: 96bc 863b cf0d 8336 c37e 323c eec1 c93c
00000080: 62d3 883d 6f48 993c e426 263c f87c c33b
00000090: 8a99 cc37 7309 a33b e425 883a 28f7 e63c
000000a0: 779f 6936 48cf 7438 a5b4 d23c 463c 333c
000000b0: f97b 443c 8cca e83b 303b 663b 4012 f63d
000000c0: 4504 743c 21f2 953c 8030 213c fadb 7d3c
000000d0: 0d89 ce3c f8fc 263b f752 213c 4a03 183d
000000e0: 3917 143c c57a 5b3a cd49 483c d046 0139
000000f0: 742f 9b3b 9cb3 0a3c 639f 8e3c 444e c83b
00000100: 3c2b 663c 1972 ce3b 28a1 c53c 453b dd3b
00000110: 520a 383d b600 f13d e8a2 2e3c 39c3 b33b
00000120: a23f 0a3c 1cd4 8739 3817 843b ca3a 9f3c
00000130: 7efc 2c3c 0193 8e3d 9c4b 403c 7504 0d3c
00000140: 715f 333b ca3f cf38 9abf 0d38 c45e ee3d
00000150: d18c 773d 133f 8c38 0fa7 e439 3f64 8d3c
00000160: dc82 443c 65e4 203c b029 0d39 46cc 0b3d
00000170: e3b1 d43c 2392 b83d 93d2 443c 90d4 2d3c
00000180: 7130 383b 21f8 cf3a 1455 923b aaa2 1e3c
00000190: d7f8 2f38 0c9a 183a f2f0 133b 8208 193d
000001a0: 4e7e e637 21f2 a93c 9f92 463b 209e 283d
000001b0: af86 933c 13fd 033d d605 1d3d 0dfa 313b
000001c0: b681 f93c abd3 283d 1fdd 8938 2fbe e73d
000001d0: 71a6 903c b30d ee3b b275 cf3c 925e bd3b
000001e0: 0709 343a 5598 d93c 6630 a23b 5644 1e3d
000001f0: e13f a93b bff0 283c 85bd 2d3c 31f4 9d3b

fc2.weight f4 [128, 132]
0.00040538333 -0.08960261 0.002359788 0.015303945 -0.00010820225 -0.03349241 0.010845973 -0.0035808426
-0.045379587 0.023823371 0.015214959 -0.0035418707 9.990508e-06 -0.09265357 -0.00986963 0.051981412
0.012700127 -0.032557886 0.05048251 -0.08068622 -0.027085587 0.036547035 -0.023292532 -0.012194062
0.046377707 -0.01202373 0.0017444246 0.00424183 0.05053419 -0.012592202 -0.02220877 -0.017923642
-0.06680446 0.031572666 -0.0899795 0.026259392 -0.037754435 0.028393956 -0.05684049 -0.053233895
-0.0016144566 -0.044601314 -0.04928593 0.050961286 0.028029976 -0.08009841 -0.004380771 -0.035109855
0.012372161 0.005377641 0.025684277 0.022071512 0.016513716 -0.026287675 -0.053794157 -0.015225607
-0.0481611 0.024724664 0.016241718 -0.009024348 0.007297582 0.07264544 -0.011544025 -0.012717939
-0.04835611 -0.07152118 0.014179908 0.03575312 0.010463402 -0.020352086 -0.06909097 -0.04092893
0.042130478 0.025913548 -0.048135884 0.0023451028 -0.0774967 0.02406032 -0.0012576552 0.005447347
-0.037344787 0.009466191 -0.12242819 0.034002792 0.040917855 0.010370171 -0.00011465084 -0.008740945
0.06896757 -0.036365684 0.00813559 -0.037903074 -7.526298e-06 0.013329492 -0.03839265 -0.025125496
0.01782258 -0.10068091 -0.041358523 -0.0356074 0.0034203643 -0.093420744 -0.08671 0.01641187
0.00094873004 0.016794082 -0.005764644 0.025522703 -0.03744844 0.045001578 -0.010180505 0.009683776
0.008360327 -0.02992131 -0.07733924 0.0004595423 0.0004104247 0.019539187 -0.019778743 -0.032259718
-0.12190084 0.006780393 0.034961972 -0.0014832199 -0.008938447 -0.032144524 -0.017337177 -0.04273199
-0.000840151 -0.0076390174 -0.013716546 -0.0024843107 0.00018121059 0.022591317 0.0076702675 0.054365292
-0.00035949957 0.03308469 -0.039041247 -0.03727513 0.029834839 -0.010019264 0.036623895 0.053414427
-0.00036221577 0.023526156 0.0024040532 -0.048075873 0.02443828 -0.06470723 -0.006089787 0.08067919
-0.011088061 -0.054653525 0.048743524 0.039983466 -0.03963486 0.010228818 0.03758262 -0.061137754
-0.028655164 0.032927446 0.0021372698 0.016541956 -0.03642735 0.021063685 0.015453743 -0.048269473
-0.0028107655 -0.06675017 0.10223877 -0.023742158 0.0033105274 0.021112097 0.070269935 -0.0033089651
0.019649612 0.017178886 0.021912372 -0.020363094 0.0089990795 -0.018548107 0.013465625 0.00734003
-0.0002026387 0.06565988 -0.083744094 -0.071251996 0.00057971483 0.07614069 -0.03114137 0.018218148
0.03524188 -0.01566725 0.0045061526 0.02009439 0.044954054 0.052861717 0.011270628 -0.026627054
-0.05481217 -0.0071917335 0.038836867 -0.0008177287 0.0074948776 0.08355526 0.032024805 -0.084045276
0.027632706 -0.04566933 0.0040720203 -0.034497157 0.03241947 0.009227019 0.014232408 0.037959486
0.020439329 -0.0039990544 -0.0012561168 0.08601726 -0.00856316 0.027044224 0.010775621 0.019510204
0.0055876323 0.009518302 0.017310437 0.013516398 0.03362157 0.04198936 0.043392085 -0.037639927
-0.008184116 0.045034684 -0.008674205 -0.01519909 -1.7341154e-05 0.04092837 0.04338998 -0.041221365
0.006973636 0.007265008 0.029252924 -0.06189433 0.039084695 0.025144957 0.005231707 -0.044043705
-0.002388139 0.016269812 0.08234048 0.0061969054 0.04984406 0.052405708 0.01514679 -0.02608254
00000000: a189 d439 9381 b7bd aca6 1a3b 66bd 7a3c
00000010: a4ea e2b8 562f 09bd 4fb3 313c 92ac 6abb
00000020: f2df 39bd 3b29 c33c 2a48 793c bb1e 68bb
00000030: e89c 2737 28c1 bdbd 3bb4 21bc 76ea 543d
00000040: 3214 503c 6b5b 05bd c0c6 4e3d d13e a5bd
00000050: 98e2 ddbc 58b2 153d fbcf bebc 9ac9 47bc
00000060: 8df6 3d3d 2eff 44bc 2da5 e43a 0dff 8a3b
00000070: f0fc 4e3d 864f 4ebc 2bef b5bc 9ad4 92bc
00000080: c7d0 88bd 5752 013d 2c47 b8bd f01d d73c
00000090: 65a4 1abd 719a e83c 93d1 68bd c90b 5abd
000000a0: 2d9c d3ba deaf 36bd 0be0 49bd c8bc 503d
000000b0: 1f9f e53c a30a a4bd 928c 8fbb 5acf 0fbd
000000c0: 9bb4 4a3c ec36 b03b d567 d23c 51cf b43c
000000d0: c647 873c 4059 d7bc 4357 5cbd d374 79bc
000000e0: 9344 45bd 618b ca3c 5a0d 853c dcda 13bc
000000f0: 8e20 ef3b 22c7 943d 2623 3dbc e75e 50bc
00000100: 0e11 46bd b279 92bd d852 683c dd71 123d
00000110: b06e 2b3c 6bb9 a6bc 917f 8dbd 18a5 27bd
00000120: 0291 2c3d a648 d43c 222a 45bd 4cb0 193b
00000130: 97b6 9ebd 261a c53c e8d7 a4ba a97f b23b
00000140: d9f6 18bd 1518 1b3c a2bb fabd 8346 0b3d
00000150: 7b99 273d a6e7 293c b370 f0b8 2e36 0fbc
00000160: df3e 8d3d 2ff4 14bd 234b 053c 4140 1bbd
00000170: 688a fcb6 f163 5a3c 9d41 1dbd fcd3 cdbc
00000180: a900 923c cb31 cebd 8e67 29bd 11d9 11bd
00000190: 3128 603b 6053 bfbd 0395 b1bd 3072 863c
000001a0: 32b4 783a be93 893c 57e5 bcbb fd14 d13c
000001b0: 8963 19bd 9353 383d 22cc 26bc b3a8 1e3c
000001c0: c1f9 083c 891d f5bc 0964 9ebd b9ee f039
000001d0: 452e d739 a510 a03c 0807 a2bc c422 04bd
000001e0: 26a7 f9bd 0f2e de3b 4934 0f3d 9a68 c2ba
000001f0: 9072 12bc faa9 03bd b206 8ebc bd07 2fbd
00000200: 943d 5cba b950 fabb 5dbb 60bc d1cf 22bb
00000210: 5903 3e39 6d11 b93c de56 fb3b 24ae 5e3d
00000220: 377b bcb9 d083 073d b7e9 1fbd cfad 18bd
00000230: 3168 f43c d727 24bc f002 163d 16c9 5a3d
00000240: c7e7 bdb9 edb9 c03c 528d 1d3b 35eb 44bd
00000250: ca32 c83c 3985 84bd d68c c7bb 223b a53d
00000260: b3aa 35bc 60dc 5fbd 4aa7 473d b4c5 233d
00000270: 2a58 22bd c696 273c 3cf0 193d 956b 7abd
00000280: 3cbe eabc eede 063d 7011 0c3b ff82 873c
00000290: d834 15bd c08d ac3c b231 7d3c 36b6 45bd
000002a0: d234 38bb 50b4 88bd 8f62 d13d ea7e c2bc
000002b0: 6ff5 583b 47f3 ac3c afe9 8f3d 39db 58bb
000002c0: 39f8 a03c bcba 8c3c 9381 b33c 81d0 a6bc
000002d0: e070 133c 33f2 97bc ed9e 5c3c a284 f03b
000002e0: 697b 54b9 b078 863d 0682 abbd 91ec 91bd
000002f0: 01f8 173a a6ef 9b3d 301c ffbc 3a3e 953c
00000300: ca59 103d 9b58 80bc 59a8 933b fd9c a43c
00000310: be21 383d 8785 583d 71a8 383c fb20 dabc
00000320: ba82 60bd a2a8 ebbb 6813 1f3d d85c 56ba
00000330: 9797 f53b 051f ab3d 712c 033d ee1f acbd
00000340: fc5d e23c c30f 3bbd 956e 853b e44c 0dbd
00000350: 47ca 043d ec2c 173c 0c2f 693c 687b 1b3d
00000360: 6170 a73c 800a 83bb 49a4 a4ba d129 b03d
00000370: 7f4c 0cbc d98b dd3c 3b8c 303c ddd3 9f3c
00000380: 7518 b73b a7f2 1b3c 9ece 8d3c e273 5d3c
00000390: c5b6 093d 09fd 2b3d e6bb 313d 532c 1abd
000003a0: ac16 06bc 4a76 383d 411e 0ebc 9b05 79bc
000003b0: d877 91b7 82a4 273d b1b9 313d bcd7 28bd
000003c0: 1983 e43b 4e0f ee3b d4a3 ef3c e984 7dbd
000003d0: 4617 203d ccfc cd3c bd6e ab3b 2c67 34bd
000003e0: 5382 1cbb 4548 853c 20a2 a83d 690f cb3b
000003f0: 4929 4c3d 5ea7 563d 3e2a 783c 0dab d5bc

fc2.bias f4 [128]
0.013896687 -0.16410959 -0.08280447 0.031742267 -0.119117714 -0.07136126 0.06548303 0.009438583
0.08913838 -0.024165567 -0.015314871 -0.06684951 -0.064975895 -0.0050788354 -0.053428303 0.030980472
-0.05584014 -0.11619795 -0.007965549 -0.065439805 -0.014475691 -0.045684297 0.080393754 0.0012288126
0.061246023 -0.025102273 -0.043895155 0.00874348 0.05032309 -0.03575691 -0.07735677 -0.011584234
-0.061216667 -0.061335795 -0.04521901 0.061025996 -0.07840031 -0.05526306 0.050314486 0.025349773
0.041604765 -0.12222401 -0.044354003 -0.083352424 -0.029245969 -0.061033845 -0.06923537 -0.039565302
-0.089850076 -0.06531828 -0.072685644 -0.0064197546 0.00512046 -0.106464036 -0.019775195 0.09346736
-0.028464666 -0.04454839 -0.05990072 0.031727348 0.06780111 -0.03033284 -0.021387747 -0.07603448
0.026823524 0.089466475 -0.10609406 0.06567416 -0.08494702 -0.052464686 -0.015388501 -0.05114169
-0.040429395 -0.065077946 0.108978696 0.0018369571 -0.09163331 -0.014317494 0.008685138 -0.017252816
-0.09892938 0.09245906 -0.03347493 -0.08497075 -0.07829487 -0.034822743 -0.13495359 -0.030635197
-0.0027828922 -0.047120392 0.10252972 -0.046321657 -0.03235714 -0.0633052 -0.079314135 -0.07463506
-0.074370176 -0.010753127 -0.12731731 -0.098528296 -0.084342174 -0.0149905225 -0.08663976 -0.035375673
-0.060447752 -0.021935012 -0.09757133 0.077071644 -0.09362852 -0.06928172 -0.03314355 0.05463151
-0.0022468749 0.104689874 -0.03561121 -0.06095529 -0.025290418 -0.00013272073 0.047180396 -0.06944803
0.03682161 -0.04919672 -0.06539738 0.055954523 0.0038927286 -0.107233256 -0.06852964 0.03523285
00000000: eeae 633c 580c 28be 6495 a9bd 2e04 023d
00000010: fdf3 f3bd da25 92bd f81b 863d 49a4 1a3c
00000020: 2f8e b63d def6 c5bc 3aeb 7abc 65e8 88bd
00000030: 1512 85bd 5c6c a6bb a3d7 5abd c2ca fd3c
00000040: a1b8 64bd 31f9 edbd ef81 02bc 4e05 86bd
00000050: 732b 6dbc 751f 3bbd 7ba5 a43d 1c10 a13a
00000060: 1cdd 7a3d 48a3 cdbc 68cb 33bd d040 0f3c
00000070: 961f 4e3d d675 12bd 3a6d 9ebd cdcb 3dbc
00000080: 54be 7abd 3e3b 7bbd 9237 39bd 65f6 793d
00000090: 5790 a0bd 855b 62bd 9016 4e3d 54aa cf3c
000000a0: c269 2a3d 9550 fabd 8bac 35bd adb4 aabd
000000b0: 3e95 efbc a0fe 79bd 46cb 8dbd 3a0f 22bd
000000c0: 5103 b8bd 97c5 85bd 36dc 94bd ce5c d2bb
000000d0: 88c9 a73b d109 dabd 97ff a1bc d16b bf3d
000000e0: bb2e e9bc 5f78 36bd 755a 75bd 89f4 013d
000000f0: 4fdb 8a3d 937c f8bc 5b35 afbc f7b7 9bbd
00000100: 02bd db3c 333a b73d d847 d9bd 2d80 863d
00000110: b4f8 adbd 36e5 56bd 0d20 7cbc f379 51bd
00000120: 4b99 25bd 9647 85bd 3930 df3d 0dc6 f03a
00000130: 3faa bbbd ec93 6abc 1c4c 0e3c c755 8dbc
00000140: 7d9b cabd 2d5b bd3d 021d 09bd 2505 aebd
00000150: 1059 a0bd 4ba2 0ebd 4631 0abe aaf6 fabc
00000160: 2f61 36bb 5001 41bd 1afb d13d c7bb 3dbd
00000170: ec88 04bd 28a6 81bd 736f a2bd 44da 98bd
00000180: 644f 98bd e22d 30bc 785f 02be 34c9 c9bd
00000190: 97bb acbd cf9a 75bc 3070 b1bd 15e6 10bd
000001a0: 1098 77bd 0eb1 b3bc 7ad3 c7bd bdd7 9d3d
000001b0: 4fc0 bfbd 93e3 8dbd 88c1 07bd 4ac5 5f3d
000001c0: 4e40 13bb a567 d63d 0fdd 11bd 41ac 79bd
000001d0: da2d cfbc f32a 0bb9 3b40 413d c53a 8ebd
000001e0: 42d2 163d 8082 49bd 10ef 85bd 9230 653d
000001f0: 261d 7f3b 1c9d dbbd 4559 8cbd 5250 103d

bn3.weight f4 [128]
0.29451942 0.03678 0.5417146 0.6804138 0.07880491 0.076099455 0.8982294 0.51803684
0.16235524 0.99818754 0.93154323 0.3058222 0.5271263 0.2270239 0.6522059 0.77601856
0.8556417 0.9566194 0.5753413 0.13181591 0.02131641 0.59954107 0.72861904 0.20244682
0.53353703 0.06438625 0.6674425 0.6654402 0.011573315 0.36720157 0.07797372 0.15300268
0.19700491 0.8320192 0.27101094 0.46990722 0.96796215 0.054145932 0.75049263 0.4514485
0.51311404 0.8537117 0.029121902 0.6948946 0.75057006 0.4129016 0.56635576 0.85238725
0.16377333 0.91944444 0.15496325 0.7606733 0.90406513 0.66055 0.071884274 0.9959171
0.6120993 0.35389477 0.81636465 0.84162307 0.6615632 0.10568023 0.5900507 0.26597446
0.2174123 0.96234643 0.22131711 0.14523268 0.3411075 0.99341583 0.33257723 0.110007346
0.22896206 0.2101857 0.6940912 0.71771294 0.77852076 0.5165909 0.09187949 0.16250193
0.74545836 0.039698362 0.59484226 0.16546631 0.44248694 0.33742952 0.7846242 0.5640217
0.13147497 0.17222899 0.45991957 0.7137139 0.37195474 0.29155803 0.07444793 0.6370833
0.84495026 0.5016396 0.52286196 0.14197934 0.20896095 0.078079365 0.47203016 0.10221726
0.246148 0.6228468 0.16910279 0.7700828 0.8885523 0.6928557 0.7681398 0.18042856
0.71633005 0.5711145 0.41999727 0.44378567 0.2254715 0.5491745 0.034116745 0.18111312
0.6457438 0.607409 0.46268672 0.018090129 0.15955335 0.061861105 0.968523 0.13126832
00000000: 40cb 963e a0a6 163d cfad 0a3f 992f 2e3f
00000010: 7864 a13d 08da 9b3d 5df2 653f 109e 043f
00000020: 7440 263e 3889 7f3f 9e79 6e3f ba94 9c3e
00000030: c0f1 063f f478 683e f7f6 263f 27a9 463f
00000040: 560b 5b3f 02e5 743f 9149 133f c0fa 063e
00000050: c09f ae3c 867b 193f c786 3a3f 384e 4f3e
00000060: e295 083f f0dc 833d 83dd 2a3f 4a5a 2a3f
00000070: 009e 3d3c d801 bc3e b0b0 9f3d bcac 1c3e
00000080: a8bb 493e 36ff 543f f2c1 8a3e ae97 f03e
00000090: 5ecc 773f 20c8 5d3d 4920 403f 4224 e73e
000000a0: 715b 033f da8c 5a3f 0e91 ee3c 9de4 313f
000000b0: 5c25 403f d767 d33e b1fc 103f 0d36 5a3f
000000c0: 32b4 273e b660 6b3f b0ae 1e3e 7cbb 423f
000000d0: d070 673f ce19 293f 1038 933d 6cf4 7e3f
000000e0: 8ab2 1c3f b231 b53e 46fd 503f 9c74 573f
000000f0: 355c 293f e06e d83d 900d 173f ce2d 883e
00000100: 54a1 5e3e 565c 763f f4a0 623e e0b7 143e
00000110: a4a5 ae3e 8050 7e3f 9047 aa3e 884b e13d
00000120: 0875 6a3e ec3a 573e f6af 313f 09bc 373f
00000130: 234d 473f 4d3f 043f 502b bc3d e866 263e
00000140: 5cd6 3e3f c09a 223d 9547 183f 0070 293e
00000150: a68d e23e 90c3 ac3e 22dd 483f ba63 103f
00000160: 60a1 063e cc5c 303e 947a eb3e f4b5 363f
00000170: da70 be3e 1847 953e 2878 983d e417 233f
00000180: a94e 583f 746b 003f 48da 053f 0863 113e
00000190: dcf9 553e 13e8 9f3d f0ad f13e 4857 d13d
000001a0: 390e 7c3e e372 1f3f 4829 2d3e 2524 453f
000001b0: 2a78 633f fe5e 313f cfa4 443f 44c2 383e
000001c0: 6861 373f 8f34 123f e209 d73e e037 e33e
000001d0: 00e2 663e b396 0c3f 00be 0b3d b875 393e
000001e0: 774f 253f 287f 1b3f 46e5 ec3e c031 943c
000001f0: f461 233e 1262 7d3d 20f1 773f 346b 063e

bn3.bias f4 [128]
0.0 0.0 0.0 0.0 0.0 0.0 0.0 0.0
0.0 0.0 0.0 0.0 0.0 0.0 0.0 0.0
0.0 0.0 0.0 0.0 0.0 0.0 0.0 0.0
0.0 0.0 0.0 0.0 0.0 0.0 0.0 0.0
0.0 0.0 0.0 0.0 0.0 0.0 0.0 0.0
0.0 0.0 0.0 0.0 0.0 0.0 0.0 0.0
0.0 0.0 0.0 0.0 0.0 0.0 0.0 0.0
0.0 0.0 0.0 0.0 0.0 0.0 0.0 0.0
0.0 0.0 0.0 0.0 0.0 0.0 0.0 0.0
0.0 0.0 0.0 0.0 0.0 0.0 0.0 0.0
0.0 0.0 0.0 0.0 0.0 0.0 0.0 0.0
0.0 0.0 0.0 0.0 0.0 0.0 0.0 0.0
0.0 0.0 0.0 0.0 0.0 0.0 0.0 0.0
0.0 0.0 0.0 0.0 0.0 0.0 0.0 0.0
0.0 0.0 0.0 0.0 0.0 0.0 0.0 0.0
0.0 0.0 0.0 0.0 0.0 0.0 0.0 0.0
00000000: 0000 0000 0000 0000 0000 0000 0000 0000
00000010: 0000 0000 0000 0000 0000 0000 0000 0000
00000020: 0000 0000 0000 0000 0000 0000 0000 0000
00000030: 0000 0000 0000 0000 0000 0000 0000 0000
00000040: 0000 0000 0000 0000 0000 0000 0000 0000
00000050: 0000 0000 0000 0000 0000 0000 0000 0000
00000060: 0000 0000 0000 0000 0000 0000 0000 0000
00000070: 0000 0000 0000 0000 0000 0000 0000 0000
00000080: 0000 0000 0000 0000 0000 0000 0000 0000
00000090: 0000 0000 0000 0000 0000 0000 0000 0000
000000a0: 0000 0000 0000 0000 0000 0000 0000 0000
000000b0: 0000 0000 0000 0000 0000 0000 0000 0000
000000c0: 0000 0000 0000 0000 0000 0000 0000 0000
000000d0: 0000 0000 0000 0000 0000 0000 0000 0000
000000e0: 0000 0000 0000 0000 0000 0000 0000 0000
000000f0: 0000 0000 0000 0000 0000 0000 0000 0000
00000100: 0000 0000 0000 0000 0000 0000 0000 0000
00000110: 0000 0000 0000 0000 0000 0000 0000 0000
00000120: 0000 0000 0000 0000 0000 0000 0000 0000
00000130: 0000 0000 0000 0000 0000 0000 0000 0000
00000140: 0000 0000 0000 0000 0000 0000 0000 0000
00000150: 0000 0000 0000 0000 0000 0000 0000 0000
00000160: 0000 0000 0000 0000 0000 0000 0000 0000
00000170: 0000 0000 0000 0000 0000 0000 0000 0000
00000180: 0000 0000 0000 0000 0000 0000 0000 0000
00000190: 0000 0000 0000 0000 0000 0000 0000 0000
000001a0: 0000 0000 0000 0000 0000 0000 0000 0000
000001b0: 0000 0000 0000 0000 0000 0000 0000 0000
000001c0: 0000 0000 0000 0000 0000 0000 0000 0000
000001d0: 0000 0000 0000 0000 0000 0000 0000 0000
000001e0: 0000 0000 0000 0000 0000 0000 0000 0000
000001f0: 0000 0000 0000 0000 0000 0000 0000 0000

bn3.running_mean f4 [128]
0.0 0.0 0.0 0.0 0.0 0.0 0.0 0.0
0.0 0.0 0.0 0.0 0.0 0.0 0.0 0.0
0.0 0.0 0.0 0.0 0.0 0.0 0.0 0.0
0.0 0.0 0.0 0.0 0.0 0.0 0.0 0.0
0.0 0.0 0.0 0.0 0.0 0.0 0.0 0.0
0.0 0.0 0.0 0.0 0.0 0.0 0.0 0.0
0.0 0.0 0.0 0.0 0.0 0.0 0.0 0.0
0.0 0.0 0.0 0.0 0.0 0.0 0.0 0.0
0.0 0.0 0.0 0.0 0.0 0.0 0.0 0.0
0.0 0.0 0.0 0.0 0.0 0.0 0.0 0.0
0.0 0.0 0.0 0.0 0.0 0.0 0.0 0.0
0.0 0.0 0.0 0.0 0.0 0.0 0.0 0.0
0.0 0.0 0.0 0.0 0.0 0.0 0.0 0.0
0.0 0.0 0.0 0.0 0.0 0.0 0.0 0.0
0.0 0.0 0.0 0.0 0.0 0.0 0.0 0.0
0.0 0.0 0.0 0.0 0.0 0.0 0.0 0.0
00000000: 0000 0000 0000 0000 0000 0000 0000 0000
00000010: 0000 0000 0000 0000 0000 0000 0000 0000
00000020: 0000 0000 0000 0000 0000 0000 0000 0000
00000030: 0000 0000 0000 0000 0000 0000 0000 0000
00000040: 0000 0000 0000 0000 0000 0000 0000 0000
00000050: 0000 0000 0000 0000 0000 0000 0000 0000
00000060: 0000 0000 0000 0000 0000 0000 0000 0000
00000070: 0000 0000 0000 0000 0000 0000 0000 0000
00000080: 0000 0000 0000 0000 0000 0000 0000 0000
00000090: 0000 0000 0000 0000 0000 0000 0000 0000
000000a0: 0000 0000 0000 0000 0000 0000 0000 0000
000000b0: 0000 0000 0000 0000 0000 0000 0000 0000
000000c0: 0000 0000 0000 0000 0000 0000 0000 0000
000000d0: 0000 0000 0000 0000 0000 0000 0000 0000
000000e0: 0000 0000 0000 0000 0000 0000 0000 0000
000000f0: 0000 0000 0000 0000 0000 0000 0000 0000
00000100: 0000 0000 0000 0000 0000 0000 0000 0000
00000110: 0000 0000 0000 0000 0000 0000 0000 0000
00000120: 0000 0000 0000 0000 0000 0000 0000 0000
00000130: 0000 0000 0000 0000 0000 0000 0000 0000
00000140: 0000 0000 0000 0000 0000 0000 0000 0000
00000150: 0000 0000 0000 0000 0000 0000 0000 0000
00000160: 0000 0000 0000 0000 0000 0000 0000 0000
00000170: 0000 0000 0000 0000 0000 0000 0000 0000
00000180: 0000 0000 0000 0000 0000 0000 0000 0000
00000190: 0000 0000 0000 0000 0000 0000 0000 0000
000001a0: 0000 0000 0000 0000 0000 0000 0000 0000
000001b0: 0000 0000 0000 0000 0000 0000 0000 0000
000001c0: 0000 0000 0000 0000 0000 0000 0000 0000
000001d0: 0000 0000 0000 0000 0000 0000 0000 0000
000001e0: 0000 0000 0000 0000 0000 0000 0000 0000
000001f0: 0000 0000 0000 0000 0000 0000 0000 0000

bn3.running_var f4 [128]
1.0 1.0 1.0 1.0 1.0 1.0 1.0 1.0
1.0 1.0 1.0 1.0 1.0 1.0 1.0 1.0
1.0 1.0 1.0 1.0 1.0 1.0 1.0 1.0
1.0 1.0 1.0 1.0 1.0 1.0 1.0 1.0
1.0 1.0 1.0 1.0 1.0 1.0 1.0 1.0
1.0 1.0 1.0 1.0 1.0 1.0 1.0 1.0
1.0 1.0 1.0 1.0 1.0 1.0 1.0 1.0
1.0 1.0 1.0 1.0 1.0 1.0 1.0 1.0
1.0 1.0 1.0 1.0 1.0 1.0 1.0 1.0
1.0 1.0 1.0 1.0 1.0 1.0 1.0 1.0
1.0 1.0 1.0 1.0 1.0 1.0 1.0 1.0
1.0 1.0 1.0 1.0 1.0 1.0 1.0 1.0
1.0 1.0 1.0 1.0 1.0 1.0 1.0 1.0
1.0 1.0 1.0 1.0 1.0 1.0 1.0 1.0
1.0 1.0 1.0 1.0 1.0 1.0 1.0 1.0
1.0 1.0 1.0 1.0 1.0 1.0 1.0 1.0
00000000: 0000 803f 0000 803f 0000 803f 0000 803f
00000010: 0000 803f 0000 803f 0000 803f 0000 803f
00000020: 0000 803f 0000 803f 0000 803f 0000 803f
00000030: 0000 803f 0000 803f 0000 803f 0000 803f
00000040: 0000 803f 0000 803f 0000 803f 0000 803f
00000050: 0000 803f 0000 803f 0000 803f 0000 803f
00000060: 0000 803f 0000 803f 0000 803f 0000 803f
00000070: 0000 803f 0000 803f 0000 803f 0000 803f
00000080: 0000 803f 0000 803f 0000 803f 0000 803f
00000090: 0000 803f 0000 803f 0000 803f 0000 803f
000000a0: 0000 803f 0000 803f 0000 803f 0000 803f
000000b0: 0000 803f 0000 803f 0000 803f 0000 803f
000000c0: 0000 803f 0000 803f 0000 803f 0000 803f
000000d0: 0000 803f 0000 803f 0000 803f 0000 803f
000000e0: 0000 803f 0000 803f 0000 803f 0000 803f
000000f0: 0000 803f 0000 803f 0000 803f 0000 803f
00000100: 0000 803f 0000 803f 0000 803f 0000 803f
00000110: 0000 803f 0000 803f 0000 803f 0000 803f
00000120: 0000 803f 0000 803f 0000 803f 0000 803f
00000130: 0000 803f 0000 803f 0000 803f 0000 803f
00000140: 0000 803f 0000 803f 0000 803f 0000 803f
00000150: 0000 803f 0000 803f 0000 803f 0000 803f
00000160: 0000 803f 0000 803f 0000 803f 0000 803f
00000170: 0000 803f 0000 803f 0000 803f 0000 803f
00000180: 0000 803f 0000 803f 0000 803f 0000 803f
00000190: 0000 803f 0000 803f 0000 803f 0000 803f
000001a0: 0000 803f 0000 803f 0000 803f 0000 803f
000001b0: 0000 803f 0000 803f 0000 803f 0000 803f
000001c0: 0000 803f 0000 803f 0000 803f 0000 803f
000001d0: 0000 803f 0000 803f 0000 803f 0000 803f
000001e0: 0000 803f 0000 803f 0000 803f 0000 803f
000001f0: 0000 803f 0000 803f 0000 803f 0000 803f

fc3.weight f4 [1, 128]
0.102015205 0.16458948 -0.08922375 0.03959325 -0.18588763 -0.082676336 0.029692445 0.05351228
0.045377407 0.048831385 -0.04807587 -0.17932661 -0.15732306 0.043218337 -0.09540919 0.037477348
0.05587056 -0.11965926 0.04495497 -0.20318045 0.058018256 0.13293071 0.057323586 -0.024810705
0.08799171 0.055621244 -0.04222547 0.12343259 0.12654544 -0.032120414 -0.14511205 -0.028937507
-0.051157523 -0.059171516 -0.04042497 0.056069802 0.07722887 -0.06624175 0.058938846 0.11612418
0.03890631 -0.116388634 0.06808539 -0.2113345 0.23021233 -0.09070098 -0.054506537 -0.042785287
-0.08240408 -0.099873856 0.06689828 0.00078872836 0.04014454 -0.09826361 -0.05338406 0.040421996
0.060604215 -0.0585518 0.04754536 0.041549187 0.03997535 -0.028092472 0.31392428 -0.106846645
0.062303696 0.07416507 -0.31870842 0.046934135 -0.34096447 -0.0987466 0.054681994 0.06646768
-0.060612887 -0.06736769 0.057290155 0.03184693 -0.11893737 -0.03773216 0.101341456 -0.046492368
-0.08995636 0.04707364 0.060608894 -0.20823355 -0.09388858 -0.0906935 -0.21261239 0.06050063
0.053481087 -0.053233303 0.0916343 -0.11088045 0.16205801 -0.12727068 -0.06007483 -0.11346898
0.09458977 -0.03967027 -0.18846107 -0.08546811 -0.07184872 0.048642047 -0.09270985 -0.03523695
-0.08499398 -0.034235187 -0.09813268 0.05502582 0.13915643 -0.24260397 -0.068293095 0.048623677
0.09864278 0.0490011 0.28725854 -0.061176986 0.08365038 3.3837532e-05 0.03603132 -0.086107895
0.080401875 -0.108121134 -0.18085349 0.054476563 0.03362702 -0.11464937 -0.0846602 0.029384188
00000000: 59ed d03d 258a 283e f1ba b6bd 882c 223d
00000010: 5459 3ebe 3652 a9bd 923d f33c b12f 5b3d
00000020: a9dd 393d 6b03 483d 34eb 44bd 65a1 37be
00000030: 4c19 21be b605 313d e565 c3bd d981 193d
00000040: 87d8 643d ea0f f5bd b422 383d 890e 50be
00000050: 8da4 6d3d fd1e 083e 23cc 6a3d d23f cbbc
00000060: ff34 b43d 1ad3 633d 9df4 2cbd 3aca fc3d
00000070: 2195 013e b290 03bd 4198 14be 5a0e edbc
00000080: 8d8a 51bd d55d 72bd a794 25bd 73a9 653d
00000090: 2b2a 9e3d c1a9 87bd dc69 713d 84d2 ed3d
000000a0: 395c 1f3d 2a5d eebd 5a70 8b3d 1268 58be
000000b0: c8bc 6b3e 6fc1 b9bd 3f42 5fbd a03f 2fbd
000000c0: 78c3 a8bd aa8a ccbd f701 893d aac2 4e3a
000000d0: 9a6e 243d 6e3e c9bd 3ea9 5abd 8991 253d
000000e0: 203c 783d 03d4 6fbd ecbe 423d 7b2f 2a3d
000000f0: 31bd 233d 2f22 e6bc afba a03e 6ad2 dabd
00000100: 2932 7f3d dbe3 973d c02d a3be 023e 403d
00000110: e592 aebe a83b cabd 3afa 5f3d 3520 883d
00000120: 3845 78bd 12f8 89bd 15a9 6a3d ed71 023d
00000130: 7095 f3bd 0a8d 1abd 1c8c cf3d c86e 3ebd
00000140: 0a3b b8bd 4ad0 403d 0841 783d 2d3b 55be
00000150: a848 c0bd 84bd b9bd 10b7 59be 82cf 773d
00000160: fc0e 5b3d 2a0b 5abd c4aa bb3d 4a15 e3bd
00000170: 89f2 253e 3f53 02be 0611 76bd 6d62 e8bd
00000180: 48b8 c13d 4b7d 22bd f0fb 40be e809 afbd
00000190: 6c25 93bd e23c 473d a9de bdbd 9f54 10bd
000001a0: 5311 aebd 323a 0cbd c9f9 c8bd c162 613d
000001b0: 067f 0e3e 2d6d 78be 40dd 8bbd 9f29 473d
000001c0: 3a05 ca3d 61b5 483d 8d13 933e b894 7abd
000001d0: e450 ab3d c6ec 0d38 9495 133d 5659 b0bd
000001e0: bda9 a43d 9d6e ddbd a831 39be d122 5f3d
000001f0: 7cbc 093d 4acd eabd 5462 adbd 1cb7 f03c
