mode_weights/agent1_actor_target.pth (torch_old, 93021 bytes, 18 tensors)

bn1.weight f4 [33]
0	0x3f01cb8c	0.5070121
1	0x3f108e4d	0.56467134
2	0x3ea94bd1	0.33065656
3	0x3c728a25	0.014803444
4	0xbb805b85	-0.00391716
5	0x3d777d9d	0.06042253
6	0x3d81161e	0.06303047
7	0x3e6d1d33	0.2315567
8	0x3e08baf7	0.13352571
9	0x3e20ae12	0.15691403
10	0x3e364496	0.17799601
11	0x3e31dbe5	0.1736904
12	0x3dba7662	0.09104611
13	0x3f0aa16f	0.5415258
14	0x3efaf724	0.49016678
15	0x3f319678	0.6937022
16	0x3d9116ed	0.07084451
17	0x3dab3a0e	0.083606824
18	0x3c26a1a1	0.010170371
19	0x3cfba452	0.030718002
20	0x3e9b7540	0.30362892
21	0x3eaa5da3	0.33274564
22	0x3e0d97e8	0.13827479
23	0x3f2b3e57	0.66892
24	0x3ea5b121	0.323617
25	0x3efb16a8	0.49040723
26	0x3f86ced6	1.0531871
27	0x3d142190	0.03616482
28	0x3f10f851	0.566289
29	0x3ebf3090	0.37341738
30	0x3e9c3612	0.30510002
31	0x3f6e9794	0.9320004
32	0x3eb7bc4d	0.3588585

bn1.bias f4 [33]
0	0xbc6754c3	-0.01411933
1	0xbd94c012	-0.07263197
2	0xbd0af1c3	-0.03392197
3	0x3ce01870	0.027355403
4	0xbde6fcc8	-0.11278683
5	0xbcde92af	-0.027169554
6	0xbcde8851	-0.02716461
7	0xbddf15cd	-0.1089283
8	0x3d8a9167	0.067660145
9	0x3d6bc499	0.057560537
10	0xbce71eaf	-0.028212873
11	0xbdb935d2	-0.090434685
12	0x3bb473c6	0.0055069653
13	0xbcd1c0c4	-0.025604613
14	0xbd2b8f8b	-0.04188494
15	0xbcf3e036	-0.029769998
16	0x3c90aabd	0.01765954
17	0x3d892e1f	0.0669825
18	0xbdee5326	-0.11636953
19	0x3e179d34	0.14806062
20	0xbd53facd	-0.051752854
21	0xbc2cd63b	-0.010549123
22	0xbd054e47	-0.032545354
23	0x3ced3398	0.028955266
24	0xbdd2ae20	-0.10287118
25	0x3cffe45d	0.031236822
26	0x3d569704	0.052390113
27	0x3df948b8	0.12172073
28	0xbc2f305e	-0.010692684
29	0x3e6dad2c	0.23210591
30	0xbe4c2d0c	-0.19939059
31	0xbe68d136	-0.22736058
32	0xbd2110b5	-0.039322574

bn1.running_mean f4 [33]
0	0x3f2ae522	0.6675588
1	0xc01e6785	-2.4750683
2	0xbecda454	-0.40164435
3	0x3f577e32	0.84176934
4	0x3d9f4c21	0.07778192
5	0x3c53ccf9	0.012927287
6	0xbd6d78ac	-0.05797641
7	0xbc332216	-0.01093342
8	0xbb4d74e4	-0.003135019
9	0x3bde3fdf	0.0067825164
10	0x3c9cbb04	0.019132145
11	0x3cab97a9	0.02094634
12	0x3cd3196d	0.02576896
13	0x3ecaca12	0.39607292
14	0xc0252470	-2.580349
15	0xbe28df22	-0.16491368
16	0x3c477316	0.012173435
17	0xbba2a447	-0.004963431
18	0xbc071b67	-0.008246279
19	0xbcfe366b	-0.031031808
20	0x3e15c7b8	0.14626968
21	0xbb3f0c1c	-0.0029151505
22	0x3d18d1b1	0.037309352
23	0x3b5e7a9e	0.0033947597
24	0x3dfebace	0.12437974
25	0xbc834e34	-0.016028501
26	0xbdd17d72	-0.10229005
27	0xbf7ffffc	-0.99999976
28	0xbb4e7ac4	-0.003150628
29	0x00000000	0.0
30	0x3f7ffffc	0.99999976
31	0x00000000	0.0
32	0xbb91d931	-0.00445094

bn1.running_var f4 [33]
0	0x408438f0	4.1319504
1	0x3f0bc79d	0.5460146
2	0x4095250e	4.6607733
3	0x3d8dd445	0.06925253
4	0x3d8fb05d	0.070160605
5	0x3d051363	0.03248919
6	0x3de1df13	0.11028876
7	0x3ebf3e19	0.37352064
8	0x3d87f318	0.06638163
9	0x3de5ef11	0.11227239
10	0x400b25ec	2.1741896
11	0x3fa8ddb6	1.3192661
12	0x402ec1d5	2.7305806
13	0x419b4372	19.407932
14	0x3fd27d2a	1.6444447
15	0x41ac389d	21.527643
16	0x3ddc5ad3	0.10759511
17	0x3e8a2c2b	0.26986822
18	0x3dcbbfee	0.09948717
19	0x3f057751	0.5213519
20	0x4023be85	2.5585034
21	0x3f42a21e	0.7602862
22	0x3f6f3aeb	0.93449277
23	0x4102bb92	8.170794
24	0x4071f3ce	3.7805057
25	0x4106bd50	8.421219
26	0x41fd886e	31.691616
27	0x00000004	6e-45
28	0x42015315	32.331135
29	0x00000004	6e-45
30	0x00000004	6e-45
31	0x00000004	6e-45
32	0x3eb03a86	0.3441965

fc1.weight f4 [128, 33]
0	0xbd5be3d3	-0.053684067
1	0xbd3c94c1	-0.0460403
2	0x3e27b056	0.1637586
3	0xbddacf11	-0.10684026
4	0xbc67d01f	-0.014148741
5	0xbd182133	-0.037141036
6	0xba658361	-0.0008755234
7	0xbd0ffb24	-0.035151616
8	0x3d77b84e	0.0604785
9	0xbcf2b885	-0.029629001
10	0xbd4d16a7	-0.05007043
11	0x3e1ef7d3	0.15524225
12	0x3b0bf40b	0.0021355178
13	0xbce7b3a8	-0.028283909
14	0x3da1605f	0.078797095
15	0xbd9f1b29	-0.07768852
16	0x3d44c6f9	0.048041318
17	0x3c17cdb4	0.009265352
18	0x3c971f29	0.018447476
19	0xbc688334	-0.0141914375
20	0xbdc2342a	-0.09482606
21	0x3d4f9a53	0.050684284
22	0x3cdf5727	0.027263237
23	0xbdc664ea	-0.096872166
24	0xbdce5192	-0.10074152
25	0x3d122a6d	0.03568499
26	0x3c83bed1	0.0160822
27	0xbc439283	-0.011936787
28	0xbb8af04c	-0.0042400714
29	0xbd7dc2b3	-0.061953258
30	0xbd688f30	-0.05677718
31	0x3cde1cc3	0.027113324
32	0xbca8a157	-0.020584745
33	0xbd9b1e07	-0.07574087
34	0x3d1b7dd7	0.037961807
35	0x39e4c2fa	0.00043632818
36	0xbc7c3dab	-0.015395562
37	0x3e0d0fd2	0.13775566
38	0xbceef95c	-0.029171638
39	0xbd0e579a	-0.034751512
40	0x3b127705	0.0022348773
41	0x3c138590	0.009004012
42	0xb9c0fb9f	-0.00036808566
43	0xbc0428a3	-0.008066329
44	0x3c38017b	0.011230822
45	0x3d570065	0.05249061
46	0x3e3a3196	0.18182978
47	0xbd75530d	-0.059893657
48	0x3d8c793e	0.068590626
49	0xbcde74ee	-0.027155366
50	0xbcf4245a	-0.02980249
51	0xbb1222db	-0.0022298608
52	0xbc92ec68	-0.017934993
53	0xbcb958be	-0.022625323
54	0x3bcb97ba	0.0062131556
55	0xbc18389d	-0.009290841
56	0x3d36526d	0.0445122
57	0xbcb4de70	-0.022078723
58	0x3d22fc58	0.039791435
59	0xbe0e4269	-0.13892521
60	0xbe1d501d	-0.15362592
61	0x3b835280	0.0040076375
62	0xbe0bca51	-0.13651396
63	0x3e691130	0.22760463
64	0x3de82e70	0.11336982
65	0xbe12fe57	-0.14354835
66	0x3d368a70	0.044565618
67	0xbd3dbc02	-0.046321876
68	0xbe465657	-0.19368874
69	0xbe0d9868	-0.1382767
70	0xbdda7cde	-0.10668348
71	0x3cf79cfd	0.030226225
72	0xbc1a530d	-0.009419215
73	0xbbd728d3	-0.006566146
74	0x3d319f7b	0.043364983
75	0xbbe3edb1	-0.0069558253
76	0xbd2e0740	-0.042487383
77	0xbc2775d6	-0.010220965
78	0xbdd0b2cb	-0.10190352
79	0xbdc5e3ca	-0.09662588
80	0x3bc540b2	0.006019675
81	0x3c2d66b7	0.010583571
82	0xbb2ecb9b	-0.0026671651
83	0x3a34c940	0.00068964437
84	0x3c913e64	0.017729945
85	0x3d239a8f	0.03994232
86	0xbd0285c6	-0.031865858
87	0xbd51c010	-0.051208556
88	0xbd2015ba	-0.03908322
89	0xbd9420f8	-0.07232851
90	0xbce7a438	-0.028276548
91	0x3bdbbff6	0.006706233
92	0xbc48c35e	-0.01225361
93	0x3e3c329a	0.18378678
94	0x3de4d13e	0.11172722
95	0x3d8e075d	0.06934998
96	0xbd8caeef	-0.068693034
97	0xbc5f1d67	-0.01361785
98	0x3d9838a5	0.07432679
99	0x3cebe634	0.028796293
100	0x3d3238ee	0.043511324
101	0xbcf6e770	-0.030139655
102	0xbdd72386	-0.105048224
103	0x3de9a193	0.11407771
104	0x3b266e83	0.002539546
105	0xbd12e2b7	-0.035860743
106	0x3d441cda	0.047879077
107	0xbc7e6af3	-0.015528428
108	0xbd4867fc	-0.048927292
109	0xbcd21f08	-0.025649562
110	0xbc377dd1	-0.011199431
111	0xbd321ad4	-0.043482617
112	0xbe31bcb6	-0.17357144
113	0x3d6a3ec8	0.05718878
114	0x3dd43f55	0.10363642
115	0xbd0b66da	-0.034033634
116	0xbd04bac9	-0.032404695
117	0x3bb2e10e	0.0054589575
118	0xbd091ceb	-0.033474844
119	0x3c8f7b3f	0.017514823
120	0x3c853c1b	0.016264012
121	0x3cf7ef45	0.03026546
122	0xbd376460	-0.04477346
123	0x3e040936	0.12894139
124	0x3cb8c449	0.022554534
125	0x3d5b8e0b	0.05360226
126	0xbd45f445	-0.048328657
127	0xbd23e8b1	-0.040016834
128	0xbd832f8a	-0.06405552
129	0x3df4c164	0.11950949
130	0x3e17e3cd	0.14832993
131	0xbc22a65b	-0.009927358
132	0x3c8484c6	0.016176593
133	0x3d0a31a8	0.033738762
134	0x3deb7de3	0.1149862
135	0x3d154493	0.03644235
136	0xbc12e271	-0.008965121
137	0xbd4595c5	-0.048238534
138	0x3ccbaa3d	0.02486145
139	0x3b8a4457	0.0042195725
140	0x3ce48ff1	0.027900668
141	0x3ae47069	0.001742852
142	0xbd09fb22	-0.033686765
143	0x3dc87c3f	0.09789323
144	0x3d2ac914	0.04169567
145	0x3e10b0dc	0.14129966
146	0xbdad5e58	-0.0846526
147	0xbc513b88	-0.012770541
148	0xbacddb0b	-0.0015705539
149	0xbba21b8a	-0.0049471306
150	0x3d904587	0.07044511
151	0xbd282094	-0.041046694
152	0xbcf0547e	-0.029337164
153	0x3aa2322f	0.0012374575
154	0x3d40befe	0.047057144
155	0x3cc00151	0.023438128
156	0xbdbae98d	-0.091265775
157	0xbb8a15c1	-0.004214019
158	0xbdb12b21	-0.08650804
159	0xbc9a16a4	-0.018809624
160	0x3d538a79	0.05164573
161	0xbd76d6d6	-0.060263477
162	0x3de1ea72	0.11031045
163	0x3dd09f37	0.10186618
164	0xbd933a87	-0.071888976
165	0x3d56c77d	0.05243634
166	0xbc755775	-0.014974465
167	0x3e7f55c0	0.24935055
168	0xbd919d92	-0.07110132
169	0xbd1ad7f6	-0.037803613
170	0xbd0937ad	-0.033500362
171	0xbbc116fd	-0.005892633
172	0x3c8432a7	0.016137434
173	0xbb82e9b5	-0.003995145
174	0xbd438b6c	-0.047740385
175	0x3d70f0d1	0.05882341
176	0xbcf2dc22	-0.029645983
177	0xbc341721	-0.0109918425
178	0xbd7eac76	-0.06217619
179	0xbced51d7	-0.028969688
180	0xbe0db833	-0.13839798
181	0xbc970296	-0.01843385
182	0xbbdb6249	-0.006695066
183	0x3c017807	0.007902152
184	0x3d7ea44a	0.062168397
185	0xbcc6cb97	-0.024267001
186	0x3af0b1df	0.0018363557
187	0x3bf59f34	0.007495785
188	0xbcf0c9f1	-0.029393168
189	0xbc394844	-0.011308733
190	0x3c06e584	0.008233432
191	0x3ce8302a	0.028343279
192	0x3c2a3636	0.010388901
193	0xbd84d183	-0.06485274
194	0x3d9d4c46	0.07680564
195	0xbde90083	-0.11377051
196	0xbe24c684	-0.16091353
197	0x3d89c2e5	0.06726626
198	0x3baaf628	0.0052173324
199	0x3d6cc738	0.057807177
200	0x3c20a048	0.009803839
201	0xbd9f26ce	-0.07771073
202	0xbd4d89d5	-0.050180275
203	0xbcee991f	-0.029125748
204	0x3cb06a39	0.021535026
205	0x3cb15f80	0.021651983
206	0x3cd02ee2	0.02541298
207	0x3d912a5a	0.07088156
208	0x3b8f3932	0.004370832
209	0x3d2a8578	0.041631192
210	0xbd79d34a	-0.060992517
211	0xbd8c7bc6	-0.068595454
212	0xbdd1de51	-0.102474816
213	0x3c84110e	0.016121414
214	0x3d5336c0	0.051565886
215	0xbb8223f4	-0.003971571
216	0x3d77baec	0.060480997
217	0xbd1406aa	-0.036139168
218	0xbceab986	-0.028652918
219	0xbc000642	-0.007813992
220	0xbdbfea98	-0.09370917
221	0x3cba099b	0.022709658
222	0xbd9e8f5c	-0.077421874
223	0x3b730f84	0.0037088105
224	0x3d89091b	0.0669119
225	0x3c9f12de	0.019418176
226	0xbe8d567f	-0.27605054
227	0x3cc345fd	0.023837084
228	0x3dee54a8	0.11637241
229	0x3c924612	0.017855678
230	0x3dce6ab4	0.10078946
231	0xbcf9fef9	-0.030517088
232	0xbd8ec3f4	-0.06970969
233	0xbc51746f	-0.012784108
234	0xbcf35b50	-0.029706627
235	0x3c8f2c93	0.01747731
236	0x3a1c246a	0.0005956354
237	0x3d6de121	0.058076028
238	0x3ce29467	0.027658654
239	0x3d33f0a0	0.04393065
240	0xbd4ffdfd	-0.05077933
241	0x3c03f521	0.008054049
242	0x3c5ed8c1	0.013601483
243	0x3e18ccfb	0.14921944
244	0xbcaef259	-0.021355795
245	0x3ce129a6	0.02748568
246	0x3e0a3106	0.13495263
247	0x3c53f890	0.01293768
248	0xbca58c15	-0.020208398
249	0x3d782621	0.060583238
250	0xbce95f3d	-0.028487796
251	0x3c047006	0.008083349
252	0x3d0cdcec	0.034390375
253	0x3ca5afc4	0.020225413
254	0x3c5236e1	0.012830467
255	0xbd43c4b8	-0.047795027

fc1.bias f4 [128]
0	0xbcda0ad5	-0.026616493
1	0xbdb575b3	-0.0886034
2	0x3e24a709	0.16079344
3	0xbe4f76b9	-0.20260133
4	0xbe49e061	-0.197145
5	0x3e284e71	0.16436173
6	0x3cdca088	0.026932016
7	0xbe0438d7	-0.12912308
8	0x3cfcfee1	0.030883254
9	0x3a47b431	0.0007618098
10	0xbe1893e9	-0.14900173
11	0xbda78641	-0.08179904
12	0xbd99dd2f	-0.075128905
13	0xbdeed80a	-0.116623
14	0x3d9a9eeb	0.075498424
15	0xbe0d60b4	-0.1380642
16	0x3d90bdaf	0.07067429
17	0xbe0bc3ff	-0.13648985
18	0xbe069e2c	-0.13146275
19	0xbe2ed498	-0.17073286
20	0xbe1a32d3	-0.1505845
21	0x3d9fa8ec	0.07795891
22	0x3cecb44d	0.028894568
23	0xbd8d89f6	-0.069110796
24	0xbd3d9556	-0.046284996
25	0xbe3a09c7	-0.18167792
26	0x3d4e8844	0.05042292
27	0x3d11f116	0.035630308
28	0x3d50c27d	0.05096673
29	0x3d3c2752	0.045935936
30	0x3e01a844	0.12661844
31	0xbc727007	-0.014797217
32	0x3d61d77f	0.055137154
33	0x3c9bdb1c	0.019025378
34	0x3d58482b	0.0528032
35	0xbc6c7bd4	-0.01443382
36	0xbdbdceef	-0.09267985
37	0xbcce5ac9	-0.025189774
38	0x3d343c24	0.044002667
39	0xbdea29c1	-0.11433745
40	0x3e28cb2f	0.16483758
41	0x3e2ed221	0.17072345
42	0x3e131542	0.14363578
43	0xbc5adbc6	-0.013358062
44	0xbde62ff6	-0.112396166
45	0xbd25b1ed	-0.040452886
46	0x3e3c2957	0.18375145
47	0xbc1a2b78	-0.009409778
48	0xbdb93aea	-0.0904444
49	0x3cd8f0b5	0.026481966
50	0xbd329609	-0.043600116
51	0x3e186da4	0.14885575
52	0xbe62be34	-0.22142869
53	0xbc821a1d	-0.015881592
54	0x3e5c5e89	0.21520437
55	0xbe1dd41f	-0.15412949
56	0xbd0a7868	-0.033806235
57	0x3d9dddd2	0.077083245
58	0x3d124f16	0.035719953
59	0x3d371a37	0.044702735
60	0x3e26746b	0.16255347
61	0xbdfda5a2	-0.123851076
62	0x3e3ff769	0.18746723
63	0xbd5a353f	-0.053273436
64	0xbd0c83e7	-0.03430548
65	0x3cfca582	0.030840639
66	0xbda331a6	-0.07968454
67	0x3d6c9dfe	0.05776786
68	0x3d5b18b5	0.05349036
69	0x3dac231b	0.08405133
70	0xbdb5e030	-0.08880651
71	0x3de4ea4b	0.111775
72	0xbd71a499	-0.058994863
73	0xbcadb8f0	-0.02120635
74	0x3e2ca687	0.168604
75	0xbdf6283a	-0.12019391
76	0xbd954651	-0.072888024
77	0x3d297efe	0.041380875
78	0x3cc0286a	0.02345677
79	0xbe0f6232	-0.14002302
80	0x3dcf1a66	0.10112457
81	0xbb908c2d	-0.0044112415
82	0xbdf13709	-0.11778075
83	0x3d091fc8	0.033477575
84	0x3ea5b1e1	0.32362273
85	0x3dcb9ce4	0.09942034
86	0xbdc52400	-0.09626007
87	0xbe72f95d	-0.23727937
88	0xbe047de6	-0.12938651
89	0x3e139837	0.14413534
90	0x3c89f108	0.016838565
91	0xbb9ea6ac	-0.004841646
92	0x3c928ac2	0.01788843
93	0x3c37a2a9	0.011208215
94	0x3d28d746	0.041220926
95	0xbc6e378a	-0.014539609
96	0xbcfdc30c	-0.030976795
97	0x3ce3fbe5	0.027830074
98	0x3caf3d51	0.021391543
99	0xbd745689	-0.05965284
100	0xbc0d9806	-0.008642202
101	0xbccfd60b	-0.025370618
102	0xbc8a8da5	-0.016913245
103	0x3b4356c3	0.0029806353
104	0xbe501444	-0.2032023
105	0x3e5b174e	0.21395609
106	0xbcfa8ecd	-0.03058567
107	0x3e2873b8	0.16450393
108	0x3b8ef0a8	0.0043621846
109	0xba065351	-0.00051241094
110	0x3de23275	0.1104478
111	0xbdc1a4c3	-0.09455254
112	0xbd4043f3	-0.0469398
113	0xbde0e9b0	-0.10982072
114	0x3d9fd5b3	0.07804432
115	0x3e056a39	0.13028802
116	0xbe253506	-0.16133508
117	0xbd9f5910	-0.07780659
118	0xbe35b8c7	-0.17746268
119	0x3ca4792f	0.020077316
120	0x3d47dfb7	0.048797335
121	0x3e8a2877	0.26983997
122	0x3d68d78d	0.05684619
123	0xbc72de26	-0.014823472
124	0xbd755ba0	-0.059901834
125	0x3e3d53c9	0.18488993
126	0xbd8d9e50	-0.06914961
127	0xbc9c9ce9	-0.01911779

bn2.weight f4 [128]
0	0x3e2d2a1f	0.16910599
1	0x3e6a1107	0.22858058
2	0x3eaaeab7	0.33382198
3	0x3ed64a02	0.41853338
4	0x3e7d0930	0.24710536
5	0x3f00db56	0.5033468
6	0x3f204a41	0.626133
7	0x3e952d91	0.29136327
8	0x3f025139	0.50905186
9	0x3f5f06a8	0.8711953
10	0x3f0bb779	0.5457683
11	0x3e9d5cd1	0.30734876
12	0x3e7f2f25	0.24920328
13	0x3e880f68	0.26574254
14	0x3eac0e84	0.33604825
15	0x3e575c65	0.2103134
16	0x3f06c80d	0.52649003
17	0x3f368dcb	0.7131011
18	0x3f05333d	0.5203131
19	0x3f154871	0.5831366
20	0x3f387b88	0.72063494
21	0x3ecec7ef	0.40386912
22	0x3ef6dfd3	0.4821764
23	0x3f167eb2	0.5878707
24	0x3e9610cb	0.29309687
25	0x3f285c31	0.6576567
26	0x3ec39a89	0.38203838
27	0x3e7be0be	0.24597451
28	0x3e982420	0.2971506
29	0x3e837edb	0.2568272
30	0x3f035e07	0.5131535
31	0x3f3f21ee	0.7466115
32	0x3f4e7754	0.8065083
33	0x3eb7b0ae	0.35876983
34	0x3ef65db1	0.48118356
35	0x3eb04bce	0.34432834
36	0x3e7199ae	0.2359378
37	0x3efcd8f3	0.4938427
38	0x3e54d27b	0.20783417
39	0x3f37ab60	0.7174587
40	0x3d0d7cd4	0.034542874
41	0x3e75f9db	0.24021094
42	0x3f39e0b9	0.72608525
43	0x3e5b8904	0.21438986
44	0x3ee026f4	0.4377972
45	0x3f5758d2	0.84119904
46	0x3f506860	0.81409264
47	0x3f428bf8	0.75994825
48	0x3edf8e54	0.43663275
49	0x3f347132	0.7048522
50	0x3ed58f92	0.41711098
51	0x3e9c27cc	0.30499113
52	0x3ee20df9	0.44151285
53	0x3f052a98	0.5201812
54	0x3f3428f9	0.7037502
55	0x3f37e113	0.7182781
56	0x3f1d9c1a	0.6156632
57	0x3edc505b	0.43030056
58	0x3f0ebf09	0.55760247
59	0x3f299f1c	0.66258407
60	0x3f08b65d	0.53403264
61	0x3e9ec0e1	0.3100653
62	0x3f07ec96	0.53095376
63	0x3eb82503	0.35965738
64	0x3eadc474	0.33938944
65	0x3f283b85	0.6571582
66	0x3f088a00	0.5333557
67	0x3f067547	0.525227
68	0x3ecea6cb	0.40361628
69	0x3f1c6104	0.61085534
70	0x3f5e4529	0.8682428
71	0x3f0b0c3f	0.5431556
72	0x3f29002d	0.66015893
73	0x3e81f55f	0.25382516
74	0x3f2950e6	0.66139066
75	0x3f0fe238	0.5620456
76	0x3f3673d8	0.71270514
77	0x3f2f8973	0.68569106
78	0x3ef8b53f	0.4857578
79	0x3ee924e5	0.4553596
80	0x3f52e38e	0.8237847
81	0x3f495ca6	0.78656995
82	0x3e8e8ce3	0.27841863
83	0x3f6d70fe	0.9275054
84	0x3f643d64	0.89156175
85	0x3f0174a1	0.50568587
86	0x3e7601df	0.24024151
87	0x3efa9d8e	0.4894833
88	0x3ea90ce5	0.3301765
89	0x3f3308a4	0.6993506
90	0x3eab1001	0.33410648
91	0x3f202b47	0.62566036
92	0x3f02ea64	0.511389
93	0x3ef89d4d	0.4855751
94	0x3f3532aa	0.7078043
95	0x3f13c072	0.57715523
96	0x3ec24c79	0.3794897
97	0x3eaf66cc	0.34258115
98	0x3ed02d6d	0.40659657
99	0x3ebe873f	0.3721256
100	0x3f096c4e	0.53680885
101	0x3ec45aa5	0.38350406
102	0x3e87f18d	0.26551476
103	0x3f275f0e	0.65379417
104	0x3e3c3e12	0.18383053
105	0x3f364e49	0.71213204
106	0x3ed978f7	0.424751
107	0x3f38f0f8	0.7224269
108	0x3f52d236	0.82352006
109	0x3f1614aa	0.5862528
110	0x3efd0819	0.4942024
111	0x3e8e8c82	0.27841574
112	0x3f5ad6c6	0.8548397
113	0x3f2b0b17	0.66813797
114	0x3ed768fb	0.4207228
115	0x3f191e70	0.5981207
116	0x3f102e14	0.5632031
117	0x3f3e51e5	0.7434371
118	0x3f28ca24	0.6593344
119	0x3f5271a4	0.8220465
120	0x3e1d4ca0	0.15361261
121	0x3f5960f4	0.84913564
122	0x3f2b6704	0.66954064
123	0x3f19c800	0.600708
124	0x3f084c5f	0.53241533
125	0x3f3243ec	0.6963489
126	0x3f7e6ae9	0.9938188
127	0x3ee59bd8	0.44845462

bn2.bias f4 [128]
0	0xbeef1594	-0.4669615
1	0xbed3ead2	-0.4139009
2	0x3c827544	0.015925057
3	0x3dfe03c4	0.12403062
4	0x3ef1e16a	0.4724229
5	0x3c8783ae	0.016542282
6	0x3e1fd00a	0.15606704
7	0xbe9edee2	-0.3102942
8	0x3d775896	0.060387217
9	0x3e0f1cc8	0.13975823
10	0x3e80f393	0.25185832
11	0x3b54f358	0.0032493677
12	0x3eb096d6	0.3449008
13	0x3dd48466	0.103768155
14	0x3e5d7b1b	0.21628992
15	0x3eb0c2c4	0.34523594
16	0xbe0975a5	-0.13423784
17	0x3d1681e4	0.036744967
18	0x3dc4d1bf	0.096103184
19	0xbe558547	-0.20851623
20	0x3d809eb6	0.06280272
21	0x3da39e81	0.079892166
22	0x3d8f3bf6	0.069938585
23	0xbbe0fcac	-0.0068660583
24	0xbd31a4d9	-0.0433701
25	0x3c0192b5	0.007908513
26	0x3dbe4960	0.09291339
27	0x3ed53bfb	0.41647324
28	0x3e92f8a3	0.2870532
29	0x3e6ec3f2	0.23316935
30	0x3e8e8506	0.27835864
31	0x3dca681e	0.0988314
32	0xbe4f5461	-0.20247032
33	0xbe6ba865	-0.23013456
34	0x3e21ac23	0.15788321
35	0xbe5d2410	-0.21595788
36	0x3e9ba8e3	0.30402288
37	0x3ea274e5	0.31729808
38	0x3e9b911a	0.3038414
39	0x3e906105	0.2819902
40	0x3f0480a0	0.51758766
41	0x3ea067ed	0.3132929
42	0x3c4daba8	0.012553133
43	0x3edc9458	0.43081927
44	0xbe3de18f	-0.18543075
45	0x3e07659d	0.13222356
46	0x3d64bd05	0.055844326
47	0xbdec9efd	-0.11553762
48	0xbe07e9dd	-0.13272806
49	0xbdcfe25a	-0.10150595
50	0x3e8417b3	0.2579933
51	0xbe39be4e	-0.18139002
52	0x3df4124a	0.11917551
53	0xbe17c479	-0.14821042
54	0x3e6d1f47	0.23156463
55	0xbe051f91	-0.13000323
56	0xbe0a755b	-0.1352133
57	0x3e2b52f8	0.16730869
58	0x3e91aa54	0.28450263
59	0x3d9a6bdb	0.07540103
60	0x3e0a7354	0.13520557
61	0x3dd17824	0.10227993
62	0xbe248f5d	-0.16070314
63	0xbd97b9c3	-0.07408478
64	0x3eb931fc	0.36170948
65	0x3dd8c039	0.105835386
66	0x3db86e80	0.09005451
67	0xbdc1b556	-0.09458415
68	0x3e0c65e9	0.1371075
69	0x3dccdcd8	0.1000306
70	0x3b05e267	0.0020429136
71	0x3c19a529	0.009377756
72	0xbe4832bc	-0.19550604
73	0x3de29453	0.11063447
74	0x3d3a3fdb	0.045471054
75	0x3d901474	0.07035151
76	0xbdec91c7	-0.11551242
77	0x3e3971db	0.18109839
78	0xbcb322ca	-0.021867175
79	0x3d41b477	0.047291245
80	0x3e000560	0.1250205
81	0xbe7d8637	-0.2475823
82	0xbdea8eb2	-0.11452998
83	0xbde5ec0e	-0.112266645
84	0xbd167322	-0.036730893
85	0xbd9e3c8c	-0.07726392
86	0x3ea2e5d8	0.31815982
87	0x3e396567	0.18105088
88	0xbdc86812	-0.09785475
89	0x3db0d6fa	0.086347535
90	0x3e3f2ea1	0.18670131
91	0x3cdfb554	0.027308144
92	0x3e1b3bdc	0.15159553
93	0x3dd844cf	0.10559999
94	0x3dcdcc49	0.1004873
95	0x3e26b69f	0.16280602
96	0x3e8c147d	0.2735938
97	0x3e0659fb	0.13120262
98	0x3d8b06ab	0.06788381
99	0xbe7713fa	-0.24128714
100	0x3dce5427	0.100746445
101	0x3deae709	0.11469848
102	0x3e9fcf41	0.3121281
103	0xbe18bf47	-0.14916717
104	0x3e8ae07e	0.271244
105	0x3e9102eb	0.2832254
106	0x3e951b1f	0.29122254
107	0xbd18edbb	-0.037336092
108	0x3e24aa76	0.1608065
109	0x3cdd33cb	0.027002236
110	0xbe160511	-0.1465037
111	0xbd7d5377	-0.061847176
112	0x3e0645f2	0.1311262
113	0x3d9df66d	0.077130176
114	0xbdd618ba	-0.10453935
115	0xbc66b795	-0.014081855
116	0x3e4c65ee	0.19960758
117	0x3e151bf1	0.1456144
118	0x3e0edf2e	0.13952324
119	0x3e10ff14	0.14159805
120	0x3f0f0c99	0.558786
121	0xbe009c8f	-0.12559722
122	0x3b2d7a0a	0.0026470446
123	0x3dc797f5	0.097457804
124	0x3c15b420	0.009137183
125	0x3e5bea1f	0.21476029
126	0xbdf3c234	-0.11902276
127	0xbeada358	-0.33913684

bn2.running_mean f4 [128]
0	0x3cbb0fae	0.022834625
1	0x39004c30	0.00012235413
2	0x3e793d97	0.24339901
3	0x37b44bbc	2.1492939e-05
4	0x38593d0c	5.1793686e-05
5	0x3e7fa8c3	0.24966721
6	0x3d905608	0.07047659
7	0x3cccf62d	0.02501973
8	0x3d83dd68	0.06438714
9	0x3e55c92b	0.2087752
10	0x341c6144	1.4564017e-07
11	0x3cf77e77	0.03021167
12	0x3b91d733	0.0044507026
13	0x3bce1411	0.006289013
14	0x3dda7684	0.10667136
15	0x37074dab	8.0647105e-06
16	0x3cbd5250	0.023110539
17	0x3c9f1b80	0.019422293
18	0x3c7867fd	0.0151615115
19	0x3ad08977	0.0015910108
20	0x3c026edc	0.007961001
21	0x3d470f22	0.048598416
22	0x3dde1c4b	0.1084524
23	0x3d2596e6	0.04042711
24	0x3c266afd	0.010157344
25	0x380d151d	3.3636683e-05
26	0x3debb812	0.11509718
27	0x3c8facb7	0.017538412
28	0x3e11a721	0.14223911
29	0x3cc2036a	0.023683269
30	0x3e45b680	0.193079
31	0x3e063962	0.13107827
32	0x3e12b23c	0.14325804
33	0x3c10c4eb	0.008836011
34	0x3e178ff3	0.14801006
35	0x3ceb59ff	0.028729437
36	0x397c97c9	0.00024089137
37	0x3c9e9c25	0.019361565
38	0x3cd3aac6	0.025838267
39	0x3d1f54b7	0.03889915
40	0x3e6f627e	0.23377416
41	0x3e8279b6	0.25483483
42	0x3e7626cc	0.24038237
43	0x3c98ec26	0.018667292
44	0x381a4879	3.6783957e-05
45	0x3b2d6c64	0.002646231
46	0x3ec00dca	0.3751052
47	0x3d081846	0.033226274
48	0x3d2772c5	0.040880937
49	0x3d2c669f	0.042090055
50	0x3d58ac25	0.052898545
51	0x3e28009f	0.16406487
52	0x36aa6fae	5.079396e-06
53	0x3cb3dadb	0.021954944
54	0x3e79892e	0.24368736
55	0x3aa193fb	0.0012327427
56	0x3d0a6882	0.033791073
57	0x3e020b38	0.12699592
58	0x3d9542fa	0.072881654
59	0x3d96091f	0.073259585
60	0x3e846c78	0.25864005
61	0x3ca897d7	0.020580215
62	0x3e839d55	0.25705972
63	0x39191630	0.00014599483
64	0x3c0d163a	0.008611256
65	0x3d559e32	0.05215282
66	0x3bb8583a	0.005625752
67	0x3d212797	0.039344396
68	0x3cd691d5	0.026192585
69	0x3d92d621	0.07169748
70	0x3c23d68d	0.009999883
71	0x3e6a5817	0.22885166
72	0x3d338145	0.043824453
73	0x3bc711fd	0.0060751424
74	0x3e74832e	0.23878166
75	0x3b696263	0.0035611622
76	0x385b48bc	5.2281408e-05
77	0x3c83b0e9	0.016075568
78	0x3d169c81	0.036770348
79	0x3c83cff8	0.016090378
80	0x3df2a4bf	0.11847829
81	0x3d6c952d	0.057759453
82	0x3ced9684	0.029002436
83	0x3cb5e52b	0.022204002
84	0x3f09496c	0.5362766
85	0x3d802bdc	0.062583655
86	0x3d7465fb	0.05966757
87	0x192ea2d6	9.028474e-24
88	0x3c53dff4	0.012931813
89	0x3e55eee2	0.20891908
90	0x3e43a961	0.19107582
91	0x3d920cc4	0.07131341
92	0x3de5c11a	0.11218472
93	0x3d8d6530	0.069040656
94	0x3dd84f1d	0.10561965
95	0x3db3d0c1	0.08780051
96	0x3d2d9ecf	0.04238778
97	0x3cd960b1	0.026535364
98	0x3d09cf2f	0.03364485
99	0x3d0b2d60	0.03397882
100	0x3d1066a5	0.03525414
101	0x3e2a1c83	0.16612439
102	0x3ddea716	0.10871713
103	0x3da834fa	0.082132295
104	0x00000004	6e-45
105	0x3ea20064	0.31640923
106	0x3cf14f67	0.029456807
107	0x3e3499b8	0.17636764
108	0x3d0270f3	0.031845998
109	0x3d5ce34e	0.053927712
110	0x3e4ca774	0.19985753
111	0x3c571f99	0.013130092
112	0x3cad4d9e	0.021155175
113	0x3dbdd8f1	0.09269894
114	0x3dbab78a	0.091170385
115	0x3df8d3e9	0.12149794
116	0x3bf19370	0.0073723122
117	0x3d166953	0.03672154
118	0x39a1470c	0.00030761247
119	0x3ddbbda1	0.10729528
120	0x3d181cc3	0.037136804
121	0x3ecf7c5c	0.40524566
122	0x3de4eabe	0.11177586
123	0x3d0a6fa7	0.033797886
124	0x3b90171f	0.0043972875
125	0x3e77de4c	0.24205893
126	0x3c609c36	0.013709119
127	0x3ca8164d	0.020518446

bn2.running_var f4 [128]
0	0x3ae5d039	0.0017533369
1	0x36fe488b	7.578235e-06
2	0x3c088bf8	0.008334152
3	0x35818d40	9.652358e-07
4	0x366ffd4d	3.5761216e-06
5	0x3b8bd79a	0.004267645
6	0x3be69fbc	0.007038085
7	0x3b1213c7	0.002228962
8	0x3ba6e659	0.0050933775
9	0x3cccbfc0	0.024993777
10	0x31c05091	5.597095e-09
11	0x3b475afd	0.0030419223
12	0x397defd6	0.00024217306
13	0x3a37c050	0.0007009553
14	0x3bd7f118	0.00659002
15	0x354a0647	7.526e-07
16	0x3a7af4f5	0.00095732446
17	0x3ab5633c	0.0013838778
18	0x3ad92c0d	0.0016568914
19	0x3985a896	0.00025493343
20	0x3aa67232	0.0012698828
21	0x3bf8ae39	0.0075891283
22	0x3a9c87f6	0.0011942375
23	0x3b37d092	0.0028047902
24	0x3a159e8d	0.0005707525
25	0x365b8ae5	3.271439e-06
26	0x3cbc5b11	0.022992643
27	0x3b0de65a	0.0021652193
28	0x3c0128eb	0.007883291
29	0x3aed27c6	0.0018093518
30	0x3be98797	0.0071267593
31	0x3c9dae72	0.019248221
32	0x3cbc169c	0.02296
33	0x39a856a0	0.00032107998
34	0x3b704ead	0.0036667988
35	0x3b151e1a	0.0022753538
36	0x37b36a60	2.1387998e-05
37	0x3aa761b2	0.0012770204
38	0x3b375f54	0.0027980404
39	0x3b6a0939	0.0035711064
40	0x3cfedd1f	0.031111298
41	0x3b2feb61	0.0026843178
42	0x3ba64f27	0.0050753537
43	0x3ae6cbce	0.0017608346
44	0x360b7f85	2.078684e-06
45	0x384bbaeb	4.8573052e-05
46	0x3c964b40	0.018346429
47	0x3b28f686	0.0025781705
48	0x3b925a4e	0.0044663316
49	0x3b4d10c2	0.0031290506
50	0x3b7e8bdd	0.003884069
51	0x3c22c9b6	0.009935787
52	0x3485dfb5	2.493595e-07
53	0x3ac395e8	0.0014921995
54	0x3c292bb2	0.010325359
55	0x39815fa3	0.00024676052
56	0x3b65e3e7	0.0035078467
57	0x3c08f180	0.008358359
58	0x3c10ee23	0.008845839
59	0x3b9c7f62	0.0047759274
60	0x3c150905	0.009096389
61	0x3adc64ad	0.0016814672
62	0x3d47f1e3	0.048814666
63	0x3722dc83	9.707294e-06
64	0x3a1d3aa6	0.0005997814
65	0x3ac85eb5	0.0015287014
66	0x399929eb	0.00029213665
67	0x3b826083	0.0039787902
68	0x3b013096	0.0019712797
69	0x3c2fdf85	0.010734444
70	0x39ce21d3	0.00039316583
71	0x3b9b68e5	0.004742729
72	0x3b6332cc	0.0034667728
73	0x39b66d6e	0.00034795277
74	0x3c96a689	0.018389957
75	0x392ec338	0.00016666658
76	0x366339b6	3.3859228e-06
77	0x3a899590	0.0010496844
78	0x3b5b09a1	0.0033422487
79	0x3aaf6c3b	0.0013383696
80	0x3c8a5fe6	0.016891431
81	0x3b8373ce	0.0040116077
82	0x3b283586	0.0025666668
83	0x3a07dcda	0.0005182751
84	0x3ca7ac77	0.02046798
85	0x3bb52e5a	0.005529207
86	0x3c08cada	0.008349145
87	0x16d231c6	3.3958741e-25
88	0x3aab1001	0.0013051034
89	0x3c9447a3	0.018100565
90	0x3b8def1f	0.004331484
91	0x3c03bc9e	0.008040575
92	0x3c496135	0.012291242
93	0x3c0e5abd	0.008688626
94	0x3c6a5a53	0.014303762
95	0x3bdcc73b	0.0067376173
96	0x3b67b547	0.0035355852
97	0x3b12f4b8	0.0022423696
98	0x3b7b3760	0.0038332567
99	0x3b3d1613	0.0028852269
100	0x3b3f6c13	0.0029208704
101	0x3cbd14ce	0.02308121
102	0x3c6f0f7b	0.014591093
103	0x3c224a1c	0.009905364
104	0x00000004	6e-45
105	0x3c1b190b	0.00946642
106	0x3b9d8c50	0.0048079863
107	0x3cf28f7c	0.029609434
108	0x3ac2fb0a	0.0014875841
109	0x3b518b1f	0.0031973792
110	0x3c8ee668	0.01744385
111	0x3a97fcdf	0.0011595747
112	0x3ab7e632	0.0014030396
113	0x3c660b41	0.014040769
114	0x3c06149c	0.008183625
115	0x3c3a93a9	0.011387744
116	0x3a0cd495	0.00053722534
117	0x3b870c06	0.0041213064
118	0x3819ca64	3.6666534e-05
119	0x3c10cbe6	0.008837676
120	0x3bc0128f	0.0058615874
121	0x3bd4608b	0.0064812354
122	0x3bb62af6	0.0055593206
123	0x3b861d50	0.00409285
124	0x3976e324	0.00023545005
125	0x3af37034	0.0018572868
126	0x39fddfec	0.00048422755
127	0x3aa9a356	0.0012942355

fc2.weight f4 [128, 128]
0	0x3c240fd4	0.010013539
1	0x3dc35b9b	0.09538957
2	0xbc00df9b	-0.007865812
3	0x3d867b82	0.06566526
4	0x3cf6220d	0.030045534
5	0x3d0d3f00	0.03448391
6	0xbc8d619a	-0.017258454
7	0x3e140d21	0.14458133
8	0xbd9cd639	-0.07658047
9	0x3cd05129	0.025429325
10	0xbe1c2787	-0.15249453
11	0xbdbe6b3a	-0.092977956
12	0xbe40d3ea	-0.18830839
13	0xbd274aaa	-0.04084269
14	0xbbfa81c0	-0.007644862
15	0xbdf227a2	-0.118239656
16	0xbc212ae3	-0.009836885
17	0x3cf264a9	0.029589014
18	0x3c7580b3	0.014984298
19	0x3d7db030	0.061935604
20	0x3c437253	0.0119291125
21	0xbda70b72	-0.0815648
22	0xbc966d24	-0.01836259
23	0xbd2faa40	-0.042886972
24	0x3cd99b25	0.026563236
25	0x3da06638	0.07831997
26	0xbb891f47	-0.0041846368
27	0xbcb4b052	-0.022056732
28	0xbe561db2	-0.20909765
29	0xbe098e70	-0.13433242
30	0xbd561202	-0.052263267
31	0x3b2c1c02	0.002626181
32	0xbc1efbb9	-0.00970357
33	0xbb0c7652	-0.002143283
34	0xbe136f1f	-0.14397858
35	0xbc803a7a	-0.015652884
36	0x3cc4e0d6	0.024032991
37	0xbdacb87a	-0.084336236
38	0xbd867a46	-0.065662906
39	0xbc40c7cc	-0.011766385
40	0xbe322dd0	-0.17400289
41	0xbcd04b29	-0.025426464
42	0xbdf3f8cd	-0.11912689
43	0xbe5f9380	-0.2183361
44	0x3d011146	0.031510614
45	0x3ba6a52c	0.005085608
46	0x3d5dfff6	0.05419918
47	0x3d7f9410	0.062397063
48	0xbc704fa4	-0.014667425
49	0x3b792a6a	0.0038019666
50	0xbb9d86ac	-0.004807314
51	0xbc911295	-0.017709056
52	0x3c3f52c3	0.011677447
53	0x3c280a30	0.010256335
54	0x3cf3e45c	0.029771976
55	0x3cc2d9c7	0.023785485
56	0x3d90fdee	0.07079683
57	0x3cf013e0	0.029306352
58	0x3d52c9ff	0.05146217
59	0x3ce46fb5	0.027885297
60	0x3c8ce567	0.017199231
61	0xbe1edec1	-0.15514661
62	0xbd30a28b	-0.043123763
63	0x3c9b5425	0.018961022
64	0xbd88d56d	-0.06681333
65	0xbd8e2b7c	-0.06941888
66	0xbd5921bd	-0.05301069
67	0x3d01e8fc	0.03171633
68	0x3cdbacc3	0.026815778
69	0xbde280d3	-0.110597275
70	0x3db84143	0.08996823
71	0xbd1b1927	-0.037865784
72	0xbd843871	-0.06456078
73	0xbd477103	-0.04869176
74	0x3bd96bb0	0.006635152
75	0x3cae8acd	0.02130642
76	0x3c03e388	0.008049853
77	0xbdc3137b	-0.095252
78	0x3dde9a26	0.10869245
79	0x3da7f143	0.08200314
80	0xbc33b86f	-0.010969265
81	0xbc6bc33b	-0.014389808
82	0xbd19ba8f	-0.03753143
83	0xbcbc16dc	-0.022960119
84	0xbcab40f8	-0.020905003
85	0xbc9aff0f	-0.01892045
86	0xbe1f63e6	-0.15565452
87	0xbd537415	-0.051624376
88	0x3d8a1f24	0.06744221
89	0x3d127b2d	0.035762
90	0xbcd18df8	-0.025580391
91	0xbca26854	-0.019825138
92	0xbd24d3a8	-0.040240914
93	0xbe21b923	-0.1579328
94	0x3d92a5fa	0.07160564
95	0xbddb332f	-0.10703122
96	0x3da25c73	0.079277895
97	0xbbbc03e9	-0.005737771
98	0x3d97ae32	0.07406272
99	0x3d5cfa8c	0.053949878
100	0x3ce4c0da	0.02792399
101	0xbda34741	-0.07972575
102	0xbdd62cec	-0.10457787
103	0x3d23a714	0.03995426
104	0xbdedfa25	-0.11619977
105	0x3dcc9c8f	0.09990799
106	0xbd9eaf04	-0.07748225
107	0xbcb431ea	-0.021996457
108	0xbe0a0fd9	-0.13482608
109	0xbc41bc6f	-0.011824711
110	0x3db70fee	0.08938585
111	0xbd5c67a9	-0.053809796
112	0x3c532bd0	0.012888864
113	0xbc20d305	-0.009815936
114	0x3d701b4a	0.058619775
115	0xbc85e018	-0.016342208
116	0xbd6b08a5	-0.05738129
117	0x3c329a07	0.010900981
118	0x3d2fe471	0.042942468
119	0xbd68354e	-0.05669146
120	0xbe217434	-0.15766984
121	0xbc9d15c8	-0.019175425
122	0xbd104800	-0.035224915
123	0xbcb68701	-0.022281172
124	0x3d898dc0	0.0671649
125	0x3d2fce02	0.042921074
126	0xbd9bd1d1	-0.07608379
127	0x3dda008d	0.10644636
128	0x3c37ab20	0.011210233
129	0x3e1dd5e5	0.15413626
130	0x3cbbcf8d	0.022926116
131	0xbb17d439	-0.0023167266
132	0xbd8fadc2	-0.070155635
133	0x3da4affe	0.0804138
134	0x3cd0eb2c	0.025502764
135	0xbd33181c	-0.043724164
136	0xbdb2424f	-0.087040536
137	0x3c09d16e	0.008411748
138	0x3d30d8c0	0.04317546
139	0x3d9ffb73	0.07811632
140	0xbe25f5b6	-0.16207013
141	0xbe56d9aa	-0.2098147
142	0xbcd84beb	-0.026403388
143	0x3c7bd6c0	0.015371025
144	0xbde1e50a	-0.11030014
145	0xbd88db48	-0.066824496
146	0xbe32156a	-0.17390981
147	0xbc087355	-0.008328279
148	0xbc8c6fbd	-0.017143125
149	0xbcc85654	-0.024455227
150	0x3e0530f4	0.13006955
151	0x3d8b644f	0.06806242
152	0xbdf8adcf	-0.12142526
153	0xbc5d0bdc	-0.013491597
154	0x3d2c3445	0.042042036
155	0xbcf1263a	-0.029437173
156	0xbc544b9d	-0.012957481
157	0xbdae8548	-0.08521515
158	0x3dd39be3	0.103324674
159	0xbc16a3f4	-0.009194363
160	0x3d8a6f67	0.067595296
161	0x3cb661bb	0.022263398
162	0xbe451e30	-0.19249797
163	0xbd4b66a8	-0.049658448
164	0x3c91838b	0.01776292
165	0xbbfba123	-0.007679121
166	0xbe1c8e3b	-0.15288632
167	0xbda0f2d9	-0.078588195
168	0xbd7e8562	-0.062138923
169	0xbd84ddc1	-0.06487609
170	0xbd0933b3	-0.03349657
171	0x3d0f8408	0.035038024
172	0xbd3fae8a	-0.046797313
173	0x3c9da36a	0.019242961
174	0xbc7f228f	-0.015572204
175	0x3d32028c	0.04345946
176	0x3decfa4c	0.11571178
177	0xbd3ffc1b	-0.046871286
178	0x3d91c391	0.071173795
179	0xbdcafca8	-0.099114716
180	0xbd16cfdb	-0.03681932
181	0xbce0486e	-0.027378287
182	0x3dc5946c	0.0964745
183	0xbcb0eedd	-0.021598274
184	0xbd3d337a	-0.04619167
185	0xbd370615	-0.044683535
186	0xbc90f2fe	-0.017693993
187	0xbc9eb1bb	-0.019371858
188	0x3a81a7cf	0.000989193
189	0x3d88eecd	0.06686173
190	0xbdc5a609	-0.09650809
191	0xbd240099	-0.040039632
192	0x3ca45820	0.020061553
193	0xbda3a6a2	-0.07990767
194	0xbd9f9b75	-0.07793323
195	0xbdfb5d80	-0.12273693
196	0xbd767bdb	-0.06017671
197	0xbbb2cc82	-0.005456508
198	0x3d988af0	0.07448375
199	0xbe063913	-0.1310771
200	0xbdb9a0b7	-0.09063857
201	0xbe672919	-0.22574271
202	0xbe1d4ef5	-0.15362151
203	0xbd010134	-0.031495288
204	0x3c033f7c	0.008010741
205	0xbe371818	-0.17880285
206	0xbdac9d62	-0.08428456
207	0x3e0defc1	0.1386099
208	0x3d486a72	0.04892964
209	0xba8628ee	-0.0010235587
210	0x3bf76991	0.0075504263
211	0xbd8dca13	-0.06923308
212	0x3dafa0c3	0.08575585
213	0x3caf9181	0.021431686
214	0xbc683418	-0.014172576
215	0xb9b5bd15	-0.00034663887
216	0xbc0b8080	-0.0085145235
217	0x3c8f5f91	0.017501624
218	0xbc193777	-0.009351603
219	0x3c35c3aa	0.011094013
220	0x3c173445	0.009228771
221	0xbc9873bf	-0.01860988
222	0xbdb102ff	-0.086431496
223	0xbe5afee4	-0.21386296
224	0xbd08e87d	-0.033424843
225	0x3d20f8ce	0.03929978
226	0xbb880072	-0.0041504437
227	0x3d557bcd	0.05212002
228	0x3d817f31	0.06323088
229	0x3b90d13d	0.0044194744
230	0x3dcedbbd	0.101005055
231	0x3cbbea14	0.022938766
232	0xbcc9444a	-0.024568696
233	0xbd36b3ce	-0.04460507
234	0xbd449782	-0.04799605
235	0xbd99d86d	-0.07511983
236	0x3db20ecd	0.08694229
237	0x3e14c42b	0.14527957
238	0x3d60b27e	0.054857723
239	0xbd820a1d	-0.06349585
240	0xbda13fc3	-0.0787349
241	0x3daf7b7e	0.08568476
242	0x3d5be5c9	0.053685937
243	0xbcd162f6	-0.025559884
244	0xbe19e37c	-0.15028185
245	0x3cf70e5e	0.030158218
246	0xbd5fc35c	-0.05462967
247	0x3be1df89	0.0068931025
248	0xbcb0f66a	-0.021601874
249	0xbd02aaff	-0.031901356
250	0x3d369672	0.04457707
251	0xbd54f383	-0.051990043
252	0x3c4caa8a	0.012491832
253	0x3de1914d	0.11014042
254	0xbd1041c8	-0.035218984
255	0x3d1bdd21	0.03805268

fc2.bias f4 [128]
0	0xbd230c85	-0.03980686
1	0x3c38f8dd	0.011289802
2	0x3e4c612b	0.19958942
3	0x3c874fb1	0.016517492
4	0xbd827ae1	-0.063710935
5	0xbd9ea664	-0.0774658
6	0xbd95fea5	-0.0732396
7	0xbe132120	-0.14368105
8	0xbe100db3	-0.14067726
9	0xbdbbb12f	-0.091646545
10	0xbd302d68	-0.043012053
11	0x3cc63fbc	0.024200313
12	0xbd3240dc	-0.043518886
13	0x3d480e03	0.048841488
14	0x3d4f04d8	0.05054173
15	0xbe40bd68	-0.18822253
16	0xbd97323d	-0.07382629
17	0x3b0a9b66	0.0021149754
18	0xbd5fb4f6	-0.054615937
19	0xbdfc4335	-0.12317506
20	0xbe5ffe2f	-0.21874307
21	0xbe10360b	-0.14083116
22	0x3eb1f8b9	0.34760073
23	0xbc2ef1d1	-0.010677771
24	0xbde78048	-0.113037646
25	0x3e032e50	0.12810636
26	0x3e070750	0.13186383
27	0xbe06a000	-0.13146973
28	0xbdf7c98a	-0.120989874
29	0xbceff3c6	-0.029291045
30	0x3d010939	0.031502936
31	0x3cff18d9	0.031139778
32	0xbd423e5a	-0.047422744
33	0xbd11054f	-0.035405453
34	0xbe16b2b8	-0.14716613
35	0x3d333b96	0.043757997
36	0xbbd71181	-0.006563366
37	0xbe119a76	-0.14219078
38	0xbcd00363	-0.02539224
39	0xbde0cfd7	-0.10977142
40	0x3c4da600	0.0125517845
41	0xbdc8f5a6	-0.09812479
42	0xbd9771cc	-0.07394752
43	0x3b1b3c21	0.0023686963
44	0xbd3771f2	-0.0447864
45	0x3c430a5e	0.011904327
46	0xbdcb4bad	-0.099265434
47	0xbd2b312d	-0.041794945
48	0x3e6b20f5	0.22961791
49	0xbdf1ab5a	-0.11800261
50	0x3dc5f0ee	0.09665094
51	0xbe12341c	-0.1427769
52	0xbcd7ae8f	-0.026328353
53	0xbdcba2cf	-0.09943163
54	0x3e14f198	0.14545286
55	0xbdf317f3	-0.11869802
56	0xbe1a3cca	-0.15062252
57	0xbdfedf01	-0.12444878
58	0xbdd867e0	-0.105666876
59	0x3bdc5af0	0.006724708
60	0xbd6834b0	-0.05669087
61	0x3d798c53	0.06092484
62	0xbd6690d0	-0.056290448
63	0xbdd111c9	-0.102084704
64	0x3cbd001d	0.023071343
65	0xbe0f2b67	-0.139814
66	0xbd8b9b54	-0.06816736
67	0xbd845d34	-0.064630896
68	0xbddfdb2f	-0.10930478
69	0xbdd093f6	-0.10184471
70	0xbda1e501	-0.07905007
71	0xbd8fb270	-0.07016456
72	0xbd904836	-0.07045023
73	0xbc33f539	-0.010983759
74	0x3c71a39d	0.014748481
75	0xbe23fd0e	-0.16014501
76	0xbc6267c9	-0.01381869
77	0xbab36fc0	-0.001368992
78	0xbdd119ff	-0.102100365
79	0xbde4dfba	-0.11175485
80	0xbe033eb8	-0.12816894
81	0xbe1231ef	-0.1427686
82	0xbdd44457	-0.10364597
83	0xbe3a667c	-0.18203157
84	0xbdeb8c0a	-0.1150132
85	0xbdce8761	-0.10084415
86	0xbd20f6d0	-0.03929788
87	0xbe1f6fe1	-0.15570022
88	0xbddbe704	-0.10737422
89	0x3dd557da	0.10417147
90	0xbd9f1be7	-0.07768994
91	0xbd1f3ed1	-0.038878266
92	0x3a76f363	0.0009420423
93	0x3cc0ba08	0.023526207
94	0x3d8079c1	0.06273223
95	0xbd485d03	-0.048916828
96	0xbdf3cc83	-0.11904242
97	0xbd84386c	-0.06456074
98	0xbe2eef08	-0.1708337
99	0x3d82fa19	0.063953586
100	0xbdba5a6a	-0.09099276
101	0xbceb5761	-0.028728189
102	0xbdd18847	-0.10231071
103	0xbe267a8b	-0.16257684
104	0xbd31e67f	-0.04343271
105	0xbb13ba28	-0.0022541378
106	0xbe2207de	-0.15823314
107	0x3d6796a2	0.05654014
108	0x3dea48b9	0.11439652
109	0xbd27bc9c	-0.040951356
110	0xbd006589	-0.03134683
111	0xbe1fd82f	-0.15609811
112	0xbdbc3069	-0.09188921
113	0xbd5e56cc	-0.054281995
114	0xbb442caa	-0.0029933848
115	0xbd86e7a0	-0.06587148
116	0x3c7af2a1	0.015316636
117	0xbdc21bf7	-0.0947799
118	0xbcc9702b	-0.024589619
119	0xbe329e6f	-0.1744325
120	0xbd9e5908	-0.07731825
121	0xbdc361e9	-0.09540159
122	0xbda4bed6	-0.080442116
123	0x3e5e6d8d	0.21721478
124	0xbe2db3f9	-0.16963185
125	0x3c5984a3	0.013276252
126	0xbd87bec2	-0.06628181
127	0xbda3ab5e	-0.0799167

bn3.weight f4 [128]
0	0x3f73ed56	0.9528402
1	0x3fae32b8	1.3609228
2	0x3f8e49be	1.1116254
3	0x3facb987	1.3494118
4	0x3fa3f1b1	1.2808133
5	0x3f554d25	0.8332084
6	0x3faf51c2	1.3696826
7	0x3f69fcb3	0.91401213
8	0x3f86dbb0	1.0535793
9	0x3f7b60f0	0.9819479
10	0x3f911f92	1.133776
11	0x3f70547f	0.9387893
12	0x3faa071d	1.3283421
13	0x3fa9aa1c	1.3255038
14	0x3f8ec412	1.1153586
15	0x3f5cd788	0.86266375
16	0x3f59b420	0.85040474
17	0x3f884d97	1.0648679
18	0x3f6e73ae	0.93145263
19	0x3f904082	1.1269686
20	0x3f3607a7	0.71105427
21	0x3fa78013	1.308596
22	0x3f3c0f64	0.73460984
23	0x3f5a8cb6	0.8537096
24	0x3f851bd7	1.0399121
25	0x3f955842	1.1667559
26	0x3faad0b9	1.3344947
27	0x3f20ad06	0.6276401
28	0x3fabffe4	1.3437467
29	0x3f8e0b48	1.1097193
30	0x3fa2b334	1.2710938
31	0x3f78c6ed	0.97178537
32	0x3f3e62e8	0.7436967
33	0x3f1a4da3	0.60274714
34	0x3fa144d4	1.259913
35	0x3f41c666	0.75693357
36	0x3fa564b0	1.2921352
37	0x3f81b9c8	1.0134821
38	0x3f970c27	1.1800584
39	0x3f7302f2	0.9492637
40	0x3f2e4cfc	0.6808622
41	0x3fa28bdb	1.269893
42	0x3f200feb	0.6252429
43	0x3f56f5be	0.8396872
44	0x3fa6ef0a	1.3041699
45	0x3f7d4e77	0.9894785
46	0x3f8995e4	1.0748868
47	0x3f4126c0	0.7544975
48	0x3f931193	1.1489738
49	0x3f336170	0.7007055
50	0x3f832073	1.0244278
51	0x3fb4bdd8	1.4120436
52	0x3f2af813	0.6678478
53	0x3f6cc06a	0.924811
54	0x3f8dfd1a	1.1092865
55	0x3f4fdf9b	0.8120057
56	0x3fa12c5a	1.259166
57	0x3f9269ed	1.1438576
58	0x3f9eaac5	1.2395865
59	0x3f64bf06	0.8935398
60	0x3f9ba69a	1.2160218
61	0x3f921818	1.1413603
62	0x3f7657bc	0.9622762
63	0x3f397ab0	0.7245283
64	0x3f8dcaf0	1.1077557
65	0x3fadb1cf	1.3569888
66	0x3fa9290d	1.3215653
67	0x3fa3f726	1.2809799
68	0x3f8b648e	1.0890062
69	0x3f76b658	0.96371984
70	0x3f8a0ceb	1.0785192
71	0x3f2b65b1	0.66952044
72	0x3f882536	1.0636356
73	0x3fa4224c	1.2822967
74	0x3f91014d	1.1328522
75	0x3fad5007	1.3540047
76	0x3f8879bb	1.0662149
77	0x3f9486f7	1.1603688
78	0x3f299b16	0.6625227
79	0x3f69f00a	0.91381896
80	0x3f914cd1	1.1351568
81	0x3f535433	0.8255035
82	0x3f3777f7	0.71667427
83	0x3f655bc9	0.8959318
84	0x3fa58ab3	1.2932953
85	0x3f5e5b5f	0.8685817
86	0x3f4599e4	0.77187943
87	0x3f745618	0.9544387
88	0x3f3f38ed	0.74696237
89	0x3f84e26b	1.0381597
90	0x3f701a2a	0.93789923
91	0x3f4b5c21	0.7943745
92	0x3f2f278b	0.6841971
93	0x3f9686cb	1.1759886
94	0x3fabd652	1.342478
95	0x3fae203c	1.3603587
96	0x3fa20c7b	1.2660059
97	0x3f838ae2	1.0276759
98	0x3f39bcc8	0.7255368
99	0x3f8dda0b	1.1082166
100	0x3fad80a1	1.355488
101	0x3f3628d1	0.7115603
102	0x3f2a6052	0.66553223
103	0x3f7a2e27	0.9772667
104	0x3fa33b9c	1.2752566
105	0x3fc70399	1.5547973
106	0x3f9a4158	1.2051191
107	0x3fb2c686	1.3966835
108	0x3f586d7b	0.84542054
109	0x3f90367d	1.1266629
110	0x3f80a122	1.0049174
111	0x3f4b0c33	0.7931549
112	0x3f49af11	0.78782755
113	0x3f44d79d	0.768915
114	0x3f5a096b	0.8517062
115	0x3f90bd37	1.1307744
116	0x3f75064e	0.95712745
117	0x3f313d86	0.692345
118	0x3f5d8421	0.8652974
119	0x3fa24059	1.2675887
120	0x3f8fa8d2	1.1223395
121	0x3f872eb3	1.0561126
122	0x3f612807	0.879517
123	0x3f9a4232	1.2051451
124	0x3fa65c6a	1.2996953
125	0x3fa4ef94	1.2885613
126	0x3f651e7b	0.89499635
127	0x3fa23af8	1.2674246

bn3.bias f4 [128]
0	0x3d5191b0	0.05116433
1	0x3d0ea39c	0.034824
2	0x3d808a10	0.06276333
3	0x3dc51ce1	0.09624649
4	0xbd1fe788	-0.039039165
5	0xbd046f04	-0.032332435
6	0x3d3f796b	0.046746653
7	0xbcf1b87b	-0.029506912
8	0xbd1f74ca	-0.038929738
9	0xbd3f4690	-0.046698153
10	0xbb8392b2	-0.00401529
11	0x3cda6732	0.026660535
12	0x3e0c9b53	0.13731126
13	0x3c06da40	0.008230746
14	0xbc14cca2	-0.009081991
15	0x3b175950	0.0023094006
16	0xbccf8ade	-0.025334772
17	0xbc875e39	-0.016524421
18	0xbcc324dc	-0.023821287
19	0x3d89c56a	0.06727107
20	0x3d98ff9d	0.07470629
21	0x3e24d21e	0.16095778
22	0x3c8f2877	0.01747535
23	0x3d194ef5	0.037428815
24	0xbbc10ef5	-0.0058916756
25	0x3c613b31	0.0137470225
26	0xbd4acae0	-0.049509883
27	0xbd869e3d	-0.0657315
28	0x3da49f69	0.080382176
29	0x3d829b02	0.06377222
30	0x3be58684	0.007004561
31	0xbccbcce7	-0.024877978
32	0xbbb95fe2	-0.005657182
33	0xba562162	-0.00081684266
34	0xba7122b4	-0.00091985916
35	0xbd85bb19	-0.06529827
36	0x3d32c086	0.043640636
37	0x3a930f3c	0.001121975
38	0x3ccb59db	0.02482312
39	0x3d2366db	0.039893012
40	0xbdb33eb7	-0.08752196
41	0xbddc3e3a	-0.10754056
42	0xbdd06c71	-0.101769336
43	0xbb1466ba	-0.0022644238
44	0x3d8f3fad	0.06994567
45	0x3d093a3d	0.033502806
46	0x3cfecb9a	0.031102944
47	0x3c8a695c	0.016895942
48	0x3c1aa5ae	0.009438915
49	0xba7bb40a	-0.0009601718
50	0xbd9ec4f5	-0.0775241
51	0x3db5b7a8	0.0887292
52	0xbe44f8ff	-0.1923561
53	0x3d674dc4	0.056470647
54	0xbb3cc459	-0.0028803556
55	0xbb0d2723	-0.002153822
56	0x3ca345da	0.019930769
57	0x3dc5f80e	0.09666453
58	0x3b813e6a	0.003944208
59	0x3c91b733	0.017787552
60	0x3d857fa6	0.06518488
61	0xbd5e9927	-0.054345276
62	0x3d6a8eaf	0.05726498
63	0x3b95ef42	0.004575641
64	0x3dda0e04	0.106472045
65	0x3da70daa	0.08156903
66	0x3d463a72	0.04839558
67	0x3c2046ed	0.009782535
68	0xbd34bf51	-0.044127766
69	0x3e0b83f0	0.13624549
70	0xbbc2561b	-0.0059306747
71	0xbd0eedb8	-0.034894675
72	0x3d8e802b	0.0695804
73	0xbda02f33	-0.078215025
74	0xbd356a26	-0.044290684
75	0x3c7c83c3	0.015412274
76	0x3bf9eaa9	0.0076268506
77	0xbda47369	-0.08029825
78	0x3dd44fbb	0.1036677
79	0xbd9df798	-0.077132404
80	0x3d95cce5	0.07314471
81	0xbb228d6d	-0.0024803535
82	0x3da16243	0.0788007
83	0x3ce1c6bf	0.02756059
84	0x3d933598	0.071879566
85	0xbc34abfb	-0.011027331
86	0xbd50ebb9	-0.051006053
87	0xbd675325	-0.056475777
88	0x3d00c265	0.03143539
89	0xbd94c2aa	-0.07263692
90	0x3d83e2e7	0.064397626
91	0x3e355db7	0.1771153
92	0x3d64d7ae	0.05586975
93	0x3df5660d	0.11982355
94	0x3d1f3153	0.0388654
95	0xbd19c398	-0.03754005
96	0xbd967022	-0.073456064
97	0x3bb0c465	0.005394506
98	0x3da69cb3	0.08135357
99	0xbcb955d5	-0.022623936
100	0x3cd2b3ba	0.025720466
101	0xbd96ad2a	-0.07357247
102	0xba778fa8	-0.00094437087
103	0x3d5746d6	0.05255779
104	0x3c6ed2c3	0.014576617
105	0xbe04e8b3	-0.12979393
106	0xbddba97e	-0.107256874
107	0xbd1a7786	-0.037711643
108	0xbd018854	-0.031624153
109	0x3d9f6c93	0.07784381
110	0x3da9c19e	0.08288883
111	0xbb9f276a	-0.0048569934
112	0x3c020f01	0.0079381475
113	0x3e4636fc	0.19356912
114	0x3e39c5eb	0.18141906
115	0x3d0b48f1	0.03400511
116	0xbe21823f	-0.15772341
117	0x3c8f3304	0.01748038
118	0x3bff5e56	0.007793228
119	0x3cd1cb7c	0.025609724
120	0xbd558d63	-0.05213679
121	0xbd090621	-0.03345311
122	0x3e5b7d5b	0.21434538
123	0xbcd6645f	-0.026170908
124	0x3d621799	0.055198286
125	0x3da37921	0.07982088
126	0x3e33d168	0.17560351
127	0x3c99f106	0.018791687

bn3.running_mean f4 [128]
0	0x395097d4	0.00019892986
1	0x3e12a329	0.14320053
2	0x3f89a286	1.0752723
3	0x3d590b5b	0.052989345
4	0x3c671be9	0.014105775
5	0x381a68d1	3.681408e-05
6	0x3c58c8d3	0.013231474
7	0x39f48508	0.00046638423
8	0x376153b5	1.3430535e-05
9	0x3b89ab06	0.004201296
10	0x3a533ba6	0.00080578995
11	0x3e4418fa	0.19150153
12	0x3e27bbc3	0.16380219
13	0x3cc50512	0.02405027
14	0x3d57823a	0.052614428
15	0x380d13ff	3.3635642e-05
16	0x38c1cc46	9.241006e-05
17	0x3ebc6dc4	0.36802495
18	0x3d4efa47	0.05053165
19	0x3a98f222	0.0011668841
20	0x38ba6d05	8.8894776e-05
21	0x3c2da221	0.010597737
22	0x3f8ae029	1.0849658
23	0x3dbbf3ee	0.09177385
24	0x3a82d61c	0.0009982022
25	0x3f2b5d8f	0.66939634
26	0x3e62a281	0.22132303
27	0x3bfa2008	0.007633213
28	0x3aa835ae	0.0012833381
29	0x3d02ed54	0.031964615
30	0x3d9dfa31	0.07713736
31	0x3d871786	0.065962836
32	0x3c1631e3	0.009167167
33	0x3ce34b66	0.027745914
34	0x3c476303	0.012169602
35	0x3e0bab10	0.13639474
36	0x3bb3b35d	0.0054840283
37	0x3911bb5d	0.00013898076
38	0x3c97790d	0.018490339
39	0x3a2c294a	0.0006567432
40	0x3e62138d	0.2207777
41	0x3a598157	0.0008297166
42	0x39025e2e	0.00012432851
43	0x3daef06a	0.08541949
44	0x3d5531a8	0.05204931
45	0x3b7df306	0.003874959
46	0x3c80f843	0.01574338
47	0x3d3bdc38	0.045864314
48	0x3f71bc04	0.94427514
49	0x3882f9a1	6.24538e-05
50	0x3e933b56	0.28756207
51	0x3c1b4cb2	0.009478735
52	0x3ce9b6c2	0.028529529
53	0x3cdf40bb	0.027252546
54	0x3f096a04	0.5367739
55	0x3a46ae7b	0.00075791
56	0x39ecb57d	0.00045148647
57	0x3d9e4e14	0.07729736
58	0x395dbea5	0.00021147223
59	0x3d0f0c1b	0.034923654
60	0x3d3e0d64	0.04639949
61	0x3d3ff0ec	0.04686062
62	0x3d41594a	0.047204293
63	0x3d1c55f1	0.038167898
64	0x3d3fabe7	0.0467948
65	0x39184b68	0.0001452394
66	0x3bb2109d	0.0054341094
67	0x00000004	6e-45
68	0x36ea3e36	6.9809857e-06
69	0x3c0de665	0.008660887
70	0x3c664ece	0.014056874
71	0x3b9f5a83	0.0048630848
72	0x3dcb658a	0.099314764
73	0x3d319bad	0.043361355
74	0x3e354fec	0.17706269
75	0x3c5577e0	0.013029069
76	0x3b544980	0.0032392442
77	0x3e03808a	0.12842003
78	0x3b1a194a	0.0023513609
79	0x3ccbabbd	0.024862165
80	0x38864eb0	6.4042746e-05
81	0x3973022e	0.00023175098
82	0x3df84490	0.12122452
83	0x3a990603	0.0011674765
84	0x3c40ee5c	0.011775579
85	0x3e096866	0.13418731
86	0x3cd67b96	0.026181977
87	0x1d6a75ff	3.1030645e-21
88	0x00000004	6e-45
89	0x3f1952d1	0.5989199
90	0x3cd06109	0.025436895
91	0x3cd55df1	0.026045771
92	0x3e157bac	0.14597958
93	0x3de1cfed	0.11025987
94	0x3f05e14d	0.52296907
95	0x3e9e0a24	0.30867112
96	0x35ef3b3e	1.7824129e-06
97	0x3c84059a	0.016115952
98	0x3a7587f4	0.0009366267
99	0x3eebb6fd	0.46038046
100	0x3d6109d2	0.054941006
101	0x3deeb5b0	0.11655748
102	0x3bc09a7d	0.0058777914
103	0x3a46d702	0.0007585139
104	0x3aa4e523	0.0012580495
105	0x3d6fe462	0.058567412
106	0x3c1ecd11	0.009692446
107	0x3d82c52c	0.06385264
108	0x3f52bbf2	0.8231803
109	0x3dd4c3c7	0.10388904
110	0x3c18d10a	0.009327183
111	0x3d1244dd	0.035710204
112	0x3bd67c7c	0.0065456014
113	0x3ada70dc	0.0016665715
114	0x3ca9997a	0.020703066
115	0x3da1e3a0	0.07904744
116	0x3e07115a	0.13190213
117	0x398a4b06	0.00026377308
118	0x3da2ec9b	0.07955285
119	0x38832bc8	6.254722e-05
120	0x3c900564	0.017580695
121	0x3caf8753	0.021426832
122	0x3cdffbf2	0.027341817
123	0x3f98c115	1.1933924
124	0x370a0b4b	8.22807e-06
125	0x3cef691f	0.02922493
126	0x3cd1aae6	0.025594186
127	0x3c054efe	0.008136509

bn3.running_var f4 [128]
0	0x38e4037d	0.00010872537
1	0x3d9681fc	0.07349011
2	0x3e18ff11	0.1494105
3	0x3c9a6c91	0.018850597
4	0x3bc1e530	0.005917214
5	0x37061e5e	7.994093e-06
6	0x3b092556	0.0020926795
7	0x396f1b9d	0.00022803103
8	0x3627da88	2.501214e-06
9	0x3a10c127	0.0005521946
10	0x39cd7165	0.00039185132
11	0x3dd107ef	0.10206591
12	0x3d4afcc0	0.049557447
13	0x3c2929c4	0.010324899
14	0x3c647aea	0.013945321
15	0x3781772d	1.5433494e-05
16	0x378f518c	1.7084902e-05
17	0x3e2bf92a	0.16794267
18	0x3c716baf	0.014735146
19	0x3a66a4ca	0.0008798359
20	0x3885566c	6.3580315e-05
21	0x3b46cc27	0.0030334087
22	0x3dc9c031	0.09851111
23	0x3cc866c7	0.02446307
24	0x3a0d05ef	0.00053796073
25	0x3e58c1b2	0.21167639
26	0x3d971245	0.073765315
27	0x3bd6bd7b	0.0065533496
28	0x3a6822e8	0.0008855299
29	0x3c3f8c9d	0.01169124
30	0x3cca242a	0.024675447
31	0x3c96f820	0.018428862
32	0x3b9cca86	0.004784885
33	0x3bfd6bac	0.0077337828
34	0x3ba32dad	0.00497981
35	0x3d3c8dcf	0.046033677
36	0x3b52f219	0.0032187758
37	0x39109249	0.00013787406
38	0x3bb8b227	0.005636472
39	0x3a27119a	0.0006373167
40	0x3db57c91	0.0886165
41	0x39fdf13c	0.00048435654
42	0x38a87849	8.033269e-05
43	0x3cf2f744	0.029658921
44	0x3d1031bf	0.03520369
45	0x3a13120f	0.0005610296
46	0x3b449779	0.0029997511
47	0x3d100d39	0.03516886
48	0x3ed92a49	0.42415074
49	0x378cd94b	1.6790485e-05
50	0x3dd9c283	0.10632803
51	0x3c4ad3b1	0.012379573
52	0x3c151e57	0.009101472
53	0x3bf9f305	0.007627847
54	0x3e3f4336	0.18677983
55	0x3a4523a8	0.0007520267
56	0x3947ffad	0.00019073366
57	0x3cdaf082	0.026726011
58	0x392ea86d	0.00016656677
59	0x3c8bbbcd	0.017057324
60	0x3c34c426	0.011033094
61	0x3c612bab	0.013743321
62	0x3c8cfa18	0.017209098
63	0x3c3d2b80	0.011546016
64	0x3cc054c9	0.023477929
65	0x382c405c	4.1067935e-05
66	0x3bca1620	0.0061671883
67	0x00000004	6e-45
68	0x3601956f	1.930948e-06
69	0x3b833593	0.0040041893
70	0x3c9e12d6	0.019296091
71	0x3b8e8c93	0.004350254
72	0x3ce86b83	0.028371578
73	0x3c77d65a	0.015126789
74	0x3d84c2f2	0.06482495
75	0x3c817c8f	0.015806464
76	0x3a16690a	0.0005737698
77	0x3d84729b	0.06467172
78	0x3a852d92	0.0010160676
79	0x3c212d16	0.0098374095
80	0x386cdc4c	5.6471952e-05
81	0x3889ee07	6.577005e-05
82	0x3d1e9ea9	0.03872553
83	0x3a40d1ec	0.00073554995
84	0x3c8a4cb6	0.016882282
85	0x3d46cad7	0.048533287
86	0x3d0b1a6b	0.03396074
87	0x1b4a7327	1.6746256e-22
88	0x00000004	6e-45
89	0x3e57a44f	0.21058773
90	0x3c00a2a4	0.007851277
91	0x3d016eae	0.031599693
92	0x3d6bd38f	0.057574805
93	0x3ce77123	0.02825219
94	0x3e9d52d3	0.30727252
95	0x3e005990	0.12534165
96	0x356108d3	8.383187e-07
97	0x3b55df16	0.003263419
98	0x3a0b4341	0.0005312451
99	0x3e60525e	0.2190642
100	0x3ccd4b52	0.02506033
101	0x3cf9edfc	0.030508988
102	0x3ace57e2	0.0015742744
103	0x39e66b99	0.00043949185
104	0x3a78f495	0.0009496895
105	0x3c9074bd	0.01763379
106	0x3c78246e	0.015145404
107	0x3cb6404c	0.022247456
108	0x3edb63f8	0.42849708
109	0x3d2b55ae	0.041829757
110	0x3b372952	0.0027948213
111	0x3c8a2dc1	0.01686752
112	0x3bf522c8	0.007480953
113	0x3a966a9d	0.0011475865
114	0x3b85b36c	0.0040802266
115	0x3d0a7a56	0.033808075
116	0x3d4eeaf3	0.050517034
117	0x392c02a3	0.0001640418
118	0x3ce55855	0.027996222
119	0x3860c40f	5.3588356e-05
120	0x3c2b2a9b	0.01044717
121	0x3bdcf02c	0.006742498
122	0x3c613d4b	0.013747524
123	0x3e5ebc4c	0.21751517
124	0x357a5c92	9.3266965e-07
125	0x3c144447	0.009049482
126	0x3bddadf0	0.0067651197
127	0x3ac04c0d	0.0014671102
