mode_weights/agent18_actor_target.pth (torch_old, 93021 bytes, 18 tensors)

bn1.weight f4 [33]
000000 5c 18 f4 3e ea 8d 0e 3f 09 20 9f 3e 33 65 9f 3b
       0.47674835 0.55685294 0.31079128 0.004864359
000010 12 d8 41 3d 6c f1 66 3d 96 6c 42 3d 68 17 4f 3e
       0.0473252 0.05638258 0.047466837 0.20223773
000020 16 0d c5 3d e4 d2 1d 3e f3 aa 0f 3e 7b be 38 3e
       0.096216366 0.1541248 0.14030056 0.18041413
000030 44 0b 8f 3d e0 f9 0d 3f b8 03 e7 3e 73 19 38 3f
       0.069845706 0.55459404 0.45120025 0.7191383
000040 c8 3e 6b 3d 4a b5 63 3d b4 22 33 3c d6 11 17 3d
       0.05743292 0.055592813 0.010933567 0.036882244
000050 e1 6c 89 3e 8b 7b 97 3e 26 c6 fd 3d 34 ba 30 3f
       0.2684088 0.29586443 0.123913094 0.69034123
000060 dd 2a a3 3e ff b8 e2 3e 1b b8 82 3f 90 21 14 3d
       0.3186864 0.44281766 1.0212435 0.03616482
000070 97 c8 04 3f 90 30 bf 3e 12 36 9c 3e 94 97 6e 3f
       0.51868576 0.37341738 0.30510002 0.9320004
000080 c9 c6 aa 3e
       0.33354786

bn1.bias f4 [33]
000000 04 2d f4 3c c5 1d 0c be 84 e2 c1 bd 72 9d c5 3d
       0.029806621 -0.13683231 -0.094670326 0.09649171
000010 f7 20 b3 bc a8 3c d5 3c 9a b7 00 3e e0 b9 81 be
       -0.021866305 0.0260299 0.12570038 -0.25337124
000020 a2 69 6b bc e2 13 eb 3b 7d 77 9f bd 2b 63 23 be
       -0.014368447 0.007174001 -0.077864625 -0.15955798
000030 a0 57 f0 3d 2f 75 9d bd 07 ed dd bd 16 ea 0d 3d
       0.11735463 -0.076883666 -0.10836225 0.03464707
000040 9e 46 80 bd 47 a3 83 3c 6d 4f 19 3e f1 35 13 bd
       -0.06263469 0.016069068 0.14971705 -0.035940114
000050 e9 d6 af bd 3c 91 4c bd 5e 22 a5 3c ff 41 f2 bc
       -0.08585913 -0.049943194 0.02015799 -0.029572485
000060 90 7e f7 bd ed 54 02 3d 4a 30 21 3d 20 29 0d 3e
       -0.12084687 0.031819273 0.039352693 0.13785219
000070 41 bd b4 bb 89 d8 64 3e 72 e1 30 be f3 9d 50 be
       -0.005515725 0.22348227 -0.172735 -0.20372753
000080 3c d6 a3 ba
       -0.001249976

bn1.running_mean f4 [33]
000000 4a 04 2e 3f 8c d3 1e c0 08 f1 b4 be 95 ca 59 3f
       0.67975295 -2.4816618 -0.35340142 0.8507474
000010 9d 83 a7 3d 87 a2 66 3c 0c 79 5c bd 01 56 09 3c
       0.081794 0.0140768355 -0.053826377 0.008382321
000020 d8 bd a9 3b 57 e0 f8 3b 64 1e 96 3c e3 89 a6 3c
       0.005180102 0.007595103 0.018325038 0.020329421
000030 9d 58 dc bc b6 c8 ed 3e 9a 53 25 c0 f5 eb 59 bd
       -0.026897723 0.46442193 -2.5832276 -0.05320354
000040 bb e7 2b 3c e5 8f 34 bb 98 ab 6e bb e7 b5 8f bc
       0.010492261 -0.0027551588 -0.0036418196 -0.017542792
000050 23 c8 e2 3d 84 19 96 3c 7d 80 4f 3d 5d 1b 1a 3d
       0.11073329 0.018322714 0.050659645 0.037623752
000060 7f 9e 33 3e 21 9c 1c bd 78 16 bc 3b fc ff 7f bf
       0.1754093 -0.038234834 0.005739983 -0.99999976
000070 e2 75 e3 3d 00 00 00 00 fc ff 7f 3f 00 00 00 00
       0.11106469 0.0 0.99999976 0.0
000080 32 4e cc 38
       9.742043e-05

bn1.running_var f4 [33]
000000 74 b4 80 40 4f f2 0b 3f 16 8a 98 40 74 4e 6a 3d
       4.022028 0.5466661 4.766856 0.057203725
000010 29 02 8a 3d c9 78 f5 3c d9 df e5 3d b7 9f bb 3e
       0.06738693 0.029964821 0.11224336 0.3664529
000020 6d 94 8f 3d 75 83 ed 3d 82 6e 15 40 29 6b ad 3f
       0.07010732 0.11597339 2.3348699 1.3548328
000030 81 63 23 40 97 e0 98 41 0f 60 cb 3f d1 98 af 41
       2.5529482 19.109663 1.588869 21.949617
000040 d4 0a e0 3d 04 63 88 3e db c0 c5 3d cc 2d 07 3f
       0.10939565 0.26638043 0.09655925 0.52804255
000050 17 3a 1c 40 c5 07 33 3f c6 02 6b 3f bd 39 02 41
       2.4410455 0.6993373 0.91801107 8.139096
000060 e8 a1 86 40 bb ee 07 41 62 dd fa 41 04 00 00 00
       4.207264 8.495784 31.358097 6e-45
000070 cc f5 02 42 04 00 00 00 04 00 00 00 04 00 00 00
       32.740036 6e-45 6e-45 6e-45
000080 d7 59 b0 3e
       0.34443542

fc1.weight f4 [128, 33]
000000 a9 92 1a bd 93 5c 12 bd 72 d8 e9 3d 6b 3f f2 bb
       -0.037737522 -0.035732817 0.11418237 -0.007392814
000010 c2 57 9c 3d 5f 59 25 bd ba ae 3f 3d 69 f0 14 be
       0.07633926 -0.040368434 0.04679749 -0.14544834
000020 3d 04 0c 3e c9 10 4c 3d 9e 49 d6 bc 88 8c 8a 3d
       0.13673492 0.049820695 -0.02615815 0.067650855
000030 7a 32 25 3e d9 d8 16 bd 55 0a 59 bc 25 99 4a 3c
       0.16132537 -0.036827896 -0.013247092 0.012365614
000040 89 72 ae bd a3 3c 20 bc b8 17 cd 3d 57 3b 5a bd
       -0.085179396 -0.009780082 0.100142896 -0.053279247
000050 50 67 5d bd c5 a9 c8 3b 53 77 ee bc 8b d1 8e bd
       -0.054053605 0.0061237537 -0.029109633 -0.06973561
000060 72 a8 5c bd 43 b4 62 3d b3 91 61 3d 8d 22 69 3d
       -0.05387158 0.055347692 0.05507059 0.056917716
000070 c2 d6 da 3d b3 1e 96 38 61 63 f6 bd 50 f3 05 bd
       0.10685493 7.1582755e-05 -0.12030674 -0.032702744
000080 94 6f f4 3d e4 48 a3 3d 24 a3 69 3d 89 5b dc 3c
       0.11935344 0.07972887 0.05704035 0.026899116
000090 0d 0c 0c bd c0 a3 9d 3d a7 af 83 3d 95 71 b5 bc
       -0.03419118 0.076972485 0.064299874 -0.022148887
0000a0 0e 61 1e bb f5 7b 69 3c c6 46 ac 3c bb 26 4b bd
       -0.0024166736 0.014250745 0.021029841 -0.049597483
0000b0 9f a6 d4 3c 01 cc e7 3d f9 65 fd bd 8b 9c 9c bd
       0.025958357 0.113182075 -0.12372965 -0.07647046
0000c0 9d c1 55 3b 7d 83 cb bb 22 b1 11 bc 46 b0 b8 bd
       0.0032616623 -0.006210743 -0.008892329 -0.090179965
0000d0 0c 94 3f 3d f7 ac c6 3d ab a9 cd 3b 4e d3 b4 3d
       0.046772048 0.09700959 0.0062763295 0.08829366
0000e0 ca c1 2f 3c 30 01 92 bd c4 42 9d bd 3b ba 02 be
       0.010727355 -0.07129133 -0.0767875 -0.12766354
0000f0 f7 09 ad bd 31 fd 44 bd bb 53 a8 bd a9 e0 33 3e
       -0.08449166 -0.048093025 -0.08219095 0.1756617
000100 f1 6a 76 3d 32 01 b7 bc 9a a9 b9 3d 43 3d 65 bc
       0.06016058 -0.022339437 0.09065552 -0.013991657
000110 6f 5d 49 be cd 84 86 bd 69 b2 bc 3d 06 8a 86 3d
       -0.19664548 -0.065682985 0.092137165 0.06569295
000120 85 00 36 bc ad 4a 01 3d 16 09 6e 3c 16 8c a8 bb
       -0.011108522 0.031565357 0.014528533 -0.0051436527
000130 a3 b8 59 bd ce c3 90 bd a1 b6 cb bd 46 06 b6 bc
       -0.0531546 -0.07068597 -0.09946943 -0.022219788
000140 38 d4 33 3b 5d 6a 81 bd ad 57 40 3d ee fb 29 3c
       0.0027439725 -0.06319115 0.046958614 0.010375006
000150 a1 bb dd 3c a4 69 01 3d 3e 4a e8 bb 94 12 b5 bc
       0.027067007 0.031594887 -0.0070889285 -0.022103585
000160 fb 24 d4 3b b8 45 70 bd ea 82 97 ba 5f 09 fe 3b
       0.006474135 -0.05866024 -0.0011559401 0.007752582
000170 7e a8 94 bc 03 80 8a 3e 57 a4 dc 3d ba 43 18 3e
       -0.01814675 0.2705079 0.10773533 0.14869586
000180 fe 1a 15 be 82 a3 c3 bd b0 4e 73 3d 52 8a e7 3d
       -0.14561078 -0.09552671 0.059401214 0.113056794
000190 d1 09 42 3d ab 3e 9d 3d 52 8e 11 bd 7a 75 8c bd
       0.047372643 0.076779686 -0.035536118 -0.068583444
0001a0 49 b0 2c bc 1d b0 3a 3b 8f c8 7e 3c a1 74 49 bd
       -0.0105400765 0.002848632 0.015550747 -0.04918349
0001b0 fe e6 ad 3c 81 da ad 3d b9 e3 a1 bd ee 01 0e 3d
       0.02122831 0.08488942 -0.07904763 0.03466981
0001c0 e9 0c cb bd 19 df 71 bd 00 e2 1c 3d c2 e8 e7 bb
       -0.09914572 -0.059050653 0.038301468 -0.0070773074
0001d0 a6 e8 90 3c a8 0c 53 bd 84 94 a4 3d 90 84 4f 3c
       0.01768906 -0.05152574 0.080361396 0.012665883
0001e0 d7 f0 6d bd d8 7e b7 3c b2 a2 cf bc 14 58 2c 3d
       -0.05809101 0.022399351 -0.025346134 0.042076185
0001f0 d4 c5 f9 3c db 0d 4c bd 9e 2e 8c 3d 71 7b 9c be
       0.03048984 -0.0498179 0.06844829 -0.30562928
000200 72 ea 45 3d 97 c1 89 3b 3c 87 00 3d 5b dc a2 bd
       0.048319288 0.004203986 0.03137897 -0.07952186
000210 b6 a6 10 3d cc a4 21 bc 88 a2 5a 3d 22 32 ad 3d
       0.035315238 -0.009865951 0.053377658 0.08456828
000220 e4 a7 b7 bc 30 06 a3 3c 43 5b 96 bc 15 42 c2 3b
       -0.022418924 0.019900411 -0.018354064 0.0059282877
000230 0d 89 9a 3b 7a cd 44 3d bd 66 8b bb 58 c5 87 3d
       0.0047160448 0.04804752 -0.0042541907 0.06629437
000240 7c 49 cb 3c 40 ec b1 3d 4f bd 9c 3c bc bb b4 3d
       0.024815314 0.08687639 0.019133238 0.0882487
000250 6b 57 50 bd b2 b8 c7 bb de c8 c7 3b e4 62 b0 3c
       -0.05086462 -0.0060950154 0.0060969433 0.02153153
000260 e3 f6 b3 bc 1d da 1d bc 6b b2 85 bc 4c a2 96 3c
       -0.02196831 -0.009634522 -0.016320428 0.018387936
000270 0d c7 ca 3b f0 ce f3 3c 8e b7 59 bd 46 8b 6f 3b
       0.0061882795 0.029761761 -0.053153567 0.003655152
000280 66 ff 7d be 93 c7 28 bd 74 98 b3 3d ee 4a a6 3d
       -0.24804458 -0.041205954 0.087693125 0.081197605
000290 67 2e e9 3d 95 0e d3 3d 3a bc 12 3d 2a 36 42 3d
       0.11385804 0.10305516 0.035824038 0.047414936
0002a0 fb 37 b2 bc 2e 81 dd 3d 39 85 96 bc b7 a9 3a bd
       -0.02175521 0.10815655 -0.018374072 -0.04557201
0002b0 f9 e4 db 3c e2 49 88 3c a6 26 39 3c b9 da a3 3d
       0.026842581 0.016636793 0.011300718 0.080007024
0002c0 8e d2 c5 3c ac 8b 12 be aa f5 5d 3c 2a 39 18 3c
       0.024148252 -0.14311093 0.01354734 0.009290973
0002d0 18 e2 f0 bd af 84 74 3a e0 99 3d 3d 88 27 01 be
       -0.11761874 0.0009327633 0.046289325 -0.12612736
0002e0 c1 8a 09 bd ad 99 6b ba 79 af 08 3d d4 2d d7 3c
       -0.03357959 -0.0008987438 0.03337047 0.02626697
0002f0 46 e4 58 3d 77 43 87 3d bd 61 3d bd 2d db dc 3d
       0.052952074 0.06604665 -0.04623579 0.10783992
000300 43 8d 5d be cb 18 5b bd 3c d4 f2 bd 46 5a ad 3d
       -0.21635918 -0.05349044 -0.11856887 0.08464484
000310 b3 34 09 3d 75 03 2d be f3 54 fc 3c a2 43 20 3b
       0.033497524 -0.1689585 0.030802226 0.0024454375
000320 17 49 29 bd 80 71 ff 3c df 68 53 3d eb c7 63 3a
       -0.04132947 0.03118205 0.051613685 0.0008689153
000330 e1 17 1e bd 54 f3 8f 3c af 60 ad bc 76 b9 14 bd
       -0.03859699 0.017572083 -0.021164266 -0.03630968
000340 8d b9 d4 3c fc 32 87 3b 48 31 a7 bc b8 43 19 3c
       0.025967384 0.004125951 -0.020409241 0.009354524
000350 5c e7 8e bc d0 04 84 3d 80 54 dc bb 0b c4 01 bd
       -0.017444305 0.064462304 -0.0067239404 -0.0316811
000360 c1 f6 75 bd 80 3c 24 bd 77 25 82 bd 2c d2 3f bd
       -0.060049776 -0.04009676 -0.06354802 -0.046831295
000370 6b 4c 63 3d bb 2f d4 3d e4 22 a1 bd 89 b1 1e 3e
       0.0554928 0.10360666 -0.07867983 0.15497412
000380 36 f7 32 3d 7a 55 aa 3d 6e 57 16 be 62 4e 84 3d
       0.04369279 0.083170846 -0.1468179 0.06460263
000390 b5 f9 9f 3d 37 98 bb bc 7c 05 b4 3d 00 26 78 3d
       0.078113 -0.02289973 0.087901086 0.060583115
0003a0 47 74 f1 3c 85 00 8e bd 3a 85 d3 bd da 20 a8 bd
       0.02947439 -0.06933693 -0.10328145 -0.08209391
0003b0 48 fe a0 bc 4c 68 10 bd a7 91 8c 3c a2 cc 4b 3c
       -0.0196525 -0.035255715 0.017159296 0.012438925
0003c0 11 7e ab 3c d3 59 f1 3c fe 61 21 3d ce 85 08 3d
       0.020934137 0.029461777 0.039400093 0.03333073
0003d0 ee 43 7e 3a 8a ae 06 bd ae ae f5 bc 08 8f 0b 3d
       0.00096994534 -0.032881297 -0.02999052 0.034071952
0003e0 a8 e5 89 bc a0 bb 02 be d7 e2 4c 3c da 20 33 3d
       -0.016833141 -0.12766886 0.012505255 0.0437325
0003f0 f8 c4 63 3b 02 16 f8 3c 00 d8 9f 3c c3 b4 8e bd
       0.0034754854 0.030283932 0.019512177 -0.06968071

fc1.bias f4 [128]
000000 b6 94 26 3d 7d 81 0a bd 70 4b 73 3e 71 8f b6 bd
       0.040669166 -0.033814896 0.23759246 -0.08914078
000010 f4 33 30 be ad 8f 09 bd 48 79 87 3d 70 90 42 be
       -0.17207319 -0.033584286 0.066149294 -0.19000411
000020 8b d4 93 3d 02 3f 72 be 57 59 69 3c a5 75 b3 3d
       0.07218274 -0.23656848 0.014242492 0.08762673
000030 4d af d6 bd 28 04 ba bb 76 2a 16 3e 9c a5 01 be
       -0.10482655 -0.005676765 0.14664635 -0.12660831
000040 5f 2e db 3d 31 ad 3a bd 98 64 0d be d0 c2 4f be
       0.10702204 -0.045575324 -0.13807905 -0.20289159
000050 cb 28 0f be e3 80 97 3d 5b 23 17 3d 20 1f f6 3c
       -0.13980405 0.0739763 0.036898952 0.030044138
000060 ff 9b 5b bd fa 09 29 be 45 90 a2 39 37 fd 9b 3d
       -0.053615566 -0.16507712 0.00031006537 0.07616656
000070 9c 78 20 be 48 34 4f 3d 4f 99 ed 3d 65 58 12 bd
       -0.15671009 0.05058697 0.11601507 -0.03572883
000080 50 72 b4 3d df b0 b8 3a 8e 08 da bd 0f ba 5e 3d
       0.08810866 0.0014090798 -0.10646163 0.054376658
000090 6a 57 12 3d dd dd d6 3d 9d 5e fc bc ad f8 26 be
       0.035727896 0.10491536 -0.030806834 -0.163058
0000a0 bc fd a5 3d 3f 27 0d 3c ee 85 bb 3c 5b a7 39 bb
       0.081050366 0.008615314 0.022891011 -0.0028328511
0000b0 4a 64 b2 bd 4f 63 6e bd 68 b8 34 3e ae 5b f2 3c
       -0.08710535 -0.058200177 0.1764847 0.029584732
0000c0 93 42 ea bd 01 a9 6e 3c 8e 62 1c bd 66 c0 c5 3d
       -0.11438479 0.014566661 -0.038179927 0.09655838
0000d0 37 20 79 be aa f7 ac bd 7e 45 e5 3d f1 f6 c3 bd
       -0.24328695 -0.08445676 0.11194895 -0.09568585
0000e0 13 59 7f 3d a0 fe 96 3e f1 ec 8e 3d 54 bd ce bd
       0.062340807 0.29491138 0.06978787 -0.10094705
0000f0 3d a4 dc 3d 01 f0 85 bd 66 ff b9 3d 49 c0 a2 bd
       0.107735135 -0.06539918 0.090819165 -0.07946832
000100 a1 45 89 3c 82 c9 09 bd 8f 4f d6 bc d1 9c 2b 3d
       0.016756834 -0.03363944 -0.026160983 0.0418976
000110 43 ae 59 3e 5b 55 65 3e 75 3b 15 bd 42 b9 af bb
       0.21257882 0.22395842 -0.036433656 -0.0053626606
000120 7b 43 3d bd 0f 3b 9b ba 75 4c 69 3e 78 26 11 be
       -0.046206933 -0.0011843162 0.22783072 -0.14174831
000130 42 e9 65 bd 2a 22 6b 3d de 9c e9 3c c2 f5 3c bd
       -0.056130655 0.05740563 0.028517183 -0.04613281
000140 9b 8c 26 3e 62 f4 d6 3d 16 1f 01 be aa 29 59 3d
       0.16264574 0.10495831 -0.12609515 0.05301825
000150 8b b0 39 3e b8 f7 05 3d 6d 39 24 be b2 9a 39 be
       0.18133752 0.032706946 -0.16037531 -0.18125418
000160 24 a3 ee bc 44 89 8f 3d 25 be 2e be b3 10 af 3d
       -0.029130526 0.07008603 -0.17064722 0.08548107
000170 07 7f 7a bd cd ca fb 3c 9d 9c fe 3d 53 95 f9 bd
       -0.0611563 0.030736351 0.12432215 -0.121866845
000180 d3 38 2a bc 89 ab 7f 3d 46 de 49 bc 8b 7d e3 bd
       -0.0103895245 0.062419448 -0.0123210605 -0.1110793
000190 10 d8 0a 3c 04 91 19 3d f6 62 a0 bd 7a 87 1d bd
       0.008474365 0.037491813 -0.07831375 -0.03845928
0001a0 66 67 48 be 6f c6 50 3d 26 14 d4 3c ac 7d 2d 3e
       -0.19570693 0.05097049 0.025888514 0.16942471
0001b0 cc cb 94 3d 68 95 8d bc 12 8d 2a 3d b1 5a d9 bd
       0.07265434 -0.017283157 0.04163844 -0.10613001
0001c0 44 60 23 bd 7b 5a 22 be b5 5f 2f bc 39 15 05 3e
       -0.039886728 -0.15854828 -0.010703971 0.12996377
0001d0 3d e4 b7 bd 92 7b 48 bd cf ef ac bd 8a 54 0e bd
       -0.0897908 -0.04894597 -0.08444177 -0.03474859
0001e0 a8 b7 0e 3d 2a bc 17 3e 6b 57 0d bd 64 0a a7 3d
       0.034843117 0.14817873 -0.034507196 0.08156279
0001f0 9f b0 aa 3a b3 8a 2d 3e 88 90 0b bd 21 c6 86 bd
       0.0013022608 0.16947441 -0.034073383 -0.06580759

bn2.weight f4 [128]
000000 b9 01 cb 3d c1 37 aa 3e 96 65 bf 3e 1c 57 dd 3e
       0.09912438 0.33245662 0.3738219 0.43230522
000010 4b f9 57 3e 2e c5 d6 3e 54 4b f1 3e 8c a5 78 3e
       0.21091191 0.4194731 0.47127783 0.24281901
000020 4e 66 03 3f 72 bd 33 3f da c4 18 3f 5e ef 98 3e
       0.5132798 0.70210946 0.5967537 0.29870123
000030 e8 af b1 3e 8a b0 a4 3e 1a 16 84 3e e0 86 1e 3e
       0.34704518 0.3216594 0.25798112 0.15481138
000040 05 14 cb 3e 23 d3 3f 3f b6 bb 10 3f e1 c8 43 3f
       0.3966371 0.74931544 0.56536424 0.7647839
000050 34 51 4f 3f 48 fe a8 3e ad 2d 11 3f 82 56 15 3f
       0.8098328 0.330065 0.5671032 0.58335125
000060 8f b2 b4 3e 09 26 0f 3f cd 46 b5 3e 51 62 93 3e
       0.3529248 0.5591741 0.3540558 0.28785947
000070 1f c6 88 3e 2d 32 9a 3e e8 56 1a 3f 11 5a 44 3f
       0.26713654 0.30116406 0.6028886 0.7669993
000080 08 5d 42 3f 7b 74 04 3f 17 c4 fb 3e 80 74 c7 3e
       0.75923204 0.51740235 0.49173042 0.3895607
000090 2a 5d 53 3e 51 c0 a8 3e 35 20 1e 3e b6 35 58 3f
       0.20641008 0.32959226 0.15441974 0.84456956
0000a0 70 0d d3 3d 37 fe a4 3e 4a 17 3f 3f e0 2e 48 3e
       0.103052974 0.322252 0.7464491 0.19549131
0000b0 69 1c ec 3e 41 b9 48 3f e7 c8 49 3f db 3d 20 3f
       0.46115425 0.78407675 0.7882218 0.62594384
0000c0 a4 40 e6 3e 2d 61 3d 3f 87 e1 05 3f 37 52 a2 3e
       0.44971192 0.73976403 0.5229725 0.3170335
0000d0 03 3a f6 3e cc 14 f1 3e 41 bb 3a 3f 96 b3 25 3f
       0.48091134 0.4708618 0.72941977 0.6472715
0000e0 ee a8 14 3f 64 b6 01 3f ff 3c 04 3f 9c a2 0c 3f
       0.58070266 0.5066893 0.5165557 0.5493562
0000f0 bc 94 13 3f 8e 4c 3d 3e 65 97 0d 3f 01 11 f2 3e
       0.57648826 0.18486235 0.55309135 0.47278598
000100 a8 93 c7 3e 3c 32 29 3f a7 a5 04 3f 3d a1 1a 3f
       0.3897984 0.66092277 0.51815265 0.6040228
000110 e9 7d a5 3e 11 4d 23 3f c0 19 65 3f 1d ed 0c 3f
       0.32322624 0.6378947 0.89492416 0.55049306
000120 ac ec 21 3f 5b 2c 83 3e 05 c8 25 3f 1d c0 25 3f
       0.6325176 0.25619778 0.6475833 0.64746267
000130 07 7e 29 3f e2 1a 3b 3f c0 be 01 3f f0 8d e9 3e
       0.6620793 0.73087895 0.50681686 0.45616102
000140 24 19 5c 3f 4a 51 2b 3f ba 32 be 3e c3 50 55 3f
       0.8597586 0.6692091 0.37148076 0.8332636
000150 48 74 4b 3f 44 d3 f3 3e f3 d2 27 3e fa a0 0d 3f
       0.79474306 0.4762212 0.16389064 0.55323756
000160 c7 68 c7 3e 57 ab 36 3f 22 48 3b 3e dd a6 08 3f
       0.38947126 0.71355194 0.18289235 0.53379613
000170 24 a1 f3 3e 18 42 f2 3e b8 78 3e 3f b2 f4 0a 3f
       0.47583878 0.4731605 0.7440295 0.54279625
000180 b7 56 98 3e 46 ec a5 3e 69 fe 93 3e 37 ff d3 3e
       0.29753658 0.32406825 0.28905037 0.4140565
000190 a7 df 35 3f dd 41 b8 3e 5a 4b de 3e bb ff 2c 3f
       0.7104439 0.3598775 0.43416864 0.67577714
0001a0 34 30 21 3e 7c b3 40 3f bd 90 d4 3e fe 9a 26 3f
       0.15741044 0.7527387 0.41516677 0.6508025
0001b0 d6 52 47 3f 86 35 0a 3f e4 08 05 3f bc 43 7a 3e
       0.7786077 0.5398792 0.5196669 0.24439901
0001c0 6a e5 4a 3f 65 51 3a 3f 9d 73 be 3e ab c7 28 3f
       0.7925631 0.7278045 0.3719758 0.6592967
0001d0 88 31 02 3f 0e 1d 5d 3f fd 61 34 3f 91 a2 4c 3f
       0.5085683 0.8637246 0.7046202 0.79935557
0001e0 71 24 57 3e 8a b3 58 3f 62 fb 19 3f 3a 49 22 3f
       0.21009995 0.84648955 0.60149205 0.63392985
0001f0 cc a1 0b 3f a6 44 49 3f 07 fd 4f 3f ed 95 f7 3e
       0.5454376 0.78620374 0.81245464 0.48356572

bn2.bias f4 [128]
000000 40 ec f1 be e8 da 71 3d 60 0b aa 3c 57 52 4c 3e
       -0.47250557 0.059046656 0.020757377 0.19953285
000010 13 7a 61 3e 1f e2 d4 3d de 1f 7b 3d 44 79 90 be
       0.22019224 0.10394692 0.061309688 -0.28217518
000020 b2 8c 15 bc 3d e0 71 bd de 50 34 3e dc d5 ae 3d
       -0.009127783 -0.05905174 0.17608973 0.08536884
000030 d6 43 a0 3e c5 07 2f 3c 88 ed ce 3e bc 4b a1 3e
       0.31301755 0.010683005 0.40415597 0.31503093
000040 2e 93 9a bd e9 5d 38 3c 29 b1 0c 3d 05 1f cb 3d
       -0.075476035 0.011252859 0.03434864 0.09918026
000050 29 c0 61 3d cd 17 d1 3d 28 95 17 3e f3 b4 8b 3d
       0.0551149 0.10209618 0.14802992 0.06821623
000060 1a a3 ac 3b db 7c 59 3e 5d 61 fe 3d de 92 c3 3e
       0.0052684667 0.21239035 0.12420914 0.38197988
000070 0d fa 98 3e 49 69 8f 3e c2 77 6a 3e 92 5a b1 3c
       0.29878274 0.28010014 0.22897246 0.021649633
000080 40 d6 43 be 1e 86 14 be c6 9a 09 bd f3 b9 70 be
       -0.19124699 -0.14504287 -0.03359487 -0.23508434
000090 ac dc 8a 3e 01 1b 94 3e c7 82 a8 3e ee 7d 14 3e
       0.27121484 0.28926852 0.32912275 0.14501163
0000a0 a4 43 00 3f 8a 9e 03 3e 0a 53 d2 bd 83 9c ed 3e
       0.5010321 0.12853447 -0.10269745 0.4640847
0000b0 ea 8b 2e be 92 5b 99 3e 64 42 4e 3b f3 d7 86 bd
       -0.1704556 0.29952675 0.0031472677 -0.06584158
0000c0 89 29 07 3d 73 80 88 bd 72 d3 3b 3e f6 39 63 bc
       0.032998595 -0.06665125 0.18342379 -0.013868799
0000d0 2f 9c be 3e a6 20 2c bd d8 2d 18 3e ec 6e 52 3e
       0.37228534 -0.042023323 0.14861238 0.20550126
0000e0 a8 10 1a be 92 46 38 3e 62 37 3c 3e 98 07 2f 3c
       -0.15045416 0.1799567 0.18380502 0.010682963
0000f0 86 75 54 3e 59 f0 88 3d f9 88 c5 bd 09 b2 ee 3d
       0.20747957 0.06686468 -0.09645266 0.11655051
000100 99 b5 a9 3e 6a 1f 5d 3e b9 bd 90 3d 39 09 f7 3b
       0.3314636 0.21594015 0.07067437 0.007538941
000110 18 67 3f 3e 43 ee 1f 3d a1 30 29 3d 90 dd 5f 3d
       0.18691671 0.039045583 0.04130614 0.054654658
000120 a6 09 46 3d 9f 9c f3 3d 59 15 23 3e 93 03 2e 3e
       0.048349045 0.118951075 0.15926112 0.16993551
000130 22 73 ea 3c fe 30 9d 3d cb 6a 72 bd 3e 47 70 3c
       0.028619353 0.0767536 -0.059183877 0.014665423
000140 c5 81 a0 3d a3 41 9a be b8 e3 a2 3d a5 d4 c5 3d
       0.078372516 -0.30128202 0.0795359 0.09659699
000150 0b 2e 9f 3d 34 ff 87 bc 1c 7e ac 3e 8e f0 e2 3d
       0.07772454 -0.016601183 0.33689964 0.110810384
000160 2e 74 15 be e7 32 1b bd ee 74 a7 3e a6 57 33 bd
       -0.145951 -0.03789034 0.32706398 -0.04378476
000170 dd 74 c1 bc ff b2 52 3e 10 7d 21 3e f2 fa d0 3d
       -0.023615295 0.20576094 0.15770364 0.10204114
000180 fa 16 b4 3e 19 bb 24 bd f3 ef 54 3d 48 b4 bc bd
       0.3517378 -0.040217493 0.051986646 -0.092140734
000190 a2 75 31 3e 08 c7 1a 3e 21 92 8d 3e 1a 1f 64 be
       0.1733003 0.15114987 0.2765055 -0.2227749
0001a0 77 d6 99 3e 9b c7 5a 3e 98 ab 8e 3e 85 f0 13 be
       0.30046436 0.21365206 0.2786529 -0.1444722
0001b0 ee bc 00 3e a9 de 83 bd e5 67 1e be 74 5b 76 bd
       0.12572071 -0.064389534 -0.1546932 -0.06014581
0001c0 39 2f 0d be 63 cf f0 bd 3e 8d 2e bd a2 f9 f0 3d
       -0.13787545 -0.11758306 -0.042615168 0.11766364
0001d0 44 24 87 3e d9 07 b6 3d e8 04 0b 3e cd a5 6f 3e
       0.26394856 0.088882156 0.1357609 0.23403092
0001e0 9c c4 19 3f 69 d5 d0 bd 75 5a 2a 3e c4 9e ee 3d
       0.6006563 -0.10196955 0.16636069 0.11651376
0001f0 0a 14 9e 3d a4 09 36 3e fe ff f6 3c c7 bc 5f bd
       0.07718666 0.17777115 0.030151363 -0.05462339

bn2.running_mean f4 [128]
000000 be ab 30 3e e3 ea ee 3c 81 15 bb 3e 98 f7 dc 3c
       0.17253014 0.029164737 0.36539844 0.02697353
000010 06 52 91 36 39 47 ab 3c 8f 73 e9 3d 9d 55 10 2c
       4.3308855e-06 0.020907985 0.11398994 2.0511156e-12
000020 bc 49 ed 3d e0 df b8 37 ca cc a5 3c b1 63 87 3e
       0.11586329 2.203876e-05 0.020239253 0.26443246
000030 5a 6f 8c 3a 48 b4 92 3d 95 76 7e 3e 62 6c 00 3a
       0.0010714338 0.07163292 0.24849923 0.0004898963
000040 98 7b bc 3d 26 22 eb 3d d0 30 10 3d 30 33 49 37
       0.09203261 0.11481123 0.0352028 1.1992452e-05
000050 76 08 56 3c 32 d3 fa 3c 30 d9 03 3e e1 5d 1f 3e
       0.013063541 0.030618284 0.12875819 0.15563156
000060 50 58 3a 3c 5a a1 73 38 4c 43 5b 3d 97 02 67 3d
       0.011373594 5.8085985e-05 0.053530976 0.056398954
000070 04 00 00 00 c3 25 33 3d d4 94 33 3e 5a cd c4 3d
       6e-45 0.043737184 0.17537242 0.0960948
000080 6e 64 42 3e 2f a8 d4 3b 0a 59 19 38 d8 a5 05 3e
       0.18983623 0.0064897756 3.6560967e-05 0.13051546
000090 20 f2 9e 3d 17 fe 33 3e fd f3 2c 3b 15 f4 35 39
       0.077610254 0.17577396 0.0026390546 0.00017352433
0000a0 81 7d 92 3d 42 d5 96 3b 5e be 38 3c 64 2a d9 3c
       0.07152844 0.004603059 0.011275856 0.026509471
0000b0 ca 6e fb 39 79 78 19 3d 45 d4 bf 3e 26 ef 2a 3d
       0.00047956995 0.037468407 0.37466636 0.041731976
0000c0 e5 4d 1b 38 b1 f5 82 3d 48 80 80 3d c7 c2 47 3d
       3.7027425e-05 0.06394518 0.06274468 0.04876974
0000d0 04 00 00 00 24 61 e2 3b 3a d4 e3 3d 75 53 61 3c
       6e-45 0.0069085527 0.111244634 0.013752808
0000e0 0f c7 1b 3e 4b 09 e6 3e 1c 07 88 3d 0b 47 15 3b
       0.15212654 0.44928965 0.06641981 0.002277794
0000f0 fd 9d 12 3e 7a f7 43 3d 52 c4 9e 3d c7 49 c4 37
       0.1431808 0.047843434 0.07752289 2.3399376e-05
000100 dc 95 43 3d 6e 49 90 3a 14 4b 44 3d 57 7b 85 3c
       0.04775034 0.0011008212 0.047923163 0.016294165
000110 ee d9 8a 3e 49 a3 ab 3e 3e 46 9f 3d da ea b7 3c
       0.27119392 0.33523014 0.077770695 0.022450853
000120 b3 76 be 3d 90 ee c1 3c 1d d5 a9 3e dd 65 53 36
       0.09299984 0.023673326 0.33170405 3.1500742e-06
000130 b9 a4 15 3d 71 04 02 3d 17 73 d1 3b 18 21 e1 3d
       0.036534045 0.031742517 0.0063918936 0.1099264
000140 bf 29 5e 3e 6d 9a 98 3e 7b 3b 39 3c d8 3b a4 3d
       0.21695612 0.29805318 0.011305685 0.08019227
000150 7b 7b 9b 3e 4b b0 0e 3d 42 24 b7 39 5b e4 ed 38
       0.30367646 0.034836095 0.00034931494 0.00011343575
000160 81 66 98 3d c7 1b 8e 3d 4c 68 3b 3c 13 65 2b 3e
       0.07441426 0.06938892 0.0114384405 0.16737776
000170 6a a3 08 3c bf 72 e9 3d 24 2d 7a 3e c0 05 74 3a
       0.008339742 0.11398839 0.24431282 0.0009308718
000180 af 1a 30 3d 57 25 46 3d 9c fb 30 3d ee f9 fe 3b
       0.042994197 0.048375454 0.043208703 0.007781259
000190 3c 70 51 3c 1d 83 98 3e 50 5d 75 3c e9 c8 d1 3c
       0.012783106 0.29787531 0.014975861 0.025608497
0001a0 04 00 00 00 a0 12 53 3d 31 08 6f 3d ca b5 62 3e
       6e-45 0.051531434 0.05835742 0.2213966
0001b0 84 c0 50 3e bd c5 59 3d a2 70 a1 3d c3 99 de 38
       0.20385939 0.053167094 0.07882811 0.00010614425
0001c0 44 a0 91 3b c6 ff 95 3c fc 7d c2 3b 7c 1d c0 3d
       0.004444154 0.018310439 0.0059354287 0.09380624
0001d0 7b 0d 4d 3d 2c c6 08 3d 84 a9 ed 3c c1 b2 13 3d
       0.050061684 0.033392116 0.029011495 0.036059145
0001e0 bb 09 3c 3c 01 a1 33 3e f5 1d 3f 3d 6f c9 e9 3d
       0.011476929 0.17541887 0.04665943 0.114153735
0001f0 19 b4 dd 3a 35 c4 77 3e 81 5c 69 3d 61 69 1e 36
       0.0016914635 0.24195941 0.056972984 2.3605173e-06

bn2.running_var f4 [128]
000000 0b 87 6e 3c dc ae 3b 3b b5 75 d6 3b d8 4f 0a 3b
       0.014558564 0.002863816 0.0065447935 0.002110472
000010 13 bf e1 33 9f b2 0f 3b 7b f9 0a 3c 2c e8 73 2a
       1.0512135e-07 0.0021926535 0.008482332 2.1663286e-13
000020 96 63 eb 3b ca f6 fe 35 59 a2 5c 3a a8 70 78 3c
       0.0071835024 1.89963e-06 0.00084165257 0.015163578
000030 9a 05 3e 38 90 f0 c2 3b ea 5f a7 3b 18 f7 13 38
       4.5304747e-05 0.0059490874 0.0051078694 3.5277655e-05
000040 7c e2 ff 3b 92 8c 3e 3c bc 17 8b 3b 0a ef 6b 35
       0.0078089815 0.011630194 0.0042447727 8.789217e-07
000050 30 9e 93 3a f8 53 64 3b 5a 02 0c 3a 82 b4 16 3b
       0.0011262354 0.0034840088 0.00053409266 0.0022995775
000060 74 e3 28 3a e4 bc 3e 36 f0 cf eb 3b 96 e7 97 3b
       0.00064425846 2.8422155e-06 0.007196419 0.0046357615
000070 04 00 00 00 25 97 a9 3b 6b 8d 5b 3b 3f 24 69 3c
       6e-45 0.0051754885 0.003350104 0.014229833
000080 5f 95 6b 3c cc d7 9a 39 fd bb 22 36 2e 68 00 3c
       0.014378875 0.0002953395 2.4249305e-06 0.007837338
000090 be 7b b3 3b 06 dd 79 3b 42 b0 27 39 9e a1 ed 37
       0.0054773977 0.0038126125 0.00015992022 2.832786e-05
0000a0 c4 16 01 3c 4e 97 3d 39 31 39 b9 39 1c 1a d2 3a
       0.007878963 0.0001808081 0.0003532856 0.001602951
0000b0 5f 64 7d 37 0c cd 38 3b 15 11 5c 3c ac d8 9b 3b
       1.5103345e-05 0.002819839 0.013431807 0.004756054
0000c0 ee e9 f5 36 75 c7 03 3c 52 41 dd 3b e9 0a 6c 3b
       7.328802e-06 0.00804316 0.0067521716 0.0036017245
0000d0 04 00 00 00 46 e8 fd 39 6c b4 75 3c 56 0b 78 3a
       6e-45 0.00048428978 0.014996629 0.00094621384
0000e0 1b 1b a1 3c 19 4e 22 3c 14 7c bd 3b 94 a3 11 39
       0.019666245 0.009906315 0.0057826135 0.00013889215
0000f0 00 62 22 3c c9 2d c9 3b 80 27 0c 3c 67 69 50 35
       0.00991106 0.006139491 0.008554339 7.763942e-07
000100 35 3c 4c 3b b5 b2 49 38 ef af b2 3b 5c 54 5d 3a
       0.0031163816 4.808857e-05 0.005453102 0.00084430515
000110 b5 fd 67 3b dc c0 77 3c b7 16 70 3b a1 85 8e 3a
       0.0035399024 0.015121665 0.0036634633 0.0010873565
000120 ef 73 12 3c ad ee f3 3a 44 5b b4 3c 20 85 be 33
       0.008938774 0.001861056 0.022016175 8.87178e-08
000130 3e 50 65 3b 1d 2e 1c 3b 04 59 58 39 65 c3 26 3c
       0.0034990455 0.0023831197 0.00020632526 0.010178422
000140 6a 80 da 3c cf 76 f6 3c fd 35 37 3a a7 c3 a4 3b
       0.02667256 0.03008595 0.0006988941 0.0050282064
000150 a6 4a 4a 3c 81 ec 5d 3b 50 ca c2 37 04 16 20 37
       0.012346899 0.003386289 2.3220811e-05 9.541869e-06
000160 bd 57 0d 3c f6 02 d1 3b 0d 0b 4f 3a e3 ee 1b 3c
       0.0086268755 0.006378527 0.000789807 0.009517404
000170 e0 56 30 3a b2 13 74 3c 0f 5d 43 3b e8 5b 06 39
       0.00067268126 0.014897274 0.0029810106 0.00012813474
000180 9b 31 44 3b b4 64 ae 3b 48 96 97 3b b1 84 37 3a
       0.0029936794 0.0053220633 0.004626069 0.00070006686
000190 7a 95 0b 3a 19 a2 03 3c 38 11 83 3a 05 4f f6 3a
       0.0005324703 0.008034253 0.0009999638 0.001879186
0001a0 04 00 00 00 88 b5 a3 3b 03 a5 d5 3b 62 7d 86 3c
       6e-45 0.0049960054 0.006519915 0.016417209
0001b0 ec ed 26 3c 34 e6 8d 3b 36 50 9a 3b 8b 12 f2 36
       0.010188561 0.004330421 0.004709269 7.2143207e-06
0001c0 f2 9f 0c 39 e5 b3 c6 3a 1e 6a 05 3a d9 8f 31 3c
       0.00013411025 0.0015159814 0.000508936 0.010837519
0001d0 29 3e c1 3b ee 9e 28 3b e9 c5 09 3b 63 d1 48 3b
       0.0058973026 0.0025729495 0.0021022505 0.0030642382
0001e0 91 e9 a0 3a 91 a3 7e 3b 89 54 94 3b 6a da 51 3c
       0.001227664 0.0038854817 0.004526679 0.012808422
0001f0 26 34 36 38 09 fc 20 3a a9 9e 6e 3b 3f 7f ff 33
       4.344075e-05 0.0006141072 0.0036410487 1.1897509e-07

fc2.weight f4 [128, 128]
000000 45 f8 32 bd fe da c1 bd dc 67 70 3d 5a 8e a5 3d
       -0.0436938 -0.094655976 0.058692798 0.08083792
000010 fd ee 98 3d 10 6f 10 3d 25 55 65 bd 9c ae 5f 3d
       0.074674584 0.035262167 -0.055989403 0.05460988
000020 ec 04 a4 bc b9 0a 2d 3d 00 42 70 bd 23 c1 b2 bd
       -0.020021878 0.042246554 -0.058656693 -0.08728244
000030 42 52 a7 bd 1e 21 28 be 2e ed 89 bd 35 84 8e bc
       -0.08169986 -0.16418883 -0.067346916 -0.017397026
000040 6d 2a 00 3e 14 e8 1e bd 26 01 3b 3d b5 29 cb 3c
       0.12516184 -0.038795546 0.045655392 0.02480016
000050 b8 d0 a9 bb 77 73 1d 3b 36 bc 66 bc 5c 0b a3 bd
       -0.005182352 0.0024025121 -0.014082959 -0.07961151
000060 0a 00 80 bd 63 df 16 bd 36 7d aa bd a0 51 69 bc
       -0.062500075 -0.036834132 -0.08324663 -0.014240652
000070 a6 b7 f0 bd f4 83 45 be f8 2b 38 bb e7 c1 07 3d
       -0.11753778 -0.19288617 -0.002810238 0.033143904
000080 c2 06 47 bd 79 ca 97 bc 49 0c 25 bd 2f 3d 14 be
       -0.04859043 -0.018529164 -0.04029492 -0.14476465
000090 5b cb 26 3c df 83 7b bd 1c 56 fc 3c 93 ea b2 bd
       0.01018032 -0.06140506 0.030802779 -0.08736148
0000a0 7f 6d 0b be c7 83 4d bd 56 ba a8 bd 78 bb 04 be
       -0.13615988 -0.0501745 -0.08238666 -0.12962139
0000b0 80 ba 8f 3d 7f 3a 81 bd fb 87 0e 3d 71 f1 d1 3d
       0.07017994 -0.06309985 0.03479765 0.102511294
0000c0 fd 3c 6d be 16 34 f4 bd a7 f9 9a ba cb 8f 7e bd
       -0.23167796 -0.11923997 -0.001182367 -0.06214885
0000d0 be 82 8f bd 25 88 74 3d d7 e1 52 3d dc 73 8a bd
       -0.07007359 0.05970015 0.05148491 -0.0676038
0000e0 2e 5e d6 3c f1 a4 28 3d 57 3a 60 3d 0c 01 10 3d
       0.026167955 0.041172925 0.054743137 0.03515725
0000f0 e7 1a 4d bd a8 e1 36 be 7c f4 c8 bc a7 03 35 be
       -0.050074484 -0.17859519 -0.024530642 -0.17677175
000100 52 8c f6 bd 7e 9a 4a be 5d 44 28 bc e3 0a 9c bd
       -0.12038483 -0.19785497 -0.010270205 -0.07619264
000110 d3 7b 95 3d 16 18 88 3c af dc f9 3c 1d a1 0d be
       0.07299008 0.016613048 0.030500738 -0.13830991
000120 eb 9a 82 bd 2a 97 07 3c 2b 63 ea 3c 0b 25 1d bc
       -0.063772045 0.008275786 0.02861174 -0.009591351
000130 3b 74 d8 3c 88 89 b9 bb 9d d9 33 bd 5f 6b 4a 3d
       0.02642261 -0.005662147 -0.043908704 0.049418803
000140 03 0a 33 3d 96 37 fa 3b 72 a6 b5 bd c4 04 31 be
       0.04371072 0.007636021 -0.088696375 -0.17286974
000150 4f 7e 1a 3d ce 48 4d bc 44 81 ab 3b fe f3 f4 3c
       0.037718114 -0.012529565 0.0052339155 0.0299015
000160 65 d2 eb bc da f3 c3 bc d0 49 28 bd 80 34 60 bd
       -0.028786847 -0.023919988 -0.041086018 -0.054737568
000170 bf 7a 24 3d 5a 12 ef 3d db 6e f9 3c 27 d4 09 bb
       0.040156122 0.11673422 0.030448368 -0.0021030994
000180 44 09 1d bb 85 e7 a0 bd 1a 48 92 ba f6 2e 18 bc
       -0.0023961822 -0.07856659 -0.0011160404 -0.00928854
000190 a6 7f b4 bc b5 8e 2d 3c 20 a5 05 3d fe 64 54 bb
       -0.022033524 0.010593106 0.03262818 -0.003240883
0001a0 0e 51 ac 3c 75 d8 8f 3d f8 44 9f b9 74 27 46 3d
       0.021034744 0.07023708 -0.0003037823 0.04837747
0001b0 7a e9 ad bd 2b 91 ae 3d 49 56 35 3d 44 87 be 3c
       -0.08491798 0.08523782 0.04427174 0.023257859
0001c0 bd c0 17 be 2c 58 cb 3d 0f d3 b3 3d 7e d4 a3 bd
       -0.14819618 0.09928927 0.087804906 -0.07999514
0001d0 00 52 3a be 89 82 f5 bd 6e 21 e7 bb 68 a4 9c bd
       -0.18195343 -0.11987788 -0.0070535457 -0.076485455
0001e0 51 6a 9c bd a5 33 a1 bd 4c 56 d6 bc b9 de 14 bc
       -0.07637466 -0.078711785 -0.026164196 -0.009086304
0001f0 5d bf 8c bd 14 ce 21 3c 22 5f 54 3b 19 0e 10 3e
       -0.06872437 0.009875793 0.0032405336 0.14067878
000200 c0 04 99 3d 97 a4 96 3d 6f e6 89 bd bf 1a fd bc
       0.07471609 0.07355612 -0.06733405 -0.030896543
000210 17 69 1b be 2a b9 95 bd 86 ad 96 bc 05 7f 40 3c
       -0.15176807 -0.07310708 -0.01839329 0.011749034
000220 16 fa 9b 3c bc 07 db 3a 0e 95 7f bd 10 26 bb 3d
       0.019040149 0.0016710679 -0.06239801 0.09138119
000230 60 2d 3f be 95 ba 9c bd d1 10 a5 bd 87 69 3b 3d
       -0.18669653 -0.07652775 -0.08059848 0.045754936
000240 5f 46 b6 3c 4f c7 78 bc 94 77 76 3b db e6 a0 b9
       0.022250352 -0.015184238 0.0037607895 -0.0003068958
000250 0c b8 78 3c a6 5d ff 3d 17 3d 8c ba b8 ed 05 bd
       0.015180599 0.12469034 -0.0010699359 -0.03269741
000260 47 a6 ad 3c 6a f9 51 bc 57 23 ef 3c 89 39 66 be
       0.021197451 -0.012815813 0.029191656 -0.22482885
000270 76 e2 08 be fe 32 79 3d 7b d1 8a 3d b5 b3 44 3d
       -0.13367638 0.060839646 0.067782365 0.048022944
000280 bf 0a bd bb 3c ee 9d bd 4a a4 62 bd d6 ec a3 3d
       -0.0057691033 -0.07711455 -0.05533246 0.08004157
000290 0c f2 3a 3d 1e 19 7d bd 89 0f 85 be 23 ef b0 bd
       0.04564099 -0.06179153 -0.25988415 -0.08639362
0002a0 17 8c 15 be 28 ac 00 bd 04 af 82 bd df 94 21 be
       -0.14604221 -0.03141418 -0.06381038 -0.15779446
0002b0 c1 1e 6a bd 97 cd 72 bd 84 2f 2c bb 9b 63 91 bc
       -0.057158235 -0.059278097 -0.0026273439 -0.01774769
0002c0 8f cd 9c 3c 3a fb bb bd 45 03 ec 3d ba 34 9f bd
       0.019140987 -0.09178777 0.11524061 -0.07773729
0002d0 c8 3f 5c bc 3c 1d 69 bd ba 7a 07 3d 03 2c 33 3c
       -0.013442941 -0.056912646 0.033076026 0.010935786
0002e0 94 42 f3 3c 08 d1 78 3c d2 a3 ce 3c e0 67 8f bc
       0.029694833 0.015186556 0.0252246 -0.017505586
0002f0 50 55 6c bd 74 95 7a bd f0 1e 9a bd c7 73 e9 3c
       -0.057698548 -0.061177686 -0.07525432 0.02849759
000300 19 00 60 3d 2e 72 b0 be b6 91 84 bd c1 38 7f be
       0.054687593 -0.34462112 -0.06473105 -0.24923994
000310 22 d8 1e 3d 38 25 6e 3d 37 2d 08 bd 97 51 50 3b
       0.03878034 0.058140963 -0.033246245 0.0031786913
000320 da 4b 20 bd 7c 91 51 be 81 a2 46 bb de 99 ca bd
       -0.039134838 -0.20465654 -0.0030309262 -0.09892629
000330 6e 2c 98 3d 03 a0 71 3d bb 7b 0d be f1 af fb bc
       0.07430349 0.05899049 -0.1381673 -0.030723544
000340 ad 9f 0e 3c fe c8 37 bb 44 e9 c0 bd c1 68 b9 bd
       0.008705062 -0.0028043385 -0.09419492 -0.09053183
000350 07 bc ac 3d d5 5d 06 3d e7 f6 87 3d 24 05 37 3a
       0.08434301 0.03280433 0.0663889 0.0006981662
000360 a3 a8 a4 bd 61 6b 69 3d 28 02 dc bd f6 c8 7a bd
       -0.080399774 0.05698717 -0.10742599 -0.061226808
000370 ac 45 be 3c b5 f7 4c 3d e5 dd c0 bc d7 50 58 bd
       0.023226582 0.05004092 -0.023543308 -0.05281147
000380 ba f1 13 bd 6e f0 64 3d 1f a0 95 3d 6e 04 bc bc
       -0.0361192 0.055893354 0.07305931 -0.022951331
000390 d8 d0 aa bd 16 b8 02 3b 33 22 15 be fb 72 31 bc
       -0.08340615 0.001994615 -0.14563827 -0.010830636
0003a0 d8 84 a3 bd a4 ad ee 3c f2 ae 99 bd 64 5f 03 bd
       -0.07984322 0.029135533 -0.07504071 -0.032073393
0003b0 8d ee a6 bc 49 a4 e2 3d cd 8e 85 bc 72 0e 15 bc
       -0.020377422 0.11066491 -0.016303444 -0.009097682
0003c0 04 cb 6d bd 14 17 05 bd e8 7f 10 bd 08 f9 62 3c
       -0.05805494 -0.032492712 -0.03527823 0.013853319
0003d0 9d 3d d2 3c 44 f2 e8 bd 8f 63 d0 bc c9 19 d8 bd
       0.025664145 -0.113743335 -0.025438098 -0.10551793
0003e0 74 80 ad bd d8 80 4b bd c3 49 f7 3b 9f 6e 7a bd
       -0.08471766 -0.04968342 0.007546635 -0.061140653
0003f0 c8 99 d3 bd a2 2e 68 bc 40 54 20 3d e7 e9 08 be
       -0.10332066 -0.014171274 0.039142847 -0.13370477

fc2.bias f4 [128]
000000 86 4f 64 3b 8b df 96 bd 7c 23 20 bd 88 42 73 3e
       0.0034837439 -0.07366856 -0.03909634 0.23755848
000010 ca 15 32 bd be ae a4 bd 8a 70 1d be 21 6b f9 3b
       -0.04347781 -0.08041142 -0.15374961 0.0076116477
000020 8b a5 aa bc 94 05 1f be 10 09 8c ba 82 a4 8b bd
       -0.02083089 -0.15529472 -0.0010683853 -0.06818487
000030 8a ec 2c bd c2 a5 8e bd b9 63 a0 3c 23 49 b0 bd
       -0.04221777 -0.069652095 0.019578801 -0.086077
000040 b2 0e 4c bd 87 30 3e be 95 e5 1f bd b7 b0 02 be
       -0.049818702 -0.18573199 -0.039037306 -0.12762724
000050 57 fb 12 be c8 4d 51 be 59 27 36 3d 3f 40 3b bd
       -0.14353691 -0.20439827 0.04447112 -0.045715567
000060 65 57 ef bc 63 e8 2f 3e 97 0a 55 bd 0c 19 cf bd
       -0.029216478 0.17178492 -0.052012052 -0.10112199
000070 55 0e 07 bd 78 3e 14 bd 80 55 07 be 87 f8 4c bb
       -0.032972652 -0.036192387 -0.1321621 -0.0031276064
000080 14 21 24 3b 80 df 0d bd df a3 16 be 22 58 71 bd
       0.002504413 -0.034636974 -0.1471095 -0.05892194
000090 4a 4f 2f 3e 9e ff 9c bd 95 87 1e be 59 3c e3 3c
       0.1712009 -0.076659426 -0.15481408 0.027738737
0000a0 92 3f 84 bc 40 70 09 be 44 76 c7 bc 9f f0 1b 3d
       -0.016143594 -0.13421726 -0.024348386 0.03807127
0000b0 bc 15 03 be 01 d1 ed 3d 08 40 b3 bd 36 81 31 be
       -0.1280126 0.1161213 -0.08752447 -0.17334446
0000c0 b1 3a 8f 3d 8b 11 53 bd bd 82 87 bd 25 f6 ba bd
       0.06993616 -0.051530402 -0.06616733 -0.091289796
0000d0 3a 79 f4 bd 2e f5 01 be 34 db 8e bc c2 e4 24 be
       -0.11937185 -0.12691185 -0.017438509 -0.16102889
0000e0 eb 03 42 be ba 19 8e bd a6 16 b3 bd 70 13 16 3d
       -0.18946807 -0.06938501 -0.08744554 0.03663963
0000f0 95 0c cb ba 82 a9 40 3d c2 3d 07 3d 3f c6 2f bc
       -0.0015491421 0.047036655 0.03301788 -0.010728418
000100 a2 5a ba 3d 84 f4 fb bd 8f ac cb 3d 83 b6 9f bc
       0.09099318 -0.12302497 0.09945022 -0.019496208
000110 56 0c 33 be 92 44 f2 bd fe 49 29 3d 63 f9 88 3d
       -0.17485175 -0.11829485 0.04133033 0.06688192
000120 fb b9 f5 bd 41 97 97 bd 7f cc 08 bc bf c3 b7 bd
       -0.119983636 -0.07401896 -0.008349537 -0.089728825
000130 b8 18 6d 3c 00 87 fc bd 0f f2 a1 bc 14 20 d4 bd
       0.014471225 -0.12330437 -0.019768743 -0.10357681
000140 bd a8 82 3d c5 d3 38 be 21 b2 52 be 78 dd d2 bd
       0.063798405 -0.18049534 -0.20575763 -0.10296148
000150 8b 1b 86 3d e3 1f 72 be b5 ba fa bd 39 26 28 be
       0.06548222 -0.23644976 -0.12242643 -0.16420831
000160 62 13 3a be e7 6a 28 bc a6 4b 14 bd fb 84 c5 bc
       -0.18171456 -0.010279394 -0.036204956 -0.024111262
000170 45 dd 12 bd 6a 32 de bd e7 c2 81 3c d9 a4 1f bd
       -0.03585555 -0.108494595 0.015840007 -0.03897557
000180 75 92 39 3d b0 41 47 3d cd 3e dc bc f4 a5 ed 3c
       0.045305688 0.04864663 -0.026885414 0.029009797
000190 10 5c 78 bd 1b 54 63 bd ba d5 b0 bd be bc d0 bd
       -0.060634673 -0.05550013 -0.08634515 -0.1019225
0001a0 64 0c ae 3d 25 5b ac 3c 5e e0 54 bd 1e dd 8b 3d
       0.08498457 0.021039555 -0.051971786 0.06829284
0001b0 97 56 3a bd 48 3c bb bd c0 30 06 be a4 b6 2d bd
       -0.045492735 -0.09142357 -0.13104534 -0.042410508
0001c0 5a 00 96 bd e8 a9 93 3c ae 92 b0 bb bf 42 16 be
       -0.07324286 0.018025354 -0.0053885793 -0.14673899
0001d0 15 53 2e bd 35 47 ef bd 10 80 d7 bc 33 5d eb bd
       -0.042559702 -0.116835035 -0.026306182 -0.11492386
0001e0 34 c2 d8 bd ee 9e 3b be e6 25 d7 3c 2f 85 d6 bd
       -0.10583916 -0.18322346 0.026263189 -0.104746215
0001f0 44 8c 3d 3c 49 df 42 3e 9b 7a 5a bd d1 9b a6 bc
       0.011569086 0.19030489 -0.053339582 -0.02033797

bn3.weight f4 [128]
000000 9d 04 a1 3f 0a 6e ea 3f 91 f1 95 3f a2 dd bf 3f
       1.2579533 1.8314831 1.1714345 1.4989512
000010 a3 98 9f 3f 7a 4c 21 3f 32 7f 90 3f 9d 2e 4d 3f
       1.2468456 0.6300732 1.1288817 0.8014925
000020 65 c2 95 3f 6b 20 30 3f 4e c5 8a 3f 73 01 59 3f
       1.169995 0.68799466 1.0841463 0.84767836
000030 a3 3e aa 3f 09 f3 a6 3f 39 15 a6 3f 59 a1 39 3f
       1.3300365 1.3042918 1.2975227 0.7251182
000040 47 fb 3f 3f 93 63 8a 3f 57 75 92 3f 68 2c 68 3f
       0.74992794 1.0811638 1.1442059 0.9069276
000050 6f 4c 04 3f 00 cb a6 3f c3 1d 50 3f 95 02 97 3f
       0.5167913 1.3030701 0.8129541 1.1797663
000060 40 cf 8a 3f 72 79 9a 3f 63 d8 96 3f c4 36 38 3f
       1.0844498 1.2068312 1.1784786 0.71958566
000070 52 12 b1 3f ea 15 9e 3f 89 2c a7 3f e5 32 3a 3f
       1.3833716 1.2350438 1.3060466 0.7273391
000080 e3 59 3a 3f 65 3c 2a 3f 04 39 aa 3f 68 90 2c 3f
       0.72793406 0.66498405 1.329865 0.67407846
000090 57 49 ac 3f 35 16 8d 3f 62 03 93 3f 0e 27 72 3f
       1.3459882 1.1022402 1.1485407 0.9459084
0000a0 82 95 37 3f fd 9f a5 3f 6d 1a 2d 3f e1 80 76 3f
       0.71712506 1.293945 0.6761845 0.96290404
0000b0 ec 69 b1 3f 0f 72 67 3f 93 27 69 3f 33 18 72 3f
       1.386045 0.90408415 0.9107601 0.94568175
0000c0 f3 74 99 3f 29 c8 6e 3f 75 5f 90 3f e6 62 a4 3f
       1.1988815 0.9327417 1.1279131 1.2842681
0000d0 c3 dc ed 3e 04 5e 88 3f 19 13 99 3f 5e 80 43 3f
       0.4645749 1.0653691 1.1958953 0.7636775
0000e0 33 e1 a6 3f d5 60 99 3f 99 45 8f 3f 1c 6a 86 3f
       1.3037475 1.1982676 1.1193115 1.0501132
0000f0 37 1b a6 3f e3 a3 93 3f 1b d6 80 3f 55 ae 3a 3f
       1.2977055 1.1534389 1.006534 0.7292226
000100 64 e3 97 3f 9d a9 9e 3f bf f4 a5 3f fd b8 b8 3f
       1.1866269 1.2395512 1.2965316 1.4431454
000110 91 9c 85 3f 47 67 a0 3f e1 76 70 3f 82 eb 62 3f
       1.0438405 1.2531518 0.93931395 0.88640606
000120 09 80 49 3f 61 a5 9a 3f 86 b3 ab 3f e5 ed b8 3f
       0.7871099 1.208172 1.3414161 1.44476
000130 4c 34 82 3f a6 f8 9a 3f be f0 8d 3f d4 ef 43 3f
       1.017221 1.2107131 1.1089094 0.76537824
000140 de d5 99 3f 43 3d 68 3f 77 59 43 3f 5a b2 61 3f
       1.2018392 0.9071848 0.7630839 0.8816277
000150 97 fb 96 3f e0 b8 4f 3f 6c 20 4b 3f 29 c5 84 3f
       1.1795529 0.8114147 0.79346347 1.0372669
000160 4d 04 36 3f 66 4b 83 3f 1e 77 7e 3f 60 e4 7a 3f
       0.7110031 1.0257385 0.9940051 0.9800472
000170 09 21 70 3f a5 52 a7 3f e3 96 a8 3f 3c ca b4 3f
       0.9380041 1.3072096 1.3171047 1.4124217
000180 a9 cb b6 3f 7c 89 83 3f 9e 71 73 3f 42 0f 67 3f
       1.4280902 1.0276332 0.9509524 0.90257657
000190 e4 f9 9c 3f 6b 37 77 3f 72 d1 1a 3f 03 d5 7f 3f
       1.226376 0.96568936 0.6047584 0.99934405
0001a0 d4 ba ab 3f 30 03 93 3f 51 f3 a6 3f 3f cc a9 3f
       1.341639 1.1485348 1.3043004 1.3265456
0001b0 80 92 83 3f d0 fb 87 3f af d2 49 3f 5f 19 78 3f
       1.0279083 1.0623722 0.788371 0.96913713
0001c0 64 cf 56 3f 5f 52 8e 3f 6f f0 3a 3f fa 1f 5c 3f
       0.839102 1.1118888 0.7302312 0.8598629
0001d0 b0 c2 4f 3f 15 be 3f 3f 40 26 7e 3f 0f b6 97 3f
       0.81156445 0.7489942 0.99277115 1.1852435
0001e0 56 bd 95 3f d5 15 53 3f df 03 7a 3f 51 0c 92 3f
       1.1698406 0.8245519 0.97662157 1.1410009
0001f0 2c a9 a2 3f 89 50 af 3f c1 ee 39 3f 60 d0 88 3f
       1.2707877 1.3696452 0.72629935 1.0688591

bn3.bias f4 [128]
000000 27 14 8e 3d 00 ed a9 bb b2 b6 6f 3d 46 98 a6 bd
       0.069374375 -0.0051857233 0.05852384 -0.081345126
000010 1e a0 64 bd 8c 3d 34 bc 22 0f 06 3e 12 23 17 bd
       -0.055816762 -0.011001002 0.1309171 -0.03689868
000020 d1 d5 8b 3b 52 cc 15 bd 9d 69 1d 3d 04 09 a5 3b
       0.0042674323 -0.03657181 0.0384308 0.005036475
000030 74 0a 39 3e ed fa 78 3d a7 d4 00 bd 65 f8 4c 3d
       0.18070394 0.060786176 -0.0314528 0.050041575
000040 c9 a1 d4 bc 3c 72 bc 3c 5b 56 1a bd 34 91 1d 3e
       -0.025956051 0.02300369 -0.03768001 0.15387422
000050 f9 f3 84 3d 89 5d bd 3d cc ac 21 3d 5c 3f 76 3d
       0.064918466 0.09246356 0.039471433 0.060119018
000060 5a b1 dd 3c 10 cb 65 3c 9f 5b 52 bd 1a 14 77 bd
       0.027062107 0.014025465 -0.051356908 -0.060321905
000070 0e bd f8 3c f5 08 3f 3d ec f6 83 bd f0 43 17 3d
       0.030363586 0.0466394 -0.06443581 0.036930025
000080 18 c2 98 3a 66 9e 2f bc 33 f1 23 3d 54 4e 8e bd
       0.0011654524 -0.0107189175 0.040024947 -0.06948534
000090 57 1d 27 bb f4 51 32 bc 13 44 ae 3c 4b c6 ba 3c
       -0.0025499666 -0.010883797 0.021272695 0.022799632
0000a0 c6 96 38 3c 72 fa 00 3d bd e2 11 3d 0f 0b 2a 3d
       0.011266416 0.031488843 0.035616625 0.041514453
0000b0 b9 a2 01 3e 83 5d ac bd b9 ce 18 bd ba 08 63 3d
       0.1265973 -0.084162734 -0.03730652 0.055428244
0000c0 1a 0d 88 3d 44 82 70 bc b5 a7 c3 bd f4 99 44 3d
       0.06643124 -0.014679495 -0.09553472 0.047998384
0000d0 d2 9c a6 bd f0 66 2f 3d 7e c1 92 3c f9 90 ab 3d
       -0.0813538 0.04282278 0.01791453 0.08377261
0000e0 8c 37 91 3c 18 52 f7 3b a2 37 a8 bb 89 42 c5 3d
       0.017726682 0.007547628 -0.005133585 0.09631831
0000f0 7e 9c 88 ba fb 8f 97 3d a3 ad c2 3c d5 16 a3 3d
       -0.0010422615 0.07400509 0.023764437 0.07963339
000100 4a 11 03 bd 65 60 98 3d 03 aa c7 3c de 1e de 3b
       -0.03199891 0.07440261 0.02437306 0.006778582
000110 8b 7f 93 bd 0e 67 15 3e 1b 54 1e 3c f8 cb 7b 3c
       -0.07202061 0.14590093 0.009663607 0.015368454
000120 8d 14 98 3d 21 09 5e bd 92 05 ad bc 82 4c 01 3d
       0.07425795 -0.054207925 -0.02112082 0.031567104
000130 4a 57 05 3d 12 07 e2 3c 53 b1 23 3d 11 20 18 3d
       0.03255395 0.027591262 0.03996403 0.037139956
000140 82 9e 01 bd b7 ef 65 3d 22 fe 37 3b 9f 72 8e 3d
       -0.031645305 0.056136813 0.002807506 0.06955456
000150 0f a2 97 3d 94 ed 31 3c ba a9 18 bd b5 69 ec 3b
       0.07403957 0.010859866 -0.03727124 0.0072147497
000160 27 6c 91 bc 93 ea 39 bd 70 55 70 3b 4d f9 6a 3d
       -0.017751766 -0.045389723 0.0036672018 0.057366658
000170 0c 18 ed bc a0 46 85 bc 36 85 32 3d f7 69 ab bd
       -0.02894213 -0.016269028 0.04358407 -0.083698206
000180 26 a8 0a bd db bc 14 bd 97 10 66 3d 6b ba 8b bd
       -0.033851765 -0.03631292 0.056168165 -0.06822666
000190 17 fb 0c bc 7d c6 c5 bb aa 15 21 bd ce a2 6a 3b
       -0.008604786 -0.0060356245 -0.0393273 0.0035802606
0001a0 7d 0d b8 bc d1 64 57 bd 04 ce 17 bd ea fe 92 bd
       -0.02246737 -0.05258638 -0.037061706 -0.07177527
0001b0 f3 64 90 bd 65 6a a3 bc c8 ec 8a 3c e4 98 04 3b
       -0.070505045 -0.019948194 0.01695861 0.0020232731
0001c0 f7 eb c9 bc 38 ff 21 3e 2b a6 01 3e 7f a3 10 3e
       -0.02464865 0.15820014 0.12661044 0.14124869
0001d0 b7 d2 09 bd a1 1a 2c 3d a7 9b 17 3c a7 d4 2e bd
       -0.03364822 0.042017583 0.009253419 -0.04268327
0001e0 66 f1 2b be 89 3d 4d bc d7 c0 07 3e db 9a 15 3d
       -0.16791305 -0.012526878 0.13257156 0.036524635
0001f0 17 3d cc 3d 10 e2 7e 3d 44 73 a4 3d e9 48 b2 bb
       0.099725895 0.06222731 0.08029798 -0.0054408205

bn3.running_mean f4 [128]
000000 1b d4 b6 3b 30 8e 87 3b d7 a2 8b 3b 34 31 44 3f
       0.005579484 0.004136823 0.0042613554 0.7663758
000010 79 0f 6e 3e 05 fb b8 39 60 01 82 3c b2 e2 8a 3e
       0.2324809 0.0003528224 0.015869796 0.2712608
000020 41 1a 79 3d 9b f8 06 3b f4 bc 86 3c 04 00 00 00
       0.060816053 0.0020594958 0.016447522 6e-45
000030 65 8f d2 3c 8e 71 2a 39 e3 c6 4a 3d 14 40 2b 3b
       0.025703141 0.00016254766 0.04950608 0.0026130723
000040 2d 0b 95 3a 04 00 00 00 7e a3 ad 3d 43 96 3b 3b
       0.0011371128 6e-45 0.08478449 0.0028623499
000050 81 6a 92 39 a3 84 d6 38 a2 38 34 3d f9 06 e5 3a
       0.00027926642 0.00010229021 0.04399932 0.0017473391
000060 6c 70 2d 3e 5b 46 35 3f 0f 59 cc 3c 41 af 2f 3d
       0.16937417 0.7081048 0.02494481 0.042891745
000070 d5 e1 4f 3e e4 da a4 3d dc 93 ea 2b 1b 38 45 3d
       0.20300992 0.080495626 1.6667739e-12 0.04814921
000080 48 9b 11 3c 5a b2 f1 3d b2 51 f8 3c 2b 52 e7 39
       0.00888712 0.11801596 0.030312393 0.00044120973
000090 71 18 63 3e 44 37 06 3d a3 78 47 3b 52 e5 56 3e
       0.22177292 0.03276755 0.0030436895 0.20985916
0000a0 08 2f 85 3e 60 34 0e 3a 2b 96 e6 38 98 a0 84 3d
       0.26012444 0.00054246746 0.000109952256 0.06475943
0000b0 6c b3 63 39 b0 1d 85 3d 64 f5 ba 3c 55 57 44 31
       0.00021715247 0.06499803 0.02282209 2.8571396e-09
0000c0 7a 8d 5f 3e 05 47 ea 3c ba f3 e8 3b 75 5d f0 3a
       0.21831313 0.028598318 0.0071091326 0.0018338399
0000d0 8d 9e 1a 39 ba e1 9b 38 d5 36 7b 3d fb 5b 9f 39
       0.00014745649 7.433021e-05 0.06133159 0.00030395374
0000e0 24 45 62 39 ae ad fc 3d d5 8f 89 39 4e 7c 33 3e
       0.00021578796 0.12337814 0.0002623784 0.17527887
0000f0 61 19 82 3d e1 b6 af 3c cf 3c 38 3e de c3 c1 3d
       0.06352497 0.021449508 0.17991947 0.09461187
000100 67 75 b9 3d ad 1a 70 3a 11 ea 26 3e c1 18 9b 3a
       0.09055596 0.00091592484 0.16300227 0.0011832939
000110 1f 1f 29 33 85 cb 68 3b 8d 45 e8 3d d1 5c 15 3d
       3.9376683e-08 0.0035521698 0.11341391 0.03646547
000120 4c 99 cd 3c 6d 0f 80 35 bc e6 70 3d 7b f4 af 3d
       0.025097512 9.541233e-07 0.058813795 0.08591553
000130 9f 55 94 3c 2d c2 98 36 a4 1a 96 3e 22 98 76 3d
       0.018107234 4.552558e-06 0.293172 0.06020368
000140 38 94 b2 3d 97 af 16 39 8c 04 46 3a 7d b6 9b 3d
       0.08719677 0.00014370527 0.0007553778 0.07603166
000150 28 33 cf 3e 0d 2a 49 3a d8 5f d2 3a 2f fb c4 35
       0.40468717 0.00076738076 0.0016050292 1.4676242e-06
000160 04 00 00 00 98 9a 76 3e 9b 4e 8c 3e b6 99 50 3c
       6e-45 0.2408241 0.2740372 0.01273196
000170 8c 5d 83 3a 58 d4 8d 3b d1 9f 3b 3e 5a d1 a2 3e
       0.0010022386 0.004328292 0.18322684 0.31800348
000180 4f fd 47 3d e4 53 b4 3e b3 a7 42 3d 80 17 65 3e
       0.04882556 0.35220253 0.04752321 0.22372246
000190 2a 53 c6 3c cc 2a 0f 3c 3a 67 2e 3c 27 bf 26 3e
       0.024209578 0.008738231 0.010644728 0.16283856
0001a0 29 5e 93 3e 13 9a 3c 3d 30 77 ea 3d d2 97 aa 3d
       0.28782776 0.046045374 0.114485145 0.08329739
0001b0 93 87 3f 3d 8c c9 b4 3b 06 0c 12 39 12 24 b5 3e
       0.046760153 0.0055171903 0.00013928124 0.35379082
0001c0 ce 85 18 3c d3 c1 67 3b f7 4e 98 3d c3 9f c3 3a
       0.009309245 0.003536333 0.07436936 0.0014924932
0001d0 1c 10 49 3c 04 61 8a 39 82 65 af 3c 7c ea 0c 3c
       0.012271907 0.00026393693 0.021410707 0.008600827
0001e0 8c ab a9 3a 02 5b dc 39 90 f6 20 3e 4c 83 28 33
       0.0012944802 0.00042029476 0.15719056 3.9234962e-08
0001f0 a8 37 17 3d 30 28 8d 3e 77 d4 0c 3d 4c 54 4e 3e
       0.036918312 0.27569723 0.03438231 0.20149344
